logs/rl_games/humanoid_flat_direct/2025-11-18_23-36-49/nn/last_humanoid_flat_direct_ep_800_rew_230.48566.pth (torch, 759502 bytes, 33 tensors)

value_mean_std.running_mean f8 [1]
0	0x4049a1e0645917de	51.264660399916224

value_mean_std.running_var f8 [1]
0	0x4089b7ab5ef621ce	822.9586772183482

value_mean_std.count f8 []
0	0x41b2c00001000000	314572801.0

a2c_network.sigma f4 [10]
0	0xbf829bbf	-1.020378
1	0xbfdad076	-1.7094867
2	0xbf8d57c2	-1.1042407
3	0xbfb36c04	-1.4017339
4	0xbfaaf147	-1.3354882
5	0xbf4d62f4	-0.80229115
6	0xc01a2fa3	-2.4091575
7	0xbfdaaf62	-1.7084773
8	0x3d4926e3	0.04910935
9	0xbf90bfd5	-1.1308542

a2c_network.actor_mlp.0.weight f4 [256, 42]
0	0x3d780ba0	0.06055796
1	0x3e6749eb	0.22586791
2	0x3e1c4556	0.15260825
3	0xbe4cecde	-0.20012233
4	0x3d1844af	0.037174877
5	0xbcf87ce9	-0.030333
6	0x3e2b7f3f	0.1674776
7	0xbe3e7515	-0.18599351
8	0xbe4bb4e8	-0.19893229
9	0xbd7de53a	-0.061986186
10	0xbdfb13fb	-0.1225967
11	0x3dfab12e	0.122408256
12	0xbd8f80d6	-0.070069954
13	0xbda2c676	-0.0794801
14	0x3da68185	0.08130173
15	0x3c4253dc	0.011860814
16	0x3e1e9608	0.1548692
17	0xbe388a43	-0.18021493
18	0x3d198ad0	0.037485898
19	0xbdd33a5d	-0.10313866
20	0x3c813d5c	0.015776329
21	0xbe5c4ecf	-0.21514438
22	0xbe360746	-0.17776212
23	0xbe3303bb	-0.17481892
24	0x3dbd81c8	0.092532694
25	0x3e53c344	0.20679957
26	0xbe4232fe	-0.18964764
27	0xbe7888cd	-0.24270935
28	0x3e942ff3	0.28942832
29	0x3ad74b86	0.0016425706
30	0x3e299a24	0.16562706
31	0xbe6a8d23	-0.22905402
32	0xbdf1bc4e	-0.118034944
33	0xbdb33c43	-0.087517284
34	0xbdaab878	-0.08335966
35	0x3d6355a8	0.05550161
36	0x3c99d165	0.018776605
37	0x3e062c97	0.13102947
38	0xbe12a58c	-0.14320964
39	0xbdee24fb	-0.11628147
40	0x3d6cfc88	0.05785802
41	0xbd857d4c	-0.06518039
42	0x3dea1a5a	0.114308074
43	0xbdae513a	-0.085115865
44	0x3df2ca1e	0.11854957
45	0xbe885ebb	-0.26634774
46	0xbd930807	-0.071792655
47	0x3e276a57	0.16349159
48	0x3e14a825	0.14517267
49	0x3dc605ab	0.0966905
50	0x3d3b41ba	0.04571698
51	0x3d84dc27	0.06487303
52	0xbdb40e0f	-0.08791744
53	0xbd765782	-0.060142048
54	0x3e93889e	0.28815168
55	0xbd5792e5	-0.052630324
56	0xbba3a670	-0.004994206
57	0xbe53ec29	-0.20695557
58	0xbdc3d83a	-0.09562726
59	0x3d853732	0.06504668
60	0xbd8f8e95	-0.07009617
61	0xbd919aa0	-0.071095705
62	0x3e0ad1d6	0.13556609
63	0xbd981b07	-0.0742703
64	0xbdfb17df	-0.122604124
65	0xbd9cbee7	-0.07653599
66	0xbeca6791	-0.3953214
67	0xbe417a35	-0.18894275
68	0x3dcfc941	0.10145808
69	0xbcf2728b	-0.029595634
70	0xbddd8bb3	-0.10817661
71	0xbe890748	-0.26763368
72	0xbdd19719	-0.10233898
73	0xbc9ffd58	-0.019529983
74	0x3c4cc4f9	0.012498134
75	0xbdeb40c0	-0.114869595
76	0xbdaf3a90	-0.08556092
77	0xbde73cc1	-0.11290885
78	0x3c2fc951	0.01072915
79	0xbd4c9bec	-0.049953386
80	0xbc2788a6	-0.010225451
81	0xbdba3013	-0.09091201
82	0xbcbaafc4	-0.02278889
83	0xbd14f271	-0.036364023
84	0xbd43f487	-0.04784062
85	0xbe512d9f	-0.2042756
86	0x3dfbde27	0.122982316
87	0x3dda8204	0.1066933
88	0x3e56aefc	0.20965189
89	0x3e228513	0.15871076
90	0xbd96777a	-0.07347007
91	0x3e24e672	0.16103533
92	0xbd3b5daa	-0.045743622
93	0xbd92d6cc	-0.071698755
94	0xbdf1a8c8	-0.117997706
95	0xbe14d35e	-0.14533755
96	0x3e747148	0.23871338
97	0xbddc19fa	-0.10747142
98	0x3dce3315	0.10068337
99	0xbe3b3e26	-0.18285426
100	0x3e34f777	0.17672525
101	0xbdca2d5e	-0.09871934
102	0xbd8b06e6	-0.06788425
103	0x3c40a79e	0.011758713
104	0x3e1086d4	0.14113933
105	0x3e79f9cb	0.24411695
106	0x3edfcdaa	0.43711597
107	0xbdb1ccd2	-0.086816445
108	0x3e378d81	0.17925073
109	0xbebb6fb3	-0.36608657
110	0xbcffb4cf	-0.031214146
111	0xbd97cb61	-0.07411838
112	0x3e243786	0.16036806
113	0xbe12e1a9	-0.14343895
114	0x3e302db2	0.17204931
115	0x3c882ecb	0.016623875
116	0x3d799594	0.060933664
117	0xbdf6e66f	-0.120556705
118	0x3e128c56	0.14311346
119	0x3d6699d7	0.056299057
120	0x3c81b795	0.015834609
121	0xbe0e626a	-0.1390473
122	0x3dced115	0.10098473
123	0xbb3c7d75	-0.0028761302
124	0xbdc771d6	-0.09738509
125	0x3e247b94	0.16062766
126	0x3cb6b27b	0.022301903
127	0xbe433a4e	-0.1906521
128	0xbdf34fd1	-0.11880458
129	0x3b72ddf8	0.0037058573
130	0x3e032fbf	0.12811182
131	0xbdab7861	-0.0837257
132	0xbdcd4beb	-0.10024246
133	0xbde1ce75	-0.11025707
134	0xbe0603e7	-0.13087426
135	0x3d94d830	0.07267797
136	0x3dd44841	0.10365344
137	0xbe271378	-0.1631602
138	0x3e238bb2	0.15971258
139	0x3e4921c4	0.19641787
140	0x3b199703	0.0023435957
141	0xbda32dce	-0.07967721
142	0x3e27f25a	0.16401044
143	0x3e09cc06	0.13456735
144	0x3da94623	0.08265331
145	0xbdb37738	-0.087629735
146	0xbd868179	-0.06567664
147	0x3dc6dbd7	0.097099
148	0x3e09613c	0.13415998
149	0x3cb37997	0.021908564
150	0x3dcfcfe0	0.10147071
151	0x3d1cf952	0.038323708
152	0x3dcfccd3	0.10146489
153	0xbd2df420	-0.042469144
154	0x3d7064c8	0.058689862
155	0xbe04545f	-0.1292281
156	0x3c6aa36a	0.0143211875
157	0xbca05770	-0.019572943
158	0xbe1f05f1	-0.1552961
159	0xbd949645	-0.07255224
160	0x3df4639c	0.119330615
161	0x3d9b9505	0.075967826
162	0xbd1d6ef1	-0.03843588
163	0xbdc08536	-0.09400408
164	0xbdda250c	-0.106515974
165	0xbdc7c8af	-0.09755074
166	0xbd0396ea	-0.032126345
167	0x3d09f437	0.033680167
168	0x3e08b03d	0.1334848
169	0x3db9b3b6	0.0906748
170	0xbe66db97	-0.22544704
171	0xbe029a7e	-0.12754247
172	0x3d353907	0.04424384
173	0x3e1edef4	0.15514737
174	0x3dcd25c8	0.10016972
175	0xbbb271e4	-0.0054457057
176	0x3e288aae	0.16459152
177	0xbdaf6d12	-0.085657254
178	0xbd80244b	-0.06256922
179	0x3e150d38	0.14555824
180	0x3d5e486e	0.054268293
181	0x3daa49d1	0.083148606
182	0xbe12b0ff	-0.14325331
183	0x3d271668	0.040792853
184	0x3e203918	0.1564678
185	0x3d6a9396	0.057269655
186	0xbd8113df	-0.06302618
187	0xbe2ae566	-0.16689071
188	0xbd34bbf4	-0.04412456
189	0x3e5553cd	0.20832749
190	0x3ec7dfc4	0.39037907
191	0x3e963cfc	0.29343402
192	0x3e2d8996	0.16947016
193	0x3ddf98e6	0.10917835
194	0xbdb69675	-0.08915416
195	0xbe351d2f	-0.17686914
196	0xbe0fd848	-0.14047348
197	0xbea5c446	-0.32376307
198	0x3e1796a0	0.14803553
199	0xbd980684	-0.07423118
200	0x3cc29141	0.023750903
201	0xbdab8fa0	-0.08377004
202	0xbbe1ffd6	-0.006896953
203	0xbda5e42c	-0.08100161
204	0xbe013df3	-0.12621288
205	0x3b9e4378	0.0048298202
206	0xbd85299a	-0.065020755
207	0x3dd54fe7	0.10415631
208	0xbcf362bc	-0.029710166
209	0xbd7f0a9f	-0.06226599
210	0xbcf4a5d1	-0.029864224
211	0x3b5eb3ea	0.003398175
212	0xbe0a6c4f	-0.13517879
213	0xbe316d54	-0.17326862
214	0x3e450e76	0.19243798
215	0xbdbf6a6d	-0.09346471
216	0x3d92129b	0.07132455
217	0x3e5efe56	0.21776709
218	0x3e291ad9	0.16514148
219	0xbdf01464	-0.11722639
220	0x3ddd34ba	0.108010724
221	0xbda2e06b	-0.079529606
222	0x3e1ca230	0.15296245
223	0x3e3db0e9	0.18524517
224	0xbca7772d	-0.02044257
225	0xbd3932ce	-0.045214467
226	0xbd8cb69b	-0.06870767
227	0xbe78d0fc	-0.24298471
228	0x3db89c02	0.09014131
229	0xbe5d6d5b	-0.21623747
230	0x3de9fb5e	0.114248976
231	0x3e5be523	0.21474127
232	0x3e8fc5eb	0.28080687
233	0xbca94a9c	-0.02066546
234	0xbdf614be	-0.12015675
235	0x3e036e7a	0.12835112
236	0xbc1779cc	-0.009245347
237	0xbe277c28	-0.16355956
238	0x3e0aecec	0.13566941
239	0xbe5ef4cb	-0.21773069
240	0x3d90cb3e	0.07070015
241	0xbdcceed1	-0.10006488
242	0xbd82b3e7	-0.0638197
243	0xbd9efc59	-0.07762975
244	0xbe27691e	-0.16348693
245	0x3e39a1cb	0.18128125
246	0x3e16b698	0.14718091
247	0x3cc21a3a	0.023694146
248	0x3b86e235	0.0041163214
249	0xbd5d0e73	-0.053968858
250	0xbe0c3bfc	-0.13694757
251	0xbda576dc	-0.08079311
252	0x3d9aec18	0.075645626
253	0xbcfeea7b	-0.031117668
254	0xbdf836f0	-0.121198535
255	0x3d33cda6	0.043897294

a2c_network.actor_mlp.0.bias f4 [256]
0	0xba9b1a07	-0.0011833318
1	0x3d258421	0.04040921
2	0x3c8535cb	0.016261002
3	0xbc011782	-0.00787914
4	0x3cdc3538	0.026880845
5	0xbb2d2d28	-0.002642462
6	0x3c92eb7d	0.017934555
7	0x3caeb066	0.021324348
8	0x3b798220	0.0038071945
9	0x3caa5c14	0.02079586
10	0xbc06cdbe	-0.008227764
11	0xbc06ab9c	-0.008219626
12	0x3c15e8a0	0.0091497
13	0x3c455c67	0.012045956
14	0x3cb2d091	0.021827968
15	0x3b373cc7	0.002795981
16	0x3c6af71e	0.014341144
17	0x3ce1f566	0.027582835
18	0x3a06d2a5	0.0005143083
19	0xb982b5ee	-0.0002493108
20	0xbcb4cbde	-0.022069868
21	0xbba796c9	-0.0051144105
22	0x3b8dffcf	0.0043334733
23	0x3c002161	0.007820458
24	0xbc7e6939	-0.015528017
25	0x3ce5d075	0.028053502
26	0xbcdb2087	-0.026748909
27	0x3bb85dd2	0.0056264186
28	0x3d4c0f69	0.049819384
29	0xbc2722e3	-0.010201189
30	0x3c998bc3	0.018743401
31	0xb9f1430c	-0.00046017056
32	0x3cc433f1	0.023950549
33	0xbc83b07d	-0.016075367
34	0xbbd351ff	-0.0064489837
35	0xbca1d46f	-0.019754617
36	0x3c5fe93b	0.013666446
37	0x3af24d77	0.0018486221
38	0xbc4782f7	-0.012177221
39	0x3c976770	0.01848194
40	0x39b7eb55	0.00035079816
41	0x3cadbde5	0.021208713
42	0x3c801256	0.015633743
43	0xbc5fee68	-0.01366768
44	0xbca843d6	-0.02054016
45	0x3c522c1e	0.012827901
46	0x3c77b07c	0.015117761
47	0x3cbc63f2	0.022996876
48	0x3bd3ed2a	0.006467481
49	0xbcf8b59e	-0.03036004
50	0x3c08fcbe	0.00836104
51	0x3cb49b2b	0.022046646
52	0xbca80c81	-0.020513775
53	0xb889c571	-6.5694454e-05
54	0x3bae80c6	0.0053254096
55	0xbd0448cf	-0.032296
56	0x3cbdc4e6	0.023165178
57	0x3c529014	0.012851734
58	0xbce135c0	-0.02749145
59	0x3d087cb1	0.03332204
60	0xbc923422	-0.017847124
61	0x3b3de77b	0.0028977084
62	0x3c72c0d6	0.0148164835
63	0x3cd45973	0.025921559
64	0xbb944942	-0.0045253346
65	0x3d395218	0.045244306
66	0xbbdf6e29	-0.006818552
67	0x3c81f686	0.015864622
68	0xbc3aa808	-0.011392601
69	0x3ca09450	0.01960197
70	0xbc6aee7b	-0.014339085
71	0xbbf386ed	-0.007431856
72	0xbbdda537	-0.00676408
73	0x3d23ca88	0.03998807
74	0x3b6bf9c8	0.0036007036
75	0xbca1f6a1	-0.019770922
76	0xbcb72709	-0.02235748
77	0xbc03f248	-0.00805337
78	0xbd01c3d9	-0.031680916
79	0x3cd5b7c3	0.026088601
80	0x3cc5eaff	0.024159906
81	0xbb81b8f0	-0.003958814
82	0x3b5eafed	0.0033979372
83	0xbcc23939	-0.023708927
84	0x3d25f7aa	0.040519394
85	0xbc2ab56c	-0.010419231
86	0xbcaf592a	-0.021404821
87	0xbb5caf45	-0.0033673805
88	0x3c9bbf7a	0.019012202
89	0xbca15ec3	-0.019698506
90	0x3ca1b41a	0.0197392
91	0x3c827f5e	0.015929874
92	0x3c834d67	0.01602812
93	0xbc5e61ab	-0.013573091
94	0x3c679fe8	0.014137246
95	0xbc16ff47	-0.009216136
96	0x3c3c6bf1	0.011500345
97	0x3cd30e23	0.025763577
98	0xbcfedeb0	-0.031112045
99	0xbbcb0a2e	-0.006196282
100	0x3c921e0d	0.017836595
101	0xbb77804a	-0.0037765675
102	0x390cb685	0.00013419434
103	0x3cb1a4ad	0.021684969
104	0x3d28dbe0	0.041225314
105	0x3cb8efd3	0.022575295
106	0xbbc5037f	-0.0060123797
107	0xbc42bea9	-0.011886277
108	0xbcb34304	-0.021882541
109	0xbccb3784	-0.024806745
110	0x3c55a186	0.0130389985
111	0x3d06f4af	0.032948192
112	0xbd226bfc	-0.039653763
113	0xbd0cc13b	-0.034363966
114	0xbb3c9e23	-0.002878078
115	0xbb3055c9	-0.00269066
116	0xbb921723	-0.0044583245
117	0x3b66b377	0.0035202184
118	0x3c646ac1	0.013941468
119	0x3adeae78	0.0016989252
120	0xbbe32496	-0.0069318516
121	0xbc891d8d	-0.016737724
122	0x3c5b15df	0.013371914
123	0x3c8bd910	0.017071277
124	0x3bc58d17	0.006028782
125	0x3c479e8e	0.0121837985
126	0xbb7ea277	-0.003885416
127	0xbc96d5c3	-0.018412476
128	0xbce42070	-0.027847499
129	0xbc93c685	-0.018038997
130	0xbc742bb3	-0.014902997
131	0x3caa5ed7	0.020797176
132	0xbca4588d	-0.020061756
133	0xbb876537	-0.004131939
134	0x3c840ae0	0.016118467
135	0x3cb21638	0.02173911
136	0x3c03ecb8	0.008052044
137	0xbd03d407	-0.032184627
138	0x3c015042	0.00789267
139	0xbc27b80e	-0.010236753
140	0x3c835913	0.016033685
141	0x3d0387f0	0.032112062
142	0xbb2a45bb	-0.0025981504
143	0xbc9f1e17	-0.019423528
144	0x3c3f8c06	0.011691099
145	0xbce4efab	-0.027946314
146	0x3cd6c0b3	0.026214933
147	0xbb6e51ee	-0.0036364752
148	0x3c74f99c	0.01495209
149	0xbc85dc65	-0.016340444
150	0x3d15acf4	0.036541894
151	0x3ad00298	0.0015869914
152	0x3c3a2db1	0.011363433
153	0x3c2000a3	0.009765777
154	0x3a81abf9	0.0009893171
155	0xbb7aebb7	-0.003828747
156	0xbc12748a	-0.008938918
157	0xbc5da0d7	-0.013527117
158	0x3d0e6d01	0.034771923
159	0x3bee28a9	0.0072680307
160	0xbaa322e2	-0.0012446309
161	0x3d3a3240	0.04545808
162	0xbc801db4	-0.015639164
163	0xbc3598ed	-0.011083824
164	0xbb36fac6	-0.0027920469
165	0x3d0925f8	0.033483475
166	0x3c984f44	0.018592484
167	0xbc863808	-0.01638414
168	0x3d11f259	0.03563151
169	0x3d17321d	0.036913026
170	0xbc4f6bbf	-0.012659966
171	0xbb4cd801	-0.0031256678
172	0xbb5e5d65	-0.003393018
173	0xbc4cd27d	-0.012501356
174	0x3c9046d2	0.017611895
175	0x3cb2cbf4	0.021825768
176	0x3c921ff8	0.01783751
177	0xbd28a132	-0.041169353
178	0x3cb9271d	0.022601658
179	0x3d0ef002	0.034896858
180	0x3cab5dbe	0.020918723
181	0x3b6f0d43	0.003647641
182	0xbc25debf	-0.010123908
183	0xbc036a48	-0.008020945
184	0x3d0cd850	0.03438598
185	0xbbbcf1a4	-0.0057661105
186	0xbb770485	-0.0037691903
187	0x3c92312b	0.01784571
188	0xbb7f743a	-0.0038979189
189	0x3d690a38	0.05689451
190	0x3becd7c5	0.00722787
191	0x3d33bc1d	0.04388057
192	0xbc3fae6c	-0.0116993
193	0x3be79d88	0.0070683397
194	0x3d16238b	0.03665499
195	0xbc0a1c61	-0.008429618
196	0xbcd42ddb	-0.025900772
197	0xba532c36	-0.0008055599
198	0x3cb31522	0.021860663
199	0x3be7a420	0.007069126
200	0x3b8dfdaf	0.00433322
201	0xbc505838	-0.0127163455
202	0x3ca82666	0.020526122
203	0xbcd1bb26	-0.025601935
204	0x3bab5423	0.0052285357
205	0xbd0f00aa	-0.034912743
206	0x3cb4c6a4	0.022067375
207	0xbcc8e5d4	-0.024523653
208	0x3c0c36f6	0.008558026
209	0x3c253154	0.0100825615
210	0x3c55280a	0.013010034
211	0x3cc597e0	0.024120271
212	0xbbfda2b8	-0.007740345
213	0x3b4e6aa2	0.0031496664
214	0x3ca6e099	0.020370768
215	0xbbc36ec1	-0.0059641306
216	0x3bb8d647	0.005640778
217	0x3c629790	0.013830081
218	0xbb2cb314	-0.0026351856
219	0x3c70f6b3	0.014707255
220	0x3ca0de29	0.019637184
221	0x3c83784e	0.016048577
222	0xb987de63	-0.00025914898
223	0x3cfc102f	0.030769436
224	0x3c0bd4db	0.008534635
225	0xbd1b9df0	-0.037992418
226	0xbbbd8686	-0.0057838587
227	0x3c56f7bc	0.013120588
228	0x3c4fa5ac	0.012673777
229	0x3d10c1b5	0.035340983
230	0x3ceea8c3	0.029133206
231	0xbc35797d	-0.011076328
232	0xbaf3e387	-0.0018607237
233	0xbd50f4e7	-0.051014807
234	0x3ceeb5ff	0.029139517
235	0x3d35755c	0.044301376
236	0x3b7c763b	0.003852262
237	0xba907101	-0.0011020006
238	0xbc92206a	-0.017837722
239	0x3b94033b	0.0045169867
240	0x3be2f0d8	0.0069256835
241	0x3b62c068	0.0034599546
242	0x3ca87fe4	0.020568796
243	0x3cc07aef	0.02349612
244	0x3d0d2874	0.034462407
245	0x3d08f860	0.033439994
246	0x3d185cf4	0.037198022
247	0xbca1237f	-0.019670246
248	0x3c848a8c	0.016179346
249	0xbcccae11	-0.024985345
250	0xbcdef6a2	-0.027217213
251	0xbb9bb8fd	-0.004752277
252	0x3c8fce18	0.017554328
253	0xbc42b59e	-0.011884121
254	0x3c999969	0.01874991
255	0xbc00e699	-0.007867479

a2c_network.actor_mlp.2.weight f4 [128, 256]
0	0x3d89ff9b	0.06738206
1	0x3dbff92f	0.093737
2	0x3b666e0a	0.0035160803
3	0xbd0f1fc2	-0.034942396
4	0x3d964ca4	0.07338837
5	0x3d8b290f	0.06794941
6	0x3d723467	0.059132006
7	0x3e03e656	0.12880835
8	0x3d90f1ee	0.070773944
9	0xbd24d01d	-0.040237535
10	0xbddeb0a5	-0.10873536
11	0x3e0ce09e	0.1375756
12	0xbd7c3d33	-0.0615818
13	0x3d51b1a2	0.051194794
14	0xbd93089c	-0.071793765
15	0xb9c14c9a	-0.000368689
16	0x3c92e996	0.017933648
17	0xbd471b78	-0.04861018
18	0x3d39b8a9	0.04534212
19	0xbd99968a	-0.07499416
20	0x3c80dc86	0.015730154
21	0xbcf3b0cd	-0.029747391
22	0xbbc41d13	-0.005984911
23	0xbd994368	-0.0748356
24	0x3bd7981d	0.0065794126
25	0x3cc86f4e	0.024467137
26	0x3a77ff4b	0.0009460344
27	0x3d867a01	0.06566239
28	0xbde61284	-0.11234
29	0xbcb29b3c	-0.021802537
30	0x3b2a2812	0.0025963825
31	0xbd7a69be	-0.061136
32	0x3ccccbd0	0.02499953
33	0xbde0989f	-0.1096661
34	0xbce4559b	-0.027872851
35	0xbdbf4b0b	-0.09340485
36	0x3ce01fae	0.027358856
37	0xbdc19083	-0.094513915
38	0x3d4614a7	0.04835954
39	0x3c90717a	0.017632235
40	0xbdfebd06	-0.12438397
41	0x3d95c71e	0.07313369
42	0xbc57f319	-0.013180518
43	0xbd074b56	-0.03303083
44	0x3d62a5a4	0.05533375
45	0xbd0039ab	-0.031304996
46	0x3d56a5ca	0.052404203
47	0x3d0e79b6	0.03478404
48	0xbc554af6	-0.01301836
49	0x3bb16cf7	0.005414601
50	0x3d78fd8e	0.060788684
51	0xbd9f62ba	-0.077825025
52	0x3da16989	0.07881457
53	0x3dcbd8e2	0.099534765
54	0xbc77dc2c	-0.015128177
55	0x3bea5127	0.0071507874
56	0xbde4bbf8	-0.11168665
57	0x3cf07737	0.029353721
58	0x3cef36fc	0.029201023
59	0x3cf327fe	0.029682156
60	0x3e1e3fcc	0.15454024
61	0x3c0154fe	0.007893799
62	0x3cdb6de2	0.026785795
63	0x3da91402	0.08255769
64	0x3d9a08d0	0.07521212
65	0xbaee5103	-0.0018182102
66	0xbd42598f	-0.04744869
67	0xbdb435a7	-0.08799296
68	0x3cd84559	0.026400255
69	0x3d1b3168	0.037888914
70	0xbd4073ff	-0.046985622
71	0x3d6b93fe	0.057514183
72	0xbd1abbbe	-0.0377767
73	0x3cf2d5c3	0.029642945
74	0x3c915c57	0.017744226
75	0xbe19b946	-0.15012082
76	0xbd4d14f4	-0.05006881
77	0xbd26a06f	-0.040680345
78	0xbd56a790	-0.052405894
79	0x3d95ef6d	0.073210575
80	0xbddf0a07	-0.108905844
81	0x3db92e11	0.090419896
82	0x3ceae1a3	0.028672045
83	0xbd8027ea	-0.06257613
84	0x3d035f93	0.03207357
85	0x3cbe0c8b	0.02319934
86	0xbcf2547d	-0.029581303
87	0xbdb96002	-0.09051515
88	0x3d8cb47c	0.06870362
89	0xbd8d8bb9	-0.069114156
90	0x3e4f34ea	0.20235029
91	0xbca41140	-0.020027757
92	0xbb8dc437	-0.004326369
93	0xbd8ab4cb	-0.06772765
94	0xbd0ca873	-0.034340333
95	0xbe203400	-0.15644836
96	0xbd2a94f7	-0.04164597
97	0xbc95280d	-0.018207574
98	0x3d3a562d	0.04549234
99	0xbcc9c486	-0.024629842
100	0x3da9e838	0.08296245
101	0xbdcd239a	-0.10016556
102	0xbdb0f4c3	-0.086404346
103	0xbdcc3c65	-0.09972457
104	0x3b7ac96f	0.0038267036
105	0x3dbcc443	0.092171215
106	0xbd2c3c5f	-0.04204976
107	0x3b1b624f	0.002370972
108	0xbb8e160d	-0.0043361248
109	0xba86caf5	-0.0010283875
110	0xbd94ce7c	-0.07265946
111	0xbd03f4ec	-0.032215998
112	0x3da519e1	0.08061577
113	0xbc89db0b	-0.01682808
114	0x3d64008d	0.055664588
115	0xbce00360	-0.02734536
116	0xbe163bb6	-0.14671215
117	0x3b2b8375	0.0026170884
118	0xbc3ce7b6	-0.011529854
119	0x3dbd781f	0.09251427
120	0xbdc23efc	-0.094846696
121	0x3bf90a2d	0.00760009
122	0xbcaa9680	-0.020823717
123	0x3da6c857	0.081436805
124	0x3c505e08	0.012717731
125	0x3e02eef0	0.1278646
126	0x3d959428	0.07303649
127	0x3ba5e28f	0.0050624083
128	0xbe02be44	-0.12767893
129	0x3d253ba2	0.040340073
130	0xbbc2701a	-0.0059337737
131	0xbc4a1440	-0.01233393
132	0x3d2283f4	0.03967662
133	0xbcbb7be3	-0.022886222
134	0xbc22e1dc	-0.009941544
135	0x3b9f7a6b	0.0048668883
136	0x3d2de5d7	0.04245552
137	0x3dc27a95	0.09496037
138	0xbba84bdd	-0.0051359967
139	0xbbdc75ab	-0.0067278943
140	0xbd059837	-0.032615867
141	0xbdedacb1	-0.11605204
142	0x3d519d9b	0.051175695
143	0xbd902dc8	-0.07039982
144	0x3d7e5ce1	0.062100295
145	0x3c010017	0.007873557
146	0x3d916fd6	0.07101409
147	0xbd73ef2b	-0.05955426
148	0xbd785688	-0.060629398
149	0xbd0c2381	-0.034213547
150	0x3c4e10f1	0.012577281
151	0xbc08173f	-0.008306324
152	0x3d9737e7	0.073837094
153	0x3e04f31e	0.12983367
154	0xbdf96bcc	-0.12178764
155	0xbc844d2e	-0.016150083
156	0xbcc5ee37	-0.024161441
157	0xbcb5c2ff	-0.022187708
158	0xbd345e21	-0.04403508
159	0xbd541084	-0.051773563
160	0xbd3f1a47	-0.04665592
161	0x3cbcd062	0.023048583
162	0xbc4ad34d	-0.01237948
163	0xbd4aa1e6	-0.049470805
164	0xbb99c2d0	-0.004692413
165	0xbd2adcf8	-0.04171464
166	0x3e4a5ef8	0.1976279
167	0xbdc83287	-0.09775262
168	0x3ca05cb6	0.019575458
169	0xbc4a274c	-0.012338471
170	0xbca10edc	-0.019660406
171	0x3dd3001f	0.103027575
172	0x3c2d5bc6	0.0105809625
173	0xbd9b8fc6	-0.07595782
174	0xbda305e5	-0.07960109
175	0xbdaba092	-0.08380236
176	0xba890f92	-0.0010456911
177	0x3cb97cc4	0.0226425
178	0x3de364b4	0.11103192
179	0xbd374cea	-0.044751085
180	0x3cd18897	0.025577826
181	0xbe13fd1d	-0.14452024
182	0xbcb4c99b	-0.02206879
183	0xb8f2d975	-0.00011579964
184	0xbb6f6074	-0.0036525996
185	0xbd6c8dca	-0.057752408
186	0xbc90d55d	-0.017679865
187	0x3db6646a	0.08905871
188	0x3b816c0e	0.0039496487
189	0x3d441ce2	0.047879107
190	0xbe06dccc	-0.13170165
191	0xbd0b2ceb	-0.033978384
192	0xbdee9545	-0.11649565
193	0x3cadc207	0.021210684
194	0xbdfc9b60	-0.12334323
195	0x3e61da92	0.22056034
196	0xbcbac540	-0.022799134
197	0x3cd5f43e	0.02611744
198	0x3d410f78	0.047133893
199	0x3cc6da43	0.024273997
200	0x3db453b0	0.088050246
201	0xbd7a3091	-0.061081473
202	0xbdb94dc5	-0.090480365
203	0x3c56b3f4	0.013104428
204	0x3d1a7b39	0.03771517
205	0x3da8ebdd	0.08248112
206	0x3ca2a1de	0.019852575
207	0xbd8d8fc6	-0.06912188
208	0xbccb5014	-0.024818458
209	0xbce741db	-0.028229645
210	0x3cfe0f4f	0.03101316
211	0x3b886622	0.004162566
212	0xb97637c0	-0.00023481157
213	0xbd868574	-0.06568423
214	0x3d35ccdd	0.044384826
215	0xbda1d6e7	-0.079023175
216	0xbdf3ce5d	-0.11904595
217	0x3e302d59	0.17204799
218	0xbce460d4	-0.027878202
219	0x3e2ee515	0.17079575
220	0x3da65032	0.08120765
221	0xbd358b3e	-0.044322245
222	0x3db99fc5	0.09063677
223	0x3c1e4111	0.009659068
224	0x3d896738	0.067091405
225	0x3d8a5fe5	0.06756572
226	0xbcd074a9	-0.025446253
227	0x3cafc098	0.02145414
228	0x3d85fab1	0.06541956
229	0xbd73e5f2	-0.059545465
230	0x3d37689e	0.044777505
231	0x3dea04fc	0.11426732
232	0x3d1015c6	0.035177015
233	0xbbc8e0aa	-0.0061302977
234	0xbd08efb1	-0.033431713
235	0x3d1e1961	0.038598422
236	0x3db4bdb9	0.08825249
237	0xbd6c8a7b	-0.057749253
238	0xbd8a6335	-0.067572035
239	0x3c6af19b	0.01433983
240	0xbdccad36	-0.09993975
241	0xbcda961a	-0.026682902
242	0x3d20ad0d	0.039227534
243	0x3dd54e95	0.10415379
244	0xbd27984c	-0.040916726
245	0x3ddce454	0.10785738
246	0xbd6d4f50	-0.057936966
247	0x3da4d47e	0.08048342
248	0x3cb06149	0.021530764
249	0xbe08ca7d	-0.13358493
250	0x3d25ec6d	0.040508676
251	0x3dc65ee6	0.09686069
252	0x3d1a17bd	0.037620295
253	0x3dcee76f	0.10102736
254	0xbd23da6c	-0.040003225
255	0x3d148c8d	0.036266852

a2c_network.actor_mlp.2.bias f4 [128]
0	0x3b46da3a	0.0030342476
1	0x3cc07250	0.023492008
2	0xbd05004f	-0.032470997
3	0xbd35e62f	-0.044408973
4	0x3b2065dd	0.0024474778
5	0xbd488eba	-0.04896424
6	0xbc0e2394	-0.008675475
7	0xbcafda2c	-0.021466337
8	0xbd28f010	-0.041244566
9	0xbd36458c	-0.04449992
10	0xbc9cf4ae	-0.019159641
11	0x3c8f5be0	0.017499864
12	0xbc04f30a	-0.008114586
13	0xbcd0bc14	-0.025480308
14	0x3c6495d1	0.013951735
15	0xbc9fc3a8	-0.019502476
16	0xbc4bafca	-0.012432048
17	0xbca8a63e	-0.020587083
18	0xbc2501e3	-0.010071251
19	0x3c514366	0.012772417
20	0x3cd64ff8	0.026161179
21	0xbd3efdb5	-0.046628673
22	0x3b7b319c	0.003832913
23	0x3d220213	0.03955276
24	0xbd1dc38b	-0.038516562
25	0xbc33fcfa	-0.010985607
26	0xbcb7fd77	-0.022459729
27	0x3cc4a644	0.024005063
28	0xb85f079c	-5.317443e-05
29	0x3c56c096	0.0131074395
30	0xbc001949	-0.007818528
31	0x3c105bb8	0.00881093
32	0xbd5e60ee	-0.054291658
33	0x3c69529e	0.014240889
34	0xbd520a2b	-0.05127923
35	0xbc803091	-0.015648158
36	0xbc504abf	-0.012713133
37	0x3c28f29f	0.010311752
38	0x3bc63406	0.006048682
39	0xbcb2f5a2	-0.021845642
40	0x3c02923e	0.007969437
41	0x3c1a0f0f	0.009403004
42	0x3ca9f41f	0.020746289
43	0xbc17e6ee	-0.0092713665
44	0x3c90f043	0.01769269
45	0xbb95d29a	-0.004572225
46	0xbaa37d01	-0.0012473167
47	0xbd054d7e	-0.032544605
48	0xbcefc288	-0.029267564
49	0x3c95a475	0.018266896
50	0xbae6a856	-0.0017597775
51	0xbb28dde2	-0.0025767018
52	0x3ab40126	0.0013733252
53	0xbd822217	-0.06354158
54	0xbd2fcb7a	-0.04291866
55	0xbb947949	-0.00453106
56	0xbb18ab32	-0.00232954
57	0xbc98a632	-0.018633936
58	0xbc6739a1	-0.014112861
59	0x3c865e14	0.016402282
60	0xbd73fbb8	-0.05956623
61	0x3ca55ec4	0.02018679
62	0xbb3eff2d	-0.0029143796
63	0xbd238215	-0.039918978
64	0xbaa6d898	-0.0012729345
65	0xbd30d5c8	-0.043172628
66	0x3c0ec2c4	0.008713428
67	0xbb843049	-0.0040340764
68	0x3c658dc9	0.014010855
69	0xbc7cfb3e	-0.01544076
70	0xbd707485	-0.05870487
71	0xbcf03d0c	-0.029325984
72	0xbcc3516e	-0.02384254
73	0x3b0795ad	0.002068858
74	0xbb86bce6	-0.004111874
75	0x3cb8343a	0.022485841
76	0xbcd63fe9	-0.026153522
77	0x3c62e13c	0.013847645
78	0xbd0f7877	-0.035026994
79	0x3bb8f46a	0.005644371
80	0x3c6f59f0	0.014608845
81	0x3cdb267e	0.026751753
82	0x3c297d97	0.010344884
83	0x3bbcf3dd	0.0057663755
84	0x3c3397ae	0.010961456
85	0xbb6166fd	-0.0034393661
86	0x3c8e788b	0.017391464
87	0xbb874323	-0.0041278764
88	0x3c54dad3	0.012991625
89	0xbc2c4701	-0.0105149755
90	0x3c9511d6	0.018196981
91	0x3c17bf71	0.009261952
92	0xbb956d12	-0.0045601213
93	0xb908c31e	-0.00013042658
94	0x3c2dc11e	0.010605125
95	0xbb9022a8	-0.0043986626
96	0xbbc85b78	-0.0061144195
97	0xbc4e4426	-0.01258949
98	0xbd43375b	-0.047660213
99	0x3c43cbc0	0.011950433
100	0xbce4e6ee	-0.027942147
101	0xbd135c87	-0.035976913
102	0x3d07897d	0.033090103
103	0x3b2d7791	0.0026468972
104	0xbc98755d	-0.01861065
105	0xbb34d2d9	-0.0027591495
106	0xbd24aea2	-0.040205605
107	0xbd4c306b	-0.049850862
108	0xbb516e2b	-0.0031956534
109	0xbc949b82	-0.018140558
110	0x3c0244b8	0.007950954
111	0x3bcc6d3b	0.006238607
112	0xbcebef00	-0.028800488
113	0xbabae41c	-0.0014258656
114	0x3ac93be5	0.0015352933
115	0x3c7e61c3	0.015526238
116	0x3b8a6051	0.0042229076
117	0xbb245a4a	-0.002507823
118	0xbc658d5f	-0.014010756
119	0xbd053905	-0.03252508
120	0xbc17b716	-0.00925996
121	0xbda09cda	-0.07842417
122	0xbd278669	-0.040899668
123	0xbae85312	-0.0017724952
124	0x3c053b3d	0.008131799
125	0x3d1b45d0	0.037908375
126	0x3cbc45ae	0.022982445
127	0x3c5de586	0.013543492

a2c_network.actor_mlp.4.weight f4 [128, 128]
0	0x3e2054ed	0.15657397
1	0xbddd391f	-0.108019106
2	0x3d1e367f	0.03862619
3	0xbd64cade	-0.05585753
4	0xbd51802a	-0.051147617
5	0x3d95930a	0.07303436
6	0xbbde1148	-0.0067769624
7	0xbe1db4d7	-0.15401016
8	0x3dcefe42	0.101070896
9	0xbd9ccc63	-0.07656171
10	0x3e14b0b7	0.14520536
11	0xbd0d2503	-0.034459125
12	0x3df5b51f	0.11997437
13	0xbd0e8002	-0.034790047
14	0x3de19303	0.110143684
15	0xbd0b07a4	-0.033942834
16	0x3d854240	0.06506777
17	0x3e3b5b01	0.18296434
18	0x3dc45fff	0.09588622
19	0xbdcc7033	-0.09982338
20	0xbd99982a	-0.07499726
21	0x3e54fafe	0.20798871
22	0xbd25e56c	-0.040501997
23	0xbdd697ef	-0.10478198
24	0x3c96e84d	0.018421317
25	0xbe5abbfa	-0.2136077
26	0xbd8d1c1d	-0.06890128
27	0x3dee2368	0.11627847
28	0xbcdca2fa	-0.026933182
29	0xbd81e137	-0.063417844
30	0x3ad8a227	0.0016527817
31	0xbe146cec	-0.14494675
32	0x3d826c1a	0.06368275
33	0xbd838a40	-0.064228535
34	0x3de569dd	0.112018324
35	0x3d3bcf3d	0.045851935
36	0x3e01e248	0.12683976
37	0x3d81d052	0.06338562
38	0xbcf52ae9	-0.029927688
39	0x3d9776bc	0.07395694
40	0xbe0ba82d	-0.13638373
41	0x3de7c8cc	0.11317596
42	0xbdbb0d6a	-0.09133418
43	0x3de55bef	0.111991756
44	0xbd8f3e35	-0.06994287
45	0x3c33db5c	0.010977592
46	0x3db855d1	0.09000743
47	0xbd9081ed	-0.070560314
48	0x3dbb0d7a	0.0913343
49	0xbdee4f7b	-0.116362534
50	0x3d2419d9	0.040063713
51	0xbe50e711	-0.20400645
52	0x3d9db9bb	0.07701441
53	0xbd42f58a	-0.047597446
54	0x3e39a47d	0.18129154
55	0xbe4b33c1	-0.19843961
56	0xbd96ac76	-0.07357113
57	0x3d8d5926	0.06901769
58	0xbdc2edc4	-0.095180064
59	0xbd93ddee	-0.07220064
60	0x3d8cf5af	0.06882798
61	0xbd88e73b	-0.06684729
62	0x3d3798b3	0.04482336
63	0x3d5f444f	0.054508504
64	0x3c17c147	0.0092623895
65	0x3e0a6c91	0.13517977
66	0xbdc62815	-0.09675614
67	0xbcbf00e0	-0.023315847
68	0xbe1d0cb0	-0.15336871
69	0xbde5f63b	-0.11228605
70	0x3e2f768a	0.17135063
71	0xbe933ecb	-0.28758845
72	0x3d36b431	0.044605438
73	0xbd33518b	-0.043778937
74	0xbe2cce8b	-0.16875665
75	0xbd21c6cd	-0.03949623
76	0x3bf2c2df	0.0074084844
77	0xbdeb594f	-0.11491644
78	0x3e383b75	0.17991431
79	0xbdb39c83	-0.087700866
80	0x3cd9887a	0.026554335
81	0xbd8d7d90	-0.06908715
82	0x3d9cf0b0	0.07663095
83	0x3c9e4d83	0.01932407
84	0x3b61fcf2	0.0034483043
85	0x3d0cf3e6	0.034412287
86	0xbd13b2b3	-0.036059093
87	0xbdc9db23	-0.0985625
88	0xbd6ceca0	-0.05784285
89	0xbdb55642	-0.08854343
90	0x3d5e50b8	0.0542762
91	0xbe5c5ee5	-0.21520574
92	0xbc07bcae	-0.008284731
93	0x3afad148	0.0019135857
94	0x3deef595	0.11667935
95	0x3d2bd0f8	0.041947335
96	0xbddf42f2	-0.10901441
97	0x3e25d36c	0.16193932
98	0x3e138119	0.14404716
99	0xbdf7f29e	-0.121068224
100	0x3d0111ca	0.031511106
101	0xbdc75230	-0.09732473
102	0x3d14c75e	0.036322944
103	0x3e9219de	0.2853536
104	0x3d3b71ba	0.045762755
105	0xbe2d1225	-0.16901453
106	0x3de7b64a	0.11314066
107	0x3d70c42b	0.05878083
108	0x3d1632a4	0.03666939
109	0x3e5b941c	0.21443218
110	0xbd585f64	-0.052825347
111	0xbe8325d7	-0.25614807
112	0x3ce0526d	0.027383054
113	0xbc9d9553	-0.019236242
114	0xbe502fc6	-0.20330724
115	0x3e125eb5	0.1429394
116	0x3cff7265	0.031182477
117	0x3d836166	0.06415062
118	0x3cd0887c	0.025455706
119	0x3cbad56f	0.022806851
120	0x3db72448	0.08942467
121	0x3c134040	0.008987486
122	0x3d0f3991	0.03496701
123	0xbcf98de8	-0.030463174
124	0xbc9104db	-0.01770251
125	0x3d30e8b3	0.04319067
126	0x3c5bc314	0.0134132095
127	0x3d8c825e	0.06860803
128	0x3bd16e82	0.0063913474
129	0xbb884abf	-0.004159301
130	0xbe23d5f7	-0.1599959
131	0x3d5618fa	0.052269913
132	0x3e0dcb56	0.13847098
133	0xbd5496a2	-0.051901467
134	0x3e192015	0.14953645
135	0xbdb788fc	-0.089616746
136	0x3c5e530c	0.013569605
137	0x3d20b9cd	0.039239693
138	0xbb852cb1	-0.0040641655
139	0x3cc8d710	0.024516612
140	0x3db4894c	0.0881525
141	0xbddfa3da	-0.10919924
142	0xbb942d11	-0.004521974
143	0xbd4303a4	-0.047610894
144	0x3cc68407	0.024232877
145	0xbd0dfe52	-0.034666367
146	0xbda4426f	-0.08020484
147	0xbd3d9985	-0.046288986
148	0x3e08a174	0.1334284
149	0xbda9c7cf	-0.082900636
150	0xbe1f5371	-0.15559174
151	0x3d9c7b28	0.07640678
152	0xbcf261ec	-0.029587708
153	0xbe05fb02	-0.13084033
154	0xbd782f62	-0.060592063
155	0x3d23a918	0.039956182
156	0x3d9c86a2	0.07642867
157	0x3ddc1ee2	0.10748078
158	0xbc4c7dda	-0.012481177
159	0xbd0b0256	-0.033937775
160	0xbd0a0215	-0.03369339
161	0x3d778361	0.060428027
162	0x3d7c722b	0.061632317
163	0xbddaa381	-0.10675717
164	0x3df51025	0.1196597
165	0xbd6897f5	-0.056785543
166	0x3d3849f1	0.04499239
167	0x3c775c31	0.015097664
168	0xbcff8dbf	-0.03119552
169	0xbd1a77de	-0.03771197
170	0x3d919d90	0.07110131
171	0xbe6b44c8	-0.22975457
172	0xbd5206ee	-0.05127614
173	0x3bcbd795	0.0062207677
174	0x3d94ceaf	0.07265984
175	0xbe0063f5	-0.1253813
176	0x3d836103	0.06414988
177	0x3dcf344a	0.10117395
178	0x3bdfd4ec	0.006830802
179	0xbe3a6cd5	-0.18205579
180	0x3d8438dd	0.06456158
181	0x3d52b4a1	0.051441792
182	0x3b6fd5f3	0.003659603
183	0xbc892b63	-0.016744321
184	0xbdd40662	-0.1035278
185	0xbcd20e5c	-0.025641613
186	0x3e2129ee	0.15738651
187	0x3e4d85dd	0.20070596
188	0xbd67c44a	-0.05658368
189	0xbc874620	-0.01651293
190	0x3d35adc8	0.044355184
191	0xbd292fdb	-0.041305404
192	0xbdb490d4	-0.08816686
193	0xbcb09fe6	-0.02156062
194	0x3e315426	0.17317256
195	0x3d228af9	0.039683316
196	0xbd82d329	-0.06387932
197	0xbddc9c57	-0.10772007
198	0x3cec8318	0.028871104
199	0xbe13e94d	-0.14444466
200	0x3d23cea5	0.039991993
201	0xbd3e3628	-0.046438366
202	0x3d11cee6	0.035597704
203	0x3e58b0a1	0.21161129
204	0xbb8ce489	-0.0042997045
205	0x3dcbf448	0.09958702
206	0xbe366687	-0.17812549
207	0x3ddc902e	0.107696876
208	0xbd9785e2	-0.07398583
209	0x3dac0fda	0.08401461
210	0xbb0e04f9	-0.0021670444
211	0xbe0d3491	-0.13789584
212	0x3d1b3ca9	0.037899647
213	0xbd8466d1	-0.06464923
214	0x3c32cab4	0.010912586
215	0xbe0fd913	-0.14047651
216	0x3e0e8201	0.1391678
217	0xbd9f194d	-0.077684976
218	0x3da0132c	0.07816157
219	0x3c8bf0f9	0.017082678
220	0xbe2480b3	-0.1606472
221	0x3e4277df	0.1899104
222	0xbdb8a602	-0.090160385
223	0xbd22cd67	-0.03974667
224	0xbda88555	-0.08228556
225	0xbc9762e6	-0.018479776
226	0xbe1443cf	-0.14478992
227	0x3d9d5f16	0.07684152
228	0xbdde576e	-0.1085652
229	0xbdeb21a4	-0.11481026
230	0x3d9b0ba9	0.075705834
231	0xbe50e75b	-0.20400755
232	0xbe14e82d	-0.14541693
233	0x3db0ad22	0.086267725
234	0xbce49fbe	-0.027908202
235	0x3caa3f35	0.020782093
236	0xbe25063a	-0.16115656
237	0xbda4e76b	-0.08051952
238	0xbd176ec7	-0.03697088
239	0xbd515c76	-0.05111357
240	0x3dad8a1d	0.08473609
241	0x3e13b044	0.14422709
242	0x3ac29fd5	0.0014848659
243	0x3dcad5d7	0.09904068
244	0xbb918f2a	-0.0044421153
245	0xbcd7ed2b	-0.026358208
246	0xbd855dc5	-0.06512026
247	0x3b54039f	0.003235079
248	0xbde317e5	-0.11088542
249	0xbd7727c2	-0.06034065
250	0xbe46f7c1	-0.19430448
251	0x3bea9a11	0.0071594794
252	0x3c79cb14	0.0152461715
253	0x3d4b15e4	0.049581423
254	0xbc364765	-0.01112542
255	0xbe2ce5b7	-0.16884504

a2c_network.actor_mlp.4.bias f4 [128]
0	0xbd57fd2e	-0.052731685
1	0x3c9e6296	0.019334119
2	0x3c9aefb5	0.01891313
3	0xbc69d799	-0.014272594
4	0xbc27aa96	-0.010233542
5	0xbd8f2f6e	-0.06991468
6	0x3bd093e0	0.0063652843
7	0x3c577468	0.013150312
8	0xbda5b72a	-0.080915764
9	0xbccd659d	-0.025072867
10	0xbd229af7	-0.039698567
11	0xbbfc9db8	-0.007709231
12	0x3ba0579b	0.004893256
13	0x3ad6f59a	0.0016400099
14	0xbcb31ea1	-0.021865191
15	0xbd5dba2d	-0.05413263
16	0x3cd3836d	0.025819505
17	0xbb68fd86	-0.0035551502
18	0x3cf9e915	0.03050665
19	0x3cac76d1	0.02105275
20	0xbcc2d9b0	-0.023785442
21	0xbd70ace5	-0.058758635
22	0xbd0334f9	-0.03203294
23	0xbdfbeb33	-0.1230072
24	0xbd54f411	-0.051990572
25	0xbcb0c9e2	-0.02158064
26	0xbc9437dc	-0.018093042
27	0xbc2088ef	-0.0097982725
28	0x3ca331e9	0.01992126
29	0xbd095512	-0.033528395
30	0x3c9dd8b8	0.019268379
31	0x3d19a296	0.03750857
32	0xbaedfd5d	-0.0018157173
33	0xba820e82	-0.0009922537
34	0x3ccc1020	0.024910033
35	0x3c831ea2	0.016005818
36	0xbc3db8ba	-0.011579687
37	0x3cda761e	0.02666765
38	0xbcb6a121	-0.02229363
39	0xbc0c8e8b	-0.008578907
40	0x3a34a5e5	0.0006891175
41	0xbb84b662	-0.004050062
42	0xbca51d47	-0.020155562
43	0xbd2c203f	-0.04202294
44	0x3d139228	0.036028057
45	0x3d044312	0.032290526
46	0x3c346b8b	0.011011968
47	0xbcac765d	-0.021052534
48	0x3cb78b33	0.022405243
49	0x3c5d3f87	0.013503916
50	0xbd87ed42	-0.0663705
51	0x3ce407d7	0.02783577
52	0x3ccef3bf	0.025262712
53	0x3bd081e0	0.0063631386
54	0x3d130a02	0.035898216
55	0x3c87ef7f	0.016593693
56	0x3c22bb0a	0.009932289
57	0xbce0ae6d	-0.027426923
58	0x3d01235f	0.031527873
59	0x3d956055	0.072937645
60	0xbc4aaca3	-0.012370261
61	0x3d811714	0.0630323
62	0xbcf13715	-0.02944521
63	0x3c3ea6a3	0.011636409
64	0x3c917143	0.017754203
65	0x3cfe027a	0.03100704
66	0x3c0031ef	0.007824405
67	0x3baefe21	0.005340353
68	0xbbfa0f45	-0.007631215
69	0x3cd78b7c	0.026311629
70	0xbe0171f3	-0.12641124
71	0x3c67dbd5	0.014151533
72	0x3ca4b262	0.02010459
73	0xbc510c8c	-0.012759339
74	0xbd695e33	-0.0569746
75	0x3cd4ec53	0.025991594
76	0xbc95b76c	-0.018275939
77	0x3c897b28	0.016782358
78	0x3c451a3a	0.012030179
79	0xbd18f005	-0.037338275
80	0x3d5f8412	0.05456931
81	0x3ccb8e45	0.024848113
82	0xbb0e435f	-0.0021707637
83	0xbd568246	-0.052370332
84	0x3c8e06f0	0.017337292
85	0xbcdf2f7f	-0.027244328
86	0xbd1a0500	-0.037602425
87	0xbdaa5637	-0.083172254
88	0xbd4ab233	-0.04948635
89	0x3b76106c	0.003754641
90	0xbab2652d	-0.0013610475
91	0x3bec09a5	0.007203298
92	0x3bfa30da	0.007635218
93	0xbc20f59b	-0.009824182
94	0x3bb2ab63	0.00545256
95	0xbc7e7dd0	-0.015532926
96	0x3ca8f56d	0.02062484
97	0xbd02537f	-0.03181791
98	0xbd5b1dd1	-0.053495232
99	0xbd1a7ccf	-0.037716683
100	0xbccfa7eb	-0.025348624
101	0x3b9b1c07	0.0047335657
102	0xbd44abda	-0.048015453
103	0x38f43b63	0.00011645888
104	0x3c8925de	0.01674169
105	0xbd55a5eb	-0.052160185
106	0xbbb826f8	-0.00561988
107	0xbc94a17a	-0.018143404
108	0xbca32300	-0.01991415
109	0xbc31c195	-0.010849376
110	0x3d5cf3e0	0.053943515
111	0xbb8d9bfa	-0.0043215724
112	0x3bd34bd8	0.0064482503
113	0xbd47e45a	-0.048801757
114	0xbd7e33d0	-0.06206113
115	0xbd451b6b	-0.04812185
116	0xbc6b706a	-0.014370063
117	0xbc3c0c1e	-0.011477498
118	0x3b974a54	0.004617015
119	0xbd36f0e4	-0.044663325
120	0xbcd4941e	-0.025949534
121	0xbcccda51	-0.025006445
122	0x3cb11926	0.021618437
123	0xbd33dd02	-0.04391194
124	0x3cddd356	0.027078312
125	0xbd5a9662	-0.053366072
126	0xbce14a82	-0.027501348
127	0xbcd7fda8	-0.02636607

a2c_network.value.weight f4 [1, 128]
0	0x3d78b15d	0.06071602
1	0xbb9a7bac	-0.00471445
2	0x3d72ae01	0.059247974
3	0xbdd6e3ea	-0.1049269
4	0xbdc64ec2	-0.096829906
5	0xbd28f7d5	-0.041251976
6	0xbe78ac5b	-0.24284498
7	0x3b5aebf7	0.0033404806
8	0x3d3ed6c8	0.04659155
9	0x3c5d56e5	0.013509487
10	0xbc5e7a0b	-0.013578902
11	0x3c0480e3	0.00808737
12	0xbdadb57f	-0.08481883
13	0xbd8a5c53	-0.06755891
14	0xbd5e8003	-0.0543213
15	0x3de6fe16	0.11278932
16	0x3e3972d6	0.18110213
17	0x3bd25c5d	0.006419702
18	0xbd7e0c78	-0.06202361
19	0xbdc4f1d9	-0.09616441
20	0xbd5bab02	-0.053629883
21	0x3dd8d9c7	0.10588413
22	0xbd3298e4	-0.04360284
23	0x3e4af0c7	0.19818412
24	0x3dad40a0	0.08459592
25	0xbdbb684e	-0.09150754
26	0xbb3d3f66	-0.00288769
27	0x3d2baa05	0.04191019
28	0xbd8856f4	-0.0665721
29	0xbd29014b	-0.041261
30	0xbdafb465	-0.085793294
31	0xbd993fa0	-0.07482839
32	0xbc0f2493	-0.008736747
33	0x3c9cc2b8	0.019135818
34	0xbda043bb	-0.078254186
35	0x3dc31041	0.095245846
36	0x3dfa6584	0.12226394
37	0x3dbd8d2e	0.092554435
38	0x3cd1fd2d	0.025633419
39	0x3dcacd7d	0.09902475
40	0x3cd9706d	0.026542867
41	0xbc5f1cd6	-0.013617715
42	0x3c2b9b7c	0.010474082
43	0xbd0c2591	-0.034215514
44	0xbda053a4	-0.07828453
45	0xbd6d548a	-0.05794195
46	0xbccfe849	-0.025379317
47	0x3c52e83a	0.01287275
48	0xbceb5bae	-0.02873024
49	0x3dab487f	0.08363437
50	0x3e031b62	0.12803414
51	0x3d495945	0.0491574
52	0x3dd30db0	0.10305345
53	0x3db648d4	0.089006096
54	0x3d94ab63	0.07259252
55	0xbd99e096	-0.075135395
56	0x3d47d7a1	0.048789624
57	0x3d02ce74	0.03193517
58	0x3bb580cb	0.005539035
59	0xbd83ebc9	-0.06441457
60	0xbd38d36b	-0.0451235
61	0xbd4444e9	-0.04791728
62	0x3d7a9c5a	0.061184265
63	0xbcaf25ab	-0.021380266
64	0xbc225898	-0.009908818
65	0xbd224426	-0.039615773
66	0x3de260e2	0.11053635
67	0x3ad3b459	0.001615177
68	0x3de5e288	0.11224848
69	0xbe118b3d	-0.14213271
70	0x3bb715fe	0.0055873385
71	0x3e0dd3df	0.13850354
72	0xbd6c486d	-0.057686258
73	0xbd81cb82	-0.06337644
74	0x3cf5f093	0.030021941
75	0x3de9b192	0.11410822
76	0xbd0de36f	-0.034640726
77	0x3dbf078b	0.093276106
78	0xbd26fbac	-0.040767357
79	0x3df32f7f	0.118742935
80	0xbdd31e77	-0.10308545
81	0xbd946d41	-0.07247401
82	0xbc94e5fd	-0.018176073
83	0x3c715bc5	0.014731352
84	0x3d42cbf9	0.047557805
85	0xbd781611	-0.06056792
86	0xbd88d844	-0.066818744
87	0xbd6bed4f	-0.057599362
88	0xbd487b4b	-0.048945706
89	0x3d345ae5	0.044031996
90	0x3ce6b426	0.028162073
91	0xbcf73dd2	-0.030180845
92	0x3e08ea8e	0.13370726
93	0x3b427b4e	0.0029675546
94	0x3e47cec9	0.19512476
95	0xbd32b56c	-0.04363005
96	0xbde0e8c8	-0.109818995
97	0xbc33fe1a	-0.0109858755
98	0xbc084a5e	-0.008318512
99	0xbde6b4cf	-0.11264955
100	0x3ccb1cae	0.024793949
101	0xbe182084	-0.14856154
102	0xbd90c656	-0.070690796
103	0xbcb49c63	-0.022047227
104	0x3b8b3228	0.0042479225
105	0x3be715c0	0.0070521533
106	0x3cc2a4a6	0.023760151
107	0xbc6410e6	-0.0139200445
108	0xbab05a03	-0.001345456
109	0xbd661afc	-0.056178078
110	0x3ddc664a	0.107616976
111	0x3db78c79	0.0896234
112	0x3c145749	0.0090540135
113	0xbdaf3a85	-0.085560836
114	0xbdae4cc9	-0.08510739
115	0xbbc1489b	-0.005898548
116	0x3d38d06f	0.045120653
117	0xbb934567	-0.0044943574
118	0xbb8be4bf	-0.004269212
119	0x3b8324c2	0.0040021846
120	0x3d6f295f	0.058389064
121	0xbdbcfc7f	-0.09227847
122	0x3dd0c074	0.101929575
123	0xbd5c8336	-0.05383607
124	0x3e13580c	0.14389056
125	0x3ccd9de0	0.025099695
126	0x3dde357d	0.10850046
127	0x3b895385	0.0041908645

a2c_network.mu.weight f4 [10, 128]
0	0xbe04c598	-0.12966001
1	0x3c5f9153	0.013645488
2	0x3e6e9b9c	0.23301548
3	0x3d88b37c	0.06674859
4	0x3d5ab98d	0.05339961
5	0xbdcfe36b	-0.101507984
6	0x3dce4f5a	0.10073729
7	0xbd7213a3	-0.05910076
8	0x3dfe50bb	0.12417742
9	0x3c388a1e	0.011263398
10	0xbdf3f358	-0.119116485
11	0xbe165772	-0.14681795
12	0xbe2acd56	-0.16679892
13	0xbae4c6eb	-0.0017454302
14	0xbd7a8c79	-0.06116912
15	0x3cd39d7b	0.025831928
16	0x3d32fb4e	0.043696694
17	0xbde1cc15	-0.11025254
18	0x3e0de99d	0.13858648
19	0x3ca44f14	0.020057239
20	0xbe169de4	-0.14708668
21	0x3c9aa78b	0.018878719
22	0x3d4f5c12	0.050624914
23	0x3c190d91	0.009341613
24	0x3b0f918f	0.0021906828
25	0x3c96376c	0.018336974
26	0xbe06b77d	-0.13155933
27	0xbdd04825	-0.101700105
28	0x3d030657	0.031988468
29	0xbdc03765	-0.09385566
30	0xbc945d78	-0.018110976
31	0x3df7953e	0.120890126
32	0xbd815819	-0.063156314
33	0xbdf4a7e4	-0.11946085
34	0xbb25c67c	-0.0025295308
35	0xbd90a819	-0.07063312
36	0x3c55f5cb	0.01305909
37	0x3d967cec	0.07348046
38	0xbe016d18	-0.12639272
39	0xbe1a83da	-0.1508936
40	0x3d265419	0.040607546
41	0xbdb1c1a4	-0.08679512
42	0xbd16a651	-0.036779705
43	0xbe152eca	-0.1456863
44	0xbc88dfe7	-0.016708327
45	0x3cc6541b	0.024210026
46	0x3d09f469	0.033680353
47	0x3d2e7769	0.042594347
48	0x3d87e442	0.066353336
49	0xbc0f83c6	-0.008759445
50	0xbd5f10f3	-0.054459523
51	0xbe0656d6	-0.13119063
52	0xbe3f1999	-0.18662108
53	0x3d2b1c0c	0.041774794
54	0xbe00039e	-0.1250138
55	0x3d10fdb7	0.03539821
56	0xbdb330e0	-0.087495565
57	0x3e09bfdf	0.134521
58	0x3d065c26	0.032802723
59	0x3c5411ba	0.0129436795
60	0xbd087582	-0.03331519
61	0x3de3d118	0.11123866
62	0xbd4438ce	-0.047905736
63	0x3e39cff2	0.18145731
64	0xbd4ab34f	-0.04948741
65	0x3bafd1a4	0.0053655673
66	0xbd1abea1	-0.037779454
67	0xbd37bb26	-0.044856213
68	0xbd5f5047	-0.054519918
69	0x3e0164d4	0.12636119
70	0xbd9c0460	-0.07618022
71	0x3d1d2555	0.03836568
72	0x3e493de7	0.1965252
73	0x3d4a1e3e	0.049345247
74	0xbe0e0ce3	-0.13872103
75	0x3c162e2b	0.009166281
76	0xbdc66dc5	-0.096889056
77	0xbc3d25e5	-0.011544679
78	0x3dc159d7	0.09440964
79	0xbd8735d7	-0.06602066
80	0x3d44f8a8	0.0480887
81	0xbe87bd96	-0.2651183
82	0xbd9039ce	-0.07042275
83	0x3c62e0fb	0.013847585
84	0xbced65be	-0.028979179
85	0xbd7a0e31	-0.06104869
86	0xbdaf9b17	-0.08574503
87	0xbd7a1a5b	-0.06106029
88	0xbdbbdec6	-0.0917335
89	0x3d01462d	0.031561065
90	0xbe203328	-0.15644515
91	0xbcafb3f0	-0.021448106
92	0xbd053723	-0.032523286
93	0xbc7f55a2	-0.015584381
94	0x3d95c51c	0.07312986
95	0x3e275634	0.16341478
96	0x3c41b86e	0.011823757
97	0xbe3a9c3e	-0.18223664
98	0xbdfe5ae2	-0.12419678
99	0xbd6ee895	-0.058327276
100	0x3c4f39d9	0.012648069
101	0x3e3b5761	0.18295051
102	0xbda164d8	-0.078805625
103	0x3e34a6e2	0.17641786
104	0xbcf59ab3	-0.029980993
105	0x3e40aea1	0.18816616
106	0xbe1a2863	-0.15054469
107	0x3c88c8f4	0.016697384
108	0x3dc851e8	0.097812474
109	0x3cdc46f2	0.026889298
110	0xbbb5e4ac	-0.0055509415
111	0x3d29ac1d	0.041423906
112	0x3e070124	0.13184029
113	0x3b0b6765	0.0021271345
114	0xbd1b16a2	-0.03786338
115	0x3cb44b4e	0.022008564
116	0xbcb6c49d	-0.02231055
117	0xbd879aad	-0.06621299
118	0x3d850e40	0.064968586
119	0xbc8a7dbd	-0.01690566
120	0x3df98994	0.12184444
121	0x3b699bbd	0.0035645806
122	0x39e4f48a	0.00043669745
123	0x3da76e7b	0.08175369
124	0x3d516e90	0.05113083
125	0x3dc12481	0.09430791
126	0xbc4eab63	-0.012614104
127	0xbd2319e4	-0.039819613
128	0xbc0d7afa	-0.008635277
129	0xbdc5a53f	-0.09650659
130	0xbd7f007e	-0.06225633
131	0xbdaa4770	-0.08314407
132	0xbdd4fe9b	-0.10400125
133	0x3d23f2e4	0.04002656
134	0xbd107e4c	-0.035276696
135	0xbc70eecd	-0.014705372
136	0xbda04436	-0.0782551
137	0xbd532896	-0.051552378
138	0xbdbdf23c	-0.09274718
139	0xbc44d8c8	-0.012014575
140	0x3ddbeef0	0.10738933
141	0x3d678551	0.056523625
142	0xbe09b81a	-0.13449135
143	0xbc0641f7	-0.008194438
144	0x3c67e095	0.014152666
145	0xbd1d4114	-0.03839214
146	0xbcf64749	-0.030063288
147	0x3caaeb29	0.020864086
148	0x3d0a3f8a	0.033752
149	0xbcf9ef7a	-0.0305097
150	0x3d9413c5	0.07230333
151	0xbd62687c	-0.055275425
152	0xbdb5676b	-0.08857616
153	0xbd2baae9	-0.04191104
154	0x3caa0eb1	0.020758959
155	0x3c6418bb	0.013921912
156	0xbcc9fdc9	-0.024657147
157	0x3c7b2db3	0.01533072
158	0xbd2278df	-0.039666053
159	0xbcfbbb7f	-0.030729054
160	0x3d4ce861	0.0500263
161	0xbd7b6654	-0.061376885
162	0x3dbb42b3	0.09143581
163	0x3ddf6b8c	0.10909185
164	0xbd79abb7	-0.060954776
165	0x3d63a915	0.05558117
166	0xba83e3da	-0.0010062412
167	0xbd9231b6	-0.07138388
168	0xbda948c7	-0.08265834
169	0x3d24b35e	0.04021012
170	0x3db16849	0.08662469
171	0x3d365dbc	0.044522986
172	0x3ccae3f5	0.024766902
173	0x3cb607a1	0.022220435
174	0x3e2557bb	0.16146748
175	0xbc9780e5	-0.018494079
176	0x3d72ac2e	0.059246235
177	0x3d9880fe	0.07446478
178	0xbd8048f7	-0.06263917
179	0x3c30ad01	0.010783435
180	0x3d2fc7e5	0.042915244
181	0xbd8ec768	-0.069716275
182	0x3d7fcec9	0.062453065
183	0xbc6003a1	-0.01367274
184	0xbc9ce516	-0.019152205
185	0xbe00cea1	-0.12578823
186	0x3dee5fd0	0.116393685
187	0x3de16bc2	0.11006881
188	0x3cfd9719	0.030955838
189	0x3d74a761	0.059729937
190	0x3c90d7ec	0.017681085
191	0x3d4e4909	0.05036262
192	0x3d0df847	0.034660604
193	0x3dbdc493	0.09266009
194	0xbde2a9dc	-0.11067554
195	0x3be8c9c2	0.0071041295
196	0x3b565300	0.003270328
197	0x3dc2477c	0.09486291
198	0xbdb0d824	-0.086349756
199	0x3ce0d40b	0.02744486
200	0x3dada2c9	0.084783144
201	0x3d5e91dd	0.054338325
202	0xbc0fddfa	-0.008780951
203	0x3dc55d34	0.09636918
204	0x3d9a9401	0.07547761
205	0x3dbc5254	0.0919539
206	0xbd3033ad	-0.043018032
207	0x3dd3a6d4	0.10334554
208	0x3db34982	0.08754255
209	0x3d858277	0.06519025
210	0x3e41a215	0.18909486
211	0xbe063887	-0.13107501
212	0x3b4107f2	0.0029454199
213	0xbda1e3a6	-0.079047486
214	0xbd1f7e57	-0.038938846
215	0xbe133f9b	-0.14379732
216	0x3d08f7e3	0.03343953
217	0x3cd42afd	0.025899405
218	0xbd026ab5	-0.031840045
219	0x3d6d2806	0.057899497
220	0xbd0ddf56	-0.034636818
221	0xbd032844	-0.032020822
222	0x3c221ace	0.009894086
223	0xbc303ac2	-0.010756196
224	0x3a74e2bd	0.0009341648
225	0x3d3d82e3	0.0462674
226	0xbc7cc4e2	-0.0154278
227	0xbe1026aa	-0.14077249
228	0xbd1d6dd3	-0.038434815
229	0x3d24479b	0.04010735
230	0xbe14b018	-0.145203
231	0x3dcdc6a2	0.10047652
232	0x3d1f29ab	0.038858097
233	0xbdba7256	-0.09103839
234	0x3d6ccc01	0.05781174
235	0xbd2fda65	-0.042932887
236	0xbcde2aca	-0.027120013
237	0x3d254c72	0.040356107
238	0x3d863325	0.06552724
239	0xbd398e82	-0.04530192
240	0x3d44062c	0.04785745
241	0xbc42879e	-0.011873154
242	0xbd314dfd	-0.043287266
243	0xbdf78531	-0.12085951
244	0x3d2665a5	0.04062428
245	0xbd5c6afb	-0.053812962
246	0xbd1fad02	-0.038983352
247	0x3cd65fcf	0.026168732
248	0x3d6dee96	0.05808886
249	0x3cff8dab	0.031195482
250	0x3d186079	0.03720138
251	0xbd8c5ce7	-0.06853657
252	0x3d332fed	0.043746877
253	0xbd4418f1	-0.04787535
254	0xbde0cc53	-0.10976472
255	0x3cfdf4b1	0.031000467

a2c_network.mu.bias f4 [10]
0	0x3d6627c1	0.056190256
1	0x3db3feb5	0.08788816
2	0x3d855f07	0.06512266
3	0x3d327e28	0.043577343
4	0x3c72686c	0.014795404
5	0xbcebaaae	-0.02876791
6	0xbd31a976	-0.0433745
7	0xbcd03a54	-0.025418438
8	0x3d58427e	0.052797787
9	0x3d2120e9	0.039338026

exp_avg f4 [10]
0	0xba13d140	-0.00056387857
1	0xb881c231	-6.18737e-05
2	0xb94193c9	-0.00018460969
3	0x380222a9	3.1026695e-05
4	0x39ae21dd	0.00033213096
5	0xb9687341	-0.0002216818
6	0x3a5dbdd3	0.0008458767
7	0x3a0d2919	0.0005384847
8	0xb9650ad1	-0.00021843171
9	0x3a4d56a3	0.0007833039

exp_avg_sq f4 [10]
0	0x36a0678a	4.780425e-06
1	0x3687e89c	4.050393e-06
2	0x36917df9	4.336002e-06
3	0x369520f0	4.4443805e-06
4	0x3688edae	4.0807854e-06
5	0x3683c0eb	3.926563e-06
6	0x36a59971	4.935246e-06
7	0x368e196c	4.2348893e-06
8	0x36aee4ad	5.2122255e-06
9	0x3687c4f1	4.0462405e-06
