logs/rl_games/humanoid_flat_direct/2025-11-18_23-36-49/nn/last_humanoid_flat_direct_ep_150_rew_206.74393.pth (torch, 759502 bytes, 33 tensors)

value_mean_std.running_mean f8 [1]
00000000: 8f98 bfaf cb8a 4040
33.084341019203855

value_mean_std.running_var f8 [1]
00000000: ed0d 2875 6e73 8640
718.4289343957186

value_mean_std.count f8 []
00000000: 0000 0008 0020 8c41
58982401.0

a2c_network.sigma f4 [10]
00000000: acbb 25bf a616 89bf ff33 31bf 8c81 81bf
00000010: d2cb 46bf 373f 22bf 54ef 80bf 633a 89bf
00000020: 2c44 24be 63c7 02bf
-0.6473949 -1.0710037 -0.69219965 -1.011766 -0.77654755 -0.6337771 -1.0073037 -1.0720943
-0.1604163 -0.5108549

a2c_network.actor_mlp.0.weight f4 [256, 42]
00000000: af75 903d bc0a 293e 9be4 173e f487 31be
00000010: d212 213d 1014 d7bd a05c 293e 7390 32be
00000020: bbb8 3fbe af30 8fbd ae85 e0bd 3d91 0a3e
00000030: 87c6 35bd 2865 b0bd 9b8d bb3d 4b12 873c
00000040: 9390 103e f660 61be 0df0 ef3c 85cc acbd
00000050: 3287 95bc 69b0 5abe a761 0abe 56ab 1abe
00000060: 1914 073e 8fef 053e e21e 24be 11f2 86be
00000070: 6f11 363e 60af 893a fb7b 183e 4a1a 75be
00000080: c144 f5bd 1448 9abd cd1f afbd 3c6a 3f3d
00000090: 388d d63c 4671 ea3d e5a6 f3bd 7e2f e3bd
000000a0: 77e5 613d 1535 67bd 1174 e33d 11e6 19bd
000000b0: 9360 e83d 1f3d 58be fafb 97bd 0561 133e
000000c0: e50c 073e cb13 ea3d e1cf 203d 40de 8f3d
000000d0: d463 bbbd d3df 85bd 8450 8f3e 9dcf 19bd
000000e0: 7122 29ba 33d0 56be 7ce2 bebd 3a31 1e3d
000000f0: 7fb9 81bd 02b4 91bd 6a3b d83d a468 85bd
00000100: 9025 e0bd 49cb 7ebd 6b5a 8fbe 2d53 4fbe
00000110: 8e34 193e 94cc 98bd d2a7 99bd 5d4b 78be
00000120: c982 62bd ead9 d3bb 3706 1e3d de10 bbbd
00000130: 63cd 9fbd 51f0 cdbd b5f8 b23c ac92 72bd
00000140: dc79 b8bc 5e3f b5bd b529 87bd c504 22bd
00000150: ce39 58bd 7ffd 1abe 8359 da3d d842 b53d
00000160: 9395 3d3e 59a0 353e c415 a5bd a880 493e
00000170: 9c0f 73bd 6334 88bd 2a8e 02be 926d 1ebe
00000180: 07f0 4b3e b6a3 bbbb d9c6 973d 179d 29be
00000190: 170d 1c3e 5e47 36bd 436f 86bd 4153 823c
000001a0: 65f6 243e b3f0 783e 8bf4 903e 6554 95bd
000001b0: 964e e63d 2526 8abe e222 75bd a561 88bd
000001c0: 00ae 9a3d a920 35be 7555 163e 28e7 c53c
000001d0: 1f23 443d 885c bbbd 3b98 073e 74f3 163d
000001e0: b374 433c de75 01be 318e ab3d fbdc 77bc
000001f0: 28cd a1bd 3382 0f3e 51b3 b13c 8f88 1abe
00000200: 90ec f2bd bc41 8dbb 6ceb f03d 3fce c9bd
00000210: b25d a7bd 4498 8ebd b0a1 1abe ed45 8e3d
00000220: 788c d53d af4c 26be ced8 333e fc08 7b3e
00000230: 2676 113b a811 82bd bcda 363e 72dd 153e
00000240: 6a4a 853d 1c21 a8bd 29b1 8ebd eda0 be3d
00000250: e60d fc3d d695 123d 4fe9 213e bb55 e43d
00000260: 8ee0 fc3d 72ee e6bc 8cdd 323c ccc1 00be
00000270: 1be9 c83c ea6e d8bb 6794 1dbe ce8b 86bd
00000280: 6628 d13d 338f 683d 5645 23bd 7375 afbd
00000290: e460 afbd bc14 c0bd ed74 ebbc c81e 403d
000002a0: 6c7f 083e b849 fd3d 1456 5cbe a468 1abe
000002b0: 3261 a63c eac3 153e ee0f 003e 3534 453d
000002c0: ce11 0a3e 49c9 bebd d867 7dbd b2e7 173e
000002d0: bcc6 863d 91bd 983d 5578 08be 524e 773d
000002e0: 6a34 183e 861b 8a3d a9c7 89bd 2499 1dbe
000002f0: 8c16 9abd b101 603e 1900 b33e 49d6 873e
00000300: 4c4b 463e e611 aa3d c932 17bd 7151 4dbe
00000310: 4596 28be 8ffb 99be 8158 2e3e f1fb 95bd
00000320: ad90 c438 0dc9 8fbd 3833 9dbb 1aa2 b3bd
00000330: 9c12 e2bd 89c4 9a3c 23c5 8ebd 06eb c13d
00000340: 8556 eabc ac7e 9fbd b23a e6bc 6a7f 163d
00000350: 02a8 0abe dcd2 29be e7b2 2e3e 20cf 1dbe
00000360: 797f a43d 7b19 6a3e 16c4 fb3d dd24 f9bd
00000370: c3d2 e23d fc41 9abd 9563 2a3e c87f 653e
00000380: 4ae4 8abc eaeb a8bc 6177 2bbd 10a5 4dbe
00000390: b5f0 9a3d 2499 4ebe e8bb c93d 653d 5c3e
000003a0: c6bc 923e 4fc7 1dbc 1a0e 8bbd ab48 253e
000003b0: e8b4 fe3b 0bd0 2cbe b3f4 9b3c edb1 56be
000003c0: 0d22 a43d 13b3 dbbd 949c 8ebd 203c 90bd
000003d0: b779 2cbe be99 323e c8c5 093e c704 823c
000003e0: 5de0 433a 608c 71bd 135c 03be 1e8b adbd
000003f0: 9328 8c3d 8c99 07bd 29f3 04be 9413 8a3c
0.07053696 0.16508001 0.148333 -0.17337018 0.03932459 -0.105018735 0.1653924 -0.17437916
-0.18722813 -0.069917075 -0.109629974 0.13531967 -0.044378784 -0.08613044 0.091578685 0.016488215
0.1411765 -0.22009644 0.02928927 -0.084374465 -0.018252943 -0.21356358 -0.13513814 -0.15104422
0.1319126 0.13079666 -0.16027406 -0.26356557 0.17780088 0.0010504536 0.14891045 -0.2393581
-0.119760044 -0.07533279 -0.085509874 0.046732172 0.026190385 0.114473864 -0.11897067 -0.11093043
0.055150475 -0.056447107 0.11106122 -0.037572924 0.11346545 -0.21117066 -0.074211076 0.14392479
0.13188513 0.114295565 0.03926075 0.07024813 -0.091499 -0.06536832 0.27991116 -0.03755151
-0.00064519705 -0.20977859 -0.09320542 0.038621165 -0.06334209 -0.07114412 0.10558207 -0.06514099
-0.109446645 -0.062205587 -0.2799867 -0.20246573 0.14961454 -0.07460895 -0.07502712 -0.24247499
-0.055300508 -0.0064651864 0.038580146 -0.091340765 -0.07802846 -0.10055602 0.021847108 -0.05922191
-0.022519045 -0.08849977 -0.06599752 -0.03955533 -0.0527895 -0.15135764 0.10661604 0.0885064
0.1851409 0.17736949 -0.08060792 0.19677985 -0.059341058 -0.06650617 -0.12749544 -0.15471485
0.19915782 -0.005726303 0.07410974 -0.16563831 0.15239368 -0.044501655 -0.0656419 0.01590884
0.16109617 0.2431057 0.2831157 -0.072914876 0.11245458 -0.26982227 -0.05984772 -0.06659249
0.07552719 -0.1768824 0.14681037 0.024158075 0.047885057 -0.09148508 0.13241665 0.03685327
0.011929679 -0.12642619 0.0837673 -0.015128369 -0.079004586 0.14014511 0.02169195 -0.15091155
-0.11861527 -0.0043108147 0.11763653 -0.098537914 -0.08172168 -0.06962636 -0.15100741 0.06946931
0.10427183 -0.1624019 0.17563173 0.24515146 0.0022195666 -0.06351024 0.17856878 0.14635256
0.06508334 -0.0820944 -0.06967384 0.09308038 0.123073384 0.035787426 0.15811656 0.11149164
0.12347518 -0.028189871 0.010917079 -0.12573928 0.024525216 -0.006605019 -0.15388642 -0.065696344
0.102127835 0.05677719 -0.039861046 -0.085673235 -0.08563402 -0.09378955 -0.028742278 0.046904355
0.13329858 0.12367576 -0.21517211 -0.1507898 0.020310018 0.14625517 0.12506077 0.04814549
0.13483354 -0.09315736 -0.06186661 0.14834478 0.06580874 0.07458032 -0.13327153 0.060377426
0.14863744 0.06743531 -0.06727535 -0.1539045 -0.07523832 0.21875645 0.34961012 0.26530674
0.19364661 0.08304195 -0.036913667 -0.20050599 -0.16463573 -0.30074736 0.17025949 -0.07323445
9.372956e-05 -0.07020769 -0.0047973655 -0.08771153 -0.11038706 0.018892543 -0.069711946 0.09468655
-0.028605709 -0.077878326 -0.02810416 0.036742605 -0.13540652 -0.16584343 0.17060433 -0.15411043
0.08032126 0.22861283 0.1229326 -0.12165234 0.11075356 -0.07532117 0.1663955 0.22412026
-0.01695456 -0.020620305 -0.041861895 -0.20082498 0.075654425 -0.20175606 0.098502934 0.21507795
0.28659648 -0.009630038 -0.06789799 0.16141002 0.0077730305 -0.16876237 0.01903758 -0.20966311
0.08014307 -0.10727515 -0.06963459 -0.07042718 -0.16843306 0.1744146 0.13454354 0.015871419
0.00074720924 -0.058971763 -0.12828092 -0.084738 0.068436764 -0.033105418 -0.12983383 0.016855039

a2c_network.actor_mlp.0.bias f4 [256]
00000000: 9ee2 043c b391 053d e197 033c 1679 03bc
00000010: f707 ea3c 303a c839 db93 1c3c 34f9 9a3c
00000020: cc7b c53a be85 a83c 7772 63bc b0e2 23bb
00000030: 5efb 803c 7696 073c d6a1 8e3c 2668 be3a
00000040: 8653 2f3c f984 013d ef21 623b 589f 3a3b
00000050: 14d6 a1bc 623c 0ebc 571e 7a3b ac45 fc3b
00000060: 329e 3ebc 2bd9 b83c 04b4 d3bc 7ae4 e53b
00000070: 823a c03c 8831 12bc 16c2 553c a242 36bc
00000080: a773 9f3c 26a2 d0bb d808 b0bb 40cb a1bc
00000090: c703 033c 64fe eab9 4942 fb3a 708a 413c
000000a0: d83b b1bb 9d00 713c e8b0 853c c07f b2bc
000000b0: 7203 19bc d49a e93b 9788 a53c 96a0 b53c
000000c0: 3b6a daba b12a dcbc e959 d43b 6925 c43c
000000d0: 63b4 0abc b604 d1b9 2c60 a5bb 26e6 c8bc
000000e0: ce4f 9f3c c41b 1e3c 3a89 ecbc a253 dc3c
000000f0: 97a3 c2bc 33cf d2bb 9ac4 a13b 3f20 c73b
00000100: 98f4 47bb 7917 383d ad52 33bc 8dbf a93b
00000110: bce4 57bc 21f4 a43c a918 3ebc 1ab0 63bc
00000120: 1108 3cbc 8e2b ea3c 7560 933b 39f1 6fbc
00000130: bf6d 0fbc 1d8a 70bc ca31 cebc d8eb a13c
00000140: 6122 743c 9e68 3bba 4fae b3ba 4a20 a3bc
00000150: 4d98 2c3d 76d4 02bc 8b03 4fbc 8b55 0abc
00000160: 83cb 863b b548 8cbc de00 a53c bdc1 5c3c
00000170: 878f 6e3c 4c57 91bc 8c81 ad3c 4e37 3cbc
00000180: 8bf2 713c 78ef 993c dc22 f1bc 3d01 0ebb
00000190: 1f89 af3c 2b59 fabb 4676 b03b 5ac1 e73c
000001a0: d767 083d ca44 b83c 5051 3bbb 6650 b1bc
000001b0: 4ca6 9bbc a9f8 9ebc 530a 7eba ba84 c93c
000001c0: 823f eabc d560 f6bc 4eec 92bb 381b 65bb
000001d0: fd80 1cbc 863d 9d3b 42fc 683c aa42 093c
000001e0: b81d 8ebc 2057 23bc ce3f 793c ac60 4a3c
000001f0: 9be8 953b cd34 303c c6d5 a5ba ff86 35bc
00000200: ffeb c0bc 167a 84bc 6366 56bc 3418 d53c
00000210: ba0e 88bc e359 383b 0cda 463c 3a7a b63c
00000220: 2e8d cd3b 6f57 c9bc f628 66ba 2bb0 47bc
00000230: 8c44 883c a07f ef3c 809d 86bb c514 ccbc
00000240: 00c2 2b3b 8d00 cdbc bb5a 893c 4a0f 78bb
00000250: 19e8 2b3c 1467 86bc fcea 203d 18a5 b63b
00000260: c889 4f3c b42b 533b eea7 aa3b 8844 9abc
00000270: 54d1 f8bb ebc2 57bc 5b6d f33c dec7 0a3c
00000280: ff19 853a f49f 163d b0a4 7abc 90f8 1cbc
00000290: fed8 873b bcee af3c 8228 433c 640d 64bc
000002a0: bfbb de3c b9a0 d23c e328 14bc 333b 33bc
000002b0: e100 d3bb 2185 febb ad0b 013c 3b43 a63c
000002c0: d998 e23c faab e1bc 5e74 9f3c 5980 d93c
000002d0: 5ba4 2f3c 0043 86bb ea39 b6bb 521d 653b
000002e0: 6453 e83c 14fc 22bc 9e0f deba 8ae4 233c
000002f0: cdac d9ba cb62 6b3d 3e57 8f3b e156 ec3c
00000300: f35e d8bb 02f4 183a 4e59 e23c eb81 b2bb
00000310: 48a6 bcbc a3b1 a93a 9d34 b83c cf7b 07bc
00000320: 656b 803c d816 9bbc 827d 673c ee05 debc
00000330: 895c 2dbb 1fc1 bcbc c0a2 b33c 2467 e3bc
00000340: 1064 f93b 406d cfba 9f30 393c 7169 aa3c
00000350: bb7f 9f38 2ab7 4739 ffed 653c 645c b9bb
00000360: c5b5 033c 0a45 023c 0c6d 133b 3d62 993c
00000370: 9cbf 873c 1cb0 933b 54df 523a 1dbc bb3c
00000380: a9c7 463c cb15 c1bc 5ca0 94bb 17e5 813c
00000390: 7cfb 553c 60ed 003d 90f8 b93c f3c0 bfbb
000003a0: 3850 e7bb 15ab 26bd 529e d83c 6ccc 2a3d
000003b0: c206 113c 68e9 ef3a 8e69 89bc 70ae 993b
000003c0: 5bc3 8dba e29b d73b 8e8c b53c d53c a33c
000003d0: 1291 8d3c f08e ef3c 5749 6d3c ca5f abbc
000003e0: c6d2 1d3c dc70 9fbc 24f1 bbbc 0a10 f5ba
000003f0: c38a 013c 0735 34bc af1e 993c 4662 ff39
0.00811067 0.032609653 0.008031816 -0.008024475 0.028568251 0.00038190326 0.009556736 0.018917657
0.0015066802 0.020571586 -0.013882271 -0.0025006942 0.015744861 0.008275619 0.017411154 0.0014526888
0.010701066 0.031620953 0.003450509 0.0028476324 -0.0197554 -0.008681389 0.0038165057 0.007698735
-0.011634396 0.022564491 -0.025842674 0.007015762 0.023465399 -0.008922942 0.013046762 -0.011124285
0.019464327 -0.006366986 -0.005372148 -0.019750237 0.007996506 -0.00044821494 0.0019169535 0.011812791
-0.0054087453 0.014709619 0.016319707 -0.021789432 -0.0093392 0.0071290527 0.020206733 0.0221713
-0.0016663739 -0.026875826 0.0064804447 0.02394362 -0.008465859 -0.00039867096 -0.005046865 -0.024523806
0.019447234 0.0096501745 -0.028874028 0.026895348 -0.023759646 -0.0064333915 0.004936767 0.006076842
-0.003051078 0.04494426 -0.010945004 0.0051803053 -0.013177093 0.020135941 -0.011602559 -0.013896966
-0.011476533 0.028585222 0.0044975826 -0.014644914 -0.008754193 -0.014681366 -0.025170226 0.01976578
0.014900775 -0.0007149073 -0.0013708564 -0.019912858 0.042137433 -0.007985225 -0.012635122 -0.008443247
0.004113616 -0.017124513 0.020142015 0.013473925 0.014560587 -0.017741822 0.021179937 -0.011487795
0.014767299 0.018790945 -0.029435568 -0.0021668219 0.02142769 -0.007640024 0.005385193 0.02829044
0.033302154 0.022493739 -0.0028582402 -0.021644782 -0.019000195 -0.01940568 -0.00096908695 0.024599422
-0.028594736 -0.03007547 -0.004483736 -0.003495885 -0.009552238 0.004798594 0.014220299 0.00837771
-0.017348155 -0.009969503 0.015212966 0.01235215 0.004574848 0.010754776 -0.001265221 -0.011079549
-0.023550032 -0.016171496 -0.013085934 0.026012518 -0.016608585 0.0028129749 0.012136947 0.022275079
0.0062729334 -0.024577824 -0.00087799074 -0.012187998 0.016634248 0.029235661 -0.004108131 -0.024912247
0.0026208162 -0.025024677 0.016766896 -0.003785091 0.010492348 -0.016406573 0.0392866 0.00557388
0.012667127 0.0032222094 0.005208007 -0.018831506 -0.007593313 -0.013169031 0.02971523 0.008470504
0.0010154842 0.036773637 -0.015298054 -0.009580746 0.0041457405 0.021476142 0.011911513 -0.013919208
0.027189134 0.025711404 -0.009042951 -0.010939407 -0.0064393138 -0.007767335 0.007876319 0.02029573
0.027660774 -0.027547825 0.019464668 0.026550459 0.010720338 -0.0040973425 -0.005561103 0.0034960103
0.028360076 -0.009947795 -0.001694191 0.010003218 -0.0016607285 0.057467263 0.0043744138 0.02885002
-0.0066031157 0.00058347 0.027630474 -0.0054476163 -0.023028508 0.0012946617 0.022486025 -0.008269264
0.01567621 -0.018931791 0.0141290445 -0.027102437 -0.002645286 -0.023041306 0.021928191 -0.027759142
0.0076108053 -0.0015825406 0.011303096 0.020802232 7.6055025e-05 0.00019046353 0.0140337935 -0.005656766
0.008038943 0.0079510305 0.0022495417 0.018723601 0.016570859 0.004507078 0.0008044143 0.022916848
0.012132564 -0.023569962 -0.004535718 0.015856309 0.013060447 0.03147638 0.022701532 -0.0058518588
-0.0070591234 -0.0406905 0.02644268 0.04169886 0.008851709 0.0018303813 -0.016773965 0.004689984
-0.0010815667 0.006579862 0.022161748 0.019926468 0.017281089 0.029242963 0.014482818 -0.0209197
0.009632772 -0.019462995 -0.022942133 -0.0018696797 0.0079066185 -0.010998971 0.018691389 0.0004871061

a2c_network.actor_mlp.2.weight f4 [128, 256]
00000000: 1bfa dc3c 6eb5 7e3d eff9 c73c 6be7 fbbc
00000010: 926c 833d c772 453d 2965 233c 8887 1a3e
00000020: 64ad a63d a349 34bc ad2d b9bd 91ab c93d
00000030: 1ee5 62bd 016e 8a3d d177 96bd f131 e93b
00000040: 1150 19bd edf2 8cbc 8786 263d 3961 8cbd
00000050: 8c13 2c3d 2324 3d3c 745a bcbc 3948 70bd
00000060: dea5 cfbb 7cac 79bd de3d 79bc c359 a83c
00000070: 2c92 1cbd fbb0 00bd ca38 813c cd9d a4bd
00000080: 8e55 003d 07b6 27bd 1161 593b 49e0 94bd
00000090: 43a3 c4bc 3644 afbd 6cc1 153d c38c 8cbb
000000a0: 7ef4 01be 5b98 f13d dad7 a0bc 36ae 1cbd
000000b0: c12d 083d 0935 31bd 1f0d 0a3d 6f34 d13c
000000c0: d32b b2bb dd31 6dbb a36c d53c dabe 6fbd
000000d0: c317 7d3d 8fd7 8f3d 75d8 45bc f513 63bd
000000e0: 3f17 a6bd 8db5 8b3a b1b9 103d dda1 7d3d
000000f0: 4d86 c83d ede6 d33b c9ef f13c 6672 543c
00000100: f444 823d b7f0 e6bb f39e 45bd e905 2e3c
00000110: a247 0e3d ba3d 0d3d 08d2 7ebd 5363 7b3d
00000120: 21c9 0ebc 5348 f93c 9a70 f23c 38d2 f9bd
00000130: 4fb7 6ebc 8ead 29bd 8bc1 5ebd a7d9 7d3d
00000140: aac5 9abd 5d7c 913d c76a 46bb 73a0 80bd
00000150: 3f4d c73c a67d cabd 6528 69bd 9eba 8dbd
00000160: 7cd8 4d3d ae29 5ebd ff8d 463e 474a 44bb
00000170: ee91 0cbc 2374 20bd e4ee 30bd 3d95 0bbe
00000180: 91f9 81bc 7fc8 8bbc c659 103d 8518 2bbd
00000190: 8749 033c 922e b6bd 2d23 6fbd 5430 59bd
000001a0: 49c5 83ba 8c1b ac3d e470 85bc 1a43 023d
000001b0: 1e10 31bd 5ec5 08bc 38fa 98bd 85e6 2fbd
000001c0: c620 ad3d 198c 13bc 5f1d 073d 0b46 9cbc
000001d0: 510e 16be 4a20 b63d 4a89 a2ba b3ca 3a3d
000001e0: 1d49 80bd 3f7e 7b3c 900e 51bc 5733 953d
000001f0: 6a57 133c f916 873d 9852 773d 7e71 c3bb
00000200: 8473 f8bd f898 3e3d aac1 a8bc b601 46bd
00000210: 6a8c 273c 6eed e5bc ccdd 9bbb f328 123c
00000220: 0167 8d3d d54a 813d 63f1 d0bc 87ab d9bc
00000230: 257e a4bc 4eeb 90bd 5f71 733d 84d8 b0bd
00000240: dbfc 5a3d 6bf4 773c 8a37 543c fb7b 5bbd
00000250: 824c b0bd 9b3b 90bc 6a7c 4c3c a2c0 67bb
00000260: 906f 7e3d 69da c63d e6b6 f5bd d7eb ecbb
00000270: 12a1 8a3c 257e cebc 3d00 adbd b5f9 35bd
00000280: 5cbf 43bd 53e0 003d 2934 3cbc f215 6cbd
00000290: d2f6 babc 59cc afbc 29b0 073e 9ed0 46bd
000002a0: c5b8 8f3c 9b2f e1bc b1fa 42bc dd52 013e
000002b0: 8634 7b3c 755d 3fbd ffc8 91bd 9295 75bd
000002c0: 8bd8 583c 90af 2c3d 25e1 c63d f14e efbc
000002d0: 58ae da3b 91ba 05be 37bb 8fbc 91b2 78bc
000002e0: 36b2 a9bc 220d 0bbd 1d12 aa3b 1126 943d
000002f0: 2c17 55bd 8bd9 333d c535 9ebd 17b1 23bd
00000300: 6251 04be f252 0c3d af70 94bd 6094 f03d
00000310: de60 10bc a2a8 9d3c 1283 083c 8509 df3c
00000320: ee7e 8a3d f86e 71bd fec0 b2bd b21f 603b
00000330: 78e2 4d3d 4e32 943d 202c cb3c fb68 93bd
00000340: 26fe b2bc 511a e0bc c3f7 6a3d bf7f de3c
00000350: 2241 f0bc 2179 95bd 9e6d 7a3d 689b 07bd
00000360: a192 c8bd 4b41 b33d 4294 7dbd d6db 1b3e
00000370: 8113 f4bc a8fc 3bbc dc1c c03d 75cd 1c3b
00000380: fd4e 873d b1c0 883d 013b 90bc 8285 003d
00000390: ee4d 88bc a051 3bbd 0111 143d ad07 d03d
000003a0: b856 883d 3093 143d 62c1 80bc 3495 2b3d
000003b0: fa01 8f3d c374 03bd 07e6 6dbd 1b6d 563b
000003c0: 124a c2bd ead8 a3bc 3b78 813d f825 c33d
000003d0: 540a 32bd 7942 d33d 49d0 12bd ab9e 863d
000003e0: 5f5a 5a3c 8299 c9bd 967a 033d 0ebc b93d
000003f0: 0aea 653d 7bd3 533d 5929 c6bc 54f1 36bc
0.026974728 0.062184744 0.02441117 -0.030749997 0.064171925 0.048205163 0.009972849 0.15090764
0.081385404 -0.0110038845 -0.09041915 0.09847177 -0.055394284 0.06759263 -0.07347072 0.007116549
-0.037429873 -0.01720568 0.04065564 -0.06854481 0.04201083 0.01154426 -0.02299235 -0.058662627
-0.0063369116 -0.06095551 -0.015212504 0.020550614 -0.038225338 -0.03141878 0.01577415 -0.080379106
0.03133159 -0.04094508 0.0033169428 -0.072693415 -0.02400363 -0.08557932 0.036561415 -0.004289241
-0.12690923 0.117966376 -0.019634176 -0.038252078 0.03324676 -0.04326347 0.03370392 0.025537698
-0.005437353 -0.003619305 0.026052779 -0.05853162 0.06179024 0.070235364 -0.012075533 -0.055438954
-0.081099026 0.0010658965 0.03533334 0.061921943 0.09791241 0.0064667375 0.029533284 0.012966728
0.06360808 -0.0070477384 -0.04824729 0.010621526 0.034736283 0.034482695 -0.06221202 0.06137402
-0.008714945 0.030429995 0.029594708 -0.12198299 -0.014570071 -0.04142528 -0.054383796 0.061975148
-0.07557233 0.071037985 -0.0030276047 -0.06280603 0.024328826 -0.09887247 -0.05692329 -0.0692036
0.050255284 -0.054238968 0.19390105 -0.00299515 -0.008579714 -0.039173257 -0.043196574 -0.13631149
-0.015866073 -0.017063377 0.035241865 -0.04177143 0.008013136 -0.08895601 -0.058383156 -0.053024605
-0.0010053302 0.08403692 -0.016289182 0.031802274 -0.04322826 -0.008347837 -0.074696004 -0.04294445
0.08453517 -0.00900557 0.032986995 -0.019076368 -0.14653899 0.088928774 -0.0012400534 0.045603465
-0.06263945 0.015349924 -0.01275982 0.07285183 0.008993009 0.065961786 0.060381502 -0.005964457
-0.12131408 0.0465326 -0.020600159 -0.048341475 0.010226348 -0.028067317 -0.004756665 0.008920896
0.06904412 0.06313101 -0.025505727 -0.026571048 -0.020079682 -0.07076131 0.05943429 -0.08635047
0.053463798 0.015133957 0.012952695 -0.053585034 -0.08608343 -0.017606547 0.0124808345 -0.003536262
0.062118113 0.09709627 -0.11997776 -0.0072302627 0.016922507 -0.025206635 -0.08447311 -0.044427592
-0.047789916 0.031463932 -0.011487045 -0.057638116 -0.022822771 -0.021459745 0.13250794 -0.048538797
0.01754416 -0.02748852 -0.01190059 0.12629266 0.015332347 -0.046719987 -0.07118415 -0.059957094
0.013235222 0.042159617 0.09710912 -0.029212447 0.0066736154 -0.1305945 -0.017545326 -0.015179292
-0.02071486 -0.03394807 0.0051901476 0.07233823 -0.05202405 0.043908637 -0.077250995 -0.039963808
-0.1292167 0.03425879 -0.07248055 0.1174705 -0.008812157 0.01924545 0.008332031 0.027226219
0.06762491 -0.05894372 -0.087282166 0.003419858 0.050264806 0.07236157 0.024801314 -0.07197758
-0.021849703 -0.027356299 0.05736519 0.027160523 -0.029327933 -0.07298494 0.061139695 -0.03310719
-0.09793592 0.08752688 -0.061908968 0.1522058 -0.029794456 -0.011473812 0.093805045 0.0023926173
0.06606863 0.06677378 -0.01760626 0.031377323 -0.016638722 -0.04573214 0.03614903 0.10157714
0.06657165 0.03627318 -0.015717212 0.041890338 0.06982799 -0.032093775 -0.0580807 0.003271884
-0.09486784 -0.020000894 0.0632176 0.09528726 -0.04346688 0.10315413 -0.035843167 0.06573232
0.01332721 -0.098437324 0.03209933 0.09069072 0.0561314 0.051715355 -0.024189638 -0.011165936

a2c_network.actor_mlp.2.bias f4 [128]
00000000: eb4c 9f3b cacb a83c 5832 a1bc 30a6 4dbd
00000010: dbad 133c fbd6 05bd 0221 c4ba d3cb e5bb
00000020: d32c 1ebd af76 22bd 78ce c8bc 4636 193c
00000030: 02ff 52b9 59ae 8dbc dfcf 433c 3b2c cbbc
00000040: 2d47 e2bb 94e1 6bbc 8cd0 41bc 1fa3 503c
00000050: 230f 533c 8dec 1fbd 76b3 ceba 90ad d33c
00000060: f217 57bd 1d54 76bc c15e 20bc c549 b13c
00000070: fa53 a73a 90ae eb3b 42f7 f639 5875 e6ba
00000080: a13f 54bd 7d14 ecbc 77e8 13bd d61f c1bb
00000090: b096 28bc 13e6 833c 7b3a 0d3c 6e16 8fbc
000000a0: d999 a7ba cf71 993b 4ebc 8a3c 67fe c6bb
000000b0: a189 a13c eb7a b8ba db16 403c 2a61 f5bc
000000c0: 70a1 1ebd 155b f33c 6c6c 36bc d2a7 28bc
000000d0: a8e0 c23b 169b 5abd 0aa1 31bd 4889 9dbb
000000e0: 2172 5ebb adac c5bb 1018 2fbc c7a1 f03b
000000f0: d0f2 fabc bb10 983b 71ce c139 deb4 83bc
00000100: 2e93 e13a 653b 0abd c14a 0e3b ed98 84bb
00000110: 9dc2 903c 167d efbb 9936 4bbd 64fc 95bc
00000120: 1c8e bebc 9f88 0abb 15ab 14bc bdb7 9f3c
00000130: 1b96 82bd 3cde 533c 66ed eebc a167 163b
00000140: 44ae 393c 9976 393c 35aa 873b 6dfd 343c
00000150: ad38 2d3c 93e3 803b 947b d63c 9f76 24bc
00000160: 61ca 8e3c 0e21 84bb 832f 8d3c d2a2 d13b
00000170: e88d 06bc 484c bc3b a43c 353c 3c1f bb39
00000180: 4ef0 1f3c ff50 27bc 8195 cdbc 06c2 953c
00000190: ebb7 93bc edae ddbc 8f66 bb3c 4f1a e4bb
000001a0: 7aed 5bbc 7726 c1bb 485c afbc 9b42 66bd
000001b0: ea13 f8bb 40a5 49bc 79be b8bc 4edd 873b
000001c0: 2a95 f6bc 901f e23b a62a aabc 912c ae3c
000001d0: ef3c bbbb d695 4dbb 7e6a ddbb dce5 cebc
000001e0: fe87 79bc 5e4b 99bd 2fce 26bd 5563 67bb
000001f0: 1854 a93b 0817 ef3c 9334 8d3c ce49 a03c
0.0048614643 0.020604987 -0.019677326 -0.050207317 0.009013618 -0.032675724 -0.001496345 -0.007012823
-0.038616966 -0.039663967 -0.024512514 0.009351319 -0.00020122158 -0.01729505 0.011951416 -0.024801364
-0.0069054575 -0.014397044 -0.011829507 0.012734204 0.012882027 -0.03904395 -0.0015770036 0.025839597
-0.05251307 -0.015034703 -0.009788216 0.021641621 0.0012766116 0.0071924403 0.00047104998 -0.0017582579
-0.051818494 -0.028818363 -0.036110368 -0.0058936877 -0.010289833 0.016100919 0.0086199 -0.01746675
-0.0012786939 0.0046827565 0.016935494 -0.0060728076 0.019718947 -0.0014074718 0.011724199 -0.029953558
-0.038728178 0.029706517 -0.011134248 -0.010293918 0.0059471913 -0.053370558 -0.04336647 -0.004807625
-0.0033942538 -0.0060325474 -0.010686889 0.007343504 -0.03063336 0.0046406663 0.0003696564 -0.016077455
0.0017210001 -0.03374805 0.0021712037 -0.0040465505 0.017670924 -0.0073086126 -0.049612615 -0.018308826
-0.023261122 -0.0021138561 -0.009073992 0.019496793 -0.063762866 0.012931403 -0.029165935 0.0022949951
0.011333052 0.01131978 0.0041401633 0.01104675 0.010572595 0.003933379 0.026181974 -0.010038047
0.017430486 -0.0040322607 0.01723457 0.0063975835 -0.008212544 0.005746398 0.011061821 0.0003569069
0.009761883 -0.010212182 -0.025095703 0.018280994 -0.018032035 -0.02706095 0.022876052 -0.006961144
-0.013423318 -0.005894478 -0.021406308 -0.056215864 -0.0075707333 -0.012307465 -0.022551762 0.0041462546
-0.030100424 0.006900735 -0.02077229 0.021261485 -0.005714051 -0.0031369827 -0.0067570796 -0.02525609
-0.015230177 -0.07485078 -0.040723976 -0.003530701 0.0051674955 0.029185787 0.017236983 0.019566443

a2c_network.actor_mlp.4.weight f4 [128, 128]
00000000: 7fa4 1d3e e19c bdbd fe1b de3a 0ce4 d8bd
00000010: 7df7 65bd 416a 493d b981 583c d8de 11be
00000020: 3b19 c83d c821 c3bd 541b c73d 8073 393c
00000030: 779e f43d d305 c1bc 8d36 db3d a086 6cbd
00000040: 5d30 b53d 29e6 463e 2a56 ba3d 3a55 d0bd
00000050: 3553 fabc 4e60 e53d 2241 493b b0eb edbd
00000060: 8681 473c c6b1 0bbe 6d57 b3bd 80ca 223e
00000070: 0a89 d2bc c4d2 c7bd 7e11 b7bc fe80 19be
00000080: e395 173d 2ec4 44bd 5cf9 b33d 44ad 80bb
00000090: 44a0 193e aeb5 ad3d 9e1a e6bd 5604 cd3d
000000a0: 7a77 aabd 00e4 9d3d 7e2b 80bd 7e3a fa3c
000000b0: 5134 42bd 7183 1f3c 56d2 ef3d 42e8 93bd
000000c0: ea22 563d b473 e8bd eee0 7c3d 3cfe 08be
000000d0: 1d95 7a3d 31fe 48bd 1c6a f63d 350f 16be
000000e0: a69c 04bd 3d62 25bc 4773 38bd 92a1 73bd
000000f0: 5226 183b 61be 9abd 2bb2 34bb 6021 35ba
00000100: f227 bc3a f60a c63d 08c8 aebd 080d a3bd
00000110: 4960 1fbe 321a f5bd c886 fc3d 8521 62be
00000120: a0e8 6b3d 10a4 e23c 91eb 18be d274 aebd
00000130: ddda 433b e8ac b7bd 3493 263e a3f5 b8bd
00000140: 3b77 cc3a f83f c6bc 6b94 c23d 61ca 2cbc
00000150: e9c0 533c f52a 85ba 8c3b 80bd a8fb 61bd
00000160: a3a3 8ebd 80ae 5ebd 4480 b83c 30ea 22be
00000170: 7e68 86bc 0ea1 c3bc 3a8c 143e f836 843d
00000180: 6427 f9bd 47a0 1c3e e615 c43d db95 1abe
00000190: 8ba1 033b e1bf b9bd fb9e 4a3d 5507 3c3e
000001a0: 236a 6c3d a7f2 0cbe e819 cc3d d50d 253d
000001b0: c369 15bd 5d1e 2b3e 4d83 8cbd 10ee 59be
000001c0: cda8 563d af0d e8bc d3bc 05be 5ef0 be3d
000001d0: 1718 e83c 242b 793d 75c6 283c aab4 e03c
000001e0: e4df 823c d346 7abc d5ca 26bc dbeb 643a
000001f0: ec30 db3c d0bb 593d 33b0 743d 50f1 4d3c
00000200: c0d5 253c d752 95bc be72 92bd 62ae a93d
00000210: a847 003e ddc7 44bd 07cb e83d 2c0c e0bd
00000220: b136 1b3d ef5d 8f3d ae12 863d 4e68 c6bc
00000230: 514c b33d 8704 56bd 2e48 23bd 03b5 6dbc
00000240: 9b00 943c 6dbd cebc 805f c0bc 9bd8 2ebd
00000250: 971f 063d 462a a5bc 176d e4bd bc34 9b3d
00000260: 2aa2 bfbc a22f d5bd fd34 4ebd 6f23 573d
00000270: 23ca a43d 43b7 0d3e 7626 5b3d 9aeb 9cbd
00000280: b45f d9bb 39ba f63c 7801 ca3d 264c bebd
00000290: e001 af3d e86c 84bd 5ca2 c93c e7de bc3b
000002a0: bcf1 95bb d73a fc3c 3192 d3ba 2b4f 9cbd
000002b0: 1330 93bd 2902 113d d812 233d 249c a3bd
000002c0: 1adc bb3d 0a98 7c3d 8d40 5fbc 6ec2 2ebe
000002d0: f06b ac3c fc63 e83d 11c9 4c3d 3725 02bd
000002e0: 2cec b8bd 878e dc3c a111 1f3e 31db 973d
000002f0: a0c2 26bc 1cc6 1d3b 9d76 bd3c 1682 1d3c
00000300: 15b4 2fbd 9d1e 4a3d bf50 fb3d 7fc6 683d
00000310: d44b 98bd 306d 94bd 3d19 c13d 23a6 79bd
00000320: 39cc 973d 44aa a5bd 4f55 ab3c 226e 183e
00000330: 1063 78bc a504 5e3d 25d8 edbd 1ac0 e33d
00000340: 043f 38bd e0f8 5a3b 0034 bbbd ba13 c0bd
00000350: 6fad 553c 7bd8 2f3c 2f34 47bc c085 0bbe
00000360: 7de2 903d e64f a3bd 699c 973d cca7 0e3c
00000370: 064e cbbd 1d25 253e 9cc5 81bd c0de 0fbd
00000380: 04a5 e13b a9e8 06bd addc acbd fd11 ab3d
00000390: 7fe6 05be c430 93bd 90a9 483d 5fb2 d8bd
000003a0: 955e 1cbe 5f63 ab3d cdd6 163c 451c 2b3d
000003b0: 8251 eebd 65ee 00bd b345 9f3c a340 0cbd
000003c0: 9bf7 be3d 9dd9 863d e4f1 08bd 42e6 9a3d
000003d0: ce02 863c 3e49 e53b 20e1 4dbd 397d 8dbc
000003e0: 2446 90bd 9e09 0fbd db9c 0abe 9b5d 853c
000003f0: 98e6 92bb 4664 8abb 1c5a fc3b 21e0 07be
0.15394782 -0.09258438 0.0016945598 -0.105903715 -0.056144226 0.049173597 0.013214522 -0.14245164
0.09770437 -0.09527928 0.09722009 0.011319041 0.11944287 -0.023562348 0.10703764 -0.057745576
0.08847115 0.19423737 0.09098466 -0.10172506 -0.030557254 0.11200009 0.0030708988 -0.116172194
0.012176877 -0.13642034 -0.087569095 0.1589756 -0.025700111 -0.09756997 -0.022347208 -0.14990613
0.037008177 -0.048038654 0.08787796 -0.003926905 0.15002543 0.08481918 -0.112355456 0.10010593
-0.083235696 0.07709503 -0.062582955 0.03054547 -0.047413174 0.009735928 0.1171004 -0.07222034
0.05227939 -0.113501936 0.061737947 -0.13378233 0.06117736 -0.04907054 0.120319575 -0.14654239
-0.032375954 -0.010094223 -0.045031812 -0.059480257 0.00232162 -0.07555843 -0.0027572017 -0.00069095753
0.0014355166 0.096700594 -0.08534247 -0.0796147 -0.15564074 -0.11967887 0.12330395 -0.22083099
0.057594895 0.027666122 -0.14933611 -0.085183755 0.0029885091 -0.08968526 0.16267091 -0.090312265
0.0015599498 -0.024200425 0.09500965 -0.010546298 0.012924411 -0.0010159897 -0.06261358 -0.05517164
-0.06964805 -0.054365635 0.0225221 -0.15909648 -0.016407248 -0.023880508 0.14506617 0.06455797
-0.12165716 0.15295516 0.09574489 -0.15096228 0.00200853 -0.09069801 0.04946802 0.18362172
0.057718407 -0.1376444 0.09965879 0.040296394 -0.036477815 0.16710801 -0.06860981 -0.2128222
0.052407075 -0.028326837 -0.13060312 0.0932319 0.0283318 0.060832158 0.010301222 0.027429897
0.0159759 -0.015275675 -0.010180195 0.0008732655 0.026756726 0.053157628 0.05973835 0.01256974
0.010121763 -0.018227978 -0.071507916 0.08285214 0.12527335 -0.048042167 0.113668494 -0.109398216
0.037893955 0.07000338 0.065465316 -0.024219658 0.087547906 -0.05225041 -0.039863758 -0.014508489
0.018066695 -0.02523681 -0.023483038 -0.04268704 0.03274497 -0.02016176 -0.1115362 0.07578418
-0.023392756 -0.10409476 -0.050343502 0.052524026 0.08046367 0.1383944 0.053503476 -0.07662125
-0.006633723 0.030118095 0.098635614 -0.09291868 0.085452795 -0.06466085 0.024613552 0.0057638767
-0.004575936 0.030789776 -0.0016141591 -0.076322876 -0.07186904 0.03540245 0.039812893 -0.07988766
0.091728404 0.061668433 -0.01362623 -0.17066357 0.021047562 0.113471955 0.04999644 -0.031773772
-0.09029421 0.026923431 0.15534069 0.07414854 -0.010178238 0.0024074381 0.023127848 0.009613534
-0.04289635 0.0493456 0.122712605 0.056829926 -0.07436338 -0.07247388 0.09428642 -0.060949456
0.07411999 -0.08089116 0.020914702 0.14885762 -0.015160337 0.054203648 -0.11613492 0.11120625
-0.04498197 0.0033412501 -0.091407776 -0.093787625 0.013041838 0.010732765 -0.012158438 -0.1362524
0.07074449 -0.07974224 0.0740288 0.008706998 -0.09926991 0.16127439 -0.06336519 -0.03512454
0.0068861265 -0.032936726 -0.08440528 0.0835304 -0.13076209 -0.07187036 0.048989832 -0.105808966
-0.15270455 0.08368563 0.009206486 0.041775007 -0.1163664 -0.03147735 0.019442415 -0.03424133
0.09324571 0.06584475 -0.03343381 0.075634494 0.01635876 0.0069972565 -0.050263524 -0.017271625
-0.07044628 -0.03492128 -0.13536398 0.016279986 -0.0044830553 -0.0042233793 0.0077011716 -0.13269092

a2c_network.actor_mlp.4.bias f4 [128]
00000000: f989 f3bc 31b6 55bc b867 a93c 6a3e 5fbc
00000010: 02af 77bc 4cc2 68bd 6161 b4bb e5e3 103c
00000020: d13f 37bd ab0e f6bc bf98 1ebd 5499 35bc
00000030: 97e0 f8ba d599 213c 07ab e8bc 50e0 0ebd
00000040: 3276 db3c 0583 cabb 56c5 013d 650d d03c
00000050: 1966 b2bc 6499 49bd 541e b6bc 4b84 64bd
00000060: 5d84 56bd ce13 d5bc 55ea 03bd 5f5f feba
00000070: c2b1 3a3c 533c 01bd efc7 e03c efaa d23c
00000080: e8df 8ebc 27b9 483a 1797 63bb cf17 9f3b
00000090: 1a0e b0bb 4fb2 c73c b025 05bd 4737 413b
000000a0: 8616 303b db4c e5bb 3045 f1bc a588 1ebd
000000b0: 768a d33c 3d88 d53c f016 853c 7c59 64bc
000000c0: 9f08 d43b 8c78 98bc 2c53 54bd caf5 0a3d
000000d0: f85a 533c de9c 283c cede cc3c bb82 763c
000000e0: bece 29bb 2975 a1bc ca85 0b3d 7d68 993d
000000f0: b46d 8cbc 810c 5c3d 06ae b9bc c46b ed3b
00000100: d67e 453c 665a 173c e18f 403c 14c1 cd3b
00000110: 6046 bfbc 4a22 9a3c fdf3 d8bd 88ca 813c
00000120: f2ab 163c 0942 92bc 2407 7bbd d527 bf3c
00000130: 31e8 ffbc 5d24 913c 88af ca3c 255b 35bd
00000140: 85fc 1d3d 5580 de3c 7728 21bc 83a6 39bd
00000150: 7863 a23c 1167 c5bc 95d2 e4bc 1a51 96bd
00000160: 5c76 56bd 7db5 b63b 8e67 61bc dc26 e43a
00000170: 6f7c 553b d13e 1cbc e1fb 003c aa50 bbbc
00000180: fe2f 973c c1ff ecbc 0902 67bd 0709 7cbc
00000190: 9883 08bd b987 3d3c c761 59bd 5205 153c
000001a0: 7097 993b f2be e1bc a342 b3bb 1d2c 6ebc
000001b0: e83a 27bd f7d2 09bc d46d 453d 473b ab3b
000001c0: 74e7 943c ccc8 49bd 55a6 4abd 3a38 89bc
000001d0: c5e2 173b c9f6 a5bc 6dee 6c3c 0c74 2abd
000001e0: 8dd8 4cbc 5395 22bd ebc1 f13c ef56 e1bc
000001f0: 0321 053d 1d4a 0fbd 7f66 d4ba 9ad0 80bc
-0.029728876 -0.013043926 0.02067934 -0.0136257205 -0.015117409 -0.05682592 -0.0055047725 0.008843397
-0.044738594 -0.030036291 -0.03871989 -0.01108392 -0.0018987831 0.009863337 -0.028401865 -0.03488189
0.026789758 -0.0061801695 0.031682335 0.025397012 -0.0217772 -0.04921855 -0.022231258 -0.055790227
-0.052372325 -0.02601042 -0.0322059 -0.0019407085 0.01139492 -0.03155167 0.027439086 0.025716273
-0.017440751 0.00076569844 -0.0034727508 0.004855133 -0.005372775 0.024377016 -0.032506645 0.002948241
0.0026868894 -0.0069976873 -0.029451936 -0.038704533 0.02582286 0.02606594 0.016246289 -0.01393735
0.0064707543 -0.018612169 -0.05183713 0.03392581 0.012900107 0.010291306 0.025008585 0.015045817
-0.0025910581 -0.019709187 0.034063138 0.07490633 -0.017142154 0.053722862 -0.022665989 0.0072455127
0.012054166 0.009237861 0.011753053 0.00627912 -0.023348987 0.018815178 -0.10593412 0.015843645
0.009196268 -0.017853754 -0.061286107 0.023334423 -0.031238647 0.017717535 0.024741903 -0.044276375
0.0385709 0.027160803 -0.009836308 -0.045324814 0.019822821 -0.024096997 -0.027932445 -0.07339688
-0.05235897 0.0055758343 -0.0137575995 0.00174066 0.003257539 -0.009536461 0.007872553 -0.022865612
0.018455502 -0.028930547 -0.056398425 -0.015383012 -0.033328623 0.011568003 -0.053071763 0.009095507
0.004687242 -0.02755687 -0.00547059 -0.014536885 -0.04082766 -0.008412114 0.048200443 0.0052255723
0.018176772 -0.04926376 -0.049475033 -0.016750444 0.0023175937 -0.020259278 0.014461142 -0.041614577
-0.012502802 -0.039693188 0.029511413 -0.027507273 0.032502186 -0.03498279 -0.0016204863 -0.015724469

a2c_network.value.weight f4 [1, 128]
00000000: f7a5 783d ebc7 79bd 8b1a 203d dacc aebd
00000010: 2be5 12bd 17f1 4a3d 8a57 d5bd bdcd 303c
00000020: 2589 843d a65f 823d f016 4e3c 8d1f 3c3d
00000030: e340 c3bd 9d98 29bd 99db 9abd a324 723d
00000040: 59ac 093e b90e 973d 708f d6bc c6f6 873d
00000050: 691b bdbd 7716 8e3d ddef e4bc 08d4 003e
00000060: 361f b73b 90b6 81bd b392 34bd ae47 72bd
00000070: 407c cbba 1194 24bd 49cf 0ebd 3070 09be
00000080: 53c2 8b3d fcde c13d b561 eebd 94dc 203c
00000090: 1d54 073e 30e5 c53d 59f6 b73c 284f e43d
000000a0: 4c5b 2e3d 5412 743c 3a3c aa3d cf61 bcbd
000000b0: 6edc 73bd 3930 c5bd 8aab a7bc abf2 3abd
000000c0: 2253 bebd ec18 a53d 739e a73d 9ed6 f13d
000000d0: a792 d63d 7e68 dd3d 72f5 8f3d 8f0e 9d3b
000000e0: 23a5 2e3d 68f0 9b3d a2a5 fd3c 646b 2d3c
000000f0: dfef 3c3d e894 8bbc cd75 0bbc a61e ebbc
00000100: e342 d9bc 08e5 87bd a903 eb3d ac21 9fbc
00000110: a46b e83d cef9 a8bd 73de a73d e880 a93d
00000120: f261 5fbd b492 eebc db7e 4e3d 4a41 623d
00000130: 29ef 82bd 679e 9d3d eb17 92bd 6d2b 3dbd
00000140: f86e 88bd 720b 65bd cd94 88bd 9a37 1cbc
00000150: 6a0a 39bd 1dc6 df3c a390 7cbd b35f 98bc
00000160: 0b76 bcbc 1d95 103d 82ba 823c 1cc6 48bd
00000170: 9be1 c43d ecf3 75bc 4943 cc3d 82e1 5cbd
00000180: 104a 7abd fc85 89bc 066c 433c b01d 97bd
00000190: 4c30 473d b9f0 e0bc 48c5 b9bd 039e 483d
000001a0: 2a8c 1abd 52c9 98bc 1519 7d3c dbca 35bd
000001b0: 6397 dbbd ea66 91bd 98c3 6c3d e735 b13d
000001c0: 69e3 493d a5a6 29bd 4d9f e0bd 1d5f 3fbd
000001d0: 018c cd3d d079 b13b fc7d 63bd 66e2 b73c
000001e0: bd1e 8e3d 0b32 6ebd 4776 db3d 102e 48bd
000001f0: 9512 e23d 6c0c 943d 2fb6 953d fecb 9e3d
0.06070515 -0.060981672 0.039087813 -0.08535166 -0.035863083 0.049546327 -0.104170874 0.010791239
0.06471471 0.063659 0.012578711 0.045928527 -0.095338605 -0.04140531 -0.07561416 0.05911697
0.13444652 0.07375855 -0.026191443 0.06638865 -0.09233744 0.069378786 -0.027946407 0.12580884
0.0055884374 -0.06333649 -0.044085216 -0.05915039 -0.00155247 -0.04018027 -0.03486565 -0.13421702
0.06824174 0.09466359 -0.1163973 0.009818215 0.1321568 0.09662855 0.022456335 0.1114791
0.042567536 0.014896948 0.083122686 -0.09198343 -0.05953639 -0.09628338 -0.020467538 -0.045641582
-0.092932 0.08061394 0.08184519 0.11808513 0.104771905 0.10810946 0.07029237 0.0047929953
0.042637955 0.07614213 0.030962769 0.010584686 0.046127196 -0.017038777 -0.008511973 -0.028701138
-0.026521152 -0.06635481 0.114753075 -0.019425236 0.11348656 -0.082507715 0.08196726 0.0827654
-0.054536767 -0.029122688 0.050413948 0.055238046 -0.063932724 0.076962285 -0.07133468 -0.046183992
-0.066617906 -0.05591912 -0.066690065 -0.009534741 -0.045175947 0.027316147 -0.061661374 -0.01860032
-0.023005506 0.035298456 0.015958074 -0.049017057 0.09613343 -0.015011769 0.09973771 -0.053926
-0.061105788 -0.016787522 0.01192761 -0.07378709 0.048630044 -0.027458536 -0.090708315 0.048978817
-0.037731327 -0.018650685 0.015447875 -0.04438291 -0.10722234 -0.070997074 0.05780372 0.08652859
0.04928914 -0.04141869 -0.10967884 -0.046721566 0.10036469 0.0054161325 -0.05554007 0.022446822
0.069394566 -0.058153193 0.10715919 -0.048872054 0.110387005 0.07228932 0.073101394 0.07753752

a2c_network.mu.weight f4 [10, 128]
00000000: 42e2 ffbd fc69 f23b afbc 5c3e a253 8e3d
00000010: 300f 153d cca0 d3bd 53d2 1d3d 5e39 60bd
00000020: 8978 c13d 21b4 ed3b ef42 f8bd f053 f9bd
00000030: 8002 9fbd 77b9 683c 2f4e a1bc 4caa e23c
00000040: 3838 123d 27b2 cdbd b3a9 0a3e 1f8d 853d
00000050: 8de4 f4bd 8c7a d73c f1cd 073d 1888 b93c
00000060: d421 ddba b9c7 ecbb 9728 aebd ef74 93bd
00000070: 03db 9a3a ac52 a5bd d45c 0ebc b8d7 f83d
00000080: c3ba 21bd ff4b c4bd 4b9d 94bc fe22 8abc
00000090: 627d 053d 1a15 153d c44f d9bd 1dab febd
000000a0: bddd d33c 29f6 f2bd 8430 ebba 4906 8cbd
000000b0: 9fae 18bc 5eaf 2e3d dfbd 0a3d 3598 3f3d
000000c0: a9fd 6f3d 8be9 89bc 66ae 9abd 791f ebbd
000000d0: 157b 08be 6276 393d f2e2 cbbd be97 df3c
000000e0: 3efa b8bd b09e d03d 1ad4 9e3d 07ea 0b3d
000000f0: 3d76 8abc 56d6 d23d 9d4e 5bbd 9f03 4c3e
00000100: d727 3bbd 34e5 9e3c 8f4c 23bd b1b6 c6bc
00000110: 282d 3dbd ad95 fd3d 6172 80bd e97d 823d
00000120: afa9 183e 8bc6 833d 012b d0bd f833 013d
00000130: 7574 98bd 9379 a63b 35be ad3d 52e8 84bd
00000140: 1127 ca3c dbcd 45be 9d45 6ebc bea4 9bbc
00000150: 4045 0f3b fcd9 8ebd 9f59 c6bd d061 6ebd
00000160: b508 3dbd 525d 3b3b ad5f 9ebd 48d3 0fbc
00000170: 3403 a5bc 6758 d9bc 5772 233d 24d6 f13d
00000180: b734 803c 8b2e 1bbe a5f6 fbbd 3624 5ebd
00000190: 59a1 1b3d 39fa 363e 340c 9abd e594 143e
000001a0: a58c bfbc 2ae0 db3d 248a d9bd 8e11 4a3a
000001b0: 2af4 bd3d 8496 ad3c ff7b 003c 3558 8e3d
000001c0: 72e0 c73d caf5 ba3c 3e79 c1bc 7858 073c
000001d0: 5168 723b 580e 78bd fb08 dd3c 7918 1dbc
000001e0: f001 c03d 7a44 c0bc 5c9b 3f3b d8aa 923d
000001f0: 5ae4 863d 3f66 833d ae38 073b 3a00 72bd
00000200: 8e81 e4b9 59a3 56bd 3b8d 36bd 2a36 23bd
00000210: 0aac d7bd 46bd 1b3d 9ccf 2abb 53ef 3c3c
00000220: 509a c5bd 1d33 24bd c00e 94bd fd7b a5bb
00000230: 5c90 ad3d 6b67 833d 8c6f c4bd 9453 61bc
00000240: ccb0 e63c fe72 1cbd 2bb0 91bc 2ecb 083d
00000250: 1a02 ed3c 82a4 95bc 4711 c73d 2a9d 41bd
00000260: a981 a7bd d936 60bd 65cf 05b9 3f2a 493d
00000270: 9742 6abd 7da1 c8bb 0152 72bd 0d68 59bd
00000280: 5a7f 333d f168 b4bc b3b3 b53d ab94 d03d
00000290: 2361 87bd 79ff 643d 9015 563c 8e99 04bd
000002a0: 9d83 b2bd 9f61 503d 5928 923d 4818 073d
000002b0: 5c0e d43c 19ed 813c 709f ef3d a793 67bc
000002c0: 1eed 543d 93b6 833d ec61 64bd 231b 1a3d
000002d0: a607 7b3d 4d12 22bd c543 873d e5d8 94b8
000002e0: 1e0a 263c be2f 9bbd 4074 033e a853 e93d
000002f0: d25d 253d 0bee 883d 37d2 083d a87c fb3c
00000300: dbfc 293d b4e0 a13d 92cc a0bd 84f4 183b
00000310: 9da4 933b 9151 b33d 4d9f 86bd f0e5 193d
00000320: ad15 8c3d 776e 723d c9a0 ccbc 7fa6 c73d
00000330: 6c9a a53d 0522 b23d a55e e9bb cb45 f03d
00000340: 57b9 a13d 1ee6 df3d be1a 353e 9a9a d9bd
00000350: 9246 25bc 98b5 95bd 1418 52bd 9ebc fabd
00000360: d1c0 ca3c ba86 083d 759f 9fbc 73cc 1a3d
00000370: b35a 0fbd 2819 dcbc 1473 1a3d 3f92 0a3d
00000380: bb55 30bc 3e2d 1c3d 7433 85bb 4ea2 f7bd
00000390: 6eda 3dbd dc2e fe3c 64bb ddbd 40bc 6d3d
000003a0: 37fd 813d 56e2 d2bd c432 2f3d 94b0 38bd
000003b0: 287e 14bd 9171 2f3d cc2b 7d3d 6530 0ebd
000003c0: d3a1 723d dd67 9bbc cb97 39bd 5820 c4bd
000003d0: 9f91 573d 6740 70bd 2956 68bd 7811 073d
000003e0: 4909 873d 2e7e 9dbb 4c3f 583d 063c 1bbd
000003f0: 9222 123d aff4 63bd 4d0a d8bd 9bf8 e33c
-0.12494327 0.007397888 0.21556352 0.069495454 0.036391437 -0.10333404 0.03853066 -0.05474221
0.094468184 0.007254139 -0.121221416 -0.12174213 -0.07764149 0.0142043745 -0.019690601 0.027669095
0.035698146 -0.100437455 0.13541298 0.06521057 -0.11957655 0.026303552 0.033155385 0.022647902
-0.0016871043 -0.0072259572 -0.08503836 -0.07200038 0.0011814538 -0.08072409 -0.008689124 0.1215052
-0.03948475 -0.095848076 -0.01814141 -0.016862389 0.032590277 0.036397077 -0.10610917 -0.12434981
0.025862569 -0.118633576 -0.0017943536 -0.06837136 -0.009318977 0.042647712 0.03387248 0.046776015
0.05859152 -0.016834995 -0.07552795 -0.11480612 -0.13328202 0.045278914 -0.09955396 0.027294036
-0.09032105 0.10186517 0.07755299 0.034158733 -0.016902084 0.102947876 -0.05354177 0.19923256
-0.04569229 0.019396402 -0.039867934 -0.024257036 -0.046185642 0.12382064 -0.06271816 0.06371672
0.14908479 0.064343534 -0.10164452 0.031543702 -0.074440874 0.0050804107 0.08483545 -0.06489624
0.024676831 -0.19316809 -0.014542964 -0.018999454 0.0021861345 -0.06975171 -0.096850626 -0.05819875
-0.04615088 0.0028589559 -0.077330925 -0.008778401 -0.020143129 -0.026531411 0.039903965 0.11808422
0.015650136 -0.15154473 -0.12302903 -0.054233752 0.03799567 0.1786889 -0.07521859 0.14509924
-0.023382494 0.10736115 -0.10622051 0.00077083043 0.09275086 0.021189936 0.007842063 0.06950418
0.097596064 0.02282228 -0.023617383 0.008260839 0.0036988447 -0.060560554 0.026981821 -0.009588354
0.093753695 -0.023470152 0.0029236889 0.07161492 0.06586523 0.06415986 0.002063315 -0.059082247
-0.00043584075 -0.052401874 -0.04456828 -0.039846577 -0.10530861 0.038022302 -0.0026063686 0.011531669
-0.096485734 -0.040087808 -0.07229376 -0.005050181 0.084748 0.0641621 -0.095915884 -0.013752837
0.028160475 -0.038195603 -0.017784199 0.033396892 0.028931666 -0.01826692 0.09720092 -0.047269024
-0.081790276 -0.054739807 -0.00012761129 0.049112555 -0.05719241 -0.0061227665 -0.059160236 -0.053077746
0.043822624 -0.022022696 0.088721655 0.10184606 -0.06610324 0.0559077 0.013066664 -0.032373004
-0.087165095 0.05087435 0.07136602 0.03298214 0.025885753 0.015860127 0.11700332 -0.014134324
0.051983945 0.06431308 -0.055757448 0.037623536 0.06128659 -0.039568234 0.06604723 -7.09759e-05
0.010134248 -0.075774655 0.12837315 0.11392909 0.040372677 0.06686028 0.0334036 0.03069909
0.041500907 0.07904187 -0.07851519 0.0023339102 0.0045057074 0.08755792 -0.06573353 0.0375728
0.06840072 0.05918738 -0.024979012 0.097485535 0.08086094 0.08697895 -0.007121878 0.11732062
0.07896679 0.10932563 0.17685983 -0.10625191 -0.010087626 -0.07310027 -0.051292494 -0.12243007
0.024750145 0.03333161 -0.019485215 0.037792634 -0.034998607 -0.026867464 0.037707403 0.033830877
-0.010762627 0.038129084 -0.0040649716 -0.12091504 -0.04635089 0.031028204 -0.108267576 0.058040857
0.06347125 -0.102970764 0.042773023 -0.045090273 -0.036253124 0.042832915 0.061809346 -0.03471412
0.05923636 -0.018970424 -0.045310777 -0.095764816 0.05262911 -0.05865517 -0.056722794 0.032975644
0.06593568 -0.0048063016 0.05279474 -0.03789904 0.0356775 -0.05565327 -0.1054884 0.027828505

a2c_network.mu.bias f4 [10]
00000000: de5f 8d3d 4ae6 9c3d 4112 7e3d e721 da3c
00000010: e873 313c f122 cdbc 2b48 28bd 568c e4bc
00000020: 9840 043d 823a 423d
0.06903051 0.07661112 0.062029127 0.026627494 0.010830857 -0.025041075 -0.04108445 -0.027898949
0.032288164 0.04741908

exp_avg f4 [10]
00000000: f4c8 86b8 ebb1 cb3a fe29 59ba 46e8 a8b8
00000010: c859 2f3b 49e6 b53a ee0d f1b9 2725 b73a
00000020: 3904 b63a ea72 60bb
-6.427048e-05 0.0015540695 -0.00082841504 -8.0541286e-05 0.0026756395 0.0013877834 -0.0004597748 0.0013972864
0.0013886756 -0.0034248182

exp_avg_sq f4 [10]
00000000: fa8b 6038 cc62 6a38 b171 3a38 b07d 3338
00000010: 2566 4838 a119 2b38 4a52 7338 43b1 4e38
00000020: 59e9 1638 85b7 2138
5.3536125e-05 5.588196e-05 4.445174e-05 4.279398e-05 4.7778845e-05 4.0793446e-05 5.8012352e-05 4.9279315e-05
3.598011e-05 3.8556307e-05

exp_avg f4 [256, 42]
00000000: e333 5f38 a923 e8b9 17de c236 eaaf a6b8
00000010: 6851 063a 25f0 a0b9 fe22 3e3a dae2 5db9
00000020: 6371 1839 4748 7f39 3601 e637 fb61 0e38
00000030: dbc5 c5b8 6730 6a39 3c4d 67b9 6d58 7339
00000040: 3128 00ba cbdc d037 ff65 8139 e4b5 38b9
00000050: 3d9f 5a3a 0a9c b6b8 7ec3 0d39 1110 8db9
00000060: 135d 3939 4f97 f138 32a1 b7b8 8b41 d6b9
00000070: cdcb a737 e395 2338 fa8a f336 527d 3d39
00000080: ea42 9b3a 35f0 d0ba 852a a2b9 1293 393a
00000090: e465 e3ba 8d2c 2bbb 9163 87b8 f958 543a
000000a0: b618 b3b7 8fdb 013b 8bb1 e339 6797 7935
000000b0: e8a3 8239 93d7 9a38 b77d 05b8 e950 c737
000000c0: 147a d1b8 7eb4 3437 a31b 9737 d8c0 42ba
000000d0: 5e49 1e3a ebb9 1c3a d973 da38 ff17 0838
000000e0: 0c00 e939 e02e bab9 3be2 d8b8 c932 cbb8
000000f0: 318e ec39 ddaf 013a 8f27 9fb9 4c52 9a39
00000100: fd95 5838 5a8d 9438 043a e537 5635 1fb8
00000110: b8f7 bcb6 eb04 7638 ca4f 40b8 56f2 51b6
00000120: c95f bf38 4ded a1b7 8e3c 2b39 c636 0f39
00000130: c68c 4739 5e19 dd39 2c29 8e39 564d 8a39
00000140: f4d7 4ab9 7d76 b338 d52e 1939 71c6 3c38
00000150: 2939 9a36 7a8c e738 4c5c 07b9 b7f5 84b6
00000160: 9ff3 88b8 56f2 f338 8ef9 66b9 f068 8838
00000170: ba32 7538 d7ad 23b8 5c98 4e38 62d8 0f38
00000180: ac93 1037 c4d1 8eb7 110c b137 704f e337
00000190: 3bfa f3b7 570b 82b9 1fb0 dab8 51f5 a138
000001a0: 728c f0b9 ec01 03b7 1930 51b8 bf20 de38
000001b0: 8403 c5b8 8864 6eb8 519b cc38 7cf6 a738
000001c0: 0120 04b9 d6f4 a7b6 e811 9eb8 bafd 16b9
000001d0: 612f 9eb9 e12a a339 5193 6eb9 9a24 90b9
000001e0: d55d 153a 5ccd 683a acf8 87b9 c6fa f9b9
000001f0: 5679 8439 31c3 49ba 33c4 97b9 dc01 4b39
00000200: 3a03 bfb6 9c03 a0b9 c9ca 043a 7422 08b9
00000210: 5c1e 283a d113 7139 d37f 7e39 e262 d339
00000220: 3e28 c5b9 c823 e0b9 1b42 06b9 6f78 6ab6
00000230: 2361 b0b9 8559 233a ad30 1fb9 5122 5cb9
00000240: 1289 e6b8 6173 e6b9 94c6 4839 5edd 1f39
00000250: 3a8a bfb8 e684 c5b9 8eb7 c738 e713 2c39
00000260: 7a91 25b9 62bf bfb9 4d1a c6b7 031b e738
00000270: 69b6 93b9 4afd d338 f36b 50ba 193a a4ba
00000280: a931 19b9 8bdb 9fb8 b9f9 1fba 39e4 29bb
00000290: a8df a8b9 82c0 4d3a 88f4 2b3a 10a1 c43a
000002a0: 0549 04bb 64de a636 66cb b3ba 895a 00ba
000002b0: a993 3f3a d2c8 d6b8 f225 093a 9d50 b437
000002c0: b19a 243a 0cf8 7a3b edba 31bb 1196 33bb
000002d0: 7039 3fba 010b 2f39 3bb9 1fbb 71a4 1c3b
000002e0: ad47 0aba a30c f1b9 f697 f2ba a7e0 21bb
000002f0: 359a eb39 02f6 b4ba 33e9 2db9 5ba5 adb9
00000300: 2306 e2b7 c12c 0039 bbe6 e335 46b0 abb9
00000310: 4a82 dd38 51de 2739 57f9 02ba 1fd2 a7b8
00000320: 51b0 8ab9 2575 c6ba 240f f0ba a4dd deba
00000330: 6699 baba 9753 b6ba 0a62 fdb9 4f53 7c39
00000340: 0bc2 86b9 9792 ac39 5237 cbba b6ec c5b6
00000350: cbbd 94ba 1a23 06ba ff6b 623a c74b 3db9
00000360: 937f 623a 4974 84b8 271d 383a 1be9 463b
00000370: a911 08bb 7c79 09bb 43f3 2cba c57c 8139
00000380: dfc0 07bb 12b6 093b cba3 4aba bee1 ebb9
00000390: 5974 b0ba fd3e 02bb db2a 2d3a 148f 8fba
000003a0: 587b 0ab8 6462 cbb9 6599 9a38 8fe5 3939
000003b0: 7ad2 d5b8 451a 05ba 1a16 b2b7 5537 f038
000003c0: bd4f 08ba fc2d 6eb6 7bc9 d639 c6cb e4ba
000003d0: c2d2 ceba 3440 53ba 0c88 15bb f6c0 33bb
000003e0: 1f21 3aba 1302 e839 5d21 b539 14c0 a43a
000003f0: ef36 b136 b8f4 1039 cd13 79b8 4cbc 72b8
5.3215666e-05 -0.00044277057 5.807505e-06 -7.9482634e-05 0.0005123825 -0.000306965 0.0007253139 -0.00021160711
0.0001453809 0.0002434562 2.74187e-05 3.394669e-05 -9.4305455e-05 0.0002233401 -0.00022058649 0.00023207227
-0.00048888015 2.4898347e-05 0.0002468079 -0.00017615367 0.00083397684 -8.707501e-05 0.00013519634 -0.00026905586
0.00017677648 0.00011519959 -8.756145e-05 -0.00040866094 2.0002853e-05 3.900182e-05 7.2581433e-06 0.0001807113
0.0011845503 -0.0015940728 -0.00030930727 0.0007079105 -0.0017349091 -0.0026119084 -6.455847e-05 0.0008100416
-2.134997e-05 0.0019814705 0.00043429094 9.298005e-07 0.00024917652 7.383446e-05 -3.1826752e-05 2.3760325e-05
-9.9886354e-05 1.077086e-05 1.8013472e-05 -0.00074292487 0.0006038154 0.00059786317 0.00010416628 3.2447275e-05
0.00044441258 -0.0003551161 -0.00010341821 -9.689254e-05 0.0004511937 0.0004947165 -0.00030356317 0.00029434485
5.16381e-05 7.083519e-05 2.7325943e-05 -3.7958227e-05 -5.631675e-06 5.865555e-05 -4.5850677e-05 -3.1284485e-06
9.125431e-05 -1.9303197e-05 0.00016330389 0.00013657947 0.00019030561 0.00042171305 0.00027115026 0.0002637903
-0.0001934467 8.557455e-05 0.00014608663 4.5007506e-05 4.596212e-06 0.00011041104 -0.00012908987 -3.9625115e-06
-6.530363e-05 0.000116322815 -0.00022027476 6.5045315e-05 5.8459795e-05 -3.902413e-05 4.9256123e-05 3.429538e-05
8.617451e-06 -1.7025399e-05 2.1105663e-05 2.70975e-05 -2.908438e-05 -0.0002480398 -0.00010427855 7.722772e-05
-0.00045881007 -7.808656e-06 -4.9874277e-05 0.00010591884 -9.394347e-05 -5.683725e-05 9.756408e-05 8.009092e-05
-0.00012600423 -5.0054905e-06 -7.5373624e-05 -0.00014399635 -0.00030171408 0.0003112173 -0.00022752328 -0.0002749309
0.0005697881 0.00088806986 -0.00025934482 -0.00047679822 0.00025267404 -0.0007696627 -0.00028947144 0.00019360281
-5.692619e-06 -0.00030520267 0.0005065618 -0.00012982805 0.00064132153 0.00022990933 0.00024270946 0.0004031873
-0.0003760475 -0.00042751268 -0.00012803862 -3.4938819e-06 -0.00033641708 0.0006231296 -0.00015181555 -0.00020993619
-0.00010992786 -0.00043954983 0.00019147462 0.00015245887 -9.1333364e-05 -0.00037673785 9.523249e-05 0.00016410612
-0.0001578982 -0.0003657295 -2.3615687e-05 0.0001101997 -0.0002817393 0.00010108443 -0.0007950656 -0.0012529521
-0.00014609717 -7.622604e-05 -0.000610258 -0.0025923385 -0.00032210094 0.00078488153 0.00065595703 0.0015001614
-0.0020185125 4.973075e-06 -0.0013717234 -0.0004896303 0.0007308075 -0.00010241721 0.00052317895 2.149521e-05
0.00062791543 0.003829482 -0.0027119473 -0.002740268 -0.00072946306 0.000166934 -0.002437188 0.0023901726
-0.0005274963 -0.00045976517 -0.0018508423 -0.0024700554 0.00044937586 -0.0013806226 -0.00016585439 -0.0003312033
-2.6944157e-05 0.00012223703 1.6979969e-06 -0.00032746996 0.000105623694 0.0001600918 -0.0004996261 -8.002319e-05
-0.00026452777 -0.0015141113 -0.0018315059 -0.001700331 -0.001423639 -0.001391041 -0.00048328965 0.00024063628
-0.00025703045 0.00032915614 -0.0015504158 -5.8986143e-06 -0.0011348067 -0.0005116925 0.00086373085 -0.00018052674
0.0008640226 -6.31591e-05 0.0007023387 0.0030351344 -0.002076248 -0.0020976951 -0.0006597528 0.00024697758
-0.0020714325 0.0021013063 -0.00077300955 -0.00044990884 -0.0013462409 -0.001987397 0.0006605812 -0.0010952675
-3.3016637e-05 -0.00038792484 7.371864e-05 0.00017728492 -0.00010195836 -0.0005077462 -2.1229545e-05 0.00011454398
-0.000519987 -3.549153e-06 0.00040967375 -0.0017455749 -0.0015779363 -0.0008058578 -0.0022816686 -0.0027428246
-0.00071002723 0.00044252034 0.00034547868 0.0012569451 5.281406e-06 0.00013824075 -5.9384667e-05 -5.787266e-05
