logs/rl_games/humanoid_flat_direct/2025-11-18_23-36-49/nn/last_humanoid_flat_direct_ep_1350_rew_250.81833.pth (torch, 759553 bytes, 33 tensors)

value_mean_std.running_mean f8 [1]
53.67289468015021
00000000: e272 b269 21d6 4a40

value_mean_std.running_var f8 [1]
839.8183146791793
00000000: 4b07 91e8 8b3e 8a40

value_mean_std.count f8 []
530841601.0
00000000: 0000 0001 00a4 bf41

a2c_network.sigma f4 [10]
-1.0392923 -1.6860818 -1.167521 -1.1621721 -1.5342772 -0.6895045 -2.7970848 -1.737881
0.06920641 -1.210629
00000000: 8807 85bf 87d1 d7bf 5471 95bf 0ec2 94bf
00000010: 3263 c4bf 5e83 30bf 7003 33c0 e272 debf
00000020: 17bc 8d3d e4f5 9abf

a2c_network.actor_mlp.0.weight f4 [256, 42]
0.060775507 0.24257457 0.15145066 -0.20927538 0.034526262 -0.022343503 0.16518952 -0.1887539
-0.19958578 -0.06290793 -0.12213773 0.1227447 -0.06940029 -0.07885887 0.08556354 0.008432478
0.1478693 -0.18183675 0.04034667 -0.10148591 0.019023333 -0.21247819 -0.18614385 -0.17510448
0.10669475 0.20200562 -0.19167611 -0.24365385 0.29318357 0.000739829 0.18499741 -0.24639042
-0.1155218 -0.08801186 -0.091078036 0.056815904 0.019786175 0.13632989 -0.14383349 -0.114743546
0.07534751 -0.06588867 0.11822557 -0.10430163 0.122366235 -0.2602159 -0.06493303 0.13690144
0.16044004 0.08643915 0.033784423 0.060007133 -0.08377823 -0.055095006 0.31690633 -0.058724314
-0.00805395 -0.20782341 -0.13601622 0.052433234 -0.06588216 -0.06765543 0.14716108 -0.064533465
-0.11727809 -0.09083028 -0.4556628 -0.18078852 0.08520312 -0.02948075 -0.14563607 -0.2951125
-0.13988394 -0.026614793 0.018473526 -0.109888144 -0.090981245 -0.12484406 0.004705471 -0.03832416
0.008187261 -0.103545874 -0.022552019 -0.036060113 -0.046274453 -0.17593737 0.12862131 0.12290604
0.21654086 0.16285798 -0.08431575 0.14363848 -0.05782443 -0.07347666 -0.11580871 -0.14327472
0.24610592 -0.10977366 0.11383104 -0.18080014 0.18847957 -0.1021899 -0.069559336 0.010246879
0.15433547 0.2466652 0.44310144 -0.074270606 0.20001969 -0.30399558 -0.03333902 -0.06740957
0.17366868 -0.13207251 0.17085676 0.045065157 0.06144075 -0.13515507 0.15699579 0.06370022
0.0197508 -0.13771975 0.10580017 -0.0029190641 -0.11076273 0.1612031 0.020103615 -0.18913455
-0.12194498 0.014623344 0.13529827 -0.09661119 -0.107158326 -0.12197256 -0.13236922 0.07550213
0.101429775 -0.16545978 0.1580884 0.19693929 -0.00021947657 -0.0798329 0.17257214 0.14503202
0.082013495 -0.09070313 -0.06721214 0.09437259 0.1370221 0.015625944 0.09447227 0.055293906
0.10429555 -0.046896614 0.07311281 -0.12655346 0.008395878 -0.03856724 -0.15575404 -0.07364137
0.12244224 0.07724502 -0.039277148 -0.092207156 -0.11360596 -0.09762728 -0.03316423 0.022472957
0.13405262 0.111402616 -0.22705792 -0.12345696 0.063864745 0.17255162 0.08726692 -0.016857304
0.17461331 -0.08495903 -0.062028293 0.14539249 0.051625803 0.09924765 -0.14216933 0.039269347
0.15075016 0.073683575 -0.063888505 -0.16545926 -0.04780438 0.21150492 0.42441246 0.28751385
0.1849366 0.15019651 -0.0959116 -0.17508478 -0.13539049 -0.32666016 0.17920475 -0.061274372
0.026266523 -0.08465738 -0.010419291 -0.065734625 -0.13394307 -0.0055039455 -0.070553385 0.1100915
-0.038846105 -0.064382374 -0.02848115 0.0075398344 -0.13494381 -0.16791208 0.19164675 -0.08435465
0.072902754 0.21499644 0.16074173 -0.11827896 0.109513596 -0.0782457 0.16016145 0.18767807
-0.017321363 -0.051263813 -0.076782525 -0.2422639 0.09312592 -0.21621236 0.12050124 0.21630462
0.297611 -0.023470005 -0.12599304 0.13639927 -0.017836606 -0.17119184 0.1543873 -0.2253643
0.062565416 -0.08390329 -0.05659692 -0.08279841 -0.15926717 0.1863005 0.14183882 0.022375444
0.0017958407 -0.054656804 -0.13797882 -0.07552171 0.07594221 -0.021183591 -0.120892726 0.047375306
00000000: bdef 783d 7865 783e e215 1b3e 494c 56be
00000010: 696b 0d3d b909 b7bc 7127 293e b448 41be
00000020: 3760 4cbe dfd5 80bd 5923 fabd 9361 fb3d
00000030: bd21 8ebd c280 a1bd f03b af3d 6028 0a3c
00000040: 0d6b 173e 6a33 3abe 8d42 253d d8d7 cfbd
00000050: d2d6 9b3c e293 59be 7e9c 3ebe 974e 33be
00000060: c782 da3d 90da 4e3e be46 44be 6580 79be
00000070: 281c 963e 15f1 413a f66f 3d3e c54d 7cbe
00000080: b296 ecbd 903f b4bd 1f87 babd cbb7 683d
00000090: 9e16 a23c 109a 0b3e 1649 13be aafe eabd
000000a0: cc4f 9a3d a4f0 86bd 3f20 f23d 189c d5bd
000000b0: 269b fa3d 053b 85be 9cfb 84bd e42f 0c3e
000000c0: 654a 243e 0207 b13d 8961 0a3d 0aca 753d
000000d0: ec93 abbd 4dab 61bd 8c41 a23e e888 70bd
000000e0: b7f4 03bc a9cf 54be d647 0bbe 3bc4 563d
000000f0: 3aed 86bd ee8e 8abd 65b1 163e 1f2a 84bd
00000100: 7f2f f0bd 3a05 babd a24c e9be a020 39be
00000110: f97e ae3d 9d81 f1bc 9f21 15be fc18 97be
00000120: bc3d 0fbe 4407 dabc cb55 973c 090d e1bd
00000130: 6054 babd 3eae ffbd 5a30 9a3b cbf9 1cbd
00000140: dd23 063c dc0f d4bd 03bf b8bc c5b3 13bd
00000150: 488a 3dbd ed28 34be 4eb5 033e 29b6 fb3d
00000160: e3bc 5d3e 3ec4 263e bcad acbd f715 133e
00000170: 4fd9 6cbd ee7a 96bd 1e2d edbd 9cb6 12be
00000180: 3103 7c3e 03d1 e0bd 4020 e93d ac23 39be
00000190: ca00 413e f048 d1bd 2075 8ebd 87e2 273c
000001a0: 1e0a 1e3e cd95 7c3e 31de e23e 301b 98bd
000001b0: f6d1 4c3e 4fa5 9bbe 7f8e 08bd 070e 8abd
000001c0: 34d6 313e 043e 07be 13f5 2e3e 3e96 383d
000001d0: 4ca9 7b3d 1766 0abe 81c3 203e 4375 823d
000001e0: 6ecc a13c 6806 0dbe c2ad d83d c54d 3fbb
000001f0: 92d7 e2bd 6d12 253e 56b0 a43c 7dac 41be
00000200: 4abe f9bd c096 6f3c a18b 0a3e 16dc c5bd
00000210: d375 dbbd c0cc f9bd cc8b 07be dca0 9a3d
00000220: 6aba cf3d 4a6e 29be ede1 213e 74aa 493e
00000230: 4b23 66b9 6e7f a3bd c0b6 303e 4683 143e
00000240: b1f6 a73d 90c2 b9bd 85a6 89bd 6b46 c13d
00000250: 854f 0c3e fb01 803c ad7a c13d dd7b 623d
00000260: e898 d53d aa16 40bd 2bbc 953d 3b97 01be
00000270: dd8e 093c aff8 1dbd fd7d 1fbe 49d1 96bd
00000280: ffc2 fa3d a332 9e3d 13e1 20bd 1bd7 bcbd
00000290: 3eaa e8bd d0f0 c7bd 37d7 07bd 3519 b83c
000002a0: 1745 093e 0e27 e43d df81 68be 01d7 fcbd
000002b0: 85cb 823d 5fb1 303e 00b9 b23d 5418 8abc
000002c0: d5cd 323e 00ff adbd 6111 7ebd c5e1 143e
000002d0: 9475 533d 5a42 cb3d d694 11be e5d8 203d
000002e0: 405e 1a3e 6ae7 963d fad7 82bd 276e 29be
000002f0: 87ce 43bd bf94 583e 974c d93e 0435 933e
00000300: 0560 3d3e 1dcd 193e 4d6d c4bd 6d49 33be
00000310: cea3 0abe 0040 a7be 7381 373e d6fa 7abd
00000320: e42c d73c d960 adbd adb5 2abc e09f 86bd
00000330: 5f28 09be 715a b4bb 4b7e 90bd a777 e13d
00000340: 181d 1fbd e8da 83bd 4d51 e9bc b710 f73b
00000350: b62e 0abe 25f1 2bbe 0c3f 443e 21c2 acbd
00000360: 0a4e 953d 0728 5c3e 7b99 243e 3d3c f2bd
00000370: aa48 e03d 483f a0bd 5d01 243e ae2e 403e
00000380: 88e5 8dbc 01fa 51bd 2840 9dbd 0714 78be
00000390: cdb8 be3d c666 5dbe 5bc9 f63d f57e 5d3e
000003a0: 7860 983e 2b44 c0bc 5204 01be 40ac 0b3e
000003b0: 131e 92bc ea4c 2fbe b417 1e3e e6c5 66be
000003c0: 4c22 803d 7dd5 abbd 2cd2 67bd 3692 a9bd
000003d0: ef16 23be 8fc5 3e3e 323e 113e b54c b73c
000003e0: 6a62 eb3a d0df 5fbd 524a 0dbe 20ab 9abd
000003f0: 9787 9b3d 3689 adbc 9b96 f7bd 9c0c 423d

a2c_network.actor_mlp.0.bias f4 [256]
-0.0007248245 0.045895223 0.019029249 -0.01014383 0.027110951 -0.0013923876 0.018555814 0.021512613
0.0037839937 0.02325604 -0.009089773 -0.007893632 0.0068971347 0.012000019 0.020294482 0.0034769797
0.015063195 0.025532102 0.00031602907 -0.001577139 -0.02080701 -0.0025062852 0.005218201 0.0017640566
-0.015571642 0.03308978 -0.026733436 0.003378853 0.05151818 -0.009569946 0.018776903 -0.00012201403
0.024383865 -0.01770171 -0.0061208727 -0.019841418 0.014404354 0.002514605 -0.014289544 0.02410298
0.00069123774 0.022254225 0.013229471 -0.00937162 -0.022858521 0.01408527 0.015263593 0.022093337
0.008586873 -0.029846607 0.010915522 0.022240387 -0.023953253 -0.0019299593 0.00683832 -0.034278113
0.021509612 0.01333756 -0.032313574 0.03741303 -0.021578522 0.010504748 0.02203487 0.0274483
-0.0022566516 0.047255192 -0.006888169 0.017644543 -0.009684341 0.018674182 -0.017127326 -0.007249501
-0.0066115255 0.042641155 0.005340609 -0.018064685 -0.028078452 -0.006208938 -0.032910675 0.024485538
0.025614154 -0.0035921542 0.0024698514 -0.023506505 0.040099822 -0.009212828 -0.018281618 -0.0065047643
0.02265923 -0.023291096 0.02027521 0.014199625 0.017804626 -0.012957978 0.013236605 -0.007698543
0.013790171 0.02527857 -0.025451634 -0.0059862626 0.017753283 -0.003703768 -0.0004749255 0.02366289
0.046041466 0.027206067 -0.004858623 -0.011576503 -0.022214707 -0.025483344 0.01646339 0.03568068
-0.04430603 -0.036580388 -0.001775204 -0.0030643097 -0.0025855368 0.006043964 0.014377166 0.0039357757
-0.0048013236 -0.017762568 0.0143119395 0.028405333 0.008273904 0.011652457 -0.0074765184 -0.016911032
-0.028244596 -0.018734144 -0.016749226 0.016420115 -0.01919218 -0.0038137175 0.013404114 0.02197069
0.0071957284 -0.0318979 0.0078058504 -0.009547057 0.021349179 0.03318673 -0.003229127 -0.018412003
0.012994148 -0.027837386 0.025932383 -0.004248158 0.01702211 -0.015200419 0.033539023 0.001549092
0.009370631 0.011559166 -0.00027200035 -0.002666787 -0.0059950682 -0.011614063 0.039621554 0.006428828
-0.00077258074 0.049352817 -0.01437778 -0.009909048 0.001973447 0.035124887 0.016302753 -0.017266804
0.036275778 0.03859502 -0.014369541 -0.00349437 -0.0022172711 -0.012334849 0.028174352 0.025634943
0.020096581 -0.039611213 0.023289287 0.038081866 0.024417203 0.00071060064 -0.01120055 -0.011269922
0.032722175 -0.0059266468 -0.0028683217 0.019571822 -0.005808831 0.060734272 0.007207175 0.054489035
-0.010624147 0.008364965 0.039568104 -0.0072269416 -0.025049806 0.001563803 0.022713097 0.006668303
0.0023559278 -0.013122498 0.021424424 -0.019852268 0.006013139 -0.04059092 0.022296265 -0.022277035
0.009648969 0.011752083 0.0134402 0.024374159 -0.00779318 0.0029022049 0.021643857 -0.0076485896
0.0051300786 0.014958489 -0.0030174346 0.013715888 0.01965446 0.015860593 0.005201874 0.033916254
0.0070955525 -0.038774915 -0.00695593 0.014992852 0.015789127 0.039112348 0.032884143 -0.006049295
-0.0006726513 -0.048436835 0.027275743 0.043119155 0.0047928286 -0.0064060637 -0.016339002 0.0025797943
0.008630689 0.004095691 0.01920273 0.022703107 0.037302844 0.033141118 0.03370493 -0.019996002
0.013778808 -0.02631318 -0.028035523 -0.0028060072 0.016098443 -0.011570996 0.020344615 -0.008700053
00000000: 2602 3eba a1fc 3b3d 3ae3 9b3c 4f32 26bc
00000010: c917 de3c c680 b6ba 5d02 983c 383b b03c
00000020: e1fc 773b 7383 be3c 45ed 14bc 4b54 01bc
00000030: 5c01 e23b ba9b 443c 9d40 a63c 0ade 633b
00000040: 9ecb 763c b328 d13c b4b0 a539 01b8 ceba
00000050: 7673 aabc 7d40 24bb 71fd aa3b eb37 e73a
00000060: 3320 7fbc 2689 073d 1400 dbbc bf6f 5d3b
00000070: ba04 533d 43cb 1cbc 05d2 993c c9e1 ffb8
00000080: acc0 c73c 2d03 91bc 9a91 c8bb 788a a2bc
00000090: 3d00 6c3c 12cc 243b b11e 6abc 9d73 c53c
000000a0: 2e34 353a 7e4e b63c 6cc0 583c 6c8b 19bc
000000b0: cb41 bbbc e8c5 663c 2614 7a3c 16fd b43c
000000c0: f5af 0c3c df80 f4bc 05d7 323c 7931 b63c
000000d0: 9d39 c4bc b0f6 fcba fc13 e03b 3567 0cbd
000000e0: ed34 b03c c885 5a3c 3d5b 04bd 683e 193d
000000f0: 71c5 b0bc 1b1c 2c3c 7982 b43c 42db e03c
00000100: 55e4 13bb a98e 413d 26b6 e1bb 4a8b 903c
00000110: 12ab 1ebc 99fa 983c 9b4e 8cbc 398d edbb
00000120: 7fa5 d8bb 7ea8 2e3d 4600 af3b 64fc 93bc
00000130: c804 e6bc 5974 cbbb 58cd 06bd e595 c83c
00000140: c6d4 d13c 596a 6bbb 3bdd 213b b790 c0bc
00000150: b63f 243d 67f1 16bc 55c3 95bc eb25 d5bb
00000160: d99f b93c f8cc bebc 3218 a63c 8ba5 683c
00000170: 02db 913c b34d 54bc 58de 583c 0f44 fcbb
00000180: 2bf0 613c 0115 cf3c f27f d0bc 6928 c4bb
00000190: 556f 913c eaba 72bb 6cff f8b9 add8 c13c
000001a0: fa95 3c3d 42df de3c 1535 9fbb 5fab 3dbc
000001b0: 9efb b5bc 72c2 d0bc 3bde 863c e825 123d
000001c0: 3d7a 35bd 51d5 15bd f6ad e8ba 96d2 48bb
000001d0: 1c72 29bb 720c c63b 348e 6b3c aef7 803b
000001e0: 6c54 9dbb ce82 91bc a07c 6a3c 4db2 e83c
000001f0: 458f 073c f2e9 3e3c 95fd f4bb 0189 8abc
00000200: 3661 e7bc 5978 99bc ac35 89bc 7a83 863c
00000210: eb38 9dbc 90ef 79bb ee9c 5b3c e0fb b33c
00000220: 25ca eb3b 5fa7 02bd 38c8 ff3b 426b 1cbc
00000230: 79e4 ae3c cfee 073d c39f 53bb c5d4 96bc
00000240: 68e5 543c 3b0b e4bc 2670 d43c 2234 8bbb
00000250: f471 8b3c 2e0b 79bc 3760 093d e70a cb3a
00000260: 4687 193c a862 3d3c 459b 8eb9 43c5 2ebb
00000270: 4772 c4bb e948 3ebc 364a 223d eba8 d23b
00000280: 0487 4aba 2e26 4a3d c890 6bbc 8f59 22bc
00000290: f254 013b 1ddf 0f3d 5a8d 853c 1d73 8dbc
000002a0: e995 143d d015 1e3d 396e 6bbc cd01 65bb
000002b0: a34f 11bb 1b18 4abc e6cd e63c 5f00 d23c
000002c0: 96a1 a43c 5e3f 22bd 2dc9 be3c bbfb 1b3d
000002d0: 9606 c83c 9a47 3a3a 8382 37bc 7ba5 38bc
000002e0: b007 063d 5134 c2bb 74fa 3bbb 1655 a03c
000002f0: 0258 bebb 80c4 783d 2a2a ec3b e52f 5f3d
00000300: e710 2ebc 350d 093c 2a12 223d fbcf ecbb
00000310: 4035 cdbc 85f8 cc3a d110 ba3c c881 da3b
00000320: e965 1a3b bfff 56bc 4682 af3c 39a1 a2bc
00000330: de09 c53b aa42 26bd a8a6 b63c 547e b6bc
00000340: b616 1e3c cf8b 403c 4934 5c3c 51ac c73c
00000350: ef5d ffbb eb32 3e3b 754e b13c 05a1 fabb
00000360: 381a a83b 7314 753c 27c0 45bb 9bb8 603c
00000370: 6402 a13c 13ee 813c 7b74 aa3b c5eb 0a3d
00000380: cf81 e83b 72d2 1ebd 92ee e3bb 94a4 753c
00000390: 3358 813c 4534 203d 86b1 063d 2a39 c6bb
000003a0: dd54 30ba b465 46bd 6171 df3c b69d 303d
000003b0: 290d 9d3b f5e9 d1bb 5fd9 85bc c411 293b
000003c0: bc67 0d3c 2535 863b 0b4f 9d3c defb b93c
000003d0: deca 183d fbbe 073d 2e0e 0a3d a8ce a3bc
000003e0: 82c0 613c bd8e d7bc c1aa e5bc fde4 37bb
000003f0: e2e0 833c 4694 3dbc c0a9 a63c ab8a 0ebc

a2c_network.actor_mlp.2.weight f4 [128, 256]
0.07810066 0.09118363 -0.010397042 -0.035057887 0.07498016 0.052223474 0.07617789 0.1429074
0.054566838 -0.04221335 -0.13364483 0.16061701 -0.06948096 0.04923204 -0.051321886 0.004058815
0.01926184 -0.045907848 0.05177967 -0.08390493 0.017362313 -0.036190636 -0.007860942 -0.07652726
0.0004046474 0.03308373 -0.0046782778 0.08893182 -0.15918975 -0.026005045 0.02773623 -0.057997536
0.012272329 -0.118879035 -0.030268772 -0.11687469 0.040685423 -0.09017371 0.0659518 0.044640534
-0.13334383 0.077078074 -0.013311539 -0.037301145 0.060113877 -0.045247402 0.04941006 0.027226873
-0.025505474 0.012109229 0.057697136 -0.07715727 0.079751395 0.09146691 -0.00901915 0.010939363
-0.13216111 0.032452434 0.04541905 0.043497253 0.1674673 -0.003034858 0.009848535 0.10476438
0.07301482 -0.0011086131 -0.045620587 -0.09701776 0.046798952 0.06696993 -0.047344327 0.04322584
-0.051692653 0.051088706 0.004484012 -0.174283 -0.07320404 -0.03453658 -0.05535254 0.07598411
-0.13175572 0.099140525 0.0252411 -0.07030074 0.038884755 0.044847805 -0.052743733 -0.09667643
0.07093821 -0.07982039 0.23785731 -0.014512981 -0.014285782 -0.08283916 -0.058679424 -0.17859171
-0.071227156 -0.011765293 0.040571958 -0.0061590024 0.092339434 -0.09643014 -0.08990713 -0.11706848
-0.00045602812 0.105224535 -0.03641069 0.008308656 -0.010806275 -0.0046508815 -0.07807134 -0.020840682
0.09994507 -0.03459177 0.052296452 -0.040153727 -0.14092046 -0.027537247 -0.027635498 0.11528369
-0.10838605 -0.00069105555 -0.021842325 0.09085973 -0.0077795964 0.15191686 0.0895474 0.0126363775
-0.14109392 0.0506303 -0.023698408 -0.0065270015 0.047635265 -0.011549323 -0.029025475 0.00016104836
0.029759107 0.099498175 0.017139692 0.0019516792 -0.044834714 -0.1222306 0.04610455 -0.0693062
0.0300659 0.005687963 0.0726653 -0.064701416 -0.049171213 -0.03497442 0.021313144 -0.034007084
0.0972008 0.14336035 -0.13092239 -0.025496956 -0.026056534 -0.023014223 -0.034483355 -0.055530548
-0.043451596 0.012298065 -0.017205343 -0.05649548 -0.013621368 -0.04149393 0.20246644 -0.11298202
0.022169832 -0.0049546417 -0.02737209 0.11394472 0.0160343 -0.073532715 -0.08841484 -0.0930402
-0.02591499 0.018384 0.12854338 -0.040572107 0.03000319 -0.16514106 -0.023214258 -0.0023756598
-0.011772321 -0.06116306 -0.024487024 0.07901572 0.02063522 0.061930712 -0.13908799 -0.0140387295
-0.113025025 0.013167912 -0.1423823 0.26227432 -0.03155496 0.029537858 0.060230725 0.027380677
0.09378165 -0.064629376 -0.10719708 0.005463296 0.037802678 0.089508936 0.017782584 -0.07565501
-0.025504217 -0.035250552 0.023688117 0.004182841 0.006370837 -0.069728255 0.039103344 -0.10464953
-0.13608934 0.20887737 -0.01709196 0.17844704 0.1190631 -0.056086764 0.08889139 0.010230678
0.098146185 0.07555844 -0.0384909 0.03408094 0.09339754 -0.07043249 0.048136104 0.10508787
0.040054195 -0.005462092 -0.014018472 0.039153907 0.122369125 -0.06329208 -0.086048484 0.025261452
-0.1321693 -0.040736254 0.028634172 0.1065621 -0.029659657 0.101994306 -0.0628702 0.13273221
0.045826536 -0.15266277 0.025048593 0.09608931 0.010355461 0.11081016 -0.039877106 0.04784493
00000000: 3df3 9f3d 7cbe ba3d 5b58 2abc dc98 0fbd
00000010: 338f 993d 48e8 553d 2703 9c3d 5156 123e
00000020: 7a81 5f3d e8e7 2cbd 31da 08be c978 243e
00000030: 094c 8ebd 89a7 493d e636 52bd cfff 843b
00000040: 02cb 9d3c de09 3cbd eb16 543d 59d6 abbd
00000050: 693b 8e3c a23c 14bd 2ecb 00bc 53ba 9cbd
00000060: db26 d439 ce82 073d 3d4c 99bb e321 b63d
00000070: a302 23be 8808 d5bc 1737 e33c d38e 6dbd
00000080: e111 493c da76 f3bd 37f6 f7bc ff5b efbd
00000090: c2a5 263d feac b8bd bd11 873d fed8 363d
000000a0: 498b 08be 1cdb 9d3d a418 5abc 16c9 18bd
000000b0: f839 763d 5755 39bd 3462 4a3d e40a df3c
000000c0: dbf0 d0bc ca65 463c d553 6c3d a104 9ebd
000000d0: b354 a33d 0153 bb3d 0fc5 13bc 043b 333c
000000e0: 3e55 07be d8ec 043d 5309 3a3d 2d2a 323d
000000f0: 8c7c 2b3e 78e4 46bb c05b 213c b58e d63d
00000100: cb88 953d e24e 91ba a7dc 3abd 3fb1 c6bd
00000110: 42b0 3f3d 8827 893d 20ec 41bd 940d 313d
00000120: adbb 53bd 6442 513d 9eee 923b 3e77 32be
00000130: 00ec 95bd 3b76 0dbd 58b9 62bd 8f9d 9b3d
00000140: f9ea 06be 300a cb3d 6cc6 ce3c d6f9 8fbd
00000150: 9f45 1f3d 55b2 373d d009 58bd 4bfe c5bd
00000160: 0d48 913d df78 a3bd de90 733e dbc7 6dbc
00000170: ea0e 6abc 94a7 a9bd d659 70bd bfe0 36be
00000180: 8bdf 91bd 37c3 40bc c82e 263d 75d1 c9bb
00000190: 751c bd3d 2a7d c5bd 3b21 b8bd 99c1 efbd
000001a0: 0f17 efb9 f67f d73d 6023 15bd 0721 083c
000001b0: cd0c 31bc 6c66 98bb dee3 9fbd 14ba aabc
000001c0: 00b0 cc3d 1ab0 0dbd ce34 563d 3c78 24bd
000001d0: 744d 10be cb95 e1bc d763 e2bc db19 ec3d
000001e0: 81f9 ddbd f427 35ba adee b2bc ab14 ba3d
000001f0: fceb febb 1890 1b3e a164 b73d cf08 4f3c
00000200: ed7a 10be b861 4f3d 2a23 c2bc 75e0 d5bb
00000210: 321d 433d 5f39 3dbc d5c6 edbc 17df 2839
00000220: 5fc9 f33c b3c5 cb3d 8a68 8c3c 7dcf ff3a
00000230: 9ba4 37bd 0954 fabd 20d8 3c3d 69f0 8dbd
00000240: c34c f63c 1862 ba3b 8bd1 943d 2d82 84bd
00000250: c167 49bd 5641 0fbd e798 ae3c 034b 0bbd
00000260: 3711 c73d 0ecd 123e 8510 06be fede d0bc
00000270: 8374 d5bc 5388 bcbc 6b3e 0dbd 0074 63bd
00000280: 4dfa 31bd d37d 493c 38f2 8cbc ce67 67bd
00000290: 292c 5fbc 8af5 29bd 5d53 4f3e 1e63 e7bd
000002a0: 829d b53c 8c5a a2bb 6f3b e0bc d95b e93d
000002b0: 5d5a 833c 5298 96bd d712 b5bd dc8b bebd
000002c0: ac4b d4bc 0b9a 963c e0a0 033e f02e 26bd
000002d0: 40c9 f53c bd1a 29be d42b bebc f5b0 1bbb
000002e0: b1e0 40bc 1e86 7abd 0399 c8bc fed2 a13d
000002f0: 310b a93c 0fab 7d3d 156d 0ebe b302 66bc
00000300: aa79 e7bd 3abe 573c aacc 11be d248 863e
00000310: c63f 01bd 61f9 f13c 7eb4 763d 714d e03c
00000320: 9810 c03d 685c 84bd 258a dbbd 7305 b33b
00000330: fbd6 1a3d 7650 b73d c8ac 913c 04f1 9abd
00000340: 38ee d0bc e262 10bd 950d c23c 3710 893b
00000350: 74c2 d03b b0cd 8ebd d42a 203d 7e52 d6bd
00000360: 015b 0bbe f3e3 553e 7004 8cbc d2ba 363e
00000370: 5bd7 f33d 3cbb 65bd b00c b63d 939e 273c
00000380: de00 c93d 62be 9a3d a2a8 1dbd 7598 0b3d
00000390: 3647 bf3d e93e 90bd 5d2a 453d 4f38 d73d
000003a0: de0f 243d 59fb b2bb bcad 65bc d95f 203d
000003b0: aa9c fa3d 479f 81bd 303a b0bd 1bf1 ce3c
000003c0: 6457 07be 0fdb 26bd 3692 ea3c 3b3d da3d
000003d0: cff8 f2bc 64e2 d03d 17c2 80bd f4ea 073e
000003e0: 9bb4 3b3d a153 1cbe b532 cd3c 79ca c43d
000003f0: f4a9 293c 70f0 e23d 2d56 23bd 0cf9 433d

a2c_network.actor_mlp.2.bias f4 [128]
-0.0031354486 0.023765719 -0.03465959 -0.050342448 -0.0006943616 -0.045658212 -0.0068546464 -0.030897401
-0.045544 -0.033157982 -0.0145249525 0.0153930215 -0.01248905 -0.02363018 0.018847467 -0.010101101
-0.011334681 -0.009746347 -0.012402396 0.018214516 0.025785986 -0.044179343 -0.003262614 0.038884085
-0.032128412 -0.0090464 -0.023604216 0.031217204 0.0021038852 0.01773365 -0.0063146167 0.009936371
-0.067687735 0.011685562 -0.045694534 -0.018618017 -0.0036546479 0.0041097 0.009011262 -0.022609685
0.0033345588 0.010185599 0.02422178 -0.008863012 0.012909633 -0.0037945302 0.01092028 -0.03076352
-0.027080255 0.02163418 -0.00021715499 0.008169039 0.008826317 -0.061962247 -0.031029427 -0.003501144
-0.0047452524 -0.023731578 -0.019020893 0.019281706 -0.064025536 0.026989488 -0.011150224 -0.045768134
-0.0014869778 -0.04403234 0.0077801975 -0.0023719906 0.012896607 -0.019771274 -0.059850488 -0.036898315
-0.024115516 0.004162642 0.0009388725 0.023167701 -0.030629138 0.014254904 -0.0407766 0.003307907
0.01942681 0.02461341 0.013055382 0.010743244 0.011831422 -0.0030598983 0.014024787 0.00021480015
0.011006063 -0.010765738 0.019989232 0.018546598 0.0008389534 -0.0031249647 0.0074194535 -0.014086813
-0.009655788 -0.018983694 -0.05541509 0.013152033 -0.026533315 -0.045342315 0.038608328 0.008873474
-0.021376895 -0.011295085 -0.046929184 -0.046070382 -0.0014514556 -0.019242177 0.007286857 0.008631513
-0.024449829 -0.002961945 0.0030321816 0.014105771 0.007846926 -0.0055485168 -0.014236077 -0.038734186
0.0013323923 -0.053921122 -0.042175338 -0.0077826446 0.008694031 0.038158294 0.027125385 0.02062328
00000000: 197c 4dbb 53b0 c23c 37f7 0dbd e233 4ebd
00000010: d105 36ba 1b04 3bbd f19c e0bb 8c1c fdbc
00000020: 588c 3abd aad0 07bd 11fa 6dbc 0333 7c3c
00000030: df9e 4cbc 1494 c1bc 0166 9a3c 177f 25bc
00000040: 19b5 39bc 24af 1fbc 6b33 4bbc 9c36 953c
00000050: 223d d33c 66f5 34bd 94d1 55bb eb44 1f3d
00000060: 1599 03bd 5a37 14bc a15d c1bc 39bb ff3c
00000070: 56e1 093b 2946 913c d8ea cebb 29cc 223c
00000080: de9f 8abd cd74 3f3c 312a 3bbd d084 98bc
00000090: d182 6fbb aaaa 863b f9a3 133c f237 b9bc
000000a0: 9d88 5a3b 80e1 263c c16c c63c 2b36 11bc
000000b0: ed82 533c a7ad 78bb f9ea 323c c703 fcbc
000000c0: 69d7 ddbc 2a3a b13c 19b4 63b9 6fd7 053c
000000d0: 429c 103c 20cc 7dbd 6d31 febc 7373 65bb
000000e0: 107e 9bbb ba68 c2bc b4d1 9bbc abf4 9d3c
000000f0: d21f 83bd 0f19 dd3c 6eaf 36bc 5e77 3bbd
00000100: b2e6 c2ba 415b 34bd 07f1 fe3b 6673 1bbb
00000110: 4a4c 533c 5ef7 a1bc c925 75bd b022 17bd
00000120: e78d c5bc c666 883b ab1e 763a 31ca bd3c
00000130: f5e9 fabc 678d 693c 5d05 27bd 78c9 583b
00000140: f924 9f3c 10a2 c93c 3ee6 553c 6e04 303c
00000150: 95d8 413c 9388 48bb 38c8 653c fa3b 6139
00000160: c652 343c c762 30bc 75c0 a33c 09ef 973c
00000170: 36ed 5b3a 35cc 4cbb e31e f33b 60cc 66bc
00000180: 4f33 1ebc b183 9bbc effa 62bd a07b 573c
00000190: 655c d9bc ddb8 39bd c423 1e3d 0c62 113c
000001a0: 991e afbc 050f 39bc d138 40bd 4cb4 3cbd
000001b0: c53e beba c5a1 9dbc 96c6 ee3b 316b 0d3c
000001c0: 024b c8bc 311d 42bb 91b7 463b e41b 673c
000001d0: 6590 003c 55d0 b5bb 6f3e 69bc bda7 1ebd
000001e0: aba3 ae3a 65dc 5cbd 0cc0 2cbd 8e05 ffbb
000001f0: 6971 0e3c df4b 1c3d 0e36 de3c 27f2 a83c

a2c_network.actor_mlp.4.weight f4 [128, 128]
0.14382559 -0.07249934 0.036713876 -0.08596583 -0.056065805 0.06408523 -0.02372222 -0.1954383
0.09565005 -0.10266779 0.11621461 -0.055257533 0.12722096 -0.054483946 0.13975435 -0.04310483
0.02858376 0.18544136 0.05563615 -0.08434776 -0.0773827 0.21752957 -0.075602 -0.09464773
-0.0048105707 -0.25053436 -0.07776215 0.10442547 -0.005302886 -0.04537092 0.020754514 -0.11247933
0.041837305 -0.0763258 0.09615175 0.015012051 0.12733832 0.055267803 -0.00986081 0.0761318
-0.15824135 0.12820062 -0.11027704 0.17378154 -0.07419468 -0.014206449 0.083450474 -0.08418978
0.06978577 -0.115528546 0.020711312 -0.22048381 0.05024007 -0.022333758 0.18938236 -0.1855378
-0.102005735 0.04777158 -0.12788807 -0.06272439 0.08486819 -0.043604046 0.05895728 0.04191366
-0.019750847 0.150142 -0.07185465 -0.006920708 -0.1422447 -0.107754536 0.18482605 -0.31143916
0.018991282 -0.052941296 -0.17195508 -0.03527041 -0.020596826 -0.149996 0.1630489 -0.05717701
0.037743933 -0.08363277 0.04979567 0.018821096 0.005802207 0.03834012 0.012280932 -0.1331936
-0.0741328 -0.13186812 0.07586166 -0.23788267 -0.023230964 0.015374564 0.11105207 -0.00052939425
-0.11161743 0.1889791 0.15189391 -0.10248673 0.026248865 -0.11322082 0.036876976 0.34027007
0.02758369 -0.16030727 0.11401537 0.04787229 0.056523416 0.21891579 -0.075880095 -0.29080904
0.0194489 0.012994101 -0.24445261 0.1744391 0.03467739 0.10918533 -0.003098428 0.012555491
0.090961315 -0.008268067 0.008333324 -0.07749526 -0.025022415 0.046131656 0.00869012 0.12382155
-0.0026515292 0.0011672799 -0.1746494 0.057458777 0.12967072 -0.06427103 0.15008059 -0.08894904
0.012189594 0.02617787 0.003983214 0.031899374 0.06614182 -0.12021685 -0.004716773 -0.044360247
0.01622437 -0.056553993 -0.09083414 -0.048555803 0.14020117 -0.09912639 -0.17372651 0.105699025
-0.022896117 -0.13387881 -0.062479492 0.035233602 0.067070775 0.09775895 -0.03204598 -0.035035707
-0.030822193 0.08145198 0.06333942 -0.10783109 0.10795774 -0.08628105 0.03733327 0.028726028
-0.03549341 -0.0601594 0.06173889 -0.26080295 -0.061295964 -0.0018194917 0.068991505 -0.111586474
0.058486965 0.114049636 -0.0058048717 -0.1875585 0.04602754 0.037592225 5.849227e-05 -0.0047712093
-0.1295509 -0.03129032 0.14364594 0.21596357 -0.06752621 -0.028444443 0.020280262 -0.04038651
-0.097645305 -0.028575594 0.18170975 0.027128916 -0.048685562 -0.09746885 0.013802118 -0.14233014
0.027206024 -0.054250788 0.053502325 0.23430212 0.007967411 0.12492657 -0.19427408 0.11362255
-0.06651223 0.08753986 0.012352603 -0.14348091 0.02439819 -0.05671787 0.0066874907 -0.13698201
0.14558968 -0.07296692 0.058405295 0.01607658 -0.16829756 0.18594341 -0.106757805 -0.043216586
-0.092769794 -0.017335238 -0.15165654 0.06584535 -0.09998535 -0.10713764 0.06521388 -0.22471184
-0.1515341 0.092549786 -0.029655965 0.01960403 -0.15617023 -0.0884333 -0.055627737 -0.048246805
0.070616916 0.20098265 0.005856876 0.11333185 -0.014340278 -0.04193036 -0.07830628 0.0095100785
-0.10114016 -0.038681317 -0.20821568 -0.01103916 -0.0054766894 0.039781243 -0.007949502 -0.18953542
00000000: 0447 133e 897a 94bd 4a61 163d da0e b0bd
00000010: 42a5 65bd 1e3f 833d 1a55 c2bc fa20 48be
00000020: 2ce4 c33d 7e43 d2bd ed01 ee3d b955 62bd
00000030: 3646 023e 8f2a 5fbd c41b 0f3e b18e 30bd
00000040: 7d28 ea3c 57e4 3d3e bbe2 633d 85be acbd
00000050: d27a 9ebd 12c0 5e3e 39d5 9abd abd6 c1bd
00000060: fea1 9dbb 0a46 80be c341 9fbd 05dd d53d
00000070: d5c3 adbb dcd6 39bd 5f05 aa3c 905b e6bd
00000080: 985d 2b3d b350 9cbd 35eb c43d 1bf5 753c
00000090: fa64 023e 7e60 623d 3c8f 21bc fdea 9b3d
000000a0: 050a 22be 0647 033e eed8 e1bd caf3 313e
000000b0: 61f3 97bd 2ac2 68bc 15e8 aa3d b16b acbd
000000c0: d7eb 8e3d 3b9a ecbd c5aa a93c 82c6 61be
000000d0: 88c8 4d3d 49f5 b6bc 73ed 413e 9ffd 3dbe
000000e0: 62e8 d0bd 22ac 433d 17f5 02be a575 80bd
000000f0: 60cf ad3d 289a 32bd 307d 713d a8ad 2b3d
00000100: 87cc a1bc d3be 193e 8828 93bd 1bc7 e2bb
00000110: 98a8 11be 69ae dcbd 0a43 3d3e f474 9fbe
00000120: 9b93 9b3c f9d8 58bd fe14 30be b577 10bd
00000130: adba a8bc 8d98 19be 4af6 263e 7132 6abd
00000140: 6299 1a3d a847 abbd 8bf6 4b3d b32e 9a3c
00000150: 7120 be3b 880a 1d3d f635 493c e763 08be
00000160: f0d2 97bd 7008 07be 5c5d 9b3d 8497 73be
00000170: dd4e bebc 98e5 7b3c 456f e33d 0cc7 0aba
00000180: ae97 e4bd bd83 413e 148a 1b3e 90e4 d1bd
00000190: dc07 d73c 51e0 e7bd 500c 173d e137 ae3e
000001a0: 31f7 e13c 9727 24be e480 e93d bc15 443d
000001b0: 1985 673d 762b 603e 0667 9bbd ece4 94be
000001c0: 4d53 9f3c 36e5 543c c951 7abe 2aa0 323e
000001d0: e109 0e3d 8f9c df3d ff0e 4bbb 8cb5 4d3c
000001e0: ed49 ba3d c976 07bc 7f88 083c d6b5 9ebd
000001f0: cffb ccbc 8cf4 3c3d 0161 0e3c 2796 fd3d
00000200: 47c5 2dbb 6aff 983a 4bd7 32be e559 6b3d
00000210: 67c8 043e 88a0 83bd baae 193e ea2a b6bd
00000220: ddb6 473c f972 d63c 9f85 823b eba8 023d
00000230: 5d75 873d 4034 f6bd 298f 9abb 17b3 35bd
00000240: f8e8 843c 29a5 67bd 4007 babd 73e2 46bd
00000250: e590 0f3e c702 cbbd 5de5 31be bb78 d83d
00000260: a390 bbbc 8717 09be 7fea 7fbd 1c51 103d
00000270: 675c 893d d835 c83d a542 03bd 9a81 0fbd
00000280: d37e fcbc 4cd0 a63d 19b8 813d 8cd6 dcbd
00000290: f318 dd3d 1fb4 b0bd c5ea 183d d952 eb3c
000002a0: 8a61 11bd b469 76bd ebe1 7c3d f787 85be
000002b0: 7a11 7bbd 037c eeba 6b4b 8d3d 7387 e4bd
000002c0: 0790 6f3d db92 e93d cb36 bebb 560f 40be
000002d0: 6087 3c3d 4efa 193d 9955 7538 ce57 9cbb
000002e0: fea8 04be 472a 00bd ec17 133e 8e25 5d3e
000002f0: 2e4b 8abd 5204 e9bc cb22 a63c 536c 25bd
00000300: 43fa c7bd 5d17 eabc 1f12 3a3e 763d de3c
00000310: 836a 47bd c09d c7bd 4722 623c febe 11be
00000320: 2bdf de3c 1336 5ebd 4125 5b3d e5ec 6f3e
00000330: be89 023c 80d9 ff3d c9ef 46be f1b2 e83d
00000340: 9037 88bd 1948 b33d 9262 4a3c a9ec 12be
00000350: b7de c73c ff50 68bd bd22 db3b 0345 0cbe
00000360: 7615 153e ae6f 95bd 643a 6f3d 08b3 833c
00000370: 3256 2cbe f367 3e3e d6a3 dabd e003 31bd
00000380: 17fe bdbd a102 8ebc da4b 1bbe edd9 863d
00000390: 1fc5 ccbd fb6a dbbd db8e 853d dc1a 66be
000003a0: c12b 1bbe be8a bd3d 11f1 f2bc a198 a03c
000003b0: 17eb 1fbe 851c b5bd e9d9 63bd 719e 45bd
000003c0: 9a9f 903d 65ce 4d3e 09eb bf3b 871a e83d
000003d0: 7cf3 6abc 2bbf 2bbd 0b5f a0bd 29d0 1b3c
000003e0: 9222 cfbd 4d70 1ebd 7e36 55be 98dd 34bc
000003f0: cd75 b3bb a8f1 223d a13e 02bc 9315 42be

a2c_network.actor_mlp.4.bias f4 [128]
-0.03981144 0.013718692 0.020752048 -0.009911566 -0.012440565 -0.06646747 -0.009054272 0.0077120364
-0.09912952 -0.025831684 -0.034753572 -0.010960042 0.0027665454 0.005809701 -0.019064525 -0.04907787
0.02799292 -0.00311255 0.035415795 0.024154263 -0.027981468 -0.067793645 -0.054248508 -0.13817894
-0.045735102 -0.022929251 -0.02172254 -0.0063192407 0.024204541 -0.04241541 0.015157332 0.037751235
0.0015057332 0.003447201 0.02193468 0.0056587025 -0.011868311 0.0345581 -0.025820684 -0.011106775
0.0043411343 -0.006580047 -0.021875188 -0.048849754 0.034299657 0.039282613 0.014703286 -0.016368877
0.028972905 0.022615694 -0.075841546 0.024750229 0.029478699 0.01058743 0.036320508 0.009135764
-0.0042727794 -0.03018611 0.033031385 0.071780436 -0.009839946 0.06583772 -0.012207265 0.008144722
0.019524232 0.025274059 0.015993811 0.007346465 -0.014619253 0.016965047 -0.12774445 0.00013599233
0.021986116 -0.011957377 -0.056077562 0.023365406 -0.024357287 0.021218834 0.017649805 -0.04315798
0.061244123 0.027894575 -0.0011501305 -0.059555605 0.007658505 -0.033717044 -0.03729509 -0.079871416
-0.053832028 -0.004040807 -0.00011999562 0.011218186 0.0015231322 -0.012028283 0.0023113491 -0.024909807
0.02910077 -0.01676276 -0.04134787 -0.035101082 -0.023672758 0.0004494444 -0.04897126 0.019256933
0.021085946 -0.051511396 -0.007663772 -0.013144136 -0.04068267 -0.019617341 0.05207678 -0.028899377
0.01952949 -0.04810896 -0.06679661 -0.05687701 -0.0094195185 -0.011604813 0.0012788287 -0.041574
-0.029537912 -0.02589755 0.021767061 -0.052670434 0.025298243 -0.044180993 -0.028830592 -0.026016053
00000000: 5211 23bd 5dc4 603c 3300 aa3c 1f64 22bc
00000010: 83d3 4bbc 1920 88bd 5f58 14bc 40b5 fc3b
00000020: 6b04 cbbd f89c d3bc c359 0ebd bf91 33bc
00000030: ee4e 353b 4e5f be3b 352d 9cbc e005 49bd
00000040: 6851 e53c ecfb 4bbb 2710 113d 29df c53c
00000050: 6439 e5bc 65d7 8abd af33 5ebd c87e 0dbe
00000060: bb54 3bbd 20d6 bbbc 78f3 b1bc a211 cfbb
00000070: 9a48 c63c c8bb 2dbd 7556 783c 0aa1 1a3d
00000080: 065c c53a 70ea 613b 5cb0 b33c a36c b93b
00000090: 4e73 42bc cb8c 0d3d e685 d3bc 31f9 35bc
000000a0: 1340 8e3b 6f9d d7bb 9833 b3bc ae16 48bd
000000b0: cc7d 0c3d cee6 203d 0de6 703c 0618 86bc
000000c0: 9658 ed3c 8c44 b93c d052 9bbd fec0 ca3c
000000d0: 507d f13c e676 2d3c d0c4 143d 2cae 153c
000000e0: ac02 8cbb dc48 f7bc eb4b 073d 9f01 933d
000000f0: ba37 21bc edd5 863d fb00 48bc 7171 053c
00000100: 48f1 9f3c 8b0b cf3c 7405 833c 9dba f03b
00000110: 9785 6fbc 48fa 8a3c 71cf 02be 2a99 0e39
00000120: 3a1c b43c e0e8 43bc 96b1 65bd cf68 bf3c
00000130: ef88 c7bc 1fd3 ad3c 5396 903c 6cc6 30bd
00000140: 1edb 7a3d 2a83 e43c fabf 96ba 94f0 73bd
00000150: 32f4 fa3b e21a 0abd bcc2 18bd a093 a3bd
00000160: f97e 5cbd bf68 84bb 28a6 fbb8 7bcc 373c
00000170: d6a3 c73a 4712 45bc 017a 173b a70f ccbc
00000180: bd64 ee3c 0e52 89bc 625c 29bd 27c6 0fbd
00000190: 5fed c1bc 68a3 eb39 1796 48bd b7c0 9d3c
000001a0: 6fbc ac3c 9dfd 52bd 6120 fbbb 815a 57bc
000001b0: dfa2 26bd 8cb4 a0bc 764e 553d 63be ecbc
000001c0: 4ffc 9f3c e70d 45bd a9cc 88bd def7 68bd
000001d0: 5354 1abc 1d22 3ebc 5f9e a73a 8049 2abd
000001e0: 7ef9 f1bc 1927 d4bc d650 b23c f4bc 57bd
000001f0: 433e cf3c 21f7 34bd 222e ecbc 9e1f d5bc

a2c_network.value.weight f4 [1, 128]
0.05047679 -0.02709195 -0.0042139925 -0.053545132 -0.12665914 -0.0019881923 -0.46977624 0.022553667
0.012407454 0.076612316 -0.0066002407 -0.0897255 -0.053370163 -0.11635241 -0.030636875 0.08194768
0.24907586 0.024344308 -0.10069541 -0.15235063 -0.02842021 0.09391047 -0.04519581 0.2709073
0.16147827 -0.06779924 -0.031959943 0.08596453 -0.1142629 -0.062132724 0.0158843 -0.12624705
-0.011558138 -0.031798374 0.0020233067 0.10787836 0.1548333 0.08403778 0.028381389 0.10615848
-0.016082896 -0.013386429 0.008205427 -0.05999025 -0.010779205 -0.092604235 -0.02826137 0.024069963
0.027888266 0.043563914 0.14136909 0.06271159 0.16015786 0.13027553 0.10155718 0.0026892645
-0.0036163267 -0.030516528 0.0072471234 -0.09213082 -0.051773213 -0.037113532 0.08287988 -0.027273279
0.076195665 -0.03749969 0.14311227 0.017533768 0.04828554 -0.16248511 -0.014775558 0.14543952
-0.08557862 -0.043742478 0.02934085 0.08242238 -0.06104798 0.07650638 0.01523774 0.0889594
-0.11839017 -0.13461302 -0.052319396 -0.004815602 0.01144504 -0.063755855 -0.013417641 -0.0592044
-0.063680395 0.053284984 0.010981641 -0.040881723 0.12982273 -0.0025455768 0.11106759 -0.046772074
-0.21499592 -0.019780306 0.0019123108 -0.11381676 0.03580087 -0.18119375 -0.045705356 0.03638193
0.008625914 0.044919167 0.012410203 -0.012469169 -0.009219447 -0.05741798 0.13742095 0.08939542
0.00042917018 -0.105446406 -0.17414846 -0.022920147 0.044483863 0.010191651 -0.026417777 -0.013220158
0.0017185598 -0.0073005515 0.1498663 0.0040118946 0.15250666 -0.016609214 0.066896304 0.058570918
00000000: c0c0 4e3d f0ef ddbc 8815 8abb 2452 5bbd
00000010: efb2 01be 554c 02bb 8386 f0be 78c2 b83c
00000020: a248 4b3c ebe6 9c3d d546 d8bb 01c2 b7bd
00000030: ac9a 5abd 2c4a eebd 2ffa fabc 2fd4 a73d
00000040: be0d 7f3e b76d c73c 6539 cebd ce01 1cbe
00000050: 80d1 e8bc 2254 c03d 3e1f 39bd 5db4 8a3e
00000060: 8f5a 253e 54da 8abd 6ee8 02bd 2c0e b03d
00000070: ab02 eabd e27e 7ebd cb1f 823c e846 01be
00000080: 585e 3dbc 033f 02bd 7499 043b 54ef dc3d
00000090: 9f8c 1e3e 001c ac3d 1680 e83c 9e69 d93d
000000a0: 47c0 83bc c152 5bbc 0e70 063c 56b8 75bd
000000b0: 439b 30bc 4aa7 bdbd 6384 e7bc 5f2e c53c
000000c0: ef75 e43c 1370 323d 0fc3 103e ef6e 803d
000000d0: 6c00 243e f366 053e 36fd cf3d 5f3e 303b
000000e0: e5ff 6cbb ccfd f9bc 4779 ed3b 15af bcbd
000000f0: 2610 54bd 5c04 18bd edbc a93d 366c dfbc
00000100: 790c 9c3d 4699 19bd 068c 123e faa2 8f3c
00000110: 0fc7 453d 7f62 26be 2f15 72bc 19ee 143e
00000120: d843 afbd 502b 33bd 395c f03c 11cd a83d
00000130: 720d 7abd 61af 9c3d b7a7 793c 5930 b63d
00000140: 8c76 f2bd ffd7 09be dd4c 56bd 33cc 9dbb
00000150: fa83 3b3c 6e92 82bd aad5 5bbc 5080 72bd
00000160: de6a 82bd 5b41 5a3d 57ec 333c 9873 27bd
00000170: 40f0 043e b1d3 26bb 6877 e33d 1394 3fbd
00000180: e427 5cbe 4f0a a2bc 81a6 fa3a c318 e9bd
00000190: efa3 123d db8a 39be 8a35 3bbd 3805 153d
000001a0: b553 0d3c 29fd 373d 2a54 4b3c 7c4b 4cbc
000001b0: 2a0d 17bc 1e2f 6bbd 14b8 0c3e f214 b73d
000001c0: 3f02 e139 49f4 d7bd f953 32be 08c3 bbbc
000001d0: b634 363d e2fa 263c 186a d8bc 5d99 58bc
000001e0: 4c41 e13a 7739 efbb 8d76 193e 3676 833b
000001f0: b52a 1c3e 0c10 88bc ee00 893d 0fe8 6f3d

a2c_network.mu.weight f4 [10, 128]
-0.1432583 0.017387241 0.24305864 0.07505803 0.060762655 -0.09811579 0.14195627 -0.07624629
0.111810364 0.0039374507 -0.1147526 -0.17591178 -0.19691741 -0.020077422 -0.083338484 0.023682343
0.0636773 -0.114721455 0.16478057 -0.03621795 -0.13848667 0.013680119 0.057794865 0.0011156765
-0.010610244 0.03908931 -0.1291863 -0.07584183 0.05239532 -0.110884786 -0.011777071 0.118991815
-0.07362035 -0.13197441 0.0063812104 -0.09026895 0.0064477487 0.08938548 -0.12563765 -0.1672184
0.07095301 -0.09085079 -0.024669161 -0.16644025 -0.030208021 0.03334869 0.035847887 0.044020068
0.05714453 -0.028225083 -0.042993125 -0.14197356 -0.17865571 0.02846281 -0.13899395 0.035369948
-0.119863756 0.13259108 0.024666963 0.024127996 -0.011671764 0.13089588 -0.06779693 0.15285817
-0.04590725 0.05428002 -0.05335126 -0.05131296 -0.04777789 0.10926189 -0.091241606 0.042935755
0.22041993 0.044540845 -0.13592933 0.046390604 -0.096664615 -0.0034868985 0.08242801 -0.07210573
0.05086044 -0.28515157 -0.0753483 -0.0020468107 -0.0100334585 -0.05702155 -0.04638751 -0.05963521
-0.07954611 0.03627119 -0.16658743 -0.028556034 -0.019430451 0.00254642 0.13065326 0.16211034
-0.014862709 -0.19580528 -0.14524171 -0.072907805 0.018322363 0.177634 -0.0903675 0.17755793
-0.033087756 0.21634696 -0.14653575 0.02405143 0.10430401 0.02339076 -0.022202905 0.0087121725
0.14167096 -0.010984124 -0.045532204 0.013061324 -0.009014984 -0.07306554 0.073448375 -0.0018325596
0.123594694 0.0076067667 -0.018003576 0.094020456 0.043823488 0.0804097 -0.03699869 -0.053142812
-0.014653333 -0.13128455 -0.06147072 -0.09660365 -0.112595625 0.033686087 -0.051087614 0.008889828
-0.07949618 -0.029255051 -0.084707335 0.0019990269 0.1181047 0.05338 -0.12798113 -0.012144607
0.021783233 -0.04226764 -0.02693648 0.021572446 0.03971914 -0.022326179 0.07804987 -0.054176062
-0.08061959 -0.024969393 0.035578307 -0.013954646 -0.009331943 0.024616066 -0.02474379 -0.04257241
0.069296576 -0.06456423 0.07724543 0.11318688 -0.053196836 0.0628547 0.011116277 -0.071723685
-0.11452373 0.010884627 0.10439897 0.07894248 0.018432312 0.023766585 0.16992496 -0.019315023
0.09107455 0.0737565 -0.06886895 0.01851796 0.024552556 -0.052612558 0.07787557 0.007882833
-0.044891883 -0.13323423 0.10513443 0.095693424 0.011930703 0.05144876 -0.0011970961 0.075472556
0.018575856 0.09123763 -0.103770606 0.0048035886 0.0065208436 0.13370347 -0.0840389 0.01400122
0.076988205 0.05615592 0.00023638789 0.096541956 0.06451334 0.111671045 -0.07520132 0.08866617
0.09255818 0.048039302 0.1812375 -0.13238066 -0.0023677791 -0.08100087 -0.049606264 -0.14834966
0.043443646 0.028632803 -0.052137174 0.0564933 -0.034834508 -0.04555193 0.02279804 -0.007901957
0.006436527 0.044916827 0.040408693 -0.13025725 -0.044646103 0.040681295 -0.14860505 0.109098636
0.01597515 -0.10292235 0.07184319 -0.050085742 -0.024985347 0.046212412 0.060242895 -0.043640245
0.053781465 0.009514631 -0.05441579 -0.1277276 0.038663883 -0.04459358 -0.043059837 0.025807558
0.051324822 0.04781038 0.07970126 -0.07055178 0.053056747 -0.05900213 -0.09581376 0.028903743
00000000: 4eb2 12be b06f 8e3c 5de4 783e 06b8 993d
00000010: 43e2 783d eef0 c8bd fc5c 113e 0427 9cbd
00000020: d5fc e43d bb05 813b 6903 ebbd 3822 34be
00000030: b8a4 49be 6879 a4bc 5ead aabd 7901 c23c
00000040: 3f69 823d 15f3 eabd 3dbc 283e 4659 14bd
00000050: 73cf 0dbe 9422 603c 4fba 6c3d e43b 923a
00000060: 97d6 2dbc 1d1c 203d 6a49 04be f652 9bbd
00000070: 7a9c 563d 9017 e3bd 9ef4 40bc fbb1 f33d
00000080: 44c6 96bd 4d24 07be 7919 d13b edde b8bd
00000090: a347 d33b bc0f b73d 28a7 00be 4d3b 2bbe
000000a0: d04f 913d fb0f babd fb16 cabc 506f 2abe
000000b0: d076 f7bc a398 083d 3cd5 123d 634e 343d
000000c0: 6210 6a3d 4a38 e7bc 8f19 30bd 8461 11be
000000d0: 86f1 36be d72a e93c 6e54 0ebe 14e0 103d
000000e0: 217b f5bd f5c5 073e 5f12 ca3c 13a8 c53c
000000f0: ed3a 3fbc 9209 063e 1ed9 8abd da86 1c3e
00000100: 3e09 3cbd ba54 5e3d da86 5abd 8a2d 52bd
00000110: c0b2 43bd b3c4 df3d e1dc babd 67dd 2f3d
00000120: c3b5 613e 7670 363d 0f31 0bbe 1304 3e3d
00000130: 19f8 c5bd 7384 64bb 04d0 a83d 2bac 93bd
00000140: 0953 503d 63ff 91be 3650 9abd c923 06bb
00000150: 6063 24bc 6e8f 69bd d400 3ebd 0d44 74bd
00000160: 12e9 a2bd 1991 143d e595 2abe 58ee e9bc
00000170: 9c2c 9fbc d7e1 263b f8c9 053e 4100 263e
00000180: b882 73bc 2e81 48be 3eba 14be b050 95bd
00000190: c818 963c b0e5 353e 9912 b9bd bfd1 353e
000001a0: 0787 07bd 0f8a 5d3e 780d 16be 8107 c53c
000001b0: 579d d53d fb9d bf3c dee2 b5bc 80bd 0e3c
000001c0: 3112 113e c1f6 33bc fa7f 3abd 2aff 553c
000001d0: 95b3 13bc 63a3 95bd 1a6c 963d 7f32 f0ba
000001e0: 371f fd3d 2f42 f93b 3c7c 93bc cc8d c03d
000001f0: 4280 333d d7ad a43d f08b 17bd 47ac 59bd
00000200: 8914 70bc 756f 06be b9c8 7bbd 22d8 c5bd
00000210: 8998 e6bd 6cfa 093d 3f41 51bd a4a6 113c
00000220: e5ce a2bd 4aa8 efbc 0a7b adbd 1b02 033b
00000230: e1e0 f13d fda4 5a3d 7c0d 03be 2cfa 46bc
00000240: c072 b23c d520 2dbd e5a9 dcbc b3b8 b03c
00000250: 89b0 223d 64e5 b6bc 9cd8 9f3d b8e7 5dbd
00000260: e21b a5bd 9d8c ccbc 8fba 113d 07a2 64bc
00000270: 01e5 18bc a2a7 c93c 7db3 cabc 6860 2ebd
00000280: 5deb 8d3d 403a 84bd da32 9e3d 86ce e73d
00000290: ede4 59bd f7b9 803d 0c21 363c dee3 92bd
000002a0: 6b8b eabd 6f55 323c 21cf d53d 98ac a13d
000002b0: 5cff 963c 24b2 c23c cf00 2e3e 8a3a 9ebc
000002c0: 4b85 ba3d a60d 973d 2a0b 8dbd fab2 973c
000002d0: 7122 c93c 4480 57bd 3a7d 9f3d ff26 013c
000002e0: 8de0 37bd 8e6e 08be b850 d73d eafa c33d
000002f0: ff78 433c efbb 523d e1e7 9cba 5b91 9a3d
00000300: 652c 983c cbda ba3d af85 d4bd 6c67 9d3b
00000310: cdac d53b 90e9 083e 961c acbd 6065 653c
00000320: feab 9d3d c003 663d e4de 7739 cab7 c53d
00000330: 921f 843d cab3 e43d 2603 9abd 9c96 b53d
00000340: 258f bd3d dcc4 443d 5396 393e cc8e 07be
00000350: be2c 1bbb c9e3 a5bd f02f 4bbd f9e8 17be
00000360: f7f1 313d 578f ea3c ca8d 55bd 8565 673d
00000370: a1ae 0ebd a994 3abd f5c2 ba3c 3677 01bc
00000380: 80e9 d23b b5fa 373d 9683 253d 2862 05be
00000390: d5de 36bd 6ea1 263d ec2b 18be 1b6f df3d
000003a0: 51de 823c f4c8 d2bd 8622 933d b526 4dbd
000003b0: 12ae ccbc 3a49 3d3d 41c1 763d 1dc0 32bd
000003c0: f449 5c3d 41e3 1b3c 17e3 5ebd 06cb 02be
000003d0: 055e 1e3d c2a7 36bd 835f 30bd 5f6a d33c
000003e0: fa39 523d d1d4 433d 6a3a a33d 747d 90bd
000003f0: 0852 593d 38ac 71bd 013a c4bd 8bc7 ec3c

a2c_network.mu.bias f4 [10]
0.050054345 0.0923428 0.06709186 0.052263312 0.025775287 -0.023557877 -0.045229334 -0.028814534
0.045998458 0.039761856
00000000: c905 4d3d 391e bd3d 7567 893d 0e12 563d
00000010: b226 d33c 73fc c0bc 6542 39bd 750c ecbc
00000020: e168 3c3d 54dd 223d

exp_avg f4 [10]
-0.00045997987 -0.00039096002 0.00034084875 0.00035491804 0.0006532998 0.00013618084 0.00012685853 7.164156e-05
-0.00020204698 0.00041745536
00000000: 7429 f1b9 c4f9 ccb9 f2b3 b239 4b14 ba39
00000010: 3542 2b3a c4cb 0e39 5405 0539 453e 9638
00000020: 93dc 53b9 e9dd da39

exp_avg_sq f4 [10]
2.138312e-06 2.1983292e-06 2.46296e-06 2.1097953e-06 2.2576946e-06 2.2980798e-06 2.778939e-06 1.8425734e-06
1.9670658e-06 2.0467312e-06
00000000: ec7f 0f36 0287 1336 5549 2536 0296 0d36
00000010: e682 1736 b638 1a36 cf7d 3a36 574e f735
00000020: ef01 0436 935a 0936

exp_avg f4 [256, 42]
-0.001084923 0.00032676873 -0.0005611359 -0.0001475359 0.00025586376 0.0002223109 0.00012469005 0.0002887771
6.6764725e-05 0.0016451922 -0.0014319944 -0.0014233995 -0.00013373325 -0.00010823979 -0.0009095766 0.0009754103
5.5179462e-05 -0.00015052974 -0.0012889364 -0.0011715412 -7.572794e-05 0.000111062385 -0.00023393484 -0.00024059563
-9.7782206e-05 -0.00018402879 0.0001463841 -0.00018234002 0.0002068389 0.00016508525 -0.00034814174 -6.811405e-05
-0.0011185035 -0.001036847 -0.0024689175 -0.0023624655 0.0005093388 -0.00037837547 0.00088467594 0.00047477704
-0.000512934 -0.001586967 0.0002596399 5.096148e-07 0.00016400978 1.0346137e-05 -6.0195893e-05 1.0197274e-05
-7.662603e-05 2.8236112e-05 -1.8969167e-05 -0.000507789 0.00036136963 0.00035714955 6.23595e-05 -6.914968e-05
0.00031965142 -0.0003166962 -0.0001395522 -0.0002096791 0.0002752779 0.00026131957 -0.00010330965 2.3602455e-05
1.0376621e-05 5.2675565e-05 1.5065587e-05 3.1044416e-05 5.9784496e-05 5.3348045e-05 -3.9779057e-05 -3.1448802e-05
8.611959e-05 3.942405e-05 -0.0001909184 0.00043320688 0.00053350005 0.00038891257 0.0003737265 0.00026143302
7.9265854e-05 -6.709319e-05 -0.00026020833 0.00011262181 0.0005853848 -0.0001997567 0.00044863074 9.957567e-05
-0.00013325798 -0.00010024032 -0.0001303232 -0.00013680731 -0.000125304 -0.00093102484 0.0007742104 0.00076010305
0.000103693244 -1.3420571e-05 0.0005655796 -0.0005979728 -4.601244e-05 -5.1951734e-05 0.0006981316 0.0005659504
6.831545e-05 4.7377165e-05 7.184065e-05 8.651676e-05 3.67186e-05 7.805961e-05 -1.0004605e-05 7.923365e-05
-0.0001111832 -9.8544435e-05 0.00015784215 5.489926e-07 -4.1217096e-05 0.0007073266 0.0009830636 0.00065042265
-7.8000194e-05 0.00022662793 -0.00039850062 -0.0002442877 0.0001731261 0.0004843679 -0.0026301264 0.00033909568
-0.0012877714 -0.0003822919 0.0010445162 0.00027335627 0.00074620376 0.00033448238 0.00021850354 0.00442526
-0.0034922801 -0.0034714658 -0.00027319032 -9.9590994e-05 -0.0023053694 0.002403666 0.00012808613 5.8007518e-05
-0.0031968793 -0.0029754573 2.7121532e-05 0.00023958193 -0.0005297287 -0.0007685577 -8.802732e-05 -0.00022057534
0.00019829762 -0.00049213256 0.0005592981 0.0007043266 -0.0008549804 -0.00011513769 -0.0023636161 -0.003442769
-0.0038799667 -0.0039268984 6.252709e-05 -0.0017725736 0.0023606613 0.0028454792 -0.0005169008 -0.0027201446
0.0010598383 -6.202295e-06 0.00092354295 4.0301617e-05 -6.176434e-05 2.9558081e-05 1.9414401e-05 9.651985e-06
-0.000173647 -0.00197562 0.0014309827 0.0014131635 0.00029026685 -0.00022172772 0.0012105712 -0.0010605423
-0.00063981826 -0.00035978633 0.0012845604 0.0011106468 -0.00012883733 0.00055894064 1.4445099e-05 -5.9481696e-05
5.242589e-05 -8.282653e-06 -9.194319e-06 -4.0111838e-05 -2.6255204e-05 -2.418512e-05 5.929007e-05 4.407841e-05
-0.0008365654 0.00072629884 0.0009075326 0.0009155117 0.00043891824 -0.00025404769 0.0006255479 0.0004350033
0.00011657046 0.00025701383 -0.00049713015 0.00037124383 1.3223117e-05 -0.00029069846 0.0004274063 0.0002351196
0.00027254192 0.00036190037 3.7650825e-05 0.0004918167 -0.00063565315 -0.000637709 3.1664033e-05 -0.00027578804
-0.00021145295 0.00044987025 -0.000494403 -0.00032268075 -0.00051315123 -0.00046750778 -0.00017442743 0.00073280645
-0.00027724743 -0.00040647163 2.507669e-05 -0.00015897492 0.00019009448 -0.00030428337 0.00023251744 0.00026780783
-0.0003915377 -8.334396e-05 -0.0020976013 -0.0005825152 -0.0018676857 -0.0019505247 0.0007898522 -0.0010823999
0.0013237625 0.001370352 0.0006591397 -0.0013584048 0.0027896753 -0.0004541472 0.0017085962 0.0003786925
00000000: fa33 8eba 2852 ab39 3119 13ba deb3 1ab9
00000010: 7425 8639 211c 6939 3bbf 0239 0267 9739
00000020: 0a04 8c38 7da3 d73a c2b1 bbba 5d91 baba
00000030: bf3a 0cb9 cbfe e2b8 a770 6eba adb2 7f3a
00000040: 7f70 6738 85d7 1db9 87f1 a8ba 668e 99ba
00000050: 21d0 9eb8 2aea e838 684c 75b9 6648 7cb9
00000060: 6c10 cdb8 daf7 40b9 af7e 1939 8732 3fb9
00000070: e5e2 5839 bc1a 2d39 cb86 b6b9 74d8 8eb8
00000080: c09a 92ba d0e6 87ba 90cd 21bb 98d3 1abb
00000090: 2685 053a b260 c6b9 99e9 673a 7feb f839
000000a0: 6b76 06ba c701 d0ba 4720 8839 76cc 0835
000000b0: 0afa 2b39 5294 2d37 d97a 7cb8 f514 2b37
000000c0: 49b2 a0b8 97dc ec37 fa1f 9fb7 251d 05ba
000000d0: 3676 bd39 cd3f bb39 00c7 8238 7404 91b8
000000e0: e396 a739 3f0a a6b9 c254 12b9 4edd 5bb9
000000f0: 2d53 9039 b801 8939 f2a7 d8b8 e3fd c537
00000100: 3f17 2e37 f5ef 5c38 34c2 7c37 b035 0238
00000110: 1dc1 7a38 07c2 5f38 70d8 26b8 e5e7 03b8
00000120: 1a9b b438 405b 2538 4531 48b9 0b20 e339
00000130: 95da 0b3a f6e6 cb39 b9f0 c339 f210 8939
00000140: 883b a638 62b4 8cb8 926c 88b9 602f ec38
00000150: 8274 193a c875 51b9 3336 eb39 48d3 d038
00000160: 2bbb 0bb9 1d38 d2b8 5ea7 08b9 ef73 0fb9
00000170: 0964 03b9 0510 74ba 61f4 4a3a a741 473a
00000180: e375 d938 ea28 61b7 6843 143a 46c1 1cba
00000190: 7bfd 40b8 c0e6 59b8 d202 373a 4a5c 143a
000001a0: 9444 8f38 d8b6 4638 28a9 9638 5570 b538
000001b0: 4c02 1a38 efb3 a338 74d9 27b7 3e2a a638
000001c0: 072b e9b8 a4a9 ceb8 6e82 2539 7c5e 1335
000001d0: 85e0 2cb8 e26b 393a 24da 803a 2081 2a3a
000001e0: 0994 a3b8 f9a2 6d39 d9ed d0b9 bd13 80b9
000001f0: 2f89 3539 c2f2 fd39 335e 2cbb a7c8 b139
00000200: 70ca a8ba 5a6e c8b9 26e8 883a 4251 8f39
00000210: e39c 433a 775d af39 191e 6539 c501 913b
00000220: bdde 64bb 8881 63bb fc3a 8fb9 82db d0b8
00000230: ae15 17bb d386 1d3b dc4e 0639 194d 7338
00000240: bc82 51bb e4ff 42bb 0c83 e337 4938 7b39
00000250: 7edd 0aba 0979 49ba 4f9b b8b8 3e4a 67b9
00000260: 1dee 4f39 7502 01ba dc9d 123a 8fa2 383a
00000270: c320 60ba 1476 f1b8 e6e6 1abb 14a0 61bb
00000280: 0a47 7ebb 36ad 80bb fa20 8338 b355 e8ba
00000290: 53b5 1a3b 387b 3a3b a080 07ba 7444 32bb
000002a0: 46ea 8a3a 4f1d d0b6 eb19 723a 8809 2938
000002b0: 7a87 81b8 7ff3 f737 1cdc a237 f6ee 2137
000002c0: 0315 36b9 6779 01bb d08f bb3a e639 b93a
000002d0: f52e 9839 957f 68b9 07ac 9e3a e501 8bba
000002e0: 7ab9 27ba b4a1 bcb9 b25e a83a 1f93 913a
000002f0: 8218 07b9 df85 123a 3a59 7237 fc7b 79b8
00000300: dfe3 5b38 b9f5 0ab7 4d41 1ab7 c23d 28b8
00000310: 9f3e dcb7 26e1 cab7 3aae 7838 d5e0 3838
00000320: f44c 5bba 1765 3e3a 7be7 6d3a f3fe 6f3a
00000330: 9c1e e639 b431 85b9 cffb 233a 2811 e439
00000340: 4a77 f438 d0bf 8639 d751 02ba 81a3 c239
00000350: dbd8 5d37 e368 98b9 8115 e039 708a 7639
00000360: f5e3 8e39 72bd bd39 44eb 1d38 43ed 003a
00000370: f6a1 26ba ed2b 27ba ffce 0438 a597 90b9
00000380: 78b9 5db9 90dc eb39 d39a 01ba 7a2d a9b9
00000390: ff84 06ba d51b f5b9 82e6 36b9 cf19 403a
000003a0: 855b 91b9 b31b d5b9 c85b d237 81b2 26b9
000003b0: 1954 4739 3988 9fb9 edcf 7339 8f68 8c39
000003c0: 4d47 cdb9 f3c8 aeb8 e977 09bb efb3 18ba
000003d0: 22cd f4ba c0a8 ffba 150e 4f3a 50df 8dba
000003e0: 1982 ad3a 629d b33a 1eca 2c3a 800c b2ba
000003f0: fcd2 363b 9b1a eeb9 faf2 df3a 3f8b c639
