logs/rl_games/humanoid_flat_direct/2025-11-17_00-02-14/nn/last_humanoid_flat_direct_ep_1000_rew_10748.825.pth (torch, 759553 bytes, 33 tensors)

value_mean_std.running_mean f8 [1]
604.6020345679618
00000000: a9e3 7ff7 d0e4 8240

value_mean_std.running_var f8 [1]
25504.282991517874
00000000: 9474 881c 12e8 d840

value_mean_std.count f8 []
393216001.0
00000000: 0000 0001 0070 b741

a2c_network.sigma f4 [10]
-1.2682185 -2.0483685 -1.6237619 -1.3372622 -0.6340371 -0.8726258 -0.9794423 -1.1192183
-1.355331 -1.141836
00000000: fc54 a2bf 7818 03c0 6ed7 cfbf 682b abbf
00000010: 4150 22bf 6864 5fbf bbbc 7abf 8c42 8fbf
00000020: 7c7b adbf af27 92bf

a2c_network.actor_mlp.0.weight f4 [256, 42]
-0.19846962 0.22831103 0.11082951 0.002703493 0.11794772 0.32286245 0.31301442 0.0061468366
-0.32874873 -0.15889427 -0.30111855 -0.06970644 -0.39880788 0.019156972 0.28267676 -0.011730103
0.26756027 -0.13074829 -0.15383594 -0.26840085 -0.29645723 -0.37514415 0.17824985 0.06323875
0.25734168 -0.12059652 -0.051489677 -0.19636783 0.20544559 0.08740124 0.018298645 -0.17394145
-0.030291503 -0.04387948 -0.06652497 -0.030041214 0.08688132 0.06684252 0.006967034 -0.054020125
0.009420176 -0.08621267 0.23960473 -0.08304841 -0.10124342 -0.21832883 -0.09615302 0.08737844
0.0743369 0.029436316 0.30119565 0.035771098 -0.06490967 -0.006132792 0.7426276 -0.005420832
0.15841039 -0.72165245 -0.16464554 -0.02040327 -0.0562333 -0.2634307 -0.017743466 -1.074685
-0.20400938 0.11348776 -0.0743321 -0.10159898 0.03918492 0.09292077 0.058215905 -0.034831036
0.0040552616 0.09419727 -0.0127871325 -0.124570735 0.08821114 0.11607416 -0.1310439 -0.028407333
-0.092891075 0.0063654394 -0.07885791 0.037708268 -0.11812039 -0.19672965 0.26547474 0.078539036
0.11903456 0.14708906 -0.0105649745 0.33117092 -0.31638473 -0.2861716 -0.116828255 -0.10286595
-0.4014848 -0.27359113 0.18127038 0.21563835 0.16833773 -0.4025021 -0.30854398 -0.097816795
0.42709595 0.5487634 0.16197294 -0.09909396 0.09444149 0.030909793 -0.04540323 -0.09291486
0.122532465 -0.3085051 0.38271365 -0.09813915 0.083740644 0.0034032357 0.13051848 -0.0044851396
-0.021871425 -0.09312023 0.09558972 -0.103931606 -0.14640982 0.062434625 0.10713437 -0.15870878
-0.20093231 0.38181517 0.06678805 0.19460373 0.016604923 -0.11797256 0.18243925 0.12126193
0.14472696 -0.08757588 0.5327234 0.0940292 0.075665936 -0.040880457 -0.107975595 0.26738915
0.60284907 -0.1609874 0.75203896 0.108065695 0.01575816 -0.020380128 0.22573034 0.18378364
0.033209033 0.08700237 0.058519796 0.020635545 0.20746244 -0.0049972464 -0.054964203 -0.08496691
0.16906911 -0.06243289 2.5093452e-05 -0.04073565 -0.037952904 -0.1154052 -0.15367796 0.01277208
0.11426549 0.083059005 -0.104977466 -0.049155798 -0.060098786 0.16388883 0.10243869 0.02129272
0.03495664 -0.11978132 -0.10291086 0.07914362 -0.14498538 -0.16969216 -0.2279701 -0.3393486
0.025512012 0.025335938 -0.1930095 -0.18876505 -0.46890303 0.1417187 0.05090056 0.11281914
0.10129009 -0.034167413 0.022772204 -0.11569816 -0.0351073 -0.18570203 0.21296902 -0.009848378
-0.004433863 -0.09360679 0.045564085 -0.1450756 -0.02808071 0.098579384 0.082014345 0.019530186
-0.06601602 -0.08058582 -0.19751151 -0.044772223 -0.011103336 -0.13547406 0.03226267 -0.1049765
0.11256935 0.032348152 0.27439862 -0.081356205 0.0666023 -0.11133435 0.32717928 0.04706802
0.1881299 0.022195924 -0.04951596 0.060993493 0.51595044 -0.63894063 0.927448 0.6126203
0.23552333 -0.16683856 -0.18224071 0.17081654 0.017038524 -0.06161041 0.034228303 -0.24402626
0.10908784 -0.20818031 -0.09861518 -0.05478644 -0.16525385 0.1090549 -0.003872221 -0.035350204
0.024262134 0.01903861 -0.088704094 0.011523133 0.05262505 0.012089904 -0.009403174 -0.021521835
00000000: 9f3b 4bbe 5eca 693e 95fa e23d 162d 313b
00000010: 938e f13d 3a4e a53e 6d43 a03e 676b c93b
00000020: c151 a8be 2eb5 22be 362c 9abe 40c2 8ebd
00000030: 8c30 ccbe 15ef 9c3c 02bb 903e 9e2f 40bc
00000040: a9fd 883e e1e2 05be 2b87 1dbe d66b 89be
00000050: 3ec9 97be e512 c0be 2187 363e 5183 813d
00000060: 4ac2 833e 4ffb f6bd d7e6 52bd a614 49be
00000070: 5460 523e 6cff b23d 0ae7 953c b51d 32be
00000080: e325 f8bc f8ba 33bd 3e3e 88bd fe18 f6bc
00000090: d5ee b13d bbe4 883d b84b e43b 3544 5dbd
000000a0: 1557 1a3c 4590 b0bd f15a 753e 4915 aabd
000000b0: b658 cfbd 9891 5fbe e0eb c4bd 78f3 b23d
000000c0: f23d 983d 6e24 f13c 5136 9a3e b784 123d
000000d0: 5cef 84bd 97f5 c8bb d81c 3e3f 3ca1 b1bb
000000e0: 5536 223e 37be 38bf d798 28be c224 a7bc
000000f0: e454 66bd 64e0 86be bf5a 91bc 478f 89bf
00000100: d6e7 50be 456c e83d 6e3b 98bd 2013 d0bd
00000110: 5e80 203d 3f4d be3d cd73 6e3d fdaa 0ebd
00000120: 00e2 843b 80ea c03d 1f81 51bc f11e ffbd
00000130: 0ba8 b43d 4ab8 ed3d 5f30 06be 7fb6 e8bc
00000140: ad3d bebd 2d95 d03b 4280 a1bd fc73 1a3d
00000150: 1ae9 f1bd 7f73 49be 4eec 873e 13d9 a03d
00000160: 64c8 f33d 849e 163e b718 2dbc 3c8f a93e
00000170: 2efd a1be 1585 92be a743 efbd 62ab d2bd
00000180: 6a8f cdbe 2314 8cbe f19e 393e 4dd0 5c3e
00000190: ba60 2c3e c114 cebe 7af9 9dbe 2c54 c8bd
000001a0: 52ac da3e c27b 0c3f 3cdc 253e c6f1 cabd
000001b0: 8a6a c13d 8936 fd3c bdf8 39bd 254a bebd
000001c0: 4df2 fa3d 61f4 9dbe 0bf3 c33e 2efd c8bd
000001d0: 3780 ab3d d208 5f3b a3a6 053e 14f8 92bb
000001e0: b42b b3bc d2b5 bebd 8bc4 c33d 18da d4bd
000001f0: 75ec 15be 73bb 7f3d 4469 db3d 8e84 22be
00000200: 33c1 4dbe 477d c33e 2cc8 883d 3346 473e
00000210: 0c07 883c 999b f1bd 5bd1 3a3e 2d58 f83d
00000220: 4e33 143e fc5a b3bd 9060 083f 6292 c03d
00000230: bef6 9a3d 4472 27bd 4f22 ddbd 3be7 883e
00000240: 5154 1a3f e2d9 24be a085 403f 8c51 dd3d
00000250: 4217 813c 3af4 a6bc db25 673e c731 3c3e
00000260: 3206 083d 4c2e b23d 74b2 6f3d e00b a93c
00000270: 0971 543e f1bf a3bb 2522 61bd 2203 aebd
00000280: 7420 2d3e a1b9 7fbd c77f d237 6dda 26bd
00000290: 8174 1bbd 9059 ecbd c15d 1dbe fc41 513c
000002a0: 0604 ea3d d71a aa3d 6dfe d6bd 9757 49bd
000002b0: 252a 76bd 79d2 273e 60cb d13d 126e ae3c
000002c0: b22e 0f3d e94f f5bd eec2 d2bd 0d16 a23d
000002d0: 0c77 14be c8c3 2dbe fe70 69be 1abf adbe
000002e0: 91fe d03c 508d cf3c 48a4 45be a04b 41be
000002f0: 0f14 f0be b51e 113e 1b7d 503d b90d e73d
00000300: 2e71 cf3d 21f3 0bbd c68c ba3c 28f3 ecbd
00000310: accc 0fbd ac28 3ebe 8d14 5a3e 175b 21bc
00000320: f049 91bb ebb4 bfbd 68a1 3a3d b38e 14be
00000330: 8409 e6bc fde3 c93d 23f7 a73d c5fd 9f3c
00000340: 6833 87bd 2e0a a5bd 7540 4abe 1463 37bd
00000350: c4ea 35bc b6b9 0abe dd25 043d ebfd d6bd
00000360: c28a e63d 7f7f 043d fa7d 8c3e 159e a6bd
00000370: c966 883d 4403 e4bd 0b84 a73e 65ca 403d
00000380: 20a5 403e 3ad4 b53c 3fd1 4abd 50d4 793d
00000390: 5415 043f 9d91 23bf 3b6d 6d3f afd4 1c3f
000003a0: 072d 713e bad7 2abe 4f9d 3abe 88ea 2e3e
000003b0: 6094 8b3c 335b 7cbd fa32 0c3d 05e2 79be
000003c0: 7269 df3d 382d 55be c1f6 c9bd bf67 60bd
000003d0: 4e38 29be 2d58 df3d 17c5 7dbb 60cb 10bd
000003e0: 62c1 c63c dcf6 9b3c 7eaa b5bd 86cb 3c3c
000003f0: 5d8d 573d bc14 463c c50f 1abc 8f4e b0bc

a2c_network.actor_mlp.0.bias f4 [256]
0.12683982 0.28342003 0.27413222 -0.00644807 -0.16183093 0.13607812 -0.21380374 0.19976066
-0.12469332 0.115859725 -0.11307081 0.18548103 -0.15733033 -0.24230474 0.20136826 0.122100286
-0.061831616 0.14722233 0.056231897 0.06401936 -0.09097775 -0.068533584 -0.18619338 -0.16709481
-0.032923862 0.17490914 -0.11716781 -0.14964265 0.0040886123 -0.013638149 0.009179156 -0.022790022
0.18875647 0.22070794 0.19280998 -0.23790334 0.07182738 -0.07669278 0.14952274 0.25263286
-0.03622787 -0.08308891 0.19136015 0.1709723 -0.07910428 -0.0030252617 0.08413491 0.15500708
-0.008421925 -0.27710277 -0.13379699 -0.22083905 -0.22418533 -0.13444665 -0.03556926 -0.13026385
0.072965816 -0.20910071 -0.20161104 0.18513396 -0.20958966 0.2585577 0.003917004 0.26057094
-0.09222683 0.16451102 0.3095394 -0.13519032 -0.26318997 0.10157273 -0.19790621 0.018799247
0.13316679 0.24001923 -0.1224681 -0.012757317 -0.20568325 -0.1265483 -0.048762936 0.1362818
0.08228079 0.18466467 -0.07803341 0.16238005 0.31218597 0.16048709 0.12599085 0.24833089
-0.28169546 -0.25520295 -0.1923337 0.081494816 0.16596553 0.07482478 -0.06809243 -0.22813782
0.14888632 -0.12971629 -0.11655921 0.23476318 0.14410745 0.035031494 0.24722585 0.23779209
0.26419535 0.21638985 0.16713488 -0.24091525 0.05771606 -0.30141655 0.16617852 0.10608904
0.1257604 0.16794446 -0.20384318 0.22541614 0.13098249 -0.29989582 0.32010713 0.14467843
-0.201664 -0.21604817 0.21038127 0.26523304 -0.10161804 -0.019968826 -0.3064943 0.14930175
0.27343518 0.05537932 -0.2371229 0.05392445 0.20418297 0.098737195 0.18836756 0.21040624
-0.0020208794 -0.15607144 0.06513687 -0.027431138 -0.093508124 0.28729653 -0.28610355 -0.23257925
0.15273987 0.0196991 -0.049691536 0.123199984 -0.06452082 0.17038937 0.14384171 0.019518573
0.06719342 0.2726249 -0.23127557 -0.16858228 0.056768388 0.145794 0.2036328 -0.27236176
0.3021215 0.047148332 -0.24940833 -0.22877175 -0.15354335 -0.22520965 0.17523463 0.12620898
-0.20746559 0.30120212 -0.34948322 0.139441 0.10300731 -0.13771755 -0.0123059815 0.19082706
0.24952154 0.017902922 0.24418643 0.24910705 0.12738918 0.112322636 0.07319772 0.030656125
-0.17646778 -0.12289041 0.22276926 -0.20797099 0.13424893 0.26948175 -0.042978797 0.2541425
-0.21338587 -0.21641819 0.18710868 -0.32480255 0.09593939 0.2553881 0.28846437 -0.10364162
0.2382518 -0.25217822 0.20565449 -0.18430556 -0.18706074 -0.18513298 0.049461953 -0.3028993
0.055724762 -0.21136117 -0.16466638 -0.036945686 0.049179718 0.20330513 0.18051676 0.19481991
-0.14219889 -0.08636473 -0.009306304 0.024472514 0.18326055 -0.1918533 0.0019230485 0.1748856
0.13761576 0.06018119 0.20798804 0.18631393 0.19108585 0.21331239 0.18143061 0.24648508
-0.17387761 -0.24548137 0.16921198 0.2097286 0.09803745 -0.12206407 0.19678588 0.17549531
0.17139292 0.18499927 0.31609485 -0.17413118 0.27357537 -0.2635408 0.14231698 -0.22286615
0.19864182 0.32540444 0.2021888 0.30290416 -0.0381882 0.22889611 0.038676538 0.209941
00000000: 4ce2 013e 6e1c 913e 0f5b 8c3e 554a d3bb
00000010: 02b7 25be 1058 0b3e 5eef 5abe 0f8e 4c3e
00000020: 365f ffbd dd47 ed3d ab91 e7bd bdee 3d3e
00000030: 341b 21be bc1e 78be 7b33 4e3e b70f fa3d
00000040: 2643 7dbd 73c1 163e 6b53 663d 951c 833d
00000050: 8b52 babd 565b 8cbd 7aa9 3ebe e71a 2bbe
00000060: 2cdb 06bd 621b 333e adf5 efbd ec3b 19be
00000070: c4f9 853b 8b72 5fbc 2c64 163c 24b2 babc
00000080: 6049 413e 4301 623e fb6f 453e ef9c 73be
00000090: 3c1a 933d 1b11 9dbd 7d1c 193e 1859 813e
000000a0: ad63 14bd 852a aabd eaf3 433e 5d13 2f3e
000000b0: 6d01 a2bd 7843 46bb ec4e ac3d 2dba 1e3e
000000c0: 1dfc 09bc 6ae0 8dbe 1402 09be a223 62be
000000d0: d790 65be 62ac 09be 13b1 11bd e363 05be
000000e0: 1a6f 953d 7f1e 56be 2073 4ebe c293 3d3e
000000f0: ac9e 56be ad61 843e 365a 803b 8e69 853e
00000100: 6ce1 bcbd 9475 283e f37b 9e3e 556f 0abe
00000110: d6c0 86be 5d05 d03d eda7 4abe e100 9a3c
00000120: e05c 083e 9ac7 753e 8ed0 fabd 1104 51bc
00000130: a19e 52be e195 01be a5bb 47bd 758d 0b3e
00000140: d582 a83d bc18 3d3e fbcf 9fbd f546 263e
00000150: d7d6 9f3e ba56 243e bf03 013e 744a 7e3e
00000160: 633a 90be f6a9 82be 20f3 44be c1e6 a63d
00000170: def2 293e bc3d 993d 0b74 8bbd f69c 69be
00000180: a875 183e 59d4 04be 98b6 eebd c265 703e
00000190: e790 133e 2f7d 0f3d c628 7d3e c57f 733e
000001a0: 9d44 873e 4d95 5d3e 6825 2b3e 7db2 76be
000001b0: ad67 6c3d 4553 9abe b42a 2a3e 3645 d93d
000001c0: 56c7 003e a2f9 2b3e 44bc 50be 7dd3 663e
000001d0: 4620 063e f28b 99be 15e5 a33e 9526 143e
000001e0: 0281 4ebe bb3b 5dbe 306e 573e a0cc 873e
000001f0: 1e1d d0bd aa95 a3bc d2ec 9cbe 8fe2 183e
00000200: b2ff 8b3e 6dd5 623d 58d0 72be e2df 5c3d
00000210: 5715 513e ba36 ca3d 6de3 403e bc74 573e
00000220: bb70 04bb 31d1 1fbe 7b66 853d 44b7 e0bc
00000230: 3081 bfbd 8818 933e 2a7c 92be 4129 6ebe
00000240: d767 1c3e 0260 a13c 5a89 4bbd 4650 fc3d
00000250: 7e23 84bd 8d7a 2e3e 3e4b 133e 6ae5 9f3c
00000260: b49c 893d 7e95 8b3e 81d3 6cbe d5a0 2cbe
00000270: f885 683d 064b 153e 1e85 503e 0073 8bbe
00000280: abaf 9a3e 9c1e 413d e664 7fbe 2443 6abe
00000290: 783a 1dbe 5c9d 66be b570 333e ed3c 013e
000002a0: dc71 54be 2a37 9a3e 77ef b2be 9fc9 0e3e
000002b0: 7ff5 d23d d405 0dbe 079f 49bc 2b68 433e
000002c0: 9382 7f3e 26a9 923c 020c 7a3e eb15 7f3e
000002d0: 4f72 023e 6909 e63d b0e8 953d 8e22 fb3c
000002e0: f8b3 34be f8ad fbbd a01d 643e 59f6 54be
000002f0: 8d78 093e 83f9 893e 890a 30bd f71e 823e
00000300: d381 5abe bb9c 5dbe 6b99 3f3e 854c a6be
00000310: df7b c43d 3bc2 823e 9ab1 933e 0f42 d4bd
00000320: 48f8 733e 811d 81be 1797 523e 99ba 3cbe
00000330: da8c 3fbe 8093 3dbe 9e98 4a3d 9e15 9bbe
00000340: a63f 643d 106f 58be 4e9e 28be 5c54 17bd
00000350: ac70 493d 382f 503e 63d9 383e df7e 473e
00000360: 969c 11be fedf b0bd 7879 18bc 957a c83c
00000370: a7a8 3b3e 3175 44be cd0e fc3a 3615 333e
00000380: 25eb 0c3e 8d80 763d d1fa 543e 14c9 3e3e
00000390: 02ac 433e 906e 5a3e f2c8 393e 9666 7c3e
000003a0: f90c 32be 785f 7bbe e845 2d3e 18c3 563e
000003b0: dcc7 c83d bafc f9bd 3d82 493e 0bb5 333e
000003c0: a081 2f3e 7370 3d3e 2fd7 a13e 724f 32be
000003d0: 1212 8c3e d2ee 86be 8bbb 113e 0637 64be
000003e0: c368 4b3e 699b a63e 950a 4f3e 4116 9b3e
000003f0: 3b6b 1cbd be63 6a3e 4a6b 1e3d c6fa 563e

a2c_network.actor_mlp.2.weight f4 [128, 256]
0.037985846 -0.07417517 0.0024651468 -0.034215737 0.048326075 -0.008383726 -0.10310387 0.15343614
0.22120415 0.1330185 0.054578535 0.004409251 0.06966826 -0.0012223272 -0.07524141 0.046407938
0.03666548 0.06014519 0.063878715 -0.13530323 -0.008873854 0.05831672 -0.07902334 0.0015686383
-0.035335366 0.16159782 0.0530832 0.09781412 -0.2423947 -0.044723608 -0.2783734 0.0623952
-0.011132806 0.045494493 0.008695041 -0.036532827 0.0067513464 0.13514301 -0.22055884 0.042278245
-0.024866572 0.075490564 0.05864941 0.016606735 0.06829676 -0.03274349 0.009931281 -0.013668303
-0.016607909 -0.035078082 0.0333821 0.034729153 0.0430715 0.033147667 0.0114539 -0.07280648
-0.041215066 -0.065285474 0.08669705 -0.070682965 0.018660363 0.0067282883 0.08194354 -0.045031745
-0.16257113 0.23080982 -0.025009964 0.017710796 0.011720635 -0.03218523 0.011032709 0.059697635
0.119864844 0.0053326585 -0.047961973 0.0181692 0.013555589 0.014699988 -0.02104911 -0.103780635
-0.12184359 -0.0075126207 0.1108996 0.01605475 0.02049044 -0.16893174 -0.116735876 -0.06267494
-0.007944792 -0.08892015 0.0016912293 -0.06792415 0.016438 0.029793568 0.04186151 0.021919362
0.049932186 -0.10573448 0.037180543 -0.045467425 -0.0071368613 -0.13291426 0.0058165784 -0.0041579246
-0.026745893 -0.08210131 0.0776582 0.020063708 -0.21812388 0.060449343 0.14420286 0.044635996
0.08598746 0.15690258 0.025486596 0.0837192 -0.06435493 0.19041252 -0.16117994 -0.12574625
0.062110547 0.073987156 0.10534608 0.0027430092 -0.13947809 0.011286952 0.030243075 0.041378174
0.011169077 0.025319437 0.050458323 -0.07203718 -0.0424293 -0.0005494929 -0.030950991 0.097452
-0.0137716355 0.0395778 -0.02156611 -0.15306337 -0.10217505 -0.08664045 0.065411285 0.0038941712
0.041228402 0.11943788 -0.09455103 -0.0017621961 -0.047592886 0.08906048 0.016460301 0.032707088
0.1351119 0.038982697 -0.10668627 0.07513173 0.055139497 0.012772431 -0.13137294 -0.048345108
-0.11127209 0.05260386 0.035916086 0.0023039344 -0.11868878 0.03569696 -0.011535071 0.0008316914
0.016904777 -0.011439172 0.06301513 0.0035286513 0.076162435 0.033966467 0.012881622 0.012955861
-0.02489957 0.24676412 0.08055208 -0.020861072 0.056160107 -0.20587337 -0.06013232 0.052187704
0.062095527 -0.11028067 -0.018927561 0.046303812 -0.122158974 0.023691421 -0.042800274 -0.108634144
-0.097050935 0.03174308 -0.070156775 0.01433745 -0.12201963 -0.036622114 -0.05939386 0.020873109
0.073552765 -0.055035014 -0.03973993 0.02938614 0.030012622 0.05851815 -0.08242148 -0.044107422
-0.11584049 -0.036918987 0.0023490922 0.22321124 -0.10276052 -0.029976627 0.03309036 -0.016150938
-0.1055757 -0.06606588 -0.074287586 -0.21483588 -0.03606194 -0.08854607 5.4948017e-05 -0.034112703
0.09340279 0.11420036 -0.07633819 0.04684758 0.292165 -0.09040071 0.019113407 0.016845882
0.050764024 0.020993225 0.16778734 -0.03782329 0.07394626 0.05224334 -0.104408264 0.028670292
0.04373701 -0.05940152 -0.008864813 -0.012831022 -0.013931468 0.0060286312 -0.0032078389 -0.035540495
-0.033192843 -0.038696587 0.007590372 0.06484792 0.07875196 0.053664483 -0.04180453 -0.069738895
00000000: 0c97 1b3d 27e9 97bd 4d8e 213b cd25 0cbd
00000010: 90f1 453d e55b 09bc 1f28 d3bd 5d1e 1d3e
00000020: 5783 623e 0036 083e be8d 5f3d 7a7b 903b
00000030: 3cae 8e3d 7f36 a0ba 2b18 9abd 4016 3e3d
00000040: 8b2e 163d ce5a 763d d8d2 823d ee8c 0abe
00000050: a463 11bc 83dd 6e3d fdd6 a1bd c49a cd3a
00000060: d1bb 10bd e679 253e c56d 593d c552 c83d
00000070: 5136 78be 1a30 37bd f586 8ebe 1c92 7f3d
00000080: 5f66 36bc 6f58 3a3d a575 0e3c 72a3 15bd
00000090: 663a dd3b ee62 0a3e 2dda 61be f42b 2d3d
000000a0: fbb4 cbbc cc9a 9a3d 5d3a 703d d90a 883c
000000b0: 2cdf 8b3d 0a1e 06bd d0b6 223c 05f1 5fbc
000000c0: 4f0d 88bc 09ae 0fbd abbb 083d 2840 0e3d
000000d0: be6b 303d d9c5 073d 23a9 3b3c 901b 95bd
000000e0: 21d1 28bd 64b4 85bd 398e b13d 3bc2 90bd
000000f0: 9edd 983c f978 dc3b 04d2 a73d 3573 38bd
00000100: 0c79 26be 6959 6c3e b2e1 ccbc 3b16 913c
00000110: e807 403c a9d4 03bd 89c2 343c 8285 743d
00000120: b37b f53d 95bd ae3b c673 44bd 93d7 943c
00000130: 4318 5e3c 38d8 703c 2f6f acbc f18a d4bd
00000140: 2289 f9bd 6e2c f6bb 541f e33d 4085 833c
00000150: 91db a73c 71fc 2cbe 3813 efbd b85b 80bd
00000160: df2a 02bc c51b b6bd 3dac dd3a d11b 8bbd
00000170: fca8 863c a411 f43c fa76 2b3d 3c90 b33c
00000180: b185 4c3d 528b d8bd a04a 183d 0d3c 3abd
00000190: 55dc e9bb ad1a 08be ff98 be3b 333f 88bb
000001a0: 341a dbbc bb24 a8bd 430b 9f3d a55c a43c
000001b0: de5b 5fbe bb99 773d eaa9 133e 3cd4 363d
000001c0: 321a b03d 12ab 203e 44c9 d03c f974 ab3d
000001d0: 84cc 83bd 80fb 423e 5b0c 25be a0c3 00be
000001e0: a167 7e3d 9486 973d b0bf d73d 0fc4 333b
000001f0: 58d3 0ebe e8ec 383c 53c0 f73c 297c 293d
00000200: 81fe 363c b56a cf3c 63ad 4e3d 3b88 93bd
00000210: 58ca 2dbd d80b 10ba ef8c fdbc ea94 c73d
00000220: 6da2 61bc 551c 223d 69ab b0bc a5bc 1cbe
00000230: 2741 d1bd 8c70 b1bd 5af6 853d 5a35 7f3b
00000240: 1ddf 283d d99b f43d f8a3 c1bd 7df9 e6ba
00000250: c2f0 42bd 5765 b63d c1d7 863c def7 053d
00000260: c65a 0a3e 52ac 1f3d 557e dabd aade 993d
00000270: f4d9 613d 7543 513c a186 06be 8505 46bd
00000280: 9fe2 e3bd 2577 573d bf1c 133d 9bfd 163b
00000290: 1a13 f3bd fa36 123d 98fd 3cbc dd05 5a3a
000002a0: e37b 8a3c 5d6b 3bbc 140e 813d f240 673b
000002b0: 0dfb 9b3d 6c20 0b3d 700d 533c d244 543c
000002c0: 2ffa cbbc bcaf 7c3e 7df8 a43d d7e4 aabc
000002d0: 2408 663d 78d0 52be 4f4d 76bd c6c2 553d
000002e0: e157 7e3d d5da e1bd f90d 9bbc 11a9 3d3d
000002f0: 7c2e fabd 8314 c23c 574f 2fbd 947b debd
00000300: a4c2 c6bd 0805 023d 5bae 8fbd a0e7 6a3c
00000310: 6ee5 f9bd 1201 16bd fa46 73bd 15fe aa3c
00000320: d5a2 963d 656c 61bd 56c6 22bd 34bb f03c
00000330: 08dd f53c bab0 6f3d 98cc a8bd fca9 34bd
00000340: c73d edbd 5d38 17bd 3af3 193b 7d91 643e
00000350: 1c74 d2bd 8b91 f5bc c289 073d f94e 84bc
00000360: 1338 d8bd 8c4d 87bd 1724 98bd f0fd 5bbe
00000370: afb5 13bd a457 b5bd fc77 6638 c3b9 0bbd
00000380: f649 bf3d e1e1 e93d 3257 9cbd 3fe3 3f3d
00000390: a796 953e 0224 b9bd b893 9c3c 6000 8a3c
000003a0: f0ed 4f3d fcf9 ab3c 72d0 2b3e 98ec 1abd
000003b0: 2371 973d 1dfd 553d 00d4 d5bd f6dd ea3c
000003c0: 9425 333d 024f 73bd b83d 11bc 3539 52bc
000003d0: d040 64bc d38b c53b 9b3a 52bb e992 11bd
000003e0: 38f5 07bd 5080 1ebd a8b8 f83b fcce 843d
000003f0: b548 a13d 4acf 5b3d 3a3b 2bbd 44d3 8ebd

a2c_network.actor_mlp.2.bias f4 [128]
-0.0164617 -0.021720134 -0.03236341 0.074436516 -0.028242217 0.0364809 -0.11387103 -0.027962979
0.045147996 0.044245683 0.028121013 0.11785803 -0.06846913 0.05480362 0.042350587 -0.04504081
0.020049943 -0.063324064 -0.11756799 -0.11635254 0.016847517 -0.051890314 -0.12979758 -0.0049818675
0.090997614 0.1228333 -0.042643197 0.034540284 0.04935285 0.00019907375 -0.025629392 -0.021881219
-0.031177925 0.023691714 -0.06600071 0.056150686 -0.040427428 0.03580157 -0.055908702 -0.035271995
0.00019857082 0.01643345 -0.03875849 0.14530577 -0.106590115 -0.04657289 -0.09201188 -0.047914002
-0.031064505 0.027251482 -0.047427714 0.03429314 -0.05516075 0.03707057 -0.16719224 -0.052763525
-0.032171812 -0.121600285 -0.04398446 -0.007562882 0.016338529 0.04849417 -0.02378904 0.075793505
-0.09424708 0.041875374 -0.054168895 -0.036422465 -0.12902643 -0.030882595 -0.058116406 -0.00077439856
-0.0047048046 -0.062358867 0.13249524 -0.10550277 -0.06412682 -0.1329464 -0.065521665 0.030425647
-0.07631441 -0.003297569 -0.07538195 -0.014093307 -0.066112 0.072296135 -0.038221464 0.07182051
0.011729526 0.14755663 -0.051933665 -0.01822065 0.06541526 0.018696446 0.014426764 -0.06758798
-0.027974624 -0.07741361 -0.0031317142 -0.07600899 0.17264323 -0.12309837 -0.014182744 0.0039693187
-0.03721712 -0.071260974 -0.04119222 0.033975 -0.115819566 -0.017948873 -0.16100867 0.034126054
0.08924261 0.06591472 -0.012835152 -0.002034975 -0.017829064 0.030032592 0.0119893355 -0.05344064
0.09493127 -0.02997369 -0.08922565 -0.09699319 0.05983203 -0.017272657 0.10104123 -0.039584413
00000000: b0da 86bc 6cee b1bc 7f8f 04bd 2c72 983d
00000010: 395c e7bc ff6c 153d 3735 e9bd 9e12 e5bc
00000020: 1bed 383d f63a 353d 0a5e e63c 8d5f f13d
00000030: 8b39 8cbd c379 603d cf77 2d3d b67c 38bd
00000040: c73f a43c 0cb0 81bd 7dc7 f0bd 3e4a eebd
00000050: ce03 8a3c f08a 54bd a8e9 04be ef3e a3bb
00000060: f55c ba3d 0690 fb3d a2aa 2ebd 1d7a 0d3d
00000070: 3726 4a3d 74be 5039 bbf4 d1bc 3e40 b3bc
00000080: d968 ffbc 2015 c23c 612b 87bd 43fe 653d
00000090: 3b97 25bd aba4 123d 8600 65bd 5e79 10bd
000000a0: 7337 5039 719f 863c 39c1 1ebd 09cb 143e
000000b0: eb4b dabd 37c3 3ebd b970 bcbd 7941 44bd
000000c0: fd7a febc 803e df3c 9043 42bd f776 0c3d
000000d0: 3df0 61bd 4fd7 173d 7134 2bbe 911e 58bd
000000e0: 97c6 03bd 9209 f9bd 0d29 34bd 0dd2 f7bb
000000f0: 61d8 853c d3a1 463d 3ce1 c2bc a039 9b3d
00000100: 9d04 c1bd 8385 2b3d 34e0 5dbd b92f 15bd
00000110: 811f 04be 7ffd fcbc 780b 6ebd 0201 4bba
00000120: c32a 9abb 036c 7fbd d5ac 073e d611 d8bd
00000130: ec54 83bd 1a23 08be 3930 86bd 353f f93c
00000140: bb4a 9cbd 071c 58bb da61 9abd 9de7 66bc
00000150: ba65 87bd ff0f 943d 1c8e 1cbd a216 933d
00000160: 332d 403c 1619 173e 65b8 54bd 7943 95bc
00000170: 70f8 853d 4a29 993c 3c5e 6c3c 916b 8abd
00000180: 0a2b e5bc 078b 9ebd 723d 4dbb 9aaa 9bbd
00000190: 63c9 303e 001b fcbd bd5e 68bc 0f11 823b
000001a0: fb70 18bd 46f1 91bd 2cb9 28bd 5f29 0b3d
000001b0: cf32 edbd 8409 93bc 75df 24be c3c7 0b3d
000001c0: d4c4 b63d 4cfe 863d 884a 52bc 375d 05bb
000001d0: 420e 92bc e906 f63c eb6e 443c 93e4 5abd
000001e0: 536b c23d 628b f5bc f0bb b6bd 5ea4 c6bd
000001f0: 6e12 753d 637f 8dbc b4ee ce3d 4423 22bd

a2c_network.actor_mlp.4.weight f4 [128, 128]
0.075991854 -0.055800837 -0.11823542 -0.066661365 -0.0060395473 -0.12926646 0.012717372 -0.12460588
0.001709226 -0.09645298 0.08394922 0.04752572 -0.004282353 -0.06763822 0.042478353 -0.08569703
0.11840128 -0.018081548 0.028762825 -0.010032691 0.11861776 0.109930195 0.07934317 0.100252
0.04967682 -0.023295442 -0.071759 0.05516676 -0.08325413 0.0917841 0.06516067 -0.10864022
0.14490353 -0.05367875 0.11516138 0.034094978 0.009782997 -0.0065448415 -0.08323144 0.05656222
-0.12259261 0.00047653876 -0.049636565 -0.019715013 0.011963521 -0.0016769273 0.06820386 -0.00141326
0.10878504 -0.0152362175 -0.03164403 0.06499574 0.08460083 -0.025562968 0.028811445 0.010357498
0.10827256 0.0028624327 -0.05597873 -0.043574795 -0.047413826 -0.0033037756 -0.12093513 0.086287245
-0.02162014 0.06124273 -0.026020389 -0.055330314 0.001659126 -0.014436487 0.028406937 -0.092919566
-0.013727159 0.048009478 -0.19687405 -0.15775175 0.015604304 -0.021064077 0.008767829 0.11204924
-0.041459933 0.006047728 0.03105202 0.07162637 0.08441322 0.025333237 -0.09342659 -0.14680378
-0.05895317 -0.09332157 0.07731024 0.0069645876 -0.0055877077 -0.19620492 -0.11309583 -0.0586577
-0.0300361 -0.03569352 -0.041138723 -0.06177341 0.10229967 0.095122196 0.068653286 0.076752104
0.06494621 0.03815398 -0.05869082 0.025790963 0.038383417 0.12292606 -0.035334587 -0.07177286
0.039125256 0.11561274 -0.06812392 0.032895517 0.05870215 0.026384791 -0.11240434 -0.12607506
-0.078626744 0.0006175419 -0.03702852 0.06960477 -0.026965495 -0.040995635 0.05780019 0.05183472
0.0512186 -0.0069918605 0.022855705 0.16525751 0.017739736 -0.073183164 0.05548816 0.005929904
0.03963209 -0.00207991 0.056500353 0.041662287 0.2219642 -0.040339362 -0.13386056 -0.06880658
0.030148888 -0.004736296 0.039028045 -0.018954637 -0.041180372 0.09912882 -0.08178015 0.009114336
-0.10848573 -0.09674847 -0.07457739 0.008409107 0.012282619 -0.04690362 0.15603676 -0.094061345
0.061092228 -0.11333773 0.22840603 -0.14257912 -0.018370952 -0.06672227 0.095619604 -0.22119512
-0.019043112 0.05871257 0.026068147 -0.19775926 -0.023206845 -0.027265783 0.04919298 -0.14637479
0.12589179 0.091627315 -0.14522275 -0.04664826 0.1206193 0.16790806 0.086813755 0.03787573
-0.09578942 0.105834045 0.103399515 0.027193109 -0.002021311 0.04426621 -0.048641406 -0.02951411
-0.04521042 0.071458824 -0.015690925 0.062707156 -0.037030112 -0.034163307 -0.014108535 0.089905046
0.11982705 0.06391978 0.076848276 0.11798217 -0.026438052 0.11114558 -0.21755426 0.095902815
-0.061743516 -0.15007012 0.017725172 0.03689143 0.036759414 0.11531367 0.110741965 -0.11102074
0.020278217 -0.111674115 0.18026654 -0.10051692 -0.047047526 -0.015134813 -0.07257535 -0.066004425
0.07258322 -0.12358918 -0.12236689 0.20296013 0.02441478 -0.1046227 0.14915559 -0.130011
-0.05442449 0.13088024 0.1066453 0.07765689 -0.08463667 -0.057250105 -0.14999218 -0.093669966
0.14792088 0.08467958 -0.060649406 0.10992003 0.025429731 0.028869249 -0.045155045 -0.3098013
-0.046367638 -0.006844438 -0.068706416 0.12693644 -0.03565976 -0.12168828 0.025421223 -0.1786078
00000000: 9ea1 9b3d 6b8f 64bd 6925 f2bd c185 88bd
00000010: 65e7 c5bb 6d5e 04be 865c 503c 5e31 ffbd
00000020: 1c08 e03a 2489 c5bd 92ed ab3d 54aa 423d
00000030: fb52 8cbb e885 8abd c8fd 2d3d ed81 afbd
00000040: 5f7c f23d c11f 94bc 04a0 eb3c 2860 24bc
00000050: deed f23d 1523 e13d ac7e a23d ec50 cd3d
00000060: ec79 4b3d 15d6 bebc 62f6 92bd 8af6 613d
00000070: 2481 aabd 4df9 bb3d f572 853d c37e debd
00000080: 9761 143e 40de 5bbd bbd9 eb3d 2da7 0b3d
00000090: dd48 203c 1c76 d6bb 3f75 aabd c9ad 673d
000000a0: d611 fbbd f3d7 f939 b64f 4bbd 6181 a1bc
000000b0: a502 443c 58cc dbba 77ae 8b3d 233d b9ba
000000c0: b1ca de3d 54a1 79bc 2c9d 01bd 7d1c 853d
000000d0: 3343 ad3d 6e69 d1bc fb05 ec3c 7fb2 293c
000000e0: 01be dd3d a797 3b3b f449 65bd 7c7b 32bd
000000f0: 0035 42bd 2884 58bb d6ac f7bd 5eb7 b03d
00000100: b81c b1bc a8d9 7a3d b628 d5bc 0aa2 62bd
00000110: 0877 d93a 0487 6cbc aab5 e83c 9d4c bebd
00000120: e1e7 60bc 96a5 443d 5a99 49be ad89 21be
00000130: 32a9 7f3c 928e acbc f1a6 0f3c 127a e53d
00000140: e4d1 29bd 052c c63b ce60 fe3c d9b0 923d
00000150: d7e0 ac3d a687 cf3c 7156 bfbd bb53 16be
00000160: e178 71bd 611f bfbd d554 9e3d 3237 e43b
00000170: 1719 b7bb f1e9 48be c99e e7bd 0e43 70bd
00000180: 440e f6bc 5e33 12bd 1481 28bd 1d06 7dbd
00000190: 7d82 d13d 6dcf c23d 189a 8c3d 3530 9d3d
000001a0: 8502 853d 5947 1c3d c965 70bd 9247 d33c
000001b0: ee37 1d3d a8c0 fb3d 00bb 10bd a6fd 92bd
000001c0: ce41 203d 5fc6 ec3d 8e84 8bbd 73bd 063d
000001d0: aa71 703d eb24 d83c 3f34 e6bd d219 01be
000001e0: 0f07 a1bd 89e2 213a 38ab 17bd f28c 8e3d
000001f0: bee6 dcbc 0aeb 27bd e4bf 6c3d a550 543d
00000200: 98ca 513d fa1b e5bb e33b bb3c 4439 293e
00000210: ec52 913c 0ee1 95bd 8e47 633d a44f c23b
00000220: 4255 223d 194f 08bb ea6c 673d 13a6 2a3d
00000230: 954a 633e e33a 25bd be12 09be 77ea 8cbd
00000240: cdfa f63c ee32 9bbb dfdb 1f3d c146 9bbc
00000250: c0ac 28bd 0d04 cb3d 5a7c a7bd 4c54 153c
00000260: c42d debd 1024 c6bd 08bc 98bd 5ac6 093c
00000270: 0a3d 493c 031e 40bd 1ac8 1f3e 3ca3 c0bd
00000280: d83b 7a3d 9d1d e8bd 45e3 693e 4300 12be
00000290: ae7e 96bc afa5 88bd 36d4 c33d f980 62be
000002a0: 4d00 9cbc 987c 703d de8c d53c 6781 4abe
000002b0: 481c bebc 7e5c dfbc 947e 493d 46e3 15be
000002c0: c7e9 003e 1aa7 bb3d 46b5 14be 3f12 3fbd
000002d0: 4007 f73d 17f0 2b3e 69cb b13d 9523 1b3d
000002e0: 3e2d c4bd 85bf d83d 20c3 d33d 15c4 de3c
000002f0: f977 04bb 7c50 353d 363c 47bd 93c7 f1bc
00000300: 902e 39bd 0159 923d 418a 80bc 9c6c 803d
00000310: e3ac 17bd d3ee 0bbd 7c27 67bc 2320 b83d
00000320: e267 f53d 60e8 823d a162 9d3d a3a0 f13d
00000330: 9d94 d8bc 4ba0 e33d 8bc6 5ebe b268 c43d
00000340: c5e6 7cbd fbab 19be 6134 913c 781b 173d
00000350: 0a91 163d 9329 ec3d afcc e23d d75e e3bd
00000360: 811e a63c 66b5 e4bd cb97 383e d1db cdbd
00000370: e8b4 40bd 02f8 77bc 63a2 94bd 542d 87bd
00000380: 83a6 943d 531c fdbd 7e9b fabd c8d4 4f3e
00000390: 8101 c83c 6d44 d6bd 3ebc 183e 9b21 05be
000003a0: 37ec 5ebd 7805 063e da68 da3d 930a 9f3d
000003b0: fe55 adbd 167f 6abd 8d97 19be 0ad6 bfbd
000003c0: 9278 173e 7d6c ad3d 836b 78bd c11d e13d
000003d0: 0352 d03c 347f ec3c 7ff4 38bd 479e 9ebe
000003e0: feeb 3dbd 4f47 e0bb f3b5 8cbd a0fb 013e
000003f0: f80f 12bd b437 f9bd 2b40 d03c f7e4 36be

a2c_network.actor_mlp.4.bias f4 [128]
0.020672569 -0.029159768 -0.01246092 -0.015088316 -0.029046554 -0.010064672 -0.03247109 -0.042751264
0.009971315 -0.077823795 -0.018703021 0.037799306 -0.037324816 -0.04245552 -0.0016078394 -0.009989764
-0.11589662 0.02690697 0.012191433 0.040309265 -0.050640956 -0.052779738 -0.051012885 -0.019335628
-0.017407008 0.020600755 -0.02479359 0.004361877 -0.08925025 -0.020903204 0.026684629 -0.020741757
0.02843358 -0.09630274 -0.0012904115 -0.038436078 -0.034190167 -0.0630062 -0.025284154 -0.07676845
-0.03147818 -0.061660517 -0.13111103 -0.059583377 0.014497463 -0.029523613 -0.046988036 -0.019648345
0.014165703 -0.017593598 -0.07467374 -0.025225952 -0.063521765 -0.119771264 -0.030913072 0.009189937
0.02290542 -0.073943704 -0.0083059715 0.0129227135 0.012827983 -0.06350531 0.0012847462 -0.04859599
-0.045038108 0.014489625 -0.052240804 -0.06296232 -0.025935652 -0.018014165 -0.025720704 -0.02650834
-0.050840467 0.0039053855 -0.097903445 0.0525595 -0.041787885 -0.020349706 -0.040333536 -0.0067086127
-0.06529124 0.029676076 0.008752484 -0.028854365 -0.0026914778 -0.036060534 -0.018609451 -0.008312441
-0.0448776 -0.09352637 0.0131364055 -0.11492072 -0.028219402 -0.022592254 -0.073922694 -0.0471719
0.045002796 -0.008612312 -0.020701105 -0.0941129 0.11137354 -0.0031050525 -0.013772972 0.024912287
-0.07247462 -0.063948825 -0.11132362 -0.020927709 0.048957217 -0.0074153813 -0.014510298 -0.05147227
0.0051827817 0.008213004 -0.059031714 -0.04263923 -0.061242778 0.01858747 -0.05393089 0.003268308
-0.05547799 -0.003260576 -0.017043076 -0.019694373 -0.0073892404 -0.070117064 0.019734701 -0.021534551
00000000: 8559 a93c 77e0 eebc e328 4cbc fc34 77bc
00000010: 0af3 edbc 4be6 24bc 6800 05bd f31b 2fbd
00000020: ba5e 233c 1562 9fbd 1437 99bc 72d3 1a3d
00000030: e8e1 18bd d7e5 2dbd 23be d2ba 1bac 23bc
00000040: 355b edbd 026c dc3c 94be 473c 541b 253d
00000050: e46c 4fbd 912f 58bd e3f2 50bd c065 9ebc
00000060: 2499 8ebc eac2 a83c ed1b cbbc 14ee 8e3b
00000070: d6c8 b6bd 323d abbc b999 da3c 9eea a9bc
00000080: 8aed e83c 5f3a c5bd 0623 a9ba 266f 1dbd
00000090: fd0a 0cbd 6509 81bd b720 cfbc c738 9dbd
000000a0: 44ef 00bd bd8f 7cbd f841 06be b30d 74bd
000000b0: c486 6d3c 81db f1bc 8776 40bd 91f5 a0bc
000000c0: 4417 683c 7320 90bc 8cee 98bd a8a6 cebc
000000d0: b317 82bd a34a f5bd 693d fdbc 6491 163c
000000e0: 26a4 bb3c cc6f 97bd c515 08bc cab9 533c
000000f0: 762c 523c 120f 82bd ee64 a83a 970c 47bd
00000100: e179 38bd e465 6d3c 74fa 55bd 64f2 80bd
00000110: 0177 d4bc 7192 93bc 3ab4 d2bc 0528 d9bc
00000120: 183e 50bd 7ff1 7f3b 9a81 c8bd a148 573d
00000130: c629 2bbd 6db4 a6bc c734 25bd ecd3 dbbb
00000140: 6ab7 85bd 3e1b f33c 9466 0f3c fd5f ecbc
00000150: 8163 30bb 36b4 13bd d972 98bc e830 08bc
00000160: 93d1 37bd c18a bfbd 143a 573c 8e5b ebbd
00000170: 602c e7bc 6413 b9bc c864 97bd 5237 41bd
00000180: da54 383d a81a 0dbc 5d95 a9bc 44be c0bd
00000190: cf17 e43d 237e 4bbb 08a8 61bc da14 cc3c
000001a0: 936d 94bd 9af7 82bd a3fd e3bd 9670 abbc
000001b0: 5d87 483d bafc f2bb 9abc 6dbc 96d4 52bd
000001c0: 53d4 a93b d68f 063c 3dcb 71bd 79a6 2ebd
000001d0: b5d9 7abd c044 983c a3e6 5cbd 1c31 563b
000001e0: e43c 63bd 63af 55bb ec9d 8bbc 1856 a1bc
000001f0: 7121 f2bb 8999 8fbd abaa a13c 3a69 b0bc

a2c_network.value.weight f4 [1, 128]
0.04647021 0.03639946 0.08427318 -0.02987667 0.009730078 0.12447801 -0.12677248 -0.03024844
0.0010319216 0.04860275 -0.0027142006 -0.13114549 0.08418081 -0.010258603 -0.09283716 0.022154639
0.27330104 -0.08841442 -0.05093336 -0.10492112 -0.0069984687 0.06094771 0.019024828 -0.15159488
-0.005870113 -0.049360342 0.010418566 -0.1358463 0.20168214 -0.019661615 -0.13710906 0.13010126
-0.16747479 0.12675354 -0.0775769 -0.14601831 0.02999893 -0.025369974 0.10076949 0.059921764
-0.01867824 -0.013608384 0.020376798 0.083550915 0.019389713 -0.01030922 0.007256617 0.023241574
0.038036913 0.015862267 0.004711599 0.010914637 -0.055643067 0.08835178 0.003400022 -0.048304804
-0.13125423 -0.0016155657 0.09199415 -0.06187192 -0.032285817 0.022010328 -0.04282514 0.037270837
0.0073412494 -0.037924692 0.12900433 0.16952488 -0.052922055 0.077266626 -0.015501854 0.00940078
0.049345367 0.0102877375 0.037083864 -0.004766143 -0.0065226927 0.17078072 -0.0235061 0.0433388
0.15156412 -0.13386531 -7.7854886e-05 -0.05617373 -0.059515905 0.026552908 0.025800314 -0.045645878
0.05801712 0.008465802 0.016818628 -0.004570075 -0.032242063 -0.08103523 -0.03987882 -0.059628554
-0.08632065 0.0012347474 -0.013262321 0.03269057 -0.2354806 -0.0625301 0.028713929 -0.004326687
-0.016063096 0.07035823 0.020537546 0.01178874 0.0528833 -0.049337585 -0.065545306 0.17188673
-0.050552625 -0.038469613 -0.009250123 0.094023645 0.09995558 -0.008725589 0.014503756 -0.11748809
0.044590615 0.0061925245 -0.09868184 -0.021531984 0.078008816 0.035383437 -0.16104883 -0.022695294
00000000: 8c57 3e3d 9a17 153d 6b97 ac3d ebbf f4bc
00000010: e86a 1f3c 54ee fe3d a5d0 01be 94cb f7bc
00000020: 8b41 873a ad13 473d bbe0 31bb 014b 06be
00000030: fd66 ac3d b313 28bc 6921 bebd a57d b53c
00000040: 1dee 8b3e 9f12 b5bd 809f 50bd e2e0 d6bd
00000050: 6953 e5bb 4ea4 793d f5d9 9b3c b03b 1bbe
00000060: 145a c0bb 122e 4abd a2b2 2a3c 4b1b 0bbe
00000070: c385 4e3e 6511 a1bc 5166 0cbe 4439 053e
00000080: 837e 2bbe aecb 013e a3e0 9ebd d385 15be
00000090: 51c0 f53c b1d4 cfbc 3c60 ce3d 8670 753d
000000a0: 1c03 99bc b3f5 5ebc 3eed a63c be1c ab3d
000000b0: 2dd7 9e3c 01e8 28bc eac8 ed3b 1d65 be3c
000000c0: 98cc 1b3d 96f1 813c c263 9a3b 4ed3 323c
000000d0: fce9 63bd c7f1 b43d e7d2 5e3b 42db 45bd
000000e0: 8267 06be 64c1 d3ba 6e67 bc3d 696d 7dbd
000000f0: 223e 04bd 014f b43c 6a69 2fbd 4ea9 183d
00000100: dd8e f03b ec56 1bbd b619 043e ee97 2d3e
00000110: ccc4 58bd f73d 9e3d 7dfb 7dbc bb05 1a3c
00000120: 5e1e 4a3d e68d 283c 40e5 173d 4e2d 9cbb
00000130: 50bc d5bb 24e1 2e3e dd8f c0bc 0784 313d
00000140: a033 1b3e fd13 09be 0646 a3b8 6d16 66bd
00000150: f3c6 73bd 7c85 d93c 2e5b d33c 2cf7 3abd
00000160: 5ca3 6d3d 26b4 0a3c 38c7 893c 91c0 95bb
00000170: 4110 04bd ccf5 a5bd f957 23bd 123d 74bd
00000180: e2c8 b0bd 3fd7 a13a 354a 59bc 8ce6 053d
00000190: d421 71be c80f 80bd 7939 eb3c e2c6 8dbb
000001a0: c196 83bc fa17 903d 5b3e a83c 8f25 413c
000001b0: 299c 583d 3516 4abd 9e3c 86bd 1303 303e
000001c0: 4510 4fbd 5092 1dbd d48d 17bc 788f c03d
000001d0: 83b5 cc3d c6f5 0ebc 29a1 6d3c 999d f0bd
000001e0: a6a4 363d a9ea ca3b b419 cabd d863 b0bc
000001f0: 16c3 9f3d 39ee 103d fce9 24be 7beb b9bc

a2c_network.mu.weight f4 [10, 128]
0.02192216 0.06874387 0.08077701 0.06798989 -0.03173188 0.087190285 -0.0023597209 -0.039072804
-0.0139075015 -0.016911738 -0.15476798 -0.044120595 0.16391751 0.13621792 -0.04914169 0.08778018
-0.018460982 -0.01158433 0.07493937 0.07491429 -0.033120837 0.101643 0.0686409 0.008486505
-0.058173098 -0.03919018 -0.014329647 0.03200792 0.07015152 0.086075485 0.13039118 -0.17531036
0.029875964 0.033846315 -0.017271038 0.13850993 0.017280662 0.015790185 -0.050206542 0.07942859
0.18499933 -0.22019522 -0.123298794 -0.029081669 0.13128842 0.07090586 -0.061159596 0.11013318
0.26475257 -0.0895245 0.042922698 0.018099664 -0.047424782 0.09720759 0.0839296 -0.054442685
0.096136704 0.07463102 0.11529229 0.21771681 -0.04143392 0.011355664 -0.025823459 -0.007848044
-0.11755453 0.057509366 -0.072097845 0.04312897 -0.04776414 -0.01289461 0.06467688 0.07766352
-0.08856126 -0.04858672 0.08367667 -0.07962986 0.0075379643 -0.026712568 0.02129608 0.01777143
0.04545647 -0.10189344 0.11857328 -0.005870559 -0.008929823 0.06485656 -0.10914235 0.0341867
-0.12325695 -0.011835657 0.009260372 -0.05588226 0.07876338 -0.0272061 0.017578337 0.07685129
0.013556601 0.026081713 -0.072096504 0.039419744 -0.03115895 0.021802826 -0.019385314 0.094736636
0.102528736 0.030150285 -0.026631726 0.0032595347 0.008099309 -0.15584773 0.034324057 0.07291071
0.026011333 -0.002683079 0.0021696358 -0.0086876545 -0.053708967 -0.010565601 -0.07197917 0.025375726
0.06010297 -0.042794585 -0.18733524 0.08986557 0.052455068 -0.032556318 -0.05089054 0.014989333
0.021248981 -0.11120782 0.15287161 0.022900524 -0.058264777 0.00737216 0.053302426 0.020809807
-0.06940301 0.029773064 -0.14505422 -0.095039904 0.04358849 -0.032166567 -0.10932051 0.054761156
0.019713098 0.050940603 0.112672664 -0.048663862 -0.06973695 -0.021534756 -0.048588965 0.0055377134
0.014365277 -0.08820191 0.087434806 -0.058219567 -0.021932894 -0.03314999 0.018818958 -0.04034206
0.07560667 0.056752894 0.015393262 0.13766007 0.114491075 0.07191462 0.0015683895 -0.10223631
-0.11665828 0.10399334 0.12344378 -0.047922753 -0.115320735 -0.13334341 0.028915137 -0.06810339
0.026433606 -0.010323865 -0.1059147 0.12609462 0.078453004 -0.057255246 -0.077847905 -0.093181275
-0.18878095 -0.14694889 -0.0225637 -0.05101776 0.063881725 0.07504375 -0.067076825 -0.00025206042
0.04565062 0.119442485 -0.12367816 -0.03449349 -0.07755908 -0.02550823 -0.19101277 -0.06847765
-0.032476578 0.0663361 -0.077191964 0.016206142 0.0003860325 0.05143568 -0.07299157 0.02900524
0.010378823 0.098966874 -0.03418515 0.02112909 0.045292143 0.09880296 -0.05035534 -0.07145276
0.0413554 0.011001094 -0.037253976 0.05430517 -0.20934166 -0.033491753 -0.05205442 -0.023138095
0.12309852 -0.10340377 -0.055239856 -0.18603982 -0.037769422 -0.023257798 0.044107463 -0.039484832
0.05351718 0.019842874 0.034619376 -0.0324028 0.09251553 0.12757382 -0.055760827 -0.043503523
-0.061677903 -0.007901808 0.005861828 -0.075090155 0.0499406 0.057242114 -0.03653912 0.03450758
-0.009304507 0.12907751 0.0017550408 -0.020279225 0.018870957 -0.29534727 -0.2064057 0.026239995
00000000: 1a96 b33c 96c9 8c3d 6b6e a53d 493e 8b3d
00000010: 4af9 01bd d290 b23d 8ca5 1abb ce0a 20bd
00000020: 4adc 63bc 7c8a 8abc 7f7b 1ebe ccb7 34bd
00000030: fed9 273e b67c 0b3e cc48 49bd 18c6 b33d
00000040: 7c3b 97bc 34cc 3dbc d079 993d aa6c 993d
00000050: b7a9 07bd 352a d03d 9a93 8c3d fb0a 0b3c
00000060: ea46 6ebd e285 20bd e5c6 6abc bd1a 033d
00000070: 9aab 8f3d 5848 b03d 4485 053e 8f84 33be
00000080: 70be f43c 6fa2 0a3d fe7b 8dbc 8cd5 0d3e
00000090: 2d90 8d3c 6b5a 813c 60a5 4dbd 75ab a23d
000000a0: 7770 3d3e db7a 61be 1484 fcbd ae3c eebc
000000b0: 7970 063e 1737 913d 7c82 7abd 818d e13d
000000c0: a68d 873e 9f58 b7bd b6cf 2f3d bf45 943c
000000d0: 7d40 42bd c614 c73d 48e3 ab3d 4bff 5ebd
000000e0: 52e3 c43d 26d8 983d 5d1e ec3d 28f1 5e3e
000000f0: 9db6 29bd 1b0d 3a3c b88b d3bc 1595 00bc
00000100: 6ec0 f0bd f18e 6b3d 09a8 93bd 01a8 303d
00000110: 55a4 43bd ea43 53bc 5075 843d 0d0e 9f3d
00000120: 9b5f b5bd de02 47bd ad5e ab3d fb14 a3bd
00000130: 0701 f73b 51d4 dabc 1e75 ae3c 6495 913c
00000140: 9030 3a3d 82ad d0bd 8cd6 f23d d15d c0bb
00000150: 644e 12bc 84d3 843d 0686 dfbd 5a07 0c3d
00000160: 246e fcbd 58ea 41bc d1b8 173c cce4 64bd
00000170: b24e a13d 54df debc 7200 903c 3664 9d3d
00000180: 811c 5e3c 51a9 d53c 55a7 93bd 9976 213d
00000190: 0e41 ffbc d79b b23c f3cd 9ebc 4805 c23d
000001a0: 96fa d13d bbfd f63c c72a dabc eb9d 553b
000001b0: f7b2 043c 8c96 1fbe 6297 0c3d 3652 953d
000001c0: b815 d53c 99d6 2fbb 7330 0e3b aa56 0ebc
000001d0: effd 5bbd 581b 2dbc d169 93bd c1e0 cf3c
000001e0: 882e 763d 6049 2fbd cfd4 3fbe 710b b83d
000001f0: 20db 563d c659 05bd 9972 50bd d295 753c
00000200: 5812 ae3c edc0 e3bd 608a 1c3e e199 bb3c
00000210: 0ca7 6ebd 2992 f13b a553 5a3d 5479 aa3c
00000220: 2a23 8ebd a4e6 f33c 1889 14be 48a4 c2bd
00000230: d889 323d 17c1 03bd 6ee3 dfbd 3c4d 603d
00000240: 5d7d a13c 18a7 503d edc0 e63d c253 47bd
00000250: 3fd2 8ebd a869 b0bc 3905 47bd b575 b53b
00000260: 575c 6b3c 34a3 b4bd 0511 b33d a477 6ebd
00000270: 9dac b3bc 49c8 07bd 372a 9a3c b73d 25bd
00000280: abd7 9a3d b975 683d 0534 7c3c c3f6 0c3e
00000290: 4c7a ea3d f947 933d 6b92 cd3a 4561 d1bd
000002a0: 89ea eebd 76fa d43d 18d0 fc3d a64a 44bd
000002b0: 472d ecbd 2d8b 08be 70df ec3c ca79 8bbd
000002c0: 4a8b d83c 6e25 29bc cee9 d8bd f31e 013e
000002d0: f8ab a03d 7a84 6abd b96e 9fbd d3d5 bebd
000002e0: cb4f 41be c579 16be 82d7 b8bc 00f8 50bd
000002f0: 6cd4 823d 8ab0 993d 935f 89bd fa26 84b9
00000300: 25fc 3a3d 439e f43d fa4a fdbd 0c49 0dbd
00000310: 4cd7 9ebd a3f6 d0bc da98 43be 033e 8cbd
00000320: 2906 05bd 39db 873d d216 9ebd bec2 843c
00000330: 6864 ca39 38ae 523d 9b7c 95bd 669c ed3c
00000340: f00b 2a3c 25af ca3d ba05 0cbd ea16 ad3c
00000350: 4184 393d 3559 ca3d 6741 4ebd d355 92bd
00000360: 4864 293d ef3d 343c a097 18bd 196f 5e3d
00000370: a95d 56be a62e 09bd 0437 55bd 1a8c bdbc
00000380: 141b fc3d 5bc5 d3bd 3043 62bd 3981 3ebe
00000390: 1cb4 1abd 2387 bebc 07aa 343d d9ba 21bd
000003a0: d534 5b3d 868d a23c 0ccd 0d3d ccb8 04bd
000003b0: c878 bd3d b6a2 023e 7765 64bd c030 32bd
000003c0: f8a1 7cbd 9676 01bc 9414 c03b dec8 99bd
000003d0: 848e 4c3d b576 6a3d 0baa 15bd d257 0d3d
000003e0: ee71 18bc e52c 043e 6609 e63a 9e20 a6bc
000003f0: 4497 9a3c c237 97be 045c 53be 42f5 d63c

a2c_network.mu.bias f4 [10]
0.023115225 0.07378537 0.09925637 0.17057958 0.08120977 -0.04022971 -0.033208434 -0.010800834
-0.07499947 0.021478774
00000000: 245c bd3c c91c 973d ec46 cb3d 6aac 2e3e
00000010: 4f51 a63d e9c7 24bd 9105 08bd fbf5 30bc
00000020: 5299 99bd 41f4 af3c

exp_avg f4 [10]
-0.00013143294 -0.0005826532 5.288539e-05 0.00021975744 0.00023393221 -0.00023270986 0.00024940347 0.0007261917
-0.00037324574 0.0001422388
00000000: 43d1 09b9 32bd 18ba 41d1 5d38 b06e 6639
00000010: b34b 7539 9403 74b9 5ec2 8239 e65d 3e3a
00000020: 32b0 c3b9 f025 1539

exp_avg_sq f4 [10]
3.8754492e-06 4.2487227e-06 4.3078653e-06 4.7330836e-06 4.311153e-06 4.9002333e-06 4.430968e-06 4.220335e-06
4.0447067e-06 4.1646713e-06
00000000: db09 8236 4090 8e36 488c 9036 e1d0 9e36
00000010: 86a8 9036 af6c a436 baad 9436 679c 8d36
00000020: c4b7 8736 41be 8b36

exp_avg f4 [256, 42]
-0.00011636097 -0.0007998037 0.0005170193 -1.5752667e-05 0.00011333974 0.00012675246 -6.2942425e-05 -1.629167e-05
2.6061754e-05 1.625788e-05 -0.0001968913 -0.0001773053 -1.950393e-05 -2.5134703e-05 0.00010734588 4.2030737e-05
-9.478808e-06 3.9867213e-05 -5.4556396e-05 7.5201686e-05 6.674487e-05 -6.571062e-05 -0.0001384345 -0.00022348389
-0.00017829273 -5.924482e-05 -0.00018126372 4.684099e-06 5.4743457e-05 0.00012247049 0.00013867447 0.00014650168
-0.00022838583 -0.0004991066 -0.00031998474 -0.00023815928 -0.00035447653 1.1920017e-05 0.00017511807 6.737541e-05
0.0004298906 8.306527e-05 -0.00019600916 -0.000851135 0.00041905604 0.00040311692 -3.4066892e-05 0.00017055227
4.091049e-05 -0.00011327627 0.00021047144 0.000113347065 -0.00019924782 -0.00030132238 -6.425902e-07 -0.00011995175
3.4732e-05 -5.051166e-05 -0.00011707435 -0.00021782397 -0.00014638285 6.4568376e-05 6.505619e-05 -7.485608e-05
9.822705e-05 0.00013040623 2.4624864e-05 -6.735801e-05 2.4440655e-05 0.00017306527 3.1156796e-05 6.906945e-06
9.112854e-05 9.0495865e-05 0.00032249614 7.485238e-05 9.69015e-05 -0.00024881135 4.6229135e-05 0.00030064306
0.00011347083 0.00018956928 0.00021125481 0.0001338207 8.8247165e-05 0.00066208816 -0.00046009984 2.4754367e-05
-5.103087e-05 7.569144e-06 -6.503011e-05 1.7705337e-05 -9.591698e-05 -1.7828179e-05 0.00014594849 0.00016358329
-5.18701e-05 9.5851494e-05 -7.3592666e-05 3.0687614e-05 -3.0266305e-05 1.865083e-05 3.0232448e-05 -8.600983e-05
-5.053987e-05 7.7915734e-05 5.0447434e-05 -3.337569e-05 5.067816e-05 -5.4968703e-05 -1.3891628e-05 8.449183e-05
0.00010039749 2.0482687e-05 1.45798695e-05 1.2706946e-05 0.00013844436 -9.158348e-05 0.00014719216 -0.00016005154
1.3572353e-05 0.0001706013 0.00021969157 4.627306e-05 2.6608035e-05 2.2591998e-05 0.00011740103 0.000888691
-0.00029296245 -2.3695544e-05 1.270505e-06 9.879267e-05 7.269056e-05 9.455046e-05 -7.359423e-05 -9.4599956e-05
0.00018348178 0.00019438162 -1.7820828e-05 9.5043244e-05 -0.00012633561 4.9093178e-05 -6.4425917e-06 1.5972504e-05
1.6685577e-05 -4.5197296e-05 -0.0001071496 9.273649e-05 -4.8312413e-05 1.48968375e-05 7.706298e-05 1.886786e-05
-7.9527264e-05 -1.9985278e-05 -9.204428e-05 0.00016485462 0.00013910134 0.00012607446 -6.59814e-05 -4.9324528e-05
0.00022858958 -6.288988e-05 -7.530405e-05 4.0957424e-05 -0.0001247105 0.0003928196 0.00031063025 0.0003558455
-8.868751e-05 -0.0006272671 0.0005830494 6.2315776e-05 2.1930977e-05 0.00012942891 0.00010057055 -3.4096156e-05
0.000100570396 3.4159624e-05 -0.00014186677 -0.00015407651 2.3094104e-05 -7.8913145e-05 2.941394e-05 2.159062e-05
1.3789023e-05 -1.3231725e-05 -4.6841575e-05 8.540911e-05 -1.8227761e-06 -5.5118446e-05 -0.0001285948 -8.732634e-06
-7.008963e-05 -6.584639e-07 -7.418228e-05 4.315906e-05 -0.00010714831 2.7143633e-05 -4.2457017e-05 7.98848e-05
-0.00028190797 -9.0018395e-05 -0.00012301315 -7.603803e-06 -0.00013851818 5.1877287e-05 -0.0001149924 0.00012815693
0.00011724499 0.00022276759 0.0003366193 0.002201239 -0.0012819029 -7.4688825e-05 -0.00015005561 -0.00017198028
2.6330767e-05 0.00013442844 -0.00027851394 -0.00013511899 0.0005682235 0.0005738688 -7.1016744e-05 0.00025445392
-0.00025869373 2.051489e-05 2.2176613e-05 6.2313855e-05 0.00017710234 -0.0001984783 -0.0002302259 0.00017470303
0.00013308764 0.00026032154 0.00014629414 0.0001470772 0.00015652199 -8.077383e-05 -9.295967e-06 -0.00010194493
-8.877743e-05 -0.00013307747 0.0002315831 0.00042264126 0.00031522315 0.0003131555 0.0003853027 -0.0001988623
-0.00011618026 0.00015255946 -0.00036921576 0.00029188916 -0.000514794 -0.0047198706 0.002720673 0.0008029092
00000000: d206 f4b8 eba9 51ba 9488 073a 9824 84b7
00000010: cfb0 ed38 dbe8 0439 f5ff 83b8 18aa 88b7
00000020: 319f da37 8861 8837 9b74 4eb9 07eb 39b9
00000030: 5f9c a3b7 5dd8 d2b7 e11e e138 294a 3038
00000040: 2c07 1fb7 1837 2738 7cd3 64b8 99b5 9d38
00000050: 61f9 8b38 1fce 89b8 ba28 11b9 0057 6ab9
00000060: 17f4 3ab9 a47d 78b8 9c11 3eb9 1b2c 9d36
00000070: 579c 6538 6c6b 0039 2569 1139 3f9e 1939
00000080: db7a 6fb9 7ad6 02ba a0c3 a7b9 65ba 79b9
00000090: 09d9 b9b9 15fc 4737 e69f 3739 e64b 8d38
000000a0: f162 e139 5433 ae38 cf87 4db9 b41e 5fba
000000b0: c0b4 db39 7059 d339 0ce3 0eb8 47d6 3239
000000c0: 4e97 2b38 bc8e edb8 ffb1 5c39 beb4 ed38
000000d0: 2eed 50b9 cefa 9db9 767e 2cb5 9b8e fbb8
000000e0: 33ad 1138 7bdc 53b8 d085 f5b8 ad67 64b9
000000f0: 597e 19b9 e268 8738 c76e 8838 0dfc 9cb8
00000100: 3fff cd38 a8bd 0839 7e91 ce37 8e42 8db8
00000110: e805 cd37 db78 3539 5bae 0238 35c2 e736
00000120: 431c bf38 99c8 bd38 b314 a939 11fa 9c38
00000130: 9937 cb38 e572 82b9 28e6 4138 a19f 9d39
00000140: 30f7 ed38 1ec7 4639 4884 5d39 3852 0c39
00000150: 5611 b938 fc8f 2d3a 8e39 f1b9 99a7 cf37
00000160: fb09 56b8 74fa fd36 c660 88b8 ec85 9437
00000170: 0927 c9b8 b98d 95b7 c009 1939 8e87 2b39
00000180: 198f 59b8 e103 c938 c355 9ab8 93b6 0038
00000190: 65e4 fdb7 5a74 9c37 b09b fd37 2d60 b4b8
000001a0: c6fa 53b8 b166 a338 8597 5338 e0fc 0bb8
000001b0: 438f 5438 328e 66b8 1710 69b7 3531 b138
000001c0: 7e8c d238 3cd2 ab37 109c 7437 eb2f 5537
000001d0: 602b 1139 8210 c0b8 9857 1a39 82d3 27b9
000001e0: d0b4 6337 70e3 3239 025d 6639 5215 4238
000001f0: 5234 df37 f283 bd37 3335 f638 0bf7 683a
00000200: c198 99b9 cbc5 c6b7 3886 aa35 e92e cf38
00000210: 7271 9838 6449 c638 9a56 9ab8 f763 c6b8
00000220: 0465 4039 ebd2 4b39 f07d 95b7 f451 c738
00000230: f578 04b9 66e9 4d38 712d d8b6 b1fc 8537
00000240: 01f8 8b37 3a92 3db8 81b5 e0b8 867b c238
00000250: 0fa3 4ab8 6eed 7937 df9c a138 6c46 9e37
00000260: e0c7 a6b8 0fa6 a7b7 e607 c1b8 d3dc 2c39
00000270: bbdb 1139 db32 0439 7f5f 8ab8 cfe1 4eb8
00000280: 8cb1 6f39 bfe3 83b8 8eec 9db8 b3c9 2b38
00000290: b8c4 02b9 5bf3 cd39 16dc a239 c690 ba39
000002a0: bffd b9b8 2f6f 24ba c8d7 183a 87af 8238
000002b0: 6af8 b737 4fb7 0739 67e9 d238 7802 0fb8
000002c0: 52e9 d238 9e46 0f38 12c2 14b9 998f 21b9
000002d0: 36ba c137 2c7e a5b8 f5bd f637 811d b537
000002e0: 6757 6737 d3fd 5db7 c277 44b8 ab1d b338
000002f0: 1ca6 f4b5 fb2e 67b8 67d7 06b9 6182 12b7
00000300: 15fd 92b8 4bc1 30b5 4f92 9bb8 b005 3538
00000310: d0b4 e0b8 82b2 e337 e013 32b8 d387 a738
00000320: 0ccd 93b9 42c8 bcb8 17fd 00b9 2c24 ffb6
00000330: 313f 11b9 d096 5938 1328 f1b8 dd61 0639
00000340: 6de1 f538 b896 6939 477c b039 aa42 103b
00000350: 8605 a8ba 42a2 9cb8 3f58 1db9 9b55 34b9
00000360: e4e0 dc37 5cf5 0c39 8205 92b9 baae 0db9
00000370: d5f4 143a af6f 163a d3ee 94b8 3a68 8539
00000380: 49a1 87b9 6417 ac37 ea07 ba37 7fae 8238
00000390: 8cb4 3939 9d1e 50b9 cb68 71b9 7d30 3739
000003a0: 718d 0b39 c47b 8839 8966 1939 bc38 1a39
000003b0: 0d20 2439 1f65 a9b8 e0f5 1bb7 44cb d5b8
000003c0: 052e bab8 b68a 0bb9 1dd5 7239 f395 dd39
000003d0: 8944 a539 052f a439 7402 ca39 b185 50b9
000003e0: cda5 f3b8 5ef8 1f39 4d93 c1b9 b308 9939
000003f0: 3ef3 06ba 25a9 9abb 524d 323b 537a 523a
