logs/rl_games/humanoid_flat_direct/2025-11-17_00-02-14/nn/last_humanoid_flat_direct_ep_750_rew_8188.354.pth (torch, 759451 bytes, 33 tensors)

value_mean_std.running_mean f8 [1]
00000000: 794e 0bb8 7803 8240
576.4339447863887

value_mean_std.running_var f8 [1]
00000000: 4993 d421 6569 dd40
30117.580189842065

value_mean_std.count f8 []
00000000: 0000 0001 0094 b141
294912001.0

a2c_network.sigma f4 [10]
00000000: 14c0 b2bf 8b88 04c0 e991 dbbf 189e 9abf
00000010: da0f 2bbf 243a 82bf 69f2 86bf 9d98 93bf
00000020: cd5e b7bf bca3 9bbf
-1.3964868 -2.070834 -1.7153903 -1.2079496 -0.6682106 -1.0173993 -1.0542728 -1.1530949
-1.4325806 -1.2159343

a2c_network.actor_mlp.0.weight f4 [256, 42]
00000000: da2a 45be bbed 6b3e cf9f de3d 5cb9 d53a
00000010: 4c58 fd3d 262d a53e 8ca8 933e 3db7 c53b
00000020: 901a aabe 039c 22be e606 97be 60b5 80bd
00000030: 74c3 d2be 47c2 df3c 4ebd 8b3e 3e9b 783c
00000040: e9fd 803e b9c4 edbd 9cf2 04be a50b 8fbe
00000050: e3c0 a1be 8b0e bfbe 9147 303e 8440 673d
00000060: 5cff 763e 96af f9bd 1969 44bd 2612 4cbe
00000070: 5fc6 543e 94b9 aa3d 776e 153d 286c 28be
00000080: d75b 0ebd 9e49 72bd ad41 a5bd 1a44 18bd
00000090: eee8 af3d 46dd 903d 1f48 beba 6663 71bd
000000a0: b4b3 8e3c ba57 96bd 2774 773e 5c26 a4bd
000000b0: e634 cebd 77dc 5dbe 7319 d2bd cf3b d73d
000000c0: 3666 713d 209b 0e3d 0cb8 9b3e da0f f93c
000000d0: ce86 76bd eeee 52bb 1538 3c3f 1691 813b
000000e0: 249b 1b3e e613 35bf 34ac 1dbe bd10 cbbc
000000f0: aca2 46bd 64d0 86be ea25 8dbc 8006 8abf
00000100: 89ba 41be 685a ef3d 3257 9dbd ff09 cfbd
00000110: 95be 343d 656e bf3d c60c 793d 2615 2fbd
00000120: 4425 edbb ef6f 963d c67f d639 32e2 efbd
00000130: 579c ae3d 81e0 f13d 2e28 ffbd 6d54 f2bc
00000140: 3638 b2bd 4f02 813c 6fce abbd e44f 2d3d
00000150: 261f 05be 8ea9 52be fa54 8a3e ca57 b23d
00000160: 046f b93d 9828 083e a825 85b8 13fb a23e
00000170: 0e0e 9cbe eaef 8bbe 4194 05be 92df ebbd
00000180: f978 cbbe cb93 90be 086e 473e f963 503e
00000190: e005 313e 7377 d3be dffb a0be 806a c5bd
000001a0: d60b db3e e7bb 0b3f 00f9 343e d236 c1bd
000001b0: 8a45 d43d 0987 ba3c 0509 01bd 3746 b5bd
000001c0: 9bcd 0d3e 3c06 90be 6e58 b63e a3f6 f9bd
000001d0: 8d9e b73d bed7 093c 7994 0e3e dd8a 4bbc
000001e0: df91 73bc 9a18 b5bd dc3f db3d 7c65 a4bd
000001f0: 1428 20be abfa 153d fa92 db3d 4780 28be
00000200: 5656 44be a098 ce3e 5ec5 103d 7f4d 543e
00000210: 4618 8cbc 5c73 cabd 4c4d 473e 3946 d13d
00000220: 4823 163e 2e8c b3bd f3fb 0b3f 5ca3 a93d
00000230: 673e 973d 0813 54bc e77e a8bd 896d 783e
00000240: 4933 143f 0fe1 1bbe d9e4 423f 3db4 df3d
00000250: 4de9 de3c 24d7 80bc 62eb 793e 97b1 353e
00000260: b59f ff3c 1dda 943d f27a 6d3d e591 323d
00000270: 2ecb 663e d5fb 70bc 058f 46bd d9b1 98bd
00000280: 8c22 3a3e 5851 7abd 16cd 51bb 8534 59bd
00000290: 5ba0 1fbd c250 bcbd 431a 0dbe 32d8 8b3b
000002a0: f513 ee3d 38d8 a53d 7abc cfbd dcfd 1fbd
000002b0: 82eb 86bd 67b4 323e b4d5 be3d f56f c23c
000002c0: f284 033d a151 fabd c769 cdbd 83ab a83d
000002d0: ab88 0dbe 7d9c 2bbe d9d3 67be 6386 97be
000002e0: 9d9a 743d 9fce 033d c1e8 43be 83c6 3dbe
000002f0: 6921 e6be c15b 0f3e 328e 733d 2882 ba3d
00000300: 4aef cd3d f980 4abd 5c28 b93c 9233 f9bd
00000310: 1569 65bd c757 28be 2b98 603e 94f9 83bc
00000320: 21a2 b7ba 7793 e8bd e618 293d 5605 1ebe
00000330: d71b f0bc ae50 c83d b150 713d 85b6 383d
00000340: 8291 74bd ad53 8fbd 56d2 4fbe cf8f 4fbd
00000350: 15d6 d6bb 9ef7 0ebe f900 9f3c 753a b8bd
00000360: 24c7 d83d 7738 1a3d 3927 8e3e a86f b1bd
00000370: 2487 7d3d e610 efbd 5fb1 ad3e 912a 223d
00000380: 23c0 483e fa4d ff3c a4c9 5bbd cc76 bd3c
00000390: d80e 003f afef 20bf b7e4 703f daba 1c3f
000003a0: 659c 6d3e c3fa 25be cf5a 39be 1f04 323e
000003b0: 91b8 1c3c cf63 92bd 7bf0 fd3c 1be4 78be
000003c0: ea0b db3d 2f71 67be a13a ccbd 8814 47bd
000003d0: eb4e 28be 8c49 eb3d e184 40bc 274f 41bd
000003e0: fde2 013d 0d00 ce3c 3e38 a1bd 8cfa a7bb
000003f0: 3a28 503d ee58 503c 87f9 54bc 85b5 a1bc
-0.19254628 0.23039906 0.10870325 0.0016305852 0.12370357 0.32261008 0.2883953 0.0060338066
-0.3322339 -0.15879826 -0.2949745 -0.062845945 -0.41164744 0.027314318 0.27292866 0.015173731
0.25193718 -0.116097875 -0.12983173 -0.27938572 -0.31592473 -0.37315783 0.172148 0.05645801
0.2412085 -0.121916935 -0.04795179 -0.19928798 0.20778798 0.083361775 0.0364823 -0.16447508
-0.034755554 -0.059152238 -0.08069167 -0.03717432 0.0858935 0.070734546 -0.0014517343 -0.058932684
0.017419674 -0.07340951 0.24165402 -0.08015129 -0.10068683 -0.21666132 -0.1025876 0.105094545
0.058935367 0.034815907 0.30413854 0.030403066 -0.060187154 -0.003218587 0.73523074 0.003954063
0.151959 -0.7073349 -0.15397722 -0.024788255 -0.04849498 -0.26330864 -0.017229993 -1.0783234
-0.18918814 0.116871655 -0.07682647 -0.101093285 0.044127066 0.09347228 0.060803197 -0.042744778
-0.0072371084 0.073455684 0.0004091246 -0.11713065 0.08525913 0.11810399 -0.124588355 -0.029581273
-0.08702128 0.015748171 -0.083889835 0.042312518 -0.13000163 -0.20572492 0.27017957 0.08708151
0.09054378 0.13296735 -6.348948e-05 0.3183218 -0.30479473 -0.27331477 -0.13044836 -0.11517252
-0.39740732 -0.28237757 0.19475567 0.20350637 0.17287397 -0.4130207 -0.31442162 -0.09639454
0.42782468 0.5458359 0.17673111 -0.09434284 0.10364826 0.022769468 -0.031502742 -0.08851283
0.13847964 -0.28129756 0.35614341 -0.12205245 0.08965788 0.008413253 0.13923825 -0.012423244
-0.014866321 -0.08842583 0.107055396 -0.08027169 -0.15640289 0.03661601 0.10721393 -0.16455184
-0.1917356 0.4035082 0.035344474 0.20732687 -0.017101418 -0.09885284 0.1946308 0.10218472
0.14661896 -0.087669715 0.5468132 0.082831115 0.07384949 -0.0129439905 -0.0822733 0.24260534
0.57890755 -0.15222572 0.76130444 0.109230496 0.027210856 -0.015727587 0.24406198 0.17743526
0.031204084 0.07268164 0.057978578 0.043596167 0.22538444 -0.014708479 -0.048476238 -0.07455797
0.18177241 -0.06111273 -0.003201311 -0.053028602 -0.038971286 -0.09195091 -0.1377955 0.004267716
0.116249 0.08097881 -0.10143371 -0.03906046 -0.06587888 0.1745163 0.093181044 0.023735026
0.03210921 -0.12222601 -0.10029941 0.08235838 -0.13821666 -0.16758914 -0.22639407 -0.29594716
0.059717763 0.03217947 -0.19131757 -0.18532757 -0.44947365 0.13999845 0.05946178 0.091068566
0.100554064 -0.049439404 0.022602253 -0.121680394 -0.056008417 -0.16439734 0.21933047 -0.016110219
-0.001401011 -0.11356252 0.04128351 -0.15431723 -0.02931015 0.097810134 0.058914844 0.04509594
-0.05970908 -0.06998382 -0.2029508 -0.050674256 -0.0065562823 -0.13961646 0.019409643 -0.08995525
0.10584858 0.037651505 0.277643 -0.08663875 0.06189646 -0.11673145 0.33924386 0.039591376
0.19604544 0.031165112 -0.053659096 0.023127936 0.5002265 -0.6286573 0.9409899 0.6122261
0.23204191 -0.16208939 -0.18101047 0.17384385 0.009565488 -0.07147943 0.03099846 -0.24305765
0.10695632 -0.2260177 -0.0997212 -0.048603565 -0.16436355 0.11488637 -0.011750431 -0.047194626
0.031710614 0.025146509 -0.078720555 -0.005126303 0.050819613 0.012716515 -0.012998945 -0.019739876

a2c_network.actor_mlp.0.bias f4 [256]
00000000: fe78 073e aeb6 923e 6e41 853e 0077 aabb
00000010: b9e7 21be 438d 063e 0e71 5cbe 2b24 4a3e
00000020: 0cd5 0abe 7e2c ee3d ce3a e4bd 6c5c 3d3e
00000030: 5b87 1bbe bea6 73be bbda 473e adf2 fc3d
00000040: 2550 7cbd 6bbe 163e 4743 503d 4f3a 823d
00000050: 758d afbd 966f 85bd da80 38be 6721 26be
00000060: f2f5 04bd 7f38 333e 2315 fdbd 8c20 1ebe
00000070: 733f c7bb e341 20bc d77b 163c 5225 c0bc
00000080: fac2 423e 790a 693e 5e95 463e 17c8 6ebe
00000090: 7bf3 953d b502 92bd 09e4 0f3e 0f6b 7f3e
000000a0: 8657 15bd 4803 b0bd 065b 483e ca39 243e
000000b0: 8094 9cbd a943 22bc 14b6 b23d 4d47 203e
000000c0: 3534 02bc e7c3 8fbe 91fb 01be 1907 61be
000000d0: 8325 65be 0b66 03be 42ae 26bd 2889 04be
000000e0: 0c8f 9d3d 18ca 53be 5bde 49be 4caf 383e
000000f0: 44b0 54be 2b9f 813e 0c9a c339 f007 863e
00000100: ac4a babd 2b2d 273e 2890 993e 6111 11be
00000110: 0955 84be f774 d03d e41b 44be 9de7 763c
00000120: e122 e13d 7c9a 753e 84d1 f4bd dd0c 3bbc
00000130: 4d72 52be 7009 0bbe 2424 4abd 3d11 113e
00000140: 5784 aa3d a7c7 393e aec0 98bd 5bbf 253e
00000150: 9ce3 983e 5718 273e 45e7 073e 40ca 7d3e
00000160: 395c 8dbe d9b2 7cbe 00c6 48be 6c18 9c3d
00000170: cefe 1c3e 668e 723d 6195 8dbd 4eea 5ebe
00000180: 25fb 173e c400 03be a58d eabd 12e2 683e
00000190: cfcc 163e bcab 0c3d bdbd 7a3e 39f7 6a3e
000001a0: 1304 853e 0b96 603e 84c3 2c3e b5d2 6ebe
000001b0: c0ae 643d 7660 9ebe 38e0 2a3e f3be cd3d
000001c0: cd4f ed3d 7dba 263e 468c 4ebe 6bc9 673e
000001d0: 55b4 0b3e 49bc 96be bcb3 a03e 2e38 143e
000001e0: 0b02 4fbe b5cd 62be 21ad 523e 876b 863e
000001f0: e5e1 c6bd 3d51 cbbc dcac 9abe 2bee 173e
00000200: bc71 8a3e 43cf 7f3d 968f 71be 9a2b 4e3d
00000210: 196e 4e3e f984 bd3d 680e 443e 7327 473e
00000220: edde 18bb d291 23be 2e7f 8b3d 0587 d4bc
00000230: aa1a aebd c574 8f3e 976a 8fbe 87a4 6abe
00000240: e257 153e 8e41 ca3c 37a4 3abd 3c09 073e
00000250: 24d0 81bd 57f5 303e 0be1 103e a0ca 8e3c
00000260: 416d 873d b1ac 843e 7155 67be d590 31be
00000270: 22d7 603d 4c96 0d3e 6517 453e b910 89be
00000280: 6462 993e 3a3b 2f3d 4114 7bbe 8714 6dbe
00000290: 0616 19be d9e6 68be 6994 353e af13 073e
000002a0: 7310 57be 99df 953e 974c afbe 4846 0f3e
000002b0: f077 cb3d cb50 03be 9fd3 78bc 3e31 423e
000002c0: 9514 7c3e 3147 703c a8a6 703e 94c5 753e
000002d0: acfd 003e 9248 ec3d bf2b a33d 871a 0c3d
000002e0: c516 32be 3eca f9bd 5ae6 673e 759b 53be
000002f0: fdd4 0e3e dfc4 893e f6f6 44bd 5e46 803e
00000300: fb46 59be 61ea 5fbe 1c55 453e 2770 a6be
00000310: a8d6 c93d 82b2 753e 09ad 913e 031f c6bd
00000320: 82d9 713e 48b6 81be 09f1 4d3e b08d 3abe
00000330: 0b09 3fbe cfb9 3cbe 6d65 533d 8cb0 97be
00000340: 6e6f 4f3d 7eb8 5cbe c84f 27be ec8a 0ebd
00000350: 65fd 473d 45c5 4c3e 1267 353e d121 4a3e
00000360: aa03 11be 3034 a7bd 9e44 afb8 5553 cd3c
00000370: bc19 3d3e 26ca 45be 8130 f6b8 c721 343e
00000380: 1155 083e 06dc 4c3d 00bf 443e d750 3d3e
00000390: 750f 3e3e 9689 5a3e a6d6 343e f466 793e
000003a0: 3d5f 32be 78fc 77be b06c 243e e70b 553e
000003b0: 9e82 c93d 999b f4bd 63b5 4b3e 7b3c 2d3e
000003c0: c10b 3a3e 640e 3a3e 8376 a23e 14a0 31be
000003d0: 4213 893e 1deb 87be 85f0 163e 29b6 62be
000003e0: 1814 4f3e 674f a33e 9cb1 4f3e 2568 973e
000003f0: e7a5 27bd ab7d 693e ff84 283d 4344 5c3e
0.13229749 0.28655 0.2602648 -0.005202174 -0.15811051 0.13139825 -0.21527502 0.1974036
-0.13557833 0.1162958 -0.111440286 0.18492287 -0.15188353 -0.23794076 0.19517033 0.12350974
-0.06159987 0.14721076 0.05084541 0.06358778 -0.08571903 -0.06515424 -0.18017903 -0.1622368
-0.032461114 0.1750202 -0.12357547 -0.15442103 -0.006080562 -0.009781334 0.009184799 -0.023455296
0.1901969 0.22757901 0.19392917 -0.23318516 0.07321831 -0.071294226 0.14051832 0.24943183
-0.036460422 -0.08594376 0.19565973 0.1603767 -0.076455116 -0.009903827 0.08726135 0.15652199
-0.007947017 -0.2807915 -0.12693621 -0.21975364 -0.22377591 -0.12831895 -0.04069353 -0.12942946
0.076933 -0.20682561 -0.19713728 0.1803562 -0.20770365 0.25316748 0.00037308072 0.2617793
-0.09096274 0.16325824 0.29992795 -0.14166786 -0.25846127 0.10178559 -0.19151264 0.015069869
0.10992981 0.23984712 -0.119540244 -0.011416641 -0.20551415 -0.13577819 -0.049350873 0.14166732
0.08326023 0.18142568 -0.07458626 0.16186278 0.29861152 0.16317879 0.13271816 0.24784184
-0.27609423 -0.246776 -0.19606781 0.076218456 0.15331575 0.059217833 -0.069132574 -0.21769068
0.14841898 -0.12793261 -0.11452798 0.22742489 0.14726566 0.034343466 0.24486442 0.2294587
0.2597967 0.21932237 0.16871458 -0.23322566 0.055830717 -0.3093297 0.16687095 0.10046186
0.115874864 0.16282077 -0.20170698 0.22635429 0.1364301 -0.29440525 0.31387126 0.14474556
-0.20215623 -0.22148784 0.20573856 0.26253912 -0.09711055 -0.02481901 -0.30210006 0.14836948
0.27039897 0.06245352 -0.2358993 0.05033455 0.20159186 0.09253878 0.1914612 0.19448642
-0.0023326233 -0.15973595 0.06811367 -0.025943289 -0.085011795 0.28018776 -0.2801101 -0.22914325
0.14584306 0.024689462 -0.045566764 0.13187116 -0.06338528 0.1728109 0.14148347 0.017430604
0.066126354 0.25913003 -0.22591187 -0.17340405 0.054892667 0.13826865 0.19247206 -0.2677057
0.2995788 0.042781092 -0.24519445 -0.23152362 -0.14949808 -0.22744311 0.17732395 0.13191102
-0.21002369 0.29272154 -0.3423812 0.13991654 0.09934986 -0.12823789 -0.015187173 0.18964097
0.24617226 0.014665411 0.23501074 0.24001151 0.12596768 0.11537279 0.07967328 0.034204986
-0.17391498 -0.12196778 0.22646466 -0.20664771 0.13948436 0.26908013 -0.048087083 0.25053686
-0.21218483 -0.21866752 0.19270748 -0.3250744 0.098553956 0.23993877 0.28452328 -0.09673884
0.23618129 -0.25334382 0.20111479 -0.18218112 -0.18655793 -0.18430255 0.0516104 -0.29626882
0.050643377 -0.21554753 -0.16339028 -0.034800455 0.04882564 0.19997127 0.177151 0.19739462
-0.14161554 -0.08164251 -8.357431e-05 0.02506415 0.18466848 -0.19315395 -0.00011739229 0.1759101
0.133137 0.05001452 0.19213486 0.18487869 0.18560584 0.21341547 0.17660007 0.2435568
-0.17419143 -0.24217403 0.16057086 0.20805322 0.098393664 -0.119437404 0.19893412 0.16917603
0.18168546 0.18169552 0.31731042 -0.17346221 0.26772505 -0.26546565 0.14740188 -0.22139801
0.20222509 0.31896517 0.20282596 0.29571643 -0.0409297 0.22801845 0.04114246 0.21510415

a2c_network.actor_mlp.2.weight f4 [128, 256]
00000000: 3041 1e3d f751 89bd 25ed 66bb e422 dbbc
00000010: 15d6 433d 4c33 b9bb 205c d8bd 76b3 1a3e
00000020: bfed 523e 736a 0c3e 08d8 813d e958 2b3c
00000030: cbef 693d 9ae4 1fbb ea10 91bd a21a 483d
00000040: 3483 bd3c 8432 7f3d e867 833d 1109 0abe
00000050: 5e0f 58bc 056f 6f3d 25f0 aebd 1edc 2c3c
00000060: 38c3 92bc de9c 263e 31ad 733d 2cbe 9c3d
00000070: a37b 75be 398f 2fbd bf94 8bbe 6b24 5b3d
00000080: dd23 33bc 78c9 153d 7b7d 5e3b 48e5 2ebd
00000090: d3a1 d13b 2303 0b3e c58b 64be d8d9 1e3d
000000a0: a5f6 45bc 5e28 913d 2577 673d 2a58 823c
000000b0: 6292 903d 9c30 97bc b64a 3c3c 3c2e e1bb
000000c0: f4ab 97bc 7c9e 18bd f22c 143d 2640 023d
000000d0: 62cb cf3c e1c1 303d 847d 433c 90e9 83bd
000000e0: 4fd9 20bd 9d0e 6bbd 83e7 ac3d a6bc 88bd
000000f0: 4e5a cb3c aa0c ed3b f975 a23d 40fc 32bd
00000100: 8f85 30be 94b4 5a3e 70eb e7bc fd93 b93c
00000110: 38a0 073c 72af 05bd 231c 6b3c d0e0 7f3d
00000120: 31d6 e93d c9d7 583b 3a97 3dbd 3f99 e63c
00000130: 9115 683c 4518 8d3c b979 91bc b408 d9bd
00000140: b84c 00be 6a9b ebb9 de18 cc3d 8fcc c33c
00000150: edf0 663c 287e 1fbe 5888 cdbd c415 56bd
00000160: baa6 0cbc 85c6 c9bd dc7e 7239 80cf 8bbd
00000170: 3bbf 913c e89d e83c de4f 2e3d ad6a 823c
00000180: 0df5 293d 3bf9 d7bd beac 073d dde7 3bbd
00000190: 0d31 13bb 7890 0cbe 869e 54b9 892a afbc
000001a0: 6d22 e4bb 2497 9fbd 06e1 513d 48e3 993c
000001b0: 1d77 54be b96c 813d c44a 0a3e d536 2f3d
000001c0: 45c8 bc3d 9aed 1f3e d307 dd3c 8caf 953d
000001d0: 93ee 81bd bbc1 3e3e 848e 21be a259 f5bd
000001e0: 4e89 043d 82c5 853d 88e2 b63d 7fe6 5d3b
000001f0: 72bf 10be 9a87 0f3c d33d 153d c25f f33c
00000200: 7ab8 e73b 3b1f e83c 5930 273d d949 86bd
00000210: c855 2abd ed43 aa3b a85a 493b a48d b23d
00000220: 5398 95bc cebf 1a3d d1b8 f3bc 218f 28be
00000230: 5ca5 d4bd 6729 bebd 4966 843d b715 43bb
00000240: 1b6e 2c3d 3719 fb3d 17de bbbd a85f 3bba
00000250: 0c7a 27bd 1485 b23d 2e84 903c a03e 043d
00000260: fe0a 013e dc0f 303d 0f24 d4bd 5c99 8e3d
00000270: 9c19 3e3d 71ef 253c 23a7 05be 88d0 45bd
00000280: aae6 e0bd ca1a 823d 32af 0f3d 020a 22ba
00000290: 22d8 01be c949 473d 5085 1dbb 7663 ef3b
000002a0: 691b b23b 8e47 19bc 106d 893d 1c5e 763b
000002b0: fbed ac3d cf50 1b3d 96c0 9c3b 9338 513c
000002c0: 2312 c6bc 6d9f 6b3e f677 a83d 416a 7ebc
000002d0: 428c 833d 7dcb 57be 9076 3fbd 4728 473d
000002e0: 3dbe 803d bea0 e2bd 526c adbc 2beb 233d
000002f0: 0621 f7bd 0982 9e3c fc64 37bd 6a8a debd
00000300: bc60 cabd 5685 aa3c 5b99 8dbd e6cf 823c
00000310: 5ca9 fdbd fe8e 25bd e52a 4cbd 54d8 553c
00000320: 6bf7 883d ac0e 25bd 0b00 15bd 777b fe3c
00000330: 7ce4 f63c 0ba2 723d 7429 acbd f24c 37bd
00000340: e6f8 05be ecc5 09bd 96bb 1d3c 1abf 593e
00000350: dc18 d8bd 1f50 03bd da1c 0e3d f544 6fbc
00000360: 0784 d4bd e25d 83bd 1f55 b0bd c621 58be
00000370: 89e2 1ebd 4891 b4bd 668f 97bb a559 0bbd
00000380: 5d9b b33d ecc2 dd3d 7ef0 9cbd e3ed 0e3d
00000390: 8a30 8e3e fa75 9ebd 8c91 863c 9f79 ec3b
000003a0: 75a1 113d 1661 453c b88d 073e 004b a5bc
000003b0: e4ed 933d 4545 613d 6d05 cabd ba09 203d
000003c0: 8559 1f3d 8820 7dbd ac2d 63bb 0faf 66bc
000003d0: c4c3 4bbc afb3 a73b 4dee 86bc 5386 f6bc
000003e0: ca43 e1bc 1d2e 49bd 7426 743c f1db 813d
000003f0: 297e b23d 06aa 603d 20dc 21bd 1a71 91bd
0.038636386 -0.06705087 -0.0035236564 -0.026750036 0.047811586 -0.005651867 -0.105644464 0.15107521
0.20598505 0.13712482 0.06340033 0.01045821 0.05711345 -0.0024397732 -0.07083304 0.048853524
0.023133852 0.062304035 0.06416303 -0.13480021 -0.013187258 0.058455486 -0.08541898 0.010550527
-0.017915353 0.16270778 0.05949134 0.0765346 -0.23972945 -0.042861197 -0.27261922 0.053501528
-0.010933843 0.03656909 0.0033949304 -0.04269913 0.006397465 0.13575415 -0.22318943 0.03878197
-0.01208273 0.070877776 0.05651011 0.01591118 0.0705917 -0.018455796 0.011492422 -0.0068719666
-0.01851461 -0.037260517 0.036175676 0.031799458 0.025365535 0.043153647 0.011931781 -0.06441033
-0.03926974 -0.057386983 0.08442595 -0.06676607 0.024823334 0.0072341757 0.07932658 -0.043697596
-0.17238449 0.21357948 -0.028310508 0.022653574 0.008277945 -0.03263802 0.01434997 0.062470257
0.11417807 0.0033087602 -0.0462868 0.028149245 0.014165298 0.017223487 -0.017758237 -0.10597363
-0.12529266 -0.00044938485 0.099656805 0.023901252 0.014095527 -0.15575469 -0.10035771 -0.05226685
-0.008584673 -0.09852318 0.00023126177 -0.06826687 0.017791381 0.028395608 0.042556636 0.015920008
0.041493464 -0.10545584 0.033123724 -0.04587542 -0.0022459656 -0.13726985 -0.0002027695 -0.021382587
-0.0069621117 -0.077925 0.05123999 0.018785134 -0.20748563 0.06319565 0.13505083 0.0427769
0.09217886 0.15617982 0.02698127 0.073088735 -0.063443325 0.1862859 -0.15777022 -0.11979987
0.032357506 0.06531812 0.08929926 0.003385931 -0.1413553 0.008760357 0.036435913 0.029708747
0.007071552 0.028335204 0.040817592 -0.06557054 -0.041585714 0.0051960857 0.0030724201 0.08718422
-0.01826111 0.037780575 -0.029751213 -0.1646085 -0.10383102 -0.092852406 0.06464822 -0.0029767582
0.042097192 0.12260669 -0.0917322 -0.0007147738 -0.040887877 0.08716789 0.017641153 0.032286286
0.1260185 0.042983875 -0.1035844 0.06962845 0.04641114 0.010127888 -0.13052039 -0.048294574
-0.10981496 0.06352766 0.03507919 -0.0006181301 -0.12680104 0.04865435 -0.002403576 0.007305558
0.0054353965 -0.009355439 0.06710255 0.0037592715 0.08443829 0.037918862 0.0047837 0.012769836
-0.02417857 0.23010035 0.08226006 -0.015528263 0.064232364 -0.21073718 -0.04674393 0.048622396
0.06286285 -0.110658154 -0.021169815 0.040019196 -0.120668456 0.019349115 -0.04477404 -0.10866244
-0.09881732 0.020815533 -0.06914016 0.015968274 -0.12385818 -0.04041957 -0.049845595 0.013052065
0.06687816 -0.040297195 -0.036376994 0.031064732 0.030138247 0.059236567 -0.08406344 -0.044751115
-0.13083228 -0.03363602 0.0096272435 0.21264306 -0.105516165 -0.03205883 0.034695484 -0.014603843
-0.10376745 -0.06414391 -0.086099856 -0.21106634 -0.03879026 -0.08816773 -0.0046252487 -0.03402104
0.087698676 0.10828194 -0.07663058 0.034894835 0.27771407 -0.07737346 0.016426824 0.007216647
0.035554368 0.012047073 0.13237655 -0.020177364 0.072231084 0.0549977 -0.09864316 0.039071776
0.03890373 -0.061798602 -0.0034664674 -0.014079823 -0.012436811 0.0051178555 -0.016471053 -0.030093348
-0.027498145 -0.049116243 0.014901746 0.063407786 0.087154694 0.054849647 -0.03951657 -0.071016505

a2c_network.actor_mlp.2.bias f4 [128]
00000000: 05d5 99bc 59c2 f0bb dd2d f7bc ef58 a13d
00000010: 51f7 d3bc dc98 043d 6b7f e5bd cb98 18bd
00000020: 4d61 233d 24fc e43c 0a7d e73c 3ecd f23d
00000030: 7192 7abd 31b3 7b3d 9a8b 3e3d af11 30bd
00000040: 02ad 883c a28b 62bd 738f dfbd 68d8 e6bd
00000050: 3068 9c3c dcad 5fbd 6351 f5bd d509 42b9
00000060: 5332 a33d 511e d53d 9c5c 34bd 6ad7 283d
00000070: 26d7 673d a500 79bb 3edd d0bc ae8d 84bc
00000080: 46fc c3bc c994 993c 7ffc 83bd 2f7f 5b3d
00000090: 6a12 2cbd 8daa 083d e0d5 7abd 0183 01bd
000000a0: 48e4 1d3b 0501 6f3c a8d6 30bd 2ba6 103e
000000b0: 2f4a c7bd 7f8e 3abd ee14 b1bd 91ae 52bd
000000c0: 47e3 02bd 471b c23c 0511 5abd 70d4 133d
000000d0: ed20 6abd 3fd9 e53c bdaf 22be 53e3 54bd
000000e0: ed8f 06bd 00ba f7bd b830 14bd 384d 7cbc
000000f0: b410 ae3c 9318 303d 8c3c e4bc b627 9d3d
00000100: 4f06 c7bd e688 1c3d e751 6dbd 762c 26bd
00000110: bafc f6bd 6a2b b9bc abf4 79bd 26d8 7dbb
00000120: 6a3f 8bbc 5f79 6abd 775c 063e 042e dfbd
00000130: 89ad 6dbd ee60 02be 8970 87bd 0dc2 033d
00000140: e3e0 94bd 2c2d 8d3b a552 97bd 5c5b 13bc
00000150: 12be 87bd d350 803d 087b 1dbd 8ea8 8d3d
00000160: 13e3 013c 2e73 0f3e 1f36 54bd c15e 8dbc
00000170: d103 713d 75cf a63c a5c4 503c 33b9 8abd
00000180: 374a b3bc f738 aebd ad02 90bb 6a32 99bd
00000190: 9fc9 213e 84b6 fcbd df36 66bc 474a e13b
000001a0: 69bf 22bd 4907 8dbd 02ad 18bd 2b57 193d
000001b0: 7973 e7bd 73eb adbc d87b 22be 7dc1 113d
000001c0: cc90 b93d 0f62 7d3d 8d02 a1bc 5b01 35bb
000001d0: e61f c1bc 112c 9e3c c0bb 1f3c 1a78 52bd
000001e0: 7afc b83d 380f cbbc 13cc bebd bc1e c3bd
000001f0: 30ad 4e3d 6e80 6abc 33a8 d33d 2e1d 12bd
-0.018778333 -0.007347387 -0.030173237 0.07878291 -0.025874766 0.03237234 -0.11205944 -0.03725509
0.039887715 0.027952261 0.028257865 0.11855553 -0.061174814 0.061450187 0.046519853 -0.042985614
0.016684059 -0.055308945 -0.10916033 -0.11271745 0.01909265 -0.054609165 -0.11978414 -0.00018504944
0.07968583 0.10406173 -0.04403363 0.04122106 0.056601666 -0.003799477 -0.025496121 -0.01618084
-0.023924004 0.018747704 -0.06444644 0.05358809 -0.04200975 0.033365775 -0.061239123 -0.031619076
0.0024092365 0.014587645 -0.043173462 0.14125888 -0.09730946 -0.04554605 -0.0864657 -0.05143601
-0.03195503 0.023694647 -0.053238887 0.036091268 -0.057160307 0.028057693 -0.15887351 -0.051974606
-0.032852102 -0.120960236 -0.036179274 -0.01539927 0.021248199 0.042992186 -0.027860902 0.0767359
-0.09718 0.038216494 -0.057939436 -0.040569745 -0.120599225 -0.02260371 -0.06102435 -0.003873357
-0.016998012 -0.057244655 0.1312121 -0.10897449 -0.058026824 -0.12732288 -0.06613261 0.032167483
-0.07269456 0.0043083634 -0.0738881 -0.00899395 -0.0662805 0.06265416 -0.03844741 0.06916915
0.007927674 0.14008781 -0.051809426 -0.017257096 0.05884153 0.020362595 0.012742196 -0.06773605
-0.021885974 -0.08506959 -0.00439485 -0.07480319 0.15799569 -0.123394996 -0.014051168 0.0068753096
-0.039733324 -0.06886155 -0.037274368 0.037436645 -0.113013215 -0.021230435 -0.15867555 0.035584915
0.09060821 0.061861094 -0.019654537 -0.0027619216 -0.02357478 0.019308122 0.009749353 -0.05138407
0.09032531 -0.02478753 -0.09316268 -0.095273465 0.050458133 -0.014312847 0.10334816 -0.03567236

a2c_network.actor_mlp.4.weight f4 [128, 128]
00000000: d900 933d 3e43 4ebd d056 eebd 1271 78bd
00000010: 7436 cdbc 3d41 f4bd aff4 bb3c 8b01 edbd
00000020: f800 883c 10d7 b8bd 8d58 9e3d 6ce4 403d
00000030: b6bf 0c3c 8087 83bd c309 db3c 92e9 b4bd
00000040: 1112 df3d 1398 8fbc 4358 383c 8bdb 6ebc
00000050: 2937 013e 1ea0 cf3d be9b 973d 1114 c53d
00000060: 2f28 383d a4ae 86bc 2cfe 9cbd a1ee 363d
00000070: 3caa 85bd 54f4 803d ad7c 883d 5374 cdbd
00000080: 8b8a fe3d de8d 05bd 8a40 f53d 184f e13c
00000090: da9e 3bbb 48d5 883c 0acb e0bd fef0 753d
000000a0: b12b fabd 0bb3 20bc 4cb5 70bd 291c 54bb
000000b0: ae7d 89b9 5481 9038 4888 a63d 9a20 1dbc
000000c0: aeff d83d 1cf2 f4bb ffbc e5bc 60c4 903d
000000d0: 0e45 d73d a973 abbc d61e df3c c6e0 273c
000000e0: 8de2 e53d 5674 e2ba 554c 80bd ae87 49bd
000000f0: 8792 32bd 4fe6 7e3c 628e 05be 2ac0 a03d
00000100: 80a1 a8bc 3b59 683d 18d2 0dbd bed1 9bbd
00000110: f1fa 44bc 1973 adbc 8c12 f93c 4fcf babd
00000120: 1602 85bc 6443 453d 73bf 4dbe eac1 24be
00000130: 0bdf b93c 4aa8 acbc 77a0 a13c 4146 f23d
00000140: fa9c 53bd a8fa 183c 773d fb3c a484 873d
00000150: 04ae b33d a328 bf3c a0bd cabd e535 10be
00000160: 6c7c 7cbd 0f96 aabd b984 a63d fc77 e5bb
00000170: c193 f3bb d069 39be 1fb8 dabd 61cf 0ebd
00000180: 8d42 babc 2d72 cfbc c6b6 13bd a9ae 78bd
00000190: 823e cb3d f6dc b23d 9a2c 5f3d a287 923d
000001a0: 5574 a83d b265 423d 2a0e 4abd a4c1 ca3c
000001b0: 4d6c d83c 4745 e63d c676 ffbc 0525 8bbd
000001c0: dd40 223d e6a5 023e 31b7 c0bd 1eaf 0c3d
000001d0: 146f 753d d51b f03c da50 f1bd debe febd
000001e0: 9806 9dbd 1e4b d33b 1524 5dbd 36eb 9b3d
000001f0: 0f86 91bc fe14 55bd d8dd 5d3d 7e5f 493d
00000200: 3f3b 5c3d 9667 69bc 5637 713c f5a9 263e
00000210: 9ff8 8d3b 45e0 9cbd 010a 4b3d 3cf9 633c
00000220: b9bf 623d 9efa 943b e998 763d fd95 353d
00000230: b00a 593e 185e 4abd 889b 17be 4098 8dbd
00000240: 5a72 d63c f314 19bc 051d 283d d281 96bc
00000250: e894 2fbd 92e0 d83d b1aa b0bd 7728 163b
00000260: 6fef d2bd 97a1 c8bd feea 9dbd bda0 4a3c
00000270: e68b 863c fa8d 76bd 99c9 1a3e 1e9e ccbd
00000280: aa34 6a3d d91c d6bd ef99 693e 4707 14be
00000290: 3e26 bebc 3800 82bd 8fa9 b83d 7c98 64be
000002a0: 23af 81bc 3d39 6b3d 3851 033d b7f7 49be
000002b0: bf8f bbbc 052f 1ebd b6dc 3b3d 0de9 1abe
000002c0: 531c 0d3e 41d9 c63d bdb7 13be ce4b e1bc
000002d0: 4eb4 e23d 7469 2a3e 9b3a a83d eac4 2f3d
000002e0: 197e babd 0192 c63d e5a9 c73d 2585 3a3c
000002f0: 615d a5b9 8d0c 403d fd80 4ebd 22a6 12bd
00000300: 968c 59bd 3e39 bd3d 5be0 bebc 8865 903d
00000310: 3818 25bd 0743 2bbd 951f 28bc 837a c13d
00000320: 1cc6 f13d 93c9 813d 6238 9b3d 086d df3d
00000330: 241b 0dbd 3cc2 e53d a05a 5cbe a954 c53d
00000340: bbfb 92bd 18ed 0ebe c3f5 843c 3524 133d
00000350: 7200 fa3c f499 e93d 5315 f93d 5a76 dfbd
00000360: 8a73 873c b5a3 d5bd 99a4 3a3e d61f d3bd
00000370: c073 1fbd 8ec1 f4bc 2707 92bd cdf8 58bd
00000380: 6a93 883d 1c09 01be a63f fabd 17fc 4e3e
00000390: 51c1 ae3c 8009 e9bd 6503 153e 9b2b 0dbe
000003a0: 2dfc 1dbd 3c29 023e f8ee ed3d 0a3c 963d
000003b0: 1a0a b5bd 6207 79bd 537f 10be 984a d2bd
000003c0: cf11 163e ccc2 8b3d be52 76bd b76b e23d
000003d0: 10c0 cd3c 49a3 113d 2c85 41bd edf2 a6be
000003e0: 9a7a 35bd 1faf 2fbc 14a5 aebd fd75 103e
000003f0: 4271 c4bc 0e65 fbbd a3e9 023d cde4 3cbe
0.07177896 -0.050357096 -0.11637652 -0.060654707 -0.02505038 -0.11926506 0.022943823 -0.1157256
0.016602024 -0.09025395 0.077317335 0.04709284 0.008590629 -0.06422329 0.026738053 -0.088336125
0.10892118 -0.01752857 0.011251512 -0.01457871 0.12618698 0.10137962 0.07402752 0.09622968
0.044960197 -0.016440697 -0.07665667 0.044661168 -0.0652661 0.06296602 0.06664405 -0.10031953
0.12428769 -0.032606 0.119752005 0.027503535 -0.0028628618 0.016703263 -0.10976227 0.06004428
-0.12215365 -0.009808312 -0.05876665 -0.0032365418 -0.00026224315 6.890544e-05 0.08131462 -0.009590292
0.10595642 -0.0074751507 -0.028044222 0.070687056 0.10511218 -0.020929174 0.027236383 0.010246461
0.11224852 -0.0017277102 -0.06264559 -0.04920166 -0.04359677 0.01555784 -0.13042596 0.078491524
-0.020584822 0.05672572 -0.03462419 -0.076083645 -0.01202272 -0.021173047 0.030404352 -0.09121572
-0.016236346 0.04815997 -0.20092563 -0.16089597 0.022689363 -0.02107634 0.019729836 0.11829806
-0.051663376 0.009337105 0.030668957 0.06617096 0.08773425 0.023334807 -0.09899449 -0.14083059
-0.061642095 -0.08329403 0.081307836 -0.0070028286 -0.007433385 -0.1810677 -0.106796496 -0.03486574
-0.022736812 -0.025322998 -0.03606298 -0.060713444 0.09924032 0.08733551 0.054485895 0.07154776
0.082253136 0.047460265 -0.049329914 0.024750538 0.02641883 0.11243682 -0.031184565 -0.0679417
0.03961264 0.12758598 -0.09409941 0.034346692 0.059920385 0.029310146 -0.11782999 -0.12438749
-0.07667273 0.0064481637 -0.05398949 0.07613222 -0.01776412 -0.052021973 0.054166645 0.049163334
0.05376744 -0.014245888 0.014722666 0.16275771 0.0043326165 -0.076599635 0.049570087 0.013914403
0.055358622 0.0045464775 0.06020442 0.044332493 0.21195483 -0.04940614 -0.14805424 -0.06913805
0.026177574 -0.009343374 0.0410433 -0.01837245 -0.042866617 0.105897084 -0.08626307 0.0022912303
-0.102995746 -0.09796446 -0.07710837 0.012367425 0.01642413 -0.060193993 0.15115966 -0.09991096
0.05717913 -0.10454721 0.22812627 -0.14455901 -0.023211595 -0.06347698 0.09016716 -0.22323793
-0.015830582 0.057427634 0.032059878 -0.19723402 -0.022895692 -0.03861906 0.045864783 -0.15127964
0.13780336 0.09709407 -0.1442556 -0.027501967 0.11069547 0.1664179 0.08214303 0.0429124
-0.091060825 0.09695817 0.09749202 0.011384283 -0.00031540825 0.04688697 -0.05041598 -0.035802968
-0.05311259 0.09239434 -0.02330034 0.070506155 -0.0403063 -0.04181197 -0.010261436 0.094471954
0.118053645 0.06337275 0.075791135 0.10909468 -0.03444971 0.11218688 -0.21518946 0.09635288
-0.0717692 -0.13957632 0.01623047 0.0359232 0.03051779 0.11406317 0.121622704 -0.10911246
0.016534586 -0.10431615 0.18226852 -0.103088066 -0.038928747 -0.02987745 -0.071302705 -0.05297165
0.06668742 -0.12601131 -0.12219171 0.20213352 0.021332415 -0.11378765 0.14552076 -0.13786165
-0.03857057 0.12711042 0.11617845 0.0733567 -0.08839817 -0.060798056 -0.1411107 -0.10268134
0.14655231 0.06824264 -0.060137503 0.11055701 0.025115997 0.03555611 -0.047246143 -0.32607213
-0.044306375 -0.0107229045 -0.0852758 0.14107509 -0.023979787 -0.12275134 0.031961095 -0.18446656

a2c_network.actor_mlp.4.bias f4 [128]
00000000: 1cc7 d93c f16f f4bc e235 c5bb 1b20 a2bc
00000010: cf4b a6bc f0a5 af3b 6832 23bd 53e0 2dbd
00000020: 61e1 0a3c c4a1 9dbd ec78 dabc de77 053d
00000030: 346f e9bc 0e5e 0bbd 68ee c1bb c232 10bc
00000040: 39b1 c5bd 449c a83c 2f32 4a3c e4fd 273d
00000050: b601 6dbd 6b62 46bd a066 61bd bb13 71bc
00000060: 6c2a a2bc 35bb b23c 1a0f d4bc ec94 25bc
00000070: dacc 6cbd abc1 a9bc 13aa 9a3c e0af ecbc
00000080: 310b df3c 2d15 c0bd 237a 4abc eebb 47bd
00000090: f0ac 0fbd 6405 a1bd fc68 46bc d508 97bd
000000a0: c856 0ebd e814 93bd be4f 08be fb88 66bd
000000b0: 3a8d 573c eb99 f9bc 7464 3abd 089a a1bc
000000c0: 7713 703c 3a65 83bc 3b53 a0bd a5bc e4bc
000000d0: ebe6 77bd 7ee8 ebbd dd3b 02bd 8f96 3a3c
000000e0: c264 a43c c939 99bd 6381 8d3a 9824 663c
000000f0: ce51 e33b fa1a 77bd b904 3a3a 37de 34bd
00000100: d5a5 2fbd 28c9 953c a8da 4fbd 1c43 54bd
00000110: 8980 afbc ce71 36bc 36fd b9bc 10af d0bc
00000120: eb83 3ebd 4731 163b 11d9 cfbd c1ef 553d
00000130: 63a3 1abd f1fa 95bc 9bd9 18bd 753e 2fbc
00000140: 6c9d 23bd 214d aa3c d1db e53b 1c56 0fbd
00000150: 6968 92bb 7e8c 0abd cd04 85bc 99ad 21bc
00000160: fafa 56bd 4d4e c1bd 5bbc 853c b6b5 e6bd
00000170: 0688 e4bc 8112 e6bc 0f23 99bd ffbe 4bbd
00000180: 6b96 263d 9d49 53bc cb31 f6bc 07f5 a6bd
00000190: 745c c93d fc12 7238 14d8 10bc 71f3 d83c
000001a0: cf17 acbd 1d3e 6dbd a0cf dbbd 5374 80bc
000001b0: e117 483d 67cc 4cbb 9c7b 16bc 8f0c 2fbd
000001c0: 3099 083c abcd 323c 7b2a 43bd 4868 15bd
000001d0: 03f2 4bbd 8968 4c3c 50d3 81bd 6986 1abb
000001e0: 5c2d 56bd 89d2 35bc 57ef 8dbc 2c2c 98bc
000001f0: 2b86 2bbc 406e 82bd dcf5 933c ee1f 96bc
0.0265842 -0.029838534 -0.006018386 -0.0197907 -0.02029982 0.0053603575 -0.039842993 -0.04245026
0.008476586 -0.0769687 -0.026668988 0.032585017 -0.028495409 -0.034025244 -0.005918313 -0.008801164
-0.09652943 0.020582326 0.012341066 0.041013613 -0.05786296 -0.048433702 -0.05502951 -0.014714177
-0.019795619 0.021817783 -0.025886107 -0.0101063065 -0.05781255 -0.02072223 0.018879926 -0.028892457
0.027227016 -0.09379039 -0.012358221 -0.048763208 -0.035077035 -0.07862356 -0.012109991 -0.073747315
-0.03475073 -0.07181722 -0.13311669 -0.05628298 0.01315623 -0.030468902 -0.045505956 -0.019726768
0.014653078 -0.01603948 -0.07828375 -0.027921984 -0.060522955 -0.11518954 -0.03179537 0.011388435
0.020067576 -0.07481725 0.0010796007 0.014046811 0.006937242 -0.06032846 0.00070960406 -0.044157233
-0.04288276 0.018284395 -0.050745636 -0.051821813 -0.021423595 -0.011135532 -0.022703748 -0.025474101
-0.046512526 0.0022917555 -0.10148824 0.0522306 -0.037753474 -0.018308135 -0.0373169 -0.010696043
-0.03994505 0.020788731 0.0070147295 -0.03499423 -0.004468013 -0.03382539 -0.01623764 -0.009868049
-0.052485444 -0.09438763 0.016325166 -0.11265127 -0.027896892 -0.028084995 -0.0747739 -0.049742695
0.040670794 -0.012895969 -0.03005304 -0.08152204 0.09832087 5.7714977e-05 -0.00884058 0.02648327
-0.08402979 -0.057920564 -0.10732961 -0.015680468 0.048850898 -0.0031249763 -0.009184744 -0.042736586
0.008337304 0.010913293 -0.047647934 -0.036476403 -0.049791347 0.012476095 -0.06339133 -0.002357865
-0.05228935 -0.011097559 -0.01732604 -0.01857575 -0.010469 -0.06368685 0.01806157 -0.018325772

a2c_network.value.weight f4 [1, 128]
00000000: bd8e 363d 610b 413d 384e 533d 6038 2fbd
00000010: d186 47bb 8b5b 963d 2acf babd 9af2 88bd
00000020: c019 a43c 807b 333d 3671 e4bc 96f4 14be
00000030: 5e34 a53d a9ad 523b f7b7 bcbd 20da 523d
00000040: 951c 5a3e bf96 80bd 98f2 59bd 9744 d7bd
00000050: 788b a4bc 64c8 643d 4202 813c 556e e2bd
00000060: 873d bbba 90f2 07bd c5f1 b63b e9d5 c0bd
00000070: c347 283e ca34 ceba 7ca5 97bd 8636 883d
00000080: d988 0dbe c098 e13d 3a7c 38bd 27c6 ecbd
00000090: bf07 153d 570d f9bc 138a b73d c020 4b3d
000000a0: 3f0b 99bc 9db7 50bd c3f4 aa3b f55e 8c3d
000000b0: 9ccd a13a 25f5 8bbc 02a6 f83c 9c2f e73c
000000c0: 6974 4d3d 2e27 763c 0e2c 883b 5e95 8b3c
000000d0: 0f4f 04bd d89e 953d bcf5 c13c c389 1abd
000000e0: ea14 b9bd 05b6 dbb9 166b b13d 9364 3abc
000000f0: 9ab1 7abc def5 863d 0c49 3fbd 96aa e63c
00000100: 22a4 a83b c46b ccbc 9e7d af3d c513 033e
00000110: 44d2 cbbc 4005 9d3d 84ae a03b 52aa 89bc
00000120: 8671 753d b421 693b 1204 cd3c 251e 70bc
00000130: 9b4a c6b9 b995 ff3d fdb2 4fbc fe56 333d
00000140: 057f fc3d 389d 03be 749f 473c 5815 24bd
00000150: 32f2 2fbd 6146 f43b 3ce6 d83c 110e 87bd
00000160: 1d1e 153d 6b60 a03c 081f f63c 5403 dbbc
00000170: 828a 03bd fe7a 41bd e5c2 d0bc f9de 37bd
00000180: 0102 c8bd b01b 99bc b62d 0f3b 9e75 1c3d
00000190: b760 57be b8a4 1cbd 0102 543d 3d72 99bc
000001a0: 366c 25bd 99f8 9a3d f48f 2e3d 9980 ae3b
000001b0: 3470 41bb 895c 15bc 2fc3 57bd 7744 033e
000001c0: 8979 bfbc 69f8 16bd 4725 93bc c1d5 963d
000001d0: c7d4 a13d 8c4b a7bc e85a f13c 2ed2 a4bd
000001e0: 9de7 063d 7000 dabb 6508 aabd 11cc 9c3b
000001f0: d4a8 be3d e982 2d3d 515b f2bd 3e09 faba
0.04456972 0.047129992 0.051588267 -0.042778373 -0.0030445347 0.07341679 -0.09121545 -0.066868976
0.02003181 0.04381895 -0.027886014 -0.14546427 0.08066629 0.0032146967 -0.09214776 0.05147755
0.21299966 -0.062787525 -0.05320987 -0.10511129 -0.020086035 0.05585517 0.015748147 -0.110562004
-0.0014285304 -0.03319031 0.0055830204 -0.094158 0.16433625 -0.0015732285 -0.074046105 0.066510245
-0.13821734 0.11015463 -0.045040347 -0.11561232 0.03638434 -0.030401869 0.089618824 0.04959178
-0.01868212 -0.050956357 0.005217166 0.06854049 0.0012344602 -0.017084667 0.030352596 0.028220944
0.050159846 0.01502399 0.0041556424 0.017038997 -0.03230196 0.07305688 0.023676746 -0.037729036
-0.09037192 -0.0004190655 0.08663003 -0.011376518 -0.015301133 0.06589864 -0.046700522 0.028157514
0.0051465193 -0.02495373 0.085688815 0.1280051 -0.024880536 0.07667017 0.0049036164 -0.016804848
0.059922718 0.0035573067 0.025026355 -0.0146556245 -0.00037821088 0.12479729 -0.0126769515 0.043784134
0.123289146 -0.12852943 0.012184013 -0.040059417 -0.042955585 0.007454679 0.026476972 -0.0659448
0.03640567 0.019577226 0.030044094 -0.026734985 -0.032114513 -0.047236435 -0.025483558 -0.044890378
-0.09766007 -0.01868996 0.0021847314 0.038198106 -0.21032988 -0.038243026 0.051759724 -0.01873123
-0.0403864 0.075669475 0.042617753 0.0053253886 -0.0029516341 -0.0091163 -0.052676376 0.12819086
-0.023373382 -0.036857996 -0.017962111 0.07364989 0.07901912 -0.020421766 0.029462293 -0.08047901
0.032935727 -0.006652884 -0.083023824 0.004785069 0.09309545 0.042361174 -0.118338235 -0.0019076241

a2c_network.mu.weight f4 [10, 128]
00000000: 642f 6b3c 0a70 973d 5522 953d c3d9 2c3d
00000010: d41d 0bbd 284e ac3d dd5d 2e3c f575 cabc
00000020: 994e 1bbc b218 d0bc a5ee e5bd 4597 1abd
00000030: 4325 283e 7cbf 103e 09b9 12bd 5c86 aa3d
00000040: 5445 5dbc 31d3 babc e2c6 b53d fc13 843d
00000050: 8e04 94bc 05f5 cc3d 0382 953d 173f 673c
00000060: 956c 53bd d7a3 6abd 039e f9bb d835 103d
00000070: c268 613d ebef bc3d ab5e dd3d a177 28be
00000080: 276e 013d 7fd5 f03c 2582 a2bb 8ea0 f93d
00000090: fe23 d43b 552e 963c 3be3 2fbd 5162 a63d
000000a0: dafd 383e 1eac 57be 8c9e ddbd f57a 23bd
000000b0: 77ad 0c3e 1177 9e3d 1bb5 6fbd 1513 e23d
000000c0: 03f9 873e 3662 afbd 4b03 223d b27e 693c
000000d0: c59e 10bd 4c58 a23d 1581 c33d ed16 febc
000000e0: 16f5 c83d 0cb9 853d 3395 ba3d 7337 3c3e
000000f0: 534e 40bd 6e7b 3b3c e74b 81bc 65bf 493b
00000100: bd7f e4bd 31bb 3d3d 89a6 93bd 0fe7 5f3d
00000110: c65b 1fbd ea5d 20bc e70e a23d 5b06 9b3d
00000120: 0ce0 93bd be7d 20bd ee9a cb3d 3b19 8cbd
00000130: 2cbe e03b d095 01bd 526a b63c 646c c43c
00000140: 26ce 4a3d 67ef 90bd 07df df3d 7653 9dbb
00000150: 5455 073c ff04 693d fd0c d6bd de8b 223d
00000160: be14 e8bd ded9 033b 9568 903c 2cbf 79bd
00000170: 1746 9e3d aa9b 78bc 0cf1 2e3c 41fb 9e3d
00000180: 96f5 4e3a 3c55 053d 0af0 a3bd 1ab3 243d
00000190: 0c04 d7bc e588 263d b6c8 cabc 5c6d a73d
000001a0: 3307 da3d 6676 ba3c d9b2 a1bc 4d48 a4bb
000001b0: 5be2 0b3d bb6b 29be a390 253d bc0c a73d
000001c0: 644b bd3c a71e b83a b38b a2bb ce3b f5bb
000001d0: 2f1d 41bd 30df c43c 2a13 99bd 2ad0 873c
000001e0: a9fa 943d e233 28bd 448c 33be d687 e73d
000001f0: 32c9 763d e0dd 0abd 1f43 5ebd db1a 9b3c
00000200: c9c1 a43c ad93 debd be71 1d3e d731 0e3d
00000210: 1487 69bd fe7a e43b 93bb 663d b739 d13c
00000220: 754e 84bd 3d6d f53c 7e31 07be 39ae c5bd
00000230: 6014 153d 35bc 04bd 4cb8 cfbd f08d 7b3d
00000240: 5f26 9a3c acca 3f3d b3b6 de3d f9a8 57bd
00000250: 4f0d 8dbd 64ed b5bc 00ee 5ebd a217 fa3b
00000260: 1dd2 463c 8d5b c2bd c02c ba3d 5ebd 64bd
00000270: 8b2d a0bc 0dbe 0fbd b813 bb3c fb84 2ebd
00000280: f6dd 913d 4572 6f3d e1d5 993c db63 083e
00000290: 6b30 ea3d b489 823d acbf c43b 01d2 d3bd
000002a0: 7b27 fbbd e9e8 d03d 1aee 003e 984d 3dbd
000002b0: af4c e2bd f2eb 0abe 2648 4c3d 42b6 8dbd
000002c0: cd55 b53c 0a86 65bc fe3c ddbd a828 043e
000002d0: 8be0 af3d 8cb3 6dbd 4559 94bd 84dc b1bd
000002e0: 3640 43be 1e9f 1abe ec46 d3bc aa08 3dbd
000002f0: 2389 7e3d 3985 8c3d 0520 8fbd 7ff1 2439
00000300: 2e3d 423d 1426 e23d 358b febd f891 f2bc
00000310: d53b 90bd e4d6 cfbc 124a 3dbe 1232 89bd
00000320: 6298 d9bc c17f 883d 66b2 9fbd fc19 a43c
00000330: bc0f f03a e166 533d 72d1 99bd 2134 183d
00000340: 1c80 5a3c 0809 f23d fe13 17bd 6ac9 8c3c
00000350: 6aaa 483d 74cf b73d 9d47 47bd d52e 98bd
00000360: 3697 213d 6035 863c 1a32 21bd fa2e 5f3d
00000370: 6f52 58be 0ccc cabc 8ce2 54bd 31a1 b1bc
00000380: 5f57 fd3d 6d68 d2bd 5374 4ebd 8964 39be
00000390: 8758 26bd 99b2 adbc fee5 1e3d 8771 36bd
000003a0: c4cd 543d 9013 9a3c 1886 103d aaee 03bd
000003b0: f619 ad3d 32ef 053e 4569 6bbd a547 25bd
000003c0: be7a 83bd 1914 08bb 076b d93b 936c 9cbd
000003d0: 60a8 553d 9886 3e3d 83cc fabc 8a9c 163d
000003e0: 369e 43bc 0c9c 033e a7bd 883b 3170 adbc
000003f0: b19b 8e3c 8970 97be 3c38 52be 847d f33c
0.0143545605 0.07394417 0.07281939 0.04219986 -0.033963993 0.084133446 0.010642496 -0.02471445
-0.009479188 -0.0254024 -0.112271585 -0.037741918 0.16420464 0.14135545 -0.035820995 0.08326408
-0.013505299 -0.022805782 0.088758245 0.06449124 -0.018068578 0.10007671 0.073001884 0.014114163
-0.051617224 -0.057285156 -0.0076177134 0.0352076 0.055031545 0.09225448 0.10809072 -0.16451885
0.03159919 0.029398678 -0.004959362 0.121888265 0.006474017 0.01833264 -0.042941313 0.08124221
0.18065587 -0.21061751 -0.10821256 -0.039912183 0.13738047 0.07737554 -0.058522325 0.11038796
0.26557168 -0.08563654 0.03955392 0.014251398 -0.035307664 0.079269975 0.09546105 -0.031016791
0.098123714 0.065294355 0.09110489 0.18380527 -0.046949696 0.011443002 -0.015783263 0.0030784246
-0.11157177 0.046321098 -0.072094984 0.054663714 -0.03890588 -0.009788016 0.07912999 0.075695716
-0.07220468 -0.039182417 0.0994166 -0.0684075 0.0068586078 -0.031637013 0.022267494 0.023977466
0.049513005 -0.070769124 0.10931211 -0.004801209 0.00826009 0.05688953 -0.10451696 0.03968417
-0.11332081 0.0020118873 0.017627994 -0.06097333 0.07728212 -0.015173832 0.010677587 0.07762767
0.00078948715 0.03255199 -0.08004768 0.040209867 -0.026247047 0.040657897 -0.02475391 0.081751555
0.106459044 0.022761535 -0.019738602 -0.0050135017 0.034151416 -0.16545002 0.04042114 0.08156726
0.023107238 0.0014047221 -0.004960501 -0.007483936 -0.047146972 0.024032205 -0.074743584 0.016578753
0.07274372 -0.041065104 -0.17533976 0.113052055 0.06025047 -0.033903003 -0.05426323 0.018933704
0.020111935 -0.10868011 0.1537542 0.0347155 -0.057013586 0.0069726696 0.05633123 0.025540216
-0.06460277 0.029959315 -0.13202474 -0.09652371 0.036396384 -0.03240605 -0.10142574 0.06141466
0.018817125 0.046824142 0.10874691 -0.05265138 -0.06887304 -0.022207923 -0.054426193 0.007632212
0.012135056 -0.09490118 0.09090567 -0.055844657 -0.019552967 -0.035093356 0.022836551 -0.04260729
0.07122414 0.058458585 0.018778743 0.13319342 0.11435016 0.06373921 0.0060042944 -0.103427894
-0.1226339 0.10200674 0.12590829 -0.046216577 -0.110497825 -0.13566568 0.049873494 -0.069195285
0.02213564 -0.014009008 -0.10802649 0.12906134 0.0858775 -0.058032557 -0.07243589 -0.08684638
-0.19067463 -0.15099761 -0.025790654 -0.04615084 0.062142503 0.06861348 -0.06988529 0.00015730223
0.047421627 0.11042419 -0.124288954 -0.029610619 -0.07042662 -0.025371023 -0.18485287 -0.06699003
-0.02656192 0.06664992 -0.07797699 0.020031922 0.0018315236 0.051611785 -0.07510652 0.03715909
0.013336208 0.11818129 -0.0368843 0.017185885 0.048990645 0.089751154 -0.04865228 -0.074308075
0.039450847 0.016382873 -0.03935442 0.05448816 -0.21125196 -0.0247555 -0.051973864 -0.021683307
0.1237018 -0.10273824 -0.050403904 -0.18104757 -0.04061177 -0.021203326 0.038793556 -0.04454186
0.051954046 0.018808156 0.03528413 -0.03221003 0.08452217 0.13079527 -0.05747344 -0.04035153
-0.064198956 -0.0020763932 0.006635073 -0.076378964 0.052162528 0.046515077 -0.030615097 0.03677038
-0.011939576 0.12852496 0.004172999 -0.021171661 0.017408224 -0.29578045 -0.20529264 0.029722936

a2c_network.mu.bias f4 [10]
00000000: 3d12 ec3c a69e 963d 4caf c33d e0d0 293e
00000010: 6719 b43d e27c 26bd e3b4 1abd 7142 e5bb
00000020: 3fb2 96bd 3453 a43c
0.02881729 0.073544785 0.095549196 0.16583586 0.087939076 -0.04064644 -0.037770163 -0.006996446
-0.073582165 0.020059206

exp_avg f4 [10]
00000000: 9599 11b9 e4cc beb9 2958 23b8 41c3 0aba
00000010: 746e 6f3a b2cd 8fb9 e585 b8b9 e820 16ba
00000020: c507 b3b9 6090 3eba
-0.00013885491 -0.0003639228 -3.8944334e-05 -0.00052933773 0.0009133585 -0.0002742834 -0.00035194974 -0.00057269493
-0.0003414733 -0.00072694384

exp_avg_sq f4 [10]
00000000: 461b bf36 8fc1 a136 784d 8e36 1305 bb36
00000010: 0ead b936 19e2 a536 1e0a b236 7fd8 ac36
00000020: db9b b036 25e2 b536
5.6954186e-06 4.820707e-06 4.2409483e-06 5.573625e-06 5.533576e-06 4.9437044e-06 5.305991e-06 5.151203e-06
5.2633527e-06 5.420547e-06

exp_avg f4 [256, 42]
00000000: fb54 1b3a 4afa 653b aa67 35bb 046f d1b9
00000010: ae52 a2b9 254e 8f38 5678 7838 7e2c bd39
00000020: 5643 a7b9 8d8a bdb9 129a 723a 0738 713a
00000030: a358 acb9 9188 f839 d2b4 bab9 7e37 feb8
00000040: 1344 2638 079e f738 d21b 4239 c335 b9b9
00000050: af44 69b9 c66d ee39 5914 10b9 49ef 7339
00000060: cc7c 91b9 ad55 5c39 6110 fab9 1893 82b9
00000070: b5e1 35b9 5519 9b39 44c4 81b9 c90e 9939
00000080: 5a07 ccb9 a7a5 f839 ac80 0eba 2194 0d3a
00000090: dd8b 82ba 5b21 08ba b9b8 c6b9 84fb 733a
000000a0: 8a61 6739 a408 453a 71cf 94b9 615b 0ebb
000000b0: 7c08 083b b462 0a3a ad8c 1839 c86a 3638
000000c0: 93e8 00b9 ec1d d9b8 ed53 5d39 de17 da38
000000d0: 3444 d5b9 7ff6 e0b9 a4b9 7439 7f7a 95b9
000000e0: 6276 0739 be54 3db5 f662 b538 3e1f b238
000000f0: 969a a5b7 a4db b039 6957 b138 d90d ceb9
00000100: b45d 6239 1190 ceb8 44e5 5f39 750f fdb8
00000110: 6e44 6139 e4ed 9939 af42 6739 0438 84b9
00000120: 39d4 bcb7 1940 7537 4531 9c39 7aa8 b8b7
00000130: 1f2d 7039 cd25 6fb9 fad7 cb39 56ed 4c3a
00000140: d280 c039 ced8 4dba d7af ee39 709f 90b9
00000150: 8c73 2c39 dadf 7d3a 2870 55ba db68 a538
00000160: 641f 0738 1efa 0834 2f68 ba37 d658 0b39
00000170: c813 27b8 127e 0bb9 4ead 8c39 6191 8139
00000180: 38e4 afb8 245b 1c39 2e17 dbb8 aa83 37b8
00000190: 16a4 a936 27cd 9037 ad29 5f38 6335 22b9
000001a0: 65fc 84b8 0b23 4739 ce12 a838 ae5a f4b7
000001b0: 650e 0b38 3aa0 abb8 ad8b 64b7 00ea 5c38
000001c0: 25a9 0439 8b2d 2437 0750 66b9 722c 32b7
000001d0: d043 8739 0b94 d9b8 12b8 0639 9457 5fb9
000001e0: c93e fb37 695b 0939 f314 cc39 59e1 4238
000001f0: e0f2 e4b8 0ea3 d8b7 9a7d 41b8 8d7a ac39
00000200: 92f0 5e38 d660 1639 104a 0239 9c21 f1b8
00000210: 1df6 ceb8 ff3d 9d38 e77d 98b8 0bec 9cb8
00000220: 56aa a8b8 8af6 0eb8 b5d3 2638 cd6a 71b6
00000230: 8b98 82b7 4301 5ab8 3244 d838 7cb7 b638
00000240: a4e1 67b7 5283 9038 1179 8d38 dd1f fab7
00000250: 028f 5837 6cbd 05b8 444d 5d39 8274 3539
00000260: 0010 16b8 0000 21b8 ac6e 7f38 90c8 4738
00000270: b311 7339 c598 8ab9 2ab7 b7b8 db65 6038
00000280: 0047 ad39 ecb5 be39 b27f 1ab9 70f9 c2b7
00000290: d103 2db9 6411 8838 6375 8b38 c969 ffb9
000002a0: ea97 7239 34bb bd3a 2f2f 47ba 234e 0a39
000002b0: eaf8 5b37 bf9b c9b8 3ab4 36b9 3841 2839
000002c0: 37c9 7ab8 5371 28b9 ba23 ad39 4c28 b039
000002d0: 5a05 54b8 a261 0f39 9d94 cdb8 f48e 38b7
000002e0: 717a 2b39 8d9b 0c39 8dca 2a38 8b48 13b9
000002f0: 2265 4338 2732 2a39 d7bd fc38 21d0 a9b5
00000300: 66fd 4739 23ee 6b38 6d6f b838 c2c3 8d38
00000310: 60f3 b237 fcb3 95b7 a11d 0639 eff2 65b9
00000320: cf85 5939 a7c1 a638 e9be a539 dcd4 2739
00000330: c3fb 3239 ed2a 4a39 c44d 08b9 562a 77b8
00000340: d19d 73b9 735e 0aba de1e d7b9 4b69 2abb
00000350: d23e fc3a d4f6 183a c83f cc39 be33 cd37
00000360: a1ab 4139 62a5 08b9 33b1 5238 ff52 0939
00000370: 11d6 20ba 37a7 21ba 7a55 7d39 c44e 8cb9
00000380: acd0 6239 9980 87b7 a8f8 59b7 6f32 fb36
00000390: 8a5e 0cb8 36c8 a039 1c81 1239 9a4b a2b9
000003a0: bc87 6038 4e96 80b9 c4af e439 517d 7eb9
000003b0: b163 c739 9197 8b39 fceb 8e38 9ecf 1db9
000003c0: b714 d639 9459 a7b9 8b75 8839 a803 fab9
000003d0: 0bb6 653a 5fa2 3cba 4d1a 473a 63fd 273a
000003e0: 1c3f 3539 7115 31ba 8181 8839 6481 6aba
000003f0: b4f9 40b9 fb05 6dba 26c8 d838 c1e6 2439
0.0005925444 0.003509181 -0.0027680197 -0.000399463 -0.0003096065 6.833327e-05 5.923988e-05 0.00036082038
-0.0003190289 -0.00036152118 0.00092545256 0.0009201769 -0.00032872436 0.00047403996 -0.00035611406 -0.00012122
3.9640883e-05 0.00011807313 0.00018511646 -0.00035326005 -0.00022246198 0.00045476685 -0.0001374049 0.00023263427
-0.00027749536 0.00021012752 -0.0004769592 -0.00024905126 -0.00017345588 0.00029582778 -0.00024751027 0.0002919345
-0.0003891539 0.00047425667 -0.0005436044 0.0005400796 -0.0009959895 -0.00051929586 -0.00037903132 0.0009307193
0.00022066213 0.0007516241 -0.00028383316 -0.0021721947 0.002075701 0.000527899 0.00014548255 4.349163e-05
-0.00012293672 -0.0001035294 0.00021107467 0.00010399496 -0.0004067734 -0.00042908263 0.0002333881 -0.0002851076
0.00012918704 -7.05313e-07 8.6491855e-05 8.493521e-05 -1.9741517e-05 0.0003373298 8.456299e-05 -0.000393017
0.00021587947 -9.84968e-05 0.00021352345 -0.00012066859 0.00021483164 0.00029359676 0.00022054718 -0.00025218737
-2.251017e-05 1.4618062e-05 0.00029791347 -2.2012962e-05 0.00022904993 -0.00022806898 0.00038880092 0.0007817348
0.00036717072 -0.0007852436 0.00045525908 -0.0002758461 0.00016446243 0.00096845406 -0.0008142018 7.887344e-05
3.2215743e-05 1.2756979e-07 2.2221442e-05 0.00013289167 -3.9834325e-05 -0.00013303038 0.00026832003 0.00024713113
-8.387159e-05 0.00014911272 -0.00010447051 -4.375322e-05 5.0556946e-06 1.726167e-05 5.3206157e-05 -0.00015469412
-6.3412626e-05 0.00018991173 8.014367e-05 -2.9129293e-05 3.315359e-05 -8.18376e-05 -1.362238e-05 5.2670017e-05
0.00012651512 9.7857655e-06 -0.00021964322 -1.0619975e-05 0.0002579973 -0.000103749415 0.00012847807 -0.00021299563
2.9950768e-05 0.00013099391 0.0003892552 4.6463076e-05 -0.00010917126 -2.5825135e-05 -4.613176e-05 0.00032897704
5.3152973e-05 0.00014341189 0.00012425357 -0.00011498036 -9.8686876e-05 7.497891e-05 -7.271376e-05 -7.482626e-05
-8.042592e-05 -3.4085046e-05 3.977465e-05 -3.5973965e-06 -1.5568241e-05 -5.1976425e-05 0.00010312385 8.712613e-05
-1.3821209e-05 6.8909154e-05 6.745954e-05 -2.981716e-05 1.29079e-05 -3.1886084e-05 0.00021104986 0.00017304908
-3.5777688e-05 -3.838539e-05 6.089981e-05 4.7632086e-05 0.0002318088 -0.00026435233 -8.760237e-05 5.3500622e-05
0.0003305003 0.00036375166 -0.00014734155 -2.3242756e-05 -0.00016499987 6.4882246e-05 6.6499015e-05 -0.00048716206
0.00023135511 0.0014475347 -0.00075982785 0.00013189814 1.3111372e-05 -9.613437e-05 -0.00017424012 0.00016046024
-5.979204e-05 -0.00016063945 0.0003302375 0.0003359936 -5.0549723e-05 0.00013673914 -9.802843e-05 -1.10005385e-05
0.00016353444 0.00013409388 4.07198e-05 -0.00014046037 4.658581e-05 0.00016231147 0.00012051657 -1.2652055e-06
0.00019072517 5.625015e-05 8.7945584e-05 6.759867e-05 2.1332584e-05 -1.7845996e-05 0.00012790273 -0.00021929642
0.0002074458 7.9515674e-05 0.00031613492 0.00016005657 0.00017069191 0.00019280212 -0.0001299894 -5.8928817e-05
-0.00023233077 -0.0005278356 -0.00041030993 -0.00260027 0.0019244796 0.000583512 0.00038957433 2.4461999e-05
0.00018469851 -0.0001303158 5.023293e-05 0.00013096257 -0.0006135414 -0.00061665796 0.00024159803 -0.00026761566
0.00021630776 -1.6153137e-05 -1.2992103e-05 7.486254e-06 -3.3466647e-05 0.00030666747 0.00013971742 -0.00030955375
5.3532174e-05 -0.00024526048 0.00043618504 -0.00024270012 0.00038030514 0.00026625072 6.815043e-05 -0.0001505003
0.00040832695 -0.00031919463 0.00026027518 -0.0004768644 0.0008762783 -0.0007195826 0.00075951667 0.0006408302
0.00017285015 -0.0006755209 0.0002603643 -0.00089456723 -0.00018403569 -0.00090417237 0.00010336963 0.00015726221
