logs/rl_games/humanoid_flat_direct/2025-11-17_00-02-14/nn/last_humanoid_flat_direct_ep_200_rew_7589.6367.pth (torch, 759502 bytes, 33 tensors)

value_mean_std.running_mean f8 [1]
000000 71 5e 75 f6 43 ce 74 40
       332.8915924629901

value_mean_std.running_var f8 [1]
000000 3b c0 02 01 29 e9 d7 40
       24484.640686691022

value_mean_std.count f8 []
000000 00 00 00 04 00 c0 92 41
       78643201.0

a2c_network.sigma f4 [10]
000000 af 57 8a bf 68 91 7f bf 86 e3 bd bf 7d f7 88 bf
       -1.0808009 -0.9983125 -1.483506 -1.0700527
000010 24 bd a4 be ea f0 15 bf df e1 51 bf ab 2b 12 bf
       -0.32175553 -0.5857073 -0.81985277 -0.5709788
000020 75 25 7d bf e6 fd 37 bf
       -0.9888528 -0.71871793

a2c_network.actor_mlp.0.weight f4 [256, 42]
000000 61 02 36 be 27 cc 71 3e d6 59 ea 3d ad f2 09 3c
       -0.17774345 0.23613034 0.11442916 0.008419675
000010 b3 59 b7 3d 8b 1b 8c 3e 7a 21 87 3e 90 e1 0f 3c
       0.08952656 0.27364764 0.26392728 0.008781806
000020 2c cc bc be 3f 6d 25 be bf 10 90 be d6 fb 3d bd
       -0.3687452 -0.16154955 -0.28137776 -0.046382748
000030 27 32 cb be 8d ac 05 3d e6 98 85 3e b4 a9 51 bc
       -0.396867 0.03263526 0.26093215 -0.012796808
000040 37 17 88 3e df ec f2 bd b8 3e c4 bd 4c dc 95 be
       0.26580212 -0.11861586 -0.09582275 -0.29269636
000050 5f aa 9c be 7c 14 c4 be 47 84 25 3e 20 f5 07 bb
       -0.30598733 -0.38296878 0.16163741 -0.002074547
000060 c3 4e 7e 3e 98 b7 eb bd a9 5c 62 bd 88 26 48 be
       0.24834733 -0.11509627 -0.05526415 -0.19545949
000070 2a 1e 64 3e 63 3e b8 3d 02 cc 32 3d f0 c1 26 be
       0.22277132 0.08996274 0.04365159 -0.16284919
000080 08 b6 69 bd f4 57 b3 bd 54 e6 c2 bd dc 52 95 bc
       -0.057058364 -0.0875701 -0.09516588 -0.018227987
000090 8a d4 9b 3d 2c e5 8f 3d e4 8f 26 bc 34 f9 70 bd
       0.07608898 0.07026133 -0.010166142 -0.05883141
0000a0 70 77 aa 3c cd c0 96 bd 12 83 63 3e 46 25 c2 bd
       0.020808905 -0.073609926 0.22217968 -0.094797656
0000b0 58 9b b3 bd 9f f5 54 be 3f 9e ca bd 23 21 b6 3d
       -0.08769864 -0.20796822 -0.09893464 0.08893039
0000c0 66 f8 00 3d 3a c8 b1 3c 5e 8e a3 3e b0 48 32 3d
       0.03148689 0.02170192 0.31944555 0.04352635
0000d0 2a 2b 96 bd 56 38 9a bc 64 b4 3b 3f 8a cb 5a ba
       -0.07332452 -0.018825691 0.7332213 -0.000834637
0000e0 56 3f 18 3e 6a e4 2b bf 60 51 32 be 22 61 93 bd
       0.1486791 -0.6714541 -0.17413855 -0.07196261
0000f0 52 62 70 bd c0 1a 6e be 07 8d 97 ba 9f 64 8b bf
       -0.058687516 -0.23252392 -0.0011562415 -1.0890082
000100 9f bd 30 be 48 ca b6 3d 37 6d 82 bd 7c 8e eb bd
       -0.17259835 0.08925301 -0.06368487 -0.11501786
000110 3a b2 58 3d c8 e7 d6 3d 63 47 cf 3d d7 1d 3a bd
       0.052904345 0.104934275 0.10121038 -0.045438614
000120 26 b5 99 3c ab 7c 48 3d 4d e4 d0 3b 3b cf f9 bd
       0.018763136 0.048947018 0.006374872 -0.12197729
000130 84 40 bc 3d ee 60 f1 3d 69 30 f4 bd a1 0a f0 bc
       0.09191993 0.11786066 -0.11923296 -0.029301943
000140 0a 46 52 bd fe a6 26 3c 63 97 93 bd d1 13 05 3d
       -0.051336326 0.01017165 -0.07206609 0.0324896
000150 ac 36 09 be c3 0d 5c be cf cf 8f 3e 5c 3f 70 3d
       -0.13399762 -0.21489625 0.28088233 0.058654174
000160 96 dd 1a 3d b4 8b bc 3d 0c a2 95 bd e3 be 9e 3e
       0.037808977 0.09206334 -0.073062986 0.3100501
000170 92 d4 9e be cc 99 87 be 11 25 0b be 8f 22 f1 bd
       -0.31021553 -0.26484525 -0.13588358 -0.1177417
000180 47 f0 c1 be 82 bc 93 be 3a 27 47 3e 0d fb 22 3e
       -0.3787863 -0.28854758 0.19448557 0.15916081
000190 22 fa 36 3e f6 46 cb be 97 2e a4 be 59 f4 c6 bd
       0.17868856 -0.39702576 -0.32066795 -0.09714574
0001a0 44 d6 d7 3e 68 79 08 3f b0 06 40 3e 47 05 02 be
       0.4215566 0.5331025 0.18752551 -0.12697326
0001b0 5f 7e e0 3d c4 bb df 3c 7d 84 2f bd fa 4d c8 bd
       0.109616034 0.027311213 -0.04285096 -0.09780498
0001c0 59 6b 11 3e b0 26 8e be fb 2d 99 3e 35 02 0a be
       0.14201106 -0.2776389 0.29917893 -0.13477404
0001d0 e1 39 c5 3d ec 5d 81 bc d0 e1 13 3e ea 28 67 bc
       0.0963018 -0.015791856 0.1444161 -0.014108876
0001e0 9b 11 e9 bc 93 d1 c5 bd 48 63 cf 3d bb ca 89 bd
       -0.028450778 -0.09659114 0.10126358 -0.06728121
0001f0 4f 46 1b be 94 a6 01 3d f6 f4 c1 3d 36 a4 32 be
       -0.1516354 0.031653002 0.09470551 -0.17445454
000200 04 64 38 be 0e d8 c5 3e d9 d9 2b 3d ef 87 56 3e
       -0.18006903 0.386414 0.041955803 0.20950292
000210 a0 95 05 bd 81 13 c3 bd ec 51 80 3e d7 b5 c9 3d
       -0.032613397 -0.095252044 0.250625 0.09849136
000220 8c bc 0e 3e 17 6d ca bd 7a 08 09 3f d5 9a 91 3d
       0.13939112 -0.098840885 0.5352856 0.0710961
000230 c3 db ae 3d 06 5b 25 3c 6c 54 bc bd c7 5a 68 3e
       0.0853801 0.010092502 -0.0919579 0.22690879
000240 64 ae 14 3f a7 4e 0d be fe fd 43 3f a6 b6 c3 3d
       0.580786 -0.13799535 0.76559436 0.09556322
000250 70 0f ad ba 28 30 c4 bc 11 ca 66 3e 12 44 40 3e
       -0.0013203453 -0.023948744 0.2253802 0.18775967
000260 5c 40 ea 3a 7c 90 75 3d e3 bd 8d 3c cb f1 de 3c
       0.0017871964 0.059952244 0.01730246 0.027214905
000270 2b 28 75 3e 94 e0 3e 3b c2 d2 81 bd 8f bb b9 bd
       0.23941104 0.0029125558 -0.06339027 -0.09068977
000280 d7 57 31 3e a0 4f 71 bd ed 39 dd bc d7 f8 88 bd
       0.17318664 -0.058913827 -0.02700516 -0.066880874
000290 a7 8d 98 bd 03 5b c6 bd b3 ed ec bd 2e c3 35 3d
       -0.07448893 -0.09685328 -0.11568775 0.04437559
0002a0 17 5e 00 3e f0 e5 bd 3d 05 e3 ea bd b5 58 37 bd
       0.12535892 0.09272373 -0.11469082 -0.044762332
0002b0 db e9 4a bd 57 18 37 3e 37 e4 85 3d c2 45 1c 3d
       -0.04953943 0.17880379 0.06537669 0.038152464
0002c0 0f 37 50 3d 03 e1 0b be bd 88 ba bd 1a b8 ba 3d
       0.050833758 -0.13660054 -0.09108112 0.09117146
0002d0 91 4c 26 be f3 97 27 be 12 33 6a be ef 5a 8b be
       -0.16240145 -0.16366558 -0.22871044 -0.27217814
0002e0 66 32 9a 3d b2 05 fe 3c d9 34 38 be ad 59 45 be
       0.07529144 0.031008575 -0.1798891 -0.1927249
0002f0 39 63 d8 be 4e 61 19 3e 08 56 5d 3d 33 77 a9 3d
       -0.422632 0.14978525 0.054037124 0.082746886
000300 32 35 be 3d a7 21 3a bd fb 28 c8 3b 7f 80 01 be
       0.0928749 -0.04544225 0.006108401 -0.12646674
000310 c4 de c3 bd 15 ce 26 be 30 ad 7e 3e 98 d3 92 bb
       -0.095639735 -0.16289552 0.24870753 -0.0044807903
000320 ca cd 9c bc 13 89 e3 bd 91 66 a9 3c 96 96 05 be
       -0.019141097 -0.11110129 0.02067879 -0.13045725
000330 3c 9e 53 bd 96 0e b1 3d c0 3f 50 3c 08 e9 7f 3d
       -0.051664576 0.0864536 0.012710512 0.062478095
000340 ba 4f 2d bd cc 01 16 bd af af 54 be a3 fa 43 bd
       -0.04231236 -0.036622807 -0.20770143 -0.047846448
000350 af e1 2b bc 5b ea 1d be 95 f8 83 bc 2e 7f a6 bd
       -0.010490819 -0.15421431 -0.016109744 -0.08129726
000360 be cd df 3d 07 8b 24 3d 66 03 8f 3e cb 84 b6 bd
       0.10927914 0.04017165 0.2793228 -0.08912047
000370 8d 53 83 3d 1e 47 ef bd dd 1a a5 3e b3 34 32 3d
       0.064124204 -0.116834864 0.32247058 0.04350729
000380 c2 d0 4d 3e f4 53 8d 3d 3c 5b 76 bd 97 88 1f ba
       0.20099166 0.069007784 -0.0601456 -0.0006085722
000390 19 41 06 3f ac be 1c bf 94 9d 6f 3f 4b 9d 1e 3f
       0.5244308 -0.6122844 0.9359982 0.6195876
0003a0 98 8d 7e 3e 7e 87 12 be 2e dc 1b be 45 58 27 3e
       0.24858701 -0.14309499 -0.1522071 0.16342266
0003b0 b2 da a0 3c 94 db 88 bd 05 05 da 3c dc 52 8e be
       0.019635532 -0.06682506 0.026613722 -0.27797592
0003c0 0a 57 af 3d 61 86 8c be ec a9 99 bd ac 4c 2e bd
       0.08561523 -0.27446273 -0.07503113 -0.04255359
0003d0 4e 82 04 be b8 39 c7 3d a8 2e 35 bb e0 d2 36 bd
       -0.12940332 0.09727806 -0.0027646217 -0.0446347
0003e0 46 53 fa 3c 9f 2b aa 3c b5 e8 be bd 32 6b 06 bc
       0.030557286 0.020772753 -0.09321729 -0.008204268
0003f0 4c 6c 56 3d 48 c8 4a 3c a0 09 19 bc 44 bd 6d bc
       0.052349374 0.012376852 -0.009340674 -0.0145104565

a2c_network.actor_mlp.0.bias f4 [256]
000000 c7 ea 15 3e 7e 3f 8b 3e a7 5c 82 3e 96 1d 63 bc
       0.14640342 0.27196878 0.25461313 -0.013862034
000010 ed f2 16 be 87 e7 06 3e a8 cc 5b be ba 58 4d 3e
       -0.14741106 0.13174258 -0.21464789 0.20053378
000020 61 6a 19 be f2 62 e8 3d d5 e1 fb bd 28 73 3f 3e
       -0.14981987 0.11346997 -0.122989334 0.18696272
000030 d3 6c 1b be 0b 45 68 be 7a ff 3d 3e cb 0a 05 3e
       -0.15178232 -0.22682588 0.18554488 0.12992398
000040 87 a7 56 bd e8 90 1c 3e f8 2a 85 3d 1d a9 7c 3d
       -0.05240586 0.15289652 0.06502336 0.061684716
000050 9c c3 a7 bd 7f 49 bb bd ff 63 33 be 39 9c 24 be
       -0.081916064 -0.09144878 -0.17518614 -0.16075219
000060 d4 cf 09 bd f7 d8 30 3e a7 f4 01 be 26 37 20 be
       -0.033645466 0.17270266 -0.12690984 -0.15646037
000070 59 cb f6 bb bc 77 0c 3b f5 5f 66 3c 05 9d ff bc
       -0.007531565 0.0021433672 0.014060964 -0.031202802
000080 25 9c 42 3e 21 21 64 3e 0f c7 46 3e 8e e9 67 be
       0.19004877 0.22278263 0.19411872 -0.22647688
000090 27 a1 9f 3d 0f a1 97 bd c4 ee 0b 3e 4e 7c 75 3e
       0.07794409 -0.07403766 0.136653 0.239732
0000a0 de 4f 0a bd 38 cd b5 bd d9 db 47 3e b3 46 0d 3e
       -0.033767574 -0.08877033 0.19517459 0.13796501
0000b0 92 ad 92 bd 9a 4f aa bb f1 fc cd 3d 58 38 2b 3e
       -0.07162012 -0.0051974775 0.1005801 0.16720712
0000c0 68 a1 e6 bb 5b 87 8b be 03 35 ff bd d4 d4 5a be
       -0.007038284 -0.27251706 -0.12461283 -0.2137025
0000d0 09 3f 61 be 9c fc e8 bd fc ed 6f bd af 84 f7 bd
       -0.21996702 -0.113763064 -0.05857657 -0.12085854
0000e0 1f 37 7c 3d d6 05 4d be 86 02 46 be fd b7 36 3e
       0.061576005 -0.20021757 -0.193369 0.17843623
0000f0 9a 93 50 be c5 07 7d 3e e8 eb 2d bc 25 bd 83 3e
       -0.20368806 0.24709995 -0.010615326 0.25730243
000100 89 e1 ae bd 95 5c 18 3e 43 fe 96 3e 3a 55 17 be
       -0.08539111 0.14879067 0.2949086 -0.14778605
000110 08 d3 81 be 39 f2 d5 3d f5 52 3f be f6 67 17 3c
       -0.25356317 0.10446591 -0.1868399 0.009241095
000120 05 3a ba 3d d7 ef 77 3e 18 96 ef bd 8c fa a0 bb
       0.090930976 0.24212585 -0.1169855 -0.00491268
000130 47 d1 4b be 37 4f 11 be 8d 5e 6d bd b4 a4 14 3e
       -0.19904052 -0.14190374 -0.0579515 0.14515954
000140 9a 67 63 3d 6d 59 2f 3e 50 84 95 bd d2 f9 2e 3e
       0.055518724 0.17123957 -0.07300627 0.17087486
000150 ce 92 93 3e 7f 45 30 3e a9 ac 11 3e fa ca 82 3e
       0.2882294 0.1721401 0.14226021 0.25545484
000160 1b b9 8b be a1 3e 7a be 33 b0 4a be 4e a3 94 3d
       -0.27289662 -0.24437954 -0.19793777 0.072577104
000170 8e 43 18 3e 90 39 14 3d 31 f0 86 bd 03 a4 65 be
       0.1486952 0.03618771 -0.065887816 -0.22425847
000180 41 5e 04 3e 84 40 01 be 9f 29 e8 bd 5d 20 6e 3e
       0.1292658 -0.12622267 -0.113360636 0.23254533
000190 70 8f 1d 3e 1e 96 25 3d 30 58 75 3e 9b 2a 6d 3e
       0.15386748 0.040426366 0.23959422 0.23160784
0001a0 c4 9d 86 3e a7 95 64 3e e6 dd 2b 3e 91 7b 69 be
       0.2629224 0.22322713 0.16783866 -0.22801043
0001b0 86 bc 27 3d 19 9e a1 be f2 76 2c 3e 19 e4 d1 3d
       0.040951274 -0.3156593 0.16842249 0.10248584
0001c0 1b 21 d9 3d 17 95 26 3e 50 bc 42 be 16 23 6c 3e
       0.106020175 0.16267811 -0.19017148 0.23060259
0001d0 77 3b 14 3e f2 78 95 be 80 47 9f 3e 72 03 22 3e
       0.14475809 -0.29193836 0.31109238 0.15821627
0001e0 39 3a 56 be 83 24 5f be 63 ee 3b 3e b2 a1 7e 3e
       -0.20920648 -0.21791272 0.18352656 0.2486637
0001f0 da bf bd bd 93 7d e3 bc 09 b1 98 be f6 44 1a 3e
       -0.092651084 -0.02776984 -0.29822567 0.15065369
000200 eb 2d 86 3e 6d db 75 3d 2d 33 68 be a0 0d 69 3d
       0.26206908 0.060023714 -0.22675772 0.05689776
000210 ae 7e 4b 3e 48 82 9c 3d 61 59 50 3e 28 be 32 3e
       0.19872543 0.07642037 0.20346595 0.17455351
000220 a1 bc bf 3b 6c 9b 2a be cd d8 97 3d 69 3d 54 bd
       0.0058513437 -0.16660851 0.07414398 -0.051816378
000230 54 36 d3 bd 56 f0 8d 3e af cc 8d be 73 85 67 be
       -0.10313097 0.27722424 -0.27695224 -0.226095
000240 87 ed 05 3e 71 a4 c4 3c 4b 5a f8 bc a2 12 11 3e
       0.1307889 0.024004193 -0.030316493 0.14167264
000250 8f 29 79 bd 0a 43 2a 3e 6b 49 04 3e 0d 03 8a 3c
       -0.06083065 0.16627136 0.12918632 0.016847158
000260 28 be 74 3d 9d a0 7a 3e b1 81 60 be 05 99 31 be
       0.05975166 0.24475332 -0.21924473 -0.17343529
000270 00 1d 4f 3d 24 75 fb 3d bb 05 4a 3e ff 4b 89 be
       0.050564766 0.12278202 0.19728749 -0.26815793
000280 cd 7d 95 3e 37 08 b3 3c 56 3f 6e be 14 d7 69 be
       0.2919754 0.021854503 -0.23266348 -0.22835952
000290 e5 55 15 be f1 92 6c be cf c5 2c 3e fd db 07 3e
       -0.14583547 -0.23102929 0.16872333 0.13267513
0002a0 d3 20 60 be 0b da 91 3e 70 e1 ab be ee 46 11 3e
       -0.21887521 0.28486666 -0.33570433 0.14187214
0002b0 8f 0b d7 3d ce ab 07 be 55 b3 c3 bc 1e 61 33 3e
       0.105002515 -0.13249132 -0.023889223 0.17517516
0002c0 e0 f0 77 3e fa e9 9f 3b b9 63 63 3e 36 ef 69 3e
       0.2421298 0.004880187 0.2220601 0.22845158
0002d0 07 3a ec 3d 7c db 02 3e 40 5b d9 3d 93 ef 27 3d
       0.11534505 0.12779039 0.10613108 0.04099996
0002e0 80 29 29 be 53 29 e5 bd f1 62 7a 3e a0 a3 53 be
       -0.16519737 -0.111895226 0.24451806 -0.20667887
0002f0 51 70 1f 3e 24 6a 88 3e 1a 5f 4c bd ed 3c 81 3e
       0.15570189 0.2664348 -0.049895383 0.25241795
000300 4f b9 61 be f0 98 65 be 3b 7c 4c 3e e9 02 a0 be
       -0.22043346 -0.22421622 0.19969265 -0.3125222
000310 7b 4e ce 3d 06 c6 6e 3e fc 45 90 3e 9f b3 bd bd
       0.10073563 0.23317727 0.28178394 -0.09262776
000320 a4 32 6f 3e ed 25 81 be 1b 18 22 3e b8 e7 31 be
       0.23359162 -0.25224248 0.15829508 -0.1737355
000330 c1 98 37 be 2c 8e 3f be 6f 05 8f 3d ff 9f 8e be
       -0.17929365 -0.18706578 0.06983458 -0.27856442
000340 80 bf 33 3d 98 67 5b be 7b 12 21 be 7b fa 4d bd
       0.0438838 -0.21426237 -0.15729706 -0.050287705
000350 85 7e 48 3d ba 5f 50 3e 21 a7 22 3e b1 e9 47 3e
       0.048948783 0.20349017 0.15884067 0.1952274
000360 51 06 01 be cd 8b 98 bd 81 57 2f 3c 38 82 d7 3c
       -0.12600066 -0.0744854 0.010702015 0.02630721
000370 55 e4 42 3e bd 66 45 be ee a8 de bb 0c 38 40 3e
       0.19032414 -0.19277473 -0.0067950403 0.1877138
000380 bd fa 05 3e ac e2 3c 3d 8c 11 41 3e 20 7f 3b 3e
       0.1308393 0.04611461 0.1885435 0.18310213
000390 5a f1 3c 3e a5 1a 5e 3e a7 4e 2d 3e d2 b7 71 3e
       0.18451443 0.21689852 0.16924535 0.23605278
0003a0 c8 cd 32 be 70 29 7a be 3f be 1d 3e 22 7b 56 3e
       -0.17461312 -0.2442987 0.15404604 0.20945409
0003b0 fc 8d dc 3d 78 10 db bd ef 73 5b 3e 66 53 27 3e
       0.10769269 -0.106965005 0.21430944 0.16340408
0003c0 82 dc 2d 3e 85 2b 3b 3e e3 fc a4 3e 8e b6 36 be
       0.16978648 0.1827832 0.32224187 -0.17843077
0003d0 7e 5d 86 3e fa e2 88 be 62 66 1e 3e 9f b1 57 be
       0.26243204 -0.2673567 0.15468743 -0.21063851
0003e0 16 37 55 3e 06 d7 9c 3e 28 aa 45 3e 57 e1 93 3e
       0.20821795 0.306328 0.1930319 0.28882858
0003f0 3d 52 1f bd 82 22 4d 3e 80 f5 43 3d 07 68 69 3e
       -0.038896788 0.20032695 0.04784155 0.2279359

a2c_network.actor_mlp.2.weight f4 [128, 256]
000000 32 51 25 3d b5 7d 81 bd a0 a4 62 3a 8f f8 b0 bc
       0.040360637 -0.06322805 0.0008645747 -0.021602897
000010 26 21 2a 3d 68 c8 75 ba a8 37 eb bd 57 12 1b 3e
       0.04153552 -0.0009375871 -0.11485225 0.15143715
000020 2d f7 33 3e 0e d5 17 3e a1 a7 4c 3d 07 24 1d 3d
       0.17574759 0.14827368 0.04996455 0.038364436
000030 c5 9a 4e 3d a1 67 5c ba da f1 88 bd 70 80 59 3d
       0.05044057 -0.0008407776 -0.066867545 0.053101003
000040 ad c2 f3 3c 89 5c 6a 3d a1 7e 86 3d e2 0b 0c be
       0.029755915 0.057217155 0.06567121 -0.13676408
000050 cb ed 03 bc bb c9 88 3d 4e 75 c5 bd 17 5b 81 3b
       -0.0080523 0.06679102 -0.09641515 0.0039476263
000060 2a 7b e2 bc 3f 08 18 3e 63 e3 a4 3d aa 91 2f 3d
       -0.02764662 0.14846896 0.08051183 0.042863525
000070 ec 25 67 be 0e d8 32 bd 64 20 83 be e1 b3 32 bc
       -0.2257306 -0.043663077 -0.2561065 -0.010907144
000080 71 a2 1f bc af 17 24 3d 85 27 5a 3a 10 26 3d bd
       -0.009743319 0.04006165 0.0008321929 -0.046178877
000090 7c 3c 0d bb 5d 27 fe 3d 18 2f 5a be c6 14 ec 3c
       -0.0021550944 0.12409852 -0.21307027 0.0288185
0000a0 8b a8 bf bc 27 ac 74 3d 8e 00 33 3d 16 ec 92 3c
       -0.023395797 0.05973449 0.0437017 0.01793484
0000b0 06 85 99 3d f2 e2 c3 bc 51 04 e5 3b 50 12 31 ba
       0.07496075 -0.023911927 0.00698904 -0.0006754743
0000c0 02 cd 80 bc 9b 6a 0b bd 32 89 17 3d d7 7d ee 3c
       -0.015722755 -0.034037214 0.036996074 0.02911274
0000d0 e8 7e 3d 3c 9d 32 45 3d ea b6 16 3b 76 2b 87 bd
       0.011565901 0.04814397 0.002299721 -0.066000864
0000e0 2b 00 0d bd c9 e2 64 bd fc d1 92 3d 36 47 66 bd
       -0.03442399 -0.05588034 0.071689576 -0.056220256
0000f0 c3 6c ab 3c 5f 16 bc 3b c6 73 8d 3d c0 a5 33 bd
       0.020925885 0.0057399715 0.06906848 -0.043859243
000100 6b 37 33 be 5f 5b 4b 3e dc 75 b5 bc 19 2c 1e 3d
       -0.17501609 0.19859074 -0.022150926 0.038616274
000110 a0 46 d6 3b 96 e1 30 bd 12 f1 fb 3c 63 79 d4 3d
       0.006539181 -0.043183886 0.0307546 0.10374715
000120 f5 21 e8 3d 71 45 09 3c ed f3 3b bd 4f 69 09 3d
       0.11334602 0.0083783725 -0.045886923 0.033547696
000130 c7 a3 84 3c a0 74 29 3c 9d 7f 81 bc af b2 c1 bd
       0.016191376 0.010342747 -0.015807921 -0.09457909
000140 81 1c e5 bd 59 ea cc 3a d4 4c a1 3d 4b 47 07 3d
       -0.11187077 0.0015633806 0.07875982 0.033026975
000150 26 69 9f 3c ec 74 1c be ff 32 01 bd e4 3c 2b bd
       0.019459318 -0.15278977 -0.031542774 -0.041806117
000160 91 c9 34 bc 1f 77 c6 bd 96 10 2d 3b 7a 47 6c bd
       -0.011034385 -0.09690689 0.002640759 -0.057685353
000170 39 f9 e2 3b 98 47 10 3d 55 57 16 3d 09 94 8a 3c
       0.0069266823 0.035224527 0.03670438 0.016916292
000180 b7 20 d9 3c f5 26 e1 bd d7 2d 09 3d cb a1 30 bd
       0.026504857 -0.109937586 0.033490982 -0.043123048
000190 7f d2 12 3b 3d c6 12 be f0 0c 93 3b 50 bf 0a bc
       0.0022403297 -0.14333434 0.0044876263 -0.008468464
0001a0 d9 52 b5 3b a8 86 90 bd 25 50 e2 3c 56 4b 26 3c
       0.005533558 -0.07056934 0.027626107 0.010149797
0001b0 a0 fe 4b be 8d 32 81 3d 77 dd da 3d 48 45 17 3d
       -0.1992135 0.0630847 0.10686772 0.036931306
0001c0 d7 0f d4 3d a2 44 1a 3e ff d1 a5 3c 70 5a c3 3d
       0.10354584 0.15065244 0.020241736 0.09538734
0001d0 3e e2 61 bd 00 81 34 3e 7b 8d 0e be 08 7e ec bd
       -0.055147402 0.17627335 -0.13921158 -0.11547476
0001e0 53 de ee bb bb 0f 2d 3d e1 9e ba 3d 6d 2c b1 3b
       -0.0072896867 0.04225133 0.09112335 0.0054069073
0001f0 a8 70 0d be af 2b ca 3c 40 51 57 3d 03 f8 53 3d
       -0.13812506 0.024679033 0.05256772 0.051750194
000200 7e 7c 14 3c 92 4b 16 3d 73 59 ea 3c 8f 33 84 bd
       0.009062884 0.036693163 0.028607106 -0.064551465
000210 f3 b7 19 bd 27 c3 db 3b 50 7b 1f 3d 52 60 a0 3d
       -0.037528943 0.0067066136 0.03893596 0.07830872
000220 7f 5e 5d bc a0 72 e1 3c 7e e7 07 bd 35 dc 27 be
       -0.013511299 0.027520478 -0.033179753 -0.16392596
000230 99 9f bf bd a6 27 aa bd b0 b2 7d 3d 9d 81 26 bd
       -0.09356613 -0.083083436 0.061937988 -0.040650953
000240 ea a3 4d 3d 1e 4b 0b 3e ca 1b ad bd fb bd f4 3b
       0.05020515 0.13602874 -0.08452566 0.0074689365
000250 41 c2 27 bd 0b f4 b6 3d 37 7d 8d 3c ff 57 30 3d
       -0.04095674 0.08933266 0.017271621 0.04305267
000260 83 a6 08 3e f4 37 3d 3d cd 8f d4 bd 0f 26 84 3d
       0.13344769 0.04619594 -0.1037899 0.064525716
000270 ea 6c 22 3d f6 80 b6 3b 42 5d fb bd 98 8c 41 bd
       0.03965465 0.0055695726 -0.12273647 -0.04725322
000280 10 86 cd bd b6 58 8b 3d d3 c3 ea 3c 64 b0 d9 bb
       -0.10035336 0.0680403 0.02865783 -0.006643342
000290 7a fc 05 be e4 bb 3f 3d 48 5e f2 39 b9 ba af 3c
       -0.13084593 0.046810046 0.00046228082 0.021451341
0002a0 5b ad 9e bb 10 82 4f bc ea af 86 3d 8e 61 5a 3c
       -0.004842443 -0.012665287 0.06576522 0.013328923
0002b0 e9 ba b8 3d 96 ff 34 3d a5 a8 ef 3b d9 38 5d 3c
       0.09020025 0.04418906 0.007313805 0.013502323
0002c0 95 e9 df bc 27 63 2a 3e 59 31 bf 3d 8e a0 52 bb
       -0.02733306 0.16639386 0.09335584 -0.0032139155
0002d0 37 e1 87 3d 3d db 47 be 1e 3a 1e bd 2b 91 38 3d
       0.06634753 -0.19517227 -0.038629644 0.045060318
0002e0 80 49 7c 3d ff bc d6 bd 1a 66 a1 bc 3c ce 8a 3c
       0.061593533 -0.10485267 -0.019702006 0.016944043
0002f0 b6 55 e2 bd 9e 40 b1 3c c0 b3 7d bd 30 48 a1 bd
       -0.11051504 0.021637257 -0.061939 -0.07875097
000300 bf 35 9f bd 66 30 9e 3c 82 42 81 bd 21 c1 85 3c
       -0.07773923 0.019310188 -0.063115135 0.016327443
000310 14 a2 fb bd 2d 77 5c bd 9c 31 d5 bc 0c 3b ca 3c
       -0.12286773 -0.053824592 -0.026024632 0.024686359
000320 f7 8b 8b 3d 5d 43 39 bd 6f cb fe bc 86 63 ac 3c
       0.068138056 -0.04523026 -0.031102864 0.02104355
000330 ec ce d3 3c 67 45 63 3d 51 46 98 bd 9e 95 4c bd
       0.025855504 0.05548611 -0.07435287 -0.049947374
000340 df 44 15 be 6d dd 28 bd ca a5 28 3c 78 d9 3c 3e
       -0.14577053 -0.041226793 0.010293433 0.18442333
000350 f5 36 d1 bd c2 3e df bc 0d c5 20 3d d2 e7 a4 bb
       -0.1021556 -0.027251605 0.039250422 -0.005032518
000360 57 72 e3 bd f3 46 8b bd ca 50 aa bd 15 71 3c be
       -0.11105793 -0.06800642 -0.083161905 -0.18402512
000370 b2 6b 0a bd 75 5e ac bd a1 fc 5d 3c 1f 3c fa bc
       -0.033794113 -0.08416454 0.013549001 -0.030546246
000380 17 bc a1 3d 52 59 de 3d 51 d4 89 bd 26 d7 12 3d
       0.078972034 0.1085688 -0.06729949 0.035849713
000390 85 a9 81 3e d5 16 82 bd 96 89 91 3c 6d f1 1d 3a
       0.25324646 -0.06352011 0.017765801 0.000602505
0003a0 e7 2d f2 3c 4c 72 b3 3a 32 fc bc 3d 3e a1 e4 ba
       0.029562904 0.0013690679 0.0922779 -0.0017443073
0003b0 d9 8b ae 3d 28 10 83 3d da e4 ba bd d7 10 89 3c
       0.085227676 0.06399566 -0.09125681 0.016731663
0003c0 b3 20 f8 3c ce 89 96 bd 8a 20 d6 3b 3e d6 16 bc
       0.03028903 -0.07350503 0.0065346407 -0.009206353
0003d0 f9 c1 c9 bb f0 3d ab 3c 23 a0 70 bc c2 49 d0 bc
       -0.0061571565 0.020903558 -0.014686617 -0.025425795
0003e0 62 b8 54 bc aa 2e be bc 06 d9 17 3d 42 4b 90 3d
       -0.012983413 -0.02321561 0.037072204 0.07045604
0003f0 05 3f c0 3d 29 30 5b 3d a0 a6 f7 bc b2 39 96 bd
       0.0938702 0.053512726 -0.03023082 -0.07335223

a2c_network.actor_mlp.2.bias f4 [128]
000000 7d ce f9 bc 40 fa 6a 3c 97 41 d3 bc 23 79 83 3d
       -0.03049397 0.014341891 -0.025788112 0.06419589
000010 89 d0 ad bb db 41 f4 3c 5e ce ef bd b3 60 28 bd
       -0.0053044003 0.029816559 -0.11709283 -0.041107845
000020 6d 48 be 3c 7f 92 1f 3b 04 36 2c 3d 0b 12 eb 3d
       0.023227895 0.0024348793 0.0420437 0.11478051
000030 1a 08 6c bd 59 80 67 3d 3d 30 25 3d 6d d3 15 bd
       -0.057624914 0.056518886 0.040329207 -0.036578584
000040 31 2d bf 3c 91 1d 56 bd a3 33 d0 bd 34 f8 d7 bd
       0.023336979 -0.05227429 -0.10166099 -0.10545388
000050 30 0d e9 3c ad f9 42 bd 98 1e d8 bd db 05 2d 3a
       0.028448671 -0.04760139 -0.1055271 0.0006600299
000060 eb 6d 85 3d 4e 4c a7 3d 19 90 53 bd 8e ee 0e 3d
       0.06515106 0.08168851 -0.051651094 0.034895472
000070 f7 5d 65 3d c6 65 6f bb c8 b1 d6 bb 5e ec 97 bb
       0.055997815 -0.0036529168 -0.006551955 -0.0046363315
000080 5b 5b f5 bb b9 6f bf 3c 3d 6a 86 bd 8b 97 57 3d
       -0.007487697 0.023368703 -0.06563232 0.052634757
000090 18 ca 14 bd 9f ed 28 3d be ba 61 bd 63 9c fc bc
       -0.036325544 0.041242238 -0.05510973 -0.03083629
0000a0 f8 f7 95 bc ff 44 96 3c c1 c4 68 bd 7a a9 04 3e
       -0.018306717 0.018343447 -0.056828264 0.12955275
0000b0 35 86 a8 bd fb f5 12 bd 52 a6 ab bd 34 05 79 bd
       -0.08228723 -0.035879117 -0.083813325 -0.060795978
0000c0 83 a3 fc bc 83 7d 87 3c b0 98 88 bd 3d c4 11 3d
       -0.030839687 0.01653934 -0.06669748 0.035587538
0000d0 7d 1d 76 bd 54 48 aa 3b ca 04 28 be f3 67 2f bd
       -0.060086716 0.0051966105 -0.16408077 -0.042823743
0000e0 d7 6f 06 bd 96 2e ee bd 2b 11 07 bd cd c1 90 bc
       -0.032821503 -0.11629979 -0.032975357 -0.017670536
0000f0 39 dc a7 3c c7 24 18 3d a8 36 ef bc fc 4f a7 3d
       0.020490753 0.03714445 -0.029200867 0.08169553
000100 c0 46 cd bd d3 90 f6 3c 9f de 6e bd b2 78 31 bd
       -0.1002326 0.030098354 -0.058317777 -0.043327995
000110 9a f2 dd bd b1 90 06 bd dd 2b 48 bd e6 71 ea bb
       -0.10837288 -0.032852832 -0.048869956 -0.007154691
000120 dc db 5e bd f0 73 3e bd 57 d0 0d 3e bd d2 e4 bd
       -0.054408893 -0.046497285 0.13849007 -0.11173008
000130 29 37 5f bd 56 f4 dd bd 5b 38 7c bd a2 b0 06 3d
       -0.054495964 -0.10837619 -0.061577182 0.032883294
000140 d7 6e 8a bd 5f eb 02 3a 8b 28 92 bd a2 c4 bf bb
       -0.06759422 0.00049941795 -0.07136639 -0.005852298
000150 c4 1c 83 bd 45 ed 6f 3d 2d 02 26 bd 51 a9 56 3d
       -0.06401971 0.058575887 -0.04052942 0.052407566
000160 bc 4d f8 bb 44 80 08 3e 24 64 31 bd 53 77 4b bc
       -0.007577626 0.1333018 -0.043308392 -0.012418586
000170 96 3b 2c 3d 71 48 eb 3c 1b e9 63 3c 09 db 5f bd
       0.042049013 0.028721066 0.013910557 -0.054652248
000180 84 9c 81 bb 21 d4 e2 bd 80 63 8f bc 33 51 90 bd
       -0.0039554257 -0.11075617 -0.0175035 -0.070467375
000190 69 84 05 3e ca 0e f9 bd 78 a1 05 bc 53 8a 98 3c
       0.13038792 -0.12161024 -0.008156173 0.018620646
0001a0 42 58 21 bd 39 52 8e bd 7b 0e 1f bd 7c b5 2a 3d
       -0.03939081 -0.069492765 -0.03883217 0.041676983
0001b0 61 a1 e6 bd 7c 75 ef bc a2 73 30 be 12 cf 23 3d
       -0.11261249 -0.029230826 -0.1723161 0.0399924
0001c0 2e ba bb 3d f8 d5 7f 3d ac 5e a7 bc 9e 7f 1d bb
       0.0916637 0.062459916 -0.020430885 -0.0024032365
0001d0 31 a1 24 bd 8a ca 96 3c c6 28 88 3c 86 bf 3c bd
       -0.040192787 0.018407125 0.016621005 -0.04608109
0001e0 7f c8 a6 3d 60 5e 4c bc d9 72 b1 bd c8 e2 b7 bd
       0.0814371 -0.012473673 -0.086644836 -0.08978802
0001f0 95 d8 d7 3c f2 6f 41 bc 17 4e c0 3d 58 ef 13 bd
       0.026348392 -0.011806475 0.093898945 -0.036116928

a2c_network.actor_mlp.4.weight f4 [128, 128]
000000 c1 07 8f 3d e0 2b 33 bd 81 d3 f3 bd a0 cf 79 bd
       0.06983901 -0.043743014 -0.119055755 -0.060989022
000010 c1 19 75 bd 9b e4 fb bd ee 06 9f 3c c5 71 fc bd
       -0.059839014 -0.122994624 0.019412484 -0.12326387
000020 4f d4 b0 3c d8 aa a4 bd 15 1f bd 3d 5c 52 01 3d
       0.021585612 -0.08040398 0.09234444 0.031572685
000030 79 20 3e bc 34 a7 98 bd 57 75 9b 3c f7 74 ce bd
       -0.011604422 -0.074537665 0.01897685 -0.10080903
000040 57 46 e1 3d f9 51 1a bc a8 26 16 3d dc a1 a2 bc
       0.109997444 -0.009418958 0.03665796 -0.019852571
000050 fc 68 ee 3d 5e 99 b2 3d 18 f0 87 3d 8d cf b9 3d
       0.11641118 0.08720659 0.06637591 0.0907279
000060 e9 1f 45 3d fb 1d 5f bc ac 8b 88 bd 10 c6 b9 3c
       0.048126135 -0.013617988 -0.06667265 0.022677451
000070 00 ac 8f bd b3 5c a7 3c 24 b6 95 3d 45 fb a7 bd
       -0.07015228 0.020429945 0.07310131 -0.08202223
000080 ed a2 ce 3d e2 d3 7f bc 3c 82 f1 3d 33 b6 dd 3c
       0.100896694 -0.015614482 0.11792418 0.027064418
000090 9c 64 9c bb 2d 9d cc 3b 5e 61 9d bd 4d 25 62 3d
       -0.0047727358 0.0062443228 -0.07684587 0.055211354
0000a0 0a 98 02 be f3 f8 2d bc c2 14 93 bd ab bf b0 bc
       -0.12753311 -0.010618436 -0.071816936 -0.02157577
0000b0 90 3e f5 ba 1c 25 f9 bb f5 46 97 3d 97 1b 18 bd
       -0.0018710662 -0.0076033007 0.07386581 -0.037135687
0000c0 e5 f9 d5 3d db 33 06 bc c4 83 54 bc a9 27 b1 3d
       0.10448054 -0.008191074 -0.0129708685 0.08650143
0000d0 35 f3 e6 3d 9d 88 0a bc 04 4b ae 3c ce a2 b5 3a
       0.11276857 -0.008455423 0.021276005 0.0013857724
0000e0 56 32 ea 3d a8 87 91 bc c0 47 9c bd 01 e9 39 bd
       0.11435382 -0.017764881 -0.07630873 -0.045388225
0000f0 26 57 08 bd a0 9d e4 3c e0 1e e5 bd 04 10 21 3d
       -0.033286236 0.027907193 -0.111875296 0.039321914
000100 7d 5b 11 bd 0b 5d 3e 3d 6a 06 4d bd fb e4 b1 bd
       -0.03548764 0.04647545 -0.050054945 -0.08686253
000110 08 f3 ad bc 38 5c 4e bd 6c eb 91 3c 73 b3 b3 bd
       -0.02123405 -0.050380915 0.017812453 -0.087744616
000120 fb 64 42 bc a1 3a 20 3d 23 fd 49 be a9 f9 23 be
       -0.011864896 0.039118413 -0.1972547 -0.16013207
000130 a5 44 3e 3c 36 50 a3 bc a2 26 09 3d da b1 f1 3d
       0.011613046 -0.019935708 0.03348411 0.118015006
000140 92 54 65 bd e1 2e 9e 3b 30 4b 1f 3d a0 06 6b 3d
       -0.055988856 0.0048273657 0.038890064 0.057379365
000150 c7 53 b0 3d 96 b0 a7 3c a6 7c af bd 96 86 03 be
       0.08609729 0.020469945 -0.08568697 -0.12844309
000160 2d 26 85 bd 73 9b dd bd 2f 48 b0 3d 50 f0 76 3b
       -0.06501422 -0.10820665 0.08607518 0.0037679859
000170 75 9c e5 ba d2 2a 31 be 2d d9 b2 bd 73 d0 fe bc
       -0.0017517941 -0.17301491 -0.08732829 -0.031105256
000180 fb 4d 83 bc 88 3c 04 bd 52 8b 41 bc e2 55 7d bd
       -0.016028395 -0.03228429 -0.011813002 -0.061849482
000190 06 02 b6 3d 4a 07 7d 3d 7b 95 27 3d 68 3d 88 3d
       0.08887105 0.06177453 0.04091404 0.06652337
0001a0 2f 5a b8 3d 5f be 54 3d 64 84 0e bd b4 fb d1 3c
       0.09001576 0.051939365 -0.034794226 0.025632717
0001b0 0d ea b4 3c 2b bf cf 3d 9c 2e 19 bd 86 95 63 bd
       0.02208426 0.10143884 -0.037397966 -0.05556252
0001c0 26 f2 1d 3d 3c 59 0a 3e 28 7e ca bd a5 e7 10 3d
       0.03856101 0.13510603 -0.09887344 0.035377163
0001d0 c2 0a 53 3d 85 54 d9 3c 7e 5d de bd 52 d0 00 be
       0.05152393 0.02652956 -0.10857676 -0.12579468
0001e0 6a fd 8a bd 9d 52 22 3b 78 e0 14 bd 6c 6e ba 3d
       -0.06786616 0.002476848 -0.036346883 0.091030926
0001f0 ea ad c5 bc 80 a7 71 bd ab 2f 24 3d 2c 87 0c 3d
       -0.02413078 -0.05899763 0.040084522 0.034308597
000200 f3 1a 68 3d f1 61 d4 bc 4b 3f 02 3d da b2 16 3e
       0.056666326 -0.025925608 0.031798642 0.14716664
000210 b2 0e 6d 3c c0 ea 94 bd 89 95 52 3d c6 23 8e 3c
       0.014468836 -0.072713375 0.05141214 0.017351042
000220 27 e8 01 3d 72 b6 86 3c d8 82 17 3d 35 7e 16 3d
       0.03171554 0.016444419 0.036990017 0.036741454
000230 13 fe 5f 3e 1a 00 4f bd f6 88 1b be a0 c8 c2 bd
       0.21874265 -0.050537206 -0.15188965 -0.095109224
000240 c6 c4 6a 3c 37 4c e0 bb e3 e5 00 bc 9b 87 5c bc
       0.014329141 -0.006845023 -0.007867309 -0.013460065
000250 b4 56 fb bc 2f 7d cd 3d 7a 4e a8 bd b2 2b 02 bc
       -0.030680992 0.100336425 -0.08218093 -0.007944988
000260 e3 53 ea bd 26 f7 d4 bd 0f 39 a5 bd dc 7e 04 3d
       -0.11441781 -0.10398702 -0.08067524 0.032347545
000270 9c 6e 73 3b 52 66 09 bd 6f 1f 17 3e c1 8c 1e be
       0.0037144786 -0.033544846 0.14758085 -0.15483381
000280 16 cb 94 3d c0 f9 2f bd a5 b1 4a 3e eb 7b 10 be
       0.07265298 -0.04296279 0.19794329 -0.14109771
000290 b2 d5 47 3d b9 d4 57 bd a9 2a be 3d 6a ef 11 be
       0.04878778 -0.052693103 0.092854805 -0.14251485
0002a0 19 4a 23 bd d2 52 42 3d 8b 19 0d 3d df a1 38 be
       -0.039865587 0.047442265 0.034448188 -0.18030499
0002b0 67 d5 9b bc d9 27 bb bc 3e 1b dc 3d a4 57 0e be
       -0.019022657 -0.02284615 0.107473835 -0.1390062
0002c0 85 ee 10 3e e5 f9 e4 3d 88 4e 1f be 83 37 e0 bc
       0.14153488 0.11180476 -0.15557301 -0.02737022
0002d0 69 82 fa 3d c2 73 28 3e 2b c3 56 3d 47 37 7a 3d
       0.12231905 0.16450408 0.05243222 0.061087873
0002e0 ba bb 81 bd ca 47 c4 3d 8b 10 e0 3d de 7e 65 3c
       -0.06334634 0.09584005 0.10940655 0.014007298
0002f0 c4 2f e1 bc db a1 4c 3d e0 76 9f 3c bf ae f4 bc
       -0.027488597 0.049959045 0.019465864 -0.029868482
000300 8a d3 2d bd 09 e0 d9 3d 62 7d 81 3c b3 e7 a3 3d
       -0.042438067 0.106384344 0.015806857 0.080031775
000310 b8 9b 05 bd 1c c2 93 bd b1 40 40 3c 42 97 bf 3d
       -0.032619208 -0.07214758 0.011734174 0.09355022
000320 df 88 de 3d 2c d7 38 3d 09 e8 9e 3d fb 80 ef 3d
       0.1086595 0.04512708 0.07759101 0.11694523
000330 9d 5f 01 bd f9 20 e4 3d 2a e4 19 be 71 23 79 3d
       -0.031585325 0.111391015 -0.15028444 0.060824815
000340 a2 ef 87 bd 26 aa a8 bd 0d 4b f7 3c 45 23 04 3d
       -0.06637503 -0.08235578 0.030187154 0.0322602
000350 73 fb 32 3d e3 75 c6 3d 5d 98 12 3e ed 21 00 be
       0.043696832 0.09690454 0.14315934 -0.12512942
000360 9b c3 1c 3d 50 33 cc bd d4 59 37 3e d4 e4 aa bd
       0.03827248 -0.099707246 0.1790536 -0.08344427
000370 b2 c2 38 bd 0e 22 f3 3c 48 dd aa bd 02 f4 88 bd
       -0.04510755 0.029679324 -0.08342987 -0.06687166
000380 31 d0 a6 3d 2d 09 05 be db c0 0c be 18 7b 49 3e
       0.08145178 -0.12991782 -0.13745444 0.19675863
000390 ad 9b 9f 3c 40 d9 b5 bd d7 06 f4 3d 5e 9c 05 be
       0.019483412 -0.08879328 0.11915367 -0.1304793
0003a0 6e 69 de bc 78 4f 14 3e 03 68 c7 3d 92 cb aa 3d
       -0.027149882 0.1448344 0.097366355 0.08339609
0003b0 87 04 b0 bd 4f 40 83 bd fa 2a c4 bc c8 5e cc bd
       -0.085946135 -0.0640875 -0.023946274 -0.099790156
0003c0 c1 cd 19 3e 72 8b 9b 3d c4 2e 0f bd ea cd d3 3d
       0.15019895 0.075949565 -0.03495671 0.10342009
0003d0 01 d9 84 3c e8 fe b9 3c 81 36 49 bd 26 13 5a be
       0.016216757 0.022704557 -0.049124245 -0.21296367
0003e0 15 5b 4e bd a9 d2 2c bc be ca c5 bd 65 d4 fc 3d
       -0.05037983 -0.010548272 -0.09657811 0.123451985
0003f0 38 14 60 bc c8 c0 d0 bd db 3c 44 3d 11 17 34 be
       -0.0136766955 -0.1019302 0.0479096 -0.17586924

a2c_network.actor_mlp.4.bias f4 [128]
000000 d0 2f cc 3c 67 62 97 bc fa f3 0a 3c dd fe cf bc
       0.024925143 -0.01847954 0.00848102 -0.025390083
000010 dc ea 7a bc 0a 21 9f 3b 0b d8 1d bd a9 1c 4c bd
       -0.015314784 0.0048562335 -0.038536113 -0.04983202
000020 91 11 9f 3b 00 f7 95 bd 2b 7c d5 bc 9f 89 7f 3c
       0.004854389 -0.07322502 -0.026060184 0.015596776
000030 be f9 a5 bc c3 8f d1 bc ee 6a 51 bc f3 1d 36 bc
       -0.020260688 -0.025581246 -0.012781842 -0.011115539
000040 cb ff 81 bd 70 35 b3 3c 1a 44 c3 3b 89 ab aa 3c
       -0.06347617 0.021876067 0.005959046 0.020833747
000050 8d 1d 51 bd c8 92 3e bd 18 91 3b bd 33 7a c2 bc
       -0.051053572 -0.0465267 -0.04579267 -0.02373991
000060 b0 5f 44 bc ca 73 9d 3c cb e1 d5 bc de a9 0e bc
       -0.011985704 0.019220252 -0.026108643 -0.008707492
000070 f3 60 9a bc 4f 74 b3 bc 67 11 15 3c c7 ad ff bc
       -0.018845057 -0.021906046 0.009098387 -0.031210793
000080 7b 33 30 3c 46 58 c1 bd ec 26 01 bd 31 b9 5a bd
       0.010754461 -0.09440665 -0.03153126 -0.05339927
000090 1d 3e 15 bd a7 5f bc bd ca 77 79 ba c0 7e 93 bd
       -0.03643619 -0.09197932 -0.0009516446 -0.0720191
0000a0 d3 3f 14 bd 04 59 a0 bd c1 cd 04 be 40 0f 34 bd
       -0.03619368 -0.078294784 -0.12969114 -0.043959856
0000b0 85 1d 1b 3c 46 93 0d bd 11 9d 3e bd 2e 83 4f bc
       0.009467487 -0.03456428 -0.04653651 -0.012665553
0000c0 27 6c e2 3b d4 9d ba bc 3b 44 8c bd 61 62 fc bc
       0.0069098654 -0.022780336 -0.068489514 -0.03080863
0000d0 d9 46 72 bd 1c 5f cd bd 8a b0 c3 bc 1d 4b da bc
       -0.059149597 -0.10027906 -0.023887891 -0.026647145
0000e0 29 77 9e 3c 6c 0a 94 bd 60 ab 55 3c 75 48 80 3c
       0.01934393 -0.0722855 0.013041347 0.01565955
0000f0 33 40 c7 3b d8 e7 53 bd 26 35 c3 bb 60 b4 16 bd
       0.006080651 -0.051734775 -0.0059572635 -0.036793113
000100 fe a2 1c bd ed 40 7e 3b 8b 93 28 bd 7f 04 fc bc
       -0.03824138 0.0038796023 -0.041156333 -0.030763863
000110 f3 34 c7 bc fa 7c ad bc b4 25 c9 bc 79 93 b3 bc
       -0.02431724 -0.021177758 -0.024554111 -0.021920906
000120 6d 55 08 bd 8e 4d 03 bc 13 7b dd bd ad 77 39 3d
       -0.033284593 -0.008014096 -0.1081449 0.045280147
000130 7d 45 00 bd 7a a5 6a bc 18 34 4e bd 80 2d ab bc
       -0.03131627 -0.014321679 -0.05034265 -0.02089572
000140 af e4 94 bc b0 91 b3 3b 77 9b eb 3b e5 a5 c8 bc
       -0.018175451 0.005480014 0.0071901637 -0.024493167
000150 88 9a 86 3b 05 94 01 bd 64 42 43 bc 3c 38 07 bc
       0.004107777 -0.031635303 -0.011917684 -0.008253153
000160 46 45 6e bd 0f 8e a5 bd 90 62 94 3c 87 ef d1 bd
       -0.058171533 -0.08083736 0.018113405 -0.10250764
000170 60 2c e2 bc 6f 56 91 bc 4b c2 90 bd 73 05 33 bd
       -0.02760905 -0.01774141 -0.070683084 -0.04370637
000180 86 17 18 3d b2 d0 ed bc a0 1a c4 bc 72 b3 ae bd
       0.03713181 -0.029030178 -0.023938477 -0.0853032
000190 8d 36 79 3d 8b 6b fd 3b 12 6e 0a bc a0 a9 a2 3c
       0.06084304 0.0077337674 -0.008449094 0.019856274
0001a0 09 96 a3 bd 5a 81 4d bd ba b9 cf bd 80 15 b7 bc
       -0.07987601 -0.050172187 -0.101428464 -0.02234912
0001b0 87 af 3f 3d 07 92 e4 bb 0a 1b 2f bc b9 e2 13 bd
       0.046798255 -0.0069754156 -0.010687599 -0.03610489
0001c0 ad d4 c1 bb b2 36 28 3c f3 53 1d bd 3b a3 bc bc
       -0.0059152455 0.010266947 -0.03841014 -0.023027053
0001d0 9d dd 11 bd 92 1a d8 3b 06 a6 44 bd 2d 04 09 bc
       -0.035611738 0.0065949643 -0.048009895 -0.008362812
0001e0 51 03 63 bd e3 05 94 bc ee c4 d1 bc 79 58 e8 bc
       -0.055423085 -0.018069213 -0.025606599 -0.0283625
0001f0 bc b3 b4 bb 98 13 4f bd 40 14 3c 3c 1c 76 80 bc
       -0.00551459 -0.050555795 0.011479437 -0.015681319

a2c_network.value.weight f4 [1, 128]
000000 c2 95 74 3c 8c 50 0e bd 03 4c c1 3a 94 1e 2d bd
       0.014928283 -0.034744784 0.0014747385 -0.04226549
000010 91 2f cc bb d1 3b 81 3d 7b 0a 0c bd 4d 2f e4 bc
       -0.0062312563 0.06310237 -0.034189682 -0.027854586
000020 0b de 10 3d 81 50 5f 3d 15 63 83 bc 7d df 51 bd
       0.035368007 0.054520134 -0.016038457 -0.051238526
000030 ae fb 42 3c f8 0e 29 3d c6 db a9 bc ea c3 30 3d
       0.011900825 0.04127404 -0.020734679 0.04315559
000040 df 04 12 3e 7e 89 80 bc 28 94 2b bd 92 3a 6c bd
       0.1425967 -0.015690561 -0.04188934 -0.057673045
000050 bc 14 6a 3c 56 b9 e7 3c db 07 76 3c 6e 95 2d b9
       0.01428717 0.028286617 0.015016521 -0.00016554233
000060 b1 76 85 bc 86 45 25 be 21 67 15 bb 96 09 b5 bd
       -0.016291948 -0.16139802 -0.0022797065 -0.08839719
000070 2e 5e 97 3c af 32 29 bd 28 74 cc 3c fc d8 05 3d
       0.018477526 -0.0413081 0.024957731 0.032677636
000080 b1 03 31 bd f1 18 e6 3d de 63 db ba d4 2a 41 bd
       -0.04321641 0.11235226 -0.0016738137 -0.047159985
000090 46 90 32 3d 11 40 5a 3b d9 82 51 3d 12 9d b8 3d
       0.04359462 0.0033302347 0.051150177 0.09014334
0000a0 0f 09 1f bc d1 e1 2f bb f1 09 2b 3c 2d 3e cc 3c
       -0.00970675 -0.0026837478 0.010439382 0.024931991
0000b0 e5 91 79 ba 64 21 72 bc c5 e9 79 3d bb 0f e4 3b
       -0.0009520336 -0.014778469 0.061013956 0.006959883
0000c0 a6 53 81 bb 75 ec 6f 3c 29 fb 31 3d 2c f9 f6 bb
       -0.0039467392 0.014643778 0.043452416 -0.007537028
0000d0 ce 22 8d 3d f6 f5 6d 3d 8c 6e ae ba 2e 10 22 bd
       0.06891404 0.058095895 -0.0013308092 -0.03956621
0000e0 c0 47 d7 b9 ab 43 a6 ba 21 69 c8 3b 1d 7f 3b 3c
       -0.00041061454 -0.0012684962 0.006116048 0.01144388
0000f0 29 f9 0f bc 8d fc a9 3d cc af 69 3a a4 47 9d bb
       -0.008787432 0.08300123 0.00089144404 -0.0047998
000100 43 87 40 bb 6f 0c 01 bc c0 48 03 3e 27 33 7c 3d
       -0.0029377497 -0.0078765 0.1282072 0.06157222
000110 db f7 6e bb 8b 2d a5 3a 43 11 25 3d 52 a0 03 3c
       -0.0036463651 0.0012602074 0.040299665 0.008033829
000120 45 38 aa 3d 97 6b 0e 3c 3f 22 9d 3c 5f 21 03 3a
       0.08311514 0.008692644 0.019181369 0.0005002226
000130 b6 16 e5 bb 00 7c 1b 3e 0d 94 03 3c 6e b1 3b bc
       -0.0069912327 0.15184021 0.0080309035 -0.011455877
000140 93 10 7e 3d 48 db 14 be 4e 4a 77 3c 60 65 52 bc
       0.062027525 -0.14536774 0.015093399 -0.0128415525
000150 0d 7b 87 bd d1 45 c4 bc d7 3f 33 bb 4a b6 0a bd
       -0.06615267 -0.023959072 -0.0027351284 -0.03386525
000160 4b ec 30 3d ad 70 04 bc 94 b4 fb 3b f3 5e cf 3b
       0.043194097 -0.008083505 0.0076814387 0.0063284575
000170 41 b0 81 3b b9 ca bf bc ef 32 25 3d 4a 08 55 bd
       0.0039577787 -0.023412095 0.040331777 -0.05200986
000180 c5 9c 24 bd 69 05 a0 bc 03 22 64 3c c1 3e 8f bc
       -0.04018857 -0.01953383 0.013924125 -0.017485978
000190 ab 0f b6 bd 51 4b b3 bc 93 82 be bc 3a 19 96 3c
       -0.08889707 -0.0218865 -0.023255622 0.018322576
0001a0 8d c1 41 3a d8 0d 4d 3d 35 fa 5d 3c 1d a3 83 bc
       0.0007391207 0.05006203 0.013548424 -0.01606899
0001b0 79 c8 0f bc d4 a1 9c bc f5 2a 33 bd 58 e6 06 3e
       -0.008775824 -0.019120134 -0.04374214 0.13173807
0001c0 84 48 4a bc 13 06 1e bd 1c 44 8c 3c 7b 33 8b 3c
       -0.012346391 -0.03858001 0.01712232 0.016992321
0001d0 7d 6f 32 3d 91 a0 e6 3b a6 fb f7 3c 34 43 53 bc
       0.043563355 0.007038184 0.030271363 -0.01289444
0001e0 11 8b 47 3b 37 90 63 bb ce 5f b2 bc 45 75 d5 3a
       0.003044788 -0.003472341 -0.021774199 0.0016285559
0001f0 26 5f d9 3d 4a b9 d1 3c 03 17 4c bd 7a 93 1d 3d
       0.10613851 0.025601048 -0.049826633 0.038470723

a2c_network.mu.weight f4 [10, 128]
000000 df 71 88 3c 04 0e 83 3d 6e e9 71 3d 36 25 5c bc
       0.01665586 0.06399158 0.059060507 -0.013436606
000010 de 2b bc bc 9e 53 81 3d c9 66 35 3d 81 ce 44 3d
       -0.022970136 0.06314777 0.044287477 0.0480485
000020 05 c5 80 bc af ef 86 bc 2f 01 99 bd 00 b4 b5 bc
       -0.015718946 -0.016471712 -0.07470929 -0.022180557
000030 fa eb 2a 3e 0a 42 20 3e 59 a9 38 bd 1f 0e 5a 3d
       0.1669158 0.15650192 -0.045083378 0.053236123
000040 15 2c 0f bc c8 6b 8b bc 22 68 a8 3d 86 df b0 3d
       -0.008738537 -0.017019168 0.08222987 0.08636384
000050 ec 38 37 bd 5c 1e d9 3d 79 b5 1f 3d 10 17 20 3d
       -0.04473202 0.10601494 0.038991425 0.039084494
000060 d0 84 b3 bc f1 6f a9 bd d3 85 0b bd 7d 52 4d 3d
       -0.021913916 -0.08273304 -0.03406317 0.050127495
000070 4e 14 41 3d e1 41 b4 3d 63 63 93 3d a7 76 25 be
       0.047138505 0.08801628 0.07196691 -0.16158544
000080 23 d1 da 3c dc cc 22 3c 29 de 78 bc c7 ef c6 3d
       0.026711052 0.009936538 -0.015189686 0.09713703
000090 f6 e0 b4 bb 74 a1 be 3c 6c 35 76 bd 6e 01 9c 3d
       -0.0055199815 0.023270346 -0.06010954 0.0761746
0000a0 6e e7 3e 3e 3d 76 46 be 44 bb c2 bd 31 23 2d bd
       0.18642971 -0.19381042 -0.09508374 -0.04226989
0000b0 af 2b 04 3e ff 89 86 3d d3 80 71 bd 39 db ef 3d
       0.12907289 0.065692894 -0.058960747 0.11711735
0000c0 02 b7 8e 3e 22 8c ac bd d8 fe ee 3c 30 3a 45 3c
       0.27874 -0.08425166 0.029174253 0.012037799
0000d0 72 53 63 bd 78 45 84 3d cd da ee 3d d5 6b 09 bd
       -0.0554995 0.064585626 0.11662827 -0.033550102
0000e0 5e 8f d2 3d f1 66 8a 3d 52 ff 80 3d 32 86 38 3e
       0.10281251 0.06757916 0.062986985 0.18019941
0000f0 1c 00 7c bd 35 ba 66 3c 43 97 ab bc cb ed 04 bc
       -0.06152354 0.014082481 -0.02094615 -0.008113335
000100 24 27 df bd 91 1e 12 3d e6 6d ac bd f9 1c 64 3d
       -0.10896137 0.03567368 -0.08419399 0.055691693
000110 ff 3c 28 bd 56 84 76 bc 9d ba 83 3d 7e 9f 67 3d
       -0.041073795 -0.0150462 0.06432078 0.056548588
000120 dd ee 8f bd 6e c9 2f bd 14 eb 07 3e 59 e2 50 bd
       -0.070279814 -0.042916708 0.13273269 -0.050997112
000130 03 8b e4 3b fb 81 5e bd 07 ac b1 3c e3 3c 07 3d
       0.0069745793 -0.054323178 0.021688474 0.03301705
000140 4d a4 47 3d ea 10 9b bd f4 b7 da 3d 3b dc 0b 3d
       0.048740674 -0.075715855 0.106796175 0.034145575
000150 c1 44 37 3d 83 6e 35 3d 32 dd f3 bd 55 66 39 3d
       0.044743303 0.044294845 -0.11907424 0.045263607
000160 b6 db cf bd ec 43 59 3c 4d fc d4 3c ef 0f c4 bd
       -0.101493284 0.013260823 0.025999213 -0.095733516
000170 5b b1 d0 3d fb 9d 3f bc 6c 74 83 3b 93 12 97 3d
       0.10190078 -0.01169538 0.0040116813 0.073765896
000180 3e d8 ad 3c cc f2 e8 3b bf ba ab bd 88 a7 03 3d
       0.021221276 0.007109022 -0.08385228 0.032142192
000190 ed 85 a8 bc a2 61 19 3d 6f f8 12 bc c4 2d b3 3d
       -0.020571673 0.037446626 -0.008970364 0.087489635
0001a0 24 1e d4 3d 27 dd 81 3c d9 3b c0 bc 09 8d 6e bc
       0.10357311 0.015852524 -0.023466038 -0.014559993
0001b0 5d 3b 95 3d 78 82 15 be 27 8b 9d 3c 81 5b b4 3d
       0.07286713 -0.14600551 0.019231392 0.088065155
0001c0 7b e9 85 3c cc ee 68 3a c3 e9 7d 3c d6 08 c9 3b
       0.016346684 0.0008885681 0.015497628 0.0061350865
0001d0 18 1f 3d bd 60 f6 35 3d d3 f3 95 bd b1 47 9e 3c
       -0.04617223 0.044424415 -0.073218964 0.019321295
0001e0 31 37 97 3d 7b cf 22 bd 10 d8 41 be 90 eb 8f 3d
       0.07383574 -0.03974865 -0.18930078 0.07027352
0001f0 f2 a5 77 3d 9e de 11 bd 76 a6 4e bd 3b 1c d4 3c
       0.060460992 -0.035612695 -0.05045172 0.025892368
000200 ee 10 e7 3c 28 50 aa bd f4 fc 18 3e c4 ed 25 3d
       0.028206315 -0.0831607 0.14940244 0.040509954
000210 bc 91 76 bd 9c d9 e6 bb 77 4c 89 3d 33 59 c2 3b
       -0.060197577 -0.007044984 0.06704038 0.0059310435
000220 b1 45 78 bd 03 24 16 3b c1 d6 e4 bd e3 21 c4 bd
       -0.060613338 0.0022909648 -0.111737736 -0.09576776
000230 92 c2 a1 3c 49 de 15 bd 6f b6 a5 bd 2a 2c 59 3d
       0.019746099 -0.03658894 -0.08091437 0.053020634
000240 8d 00 c3 3c 16 f4 81 3d 2a b8 dd 3d b3 c0 7b bd
       0.023803974 0.06345384 0.10826142 -0.06146307
000250 79 21 54 bd 1e 66 12 bd 9b 50 11 bd 8e 60 25 bb
       -0.051789735 -0.035741918 -0.035477262 -0.0025234553
000260 c8 5c 02 3d a0 bc bf bd 00 8d 90 3d 01 86 3b bd
       0.031826764 -0.09362149 0.070581436 -0.045782093
000270 55 73 0e bd aa 16 4b bd 83 11 b3 3c 5b 1c 52 bd
       -0.034777958 -0.04958216 0.021858936 -0.051296573
000280 d2 8e 4d 3d ee 05 89 3d ee c8 3e 3c a6 1f 26 3e
       0.050185032 0.06690584 0.011644585 0.1622301
000290 f7 67 e3 3d ff c8 91 3d fd 16 af 3c 5f a1 d6 bd
       0.11103814 0.07118415 0.021373266 -0.10479998
0002a0 de 91 03 be 48 c7 82 3d d6 bf f5 3d 50 e4 0b bd
       -0.12848613 0.06385666 0.119994804 -0.034153283
0002b0 e8 cf 9f bd 52 ce ed bd d1 32 10 3d 5c 8d 97 bd
       -0.07803327 -0.11611618 0.035204712 -0.07400009
0002c0 11 9f e6 3c 11 9e 96 bc d3 eb d6 bd b3 c8 f7 3d
       0.02815202 -0.018385919 -0.10494199 0.12098827
0002d0 79 0a 9b 3d 6c 57 71 bd 05 f1 88 bd bd fd 9f bd
       0.07570357 -0.058921263 -0.06686596 -0.078120686
0002e0 16 db 24 be f7 55 19 be 96 d7 90 bc 22 fa 4a bd
       -0.160992 -0.14974199 -0.017680924 -0.04955495
0002f0 bb 0d 8d 3d 46 59 71 3d 9c 30 84 bd cb ea 9c 3c
       0.068873845 0.05892303 -0.06454584 0.019154927
000300 f1 b0 5b 3d 8d e3 d8 3d 49 86 f2 bd 2b 05 b9 bc
       0.05363554 0.10590277 -0.11842019 -0.022585472
000310 e9 43 4f bd 9b f1 06 bd db aa 3f be 1f 5f 22 bd
       -0.050601874 -0.032945257 -0.1871752 -0.039641496
000320 16 0d 4e bc d6 f1 73 3d 52 41 8e bd 71 96 b2 3c
       -0.012576362 0.059556805 -0.069460526 0.021800252
000330 4e 59 15 3c 61 c2 5f 3d 4a 27 7c bd 53 b9 36 3d
       0.00911553 0.054628734 -0.061560906 0.044610333
000340 66 73 02 3a 2d e4 f7 3d f8 8a 54 bd ae 39 4d 3c
       0.0004976302 0.12104068 -0.051890343 0.012525959
000350 7d 0d 1c 3d a1 38 b6 3d 40 2c 03 bd e7 92 ad bd
       0.0380988 0.0889752 -0.032024622 -0.08475285
000360 28 e6 20 3d 15 47 2d b9 93 21 ee bc 4f df 52 3d
       0.039281994 -0.00016525046 -0.029068744 0.051482495
000370 b1 36 39 be dd 87 50 bb 7d d3 8c bc 86 94 90 bc
       -0.1808727 -0.0031819262 -0.01719069 -0.017648946
000380 f4 71 f7 3d 1e 8c 9b bd 2b ad d1 bc 9c c9 36 be
       0.12082282 -0.075950846 -0.025595268 -0.17850345
000390 33 18 26 bd c9 e0 d5 bb 69 5c 62 3d 6b 13 e2 bc
       -0.040550422 -0.0065270406 0.05526391 -0.02759715
0003a0 9f bc 28 3d d9 62 0d 3d 1f ba 25 3d a3 09 07 bd
       0.041195508 0.034518097 0.040460702 -0.032968175
0003b0 85 1f 58 3d 3d 52 09 3e 37 b3 33 bd ec 5d 1c bd
       0.052764434 0.13410278 -0.043872084 -0.03817551
0003c0 91 51 a0 bd af a7 d5 3c 63 39 72 3c 8e 2d 9e bd
       -0.078280576 0.026080934 0.01478419 -0.077235326
0003d0 67 f7 83 3d 28 f2 9e 3b df 45 c7 bc ae 51 11 3c
       0.064436726 0.0048506446 -0.02432531 0.008869572
0003e0 b0 6f 60 bc 92 05 10 3e 92 4c 8c 3c 52 2b cb 3c
       -0.013698503 0.14064625 0.017126355 0.02480093
0003f0 2d a5 9b 3c a4 b3 85 be 26 32 5a be ce 74 0c 3d
       0.01899966 -0.26113617 -0.21308193 0.03429108

a2c_network.mu.bias f4 [10]
000000 87 08 fc 3c 51 56 97 3d 45 f2 c1 3d 77 fa 21 3e
       0.030765785 0.073895104 0.09470037 0.15818201
000010 e1 e0 9b 3d 06 69 43 bd 3f f1 1e bd d3 63 92 bc
       0.076112516 -0.04770758 -0.03880429 -0.017869866
000020 20 8c 96 bd 0b ad bb 3c
       -0.073509455 0.022909662

exp_avg f4 [10]
000000 4f d4 95 3a 73 54 38 3b cd 9c cf 3a ad c3 32 ba
       0.0011431071 0.0028126508 0.0015839577 -0.0006819319
000010 33 49 64 3a 1e 06 ea 38 f7 c1 15 3b 2f 0e 41 3a
       0.00087084173 0.00011159129 0.0022851208 0.0007364479
000020 bf a0 13 3b 70 42 fd 39
       0.0022526232 0.0004830542

exp_avg_sq f4 [10]
000000 c5 6b 23 38 96 cd ee 37 e2 4e 03 38 d6 c2 f6 37
       3.8962597e-05 2.8467544e-05 3.13063e-05 2.9416213e-05
000010 86 d3 e3 37 9a 9e d9 37 16 16 fc 37 ca 93 ca 37
       2.7159007e-05 2.594227e-05 3.0051026e-05 2.4149096e-05
000020 ef 79 13 38 86 ce 08 38
       3.516109e-05 3.2617267e-05
