logs/rl_games/humanoid_flat_direct/2025-11-17_00-02-14/nn/last_humanoid_flat_direct_ep_250_rew_8602.956.pth (torch, 759451 bytes, 33 tensors)

value_mean_std.running_mean f8 [1]
000000 11 03 3c c2 cc bc 77 40
       379.7999899238794

value_mean_std.running_var f8 [1]
000000 62 bd ba c3 2c ce db 40
       28472.6994463777

value_mean_std.count f8 []
000000 00 00 00 04 00 70 97 41
       98304001.0

a2c_network.sigma f4 [10]
000000 bf a3 9e bf 85 92 99 bf c5 65 cf bf 73 b9 95 bf
       -1.2393721 -1.1997839 -1.6202933 -1.169722
000010 7c 84 e1 be 05 a7 31 bf bb 3e 80 bf 31 b3 30 bf
       -0.4404639 -0.69395477 -1.0019144 -0.69023424
000020 76 cf 8e bf fe 97 63 bf
       -1.1157062 -0.88903797

a2c_network.actor_mlp.0.weight f4 [256, 42]
000000 7c 8e 38 be f2 3d 71 3e ab 1e e4 3d fa 4d 16 3c
       -0.18023103 0.23558787 0.11138662 0.0091738645
000010 20 e1 c8 3d 27 f7 92 3e 05 db 8b 3e 5b 2e 31 3c
       0.09808564 0.28704187 0.27315536 0.010814275
000020 ce f5 ba be d7 80 27 be 0c 4b 91 be d2 ad 4d bd
       -0.3651566 -0.16357742 -0.2837757 -0.050214596
000030 49 21 ce be 48 3f 06 3d 9e e9 84 3e d0 ff 14 bc
       -0.4025977 0.032775193 0.25959486 -0.009094194
000040 15 4d 86 3e 8b d4 f8 bd 92 87 cc bd 6e ec 93 be
       0.26230684 -0.12149914 -0.099867955 -0.2889132
000050 64 5a 9d be 94 27 c3 be 7e 52 27 3e 90 8c 11 3c
       -0.30733025 -0.38116133 0.16340062 0.00888361
000060 ef f0 7a 3e 74 39 e6 bd c7 6e 6e bd b0 53 45 be
       0.24505971 -0.11241427 -0.058211114 -0.19270205
000070 14 cd 5f 3e d8 9d af 3d 92 2f 42 3d 4b 14 20 be
       0.21855575 0.08575028 0.047408648 -0.15632741
000080 08 bc 57 bd a5 70 a0 bd c3 93 bf bd 8b 60 87 bc
       -0.052669555 -0.07833985 -0.09354355 -0.016525527
000090 82 6f 93 3d 90 da 92 3d 2c 83 15 bc eb 1d 79 bd
       0.07199003 0.07170594 -0.009125512 -0.060819548
0000a0 85 ec da 3c b1 48 8f bd da c5 69 3e 18 8e b6 bd
       0.02672411 -0.06996287 0.2282938 -0.08913821
0000b0 83 4a ba bd 0a c8 53 be 38 7c de bd 86 78 ba 3d
       -0.09096243 -0.20681778 -0.108635366 0.09105019
0000c0 f3 97 01 3d c7 d7 c3 3c 55 63 a2 3e 0a 3a 29 3d
       0.03163905 0.023906602 0.3171641 0.041315116
0000d0 eb 36 8b bd 21 8a 50 bc 50 97 3b 3f d0 8e 40 3b
       -0.06797584 -0.012728245 0.7327776 0.0029381998
0000e0 12 a8 16 3e 4d 68 2c bf 3a 47 2e be ba 52 8c bd
       0.14712551 -0.6734665 -0.17019358 -0.06851716
0000f0 c4 67 71 bd 1b cb 75 be 12 f9 14 3b b1 1a 8b bf
       -0.05893685 -0.2400326 0.0022731465 -1.086752
000100 8e c1 31 be c7 c0 bc 3d 64 77 84 bd 04 a8 dc bd
       -0.17358992 0.09216457 -0.064680845 -0.10774234
000110 4d c4 47 3d ad ed db 3d 37 e7 c6 3d 64 51 23 bd
       0.04877119 0.107386924 0.097120695 -0.039872542
000120 b4 d7 37 3c 64 d0 79 3d 3c c2 02 3c 4f 50 f6 bd
       0.011220861 0.060989752 0.007980879 -0.120270364
000130 36 2f bf 3d 9e 16 f8 3d 90 91 f7 bd 19 71 ce bc
       0.09335177 0.12113689 -0.12088311 -0.025200414
000140 5d 99 5d bd d1 ec 3e 3c a3 47 97 bd e2 48 0b 3d
       -0.054101337 0.011653141 -0.073867105 0.034005053
000150 2a 43 08 be ec dc 5a be 1a 0c 8f 3e 25 f0 80 3d
       -0.13306871 -0.21373338 0.2793892 0.06295804
000160 9f 75 3f 3d 85 50 cb 3d 9b d3 8e bd a8 43 9f 3e
       0.04674303 0.09927467 -0.06973954 0.31106305
000170 2e 70 a0 be a4 1e 88 be 0b 45 0a be db 8d ef bd
       -0.31335586 -0.26585877 -0.135029 -0.11696979
000180 9a 58 c3 be dd 13 94 be 85 cb 45 3e 35 1d 29 3e
       -0.38153535 -0.28921404 0.19315918 0.16515048
000190 09 2f 35 3e b4 93 cb be fd 3e a1 be ba a5 c3 bd
       0.17693724 -0.39761126 -0.3149337 -0.09553094
0001a0 77 6e d7 3e 83 5c 09 3f 22 67 44 3e 89 0b 02 be
       0.42076465 0.53656787 0.19179967 -0.12699713
0001b0 98 0a de 3d f5 6b bb 3c b3 e0 1b bd 2a f7 b9 bd
       0.10841864 0.022878626 -0.038056087 -0.09080346
0001c0 33 c5 15 3e 24 05 91 be 22 ec 98 3e 39 7e 08 be
       0.14626007 -0.28324234 0.29867655 -0.133294
0001d0 7c 2b ce 3d 86 06 80 bc 7a 4a 14 3e 98 5c 90 bc
       0.10066888 -0.01562811 0.14481536 -0.017622277
0001e0 54 52 d5 bc 5d 82 b9 bd bf f5 db 3d c5 64 96 bd
       -0.026040234 -0.09058068 0.10740232 -0.07343439
0001f0 81 33 21 be 0b 33 09 3d 46 04 c7 3d 74 77 2f be
       -0.15742303 0.033495944 0.09717612 -0.17135412
000200 84 c1 3a be c0 13 c7 3e 8d ad 35 3d a0 5e 5a 3e
       -0.18237883 0.38882256 0.044354964 0.21325159
000210 94 63 af bc 2d 4a c3 bd 30 7f 79 3e 17 ee c9 3d
       -0.021409787 -0.09535632 0.24364924 0.09859865
000220 93 26 11 3e 58 2c c4 bd ee b5 09 3f e7 98 95 3d
       0.14174871 -0.095787704 0.5379323 0.073045544
000230 20 63 ab 3d 62 70 54 3c 87 39 b6 bd 66 8f 6b 3e
       0.08368516 0.012966247 -0.08897691 0.23003921
000240 63 bd 14 3f 3c ae 10 be 29 02 45 3f c7 d9 c8 3d
       0.5810148 -0.14128965 0.7695642 0.09807163
000250 1b ed c7 39 fa 9a cf bc 84 a9 69 3e 6c de 3b 3e
       0.00038132895 -0.025342453 0.22818571 0.18346566
000260 d8 62 15 3b 50 38 6f 3d 97 c7 c4 3c ff a7 fa 3c
       0.0022794511 0.058403313 0.024020953 0.030597685
000270 1f bf 7a 3e 73 2c c3 3b 9b 6c 7e bd e2 40 bc bd
       0.2448697 0.0059562265 -0.062115293 -0.09192063
000280 94 02 34 3e c1 31 84 bd 9a 9e cf bc 48 34 84 bd
       0.17579108 -0.06454802 -0.025344182 -0.06455284
000290 f5 d5 8b bd ed 66 cd bd 62 dd ee bd 8d b8 1f 3d
       -0.068279184 -0.10029397 -0.11663319 0.03899436
0002a0 56 d7 ff 3d bc 03 ba 3d f8 d6 e5 bd 00 05 1c bd
       0.12492244 0.090827435 -0.11222643 -0.038090706
0002b0 47 e5 4f bd 6f 88 35 3e 6d 92 8c 3d ae 98 0b 3d
       -0.050755765 0.17727827 0.06863866 0.034081154
0002c0 5f d2 38 3d 31 b5 07 be 6a 5c b9 bd cd 46 bc 3d
       0.0451225 -0.13252713 -0.0905083 0.09193192
0002d0 61 bb 22 be fa ad 26 be 19 6a 69 be d7 b4 84 be
       -0.15891792 -0.16277304 -0.2279438 -0.2591922
0002e0 0e 21 93 3d 1b 5c dd 3c c5 2f 2f be 9e 3c 46 be
       0.07184039 0.027021458 -0.17108066 -0.19359061
0002f0 1d 95 db be 4a 9a 17 3e c0 1a 67 3d c1 bb a0 3d
       -0.42887202 0.1480495 0.056421995 0.07848311
000300 f2 45 c7 3d 66 6d 62 bd c6 91 23 3c 9e 27 fd bd
       0.09730138 -0.05528011 0.009983486 -0.12361072
000310 d2 46 ab bd db 36 2e be 46 fc 75 3e cf d6 46 bc
       -0.08363117 -0.17013113 0.24022016 -0.012136175
000320 75 7c 64 bc f8 2d ee bd db 7a d5 3c 97 4c 0f be
       -0.0139456885 -0.116298616 0.026059559 -0.1399406
000330 8a 42 37 bd ef 15 b6 3d 7a b9 e7 3c 79 fa 63 3d
       -0.04474119 0.08890902 0.028286684 0.05565879
000340 8f 13 46 bd 5f 2a 38 bd ca ae 54 be 5e bb 51 bd
       -0.048358496 -0.044962283 -0.20769802 -0.051204078
000350 db 81 ec bb 68 45 1e be 9a 39 80 bb 13 88 b2 bd
       -0.0072176284 -0.15456164 -0.0039131166 -0.0871736
000360 6a 79 d6 3d d1 63 19 3d ff 06 91 3e 78 f1 b0 bd
       0.10472377 0.037448708 0.2832565 -0.086398065
000370 15 3b 81 3d 42 01 f0 bd 16 a2 a8 3e e6 97 1b 3d
       0.06310097 -0.1171899 0.32936162 0.03798666
000380 a7 27 50 3e 05 c3 74 3d c4 3c 6d bd d4 28 80 3a
       0.20327626 0.059756298 -0.05791928 0.0009777793
000390 23 a9 04 3f a9 42 1d bf 9a b0 71 3f e9 5a 1d 3f
       0.5182058 -0.6142984 0.944101 0.6146684
0003a0 6c 0a 7b 3e 0d 8e 1b be 18 19 22 be dd 10 28 3e
       0.24515694 -0.15190907 -0.15829885 0.16412683
0003b0 a2 da 4d 3c 1a 37 92 bd 19 82 bf 3c 80 9e 84 be
       0.012564333 -0.07139416 0.023377465 -0.25902176
0003c0 12 17 bf 3d 86 0e 87 be bb a1 a9 bd c2 c2 3c bd
       0.09330572 -0.26378268 -0.08282801 -0.046084173
0003d0 02 dc 0c be a7 dd ca 3d 72 cb 15 bc f2 21 3d bd
       -0.13755801 0.09905558 -0.009142743 -0.04617495
0003e0 31 1e d5 3c cc 3a e4 3c f3 c0 b3 bd e6 8c c5 bb
       0.026015373 0.027860068 -0.087770365 -0.0060287593
0003f0 fb 8a 56 3d 21 d9 57 3c 24 74 27 bc 22 9f 34 bc
       0.052378636 0.013174326 -0.010220561 -0.011024268

a2c_network.actor_mlp.0.bias f4 [256]
000000 8e 16 13 3e cd d7 8d 3e 82 fe 82 3e a3 c5 37 bc
       0.14364073 0.27703705 0.255848 -0.011216554
000010 74 1d 17 be 11 1f 06 3e b9 92 5b be 1c d2 4c 3e
       -0.14757329 0.13097788 -0.21442689 0.20002025
000020 b7 d0 17 be 3c d2 e8 3d 9a 3c f2 bd f3 46 42 3e
       -0.14825712 0.11368224 -0.11827965 0.18972377
000030 e9 36 1a be 98 96 6b be c4 81 3b 3e 6c e6 03 3e
       -0.15060009 -0.23006666 0.1831122 0.12880868
000040 60 29 5e bd 08 bf 1b 3e b8 b1 79 3d 04 f1 7c 3d
       -0.054238677 0.15209591 0.0609605 0.061753288
000050 01 40 a8 bd c7 57 a4 bd 2a 9e 32 be 27 4a 24 be
       -0.08215333 -0.08024555 -0.17443147 -0.16043912
000060 e6 fd 07 bd d8 90 30 3e 12 66 01 be ad 83 1e be
       -0.03320112 0.17242754 -0.12636593 -0.15479918
000070 e6 10 0c bc 46 d4 94 39 66 d0 7d 3c 4a af ff bc
       -0.008548951 0.00028386916 0.015491581 -0.031211514
000080 0c 81 44 3e e7 ab 64 3e 41 92 46 3e a3 54 69 be
       0.19189852 0.223312 0.19391729 -0.22786193
000090 9e f5 9c 3d 53 0b 9a bd 65 0d 0b 3e 7a 10 76 3e
       0.07664035 -0.07521691 0.13579328 0.24029723
0000a0 f1 be 0e bd ff 70 b3 bd e2 8d 46 3e 3c 7f 10 3e
       -0.034850065 -0.08761787 0.19390061 0.14111036
0000b0 20 cf 96 bd 04 e9 d8 bb 01 47 ca 3d 8f f0 29 3e
       -0.07363725 -0.0066195745 0.09876824 0.16595672
0000c0 e3 97 b2 bb ee d6 8c be af 30 00 be 2f b4 5b be
       -0.005450235 -0.27507728 -0.12518571 -0.21455453
0000d0 62 04 62 be fd 6f f1 bd 31 09 63 bd 6b ae fb bd
       -0.22071984 -0.11788938 -0.055428687 -0.12289127
0000e0 c2 75 8b 3d 66 1f 4e be 73 5c 4b be c7 2e 37 3e
       0.0680957 -0.20129165 -0.19859485 0.17888938
0000f0 63 ff 50 be 63 f2 7f 3e 63 06 e6 bb 63 bf 84 3e
       -0.20409922 0.24994807 -0.0070198043 0.25927266
000100 70 6d b3 bd 4f 10 1a 3e cb d2 95 3e 22 ab 16 be
       -0.08761108 0.15045284 0.29262385 -0.1471372
000110 41 5b 82 be 2c 7f d6 3d a7 0d 41 be a5 51 0c 3c
       -0.25460246 0.10473475 -0.18852864 0.008564387
000120 92 29 bc 3d 24 1f 77 3e e5 fd ef bd b7 71 05 bc
       0.091876164 0.24132973 -0.117183484 -0.0081447875
000130 c8 d5 4f be 5b cc 0f be 26 c9 65 bd 38 3e 12 3e
       -0.20296395 -0.14042799 -0.056100033 0.14281547
000140 b7 d3 80 3d 19 76 2d 3e 0d ad 98 bd e8 3e 2d 3e
       0.062903814 0.16939582 -0.07454882 0.16918528
000150 0e 02 93 3e 50 c5 2e 3e f1 4b 0f 3e ce e0 80 3e
       0.28712505 0.17067456 0.13993813 0.25171512
000160 c9 6b 8b be b0 12 7c be 4f 94 49 be 65 21 8a 3d
       -0.2723067 -0.24616504 -0.19685481 0.06744651
000170 3f c2 19 3e 46 4a 24 3d 1d 7b 89 bd d6 71 63 be
       0.15015505 0.040109895 -0.06712935 -0.22211394
000180 f9 cf 0a 3e 57 29 00 be 3d 7a e9 bd f1 82 6a 3e
       0.13555898 -0.1251577 -0.11400268 0.22901513
000190 21 51 1d 3e 98 c3 1a 3d 5e c3 74 3e 0c b1 6a 3e
       0.1536298 0.03778419 0.23902652 0.229191
0001a0 7f 74 85 3e fc cb 63 3e af ca 2c 3e 19 0e 6b be
       0.26065442 0.22245783 0.16874193 -0.22954597
0001b0 80 b2 2e 3d b8 d5 a0 be 36 95 2d 3e 59 69 ce 3d
       0.0426507 -0.31413054 0.1695145 0.10078687
0001c0 0c db dc 3d cc 00 24 3e 31 8f 42 be e0 71 6b 3e
       0.107839674 0.16015929 -0.18999936 0.22992659
0001d0 42 ff 12 3e b1 8b 95 be c6 ca 9f 3e 7a 37 1f 3e
       0.14355186 -0.2920814 0.3120939 0.15548506
0001e0 e4 47 55 be ee ea 61 be 93 c2 40 3e 4a 04 83 3e
       -0.20828205 -0.22062275 0.18824224 0.2558921
0001f0 04 ca bb bd 37 c3 e1 bc de 58 97 be 97 17 1b 3e
       -0.09169391 -0.027558906 -0.29559988 0.15145718
000200 30 30 86 3e 41 28 79 3d 95 71 69 be 61 59 60 3d
       0.2620864 0.060829405 -0.22797234 0.05477274
000210 f1 7a 4c 3e 01 b3 9e 3d d0 4f 4c 3e 9e 9c 32 3e
       0.19968773 0.07748986 0.19952321 0.17442557
000220 10 e6 6f 3b c2 d8 29 be 63 41 99 3d 1a bd 45 bd
       0.0036605634 -0.16586593 0.07483175 -0.048276044
000230 57 be c9 bd 90 0c 8d 3e 56 17 8e be 2d 62 68 be
       -0.098507576 0.27548647 -0.2775218 -0.22693701
000240 14 a0 0a 3e 8f 1c d8 3c df c2 fd bc 8a 57 0f 3e
       0.13537627 0.026380805 -0.03097671 0.13998237
000250 f0 22 7b bd f9 b4 2b 3e 69 54 08 3e 44 ae 87 3c
       -0.061312616 0.16768254 0.1331345 0.016562589
000260 90 6e 70 3d 43 f3 7b 3e db 21 61 be 2d 23 33 be
       0.05869919 0.24604516 -0.21985571 -0.17493887
000270 3a 81 4f 3d e3 28 fe 3d 63 88 46 3e 2f 9e 89 be
       0.05066035 0.12410142 0.19387965 -0.26878497
000280 f6 33 95 3e 29 12 f1 3c 19 32 71 be 69 f4 68 be
       0.29141206 0.029427605 -0.23554267 -0.22749485
000290 21 f0 13 be 02 fc 6c be b1 5e 2e 3e 22 a3 06 3e
       -0.1444707 -0.23143008 0.1702831 0.13148168
0002a0 0f fe 5d be 03 cd 92 3e 85 19 ad be b6 04 12 3e
       -0.21678947 0.28672037 -0.33808532 0.1425961
0002b0 b7 15 d2 3d a2 78 07 be 9d 64 c6 bc 24 17 36 3e
       0.10258048 -0.13229612 -0.024217898 0.17782265
0002c0 2a de 78 3e 60 67 b2 3b b5 f2 66 3e de aa 6b 3e
       0.24303499 0.005444452 0.22553523 0.230144
0002d0 5f e2 f8 3d 2d ed 00 3e 25 03 cd 3d 35 18 21 3d
       0.12152552 0.12590475 0.100103654 0.039329726
0002e0 c1 92 2a be a9 ff e2 bd 3c 38 75 3e 62 fa 53 be
       -0.16657545 -0.110839196 0.23947233 -0.20700982
0002f0 fd 53 1b 3e ad 69 89 3e c2 35 4c bd 62 e5 81 3e
       0.15168758 0.26838437 -0.049855955 0.25370318
000300 f0 de 61 be 1b 47 65 be 57 62 47 3e 06 80 a1 be
       -0.220577 -0.22390406 0.19471107 -0.31542987
000310 0a 90 ce 3d 43 31 71 3e 15 7c 91 3e 19 11 c1 bd
       0.10086067 0.23553948 0.2841498 -0.09427089
000320 31 8f 6e 3e c2 ad 80 be 9c 17 28 3e 50 53 33 be
       0.2329681 -0.25132567 0.16415256 -0.1751225
000330 35 2f 37 be 4b 7d 3e be a2 c5 87 3d dd 38 8f be
       -0.17889102 -0.18602483 0.06629492 -0.2797307
000340 4e de 37 3d 39 db 5a be b4 4d 22 be 72 61 4b bd
       0.04488974 -0.2137269 -0.15849954 -0.049653478
000350 90 00 4d 3d a8 f3 50 3e f9 6b 26 3e 69 83 45 3e
       0.050049365 0.20405447 0.16252126 0.1928841
000360 23 86 04 be 24 f4 9b bd 93 39 22 3c 7a d9 dd 3c
       -0.12941794 -0.076149255 0.009901422 0.02708124
000370 8b 15 42 3e b3 9f 44 be 29 b1 e9 bb 07 bc 3e 3e
       0.1895353 -0.19201545 -0.007131715 0.18626414
000380 ae 16 06 3e b0 f6 38 3d 0e 3c 40 3e 6c 64 3a 3e
       0.13094589 0.045157135 0.18772909 0.1820237
000390 97 ac 3d 3e 76 b9 5d 3e 88 55 30 3e 7b 0d 75 3e
       0.18522869 0.21652779 0.17220128 0.23930924
0003a0 30 b3 35 be b9 9f 7a be b4 c0 1e 3e 56 bf 56 3e
       -0.17744136 -0.24474992 0.15503198 0.20971426
0003b0 75 1f db 3d 3f 65 dd bd de b5 54 3e 5b d7 26 3e
       0.10699359 -0.10810327 0.20772502 0.16293089
0003c0 d7 56 30 3e d8 26 3c 3e 6d a0 a3 3e 9f 17 36 be
       0.17220627 0.18374193 0.31958333 -0.17782448
0003d0 78 9f 86 3e b6 07 89 be 64 59 1f 3e ae 0c 58 be
       0.2629354 -0.26763695 0.15561444 -0.21098587
0003e0 4d e4 53 3e 89 75 9d 3e 78 c0 48 3e de 04 94 3e
       0.20692559 0.30753735 0.19604671 0.28909963
0003f0 3a 77 20 bd d4 95 54 3e 24 70 3b 3d a6 a2 66 3e
       -0.039176203 0.2076028 0.045761243 0.22522983

a2c_network.actor_mlp.2.weight f4 [128, 256]
000000 f5 bb 29 3d 37 18 88 bd 27 fb fe 39 db fe a7 bc
       0.041439015 -0.066452436 0.00048633778 -0.020507267
000010 3a 03 3d 3d ea 86 9b ba 84 ce ef bd cb ed 1e 3e
       0.046145655 -0.0011865769 -0.117093116 0.15520398
000020 e6 37 38 3e 15 09 18 3e 67 de 5d 3d 50 e7 01 3d
       0.17990074 0.14847215 0.054167178 0.031714737
000030 30 e7 5f 3d f2 02 34 bb a1 65 8d bd 79 15 6d 3d
       0.054663837 -0.0027467576 -0.0690415 0.057881806
000040 45 69 c8 3c f8 f0 80 3d b5 44 8c 3d 2e 47 10 be
       0.024464259 0.06295961 0.06849042 -0.14089653
000050 6a fb 4d bc 93 c8 84 3d c5 c7 c7 bd ca ce 8f 3b
       -0.012572149 0.06483569 -0.097549 0.004388665
000060 16 aa 11 bd b4 2f 1e 3e 47 04 98 3d 88 39 54 3d
       -0.035562597 0.15447885 0.07422691 0.05181268
000070 47 05 6c be 7c 14 2e bd ac d6 86 be cb 1a ca bb
       -0.23048888 -0.042500004 -0.26335657 -0.0061677448
000080 21 0b 4c bc b1 29 1f 3d 93 ed cf 3b 82 d9 43 bd
       -0.012453825 0.03885812 0.0063454597 -0.047814853
000090 36 fe 13 3a a7 e0 0a 3e 38 96 60 be 26 b2 1c 3d
       0.00056454854 0.1356226 -0.21932304 0.038255833
0000a0 17 32 94 bc 1c 86 79 3d bf bf 3b 3d 04 a2 86 3c
       -0.018090291 0.060918912 0.04583716 0.016434677
0000b0 ec 67 9c 3d 9b d4 87 bc f0 41 3d 3c 33 73 f6 ba
       0.07637009 -0.01658087 0.011551365 -0.0018802643
0000c0 64 71 80 bc 07 2a 0a bd 22 2e 1a 3d 20 71 f4 3c
       -0.015679069 -0.033731487 0.037641652 0.029839098
0000d0 9e 5e 2a 3c 04 2e 46 3d ae 14 c0 3b 3e 60 8c bd
       0.010398535 0.048383728 0.00586184 -0.06854294
0000e0 f5 f8 11 bd b0 5a 69 bd a7 b5 8d 3d d2 5b 57 bd
       -0.035637815 -0.056971252 0.06919413 -0.0525778
0000f0 89 a3 b4 3c f6 e4 28 3c 8e 5a a2 3d 9b c0 3a bd
       0.022050636 0.010308495 0.07927428 -0.04559384
000100 96 1e 32 be f5 e5 50 3e ce 83 c5 bc 3c 6a 11 3d
       -0.1739448 0.20400222 -0.024110701 0.035501704
000110 7b 58 a7 3b 35 d8 2a bd 58 45 99 3c c5 59 c4 3d
       0.0051069832 -0.041710097 0.018709823 0.09587435
000120 6a e1 e6 3d 7c e3 49 3c dd 66 2d bd ab 9b e2 3c
       0.11273463 0.012322303 -0.042334426 0.027662119
000130 d5 fd 8d 3c 27 7e 64 3c 9c 24 86 bc ae 9a c7 bd
       0.01733295 0.013946093 -0.016374879 -0.097463
000140 19 9b ef bd 5e ed 8d bb aa 6f a0 3d 63 69 e7 3c
       -0.116995044 -0.004331275 0.07833798 0.028248494
000150 c2 4e 8d 3c 84 21 1d be 66 41 51 bd 6e d8 39 bd
       0.017249469 -0.15344816 -0.05108776 -0.04537242
000160 99 c7 b1 bb 90 20 c2 bd c5 c3 86 3b cb 00 78 bd
       -0.005425405 -0.09478867 0.004112693 -0.06054763
000170 be b1 73 3c 3e f4 06 3d b8 e7 1d 3d 65 c1 82 3c
       0.01487392 0.03294777 0.038551062 0.015961358
000180 e9 a2 de 3c f4 e3 d9 bd 0b 15 0d 3d 27 3b 35 bd
       0.027177291 -0.10639182 0.034443896 -0.044245865
000190 fb 6f 0e 3a 87 c2 0e be 4e 23 25 3c 58 e1 86 bb
       0.00054335565 -0.13941394 0.010079218 -0.0041162185
0001a0 55 7f 7e 3b 06 45 8d bd ea c4 d2 3c 1b fd 69 3c
       0.003883322 -0.06897931 0.025728662 0.014281536
0001b0 df 64 4e be e7 16 76 3d 2d de df 3d 31 b1 29 3d
       -0.20155667 0.060080435 0.109310485 0.04142875
0001c0 90 c9 d1 3d 6e 68 1e 3e 38 6a ba 3c 9a 05 cb 3d
       0.10243523 0.15469524 0.022755727 0.09913178
0001d0 fa 80 69 bd c1 24 37 3e 05 e1 14 be 33 64 ee bd
       -0.057007767 0.17885114 -0.14538963 -0.11640205
0001e0 90 b7 53 3a 50 ed 25 3d ac dc b5 3d d7 41 80 3b
       0.0008076364 0.040509522 0.088799804 0.0039140987
0001f0 6f e2 0d be f0 9b bd 3c cd 2f 4b 3d a8 a6 49 3d
       -0.13855909 0.023145646 0.049606133 0.0492312
000200 09 6c ca 3b ed b3 0e 3d 30 77 f4 3c ef 6f 7e bd
       0.0061774296 0.03483956 0.02984199 -0.062118467
000210 91 34 29 bd 98 44 e9 3b bb 0a e0 3c e8 bf 9f 3d
       -0.041309897 0.0071187727 0.027348867 0.07800275
000220 fe d5 60 bc f8 f7 fe 3c 51 76 fe bc a4 72 2b be
       -0.013722895 0.0311241 -0.031062277 -0.1674295
000230 6e 5c c5 bd 74 36 ac bd 25 43 86 3d d2 b5 10 bd
       -0.0963677 -0.084088236 0.065557756 -0.035329647
000240 b0 3a 49 3d 55 3a 09 3e 5a 5e aa bd bc 82 4b 3b
       0.049128234 0.13401158 -0.083187774 0.0031053266
000250 a5 75 18 bd 12 96 aa 3d 3f 0e 8d 3c a5 b5 1f 3d
       -0.03722157 0.08329405 0.017218707 0.03899159
000260 87 b5 05 3e e7 7e 4b 3d 82 20 d4 bd f6 2f 85 3d
       0.13057528 0.04968157 -0.10357763 0.065032884
000270 25 7b 26 3d 2c 33 ec 3b 25 68 00 be 18 d9 45 bd
       0.040644784 0.0072082486 -0.12539728 -0.04830274
000280 93 eb d8 bd b2 5c 8b 3d 08 fe fe 3c 1f 4c a9 bb
       -0.10591807 0.068047896 0.03112699 -0.005166545
000290 eb 77 06 be 8c d2 54 3d 33 11 1c bb a0 b4 58 3c
       -0.13131683 0.051958606 -0.0023813962 0.013226658
0002a0 ad ea 93 bb 40 10 15 bc 10 fe 77 3d d3 a4 84 3c
       -0.0045140595 -0.009098113 0.060545027 0.016191876
0002b0 8c db c3 3d fa ce 21 3d 4f d0 d1 3b e2 13 4d 3c
       0.095633596 0.03950403 0.006403006 0.012516947
0002c0 26 24 dc bc 95 15 3c 3e d5 a9 b9 3d ad dc d6 bb
       -0.026872706 0.18367608 0.09065596 -0.0065570683
0002d0 44 a0 8e 3d 9b 9d 4a be 4e 8c 25 bd 2f 77 27 3d
       0.06964162 -0.19786684 -0.040417008 0.040885147
0002e0 2d fa 7d 3d b2 86 da bd 53 23 86 bc 52 ce 9d 3c
       0.062006164 -0.10670222 -0.016374266 0.01926342
0002f0 a9 7a e7 bd 1c aa cc 3c e3 4c 63 bd 2f a7 a5 bd
       -0.113026924 0.024983458 -0.055493247 -0.08088528
000300 05 f8 b0 bd 6b 7e 69 3c 68 fb 85 bd 4b 30 8d 3c
       -0.08641056 0.014251332 -0.065420926 0.017234942
000310 11 32 01 be 54 27 61 bd 32 5c e4 bc 57 f0 96 3c
       -0.12616755 -0.054969147 -0.027875993 0.01842515
000320 22 4a 8b 3d 78 a1 24 bd 17 b4 05 bd 8e cb ce 3c
       0.06801249 -0.04019305 -0.03264245 0.025243547
000330 85 d8 e0 3c ff 7c 74 3d b9 e6 9f bd 0e 5b 3b bd
       0.027446995 0.059689518 -0.07807679 -0.045741133
000340 4c 55 11 be 63 80 14 bd 6e f4 26 3c d4 2e 3f 3e
       -0.14192694 -0.03625525 0.0101901125 0.18670207
000350 8b 9c d2 bd a2 7b d2 bc 65 74 17 3d b8 5e fe bb
       -0.102837645 -0.025693718 0.036976237 -0.007762756
000360 05 13 e0 bd 1f 8d 85 bd 12 b6 a9 bd ae fd 41 be
       -0.10941128 -0.06521057 -0.0828668 -0.18944427
000370 47 54 15 bd 88 f1 b2 bd 3f 92 5f 3c ad a3 ef bc
       -0.036457326 -0.08737475 0.013645708 -0.029252851
000380 02 0c ad 3d af 09 df 3d 9c c0 90 bd 84 db 1a 3d
       0.08449556 0.10890519 -0.07067987 0.037807003
000390 bd 9b 87 3e c2 b4 87 bd 71 56 84 3c 12 2b 31 3b
       0.26486006 -0.06626274 0.0161545 0.0027033729
0003a0 b8 d3 0a 3d 15 a1 0f 3b cc a3 c4 3d 04 9a cf bb
       0.033893317 0.002191608 0.09601554 -0.0063354988
0003b0 9b 8f af 3d b9 56 7b 3d e0 a7 c2 bd 11 8b f7 3c
       0.085723124 0.061362002 -0.09504676 0.03021768
0003c0 0d b0 e6 3c 9b e3 94 bd 9b 05 19 3b 84 68 de bb
       0.02816012 -0.07269975 0.0023349288 -0.0067873616
0003d0 db 7e 2d bb 26 30 b1 3c a2 e9 4e bc 3e df cb bc
       -0.0026473317 0.021629404 -0.012628945 -0.024886724
0003e0 5d bf 63 bc 8c 85 e4 bc 0f fd fc 3c d3 e5 8b 3d
       -0.013900605 -0.027895711 0.030882386 0.06830945
0003f0 1d fe c5 3d c0 bc 5a 3d 36 8c 00 bd 63 4c 8c bd
       0.09667609 0.053402662 -0.031383716 -0.06850507

a2c_network.actor_mlp.2.bias f4 [128]
000000 f1 9c ec bc da 76 07 3c 2b 65 d5 bc 22 b5 7f 3d
       -0.02888343 0.0082680825 -0.026049217 0.0624286
000010 d1 4a 09 bc df 7a f6 3c 60 9e f0 bd ae cd 23 bd
       -0.008379654 0.030087886 -0.11748958 -0.039991073
000020 d5 69 ee 3c b1 f9 09 3c a8 9c 20 3d 69 11 ed 3d
       0.029103199 0.0084213475 0.0392119 0.11575586
000030 52 29 6c bd 3a 49 64 3d f1 90 3d 3d c4 10 1a bd
       -0.057656594 0.055733897 0.046280805 -0.037613645
000040 e5 b5 af 3c 0b b0 4c bd 0e 27 d0 bd 14 e2 d8 bd
       0.021449039 -0.049972575 -0.10163699 -0.10589996
000050 4b 12 d3 3c 69 cf 44 bd 8b 58 dc bd 64 bb c6 b9
       0.025765559 -0.048049364 -0.10759076 -0.0003790512
000060 5d f5 80 3d 28 f9 a3 3d 34 a5 4b bd 85 cd 14 3d
       0.06296799 0.08006507 -0.049718097 0.03632881
000070 fb b2 69 3d d3 6a b7 bb ec 25 2e bc a6 da ca bb
       0.057055455 -0.0055974512 -0.0106291585 -0.0061906157
000080 bc 64 1b bc c4 f3 a4 3c c8 f3 80 bd 0b 6c 57 3d
       -0.009484466 0.020135768 -0.062964976 0.052593272
000090 68 8e 12 bd 17 a1 1e 3d f5 e7 5d bd 14 83 ef bc
       -0.03578034 0.038727846 -0.05417629 -0.029237308
0000a0 36 33 38 bc 6e 20 8a 3c ea 1f 66 bd 39 78 08 3e
       -0.011242678 0.016861167 -0.05618278 0.13327111
0000b0 c8 df af bd 26 62 23 bd f0 ab ab bd 97 5b 7a bd
       -0.08587605 -0.039888524 -0.08382404 -0.061122503
0000c0 22 8b 01 bd e9 b0 90 3c 96 0a 97 bd 36 bf 0f 3d
       -0.031626828 0.017662482 -0.07375066 0.035094462
0000d0 32 76 6a bd 5b a8 ae 3b bd 94 28 be 02 87 3f bd
       -0.057241626 0.005330128 -0.16462989 -0.046759613
0000e0 e4 ab 12 bd 9c 30 f0 bd a7 0f 10 bd 10 cc a8 bc
       -0.03580846 -0.117280215 -0.035171177 -0.020605117
0000f0 5d a8 a2 3c 04 89 16 3d 7c 3c e0 bc 1e b2 a6 3d
       0.019855672 0.036751762 -0.027372591 0.08139442
000100 ea a9 c6 bd 7f b9 e5 3c d1 e4 75 bd b7 f0 33 bd
       -0.09700377 0.028042553 -0.06003267 -0.043930735
000110 28 92 e5 bd 9a 87 01 bd 61 9a 53 bd 0d 5f c4 bb
       -0.11209518 -0.03162346 -0.0516609 -0.0059927762
000120 b6 e7 5b bd f2 cd 46 bd 13 fe 0a 3e f5 dd e2 bd
       -0.053687774 -0.04853625 0.13573484 -0.11077491
000130 ec b3 5c bd 29 5d e2 bd cb f9 81 bd 82 aa 03 3d
       -0.053882524 -0.11052925 -0.06346472 0.03214503
000140 db 0a 8b bd f2 fa 0d 3b 75 9d 92 bd cd 24 ba bb
       -0.0678918 0.0021664468 -0.07158939 -0.0056806565
000150 57 b9 86 bd 2a 96 76 3d 5e fc 1f bd 0c 04 5e 3d
       -0.065783195 0.0602018 -0.039059035 0.05420308
000160 41 3d 87 3a a0 07 08 3e cc da 36 bd 98 2c 5c bc
       0.0010317938 0.13284159 -0.044642255 -0.013438366
000170 9a f8 3d 3d 62 0a f7 3c d7 c7 51 3c ee 7a 5a bd
       0.046379663 0.030156318 0.012803993 -0.05333989
000180 59 42 0c bc e2 42 d7 bd f4 5e 8e bc c8 38 91 bd
       -0.00856074 -0.10510804 -0.017379262 -0.07090908
000190 1e 31 08 3e 1b 92 fc bd 32 db 0b bc 7d ca 94 3c
       0.13299987 -0.12332555 -0.008536147 0.01816296
0001a0 0b 92 25 bd 1e af 8a bd 01 d5 11 bd c6 19 3b 3d
       -0.04042248 -0.06771682 -0.035603527 0.045678876
0001b0 fe 8f e8 bd fa 72 e7 bc 82 10 2e be c2 4c 1c 3d
       -0.11355589 -0.028253067 -0.16998485 0.03815914
0001c0 a8 2a be 3d 2c f8 71 3d 16 1a a0 bc 17 36 b4 ba
       0.0928548 0.059074566 -0.019543689 -0.001374903
0001d0 b8 70 0f bd 36 ab 97 3c b2 b0 85 3c 68 9f 31 bd
       -0.035019606 0.018514257 0.016319606 -0.043364912
0001e0 ac 46 aa 3d 6d 6b 50 bc a3 88 b8 bd 05 03 bc bd
       0.08314261 -0.012720925 -0.090104364 -0.091802634
0001f0 fe 0e 00 3d bf c6 53 bc ad 95 c7 3d ee d2 18 bd
       0.031264298 -0.012925803 0.09745345 -0.037310533

a2c_network.actor_mlp.4.weight f4 [128, 128]
000000 dd a7 8f 3d a3 b6 30 bd 97 29 f1 bd 4f b3 7c bd
       0.07014439 -0.043142926 -0.11775511 -0.06169444
000010 86 8a 6d bd d9 92 f4 bd 23 6d af 3c 0a eb f2 bd
       -0.057993434 -0.119420715 0.021414345 -0.118612364
000020 91 e7 a6 3c ea 4f ac bd 1b 5f b1 3d 32 24 14 3d
       0.020374091 -0.0841368 0.08660718 0.03616733
000030 9b ae 97 bb 98 8a 94 bd 8d 93 9e 3c f5 f4 d5 bd
       -0.004628969 -0.07252997 0.019357467 -0.104471125
000040 60 36 e5 3d f7 d7 35 bc 7f 8f e9 3c c7 82 9b bc
       0.11192012 -0.011098853 0.028510807 -0.018983258
000050 22 a2 f4 3d 90 43 be 3d 85 18 88 3d 5d 51 b9 3d
       0.11944987 0.0929023 0.06645302 0.09048722
000060 10 d1 43 3d a9 d5 6a bc bc 1e 8c bd 74 10 02 3d
       0.0478068 -0.014333167 -0.068417996 0.031753972
000070 19 b2 83 bd ce 41 c6 3c ec 1c 93 3d d9 98 a9 bd
       -0.06430454 0.0242013 0.07183251 -0.082811065
000080 4c 5d d4 3d 71 b9 4b bc 61 14 ef 3d 2f 4e b4 3c
       0.103693575 -0.012434349 0.11673809 0.022009937
000090 ff 85 4b 3b 2a 6c b0 3b ff 5a ac bd bd 94 6e 3d
       0.003105521 0.005383988 -0.08415794 0.058247317
0000a0 99 6f 03 be 45 54 1c bc 6b f1 89 bd 39 d0 8f bc
       -0.1283554 -0.009541576 -0.067355 -0.017555343
0000b0 50 7e d7 ba 24 57 9f bb 31 b2 ad 3d af 15 1d bd
       -0.0016440842 -0.004862683 0.08481253 -0.038350757
0000c0 be 53 d0 3d d1 e3 c1 bb 2e 2e 4f bc ff 28 9f 3d
       0.101722226 -0.0059170504 -0.012645287 0.07771491
0000d0 8c 78 ea 3d 86 c4 05 bc da a2 b8 3c b8 86 bc 3b
       0.11448774 -0.008164531 0.022538591 0.0057533644
0000e0 c5 9b f1 3d c8 ce 95 bc 51 b2 9f bd 64 08 47 bd
       0.11797289 -0.018287078 -0.07797683 -0.048591986
0000f0 10 13 1c bd 63 ec ac 3c 3f 04 e5 bd 23 3c 4b 3d
       -0.038104117 0.021108812 -0.111824505 0.049617898
000100 9c 2c 0c bd 78 aa 4a 3d 6b e2 76 bd da b1 b4 bd
       -0.03422223 0.049478978 -0.060274523 -0.08822985
000110 1b 32 9a bc 95 83 48 bd 09 74 ae 3c 58 86 b7 bd
       -0.01882272 -0.04895361 0.021295564 -0.08961171
000120 4b 0e 68 bc b3 99 2b 3d e1 2b 4c be de b7 1e be
       -0.014163564 0.041894626 -0.19938613 -0.15499827
000130 75 25 e3 3b 7d 09 b3 bc 0f 17 13 3d 16 42 f5 3d
       0.0069319555 -0.02185511 0.035910662 0.119754955
000140 81 86 7e bd 91 87 a3 3b 08 6d 28 3d 8f 39 7b 3d
       -0.06213999 0.004990526 0.041119605 0.06133419
000150 63 9f b3 3d 56 a2 8b 3c 93 2d b1 bd 7d d5 04 be
       0.08770635 0.017045181 -0.08651271 -0.12972064
000160 b5 83 79 bd f2 6b d5 bd 37 ff ad 3d 66 82 9a ba
       -0.06091662 -0.104209796 0.08495944 -0.0011788129
000170 92 69 15 bc 5b 5c 2c be ab f3 b4 bd e8 7a b3 bc
       -0.009119408 -0.16832106 -0.088355385 -0.021909192
000180 02 02 8a bc 00 e4 ff bc 3e cf 5e bc b8 2d 80 bd
       -0.01684666 -0.031236649 -0.013599215 -0.0625872
000190 be 86 b5 3d 0e 77 80 3d fb 2c 28 3d 22 0f 6f 3d
       0.08863591 0.06272708 0.04105852 0.05836404
0001a0 05 d7 ca 3d 77 ba 5a 3d 75 e2 16 bd f7 36 c1 3c
       0.09904293 0.053400483 -0.03683706 0.02358578
0001b0 39 3a d4 3c 22 a0 d3 3d 73 d7 ef bc 4c 89 71 bd
       0.025906669 0.10333277 -0.029277539 -0.058968827
0001c0 73 24 18 3d 51 3a 0d 3e c1 c5 d3 bd ac a8 0c 3d
       0.037144136 0.13791777 -0.10340453 0.034340546
0001d0 53 2a 55 3d 26 51 d4 3c c6 01 e4 bd aa 06 f7 bd
       0.052042317 0.0259176 -0.11133151 -0.12061818
0001e0 7e 59 8f bd d2 80 26 3b ec 6d 47 bd 22 1b bf 3d
       -0.06999491 0.0025406373 -0.048688814 0.09331347
0001f0 42 a3 cf bc d5 32 6e bd 69 8b 26 3d 41 5c fd 3c
       -0.025346402 -0.058153946 0.040660296 0.03092778
000200 fd 40 6c 3d d7 41 a2 bc 4f c7 d3 3c a0 c6 1a 3e
       0.057679165 -0.019806786 0.025851874 0.15114832
000210 8a 84 35 3c 82 ba 84 bd 5f 6f 5d 3d 18 d7 84 3c
       0.011078963 -0.06480886 0.05406129 0.016215846
000220 31 0c 0e 3d 2a af 69 3c b4 f8 16 3d d0 1c 3a 3d
       0.034679595 0.014262954 0.036858276 0.045437634
000230 0b 96 5d 3e 97 3c 4f bd 39 f2 1b be bc 77 cb bd
       0.21639268 -0.050594892 -0.1522912 -0.09934947
000240 49 e0 52 3c 2b bc a1 bb e6 e2 fa bb 0b 00 7c bc
       0.012870857 -0.0049357614 -0.007656443 -0.01538087
000250 9f f8 e9 bc 27 68 c7 3d 18 86 b0 bd 1a ba 7d bc
       -0.028560935 0.09736662 -0.08619326 -0.015486265
000260 e0 89 e9 bd 37 00 d1 bd ab 97 a2 bd 11 7a dc 3c
       -0.11403251 -0.10205119 -0.079390846 0.026913675
000270 0a 38 03 3c 77 80 27 bd 07 dd 1f 3e eb 3c 21 be
       0.008008966 -0.040893998 0.15611659 -0.15745895
000280 85 4d 8e 3d 26 4f 40 bd 59 97 4d 3e 73 f0 16 be
       0.069483794 -0.04695048 0.20077266 -0.14740162
000290 22 27 0d 3d 24 e2 4d bd 65 81 c0 3d 8b 6a 18 be
       0.034461148 -0.050264493 0.0939968 -0.14884393
0002a0 fe 69 1f bd ae 1f 42 3d 98 79 17 3d 38 48 42 be
       -0.03891944 0.047393493 0.036981195 -0.18972862
0002b0 7c a2 b4 bc 9a a3 bc bc a5 7d d5 3d 37 0b 1c be
       -0.022050135 -0.02302723 0.104243554 -0.15238653
0002c0 8e b2 09 3e cd 11 ef 3d 80 56 1f be b7 28 ea bc
       0.1344702 0.11673317 -0.15560341 -0.028583867
0002d0 fe f9 fc 3d b1 ad 26 3e 90 52 60 3d 64 c2 80 3d
       0.1235237 0.16277196 0.054766238 0.06287077
0002e0 b9 61 8c bd bc b9 c6 3d a7 58 dc 3d d6 25 70 3c
       -0.068545766 0.09703395 0.107590966 0.014657458
0002f0 96 f9 ae bc c9 f3 3d 3d ea 94 30 3a 7d 36 1e bd
       -0.021359246 0.04637507 0.0006736057 -0.038626183
000300 0a 6f 3b bd 14 a0 c8 3d e1 65 2a ba 00 6c 89 3d
       -0.045760192 0.097961575 -0.00065001665 0.067100525
000310 4b ab 0e bd b5 be 83 bd 4e 1b 38 ba d0 5c be 3d
       -0.034831326 -0.06432859 -0.00070231117 0.09295046
000320 e8 ef e0 3d 82 4e 42 3d 94 8c 9e 3d 4a 8f e7 3d
       0.109832585 0.047438152 0.07741657 0.11306627
000330 e4 1b 15 bd 0e ff e3 3d 87 0a 1f be c2 24 80 3d
       -0.03640355 0.11132632 -0.1553136 0.06257011
000340 78 2b 83 bd 76 54 b6 bd ca e1 01 3d 9a 3c 06 3d
       -0.064047754 -0.089028284 0.03170947 0.032772638
000350 50 66 27 3d 16 13 ce 3d 91 6b 09 3e d2 73 fd bd
       0.040869057 0.10062234 0.1341994 -0.123756066
000360 3d a2 0f 3d d3 b8 d2 bd 86 90 32 3e 2d 4f b9 bd
       0.03506683 -0.10289159 0.17437944 -0.09048305
000370 54 40 46 bd ad 84 d4 3c d5 90 a8 bd 89 de 6c bd
       -0.04840119 0.025942171 -0.082307495 -0.057829414
000380 a6 73 a8 3d 70 60 02 be f9 d4 0a be 93 25 4c 3e
       0.08225183 -0.127321 -0.13557805 0.19936208
000390 16 4d b1 3c 4c dd d3 bd 3d fe f1 3d b8 ad 0e be
       0.021643203 -0.103449434 0.1181607 -0.13933456
0003a0 0d 5b e0 bc d4 d3 10 3e 56 89 d2 3d 27 bc a8 3d
       -0.027387166 0.14143306 0.10280101 0.08239012
0003b0 64 cd b4 bd ae 4a 84 bd 08 25 1b bd 6f 79 c7 bd
       -0.08828238 -0.064595565 -0.037877113 -0.097399585
0003c0 a1 74 18 3e 52 87 9b 3d e0 9a 32 bd 40 bc d0 3d
       0.1488824 0.0759417 -0.04360473 0.10192156
0003d0 a6 ba 98 3c 98 73 b0 3c 9b 92 56 bd fb 48 6a be
       0.018643688 0.021539494 -0.052385908 -0.22879402
0003e0 15 1c 4a bd 9f 3d 65 bc 32 12 d5 bd 01 86 fe 3d
       -0.049343187 -0.013991742 -0.10403861 0.12427903
0003f0 2e 75 43 bc c8 50 d4 bd 60 5b 5a 3d 21 5c 32 be
       -0.011929793 -0.1036697 0.0533098 -0.17417957

a2c_network.actor_mlp.4.bias f4 [128]
000000 17 54 c6 3c 4b 9d a4 bc 48 58 d3 3b a2 14 cb bc
       0.024210019 -0.020094534 0.006449733 -0.024790112
000010 48 23 94 bc c7 37 9c 3b 8c b8 28 bd 43 0b 51 bd
       -0.01808323 0.0047673914 -0.041191623 -0.05103613
000020 d0 a7 ac 3b f5 92 99 bd 0f 24 dd bc d6 ce 7a 3c
       0.0052690282 -0.07498733 -0.026994733 0.015308103
000030 ed 3d a9 bc f5 b2 e7 bc 36 d6 43 bc 97 9f 3b bc
       -0.020659411 -0.028283576 -0.011952927 -0.011451623
000040 b4 95 89 bd 4a 8a bf 3c 9a 88 86 3b e9 3f b7 3c
       -0.06718007 0.023381371 0.0041056396 0.022369342
000050 72 f1 5a bd 51 1f 37 bd 93 e9 44 bd a0 16 cc bc
       -0.053452916 -0.0447076 -0.048074316 -0.024913132
000060 74 19 4e bc 9a 94 ad 3c 3f 6a de bc 25 19 0a bc
       -0.012579311 0.021189023 -0.027150271 -0.0084288465
000070 5e 9f c6 bc 35 ad b4 bc 09 4a 04 3c 39 24 f6 bc
       -0.024245914 -0.022055248 0.008074292 -0.03004657
000080 bb e9 31 3c 11 19 bf bd 60 e4 c6 bc 11 58 5c bd
       0.010858948 -0.09330953 -0.02427882 -0.053794924
000090 bb da 0c bd 4e 72 bf bd f0 0c b0 39 c7 3c 96 bd
       -0.034388285 -0.09347974 0.00033578975 -0.07335811
0000a0 5a 25 13 bd 9e b2 9d bd e4 7e 07 be cd 8a 40 bd
       -0.035924293 -0.07700084 -0.13231999 -0.04700737
0000b0 8a 24 46 3c d7 8a 0b bd 5b 99 45 bd b9 04 67 bc
       0.0120936725 -0.034067955 -0.048241954 -0.014100247
0000c0 7a 4d f5 3b df 93 ae bc ab 4a 8e bd 3e 31 f5 bc
       0.0074860426 -0.021310745 -0.069478355 -0.029930707
0000d0 09 40 6e bd e3 67 d0 bd 82 18 e3 bc c7 72 c4 bc
       -0.058166537 -0.10176065 -0.027721647 -0.023980511
0000e0 ee b9 93 3c a5 8b 92 bd e5 3d 50 3c 5b 19 63 3c
       0.018032994 -0.07155541 0.012710069 0.013861026
0000f0 ee ac b3 3b 17 4a 4e bd ef 53 9c bb 07 e9 15 bd
       0.0054832613 -0.050363626 -0.004770748 -0.036599185
000100 81 2f 16 bd ec 04 b0 3b a9 5b 29 bd 51 12 1e bd
       -0.036666397 0.0053716805 -0.04134718 -0.038591687
000110 b1 96 bf bc 0c e8 95 bc 40 46 bf bc 21 22 d0 bc
       -0.023387285 -0.018299125 -0.023348927 -0.025406899
000120 29 82 0d bd 20 21 99 bb bd a1 de bd 21 a4 2b 3d
       -0.03454796 -0.0046731383 -0.10870693 0.041904572
000130 0d 12 06 bd 18 fc 63 bc 2c 60 42 bd a1 12 a6 bc
       -0.03273206 -0.013915084 -0.047454998 -0.020272555
000140 31 b2 9f bc 11 f0 fc 3b 3c 6b fb 3b 98 f2 f7 bc
       -0.019494148 0.007719048 0.0076726954 -0.030267045
000150 74 73 dd b9 d6 25 f4 bc a7 31 34 bc 33 c2 29 bc
       -0.00042238424 -0.029803198 -0.010998166 -0.010361242
000160 e7 47 74 bd d4 36 9f bd 7c f4 83 3c cf 90 d6 bd
       -0.059638884 -0.077741295 0.01610779 -0.10476839
000170 7b bd f8 bc 33 51 b4 bc d7 5e 8f bd 04 31 3a bd
       -0.030363789 -0.022011375 -0.07000511 -0.0454569
000180 8c 96 21 3d ea 8a d3 bc 6c 12 c6 bc 29 73 b2 bd
       0.039450213 -0.025823075 -0.024178706 -0.08713371
000190 16 24 85 3d 72 f6 aa 3b d6 7b c3 bb b5 8a ad 3c
       0.065010235 0.005217367 -0.00596569 0.021184305
0001a0 b6 ae a4 bd 53 1b 4b bd d3 2b ce bd 42 62 b8 bc
       -0.08041136 -0.049586605 -0.100669526 -0.02250779
0001b0 35 a9 42 3d c8 5b 92 bb 8c 66 43 bc 14 c2 16 bd
       0.04752465 -0.0044665076 -0.011926305 -0.03680618
0001c0 e7 21 43 bb 07 ec e8 3b 94 43 13 bd 3c 93 d0 bc
       -0.0029774846 0.007108215 -0.03595312 -0.025460832
0001d0 26 93 1b bd 27 46 09 3c b6 5a 55 bd 6f 51 17 bc
       -0.03798213 0.008378542 -0.05208846 -0.009235724
0001e0 d4 ad 5e bd 98 4a 66 bc 6a da cd bc e7 49 c6 bc
       -0.054364994 -0.0140558705 -0.025128562 -0.024205161
0001f0 5a 51 c4 bb 40 21 57 bd 79 e5 73 3c 6f c0 85 bc
       -0.005991143 -0.052521944 0.0148862535 -0.016327111

a2c_network.value.weight f4 [1, 128]
000000 ba dc aa 3c be a3 cc bc 1e 9e 61 3c e0 d8 0c bd
       0.020857204 -0.024980422 0.013770608 -0.034386516
000010 ba dc 37 bc 62 c6 76 3d 2d 5d 31 bd f8 ec fe bc
       -0.011222059 0.060247786 -0.04330175 -0.031118855
000020 08 88 10 3d 1a f7 6a 3d 5f bb 83 bc e5 17 84 bd
       0.03528598 0.05736456 -0.016080556 -0.0644987
000030 8a 4a e0 3b 14 23 06 3d 8a f0 a0 bc 36 0d 1c 3d
       0.0068448232 0.032748297 -0.019645948 0.038098536
000040 d5 36 11 3e c2 67 82 bb 27 47 09 bd 51 82 69 bd
       0.14181073 -0.003979654 -0.03351512 -0.057009045
000050 c2 33 10 3c 95 90 e5 3c b9 be 22 3c 39 bd 2f bc
       0.0088014025 0.028023044 0.009933167 -0.010726267
000060 2f 51 2f bc 94 1e 25 be ac 95 fb 38 c6 6b 9e bd
       -0.010700508 -0.16124946 0.00011996491 -0.077354
000070 3f 49 a4 3c f6 79 2b bd 5d aa b2 3c 7f ac ec 3c
       0.020054458 -0.041864358 0.021809751 0.028890846
000080 fc c7 3c bd 2d f4 d5 3d df 7b 77 ba e1 ba 6d bd
       -0.046089157 0.104469635 -0.00094407605 -0.05803955
000090 7f 08 14 3d 38 0c 87 3b 0b 0e 40 3d 4b bb b0 3d
       0.036140915 0.0041213296 0.046888392 0.08629473
0000a0 88 dc 39 bc b2 13 34 bb cf e2 63 3b 84 43 26 3d
       -0.011344083 -0.002747756 0.003477264 0.04059173
0000b0 20 25 f6 ba 63 04 3f bc 7c a9 6a 3d 22 1c 0d 3c
       -0.0018779375 -0.011658761 0.05729054 0.008612664
0000c0 af bc 58 bc ab 68 c6 3b 8c 25 1d 3d b0 90 5c bc
       -0.013228579 0.006054958 0.038365886 -0.013462231
0000d0 eb 0b 53 3d 12 ca 2e 3d ed f9 65 38 ad 16 3c bd
       0.051525038 0.042673178 5.4830616e-05 -0.045920063
0000e0 bd 6c 14 bb 4c 51 d6 bb 25 e9 83 3c 18 a9 8b 3c
       -0.002264782 -0.006540453 0.016102383 0.017048404
0000f0 60 09 5b bc cb 5a a5 3d 31 dd 3f 3c 6c a1 af bb
       -0.013368934 0.08073958 0.011710451 -0.005359819
000100 18 19 f2 bb 58 ee 09 bc 58 61 f3 3d e7 18 5e 3d
       -0.0073882453 -0.008418642 0.11883801 0.054222967
000110 bb 76 34 bb 9b a2 5e 3b 86 0c fc 3c 96 ac 7b 3b
       -0.002753659 0.0033971432 0.03076769 0.003840243
000120 af a1 ab 3d 37 d6 37 3c 94 46 33 3c f1 bd cd bb
       0.08380448 0.011220506 0.01094212 -0.0062787463
000130 16 b0 da b9 da e4 0e 3e 2b 9c e1 3b 29 27 e2 bb
       -0.00041711394 0.13954487 0.0068850718 -0.006901641
000140 ce 0f 8a 3d 2e 0d 0e be 97 2f b6 3c 74 27 ff bc
       0.06741296 -0.13872215 0.02223949 -0.031146742
000150 f4 4a 92 bd 71 88 f2 bc 26 7d 45 3b 46 67 ae bc
       -0.071432024 -0.029606076 0.0030134409 -0.021289479
000160 d2 c1 f5 3c d2 41 78 ba 1d 89 83 3c ce 17 71 ba
       0.029999647 -0.0009470257 0.016056592 -0.00091969676
000170 6a 1d 16 3c 33 b4 ba bc 46 5a ea 3c f8 48 2e bd
       0.009162286 -0.022791004 0.028607499 -0.042550057
000180 e9 bb 25 bd 4b e3 7f bc 27 63 6e 3c 57 9e a0 bc
       -0.04046241 -0.015618156 0.014550007 -0.019606752
000190 5f 87 c4 bd 06 b3 04 bc db 2d 82 bc 34 4a c7 3c
       -0.095961325 -0.008099323 -0.015891006 0.024327375
0001a0 03 ac b3 bb 9d 5c 67 3d b4 20 a6 3c ed 6e 56 bc
       -0.005483152 0.056484807 0.020279266 -0.01308797
0001b0 fd 6d a3 bc 4a 4d 3d bb df 4a 25 bd 3f d7 ff 3d
       -0.019949907 -0.002888518 -0.040354606 0.12492227
0001c0 03 e0 d9 bb f0 c5 34 bd df fb 3f 3c 32 b2 c1 3c
       -0.0066490187 -0.04413408 0.011717766 0.02364454
0001d0 dc df 21 3d 35 10 8f 3b e1 b1 b0 3c 9a 64 0f bb
       0.03952013 0.0043659457 0.021569194 -0.0021880032
0001e0 1a 91 9d 3b 6b 10 e4 bb 75 20 c5 bc 4a b3 9e 3b
       0.004808557 -0.006959965 -0.024063328 0.0048431503
0001f0 e4 3a d4 3d a6 8a df 3c dc 63 1c bd 8d b5 0b 3d
       0.10362795 0.027287792 -0.03818117 0.034108687

a2c_network.mu.weight f4 [10, 128]
000000 8c ac 8a 3c a5 30 87 3d b1 00 83 3d 49 e0 95 bb
       0.01692798 0.06601075 0.06396616 -0.004573856
000010 2c 48 e8 bc 57 d2 81 3d 92 6a 23 3d 2a 66 1f 3d
       -0.028354727 0.06338947 0.039896555 0.03891579
000020 52 11 47 bc 0c fd bf bc 5f 19 a1 bd 7c 30 e6 bc
       -0.012150126 -0.023436092 -0.07866167 -0.028099291
000030 62 c3 2a 3e 99 e2 1d 3e cc 87 30 bd bc 8c 73 3d
       0.16676095 0.15418471 -0.043098256 0.059460387
000040 73 af 11 bc 2a fb a4 bc 38 80 a0 3d 30 b5 ae 3d
       -0.008891928 -0.020139296 0.07836956 0.085306525
000050 d9 d9 08 bd ea 43 d6 3d 68 fd 57 3d 83 67 15 3d
       -0.03341088 0.10462172 0.0527319 0.03647567
000060 87 bd c1 bc d0 34 98 bd 55 e4 ce bc 39 6a 5c 3d
       -0.023649944 -0.07431948 -0.025255362 0.05381224
000070 df 8a 42 3d 6d 05 a9 3d dd 51 a6 3d 05 b3 22 be
       0.04749572 0.08252988 0.08121083 -0.15888603
000080 4b 72 07 3d 0e 8d 47 3c 22 38 8a bc c4 66 d4 3d
       0.033067983 0.012179626 -0.01687247 0.103711635
000090 c4 e5 79 39 ff 03 d5 3c 28 aa 4c bd 04 63 9d 3d
       0.00023832085 0.026002882 -0.04996696 0.07684901
0000a0 32 45 3d 3e c7 48 50 be 5b 98 bf bd aa be 2e bd
       0.18483427 -0.20340262 -0.093552314 -0.0426623
0000b0 52 23 09 3e 98 70 93 3d 40 35 68 bd 5f 9c ed 3d
       0.1339238 0.0719921 -0.05669141 0.11602091
0000c0 8f ce 8a 3e 85 85 b7 bd a5 40 d2 3c 7e a5 63 3c
       0.27110717 -0.08961014 0.02566559 0.013894437
0000d0 cc 4a 5a bd c7 01 82 3d e1 6e e3 3d ea 2d 0c bd
       -0.053293988 0.06347995 0.11105133 -0.034223475
0000e0 b8 89 d5 3d 53 e7 7d 3d b5 06 8d 3d 2a 90 37 3e
       0.104266584 0.061988186 0.06886045 0.17926088
0000f0 4f ab 5e bd 8c de 6c 3c b4 a6 ac bc fe d8 98 bb
       -0.05436259 0.014457356 -0.021075584 -0.0046645394
000100 dd 89 d3 bd 8b 16 1e 3d 36 f4 ac bd d3 09 74 3d
       -0.1032903 0.038595717 -0.08445017 0.05957968
000110 50 a7 17 bd d6 34 16 bc 6d 2a 8d 3d 52 0b 77 3d
       -0.037024796 -0.0091678705 0.06892858 0.06031353
000120 4d 1b 7d bd cb 90 25 bd cd 4b 04 3e 7f 9d 32 bd
       -0.061793614 -0.04042129 0.1291954 -0.04360723
000130 17 31 0a 3c 26 63 51 bd d4 24 b8 3c a6 08 07 3d
       0.0084345555 -0.051119946 0.022478499 0.032967232
000140 a7 14 42 3d f9 cb 94 bd ff 89 d1 3d 1e f6 06 3d
       0.047382977 -0.07265467 0.10231399 0.03294956
000150 eb 09 2b 3d 5a 29 41 3d 2d 4e f1 bd 5b 38 2c 3d
       0.041757505 0.047158577 -0.11782489 0.042045932
000160 4b 6f cf bd d3 12 42 3c 59 f2 ce 3c a3 1d af bd
       -0.10128649 0.011845308 0.025262045 -0.08550575
000170 84 fc cd 3d 4b 35 f7 bb af 43 d4 3b 78 ab 99 3d
       0.10057929 -0.007544195 0.006477795 0.07503408
000180 a8 5b 9d 3c 45 e5 46 3c cf 79 a6 bd 38 e1 18 3d
       0.019208744 0.012139623 -0.08128702 0.03732416
000190 b4 c7 b5 bc ad fc 30 3d 52 54 0f bc ce 6d b4 3d
       -0.022189952 0.04320972 -0.008748131 0.08810006
0001a0 ee ea dd 3d 07 43 8a 3c 6c 79 c8 bc ff 74 68 bc
       0.10835825 0.016877664 -0.024471961 -0.01418805
0001b0 ff 52 91 3d dc d7 20 be 9c 5f c2 3c c1 b8 b1 3d
       0.070959084 -0.15707344 0.02372723 0.08677817
0001c0 22 4c 92 3c 7b 9f a8 3b e8 bb 5a 3c 61 72 36 3b
       0.017858569 0.0051459647 0.013350464 0.0027839171
0001d0 a4 5e 2f bd 1d 4c 54 3d d3 e4 98 bd ab c4 6d 3c
       -0.042814866 0.0518304 -0.0746552 0.014512221
0001e0 f1 68 96 3d 31 c6 2d bd 68 23 3d be 98 7c 9f 3d
       0.07344235 -0.04242534 -0.18470538 0.07787436
0001f0 2c c2 79 3d 8f e5 1f bd 72 5a 67 bd 21 93 cd 3c
       0.060976192 -0.039037284 -0.05648274 0.02509457
000200 ed b7 eb 3c ba 1b b7 bd bf b1 23 3e 4e ba 47 3d
       0.028774226 -0.08940835 0.15985774 0.04876166
000210 3a 35 62 bd 26 ff 41 ba 86 92 8f 3d 54 22 a7 3c
       -0.055226542 -0.0007400386 0.07010369 0.020402111
000220 9f 11 7c bd 76 a9 2f 3c 2d 19 f1 bd ab a6 ca bd
       -0.061540242 0.010721555 -0.1177238 -0.09895071
000230 f1 3b fc 3c b8 1f 01 bd 6f 34 a8 bd 13 8b 89 3d
       0.030790301 -0.03152439 -0.08213126 0.067159794
000240 a9 a0 c2 3c a5 a6 9f 3d 7f 04 e6 3d 61 e6 92 bd
       0.02375825 0.07795457 0.11231326 -0.071728475
000250 fe e6 7c bd 44 90 08 bd db 5c 4b bd 51 5f 92 3b
       -0.06174373 -0.033340707 -0.0496491 0.004466929
000260 e0 4d d4 3c 8f 31 e0 bd 73 92 b5 3d 48 e0 50 bd
       0.02591604 -0.109469526 0.088658236 -0.05099514
000270 77 19 d7 bc 86 ab 33 bd a9 76 0d 3d b0 bc 50 bd
       -0.02625726 -0.04386475 0.03453699 -0.050961196
000280 59 a2 5d 3d 30 2f 88 3d 72 6a 39 3c 43 da 20 3e
       0.054109905 0.06649625 0.011316882 0.1570826
000290 eb 48 e9 3d fd 8b 90 3d d7 4d 80 3c 8a 08 d7 bd
       0.11390861 0.07057951 0.015662117 -0.104996756
0002a0 67 8c 01 be 56 30 ad 3d 60 eb fa 3d 75 1a 14 bd
       -0.12651215 0.08456485 0.122519255 -0.036158044
0002b0 4d de b3 bd f4 87 fa bd 8f 46 0c 3d 32 3b 91 bd
       -0.08782635 -0.12232962 0.034246977 -0.07091369
0002c0 de 43 d2 3c 1d 8e 87 bc 43 43 d5 bd 4f 74 f7 3d
       0.025667127 -0.016547257 -0.1041322 0.12082731
0002d0 18 f7 ad 3d 0f 15 84 bd 7b 9f 79 bd db 13 a2 bd
       0.08494395 -0.06449329 -0.060943108 -0.079139434
0002e0 9d 35 37 be 8b 4a 1b be 9f d6 83 bc e9 6d 5b bd
       -0.17891546 -0.15165155 -0.01609355 -0.053571615
0002f0 f5 bd 8a 3d d6 2a 7d 3d 98 bb 8d bd a3 46 fa 3c
       0.06774513 0.06180843 -0.06920546 0.03055126
000300 74 c4 69 3d b7 ea dc 3d 84 b6 f8 bd 69 5d a4 bc
       0.057072118 0.10786956 -0.12144187 -0.020064073
000310 44 97 5f bd c3 df f5 bc 67 4c 42 be b2 91 41 bd
       -0.054587618 -0.030013924 -0.18974458 -0.047258087
000320 ca 16 96 bc 2c 18 90 3d ea 14 94 bd 31 33 be 3c
       -0.018321414 0.070358604 -0.072305515 0.02321777
000330 da 73 f0 3b ce a2 68 3d 6a 46 88 bd 43 a3 3a 3d
       0.0073380293 0.056795888 -0.066540554 0.045565855
000340 bc 1c 4f 3c dc a4 0c 3e 03 47 40 bd 75 47 5f 3c
       0.012641128 0.13734764 -0.046942722 0.0136278765
000350 36 fc 46 3d 9e 18 b2 3d d3 eb 1f bd 82 59 a5 bd
       0.04858037 0.086961016 -0.03904326 -0.08073713
000360 01 1b 08 3d 9f 7a cb 3b 9c 7a 14 bd bc c8 3c 3d
       0.033228878 0.006209686 -0.036249742 0.046089873
000370 91 94 49 be dc 9e b1 bb a9 d8 b0 bc 1e 50 40 bc
       -0.1968558 -0.005420549 -0.021587687 -0.011737851
000380 b8 67 f9 3d cc fb a1 bd f6 74 07 bd 6a c1 36 be
       0.12177986 -0.079093546 -0.033070527 -0.17847219
000390 75 2a 35 bd b8 5c 62 bc b7 8c 79 3d 34 25 08 bd
       -0.044229943 -0.013816051 0.06092521 -0.033238605
0003a0 89 21 40 3d c7 56 f3 3c 3b ca 27 3d 91 94 fe bc
       0.04690698 0.029704465 0.040964346 -0.031076701
0003b0 6c 54 82 3d ed c7 10 3e 7c 6d 3e bd 7a 97 15 bd
       0.063637584 0.14138766 -0.04649113 -0.036521412
0003c0 1d 36 94 bd d5 ca bf 3c 2b 48 81 3c 5e 3b a5 bd
       -0.07236884 0.023412148 0.015781483 -0.08067964
0003d0 54 b5 80 3d 00 12 38 3c f7 7a 7c bc 1f 59 b4 3c
       0.062845856 0.01123476 -0.0154101765 0.022015152
0003e0 7f ba 54 bc 0d 54 12 3e 85 03 16 3c c2 42 b9 3c
       -0.012983917 0.14289875 0.009156113 0.02261484
0003f0 79 67 a4 3c e5 55 8b be 67 fa 61 be 79 e0 03 3d
       0.02006887 -0.2721397 -0.22068177 0.032196496

a2c_network.mu.bias f4 [10]
000000 05 7a f4 3c 29 d8 98 3d af 10 c1 3d d2 e8 22 3e
       0.02984334 0.07463104 0.0942701 0.15909126
000010 14 e5 a8 3d 4a b4 46 bd 82 0c 1f bd 84 28 83 bc
       0.08246818 -0.04851178 -0.038830288 -0.01601053
000020 89 e1 97 bd 86 31 ae 3c
       -0.07416064 0.021263849

exp_avg f4 [10]
000000 9c de 35 39 80 e6 6f 3a 50 71 22 3a 01 d1 e5 39
       0.00017344434 0.00091514736 0.00061966944 0.00043834004
000010 ed f2 9d 39 4c 92 7c 39 47 6d 48 3a 75 28 65 39
       0.00030126367 0.00024087093 0.0007645678 0.00021854213
000020 32 b1 69 3a 18 18 ff 39
       0.0008914649 0.0004865534

exp_avg_sq f4 [10]
000000 45 0b c7 37 fe 79 eb 37 e5 0e 96 37 e0 68 9b 37
       2.3727896e-05 2.807099e-05 1.788833e-05 1.8526276e-05
000010 5c fd 8f 37 17 47 95 37 f8 11 cf 37 c9 0c 92 37
       1.7164908e-05 1.7795288e-05 2.468469e-05 1.741051e-05
000020 eb 40 8e 37 63 a5 c0 37
       1.6957949e-05 2.2965198e-05
