logs/rl_games/humanoid_flat_direct/2025-11-17_00-02-14/nn/last_humanoid_flat_direct_ep_1350_rew_11690.973.pth (torch, 759553 bytes, 33 tensors)

value_mean_std.running_mean f8 [1]
000000 31 2d 5a dc fb 94 84 40
       658.6229788823167

value_mean_std.running_var f8 [1]
000000 41 a1 d3 d5 17 d9 db 40
       28516.37242594478

value_mean_std.count f8 []
000000 00 00 00 01 00 a4 bf 41
       530841601.0

a2c_network.sigma f4 [10]
000000 77 97 a4 bf 89 fd 04 c0 03 0a d3 bf 67 99 c7 bf
       -1.2858723 -2.0779746 -1.648743 -1.559369
000010 93 85 15 bf ba 97 4f bf 1a 13 80 bf 87 ab 8d bf
       -0.58406943 -0.8109089 -1.0005829 -1.1067971
000020 27 05 9f bf 01 82 84 bf
       -1.2423447 -1.0352174

a2c_network.actor_mlp.0.weight f4 [256, 42]
000000 87 79 50 be 1d f3 64 3e 97 f7 e5 3d 97 68 e0 38
       -0.20358859 0.22358365 0.11228865 0.00010700634
000010 9f 10 d3 3d f3 5d a4 3e 02 02 ae 3e 51 80 50 bc
       0.103059046 0.32102928 0.33985907 -0.0127259055
000020 d4 47 a9 be 21 66 0f be a0 1c 9f be bb 91 95 bd
       -0.33062613 -0.14003803 -0.31076527 -0.073031865
000030 21 cb c8 be 28 9a 0c 3c a5 45 97 3e 0b 25 4b bd
       -0.39217475 0.008581676 0.29545322 -0.049595874
000040 f5 09 92 3e c6 82 0e be 99 5e 39 be c3 f9 84 be
       0.28523222 -0.13917074 -0.18102492 -0.25971803
000050 b6 7e 91 be b8 14 c0 be 20 12 39 3e 55 48 65 3d
       -0.28416985 -0.37515807 0.1807332 0.055977184
000060 e8 a2 83 3e ae 9d e8 bd 62 95 31 bd 8e ec 45 be
       0.25710225 -0.113582 -0.043355353 -0.1932852
000070 ea b5 4a 3e 69 46 d4 3d ae 99 2e 3a 92 ba 27 be
       0.19795957 0.10364992 0.00066604733 -0.16379765
000080 26 24 8c bc f6 c7 43 bd 8b b3 94 bd 21 71 19 bc
       -0.01710708 -0.04779812 -0.072608076 -0.009365351
000090 36 da cf 3d 66 1e 62 3d 41 c0 3f 3c ce d0 2d bd
       0.10149042 0.05520477 0.011703552 -0.04243546
0000a0 cc 6a 60 3a 17 6d c7 bd dd 39 79 3e 17 f9 ad bd
       0.0008560836 -0.09737604 0.2433848 -0.08494776
0000b0 7d c1 d3 bd a7 0c 5d be 53 8b d2 bd 19 13 9e 3d
       -0.10339639 -0.21586858 -0.1028048 0.07718486
0000c0 20 15 a1 3d cd da c8 3c 38 48 96 3e 09 9c 26 3d
       0.078653574 0.024518395 0.29351974 0.04067615
0000d0 99 57 86 bd 40 40 56 bb 11 de 3e 3f e7 33 48 bc
       -0.06559677 -0.0032692105 0.74557596 -0.012219406
0000e0 cb c0 26 3e 05 96 38 bf 0f b1 2a be ec 60 a0 bc
       0.16284482 -0.7210391 -0.16669105 -0.019577466
0000f0 f6 90 73 bd 37 c0 85 be 2c b0 91 bc 71 0d 89 bf
       -0.059464417 -0.2612321 -0.0177842 -1.0707227
000100 05 c4 4f be e9 66 f9 3d a8 dd a0 bd 7d 4b d7 bd
       -0.2028962 0.12177832 -0.078547776 -0.10512445
000110 58 34 2d 3d cf cb c7 3d f7 ea 5f 3d 41 71 16 bd
       0.042286247 0.0975567 0.05466744 -0.0367291
000120 68 53 10 bb ae b7 e1 3d 46 64 30 bc 62 50 f7 bd
       -0.002202237 0.11021362 -0.010766095 -0.12075879
000130 26 30 b0 3d c2 7a e8 3d 89 91 ff bd 20 de f8 bc
       0.086029336 0.11351539 -0.124789305 -0.030379355
000140 7b fb c4 bd 05 7e c9 3b 38 d9 bc bd aa 24 25 3d
       -0.096182786 0.006149056 -0.09221119 0.04031817
000150 a0 89 cc bd 4a 0c 3c be 3b 6e 82 3e 16 b8 92 3d
       -0.099871874 -0.18364063 0.25474724 0.07164018
000160 e6 8c 10 3e a9 f6 26 3e 07 0d af bc 0c 9c b2 3e
       0.14116248 0.16305031 -0.021368517 0.3488468
000170 a1 5e aa be 75 92 9b be b8 7e c7 bd a4 9c a8 bd
       -0.3327532 -0.30385175 -0.097409666 -0.08233002
000180 85 c2 d9 be 9c d2 89 be bf 4a 28 3e 8e 67 79 3e
       -0.4253122 -0.26918495 0.16434763 0.24355909
000190 d4 93 49 3e a1 7a c5 be 79 3a 98 be 7b 34 cb bd
       0.19685298 -0.3857012 -0.2973211 -0.09922119
0001a0 64 e8 d8 3e 57 3e 12 3f e0 90 20 3e f9 d9 d5 bd
       0.423648 0.57126373 0.15680265 -0.104419656
0001b0 cd b2 85 3d 54 9b 3c 3d 15 53 93 bd 3e c1 cf bd
       0.06528244 0.04604657 -0.07193581 -0.1014428
0001c0 03 a4 fb 3d 0e f5 a5 be 3b 33 d1 3e e5 06 c8 bd
       0.12287142 -0.32413524 0.40859398 -0.0976694
0001d0 82 6a b8 3d c9 37 d8 bb aa 8a d3 3d 43 43 29 3c
       0.0900469 -0.006598447 0.103291824 0.010330978
0001e0 e5 4b 1b bd e8 78 d4 bd 71 ca cc 3d 88 97 e9 bd
       -0.037914176 -0.103746235 0.0999955 -0.114058554
0001f0 52 ac 0c be 40 8e 99 3d a6 a0 df 3d 93 46 22 be
       -0.1373761 0.07497835 0.10919313 -0.15847234
000200 45 2e 4c be 42 11 c5 3e 2d a2 8b 3d 65 29 3d 3e
       -0.19939525 0.3848973 0.06818042 0.18472822
000210 37 99 18 3d ad 22 f7 bd 79 aa 31 3e 4d d9 fd 3d
       0.037255492 -0.12067161 0.17350186 0.123949625
000220 57 ef 0e 3e f7 d5 b7 bd 35 f4 08 3f 8b 44 c0 3d
       0.13958488 -0.089763574 0.5349763 0.093880735
000230 8e b2 9c 3d 25 e9 3e bd 8d 99 a4 bd 3f 37 93 3e
       0.07651244 -0.046609063 -0.080371 0.28753087
000240 bd 5d 1f 3f 73 16 20 be 6a f6 3f 3f 0c 5d d4 3d
       0.6225241 -0.15633564 0.74985373 0.1036931
000250 b6 cd 20 3d 02 5a 64 39 4a c0 5b 3e 9f 25 58 3e
       0.03925868 0.00021777305 0.21460071 0.21108101
000260 59 e5 e2 3c 25 71 c3 3d c0 d0 86 3d 6c a0 cd 3c
       0.027697252 0.09543065 0.06582785 0.02510091
000270 4f c7 48 3e e7 28 4d bb e2 a7 13 bd 32 ef 70 bd
       0.1960728 -0.0031304897 -0.036048777 -0.058821864
000280 62 ac 29 3e 45 92 30 bd 0e 5d 81 3b 4d 1e 11 bd
       0.16569665 -0.043108243 0.0039478606 -0.035429288
000290 4b b6 db bc 2b 81 e5 bd 6a af 32 be 94 96 f8 3b
       -0.026820322 -0.112062775 -0.17449728 0.0075863097
0002a0 48 18 e6 3d 08 4f a2 3d 39 79 d1 bd ba ac 40 bd
       0.112351 0.0792523 -0.102281995 -0.047039725
0002b0 42 a6 63 bd 01 52 29 3e d4 d9 d6 3d e4 cf 71 3c
       -0.055578478 0.16535188 0.10490766 0.014759038
0002c0 4f 88 08 3d 99 f1 e7 bd e8 c6 e1 bd fd cb 95 3d
       0.03333312 -0.11325378 -0.110242665 0.07314298
0002d0 6b 8a 13 be 35 34 35 be 42 fb 63 be 64 3d c5 be
       -0.14408271 -0.17695697 -0.22263816 -0.385234
0002e0 66 17 e0 3c a8 bf 80 3c 69 6d 50 be df d7 3d be
       0.027354907 0.015716389 -0.20354237 -0.1853938
0002f0 01 c1 ef be f0 b6 0c 3e bb 42 68 3d e5 d2 f3 3d
       -0.46826938 0.1374166 0.056704264 0.11905459
000300 ef 40 c4 3d a5 5d 6f bc 36 12 e2 3c e4 a6 d9 bd
       0.095826976 -0.014609729 0.027596574 -0.10627535
000310 fa 0b b4 bc 98 8e 41 be de e8 66 3e 8e b4 84 bb
       -0.021978367 -0.18902051 0.2254977 -0.004049844
000320 5e 3b 81 3b 12 89 a2 bd 28 58 20 3d 66 8d ec bd
       0.0039438447 -0.079363 0.039146572 -0.11550407
000330 26 72 9e bc 50 fa bd 3d a7 bf c0 3d fc 1f a1 3c
       -0.01934154 0.09276259 0.09411555 0.019668572
000340 6c f7 60 bd 93 70 a9 bd db 0e 3f be 26 60 0c bd
       -0.05492346 -0.08273425 -0.1865801 -0.03427138
000350 fb e6 8e bc 51 35 03 be a9 84 53 3d e9 eb e3 bd
       -0.017444124 -0.12813307 0.051640186 -0.11128981
000360 51 bb fe 3d 22 e6 3e 3d 33 de 8e 3e 7d cc c3 bd
       0.124380715 0.04660619 0.279039 -0.095604874
000370 a1 a7 a3 3d 25 98 d0 bd 33 3a a3 3e fd cf 5e 3d
       0.07990957 -0.10185269 0.3188034 0.05439757
000380 17 3c 30 3e d1 50 7b 3d d0 61 35 bd e9 81 ac 3d
       0.17210422 0.06135637 -0.044282734 0.08423216
000390 be ba 09 3f 19 a8 27 bf 35 24 6b 3f e6 14 20 3f
       0.5380057 -0.6549087 0.9185212 0.6253189
0003a0 15 88 79 3e f7 87 2a be a1 ba 40 be 73 d3 2c 3e
       0.24368317 -0.16653429 -0.18821193 0.16877536
0003b0 bb 30 23 3c 0f 0e 68 bd c2 4f fa 3c e9 d6 71 be
       0.009960349 -0.056654032 0.03055561 -0.23617138
0003c0 48 60 fe 3d 54 4d 60 be 82 67 c6 bd bc af 47 bd
       0.12420708 -0.21904498 -0.09687711 -0.048751578
0003d0 db f7 29 be fa 4b c7 3d 5b f0 0e bc 69 ef fa bc
       -0.16598456 0.09731288 -0.008724297 -0.030631738
0003e0 3f 00 c5 3b b8 7e d7 3c 30 2a b8 bd c6 ad f8 3b
       0.006011992 0.026305541 -0.089924216 0.007589075
0003f0 51 bc 59 3d ae 21 6f 3c 36 6f 0d bc 04 ef c5 bc
       0.05315811 0.014595432 -0.008632472 -0.024161823

a2c_network.actor_mlp.0.bias f4 [256]
000000 5b 6e f5 3d 2c 90 91 3e 04 43 97 3e f4 d9 07 bc
       0.11983939 0.28430307 0.29543316 -0.00829171
000010 26 77 2c be 0b 12 17 3e 30 e1 59 be b8 a7 50 3e
       -0.16842327 0.14752977 -0.21277308 0.2037648
000020 9a 80 fc bd bc 92 ef 3d 81 f7 e6 bd 74 73 3c 3e
       -0.12329216 0.11697909 -0.112776764 0.18403417
000030 32 2a 22 be 5a e5 79 be f7 00 55 3e 7b fa f7 3d
       -0.15836409 -0.24403897 0.2080115 0.12108322
000040 66 a2 82 bd 95 aa 14 3e b6 28 5c 3d 30 3b 7f 3d
       -0.06378631 0.14518197 0.053749762 0.062312305
000050 34 42 b9 bd dd 1f 3e bd 97 74 40 be 8b 35 32 be
       -0.0904583 -0.046417106 -0.18794475 -0.17403238
000060 ef f9 0f bd 47 08 30 3e 43 f6 f5 bd 19 a7 0f be
       -0.035150465 0.17190658 -0.12009861 -0.14028586
000070 8c 4c c8 ba b3 20 a6 bc 3a 2e 0d 3c 5d fb 9f bc
       -0.0015281602 -0.020279264 0.008616978 -0.019529039
000080 46 b6 43 3e 7f 47 5d 3e 43 4d 43 3e a5 08 77 be
       0.191125 0.21609305 0.19072442 -0.24124391
000090 71 81 9c 3d d8 23 a1 bd 62 58 30 3e 88 72 83 3e
       0.076418765 -0.07868165 0.17221215 0.25673318
0000a0 0a c9 05 bd 20 75 aa bd 77 cf 40 3e c5 de 2f 3e
       -0.03266243 -0.08323121 0.18829142 0.17174824
0000b0 83 ae a5 bd f1 36 0d bb d8 db a4 3d e0 6f 20 3e
       -0.08089926 -0.002154764 0.08049744 0.15667677
0000c0 0f bf 44 bc 4f ea 8e be 88 4b 07 be b9 68 65 be
       -0.012008443 -0.27913138 -0.13212407 -0.2240323
0000d0 65 fc 65 be 1f ca 12 be da c8 ed bc 6b c7 0a be
       -0.22459562 -0.14334916 -0.029026438 -0.13552634
0000e0 29 da 89 3d 6d 30 5a be 53 78 50 be 37 a8 40 3e
       0.06731064 -0.21307535 -0.203584 0.18814169
0000f0 98 22 5a be 5f 3a 8a 3e 66 96 25 3c e6 14 89 3e
       -0.21302259 0.2699766 0.010106659 0.26773757
000100 f5 3e b6 bd 4b 51 28 3e 31 19 a4 3e 3d 93 0a be
       -0.08898727 0.16437261 0.3205047 -0.1353273
000110 56 7c 89 be a2 5c cb 3d 4c 3f 4e be b5 d2 8a 3c
       -0.26852673 0.09929778 -0.20141333 0.016946176
000120 8d 89 0f 3e 3e 46 78 3e c1 90 fc bd 78 9f 7d bc
       0.14017315 0.24245545 -0.12332297 -0.015479915
000130 45 af 50 be 3c 07 fa bd da e2 32 bd a3 68 19 3e
       -0.2037936 -0.12208411 -0.043673374 0.14981322
000140 b5 de a7 3d ce 46 40 3e 28 dd ac bd c7 e4 24 3e
       0.08196775 0.1877701 -0.0844062 0.16102897
000150 d5 7d a5 3e 51 45 1f 3e 60 d0 f5 3d 83 28 80 3e
       0.32322565 0.15553786 0.12002635 0.25030908
000160 b3 33 93 be 07 00 81 be e0 52 42 be 49 36 bc 3d
       -0.2875038 -0.25195333 -0.18976927 0.091900416
000170 fd 08 37 3e af 48 ce 3d 8c 21 8d bd e6 ac 67 be
       0.17874523 0.10072457 -0.06891164 -0.2262455
000180 92 27 18 3e 6f 78 07 be 1e 5e ed bd d9 7c 72 3e
       0.14858845 -0.13229536 -0.11590217 0.23680438
000190 18 2f 12 3e 69 14 19 3d 2e 66 7c 3e 21 c9 78 3e
       0.14275777 0.03737298 0.24648353 0.24295475
0001a0 9c 29 89 3e 10 80 56 3e 6f 49 27 3e c7 8d 7f be
       0.26789558 0.2094729 0.16336606 -0.24956428
0001b0 ce d2 6e 3d a1 d8 9c be 67 1d 25 3e cc 98 e1 3d
       0.058306508 -0.30634025 0.16124497 0.11015472
0001c0 e1 12 03 3e d5 6e 29 3e 4f cd 55 be 8b 01 6b 3e
       0.1280017 0.16546185 -0.208791 0.22949807
0001d0 3f 81 ff 3d dc 76 9d be f6 2f a9 3e c3 5f 14 3e
       0.124758236 -0.30754745 0.33044404 0.14489655
0001e0 a8 c9 4a be b6 03 53 be ce c6 62 3e f4 6c 8f 3e
       -0.19803488 -0.20606884 0.2214615 0.28012812
0001f0 d7 1a d5 bd c4 22 94 bc d3 d9 9d be 56 79 21 3e
       -0.1040551 -0.018082984 -0.3083025 0.15768942
000200 8c d5 8d 3e c0 6b 36 3d a8 67 72 be 18 91 69 3d
       0.27701986 0.044536352 -0.23672354 0.057023138
000210 08 26 50 3e 01 c6 d9 3d 11 72 38 3e 73 b5 61 3e
       0.20327008 0.106334694 0.18012263 0.22041874
000220 9f 3f 55 3b 40 69 1b be 26 00 90 3d dd 52 da bc
       0.0032539142 -0.15176868 0.07031278 -0.02665084
000230 8d f1 c5 bd b7 81 93 3e 5c 11 96 be d6 36 71 be
       -0.09665213 0.28809902 -0.2931012 -0.23556075
000240 2f 91 2d 3e 97 de 07 3c d7 d0 69 bd 8a 4c ef 3d
       0.16949914 0.008292816 -0.05708393 0.116845205
000250 5a bb 82 bd 83 84 2d 3e a4 00 1d 3e 8a 5b 8a 3c
       -0.06383391 0.1694508 0.15332276 0.016889352
000260 a5 bb 8f 3d a5 c6 91 3e 35 7c 6e be 7e 7e 2c be
       0.07018212 0.28471866 -0.23289569 -0.16845128
000270 a8 92 60 3d 76 89 1e 3e c5 ab 56 3e c2 d1 8f be
       0.054827362 0.15482125 0.20963962 -0.2808972
000280 49 fe 9b 3e bb 6a 40 3d 6d fe 82 be fd 93 69 be
       0.30467442 0.046976786 -0.25584736 -0.2281036
000290 43 a4 21 be 09 1e 67 be 6e 0a 33 3e 6a f0 00 3e
       -0.15785317 -0.22570051 0.17484447 0.1259171
0002a0 ab 9c 53 be d3 e9 9f 3e 00 88 b5 be 70 ee 10 3e
       -0.20665233 0.3123308 -0.35455322 0.14153457
0002b0 7d 86 d7 3d 22 16 12 be 6f 38 c5 bb 74 9d 42 3e
       0.105236985 -0.14266255 -0.0060186903 0.19005376
0002c0 a9 8c 83 3e 5f 00 c2 3c e0 3c 82 3e f0 d4 83 3e
       0.25693253 0.023681818 0.2543707 0.25748396
0002d0 6a 52 05 3e 4b c2 dd 3d 2d e1 90 3d 89 6b 07 3d
       0.1301972 0.10828074 0.07074199 0.033061538
0002e0 df 5a 3b be 43 6d dd bd d0 da 5e 3e be 71 51 be
       -0.18296383 -0.10811856 0.21763158 -0.20453545
0002f0 ce c8 00 3e 6c 36 8b 3e 68 8b 25 bd 16 4f 84 3e
       0.12576601 0.27189958 -0.04041615 0.25841588
000300 ea 66 59 be 66 76 5e be 3c 66 47 3e 77 98 a8 be
       -0.21230665 -0.21724853 0.19472593 -0.3292882
000310 d1 72 be 3d fa 53 84 3e 39 77 93 3e 8d e0 da bd
       0.09299243 0.2584532 0.28801897 -0.10687361
000320 e0 7c 77 3e 59 ba 82 be c7 42 54 3e f6 30 42 be
       0.2416873 -0.25532797 0.20728599 -0.1896399
000330 40 7d 46 be 3b 61 43 be 1d 56 37 3d 59 56 a0 be
       -0.19383717 -0.19080059 0.04475986 -0.31315878
000340 48 7b 7d 3d 11 d0 5e be b3 d1 2a be b7 ca 20 bd
       0.06188515 -0.21759059 -0.16681556 -0.039255824
000350 1f c6 39 3d 41 26 51 3e 92 18 38 3e 0f f4 3c 3e
       0.04535496 0.20424749 0.17978123 0.18452476
000360 c6 f5 13 be 2d 23 b9 bd 60 17 7c bc c4 66 d9 3c
       -0.14449224 -0.090399124 -0.015386432 0.02653826
000370 e8 a4 4f 3e bb ff 3f be e4 73 67 3b 63 3e 2e 3e
       0.2027775 -0.18749897 0.003531688 0.17015986
000380 af ef 11 3e b3 e5 44 3d 04 66 66 3e 7c 2c 42 3e
       0.14251588 0.04807062 0.22499853 0.18962282
000390 83 dd 44 3e ec 70 5b 3e b1 cd 3c 3e a9 df 82 3e
       0.19225125 0.21429795 0.1843784 0.25561264
0003a0 66 7c 2f be 6a 1e 7d be ea 3f 40 3e 8a 4f 5e 3e
       -0.17137298 -0.24718633 0.18774381 0.21710029
0003b0 9e 59 c8 3d 67 a2 09 be 3b af 47 3e 50 ea 3e 3e
       0.09782718 -0.13440858 0.19500439 0.1864407
0003c0 33 4f 25 3e 75 e4 3f 3e a6 d2 9f 3e 9a 0f 36 be
       0.16143493 0.18739493 0.312154 -0.17779389
0003d0 e2 26 90 3e 7d 4c 85 be 2a fe 13 3e 4d f8 68 be
       0.28154665 -0.26034918 0.14452425 -0.22750969
0003e0 75 07 47 3e d4 56 aa 3e 6c 73 4d 3e 3c 99 9c 3e
       0.19436438 0.3326937 0.20063561 0.3058566
0003f0 fa 5c 32 bd 7f 9c 73 3e d2 08 1f 3d 31 10 54 3e
       -0.0435457 0.23790167 0.03882677 0.20709302

a2c_network.actor_mlp.2.weight f4 [128, 256]
000000 2c b9 16 3d 48 eb 5b bd 7c f4 5c 3a 82 e7 2d bd
       0.036797687 -0.05369118 0.0008428765 -0.04245711
000010 20 0d 47 3d 20 b6 af bb c3 84 f0 bd b5 37 29 3e
       0.0485965 -0.005362287 -0.11744072 0.16525157
000020 ee de 67 3e 9c eb 16 3e fa 93 6b 3d 08 d6 83 3c
       0.22643635 0.14738315 0.05751417 0.016093269
000030 e3 56 98 3d f1 18 cc b9 27 af 9f bd f1 25 47 3d
       0.07438447 -0.00038928495 -0.077970795 0.048620168
000040 2a c3 4b 3d 60 c5 87 3d ec 5a 7a 3d c0 ef 0c be
       0.04974667 0.06629443 0.061121866 -0.13763332
000050 f7 d4 cc bb 73 55 7d 3d ce 60 b2 bd 56 55 18 3c
       -0.0062509733 0.06184907 -0.0870987 0.009297689
000060 15 f5 53 bd 80 5c 1f 3e 8f 82 41 3d a0 fd b4 3d
       -0.0517474 0.1556263 0.04724365 0.08837438
000070 8e 49 79 be 97 2a 52 bd 1f 09 8f be d1 a7 8f 3d
       -0.24344465 -0.051310148 -0.27936646 0.0701443
000080 03 7c 2f 3c 8b c3 3b 3d 3d 86 42 3a df 1d 2d bd
       0.010710719 0.04584078 0.0007420516 -0.042264815
000090 d6 0e b3 3c 55 b5 0a 3e 4d 09 60 be 0b c0 e2 3c
       0.02185766 0.13545735 -0.21878548 0.027679464
0000a0 18 ad 18 bd 00 47 93 3d 1d 97 5f 3d 6f 32 5d 3c
       -0.03727445 0.071912766 0.054587472 0.013500794
0000b0 55 3c 8b 3d 10 0c a3 bb cc fa 38 3c 06 e9 0b bc
       0.06798617 -0.004975803 0.011290263 -0.008539444
0000c0 42 33 ae bc 97 b9 df bc 03 27 20 3d bc e6 24 3d
       -0.021264676 -0.027310176 0.039099704 0.040259108
0000d0 6d 8a 5c 3d a6 59 fd 3c ae a7 82 3c 90 81 9b bd
       0.05384295 0.030926537 0.015949097 -0.075930715
0000e0 6a 33 26 bd ac 6b 8a bd f2 82 90 3d b0 ef a3 bd
       -0.040576376 -0.06758818 0.07056226 -0.08004701
0000f0 f9 ed ae 3c 14 9a f6 3b eb ae 90 3d 01 51 34 bd
       0.021353709 0.0075256918 0.07064613 -0.044022564
000100 f6 81 2b be 7b c4 83 3e 73 e6 bc bc 22 e1 4c 3c
       -0.16748795 0.2573584 -0.023059106 0.012504848
000110 ac a5 80 3c 35 d5 d0 bc a2 a0 5d 3c 46 d7 81 3d
       0.015703999 -0.02549229 0.013527067 0.06339888
000120 eb 94 f6 3d cf 87 64 3b 7d f9 43 bd 48 a4 aa bc
       0.120401226 0.0034870987 -0.047845352 -0.020830289
000130 89 2c 98 3c ec ca 63 3c b6 c0 dd bc 15 0c de bd
       0.018575924 0.013903361 -0.02706943 -0.10842148
000140 43 0c 05 be 52 fc 80 bc 7e cb f5 3d 5f 70 a9 3c
       -0.12992959 -0.015745316 0.12001704 0.020683466
000150 7e c4 b3 3c f1 ad 32 be 8f 85 df bd 9a 7f 81 bd
       0.02194428 -0.17449166 -0.10914146 -0.06323166
000160 5f ff b7 3a cd 2d be bd a5 38 cd ba a6 cd 99 bd
       0.0014037899 -0.092860796 -0.001565714 -0.075099275
000170 4a 8a 33 3c 98 c5 0e 3d 6f 98 3b 3d 9b 14 a2 3c
       0.010958264 0.03485641 0.04579967 0.019785216
000180 58 b9 59 3d 90 e1 ca bd 60 b9 6c 3d 55 ff 50 bd
       0.053155273 -0.09906304 0.057793975 -0.051024754
000190 3c 0a 83 bb 69 6e 11 be 9a 99 c0 bc 03 2e 87 ba
       -0.0039990228 -0.14202274 -0.023510743 -0.0010313395
0001a0 47 87 20 bd 37 a0 c6 bd 87 92 dd 3d 9e 01 97 3c
       -0.03919151 -0.09698527 0.108189635 0.018433388
0001b0 59 fe 67 be 48 94 77 3d 5c 83 15 3e ee 34 27 3d
       -0.2265562 0.060444146 0.14600891 0.040821962
0001c0 c7 ba b7 3d 53 5a 10 3e b9 a4 e4 3c 6e 74 b8 3d
       0.08971172 0.14096956 0.027910577 0.09006582
0001d0 ca f4 80 bd 90 15 47 3e 8d fe 34 be 5e be 05 be
       -0.0629669 0.19441819 -0.17675228 -0.130609
0001e0 6f 5e 43 3d 9b 64 a7 3d d7 3f dd 3d a9 8b a6 3b
       0.04769748 0.08173486 0.10803192 0.0050825668
0001f0 e5 dc 08 be 9a 2d 2f 3c e6 45 0c 3d dd 90 2f 3d
       -0.13365515 0.010692025 0.034246348 0.04286276
000200 00 71 78 3c 4b 07 d1 3c a9 c2 3e 3d 63 a8 96 bd
       0.01516366 0.025516173 0.04657236 -0.07356336
000210 ea ee 3b bd ae 90 ac bc 05 04 27 bd dd 15 c1 3d
       -0.045882143 -0.021065082 -0.040775318 0.09427998
000220 f4 ae ab bc b1 7b 1b 3d 1a 30 8f bc b3 42 22 be
       -0.020957448 0.03795976 -0.017478991 -0.15845756
000230 1e 65 bc bd 08 ff be bd c9 e5 88 3d b7 96 44 3b
       -0.09198974 -0.09325987 0.06684453 0.002999706
000240 8e 8e 32 3d 99 45 f6 3d 98 a2 b4 bd d8 c5 08 3c
       0.043592982 0.120249934 -0.08820075 0.008347951
000250 b8 d6 3f bd 32 d0 c2 3d 56 bf a1 3c 7a bd e6 3c
       -0.04683563 0.09512366 0.019744556 0.028166521
000260 3b d4 0f 3e 46 44 d2 3c 9b 62 d2 bd 3a 4d a0 3d
       0.14045803 0.025667321 -0.10272714 0.0782723
000270 62 53 07 3d a9 78 13 3c 5e da 08 be 09 d1 2e bd
       0.033038504 0.009000936 -0.1336455 -0.04267982
000280 ac 20 f9 bd 6c 4f 34 3d 36 1e 1f 3d 9f f1 b2 3b
       -0.12164435 0.044021055 0.03884717 0.0054609324
000290 dc ef f5 bd 37 bb 03 3d 37 4e 88 bb 93 3b 8c 3b
       -0.1200864 0.032160964 -0.0041597146 0.0042795627
0002a0 14 e5 aa 3c a7 69 e1 bb f9 4c 89 3d c3 36 9c 3c
       0.020861186 -0.00687905 0.067041345 0.019069081
0002b0 e8 0d 8a 3d bb 04 b2 3c 0e 87 6f 3c 4b ab 77 3c
       0.06740934 0.021730771 0.014619602 0.015116523
0002c0 f4 cc ef bc 6a 22 80 3e c0 74 b6 3d 39 a2 91 bc
       -0.029272534 0.25026256 0.08908987 -0.01777755
0002d0 71 0f 61 3d f2 c1 54 be 24 14 48 bd 58 75 7b 3d
       0.054946367 -0.2077711 -0.048847333 0.061391205
0002e0 ec 07 83 3d a8 3f e0 bd 3b 9e e8 bc 86 26 81 3d
       0.06397995 -0.109496415 -0.028395763 0.06306176
0002f0 7f 74 00 be 5b ff 9e 3c 26 33 13 bd 66 43 d5 bd
       -0.1254444 0.019408872 -0.03593745 -0.10413246
000300 6d d1 d3 bd a7 e7 01 3d 18 5f 8a bd b2 73 a0 3c
       -0.10342679 0.03171506 -0.06756419 0.019586418
000310 67 7b f3 bd 53 c2 2e bd a6 9f 83 bd 96 10 f4 3c
       -0.118887715 -0.04266579 -0.06426935 0.029793065
000320 ea 93 8f 3d c2 5c 8c bd 4f a1 20 bd cc 49 f4 3c
       0.07010634 -0.0685363 -0.039216336 0.029820345
000330 d9 c7 07 3d 51 61 84 3d 3e ce a6 bd 8e 02 32 bd
       0.033149574 0.06463874 -0.08144806 -0.043459468
000340 90 c1 01 be 96 c7 20 bd f0 a1 b4 3b e5 e7 67 3e
       -0.12671494 -0.03925284 0.0055124685 0.22647054
000350 fd 5a e7 bd dc 5f a9 bc 1c be ff 3c b4 81 7f bc
       -0.112966515 -0.020675592 0.03121858 -0.0155948885
000360 3e e0 d7 bd 24 04 92 bd 29 51 9d bd 3b 7b 4d be
       -0.10540818 -0.07129696 -0.07681496 -0.2006654
000370 ac 38 16 bd 97 c2 b6 bd 24 7d 0d ba 87 7b e0 bc
       -0.03667514 -0.08923834 -0.00053973706 -0.027402652
000380 fd 64 c1 3d 70 b3 e7 3d b1 3e a0 bd 96 36 13 3d
       0.0944309 0.11313522 -0.078244574 0.03594073
000390 e5 d8 93 3e b7 ff b9 bd 47 7f 93 3c 9e f9 24 3c
       0.28876415 -0.09081977 0.018005027 0.010069279
0003a0 49 70 13 3d a7 36 52 3c cf 96 57 3e 52 0d dd bc
       0.035995755 0.012830413 0.21053623 -0.02698389
0003b0 3d 49 a2 3d 94 f8 57 3d b8 6e f9 bd 8d fc 8b 3c
       0.07924125 0.052727297 -0.12179321 0.017088199
0003c0 68 e6 4c 3d bc 66 1a bd 51 b5 a6 bc fc b8 e3 bc
       0.05002442 -0.03769563 -0.02035013 -0.027798168
0003d0 66 1f 9a 3b 44 d6 1f 3d e0 5b 62 3c 0b b8 df bc
       0.00470345 0.0390227 0.01381585 -0.027309438
0003e0 90 37 f1 bc 66 d4 07 bd 62 72 16 3c 0d 92 7c 3d
       -0.02944544 -0.033161543 0.009182544 0.061662722
0003f0 ee 1d 87 3d 85 5b 76 3d 5c d0 19 bd 0a 83 9c bd
       0.065975055 0.060145874 -0.037552223 -0.07642181

a2c_network.actor_mlp.2.bias f4 [128]
000000 ad b7 66 bc 68 54 1b bd 76 e8 03 bd b3 5e 96 3d
       -0.014081878 -0.037922293 -0.032204114 0.07342281
000010 56 ca db bc c1 8f 1d 3d 1b 92 df bd 0c e4 aa bc
       -0.02682988 0.038467173 -0.10916539 -0.020860694
000020 aa 2b 57 3d 1f 20 6b 3d d2 c8 e8 3c 8b c2 f3 3d
       0.052531876 0.05740368 0.028416071 0.119023405
000030 22 c3 9f bd 25 72 3f 3d bd cf 32 3d da 20 48 bd
       -0.078008905 0.046739716 0.043655146 -0.048859455
000040 f0 6f af 3c 14 df 74 bd 89 70 ef bd 04 9b e6 bd
       0.02141568 -0.059783056 -0.11691386 -0.11260036
000050 e6 fa 69 3c ce 37 61 bd 38 30 0a be 6b 04 2e bc
       0.01428101 -0.05498486 -0.13494956 -0.0106211705
000060 79 9e bc 3d f2 2c 0a 3e 1e ac ed bc 0a 56 14 3d
       0.09209914 0.13493708 -0.029012736 0.036214866
000070 4d 9d 33 3d c1 7f bf 3b 75 48 ed bc 8b a7 ce bc
       0.043851186 0.005844087 -0.028965214 -0.025226375
000080 0d b1 17 bd 3b 29 b6 3c db 68 8c bd 7b 4b 7e 3d
       -0.037034083 0.022236457 -0.06855937 0.062083703
000090 58 88 32 bd 07 23 33 3d e9 c4 56 bd 85 3d d8 bc
       -0.04358706 0.043734577 -0.052433882 -0.026396522
0000a0 91 dd 26 ba 91 b9 66 3c e0 c7 05 bd 35 7f 1c 3e
       -0.00063654134 0.014082328 -0.03266132 0.152829
0000b0 b9 d4 e5 bd ce bf 40 bd ae a3 c5 bd 3e ef 3f bd
       -0.11222214 -0.04705792 -0.0965036 -0.04685902
0000c0 a5 e9 05 bd 3d 27 20 3d d3 d7 2d bd ab 8d 02 3d
       -0.032693524 0.03909992 -0.042442154 0.031873386
0000d0 3e 53 68 bd d7 a7 c1 3c 17 8b 29 be 1d e9 49 bd
       -0.05672001 0.023639603 -0.16556965 -0.04929458
0000e0 52 49 09 bd ba f3 fe bd 4e 3a 4f bd a9 45 f8 bb
       -0.03351719 -0.12448831 -0.050592713 -0.0075766635
0000f0 d1 b4 6d 3c 62 6f 40 3d 0f 5a ba bc a6 27 9b 3d
       0.014508442 0.046981223 -0.022748021 0.07575922
000100 16 16 bb bd 54 13 44 3d 4e 1f 64 bd 92 18 15 bd
       -0.09135072 0.047869995 -0.055693917 -0.036400385
000110 46 aa 07 be 31 bd f2 bc 3b b1 50 bd d9 be 6d b8
       -0.13248548 -0.02963123 -0.05095027 -5.6682944e-05
000120 44 34 20 3b 16 ef 81 bd 4b 13 0c 3e 4d 8a dc bd
       0.0024445215 -0.0634443 0.13679235 -0.10768566
000130 91 c3 83 bd 1b 6d 0b be 82 f5 87 bd c6 b9 b5 3c
       -0.06433786 -0.13615839 -0.06638624 0.02218331
000140 6b b2 a4 bd 29 91 59 bc 95 fa 9d bd 65 55 9e bc
       -0.08041843 -0.013279238 -0.0771381 -0.019327829
000150 50 66 88 bd 93 88 a7 3d da 73 0b bd 79 74 93 3d
       -0.066601396 0.08180346 -0.03404603 0.0719995
000160 57 9c 87 3c 34 93 1b 3e a6 f8 5d bd 63 d9 99 bc
       0.01655404 0.15192872 -0.054192208 -0.018780416
000170 dd 54 97 3d 43 99 a4 3c a2 fa bc 3c 35 e9 95 bd
       0.07389233 0.020092612 0.02306873 -0.07319871
000180 cd db 01 bd 76 6b 95 bd f7 5b 80 bc a5 6c a0 bd
       -0.03170376 -0.07295887 -0.015668852 -0.07833222
000190 5a a3 47 3e 36 e3 f3 bd 38 a4 99 bc 2b 9e 29 3c
       0.19495907 -0.119085714 -0.018755063 0.010352652
0001a0 72 cc e6 bc 2c 4b 95 bd d2 fb 56 bd 96 8a 0b 3d
       -0.028173659 -0.072897285 -0.05248625 0.034067713
0001b0 50 ce e6 bd f8 a5 82 bc 48 ec 28 be 7d 99 02 3d
       -0.1126982 -0.01594828 -0.16496384 0.03188466
0001c0 44 7e b2 3d 9a 2d 81 3d 56 9d b0 bb 60 d9 b8 3a
       0.087154895 0.06307526 -0.0053898497 0.0014102869
0001d0 e1 a1 b7 39 e6 d3 ac 3c 80 02 70 3c 84 9a 79 bd
       0.0003502509 0.021097135 0.014649034 -0.060938373
0001e0 a1 9a cc 3d 40 9e 04 bd 1c c9 b6 bd e5 a3 c9 bd
       0.099904306 -0.03237748 -0.08925077 -0.098457135
0001f0 84 8d 8c 3d b6 4b 83 bc 93 1c da 3d 72 5e 27 bd
       0.068629295 -0.016027313 0.10649981 -0.040861554

a2c_network.actor_mlp.4.weight f4 [128, 128]
000000 b5 56 ae 3d f9 21 62 bd b9 70 c7 bd 77 61 82 bd
       0.08512632 -0.05520818 -0.09738297 -0.06366246
000010 5b 19 3d bb b6 74 f4 bd fa e1 c3 3c b4 7f fa bd
       -0.0028854224 -0.11936323 0.023911465 -0.12231389
000020 c4 7a c4 38 45 1d f2 bd 3f e2 87 3d f1 95 5d 3d
       9.368875e-05 -0.11821989 0.0663495 0.054098073
000030 72 a9 1d bc 43 3b fe bd 04 e9 41 3d 70 b8 ab bd
       -0.009622918 -0.12413647 0.04734136 -0.08384788
000040 a8 97 eb 3d 8b 6f 8b bc 94 d0 80 3d 9e 4a 6a bc
       0.115035355 -0.017020961 0.06289783 -0.014300017
000050 10 dc 00 3e 09 ff b9 3d 78 3e af 3d d3 51 df 3d
       0.12583947 0.09081847 0.08556837 0.109042786
000060 8b 4e 3e 3d 5c 60 8c bc cb 34 86 bd 78 74 7f 3d
       0.046461623 -0.017135791 -0.06553038 0.062366933
000070 2d 16 c6 bd 9e 6c cb 3d 28 bd 84 3d 3e 06 af bd
       -0.096721984 0.099328265 0.06481391 -0.085461125
000080 6c a2 08 3e 8a 8b c4 bd c5 3a 0a 3e e1 7b 17 3d
       0.13343209 -0.095969275 0.13498981 0.036983375
000090 fc 9c 2b 3a eb 92 23 bd 72 2f 99 bd 5e cc 72 3d
       0.0006546525 -0.039935034 -0.074797526 0.05927693
0000a0 59 88 05 be 70 e0 23 bb fc cd 23 bd 64 34 8f bc
       -0.13040294 -0.0025005601 -0.039991364 -0.017481036
0000b0 38 70 3b 3c cc 5f cd 39 47 eb 84 3d 3f 13 e7 3c
       0.011440329 0.0003917202 0.06490188 0.02820742
0000c0 e2 71 be 3d 81 1c 38 bd 93 da 9a bc 6b 65 06 3d
       0.09299065 -0.04494906 -0.018903052 0.032811563
0000d0 9b db db 3d 86 b9 d5 bc 59 89 0a 3d 48 6e 05 3c
       0.10735246 -0.026089441 0.03382239 0.008143969
0000e0 15 cf d5 3d 53 86 3d 3c 3c e7 3c bd c1 f1 06 bd
       0.104398884 0.01156767 -0.04611896 -0.0329454
0000f0 4a e1 0f bd 8d 83 e6 ba b1 2b 04 be 64 35 e5 3d
       -0.03512696 -0.0017586813 -0.12907292 0.11191824
000100 03 5f b8 bb a5 c3 ea 3c 82 7c 16 bd 38 ee 13 bd
       -0.0056265607 0.028657744 -0.036739834 -0.036115855
000110 f6 d6 17 3c 97 b0 dc bc 93 4c 00 3d 3b ed cb bd
       0.009267559 -0.026939673 0.031323027 -0.099573575
000120 b4 99 15 bc 57 e1 69 3d 45 28 4b be 48 f4 0b be
       -0.009130884 0.057099666 -0.1983958 -0.13667405
000130 c3 75 ce 3c e8 62 9f bc 0f 60 57 ba 7e ee ea 3d
       0.025202638 -0.019456342 -0.0008215913 0.1147127
000140 98 5f 86 bd ad 07 50 bc 12 8b 31 3d df 8e 76 3d
       -0.06561202 -0.012697143 0.04334552 0.060194846
000150 6e f0 ac 3d 4b 11 d1 3c bd d0 e1 bd b8 4a 2f be
       0.08444296 0.025520941 -0.11026142 -0.17118347
000160 13 1c 66 bd 44 0b ba bd 7c c4 9a 3d d3 31 6a bb
       -0.056179117 -0.0908418 0.07557008 -0.0035735264
000170 19 9d 99 bc 4d 5c 37 be ae 8d e3 bd 71 8f bc bd
       -0.018751668 -0.17906304 -0.11111008 -0.09207047
000180 6f 0d 75 bd 13 5d ed bc fb 52 17 bd 06 0c a1 bd
       -0.059827264 -0.028975045 -0.03694437 -0.078636214
000190 07 5b dd 3d 27 e7 b4 3d e9 6c 9f 3d a3 e9 d0 3d
       0.10808378 0.08833151 0.07784445 0.10200813
0001a0 b7 5b f2 3c d7 0b 3e 3d 71 67 7b bd 8b 4a fa 3c
       0.029584749 0.04639801 -0.061377946 0.030553123
0001b0 ff 65 25 3d 16 67 95 3d f6 5f 05 bd f2 41 90 bd
       0.040380474 0.07295053 -0.03256222 -0.07043828
0001c0 19 5d 01 3d 62 f9 e4 3d ce a7 8d bd 0c ea 07 3d
       0.031582925 0.111803785 -0.06916772 0.03318219
0001d0 1b 16 88 3d dc 1b ca 3c e0 29 dc bd b3 16 01 be
       0.06644841 0.024671488 -0.107501745 -0.12606315
0001e0 32 e0 bd bd 5d 99 15 3b 63 8a 09 bd 85 d3 54 3d
       -0.092712775 0.0022827007 -0.03357924 0.051959533
0001f0 4f fe 08 bd 33 2a 22 bd 9e 6a a3 3c 13 a9 b0 3d
       -0.033445653 -0.039591026 0.0199483 0.08625998
000200 58 70 67 3d 1f 74 1c bc 1d e4 0b 3d d8 55 26 3e
       0.056503624 -0.00954917 0.034153093 0.16243684
000210 35 76 8f 3c 1a 06 8a bd 6b 3b 8f 3d 66 4a cf 39
       0.01751242 -0.06739445 0.06993755 0.00039537548
000220 f7 00 30 3d 38 ca 5a bc e5 6c 52 3d 8b d1 12 3d
       0.04296967 -0.013353877 0.05137338 0.035844367
000230 3f 08 73 3e 43 66 31 bd d1 05 09 be da cc 90 bd
       0.23733614 -0.043310415 -0.13381125 -0.07070322
000240 a4 3f f8 3c bf cb 2e bb 81 b4 29 3d 68 49 88 bc
       0.030303784 -0.0026671735 0.041431908 -0.016636565
000250 4c a5 1f bd 43 25 bd 3d aa 3e 99 bd 02 8d 90 3c
       -0.038976 0.09235623 -0.07482655 0.017645363
000260 7b 60 da bd 37 8d d9 bd b7 e1 a6 bd 05 d9 8c 3c
       -0.106629334 -0.10622638 -0.081485204 0.017193327
000270 13 03 3d ba f2 9e 1c bd 90 62 17 3e b7 42 b0 bd
       -0.0007210236 -0.03823752 0.14783692 -0.08606475
000280 94 9c 7e 3d 73 4d 07 be 76 ea 5b 3e 6c c4 12 be
       0.062161043 -0.13213138 0.21476158 -0.14332741
000290 83 5a ca bc 31 75 8e bd 98 61 d5 3d 3e eb 66 be
       -0.024701362 -0.06955946 0.10419005 -0.22550675
0002a0 72 ca 94 bc 79 5a 6b 3d 5a cc 72 3c 85 41 46 be
       -0.01816294 0.05745933 0.014819229 -0.19360931
0002b0 48 09 6a bc da 42 03 bd 49 fa 44 3d 62 11 09 be
       -0.014284439 -0.032046176 0.048090253 -0.13385537
0002c0 56 a7 ef 3d 3e fb bc 3d b9 db 18 be 91 5e 83 bd
       0.11701839 0.09227608 -0.14927568 -0.064145215
0002d0 01 77 08 3e b9 37 2a 3e 63 81 c9 3d 33 ea 2a 3d
       0.13326646 0.16622819 0.09839132 0.041727256
0002e0 22 0f e2 bd af 39 e8 3d 10 3a e3 3d ca 65 0c 3d
       -0.110380426 0.11339127 0.11095059 0.03427676
0002f0 e0 a9 9c ba e3 62 2a 3d fb a9 33 bd e0 ef b2 bc
       -0.0011952482 0.041598212 -0.043863278 -0.021842897
000300 02 2c 0d bd 0d 08 9d 3d 25 32 d8 bb 91 25 67 3d
       -0.034465797 0.07667551 -0.0065977746 0.05643231
000310 3c 6e f2 bc fe 59 a9 bc 10 d5 a6 bc b0 2b ab 3d
       -0.02959358 -0.020672794 -0.020365268 0.08357942
000320 86 1f f0 3d 3a 17 8c 3d 5a 0a 9d 3d 12 08 05 3e
       0.117247626 0.068403676 0.0766799 0.1299136
000330 f1 39 ef bc 45 80 e2 3d 79 eb 58 be b0 e1 c2 3d
       -0.029202433 0.11059622 -0.21183576 0.09515703
000340 6c d1 4f bd b3 23 1a be 34 79 c4 3c eb 38 1c 3d
       -0.05073683 -0.1505268 0.023983575 0.03814022
000350 42 48 28 3d 9d c5 dc 3d d4 13 ee 3d d5 c0 d0 bd
       0.041084535 0.10779879 0.11624876 -0.1019303
000360 55 a1 c5 3c f1 f9 c2 bd 01 11 38 3e 90 29 de bd
       0.02412478 -0.09520329 0.17975236 -0.10847771
000370 c4 0d 6d bd 15 24 13 bc 9f ce 9a bd c9 f0 8d bd
       -0.057874456 -0.008980771 -0.07558941 -0.06930692
000380 3a a2 94 3d 2c 72 ee bd ca d0 00 be ac 4b 54 3e
       0.07257505 -0.1164287 -0.12579647 0.20731992
000390 4b b0 b3 3c a2 96 d8 bd 55 83 17 3e 30 28 e9 bd
       0.021934649 -0.10575606 0.14796193 -0.11384618
0003a0 09 65 92 bd 34 58 0b 3e 7b 26 d7 3d c7 9d a4 3d
       -0.07148177 0.13607866 0.105053864 0.08037906
0003b0 c8 b0 ab bd c4 1a 81 bd 79 ce 28 be 01 a0 b5 bd
       -0.08383328 -0.06303933 -0.16485013 -0.08868409
0003c0 f2 10 19 3e e3 6e ba 3d c3 22 7f bd e1 16 d0 3d
       0.1494787 0.09103181 -0.06228901 0.10160614
0003d0 e7 a2 b6 3c 0f 25 ac 3c 00 73 4e bd 12 13 98 be
       0.022294475 0.021013765 -0.05040264 -0.2970205
0003e0 87 7c 56 bd 6e 41 e8 bb f7 b9 71 bd 2a af f8 3d
       -0.052364852 -0.007087878 -0.05901524 0.12142785
0003f0 88 b5 29 bd 9f 26 eb bd a1 87 d5 3c 92 47 27 be
       -0.041432887 -0.11481976 0.02606565 -0.16335896

a2c_network.actor_mlp.4.bias f4 [128]
000000 cf e3 15 3c 2a f8 de bc 36 84 b1 bc ab 62 50 bc
       0.009148552 -0.027217943 -0.021669488 -0.012718837
000010 b0 df 15 bd 80 19 d1 bc 43 a0 e1 bc 85 f0 18 bd
       -0.03659028 -0.025524855 -0.027542239 -0.037338752
000020 5a 44 56 3c 30 eb a4 bd b3 4b 39 bc b3 7f 1c 3d
       0.01307782 -0.08052671 -0.011309552 0.03820772
000030 7b 73 28 bd 92 50 2d bd 41 af d9 3a 08 f0 0e bc
       -0.041125756 -0.042313166 0.0016608016 -0.00872422
000040 3f 61 0d be 02 39 0b 3d 9f 48 48 3c c0 07 24 3d
       -0.13806628 0.033989914 0.0122243455 0.040046453
000050 5f 22 5b bd 52 09 65 bd b0 a6 36 bd 57 51 53 bc
       -0.053499576 -0.05591709 -0.04459256 -0.012897811
000060 37 ba a1 bc a9 ea b8 3c 85 b1 ce bc ad 16 99 3c
       -0.019742114 0.022572832 -0.025231132 0.01868757
000070 69 77 e1 bd 67 96 87 bc 54 d1 fb 3c 4d 2a 9d bc
       -0.11009104 -0.01655121 0.030739464 -0.01918521
000080 62 96 18 3d 15 27 ce bd 77 be 13 bb d5 4e 0d bd
       0.03725279 -0.10066048 -0.0022543946 -0.03449901
000090 1f 5e 00 bd 7a c6 84 bd c4 d8 0c bd e7 63 a7 bd
       -0.03133976 -0.06483169 -0.03438641 -0.08173352
0000a0 00 88 05 bd 0d d9 80 bd 8f 99 00 be 9e c6 80 bd
       -0.032600403 -0.06291399 -0.12558578 -0.06287883
0000b0 d9 5f 60 3c 72 1f f1 bc 11 a6 22 bd 0d 4d a1 bc
       0.013694727 -0.02943394 -0.039709155 -0.019690061
0000c0 ca 5c 06 3c 4c 39 ab bc d6 f8 96 bd 6b 94 cd bc
       0.008200834 -0.020901345 -0.073716804 -0.025095185
0000d0 3b ea 84 bd cc 56 ff bd 80 de dd bc ea f5 03 3c
       -0.064899884 -0.12467727 -0.027083635 0.008054236
0000e0 9f 13 ad 3c 42 67 a1 bd 13 72 3c bc 2a bb e4 3b
       0.02112752 -0.07881023 -0.011501807 0.0069803195
0000f0 0b 7c 8e 3c c6 3c 88 bd 9f 11 2a 3b 3d b8 58 bd
       0.017393133 -0.066522166 0.0025950444 -0.05291008
000100 6a 66 5b bd f9 72 24 3c 6b eb 68 bd 54 11 91 bd
       -0.053564467 0.010037177 -0.056865137 -0.07083383
000110 ce 68 6d bc 8c 15 8e bc 8d 70 a6 bc 08 98 13 bd
       -0.014490319 -0.017344259 -0.02031734 -0.03603366
000120 d9 3f 5c bd 3c 23 b0 3b ac b9 ca bd ab 2e 54 3d
       -0.053771827 0.005375294 -0.09898695 0.05180232
000130 e5 ff 2e bd ce c2 c4 bc d6 96 34 bd ad dc 78 bb
       -0.04272451 -0.024018671 -0.04408916 -0.003797333
000140 06 ec 94 bd 2e 73 14 3d cd ae e6 3b 13 a6 d7 bc
       -0.072715804 0.036242656 0.007039881 -0.026324308
000150 50 80 2f bb 0e 88 2a bd 8b 57 68 bc 64 91 bc bb
       -0.002677936 -0.041633658 -0.014181028 -0.0057546366
000160 c1 c0 1e bd 78 1b c5 bd 87 b0 49 3b 78 e2 03 be
       -0.038758043 -0.0962438 0.0030775385 -0.1287936
000170 35 3c ed bc 9f 10 d6 bc 8e 03 9a bd 23 fd 4a bd
       -0.028959373 -0.026130972 -0.07520209 -0.049557816
000180 d2 e0 4c 3d 49 67 25 bc 97 93 75 bc 3a ab c6 bd
       0.050019093 -0.010095426 -0.014988801 -0.097006276
000190 0d 1a fb 3d 32 1a f2 3b 85 d0 9f bc 00 5e a9 3c
       0.12260828 0.0073883766 -0.01950861 0.020674706
0001a0 e4 6e 83 bd 37 15 9f bd d6 43 f1 bd 2d fc b4 bc
       -0.06417635 -0.07767718 -0.11780517 -0.022092903
0001b0 cb 7f 48 3d b5 07 f4 bb 1c 58 67 bc a9 a0 6e bd
       0.048949998 -0.007447208 -0.014120128 -0.058258686
0001c0 4d 17 3a 3c 70 d0 a3 3b fb 9e 93 bd 01 7d 3c bd
       0.011358094 0.004999213 -0.072080575 -0.04601765
0001d0 bd 7f 8a bd 78 0e c3 3c 9d 74 3e bd ef d9 66 3c
       -0.067626454 0.02381061 -0.04649793 0.014090045
0001e0 be 70 74 bd 4f 9f ab 39 b9 14 98 bc fe 1d 1b bc
       -0.05967783 0.00032734356 -0.018564569 -0.0094676
0001f0 f3 8b 13 bc 42 8f a6 bd ba 67 c5 3c cd c4 a3 bc
       -0.009005534 -0.08132793 0.024097312 -0.019991303

a2c_network.value.weight f4 [1, 128]
000000 40 df 8f 3d 1b 83 78 3d e3 6d c3 3d 35 96 26 bd
       0.070250034 0.060671907 0.095424436 -0.040670592
000010 9c bd 54 3c 44 24 30 3e df 9a 05 be 8f 32 2d bd
       0.0129846595 0.17201334 -0.1304736 -0.042284545
000020 33 ce 23 bd c8 08 52 3d ad 79 56 3c 54 b4 ff bc
       -0.03999157 0.051277906 0.013090533 -0.031213917
000030 76 d4 c1 3d 66 2e 0d bc a7 06 e1 bd ff 81 cc 3c
       0.09464352 -0.008617019 -0.10987597 0.02496433
000040 02 57 a6 3e f5 74 b8 bd 68 35 9f bd 36 c8 ba bd
       0.32488257 -0.09006683 -0.07773858 -0.091202185
000050 82 f9 9c bc 4c c4 80 3d 1c 06 20 3b 01 64 3d be
       -0.019161943 0.06287441 0.0024417704 -0.1849518
000060 f6 b4 55 3c 5e 84 0a bd bb 5d f3 ba f9 21 39 be
       0.013043633 -0.03381764 -0.0018567363 -0.18079366
000070 b8 05 5d 3e f6 f0 c7 bb 3d 65 36 be c8 24 01 3e
       0.21584213 -0.006101723 -0.17812057 0.12611687
000080 51 87 36 be 77 5e 15 3e b9 09 b0 bd 2c 9a 10 be
       -0.17825057 0.14586817 -0.085956044 -0.14121312
000090 42 ca 7e 3d c1 4a b6 3b d8 e4 ff 3d 3f 0f 89 3d
       0.062204607 0.0055631106 0.1249482 0.06692361
0000a0 5b e4 00 bc 8d 18 de bb 44 ea 73 3c 28 e0 90 3d
       -0.007866944 -0.006777829 0.014887396 0.070740044
0000b0 1f 7b 11 3c 66 4b e6 bb 30 9c 2a bd d6 b4 2b 3c
       0.008879452 -0.007028031 -0.04165286 0.010480126
0000c0 48 1c b1 3a 32 0e 37 bc 31 9e 07 bc 28 b3 ea 39
       0.0013512457 -0.011172818 -0.008277462 0.0004476544
0000d0 a4 33 36 bd 7a fc b0 3d 16 1a 01 3c f9 98 3a bd
       -0.044482842 0.08641906 0.0078797545 -0.045556042
0000e0 d6 a7 ee bd 4e 95 ab bb e9 48 01 3e f7 68 75 bd
       -0.11653106 -0.0052363044 0.1262547 -0.059914555
0000f0 43 3c 09 bd 31 88 71 3a 8e f6 0c bd 51 c7 22 3d
       -0.033504736 0.00092137145 -0.03441482 0.039740864
000100 04 ed 51 3c 05 de 13 bd 73 fe f2 3d db b6 44 3e
       0.012812857 -0.036100406 0.118649386 0.19210379
000110 ba 64 3a bc ba d3 97 3d c7 84 1f bd 28 4a 79 bc
       -0.011376554 0.074134305 -0.038944986 -0.015215434
000120 48 2d 87 3d 6f da 3f 3d 9e fb 14 3d ec 6f 88 bc
       0.066004336 0.046839174 0.036372773 -0.016654931
000130 e9 67 af bc c8 07 4f 3e 32 18 c6 bc 70 27 87 3d
       -0.021411853 0.20217812 -0.02418146 0.06599319
000140 e7 81 26 3e e4 5d 13 be 7e 9e c8 3b 27 4a 47 bd
       0.16260491 -0.14391285 0.0061224094 -0.0486547
000150 67 9b d1 bd b1 ee 06 3c 87 64 d5 3c 9e 40 7f bd
       -0.10234719 0.008235619 0.026048912 -0.062317483
000160 9a 35 2b 3d d0 1a ae 3c 75 4c 45 3c 34 1d 75 3b
       0.041799165 0.02125302 0.012042155 0.003740144
000170 7e 11 91 bc 06 38 bf bd 3c cc 72 bd 70 93 75 bd
       -0.017708536 -0.093368575 -0.059276804 -0.05995506
000180 2c a3 19 bc e9 04 61 3c cc e3 c1 bc 6f 76 c4 3c
       -0.009377282 0.013734081 -0.023668192 0.023982255
000190 a3 29 7a be 73 11 c0 bd 1e a8 1b 3c c6 8b d7 bc
       -0.24429946 -0.09378328 0.0095005315 -0.026311766
0001a0 e8 eb cc bc d7 35 81 3d 88 87 88 3c e5 a0 0a bc
       -0.025014833 0.06309097 0.016666189 -0.008461212
0001b0 68 fd 8e 3d 76 bd 80 bd 4f 0b 8e bd ea 12 48 3e
       0.06981927 -0.06286137 -0.06935751 0.19538465
0001c0 00 a1 8a bd 77 8f 80 bc 59 b3 f6 3b 63 7e ba 3d
       -0.067689896 -0.01569341 0.007528704 0.091061376
0001d0 04 84 01 3e af 0f 5f 3c 4a a9 00 bb 6d 3f 17 be
       0.12648016 0.013614579 -0.0019632154 -0.14770289
0001e0 8c 90 67 3d 27 e0 37 3c ac 23 d5 bd 2c 6a 19 bd
       0.056534335 0.011222876 -0.104071945 -0.03745477
0001f0 ab 72 97 3d f6 ba f9 3c ce cc 28 be 13 cf 58 bc
       0.07394918 0.030484658 -0.16484377 -0.013232964

a2c_network.mu.weight f4 [10, 128]
000000 b7 4b c8 3c 7d f5 91 3d b0 87 ab 3d bd 75 a6 3d
       0.024450166 0.07126901 0.0837549 0.081279255
000010 d9 48 1f bd 70 17 bd 3d aa 61 b0 bb d7 d6 50 bd
       -0.038887832 0.09232986 -0.005382736 -0.050986137
000020 5c bf 93 bc 57 0b a9 bb 5c 2e 49 be 40 76 95 bd
       -0.018035583 -0.0051588225 -0.19646591 -0.07297945
000030 e1 8d 33 3e 37 7a 0b 3e c5 77 6b bd 3a 94 a2 3d
       0.17534591 0.1362084 -0.057487268 0.07938428
000040 10 bd a4 bc 59 be 62 bc 5f 66 86 3d 6c ee aa 3d
       -0.020109683 -0.013839328 0.065624945 0.083462566
000050 fc 28 0d bd ed e7 ef 3d 2a 30 86 3d 3d 0b 24 bc
       -0.034462914 0.11714158 0.06552155 -0.010012445
000060 b8 20 ac bd 7f bf 94 3c 28 08 cc bc 15 ae b5 3c
       -0.08404678 0.018157719 -0.024906233 0.022177735
000070 bf d1 b6 3d bf 41 c0 3d 23 d1 16 3e 41 eb 3c be
       0.08926725 0.0938754 0.14728217 -0.18449117
000080 98 db 4a 3d 49 e6 14 3d a1 21 cf bc b9 3c 0f 3e
       0.049525827 0.03635243 -0.02528459 0.13988008
000090 f6 a2 b7 3c eb f7 67 3c 5d 43 3b bd f6 91 9e 3d
       0.022416573 0.014158229 -0.04571854 0.077426836
0000a0 42 8d 43 3e c9 fa 5f be b8 03 ff bd 9a f1 97 bc
       0.19096854 -0.2187301 -0.12451881 -0.018547822
0000b0 37 e6 f4 3d 7a c0 90 3d ad c7 5a bd 9f c1 ff 3d
       0.119579725 0.07067962 -0.053413082 0.12488102
0000c0 b1 3d 93 3e bc 30 b9 bd dc ca 48 3d f0 8d e5 3c
       0.28758004 -0.090424985 0.049021587 0.028021783
0000d0 17 ab 70 bd fa 1c f5 3d c7 af ab 3d 29 87 b8 bd
       -0.058756914 0.119684175 0.08383136 -0.09010155
0000e0 39 ab b1 3d 13 e7 97 3d b5 dc 02 3e 58 53 67 3e
       0.08675236 0.07417121 0.12779506 0.22590387
0000f0 df cf 37 bd 8b 2f a3 3c 54 d4 15 bd b7 79 cb bc
       -0.044875976 0.019920131 -0.036579445 -0.024838312
000100 38 d9 06 be f6 96 b3 3d c9 8d a0 bd 4a 3e e7 3c
       -0.131688 0.08769028 -0.07839543 0.028227944
000110 bf 7e 2b bd ab e7 3a bc 79 a4 69 3d d3 f5 bf 3d
       -0.04186892 -0.011407773 0.05704162 0.09373059
000120 22 17 ba bd 13 ce 5a bd 73 94 74 3d cc eb ae bd
       -0.090864435 -0.053419184 0.059711885 -0.085410684
000130 ad 29 41 3c cd 54 c9 bc db a0 b0 3c 0a 92 d9 3c
       0.011789721 -0.024576569 0.021561077 0.026558895
000140 04 67 47 3d 3f 2b cc bd 51 97 0b 3e a1 9d af 3a
       0.048682228 -0.09969186 0.13631941 0.0013398418
000150 98 11 87 bc fc cf 94 3d c9 a6 e6 bd 38 06 35 3d
       -0.016487882 0.07266232 -0.112622805 0.044195384
000160 c7 60 0c be 90 1b ae bc b2 95 8d ba d7 7c 53 bd
       -0.13708793 -0.021253377 -0.0010802059 -0.05163273
000170 b9 73 f6 3d 18 01 01 bd 42 de 95 3c af df b5 3d
       0.12033791 -0.031495184 0.018294457 0.08880555
000180 24 ab 09 3d 75 06 d3 3c 4f 20 96 bd bd 7d 01 3d
       0.033610478 0.025759915 -0.07330381 0.031614054
000190 f6 64 07 bd 03 c2 e2 3c 35 08 86 bb 58 1b d5 3d
       -0.03305527 0.027680403 -0.004090334 0.10405606
0001a0 14 65 e6 3d 5c 69 c5 3c 98 fd ec bc bb 6f 30 3c
       0.11249748 0.02409809 -0.028929517 0.010768826
0001b0 02 00 0d 3c ed 2d 13 be 2c ca 35 3d c3 16 ae 3d
       0.008605959 -0.14372988 0.04438226 0.08500435
0001c0 ef db fc 3c 07 84 15 bd 90 e7 08 bd 56 fe 0a bc
       0.030866591 -0.036502864 -0.03342396 -0.00848349
0001d0 89 36 6d bd dc 70 2d bc b4 90 92 bd 0a d6 05 3a
       -0.057913337 -0.01058599 -0.07156506 0.00051054417
0001e0 2e 34 6d 3d 08 eb 40 bd 1b ff 34 be 88 e6 af 3d
       0.05791109 -0.047099143 -0.1767544 0.08588892
0001f0 3f b5 47 3d 5f b4 10 bd 2c 9b 55 bd 73 07 b0 3c
       0.048756834 -0.035328265 -0.052149937 0.021487927
000200 79 8b e4 3c 96 8f e9 bd 48 30 20 3e 48 ab da 3c
       0.027898537 -0.1140434 0.15643418 0.026693001
000210 19 86 74 bd 9a ed 8d 3b d3 b4 51 3d 65 b7 92 3c
       -0.059698198 0.004331303 0.051197838 0.017909715
000220 73 32 90 bd a1 10 e6 3c 95 36 31 be c1 27 bd bd
       -0.070408724 0.028084101 -0.17305978 -0.09236098
000230 c5 6d 72 3d 8f 02 c1 bc 09 04 f9 bd 12 ef 61 3d
       0.059186716 -0.02356079 -0.12158973 0.055159636
000240 0c 04 ad 3c ad dd 52 3d 51 a4 ed 3d 5e 60 3f bd
       0.021120094 0.051480938 0.116036065 -0.046722762
000250 e4 32 9e bd 5d d0 6b bc d8 6b 5b bd 3a f2 2c 3c
       -0.0772455 -0.014392939 -0.053569645 0.010555798
000260 37 9d 98 3c 14 3e ad bd 67 f3 b1 3d 48 65 77 bd
       0.018629653 -0.08459106 0.086890034 -0.060399324
000270 89 3c 81 bc d9 9a cb bc ac ed 9f 3c b2 db 3d bd
       -0.015775936 -0.02485411 0.01952251 -0.046352096
000280 45 18 9e 3d 21 92 6c 3d 20 e6 77 3c e5 1b 15 3e
       0.07719473 0.057756547 0.01513055 0.14561422
000290 80 3b f0 3d 7e 0a 92 3d 02 cf cb bb ca 50 cf bd
       0.11730099 0.071309075 -0.0062197456 -0.10122831
0002a0 70 48 d8 bd 29 78 c8 3d a7 7c fa 3d fb c6 64 bd
       -0.10560691 0.09788544 0.12230807 -0.055853825
0002b0 f4 87 e3 bd e0 b5 06 be 5a a4 cb 3c 44 b3 79 bd
       -0.111099154 -0.13155317 0.024858642 -0.060961977
0002c0 11 6c 06 3d 0d b8 ed bb c1 7d cf bd 0e 46 01 3e
       0.032817904 -0.0072546066 -0.101314075 0.1262438
0002d0 b8 4b 7b 3d d9 13 5c bd 79 85 8c bd bf f3 c1 bd
       0.061351508 -0.053729866 -0.068613954 -0.09470319
0002e0 0b 93 3e be 9e cc 17 be 9b 48 9a bc a4 9e 5e bd
       -0.1861078 -0.14824149 -0.01883345 -0.05435051
0002f0 55 aa 8a 3d e7 70 b6 3d 8a 67 90 bd 55 7a 05 3b
       0.067707695 0.08908253 -0.070509985 0.0020367105
000300 95 de 29 3d 8e 30 00 3e 10 3e f6 bd 1e 30 02 bd
       0.041472036 0.12518522 -0.12023556 -0.03178417
000310 8a 3f a6 bd 0e d8 ed bc 34 80 47 be ca 57 8a bd
       -0.08117588 -0.029033687 -0.194825 -0.06755026
000320 e1 67 13 bd a9 70 91 3d 03 69 9e bd aa 38 ba 3c
       -0.03598774 0.07101566 -0.07734873 0.022732098
000330 60 30 04 3b fd a6 5e 3d 3b 42 91 bd 71 dd d7 3c
       0.0020170435 0.05435847 -0.070927106 0.026350709
000340 69 b2 dc 3b 3b 91 ba 3d 86 18 05 bd 69 82 d4 3c
       0.0067351353 0.09109732 -0.03249409 0.02594109
000350 b1 35 2b 3d d1 d8 de 3d 13 1f 57 bd 06 0c 87 bd
       0.04179925 0.10881198 -0.05251987 -0.0659409
000360 71 ad 38 3d 10 ca 03 3c a3 f3 19 bd f4 c6 5e 3d
       0.04508728 0.008043781 -0.037585866 0.054388955
000370 30 8e 5b be 91 d5 29 bd 40 2a 56 bd 4b ca bd bc
       -0.21440959 -0.04146344 -0.052286386 -0.02316775
000380 74 e6 03 3e 2f 6d d1 bd 91 fa 7e bd 45 15 4a be
       0.1288088 -0.10225903 -0.062250677 -0.19734676
000390 fb f5 1f bd 0d 37 9b bc ce 35 30 3d 55 45 fc bc
       -0.039052945 -0.018947149 0.043020062 -0.030794779
0003a0 05 54 69 3d a7 69 9d 3c c4 5d fe 3c 30 b2 0b bd
       0.056964893 0.019215418 0.03105057 -0.03410548
0003b0 a1 aa d1 3d 35 f9 06 3e 58 94 74 bd 14 15 3d bd
       0.10237623 0.13181002 -0.059711784 -0.04616268
0003c0 f1 31 7c bd 3c b5 e7 bc 13 fa a9 b8 c1 58 a2 bd
       -0.061571065 -0.028284661 -8.105128e-05 -0.07927085
0003d0 85 a5 51 3d 2f 5e 7a 3d e4 ce 0e bd 84 7b 2d 3d
       0.051183242 0.061124977 -0.034865275 0.04235412
0003e0 35 ed cc bb 37 52 06 3e 77 a1 fc ba f7 96 a2 bc
       -0.006253863 0.131173 -0.0019274194 -0.019847376
0003f0 24 1d 89 3c 36 cf 96 be e7 50 59 be 86 c3 98 3c
       0.016737528 -0.29454964 -0.21222268 0.01864792

a2c_network.mu.bias f4 [10]
000000 24 40 97 3c 50 fd 95 3d 28 d5 ca 3d ad 4c 34 3e
       0.018463202 0.07323706 0.099039376 0.17607374
000010 5c 9d aa 3d 6f 07 1a bd ee 9d d4 bc fb 01 37 bc
       0.08330795 -0.037604745 -0.025954213 -0.011169906
000020 21 1f 9f bd b4 a1 7f 3c
       -0.07769609 0.015602518

exp_avg f4 [10]
000000 6b 48 87 b9 ff ca 52 39 1e 6f 06 39 52 63 0b b9
       -0.00025803162 0.00020102783 0.0001282063 -0.00013293073
000010 26 2a 9d 39 61 c3 dc b9 65 7e e7 b8 62 33 2e 3a
       0.00029976777 -0.0004210724 -0.00011038481 0.000664523
000020 9d 07 cc 39 bd 60 96 b9
       0.00038915584 -0.00028682305

exp_avg_sq f4 [10]
000000 b5 71 65 36 2a 5d 5c 36 c4 da 40 36 af 13 49 36
       3.4189845e-06 3.2836783e-06 2.8737568e-06 2.9962791e-06
000010 2f be 63 36 80 cc 4f 36 8e d2 6b 36 94 d0 80 36
       3.3936337e-06 3.0964438e-06 3.5140288e-06 3.838979e-06
000020 32 1e 70 36 f2 b0 64 36
       3.5780363e-06 3.4077643e-06
