logs/rl_games/humanoid_flat_direct/semi_success/nn/last_humanoid_flat_direct_ep_850_rew_369.30313.pth (torch, 759502 bytes, 33 tensors)

value_mean_std.running_mean f8 [1]
69.21830462460129
00000000: 99ce f5b3 f84d 5140

value_mean_std.running_var f8 [1]
1221.6541826489902
00000000: 186c 0ee2 9d16 9340

value_mean_std.count f8 []
334233601.0
00000000: 0000 0001 00ec b341

a2c_network.sigma f4 [10]
-1.281724 -0.7574166 -1.4311975 -0.5667315 -1.4383092 -0.29968312 -1.5544599 -1.8505396
-0.9046838 -0.4274145
00000000: 880f a4bf 0ee6 41bf 7b31 b7bf 5115 11bf
00000010: 841a b8bf 1170 99be 8bf8 c6bf 7bde ecbf
00000020: 5c99 67bf 13d6 dabe

a2c_network.actor_mlp.0.weight f4 [256, 42]
0.053121433 0.37117815 0.34266505 0.0995105 0.124588065 0.071907744 0.14103845 -0.18674204
-0.3488794 -0.058250695 -0.15189043 0.08833269 -0.05758221 0.029394291 0.08936273 0.04133871
0.09109089 -0.16739492 -0.014307312 -0.057770282 0.03129924 -0.0540367 -0.3428602 -0.33280683
0.1659085 0.061525095 -0.108099304 -0.206113 0.27311578 0.0041215485 0.17086841 -0.19540675
-0.14898136 -0.10483825 -0.06978749 0.022475325 0.0017602169 0.09148487 -0.06363755 -0.07146425
0.053771056 -0.041686162 0.10754901 -0.021390188 0.24588893 -0.23951563 -0.049686313 0.18152645
0.28597918 0.065031886 0.066489145 0.07954723 -0.10745516 -0.059530634 0.2987949 -0.041803725
-0.08858355 -0.18170768 -0.06289361 -0.0039250166 -0.0027511872 -0.13798806 0.012847245 -0.12585688
0.015119696 -0.1009489 -0.16295238 -0.40973333 0.25928962 -0.07435298 0.066450015 -0.3190978
-0.113336325 0.013809881 -0.0008476171 -0.13639668 -0.11964028 -0.071187064 -0.0068230215 -0.04357881
0.008998169 -0.059086516 -0.049985286 0.01951795 -0.06325715 -0.16368207 0.30428487 -0.19405428
0.17900012 -0.04513627 -0.31472388 -0.00039499844 -0.08894318 -0.047053453 -0.14531073 -0.1696859
-0.042792406 -0.13236777 0.107529975 -0.112091705 0.16242917 -0.10760212 -0.040329143 0.012667997
0.089253165 0.25746417 0.013237723 -0.3295397 0.07888034 -0.027269483 0.07358777 -0.24970935
0.16336058 -0.2981395 0.061146114 0.028032932 0.034327563 -0.06180103 0.12780507 0.0565791
0.035787754 -0.08255695 0.06265137 -0.04982799 -0.047370754 0.12757862 0.03522108 -0.34722164
-0.07968562 -0.043951146 -0.05074626 -0.20616186 -0.19582032 -0.023193542 -0.15141729 0.06180459
0.112801105 -0.15405673 0.07546747 0.15656577 0.06630068 -0.08881394 0.057321068 0.093214124
0.15113574 -0.046301093 -0.12679623 -0.017849186 0.049861044 0.11986734 0.07516557 -0.057585172
-0.019418513 -0.15990157 0.0041031595 -0.00049781776 -0.006442582 -0.04538109 -0.13188988 -0.019385604
0.0837368 0.09494577 -0.023881726 -0.06437199 -0.09102403 -0.11150348 -0.012693467 0.035604473
0.115386784 0.20642783 -0.045818966 0.02993888 -0.0020715476 0.2748475 0.10415891 -0.016109912
0.041779008 -0.08365996 -0.08734228 0.13233824 0.0017555737 0.08626765 -0.16619092 0.12372372
0.1332032 0.009693452 -0.06807951 -0.22031474 -0.1431595 0.25365224 0.13435626 0.23114082
0.07832071 -0.026019147 0.003997301 -0.23333904 -0.2828517 -0.3679158 0.12762049 -0.026248146
-0.025864491 -0.088341184 -0.05646004 -0.10096734 -0.10495166 0.0050777644 0.003636053 0.12672323
-0.04628293 -0.052210853 -0.045495115 0.0003900884 0.015208724 -0.13293658 0.15968733 -0.13871595
0.012086862 0.043968484 0.11700482 -0.09752185 0.09170015 -0.07984541 0.12976083 0.2444197
-0.03405475 0.04616165 0.04784309 -0.1022284 0.12176671 -0.3049506 0.077568874 0.2518777
0.23337711 0.06658873 -0.07892268 0.008442707 0.06460759 -0.169383 -0.01682951 -0.42565572
-0.014556096 0.026874617 -0.06442814 -0.0856177 -0.13414933 0.12543589 0.11892631 0.01770426
-0.026639866 -0.11853858 -0.11077551 -0.08377505 0.047471493 0.013735959 -0.040750396 0.006373979
00000000: dc95 593d 100b be3e cb71 af3e 29cc cb3d
00000010: 0728 ff3d 5e44 933d 626c 103e 4e39 3fbe
00000020: 52a0 b2be 4898 6ebd 2a89 1bbe c5e7 b43d
00000030: 53db 6bbd 4ccc f03c cf03 b73d c752 293d
00000040: dc8d ba3d 9369 2bbe 3769 6abc 88a0 6cbd
00000050: a233 003d 9655 5dbd 5f8b afbe a865 aabe
00000060: ebe3 293e bd01 7c3d 2b63 ddbd 490f 53be
00000070: d5d5 8b3e 0e0e 873b 21f8 2e3e b518 48be
00000080: 928e 18be 70b5 d6bd beec 8ebd 2c1e b83c
00000090: 14b7 e63a 6b5c bb3d 6754 82bd d95b 92bd
000000a0: 0a3f 5c3d 1cbf 2abd a842 dc3d 7a3a afbc
000000b0: 4fca 7b3e 9643 75be e083 4bbd 12e2 393e
000000c0: dd6b 923e 702f 853d 762b 883d a8e9 a23d
000000d0: 7311 dcbd 65d6 73bd a5fb 983e 623a 2bbd
000000e0: 4b6b b5bd 9411 3abe 5dce 80bd 6d9d 80bb
000000f0: 434d 34bb be4c 0dbe 407d 523c a0e0 00be
00000100: 9ab8 773c 4cbe cebd fddc 26be 91c8 d1be
00000110: 9cc1 843e 6046 98bd f216 883d c960 a3be
00000120: e01c e8bd d742 623c 9f32 5eba 92ab 0bbe
00000130: f705 f5bd 86ca 91bd a793 dfbb b27f 32bd
00000140: 0e6d 133c b404 72bd 5fbd 4cbd 1ce4 9f3c
00000150: f78c 81bd 469c 27be 3acb 9b3e 2ab6 46be
00000160: cf4b 373e cfe0 38bd 7d23 a1be cb17 cfb9
00000170: d827 b6bd 1fbb 40bd 56cc 14be 24c2 2dbe
00000180: 1747 2fbd 6b8b 07be ad38 dc3d 5690 e5bd
00000190: d553 263e 805e dcbd 2c30 25bd 6e8d 4f3c
000001a0: 5dca b63d 58d2 833e 09e3 583c 6db9 a8be
000001b0: 048c a13d 4064 dfbc 2fb5 963d cfb3 7fbe
000001c0: ff47 273e bea5 98be 5974 7a3d 52a5 e53c
000001d0: 0f9b 0c3d 1423 7dbd 55df 023e 7dbf 673d
000001e0: 2e96 123d 9e13 a9bd 5d4f 803d 6f18 4cbd
000001f0: d607 42bd f8a3 023e fb43 103d 09c7 b1be
00000200: 3732 a3bd 1e06 34bd 4fdb 4fbd 181c 53be
00000210: 1f85 48be 6200 bebc 220d 1bbe cf26 7d3d
00000220: 4404 e73d 0cc1 1dbe b08e 9a3d c752 203e
00000230: a7c8 873d 15e4 b5bd 7fc9 6a3d 0ce7 be3d
00000240: 54c3 1a3e 37a6 3dbd dfd6 01be 7538 92bc
00000250: 183b 4c3d 027d f53d 68f0 993d 6ede 6bbd
00000260: 9313 9fbc 3dbd 23be cc73 863b fc7f 02ba
00000270: 4b1c d3bb 86e1 39bd 240e 07be 8fce 9ebc
00000280: 337e ab3d ee72 c23d 9ca3 c3bc 76d5 83bd
00000290: cf6a babd f05b e4bd 42f8 4fbc ffd5 113d
000002a0: e84f ec3d d161 533e abac 3bbd 6242 f53c
000002b0: cdc2 07bb d0b8 8c3e 4451 d53d eff8 83bc
000002c0: 7720 2b3d ea55 abbd 82e0 b2bd ad83 073e
000002d0: 471b e63a 18ad b03d f42d 2abe dd62 fd3d
000002e0: 6b66 083e 49d1 1e3c 456d 8bbd 309a 61be
000002f0: 6798 12be b5de 813e b094 093e 2eb0 6c3e
00000300: 9c66 a03d 1b26 d5bc cbfb 823b 6ef0 6ebe
00000310: f0d1 90be 765f bcbe f2ae 023e 5a06 d7bc
00000320: c5e1 d3bc 39ec b4bd a542 67bd f7c7 cebd
00000330: e5f0 d6bd 6063 a63b d94a 6e3b bcc3 013e
00000340: 2b93 3dbd 0cdb 55bd 1659 3abd c784 cc39
00000350: 032e 793c 8720 08be 1385 233e 8e0b 0ebe
00000360: f907 463c 4c18 343d 39a0 ef3d 89b9 c7bd
00000370: 4acd bb3d fe85 a3bd 06e0 043e 2849 7a3e
00000380: fe7c 0bbd 0014 3d3d 1ef7 433d 205d d1bd
00000390: d360 f93d 7c22 9cbe 6edc 9e3d 1df6 803e
000003a0: 69fa 6e3e ac5f 883d 37a2 a1bd 4853 0a3c
000003b0: fc50 843d bd72 2dbe 0ade 89bc 8cef d9be
000003c0: b17c 6ebc 2828 dc3c e7f2 83bd 5558 afbd
000003d0: 715e 09be 4472 003e a38f f33d 8608 913c
000003e0: d93b dabc 5bc4 f2bd 45de e2bd 4192 abbd
000003f0: 7871 423d ca0c 613c e3e9 26bd d0dc d03b

a2c_network.actor_mlp.0.bias f4 [256]
-0.017884403 0.027596299 -0.011335411 0.0033047553 0.01608638 -0.013797704 -0.011816925 -0.00086004427
-0.020187942 0.04441979 0.023503086 -0.013672093 0.0017249489 -0.015112508 -0.018646033 0.007232056
-0.0021825808 0.021144832 -0.0060997773 0.030213892 -0.029052846 -0.019633349 -0.00011453208 0.030423416
-0.012997451 0.022369713 0.012199992 -0.0058136825 0.019821277 -0.027598247 -0.0038334287 0.017898763
0.028274031 0.011451973 0.0029356582 -0.042463172 0.0012310309 0.032477103 -0.021962527 -0.0015597861
0.0315812 -0.014059444 0.045350105 -0.026905037 -0.007214146 0.006513163 0.061584592 0.03988388
-0.0024327068 -0.02402006 -0.017249484 0.013330417 0.0026178183 -0.007812801 -0.026699008 -0.021519603
0.01871378 0.013921693 0.01781242 0.027077653 -0.010826409 -0.020696552 0.009413857 -0.011267594
-0.01473871 0.07359053 -0.016075952 -0.007438331 -0.006701564 0.010114889 0.012645363 0.016774252
-0.06139191 0.039072566 -0.007948376 -0.016917052 -0.017909806 -0.022280585 -0.018112345 0.030843914
0.013766593 -0.0232807 0.0041627493 -0.009001157 0.023517985 0.012590537 0.012430689 -0.02500949
0.010036267 -0.030739758 -0.012537261 -0.01770919 0.007186043 -0.00095972506 -0.0093248235 0.017287774
0.028864704 4.6702116e-05 -0.018370025 0.014576377 0.05049523 -0.0093998425 0.011290462 0.0134832645
0.04032187 0.010312625 0.019572878 0.014892834 -0.04077091 -0.033233628 0.02842303 0.027521329
-0.013960643 -0.035307046 -0.03126291 0.012188328 0.0288039 -0.04402227 0.013454921 -0.0050159404
-0.04028161 -0.06469875 0.00080001657 0.005953633 -0.0033332687 -0.009165231 -0.014541349 -0.013547201
-0.0037406632 -0.027941959 -0.0036628651 0.01106193 -0.02992009 0.014462321 0.037646946 -0.017865457
0.009042876 -0.023825727 -0.011195498 -0.022157693 0.02429078 0.0049449345 -0.022047011 -0.021265065
-0.01289344 0.015698558 0.0119099375 0.0046362653 0.02005599 -0.037015446 0.02968469 0.019150034
0.033997152 0.0043395394 -0.009643474 -0.043671902 -0.02270565 -0.03355188 0.06348359 -0.0070578353
-0.019433295 0.02325526 -0.024955684 5.0502884e-05 -0.029278314 0.008147171 0.0051121446 0.011250327
0.002652518 0.024280056 -0.006320308 -0.036683436 0.0076504224 0.022359319 0.009061677 0.0025420734
0.005701729 -0.037919603 0.02357727 0.005188141 0.007857657 0.011991726 -0.0047253123 0.01704249
6.3066684e-05 -0.02469797 0.022468813 0.017148774 0.0019756085 0.020082427 -0.025320437 0.027910782
0.0077576316 -0.012376559 0.025976395 -0.041422393 -0.033642508 -0.023002038 0.033000726 -0.010163517
0.044251744 -0.0038120968 0.017008023 -0.036652256 -0.005287843 -0.020423586 0.01796406 -0.029281467
-0.0021250907 -0.0019069487 0.004682692 0.020087533 0.011523128 0.024459876 -0.012074802 -0.00042367438
-0.035465833 0.0026933302 -0.0011244207 -0.026851468 0.04262986 -0.01072972 -0.054755595 0.040929336
0.011252951 -0.03414616 -0.02576038 0.014402739 0.050866406 0.0072097527 0.018873017 -0.024546644
0.012196959 -0.06625198 0.0042996327 0.04270091 -0.01240832 0.019070094 -0.007772265 0.0048923143
0.027653242 0.019630257 0.0032976973 0.0230236 0.0257939 0.030757584 0.0137967365 -0.06765312
0.020274455 -0.02629987 -0.0025036845 -0.009395759 0.012083034 -0.0010781443 0.016944746 0.011519086
00000000: 5082 92bc a211 e23c 29b8 39bc 9894 583b
00000010: 96c7 833c c40f 62bc c79b 41bc 9874 61ba
00000020: 2f61 a5bc 87f1 353d 8b89 c03c ea00 60bc
00000030: ae17 e23a 749a 77bc 91bf 98bc e2fa ec3b
00000040: a109 0fbb ed37 ad3c a4e0 c7bb 2083 f73c
00000050: 3c00 eebc 1ed6 a0bc f130 f0b8 873a f93c
00000060: 43f3 54bc b040 b73c 7ae2 473c b480 bebb
00000070: 3b60 a23c b815 e2bc 433a 7bbb 6da0 923c
00000080: f19e e73c 0ea1 3b3c 2c64 403b dded 2dbd
00000090: 8b5a a13a b606 053d c2ea b3bc bd71 ccba
000000a0: 4a5b 013d 9559 66bc 08c1 393d f467 dcbc
000000b0: a564 ecbb 5f6c d53b 2040 7c3d 485d 233d
000000c0: 0c6e 1fbb b8c5 c4bc ca4e 8dbc d267 5a3c
000000d0: b48f 2b3b 4301 00bc e1b7 dabc e149 b0bc
000000e0: a44d 993c d017 643c 5aeb 913c f4d1 dd3c
000000f0: 4061 31bc d18b a9bc 943c 1a3c b79b 38bc
00000100: a17a 71bc a2b6 963d b7b1 83bc 3ebd f3bb
00000110: cb98 dbbb ebb8 253c 7f2e 4f3c 286a 893c
00000120: 1576 7bbd 8e0a 203d e839 02bc a195 8abc
00000130: 96b7 92bc c685 b6bc 5760 94bc 60ac fc3c
00000140: 478d 613c 2bb7 bebc ac67 883b 9779 13bc
00000150: caa8 c03c 8a48 4e3c 17aa 4b3c b4e0 ccbc
00000160: 286f 243c f2d1 fbbc 1569 4dbc dd12 91bc
00000170: e678 eb3b 0f96 7bba 25c7 18bc 179f 8d3c
00000180: ac75 ec3c 04e2 4338 bc7c 96bc c2d1 6e3c
00000190: 16d4 4e3d cc01 1abc a1fb 383c e9e8 5c3c
000001a0: 8c28 253d 49f6 283c 4d57 a03c 1301 743c
000001b0: 66ff 26bd fc1f 08bd 6ad7 e83c 6974 e13c
000001c0: 2ebb 64bc 1f9e 10bd 8a0d 00bd 8eb1 473c
000001d0: 28f6 eb3c b250 34bd 0772 5c3c c25c a4bb
000001e0: 54fe 24bd c780 84bd 34b8 513a b216 c33b
000001f0: f872 5abb c429 16bc d73e 6ebc 14f5 5dbc
00000200: ea25 75bb 89e6 e4bc ae0c 70bb 193d 353c
00000210: fa1a f5bc 5ff3 6c3c af33 1a3d 945a 92bc
00000220: 9228 143c 2c2e c3bc 526d 37bc 0d84 b5bc
00000230: 75fd c63c 1e09 a23b ef9b b4bc 1334 aebc
00000240: 023f 53bc 439a 803c e621 433c d0eb 973b
00000250: 764c a43c 829d 17bd 4f2d f33c 88e0 9c3c
00000260: 9940 0b3d b232 8e3b a9ff 1dbc 4fe1 32bd
00000270: 3301 babc b26d 09bd af03 823d 6a45 e7bb
00000280: 9332 9fbc d181 be3c dd6f ccbc 0fd3 5338
00000290: 13d9 efbc b67b 053c c783 a73b 4b53 383c
000002a0: ded5 2d3b f8e6 c63c 961a cfbb 5f41 16bd
000002b0: 65b0 fa3b e42a b73c 6e77 143c ea98 263b
000002c0: 92d5 ba3b 9651 1bbd 1e25 c13c 4801 aa3b
000002d0: 67bd 003c f278 443c cbd6 9abb b19c 8b3c
000002e0: ab42 8438 6653 cabc 8410 b83c 967b 8c3c
000002f0: 3679 013b e783 a43c ce6c cfbc 27a5 e43c
00000300: bb33 fe3b 0dc7 4abc 73cc d43c 87aa 29bd
00000310: bacc 09bd c56e bcbc c52b 073d e184 26bc
00000320: 5141 353d 5fd4 79bb 6954 8b3c ad20 16bd
00000330: a445 adbb 5d4f a7bc 5d29 933c b0df efbc
00000340: 1b45 0bbb 95f2 f9ba 4471 993b 9c8e a43c
00000350: 80cb 3c3c 1460 c83c 64d5 45bc 9d20 deb9
00000360: 9f44 11bd 9582 303b 4c61 93ba 9cf7 dbbc
00000370: a69c 2e3d b5cb 2fbc 6747 60bd 85a5 273d
00000380: 4c5e 383c d8dc 0bbd 6f07 d3bc 77f9 6b3c
00000390: 4b59 503d ca3f ec3b 969b 9a3c 0b16 c9bc
000003a0: c1d5 473c 1eaf 87bd efe3 8c3b 26e7 2e3d
000003b0: 444c 4bbc e338 9c3c 7cae febb b54f a03b
000003c0: 0d89 e23c a2cf a03c 2e1e 583b fd9b bc3c
000003d0: bb4d d33c 54f7 fb3c b50b 623c b88d 8abd
000003e0: 9d16 a63c d372 d7bc db14 24bb abf0 19bc
000003f0: ebf7 453c 8550 8dba b5cf 8a3c 8cba 3c3c

a2c_network.actor_mlp.2.weight f4 [128, 256]
-0.0055533797 -0.14436609 -0.045274638 -0.02867543 0.064794466 -0.03794657 -0.037755806 0.21379064
0.032095686 0.13018274 -0.074497186 0.042318698 -0.007867642 0.07587597 -0.12198097 0.02295173
-0.18387558 0.13072105 0.15054832 -0.06352202 0.09298393 0.12108241 -0.25447515 -0.15170251
0.10392294 -0.07973683 0.01021748 0.026616124 -0.0759166 -0.035742927 -0.022333635 0.022896577
-0.042099446 -0.012127964 0.07813069 -0.16120163 -0.13031003 -0.048289835 -0.035448227 0.0034074988
-0.049137637 0.15318076 -0.023857616 -0.050358735 0.046020348 -0.062081587 0.08216395 -0.054295637
0.07658131 -0.07216784 0.017959379 -0.01595565 -0.009410369 0.18892996 -0.040621772 0.02105152
-0.08790473 -0.054197766 0.079374805 0.021220472 0.058318187 0.023805428 0.08940128 -0.0960495
0.10618469 0.073834695 -0.07352562 0.09420892 0.060482964 0.07571416 0.06994782 0.07943468
-0.037333887 0.05912823 0.07962267 -0.066535465 -0.013640052 0.049054228 0.004166351 -0.005593613
-0.03808589 0.08213868 -0.041748844 -0.007956747 -0.0050573153 -0.050203983 -0.025520477 -0.006076602
-0.14537738 -0.07628343 0.122146845 0.061942592 0.04074061 0.024775289 -0.0155684585 -0.046002775
-0.028398009 -0.077212736 0.024809074 0.0625662 -0.07504108 -0.05631589 -0.0012244715 -0.044844512
0.04696807 0.08680563 0.07967488 0.017806835 -0.03233748 0.01362884 -0.09680789 -0.03907963
0.18401545 0.04633037 0.012202441 -0.02575561 -0.045131583 0.23057793 -0.075618036 0.01642836
-0.1213074 0.028838074 -0.090604395 -0.11243597 0.048058275 0.077332854 0.026181635 0.01108887
-0.06930363 0.08460293 -0.0060647926 0.019058906 0.0090012755 0.031081198 0.063623115 -0.074647896
0.021450479 0.054364637 -0.0053994223 0.011381192 -0.09587472 0.05355034 0.19965743 -0.087673835
0.021310296 0.09932698 -0.02772299 0.008839795 -0.16482551 0.034198295 0.018351514 -0.12324163
0.08307606 0.0035040027 -0.15854535 -0.018032392 0.10559342 -0.029576106 -0.08969572 -0.06632298
0.032438464 0.04829743 0.07324052 -0.09853466 -0.070860066 -0.009523427 0.13537213 -0.08731514
-0.012240597 -0.1413025 0.10175216 0.054345593 0.05836504 0.025933156 -0.14220574 0.029562289
-0.05660508 -0.100163355 0.044882417 -0.11855787 -0.025205731 -0.046349734 -0.08360642 -0.13166574
0.02430797 0.0740846 0.023962803 -0.0370029 -0.065604344 0.07485644 -0.022224972 0.05525224
-0.22241023 0.0068296655 -0.052850068 -0.01011929 0.01582838 -0.0029743295 -0.06134766 0.110648245
-0.042399116 0.06806381 -0.08019885 -0.0012603354 0.03315373 0.0855549 0.1228419 -0.12965518
-0.08462809 -0.036460843 0.027693048 -0.028747512 -0.15366347 -0.06042083 0.01193369 -0.0490641
-0.08713457 0.118333414 -0.07540992 -0.0083267065 -0.07274822 -0.024463233 0.04588122 -0.01430958
-0.13728225 0.09168784 0.037034404 0.008543048 0.03844524 0.09155245 -0.028297618 0.05091952
0.21723928 -0.022289371 -0.05876729 -0.040423617 0.04442493 -0.1882123 0.06779241 0.0123254815
-0.07172731 -0.019925019 0.047363885 0.05733354 -0.0607557 0.028119465 0.039793417 0.1431588
-0.06229341 -0.027689263 -0.031344056 0.07477784 0.08647484 -0.0094799595 -0.016633846 -0.012078692
00000000: 20f9 b5bb b4d4 13be e671 39bd bce8 eabc
00000010: f6b2 843d dd6d 1bbd d5a5 1abd efeb 5a3e
00000020: c476 033d a04e 053e fb91 98bd 5f56 2d3d
00000030: 48e7 00bc dc64 9b3d 29d1 f9bd 4405 bc3c
00000040: e149 3cbe bddb 053e 5729 1a3e d517 82bd
00000050: 5c6e be3d 0efa f73d 914a 82be e757 1bbe
00000060: 8dd5 d43d 104d a3bd 3867 273c 0f0a da3c
00000070: 2a7a 9bbd 2d67 12bd 07f5 b6bc 9a91 bb3c
00000080: 7870 2cbd 5eb4 46bc fc02 a03d 0a12 25be
00000090: fe6f 05be 90cb 45bd 2932 11bd 5850 5f3b
000000a0: 8c44 49bd 6bdb 1c3e 0c71 c3bc f644 4ebd
000000b0: d57f 3c3d 4349 7ebd 9345 a83d 1a65 5ebd
000000c0: a9d6 9c3d bccc 93bd 8c1f 933c 6cb5 82bc
000000d0: f32d 1abc db76 413e 0463 26bd 3d74 ac3c
000000e0: 6507 b4bd 7afe 5dbd 428f a23d 8ed6 ad3c
000000f0: 0ddf 6e3d 9a03 c33c 0518 b73d 9ab5 c4bd
00000100: 5c77 d93d a536 973d 9a94 96bd 9bf0 c03d
00000110: fcbc 773d 0710 9b3d cd40 8f3d a6ae a23d
00000120: 6beb 18bd 7130 723d 3611 a33d bf43 88bd
00000130: 867a 5fbc 16ed 483d e385 883b a04a b7bb
00000140: f3ff 1bbd 5338 a83d d600 2bbd 045d 02bc
00000150: d6b7 a5bb b1a2 4dbd 5210 d1bc 3b1e c7bb
00000160: cfdd 14be 7d3a 9cbd 2028 fa3d 84b7 7d3d
00000170: a0df 263d 8cf5 ca3c d912 7fbc 686d 3cbd
00000180: f1a2 e8bc b621 9ebd 663c cb3c b522 803d
00000190: 23af 99bd 7eab 66bd 727e a0ba e1ae 37bd
000001a0: 9761 403d 26c7 b13d 952c a33d a4df 913c
000001b0: 4e74 04bd 804b 5f3c 3743 c6bd f611 20bd
000001c0: 8c6e 3c3e eac4 3d3d bfec 473c 6efd d2bc
000001d0: e5db 38bd 9f1c 6c3e a1dd 9abd c594 863c
000001e0: 0470 f8bd d33d ec3c cc8e b9bd d444 e6bd
000001f0: c1d8 443d b060 9e3d de7a d63c 17ae 353c
00000200: 10ef 8dbd 4d44 ad3d 2bbb c6bb 6c21 9c3c
00000210: 167a 133c ff9d fe3c d64c 823d ffe0 98bd
00000220: eab8 af3c 74ad 5e3d a3ed b0bb 2e78 3a3c
00000230: f759 c4bd 9a57 5b3d ff72 4c3e 578e b3bd
00000240: ee92 ae3c f26b cb3d 531b e3bc cad4 103c
00000250: 05c8 28be 8313 0c3d ea55 963c 1c66 fcbd
00000260: c823 aa3d 69a3 653b b659 22be abb8 93bc
00000270: 5d41 d83d 9749 f2bc 64b2 b7bd 58d4 87bd
00000280: 32de 043d 87d3 453d 20ff 953d 8acc c9bd
00000290: 151f 91bd 2608 1cbc fe9e 0a3e 48d2 b2bd
000002a0: c98c 48bc 9ab1 10be 7063 d03d 7c99 5e3d
000002b0: 2e10 6f3d c571 d43c 629e 11be 9d2c f23c
000002c0: bada 67bd 7222 cdbd a0d6 373d 78ce f2bd
000002d0: 407c cebc 38d9 3dbd d839 abbd 62d3 06be
000002e0: 8221 c73c abb9 973d a44d c43c 5a90 17bd
000002f0: 925b 86bd 554e 993d 2511 b6bc 2c50 623d
00000300: 82bf 63be 63cb df3b 5079 58bd 61cb 25bc
00000310: 85aa 813c f8ec 42bb af47 7bbd 8c9b e23d
00000320: b2aa 2dbd 0a65 8b3d 4b3f a4bd d731 a5ba
00000330: 35cc 073d 6837 af3d 8994 fb3d 54c4 04be
00000340: 7e51 adbd f757 15bd 88dc e23c e77f ebbc
00000350: f559 1dbe d57b 77bd 8685 433c 70f7 48bd
00000360: 9c73 b2bd ca58 f23d 8470 9abd bd6c 08bc
00000370: 05fd 94bd 1e67 c8bc f2ed 3b3d bb72 6abc
00000380: b893 0cbe d6c6 bb3d 63b1 173d 24f8 0b3c
00000390: c278 1d3d da7f bb3d 68d0 e7bc fd90 503d
000003a0: f973 5e3e 3398 b6bc f8b5 70bd 3c93 25bd
000003b0: eaf6 353d baba 40be bfd6 8a3d d1f0 493c
000003c0: c5e5 92bd cb39 a3bc a200 423d 93d6 6a3d
000003d0: f8da 78bd cb5a e63c 6cfe 223d 3898 123e
000003e0: 6027 7fbd 98d4 e2bc a062 00bd 2025 993d
000003f0: b919 b13d d551 1bbc b443 88bc b5e5 45bc

a2c_network.actor_mlp.2.bias f4 [128]
0.004302883 0.039179597 -0.0065031503 -0.04346317 -0.001423643 -0.034337115 0.023637548 -0.005487196
-0.058530826 -0.026535653 -0.022254536 -0.032418817 0.0068888557 -0.04338028 -0.017643249 -0.00061072287
-0.0094888285 -0.038715225 0.014667555 0.011879784 -0.006702726 -0.087923735 0.060503863 0.013831446
0.011837764 -0.047200937 -0.042400077 0.04925448 0.024270086 -0.018965516 -0.0009323359 0.0048198113
0.031557936 -0.02360576 -0.035097625 -0.036047243 -0.0072700176 0.013247271 0.022840366 -0.03994132
-0.027500384 -0.015587029 0.039425593 -0.03001963 0.006366289 0.0049793534 -0.0007933138 0.020616569
-0.014784337 0.05010999 -0.0053531374 0.03246175 0.0044870423 -0.0450233 -0.005463157 -0.02251719
-0.035613127 -0.020626057 0.045603506 0.02820477 -0.016686697 -0.041930936 -0.04427441 0.0020460833
-0.019112783 -0.02204153 0.02767823 -0.0157793 0.022210553 0.023676634 0.005650791 0.00443282
0.0028297484 -0.025263723 0.0048500686 -0.024789957 -0.0905126 0.048540663 -0.00086414826 -0.03447396
-0.09880588 -0.0030547222 0.03630829 0.044207998 -0.00083549507 0.0011822943 0.0016695523 -0.016289791
0.02102906 0.041974816 -0.019494412 -0.05179963 -0.058504127 -0.04765565 -0.06465865 -0.032178685
0.023510141 -0.011781093 -0.035002634 -0.016966138 -0.030041633 -0.0131405955 -0.007942242 -0.06695093
-0.015990296 0.030626273 -0.0068798834 -0.0085102 0.012954466 -0.05666999 -0.014789298 -0.015155535
-0.045996662 0.017773524 -0.051525123 0.0045798114 -0.015364596 -0.007992521 -0.012561399 -0.022068838
-0.028733775 0.01574235 -0.11049053 -0.024340313 -0.0753556 0.009455354 -0.050437853 -0.037621286
00000000: 33ff 8c3b c97a 203d 6118 d5bb 7006 32bd
00000010: 8899 baba 13a5 0cbd 88a3 c13c f0cd b3bb
00000020: 05be 6fbd 4c61 d9bc 254f b6bc 98c9 04bd
00000030: e9bb e13b 85af 31bd 9388 90bc eb18 20ba
00000040: 0877 1bbc db93 1ebd 2f50 703c 6da3 423c
00000050: 8aa2 dbbb 5c11 b4bd e6d2 773d 4a9d 623c
00000060: 2ef3 413c c555 41bd b4ab 2dbd 11bf 493d
00000070: 0fd2 c63c 925d 9bbc 0168 74ba 82ef 9d3b
00000080: e542 013d de60 c1bc 87c2 0fbd 46a6 13bd
00000090: 5439 eebb 150b 593c b81b bb3c 8299 23bd
000000a0: 7c48 e1bc bd60 7fbc bb7c 213d baeb f5bc
000000b0: 4e9c d03b d829 a33b 63f6 4fba 14e4 a83c
000000c0: 013a 72bc 2240 4d3d 5f69 afbb 9df6 043d
000000d0: 0a08 933b 5a6a 38bd 4804 b3bb f875 b8bc
000000e0: 12df 11bd faf7 a8bc beca 3a3d b10d e73c
000000f0: 8ab2 88bc c6bf 2bbd 1559 35bd 9517 063b
00000100: 6992 9cbc 7090 b4bc 75bd e23c 9743 81bc
00000110: e8f2 b53c 80f5 c13c 452a b93b 3041 913b
00000120: 4d73 393b def5 cebc 53ed 9e3b 4f14 cbbc
00000130: ac5e b9bd 93d2 463d 0288 62ba 9134 0dbd
00000140: bd5a cabd bc31 48bb 00b8 143d 7213 353d
00000150: 2005 5bba 37f7 9a3a e1d4 da3a 2b72 85bc
00000160: 2345 ac3c c9ed 2b3d bfb2 9fbc d92b 54bd
00000170: 06a2 6fbd 9232 43bd c16b 84bd cccd 03bd
00000180: 5798 c03c 7c05 41bc ec5e 0fbd 92fc 8abc
00000190: df19 f6bc a74b 57bc 2d20 02bc 921d 89bd
000001a0: 15fe 82bc f3e3 fa3c a570 e1bb 5e6e 0bbc
000001b0: f83e 543c cb1e 68bd d04e 72bc ec4e 78bc
000001c0: ff66 3cbd c899 913c 020c 53bd 3e12 963b
000001d0: c9bb 7bbc 10f3 02bc 53ce 4dbc b5c9 b4bc
000001e0: 1863 ebbc 1af6 803c dc48 e2bd 5665 c7bc
000001f0: 0954 9abd a1ea 1a3c ec97 4ebd c718 1abd

a2c_network.actor_mlp.4.weight f4 [128, 128]
0.26415637 -0.16122283 0.06751992 -0.20102431 -0.061095983 -0.2105065 -0.029622914 -0.035861574
0.20502105 -0.13633777 0.13643017 0.057068244 0.04060268 -0.03189885 0.14729978 -0.027667847
0.12915424 -0.0707935 0.049483698 -0.08021608 -0.07053803 0.20083085 0.015578637 0.006454351
0.17651014 -0.06266018 -0.055419054 0.15129654 0.035116132 0.06422239 -0.0657829 -0.06942436
0.13548101 -0.09475454 0.18268758 0.016391952 0.09543428 -0.051540185 -0.012786606 0.08365173
-0.022950634 0.015256225 0.038414717 0.12194256 -0.03502982 0.19660693 0.045289114 0.016189432
0.13576403 0.10311172 0.08809583 0.09041991 0.09232763 0.026215183 0.083149664 -0.050139617
0.12823738 0.08871739 0.013010854 -0.022243816 -0.19106781 0.119434856 0.020998113 -0.097820625
0.057391092 0.2910448 -0.095217854 -0.27169138 -0.077204295 -0.092525676 0.091325454 -0.22129449
0.22963274 0.12230015 0.10771455 -0.20846747 0.031320572 -0.022269802 -0.006528523 0.20522396
0.013168063 0.054753397 0.22430591 -0.0029764334 0.12036825 0.16235363 -0.18474863 0.01380162
-0.082918935 -0.08547728 0.08469515 -0.10794539 -0.021849295 -0.14916353 0.007809669 -0.01685259
-0.036966793 0.15166402 -0.037600353 0.023505853 -0.019855507 -0.08771031 0.16803955 0.12733044
0.15828305 0.14636023 -0.14960492 0.17089541 -0.056273174 0.06473997 -0.15549795 -0.06560396
0.04514927 0.096783705 -0.1435989 -0.0737134 -0.060839433 -0.093782105 -0.0333592 -0.012557607
-0.0114125945 -0.029810615 -0.025662 0.17044656 -0.15885532 0.07207077 0.01732143 -0.01294169
-0.1642757 0.09371697 0.060961124 0.086569175 0.0023880114 -0.0923975 0.06386649 0.015375144
0.0017698252 -0.12798996 -0.004335672 -0.03277029 0.10451298 -0.24694383 -0.13311313 0.050551135
-0.045006797 0.11312007 -0.14628634 0.0027373384 -0.056040823 -0.07525109 -0.053972695 0.060454987
-0.03667026 -0.030490905 -0.07141559 -0.027401181 -0.027513923 -0.0015880069 0.029461317 -0.09226682
0.063960984 0.008537773 -0.06258069 -0.24614023 0.012168565 -0.095964596 -0.022549026 -0.013773582
0.04491807 -0.031448398 -0.045472294 -0.052998636 -0.098941244 -0.12575005 0.009551503 -0.107556924
0.055380974 0.13959576 -0.12425455 -0.16515099 0.21872404 0.065970525 -0.12452577 0.0010072277
-0.12018905 0.07911347 0.21616493 0.023191186 0.011310251 -0.11088219 -0.061691932 -0.1644588
-0.25565827 0.05831572 0.0815056 0.009438398 -0.03302759 0.003685939 -0.040976424 0.11956237
-0.15129551 -0.0767391 0.2595742 0.08204137 -0.067421876 0.1104579 -0.2112293 0.09343904
-0.12325267 -0.0050497614 0.056681894 -0.08736787 -0.041482262 -0.10627432 -0.057100214 -0.09618292
0.11413824 -0.019034913 -0.06434851 0.10799634 -0.091931954 0.057380937 -0.106135756 -0.07798897
0.03504381 -0.1802923 -0.3000475 0.37240818 -0.098855525 -0.102413855 0.02789683 -0.139337
-0.065336265 0.1160805 0.043727428 -0.026820028 -0.16509913 -0.128559 0.0050990176 0.16943142
0.006779558 0.07686891 0.09099327 0.09381155 -0.03152615 0.107058816 -0.12325215 -0.10332868
-0.16806589 -0.054623656 -0.20789339 0.018859785 -0.09624702 -0.04000677 0.10991912 -0.034512132
00000000: 813f 873e 9917 25be e247 8a3d 51d9 4dbe
00000010: c83f 7abd 048f 57be c1ab f2bc 96e3 12bd
00000020: 0af1 513e 219c 0bbe 5ab4 0b3e 64c0 693d
00000030: ff4e 263d 5ea8 02bd c1d5 163e aea7 e2bc
00000040: 0241 043e 2ffc 90bd 6baf 4a3d 5448 a4bd
00000050: 3e76 90bd 9aa6 4d3e 8a3d 7f3c 057f d33b
00000060: 13bf 343e fb53 80bd 17ff 62bd 7bed 1a3e
00000070: efd5 0f3d 0787 833d 2fb9 86bd 5c2e 8ebd
00000080: 89bb 0a3e ab0e c2bd 7412 3b3e 6a48 863c
00000090: 0c73 c33d cd1b 53bd ea7e 51bc 9951 ab3d
000000a0: f802 bcbc 3ff5 793c c058 1d3d 05bd f93d
000000b0: 6e7b 0fbd 5453 493e 1481 393d b39f 843c
000000c0: ba05 0b3e 3d2c d33d 966b b43d 132e b93d
000000d0: 4516 bd3d 39c1 d63c 5f4a aa3d 335f 4dbd
000000e0: a950 033e 77b1 b53d 7a2b 553c aa38 b6bc
000000f0: 48a7 43be 439a f43d 3c04 ac3c 2e56 c8bd
00000100: ec12 6b3d d303 953e 9401 c3bd 221b 8bbe
00000110: 491d 9ebd 1a7e bdbd d708 bb3d 069b 62be
00000120: d824 6b3e 8078 fa3d 7299 dc3d 7f78 55be
00000130: 004a 003d 296f b6bc 38ed d5bb 3b26 523e
00000140: dcbe 573c 1945 603d 73b0 653e 4410 43bb
00000150: a183 f63d 0840 263e bf2e 3dbe 3120 623c
00000160: 67d1 a9bd b60e afbd a774 ad3d 7912 ddbd
00000170: 4bfd b2bc 53be 18be 40e8 ff3b 710e 8abc
00000180: 7e6a 17bd d04d 1b3e d402 1abd 598f c03c
00000190: 04a8 a2bc 77a1 b3bd 8f12 2c3e e962 023e
000001a0: f414 223e 75df 153e 0832 19be 35ff 2e3e
000001b0: b37e 66bd 6496 843d db3a 1fbe 5e5b 86bd
000001c0: 71ee 383d 8936 c63d 970b 13be 0df7 96bd
000001d0: c532 79bd d510 c0bd a8a3 08bd 6cbe 4dbc
000001e0: e4fb 3abc 6435 f4bc 1d39 d2bc 8b89 2e3e
000001f0: f8aa 22be d799 933d ace5 8d3c 6209 54bc
00000200: e437 28be afee bf3d 5fb2 793d 2e4b b13d
00000210: 2f80 1c3b e73a bdbd 6fcc 823d 07e8 7b3c
00000220: 7bf9 e73a cd0f 03be 4112 8ebb 243a 06bd
00000230: e70a d63d d8de 7cbe cf4e 08be b50e 4f3d
00000240: 0c59 38bd 7fab e73d 16cc 15be eb64 333b
00000250: 108b 65bd 3e1d 9abd 7912 5dbd a69f 773d
00000260: 8e33 16bd 10c8 f9bc 5642 92bd 7178 e0bc
00000270: e164 e1bc ab24 d0ba dc58 f13c 63f6 bcbd
00000280: fafd 823d 04e2 0b3c 4e2a 80bd 2f0c 7cbe
00000290: a95e 473c 1689 c4bd bcb8 b8bc 97aa 61bc
000002a0: 03fc 373d 09d0 00bd 2841 3abd 1915 59bd
000002b0: b5a1 cabd 9fc4 00be e87d 1c3c ce46 dcbd
000002c0: 29d7 623d 31f2 0e3e 2b79 febd 571d 29be
000002d0: 32f9 5f3e 8e1b 873d 5e07 ffbd f404 843a
000002e0: ad25 f6bd 3e06 a23d 575a 5d3e 71fb bd3c
000002f0: a24e 393c 3416 e3bd aeb0 7cbd e367 28be
00000300: a4e5 82be 77dc 6e3d 68ec a63d 83a3 1a3c
00000310: f047 07bd cb8f 713b e5d6 27bd 1edd f43d
00000320: 36ed 1abe 6429 9dbd e9e6 843e 4e05 a83d
00000330: 7b14 8abd c037 e23d 7e4c 58be f85c bf3d
00000340: e56b fcbd 7878 a5bb 462b 683d eded b2bd
00000350: 4ee9 29bd 5aa6 d9bd eae1 69bd 8dfb c4bd
00000360: 4fc1 e93d 1bef 9bbc 27c9 83bd 2f2d dd3d
00000370: d246 bcbd 4608 6b3d b45d d9bd aeb8 9fbd
00000380: 198a 0f3d 8b9e 38be d39f 99be 49ac be3e
00000390: c474 cabd 5bbe d1bd e587 e43c 5cae 0ebe
000003a0: 05cf 85bd 9dbb ed3d 881b 333d adb5 dbbc
000003b0: bf0f 29be f8a4 03be a915 a73b 6e7f 2d3e
000003c0: 0e27 de3b 726d 9d3d ae5a ba3d 4520 c03d
000003d0: 9021 01bd a741 db3d a06b fcbd fd9d d3bd
000003e0: 7719 2cbe 0ebd 5fbd 01e2 54be d67f 9a3c
000003f0: 281d c5bd 24de 23bd 471d e13d 985c 0dbd

a2c_network.actor_mlp.4.bias f4 [128]
-0.05396527 -0.011816262 -0.011844213 -0.035382748 -0.0102349715 -0.0752209 0.02490356 0.0040671383
-0.031191122 -0.05899185 -0.14885873 0.015480819 -0.020496657 -0.06295164 -0.09825714 -0.06440535
0.072805494 -0.012668646 -0.005736617 0.0072465646 -0.014625064 -0.080394715 0.0094925845 -0.07664171
-0.090350345 0.020272648 0.025730126 -0.061219804 -0.005816292 -0.044719186 0.08361869 -0.08208321
0.0025592023 0.030101841 -0.02032539 -0.014365686 0.0021886795 -0.020133652 0.0033215524 0.0060279807
-0.09077947 -0.01967561 -0.03706584 0.064739555 -0.087570414 -0.017991649 -0.13866554 -0.026908698
0.03233959 -0.025869312 -0.076104715 0.00870019 0.015298641 0.0398883 0.01200674 0.05989208
-0.0013141256 0.014420997 0.011792101 -0.014399218 0.027385112 0.065229826 -0.0631375 -0.044695385
0.017199809 0.04068634 -0.034096994 0.06421074 -0.050614253 -0.0054150657 -0.13807599 0.015938742
-0.005150734 0.086807325 0.012612229 -0.018945841 -0.0128281405 0.0018493623 -0.03226378 -0.024562558
0.025443388 -0.002570111 0.017448965 -0.06914276 0.014280798 -0.091755636 -0.0864361 -0.16589575
-0.08321681 -0.015969304 -0.050405126 -0.06456714 -0.04198679 -0.032061834 0.000473568 -0.038316183
-0.030073754 0.015989989 -0.109122895 -0.03987149 0.001527871 -0.08671279 -0.06516333 0.07724377
-0.06684437 0.032439787 0.03721092 -0.11065445 -0.057469595 0.0049221683 0.03382611 -0.02926209
0.004150499 -0.07897302 -0.046202797 -0.043873407 -0.035231985 -0.027604178 -0.07960006 -0.022285044
-0.03169099 0.028666684 0.09727964 -0.12652044 -0.008982846 -0.03660302 -0.015608142 -0.011213799
00000000: b00a 5dbd ff98 41bc 3b0e 42bc 80ed 10bd
00000010: 95b0 27bc 6a0d 9abd 8d02 cc3c a145 853b
00000020: 8684 ffbc 70a1 71bd 6c6e 18be 43a3 7d3c
00000030: 9be8 a7bc caec 80bd 0a3b c9bd f4e6 83bd
00000040: 0c1b 953d 2790 4fbc 3bfa bbbb 9774 ed3b
00000050: f79d 6fbc fca5 a4bd c986 1b3c 54f6 9cbd
00000060: 9a09 b9bd d312 a63c fcc7 d23c 9ec1 7abd
00000070: 9896 bebb 772b 37bd 4740 ab3d 3e1b a8bd
00000080: 4ab8 273b 2398 f63c 6f81 a6bc 0e5e 6bbc
00000090: f36f 0f3b 54ef a4bc 67ae 593b 5e86 c53b
000000a0: 96ea b9bd bf2e a1bc 5ad2 17bd 2c96 843d
000000b0: 1e58 b3bd 3963 93bc 57fe 0dbe a16f dcbc
000000c0: 8576 043d e1eb d3bc cadc 9bbd 3e8b 0e3c
000000d0: 27a7 7a3c ea61 233d ebb7 443c 6651 753d
000000e0: bd3e acba 0c46 6c3c a833 413c b3ea 6bbc
000000f0: be56 e03c 3797 853d 3c4e 81bd 8212 37bd
00000100: 9de6 8c3c b8a6 263d 4aa9 0bbd ec80 833d
00000110: e450 4fbd dd70 b1bb cb63 0dbe f791 823c
00000120: 7dc7 a8bb 0ac8 b13d 86a3 4e3c 4f34 9bbc
00000130: 1f2d 52bc 4d66 f23a 0627 04bd 6b37 c9bc
00000140: a76e d03c 4f6f 28bb 22f1 8e3c b89a 8dbd
00000150: 02fa 693c 61ea bbbd 6905 b1bd 93e0 29be
00000160: 936d aabd 0fd2 82bc 9b75 4ebd c73b 84bd
00000170: 57fa 2bbd 4553 03bd 3949 f839 6ef1 1cbd
00000180: 3c5d f6bc 70fd 823c d37b dfbd 4a50 23bd
00000190: d842 c83a 7a96 b1bd 5a74 85bd fb31 9e3d
000001a0: b3e5 88bd 95df 043d 7a6a 183d cd9e e2bd
000001b0: 3d65 6bbd 244a a13b 3f8d 0a3d 0db7 efbc
000001c0: e900 883b 9bbc a1bd 253f 3dbd 9ab4 33bd
000001d0: 6a4f 10bd 2822 e2bc 5b05 a3bd 208f b6bc
000001e0: 69ce 01bd 65d6 ea3c 8c3a c73d 938e 01be
000001f0: c92c 13bc 0ced 15bd 4bb9 7fbc 15ba 37bc

a2c_network.value.weight f4 [1, 128]
0.0014366532 0.051263295 0.0004283201 0.016625626 -0.008728244 0.043105673 0.015965477 0.10405443
0.057917893 -0.09421526 0.125363 0.0218581 -0.004360904 0.01945565 0.06997774 0.014309576
0.3552894 -0.005375854 0.2131101 0.12186055 0.0003651648 -0.008100275 0.09973515 0.055320807
-0.042268004 -0.2988842 0.04935896 -0.08274741 -0.0072979303 -0.25044745 -0.0022286456 0.061051127
0.056762926 0.05091715 0.028341321 0.035516653 0.00860188 -0.010399665 0.00064757577 0.14049698
-0.00616076 -0.07296531 0.24296437 0.011443629 -0.020488895 -0.20393355 -0.017305113 -0.058930542
-0.02911293 0.06757543 -0.007867816 0.25813553 -0.044599272 0.20672175 0.09009776 0.14461002
-0.31195205 0.05378168 0.00023850602 -0.03007004 -0.040205866 -0.15057713 0.058122173 0.045225073
-0.01563629 -0.056864846 0.04127632 -0.0012045257 0.035120077 -0.06750989 -0.11078267 0.09190565
-0.19883107 -0.03917714 0.04811458 -0.081820585 -0.08838269 0.06602259 -0.0304035 -0.1343417
0.04270454 0.06654317 0.12403336 -0.05627086 -0.042208903 -0.022219652 -0.17708299 -0.032482456
-0.09615914 -0.012919963 -0.076171346 -0.056744907 0.020165978 -0.082840934 0.0352053 -0.038713306
0.013506068 -0.07032003 0.06424161 0.01475416 0.062489066 0.1733221 -0.054557066 0.013695412
-0.11254428 -0.046918236 -0.09365952 -0.20307893 0.011786433 -0.10117645 -0.012579242 0.046841267
0.024590963 -0.05932771 -0.1364621 0.015993034 0.071482055 -0.21542959 -0.033961527 -0.0132222725
0.16936325 0.009464054 -0.03772229 -0.1846698 0.034699265 0.03156259 -0.1557621 0.020723809
00000000: 154e bc3a 76f9 513d 2790 e039 7732 883c
00000010: e900 0fbc 938f 303d 08ca 823c 7d1a d53d
00000020: 503b 6d3d eef3 c0bd 295f 003e c20f b33c
00000030: eae5 8ebb 7561 9f3c 7d50 8f3d b672 6a3c
00000040: 7ee8 b53e ef27 b0bb 8939 5a3e 0692 f93d
00000050: 9773 bf39 04b7 04bc f141 cc3d 1298 623d
00000060: 3721 2dbd 5a07 99be 9f2c 4a3d 7977 a9bd
00000070: 7a23 efbb a63a 80be 780e 12bb bf10 7a3d
00000080: 3e80 683d 808e 503d 0f2c e83c e979 113d
00000090: e6ee 0c3c 5b63 2abc 13c2 293a 71de 0f3e
000000a0: 33e0 c9bb d66e 95bd a7cb 783e 0f7e 3b3c
000000b0: 54d8 a7bc f5d3 50be 74c3 8dbc 2761 71bd
000000c0: 3d7e eebc fd64 8a3d 03e8 00bc 572a 843e
000000d0: baad 36bd deae 533e 2d85 b83d a614 143e
000000e0: 2eb8 9fbe 2e4a 5c3d 7917 7a39 7255 f6bc
000000f0: e8ae 24bd e430 1abe 8411 6e3d ed3d 393d
00000100: ad17 80bc 1deb 68bd 5c11 293d 2de1 9dba
00000110: 12da 0f3d a042 8abd 06e2 e2bd 0839 bc3d
00000120: 5f9a 4bbe 3578 20bd cb13 453d 8d91 a7bd
00000130: fc01 b5bd da36 873d c310 f9bc df90 09be
00000140: f5ea 2e3d c947 883d 3405 fe3d 467c 66bd
00000150: 3ee3 2cbd fd05 b6bc 3e55 35be 530c 05bd
00000160: 15ef c4bd 41ae 53bc b9ff 9bbd 596d 68bd
00000170: 1f33 a53c 82a8 a9bd 6f33 103d d891 1ebd
00000180: 8e48 5d3c f303 90bd 1b91 833d 6fbb 713c
00000190: 89f4 7f3d 597b 313e 3b77 5fbd b962 603c
000001a0: 9e7d e6bd 562d 40bd 90d0 bfbd ecf3 4fbe
000001b0: e21b 413c 9935 cfbd 2a19 4ebc a1dc 3f3d
000001c0: fd72 c93c 9d01 73bd b9bc 0bbe d303 833c
000001d0: 2f65 923d 9399 5cbe 3e1b 0bbd 3ba2 58bc
000001e0: 8f6d 2d3e 1f0f 1b3c b082 1abd 141a 3dbe
000001f0: d120 0e3d c647 013d 1a80 1fbe fac4 a93c

a2c_network.mu.weight f4 [10, 128]
-0.103378855 -0.008409388 0.095276915 0.0733125 0.028465338 -0.018790193 -0.104780056 -0.0510537
-0.0132719 -0.020417724 -0.08442579 -0.09319996 -0.038857996 0.06530056 0.0081330035 0.10419532
0.022913206 -0.011114428 -0.02768733 0.02501182 -0.04812764 0.07109332 -0.0058601107 -0.006619543
0.015954038 0.088658094 -0.080149405 0.03344545 -0.03009109 0.021019114 0.0208978 0.023756802
0.010510332 -0.050511666 -0.04624486 -0.011088332 -0.022068845 0.052940734 0.012106841 -0.0685076
0.10097642 -0.05487655 -0.0073159765 -0.02694101 0.032422706 0.026944734 0.0069547854 -0.07501983
0.058585085 -0.009739865 -0.046345375 -0.06815532 -0.1217011 0.07255665 -0.11156256 -0.008830181
0.04703042 0.036809474 -0.051412318 0.09355667 -0.006008134 0.077160165 0.0063735554 0.11774241
0.024266036 0.041780774 0.0011018924 -0.047681324 -0.026494429 0.08559494 -0.013432048 0.08342273
0.122988395 -0.03317766 -0.14795937 -0.05473894 -0.11368673 -0.024236225 0.10543432 -0.03786513
-0.022210753 -0.015398842 -0.08564327 -0.011988967 0.0470854 0.01508531 -0.055387713 -0.046801433
0.0705884 0.0310272 -0.028165147 0.06479466 -0.086108424 0.01011209 0.096608095 0.0561874
0.11663243 -0.12561081 -0.04468559 0.029420888 0.02848955 0.08377118 -0.15006068 0.04414365
-0.011765301 0.016700383 -0.091723114 0.048708595 0.019770395 0.06940947 -0.0453798 0.068956375
-0.0755838 0.025624515 -0.05277354 0.10361141 -0.052854724 -0.09444358 0.06346587 -0.06285904
0.023956664 -0.06468168 -0.017742978 0.1000511 0.059395555 0.060794014 -0.017456694 0.085186414
-0.14427274 0.087025635 0.016825201 0.014167132 -0.1221217 0.02420155 0.08405375 0.09457006
-0.124645956 -0.08546002 -0.17734267 0.13341233 0.013181367 -0.0066377134 -0.25676334 -0.056903694
0.12241405 0.114745796 -0.09265671 -0.0082875565 0.05334929 0.041569404 0.059379786 -0.04808625
-0.06888097 0.007905856 0.05202552 0.025137391 0.011499079 -0.06735034 0.123645306 -0.033568714
-0.053110536 -0.02841512 0.06933135 0.029136026 -0.09914954 0.05771263 -0.02103356 -0.14754613
-0.07539181 0.06730782 0.0054412046 0.057712533 0.028596973 0.0858135 -0.103223145 -0.08010676
0.07178782 0.1458445 -0.12719573 0.024156796 0.056346808 0.028198345 0.0754755 0.05341453
0.17422521 -0.13109632 0.03491739 0.10318219 0.05496111 0.006417561 -0.018365288 0.018240102
0.11857117 0.12268579 -0.062039886 0.08009277 -0.0832392 0.09113452 -0.0986608 0.07676254
-0.11148535 0.18086176 -0.01940542 0.09419254 0.064873405 0.20180583 -0.13168098 0.07724385
0.08411153 0.2855992 -0.082999125 -0.04347863 -0.09344165 -0.038221974 -0.094763495 -0.22154719
-0.033175364 0.11777004 -0.22274992 0.045599245 0.032224514 0.019679857 -0.01568318 0.01845297
0.07871317 0.0012594422 -0.09595187 -0.14608164 0.019057853 -0.14005344 -0.16472825 0.10051015
-0.023589594 -0.0835533 -0.013219921 -0.12176738 -0.09278975 0.040746216 0.049547065 -0.0093032
-0.004984522 0.053400584 -0.031388614 -0.16144285 -0.15938304 0.116715744 0.017194277 0.07158069
-0.036099426 0.026749901 0.118830435 -0.06471112 0.05966216 -0.01111035 -0.13670935 0.12279693
00000000: 4bb8 d3bd 88c7 09bc 8b20 c33d dd24 963d
00000010: 2430 e93c e4ed 99bc ed96 d6bd af1d 51bd
00000020: 6272 59bc 1243 a7bc 6ee7 acbd 9fdf bebd
00000030: 9029 1fbd 4dbc 853d 4a40 053c 5b64 d53d
00000040: 7ab4 bb3c 4a19 36bc 8ad0 e2bc 97e5 cc3c
00000050: 7d21 45bd 6099 913d 2c06 c0bb c0e8 d8bb
00000060: 0bb2 823c 6092 b53d 5f25 a4bd 19fe 083d
00000070: 9781 f6bc 4730 ac3c dd31 ab3c a09d c23c
00000080: 8733 2c3c 52e5 4ebd 406b 3dbd d6ab 35bc
00000090: b9c9 b4bc 62d8 583d c65b 463c b64d 8cbd
000000a0: bacc ce3d 3cc6 60bd dcba efbb 65b3 dcbc
000000b0: accd 043d 34bb dc3c f8e4 e33b ffa3 99bd
000000c0: eaf6 6f3d f493 1fbc a6d4 3dbd 0495 8bbd
000000d0: 6d3e f9bd 9598 943d e97a e4bd 77ac 10bc
000000e0: f8a2 403d 88c5 163d b995 52bd a49a bf3d
000000f0: e2df c4bb 2606 9e3d 42d9 d03b ef22 f13d
00000100: 91c9 c63c 5122 2b3d 606d 903a 7e4d 43bd
00000110: d80a d9bc 664c af3d 1812 5cbc 89d9 aa3d
00000120: 57e1 fb3d 4ce5 07bd a982 17be f035 60bd
00000130: 97d4 e8bd 0c8b c6bc f3ed d73d 7718 1bbd
00000140: 53f3 b5bc 6d4b 7cbc bd65 afbd 5f6d 44bc
00000150: 9fdc 403d 6028 773c 3ade 62bd dcb2 3fbd
00000160: a790 903d c12c fe3c 98ba e6bc 10b3 843d
00000170: 9d59 b0bd 2ead 253c 77da c53d c224 663d
00000180: fcdc ee3d 1fa0 00be 3d08 37bd 1304 f13c
00000190: eb62 e93c 3990 ab3d 82a9 19be f9cf 343d
000001a0: 40c3 40bc 3ecf 883c 54d9 bbbd aa82 473d
000001b0: 86f5 a13c 8d26 8e3d 2be0 39bd 0039 8d3d
000001c0: aecb 9abd 81ea d13c 1129 58bd 3832 d43d
000001d0: 327e 58bd a36b c1bd 65fa 813d 3ebc 80bd
000001e0: c440 c43c d477 84bd b959 91bc 97e7 cc3d
000001f0: c148 733d 2503 793d 5701 8fbc 3776 ae3d
00000200: 3cbc 13be 7f3a b23d 01d5 893c 421d 683c
00000210: f11a fabd 5442 c63c 5f24 ac3d f3ad c13d
00000220: 6146 ffbd aa05 afbd 5199 35be 3e9d 083e
00000230: a9f6 573c 2d81 d9bb 7c76 83be d913 69bd
00000240: 38b4 fa3d d8ff ea3d cdc2 bdbd 88c8 07bc
00000250: c984 5a3d ae44 2a3d 3838 733d 16f6 44bd
00000260: 7711 8dbd 9087 013c b618 553d eeec cd3c
00000270: a266 3c3c faee 89bd c039 fd3d 597f 09bd
00000280: 6f8a 59bd d3c6 e8bc 98fd 8d3d adae ee3c
00000290: ea0e cbbd 1464 6c3d 934e acbc 5516 17be
000002a0: 0567 9abd afd8 893d 224c b23b fa63 6c3d
000002b0: 3344 ea3c fdbe af3d a866 d3bd 030f a4bd
000002c0: 7e05 933d 4358 153e 993f 02be 79e4 c53c
000002d0: e9cb 663d 3700 e73c e692 9a3d 32c9 5a3d
000002e0: 1868 323e 1d3e 06be 8a05 0f3d 2f51 d33d
000002f0: e71e 613d 674a d23b cd72 96bc 446c 953c
00000300: 71d5 f23d b042 fb3d 891d 7ebd ae07 a43d
00000310: 5079 aabd bca4 ba3d ac0e cabd ae35 9d3d
00000320: 6e52 e4bd d333 393e 1ef8 9ebc 05e8 c03d
00000330: 59dc 843d 30a6 4e3e 61d7 06be 0632 9e3d
00000340: aa42 ac3d 0f3a 923e 72fb a9bd a616 32bd
00000350: 565e bfbd a58e 1cbd 5d13 c2bd 44dd 62be
00000360: e4e2 07bd 6b31 f13d 8e18 64be 46c6 3a3d
00000370: dafd 033d a737 a13c 037a 80bc af2a 973c
00000380: 5f34 a13d de13 a53a 6a82 c4bd 6d96 15be
00000390: 371f 9c3c 2b6a 0fbe 86ae 28be 44d8 cd3d
000003a0: f73e c1bc fe1d abbd 5e98 58bc 2d61 f9bd
000003b0: 8d08 bebd 81e5 263d ddf1 4a3d 736c 18bc
000003c0: 3355 a3bb 92ba 5a3d 5991 00bd 4651 25be
000003d0: 4f35 23be aa08 ef3d 03db 8c3c e698 923d
000003e0: fedc 13bd 9c22 db3c 5f5d f33d 4487 84bd
000003f0: 4f60 743d 2f08 36bc 89fd 0bbe f57c fb3d

a2c_network.mu.bias f4 [10]
0.018676588 0.13672788 -0.017407995 -0.032227233 -0.052346807 -0.14387624 -0.018611938 -0.0051766615
0.005692198 0.19774468
00000000: a5ff 983c 6502 0c3e 369b 8ebc b400 04bd
00000010: 9b69 56bd 4b54 13be 1078 98bc fca0 a9bb
00000020: 9e85 ba3b 957d 4a3e

exp_avg f4 [10]
3.548826e-05 -0.00052088324 9.9170116e-05 -0.00015914836 -9.360415e-05 -0.00014217789 0.0001897839 0.0004937147
5.2963715e-05 1.3001324e-05
00000000: 3bd9 1438 e28b 08ba 8df9 cf38 10e1 26b9
00000010: 584d c4b8 9615 15b9 ba00 4739 a26c 013a
00000020: 5b25 5e38 4320 5a37

exp_avg_sq f4 [10]
1.1293014e-05 1.0749979e-05 1.3997288e-05 1.2160886e-05 1.3090669e-05 1.3179798e-05 1.1152662e-05 1.0970066e-05
1.2607338e-05 1.2965492e-05
00000000: 2077 3d37 cf5a 3437 e5d5 6a37 9c06 4c37
00000010: ff9f 5b37 cd1e 5d37 521c 3b37 130c 3837
00000020: 1b84 5337 5d86 5937

exp_avg f4 [256, 42]
-0.0001609635 -2.1403961e-05 -9.393591e-05 7.757222e-06 5.6827506e-05 -2.6825188e-05 1.9796325e-05 -0.00015410615
-9.283767e-06 0.0003863221 -0.00023349738 -0.00015036046 -5.9176087e-05 8.1782655e-06 -0.0001902965 0.00023755335
-0.00019023522 0.00011776616 -6.592913e-05 -0.0001913324 4.4220516e-05 -8.5256965e-05 -3.6150217e-05 -3.3796074e-05
-1.5678817e-05 1.9421532e-05 -3.3736604e-05 -3.8204347e-05 2.6647851e-05 1.7661894e-05 -2.2759521e-05 2.3394723e-05
-8.956126e-05 -0.00017888167 -7.916968e-05 -0.0001396806 -6.1791354e-05 3.6888578e-05 -2.284624e-05 0.00013057624
-0.00015370034 0.00022569613 -4.440311e-05 7.160592e-05 0.00011248763 0.000104298575 -7.842685e-05 -1.7128976e-05
-3.6396683e-05 0.00014639054 -0.00015707196 8.93031e-08 -7.694759e-05 -0.00012251479 0.0001402871 -2.0796564e-05
0.00014264471 6.4527434e-05 -0.000107816515 -0.00018335364 -0.00011863712 2.9645187e-05 9.715159e-06 0.00015751862
-1.9653246e-05 -2.9021348e-05 3.8600403e-05 -1.7418228e-05 -2.7736265e-05 -3.8479102e-05 3.9753948e-05 5.358355e-06
-5.6148958e-05 -2.0869706e-05 -0.00022030003 -0.00010078443 -0.00015031316 -0.00021373881 -4.375426e-05 -0.00025118983
0.00038564912 -5.922738e-05 -0.00044364878 -0.00045444357 -0.0007400175 -0.00014863162 -0.0004062535 -5.1592793e-05
0.00021333114 2.2724449e-05 -4.0706054e-05 -0.0005945175 0.00015529121 0.0018800029 -0.0009971475 -0.0008182374
-0.0005836593 9.672938e-06 -0.0005208255 0.0008005943 -0.00085020915 0.0005469613 -0.00034971416 -0.00094795757
-0.00017528633 -0.0006915878 -8.672067e-05 -4.8092723e-05 -5.649476e-05 -2.8851022e-05 3.017821e-05 6.647308e-05
3.2864522e-05 1.130662e-05 -1.9312007e-05 -2.8313305e-05 0.00055794045 -0.0010856792 -0.0006030647 -0.0010172237
0.00038206493 0.00081814855 -0.00016415601 -0.00055423134 0.00042719164 8.9156114e-05 -0.00017258135 -6.0325787e-05
-0.00011402608 -4.9648275e-05 6.297335e-05 -1.2318592e-05 -6.3223444e-05 -0.00015015254 8.795165e-05 0.00045693808
-0.00020434592 -0.0001752332 -0.00015373495 3.5147666e-05 -0.0001274602 0.000102220256 -0.00011988299 0.00020665438
-0.00014319687 -0.00020422725 -8.463299e-05 -0.00020018681 -1.5757896e-05 2.5682057e-05 2.9943503e-05 -7.65113e-06
-2.2414364e-05 0.00010115508 7.1401923e-06 -2.4611005e-05 -3.888424e-05 -2.0642123e-05 0.00024971992 -7.519038e-05
0.00029808414 -0.00017160582 7.1006725e-05 0.0004549979 -0.00014463067 -0.00033975672 2.1132297e-05 -0.0002040702
-0.0005510666 -8.337522e-05 -0.00038197593 5.532072e-05 0.00025147083 2.9048539e-05 -0.00022941372 -0.00048440983
-7.5311323e-06 0.0014950264 -0.00078389765 -0.00066736515 -0.0005238938 4.6854468e-05 -0.00022552915 0.0007470617
-0.0011458377 0.00032494275 -7.869165e-05 -0.000674768 -0.00031917254 -0.00063489546 -0.00012370599 -5.3343436e-05
-9.37103e-05 -7.216884e-05 2.736657e-05 0.0002144202 -4.328819e-06 -8.902151e-05 0.000114591436 -9.7683864e-05
0.0007981447 -0.0014782575 -0.0013054474 -0.0015678129 0.00038074824 0.0013821687 -4.614152e-05 -0.0011955724
0.00058951275 -0.00020039339 1.1707604e-05 2.8794197e-05 0.000115668314 0.00011544506 -4.725649e-05 -5.1754545e-05
-0.00013336483 2.8495211e-05 -0.00029586809 1.8781777e-05 -2.5243304e-05 -2.324277e-05 0.0001219674 1.3439998e-05
0.00039603325 0.00010625556 -0.00052071386 -0.00027163804 -3.4958146e-05 0.00012029522 -4.0465675e-05 9.345312e-05
-2.3385215e-05 -4.8709342e-05 -1.36731815e-05 5.4787815e-06 -6.6459375e-05 4.3748896e-05 1.4747159e-05 -6.835188e-05
5.843298e-05 -0.000100022466 5.3107957e-05 -0.0004141642 -0.00071992364 -0.0004983181 0.0001476775 8.959705e-05
0.00041469827 -0.0005562736 -0.00024264897 -0.00068970973 -5.6373014e-05 1.67715e-06 -8.6925495e-05 6.396342e-05
00000000: 4fc8 28b9 a88c b3b7 75ff c4b8 0425 0237
00000010: 125a 6e38 a706 e1b7 4910 a637 8e97 21b9
00000020: 7ac1 1bb7 468b ca39 fad6 74b9 14aa 1db9
00000030: d733 78b8 6235 0937 548a 47b9 be17 7939
00000040: e179 47b9 3af9 f638 6f43 8ab8 66a0 48b9
00000050: 6b79 3938 fccb b2b8 00a0 17b8 42c0 0db8
00000060: 0186 83b7 6ceb a237 6780 0db8 9b3d 20b8
00000070: d389 df37 a128 9437 b3eb beb7 c93f c437
00000080: d6d2 bbb8 2f92 3bb9 e607 a6b8 3a77 12b9
00000090: fb95 81b8 cfb8 1a38 eda5 bfb7 4beb 0839
000000a0: 9f2a 21b9 d8a8 6c39 7a3d 3ab8 232b 9638
000000b0: 56e7 eb38 dfba da38 1879 a4b8 32b0 8fb7
000000c0: a4a8 18b8 6980 1939 afb3 24b9 e6c6 bf33
000000d0: ec5e a1b8 5077 00b9 081a 1339 4874 aeb7
000000e0: e692 1539 e752 8738 8d1b e2b8 9e42 40b9
000000f0: d2cc f8b8 8eae f837 4afe 2237 952b 2539
00000100: 06dd a4b7 df72 f3b7 dee6 2138 5c1d 92b7
00000110: 2dab e8b7 9f64 21b8 7abd 2638 ebcb b336
00000120: 7c81 6bb8 5a11 afb7 5700 67b9 3b5c d3b8
00000130: 629d 1db9 131f 60b9 c784 37b8 21b2 83b9
00000140: f330 ca39 ea6a 78b8 8899 e8b9 6242 eeb9
00000150: bcfd 41ba ffd9 1bb9 6cfe d4b9 5765 58b8
00000160: a4b1 5f39 62a0 be37 cbbb 2ab8 65d9 1bba
00000170: abd5 2239 6e6a f63a b8b2 82ba fb7e 56ba
00000180: b600 19ba f448 2237 0288 08ba f9de 513a
00000190: 92e0 5eba f461 0f3a d759 b7b9 5b80 78ba
000001a0: 11cd 37b9 ac4b 35ba cedd b5b8 2bb7 49b8
000001b0: c9f4 6cb8 1905 f2b7 3627 fd37 7767 8b38
000001c0: 03d8 0938 90b1 3d37 3800 a2b7 5c82 edb7
000001d0: c042 123a 594d 8eba fd16 1eba 5d54 85ba
000001e0: e34f c839 0579 563a 4b21 2cb9 d649 11ba
000001f0: b1f8 df39 53f9 ba38 f4f6 34b9 5206 7db8
00000200: 4921 efb8 6e3d 50b8 8f10 8438 f3ab 4eb7
00000210: d496 84b8 4472 1db9 af72 b838 3191 ef39
00000220: b145 56b9 cebe 37b9 e933 21b9 856b 1338
00000230: d6a6 05b9 155f d638 b169 fbb8 5db1 5839
00000240: 1e27 16b9 d625 56b9 fe7c b1b8 3de9 51b9
00000250: d32f 84b7 cc6f d737 2f2f fb37 5a5d 00b7
00000260: 7b06 bcb7 3823 d438 c995 ef36 bb73 ceb7
00000270: a317 23b8 9f28 adb7 d7ec 8239 87af 9db8
00000280: 2d48 9c39 16f1 33b9 72e9 9438 c98c ee39
00000290: 00a8 17b9 6021 b2b9 4345 b137 adfb 55b9
000002a0: 7475 10ba bbd9 aeb8 f143 c8b9 2c08 6838
000002b0: d8d7 8339 43ad f337 c78e 70b9 63f8 fdb9
000002c0: efb3 fcb6 c3f4 c33a 7b7e 4dba 1ef2 2eba
000002d0: eb55 09ba 9a85 4438 057c 6cb9 76d6 433a
000002e0: ef2f 96ba 145d aa39 4207 a5b8 eae2 30ba
000002f0: 9d56 a7b9 1d6f 26ba 13b7 01b9 14bd 5fb8
00000300: 5686 c4b8 5a59 97b8 4391 e537 fcd5 6039
00000310: 4640 91b6 0fb1 bab8 cf50 f038 a0db ccb8
00000320: 963a 513a 17c2 c1ba 8c1b abba 127f cdba
00000330: 2a9f c739 e329 b53a 1488 41b8 c1b4 9cba
00000340: 8889 1a3a b120 52b9 c76b 4437 118b f137
00000350: f492 f238 181b f238 4535 46b8 0513 59b8
00000360: d9d7 0bb9 0009 ef37 be1e 9bb9 8f8d 9d37
00000370: 95c1 d3b7 78f9 c2b7 c0c8 ff38 5a7c 6137
00000380: afa2 cf39 85d5 de38 8480 08ba a46a 8eb9
00000390: 06a0 12b8 0147 fc38 b0b9 29b8 43fc c338
000003a0: 5e2b c4b7 424d 4cb8 de65 65b7 60d6 b736
000003b0: 1b60 8bb8 057f 3738 916a 7737 2358 8fb8
000003c0: ef15 7538 27c3 d1b8 3cc0 5e38 2e24 d9b9
000003d0: 42b9 3cba 90a1 02ba e1d9 1a39 0de6 bb38
000003e0: dc6b d939 e4d2 11ba 966f 7eb9 a3cd 34ba
000003f0: 1072 6cb8 6f1a e135 c54b b6b8 1a24 8638
