logs/rl_games/humanoid_flat_direct/semi_success/nn/last_humanoid_flat_direct_ep_1000_rew_398.7875.pth (torch, 759502 bytes, 33 tensors)

value_mean_std.running_mean f8 [1]
00000000: e8f1 9eb4 a3e5 5140
71.588116793842

value_mean_std.running_var f8 [1]
00000000: 26d4 83f2 5ad8 9340
1270.088815746139

value_mean_std.count f8 []
00000000: 0000 0001 0070 b741
393216001.0

a2c_network.sigma f4 [10]
00000000: f5da acbf b4c4 2bbf 4493 bbbf fa18 0cbf
00000010: e412 c9bf 1d8e b9be 624b d4bf 4ff6 f5bf
00000020: 0393 6ebf 2276 03bf
-1.350432 -0.6709702 -1.4654317 -0.5472561 -1.570889 -0.36241236 -1.6585505 -1.9215792
-0.9319307 -0.5135213

a2c_network.actor_mlp.0.weight f4 [256, 42]
00000000: be27 483d 3dd0 be3e 8340 b33e 1316 d33d
00000010: 2785 0c3e f75e 4c3d 20b4 083e 5010 39be
00000020: 19b5 b7be 4a07 61bd 1eb7 20be 3cd9 9f3d
00000030: e75c 8cbd ed8d b93d e8af c83d 812c 203d
00000040: 9659 a93d f55a 38be 53b2 babc 590e 7dbd
00000050: bbc3 8b3c 5761 7ebd f078 bebe 68d1 b3be
00000060: 1315 223e 9136 a23d 5e59 ddbd 7558 47be
00000070: 1e8a 863e bbdc ab3c dd49 3a3e 497d 5bbe
00000080: f417 17be e1db e1bd 28de 70bd 2406 9f3c
00000090: ec2a 4f3c 291d c43d dbac 84bd 71af a3bd
000000a0: c992 703d 14f0 23bd 09fd df3d 737d 09bc
000000b0: 51f9 7c3e 1fcc 7abe 14be 2dbd ffe0 3a3e
000000c0: 2196 9c3e 3b3d 8b3d bea7 863d d4eb 9c3d
000000d0: 21f7 d7bd 5e67 6cbd 384c 963e 0e20 83bc
000000e0: 7e64 aabd 4cb0 44be c641 79bd 40c0 4ebc
000000f0: b985 85b9 defd 0abe c8c2 4e3b 577a 05be
00000100: 16d0 98bc 0266 cabd a7e6 10be 3adf d4be
00000110: 895e 833e 6d65 b3bd d82e 5a3d e90f 9cbe
00000120: 43ed 03be da5c 483c 8774 0eba 6639 0cbe
00000130: 8a75 fdbd 1887 95bd 0652 453b 19d4 4bbd
00000140: 5a1c f83b 09e7 81bd 8260 34bd 7f02 9f3c
00000150: 606a 82bd 0e6f 2dbe 0226 9c3e 292b 4dbe
00000160: 6f3b 363e 6929 64bd 8b9f a9be b764 c3ba
00000170: 0351 c4bd c555 3cbd ee38 15be f495 2dbe
00000180: 29f3 32bd cc06 febd 839a e83d 293c e7bd
00000190: 76dc 243e f3e5 e1bd c6ce 43bd 9951 583c
000001a0: 6069 b73d b4a2 823e 3d95 b63c 627f adbe
000001b0: 61b4 813d 35c6 03bd 969b d83d 7087 82be
000001c0: 96a3 2c3e 7840 99be dfa9 623d ca7b a83c
000001d0: 1448 183d e060 74bd 5ea2 023e f4d8 663d
000001e0: 17f2 1f3d 10cc acbd 5f22 823d f861 58bd
000001f0: 350d 43bd c06d 093e c9b9 1c3d d1a3 b0be
00000200: 00e1 9cbd 5160 44bd c970 8fbd 903d 5dbe
00000210: a979 5abe 29e2 93bc 2169 15be da9e 6f3d
00000220: f38f ee3d 6ddb 1abe 515a 9e3d 0c36 0e3e
00000230: 23ab 883d 8b57 b8bd 5a6c 843d 42c5 bc3d
00000240: fc88 233e 7e5c 32bd fccc f5bd ef36 78bc
00000250: 57fa 713d a5b2 173e d932 d13d 66f1 8bbd
00000260: 3d71 b93b 61fd 3dbe 17bb 90bc 84a9 03bc
00000270: cfde a2bb 988f 16bd 58b8 05be c1f0 aabc
00000280: 0b1d ab3d 86d6 c63d e26e cdbc 5ffa 88bd
00000290: 02bf bfbd 0797 e0bd cfe2 75bc 823b 043d
000002a0: 3325 e63d a200 503e d614 5cbd 5381 253d
000002b0: 7338 e039 8ac6 8e3e ff48 dc3d aa25 5bbc
000002c0: 3a96 223d e8e6 a8bd 2616 b9bd e608 023e
000002d0: 773b b139 e8b7 b03d f3b7 2fbe e923 023e
000002e0: 1ca4 073e 0a09 123c 06be 91bd 66bc 66be
000002f0: 565a 16be 239b 813e fc05 fe3d 67f9 5a3e
00000300: a6e7 ba3d 910d 97bc 6acf e93b 78e8 80be
00000310: 353d 95be 1bb0 b0be ecf0 ff3d e0db 07bd
00000320: ac60 ecbc 4f8c bebd 0374 6ebd fac4 d4bd
00000330: 5f2b dbbd d1ef ea3b 9419 463b 26bf 043e
00000340: de94 1cbd ea30 46bd 18a7 3abd 9c47 6d3b
00000350: b3e8 4f3c 7213 0cbe 22a0 1b3e 7905 1ebe
00000360: 52ef 8a3c 179d 393d 8294 ee3d c3ee c8bd
00000370: b228 bc3d e67f a4bd b854 033e 6a93 7d3e
00000380: b641 00bd 2b8f 413d eca6 373d 69b7 d2bd
00000390: 15c5 fb3d 678e 9cbe 491c 9e3d ebbf 803e
000003a0: 6e19 703e 0fc6 a23d 44dd 8abd 594c 713c
000003b0: 0a47 973d 3f77 4ebe 4d59 10bd 21cc d1be
000003c0: af73 beb8 92d0 043d 3cfa 7cbd f882 adbd
000003d0: 2c2c 0bbe 2446 fb3d b209 003e 4aeb a33c
000003e0: 1d5f d8bc b0ec febd 4848 e2bd 1621 a8bd
000003f0: 4358 453d 4481 e23b 490b 1dbd 403f 1b3c
0.048866026 0.37268248 0.35010156 0.10306945 0.13722669 0.049895253 0.13349962 -0.18072629
-0.35880354 -0.054938592 -0.15694854 0.07805106 -0.06853657 0.09060273 0.097991765 0.039104942
0.0826904 -0.18003447 -0.02279011 -0.06178126 0.017061105 -0.06210455 -0.37201643 -0.35120702
0.15828352 0.07920564 -0.10808061 -0.19467337 0.2627725 0.020979276 0.18192239 -0.21434511
-0.14755231 -0.11028267 -0.058805615 0.019412108 0.012644511 0.09575874 -0.06478282 -0.07992447
0.058733735 -0.04002388 0.109369345 -0.008391726 0.24704482 -0.24491929 -0.0424176 0.18249892
0.3058329 0.06798788 0.06574963 0.07662168 -0.10545183 -0.057715766 0.29355025 -0.016006496
-0.083199486 -0.19207877 -0.060853742 -0.012619078 -0.00025467368 -0.13573405 0.0031549204 -0.1303495
-0.01865391 -0.09882738 -0.14150487 -0.41576558 0.25658062 -0.0875958 0.05326733 -0.30480888
-0.12883477 0.012229169 -0.0005434234 -0.13693771 -0.123759344 -0.07301158 0.0030108704 -0.04976282
0.007571739 -0.063428946 -0.04403735 0.01941037 -0.06367946 -0.16936895 0.30497748 -0.20035996
0.1779611 -0.055703554 -0.33129534 -0.0014907335 -0.09585764 -0.045980234 -0.14572498 -0.16951734
-0.043688927 -0.1240364 0.11357596 -0.112907715 0.16099724 -0.110301875 -0.047804616 0.013203048
0.089556456 0.25514758 0.02228796 -0.33886248 0.06333233 -0.032171447 0.10576551 -0.25493956
0.16859278 -0.29931998 0.055337783 0.02056684 0.037178114 -0.0596627 0.1275725 0.056359246
0.039049234 -0.08437359 0.06354212 -0.052827805 -0.047620017 0.13420773 0.038263116 -0.34499982
-0.07660103 -0.047943417 -0.07003934 -0.21605515 -0.21335472 -0.018052178 -0.14590885 0.058501102
0.1164855 -0.15122767 0.0773207 0.13887805 0.06673267 -0.090010725 0.06465979 0.092173114
0.15970224 -0.04354524 -0.12001988 -0.015149816 0.059076633 0.14814241 0.102147765 -0.068331525
0.005659251 -0.18553688 -0.017667336 -0.008036021 -0.0049704085 -0.036758035 -0.13058603 -0.020866754
0.08355149 0.09708886 -0.025077287 -0.066883795 -0.09362604 -0.10966306 -0.015007689 0.032283314
0.11237564 0.20312741 -0.05373081 0.040406536 0.00042766667 0.27885848 0.107561104 -0.013375679
0.03969405 -0.08247167 -0.090374276 0.12698707 0.00033804376 0.08628827 -0.17160015 0.12709011
0.13246197 0.008913288 -0.07116322 -0.22532806 -0.14682898 0.25313672 0.12403485 0.21384202
0.09126215 -0.018439086 0.0071353214 -0.2517736 -0.2914826 -0.34509358 0.12497124 -0.033168674
-0.02885469 -0.093041055 -0.058216106 -0.10389133 -0.10701632 0.0071697016 0.0030227648 0.12963542
-0.03822791 -0.04838649 -0.04556951 0.0036206013 0.012689757 -0.13679293 0.15197805 -0.15431775
0.01695982 0.04531583 0.11649419 -0.09811165 0.091874495 -0.08032207 0.12825286 0.24763265
-0.031312667 0.047255676 0.044836923 -0.10288889 0.1229345 -0.30577394 0.07720239 0.25146422
0.234472 0.07947933 -0.06780484 0.014727675 0.073865965 -0.20162676 -0.035241414 -0.4097605
-9.081454e-05 0.03242547 -0.06176208 -0.08472246 -0.13591069 0.12269238 0.12503698 0.020009656
-0.026412541 -0.12447488 -0.11048943 -0.08209436 0.048179876 0.0069123823 -0.03834084 0.009475529

a2c_network.actor_mlp.0.bias f4 [256]
00000000: 0a4a bcbc c187 f03c c003 3cbc f6d5 b93b
00000010: 5a95 5d3c a869 61bc 8873 3bbc 8a69 8cba
00000020: c824 bebc 2d85 3c3d 255d cf3c b02b 61bc
00000030: 0f1f a0ba fb0f 86bc a188 93bc da41 0c3c
00000040: 82f0 6cbb 5e51 be3c 9ee6 95bb ae9a 013d
00000050: d59e dfbc 829d 9abc 474f 0fba b118 f43c
00000060: 8685 30bc f7d4 c43c b920 813c 7879 06bc
00000070: 8980 903c db50 e4bc b531 87bb ed89 9d3c
00000080: 26cf e83c 30db 323c 96b1 813b 0a54 33bd
00000090: 336c e93a 6ba1 0a3d af38 c6bc bbd9 39bb
000000a0: e7b9 133d c624 7fbc 4854 433d f9b7 d7bc
000000b0: f29d 01bc 5fa7 b23b 42b3 783d 90e9 293d
000000c0: 6053 25bb acee dbbc eaee 9bbc ce27 6e3c
000000d0: c1d8 083b 42f6 24bc 51ff e3bc 3a90 bdbc
000000e0: 923e af3c b9ea 483c 8220 953c ac21 dc3c
000000f0: dc64 18bc 40f0 a7bc 1d68 273c 6269 45bc
00000100: bb78 4fbc ebca 993d e383 84bc 6cca 0ebc
00000110: f54d 4ebb f2e4 313c 4040 7c3c 9827 af3c
00000120: 3e4c 82bd 87a7 183d a88f 14bc 570d 8bbc
00000130: 4d38 87bc 9fe9 b8bc ca65 94bc 1ff5 e73c
00000140: ba87 9a3c 2bbb b5bc bc96 963b 64a8 3dbc
00000150: 5f08 e03c b473 6f3c 113c 8c3c 9a55 c8bc
00000160: 4a5c 373c 3054 01bd 56b2 7cbc d3c5 92bc
00000170: b4ed 0e3c 039d 09b9 6c6a 20bc 3c45 9f3c
00000180: 7cfe 033d 29db 54ba 795a 8cbc 710e 803c
00000190: 7eb8 4b3d 0edc 21bc 1244 353c 7b54 4c3c
000001a0: f5fa 2d3d 49aa 013c d874 9d3c 0d22 8b3c
000001b0: d44b 17bd 77ef 02bd d1de f33c e453 f93c
000001c0: 16c6 7bbc 97b8 15bd 4344 02bd 0dc1 213c
000001d0: 3258 f03c 36a7 34bd 9584 583c 1362 a6bb
000001e0: d680 28bd e9a4 8abd 3f12 55ba 6677 d73b
000001f0: b7f8 9cbb 56bc 27bc 412f 81bc 9832 7dbc
00000200: 6325 a0ba e385 e3bc 1912 72bb f0b7 633c
00000210: d30d e3bc cc18 823c b524 303d b7fb 9abc
00000220: 25d3 053c d5e9 bebc 5ae7 1cbc 59d0 bbbc
00000230: 6299 be3c 24f8 273b eca0 babc c8fe 86bc
00000240: a701 61bc 9a93 a73c 5964 283c 5025 df3b
00000250: ca7d a93c f4a8 17bd 7256 0a3d cab8 903c
00000260: da7f 083d be16 e83b 624b d0bb 1fb6 37bd
00000270: b706 a5bc 7426 0abd 342a 853d b3a1 29bb
00000280: 41fe a3bc 7dac cd3c 22c9 ccbc 9944 03bb
00000290: c9a1 ffbc 842a 523c 4b8d d83b 9fcb 6c3c
000002a0: 6d05 253b 3078 ba3c c248 b5bb 86c8 0bbd
000002b0: 9b76 fd3b 8d27 c03c 3861 1f3c 76ef 283b
000002c0: 7211 9f3b 0d03 16bd 2fce cb3c 1604 f53b
000002d0: 2f3e 203c e9b5 473c 41f6 ccbb d548 9c3c
000002e0: 0c3e 6fba 562e bbbc 1e75 cb3c 553a 943c
000002f0: 3ade 163b 43f0 aa3c 954d d0bc b056 e03c
00000300: cc70 113c 0310 4dbc 5497 d63c cceb 31bd
00000310: 947f fcbc 7352 cebc 3451 1f3d e719 01bc
00000320: f7dc 2b3d 6070 15bb baf1 883c fe42 15bd
00000330: 2f7b 4cbb ed3c acbc bee3 9d3c 26a6 efbc
00000340: 6ee1 cbba 03a7 a0ba 2a48 513b 9cf7 ba3c
00000350: 6329 1e3c c0d3 d93c 6c81 2abc d514 2eb9
00000360: ff8a 15bd 4ad9 853b 2838 83ba 158d f5bc
00000370: a5da 2d3d aa3c 09bc a073 65bd 014b 293d
00000380: 341c 283c eaf0 01bd b6f2 cebc 01d1 963c
00000390: 587d 5a3d cc6b 323c da0a a73c b9f0 e1bc
000003a0: a2ae 793c e1ee 8bbd 228b 333b b071 2e3d
000003b0: 6517 62bc f637 9e3c 8ef4 0cbc b88c e63a
000003c0: 0cbf f33c 7c74 b33c 0ca9 693b 065e b83c
000003d0: ffb3 d43c 08ad 033d 8d6a 653c a590 8fbd
000003e0: aa88 ae3c 7cf5 d4bc c0c2 f5ba cffa 2abc
000003f0: 39e1 8a3c d542 7f3a e1ee 883c abb3 3c3c
-0.022984523 0.029361608 -0.011475503 0.005671258 0.013524378 -0.013758101 -0.011441119 -0.0010712605
-0.023210898 0.046025444 0.02531297 -0.013743326 -0.0012216287 -0.016365042 -0.018009486 0.008560622
-0.0036154096 0.023232158 -0.004574611 0.031641655 -0.027297417 -0.018873934 -0.00054668303 0.02979693
-0.010774022 0.02402733 0.015762674 -0.008207671 0.017639415 -0.027870586 -0.0041257986 0.019230807
0.028419089 0.010916516 0.0039579375 -0.043781318 0.0017808735 0.033845346 -0.02419695 -0.0028358537
0.036065962 -0.015572732 0.0476878 -0.026332842 -0.007911192 0.005452081 0.06071783 0.04148251
-0.0025226697 -0.026847206 -0.019034822 0.014535857 0.0020881149 -0.010068478 -0.027831705 -0.023140062
0.02139214 0.0122629935 0.018203977 0.026871525 -0.0093013905 -0.020500302 0.010217694 -0.012049051
-0.012663062 0.07509407 -0.01617617 -0.008715253 -0.0031479571 0.0108578075 0.015396178 0.021381184
-0.06362198 0.03726914 -0.009067453 -0.016974134 -0.016506338 -0.022572337 -0.018114943 0.028315125
0.018863548 -0.022183975 0.0045956057 -0.011575792 0.027347742 0.014614988 0.017118486 -0.02445488
0.011191437 -0.031574428 -0.015423378 -0.017916596 0.008723665 -0.0001312383 -0.009790998 0.019442193
0.032225117 -0.00081198156 -0.017132984 0.015631886 0.049736492 -0.009879125 0.0110635925 0.012471314
0.04247566 0.007914134 0.019220755 0.01698401 -0.03693755 -0.031966653 0.029769333 0.03043551
-0.015367052 -0.03655299 -0.03180338 0.009872687 0.02933893 -0.044104777 0.013215204 -0.0050776093
-0.041138493 -0.06769735 -0.0008128024 0.0065755127 -0.0047903913 -0.010237774 -0.015769603 -0.015453957
-0.0012218173 -0.027773803 -0.0036937057 0.013898835 -0.027716553 0.015880965 0.043003757 -0.018918855
0.008168017 -0.02330486 -0.009576643 -0.022926496 0.023266498 0.002563008 -0.022781812 -0.016478911
-0.013733304 0.020456124 0.010277831 0.006809868 0.020689864 -0.03702636 0.033773847 0.01766624
0.033325054 0.007082789 -0.0063566426 -0.04485142 -0.020144803 -0.033728078 0.0650219 -0.0025883734
-0.020018699 0.025106663 -0.024998251 -0.00200299 -0.031205075 0.012827519 0.0066086403 0.014452844
0.0025180236 0.022762388 -0.005532355 -0.03412678 0.007735086 0.02345636 0.009727769 0.0025777495
0.0048543746 -0.036624003 0.02487859 0.0074772937 0.009780451 0.012189367 -0.0062549417 0.019077698
-0.0009126372 -0.022849243 0.02483612 0.018094221 0.002302064 0.020866519 -0.025427619 0.027385086
0.0088769905 -0.0125160245 0.026195206 -0.043437764 -0.030822553 -0.0251858 0.0388958 -0.007879711
0.041958775 -0.0022802576 0.016716827 -0.03644084 -0.0031201353 -0.021025145 0.019273635 -0.02925403
-0.0015554854 -0.0012256805 0.0031933882 0.022823147 0.009653422 0.026590228 -0.010406833 -0.00016601694
-0.03650951 0.0040847408 -0.0010011243 -0.0299745 0.042444844 -0.00837628 -0.05601847 0.041331295
0.01026063 -0.031723894 -0.025262218 0.018410208 0.053342193 0.010889959 0.020390917 -0.027580606
0.01523939 -0.06832672 0.0027396162 0.04258889 -0.013799523 0.019313794 -0.008603228 0.0017589545
0.029754184 0.02190613 0.0035653738 0.022505771 0.025964735 0.032147437 0.0140024545 -0.07010011
0.0213054 -0.025995962 -0.0018750057 -0.010435774 0.016953098 0.0009737437 0.016715469 0.011517446

a2c_network.actor_mlp.2.weight f4 [128, 256]
00000000: f93e 6dbb bc76 13be 059e 47bd 25c5 0ebd
00000010: e45b 8f3d e106 09bd 65c3 f7bc db9c 573e
00000020: 4909 003d 1855 103e fcc6 9cbd 6ce6 213d
00000030: 69b0 cebb a466 9c3d a7ee ffbd aa7a 973c
00000040: a8dd 40be ed9a 043e 6a29 113e 0749 71bd
00000050: 9ac6 ad3d fe8b f73d 8711 8cbe 18b9 17be
00000060: 775b ed3d 43e1 a4bd 47ed d23c 48d1 ea3c
00000070: 75da a7bd a942 1abd 6b80 53bc b215 a13c
00000080: 1555 31bd f665 8bbc 5330 a13d e4c9 2cbe
00000090: 1486 08be da06 46bd 5925 15bd fea4 5fba
000000a0: e34b 47bd e16c 173e 35cb acbc 98df 22bd
000000b0: 4d98 2d3d 4cfc 8bbd d4f7 ae3d 84f8 4dbd
000000c0: b964 9f3d 9df4 9bbd abf7 253c 31b7 84bc
000000d0: 9882 89bb 5fdc 433e a56c 56bd 4e8f b83c
000000e0: 4e26 a2bd 5a4e 63bd 2952 a73d ee9b 923c
000000f0: b878 683d 3c3e 6e3c 8312 df3d 46c1 d7bd
00000100: cfeb c73d 05c3 ba3d 0010 aebd 63c1 cb3d
00000110: 1583 6f3d c85a 9b3d dc75 963d 4c44 ab3d
00000120: 4a02 1dbd 5a45 763d b9dc a43d abdc 8dbd
00000130: 76ba cdbc 0104 283d 6f96 5e3b 6a32 9abb
00000140: 48cd 36bd 2e1e ae3d a57e 2bbd 598f aabb
00000150: 5ca1 29bb 731e 1dbd f710 94bc 64b0 16bb
00000160: df88 12be 6177 9ebd 4879 fd3d 8e95 673d
00000170: 4e88 3e3d ee7d ae3c 904b 7fbc 0a61 33bd
00000180: ded3 cebc 7973 b1bd 1b6a a93c 1c91 683d
00000190: f82b 81bd 948e 69bd a751 243b 6bd9 2bbd
000001a0: 8e61 4a3d ff9b bf3d 61fd af3d a81e 3a3c
000001b0: 2ea6 d9bc 8616 a53c 2448 abbd 1cf8 1cbd
000001c0: 39fb 3c3e a668 333d dbc3 793c 7fea c4bc
000001d0: ddab 47bd b128 693e b69a 9cbd a09b 823c
000001e0: 315d 09be f618 d63c 4b27 b8bd 26ed f1bd
000001f0: 54f7 443d f295 bb3d 8736 fa3c 7147 5d3c
00000200: 10bc 93bd 768f b73d 8d4c 2dbb be43 9f3c
00000210: 0730 1d3c cd7e 023d 2343 8a3d 1066 a6bd
00000220: 5005 963c a765 773d 8ba8 373b 29f4 093c
00000230: 82a5 c5bd ea38 493d b05b 4c3e 13df bbbd
00000240: e04e cd3c eff3 de3d f6cd c5bc ee28 5a3c
00000250: d304 20be 739c 083d f418 703c 5a01 fbbd
00000260: 97b0 ab3d 19ec d7ba b7cd 27be 2f9d 34bc
00000270: 7bdf e73d c14b e3bc 6ed8 a4bd 276b 8fbd
00000280: f79b fc3c 5e89 523d 3350 5b3d 98bb b7bd
00000290: b088 6bbd e39f 2fb8 466c 0a3e 03bf 9fbd
000002a0: 97bf 2dbc 8d20 0fbe 5fb4 cc3d f9f7 3e3d
000002b0: 8104 813d 92a2 eb3c df17 0ebe 8d49 c03c
000002c0: 1160 55bd 6679 ddbd f02e 453d 8598 f3bd
000002d0: 3d1c b0bc 9abd 36bd 3260 b6bd 344d 03be
000002e0: 9a9b 093d c34f 963d 22ab 233c 182d 42bd
000002f0: 3a52 8abd 98c5 a03d d2c8 d5bc fd41 683d
00000300: 4710 66be 131a f23b 70a0 63bd 222a 43bc
00000310: 8f5a 993c c06e adbb 93bd 51bd 15f3 eb3d
00000320: 0b38 25bd 23c3 8c3d 410f 9abd 3033 45bc
00000330: 3736 093d 86b1 ae3d e71c f63d ddf0 07be
00000340: 2c04 b6bd 89cc 77bc 7e68 8d3c 0156 ddbc
00000350: 59a1 14be 3536 71bd 3cf2 333c a32a 5cbd
00000360: b92f c0bd 30a8 f63d 978b abbd b6c2 08bc
00000370: 0398 95bd 5bf1 0dbd 648c 343d 2a91 22bc
00000380: 7565 12be c62d be3d 469f f23c 88f5 bf3c
00000390: 9813 063d 7bdf c13d 7b54 90bc b59a 4f3d
000003a0: 8895 5d3e c0cb bbbc 935f 8ebd 3452 03bd
000003b0: a6e3 5c3d ca64 3dbe e76f 813d 4f78 423c
000003c0: b54b 93bd f109 b1bc 6dc8 513d fed2 873d
000003d0: c819 72bd bb92 b53c 0d64 223d baf7 0d3e
000003e0: 2f94 6abd 808d 27bd 8e1b 19bd 3e13 a03d
000003f0: 5ce9 bd3d f6cb 7fbc af4f b5bc cf1d b3bb
-0.0036200865 -0.14400762 -0.048734684 -0.03485598 0.069999486 -0.033453826 -0.030244539 0.2105593
0.031258855 0.1409496 -0.07655141 0.039526388 -0.006307651 0.07636765 -0.12496691 0.018491108
-0.18834555 0.12949724 0.14175954 -0.058907535 0.08485146 0.12087248 -0.27357122 -0.14816701
0.11589711 -0.08050778 0.025747908 0.028664246 -0.08195964 -0.03766123 -0.012909035 0.019663665
-0.04329403 -0.017016392 0.07870545 -0.1687389 -0.13332397 -0.048346378 -0.03641257 -0.00085313607
-0.048656356 0.14787628 -0.02109299 -0.039764017 0.042381573 -0.06835231 0.08543363 -0.05028583
0.07782883 -0.07615016 0.010129849 -0.016200634 -0.004196476 0.19127034 -0.052349705 0.02252927
-0.07917462 -0.055494644 0.08169968 0.017896619 0.05675575 0.014541205 0.10892203 -0.10534911
0.09761774 0.09119228 -0.084991455 0.09948995 0.05847462 0.075856745 0.07346699 0.08362636
-0.03833226 0.060124733 0.08049912 -0.06926855 -0.025113326 0.041019443 0.0033964177 -0.004705717
-0.044629365 0.0850185 -0.041868825 -0.0052050767 -0.0025883531 -0.038359117 -0.018074496 -0.002299332
-0.14310025 -0.077376135 0.12376648 0.05653911 0.04651671 0.021300282 -0.01558198 -0.043793716
-0.02524751 -0.08664603 0.020680478 0.056779012 -0.063072145 -0.05702074 0.0025073083 -0.041955393
0.04940944 0.09355926 0.0859325 0.011359848 -0.026568498 0.020152342 -0.08363369 -0.038322553
0.18455209 0.043800972 0.0152444495 -0.024037598 -0.048747886 0.22769429 -0.07646696 0.015943348
-0.13414456 0.02613495 -0.089918695 -0.118128106 0.048087433 0.09159459 0.030543579 0.0135058025
-0.072136045 0.0896291 -0.0026443333 0.019441482 0.00959397 0.031859208 0.067510866 -0.081249356
0.01831308 0.060399678 0.0028024043 0.008420029 -0.09650709 0.049126543 0.19956851 -0.091734074
0.025062025 0.108863704 -0.024146061 0.013315422 -0.1562684 0.033352327 0.014654387 -0.12256117
0.08383291 -0.0016473561 -0.16387068 -0.011023804 0.113219224 -0.027746083 -0.08049093 -0.070028596
0.030836089 0.051400535 0.05354328 -0.089713275 -0.057503402 -4.1872157e-05 0.13517866 -0.078001045
-0.010604761 -0.13977261 0.099953406 0.046623204 0.06299687 0.028764043 -0.13876294 0.023472572
-0.05209357 -0.108141705 0.048140466 -0.11894325 -0.02149784 -0.044614412 -0.089050665 -0.1282242
0.03359566 0.07339432 0.009989532 -0.047406286 -0.06753965 0.07850188 -0.026096735 0.056703556
-0.22467147 0.007388362 -0.055572927 -0.011911901 0.01871994 -0.0052927434 -0.051206183 0.115209736
-0.04033665 0.06873157 -0.07522441 -0.01203613 0.03349897 0.08529954 0.120172314 -0.13275476
-0.088875145 -0.015124449 0.01726174 -0.027018549 -0.14514674 -0.058889586 0.010983046 -0.0537516
-0.093841024 0.12043798 -0.08376234 -0.008347204 -0.073043846 -0.034654003 0.0440792 -0.009922305
-0.14296515 0.09286074 0.029616963 0.023432508 0.03273353 0.09466454 -0.017618408 0.05068465
0.21639073 -0.022924304 -0.06951823 -0.032060817 0.05392804 -0.18495479 0.06320172 0.011869504
-0.07192174 -0.021611186 0.05121653 0.066320404 -0.05910662 0.022164693 0.039646197 0.13864031
-0.057270225 -0.04090643 -0.037379794 0.0781617 0.092730254 -0.015612593 -0.022132723 -0.0054662

a2c_network.actor_mlp.2.bias f4 [128]
00000000: a385 953b a3e2 0e3d d88c dcbb bd70 3cbd
00000010: 0397 09bc 01d0 24bd 4382 ba3c 0127 8ebb
00000020: 51e3 81bd e852 c1bc 7c97 b6bc 0e18 02bd
00000030: 1336 e23b 3cb6 4cbd b109 a3bc 6706 98bb
00000040: d774 44bc e513 38bd f6d3 873c cfc5 383c
00000050: e19e cdbb 8336 c0bd cf62 803d fde7 a33c
00000060: 7bb9 5e3c 521f 3dbd 4296 33bd abb9 553d
00000070: 8023 d73c 052f a9bc 469b 8bba e1c2 0b3c
00000080: 21cd 093d 7cb1 d1bc 1243 1dbd 8b3b 14bd
00000090: bb59 3cbc a602 3f3c f8b3 cc3c ab2f 2abd
000000a0: e316 edbc df2c 86bc 52eb 323d d05b cfbc
000000b0: aef4 803b 0c23 913b a916 bdba 412a ba3c
000000c0: 297e 63bc 873b 613d 973b 05bc 5dc5 f83c
000000d0: 23d2 a93b 8349 2fbd cf19 fabb 0c03 dabc
000000e0: 3ae1 06bd 8851 3cbc 7d0e 303d ed45 e83c
000000f0: adce 98bc f9c8 2bbd 406a 2bbd c786 0e3b
00000100: 86a8 b4bc 965a 88bc a522 003d 003e 82bc
00000110: 0567 d63c 6420 bb3c e582 df3b 8c06 3b3c
00000120: 654f 65ba 6605 b8bc 1b24 e43b a3ca e1bc
00000130: a7ca c0bd 759b 543d 9b99 0e3b 65f1 0ebd
00000140: 4769 d2bd 9998 c3bb d684 153d 6120 2f3d
00000150: 020d 02bb 055e a4ba 0cc8 47ba 8dd1 84bc
00000160: a6b2 b13c 0a9d 2d3d fe69 adbc a560 40bd
00000170: 1f2e 59bd a5ec 47bd e410 86bd ed1b 13bd
00000180: c335 b23c 781b e9bb a846 ffbc 79b3 86bc
00000190: fa97 00bd 420a 13bc 5751 3bbc c4e8 9cbd
000001a0: 98d7 9fbc 2c3c 053d 98c5 cdbb d49f 40bc
000001b0: 60b3 3e3c 25a4 61bd edd7 8bbc 842e 34bc
000001c0: 4114 27bd c567 703c b747 4fbd 5be7 223c
000001d0: 26d8 74bc 8aa2 69bc 5abb 37bc 8777 c8bc
000001e0: cc78 ebbc 54c1 193c 7449 ddbd b17f d5bc
000001f0: 1384 a1bd 1e13 c93b ebf5 53bd 26f7 3dbd
0.00456305 0.034884106 -0.006730657 -0.046005953 -0.00839782 -0.04023743 0.022767192 -0.0043381457
-0.06342185 -0.023599103 -0.02228903 -0.03176122 0.006903419 -0.04997848 -0.019902082 -0.004639435
-0.011990747 -0.044940848 0.016580563 0.01127763 -0.0062750434 -0.09385397 0.06268846 0.020008082
0.013594027 -0.046172448 -0.04384447 0.05217902 0.026262045 -0.020652303 -0.0010651133 0.0085303495
0.03364289 -0.025597326 -0.03839404 -0.036189597 -0.011496003 0.011658346 0.02498816 -0.041549366
-0.028941577 -0.016378818 0.04368145 -0.025312334 0.003935418 0.0044292267 -0.0014426309 0.022725226
-0.013885059 0.05498841 -0.008131883 0.030367548 0.005182521 -0.042794716 -0.007632471 -0.026612781
-0.032929637 -0.011494048 0.042982567 0.028353656 -0.018653238 -0.04193971 -0.041849375 0.0021747814
-0.022053014 -0.016644757 0.03128304 -0.015898705 0.02617217 0.022842593 0.0068210238 0.011415135
-0.00087474874 -0.022463512 0.006962312 -0.027562445 -0.09413653 0.051906068 0.0021759036 -0.03489818
-0.10273986 -0.005969119 0.036503635 0.04275549 -0.001984418 -0.0012540227 -0.0007621057 -0.016213203
0.021691632 0.042386092 -0.021168705 -0.046967167 -0.0530225 -0.048809666 -0.065461904 -0.035915304
0.021754151 -0.0071138702 -0.031161621 -0.016443001 -0.031394936 -0.008974614 -0.011432967 -0.07661584
-0.019511983 0.032528087 -0.0062796585 -0.011756856 0.011639446 -0.05508818 -0.017070735 -0.010997418
-0.0407908 0.014673178 -0.050605502 0.009942855 -0.014944112 -0.014259944 -0.011214102 -0.024471058
-0.028744124 0.009384472 -0.10805026 -0.026061865 -0.07886519 0.006136312 -0.051748198 -0.046378277

a2c_network.actor_mlp.4.weight f4 [128, 128]
00000000: 0e4c 863e a0c6 16be 42b3 853d 6de1 51be
00000010: 7445 88bd 5327 45be 1ede 54bd d07c b7bc
00000020: dc07 5a3e 658d 0dbe b2d7 003e efd9 683d
00000030: d67c c33c cb68 06bd 9b4f 193e f2e2 24bd
00000040: 8aae 123e 9742 74bd 7310 343d 0b99 5ebd
00000050: 20be 7ebd d367 573e 7d53 b43b 52ab b2bb
00000060: 4371 573e a260 8cbd aae0 28bd ac76 123e
00000070: 982e 1e3d 12e9 513d 332f 80bd fd10 73bd
00000080: 9f9b 193e a77f afbd b65c 453e a7f2 623c
00000090: 6749 d43d 3856 6dbd a88c 11bb 6830 773d
000000a0: c7de acbc e733 0e3c 8256 103d d311 023e
000000b0: 1871 3ebc 0e36 4c3e d497 263d 60ef 5f3c
000000c0: b89e 153e 6558 c23d 3fcf ce3d 3aeb ad3d
000000d0: 8589 f13d d02d e93c b2e4 913d 895e f0bc
000000e0: 046f 093e 9cde b83d d0f7 a63c f976 f2bc
000000f0: b98d 55be 22b2 e73d 6d33 d13c 94c1 ebbd
00000100: b999 663d 32c1 983e 23d6 d8bd 32d4 8ebe
00000110: ad53 a3bd b7db bfbd 2d02 cb3d 0cab 53be
00000120: b31e 753e 8a62 ee3d bd86 fe3d 64b5 61be
00000130: 4765 033d b75d cebc 3e74 2dbc 93d8 453e
00000140: b4ca 073d c65b 6e3d 8c86 7d3e 7e28 6e3b
00000150: 8aa4 cf3d e526 3e3e 25f3 2ebe f4df 783c
00000160: da7c a1bd d06f ccbd 030f ba3d dcea febd
00000170: 0407 e6bc 9bbb 16be 83ef 4d3b 903d 47bc
00000180: 1982 87bd 1ecd 213e aef8 1abd 66b6 4b3c
00000190: 65c1 9dbc 75c3 b7bd 1b0c 2d3e eb95 0d3e
000001a0: d00e 283e 2424 1c3e 2fca 28be 789b 2d3e
000001b0: 5e65 84bd e9e3 803d eaff 1abe 440d 9dbd
000001c0: 11e7 703d 85e4 d63d 07df 12be ef65 bcbd
000001d0: 72a8 a4bd 0cf7 c7bd 4788 ffbc ac20 b3bb
000001e0: 1bb8 8bbc aaa1 34bd 8c2b d4bc 3cb5 2f3e
000001f0: b857 25be cff3 c43d 9bbf 273d 3cd6 2abc
00000200: d43b 3cbe 0cf9 dc3d 2ddf 523d 330d c03d
00000210: 9251 a9ba b3b7 bcbd 72b3 863d a459 ec3c
00000220: 9126 793b bf41 01be 81e2 28bc 6f77 36bd
00000230: 66fb e63d 1587 81be eda9 f8bd f496 5b3d
00000240: 004c 80bd 116d e43d 1ebb 22be c518 2e3c
00000250: 79a9 62bd 99a1 a3bd 50fd 4cbd 01ff 863d
00000260: 6238 46bd 4120 58bc 781e 8bbd f576 e3bc
00000270: 4ad2 00bd e271 5fbc d2a4 bb3c 4180 c9bd
00000280: 9a49 8f3d 2fac d63c 834c 7bbd 76b4 86be
00000290: 665d bd3c e2a4 abbd e6cb 9dbc c578 40bc
000002a0: 74d1 393d ec2f 02bd bd8d ffbc 72f8 58bd
000002b0: e6d3 dcbd b69e 0ebe d3b4 893c 53d2 f5bd
000002c0: 1d9e 6c3d 5c71 163e adac fabd c2dc 2cbe
000002d0: 6d85 663e b736 933d 33c9 14be 0348 5e3c
000002e0: 9cd2 0dbe 4dba 9c3d 84eb 5d3e 7ed5 b53c
000002f0: 8012 693c c3b1 eabd 09bf a9bd c4d9 30be
00000300: 3c60 8ebe 8327 2d3d 488a aa3d c60e 3d3c
00000310: 39f1 f4bc 12b3 af3a 517e 50bd fb79 023e
00000320: 0e15 36be a610 a6bd 263d 8f3e c166 b03d
00000330: f7eb 83bd 0627 fa3d b874 52be 6611 ca3d
00000340: dfae f4bd 52ad 293c 23cd 663d fa90 c1bd
00000350: ca8d 47bd 46ab f1bd 9b2c 66bd e0cf c7bd
00000360: 243e f53d b5ac 70bc 7766 a9bd d538 cb3d
00000370: a8e7 aebd 0170 833d 6e74 e9bd 9176 98bd
00000380: c095 153d ef5b 4bbe 0904 9fbe fc58 bf3e
00000390: a5ae b6bd bc84 cbbd 34a4 003d f65e 18be
000003a0: ee19 84bd 70f0 fa3d ad3f 083d 40a6 98bc
000003b0: 0451 2dbe 2acc 07be bee7 623a 150e 523e
000003c0: 4077 f3bb 80d0 b83d 099d d93d fa61 cd3d
000003d0: 54d0 28bd 26ba cc3d 127a fbbd 917d d3bd
000003e0: 57b0 3abe 2c3d 3abd d1f5 58be 144c a33c
000003f0: c21a acbd 98aa 41bd 0284 e63d 0957 3abd
0.262299 -0.14724207 0.06528331 -0.2049615 -0.06653872 -0.19253282 -0.05196964 -0.022398382
0.2129206 -0.13823469 0.12582281 0.056848463 0.023863237 -0.032814782 0.14971773 -0.040255494
0.14324394 -0.059633818 0.043961 -0.054345172 -0.062193036 0.210357 0.0055031166 -0.005452552
0.210393 -0.06854369 -0.04122988 0.14303082 0.038618654 0.051247664 -0.062590025 -0.059342373
0.15000771 -0.085692696 0.19273648 0.013851798 0.10365563 -0.057943553 -0.0022209082 0.0603489
-0.021102322 0.008679367 0.03523875 0.12702112 -0.011623643 0.19942495 0.04067214 0.013667911
0.14611328 0.09489516 0.10098123 0.084921315 0.11793808 0.028464228 0.07123698 -0.029341953
0.13421255 0.09026834 0.020381838 -0.029597746 -0.20854844 0.11313273 0.025537217 -0.115115315
0.056298945 0.29834896 -0.10587718 -0.27896267 -0.07974944 -0.09368079 0.09912524 -0.20670718
0.23937492 0.116398886 0.12428043 -0.22041851 0.032079007 -0.025191171 -0.010586796 0.19320898
0.033152297 0.05819299 0.24758357 0.0036340053 0.10138805 0.18569525 -0.1708494 0.015190113
-0.07885142 -0.09982264 0.090848945 -0.124471396 -0.028079517 -0.14720003 0.0031423278 -0.012160674
-0.06616611 0.15800902 -0.037834816 0.012433624 -0.019257257 -0.08972827 0.16899149 0.1382672
0.164119 0.15248162 -0.16483377 0.16953838 -0.06464647 0.062934704 -0.15136686 -0.07668546
0.058814112 0.104928054 -0.1434289 -0.0919913 -0.08039941 -0.09763917 -0.031192912 -0.0054665413
-0.017055562 -0.044099487 -0.025899671 0.17158979 -0.16146743 0.09616815 0.040954214 -0.010427054
-0.18382198 0.107896894 0.05148237 0.093775176 -0.0012917987 -0.09214725 0.06577195 0.028851338
0.0038017372 -0.12622736 -0.010307909 -0.044547495 0.11278419 -0.25298372 -0.12141786 0.053610757
-0.06264496 0.11153615 -0.15891692 0.010626023 -0.055337403 -0.07989807 -0.050046265 0.06591607
-0.048393615 -0.013191284 -0.06792921 -0.027766684 -0.031450547 -0.013637992 0.02290574 -0.098389156
0.0699646 0.02620515 -0.061352264 -0.26309556 0.023115825 -0.08381058 -0.019262265 -0.011747544
0.045365766 -0.031783983 -0.031195516 -0.05297131 -0.10782604 -0.13927731 0.016809857 -0.12003007
0.057767976 0.1469168 -0.122399665 -0.16881087 0.22511835 0.071881704 -0.14529876 0.013566974
-0.13849872 0.076527216 0.21671873 0.022196528 0.014225602 -0.114596866 -0.0828839 -0.17270571
-0.27807796 0.04227401 0.08327156 0.011539167 -0.02990018 0.0013404808 -0.050901715 0.12741844
-0.17781469 -0.08108644 0.2797634 0.08613349 -0.06441491 0.122144744 -0.20552337 0.098666
-0.119474165 0.010356264 0.056347977 -0.0945148 -0.048719205 -0.11800246 -0.056194883 -0.09756446
0.11974743 -0.014689614 -0.08271497 0.09922949 -0.08540279 0.064178474 -0.1139916 -0.0744449
0.036519766 -0.19859289 -0.31057766 0.37372577 -0.089200296 -0.099374264 0.031406596 -0.14879975
-0.06450258 0.12252891 0.03326385 -0.018633962 -0.16925436 -0.13261476 0.0008655748 0.20513184
-0.007429987 0.09024143 0.10625655 0.10028453 -0.041214302 0.099964425 -0.122791424 -0.10326684
-0.18231331 -0.045468494 -0.21187522 0.019933738 -0.08403541 -0.04728183 0.11255647 -0.04549316

a2c_network.actor_mlp.4.bias f4 [128]
00000000: 4831 7ebd c719 8bbb 1267 03bd d96d 03bd
00000010: 40cd 2bbc c6bd 85bd d2e1 963c fd10 073c
00000020: 0220 31bd 4822 76bd b402 1abe afac 943c
00000030: 74cf 95bc d45d 86bd eba1 c6bd 226c 8ebd
00000040: cb20 923d 512f 2bbc d55d dbbb c8f8 b13b
00000050: b4a7 e5bb 9dda a7bd 2506 363c 495a 92bd
00000060: 1735 bdbd cefb a23c 7807 e73c f539 87bd
00000070: 5fb5 37bb eb09 4abd 1876 a83d bc94 b2bd
00000080: 909d 25bb 8df5 0c3d 9148 b0bc c8a0 26bc
00000090: 5822 943b dd46 d2bc bc02 aa3b db48 2f3c
000000a0: 3d3e b7bd d72f 8ebc 0dac 9cbc 4cf0 823d
000000b0: 536d babd c36c 69bc ea69 12be f157 ebbc
000000c0: 42e3 e33c 4497 9abc afa0 a9bd 0ed7 483c
000000d0: 1b72 223c 440a 323d d87a 3a3c c955 6f3d
000000e0: 4315 0039 6d02 6f3c c206 473c ecbc 8dbc
000000f0: cf9a f63c d57c 663d 59a8 69bd 9124 10bd
00000100: 25f9 883c 8a46 1b3d e4e8 10bd 256e 7a3d
00000110: 06dc 5bbd 2f6f c2bb 5843 11be 157b 423c
00000120: 7c61 f63b 304e b73d 0db2 c23b 7c49 babc
00000130: 2edc 77bb 3b1d 2b38 0436 22bd bb4a cfbc
00000140: b8fb ff3c 1503 893b 6034 833c 2354 95bd
00000150: f668 893c 107e cfbd 758f c8bd 9922 26be
00000160: 1584 cfbd cc4f 6fbc b0bc 83bd 672f 8fbd
00000170: 4299 0bbd f2af 21bd c8df 08bb bc30 00bd
00000180: 1474 15bd 2f80 e33b 45d2 dfbd 995b 2dbd
00000190: 0c77 463a 8174 afbd a463 83bd 9b03 9f3d
000001a0: b2c9 87bd 7eec c63c dc87 143d c761 e0bd
000001b0: 89eb 49bd 2996 a33b 90d8 1f3d 9b55 d0bc
000001c0: 0d55 9b3b 08be a3bd cf4c 3dbd 44f0 52bd
000001d0: ac76 22bd 2a21 ecbc 6939 95bd d208 78bc
000001e0: 8770 eebc a2a2 d63c 456b af3d d0f4 d9bd
000001f0: 60a5 283b e609 1fbd 0e3a 37bc 45d1 a9bb
-0.062058717 -0.0042450163 -0.032080717 -0.03208718 -0.010485947 -0.06530337 0.018418226 0.008243796
-0.043243416 -0.060091287 -0.15040094 0.018148748 -0.018287398 -0.06560865 -0.09698852 -0.069542184
0.07135161 -0.010448293 -0.0066945353 0.0054312684 -0.007008517 -0.08195994 0.011109863 -0.07146127
-0.09238642 0.01989546 0.028201804 -0.06602851 -0.002803169 -0.049325865 0.082256496 -0.08719775
-0.0025270917 0.034413863 -0.021518977 -0.010170169 0.0045206957 -0.025668556 0.0051883142 0.010698522
-0.08947418 -0.017356796 -0.019125009 0.06393489 -0.09102883 -0.014247122 -0.14298216 -0.028728457
0.027818326 -0.018870957 -0.08282601 0.012258304 0.0099149 0.04346682 0.011381827 0.05843142
0.00012214952 0.014587981 0.012147607 -0.017301999 0.030103115 0.056271393 -0.057045314 -0.035191122
0.016720364 0.03790907 -0.03537835 0.0611402 -0.053676628 -0.0059336643 -0.14185846 0.011870165
0.0075189453 0.0895046 0.0059416355 -0.022740118 -0.0037820446 4.07968e-05 -0.039602295 -0.025304189
0.031247959 0.0041812756 0.016016185 -0.072914384 0.016773682 -0.101314664 -0.09792987 -0.16224135
-0.101326145 -0.014606427 -0.06432474 -0.06991463 -0.034081705 -0.039474435 -0.0020885337 -0.031296477
-0.036487654 0.006942771 -0.109287776 -0.042323682 0.000757084 -0.08567143 -0.06415489 0.077643596
-0.06630267 0.02428269 0.036262378 -0.109561495 -0.04929689 0.0049922657 0.03902489 -0.025431445
0.0047403635 -0.0799523 -0.04621583 -0.051498666 -0.039663956 -0.028824408 -0.07286341 -0.015138822
-0.029106392 0.026200596 0.08565382 -0.106423974 0.0025733337 -0.0388278 -0.011183275 -0.0051824176

a2c_network.value.weight f4 [1, 128]
00000000: a266 e5b9 e64d 113d c619 afbc 2b3a 243d
00000010: 0c34 4d3c 30aa fb3c a0a9 2a3d c166 e33d
00000020: fd54 2b3d f96f 99bd 7aaa 0d3e a494 093c
00000030: 699c e5bc f747 373c f95d cd3d 4555 f9ba
00000040: 313d c43e b87a 79bc 52e8 643e d678 203e
00000050: 5ceb a93c 59a3 d03a 6b59 d93d 8f10 c03d
00000060: ea35 91bb 8a0a 84be 056b b13c b3b7 88bd
00000070: edf7 093b d08e 90be d91b 513c 574d 0a3d
00000080: fa07 463d 84fc 5a3c 140b fc3c 3d0f 183d
00000090: c4cf a93c f681 62bc e0b6 b73c 28f4 1b3e
000000a0: df13 533b f465 89bd 5120 683e 117e 683c
000000b0: 57f1 ecbc 9fe6 88be c9e2 1abd 5147 62bd
000000c0: 3606 0cbc 8d6f 963d 5af0 e63b e98f 8d3e
000000d0: 96c1 25bd cdaf 453e 4c0b be3d e004 2c3e
000000e0: b76b a7be e1d7 083d 0948 46bb 107b 75bd
000000f0: 7a75 3fbd 55cd 4dbe 0866 3a3d 8089 3f3d
00000100: 3d51 11bd 53a2 25bd 18f1 5d3c 869e 6bbb
00000110: 93a4 593d 80d2 8bbd a8fb 08be ccf7 ce3d
00000120: b3a5 2cbe c3ec 7bbd 20b3 4c3d 4df6 a4bd
00000130: 0cf5 02bd c351 4e3d 767f 67bc 01c4 f1bd
00000140: 50b5 983d 3832 993d b4f2 fa3d b896 1fbd
00000150: 2a9c a4bc 4021 fcbc 186a 4cbe f04d 10bd
00000160: 8cbe cebd 5812 493c 9fe8 bfbd c2c5 7cbd
00000170: f25b eebb c390 91bd 9e29 eb3c 8de0 4abd
00000180: e9b7 c63c 7a5d bebd f67f 833d 0d92 7d3c
00000190: 1505 ec3c 7cb4 133e d3d1 2cbd 90af 84bb
000001a0: 7eeb b9bd 46be 37bd 1d30 95bd 99fd 9bbe
000001b0: b1e1 3b3c 2e89 a8bd 6606 483b 5bdb 083d
000001c0: 642d ef3c 4744 68bd 4e1e 0cbe aa4d d13c
000001d0: b40e 8d3d 709e 63be 6f14 88bc 873f abba
000001e0: 13a4 1f3e fd01 67bb ea67 0abd 2340 21be
000001f0: ad11 bf3c f9f7 fd3c 5ae8 0bbe 774e cb3c
-0.0004375475 0.03547468 -0.021374594 0.040094536 0.012524616 0.0307208 0.041665673 0.11103583
0.041829098 -0.0749206 0.13834563 0.008397255 -0.028028684 0.011186591 0.100276895 -0.0019022605
0.38327935 -0.015227012 0.22354248 0.15671095 0.02074211 0.0015917822 0.10612758 0.09378158
-0.004431476 -0.2578929 0.021657476 -0.06675663 0.0021052316 -0.28233957 0.012762987 0.033765163
0.04834745 0.0133658685 0.030767001 0.037123907 0.020728953 -0.01382493 0.022426069 0.15229857
0.003220789 -0.06708899 0.22668578 0.014190213 -0.028923674 -0.2673845 -0.037813935 -0.055243794
-0.008546403 0.073454954 0.007047695 0.27648857 -0.04046782 0.19305344 0.092794985 0.16798735
-0.32699367 0.033409003 -0.0030255339 -0.059931815 -0.046742894 -0.20097859 0.04550746 0.04676199
-0.035477865 -0.040438008 0.013546251 -0.0035952642 0.053135466 -0.06827259 -0.13377249 0.10105857
-0.16860084 -0.06150509 0.049975514 -0.08054791 -0.031971976 0.050370943 -0.01412951 -0.11804963
0.074564576 0.074802816 0.12253323 -0.038962096 -0.020093996 -0.030777574 -0.19962347 -0.035230577
-0.10094938 0.01227244 -0.09370541 -0.061712034 -0.0072741443 -0.07107689 0.028706368 -0.049530555
0.024257617 -0.09295173 0.06420891 0.015476716 0.028811017 0.14424318 -0.04219229 -0.004049249
-0.0907812 -0.044859193 -0.072845675 -0.30466917 0.011467383 -0.0822929 0.0030521392 0.03341232
0.029196449 -0.05670574 -0.13683435 0.025549728 0.0688757 -0.22228408 -0.016611306 -0.0013065197
0.15589933 -0.0035248988 -0.033790506 -0.15747122 0.023323858 0.031002032 -0.13662854 0.024817688

a2c_network.mu.weight f4 [10, 128]
00000000: a570 f5bd 17ba 80bc 6a17 f63d 0e5f a43d
00000010: 5d9b 3e3d 7a7d d1bc dcd9 e1bd 4a28 56bd
00000020: 62f4 7dbc e57e 78bc 4921 b0bd 707f b9bd
00000030: 899c 2abd dbce 873d 2c2d 9a3c baf2 fc3d
00000040: 7d27 e63c b4d2 99bc d254 e8bc c3b5 0a3d
00000050: bd7a 26bd 8310 873d 07e7 1e3a b381 1ebc
00000060: 6c46 a83c 9ef0 d73d d77c d7bd 0629 3e3d
00000070: eeba f3bc b7de ac3c 2e53 8e3c 0e19 0a3d
00000080: 128a 9e3a b214 37bd 306d 22bd 2b8b 13bc
00000090: 8693 2abc 809c 3d3d 7d23 7a3c 67a5 80bd
000000a0: e25f db3d 0ff5 96bd 607f e2bb e79e f1bc
000000b0: 42c8 133d c5d7 803c ef6a 2bbb 3dc5 a1bd
000000c0: d363 2c3d 6a34 8bbc 4e3c 5abd 74c7 7fbd
000000d0: 583c 01be 994f a03d 6610 e9bd 5229 89bc
000000e0: 663c 653d 787f 623d 10b4 5abd 00e0 b93d
000000f0: 3dc1 51bc 5509 8a3d e37d 283c 8382 f83d
00000100: 1dd0 003d 6e94 2f3d 39e1 8b3a cd4c 49bd
00000110: 00fa c5bc 5672 ad3d b147 65bc ae46 b03d
00000120: 3569 fa3d 00d3 24bd 5762 1bbe 7269 6cbd
00000130: 0a94 04be 381a 84bc 197a 033e e416 3cbd
00000140: 8a1b c3bc 8396 92bc 213c babd 7e7c 53bc
00000150: 1f81 373d 92e9 ba3c ded3 6abd 6e5a 6dbd
00000160: 1e12 963d 48a9 293d e640 59bc 1f74 8e3d
00000170: 8c83 c1bd 5ae6 193c 148b dc3d 30c2 543d
00000180: 7a64 ff3d e87a 06be 339c 34bd 2e37 383d
00000190: 1b64 1d3d d973 b63d 7f99 22be bb00 1e3d
000001a0: cf85 2fbc 1cb9 8d3c c92c bbbd e78a 273d
000001b0: c725 fe3c e52f a83d d3ee 11bd 1d02 a83d
000001c0: ef86 92bd 9a95 e33c ab45 75bd add1 063e
000001d0: 0913 55bd b075 d1bd d44d b53d fcf4 83bd
000001e0: f44e b23c e97e 9fbd 4ba3 efbc e9c9 d73d
000001f0: bd79 793d 1d96 923d 1e60 f2bc 0fae ba3d
00000200: 21e9 37be 9f15 c63d e4a0 183c f26c 633c
00000210: bf4e 0bbe 73fb 9e3c 2091 ae3d 7a38 df3d
00000220: 4b18 d6bd 6cff 9cbd 02c8 23be 6b4e 053e
00000230: 3541 ee3c bd4d 1bbc f21e 8ebe 6b7d 1ebd
00000240: 66e0 033e c7b4 fd3d 72ab cbbd 333a 4cbc
00000250: 11bb 9f3d a5ef 1e3d 1e46 9e3d 72d2 80bd
00000260: ee9b f0bd 4b95 76bc 333f 8c3d ee53 023d
00000270: d36f d8bb 85bb adbd 4764 fc3d 1463 57bc
00000280: c42b 67bd 60a8 05bd 07be a33d 6681 163d
00000290: f72f d3bd 9e3a 743d 19cc d7bc c81e 11be
000002a0: 93f9 24bd 5490 863d 6b59 8439 f093 803d
000002b0: dc74 08bb e436 993d f1da cabd 399f 83bd
000002c0: d111 963d 803a 103e 4bbe 2dbe d333 403c
000002d0: 0376 813d 8e11 0f3d f81a a83d d08f 663d
000002e0: 4a56 633e 404d 07be 7eb8 6f3d a859 043e
000002f0: fe57 663d fef4 1e3c a69f 01bd db1b 513c
00000300: 9a16 f73d 793b ee3d d7bf 82bd 75d8 ee3d
00000310: 7be7 a3bd a559 c93d fc0d 9abd 1eaa a33d
00000320: ca4a 2cbe d5a0 423e 5512 8439 ab05 d03d
00000330: 1369 9a3d db5b 533e 928f 10be 7408 be3d
00000340: 9d82 853d af18 9a3e 3cc9 bfbd 64b0 46bd
00000350: 3402 c7bd 0365 20bd 0c54 dcbd f570 80be
00000360: 39d3 83bd c2e6 ed3d b2eb 86be 09b5 543d
00000370: 0569 0c3d 6964 1c3d b1f2 20bc e6f9 113c
00000380: 4fb9 923d 66b0 6d3b a28e b3bd 4c89 18be
00000390: 51f2 813b 59a1 2fbe 17ec 1cbe 456c c53d
000003a0: 660a 13bd f2ff b8bd 95c7 4cbc 47c7 dfbd
000003b0: b04e d0bd 76f9 063d 383b 233d 842e 15bc
000003c0: 9680 613c 88ae 393d 5777 abbc feaa 24be
000003d0: b0f7 25be 2fff 0d3e 527a 1f3c 4a93 b53d
000003e0: a87c 05bd 83ad 453d f299 c53d 2ad7 94bd
000003f0: b0b2 603d ffc3 c9bc c292 2fbe 8291 f73d
-0.11984376 -0.015713735 0.12016185 0.08025943 0.046534885 -0.025572527 -0.110278815 -0.052284516
-0.01550016 -0.015166973 -0.08600099 -0.0905751 -0.04165319 0.066312514 0.018820368 0.12350984
0.028095001 -0.018777229 -0.028360758 0.033864748 -0.040644396 0.06594946 0.00060616474 -0.009674477
0.020541392 0.10543941 -0.10521858 0.04642584 -0.029752221 0.021102292 0.017373648 0.0337153
0.0012095592 -0.04469747 -0.03965491 -0.009005348 -0.010411149 0.04629183 0.01526725 -0.06281548
0.107116476 -0.0737096 -0.006912157 -0.029494716 0.036079653 0.015727887 -0.0026156267 -0.07898948
0.042087387 -0.016992766 -0.053280167 -0.062446073 -0.12620676 0.07827682 -0.11380081 -0.016743336
0.055965804 0.055297345 -0.053394377 0.09075928 -0.012802419 0.06740061 0.01028392 0.12134268
0.031448472 0.042866163 0.001067198 -0.04914551 -0.02416706 0.084690735 -0.013994143 0.08607231
0.12227098 -0.040240288 -0.15174232 -0.057717748 -0.12947097 -0.016125783 0.12839545 -0.045920268
-0.023816843 -0.017894035 -0.090935 -0.012908099 0.044800874 0.022816453 -0.05733096 -0.05794757
0.07327674 0.041421205 -0.013260102 0.06955742 -0.09448919 0.009393299 0.107687145 0.051943004
0.12470336 -0.13132823 -0.044094276 0.0449745 0.038425546 0.08908815 -0.15878867 0.038574915
-0.010713055 0.017300181 -0.091394015 0.040903952 0.031023873 0.0821226 -0.03562815 0.08203528
-0.07154643 0.027781297 -0.059880894 0.13165922 -0.052020106 -0.10227525 0.08852735 -0.064432114
0.021766163 -0.07787878 -0.029252669 0.10536558 0.060907114 0.07157538 -0.029586848 0.0911523
-0.17960025 0.09672093 0.009315703 0.013880955 -0.13604258 0.01940701 0.08523774 0.10899444
-0.10453852 -0.07665905 -0.15994266 0.13018195 0.029083828 -0.0094789835 -0.27757984 -0.038693827
0.1287857 0.12387996 -0.0994481 -0.012465048 0.07799352 0.03880276 0.077282175 -0.06290139
-0.11748491 -0.015050243 0.06847992 0.031818323 -0.0066051274 -0.08483032 0.12323814 -0.013146181
-0.056438223 -0.032631278 0.07995229 0.036744498 -0.10311883 0.059626214 -0.026342439 -0.14171898
-0.040277075 0.06570497 0.00025243624 0.06278217 -0.0020821607 0.07481173 -0.09905041 -0.06426854
0.07327617 0.14084816 -0.16967122 0.011731106 0.06321337 0.03492885 0.08208269 0.056289494
0.22200885 -0.13213062 0.058525555 0.12924826 0.05623626 0.009701965 -0.031646393 0.012762989
0.12064858 0.11632437 -0.06384247 0.1166238 -0.08003136 0.098315515 -0.075221986 0.07991432
-0.16825405 0.19006665 0.0002519066 0.10157331 0.075395726 0.20640509 -0.14117268 0.09278956
0.06519053 0.30096957 -0.09364554 -0.048508063 -0.09717217 -0.039158832 -0.10758218 -0.2508618
-0.06436772 0.11616279 -0.26351696 0.05193046 0.034279842 0.038181696 -0.009823487 0.008909678
0.07164251 0.0036268472 -0.087674394 -0.14896125 0.003965654 -0.17151393 -0.15324436 0.096397914
-0.03589859 -0.09033193 -0.012498756 -0.10926681 -0.101712584 0.03295275 0.039851397 -0.0091053285
0.013763567 0.04533246 -0.02093093 -0.16080853 -0.16207767 0.13866876 0.009733753 0.08865984
-0.032589585 0.048261177 0.09648503 -0.07267602 0.05485791 -0.024629591 -0.17145827 0.120883

a2c_network.mu.bias f4 [10]
00000000: 4636 693c e138 1c3e 5bf9 34bc 082b 24bd
00000010: 9011 5fbd 2fa9 14be 8eca 64bc 7cf1 94bb
00000020: a375 393c 68b8 423e
0.014234131 0.15256073 -0.011045779 -0.0400801 -0.05446011 -0.14517663 -0.013964308 -0.0045453887
0.011319551 0.19015658

exp_avg f4 [10]
00000000: e708 15ba a9d8 9938 ca2b a038 eb92 8339
00000010: f5e0 6cb9 bb41 9ab5 f4a6 2a39 58f9 afb9
00000020: e639 5fb8 6f35 0bb9
-0.00056852255 7.3359646e-05 7.637551e-05 0.0002509573 -0.00022590517 -1.1493024e-06 0.00016274658 -0.00033564377
-5.3221265e-05 -0.00013275979

exp_avg_sq f4 [10]
00000000: 5e86 fe36 1694 2737 3a13 fc36 7e2e 2737
00000010: a409 2837 e065 0937 699c 1037 8b67 1d37
00000020: 5897 2237 3d06 2237
7.5854323e-06 9.988455e-06 7.5124235e-06 9.9648005e-06 1.0015825e-05 8.189556e-06 8.619486e-06 9.382037e-06
9.69119e-06 9.657405e-06

exp_avg f4 [256, 42]
00000000: 5d0e 24ba 7973 03b9 5492 7db9 d7da 00b8
00000010: e1ee 8a38 f331 db37 d0d6 83b7 49b2 27ba
00000020: 7c50 8cb8 1a99 e23a af54 68ba 18a2 2fba
00000030: c864 d6b9 5d4d 4b38 ccd9 c1b9 4a39 433a
00000040: 3866 56ba 5b0c fd39 bf1f 20b9 3148 4dba
00000050: 8fcb b9b9 f086 20ba 6660 6bb7 4e3d 2bb8
00000060: db87 8db8 5773 98b5 76cf 7937 1ec1 e5b7
00000070: d73e 37b7 7459 03b8 ee17 1438 7872 8037
00000080: d788 443a c4f5 8cba ec35 39ba 4520 09ba
00000090: 5fdb 1c39 7ec2 9039 9c8e ffb9 e667 30ba
000000a0: 73fb c539 4b4d 94b6 7d46 783a 553f 8639
000000b0: 2c9e 343a f7a3 5939 8df2 6eb9 23f1 6238
000000c0: e1a8 8738 bedd 703a cf53 eeb9 3f5a 23bb
000000d0: c1f7 a03a c053 763a 77bc 503a cb1c 1eb9
000000e0: 501e 803a 2322 89ba b29c 713a 8c0b 98ba
000000f0: 83cb d539 4e10 833a eaf4 8639 a841 663a
00000100: 2f9a 3f38 1a23 73b8 24aa ef37 024a 69b6
00000110: 5fde 3cb7 f967 abb8 eab2 1737 e940 91b8
00000120: 1c50 3337 7d4c 96b7 0196 a1ba b337 583a
00000130: 3dfa c3b8 ba01 7339 a6f2 de37 411b 44ba
00000140: bde8 6b3a ccb8 8639 f8ab 28ba 90ad 6cb9
00000150: f0fc e9ba 58de cdb9 569c 69ba 9302 20b9
00000160: d666 9639 9058 8938 c84f 02b9 7a14 e6ba
00000170: 8164 6e39 168a 9e3b d5a9 20bb c816 f7ba
00000180: adea b3ba 7f44 2439 cce3 b1ba 014f 073b
00000190: 1960 09bb 9982 db3a a3d5 0bba f653 0dbb
000001a0: 5dfb 4bba 02d5 deba b580 99b8 efcc ffb7
000001b0: 877b 12b9 3662 5fb8 0197 bb38 4bd9 7138
000001c0: a3a5 0c37 05cc dfb7 ccae 1837 55d8 d737
000001d0: 3f66 0f3b 84f7 26bb 1537 a4ba fbfa b3ba
000001e0: a3ce 033a c33d a43a 9916 b0ba ac15 e6ba
000001f0: 0774 a83a cb24 f438 4573 4bba 871a 1cb9
00000200: 230f ecb9 0dcb f0b6 c5da 1c39 5504 d536
00000210: 1f10 0eb9 4bba 2fba 3a3c 8c38 0da6 043b
00000220: e868 8dba 377c 65ba 4302 1aba a89b a338
00000230: e7cb 15ba edc2 6b3a 0676 5eba 2fd8 2e3a
00000240: 6530 96b9 4a3d 76ba df38 a9b9 91ab 38ba
00000250: 93e2 97b8 a680 8d36 6acb 32b8 bf89 55b6
00000260: 1430 a537 10ed b538 8dca 1838 d37f 05b7
00000270: 7ce6 8237 4126 bfb7 9dfa 573a ce21 87ba
00000280: df45 f2b9 056e 86ba 4f66 3b39 35c5 663a
00000290: 5a6c a1b9 78fd 60ba 4059 0c3a 5081 8fb8
000002a0: 603c 1aba 49cc 8cb9 af04 d0b9 353f 9438
000002b0: fdff 8938 e84e 20b9 28ef 97b9 5dda e3b9
000002c0: 646b c037 cc28 c73a 3a54 55ba f838 33ba
000002d0: 245a eeb9 0795 0f37 1cd8 89b9 c77d 3e3a
000002e0: f939 28ba 9bda 0a3a b962 bfb9 1ca4 50ba
000002f0: c1c5 9cb8 e095 22ba 8519 d6b8 d9c4 96b7
00000300: ae04 8438 6cff 4f38 e0e8 66b7 2bda fa38
00000310: 634b 9838 e5a8 29b8 706d f036 bf28 5137
00000320: c739 fa39 e9b9 60ba 54e2 2339 b6ea 5cb9
00000330: 3f45 28b9 4aa4 023a d939 8038 01e0 10ba
00000340: eba6 0739 051e 8cb9 1567 453a c53d 4639
00000350: 3364 043a 140b 6c39 6fd7 63b9 103e 65b8
00000360: aa00 1db8 15d2 523a eed4 9db9 c99d 06bb
00000370: 69e6 813a fe38 3e3a 533d 193a e80d 07b9
00000380: 5df5 4c3a 8b5a 48ba 16cf 453a fe99 7bba
00000390: 0c0e 8e39 6897 603a 1527 9539 dbfb 603a
000003a0: b75a 5c37 0a79 1fb8 568d d438 0b3d 7c38
000003b0: c1cd 7cb8 db57 c0b7 3ae6 ab37 c9bf 18b8
000003c0: 34fd 22b7 9a5a 85b7 8310 84ba 99dd 523a
000003d0: 1fdd 7e39 2208 ac39 963d acb9 8fce 3cba
000003e0: 62bb 573a a2f1 e239 15c4 3bba 0df4 cfb9
000003f0: c00d 89ba e871 41b9 045f f2b9 1e59 a538
-0.0006258244 -0.0001253615 -0.00024182472 -3.072139e-05 6.6248474e-05 2.6130094e-05 -1.5716447e-05 -0.0006397111
-6.6907116e-05 0.001728806 -0.00088627165 -0.0006699874 -0.0004089235 4.847102e-05 -0.000369741 0.00074471964
-0.0008178684 0.00048265126 -0.00015270615 -0.0007830887 -0.00035437613 -0.0006123623 -1.4029536e-05 -4.082667e-05
-6.748709e-05 -1.1358451e-06 1.488986e-05 -2.7388855e-05 -1.0922281e-05 -3.1316144e-05 3.5308236e-05 1.5312093e-05
0.00074971974 -0.0010754396 -0.0007065225 -0.0005230944 0.00014959041 0.00027610728 -0.00048743642 -0.0006729349
0.00037762112 -4.419742e-06 0.0009470953 0.00025605658 0.00068900245 0.00020755814 -0.00022787806 5.4107175e-05
6.468758e-05 0.00091883156 -0.0004545734 -0.0024925617 0.0012280868 0.0009396635 0.0007962654 -0.0001507878
0.0009774659 -0.0010462444 0.000921677 -0.0011600121 0.00040778154 0.0009999366 0.00025740947 0.0008783587
4.5681543e-05 -5.7968406e-05 2.8570248e-05 -3.4762784e-06 -1.1257448e-05 -8.173282e-05 9.041958e-06 -6.926229e-05
1.0687883e-05 -1.7917011e-05 -0.001232803 0.0008248046 -9.344935e-05 0.00023174929 2.6577454e-05 -0.0007480868
0.0008999219 0.00025696156 -0.0006434317 -0.00022571371 -0.001785187 -0.00039266306 -0.00089115405 -0.00015259748
0.00028686848 6.549165e-05 -0.00012427487 -0.001755371 0.0002273489 0.0048382385 -0.002451529 -0.0018851394
-0.0013726555 0.00015665776 -0.0013571917 0.0020646455 -0.002096182 0.0016747295 -0.00053342636 -0.0021564937
-0.00077812915 -0.0017000737 -7.319582e-05 -3.0493798e-05 -0.00013969663 -5.325881e-05 8.9449815e-05 5.7661247e-05
8.383216e-06 -2.6678676e-05 9.100604e-06 2.5730735e-05 0.0021881012 -0.002547712 -0.0012528623 -0.0013731414
0.00050280447 0.0012530613 -0.0013434469 -0.0017554066 0.0012851962 0.0001164168 -0.0007761012 -0.00014887202
-0.00045024705 -7.1761956e-06 0.00014958817 6.348399e-06 -0.00013548181 -0.000670348 6.686938e-05 0.0020240576
-0.0010788711 -0.0008754166 -0.0005874971 7.801439e-05 -0.0005714283 0.0008993585 -0.0008486215 0.0006669787
-0.00028646286 -0.0009393288 -0.00032276564 -0.00070446084 -7.242444e-05 4.217104e-06 -4.262795e-05 -3.1819652e-06
1.969192e-05 8.674909e-05 3.6428264e-05 -7.957179e-06 1.5604535e-05 -2.2786788e-05 0.00082389434 -0.0010309757
-0.00046209895 -0.0010256177 0.00017871823 0.000880319 -0.0003078904 -0.00085826917 0.00053538755 -6.842858e-05
-0.00058836304 -0.00026855085 -0.0003967634 7.068963e-05 6.5803506e-05 -0.00015288184 -0.0002897915 -0.00043459507
2.2938191e-05 0.0015194654 -0.0008137856 -0.0006836797 -0.00045462057 8.558162e-06 -0.0002629169 0.0007266667
-0.000641733 0.0005296857 -0.00036503913 -0.00079590245 -7.475494e-05 -0.00062021427 -0.000102090686 -1.7973058e-05
6.295122e-05 4.9590526e-05 -1.3763289e-05 0.00011961566 7.261967e-05 -4.0450035e-05 7.1652976e-06 1.2466858e-05
0.00047726763 -0.00085726246 0.00015629205 -0.00021068272 -0.00016047525 0.00049835874 6.1142906e-05 -0.0005526543
0.00012936785 -0.00026725247 0.0007530314 0.00018905762 0.0005050331 0.00022510841 -0.00021728662 -5.4655655e-05
-3.7432335e-05 0.0008042169 -0.00030104019 -0.0020540825 0.0009910587 0.00072564173 0.0005845625 -0.00012879784
0.00078185444 -0.00076428865 0.0007545812 -0.0009597837 0.00027094816 0.0008567483 0.00028448613 0.0008582451
1.3134143e-05 -3.802128e-05 0.000101352736 6.0138333e-05 -6.0273105e-05 -2.2929094e-05 2.0491996e-05 -3.6418238e-05
-9.714906e-06 -1.5897025e-05 -0.0010075722 0.0008043885 0.00024305702 0.00032812456 -0.00032852282 -0.00072024105
0.00082295213 0.0004328611 -0.00071627024 -0.0003966395 -0.0010456368 -0.00018448348 -0.0004622863 7.8844125e-05
