logs/rl_games/humanoid_flat_direct/semi_success/nn/last_humanoid_flat_direct_ep_1100_rew_404.50787.pth (torch, 759553 bytes, 33 tensors)

value_mean_std.running_mean f8 [1]
0	0x405240c30e7c345a	73.01190530900331

value_mean_std.running_var f8 [1]
0	0x4094656659bb9df6	1305.3499516787683

value_mean_std.count f8 []
0	0x41b9c80001000000	432537601.0

a2c_network.sigma f4 [10]
0	0xbfaad654	-1.3346658
1	0xbf1d9b05	-0.61564666
2	0xbfc23bae	-1.5174463
3	0xbf0e2daa	-0.5553843
4	0xbfd39ced	-1.6532265
5	0xbec57aa3	-0.38570127
6	0xbfdcae68	-1.7240725
7	0xbffb4190	-1.9629383
8	0xbf79c2b9	-0.9756275
9	0xbf1021c3	-0.56301516

a2c_network.actor_mlp.0.weight f4 [256, 42]
0	0x3d3fab38	0.046794146
1	0x3ec36bc2	0.3816815
2	0x3eb355e6	0.35026473
3	0x3dd166ed	0.1022471
4	0x3e0c829c	0.13721699
5	0x3d3377f4	0.043815568
6	0x3e049a9c	0.12949604
7	0xbe36cc89	-0.17851461
8	0xbeb9be45	-0.36277977
9	0xbd5be744	-0.05368735
10	0xbe230b2a	-0.15922228
11	0x3d96b214	0.073581845
12	0xbd97ca66	-0.07411651
13	0x3dd93b1c	0.10606977
14	0x3dd0cc3d	0.10195205
15	0x3d2bd83a	0.041954257
16	0x3d9d0de8	0.07668668
17	0xbe3ae7ff	-0.18252562
18	0xbcb02c63	-0.02150554
19	0xbd818629	-0.06324417
20	0x3c24bc8c	0.010054719
21	0xbd7a8027	-0.06115737
22	0xbec469cb	-0.38361964
23	0xbebb7545	-0.36612907
24	0x3e24a59d	0.16078801
25	0x3dae1ca1	0.08501554
26	0xbde0e01f	-0.10980248
27	0xbe480f73	-0.19537143
28	0x3e804dac	0.2505926
29	0x3cbceef1	0.023063155
30	0x3e4ef15e	0.20209262
31	0xbe65d030	-0.22442698
32	0xbe15c651	-0.14626433
33	0xbde0f249	-0.10983712
34	0xbd7c041a	-0.06152735
35	0x3cb248e6	0.021763276
36	0x3cc06d79	0.0234897
37	0x3dc7cf0c	0.09756288
38	0xbd832c78	-0.06404966
39	0xbda468dd	-0.080278136
40	0x3d6ea6ce	0.058264546
41	0xbd33891e	-0.043831937
42	0x3de39e26	0.11114149
43	0xb9d9f86c	-0.00041574554
44	0x3e7f0603	0.24904637
45	0xbe78aeed	-0.24285479
46	0xbd222728	-0.039588124
47	0x3e3a2809	0.18179335
48	0x3e9c527e	0.30531687
49	0x3d910c46	0.07082419
50	0x3d842858	0.064530075
51	0x3d980e90	0.074246526
52	0xbdd42c9f	-0.10360073
53	0xbd6591da	-0.056047298
54	0x3e96d77b	0.29461274
55	0xbc0d9719	-0.0086419815
56	0xbda6ced5	-0.08144919
57	0xbe49b6d9	-0.19698657
58	0xbd7c629f	-0.06161749
59	0xbc9002ca	-0.017579455
60	0xbb25c19d	-0.0025292404
61	0xbe09b222	-0.13446859
62	0x3b816a30	0.003949426
63	0xbe04234d	-0.12904091
64	0xbcb4a6ec	-0.02205225
65	0xbdd31e1a	-0.10308476
66	0xbdd43700	-0.10362053
67	0xbed900ff	-0.42383572
68	0x3e8051d9	0.25062445
69	0xbda5ca64	-0.080952436
70	0x3d1a98f9	0.037743542
71	0xbe99b221	-0.30018714
72	0xbe13b033	-0.14422683
73	0x3b206045	0.0024471444
74	0x3af30375	0.0018540459
75	0xbe06d2e8	-0.13166392
76	0xbe04ab05	-0.12955864
77	0xbd920af3	-0.07130995
78	0x3bf5e42f	0.0075040082
79	0xbd4e4599	-0.050359342
80	0x3bc1c3ef	0.0059132497
81	0xbd8898ae	-0.06669746
82	0xbd284c68	-0.04108849
83	0x3c89416c	0.016754828
84	0xbd8347a1	-0.064101465
85	0xbe2c9d49	-0.16856875
86	0x3e9bccf9	0.3042982
87	0xbe4ccd04	-0.20000082
88	0x3e320fa8	0.17388785
89	0xbd83c1e3	-0.06433465
90	0xbeaccf97	-0.33752128
91	0xbb00fece	-0.0019683125
92	0xbdca49e6	-0.09877376
93	0xbd39d704	-0.04537107
94	0xbe15b89e	-0.14621207
95	0xbe2e016c	-0.1699273
96	0xbd306535	-0.04306527
97	0xbe05ffc8	-0.13085854
98	0x3ded7995	0.115954556
99	0xbde57f4e	-0.11205922
100	0x3e23fda0	0.16014719
101	0xbddf8383	-0.10913756
102	0xbd4badca	-0.049726285
103	0x3c51a024	0.012794528
104	0x3db0fb1f	0.086416475
105	0x3e827351	0.25478604
106	0x3cd963c7	0.026536835
107	0xbeb271a3	-0.34852323
108	0x3d867136	0.06564562
109	0xbd096b73	-0.033549737
110	0x3df1efa4	0.11813286
111	0xbe884b45	-0.26619926
112	0x3e235195	0.1594909
113	0xbe9d9f7d	-0.30785742
114	0x3d666b87	0.05625489
115	0x3c2f253d	0.010690031
116	0x3d23761e	0.039907567
117	0xbd6f2364	-0.05838336
118	0x3e00f42e	0.12593147
119	0x3d6423b5	0.055698115
120	0x3d23c3d0	0.039981663
121	0xbda8d737	-0.08244174
122	0x3d822c1e	0.06356071
123	0xbd5c7f61	-0.053832415
124	0xbd43d8af	-0.047814067
125	0x3e0b52aa	0.13605753
126	0x3d2482b3	0.040163707
127	0xbeb17dc5	-0.34666267
128	0xbd9dc4dc	-0.077035636
129	0xbd499c95	-0.049221594
130	0xbd986d51	-0.074427254
131	0xbe67f03e	-0.22650239
132	0xbe5db2ae	-0.21650192
133	0xbc82ced5	-0.015967766
134	0xbe12b04b	-0.14325063
135	0x3d6847e9	0.056709204
136	0x3df33f9a	0.118773654
137	0xbe1854fd	-0.1487617
138	0x3da23e32	0.07922019
139	0x3e04082c	0.12893742
140	0x3d8d206f	0.06890952
141	0xbdbc68cd	-0.09199677
142	0x3d91456d	0.0709332
143	0x3dbfc234	0.09363213
144	0x3e26361f	0.16231583
145	0xbd2b9928	-0.041894108
146	0xbdf319fa	-0.11870189
147	0xbc5ded4d	-0.013545346
148	0x3d3f1f9c	0.046661004
149	0x3e1c0e15	0.15239747
150	0x3e01aa1f	0.12662552
151	0xbd8a703d	-0.06759689
152	0x3c80ec11	0.015737565
153	0xbe53087d	-0.20608707
154	0xbd158680	-0.036505222
155	0xbb72d4f3	-0.0037053197
156	0xbc09eee9	-0.008418777
157	0xbd298b8a	-0.04139284
158	0xbe03ec49	-0.12883104
159	0xbcb1a7e5	-0.021686504
160	0x3daf66e4	0.08564547
161	0x3dc8711a	0.097871974
162	0xbcd3ad85	-0.025839576
163	0xbd891da0	-0.06695104
164	0xbdbc5515	-0.091959156
165	0xbde1a6fa	-0.110181764
166	0xbc6d9188	-0.014500029
167	0x3d0c180a	0.034202613
168	0x3de44715	0.1114637
169	0x3e509df0	0.20372748
170	0xbd5ee230	-0.054414928
171	0x3d335cba	0.043789603
172	0xbab3481e	-0.0013678109
173	0x3e8cdb5a	0.27511102
174	0x3dd8c98c	0.10585317
175	0xbc37d63a	-0.011220509
176	0x3d17446d	0.03693049
177	0xbda92653	-0.08259263
178	0xbdbab7b4	-0.0911707
179	0x3dffbf30	0.12487638
180	0x3acebbdc	0.0015772539
181	0x3dabe06d	0.08392415
182	0xbe32c392	-0.17457417
183	0x3e02ab52	0.12760666
184	0x3e08a3d9	0.13343753
185	0x3bbaaee0	0.0056971163
186	0xbd9b876b	-0.07594188
187	0xbe68ab75	-0.22721656
188	0xbe170e18	-0.1475147
189	0x3e80a025	0.2512218
190	0x3df780de	0.12085126
191	0x3e58a6a2	0.21157315
192	0x3dbc7d52	0.092035905
193	0xbc1a6384	-0.00942314
194	0x3bca3ef8	0.0061720572
195	0xbe865dd6	-0.26243466
196	0xbe92eacf	-0.2869477
197	0xbead88cc	-0.3389343
198	0x3def287b	0.11677643
199	0xbcca8943	-0.024723655
200	0xbcfb22dc	-0.03065627
201	0xbdc70651	-0.09718002
202	0xbd7355df	-0.059408065
203	0xbdd59b6c	-0.10430035
204	0xbddee1e2	-0.108829275
205	0x3c1a6064	0.009422395
206	0x3c079641	0.008275569
207	0x3e087a5c	0.13327926
208	0xbd12b444	-0.035816446
209	0xbd45dfa1	-0.048308972
210	0xbd383a32	-0.044977374
211	0x3c2f460f	0.010697856
212	0x3c7309f0	0.014833912
213	0xbe0e415c	-0.1389212
214	0x3e15c3f7	0.14625536
215	0xbe2897e9	-0.16464199
216	0x3c8baff1	0.017051669
217	0x3d3b10ec	0.045670435
218	0x3decda79	0.11565108
219	0xbdca8bb7	-0.0988993
220	0x3dbd6b0d	0.09248934
221	0xbda31b3c	-0.07964179
222	0x3e043468	0.12910616
223	0x3e7b6518	0.24550283
224	0xbd0391c6	-0.032121442
225	0x3d3f4e38	0.046705455
226	0x3d3947b1	0.045234386
227	0xbdd5fe1d	-0.10448859
228	0x3dfb0954	0.122576386
229	0xbe9d1a45	-0.30684105
230	0x3da26b83	0.079306625
231	0x3e7fee08	0.24993145
232	0x3e79e1fd	0.24402614
233	0x3db9faab	0.09081014
234	0xbd800a2b	-0.062519394
235	0x3cadba23	0.021206921
236	0x3da16845	0.07881216
237	0xbe5ae378	-0.21375835
238	0xbd35141a	-0.044208623
239	0xbecef7fe	-0.40423578
240	0xbb07c787	-0.0020718293
241	0x3cf4ac11	0.029867204
242	0xbd782a7e	-0.0605874
243	0xbdaea136	-0.08526842
244	0xbe0b7446	-0.13618574
245	0x3df5ff67	0.12011605
246	0x3e00d636	0.12581715
247	0x3cb80280	0.02246213
248	0xbcd5a17d	-0.02607798
249	0xbe0151ad	-0.12628813
250	0xbde22957	-0.11043041
251	0xbdacc643	-0.08436253
252	0x3d469e88	0.04849103
253	0xba4b88bb	-0.000776421
254	0xbd17f9a8	-0.037103325
255	0x3bcb60ce	0.0062066084

a2c_network.actor_mlp.0.bias f4 [256]
0	0xbcce4005	-0.025177011
1	0x3cff5d7f	0.031172512
2	0xbc3eb10e	-0.011638893
3	0x3bf3b2d2	0.0074370885
4	0x3c5220b9	0.0128251845
5	0xbc571510	-0.01312758
6	0xbc3d20d0	-0.011543468
7	0xbb022874	-0.0019860538
8	0xbcc6f301	-0.024285795
9	0x3d3fa60b	0.04678921
10	0x3cdb5023	0.02677161
11	0xbc5b4e5d	-0.0133853825
12	0xbb1447cc	-0.0022625802
13	0xbc8a9830	-0.016918272
14	0xbc88e383	-0.016710049
15	0x3c125227	0.008930719
16	0xbb7e9ae0	-0.0038849637
17	0x3cc4d976	0.024029475
18	0xbb9dab1a	-0.0048116567
19	0x3d054378	0.032535046
20	0xbce5e09b	-0.028061202
21	0xbc9b150a	-0.01893093
22	0xba4ff9d9	-0.00079336535
23	0x3cf94d81	0.030432465
24	0xbc1ecd69	-0.009692528
25	0x3cc81444	0.024423726
26	0x3c80843e	0.015688058
27	0xbc15b2c2	-0.009136857
28	0x3c8d56d5	0.017253319
29	0xbce21145	-0.027596125
30	0xbba3260a	-0.0049789
31	0x3c9d4363	0.019197172
32	0x3ced311b	0.02895408
33	0x3c34ee00	0.011043072
34	0x3b86cac0	0.004113525
35	0xbd34e228	-0.044160992
36	0x3b4fc411	0.0031702558
37	0x3d134f5e	0.035964362
38	0xbccd054b	-0.025026938
39	0xbb431f05	-0.0029773128
40	0x3d188091	0.037231985
41	0xbc8890dd	-0.016670639
42	0x3d45c9b9	0.04828808
43	0xbcd38b3b	-0.025823226
44	0xbc0a24b9	-0.008431607
45	0x3bd8c6c5	0.006615492
46	0x3d7da609	0.06192592
47	0x3d2bbb7a	0.04192684
48	0xbb13cc10	-0.002255205
49	0xbcde1728	-0.027110651
50	0xbca13ca5	-0.019682238
51	0x3c80c131	0.01571712
52	0x3b3a7a10	0.0028454103
53	0xbc1d5a44	-0.0096040405
54	0xbce8d040	-0.028419614
55	0xbcb91e05	-0.022597322
56	0x3cb9fa2c	0.022702299
57	0x3c42b1ac	0.011883181
58	0x3ca44167	0.020050718
59	0x3cd6cf8b	0.026222011
60	0xbbadd922	-0.0053054253
61	0xbca4d82b	-0.020122608
62	0x3c3f9cdb	0.011695112
63	0xbc427195	-0.0118679
64	0xbc59b096	-0.01328673
65	0x3d9a806c	0.07544026
66	0xbc82d97c	-0.015972845
67	0xbc13f3d6	-0.009030303
68	0xba936920	-0.001124654
69	0x3c486a45	0.012232368
70	0x3c852c09	0.01625635
71	0x3cb9b381	0.022668602
72	0xbd84f39a	-0.06491776
73	0x3d1a838d	0.037723113
74	0xbc1f14ea	-0.009709576
75	0xbc92567c	-0.017863505
76	0xbc90c501	-0.017672064
77	0xbcb0cfd9	-0.021583484
78	0xbc90788d	-0.017635608
79	0x3cdcf7d1	0.026973637
80	0x3ca7df2a	0.020492155
81	0xbcb37c93	-0.021909988
82	0x3bb108de	0.0054026684
83	0xbc490fd1	-0.012271837
84	0x3ce1f86f	0.027584283
85	0x3c77578e	0.015096558
86	0x3c8af993	0.01696471
87	0xbcbae0a8	-0.022812203
88	0x3c5a0dcd	0.013308954
89	0xbd00b762	-0.031424887
90	0xbc89de9a	-0.016829778
91	0xbc9ab44a	-0.018884797
92	0x3c0a07a1	0.00842467
93	0xba86a50e	-0.0010272579
94	0xbc25d257	-0.01012095
95	0x3c9da655	0.019244352
96	0x3d085a95	0.03328951
97	0xba3527ab	-0.0006910513
98	0xbc850397	-0.016237063
99	0x3c8479d1	0.016171368
100	0x3d4b4059	0.049621914
101	0xbc22abe4	-0.009928677
102	0x3c39efca	0.011348674
103	0x3c657254	0.014004309
104	0x3d32a2de	0.043612354
105	0x3beb6959	0.0071841893
106	0x3caa1689	0.020762699
107	0x3c96b3ee	0.018396344
108	0xbd10ed4f	-0.035382565
109	0xbd018466	-0.031620406
110	0x3cf16d2d	0.029471004
111	0x3cfadf18	0.030623958
112	0xbc8199b3	-0.01582036
113	0xbd10fd17	-0.035397615
114	0xbd0143f4	-0.031558946
115	0x3c1edde6	0.009696459
116	0x3cf6babf	0.030118344
117	0xbd39e086	-0.045380138
118	0x3c577d5f	0.013152449
119	0xbb8f2e9d	-0.0043695704
120	0xbd285b7b	-0.041102868
121	0xbd881cd9	-0.06646127
122	0xba7764b1	-0.00094373064
123	0x3bcfb935	0.006339217
124	0xbbb145de	-0.00540994
125	0xbc08578d	-0.008321655
126	0xbc8f0583	-0.017458683
127	0xbc8004ee	-0.01562735
128	0x3a79eb23	0.00095336343
129	0xbce35b63	-0.027753538
130	0xbb305bfb	-0.0026910293
131	0x3c7af01c	0.015316036
132	0xbcde59cb	-0.027142426
133	0x3c7f7eef	0.015594228
134	0x3d3ad43a	0.04561255
135	0xbca21079	-0.019783245
136	0x3c012c12	0.007884042
137	0xbcc18b53	-0.023626005
138	0xbc046ad2	-0.008082109
139	0xbcba9217	-0.02277474
140	0x3cc10d88	0.023566023
141	0x3af82861	0.0018932932
142	0xbcbb85f2	-0.022891019
143	0xbc62e620	-0.013848811
144	0xbc7cb603	-0.015424254
145	0x3cb91726	0.022594046
146	0x3c2cf772	0.010557042
147	0x3beedab9	0.0072892574
148	0x3caa7161	0.020806016
149	0xbd17cb56	-0.03705915
150	0x3d159bc7	0.036525514
151	0x3c8d09ce	0.01721659
152	0x3d0503ad	0.03247421
153	0x3c07b826	0.0082836505
154	0xbba57821	-0.005049721
155	0xbd357968	-0.044305235
156	0xbca43da5	-0.020048926
157	0xbd0f018f	-0.034913596
158	0x3d85076f	0.064955585
159	0xb9ff6c35	-0.0004871801
160	0xbcab1f7b	-0.020889034
161	0x3cc6e439	0.024278747
162	0xbcc7ff2a	-0.024413664
163	0xbab353ee	-0.0013681629
164	0xbcfd6cc6	-0.030935656
165	0x3c618a7e	0.013765929
166	0x3bd460fd	0.0064812885
167	0x3c859b88	0.016309515
168	0x3b0b4751	0.0021252225
169	0x3cbbaf49	0.02291073
170	0xbba9edb8	-0.005185809
171	0xbd0a46be	-0.03375887
172	0x3c0e0f39	0.008670622
173	0x3cc6203e	0.024185296
174	0x3c2856ff	0.010274648
175	0x3ae38d7a	0.0017360889
176	0x3ba64df4	0.0050752107
177	0xbd141f04	-0.03616239
178	0x3cc51e25	0.024062226
179	0x3bf1fd48	0.00738493
180	0x3c20a241	0.009804309
181	0x3c4ee210	0.01262714
182	0xbbcad42e	-0.0061898446
183	0x3c993eb6	0.01870666
184	0xba1d4b71	-0.00060003164
185	0xbcb69e83	-0.022292381
186	0x3cce14f2	0.025156472
187	0x3c91735d	0.017755205
188	0x3ac7f814	0.0015256428
189	0x3cbd1e93	0.023085868
190	0xbccebd09	-0.025236623
191	0x3cdbc96a	0.02682944
192	0x3c1931b6	0.009350231
193	0xbc62ec9b	-0.013850356
194	0x3cd4cbd1	0.025976093
195	0xbd300b01	-0.042979244
196	0xbcf2148e	-0.029550817
197	0xbce27c2a	-0.027647097
198	0x3d23b85e	0.039970748
199	0xbbd1a45e	-0.006397768
200	0x3d2d1931	0.042260353
201	0xbadaa672	-0.0016681685
202	0x3c9096d5	0.017650047
203	0xbd18a21a	-0.037263967
204	0xbb3bbec8	-0.002864765
205	0xbcab8fc8	-0.020942584
206	0x3c9e1b1b	0.019300034
207	0xbcecb7f8	-0.028896317
208	0xbb14c5ab	-0.0022700827
209	0xb97c6fc7	-0.00024074233
210	0x3b2e0a5a	0.0026556463
211	0x3cc3b21d	0.023888642
212	0x3c33e4c2	0.010979833
213	0x3ce68021	0.028137268
214	0xbc2f82c1	-0.0107123265
215	0x38e521bf	0.000109258566
216	0xbd16aa86	-0.036783718
217	0x3b4e0410	0.0031435527
218	0xba5b991e	-0.0008377003
219	0xbcf93fbf	-0.030425904
220	0x3d2ea668	0.042639166
221	0xbbf3efd2	-0.0074443603
222	0xbd68b10a	-0.056809463
223	0x3d2a3921	0.04155839
224	0x3c2c4b43	0.010515991
225	0xbd06e894	-0.032936648
226	0xbcd4c6db	-0.025973728
227	0x3ca237c4	0.019801982
228	0x3d5c47ce	0.053779416
229	0x3c40df42	0.011771979
230	0x3ca65e5b	0.020308664
231	0xbcf25923	-0.02958352
232	0x3c72acca	0.014811704
233	0xbd9355d0	-0.07194102
234	0x3b243b61	0.0025059807
235	0x3d297862	0.04137457
236	0xbc6de9bb	-0.014521058
237	0x3ca2d240	0.019875646
238	0xbc051a38	-0.008123927
239	0x3ae5fc44	0.0017546494
240	0x3cf7b1ae	0.030236091
241	0x3ca55a23	0.020184582
242	0x3b928414	0.0044713113
243	0x3cb3d913	0.021954095
244	0x3cd4ae2d	0.02596196
245	0x3d04054e	0.03223162
246	0x3c820f75	0.015876511
247	0xbd91f1ac	-0.071261734
248	0x3cbb0bfe	0.022832867
249	0xbcd546d9	-0.02603476
250	0xba97c6f7	-0.0011579682
251	0xbc32abbf	-0.010905205
252	0x3c951728	0.018199518
253	0x3a59e896	0.0008312551
254	0x3c8c88e9	0.017155128
255	0x3c4937aa	0.012281338

a2c_network.actor_mlp.2.weight f4 [128, 256]
0	0xbbc56a59	-0.0060246405
1	0xbe0fd407	-0.14045726
2	0xbd53f10e	-0.05174356
3	0xbd281947	-0.04103973
4	0x3d8271ce	0.06369363
5	0xbd118987	-0.035531547
6	0xbce01ea3	-0.027358359
7	0x3e52b482	0.20576671
8	0x3cefb021	0.02925879
9	0x3e1009c5	0.14066227
10	0xbd9be0fd	-0.076112725
11	0x3d1258df	0.035729285
12	0xbb53bf17	-0.0032309943
13	0x3da01a65	0.07817534
14	0xbe04497c	-0.12918657
15	0x3c9d7822	0.019222323
16	0xbe44370d	-0.19161625
17	0x3e038513	0.12843733
18	0x3e08c81c	0.13357586
19	0xbd5bac5d	-0.053631175
20	0x3dab88ba	0.08375688
21	0x3df81ea7	0.121152215
22	0xbe92b605	-0.28654495
23	0xbe1647a3	-0.14675765
24	0x3df25c29	0.118339844
25	0xbdae6761	-0.08515812
26	0x3d15370f	0.03642946
27	0x3ce76b5c	0.028249435
28	0xbda93bfe	-0.08263396
29	0xbd2de061	-0.042450313
30	0xbbe7d975	-0.0070754834
31	0x3ca5df00	0.020247936
32	0xbd3b5bc3	-0.045741808
33	0xbc4b2bee	-0.01240061
34	0x3db5c5f5	0.08875648
35	0xbe328d72	-0.1743677
36	0xbe1070df	-0.14105557
37	0xbd3f6961	-0.046731357
38	0xbd2207d4	-0.039558247
39	0xbb24e41d	-0.002516038
40	0xbd2aacc9	-0.041668687
41	0x3e171c59	0.14756908
42	0xbcaba6d4	-0.020953573
43	0xbd305dcf	-0.043058213
44	0x3d340d63	0.04395808
45	0xbd9163d0	-0.07099116
46	0x3db0237e	0.086005196
47	0xbd4afc1e	-0.049556844
48	0x3d9b4d87	0.075831465
49	0xbda77ea7	-0.08178454
50	0x3b98c3fe	0.004662036
51	0xbc9219bf	-0.017834542
52	0x3a417caa	0.0007380942
53	0x3e447b48	0.19187653
54	0xbd792a55	-0.060831387
55	0x3c9bd7a5	0.019023726
56	0xbd9c25fc	-0.076244324
57	0xbd710328	-0.0588409
58	0x3da84a0d	0.08217249
59	0x3ca1dfab	0.019759974
60	0x3d5d8850	0.054085076
61	0x3c014889	0.007890829
62	0x3df5b151	0.11996711
63	0xbddef31b	-0.108862124
64	0x3dc57b0b	0.09642609
65	0x3de386d9	0.111097045
66	0xbdbc3c9b	-0.09191247
67	0x3dc3bf07	0.0955792
68	0x3d6d827c	0.057985768
69	0x3d9f7551	0.07786048
70	0x3d9b629f	0.0758717
71	0x3db4cda7	0.088282876
72	0xbd2e24b4	-0.04251547
73	0x3d76492e	0.060128383
74	0x3da07064	0.07833937
75	0xbd99c479	-0.07508177
76	0xbd074f7e	-0.033034794
77	0x3d0b8dcb	0.03407077
78	0xba8ad108	-0.0010590861
79	0xb9684a42	-0.00022152907
80	0xbd32c556	-0.043645225
81	0x3db4d559	0.08829755
82	0xbd326a14	-0.043558195
83	0xbc1efe84	-0.009704236
84	0x3b8ab46d	0.004232934
85	0xbd0dd655	-0.03462823
86	0xbc63142a	-0.013859788
87	0x3b3fbbac	0.0029256148
88	0xbe14bc8e	-0.14525053
89	0xbd9ce4de	-0.076608405
90	0x3dfe88eb	0.12428459
91	0x3d6743b8	0.056461066
92	0x3d3910e3	0.04518212
93	0x3cb63caf	0.022245733
94	0xbc9f465e	-0.019442733
95	0xbd1b20c2	-0.037873037
96	0xbc888934	-0.016666986
97	0xbdba91fa	-0.09109874
98	0x3c7c8235	0.015411903
99	0x3d5a3c2f	0.05328005
100	0xbd6eb317	-0.058276262
101	0xbd6de570	-0.058080137
102	0x3b8b42a7	0.004249889
103	0xbd2c9cf1	-0.04214186
104	0x3d4b6be0	0.049663424
105	0x3dc666ab	0.09687551
106	0x3db3c1ae	0.08777176
107	0x3c9c845d	0.019106084
108	0xbcda1c28	-0.026624754
109	0x3c9dbc5b	0.019254854
110	0xbd9b1a44	-0.07573369
111	0xbd27422a	-0.040834583
112	0x3e3ba04a	0.18322864
113	0x3d1f66cb	0.03891639
114	0x3c548e5f	0.012973397
115	0xbcc288fc	-0.02374696
116	0xbd2cf608	-0.04222682
117	0x3e67a974	0.22623235
118	0xbd9f482a	-0.07777436
119	0x3c66f13c	0.014095601
120	0xbe11f569	-0.14253773
121	0x3cbb7e17	0.022887273
122	0xbdbb5cbf	-0.09148549
123	0xbdf80775	-0.12110797
124	0x3d3fd8e2	0.046837695
125	0x3db870bc	0.090058774
126	0x3d068399	0.032840345
127	0x3c825949	0.015911715
128	0xbd90b2a8	-0.07065326
129	0x3dc5a4e8	0.09650594
130	0xbc08f875	-0.008360018
131	0x3c9cff1d	0.019164616
132	0x3c46e4b1	0.012139485
133	0x3d240cda	0.04005132
134	0x3d8f292b	0.06990274
135	0xbda72dcb	-0.08163031
136	0x3cc17c15	0.023618737
137	0x3d883b58	0.06651944
138	0xb9a6213e	-0.00031686755
139	0x3bdfad4c	0.0068260785
140	0xbdc3ffe8	-0.095702946
141	0x3d477565	0.04869594
142	0x3e4d9187	0.20075046
143	0xbdb86f7b	-0.09005638
144	0x3ce6e1f3	0.028183913
145	0x3dea4603	0.11439135
146	0xbcb32e09	-0.021872537
147	0x3c8cc5e5	0.017184207
148	0xbe1d7105	-0.15375145
149	0x3d05af86	0.032638095
150	0x3c5487a2	0.0129717905
151	0xbe068be8	-0.13139307
152	0x3dbd3da7	0.09240275
153	0xbbea7704	-0.007155301
154	0xbe2eba4a	-0.17063251
155	0xbbdb6a33	-0.0066960095
156	0x3de687ea	0.11256392
157	0xbd060e2d	-0.032728363
158	0xbd9a2afd	-0.075277306
159	0xbd8daf62	-0.06918217
160	0x3d01ca2e	0.031686954
161	0x3d6ec9e8	0.05829802
162	0x3d44faa6	0.0480906
163	0xbdaf44eb	-0.08558067
164	0xbd5bc1d1	-0.053651635
165	0x3b8b934e	0.0042595034
166	0x3e0dfd5b	0.13866179
167	0xbd96ded8	-0.07366723
168	0xbc3e11c9	-0.01160092
169	0xbe13b825	-0.14425714
170	0x3dc798e5	0.09745959
171	0x3d3cbfed	0.046081472
172	0x3d91af7e	0.071135506
173	0x3d089e7f	0.03335428
174	0xbe0fbd46	-0.14037046
175	0x3cc62473	0.024187302
176	0xbd5df2f1	-0.054186765
177	0xbdea70a4	-0.11447266
178	0x3d47caef	0.048777517
179	0xbdf7e287	-0.121037535
180	0xbd044425	-0.03229155
181	0xbd3636dd	-0.044485915
182	0xbdbe35f2	-0.09287633
183	0xbdfa54e1	-0.122232206
184	0x3d13d64b	0.036093038
185	0x3d99c48d	0.07508192
186	0x3c74631c	0.014916208
187	0xbd271147	-0.04078796
188	0xbd8b0642	-0.06788303
189	0x3da1ec56	0.07906406
190	0xbcdf1478	-0.02723144
191	0x3d692773	0.056922387
192	0xbe6cfd3c	-0.23143476
193	0x3c15865b	0.009126271
194	0xbd6d54c3	-0.057942163
195	0xbc5fa5c4	-0.013650361
196	0x3c831611	0.016001733
197	0xbbd206c2	-0.006409497
198	0xbd2f445c	-0.042789802
199	0x3de78348	0.11304337
200	0xbd16e317	-0.036837664
201	0x3d8bb6c9	0.06821973
202	0xbd98887c	-0.07447907
203	0xbc8c4a6c	-0.01712533
204	0x3d0cd789	0.034385238
205	0x3db15e3a	0.086605504
206	0x3df8e5f6	0.121532366
207	0xbe08e7c5	-0.13369663
208	0xbdb539f2	-0.08848943
209	0xbbb1ec25	-0.005429762
210	0x3c11223b	0.008858259
211	0xbcae606a	-0.021286208
212	0xbe14b892	-0.14523533
213	0xbd740d66	-0.05958309
214	0x3bc094ef	0.0058771293
215	0xbd6db113	-0.0580302
216	0xbdcdaa10	-0.100422025
217	0x3df9bc3b	0.12194105
218	0xbdb51e68	-0.0884369
219	0xbbe8de44	-0.0071065743
220	0xbd9eea94	-0.07759586
221	0xbd2a0012	-0.041503973
222	0x3d315d43	0.043301832
223	0xbc0e6675	-0.00869142
224	0xbe177dad	-0.14794035
225	0x3dc3f3c1	0.09567977
226	0x3ca95d2a	0.020674307
227	0x3d1998fe	0.03749942
228	0x3cda8103	0.026672846
229	0x3dbbb0bb	0.09164568
230	0xbc5fad7d	-0.013652203
231	0x3d504392	0.05084569
232	0x3e60dffd	0.21960445
233	0xbc91fd55	-0.017820993
234	0xbd8b88a2	-0.0681317
235	0xbcbec85c	-0.023288898
236	0x3d73b775	0.05950113
237	0xbe346fa5	-0.17620714
238	0x3d7f4c11	0.062328402
239	0x3c501e9f	0.012702613
240	0xbd8b3d42	-0.067987934
241	0xbcb186cb	-0.02167072
242	0x3d5fe294	0.05465944
243	0x3d9e00fb	0.07715031
244	0xbd6a0b3a	-0.057139613
245	0x3caa8582	0.020815615
246	0x3d2aa102	0.041657455
247	0x3e0b69bc	0.13614553
248	0xbd6d6a43	-0.057962667
249	0xbd4d3c10	-0.05010611
250	0xbd272981	-0.040811066
251	0x3da6604b	0.08123835
252	0x3dcb632f	0.09931027
253	0xbc9d61bb	-0.01921164
254	0xbccfd881	-0.025371792
255	0xbb5a24e4	-0.0033286149

a2c_network.actor_mlp.2.bias f4 [128]
0	0x3b871aae	0.0041230535
1	0x3d0790e0	0.033097148
2	0xbbb85a63	-0.0056260093
3	0xbd375e7c	-0.04476784
4	0xbc3108e7	-0.010805345
5	0xbd26199f	-0.040551778
6	0x3cc2342d	0.02370652
7	0xbbb9f6c1	-0.0056751673
8	0xbd889170	-0.06668365
9	0xbcd21381	-0.025644066
10	0xbcbde209	-0.023179071
11	0xbd06902b	-0.032852333
12	0x3bcfb998	0.006339263
13	0xbd5a46c9	-0.053290162
14	0xbcb49e5d	-0.02204817
15	0xbb600873	-0.0034184724
16	0xbc709524	-0.014683995
17	0xbd41a694	-0.047278002
18	0x3c88d0f3	0.016701197
19	0x3c3726c7	0.011178679
20	0xbbf95f96	-0.0076102717
21	0xbdcb8414	-0.09937301
22	0x3d82e1e4	0.063907415
23	0x3ca90463	0.020631975
24	0x3c94dbbc	0.018171184
25	0xbd3bafac	-0.04582183
26	0xbd350407	-0.044193294
27	0x3d5b3a0c	0.053522155
28	0x3ced2b68	0.028951362
29	0xbcb9d99d	-0.022686774
30	0xbb2a38c3	-0.0025973774
31	0x3c21a474	0.009865869
32	0x3d0d54b2	0.0345046
33	0xbcd5c58f	-0.02609518
34	0xbd1fe590	-0.039037287
35	0xbd1b8410	-0.03796774
36	0xbc563e4b	-0.013076375
37	0x3c53952b	0.012913982
38	0x3cd6f8d5	0.0262417
39	0xbd292d57	-0.041303005
40	0xbcf6b12a	-0.030113775
41	0xbc9616e7	-0.018321468
42	0x3d2fa4ea	0.042881884
43	0xbcc603c9	-0.024171727
44	0x3b038286	0.0020066812
45	0x3bb1def2	0.0054281885
46	0xbb38fb64	-0.0028226012
47	0x3cc6364a	0.024195809
48	0xbc5bc125	-0.013412748
49	0x3d711f64	0.058867827
50	0xbc1300c3	-0.00897235
51	0x3cf9b3b8	0.030481204
52	0x3bee9c46	0.007281813
53	0xbd2d51e4	-0.042314425
54	0xbc0d1d75	-0.00861298
55	0xbcd3b279	-0.025841938
56	0xbd061d2d	-0.032742668
57	0xbc4c2c91	-0.012461797
58	0x3d2f2c81	0.04276705
59	0x3cdf2748	0.02724041
60	0xbc96df04	-0.018416889
61	0xbd2cc688	-0.04218152
62	0xbd2fbaf9	-0.04290292
63	0x3adad4ff	0.0016695558
64	0xbcbe422a	-0.023224909
65	0xbc73aad0	-0.014872268
66	0x3d0abb62	0.03387011
67	0xbc8e82ae	-0.017396297
68	0x3cdfb6b2	0.027308796
69	0x3cbbb584	0.022913702
70	0x3c07a9fa	0.008280272
71	0x3c3daab2	0.011576341
72	0xbb6cc600	-0.003612876
73	0xbcadcb15	-0.021215001
74	0x3be7754f	0.007063545
75	0xbceaa490	-0.028642923
76	0xbdcaf736	-0.09910433
77	0x3d51f717	0.051261034
78	0x3b22873b	0.0024799842
79	0xbd1266d8	-0.03574261
80	0xbddbd9ed	-0.107349254
81	0xbbec8333	-0.0072177886
82	0x3d16de57	0.036833134
83	0x3d299d38	0.0414097
84	0xba877d1b	-0.0010336967
85	0xbab67d8f	-0.0013922917
86	0xbb5571b4	-0.0032568993
87	0xbc8a4969	-0.016880708
88	0x3ca2cdb6	0.019873481
89	0x3d2806b8	0.041022032
90	0xbca3d89c	-0.020000748
91	0xbd35327d	-0.044237603
92	0xbd56dac1	-0.052454714
93	0xbd42f9af	-0.047601398
94	0xbd846554	-0.06464639
95	0xbd1d61d5	-0.038423378
96	0x3cb901ee	0.022583928
97	0xbb9be9a3	-0.0047580763
98	0xbcf97067	-0.030449105
99	0xbc946b82	-0.01811767
100	0xbd0327ce	-0.032020383
101	0xbbfe06a5	-0.007752257
102	0xbc47d8bb	-0.012197669
103	0xbda486c8	-0.0803352
104	0xbcb1ea58	-0.02171819
105	0x3d04a289	0.032381568
106	0xbbcc9306	-0.0062431125
107	0xbc2815e5	-0.010259126
108	0x3c517268	0.012783624
109	0xbd557f82	-0.052123554
110	0xbc8da0c1	-0.017288567
111	0xbc20935d	-0.009800759
112	0xbd214275	-0.03937002
113	0x3c819a0d	0.015820527
114	0xbd51e07f	-0.051239487
115	0x3c489174	0.01224171
116	0xbc75ed78	-0.01501023
117	0xbc8aba0a	-0.016934413
118	0xbc2d4aed	-0.010576946
119	0xbcd68c0f	-0.026189832
120	0xbcf8ca2f	-0.030369846
121	0x3bfff33f	0.0078109796
122	0xbdd8f64c	-0.105938524
123	0xbce3b07e	-0.027794119
124	0xbd9f22ac	-0.07770285
125	0x3b9ee9b0	0.004849635
126	0xbd573545	-0.052541036
127	0xbd5f9b6c	-0.05459158

a2c_network.actor_mlp.4.weight f4 [128, 128]
0	0x3e857daf	0.2607245
1	0xbe074486	-0.13209733
2	0x3d8934f2	0.06699552
3	0xbe540960	-0.20706701
4	0xbd84940d	-0.06473551
5	0xbe480a20	-0.19535112
6	0xbd7e96a8	-0.062155396
7	0xbc5510ab	-0.013004462
8	0x3e5ed961	0.21762611
9	0xbe0fb294	-0.14032966
10	0x3e08a534	0.1334427
11	0x3d8e9321	0.06961656
12	0x3ce0cfc3	0.027442819
13	0xbd11ce41	-0.03559709
14	0x3e1e814c	0.1547901
15	0xbd2751f9	-0.04084966
16	0x3e1984ad	0.14992018
17	0xbd5d6eb6	-0.05406066
18	0x3d100293	0.035158705
19	0xbd3641d3	-0.04449637
20	0xbd757656	-0.059927307
21	0x3e55a59b	0.20863955
22	0x3bc85cde	0.0061145863
23	0xbc7507f8	-0.014955513
24	0x3e5dbccb	0.2165405
25	0xbd7fde38	-0.062467784
26	0xbd1a0364	-0.03760089
27	0x3e17f71d	0.1484036
28	0x3d3660a5	0.04452576
29	0x3d33874e	0.04383021
30	0xbd8022d2	-0.062566414
31	0xbd6dbb9a	-0.05804024
32	0x3e1de3e5	0.15418966
33	0xbda47f65	-0.08032111
34	0x3e531adc	0.20615715
35	0x3bf133cd	0.0073609115
36	0x3ddd1633	0.1079525
37	0xbd761052	-0.060074158
38	0x3bc0c546	0.005882892
39	0x3d50ccc2	0.050976522
40	0xbcc04162	-0.023468677
41	0x3c31562a	0.010823766
42	0x3d19eadd	0.0375775
43	0x3e07c774	0.13259679
44	0xbb26ceec	-0.0025452925
45	0x3e4b61e2	0.19861558
46	0x3d0eff1e	0.034911267
47	0x3bd4ecf5	0.006497974
48	0x3e0a8adf	0.13529538
49	0x3dbfaab4	0.09358731
50	0x3dd97f80	0.10620022
51	0x3d9f4251	0.07776321
52	0x3e05edcd	0.13078995
53	0x3d15bb04	0.036555305
54	0x3d8d40fc	0.068971604
55	0xbca553c8	-0.020181552
56	0x3e0a8d25	0.13530405
57	0x3da1c89a	0.0789959
58	0x3cbb887e	0.022892233
59	0xbcf92d89	-0.03041722
60	0xbe5cc753	-0.21560411
61	0x3dde39dd	0.1085088
62	0x3ccd0a04	0.02502919
63	0xbe041d36	-0.12901768
64	0x3d62bee7	0.05535784
65	0x3e9a5f98	0.30151057
66	0xbde0af00	-0.109708786
67	0xbe8f8b53	-0.28035983
68	0xbd9c1078	-0.07620329
69	0xbdbf9988	-0.09355456
70	0x3dcaf7fd	0.09910581
71	0xbe41cd17	-0.18925892
72	0x3e72b4be	0.2370176
73	0x3de78c09	0.113060065
74	0x3df99c38	0.121879995
75	0xbe637b24	-0.22214943
76	0x3cdfd8ae	0.027325
77	0xbcd0dbff	-0.025495527
78	0xbc3c0d09	-0.011477717
79	0x3e4b5ed7	0.19860397
80	0x3d098800	0.033576965
81	0x3d5c30d3	0.0537575
82	0x3e8e5d03	0.27805337
83	0x3b9f5a1e	0.0048630377
84	0x3dcd4a5c	0.100239486
85	0x3e411ca3	0.1885858
86	0xbe198db8	-0.14995468
87	0x3c51e2e1	0.01281044
88	0xbd9cc1cd	-0.07654152
89	0xbddf6efc	-0.109098405
90	0x3dbaa561	0.09113575
91	0xbe080121	-0.1328168
92	0xbcf0cb1d	-0.029393727
93	0xbe13f3f4	-0.1444853
94	0xbb17e789	-0.0023178777
95	0xbbb0c59b	-0.00539465
96	0xbda4945b	-0.08036109
97	0x3e2788a0	0.16360712
98	0xbd1bf7c6	-0.038078092
99	0x3c85972a	0.016307432
100	0xbc9dd498	-0.019266412
101	0xbdbe431a	-0.09290142
102	0x3e2ff738	0.1718415
103	0x3e10e6d3	0.14150552
104	0x3e2abba3	0.1667314
105	0x3e225d50	0.15855908
106	0xbe30d130	-0.17267299
107	0x3e30f966	0.17282638
108	0xbd8682d9	-0.06567926
109	0x3d667409	0.056263003
110	0xbe1c3e8d	-0.15258236
111	0xbd8d2d7b	-0.0689344
112	0x3d6b80ad	0.05749576
113	0x3dd98af6	0.10622208
114	0xbe154001	-0.14575197
115	0xbdcb9ad6	-0.09941642
116	0xbdabe2ea	-0.0839289
117	0xbdc58ffa	-0.09646602
118	0xbcfb39fa	-0.030667294
119	0xbb014a72	-0.001972821
120	0xbc8ec6f0	-0.017428845
121	0xbd3204c4	-0.043461576
122	0xbccb0a6d	-0.024785245
123	0x3e33f7f5	0.17575057
124	0xbe234f5d	-0.15948243
125	0x3dd2e213	0.102970265
126	0x3d38be25	0.04510321
127	0xbc8f2c7c	-0.017477266
128	0xbe5b4a5d	-0.21415086
129	0x3dedf75b	0.11619445
130	0x3d16d0ae	0.036820106
131	0x3db4d3ba	0.08829446
132	0xbac2962d	-0.0014845781
133	0xbdc345fd	-0.095348336
134	0x3d7a16f3	0.061057042
135	0x3d11ca17	0.03559312
136	0xba04d93c	-0.0005067771
137	0xbe055b76	-0.13023171
138	0xbc9880a1	-0.018616023
139	0xbd5f7e9a	-0.054564096
140	0x3deb30a9	0.114838906
141	0xbe859c49	-0.260958
142	0xbdf895be	-0.12137936
143	0x3d68ca79	0.056833718
144	0xbd92b478	-0.07163328
145	0x3df3fd86	0.1191359
146	0xbe25fb7e	-0.16209218
147	0x3c61bbc7	0.01377768
148	0xbd62c827	-0.05536666
149	0xbdaae74c	-0.08344898
150	0xbd3f2c3d	-0.04667305
151	0x3d89991e	0.06718658
152	0xbd6e18cc	-0.058129117
153	0xbb82173a	-0.003970054
154	0xbd5cb1d5	-0.05388053
155	0xbcf7de43	-0.03025735
156	0xbd0f8860	-0.035042167
157	0xbc3869bb	-0.011255677
158	0x3cbc51d5	0.02298824
159	0xbdd07b70	-0.10179794
160	0x3d8d6f36	0.069059774
161	0x3d26eea9	0.040754948
162	0xbd88af77	-0.06674092
163	0xbe8a3eb2	-0.27000958
164	0x3cc47228	0.023980215
165	0xbda3786b	-0.07981952
166	0xbca88ebf	-0.02057588
167	0xbc740e08	-0.014895923
168	0x3d4c3113	0.04985149
169	0xbd063d80	-0.032773495
170	0xbca7ef7b	-0.020499935
171	0xbd47f64d	-0.048818875
172	0xbdd661dd	-0.10467885
173	0xbe20c9b2	-0.1570194
174	0x3bf996d1	0.0076168557
175	0xbe01f0b6	-0.1268948
176	0x3d527d8f	0.051389273
177	0x3e11de3d	0.14244933
178	0xbe03dcbd	-0.12877174
179	0xbe38f860	-0.18063498
180	0x3e6cf2f9	0.23139562
181	0x3d9d95cf	0.07694589
182	0xbe22f6ec	-0.15914506
183	0x3c95787b	0.018245926
184	0xbe1c6654	-0.1527341
185	0x3d9129f4	0.0708808
186	0x3e59a8b6	0.21255764
187	0x3c44062a	0.01196436
188	0x3ca26ba1	0.019826712
189	0xbdfd0f7e	-0.123564705
190	0xbdbee2b2	-0.093205824
191	0xbe32f1a0	-0.17474985
192	0xbe970a36	-0.29499978
193	0x3d141456	0.036152206
194	0x3da81c7b	0.08208557
195	0x3c67c926	0.014147079
196	0xbcf7647c	-0.030199282
197	0xba8e9287	-0.0010877409
198	0xbd7b7aaf	-0.061396297
199	0x3e088d92	0.13335255
200	0xbe49acc2	-0.19694808
201	0xbdac16db	-0.08402797
202	0x3e9029d0	0.281569
203	0x3dbda8b2	0.09260692
204	0xbd884ce7	-0.06655293
205	0x3df9886e	0.12184225
206	0xbe50bc6a	-0.20384374
207	0x3dd5a796	0.10432355
208	0xbdedd486	-0.11612801
209	0x3c64dc82	0.013968589
210	0x3d1c8ff8	0.038223237
211	0xbde159cc	-0.110034555
212	0xbd6bbb00	-0.057551384
213	0xbdfc98f9	-0.12333865
214	0xbd420aea	-0.04737369
215	0xbdc1e21c	-0.09466955
216	0x3df2c472	0.11853875
217	0xbc53860c	-0.012910377
218	0xbdc8cdfd	-0.09804914
219	0x3db8c3d6	0.09021728
220	0xbd976b80	-0.07393551
221	0x3d87b885	0.06626991
222	0xbdeb1a24	-0.11479595
223	0xbd853dc3	-0.06505921
224	0x3d076819	0.03305826
225	0xbe58e5f8	-0.21181476
226	0xbea2e55b	-0.3181561
227	0x3ebd7529	0.3700345
228	0xbdb5eaa4	-0.08882645
229	0xbdcd54c2	-0.10025932
230	0x3cd7c556	0.026339214
231	0xbe1b8483	-0.15187268
232	0xbd97f8ff	-0.07420539
233	0x3df38394	0.11890331
234	0x3d1eb518	0.038746923
235	0xbca6d716	-0.020366233
236	0xbe29a022	-0.16564992
237	0xbe178555	-0.14796956
238	0xba845381	-0.0010095687
239	0x3e695fe1	0.22790481
240	0xbc4c0e55	-0.012454589
241	0x3db9aa2a	0.09065659
242	0x3df05e02	0.117366806
243	0x3dd20fd7	0.102569275
244	0xbd3ae853	-0.045631718
245	0x3db584c7	0.08863216
246	0xbdf887d5	-0.12135283
247	0xbde6b23f	-0.112644665
248	0xbe3dcf9a	-0.18536225
249	0xbd1d1387	-0.0383487
250	0xbe54b800	-0.20773315
251	0x3c97e268	0.018540576
252	0xbd9ba441	-0.07599688
253	0xbd712c41	-0.058880094
254	0x3de82cbd	0.11336658
255	0xbd4f9dc5	-0.05068757

a2c_network.actor_mlp.4.bias f4 [128]
0	0xbd8168a1	-0.063187845
1	0xbb64d250	-0.0034915395
2	0xbd046074	-0.032318547
3	0xbd09e35f	-0.033664104
4	0xbc2ea8dc	-0.010660376
5	0xbd7e2ee8	-0.062056452
6	0x3c86b9fc	0.016446106
7	0x3c2ff905	0.010740523
8	0xbd46c1e4	-0.048524752
9	0xbd70de21	-0.05880559
10	0xbe1a9650	-0.15096402
11	0x3c9cf843	0.01916135
12	0xbc8f8369	-0.017518716
13	0xbd8955d4	-0.067058235
14	0xbdc2a77d	-0.09504602
15	0xbd90d184	-0.07071212
16	0x3d96ec19	0.07369251
17	0xbc22fb2c	-0.009947579
18	0xbba9397e	-0.0051643243
19	0x3ba8e857	0.00515465
20	0xbbba13b5	-0.005678619
21	0xbda4aa9c	-0.08040354
22	0x3c3713c2	0.011174144
23	0xbd93b2b5	-0.0721182
24	0xbdbd5cbf	-0.092462055
25	0x3c799c8b	0.015235077
26	0x3cdcf652	0.026972923
27	0xbd8966ac	-0.06709036
28	0xbb0d58ed	-0.0021567896
29	0xbd679066	-0.056534193
30	0x3dabf2d7	0.083959274
31	0xbdb2ce2b	-0.0873073
32	0xbae12619	-0.0017177492
33	0x3d1299b3	0.03579111
34	0xbc9a872f	-0.018863289
35	0xbc50295d	-0.012705174
36	0x3b63171d	0.0034651228
37	0xbd0da199	-0.03457794
38	0x3baec727	0.0053337994
39	0x3c63f1ab	0.013912599
40	0xbdc28216	-0.09497468
41	0xbc9122c9	-0.017716782
42	0xbcaf47bc	-0.02139651
43	0x3d8b37b7	0.06797736
44	0xbdba5315	-0.09097878
45	0xbc52ef3e	-0.012874423
46	0xbe1d8207	-0.15381633
47	0xbcfb5b49	-0.030683177
48	0x3cd78854	0.026310124
49	0xbc858f71	-0.01630375
50	0xbdb08a24	-0.08620098
51	0x3c7a1822	0.015264543
52	0x3c12a497	0.008950374
53	0x3d2f558b	0.04280619
54	0x3c52e4a1	0.012871892
55	0x3d64c7f2	0.055854745
56	0xb9d28ec3	-0.00040160687
57	0x3c728bcc	0.014803838
58	0x3c269d93	0.010169405
59	0xbca200f1	-0.01977584
60	0x3d02e752	0.031958885
61	0x3d66da07	0.05636027
62	0xbd60e1b1	-0.054902736
63	0xbd17194b	-0.036889356
64	0x3c8f7ed5	0.017516533
65	0x3d275be1	0.040859107
66	0xbd1ecc56	-0.03876909
67	0x3d7153cb	0.0589178
68	0xbd606773	-0.054786157
69	0xbbd6d5f3	-0.0065562665
70	0xbe16229f	-0.14661644
71	0x3c3ad60f	0.011403575
72	0x3c62abf1	0.013834939
73	0x3dbb8b8c	0.09157476
74	0x3a8d8ac8	0.0010798806
75	0xbcbbe7d8	-0.0229377
76	0x3ae92ec0	0.0017790422
77	0xbadc9b42	-0.0016830938
78	0xbd1f4f36	-0.0388939
79	0xbcb81e8a	-0.0224755
80	0x3d0685c0	0.032842398
81	0x3b15ac2e	0.0022838223
82	0x3c6b7397	0.0143708205
83	0xbd8d5900	-0.06901741
84	0x3ca27467	0.019830896
85	0xbdd08603	-0.10181811
86	0xbdd41587	-0.103556685
87	0xbe21c9c0	-0.15799618
88	0xbddc2403	-0.10749056
89	0xbc707447	-0.01467616
90	0xbd927d18	-0.07152766
91	0xbd92789b	-0.0715191
92	0xbcf778cb	-0.030208966
93	0xbd20cad6	-0.03925594
94	0xbafe8de4	-0.0019420949
95	0xbd1f0406	-0.038822196
96	0xbd243f91	-0.040099684
97	0x3b9f04c0	0.004852861
98	0xbddfdedb	-0.10931178
99	0xbd2d42bd	-0.042299975
100	0xba766315	-0.00093989196
101	0xbdb4a3b3	-0.08820286
102	0xbd7daa67	-0.061930086
103	0x3da001a5	0.07812814
104	0xbd85157e	-0.0649824
105	0x3cb6e498	0.022325799
106	0x3d144569	0.036199007
107	0xbdd6da6c	-0.104908794
108	0xbd3902f7	-0.045168843
109	0x3b85edfc	0.004087208
110	0x3d288a32	0.04114742
111	0xbcd82036	-0.026382547
112	0x3b0d9594	0.0021604048
113	0xbda2a89f	-0.07942318
114	0xbd42c354	-0.04754956
115	0xbd59ec45	-0.05320384
116	0xbd3b26ac	-0.045691177
117	0xbcf04b6d	-0.02933284
118	0xbd90fda3	-0.07079627
119	0xbc29b551	-0.010358171
120	0xbce66a52	-0.02812687
121	0x3cd4f913	0.025997674
122	0x3da28141	0.079348095
123	0xbdcde4aa	-0.1005338
124	0x3b8286c3	0.00398335
125	0xbd2a9631	-0.04164714
126	0xbc280fde	-0.010257689
127	0xbb25d919	-0.0025306402

a2c_network.value.weight f4 [1, 128]
0	0xb948ec37	-0.00019161483
1	0x3cf422cf	0.029801754
2	0xbca5d27f	-0.020241974
3	0x3d4b3ef4	0.049620584
4	0x3b3f2e72	0.002917197
5	0x3d200a70	0.039072454
6	0x3d3bbafd	0.045832623
7	0x3deaab2c	0.1145843
8	0x3cf4ed2c	0.029898249
9	0xbd75b41b	-0.059986215
10	0x3e0b5d9f	0.13609932
11	0x3afc01c1	0.0019226597
12	0xbcd2c55f	-0.02572888
13	0x3b955707	0.0045574936
14	0x3dc44f56	0.09585445
15	0x3b557f03	0.0032576926
16	0x3eba08d7	0.3633487
17	0xbcb5ef3a	-0.022208799
18	0x3e551dc9	0.20812143
19	0x3e299298	0.16559827
20	0xbb5c4e74	-0.0033616098
21	0x3b8f3de7	0.004371393
22	0x3dbe6d39	0.09298176
23	0x3dac0154	0.08398691
24	0xbb2d8a03	-0.0026479966
25	0xbe823ca1	-0.2543688
26	0x3c6fd028	0.014637031
27	0xbd77fcd5	-0.060543854
28	0x3c1c0d83	0.009524706
29	0xbe986af4	-0.297691
30	0x3c696bc8	0.014246888
31	0x3d151ef1	0.03640646
32	0x3d2ab168	0.041673094
33	0x3bff65c1	0.0077941124
34	0x3d33e645	0.043920774
35	0x3d0be4e7	0.034153845
36	0x3c918ec3	0.01776827
37	0x3aa26d72	0.0012392236
38	0x3c860f08	0.01636459
39	0x3e2d6194	0.16931754
40	0xbc74602c	-0.014915507
41	0xbd83a157	-0.064272575
42	0x3e58830e	0.21143743
43	0x3c723053	0.014782029
44	0xbcc75298	-0.024331376
45	0xbe9ae7cd	-0.30254975
46	0xbd247256	-0.0401481
47	0xbd41687b	-0.04721878
48	0xbc2ebe80	-0.010665536
49	0x3d81f2a4	0.06345108
50	0x3be155ae	0.006876669
51	0x3e8511ef	0.25990245
52	0xbd1ab614	-0.0377713
53	0x3e3c1ade	0.18369624
54	0x3daf6a49	0.08565194
55	0x3e298b35	0.1655701
56	0xbea8ba1d	-0.32954493
57	0x3d007a9b	0.031366926
58	0x3a1a0ffb	0.0005877015
59	0xbd247ec6	-0.040159963
60	0xbd22b0ff	-0.039719578
61	0xbe6a9e00	-0.22911835
62	0x3c929005	0.01789094
63	0x3d4fda9f	0.050745603
64	0xbcfc985a	-0.030834366
65	0xbd233eaa	-0.039854683
66	0x3b199bb5	0.0023438756
67	0xbc4d6dd2	-0.01253839
68	0x3d38daf9	0.045130704
69	0xbd78f259	-0.060777996
70	0xbe16adf8	-0.14714801
71	0x3dd1d54f	0.102457635
72	0xbe1eb150	-0.15497327
73	0xbda695f2	-0.081340685
74	0x3d22dcfc	0.03976153
75	0xbd85ea0d	-0.06538782
76	0xbcaed005	-0.021339426
77	0x3d2c7351	0.04210216
78	0xbc1aa472	-0.009438621
79	0xbe048f0f	-0.12945198
80	0x3d61c38a	0.05511812
81	0x3d91ace9	0.07113058
82	0x3decd9ca	0.115649775
83	0xbd1fb56d	-0.03899138
84	0xbcb07e38	-0.02154456
85	0xbd0aa0d5	-0.033844788
86	0xbe5c3fb1	-0.21508671
87	0xbcaa385a	-0.020778824
88	0xbdb076d7	-0.08616417
89	0x3c35baf0	0.011091933
90	0xbd94c1fd	-0.07263563
91	0xbd75ae8e	-0.05998092
92	0xbbfc6215	-0.007702122
93	0xbd899a16	-0.06718843
94	0x3cc398e0	0.023876607
95	0xbd38e05e	-0.04513585
96	0x3c712db1	0.014720366
97	0xbdb21815	-0.086959995
98	0x3d817f7b	0.06323143
99	0x3cc4571f	0.023967324
100	0x3c78a43e	0.015175877
101	0x3e082e65	0.13298948
102	0xbd121897	-0.035667982
103	0xbc701b49	-0.014654943
104	0xbdac4adb	-0.08412715
105	0xbd33685f	-0.043800708
106	0xbd59d545	-0.053181905
107	0xbea5c99a	-0.32380372
108	0x3b63fc2f	0.0034787764
109	0xbd8ec04c	-0.069702715
110	0x3be2b5ff	0.0069186683
111	0x3cc5fd47	0.024168624
112	0x3d39bae5	0.045344252
113	0xbd65dcef	-0.0561189
114	0xbe06e1e9	-0.13172115
115	0x3cfb6a5a	0.03069036
116	0x3d730ce5	0.05933847
117	0xbe63347a	-0.22187987
118	0xbc25a45c	-0.010109987
119	0xbb525f0b	-0.0032100107
120	0x3e114ca1	0.14189388
121	0xbb858230	-0.0040743575
122	0xbd1f1e35	-0.038847167
123	0xbe265994	-0.16245109
124	0x3ccd4a45	0.025059829
125	0x3d0d4eee	0.0344991
126	0xbe067340	-0.13129902
127	0x3d154f2d	0.03645246

a2c_network.mu.weight f4 [10, 128]
0	0xbdffb1df	-0.12485098
1	0xbcc50934	-0.02405224
2	0x3e0315a7	0.12801228
3	0x3da9b77d	0.08286951
4	0x3d6d9886	0.058006786
5	0xbcb8c3e7	-0.022554351
6	0xbde7da42	-0.11320926
7	0xbd5411cb	-0.05177478
8	0xbc90cbea	-0.017675359
9	0xbc987901	-0.018612387
10	0xbdb47800	-0.08811951
11	0xbdb8c80d	-0.09022532
12	0xbd31e447	-0.043430593
13	0x3d847e93	0.064694546
14	0x3ccbbee1	0.024871292
15	0x3e045fbd	0.12927146
16	0x3cfafc0f	0.030637769
17	0xbce2fe74	-0.027709223
18	0xbce7f02e	-0.028312769
19	0x3d21882d	0.039436508
20	0xbd338dea	-0.04383651
21	0x3d7e93de	0.062152736
22	0xbaecd765	-0.0018069564
23	0xbcac72cf	-0.021050839
24	0x3c2cb2ea	0.010540703
25	0x3dda528d	0.106602766
26	0xbdec5454	-0.11539522
27	0x3d43a135	0.04776116
28	0xbcf9f08f	-0.030510215
29	0x3cdab033	0.026695346
30	0x3c6cc6eb	0.014451723
31	0x3d0d5a51	0.03450996
32	0x3a94a928	0.0011341916
33	0xbd4443f4	-0.047916368
34	0xbd0ff33b	-0.035144072
35	0xbba1842a	-0.0049290853
36	0xbb1e0ba5	-0.0024115827
37	0x3d4caadb	0.049967628
38	0x3c78f144	0.015194241
39	0xbd6cc843	-0.057808172
40	0x3de4be06	0.111690566
41	0xbd9ec994	-0.07753292
42	0xbc16f387	-0.009213335
43	0xbd0a2ce4	-0.033734217
44	0x3d06d54c	0.03291826
45	0x3cb35998	0.021893308
46	0xbba55353	-0.0050453334
47	0xbdafa681	-0.0857668
48	0x3d359996	0.044335924
49	0xbc4e2cce	-0.012583924
50	0xbd63d202	-0.0556202
51	0xbd888042	-0.06665088
52	0xbe00fe89	-0.12597097
53	0x3da60e96	0.08108251
54	0xbde5f6a4	-0.112286836
55	0xbc99cb81	-0.018773796
56	0x3d6704e9	0.056401167
57	0x3d7fcc69	0.0624508
58	0xbd5f5909	-0.05452827
59	0x3dbfe3b1	0.093696006
60	0xbc634cd7	-0.0138733005
61	0x3d87d2d7	0.066320114
62	0x3c11dc22	0.008902581
63	0x3e053e95	0.13012154
64	0x3d29635d	0.041354526
65	0x3d38ca10	0.045114577
66	0x3b3646b1	0.0027813131
67	0xbd61ce63	-0.055128466
68	0xbcaf861f	-0.021426259
69	0x3dab9331	0.08377684
70	0xbc87534e	-0.016519215
71	0x3db908f9	0.090349145
72	0x3e0122aa	0.1261088
73	0xbd3336b7	-0.043753352
74	0xbe22a2e9	-0.15882458
75	0xbd603857	-0.05474123
76	0xbe056a52	-0.13028839
77	0xbcba874c	-0.022769593
78	0x3e09adba	0.13445178
79	0xbd507a6f	-0.05089801
80	0xbcc65cf2	-0.024214242
81	0xbc95cace	-0.018285181
82	0xbdbd8a9c	-0.09254953
83	0xbc920e64	-0.017829128
84	0x3d1c3b43	0.038142454
85	0x3cb885c5	0.022524724
86	0xbd5dfccb	-0.05419616
87	0xbd6ada10	-0.057336867
88	0x3d97d606	0.074138686
89	0x3d2b63ed	0.041843344
90	0xbb2c6848	-0.0026307274
91	0x3d92ff8b	0.07177647
92	0xbdc608f4	-0.096696764
93	0x3c0d0da0	0.0086092055
94	0x3deb8af0	0.115011096
95	0x3d77c54f	0.060490903
96	0x3e00dd97	0.1258453
97	0xbe08aff2	-0.13348368
98	0xbd31ba35	-0.04339047
99	0x3d4f2759	0.050574634
100	0x3d364196	0.04449614
101	0x3dafd53b	0.08585592
102	0xbe249297	-0.16071545
103	0x3d22a028	0.03970352
104	0xbc199e35	-0.009376098
105	0x3c71d9d4	0.014761407
106	0xbdc1e0d4	-0.09466711
107	0x3d12952c	0.035786793
108	0x3d0bb1d1	0.034105126
109	0x3db6d50c	0.08927354
110	0xbd0e6cc7	-0.034771707
111	0x3db0c646	0.08631568
112	0xbd83d0dd	-0.06436322
113	0x3d09b81a	0.03362284
114	0xbd8286d5	-0.063733734
115	0x3e1599fa	0.14609519
116	0xbd627625	-0.055288453
117	0xbdd8b5ed	-0.105815746
118	0x3dcce7a1	0.10005117
119	0xbd849c9a	-0.06475182
120	0x3cd5b594	0.02608756
121	0xbdad3774	-0.084578425
122	0xbcfcdb4a	-0.030866284
123	0x3dda6b40	0.106649876
124	0x3d7821ac	0.060578987
125	0x3da51e37	0.08062404
126	0xbcd4701b	-0.025932362
127	0x3dc53367	0.09628945
128	0xbe366b8c	-0.17814463
129	0x3dc756b9	0.09733338
130	0x3c7bff0d	0.015380633
131	0x3c780e4d	0.015140128
132	0xbe0b919e	-0.13629767
133	0x3caaa4c0	0.020830512
134	0x3d9de8d3	0.07710423
135	0x3de514ba	0.11185594
136	0xbdc390fe	-0.095491394
137	0xbd84568e	-0.064618215
138	0xbe1f5b31	-0.1556213
139	0x3e02b6ee	0.12765095
140	0x3d3dd407	0.046344783
141	0x3a5ce9eb	0.00084271905
142	0xbe9b315d	-0.303111
143	0xbd1f8986	-0.038949512
144	0x3dee3ca2	0.116326585
145	0x3e090c72	0.13383654
146	0xbde3ae59	-0.111172386
147	0xbc564eac	-0.01308028
148	0x3dd95d8f	0.10613548
149	0x3d338340	0.04382634
150	0x3dc33209	0.09531028
151	0xbd632fd9	-0.055465553
152	0xbe12c1a2	-0.14331678
153	0xbca8fcb6	-0.020628314
154	0x3d86796f	0.0656613
155	0x3cf4e8fc	0.029896252
156	0xbc34b42c	-0.011029284
157	0xbdb77f79	-0.0895986
158	0x3dfcf066	0.1235054
159	0xbc56c9fc	-0.01310968
160	0xbd6f8fae	-0.058486633
161	0xbd25075f	-0.040290233
162	0x3dcfbb85	0.101431884
163	0x3d41665b	0.047216754
164	0xbdd7c195	-0.1053497
165	0x3d8932ec	0.06699166
166	0xbcc5360b	-0.024073621
167	0xbe0eca6a	-0.13944402
168	0xbce932f9	-0.028466688
169	0x3d80ad11	0.0628301
170	0xbad1d98d	-0.001601027
171	0x3d81f6d1	0.063459046
172	0xbbf2b1ab	-0.0074064336
173	0x3d8621e3	0.06549432
174	0xbdcb28ab	-0.09919866
175	0xbd570a2e	-0.052499942
176	0x3d97ab07	0.07405668
177	0x3e15b648	0.14620316
178	0xbe3c4d6e	-0.18388912
179	0x3b0010bf	0.0019541231
180	0x3d8222ab	0.06354269
181	0x3d00ded5	0.03146251
182	0x3daf28de	0.08552717
183	0x3d62c9dc	0.05536829
184	0x3e673401	0.22578432
185	0xbe08464a	-0.13308063
186	0x3d77efc9	0.06053141
187	0x3e1ba497	0.15199505
188	0x3d679966	0.056542777
189	0xbb6ed102	-0.0036440496
190	0xbcec2d57	-0.028830213
191	0x3c9c8743	0.019107467
192	0x3e072a49	0.13199724
193	0x3de431fb	0.111423455
194	0xbd800353	-0.06250634
195	0x3e00c7aa	0.12576166
196	0xbd997c72	-0.07494439
197	0x3dd2914d	0.1028162
198	0xbd83ee23	-0.06441905
199	0x3db6acc9	0.08919675
200	0xbe5a8ace	-0.21342012
201	0x3e4c09c3	0.19925599
202	0xba866dfd	-0.0010256168
203	0x3dc05f5d	0.09393189
204	0x3d9a9abc	0.075490445
205	0x3e53feb4	0.2070263
206	0xbe1347c8	-0.14382851
207	0x3db9dac0	0.090749264
208	0x3d3a68d2	0.04551012
209	0x3e9f3de2	0.311019
210	0xbdaca8fc	-0.08430669
211	0xbd35e832	-0.04441089
212	0xbdd8d0a6	-0.105866715
213	0xbd2463ef	-0.040134367
214	0xbde9a5bd	-0.11408565
215	0xbe8160e8	-0.25269246
216	0xbd90b6c0	-0.07066107
217	0x3dfc50ae	0.12320076
218	0xbe94ed56	-0.29087323
219	0x3d7cbe76	0.061705075
220	0x3d1a3840	0.0376513
221	0x3d2f7f1f	0.04284584
222	0xbbae848e	-0.0053258603
223	0x3b98e8a9	0.004666407
224	0x3d611245	0.054949064
225	0xb972a0a0	-0.00023138756
226	0xbda131f9	-0.0787086
227	0xbe1c5c8f	-0.15269683
228	0x3c7c08a4	0.015382919
229	0xbe405f85	-0.18786438
230	0xbe18ef41	-0.14935018
231	0x3dc49572	0.09598817
232	0xbd17c3a6	-0.03705182
233	0xbdcb2b2f	-0.09920346
234	0xbbd2ebb3	-0.006436789
235	0xbdde580d	-0.10856638
236	0xbdceb157	-0.10092419
237	0x3ccc5ee6	0.024947595
238	0x3cf01150	0.02930513
239	0xbc36b87b	-0.011152382
240	0x3bd460fb	0.0064812875
241	0x3d361662	0.04445494
242	0xbcba6381	-0.022752525
243	0xbe233d52	-0.1594136
244	0xbe2b911f	-0.16754578
245	0x3e18cb93	0.14921407
246	0x3c1c5bca	0.009543369
247	0x3dda111c	0.106477946
248	0xbcf1de26	-0.029524874
249	0x3d1b5dc5	0.037931222
250	0x3dbf8557	0.093516044
251	0xbdb23f4e	-0.08703481
252	0x3d50bff4	0.05096431
253	0xbcf81c66	-0.030286979
254	0xbe535d30	-0.20641017
255	0x3df67817	0.12034624

a2c_network.mu.bias f4 [10]
0	0x3c365930	0.011129662
1	0x3e200d37	0.15630041
2	0xbc32142a	-0.010869065
3	0xbd22a271	-0.039705697
4	0xbd5eab76	-0.054362737
5	0xbe15b031	-0.14617993
6	0xbc490410	-0.012269035
7	0xbba2ce9a	-0.0049684765
8	0x3c228991	0.009920494
9	0x3e3ff333	0.18745117

exp_avg f4 [10]
0	0xb8d0625a	-9.936532e-05
1	0xba0b4364	-0.0005312471
2	0x39b48f06	0.00034438836
3	0xb9628e1b	-0.00021605978
4	0x392781df	0.00015974742
5	0xb93f29d0	-0.00018230756
6	0x3a312705	0.00067578285
7	0xb9729e25	-0.00023137832
8	0xb9a4ec8b	-0.00031456756
9	0x38c87b4e	9.5597105e-05

exp_avg_sq f4 [10]
0	0x37020680	7.750117e-06
1	0x3703355f	7.820635e-06
2	0x36e6b8a1	6.876028e-06
3	0x3704c398	7.913353e-06
4	0x36fb8593	7.495933e-06
5	0x36f24f1e	7.2213725e-06
6	0x3703546d	7.827865e-06
7	0x36efbb5f	7.144568e-06
8	0x36e71b7c	6.887536e-06
9	0x36ffa162	7.6183796e-06
