logs/rl_games/humanoid_flat_direct/semi_success/nn/last_humanoid_flat_direct_ep_1300_rew_415.36963.pth (torch, 759553 bytes, 33 tensors)

value_mean_std.running_mean f8 [1]
00000000: 228d 6dce 04d9 5240
75.3909183568799

value_mean_std.running_var f8 [1]
00000000: c35e 3e0d 745b 9540
1366.8633317704523

value_mean_std.count f8 []
00000000: 0000 0001 0078 be41
511180801.0

a2c_network.sigma f4 [10]
00000000: 2a04 aabf 50d0 0dbf b7d6 c6bf cb4b 07bf
00000010: f697 e0bf c6ef c2be 2c94 ebbf fc2f 02c0
00000020: 507a 8bbf 0a3c 43bf
-1.3282521 -0.55395985 -1.5534276 -0.52850026 -1.7546375 -0.38073558 -1.8404593 -2.0341787
-1.0896702 -0.7626349

a2c_network.actor_mlp.0.weight f4 [256, 42]
00000000: ecc6 373d ddde c93e 97dc ad3e 75c9 cb3d
00000010: 6031 0c3e b7dd 133d 60c5 083e 2689 34be
00000020: 42d4 bcbe 71ba 56bd d1fb 25be 6d2c 8c3d
00000030: ad9f b0bd 4619 e53d 3b8b e13d 70ab 423d
00000040: 3d83 893d 2124 41be 2d51 58bc 9d1d 8bbd
00000050: 0290 e9bb 7584 86bd f27d d2be aa6e c2be
00000060: bcef 053e f47d ff3d db99 0bbe f4d1 67be
00000070: c429 5c3e 9692 103d 36c7 5d3e 673e 6fbe
00000080: 5af6 15be ca1d d5bd 2631 9dbd fb5d d73c
00000090: d270 003d 45b8 cb3d 4d8e 80bd e3f9 a2bd
000000a0: 647a 6d3d 5f4e 46bd bb20 e93d d4c6 6f3b
000000b0: ad2d 7c3e 731b 76be a121 babc e465 333e
000000c0: 46ad 963e 94a7 913d 6b9c 653d 2194 933d
000000d0: 2d1f d1bd 4f99 5dbd 1132 963e c906 48bb
000000e0: 434b 9abd c0c3 4ebe 5f24 81bd aa7f c3bc
000000f0: 3e44 83bb 71da 08be 6686 f9bb 439c 02be
00000100: bc09 a7bc 337a cfbd 270b 8cbd e263 dbbe
00000110: a824 863e 3a0d c2bd 65c5 193d 6c3d 91be
00000120: b316 1ebe bddd 3e3c 88be 2cba d498 03be
00000130: 39bd 0cbe 4560 8dbd a477 c43c 6030 65bd
00000140: 4f2d df3b 716d 76bd 7bd6 00bd f6a4 eb3b
00000150: 41ba 84bd 4833 2bbe 09e2 993e ff40 4dbe
00000160: 3db9 293e b3f4 8cbd 979f adbe 6f70 ecba
00000170: 703a cebd 6020 38bd fc79 16be 2ae6 2ebe
00000180: 7508 3bbd df2a 0ebe 6c03 f23d a817 dfbd
00000190: 871e 203e e2f4 dcbd 9027 3ebd 8be0 503c
000001a0: 76c1 b13d ecfc 833e 3be7 7e3c 5a83 b9be
000001b0: e696 543d 9a0a 40bd 6141 073e 1a03 8fbe
000001c0: d385 063e 97f2 a0be 6289 6f3d c46f 7aba
000001d0: b6ce 1c3d 1828 6dbd 632b f83d 167b 6d3d
000001e0: 1a94 263d 24bb a3bd d8bb 833d afba 5dbd
000001f0: 0151 3ebd cff0 103e 4b1f 283d 365b b2be
00000200: a296 a2bd 63d8 45bd f2e0 a1bd 2d66 70be
00000210: f7d9 63be 97d0 4ebc a325 10be fd57 623d
00000220: 52cd f53d faa8 17be 4270 a33d 0da0 013e
00000230: 6e6e 8e3d 8e81 bbbd f55a 9b3d 7e95 c63d
00000240: 5ed4 2d3e 88f5 25bd 99a2 ebbd 65ab 28bc
00000250: 30c2 653c 29ec 0d3e d196 113e 0c16 99bd
00000260: 7c9e dd3c 475f 5fbe ce98 36bd d786 02bc
00000270: 09b9 9ebc 1f28 2bbd 78c8 03be a043 cfbc
00000280: 7d89 b53d 3e63 c33d 8d3b 04bd 45cc 85bd
00000290: 3026 b3bd 37fc debd af98 8ebc a68d e63c
000002a0: 8251 e13d 37fa 563e 599c 6bbd f98b 2e3d
000002b0: b11f 4dbb 3ff7 883e b808 de3d 9079 02bc
000002c0: 8d5d 183d a0bf a9bd 8ff4 bcbd 66b5 f93d
000002d0: 3c92 183b 12fc aa3d 0e53 38be 569f 023e
000002e0: 0419 093e 3f0f 0f3b 4310 a5bd e9f4 68be
000002f0: 2164 18be edd3 7f3e 76da e73d c8ed 5a3e
00000300: b899 8a3d 24e9 42bb f80e 753c 72a3 8cbe
00000310: d400 91be b97c afbe af60 eb3d 8793 cfbc
00000320: dca3 f9bc dd8f d2bd 4e0b 83bd 2bbd d3bd
00000330: 8509 ddbd 2f18 293c 0bf7 2d3c b510 0b3e
00000340: 7929 14bd 339d 38bd 2cde 35bd 3ed6 a13c
00000350: 95c6 7f3c ba46 10be 6526 1a3e 5eb6 31be
00000360: 211d a23c 8dd5 3d3d c421 f03d 49ed ccbd
00000370: ae2f bf3d 6d05 a1bd 31e8 033e f702 793e
00000380: e7fd 0abd cc64 363d a35e 323d a8d6 dabd
00000390: 70ba ff3d d3b4 9cbe 4896 9f3d 914e 803e
000003a0: 3d48 773e 3e6f dd3d 7e3e 9bbd 72f5 073c
000003b0: bd98 c03d bf9c 6abe f608 48bd 48c6 cfbe
000003c0: 9931 303c 1ac1 833c a5b3 79bd 2114 b1bd
000003d0: eef9 0dbe c83d ec3d dbf7 043e 9161 d93c
000003e0: 6974 e8bc 4cae fdbd cbc3 d6bd 7f0c b5bd
000003f0: 317b 463d a8dd 09bc d9ae 1bbd 22f3 fcba
0.04486744 0.39427844 0.3395736 0.09950534 0.1369071 0.036100116 0.13356543 -0.17630443
-0.3688069 -0.052423898 -0.16209342 0.06844411 -0.08624206 0.11186461 0.11012884 0.047526777
0.06714485 -0.18861438 -0.013202948 -0.06792758 -0.007127763 -0.06568233 -0.41111714 -0.37975055
0.13079733 0.124751955 -0.1363291 -0.22638685 0.21500307 0.035296045 0.21658024 -0.23363648
-0.14644757 -0.104060724 -0.0767539 0.02628993 0.031357594 0.09947256 -0.06277142 -0.07957818
0.05797805 -0.048414584 0.11383196 0.0036587017 0.24626799 -0.24033909 -0.022721114 0.17519337
0.29429072 0.07112041 0.056057375 0.07205988 -0.102110244 -0.054101285 0.29335073 -0.0030521622
-0.07533886 -0.2019186 -0.06305765 -0.023864586 -0.004005938 -0.13364579 -0.0076148985 -0.12754922
-0.020390384 -0.101307295 -0.06838065 -0.42849642 0.26199841 -0.09475179 0.037541766 -0.28367174
-0.15438347 0.011649546 -0.00065896707 -0.12851268 -0.13744058 -0.069031276 0.02398283 -0.055954337
0.006810821 -0.060162965 -0.031454545 0.0071912957 -0.064808376 -0.16718781 0.30055264 -0.20044325
0.16574569 -0.0688261 -0.3391082 -0.0018038879 -0.1006974 -0.04495275 -0.14694971 -0.17079988
-0.045662362 -0.13883542 0.11817059 -0.10893184 0.15636645 -0.10788895 -0.04642445 0.012748848
0.08679478 0.25778902 0.015558059 -0.36233026 0.05190172 -0.04688511 0.13208534 -0.27932054
0.13136987 -0.3143508 0.058480628 -0.00095533975 0.038283072 -0.057899565 0.1211765 0.057978712
0.040668584 -0.079946786 0.06432313 -0.054133113 -0.04646397 0.14154361 0.04104547 -0.34835213
-0.07938887 -0.048302066 -0.07904233 -0.23476477 -0.22251116 -0.012622974 -0.14076857 0.055259693
0.12002052 -0.14810553 0.07980396 0.12658711 0.069546565 -0.0915557 0.07585708 0.09696482
0.16975543 -0.04051736 -0.115056224 -0.01029477 0.014023349 0.13859619 0.14217688 -0.07474908
0.02705311 -0.21813689 -0.04457932 -0.007966719 -0.019375341 -0.04178631 -0.12869442 -0.0253008
0.088641144 0.09540413 -0.032283355 -0.06533102 -0.08747518 -0.1088795 -0.01740679 0.028143715
0.110018745 0.20993887 -0.05752215 0.042613957 -0.0031299407 0.26751134 0.10841507 -0.007963553
0.037198592 -0.08288503 -0.09226333 0.12192802 0.0023280522 0.0834886 -0.18000433 0.12756094
0.13388449 0.0021829156 -0.08059742 -0.22749676 -0.14881946 0.24983187 0.11320965 0.21379769
0.06767601 -0.0029741013 0.014957182 -0.2746845 -0.28320944 -0.34274843 0.1149305 -0.025338901
-0.030473642 -0.10281346 -0.063986406 -0.10338815 -0.10792831 0.010320707 0.010617982 0.13580592
-0.036172364 -0.04507179 -0.044401333 0.019755479 0.0156113105 -0.1408948 0.15053709 -0.17354724
0.01978928 0.046346236 0.1172519 -0.10006196 0.09335266 -0.07862363 0.12881543 0.24317537
-0.033933546 0.04452972 0.043547284 -0.10685474 0.12486732 -0.30606708 0.07792336 0.2505994
0.2414865 0.108122334 -0.07580279 0.008298265 0.094041325 -0.22911356 -0.04883667 -0.40580964
0.0107540125 0.016083289 -0.060962338 -0.086464174 -0.13864872 0.11535221 0.12985174 0.026535781
-0.028375821 -0.1238676 -0.10486563 -0.08840274 0.04845733 -0.008414663 -0.038008545 -0.0019298533

a2c_network.actor_mlp.0.bias f4 [256]
00000000: e6eb dfbc bd1a 0c3d fd1b 46bc cc82 023c
00000010: 2fdf 403c 5540 48bc 005e 45bc 0ab5 44bb
00000020: dc3a cbbc 4cfe 453d ca7b ea3c 4e48 59bc
00000030: 16d7 baba 40f6 8abc 439b 79bc 8ce2 1b3c
00000040: 7a41 a5bb 259d c23c b0f0 c4bb 3c8b 073d
00000050: e99d f0bc 3ee5 a1bc 7fa5 513a 45a5 023d
00000060: bd5c 25bc b577 cc3c 009c 833c 9800 23bc
00000070: ef3f 8a3c 65c8 e7bc 10f0 88bb 5713 943c
00000080: 0f5d f43c 8130 463c e8fa ac3b c817 32bd
00000090: 5bfc 643b e6a7 1a3d 5172 e9bc 7214 53bb
000000a0: caa4 223d 8b81 90bc 1959 473d e6fb d5bc
000000b0: d83b 16bc d41f c03b 8890 813d c2dc 2e3d
000000c0: c804 15bb 9b95 edbc 4048 a8bc dee7 743c
000000d0: d3c0 923b 57ae 1cbc 8aa1 fbbc 9be4 aebc
000000e0: 05bb d43c b8d4 473c 45de b63c ac94 b93c
000000f0: da17 3ebb 8986 9bbc 206b 6d3c 347c 4bbc
00000100: 3fe0 5fbc b564 9c3d 1bd3 6bbc c844 2cbc
00000110: 8576 963a 9721 3f3c 39e3 7d3c 5805 bf3c
00000120: 607b 83bd 80ba 163d 99f6 36bc 36c3 92bc
00000130: 9d66 a0bc 5341 afbc e53a 8bbc 66b9 e63c
00000140: 1ebf bb3c 297c b6bc 7667 ba3b df3c 67bc
00000150: b790 e53c cd29 813c 8f56 8b3c d850 aebc
00000160: f01d 733c c9a7 fcbc bdb6 92bc 23e3 a6bc
00000170: 6b9d 0f3c c653 c7ba 1343 19bc 6068 a53c
00000180: b87f 0e3d 0f3e 88ba 7fb8 73bc e6a0 833c
00000190: d8b5 4b3d c02c 36bc d56e 1e3c a39b 493c
000001a0: f783 3d3d c39b c63b 829a bc3c 3470 a03c
000001b0: e9c9 0fbd 5814 fdbc 9ed2 ef3c e2df fe3c
000001c0: 3c76 86bc 0a4d 0ebd bcfd f1bc 9555 e43b
000001d0: 5285 023d 51db 40bd b743 463c e772 7fbb
000001e0: 8449 26bd 5222 85bd ca8a 4fba b95a 973b
000001f0: cb21 bcbb dfca fbbb dd53 adbc 388c 83bc
00000200: 6e90 273b 9d5d ddbc 6eb7 44ba 949b 8e3c
00000210: 1e12 e1bc 8ba6 7e3c ff14 3c3d ec4d 99bc
00000220: 0ce9 de3b 4385 c6bc 7e08 d3bb ee5e a7bc
00000230: ffb7 cb3c 2ab0 ab39 5f80 bebc d988 0fbc
00000240: daa7 89bc 6df2 b93c abd1 213c 64c0 cd3b
00000250: c7d4 a73c ee6d 1ebd 507a 1e3d 96d7 8b3c
00000260: 97ac 023d 9f3d 1b3c c0e0 97bb 6d7e 39bd
00000270: 039c b6bc 3a94 0bbd e7d6 883d 7d6f 153b
00000280: 4191 b6bc 5302 be3c d06b cbbc 8fd0 51ba
00000290: 6b4c fabc 1411 663c 9355 fd3b 097d 993c
000002a0: dc74 a239 429f b83c 8453 acbb b02f 07bd
000002b0: 1b9d 123c b56b c13c 0ed4 1c3c 1385 ae3a
000002c0: 91a8 ad3b 39e7 12bd 080e b63c 5f2e 263c
000002d0: 74a0 293c d2b3 5b3c 658e eebb 8b65 983c
000002e0: d76a 29bb 4ae6 adbc ae89 c33c c81c 983c
000002f0: d1e2 4039 384b c03c ee55 c8bc 160a cc3c
00000300: 240d 263c ff57 65bc b317 d93c 4c4c 35bd
00000310: e018 e1bc 4e60 fcbc c09d 283d 722a c9bb
00000320: 998a 263d d442 4b39 a2c4 993c 3f7a 1bbd
00000330: 5697 11bb c93b 9ebc bcf7 933c 153f e6bc
00000340: da1c 6bbb 3ebc f039 d097 063a 6428 d63c
00000350: ffb7 343c db0c f33c 6083 39bc af7a 513b
00000360: ad5f 16bd 7a38 4d3b 59e6 8aba f8bb 02bd
00000370: 4944 343d 2a10 e6bb bca2 6fbd db30 2a3d
00000380: bb39 183c cfd0 00bd 28bb d6bc 238c b43c
00000390: 885a 5e3d e750 513c 2c9e a43c 0e7b 02bd
000003a0: 5c81 663c d733 9abd b70a 013b 6059 233d
000003b0: 6115 80bc 31ba a73c b72b f7bb 6f15 f43a
000003c0: 0b69 063d 2d65 9d3c 9a38 9a3b a3b1 ab3c
000003d0: b080 cf3c 1d63 033d c32a 8d3c d434 97bd
000003e0: 1a84 c03c 8103 dabc 9d41 dfba 3a24 31bc
000003f0: f5ff 9a3c 5b41 9a3a 62ab 833c 7e9c 4c3c
-0.027334165 0.034205187 -0.012091634 0.007965755 0.011771961 -0.012222369 -0.012046337 -0.0030015134
-0.02480834 0.04833822 0.02862348 -0.013261868 -0.0014254774 -0.016963124 -0.015234771 0.009514462
-0.005043206 0.023756573 -0.0060101375 0.03309177 -0.029372172 -0.019762632 0.0007997378 0.031895895
-0.010092911 0.024959425 0.016065598 -0.009948872 0.016876189 -0.028293798 -0.0041790083 0.018075628
0.02982953 0.012096525 0.005278934 -0.04347971 0.0034940455 0.037757777 -0.028496893 -0.0032208231
0.039707936 -0.017639896 0.048668955 -0.026121091 -0.009169541 0.005863169 0.06326395 0.042691
-0.0022738446 -0.029002002 -0.020542264 0.01494786 0.004478553 -0.00956305 -0.030716676 -0.021349242
0.025968084 0.012196712 0.022322783 0.0226539 -0.0029005916 -0.01898505 0.014490873 -0.012419749
-0.013664304 0.07636396 -0.014393593 -0.010514446 0.0011479413 0.011665723 0.015496069 0.023317978
-0.06420016 0.036798954 -0.011167192 -0.01791535 -0.01958018 -0.021393454 -0.016995857 0.028164577
0.02291828 -0.022276001 0.005688603 -0.014113634 0.028023107 0.015767002 0.017009048 -0.021278784
0.014838681 -0.030841725 -0.017909402 -0.02037198 0.008765559 -0.0015207462 -0.009354371 0.020191371
0.03478977 -0.0010394471 -0.01487553 0.016067933 0.049733967 -0.011119068 0.009669979 0.012305173
0.04626843 0.0060610487 0.023022894 0.019584753 -0.035104666 -0.03089349 0.029275235 0.031112615
-0.0164138 -0.03474144 -0.029539935 0.00696821 0.031865425 -0.047084156 0.012101105 -0.00389784
-0.040597454 -0.06500687 -0.00079171045 0.0046189693 -0.005741333 -0.007684096 -0.021158153 -0.016058072
0.0025568265 -0.027022177 -0.000750414 0.01740817 -0.02747446 0.015542637 0.04591846 -0.018713914
0.0068026837 -0.024233466 -0.0064402213 -0.020431008 0.02486801 0.00032746914 -0.023254571 -0.008760654
-0.01680367 0.022698605 0.009876649 0.0062790383 0.020487202 -0.038679056 0.038690865 0.017070573
0.031902876 0.009475141 -0.0046349466 -0.045286585 -0.022291189 -0.034076907 0.06681614 0.0022802048
-0.02228606 0.023194468 -0.024831682 -0.0008003795 -0.030554017 0.014042158 0.0077311485 0.01873638
0.00030986115 0.022536878 -0.0052589793 -0.033004463 0.00894859 0.023610929 0.009572042 0.0013314806
0.0052996357 -0.035865042 0.022223487 0.010142892 0.010353196 0.013409572 -0.0072801583 0.018603107
-0.0025851035 -0.021227974 0.023869362 0.018568411 0.00018395043 0.023473367 -0.024455037 0.024907153
0.010134969 -0.013998031 0.026500558 -0.044262215 -0.027477682 -0.03080764 0.041166067 -0.006139093
0.04065952 0.00019384484 0.01877052 -0.03795838 -0.0022215447 -0.019315617 0.018062465 -0.028106252
-0.0035875351 0.0004591662 0.0005134316 0.026142307 0.011030196 0.029669216 -0.011322826 0.0031963994
-0.036712337 0.003131418 -0.0010597213 -0.031917542 0.044010434 -0.00702097 -0.058504805 0.0415505
0.009291108 -0.031449135 -0.02621229 0.022039479 0.054285556 0.012775636 0.020094953 -0.031855635
0.014068928 -0.07529419 0.0019690224 0.039880157 -0.015635194 0.020474525 -0.007543053 0.001862211
0.03281502 0.019213283 0.0047064545 0.020958727 0.025329918 0.032076944 0.017232304 -0.07383123
0.023500491 -0.026612999 -0.0017033104 -0.01081186 0.018920878 0.0011768745 0.016072933 0.0124884825

a2c_network.actor_mlp.2.weight f4 [128, 256]
00000000: 6a2f 94bb ef09 0fbe 0365 7cbd 004d 5bbd
00000010: 4e5b 783d 1fc2 1dbd 3db1 80bc 8df7 4f3e
00000020: 81f0 a73c 56c5 103e 3da8 9fbd 3895 f13c
00000030: acf5 5dbb 5c91 9b3d c10b 0bbe 37c6 cc3c
00000040: ebee 46be ffa7 ff3d 0dbc 063e fb9b 37bd
00000050: 0e05 aa3d e57b e23d f783 9abe d675 18be
00000060: 0a4e f73d b680 bebd 3435 013d 6cbd d73c
00000070: 84a7 adbd 2968 49bd 671a 91bb 2325 aa3c
00000080: d41b 4bbd a268 5dbc 81e0 bb3d 2edb 36be
00000090: 1dda 15be 4d01 4abd d532 08bd e9b5 85bc
000000a0: 52d2 01bd ed8d 0f3e b23f c1bc 36c3 6cbd
000000b0: c823 253d 39b4 90bd 0156 ab3d ea13 44bd
000000c0: 8ed8 923d 4a5d bebd c16d 7039 f8f3 bcbc
000000d0: bc9e ba3b 4ba5 3f3e 318c 92bd 34e2 913b
000000e0: 3036 aebd dceb 69bd 864b 9d3d 96f3 873c
000000f0: 366f 4c3d a01b 20bb 0dc3 f83d 6feb ecbd
00000100: 7fb2 cc3d 3baf f83d 4748 d4bd 706e a43d
00000110: 6522 703d 02b6 a73d 8799 ac3d 48a3 bc3d
00000120: 5f58 56bd 60e0 693d 8fba 993d 7cf8 8cbd
00000130: bac1 1ebd ea03 253c 456b aabb 4fd3 abbb
00000140: 6a41 1abd a5ab bc3d 3239 3dbd dc00 84bc
00000150: 2a75 883c b982 dbbc e959 0fbc 6b07 e23b
00000160: 70e1 11be 51ea 9abd 18d8 f33d 7ccc 5c3d
00000170: 0866 323d 707b ba3c d983 e3bc 09bd 12bd
00000180: 2400 47ba 37f9 c8bd 75f4 483c 10d0 443d
00000190: f201 80bd dfe5 85bd 1007 83ba 1e93 49bd
000001a0: 7bcd 543d 9622 c23d 6cb9 b43d 42a2 a53c
000001b0: 25c9 a2bc b0e6 633c d727 a4bd 4f0f 4dbd
000001c0: 590b 343e de7f ea3c ca0d 7f3b 8a4f e5bc
000001d0: f615 fcbc e00e 6e3e 5cd5 aabd 985b 413c
000001e0: 7552 11be d85d 673c 74c9 c2bd 8a34 fbbd
000001f0: 3714 313d 5ef5 a23d 517d fa3c 0af3 7d3c
00000200: 78fd 7ebd ef09 d63d 8730 9ebc d1ad c63c
00000210: a2f0 793c 4c2f 463d a036 a23d 4744 abbd
00000220: df1b 0a3d 2f2d 993d 8c89 05bc 5b56 ed3b
00000230: c75d c4bd 8e2e 3e3d 8721 4e3e 763a a3bd
00000240: 1cdc d43c bb19 f03d db13 bebc 90fb d03c
00000250: bace 12be 5ee5 c63c 40a4 793c 1e74 0abe
00000260: 3db0 af3d e65f 94bc 5b80 29be b788 f2bb
00000270: eb90 ed3d 7682 32bd 6493 91bd 149e 90bd
00000280: 152f f03c dc18 823d 3a5f 493d cacf c1bd
00000290: afd2 82bd 7dbf 0f3c 339e 143e 60ab 8bbd
000002a0: 3bd5 28bc c5e8 1cbe 587c b53d ac1d 323d
000002b0: 4c5a 873d 854d 393d 565d 1bbe a10e d23c
000002c0: fc7f 84bd bfb3 f1bd f6fb 623d ab62 febd
000002d0: 1d69 4fbd 210c 45bd c902 c8bd dfb0 ebbd
000002e0: 221f e03c 008b 9a3d 3a18 2c3c f4b5 19bd
000002f0: 1580 81bd aa9e 9c3d b846 fcbc f7ee 763d
00000300: af58 70be cda3 5b3c 0676 62bd c06f 82bc
00000310: 3b7b 403c b644 38bc 5a16 41bd 093c da3d
00000320: e093 26bd 24a8 8d3d 011e 94bd 5392 a9bc
00000330: ce79 103d 9e07 ae3d a1b4 063e 4246 0fbe
00000340: 4f45 babd 44a2 99ba 1c16 cf3b ed7f 2abc
00000350: 01ce 14be f3a8 88bd 286a e93b 9638 82bd
00000360: 7d3c e1bd 7381 f63d 1623 bbbd 8430 a4bb
00000370: 9580 9cbd 2dde 1cbd 9874 183d 5bdc a03a
00000380: aa33 1abe 312b c93d dbf8 da3b 6097 f63c
00000390: 82b8 ad3c 6a7f af3d 4b8e 9cbc acfc 363d
000003a0: b2a4 623e e061 3abc 0020 97bd 5391 7dbc
000003b0: 79a1 683d 6f9e 2abe 3bd5 663d a7e4 193b
000003c0: 93ae 77bd e69a b9bc 7ab0 623d 2071 a93d
000003d0: 19be 5dbd 1ff7 9d3c 47ac 0a3d 7275 0b3e
000003e0: e2a9 6abd 699e 68bd 6ed3 49bd b8e2 a43d
000003f0: ec2a e23d 62f5 c8bc 996e ffbc bedb 5fbb
-0.0045222538 -0.13968633 -0.06161977 -0.05354023 0.06063395 -0.038515206 -0.015709514 0.20309277
0.020500423 0.14137778 -0.07795761 0.029490098 -0.0033868356 0.075960845 -0.13578703 0.02499686
-0.19427077 0.124832146 0.13157673 -0.04482649 0.08301745 0.11058787 -0.30178806 -0.14888701
0.12075432 -0.093018934 0.03154488 0.02633544 -0.08479217 -0.0491716 -0.004428196 0.020769661
-0.049587086 -0.013513716 0.0917368 -0.17857048 -0.14633985 -0.049317647 -0.033251602 -0.016322093
-0.031694718 0.14018984 -0.023589943 -0.057803355 0.040317327 -0.07065625 0.08366013 -0.047870554
0.07170211 -0.09295137 0.0002292907 -0.023065552 0.005695192 0.18715398 -0.07155646 0.0044520143
-0.08506429 -0.0571097 0.076804206 0.016595643 0.049910747 -0.0024430528 0.12146578 -0.11568343
0.09994983 0.121427976 -0.10365348 0.08028877 0.05862655 0.08189012 0.084277205 0.09210831
-0.05233037 0.057098746 0.07506286 -0.06883332 -0.03875897 0.010071734 -0.005200776 -0.005243696
-0.03766004 0.09212426 -0.046197124 -0.016113691 0.01665743 -0.026795732 -0.008749464 0.006897857
-0.14246154 -0.075642236 0.11906451 0.05390595 0.043554336 0.022763938 -0.02777283 -0.03582481
-0.00075912685 -0.09813159 0.012265314 0.048049986 -0.06250371 -0.06537985 -0.0009996612 -0.049212568
0.051953774 0.09479253 0.08824429 0.020218972 -0.019871304 0.013909981 -0.08015411 -0.050063428
0.17582454 0.028625425 0.003891813 -0.027992029 -0.03077219 0.23247862 -0.08341476 0.011801623
-0.14191611 0.014121495 -0.095110804 -0.122658804 0.04323217 0.07956956 0.030577334 0.01549984
-0.062253445 0.104511134 -0.019310249 0.024252804 0.015255125 0.04838495 0.07920575 -0.08362632
0.033717986 0.07479321 -0.0081504695 0.0072429604 -0.09588199 0.046431117 0.20129977 -0.07970135
0.025983863 0.11723658 -0.023202827 0.02551058 -0.14336672 0.024279293 0.015236914 -0.13520858
0.08578537 -0.018112134 -0.1655287 -0.0074015516 0.115999065 -0.04358145 -0.07108191 -0.07061401
0.029319325 0.06352398 0.04916308 -0.09463461 -0.06387841 0.008773682 0.14513473 -0.068197966
-0.010304744 -0.1532317 0.08861607 0.04348533 0.0660902 0.045239944 -0.15172324 0.025641741
-0.064697236 -0.11801862 0.05541607 -0.12421163 -0.050637353 -0.04810727 -0.09766156 -0.11508345
0.027358595 0.075460434 0.010503823 -0.03752704 -0.06323258 0.0764745 -0.03079544 0.06028649
-0.2347133 0.013405752 -0.055288337 -0.015922427 0.01174813 -0.011246851 -0.047140457 0.10655982
-0.04066837 0.06916836 -0.07232285 -0.020699656 0.035272412 0.084975466 0.13154842 -0.13991645
-0.09095251 -0.0011721333 0.0063197743 -0.010406476 -0.14531709 -0.066728495 0.0071232505 -0.06358449
-0.10997865 0.12036409 -0.091375515 -0.0050106663 -0.076417126 -0.03829782 0.037220567 0.0012272702
-0.15058771 0.09822691 0.006682498 0.030101478 0.021206144 0.08569224 -0.01911082 0.04467456
0.22133139 -0.011375874 -0.073791504 -0.0154765425 0.056794617 -0.16662 0.056355696 0.0023482235
-0.06046922 -0.02265687 0.055344082 0.0827353 -0.05413637 0.019282876 0.033855703 0.1361902
-0.05729092 -0.056791697 -0.0492739 0.08051056 0.11043343 -0.02453107 -0.031180667 -0.0034158076

a2c_network.actor_mlp.2.bias f4 [128]
00000000: d273 efb8 5be2 013d f475 54bb 0321 32bd
00000010: e344 61bc 85cf 2cbd 72fe ed3c 786f 16bc
00000020: 620a 8dbd 9827 d0bc 8696 c6bc ec9b 05bd
00000030: e50d ca3b 9524 66bd 8bbe a4bc 4c51 d6ba
00000040: ea66 8bbc 9472 4cbd dd8e 9a3c 2b4a 363c
00000050: 8264 14bc 3596 dbbd 910d 873d cc6a a53c
00000060: 93d1 a83c cf38 36bd d93b 3cbd 22c4 5f3d
00000070: 6dde 023d 466d b5bc 7fd5 093b 6577 3d3c
00000080: 9471 133d 56f0 f4bc a700 22bd 7c9e 2ebd
00000090: 0e76 33bc 3824 553c 1606 c83c 20b3 37bd
000000a0: 1eeb fabc f047 b1bc 06f8 353d 6bb6 acbc
000000b0: 8bda 35ba be16 003c 0480 b9bb e481 cc3c
000000c0: 440c 47bc a3ed 743d 321d 00bc 6b33 fc3c
000000d0: adee 483c a710 39bd c3df 8abb 229b bdbc
000000e0: af09 01bd fea3 84bc 79c0 2f3d d12d da3c
000000f0: f248 8bbc ecbf 35bd cadb 38bd f59c 29bb
00000100: b617 ddbc d170 81bc 732e 183d 4faf 9abc
00000110: 406e d23c a6ab c53c efca 033c ee1f 523c
00000120: c038 b8bb 6f94 a3bc 8ed3 ce3b 40df 00bd
00000130: c6da d7bd 8230 593d 9855 e83a 3206 1abd
00000140: 380a e1bd 4f39 0cbc a454 1b3d 934e 243d
00000150: e3d0 2b3b b7a3 5ebb efa1 83bb 2ba7 8fbc
00000160: d761 b13c 0486 1f3d 7328 68bc 687d 2dbd
00000170: 55f6 64bd c544 3dbd d6e7 83bd 5dd1 1dbd
00000180: 0bc3 b53c 8784 dfba 3682 fdbc 5f7f b8bc
00000190: 4614 0abd 07c4 d0bb ba8c 48bc 25da a7bd
000001a0: 47f9 a2bc a834 043d ed53 98bb 0779 07bc
000001b0: 3775 723c 0abc 49bd 255b 9bbc 1e32 3dbc
000001c0: f6e7 0bbd 0c74 753c 49c3 58bd 8e70 5a3c
000001d0: d742 56bc bb01 69bc 27ce 4ebc 415f e0bc
000001e0: d5d6 febc 3e07 a93b edc2 d9bd 0183 dabc
000001f0: 7e66 a3bd 0801 793a 6071 33bd 8416 71bd
-0.00011417981 0.03171001 -0.0032418938 -0.043488514 -0.013749334 -0.042190094 0.029051993 -0.00918185
-0.06886746 -0.025409505 -0.024241697 -0.0326194 0.006166207 -0.05618723 -0.02011039 -0.0016351133
-0.017016847 -0.049913958 0.01886695 0.011126081 -0.009057166 -0.10722009 0.065943845 0.020192526
0.020607745 -0.04448777 -0.045955513 0.054630406 0.031950403 -0.022146832 0.0021031795 0.01156411
0.03599699 -0.029899757 -0.039551403 -0.04263161 -0.010953439 0.0130091235 0.024416965 -0.04484856
-0.03062969 -0.021640748 0.044425987 -0.021083077 -0.00069371675 0.007817922 -0.0056610126 0.02496428
-0.01214892 0.05979694 -0.007819461 0.030786237 0.012263936 -0.045181897 -0.0042381003 -0.023145262
-0.031503376 -0.016191479 0.042908166 0.026633175 -0.017002556 -0.044372484 -0.045131482 -0.0025880907
-0.026988845 -0.015800865 0.037153672 -0.018882422 0.025687337 0.0241297 0.008043989 0.012824995
-0.0056219995 -0.01996824 0.0063118404 -0.031462908 -0.105397746 0.053024776 0.0017725704 -0.037603565
-0.10988277 -0.008558585 0.037922516 0.040113997 0.0026217035 -0.0033972093 -0.0040171067 -0.017535767
0.021653099 0.038946167 -0.0141698 -0.042355925 -0.055898983 -0.04620816 -0.064407036 -0.038529743
0.02218773 -0.0017053046 -0.030945878 -0.022521673 -0.03371074 -0.0063710245 -0.012240583 -0.08195905
-0.019894255 0.03227678 -0.0046486766 -0.008268601 0.014798454 -0.049251594 -0.01896436 -0.011547593
-0.034156762 0.014981281 -0.052920613 0.013332499 -0.013077459 -0.014221604 -0.012622393 -0.02738917
-0.0311083 0.005158334 -0.10632882 -0.026673796 -0.07978533 0.000949875 -0.043809295 -0.058859363

a2c_network.actor_mlp.4.weight f4 [128, 128]
00000000: 3e47 813e e972 0bbe f3e4 453d f8f0 6bbe
00000010: 3334 71bd 1d3a 48be 9e8e 9ebd 4eb0 5d3c
00000020: 2482 5d3e 6958 15be 1b39 153e 31b2 953d
00000030: b93d 21bb 73f9 35bd 142b 1e3e ef2d 1abd
00000040: af22 1e3e b1de 44bd 4c0f 043d cc36 f6bc
00000050: 42dd 85bd ecaf 5c3e 0fff 903b 08e9 39bc
00000060: 8a05 7b3e 52fe 6dbd f550 21bd 313d 223e
00000070: 4b7a 893d 582e 283d 96e9 7fbd e655 85bd
00000080: 881c 143e dce5 8dbd 18bc 6a3e 2aa3 dfb8
00000090: 3a0b d73d 8391 8abd 8c10 003c 2dee 1c3d
000000a0: 5bfd 4dbc 8566 813c ec4a 0c3d 836c 1d3e
000000b0: 4e2e 973c bb8b 493e d693 e53c d706 bebb
000000c0: 3b22 fd3d 8940 bc3d 8abf c43d 5773 8b3d
000000d0: 0022 023e ee08 153d b64c 883d 4b73 91bc
000000e0: 62db 033e a533 ac3d 86de 1b3a 66e2 05bd
000000f0: ed11 5fbe 9c24 bc3d da28 7c3c 5f3c 08be
00000100: 5f03 493d 15a4 963e 6e80 eebd 4df5 8bbe
00000110: 11a2 a1bd 57a8 cbbd 2b3c bf3d d86c 45be
00000120: 01fa 713e ab78 c43d 70a8 df3d 2b4f 72be
00000130: 0f9b ed3b b192 dbbc cb06 8ebc 82c6 4a3e
00000140: 167e 153d 4f07 403d 2e50 943e 4cea 0139
00000150: 38d6 b73d 420c 473e 35c7 2fbe 074c 8c3c
00000160: 1cdd b9bd 2dc5 e2bd 2580 bc3d c024 0fbe
00000170: 12a2 bdbc 1f2a 21be 9d82 2ebc 0af5 c03a
00000180: 4c56 c1bd 23c2 2e3e 30bc 04bd 3b3e 913c
00000190: 28ed d1bc b8b7 cfbd e1a7 263e aea8 1b3e
000001a0: 2cfe 303e 2698 173e 94c2 37be 1b7c 353e
000001b0: 3a1f 8fbd 9c0a 423d bb59 22be 42db adbd
000001c0: 8c9b 6a3d 7ea9 ce3d 84c5 1ebe f89f dfbd
000001d0: 5afe 99bd 5600 b0bd 2347 cbbc 4d62 433c
000001e0: 941c 5cbc 335e 1bbd 5ea7 02bd 2e5b 2c3e
000001f0: 0ff1 1abe 401e 033e 3c43 383d 2443 b1bc
00000200: 449f 65be e00c 0b3e 9767 f23c 25ed bc3d
00000210: 4610 5bbc 4c8c 07be d8ff 543d db17 123d
00000220: d410 483c b998 0cbe b860 8ebc 021d 84bd
00000230: 3233 083e 58cc 87be e9b8 e4bd 3132 5e3d
00000240: b16a adbd ad56 fc3d 36a4 2ebe 7f39 d63b
00000250: 7d77 4ebd 119d bdbd 0f5b 1dbd ab0a 783d
00000260: 573b 9dbd d053 17bb d2aa 8abd 9f41 0dbd
00000270: 7038 32bd aa1e d7bc c37a e83c 031a c6bd
00000280: a408 693d 733f 693d 0066 39bd 729f 8dbe
00000290: 4c7c e33c be9a a9bd bf3b f9bb e856 eabc
000002a0: a6e2 353d 50bc 33bd 33f7 94bc 6a57 1bbd
000002b0: 7622 e5bd 2395 31be c1d4 2ebb e556 05be
000002c0: 8483 823d 17fc 0a3e 1af7 00be 1adf 4cbe
000002d0: 0bb0 773e e651 9b3d be46 2ebe 836b c63c
000002e0: 9b83 25be 8d47 8e3d 172e 543e f83b 973a
000002f0: 805c 303c 3670 febd 3cc5 d1bd cd58 38be
00000300: 9bee 9abe f650 103d 2108 a73d 1df8 e63c
00000310: 13b3 d0bc f63a a4bb 2fd8 6cbd a3c0 103e
00000320: a39a 63be ee44 99bd 0897 933e a31c d83d
00000330: 6293 4cbd fd99 023e 5881 4fbe 8489 dd3d
00000340: 78a1 f0bd 5994 843c 4ae1 423d dc7c f7bd
00000350: b986 5bbd 7a54 0abe 5451 0dbd 6b45 c6bd
00000360: 0352 fd3d 7710 78bc 6ba2 f1bd ec1b 8a3d
00000370: 5e7b 67bd dc71 a43d 3c8f f4bd 5698 03bd
00000380: 6fa9 ac3c 252b 67be 5cc4 a5be 0544 bf3e
00000390: 3277 adbd d3be cabd 2046 973c e5ff 21be
000003a0: 1d07 a8bd 28a6 f83d 4ebc 393d a24d b7b9
000003b0: d0c7 2abe 0621 2fbe 7d7c 173c 0550 883e
000003c0: beff b3bc e4fd ae3d 0fcd fc3d 93f0 d63d
000003d0: da3b a6bd f963 8c3d 1624 0ebe 7297 f2bd
000003e0: 7ef9 4abe 42e2 35bd 606f 4bbe 88f1 913c
000003f0: 1c99 43bd e9e5 9abd af23 da3d 7a7c 69bd
0.25249666 -0.13618053 0.048314046 -0.23041141 -0.05888767 -0.19553418 -0.07742046 0.013530804
0.21631676 -0.14584507 0.14572565 0.07309378 -0.002460344 -0.044427346 0.1544612 -0.037641462
0.15442918 -0.048063938 0.03224115 -0.030055426 -0.06536342 0.21551484 0.0044249366 -0.011347063
0.24513832 -0.058103867 -0.039383847 0.15843655 0.06712779 0.04105982 -0.062478624 -0.065105245
0.14464009 -0.06928608 0.22923315 -0.0001066386 0.10500188 -0.067660354 0.007816445 0.03831308
-0.012572612 0.015795955 0.03425114 0.15373425 0.018454697 0.19682209 0.028024595 -0.005799155
0.123600446 0.091919966 0.09606846 0.06809109 0.12708282 0.03638547 0.066552565 -0.017755171
0.12876657 0.08408288 0.00059459393 -0.032686614 -0.21784182 0.0918667 0.015390599 -0.1330428
0.04907548 0.2942206 -0.1164559 -0.27335587 -0.0789224 -0.09944218 0.09337648 -0.19279802
0.23630525 0.09593328 0.10920799 -0.23663013 0.0072511504 -0.026803346 -0.017337224 0.19802287
0.036497198 0.04688197 0.28967422 0.00012389681 0.08976406 0.1943827 -0.17165835 0.017126096
-0.090753764 -0.110727645 0.09204129 -0.13978863 -0.02314857 -0.15738724 -0.010651258 0.0014721465
-0.09440288 0.17066245 -0.032406032 0.01772987 -0.02562578 -0.101424634 0.16274978 0.15201065
0.17284459 0.14804134 -0.1794532 0.17723124 -0.06988378 0.0473734 -0.15854542 -0.08489086
0.057277247 0.10090922 -0.15505034 -0.109191835 -0.07519217 -0.08593814 -0.024814194 0.011925292
-0.013434548 -0.037931632 -0.031897895 0.16831657 -0.15131019 0.12804508 0.044985995 -0.02163846
-0.22424036 0.1357913 0.029590411 0.09224919 -0.013370579 -0.13237113 0.052001804 0.03566728
0.012211043 -0.13730134 -0.017380103 -0.06450845 0.1330078 -0.2652309 -0.11168081 0.054247085
-0.084676154 0.123212196 -0.17054829 0.006537616 -0.05040692 -0.09258474 -0.03841692 0.06055705
-0.07677334 -0.0023090728 -0.06770863 -0.03448641 -0.043510854 -0.026259739 0.02837885 -0.0967293
0.056893006 0.056945276 -0.04526329 -0.2766071 0.02776923 -0.08281468 -0.0076059992 -0.028605893
0.044405602 -0.04388076 -0.01818428 -0.03792516 -0.111882135 -0.17342047 -0.0026677104 -0.13021429
0.06372741 0.13572727 -0.12594262 -0.20006981 0.24188249 0.0758398 -0.17019174 0.024221187
-0.16163485 0.06947241 0.20720707 0.0011538258 0.010764241 -0.12423746 -0.102426976 -0.18002625
-0.30260167 0.03523346 0.08155847 0.028194482 -0.025476014 -0.0050119115 -0.057823356 0.14135985
-0.22226958 -0.074838504 0.28826165 0.10552337 -0.049945243 0.12754054 -0.20264184 0.10817245
-0.11749548 0.016184019 0.047578134 -0.12084362 -0.05359528 -0.13508788 -0.03450139 -0.09681209
0.12369158 -0.015140644 -0.11798557 0.06743607 -0.056514136 0.080295295 -0.11941382 -0.0321277
0.021076886 -0.22575052 -0.32376373 0.37356582 -0.0847 -0.09899678 0.018466055 -0.15820272
-0.08204482 0.12141067 0.045345597 -0.0003496232 -0.16677785 -0.17102441 0.009245989 0.2662355
-0.021972533 0.085445195 0.12343799 0.10495105 -0.081168845 0.06855006 -0.13880953 -0.11845292
-0.19821736 -0.04440523 -0.19866705 0.017815366 -0.04775344 -0.07563383 0.10651337 -0.057003476

a2c_network.actor_mlp.4.bias f4 [128]
00000000: 4ad8 8cbd 9800 43ba 1290 f6bc a166 1dbd
00000010: c52e 1abc 1352 70bd 7bfe 7d3c 20e5 1b3c
00000020: f40b 4bbd bb70 61bd 2b26 1bbe 6445 893c
00000030: 3298 91bc 6411 95bd 7b4d c6bd c17f 97bd
00000040: e955 993d b38e fdbb a2be 69bb bbe2 2c3b
00000050: 0f1a 25bb fcf5 9ebd 02b5 483c 688d 90bd
00000060: ed86 bbbd f774 393c 832e 003d 5302 85bd
00000070: 496e e8bb 0083 82bd 13b8 b23d 5fb2 bcbd
00000080: a793 bfba 996c 0b3d 2e67 adbc 660a b7bc
00000090: a9a0 693b 8cbf 2dbd 7dc0 f83b 0319 863c
000000a0: 7500 dabd df2e 52bc 18e7 05bd 6c41 943d
000000b0: a373 bdbd 4656 3bbc 15da 24be 66bc 0abd
000000c0: 0df5 e83c 788e 89bc b9b9 aebd b0bf c43c
000000d0: bb1d 303c f6a3 223d da6b 783c ec3f 3b3d
000000e0: e2ba f1b9 67e6 703c f2a9 f63a 50ec acbc
000000f0: 6041 093d e21c 6c3d f89e 51bd 17dc 3fbd
00000100: 5038 b23c 2e95 1e3d bfe5 2dbd 03bf 603d
00000110: 4562 5bbd b919 cabb e2e4 1cbe 7a7f 643c
00000120: ac71 c53b 5e4e c13d 548b 89ba c97b cdbc
00000130: 10ac 1c3b 3088 e2ba b976 3dbd 5a3e 81bc
00000140: 0e87 113d 91e6 80ba 9810 993c 79b8 85bd
00000150: 6836 ab3c 2902 bebd b3c3 cfbd 9726 1ebe
00000160: e673 e3bd 9999 62bc 1146 96bd 4e06 90bd
00000170: 09e4 0bbd b09f 26bd a877 41ba a130 5dbd
00000180: 5c85 21bd aeba 5ebb 6262 e2bd db38 23bd
00000190: 57c8 71bb 4111 bdbd ab4f 76bd 182b a73d
000001a0: 9a11 81bd de8e ae3c 2732 fa3c 8379 ddbd
000001b0: b404 3dbd 48a4 663b 3a88 423d d56c 11bd
000001c0: 9b1f ca3b c95a 9fbd c76d 3abd afd1 6dbd
000001d0: 142f 47bd a9c9 fcbc 540a 96bd 2e2d 23bc
000001e0: 61cc e3bc 2a62 bd3c ab03 9c3d 7ee6 c1bd
000001f0: c5b9 22bb 15d0 2fbd cab2 42bc b315 b03b
-0.06877191 -0.0007438748 -0.030097995 -0.038427953 -0.009410565 -0.058672022 0.015502567 0.009515077
-0.049571946 -0.05503915 -0.15151279 0.01675672 -0.017772768 -0.072787076 -0.09682747 -0.07397414
0.07487089 -0.0077379583 -0.0035666605 0.002638026 -0.0025192534 -0.077617615 0.012250187 -0.07058221
-0.091565944 0.0113193905 0.031294357 -0.06494584 -0.007093225 -0.063726425 0.087265156 -0.09213709
-0.0014616147 0.034039114 -0.021167364 -0.022343826 0.003564874 -0.042419 0.0075913058 0.016369348
-0.106446184 -0.012828558 -0.03269109 0.07239041 -0.092505716 -0.011434143 -0.16098817 -0.033871077
0.028437162 -0.016791567 -0.085315175 0.024017185 0.010749276 0.039707147 0.015162433 0.045715258
-0.0004610634 0.01470337 0.0018818958 -0.021108776 0.033509612 0.057644732 -0.051176995 -0.046840753
0.021755368 0.038716488 -0.04245543 0.054869663 -0.053560514 -0.006167617 -0.15321687 0.013946408
0.0060255136 0.094387755 -0.0010493794 -0.02508344 0.0023906268 -0.0017283019 -0.0462558 -0.015776802
0.03552919 -0.0009834339 0.01868467 -0.06529326 0.020899966 -0.09277756 -0.101447485 -0.15444408
-0.1110609 -0.013830566 -0.07337583 -0.070324525 -0.03415302 -0.040679634 -0.0007380196 -0.054001454
-0.039433822 -0.0033985781 -0.11053921 -0.039849143 -0.0036893093 -0.092318065 -0.06013457 0.08162516
-0.06302185 0.021308359 0.030541493 -0.10814192 -0.046147063 0.0035193134 0.047493197 -0.03550418
0.0061683184 -0.07780988 -0.045514848 -0.058061298 -0.04862888 -0.030857878 -0.07326189 -0.009959502
-0.027807416 0.023118097 0.07617887 -0.09467791 -0.0024829966 -0.042923052 -0.011883447 0.0053736805

a2c_network.value.weight f4 [1, 128]
00000000: 4b7d bdbc 48d6 133d 563e f8bb ddc4 573d
00000010: d515 793b 47a6 773d 774f db3c 3a40 003e
00000020: 0719 db3c 7341 02bd fe27 0e3e 9095 c6bc
00000030: daf0 50bd 7650 083d c2da ae3d 75c2 783c
00000040: 36dd aa3e 4c7c 09bd 9c88 3c3e a2dc 1b3e
00000050: f562 9ebb 900f c33b 4ad4 933d c50c ac3d
00000060: c9dd 083c 9fbb 85be 8d06 be3c 9b4b 97bd
00000070: f9dd e5bb debb a3be bfb9 8c3c 7784 003d
00000080: e6da 193d 9f77 1f3c d1db 3c3d 8ca8 8b3c
00000090: e9f0 773b ab67 4f3d c629 cd3b ca75 393e
000000a0: 86e2 b33c b297 96bd 5b17 473e cef4 c13c
000000b0: 838f 96bc 683e a4be 1577 53bd 96a2 a8bd
000000c0: 8454 c6bc 46e4 373d 125b 1cbc 6db4 7f3e
000000d0: fc55 ddbc aa4f 3e3e 0d43 b13d a185 073e
000000e0: e252 aebe 9422 793c 3b11 063a fbdf fcbb
000000f0: 7e74 17bd ba76 82be 00cb ed3c 47ba 393d
00000100: ab2b 24bd 04aa febc 275e d3bc 8a14 8cbc
00000110: d813 2c3d 8aff 7abd f128 3bbe 17a9 bd3d
00000120: 8fa5 efbd f63a 96bd 13ac 323d d44b 82bd
00000130: 2f02 b1bb 0202 463d d054 cdbc 788d 03be
00000140: 6246 0f3d e378 a63d 431c b33d 5f83 28bd
00000150: df38 30bd af7d a7bc 5a4a 65be fefc 80bc
00000160: 906f 89bd 8854 6ebb 32a8 22bd 8f4c 40bd
00000170: 15c3 113b f34c 96bd 0e0c 313c b58c bbbc
00000180: 4d72 aa3c ef35 b6bd ec00 7e3d b36f 7d3c
00000190: 7563 d93c 7baa d63d 476a e7bc d3ab aabc
000001a0: 5afa 95bd d462 b2bc 9d7c a5bc b859 babe
000001b0: 4388 eaba 1263 85bd d5c6 0fbd 290c f23b
000001c0: 7cf9 833d 90a7 2bbd a6f1 f7bd 17ff 2a3d
000001d0: 15ea 833d 65fc 64be d662 d0bc d4e7 883c
000001e0: f84f fb3d 6670 343c 75bc 62bd 7fde 23be
000001f0: a12c ef3b aa63 093d 396c 0cbe 3146 523d
-0.023131033 0.036093026 -0.0075757904 0.052677978 0.0038007398 0.06046131 0.02677129 0.125245
0.026745332 -0.0318007 0.13882443 -0.024241239 -0.051010944 0.03327986 0.085378185 0.015183081
0.33371896 -0.033565804 0.18411487 0.15220883 -0.004833574 0.005952783 0.07218225 0.08400873
0.008353659 -0.26119706 0.023196483 -0.073874675 -0.0070149866 -0.3197927 0.017178414 0.03137633
0.037562273 0.00973311 0.04610807 0.017048143 0.0037832803 0.050635975 0.0062610833 0.18111339
0.0219586 -0.07353152 0.19442503 0.023676302 -0.018378979 -0.32078862 -0.051627237 -0.08234136
-0.024210222 0.044895433 -0.009543197 0.2497117 -0.02701854 0.18585077 0.08655367 0.13234569
-0.3404761 0.015205998 0.0005114262 -0.0077171302 -0.03697633 -0.25481206 0.029027462 0.045343664
-0.040080708 -0.03108693 -0.025801731 -0.017099638 0.042011112 -0.061278857 -0.18277337 0.09260767
-0.117015 -0.07335465 0.043621134 -0.06362119 -0.0054018716 0.04834176 -0.025064856 -0.12846935
0.03497923 0.08128526 0.08745625 -0.04114091 -0.043022987 -0.020445673 -0.22391644 -0.015745636
-0.06710732 -0.0036366303 -0.039711185 -0.046948012 0.0022241522 -0.07338896 0.010806097 -0.022894243
0.020806456 -0.08897006 0.062012598 0.015468526 0.026536683 0.10481735 -0.02824892 -0.020833885
-0.073231414 -0.02177564 -0.020201022 -0.36396575 -0.0017893392 -0.06513037 -0.03510173 0.0073867035
0.0644407 -0.041907847 -0.12106638 0.04174718 0.06441132 -0.22361906 -0.025437754 0.016712107
0.12271112 0.011013126 -0.055355508 -0.16002844 0.0072990214 0.033542313 -0.13713159 0.05133647

a2c_network.mu.weight f4 [10, 128]
00000000: 9c17 0ebe acc6 dabc 65a5 073e ae0f a23d
00000010: a280 893d 935c 91bc 63ec dcbd b832 54bd
00000020: dcd9 75bc d23a a4bc fc86 bebd c1b6 b7bd
00000030: d239 22bd faaa 7d3d dabc c63c 1851 073e
00000040: caec 033d 8360 f6bc d63a c5bc e4c9 263d
00000050: 7c9a 29bd b216 823d a15c 53bb 18ea babc
00000060: 8618 703c 9e0c d03d fd7c f1bd da97 ec3c
00000070: e033 19bd acd8 163d 5a18 4f3c 2eb2 173d
00000080: e5fd 9cba 1d2a 2ebd 0c0f dcbc d179 53bb
00000090: 61e4 bd3b d7a4 553d 2e42 723c bad8 59bd
000000a0: a03e df3d a433 93bd ecf9 66bc 54f6 0bbd
000000b0: d308 dc3c 913d 1a3d 5c51 afbb cc58 b7bd
000000c0: 698f 363d 6787 f6bb bd17 42bd 8f34 8fbd
000000d0: 6015 08be da33 ad3d 9936 eabd 4fed 02bc
000000e0: 0512 6d3d 6b25 963d e76b 6fbd c3d4 b53d
000000f0: 15ce a9bc 7ef3 8f3d d620 b9b9 2c12 103e
00000100: 53f6 363d 857e 513d 2c34 cb3a 4215 67bd
00000110: fed3 97bc a5f2 b43d 77b6 5bbc aed2 bf3d
00000120: c4ee 0b3e ea0f 2ebd 2523 24be 3c71 57bd
00000130: 2486 07be 1f68 80bc d663 073e dadc 86bd
00000140: a309 97bc 21d9 7cbc 41f4 cdbd 0e65 ddbc
00000150: 4a51 053d 96a5 c03c 6f0d 50bd 339e 7cbd
00000160: 755d 9d3d c047 2a3d 67b5 5a3c d0f9 9e3d
00000170: dbb9 d4bd 8c70 f539 7c86 f03d 738f 6c3d
00000180: 776b fb3d 0805 0bbe 40e3 39bd ab8c 543d
00000190: 31a9 393d f6ee 8e3d a10e 27be 1dc6 173d
000001a0: 0318 973b 9a87 863c 0f20 bebd 536e 113d
000001b0: f82a 1e3d 048f bb3d 769d 0dbd 6dc8 b83d
000001c0: 8d34 54bd 0ad0 1d3d 844b 83bd 1285 263e
000001d0: 290e 8ebd 033d dcbd 55dc e23d baa9 7bbd
000001e0: e990 053d db96 bdbd c09b 10bd 6e10 d43d
000001f0: bb1f 723d df4a b53d 34f8 e5bb 4827 c63d
00000200: 26e4 23be 11cc cc3d d56a 613c ce72 bd3c
00000210: a428 22be 9702 ef3a 074d 923d 428b ec3d
00000220: 1299 b6bd 77ea 6cbd b76d 31be 7b7e fa3d
00000230: b1c0 8f3d dbab ba3b fa70 a6be 7dcf 10bd
00000240: 0887 be3d f239 133e cff0 e8bd 776c 01bc
00000250: 87cd 263e a697 3e3d 0cdb e33d 3c92 40bd
00000260: 6e31 2bbe 3c12 f7bc 114d 8d3d 6fb0 e5bb
00000270: 29d8 25bc ce6d 8abd e61a f93d 3be7 c9b9
00000280: 8c2e 9fbd aa51 09bd 547c 033e b9e8 5a3d
00000290: 8086 f7bd 3490 8a3d b83f b6bc 1516 23be
000002a0: 4b34 87bd aa9f 8e3d f542 953c d8b2 9a3d
000002b0: 32a3 9ebc 215e 3a3d 63b9 a9bd 0272 80bd
000002c0: 99ef 8f3d b4b7 293e 1691 4cbe 117d 6f3b
000002d0: a21d 913d c904 fd3c 8768 ac3d fb4d 703d
000002e0: 9e11 7f3e 5e5b 12be 17dc 833d 7ed2 123e
000002f0: 88d6 6b3d 9f1b acbc e534 05bd 907a a13c
00000300: a630 fd3d 6db3 f63d ce44 8fbd a8c8 043e
00000310: 2da0 9ebd 3fc4 e63d 13a9 9fbd da4a c53d
00000320: 25b0 94be 89a5 413e dbeb c4bb 12b5 983d
00000330: 8ab8 c63d 5df0 493e a722 1ebe 0dcf f53d
00000340: 921d 1d3d 2288 9d3e ba03 99bd 8f2c 66bd
00000350: 7ab9 04be d1d1 43bd 8943 0abe 5c91 8fbe
00000360: 1b16 a6bd 7758 043e d713 a6be eafe 8a3d
00000370: 2380 f63c 3488 1e3d da8b 323b 0e0f cebb
00000380: 1ddc 3c3d ad38 1e3b 2bfa 7cbd b9c9 34be
00000390: a199 233c 0799 4fbe 9c84 15be c901 cb3d
000003a0: cdee 9c3c d483 d7bd ddfc 543c ea2d bdbd
000003b0: 14d9 b9bd 16f2 873c 010c d43c 3abf 8bbc
000003c0: aac6 053c 071e 153d 395f d7bc 3b98 36be
000003d0: 0c94 2dbe d1e2 1b3e 3657 953a f46c 073e
000003e0: 79bb 0abd c323 1f3d 89c6 b83d db81 d6bd
000003f0: ed3d 4e3d 6f37 28bd e2d1 73be 93e0 f13d
-0.13876194 -0.026706062 0.13246687 0.07913147 0.06713988 -0.017744338 -0.10787275 -0.05180618
-0.015005555 -0.020047579 -0.0930309 -0.089704044 -0.039605923 0.061930634 0.024259973 0.13214529
0.03220824 -0.030075317 -0.024075907 0.04071988 -0.041407093 0.06351985 -0.0032251256 -0.022816703
0.014654284 0.101586565 -0.11791418 0.028881002 -0.037402987 0.03682773 0.012640083 0.03703516
-0.0011977522 -0.04252063 -0.026862644 -0.0032268653 0.005795047 0.052159157 0.014786286 -0.053185202
0.10900617 -0.07187584 -0.014097672 -0.034170464 0.026859676 0.03765637 -0.005350275 -0.089524835
0.04457036 -0.0075234654 -0.04738592 -0.06992447 -0.13289404 0.084571555 -0.11436195 -0.007991149
0.057878513 0.07331356 -0.058452513 0.08878472 -0.02072815 0.07028864 -0.00035310414 0.14069432
0.044668507 0.05114605 0.0015503219 -0.056416757 -0.018533703 0.08835343 -0.013410202 0.09366356
0.136653 -0.042495646 -0.16029032 -0.052598223 -0.13234764 -0.015674649 0.13221678 -0.06585093
-0.018437212 -0.015432627 -0.10056353 -0.027025726 0.032548226 0.023516458 -0.05079406 -0.061674308
0.07683841 0.041572332 0.013348914 0.07762492 -0.103870116 0.00046813895 0.11744401 0.05775399
0.12276357 -0.13576138 -0.045382738 0.051891964 0.04532737 0.06979172 -0.16314174 0.03705417
0.0046110167 0.016422082 -0.092834584 0.035505604 0.038615197 0.091581374 -0.034573995 0.09022603
-0.05180793 0.03852848 -0.06410888 0.162617 -0.069362946 -0.107538246 0.11077181 -0.06144116
0.0326089 -0.09257289 -0.035304785 0.10354696 0.05911229 0.08852171 -0.0070181135 0.09675461
-0.16005 0.0999986 0.013758381 0.023126032 -0.15835816 0.0018235025 0.07143598 0.11549999
-0.089159146 -0.05784079 -0.17327009 0.122311555 0.07019175 0.0056967563 -0.3250807 -0.035354126
0.09303099 0.14377573 -0.113740556 -0.007899395 0.1628934 0.046531342 0.11125764 -0.04701446
-0.16718075 -0.030160062 0.06899465 -0.007009558 -0.010122337 -0.06759225 0.121633336 -0.00038509988
-0.0777255 -0.033525147 0.12840396 0.053444598 -0.12086201 0.06765786 -0.02224718 -0.15926392
-0.06601771 0.06964047 0.018220404 0.07553643 -0.019364927 0.045499925 -0.08287313 -0.06271745
0.070281215 0.16573983 -0.19977221 0.0036543051 0.0708573 0.03088607 0.084183745 0.058668118
0.24909064 -0.14292666 0.06438463 0.14338109 0.05757764 -0.021009265 -0.032521147 0.019711763
0.123627946 0.120459415 -0.06995545 0.1296717 -0.07745395 0.112679 -0.0779592 0.096334174
-0.29040638 0.18910803 -0.0060095615 0.074564114 0.09703167 0.19720598 -0.15442906 0.120023824
0.03835828 0.30767924 -0.07471414 -0.056194838 -0.12961379 -0.04780752 -0.13502325 -0.28040588
-0.08109685 0.12924372 -0.32437012 0.06786902 0.030090397 0.038704112 0.0027244003 -0.0062884158
0.046108354 0.0024142668 -0.061762016 -0.17655076 0.009985358 -0.20273219 -0.14601368 0.0991245
0.019156838 -0.10523191 0.01299974 -0.09237273 -0.090746075 0.016594928 0.02588463 -0.017058957
0.008165041 0.03640559 -0.026290523 -0.17831509 -0.16951007 0.15223242 0.0011393789 0.13225156
-0.033870194 0.038852464 0.090222426 -0.10473987 0.050352026 -0.04106849 -0.23810533 0.11810412

a2c_network.mu.bias f4 [10]
00000000: 04a9 933b 6b60 273e c622 f1bb d37d bcbc
00000010: f4df 58bd aded 10be f4cf 05bc cc70 cdbb
00000020: 4782 0b3b bccc 353e
0.004506232 0.16345374 -0.0073588816 -0.023009216 -0.052947953 -0.14153166 -0.008167256 -0.00626955
0.0021287368 0.17753881

exp_avg f4 [10]
00000000: 1751 5639 7c00 b3b7 43ea 8836 aeb1 40ba
00000010: aed5 d9b9 7fb4 8bb8 2842 ee39 8fc3 ddb9
00000020: a698 26ba dfb8 89ba
0.00020438839 -2.1338688e-05 4.0803875e-06 -0.0007350695 -0.0004154867 -6.6616565e-05 0.00045444188 -0.00042298107
-0.0006355144 -0.0010507366

exp_avg_sq f4 [10]
00000000: 972d a236 b412 c336 6449 aa36 b162 b436
00000010: 01af a736 71bf 9f36 ba86 af36 6b69 af36
00000020: 64ca b236 f128 c736
4.8332836e-06 5.81363e-06 5.0749386e-06 5.375907e-06 4.997361e-06 4.760856e-06 5.2310907e-06 5.2276787e-06
5.3283748e-06 5.9354284e-06

exp_avg f4 [256, 42]
00000000: ffbe 81b8 5625 f4b8 d8a0 f637 89dc cd37
00000010: 7e21 29b8 93a1 8bb8 de77 3338 8d38 f1b8
00000020: bb77 cab7 bea7 7c39 849f e6b8 ee21 69b8
00000030: 34e9 b5b8 386c b9b8 bfb9 b9b8 a7cd 1639
00000040: e412 b5b8 375e e038 e2ad a838 5bfd 21b9
00000050: dccc 0139 9f60 39b8 a72a d336 e9b2 8eb8
00000060: a11e 7137 60b5 8238 1033 b038 37c3 07b8
00000070: 4c0e dc37 6d75 2cb8 3278 7038 3194 3838
00000080: b87c 7039 6abe 3fba 6086 1939 cea9 d839
00000090: e046 7a39 0faf be37 a502 bbb9 4a8d 9ab9
000000a0: 531d 3cb9 18e5 8839 5567 813a 6125 c438
000000b0: d74a 1a3a 784b 2d39 6f76 53b9 c045 9fb5
000000c0: 53d6 8939 de51 5d3a 53c3 a7b9 a654 23bb
000000d0: 7129 a43a 6e15 7b3a 5aeb 1d3a fc42 94b9
000000e0: 9e83 613a 73de 84ba a0c8 7b3a aeb0 6bba
000000f0: 81fb f739 7a0e 553a f7ee 163a fa08 543a
00000100: 5154 0038 f54a c6b8 9e4c 43b8 9238 1539
00000110: aa4a e938 8fff 0db9 76af fab7 0468 a7b8
00000120: bdfa af38 7e83 8f38 081c 62ba 86f4 b139
00000130: 372f ddb9 8a94 363a 1799 9c39 938d 11ba
00000140: 254e f939 3945 c539 169a 9fb9 40d4 f539
00000150: 8885 3bb9 914f 83b9 cab5 49b9 8bcb 47b8
00000160: a157 ad38 2616 a6b7 7b97 f7b8 1717 acb9
00000170: 564e 0b39 878c 1f3a 021f 85b9 1247 01b9
00000180: 1506 8ab9 f444 6937 4499 9cb9 cdd3 6839
00000190: 44e8 41b9 7622 fe39 d6be a037 170d 82b9
000001a0: c5bc 6438 3506 a1b9 0815 5d37 f3f7 8bb7
000001b0: 854c 1f38 a06f 3ab7 098b b038 3e80 e838
000001c0: ce43 a735 c25e c0b8 e256 1739 c3d2 a938
000001d0: ae5b 293a aa6f 00ba 7014 db39 c4c5 aa39
000001e0: 9b21 e839 efea ce39 6c07 24ba 5d8b d7b9
000001f0: ebf6 003a 5b54 383a 9dc3 6e37 545a 88b8
00000200: 96ca a2b8 bb3c ae37 fa1c 5a37 06c1 b0b8
00000210: 2599 24b9 a66c f438 b139 9d38 9a6e 10b9
00000220: 4e29 3937 7cc7 a1b7 e6c2 8a38 8a00 8338
00000230: 5b48 0eb9 3947 3ab9 d633 9f39 44a1 8438
00000240: ef48 48b9 41f3 1937 6011 2039 36b5 91b8
00000250: c026 9535 79ed 3f38 2c94 0039 bbfb a038
00000260: 6b3c 00b8 cee5 dc38 0173 3f38 fae5 2037
00000270: c5ed 98b8 cbe3 b038 a81a efb9 4a1a 073a
00000280: d032 783a 1338 4a39 d613 38b9 073a 8839
00000290: 2f2d af39 68f9 8f39 21c2 2d39 afae 1b3a
000002a0: 2d6d 1fbb 55e6 b3b9 c2da b9ba 9cb7 19b8
000002b0: 9136 c339 404d 17b8 6c21 15ba f73f 0ebb
000002c0: d1e4 4d39 1c0c d03b a425 5abb bbfe 2bbb
000002d0: 7cce dfba 1c49 af39 99cc deba a5c9 3e3b
000002e0: db77 34bb 9bb8 143b ace8 7eba a125 2dbb
000002f0: 3b42 8aba 28f1 efba 2ecc 48b9 3e02 7138
00000300: 7b09 98b8 1c8b 81b8 6f93 f2b7 d297 7239
00000310: 4f34 2b39 8891 c937 ae05 1838 3c3d 3f37
00000320: 02be 1b3b 5c95 21bb 8fd4 53ba bd40 16bb
00000330: 6747 043a f3b1 173b 7d95 abba b00b 2abb
00000340: 51a7 d139 a022 9bb9 eef0 9dba b32f 89b9
00000350: 4abb 42ba 6870 3737 2802 0f39 bcf0 f3b8
00000360: 4b0f edb8 0d62 9bba e8d4 b538 52c8 543b
00000370: 43e3 dfba 4c6f aeba 84dd 7dba a4cb 9d38
00000380: 630f 7bba 5d75 c93a 556a adba 6bad a93a
00000390: 2a0d cab9 f2fd c2ba 6b08 93b9 5d60 4cba
000003a0: 68bd c6b8 895e 5db7 d0c7 ceb8 d6a2 2b39
000003b0: c63a 86b7 b6f2 c137 ac07 8738 4caf 38b7
000003c0: a345 5a38 9b05 7539 058f ba3a b947 c1ba
000003d0: 7dd5 8e39 17a3 33b9 bca5 8ab9 4625 9b3a
000003e0: 29ad 82ba ed3f 9eba 6e1a b238 227d 6c38
000003f0: a560 43ba 3c0c 2eb6 3d9c 9fb9 4c7b bd38
-6.186775e-05 -0.00011641781 2.9400384e-05 2.4540599e-05 -4.0323932e-05 -6.658132e-05 4.278856e-05 -0.00011502309
-2.413603e-05 0.00024095082 -0.00010996967 -5.558313e-05 -8.67419e-05 -8.841645e-05 -8.856085e-05 0.00014381726
-8.634271e-05 0.00010698701 8.0432525e-05 -0.00015448539 0.00012378715 -4.4197423e-05 6.2932554e-06 -6.804412e-05
1.4371851e-05 6.232667e-05 8.401845e-05 -3.2368316e-05 2.6232701e-05 -4.1117357e-05 5.73324e-05 4.4007033e-05
0.00022934645 -0.00073144457 0.00014641276 0.00041325245 0.00023868261 2.2731283e-05 -0.0003566939 -0.00029478438
-0.00017940001 0.0002611063 0.0009872714 9.352971e-05 0.0005885786 0.0001652668 -0.00020166648 -1.1866723e-06
0.0002629036 0.000844268 -0.0003199825 -0.002492228 0.0012524558 0.00095780834 0.0006024145 -0.00028278667
0.00086026813 -0.0010137096 0.00096047856 -0.0008990866 0.00047298896 0.00081274624 0.00057576544 0.0008088496
3.0596104e-05 -9.4553376e-05 -4.656298e-05 0.00014230821 0.00011124213 -0.00013542011 -2.9884028e-05 -7.982555e-05
8.391354e-05 6.843264e-05 -0.0008625393 0.00033942255 -0.00042187583 0.0006964883 0.000298687 -0.0005552407
0.00047551203 0.00037626343 -0.00030441646 0.0004688818 -0.00017883454 -0.0002504555 -0.00019236575 -4.763486e-05
8.265605e-05 -1.9799056e-05 -0.00011806093 -0.000328236 0.00013285255 0.0006086309 -0.0002539084 -0.00012328874
-0.00026325943 1.3903937e-05 -0.0002986883 0.00022204146 -0.0001849244 0.0004847233 1.9162351e-05 -0.00024805285
5.453524e-05 -0.00030712938 1.3177523e-05 -1.6685552e-05 3.797982e-05 -1.1112454e-05 8.418231e-05 0.00011086509
1.2462203e-06 -9.1729235e-05 0.00014432849 8.0978054e-05 0.00064605 -0.0004899452 0.00041786162 0.00032572274
0.00044275526 0.0003946642 -0.00062572095 -0.0004111183 0.0004919606 0.0007031613 1.423145e-05 -6.50181e-05
-7.7624965e-05 2.0770696e-05 1.3000559e-05 -8.4282874e-05 -0.0001569731 0.00011655064 7.497089e-05 -0.00013774112
1.1036476e-05 -1.9285588e-05 6.6166554e-05 6.246667e-05 -0.0001356913 -0.00017764875 0.00030365464 6.3242886e-05
-0.00019100656 9.176148e-06 0.00015265262 -6.947892e-05 1.1112643e-06 4.5759112e-05 0.0001226223 7.676283e-05
-3.0573847e-05 0.00010533222 4.5645054e-05 9.590289e-06 -7.292213e-05 8.434764e-05 -0.00045605493 0.00051537587
0.0009468021 0.0001928511 -0.00017554997 0.00025983175 0.00033412265 0.00027460908 0.00016570884 0.00059388106
-0.0024326548 -0.0003431315 -0.0014179575 -3.6649042e-05 0.00037233953 -3.607315e-05 -0.0005688879 -0.0021705606
0.00019635564 0.0063491 -0.0033286596 -0.002624436 -0.0017075087 0.00033433072 -0.0016998231 0.0029111889
-0.002753726 0.0022693041 -0.0009724002 -0.0026420134 -0.0010548303 -0.0018306123 -0.00019149549 5.7460966e-05
-7.249691e-05 -6.1771105e-05 -2.8917302e-05 0.00023135476 0.00016327317 2.4028835e-05 3.6244914e-05 1.1398744e-05
0.0023764377 -0.0024655676 -0.0008080685 -0.002292677 0.000504604 0.0023146837 -0.0013090816 -0.0025946908
0.00039988247 -0.000295897 -0.0012049952 -0.00026166215 -0.0007428421 1.0933822e-05 0.00013638346 -0.00011631983
-0.00011303889 -0.0011854783 8.6704094e-05 0.0032468033 -0.0017081279 -0.0013308316 -0.00096841925 7.5242744e-05
-0.0009577183 0.001537006 -0.0013230542 0.0012945359 -0.0003853825 -0.0014876707 -0.00028044297 -0.00077963417
-9.4766554e-05 -1.3194637e-05 -9.8600634e-05 0.00016368492 -1.6001413e-05 2.3120414e-05 6.4387306e-05 -1.1008069e-05
5.2040104e-05 0.00023367109 0.0014233297 -0.0014746106 0.00027243412 -0.00017131526 -0.00026444893 0.001183667
-0.0009969819 -0.0012073495 8.492624e-05 5.6383324e-05 -0.0007453061 -2.5935142e-06 -0.0003044325 9.035188e-05
