logs/rl_games/humanoid_flat_direct/semi_success/nn/last_humanoid_flat_direct_ep_1350_rew_407.78116.pth (torch, 759553 bytes, 33 tensors)

value_mean_std.running_mean f8 [1]
000000 35 e2 e1 04 d0 f7 52 40
       75.87207147654483

value_mean_std.running_var f8 [1]
000000 10 5c 05 fa dc 92 95 40
       1380.715797504181

value_mean_std.count f8 []
000000 00 00 00 01 00 a4 bf 41
       530841601.0

a2c_network.sigma f4 [10]
000000 90 b1 ab bf b5 0b 11 bf 8c 5e c9 bf ee eb 00 bf
       -1.3413563 -0.5665849 -1.5731978 -0.5036
000010 ad 69 e1 bf 69 3e ae be c7 96 ef bf 53 70 03 c0
       -1.7610375 -0.3403199 -1.8717889 -2.0537307
000020 e7 92 8d bf be ee 55 bf
       -1.1060456 -0.83567417

a2c_network.actor_mlp.0.weight f4 [256, 42]
000000 59 a3 37 3d 62 28 ca 3e 0d ea ac 3e 7f 31 c6 3d
       0.044833515 0.39483935 0.33772317 0.096774094
000010 fd 6e 08 3e 4c bc 19 3d c9 8b 0a 3e d0 5c 33 be
       0.13323589 0.03753309 0.13529886 -0.17515874
000020 13 a9 bc be 0e 49 57 bd 3e 04 26 be 9f 2f 8a 3d
       -0.36847743 -0.052559905 -0.16212556 0.06747364
000030 67 8f b4 bd 63 f1 dd 3d ba e8 e2 3d 8a cd 45 3d
       -0.08816414 0.108370565 0.11079545 0.04829172
000040 dd c4 86 3d ac a5 42 be 70 ff 5e bc 7a 08 90 bd
       0.065805174 -0.19008511 -0.013610706 -0.07032867
000050 33 54 e1 bb df e0 8b bd 08 ca d3 be 62 b1 c1 be
       -0.0068764924 -0.0683 -0.41365075 -0.37830645
000060 bd 4b f9 3d 57 6b 0b 3e 9d c0 13 be 20 3c 6d be
       0.12172649 0.13615166 -0.14428945 -0.23167467
000070 a1 27 53 3e 6a 8c 23 3d 33 74 5a 3e 14 05 6b be
       0.20620586 0.03992883 0.21333389 -0.22951156
000080 55 ea 14 be 96 20 d3 bd 15 fe a1 bd 32 3d e6 3c
       -0.14542516 -0.1030895 -0.079097904 0.028105352
000090 c6 fe 0a 3d 71 bd cd 3d 3b c5 83 bd fb 76 a1 bd
       0.033934377 0.10045899 -0.06434103 -0.07884022
0000a0 c2 71 70 3d fe 49 46 bd 35 b2 e9 3d f7 ac ce ba
       0.058702238 -0.04841041 0.114109434 -0.00157681
0000b0 63 74 7c 3e 58 86 77 be e4 1b 9c bc 96 89 33 3e
       0.24653773 -0.24172342 -0.019056268 0.17532954
0000c0 0c 6b 97 3e 38 16 91 3d 1d 67 6a 3d ea 3b 93 3d
       0.29573858 0.07084316 0.057227243 0.07189162
0000d0 ce 70 d0 bd 36 dd 5b bd 67 5d 95 3e 5c fc a5 bb
       -0.10177766 -0.05367776 0.29172823 -0.005065484
0000e0 0e cb 98 bd 4b ef 4e be e2 c0 81 bd ba 7d c7 bc
       -0.074606046 -0.2020847 -0.063356176 -0.024351943
0000f0 ea d7 91 bb b2 ba 08 be ae 4d 19 bc 80 ce 03 be
       -0.004450788 -0.13352469 -0.009356899 -0.12871742
000100 8f 57 28 bc 34 6a d6 bd c5 eb 81 bd aa 3c d8 be
       -0.010274782 -0.104694754 -0.063437976 -0.42233783
000110 3b 0e 86 3e 17 92 cb bd d8 90 09 3d e2 fd 8e be
       0.26182732 -0.09939974 0.0335854 -0.27928072
000120 59 a5 20 be d9 87 84 3c ef 85 52 3a cb 8f 01 be
       -0.15688075 0.016178058 0.0008030822 -0.12652509
000130 95 2b 0e be 2c 1f 8d bd 93 2e 02 3d dc 29 6b bd
       -0.13883813 -0.06890711 0.031782698 -0.057412967
000140 85 4c cd 3b 77 54 77 bd c0 73 fa bc f8 d1 a5 3b
       0.0062652254 -0.060383286 -0.030572772 0.0050604306
000150 38 3e 84 bd 32 7c 2c be 54 50 9a 3e 49 64 4e be
       -0.0645718 -0.16844252 0.3013941 -0.20155443
000160 75 33 27 3e 04 3e 89 bd b0 26 af be c8 7e f1 ba
       0.16328223 -0.06701282 -0.34209204 -0.0018424625
000170 a2 43 cf bd 27 5a 38 bd bd 31 16 be f1 57 2e be
       -0.10120322 -0.04500785 -0.14667411 -0.17025734
000180 dd ad 3b bd 9a 6e 0d be 90 b4 f2 3d 4c 66 df bd
       -0.045820106 -0.13811722 0.11850846 -0.109081835
000190 a7 35 1f 3e ef d1 dc bd 3c 6b 3c bd ec 81 52 3c
       0.1554781 -0.10782229 -0.046000704 0.012848359
0001a0 39 eb b1 3d 66 cc 83 3e 6f 0b a3 3c 0b c8 b9 be
       0.08687443 0.2574188 0.019902913 -0.36285433
0001b0 45 ee 48 3d e4 a2 57 bd 41 0a 09 3e ac 64 8f be
       0.049055357 -0.05264558 0.13382818 -0.28006494
0001c0 ab 7e fd 3d df 89 a1 be ca 3e 51 3d 0e 7c b9 ba
       0.123776756 -0.315505 0.05108527 -0.0014151351
0001d0 dc 50 1e 3d ad 8e 6e bd 45 18 f7 3d 81 ff 6d 3d
       0.038651332 -0.058241535 0.12065176 0.058104996
0001e0 73 50 26 3d 1a 93 a1 bd 39 89 7d 3d 28 1a 62 bd
       0.040604066 -0.078893855 0.061898444 -0.055200726
0001f0 ba 02 34 bd d2 4e 13 3e fc 59 27 3d df 5d b2 be
       -0.043947913 0.14385536 0.0408573 -0.34837243
000200 25 b1 a1 bd f4 14 45 bd df 9d a3 bd 86 68 71 be
       -0.07895116 -0.048115686 -0.07989096 -0.23575029
000210 7b b9 66 be e8 ab 4c bc ce 4c 10 be 08 3e 63 3d
       -0.22531693 -0.0124921575 -0.14091799 0.05547908
000220 92 94 f5 3d 9c d5 17 be 2f 61 a3 3d f2 70 04 3e
       0.11991228 -0.1482758 0.07977521 0.1293371
000230 a7 6e 8e 3d 41 02 bc bd 3c e4 9a 3d a8 62 c7 3d
       0.06954699 -0.091801174 0.075630635 0.09735614
000240 77 82 2d 3e 7e 4f 26 bd 92 e1 ec bd 73 22 31 bc
       0.169443 -0.040603153 -0.115664616 -0.010811436
000250 ff 00 f4 3b 11 12 0e 3e 64 ee 11 3e a2 66 a6 bd
       0.007446408 0.1387408 0.14251095 -0.081250444
000260 24 c3 d9 3c 6c 4c 5d be e3 b8 48 bd c2 f0 08 bc
       0.026582308 -0.21611184 -0.049004447 -0.008358182
000270 7d f0 c8 bc 4c 61 31 bd 68 ba 03 be d7 21 da bc
       -0.024528736 -0.04330568 -0.12864077 -0.026627464
000280 4b 71 b8 3d 74 8f c1 3d 38 45 0d bd 12 28 82 bd
       0.09005984 0.0945119 -0.03448984 -0.06355299
000290 4f 3e b3 bd 1e fd e0 bd 1f 2e 8e bc ad 9b bc 3c
       -0.08752119 -0.10985778 -0.017355977 0.02302345
0002a0 aa dc e0 3d 58 2f 5a 3e 1d 1e 6d bd f5 e6 34 3d
       0.10979588 0.21307123 -0.057890046 0.04416557
0002b0 77 02 c0 bb ba dc 88 3e 2b 02 e0 3d 82 e3 f1 bb
       -0.005859669 0.267309 0.109379135 -0.0073818574
0002c0 0c 11 1a 3d de 0e aa bd 85 41 bd bd 27 fe f8 3d
       0.037613913 -0.08303617 -0.092410125 0.12157851
0002d0 c0 9f 22 3b 21 83 aa 3d 91 7d 39 be 61 46 02 3e
       0.0024814457 0.08325792 -0.18114306 0.1272216
0002e0 d0 62 09 3e c5 0c 94 3a 9f 01 a9 bd 14 c1 68 be
       0.134166 0.001129531 -0.08252262 -0.22729903
0002f0 0e e4 17 be c8 4b 80 3e ce 16 e5 3d db 86 5a 3e
       -0.1483309 0.25057817 0.1118599 0.21340506
000300 76 55 75 3d a8 6b 4e ba 90 c6 8d 3c 76 24 8e be
       0.059895955 -0.00078743184 0.017306596 -0.27762192
000310 8d b6 93 be 2b 14 b0 be ae 21 eb 3d a3 54 9e bc
       -0.28850213 -0.34390387 0.11481033 -0.019327467
000320 3f 00 f5 bc cf eb d4 bd 32 2f 84 bd f2 d7 d4 bd
       -0.029907344 -0.103965394 -0.06454314 -0.10392751
000330 2c 9f e0 bd f3 8b 2c 3c 99 85 33 3c 61 b3 0a 3e
       -0.109678596 0.010531413 0.010957145 0.1354499
000340 d2 7b 0b bd 54 6d 33 bd a3 9c 32 bd 6f d2 a3 3c
       -0.03405363 -0.043805435 -0.04360641 0.019997803
000350 81 bb 85 3c 0d c7 0f be b6 94 19 3e 21 f0 32 be
       0.01632476 -0.14040776 0.14998135 -0.17474414
000360 31 a9 a9 3c e5 80 41 3d 75 3e f1 3d 0e d1 ce bd
       0.02071056 0.047242064 0.11779491 -0.10098468
000370 b4 25 c1 3d 3e 0b 9f bd a3 33 04 3e 7b b7 79 3e
       0.094310194 -0.07765816 0.12910323 0.24386398
000380 b7 7b 07 bd b2 30 31 3d 1c f5 33 3d 34 63 dd bd
       -0.033076968 0.04325933 0.043934926 -0.10809937
000390 9a 62 fe 3d b9 1f 9c be 4a a3 9e 3d a4 c4 80 3e
       0.124211505 -0.30492952 0.07745989 0.25150025
0003a0 96 30 7c 3e 44 64 de 3d 9e 07 a2 bd 73 49 1f 3c
       0.24627909 0.10858968 -0.07911609 0.0097221015
0003b0 61 ec c0 3d da fc 70 be 72 e4 5b bd 17 15 cd be
       0.09420086 -0.23533955 -0.05368466 -0.40055153
0003c0 08 dd 09 3c 31 1c 62 3c a3 4b 76 bd 3f 5d b0 bd
       0.008414514 0.013800667 -0.060130727 -0.08611535
0003d0 a3 0d 0f be 42 71 e9 3d e6 9f 05 3e a8 b5 d6 3c
       -0.13970046 0.11398555 0.13049278 0.026209667
0003e0 89 f5 f0 bc a9 ae fe bd 42 c3 cf bd 26 a2 b6 bd
       -0.029413955 -0.124356575 -0.10144664 -0.08917646
0003f0 89 f3 47 3d 06 64 42 bc 47 e6 1b bd 9b 8d 32 bb
       0.048816238 -0.011864668 -0.038061406 -0.0027245048

a2c_network.actor_mlp.0.bias f4 [256]
000000 f0 1c e1 bc 92 1f 0d 3d 10 97 42 bc cc 73 fd 3b
       -0.027479619 0.034453936 -0.011876836 0.0077347513
000010 aa e1 3f 3c 75 67 3a bc 87 99 40 bc 71 40 55 bb
       0.011711517 -0.011377205 -0.011755354 -0.003253963
000020 8d 34 ce bc 69 d2 49 3d 55 7e eb 3c c7 fe 5f bc
       -0.025171543 0.04927293 0.028746763 -0.0136715835
000030 c5 1a c0 ba 93 89 82 bc f3 2c 78 bc bc 5a 22 3c
       -0.0014656415 -0.015934741 -0.0151474355 0.009909328
000040 07 f5 a8 bb a0 07 c1 3c 2e de be bb 89 99 06 3d
       -0.0051561627 0.023563206 -0.0058248257 0.032861266
000050 a5 ea f2 bc 9e 19 a9 bc f8 c7 48 3a 98 78 02 3d
       -0.029652903 -0.020642098 0.0007659192 0.03185329
000060 20 3a 27 bc 75 19 c6 3c 85 b8 85 3c 99 39 1a bc
       -0.010206729 0.02418206 0.016323337 -0.009413146
000070 12 75 8c 3c f3 1b ed bc e9 de 7a bb 51 3a 8b 3c
       0.017145667 -0.028943991 -0.0038279837 0.01699558
000080 7c 45 f6 3c 47 6d 4a 3c 59 24 b4 3b a1 f5 32 bd
       0.03006243 0.012355155 0.005497497 -0.04369128
000090 94 d5 5f 3b f6 ab 15 3d be d3 e8 bc cb ce 62 bb
       0.0034154402 0.036540948 -0.028421279 -0.0034608121
0000a0 de 7c 26 3d 09 90 94 bc 74 32 45 3d 13 71 da bc
       0.040646426 -0.018135088 0.04814382 -0.026665246
0000b0 47 2b 15 bc 4d 44 c1 3b 7d cf 81 3d 79 a3 2b 3d
       -0.009104556 0.0058980347 0.063384034 0.041903947
0000c0 6e 2f 41 bb bf c0 ec bc 37 d5 a4 bc 20 f4 6e 3c
       -0.0029477733 -0.028900502 -0.0201212 0.014584571
0000d0 72 54 b7 3b 02 3b 0e bc 62 e5 04 bd 1e 47 aa bc
       0.0055947835 -0.008681061 -0.03244532 -0.020785864
0000e0 5b 7b d3 3c 14 6b 4c 3c 3d 55 b6 3c 67 8e b0 3c
       0.025815656 0.012476701 0.022257442 0.021552278
0000f0 f6 c1 c5 ba 5e b7 97 bc 4c bf 6d 3c 98 d2 5b bc
       -0.0015087712 -0.018520053 0.014510941 -0.013416909
000100 3c 51 56 bc 52 ef 9c 3d 64 84 6a bc 1a eb 34 bc
       -0.013080891 0.07662834 -0.014313791 -0.011042381
000110 b9 1b be 3a 37 dc 36 3c 5b 7b 6e 3c 76 df be 3c
       0.0014504112 0.011160902 0.014555777 0.023299914
000120 29 90 84 bd 04 c3 16 3d 8b 6d 42 bc 1e 2a 94 bc
       -0.06472809 0.036807075 -0.011866937 -0.01808649
000130 18 08 96 bc 49 85 ac bc 51 2c 88 bc 2d e3 db 3c
       -0.018314406 -0.021059649 -0.016622694 0.026841724
000140 46 ed bd 3c 80 3c b3 bc 52 b3 b0 3b 95 66 6f bc
       0.02318443 -0.021879435 0.0053924704 -0.01461186
000150 51 f1 e9 3c 8c 16 84 3c 75 7d 8d 3c 3b 56 ad bc
       0.028557451 0.016124032 0.017271737 -0.021159282
000160 51 ee 72 3c de d9 fc bc bc 5a 91 bc a7 f0 ac bc
       0.014827327 -0.030865606 -0.01774346 -0.021110846
000170 27 e7 11 3c 58 8d f1 ba 92 82 15 bc 71 80 a0 3c
       0.008905209 -0.0018428965 -0.009125369 0.019592496
000180 8e 86 0d 3d 20 2f c7 ba f7 2f 68 bc 89 dc 7d 3c
       0.03455215 -0.001519654 -0.014171592 0.015494474
000190 a1 e8 4b 3d da 9f 34 bc 21 2f 18 3c bc e1 45 3c
       0.0497824 -0.01102444 0.00928858 0.012077745
0001a0 8e c3 3b 3d 95 d6 a6 3b 26 78 bd 3c 7a e5 9d 3c
       0.045840792 0.005091498 0.02312858 0.019274462
0001b0 c3 ad 11 bd 40 07 ff bc 8e fc eb 3c cd d2 fe 3c
       -0.035566103 -0.031131387 0.02880695 0.031106377
0001c0 c5 ba 8e bc 6d 9c 0d bd e9 fa e7 bc 7c f6 e1 3b
       -0.017423043 -0.034573007 -0.028317885 0.0068958383
0001d0 e2 54 04 3d 44 d0 41 bd 8b c9 42 3c a5 94 58 bb
       0.032307513 -0.04731776 0.011888872 -0.0033047583
0001e0 de f6 25 bd eb d1 86 bd 04 32 ee b9 38 bf 8a 3b
       -0.040518634 -0.065830074 -0.00045432162 0.004234221
0001f0 bb f6 9c bb f3 97 fc bb b9 74 af bc e8 3b 81 bc
       -0.0047901548 -0.0077085434 -0.021417962 -0.015775636
000200 e1 82 4c 3b 76 0d dc bc 28 7f fc b9 e0 0f 8f 3c
       0.003120594 -0.026861887 -0.00048159924 0.017463624
000210 b3 ef e6 bc 3f cd 80 3c 44 d2 3a 3d 60 d7 91 bc
       -0.02819047 0.015722869 0.04561068 -0.017802894
000220 30 42 e8 3b 6d ba c1 bc 4b b0 b1 bb f1 31 a0 bc
       0.0070879683 -0.023648465 -0.005422627 -0.019555064
000230 07 fd cd 3c 68 67 17 ba 7c 2d be bc 69 5e 0b bc
       0.025145067 -0.00057756016 -0.023215048 -0.008506396
000240 f4 5f 8e bc d2 93 b6 3c e8 73 1f 3c 87 2c d0 3b
       -0.017379738 0.022287283 0.009732224 0.0063529643
000250 00 ab a8 3c 52 bf 21 bd 69 51 1d 3d 49 82 88 3c
       0.020589352 -0.039489098 0.038407717 0.016663687
000260 09 67 01 3d 54 15 1b 3c 77 1b 8f bb d8 84 3c bd
       0.031592403 0.009465534 -0.0043672877 -0.046025127
000270 d0 f8 bf bc 45 49 0c bd 76 36 8a 3d c2 97 9c 3b
       -0.023434073 -0.034249563 0.06748669 0.004778833
000280 10 e6 b7 bc 15 86 b7 3c 9e 1f cc bc ec 58 3f 38
       -0.02244857 0.022402802 -0.02491742 4.5620764e-05
000290 34 65 f6 bc b8 c1 73 3c 78 95 f8 3b 30 20 9c 3c
       -0.030077554 0.014877729 0.0075861774 0.019058317
0002a0 f6 92 5f 3a b3 f7 b4 3c 96 a3 9f bb 0c 8e 07 bd
       0.0008528674 0.022090768 -0.004871796 -0.03309445
0002b0 ca 28 0b 3c d1 1e ba 3c e7 90 17 3c d3 fe 8a 3a
       0.008493612 0.022719773 0.009250856 0.0010604508
0002c0 ca 7b ae 3b 8a 34 13 bd 2e 2e af 3c be e4 29 3c
       0.0053248154 -0.035938777 0.021384325 0.010369478
0002d0 92 2b 25 3c 3a ba 4f 3c 94 20 ea bb 0d 4c 9a 3c
       0.010081189 0.012678677 -0.007144997 0.018835092
0002e0 16 11 24 bb 46 d3 ab bc 45 df bc 3c 4f c0 9b 3c
       -0.0025034598 -0.020974766 0.023055682 0.019012598
0002f0 b9 96 4b ba 3d ab c1 3c 7e 7c c7 bc 42 4f ca 3c
       -0.0007766295 0.023641223 -0.024351355 0.024695996
000300 56 a3 21 3c 70 7d 69 bc 1a 1b db 3c 2d 42 38 bd
       0.0098656025 -0.014251098 0.026746321 -0.044984985
000310 28 02 eb bc 86 5e 05 bd 84 03 27 3d f1 d7 e0 bb
       -0.028687552 -0.032560848 0.040774837 -0.0068616797
000320 5b ef 24 3d 75 d0 43 3a 0b ac 9a 3c a7 f0 1c bd
       0.04026733 0.0007469722 0.018880865 -0.03831544
000330 17 bb cf ba ce 70 98 bc fd 09 92 3c 66 db e1 bc
       -0.0015848604 -0.018608477 0.017827028 -0.027570438
000340 a9 51 80 bb 55 fe d2 39 94 d9 f4 39 21 b5 d4 3c
       -0.0039159846 0.00040243813 0.00046701415 0.025965275
000350 25 dc 34 3c 41 91 f0 3c 13 eb 39 bc 74 97 42 3b
       0.011038815 0.029366137 -0.01134755 0.0029692324
000360 85 1f 18 bd 5f 37 48 3b c8 04 27 ba 36 85 01 bd
       -0.037139434 0.0030550582 -0.0006371257 -0.03162118
000370 02 9a 34 3d 52 19 d4 bb f5 67 6d bd 7e 5a 28 3d
       0.044092186 -0.006472745 -0.05796047 0.041101925
000380 98 59 19 3c 5f 56 fa bc bd 5b de bc 35 1e b8 3c
       0.00935974 -0.030558763 -0.027143354 0.022475341
000390 63 0a 5f 3d 79 0c 51 3c 45 a7 a5 3c cc c6 fe bc
       0.054453265 0.012759321 0.020221362 -0.031100653
0003a0 a9 97 6e 3c de f8 99 bd ad fb 02 3b ab 79 20 3d
       0.014562526 -0.07518171 0.0019986436 0.03917853
0003b0 d8 c9 82 bc 15 44 a5 3c 1b 2a f7 bb 02 74 ff 3a
       -0.015965387 0.020174066 -0.007542861 0.0019489529
0003c0 ff c5 06 3d 70 61 9e 3c 91 f6 96 3b 0e 4c aa 3c
       0.032903668 0.019333571 0.0046070297 0.020788219
0003d0 3f 11 ce 3c 3b 0a 04 3d ce 97 8d 3c d2 c9 96 bd
       0.025154708 0.03223632 0.0172843 -0.07362713
0003e0 d9 6f bc 3c a2 31 d8 bc ab 48 b3 ba e6 77 34 bc
       0.023002552 -0.026390854 -0.0013678273 -0.011014914
0003f0 1e 5a 9b 3c 6a 62 b2 3a 81 de 80 3c 2b f5 4f 3c
       0.01896387 0.0013609652 0.015731098 0.01269273

a2c_network.actor_mlp.2.weight f4 [128, 256]
000000 de b4 86 bb 6b e5 10 be 3f 20 7a bd c7 2e 59 bd
       -0.0041109165 -0.14150016 -0.06106591 -0.053023126
000010 d3 f3 77 3d 81 b2 21 bd 79 92 81 bc d0 51 51 3e
       0.060535263 -0.039476875 -0.015816914 0.20441365
000020 ac 35 9b 3c 84 38 12 3e ea 05 9e bd 57 ca eb 3c
       0.018946491 0.14279372 -0.07715972 0.028783007
000030 ca f8 7e bb 5e d9 9b 3d bf 48 0a be 4b 89 cf 3c
       -0.0038905614 0.07609819 -0.13504313 0.025334021
000040 3d 69 47 be a2 df fe 3d 90 ae 07 3e 2d df 2f bd
       -0.19473739 0.12444998 0.13250184 -0.042937446
000050 5e b5 a9 3d b8 6c e3 3d 38 db 9a be 31 fd 17 be
       0.08286546 0.11104721 -0.30245376 -0.14842679
000060 55 88 f6 3d a7 3c c3 bd b0 84 01 3d 6e 0f c4 3c
       0.12037722 -0.09533053 0.03162068 0.023933139
000070 9f 24 af bd f3 56 48 bd 87 23 97 bb 0c 37 aa 3c
       -0.08551907 -0.048911046 -0.0046123895 0.020778202
000080 cd da 4e bd 71 58 57 bc 97 27 be 3d 5d f9 36 be
       -0.050501633 -0.013143645 0.09284895 -0.17868562
000090 90 2f 15 be 99 b2 42 bd 82 a7 fc bc a7 3a 84 bc
       -0.14568925 -0.047533605 -0.030841593 -0.016141249
0000a0 d2 0d 08 bd 5a 5d 11 3e 38 51 d0 bc c3 b3 6b bd
       -0.033216305 0.14195767 -0.025429353 -0.05754448
0000b0 28 74 15 3d bc 5a 8e bd 69 23 a6 3d 12 d7 46 bd
       0.03648773 -0.069509 0.08112223 -0.04854495
0000c0 b2 2d 9a 3d 49 69 c2 bd 6b df d8 ba 10 08 cd bc
       0.07528247 -0.09492738 -0.0016546076 -0.025028259
0000d0 b8 24 b7 3b d3 dd 3e 3e c4 b9 8f bd 36 35 08 bb
       0.005589094 0.18639307 -0.07017854 -0.002078367
0000e0 b6 1c ab bd e4 3f 54 bd 5a 92 99 3d ba 10 a2 3c
       -0.083550856 -0.051818743 0.074986175 0.019783366
0000f0 e5 18 4c 3d 84 6f 8f bb f2 6b f1 3d 90 7d e9 bd
       0.04982843 -0.0043773074 0.11788167 -0.11400902
000100 dc 3f d0 3d 30 24 fa 3d 1f e0 d7 bd 05 bc a3 3d
       0.1016843 0.122139335 -0.105407946 0.07994846
000110 a8 bd 6f 3d b9 db a6 3d bf 01 ac 3d cc 36 bc 3d
       0.05853048 0.081473775 0.083987705 0.09190139
000120 2b 83 50 bd 78 e9 6a 3d 45 b5 9e 3d a4 9d 86 bd
       -0.05090634 0.05735156 0.07749418 -0.06573036
000130 42 d8 1e bd f4 36 e2 3b 15 f6 b8 bb 0e d7 82 bb
       -0.03878046 0.0069035236 -0.0056445696 -0.0039929217
000140 64 c0 0a bd f0 70 bf 3d 4c 1f 3f bd e3 de 95 bc
       -0.033874884 0.09347713 -0.046660706 -0.018294757
000150 f9 c6 89 3c 94 05 e9 bc 38 ab 0c bc dc ce f8 3b
       0.01681851 -0.028445043 -0.008585744 0.007593019
000160 eb c7 0f be 47 c2 9a bd a4 03 f3 3d 0f e2 5d 3d
       -0.14041106 -0.07556587 0.11865929 0.054170664
000170 18 f0 39 3d f3 5a dc 3c 12 5b e4 bc 34 14 12 bd
       0.045394987 0.026898837 -0.027875457 -0.0356638
000180 99 88 23 3b c7 d4 c0 bd b1 30 2c 3c 85 73 44 3d
       0.0024953245 -0.09415584 0.010509656 0.04796173
000190 b8 ae 81 bd 66 94 86 bd d5 a1 78 3a 2c 80 41 bd
       -0.06332153 -0.065712735 0.0009484564 -0.047241375
0001a0 5c b8 49 3d 08 31 c8 3d 7d 5e b1 3d 64 9e a7 3c
       0.049248084 0.09774977 0.086606 0.020461269
0001b0 29 05 a1 bc bf fa 47 3c 54 c0 a8 bd 47 2b 58 bd
       -0.01965578 0.012205779 -0.08239809 -0.052775647
0001c0 af c8 32 3e 93 e1 e2 3c fb 37 06 3b e6 9a f5 bc
       0.17459367 0.027695453 0.0020480144 -0.029981088
0001d0 00 a5 06 bd 30 90 6d 3e cd a7 ac bd 84 a6 26 3c
       -0.0328722 0.23199534 -0.08430443 0.010171536
0001e0 cb ed 0f be 0e 63 74 3c 7e 51 c2 bd 61 15 fa bd
       -0.14055555 0.014916195 -0.094882 -0.12211109
0001f0 5b 75 2c 3d 50 6f a4 3d 6d 93 f7 3c 90 6f 73 3c
       0.042104106 0.08029044 0.030221665 0.014858142
000200 ac be 78 bd 8a 4e d6 3d 57 1f b0 bc 0c bd d6 3c
       -0.060728714 0.10464199 -0.021499319 0.026213191
000210 ff 5d 81 3c 95 64 4f 3d 64 18 a5 3d e4 62 ac bd
       0.015791891 0.050633032 0.08061293 -0.084172994
000220 95 bf 11 3d 7b 60 96 3d d8 5a 20 bc 9a 69 07 3c
       0.035583097 0.07342621 -0.009787284 0.0082649235
000230 d8 ad c3 bd fa 50 3f 3d 05 63 4e 3e 97 96 99 bd
       -0.095546424 0.046708085 0.2015496 -0.07499426
000240 7f 2e be 3c b5 f2 ed 3d 44 a8 d1 bc 2b a3 d0 3c
       0.02321553 0.11618558 -0.02559293 0.02546843
000250 75 57 11 be 02 ab c0 3c cd 58 80 3c 18 08 07 be
       -0.14193518 0.023519043 0.015667344 -0.13186681
000260 93 6f a9 3d 70 a6 a1 bc d3 a3 22 be 39 11 37 bc
       0.08273234 -0.019732684 -0.15882806 -0.01117354
000270 50 a1 f0 3d 60 79 33 bd b5 60 93 bd ee 82 90 bd
       0.11749518 -0.043816924 -0.0719618 -0.07056223
000280 21 5c e9 3c 95 b0 85 3d d4 b9 59 3d c9 03 c7 bd
       0.028486313 0.06527821 0.053155735 -0.09717519
000290 f1 73 8d bd 54 8d 3c 3c 86 ca 15 3e be 8d 85 bd
       -0.0690688 0.011508305 0.14628038 -0.06521176
0002a0 d5 ad 20 bc 0e f5 1e be f6 a6 b4 3d 6b d3 2f 3d
       -0.00980707 -0.15523168 0.08820908 0.042926233
0002b0 78 36 83 3d 52 be 49 3d f0 9f 1b be 5a 42 e6 3c
       0.064068735 0.04925377 -0.1519773 0.02810781
0002c0 29 57 84 bd 6c 1a ef bd 5d bb 70 3d 60 35 fc bd
       -0.06461937 -0.116749614 0.058772434 -0.12314868
0002d0 76 31 3d bd 87 0e 43 bd 90 a2 cb bd f2 a7 ea bd
       -0.046189748 -0.047621276 -0.09943116 -0.11457814
0002e0 a2 44 c1 3c 3e cd 9c 3d 22 b3 4b 3c 06 e0 1d bd
       0.023592297 0.07656334 0.012432845 -0.038543724
0002f0 5d 16 7d bd 2c 59 9d 3d 96 b5 f2 bc 1e ee 77 3d
       -0.061788905 0.07683024 -0.029627603 0.06052982
000300 9e d7 70 be c7 9a 42 3c 29 99 55 bd f7 55 ac bc
       -0.23519751 0.011877722 -0.052148018 -0.021037085
000310 44 92 38 3c cc fc 46 bc 1a f6 4a bd 54 47 da 3d
       0.011265341 -0.012145232 -0.049551107 0.10658136
000320 02 5c 25 bd 19 d7 8d 3d 38 ec 96 bd e8 7d a5 bc
       -0.04037095 0.06925792 -0.07369274 -0.020201638
000330 1c a2 0d 3d f8 da ac 3d d3 33 08 3e 76 74 12 be
       0.034578428 0.084402025 0.1330102 -0.14302239
000340 07 fd b7 bd d9 39 77 39 00 37 0f 3c 75 be 1b bc
       -0.08983808 0.00023577306 0.00874114 -0.009505858
000350 15 a4 15 be 2d 77 8e bd 65 aa 1b 3c fa d9 84 bd
       -0.14613374 -0.06956325 0.009501074 -0.06486888
000360 4a e2 db bd 63 09 f4 3d 20 bb ba bd 3e 4a 96 bb
       -0.107365206 0.11915853 -0.091177225 -0.004586487
000370 70 9d 9c bd 54 cb 15 bd ec 50 13 3d 9a e8 50 3b
       -0.07647216 -0.036570862 0.035965845 0.0031876923
000380 1b d1 1a be 75 bd cf 3d 1f 05 d7 3b fc 69 e3 3c
       -0.1511883 0.10143558 0.00656189 0.027760498
000390 49 29 92 3c 88 b3 af 3d 45 75 a4 bc 23 55 2d 3d
       0.017841952 0.08579165 -0.02007545 0.04231752
0003a0 e8 1a 64 3e 3d 5b 0f bc 66 4a 96 bd 81 b2 75 bc
       0.22275889 -0.00874978 -0.07338409 -0.014996172
0003b0 7c 65 64 3d 9b d5 28 be 1f 24 61 3d 4c 3b d4 39
       0.055760846 -0.16487734 0.05496609 0.0004047997
0003c0 f7 d0 74 bd 04 90 d0 bc d3 96 6a 3d be 71 a4 3d
       -0.059769597 -0.025459297 0.057272743 0.08029507
0003d0 99 6d 5e bd de 1b b0 3c ff ee e3 3c 01 08 0b 3e
       -0.05430374 0.021497663 0.027823923 0.13577272
0003e0 3c a4 65 bd 3c 99 75 bd 72 f6 52 bd b8 6a a3 3d
       -0.05606483 -0.05996059 -0.05150456 0.07979339
0003f0 3b fe e9 3d 03 b4 c8 bc b8 83 f6 bc f0 6d 8f bb
       0.11425444 -0.024499899 -0.030092105 -0.0043771192

a2c_network.actor_mlp.2.bias f4 [128]
000000 c3 ca 05 b9 fa 0d 00 3d 88 55 9d bb 72 11 36 bd
       -0.00012759403 0.03126333 -0.004801456 -0.04445023
000010 e1 9c 60 bc a1 eb 2c bd ee b9 02 3d 69 fb 16 bc
       -0.013709278 -0.0422169 0.031915598 -0.009215214
000020 3b fb 8e bd d4 79 d5 bc 14 5e c6 bc 66 c3 00 bd
       -0.06981512 -0.026059069 -0.024214782 -0.031436346
000030 32 e7 f3 3b 53 59 6c bd 5f a4 9d bc 04 62 32 bb
       0.007443332 -0.057702374 -0.019243417 -0.0027219066
000040 ea 62 8e bc 1d 35 53 bd 28 5a 9e 3c 69 ff 39 3c
       -0.01738115 -0.051564325 0.0193301 0.011352398
000050 78 58 0f bc 6b a4 e3 bd 0c e3 87 3d 44 88 9e 3c
       -0.00874912 -0.111153446 0.06635103 0.019352086
000060 71 e5 a4 3c 4a 32 34 bd f9 db 3b bd a2 60 63 3d
       0.020128937 -0.043993272 -0.04586408 0.055512078
000070 f0 b9 05 3d bc 7a b8 bc 8f 2c 26 3b 7c 74 51 3c
       0.032648027 -0.022519462 0.0025356149 0.01278412
000080 f8 ba 16 3d c0 bb 04 bd a4 d1 20 bd 07 9a 34 bd
       0.0367994 -0.032405615 -0.03926243 -0.044092204
000090 7e 8f 2d bc 48 b9 28 3c 4c f2 c2 3c 6e 75 3c bd
       -0.010593293 0.010298081 0.023797177 -0.046010427
0000a0 76 20 fe bc 54 fc b1 bc 3d 03 3b 3d ba 81 a6 bc
       -0.031021338 -0.021726765 0.045657385 -0.02032553
0000b0 71 d4 94 b9 43 5e 2c 3c 56 16 c8 bb 47 28 c1 3c
       -0.0002838704 0.010520521 -0.0061061783 0.023578776
0000c0 82 74 3f bc 9f ea 75 3d a8 5f 01 bc 79 52 ff 3c
       -0.0116854925 0.060038205 -0.007896341 0.031167256
0000d0 df 69 3f 3c 6f 45 37 bd 7d a6 9e ba e6 4d b7 bc
       0.0116829565 -0.04474395 -0.0012104061 -0.022376012
0000e0 44 9c fd bc ef 2e 99 bc 38 f0 38 3d 7a 3d d8 3c
       -0.030958302 -0.018699137 0.045150965 0.026396502
0000f0 83 ae 91 bc f4 9b 35 bd f6 77 3f bd 4d 2d 76 bb
       -0.017783409 -0.04433818 -0.046745263 -0.0037563622
000100 81 5f e3 bc c2 3d 8b bc ab ac 18 3d 94 09 a0 bc
       -0.0277555 -0.016997222 0.037274044 -0.019535817
000110 6c b1 d1 3c ca 2d cd 3c 21 11 03 3c 3a 82 4b 3c
       0.025597297 0.025046248 0.007999689 0.012421185
000120 12 96 b0 bb 04 78 98 bc a1 3a ac 3b 81 76 01 bd
       -0.0053889835 -0.018611915 0.0052560125 -0.031607155
000130 af dd d9 bd f4 a4 66 3d 67 79 bc 3a 6f b2 1e bd
       -0.10637986 0.056309655 0.0014379442 -0.038744386
000140 46 dc e2 bd 47 7c 1c bc f9 68 17 3d a0 7e 27 3d
       -0.1107717 -0.009551114 0.036965344 0.040892243
000150 50 90 30 3b 9f 77 91 bb 67 3d a9 bb d6 aa 96 bc
       0.0026941486 -0.004439309 -0.0051647904 -0.018392008
000160 97 05 a5 3c 13 98 22 3d b9 fb 5f bc d4 ef 2a bd
       0.020144267 0.03969581 -0.013670855 -0.041732624
000170 58 d2 65 bd f6 6c 3c bd 3e 63 85 bd 47 ad 19 bd
       -0.056108803 -0.04600235 -0.065130696 -0.037518766
000180 ee cd b5 3c 7f 0c e4 ba 34 04 0c bd 76 09 c2 bc
       0.022192921 -0.0017398744 -0.034183696 -0.023686152
000190 a8 ef 08 bd 15 e7 9e bb 25 29 5a bc c0 f5 ab bd
       -0.03343168 -0.0048493245 -0.013315474 -0.083964825
0001a0 a7 89 a6 bc 19 c1 fe 3c 66 ab a2 bb 0e 3b fb bb
       -0.02032931 0.031097936 -0.00496428 -0.007666952
0001b0 68 30 69 3c c2 94 45 bd 01 d3 9f bc 60 ae 49 bc
       0.014232732 -0.04823757 -0.019509794 -0.012309641
0001c0 0f ea 0c bd 2f f0 68 3c 8d a1 57 bd f8 d5 78 3c
       -0.034402903 0.0142174205 -0.0526443 0.015187733
0001d0 09 77 52 bc c8 df 88 bc 15 ab 56 bc 73 75 eb bc
       -0.012845763 -0.01670827 -0.013102313 -0.028742528
0001e0 f3 be fd bc eb 8f 94 3b 75 4d db bd 39 0f d3 bc
       -0.03097484 0.004533758 -0.10708133 -0.025764095
0001f0 e0 74 a1 bd 2b 7b cc 3a a3 dc 33 bd fb 74 70 bd
       -0.0788362 0.0015600672 -0.043911587 -0.05870531

a2c_network.actor_mlp.4.weight f4 [128, 128]
000000 5a 83 7e 3e 01 bc 0a be 2f 3e 36 3d f1 31 76 be
       0.24854794 -0.1354828 0.044492897 -0.24042489
000010 9d 1d 6a bd ee 6b 4b be 12 e6 a3 bd b6 28 54 3c
       -0.057157148 -0.1986539 -0.08002867 0.012949159
000020 b6 95 5e 3e 1d ab 16 be 33 6a 15 3e 1f fa 9c 3d
       0.21736798 -0.14713712 0.14591293 0.07664894
000030 c1 69 ff bb 51 9c 43 bd aa 0f 1c 3e d1 0a 07 bd
       -0.0077945893 -0.047756497 0.1524035 -0.0329693
000040 6b ae 1c 3e a2 71 49 bd f2 45 f1 3c c6 06 f2 bc
       0.1530091 -0.049180634 0.029452298 -0.029544245
000050 f6 06 8e bd 0a b0 61 3e b0 ab ae 3a 4d ca 65 bb
       -0.069349214 0.2203981 0.0013326313 -0.0035063208
000060 37 f6 7b 3e 09 34 64 bd f2 8f 11 bd 4a a5 25 3e
       0.24605642 -0.055713687 -0.035537668 0.16176334
000070 ff 82 9e 3d 18 5b 34 3d 6c 95 84 bd bf b5 85 bd
       0.07739829 0.044032186 -0.064738125 -0.06528806
000080 24 06 12 3e 63 b8 76 bd 77 14 77 3e a3 57 9a b9
       0.14260155 -0.06023444 0.241289 -0.00029438463
000090 7f 68 d6 3d c6 84 8e bd e9 b0 a1 3b ae fd 19 3d
       0.1046915 -0.06958918 0.0049344194 0.037595443
0000a0 3d ca 46 bc 4f 01 7d 3c 8b c0 15 3d 8d 37 1f 3e
       -0.012133178 0.0154422065 0.036560576 0.15548535
0000b0 a2 60 b9 3c 6f 42 44 3e d7 7b d1 3c 7f c8 1c bc
       0.022629086 0.19165967 0.025571747 -0.009569286
0000c0 14 18 fd 3d d1 59 bf 3d b1 dc c3 3d aa 1d 85 3d
       0.12358108 0.09343303 0.09563578 0.064997986
0000d0 a3 e7 03 3e 9a 18 1f 3d fe 8b 80 3d 36 ec 9b bc
       0.12881331 0.03884182 0.062767014 -0.019033533
0000e0 26 fd 00 3e bc 3e b5 3d f3 b1 a7 bb d0 38 ff bc
       0.12596568 0.08849856 -0.0051176487 -0.03115502
0000f0 ce 30 5e be 0f 7c b3 3d 4b c4 59 3c 72 63 0c be
       -0.21698305 0.08763897 0.013291429 -0.1370981
000100 9e d2 3e 3d 00 a7 96 3e 90 5a ee bd a3 73 8a be
       0.04658758 0.29424286 -0.11638367 -0.2704135
000110 c4 9b aa bd 98 a2 d2 bd cd b1 b9 3d f3 c9 45 be
       -0.08330491 -0.102849185 0.09067116 -0.19315319
000120 e2 c0 72 3e 94 b0 bc 3d 0d 84 d2 3d 39 c1 75 be
       0.23706391 0.09213367 0.10279093 -0.2399949
000130 0b f6 01 3b 53 60 ef bc cf 6e a4 bc 0a c4 4c 3e
       0.001983049 -0.029220736 -0.020072369 0.19996658
000140 18 93 25 3d df 48 47 3d 85 e6 94 3e 2d 8b af ba
       0.040423483 0.04865348 0.29082122 -0.0013392918
000150 f8 b3 b2 3d f9 f5 46 3e 07 19 32 be bf 7e 88 3c
       0.087257326 0.19429769 -0.1739236 0.016662
000160 a2 77 bc bd a3 d6 df bd a1 aa b9 3d 78 5f 10 be
       -0.09202506 -0.109296106 0.09065748 -0.14098918
000170 d7 29 c8 bc ab 0d 23 be 0e 76 53 bc 98 93 87 ba
       -0.024434013 -0.15923183 -0.012906564 -0.0010343669
000180 f7 fa c8 bd 3a 60 31 3e 35 27 fe bc fb da 88 3c
       -0.09813493 0.17321864 -0.031024555 0.01670598
000190 82 41 e2 bc 18 ef d4 bd be 95 24 3e 64 c0 1c 3e
       -0.027619127 -0.10397166 0.16072747 0.15307766
0001a0 c6 41 37 3e 62 5f 16 3e 8d c6 38 be 1d 55 35 3e
       0.17896184 0.14684823 -0.18044491 0.1770825
0001b0 d7 90 96 bd 40 03 3d 3d c2 79 25 be 9e be a8 bd
       -0.07351845 0.046145678 -0.16159728 -0.08239482
0001c0 c9 1c 72 3d 94 fd cb 3d 0c 6e 21 be 0b 7a e0 bd
       0.059109483 0.099604756 -0.15764636 -0.10960778
0001d0 4e 13 91 bd cc cf af bd 94 0f c6 bc e2 94 43 3c
       -0.0708376 -0.08584556 -0.02417735 0.011937352
0001e0 3e 4e 2c bc c4 67 06 bd c9 11 01 bd 2b 5f 2a 3e
       -0.010516701 -0.032813802 -0.031511102 0.16637866
0001f0 9c 28 1c be 37 47 06 3e 6f 80 2c 3d 46 e2 b2 bc
       -0.15249866 0.13113104 0.04211467 -0.021836411
000200 0f 35 66 be 06 98 0d 3e 28 53 c8 3c ed 8a bf 3d
       -0.22481178 0.13827524 0.024453714 0.0935267
000210 cc dc 8e bc f5 55 0e be 30 5d 4f 3d 56 31 04 3d
       -0.017439269 -0.13899978 0.05062598 0.032273613
000220 44 a1 51 3c 7c a6 0a be e8 57 98 bc 6b 2c 90 bd
       0.012794796 -0.13540071 -0.018596604 -0.07039722
000230 53 c8 0c 3e f5 6a 87 be 89 b0 db bd 90 53 56 3d
       0.13748293 -0.2644879 -0.10727031 0.052325785
000240 47 ec ae bd 15 95 01 3e fc ca 2e be f9 d8 e9 3b
       -0.0854116 0.12654527 -0.1706962 0.007136461
000250 95 cc 3c bd 3f 76 bf bd c1 dc 13 bd da be 81 3d
       -0.046093542 -0.093487255 -0.0360992 0.0633523
000260 4e 30 a3 bd f4 3e 45 bb 8e cf 8e bd 28 e9 11 bd
       -0.07968198 -0.0030097337 -0.06973182 -0.035622746
000270 90 1c 3d bd 2c 9c d4 bc b8 ab f2 3c 6f 8b c0 bd
       -0.046169817 -0.025953375 0.029622898 -0.09401595
000280 43 05 67 3d f2 b1 84 3d 6d 7d 33 bd f7 d5 8d be
       0.056401502 0.06479253 -0.043820787 -0.27702305
000290 02 5b ef 3c 6d e4 b4 bd 62 a3 31 bc 30 31 01 bd
       0.0292182 -0.08832631 -0.010842176 -0.03154105
0002a0 31 55 30 3d 4e 47 4b bd 1c 8e 85 bc 5b 51 1a bd
       0.043049995 -0.04962855 -0.016303115 -0.037675243
0002b0 a4 49 ea bd 0f 94 33 be d5 88 b5 bb 47 04 07 be
       -0.11439827 -0.17536949 -0.0055399933 -0.13185225
0002c0 76 50 84 3d 25 f2 0a 3e bb bc 01 be a0 89 4b be
       0.06460659 0.13568933 -0.12669651 -0.19876719
0002d0 a4 ad 7c 3e 40 1f 9c 3d 7a e3 33 be ba 12 e3 3c
       0.24675614 0.07623148 -0.17567244 0.02771889
0002e0 cb a7 25 be ee aa 8e 3d 9b 15 56 3e f1 38 31 bb
       -0.16177289 0.06966196 0.2090668 -0.0027041996
0002f0 91 a6 ec 3b 4a 6d fc bd 1a 69 d5 bd 3c fa 34 be
       0.0072220047 -0.12325533 -0.10420437 -0.17673582
000300 49 66 9a be d4 3e 13 3d a6 b9 a2 3d ea aa fd 3c
       -0.30156162 0.03594859 0.07945566 0.030965287
000310 30 fc b5 bc 15 14 9a ba 9e 82 67 bd c2 f4 11 3e
       -0.022214979 -0.0011755252 -0.05652105 0.14253524
000320 18 93 68 be ef 53 95 bd d8 c4 95 3e 6c 0f d5 3d
       -0.22712362 -0.072914 0.29251742 0.10403332
000330 bb e5 48 bd b0 68 01 3e 69 b5 52 be 65 8f e1 3d
       -0.049047213 0.12637591 -0.20577015 0.110136785
000340 8c 7d eb bd dc 4f 97 3c a7 f8 28 3d c9 60 fb bd
       -0.114985555 0.018470697 0.04125276 -0.1227432
000350 d9 84 5b bd 72 e5 0c be eb ad 09 bd 73 d7 c7 bd
       -0.05359349 -0.13759401 -0.033613127 -0.097578906
000360 ca c8 02 3e d2 9e 9a bc d8 d9 f2 bd 22 33 7e 3d
       0.12771907 -0.01887456 -0.11857957 0.062060483
000370 13 65 68 bd fc 92 ac 3d a7 58 f3 bd 37 0a d0 bc
       -0.056737017 0.084264725 -0.118821435 -0.025395496
000380 25 dd 8b 3c 30 00 6d be f2 98 a4 be 24 93 bf 3e
       0.017073223 -0.23144603 -0.32147938 0.37416947
000390 aa 83 aa bd 0e c8 c7 bd dc 31 9d 3c ce 44 21 be
       -0.08325894 -0.09754954 0.019188814 -0.15748903
0003a0 42 a7 ab bd 96 2a fc 3d f2 28 39 3d 19 04 26 3b
       -0.08381511 0.1231281 0.045205064 0.0025332032
0003b0 a9 c8 27 be 25 99 2f be 5f 93 0a 3c 10 88 8d 3e
       -0.1638514 -0.17148264 0.008457988 0.2764287
0003c0 5d 56 8a bc 78 05 b2 3d 75 5a 02 3e 38 56 d5 3d
       -0.016886884 0.08692449 0.12729819 0.104168355
0003d0 ae da b3 bd b6 44 88 3d 41 3e 12 be eb 77 ff bd
       -0.08781944 0.066537306 -0.1428156 -0.124740444
0003e0 41 2f 49 be 75 1d 3d bd ce 35 4b be 6d 01 b9 3c
       -0.19646932 -0.04617067 -0.19844744 0.022583688
0003f0 7f e0 3f bd c9 37 a2 bd 59 65 de 3d 78 3d 6d bd
       -0.046844956 -0.079207964 0.10859174 -0.05791995

a2c_network.actor_mlp.4.bias f4 [128]
000000 a0 89 91 bd 98 0e f5 ba 26 25 ee bc 7e 7a 0c bd
       -0.07106328 -0.0018696366 -0.029070448 -0.034296505
000010 81 d1 f6 bb a8 fa 72 bd 5d f6 5f 3c bc 76 0c 3c
       -0.007532299 -0.059321076 0.013669577 0.00857323
000020 c3 74 4f bd e1 21 5f bd d1 7c 1d be 50 dc 81 3c
       -0.050648462 -0.05447567 -0.15379645 0.015852123
000030 a5 33 94 bc 44 87 99 bd f2 08 c3 bd 69 70 94 bd
       -0.018091032 -0.07496503 -0.095231906 -0.07248003
000040 c0 da 99 3d 63 04 17 bc d9 6e 96 bb 59 19 80 39
       0.075124264 -0.0092173545 -0.004590851 0.00024432948
000050 10 85 69 ba db dc 9d bd 25 4e 55 3c 69 a3 8c bd
       -0.00089080725 -0.077081405 0.013019119 -0.068671055
000060 d7 c6 bb bd 56 b5 7c 3c 5e e8 0a 3d 94 87 85 bd
       -0.09168785 0.015424093 0.03391301 -0.0652
000070 8b 06 08 bc 4c 1b 81 bd c4 55 b3 3d 23 2b bd bd
       -0.008302341 -0.063040346 0.08756593 -0.09236743
000080 8b 84 0d ba 70 02 07 3d 85 2b b9 bc 18 93 c4 bc
       -0.00053984736 0.03296131 -0.02260376 -0.023995921
000090 13 d5 94 3b d2 af 2c bd 35 0a 16 3c 92 1b 89 3c
       0.004542002 -0.042159863 0.009157707 0.01673678
0000a0 b3 59 dc bd 8c 3d 2f bc 4a 52 01 bd 2c 37 91 3d
       -0.10759296 -0.010695826 -0.031572618 0.07090601
0000b0 b7 21 c0 bd 98 97 29 bc 35 76 28 be a0 8c 0c bd
       -0.093814306 -0.010351084 -0.16451342 -0.034313798
0000c0 9e 00 ee 3c 00 d8 96 bc 84 7f ae bd 33 8a da 3c
       0.029053029 -0.018413544 -0.085204154 0.026677227
0000d0 0f 89 38 3c a4 8d 1f 3d ff f6 69 3c c4 db 34 3d
       0.011263146 0.03895344 0.01428008 0.044154897
0000e0 77 a7 d0 ba af 5f 49 3c 89 3b 81 3a 05 60 ae bc
       -0.0015919049 0.012290879 0.0009859662 -0.02128602
0000f0 5f 76 05 3d 15 e3 68 3d a2 32 54 bd d9 0f 49 bd
       0.03258359 0.056857187 -0.0518061 -0.04908738
000100 20 50 ae 3c 96 45 13 3d 93 69 2c bd 88 c3 5f 3d
       0.021278441 0.035955034 -0.04209287 0.054629833
000110 2a e1 5c bd d7 fa bc bb 5b 70 20 be 97 f1 6d 3c
       -0.05392567 -0.005767207 -0.1566786 0.014522932
000120 c5 63 c7 3b c5 85 c0 3d e0 b5 12 bb 19 9d d7 bc
       0.0060848915 0.094005145 -0.0022386238 -0.026320027
000130 3d e2 93 3a 38 ce f3 ba 59 46 46 bd 95 ae 77 bc
       0.0011282634 -0.0018600887 -0.048406933 -0.015117307
000140 c6 6b 0b 3d 2f c6 c7 ba f0 ee 86 3c 18 55 81 bd
       0.034038328 -0.0015241558 0.016471356 -0.063150585
000150 e0 dc 9d 3c ec 99 bd bd 1a 38 d8 bd 7c 02 20 be
       0.01927036 -0.09257874 -0.105575755 -0.15625948
000160 d9 9c df bd a2 5f 74 bc 82 68 98 bd 1c 2f 8e bd
       -0.10918588 -0.014915379 -0.07441808 -0.06942579
000170 b2 e8 f9 bc b4 43 2d bd 4b 83 b4 ba 2b d7 64 bd
       -0.030506466 -0.042300895 -0.0013772039 -0.055869263
000180 eb 1b 2a bd f9 9b 97 bb 91 6b e9 bd 10 86 1d bd
       -0.04153053 -0.0046267477 -0.1139747 -0.03845793
000190 3c 10 6a bb ae 71 bc bd da ae 7a bd c0 c2 aa 3d
       -0.0035715243 -0.0920137 -0.061201908 0.08337927
0001a0 57 08 82 bd f6 9c b0 3c d3 ee e5 3c c9 25 ea bd
       -0.06349247 0.02155922 0.028067982 -0.11432988
0001b0 56 6e 31 bd ca d4 84 3b 07 55 4e 3d 18 8e 1a bd
       -0.043318115 0.0040536867 0.050374057 -0.037733167
0001c0 7a 5c fb 3b 6f 54 9f bd aa 15 3b bd 99 28 74 bd
       0.007670936 -0.07779776 -0.045674957 -0.05960903
0001d0 1a 0d 53 bd c0 58 00 bd 86 ba 95 bd 49 5d 42 bc
       -0.051526166 -0.03133464 -0.07310967 -0.011863061
0001e0 11 6d f1 bc 6f 77 a2 3c 00 43 9a 3d 26 1f bb bd
       -0.029470952 0.019832341 0.075323105 -0.091368005
0001f0 a7 b7 e4 bb ac 77 39 bd 25 08 64 bc 9a 3e 98 3b
       -0.006979901 -0.045280144 -0.013917957 0.0046461346

a2c_network.value.weight f4 [1, 128]
000000 45 af 0c bd 8f 41 12 3d e6 51 d4 bb ca 4d 4a 3d
       -0.034346838 0.035707053 -0.0064794896 0.04939059
000010 5e 4f 0e 3b 2b e7 68 3d b7 2a ad 3c ba a0 f9 3d
       0.0021714787 0.056861084 0.021138532 0.12188859
000020 8a 66 d1 3c d2 16 d2 bc 21 40 0d 3e d2 2e ef bc
       0.02556159 -0.025645647 0.13793994 -0.02919713
000030 72 6a 61 bd 5a f4 cd 3c 73 f6 aa 3d 4e d4 81 3c
       -0.055033155 0.02514093 0.08347788 0.015848305
000040 71 34 a4 3e 3e ae fd bc 6a e7 38 3e bf 88 11 3e
       0.3207126 -0.030966874 0.18057027 0.1421232
000050 15 94 cf ba 2a 92 36 3b 3a 51 85 3d f7 4b ac 3d
       -0.0015836979 0.0027858117 0.06509633 0.08412927
000060 7a 83 5e bc 8e c1 80 be 6a 70 0b 3d 44 40 94 bd
       -0.013581151 -0.2514767 0.034042753 -0.0723882
000070 46 82 c1 bb 22 62 9c be 79 93 98 3c 06 92 21 3d
       -0.0059054224 -0.3054362 0.018625008 0.0394459
000080 3e 15 0e 3d e8 40 de 3b cf a9 58 3d 55 d6 06 3c
       0.034688227 0.00678264 0.052896317 0.008229812
000090 1c 2f 4e 3a bd ea 78 3d 38 00 b4 3b 25 f4 3e 3e
       0.0007865296 0.06077074 0.00549319 0.18647821
0000a0 f8 27 cd 3c bf aa 8d bd 0f eb 3a 3e 5a 10 b4 3c
       0.025043473 -0.06917333 0.1825373 0.021980453
0000b0 57 d1 69 bc ce e1 96 be 70 84 40 bd b0 31 ae bd
       -0.014271102 -0.2946915 -0.047001302 -0.08505571
0000c0 ce c4 bb bc 8c f4 0e 3d f9 33 64 3b 7b 41 82 3e
       -0.022920992 0.034901187 0.0034821017 0.25440583
0000d0 bb 4b c0 bc 50 1a 38 3e 1a ea b4 3d e4 46 d6 3d
       -0.023473611 0.17978787 0.08833714 0.1046274
0000e0 91 77 b2 be 09 79 4b 3c 72 ca a4 bb c9 0a b8 3b
       -0.34856847 0.012418994 -0.005029016 0.00561652
0000f0 ac a6 15 bd 88 4e 72 be f9 dc 8f 3c d5 ac 4c 3d
       -0.036535904 -0.2366277 0.017561423 0.049969513
000100 7c 15 ba bc a8 95 04 bd 23 52 bb bc 7f 61 d7 bc
       -0.022715323 -0.032369286 -0.022866314 -0.026291607
000110 49 72 0f 3d 3e f6 72 bd 5f d7 3d be 45 80 b6 3d
       0.0350211 -0.059316866 -0.18539189 0.08911184
000120 8d ae af bd 19 f4 92 bd ef 6c 0b 3d 0f 21 63 bd
       -0.08578215 -0.07175464 0.034039434 -0.05545145
000130 18 1b 04 bc b8 fa 37 3d 99 24 c5 bc 26 9d 00 be
       -0.0080631 0.04491684 -0.024065303 -0.12559947
000140 c7 3e 3f 3d 42 52 a7 3d f6 03 a0 3d 9d f5 03 bd
       0.04669073 0.08169986 0.078132555 -0.032216657
000150 08 f9 18 bd 29 2a 09 bd 24 9d 68 be cf f8 4c bc
       -0.03734687 -0.033487473 -0.22716194 -0.0125104925
000160 2c d8 72 bd 88 e4 65 bc e3 bc 26 bd e9 56 3c bd
       -0.05928819 -0.014031537 -0.04070748 -0.04598132
000170 69 0c 0b 3b 7f e3 a5 bd b9 ab 5e 3b ef ed 56 bc
       0.0021217114 -0.08100032 0.0033976866 -0.013118251
000180 47 74 0f 3d d5 71 b2 bd 78 6c 6b 3d 7b e5 e9 3b
       0.035023 -0.08713118 0.05747649 0.007137952
000190 e3 3a 02 3d 5f d7 d6 3d 11 60 e9 bc 4f 62 a7 bc
       0.03179444 0.104902975 -0.02848819 -0.02043262
0001a0 4c b8 a1 bd d1 ba 85 bc 6b 4d f2 bc ce 6e c1 be
       -0.0789648 -0.016324433 -0.029577931 -0.3777985
0001b0 af 61 34 bc a8 2c 9d bd 85 2f 05 bd 82 5e 00 bb
       -0.011009618 -0.07674533 -0.03251602 -0.001958758
0001c0 2e 83 78 3d a3 d8 1c bd ed f6 e4 bd db 1f 32 3d
       0.060671978 -0.03829254 -0.1117991 0.04348741
0001d0 7d 27 92 3d 61 09 62 be ce 1d 0f bd e9 24 95 3c
       0.07136438 -0.2207389 -0.034940533 0.018206077
0001e0 90 b3 f0 3d e4 9c a8 3c 81 cc 4d bd 58 cc 18 be
       0.11752999 0.020582624 -0.05024386 -0.14921701
0001f0 a1 ca 3f 3a bd d9 0f 3d 41 ee db bd 21 e8 4f 3d
       0.0007316266 0.03511976 -0.10738803 0.050758485

a2c_network.mu.weight f4 [10, 128]
000000 c9 b2 0f be e4 28 e1 bc be 4c 06 3e 1e 3f a7 3d
       -0.14033045 -0.027485318 0.13115212 0.081663355
000010 ad 12 8b 3d 74 ad 56 bc 8d 4b d4 bd 70 21 5f bd
       0.067906715 -0.013102878 -0.10365973 -0.054475248
000020 f4 88 8e bc 29 cc a6 bc 2d 73 c1 bd 56 8c b7 bd
       -0.017399289 -0.020361023 -0.09445796 -0.08962314
000030 24 c1 1b bd e6 7a 6f 3d 0e 46 da 3c cc ec 02 3e
       -0.03802599 0.058466814 0.026644733 0.12785643
000040 17 32 f0 3c 5e 0b 07 bd 35 eb c1 bc 3a 8c 2e 3d
       0.02932076 -0.032969825 -0.023671726 0.0426142
000050 81 df 31 bd 0d ca 7e 3d 5a 68 d8 ba 23 86 c6 bc
       -0.04342604 0.06220441 -0.0016510591 -0.024233883
000060 11 98 95 3c 03 c7 d4 3d 26 b8 ec bd 39 37 d8 3c
       0.018260987 0.10389521 -0.11558561 0.02639352
000070 8e 2b 20 bd df 74 2a 3d 9c 4b 4b 3c 41 ab 0b 3d
       -0.039104037 0.041615363 0.012408163 0.034098867
000080 2d 4b 02 bb a5 f7 2b bd 02 63 9c bc e1 d9 42 3a
       -0.0019881234 -0.04198422 -0.01909018 0.0007432979
000090 f8 86 b2 3b 67 6e 5e 3d e1 ce 6f 3c a7 ca 52 bd
       0.0054482184 0.054304507 0.014636726 -0.051462796
0000a0 9f 2b e4 3d 78 1b 92 bd b1 c1 82 bc 1b 9c 0f bd
       0.111411326 -0.071341455 -0.0159615 -0.035060983
0000b0 b0 50 f8 3c e7 b7 30 3d b0 b2 cf bb b0 48 b7 bd
       0.030311912 0.043144133 -0.00633844 -0.08949411
0000c0 91 ae 35 3d c7 db ff bb c0 14 1b bd 88 f7 8c bd
       0.044355933 -0.007808182 -0.037861586 -0.0688315
0000d0 66 1a 07 be 7d ed ab 3d 47 0b f0 bd ae c2 55 bb
       -0.13193664 0.08394907 -0.11720901 -0.003261726
0000e0 41 b4 53 3d e8 8c 9b 3d 7c f9 7a bd 3e 07 b0 3d
       0.051685575 0.07595235 -0.061273083 0.08595131
0000f0 9a a4 be bc f1 7b 8e 3d 9c dd 6e 3b 5d db 0f 3e
       -0.023271848 0.06957234 0.0036448007 0.14048524
000100 df ae 44 3d e3 76 42 3d da 9c 3c 3b 70 5e 75 bd
       0.048018333 0.04747666 0.0028780014 -0.059904516
000110 0e 27 98 bc 27 a7 b4 3d b2 82 e2 bb 68 f1 be 3d
       -0.01857331 0.08820944 -0.0069125528 0.09323388
000120 75 a2 12 3e 09 81 2d bd 9d 69 20 be 35 02 3d bd
       0.14319785 -0.042359386 -0.15665288 -0.046144683
000130 c2 68 0d be 53 aa 80 bc e1 b2 0a 3e a4 51 94 bd
       -0.13809493 -0.015706217 0.135448 -0.07242134
000140 ac c5 1c bc 12 d8 84 bc 47 43 d1 bd 4a 22 d4 bc
       -0.009568613 -0.016216312 -0.1021791 -0.025895257
000150 3f 2c 0d 3d d9 9b b6 3c d7 d3 49 bd 74 80 7d bd
       0.034466024 0.02229111 -0.04927429 -0.06189008
000160 42 f7 ae 3d 24 4e 21 3d 1d 46 8e 3c 41 9a 9c 3d
       0.085432544 0.03938116 0.017367417 0.07646609
000170 74 9e d6 bd 5e d5 c2 ba 32 8a e9 3d 3e 9b 7c 3d
       -0.10479441 -0.0014864614 0.11403312 0.061671488
000180 4e 36 02 3e d7 48 0c be cc e6 37 bd a4 3d 52 3d
       0.12716028 -0.13699661 -0.04489784 0.051328316
000190 2d cd 3a 3d 62 1d 6e 3d 50 ee 26 be 30 00 1c 3d
       0.045605827 0.05813349 -0.16301847 0.038086116
0001a0 35 45 48 3b 1d b5 8e 3c bb 0e b6 bd be 36 2d 3d
       0.0030558829 0.017420346 -0.08889528 0.042288534
0001b0 73 84 22 3d 04 49 c7 3d 83 f6 e1 bc 65 16 b8 3d
       0.039677095 0.097307235 -0.027583366 0.089886464
0001c0 21 ca 3d bd 11 d6 16 3d 62 3f 81 bd fd 8f 28 3e
       -0.046335343 0.036825243 -0.063109174 0.16461177
0001d0 e8 62 8e bd bd 39 dc bd 59 c6 e9 3d 95 b8 82 bd
       -0.069524586 -0.107532 0.11414785 -0.063828625
0001e0 97 88 05 3d 22 12 bb bd 6e a4 22 bd ce 9a df 3d
       0.032600965 -0.09134318 -0.039707594 0.109181985
0001f0 97 d5 6e 3d 1a 17 b9 3d c0 da e4 ba 7d 4e c3 3d
       0.058309164 0.090376094 -0.0017460212 0.09536455
000200 55 1a 20 be a0 69 ca 3d 17 01 41 3c 84 e9 d5 3c
       -0.15635045 0.098834276 0.011780045 0.026112325
000210 a0 91 2f be 26 da 6d 3a 91 81 8a 3d 00 42 f0 3d
       -0.17145395 0.0009073339 0.06762994 0.117313385
000220 44 02 b5 bd d9 4f 52 bd 5f 3c 32 be 67 ad fa 3d
       -0.08838323 -0.05134568 -0.17405842 0.12240105
000230 bf 40 83 3d 3d 86 c5 3a da 57 a8 be 62 a7 dd bc
       0.06408834 0.0015069913 -0.32879525 -0.027057353
000240 5a 7d bd 3d 3f 91 13 3e 5c bb ed bd 27 1a dd bb
       0.092524245 0.14410876 -0.116080016 -0.0067475024
000250 95 38 26 3e b3 19 33 3d fe 94 db 3d 5e 84 38 bd
       0.16232522 0.04372568 0.107217774 -0.04504811
000260 86 e4 38 be 87 48 02 bd c9 f9 8f 3d c8 82 c7 bb
       -0.18055925 -0.03180745 0.070300646 -0.0060885884
000270 f8 ca 08 bc ec 1f 8a bd c7 e1 fb 3d db 99 e5 3a
       -0.008349173 -0.0674437 0.12298923 0.0017517166
000280 19 12 aa bd ed 15 11 bd 6b 60 f5 3d 5d 13 4c 3d
       -0.08304233 -0.0354213 0.11981281 0.049823154
000290 b2 d0 fe bd 93 c0 91 3d 3b 33 d6 bc 26 7c 2d be
       -0.12442149 0.07116809 -0.026147475 -0.1694189
0002a0 5b 3c 9f bd a7 ef 8a 3d c5 46 c2 3c 15 51 9f 3d
       -0.07775184 0.06783991 0.023715386 0.07779137
0002b0 40 c5 d5 bc 17 07 19 3d 43 74 9d bd eb 13 7a bd
       -0.026095033 0.037360277 -0.07688191 -0.06105415
0002c0 89 88 87 3d f7 35 23 3e 00 c2 4f be 56 6c 38 bb
       0.06617839 0.15938555 -0.20288849 -0.0028140745
0002d0 64 9b 92 3d 7d 7b 0b 3d 31 32 9d 3d bb 57 68 3d
       0.07158545 0.034053314 0.07675589 0.05672429
0002e0 6a d7 81 3e 95 0d 14 be 09 71 80 3d a8 24 05 3e
       0.2535966 -0.14458306 0.0627156 0.13002264
0002f0 4e 88 64 3d 27 36 df bc 73 01 f9 bc b8 b7 c0 3c
       0.055794053 -0.027247502 -0.030396199 0.023525104
000300 0f 51 fd 3d c4 35 e9 3d b5 dc a5 bd 5d e1 03 3e
       0.12368976 0.11387208 -0.08098737 0.12878938
000310 fd 70 9c bd 54 95 db 3d 30 cc a6 bd b9 0b d2 3d
       -0.07638738 0.107218415 -0.081444144 0.10256142
000320 19 d9 92 be 08 ad 3c 3e 68 eb 2f bc 86 ca 8d 3d
       -0.28681257 0.18425381 -0.010737278 0.06923394
000330 f2 5e cd 3d 0b 76 45 3e 91 aa 21 be a3 53 04 3e
       0.10027875 0.19283311 -0.15787722 0.1292253
000340 bd 35 bf 3c 11 e1 9c 3e 78 da a4 bd bc 6f 6b bd
       0.023341054 0.30640462 -0.08049482 -0.057479605
000350 dd 8e 11 be 5d 33 59 bd f2 b1 0a be af b4 96 be
       -0.14214654 -0.0530275 -0.13544443 -0.29434726
000360 b2 f0 ad bd 63 0f fe 3d 0a d8 a8 be c8 46 84 3d
       -0.084931746 0.124052785 -0.32977325 0.06458813
000370 2e 49 f1 3c fd b6 2b 3d f1 ec bd 3a c0 99 14 bb
       0.02945384 0.041922558 0.001449017 -0.002267465
000380 ce 4a 53 3d b4 91 ab 3a a0 8c 71 bd 70 f7 37 be
       0.05158501 0.0013089688 -0.058972 -0.17965484
000390 d1 b7 14 3c 8a 1d 49 be 64 8e 14 be 9e 64 c1 3d
       0.009077028 -0.19640175 -0.14507443 0.09443019
0003a0 b1 09 c6 3c 56 97 db bd ec 57 88 3c f3 41 b3 bd
       0.024174543 -0.107222244 0.016643487 -0.08752813
0003b0 10 61 b3 bd a3 c6 6f 3c 14 79 aa 3c c4 81 4a bc
       -0.087587476 0.014634761 0.020809688 -0.01236004
0003c0 7e d2 ba 3b 85 8b 08 3d 86 70 e1 bc 52 55 3d be
       0.005701362 0.03333618 -0.027519476 -0.18489578
0003d0 de 51 32 be 2f d4 1c 3e 0a ab 10 bb 53 7e 00 3e
       -0.17414042 0.15315317 -0.0022074603 0.12548189
0003e0 2c 5a 1f bd 93 6c 23 3d ce 43 bb 3d 8c e2 da bd
       -0.038904354 0.039898466 0.09143792 -0.10687742
0003f0 3c e1 46 3d c4 d4 2b bd ac 6f 7a be cd f5 f9 3d
       0.048554644 -0.041950956 -0.24456662 0.12205086

a2c_network.mu.bias f4 [10]
000000 08 e7 aa 3b 1a 29 28 3e c8 0b ce bb 7a 7a b0 bc
       0.0052155294 0.16421929 -0.0062880255 -0.021542776
000010 54 1a 59 bd 2f 54 0e be 27 ae eb bb 6a fe d0 bb
       -0.053003624 -0.13899301 -0.0071923914 -0.006377985
000020 59 96 c9 ba 64 2a 38 3e
       -0.001537989 0.1798492

exp_avg f4 [10]
000000 40 1f c3 38 33 cd 82 b7 67 50 f7 39 8e 42 21 b8
       9.304145e-05 -1.5592761e-05 0.00047171416 -3.8447375e-05
000010 b8 ad a5 b9 d2 28 12 ba d1 d2 49 b9 dc 8e a3 b9
       -0.00031600683 -0.00055755407 -0.00019247389 -0.0003119622
000020 db ef d3 37 cd 2c fc b8
       2.5264852e-05 -0.00012024641

exp_avg_sq f4 [10]
000000 07 fd af 36 35 29 c0 36 ae 16 ce 36 fb 5a a6 36
       5.2448627e-06 5.726843e-06 6.1419187e-06 4.957777e-06
000010 2c 7b ba 36 77 24 a5 36 c3 4a a3 36 33 b6 bd 36
       5.557571e-06 4.9216283e-06 4.866482e-06 5.6538497e-06
000020 0a fc b0 36 64 fd b8 36
       5.27455e-06 5.513126e-06
