logs/rl_games/humanoid_flat_direct/semi_success/nn/last_humanoid_flat_direct_ep_2750_rew_967.7873.pth (torch, 759502 bytes, 33 tensors)

value_mean_std.running_mean f8 [1]
84.26538309458415
00000000: 9d09 6009 fc10 5540

value_mean_std.running_var f8 [1]
1597.1264435461428
00000000: e5bd 6a7a 81f4 9840

value_mean_std.count f8 []
1081344001.0
00000000: 0000 4000 001d d041

a2c_network.sigma f4 [10]
-1.1644614 -0.8612921 -1.7850618 -0.14370316 -1.9848398 -0.00066180725 -1.8284965 -1.8926171
-0.9077426 -0.93671644
00000000: 120d 95bf a47d 5cbf e87c e4bf ec26 13be
00000010: 3b0f febf 227d 2dba 2c0c eabf 4741 f2bf
00000020: d261 68bf a6cc 6fbf

a2c_network.actor_mlp.0.weight f4 [256, 42]
0.04135604 0.4007063 0.3260492 0.12484627 0.03261958 -0.0069859144 0.1539999 -0.1652331
-0.43296942 -0.04868194 -0.17084657 0.05255525 -0.08979197 0.12841433 0.10905776 0.045324396
0.047844827 -0.16536072 -0.009819703 -0.06707439 -0.008487511 -0.072952956 -0.43371713 -0.44631088
0.12783182 0.1711813 -0.19262642 -0.29536194 0.2053902 0.060651734 0.14989232 -0.22304058
-0.13265826 -0.11385616 -0.08230674 0.036102764 0.020349503 0.09083688 -0.08146596 -0.06850833
0.047612324 -0.047036044 0.1128483 -0.024685921 0.25600865 -0.2565065 0.088834144 0.19536111
0.32698166 0.054967612 0.058045685 0.07658751 -0.1042211 -0.06631202 0.29849 -0.030883132
-0.094881624 -0.20669314 -0.09590896 -0.039127674 -0.01713401 -0.14174297 0.006114379 -0.15413012
0.057273403 -0.15412782 -0.011500984 -0.48620436 0.42520365 -0.08613272 0.050254233 -0.23959978
-0.2320899 0.058690205 0.015284947 -0.13227527 -0.15306999 -0.050451405 0.050339576 -0.06956225
-0.04496332 -0.05133795 -0.004270558 -0.001641191 -0.05906965 -0.1670069 0.30405 -0.17542817
0.1406265 -0.10387003 -0.37325913 0.0024777502 -0.12669615 -0.04561959 -0.14041717 -0.17471085
-0.036168735 -0.19981657 0.1274981 -0.1200083 0.16024823 -0.101638936 -0.047311883 0.020453852
0.09087172 0.26277357 0.048959613 -0.3242562 0.09663428 -0.09921393 0.11740164 -0.29737946
0.14200531 -0.2737572 0.042887975 0.032751698 0.043685056 -0.059719976 0.13241267 0.05489886
0.034052722 -0.081556104 0.05636229 -0.046530314 -0.039066073 0.1329642 0.044261478 -0.3756773
-0.087418996 0.00341236 -0.08659321 -0.32666644 -0.26467833 -0.0032424517 -0.14348368 0.053806923
0.12429191 -0.15002812 0.07849211 0.07708964 0.09451439 -0.119741075 0.09461873 0.09177659
0.16553858 -0.033045758 -0.123169094 -0.008535243 -0.025685245 0.17139447 0.17053805 -0.10495632
0.0041381773 -0.21422672 0.03233695 -0.04836436 -0.024326477 -0.056135826 -0.11521021 -0.045741346
0.09898018 0.06817337 -0.059028424 -0.060821068 -0.083556 -0.123501785 -0.020716462 0.048467465
0.098633796 0.19619364 -0.059490185 0.03209258 0.00043133643 0.27207243 0.09881207 -0.028075699
0.07243615 -0.07345587 -0.10212032 0.1313448 0.0047049783 0.06528542 -0.22010796 0.13430975
0.12823005 -0.0037642654 -0.11090867 -0.2321234 -0.13502458 0.24896094 0.18611202 0.24684574
-0.061332133 -0.031030964 0.056034178 -0.30723196 -0.2655668 -0.3290934 0.068383984 -0.06790124
-0.01839781 -0.096660405 -0.07634169 -0.113499165 -0.138987 0.0013237979 0.010271712 0.12334462
-0.016289746 -0.05724484 -0.051796433 0.009364339 0.031603348 -0.15991698 0.18167941 -0.15458752
0.013781345 0.037014015 0.13845968 -0.09356555 0.08818354 -0.07780135 0.1338266 0.26175222
-0.059582103 0.050057974 0.023500409 -0.11252482 0.12709431 -0.31503943 0.08051109 0.25144574
0.3452446 0.14779025 -0.11060543 -0.057941858 0.10484768 -0.23703718 -0.016692149 -0.3006189
-0.014622569 -0.025588268 -0.06593363 -0.07814066 -0.14023654 0.114146344 0.12026344 0.02912161
-0.044155974 -0.121313535 -0.09511171 -0.10133511 0.0467399 -0.010103017 -0.015984157 -0.0055784006
00000000: f364 293d 6029 cd3e ecef a63e 67af ff3d
00000010: 1c9c 053d 19ea e4bb 26b2 1d3e de32 29be
00000020: 2bae ddbe b766 47bd 67f2 2ebe 2c44 573d
00000030: dae4 b7bd 0c7f 033e ad59 df3d 13a6 393d
00000040: f0f8 433d 5254 29be d2e2 20bc 4c5e 89bd
00000050: 340f 0bbc 5c68 95bd 2c10 debe dc82 e4be
00000060: 58e6 023e 274a 2f3e dc3f 45be ae39 97be
00000070: cf51 523e f46d 783d 5f7d 193e c064 64be
00000080: 91d7 07be 6b2d e9bd 7090 a8bd 7ee0 133d
00000090: 00b4 a63c b008 ba3d a0d7 a6bd 184e 8cbd
000000a0: 2405 433d dea8 40bd 021d e73d 213a cabc
000000b0: 9113 833e d254 83be adee b53d be0c 483e
000000c0: 246a a73e b825 613d 50c1 6d3d ead9 9c3d
000000d0: df71 d5bd 99ce 87bd aed3 983e 9ffe fcbc
000000e0: 4c51 c2bd 5ea7 53be eb6b c4bd 5744 20bd
000000f0: a05c 8cbc 1225 11be 215b c83b 49d4 1dbe
00000100: 8497 6a3d afd3 1dbe a06e 3cbc c7ef f8be
00000110: 4bb4 d93e 5a66 b0bd 62d7 4d3d a559 75be
00000120: faa8 6dbe 2465 703d b76d 7a3c 2b73 07be
00000130: 61be 1cbe 22a6 4ebd df30 4e3d a776 8ebd
00000140: 752b 38bd be47 52bd 09f0 8bbb 3b1d d7ba
00000150: 04f3 71bd db03 2bbe 71ac 9b3e 71a3 33be
00000160: 6500 103e cfb9 d4bd d21b bfbe c061 223b
00000170: a3bc 01be 9bdb 3abd 85c9 0fbe 67e7 32be
00000180: ab25 14bd b79c 4cbe dd8e 023e e9c6 f5bd
00000190: 1d18 243e 1328 d0bd 1bca 41bd d68e a73c
000001a0: f41a ba3d 428a 863e e089 483d e904 a6be
000001b0: 32e8 c53d ac30 cbbd 4570 f03d 1f42 98be
000001c0: d769 113e e729 8cbe 4dab 2f3d a526 063d
000001d0: 1aef 323d ef9c 74bd 3097 073e a1dd 603d
000001e0: de7a 0b3d e306 a7bd 25dc 663d 9296 3ebd
000001f0: bf03 20bd c427 083e 864b 353d c658 c0be
00000200: bb08 b3bd e7a1 5f3b c857 b1bd d340 a7be
00000210: eb83 87be 507f 54bb 63ed 12be a664 5c3d
00000220: c28c fe3d f9a0 19be 79c0 a03d 2ce1 9d3d
00000230: c390 c13d cf3a f5bd 77c7 c13d 5df5 bb3d
00000240: f282 293e fd5a 07bd 1440 fcbd 67d7 0bbc
00000250: dd69 d2bc 0882 2f3e 87a1 2e3e 57f3 d6bd
00000260: 8c99 873b 405e 5bbe c073 043d b519 46bd
00000270: 5248 c7bc aeee 65bd 55f3 ebbd 475b 3bbd
00000280: 1fb6 ca3d 7b9e 8b3d cac7 71bd 831f 79bd
00000290: 681f abbd 81ee fcbd 92b5 a9bc d285 463d
000002a0: 8400 ca3d fce6 483e fbab 73bd 8273 033d
000002b0: ff24 e239 144d 8b3e fc5d ca3d 02ff e5bc
000002c0: 6759 943d 0870 96bd 7524 d1bd 407f 063e
000002d0: 382c 9a3b 5db4 853d fb63 61be 7f88 093e
000002e0: bd4e 033e e5b1 76bb 1624 e3bd c2b1 6dbe
000002f0: e243 0abe 9eef 7e3e 2694 3e3e 21c5 7c3e
00000300: 6737 7bbd a634 febc 1884 653d 824d 9dbe
00000310: 5ff8 87be ee7e a8be e70c 8c3d ce0f 8bbd
00000320: 01b7 96bc e4f5 c5bd 0859 9cbd 4072 e8bd
00000330: 9c52 0ebe 4983 ad3a af4a 283c 1b9c fc3d
00000340: 1372 85bc 9179 6abd 7f28 54bd e26c 193c
00000350: 8372 013d 47c1 23be 2b0a 3a3e 314c 1ebe
00000360: 27cb 613c 029c 173d 60c8 0d3e 4c9f bfbd
00000370: 9299 b43d 5056 9fbd d709 093e 6304 863e
00000380: 5d0c 74bd 9709 4d3d ee83 c03c 6a73 e6bd
00000390: 0325 023e d94c a1be 00e3 a43d 7fbd 803e
000003a0: e6c3 b03e 5456 173e 1a85 e2bd 7154 6dbd
000003b0: 61ba d63d e0b9 72be f9bd 88bc b8ea 99be
000003c0: 8093 6fbc 7d9e d1bc 3608 87bd 3608 a0bd
000003d0: 2b9a 0fbe 8fc5 e93d ae4c f63d 7190 ee3c
000003e0: e5dc 34bd 3b73 f8bd eec9 c2bd c888 cfbd
000003f0: 5672 3f3d 2087 25bc 35f1 82bc 04cb b6bb

a2c_network.actor_mlp.0.bias f4 [256]
-0.030173227 0.034171265 -0.00475677 0.009689386 0.00059606036 -0.018973235 -0.012718854 0.0036636405
-0.02429329 0.053985693 0.030958185 -0.016392468 0.00084923144 -0.012642517 -0.011605007 0.006667948
0.0007434954 0.026323203 -0.0131961 0.028164066 -0.030489543 -0.018295825 -0.0005934654 0.03259128
-0.011229922 0.029605092 0.016861837 -0.0027606492 0.014458252 -0.030726032 0.008666105 0.01799509
0.031043662 0.020531848 0.005594404 -0.0455661 -0.007986727 0.030943293 -0.030160962 0.0024010031
0.04800049 -0.013529445 0.041933347 -0.020279506 -0.011548283 0.004821064 0.0521386 0.034284443
-0.0007333613 -0.032713316 -0.017013384 0.013082009 0.0030772456 -0.009942562 -0.023786256 -0.023334185
0.03169065 0.017447531 0.025592554 0.013801274 -0.0023720392 -0.015347211 0.020866798 -0.020500772
-0.015479847 0.079520226 -0.005801189 -0.0134777725 0.0051132757 0.0066709644 0.017704578 0.02412195
-0.05836938 0.033536695 -0.02125204 -0.021516291 -0.0066576595 -0.016966432 -0.015540389 0.010691974
0.0287561 -0.016642844 0.00633804 -0.02285648 0.02133279 0.017891493 0.01946246 -0.0132909855
0.027766075 -0.026360614 -0.020147217 -0.022505274 0.003734472 -0.00013884941 -0.008637638 0.016980063
0.03690283 0.0032228692 -0.012271823 0.013587196 0.049283426 -0.009202547 0.005436332 0.012304802
0.046630226 -0.006063461 0.025286559 0.021019693 -0.0333717 -0.01730435 0.035532624 0.029194698
-0.025118576 -0.028251598 -0.02498295 0.0030812619 0.038521487 -0.047353614 0.010729643 -0.0047750515
-0.03914298 -0.08092896 0.0034447573 -0.014186402 0.0012867498 -0.012251412 -0.014831253 -0.015546082
0.005906268 -0.018656041 -0.004344269 0.02195766 -0.024450116 0.023574192 0.03632251 -0.017716812
0.0026024187 -0.023296472 -0.005140415 -0.014320806 0.036192294 0.0020256536 -0.03048882 -0.01203083
-0.0218612 0.013465506 0.016603354 0.0036660442 0.019688698 -0.035417654 0.035566363 0.013371036
0.03372642 0.0073321983 -0.0069274865 -0.04208068 -0.0184258 -0.027725551 0.06099358 -0.0024323491
-0.019159254 0.023684496 -0.035628013 -0.0035124545 -0.027637117 0.016075183 0.008586393 0.027320832
0.004077637 0.01899636 0.0033658305 -0.032014415 0.005115237 0.017003318 0.003891886 0.0047637196
-0.0035484696 -0.033063687 0.023336513 0.02107021 0.004879677 0.008565128 -0.008869551 0.025351962
0.0028473071 -0.017472338 0.01418119 0.020811716 -0.008469742 0.022923362 -0.022195961 0.025728183
-0.0057730074 -0.014154709 0.03309086 -0.04708781 -0.031666994 -0.02906451 0.040777512 0.000356017
0.035662565 0.002360653 0.027927933 -0.040314227 -0.010462787 -0.01601049 0.017319193 -0.029714001
-0.003695477 -0.0030532023 0.0027828473 0.033006966 0.013462325 0.030519484 -0.012584804 0.003855083
-0.046360455 0.005661361 -0.005691265 -0.03309246 0.037660908 -0.0018555586 -0.05423692 0.038706653
0.012921587 -0.030773945 -0.019761829 0.020581653 0.051661395 0.017288476 0.020937504 -0.02435419
0.016217165 -0.067332245 0.00012579901 0.032811794 -0.017165218 0.018047696 -0.012151288 -0.008916185
0.03717433 0.016814386 0.009094089 0.02319548 0.017788406 0.026821846 0.02783614 -0.07093691
0.023584807 -0.023206342 -0.0052529112 -0.01270642 0.019474508 0.0069997613 0.0029062063 0.0045599747
00000000: d82d f7bc 2bf7 0b3d aede 9bbb 3bc0 1e3c
00000010: ef40 1c3a c26d 9bbc bd62 50bc b019 703b
00000020: b902 c7bc 1a20 5d3d 059c fd3c 7f49 86bc
00000030: f59e 5e3a 8f22 4fbc ed22 3ebc cd7e da3b
00000040: 22e7 423a c2a3 d73c 7434 58bc 54b8 e63c
00000050: 35c5 f9bc 20e1 95bc ca92 1bba 6f7e 053d
00000060: b5fd 37bc 6186 f23c d621 8a3c 02ec 34bb
00000070: 4ee2 6c3c 29b5 fbbc 47fc 0d3c 706a 933c
00000080: 474f fe3c 6832 a83c 4351 b73b 85a3 3abd
00000090: c3da 02bc ca7c fd3c 1f14 f7bc 265a 1d3b
000000a0: 299c 443d 9baa 5dbc 4dc2 2b3d 3521 a6bc
000000b0: 0235 3dbc 04fa 9d3b 498f 553d d86d 0c3d
000000c0: 0b3f 40ba 66fe 05bd a75f 8bbc ec55 563c
000000d0: 9dab 493b 21e6 22bc 65db c2bc 5527 bfbc
000000e0: 0ece 013d 20ee 8e3c 7aa7 d13c bd1e 623c
000000f0: 3774 1bbb de72 7bbc d9f0 aa3c 3cf1 a7bc
00000100: 2f9f 7dbc 80db a23d e717 bebb e0d1 5cbc
00000110: 448d a73b 1b98 da3b 3109 913c 659b c53c
00000120: bb14 6fbd c65d 093d c218 aebc ef42 b0bc
00000130: 7f28 dabb 30fd 8abc 1e9d 7ebc 642d 2f3c
00000140: ea91 eb3c 9356 88bc 55af cf3b 833d bbbc
00000150: 1ac2 ae3c 2e91 923c bd6f 9f3c 6fc2 59bc
00000160: ae75 e33c 37f2 d7bc c70b a5bc fb5c b8bc
00000170: 0bbe 743b 1b98 11b9 e184 0dbc c619 8b3c
00000180: 6c27 173d c636 533b c20f 49bc d59c 5e3c
00000190: 6bdd 493d 48c6 16bc 4223 b23b 159a 493c
000001a0: 56ff 3e3d ffaf c6bb c225 cf3c 7e31 ac3c
000001b0: c4b0 08bd dac1 8dbc a88a 113d b829 ef3c
000001c0: 79c5 cdbc e56f e7bc 0ba9 ccbc ffee 493b
000001d0: b5c8 1d3d ddf5 41bd 62cb 2f3c 0978 9cbb
000001e0: 6454 20bd 15be a5bd 70c1 613b 156e 68bc
000001f0: 29a8 a83a 25ba 48bc c9fe 72bc feb4 7ebc
00000200: 5e89 c13b 8ed4 98bc 5f5a 8ebb 8de0 b33c
00000210: 9c4b c8bc aa1e c13c eac6 143d d922 91bc
00000220: 578d 2a3b 3ed8 bebc ed70 a8bb d0a1 6abc
00000230: 5f3e 143d d4c0 043b b1c3 f9bc f51c 45bc
00000240: 4216 b3bc 6d9e 5c3c c203 883c 0442 703b
00000250: 314a a13c 1a12 11bd 09ae 113d 3112 5b3c
00000260: b724 0a3d f042 f03b f8ff e2bb cb5c 2cbd
00000270: b4f1 96bc b220 e3bc 67d4 793d 0c68 1fbb
00000280: def3 9cbc fd05 c23c aeee 11bd 3531 66bb
00000290: 3c67 e2bc 1ab0 833c f1ad 0c3c f0cf df3c
000002a0: b39d 853b 419e 9b3c 4495 5c3b 8c21 03bd
000002b0: b89d a73b 8b4a 8b3c 030f 7f3b fa18 9c3b
000002c0: 718d 68bb ca6d 07bd 372c bf3c 6f9b ac3c
000002d0: b3e5 9f3b c054 0c3c 9851 11bc ebae cf3c
000002e0: e399 3a3b 2622 8fbc 3958 683c 557d aa3c
000002f0: acc4 0abc c6c9 bb3c 4ed4 b5bc e9c3 d23c
00000300: 7f2b bdbb 27e9 67bc 488a 073d 26df 40bd
00000310: 40b5 01bd b218 eebc 5206 273d cba7 ba39
00000320: e912 123d 2fb5 1a3b 1fc9 e43c 8820 25bd
00000330: 1c6c 2bbc 6e28 83bc fbe0 8d3c c76a f3bc
00000340: d12f 72bb 3c18 48bb 6e60 363b 5032 073d
00000350: 1591 5c3c ff03 fa3c 7e30 4ebc 8fa5 7c3b
00000360: 76e4 3dbd f082 b93b cb7d babb f68b 07bd
00000370: 5342 1a3d 3736 f3ba 8827 5ebd de8a 1e3d
00000380: 10b5 533c a419 fcbc 8fe3 a1bc db9a a83c
00000390: e69a 533d 90a0 8d3c 2185 ab3c 7082 c7bc
000003a0: dcd9 843c 7de5 89bd eae8 0339 a965 063d
000003b0: 129e 8cbc c3d8 933c 3216 47bc 3115 12bc
000003c0: 1c44 183d 53be 893c 60ff 143c 7304 be3c
000003d0: feb8 913c 7db9 db3c 9e08 e43c 5f47 91bd
000003e0: ed34 c13c 3a1b bebc 9d20 acbb 972e 50bc
000003f0: 0189 9f3c 415e e53b 0d76 3e3b d76b 953b

a2c_network.actor_mlp.2.weight f4 [128, 256]
0.007684006 -0.15306439 -0.08462836 -0.093830295 0.10735263 -0.03899859 -0.015008189 0.20979705
0.010569647 0.167751 -0.08686921 0.026520072 0.01215336 0.066223286 -0.12952878 0.02658122
-0.19484319 0.13937281 0.16353193 -0.052214343 0.04129468 0.10627224 -0.34995657 -0.14959356
0.09936821 -0.11741347 -0.0061374786 0.029483339 -0.08117972 -0.054510355 0.017104518 0.012134252
-0.04148672 -0.0072999583 0.060883977 -0.19113286 -0.116677746 -0.053887166 -0.011518549 -0.03401595
-0.061631635 0.14270581 -0.031018974 -0.058536466 0.033426143 -0.07825977 0.081230894 -0.05214696
0.1245712 -0.09974139 -0.010703268 -0.043984886 0.0017622552 0.18223663 -0.09672525 0.0069576916
-0.12523583 -0.075503446 0.063526474 0.0003319981 0.01809035 -0.019730115 0.0828094 -0.0919613
0.13724542 0.10699376 -0.11589823 0.098724626 0.030307822 0.10239382 0.08689479 0.076855145
-0.028134873 0.06370708 0.086532906 -0.09034986 -0.07488211 -0.005234592 0.002677587 -0.0067750486
-0.048253383 0.08848068 -0.04262183 -0.0144208595 0.034131493 -0.031569432 0.0015390315 0.049078546
-0.12526663 -0.092342444 0.13594508 0.05269153 0.01302499 0.0598426 -0.031501282 -0.07150818
0.024701973 -0.11390928 0.028861973 0.030514363 -0.065897256 -0.06165749 0.0014576169 -0.036232457
0.106034994 0.13956556 0.10356338 -0.024227746 -0.015931133 0.012589645 -0.09163738 -0.046278212
0.1768786 0.04067977 -0.011870018 -0.054737862 -0.080628924 0.24903749 -0.049237285 0.025579073
-0.14600216 0.0022052373 -0.08071424 -0.13047774 0.038192827 0.12684871 0.022507932 0.042479876
-0.058891024 0.11683788 -0.03979259 0.047896802 -0.017049765 0.03782494 0.10715977 -0.08310299
0.01995287 0.048049808 0.0032788047 0.012235698 -0.12709972 0.058625307 0.19335715 -0.06871457
0.022417532 0.108649075 -0.015964054 0.040325888 -0.14707318 0.04502239 0.03346667 -0.13997073
0.051573075 -0.02415937 -0.17405753 -0.009250931 0.123225816 -0.090915516 -0.083432645 -0.0984265
0.03227641 0.083009146 0.030165507 -0.14849052 -0.059780497 0.012161449 0.13932244 -0.07765003
0.019789323 -0.13991398 0.09066326 0.023801189 0.027002372 0.04642655 -0.16679056 0.08985175
-0.04349719 -0.13412309 0.0859117 -0.16164325 -0.058996357 -0.053499583 -0.0931704 -0.12636183
0.02866016 0.08344948 -0.06550895 -0.08242954 -0.066122904 0.079627156 -0.035955448 0.059398804
-0.2193289 0.02176877 -0.03968015 -0.053169176 0.03317726 0.0037238544 -0.06657376 0.106302276
-0.057183933 0.07904677 -0.039940145 -0.042529985 0.019918438 0.080964796 0.13953212 -0.19739549
-0.098556645 -0.051295966 0.03792746 0.03372169 -0.16412117 -0.061926883 0.016639827 -0.03642463
-0.10189662 0.122198485 -0.08076706 0.03206679 -0.060346585 0.001267173 0.041072644 0.019033456
-0.1562879 0.118241854 -0.013401145 0.005586237 0.001612776 0.09715899 -0.016686076 0.043570522
0.21189569 -0.010551329 -0.08543464 -0.01983558 0.042443477 -0.18085295 0.041804116 0.0029688235
-0.07485809 -0.026837328 0.08720261 0.06862191 -0.027779134 0.008977733 0.0019693922 0.14438951
-0.04817656 -0.05580061 -0.100060485 0.086439066 0.105255716 -0.037048608 -0.03408972 -0.028596845
00000000: 1dca fb3b e9bc 1cbe a251 adbd 192a c0bd
00000010: b2db db3d fcbc 1fbd e8e4 75bc 0ad5 563e
00000020: 502c 2d3c ebc6 2b3e 7ce8 b1bd 9f40 d93c
00000030: e31e 473c 13a0 873d 31a3 04be dcc0 d93c
00000040: f984 47be bfb7 0e3e ea74 273e b5de 55bd
00000050: 9c24 293d 43a5 d93d 822d b3be 0e2f 19be
00000060: 8f81 cb3d 7976 f0bd e71c c9bb 0b87 f13c
00000070: 8e41 a6bd 4046 5fbd c61e 8c3c bece 463c
00000080: fbed 29bd 7d34 efbb 7a61 793d 55b8 43be
00000090: bef4 eebd cab8 5cbd 4cb8 3cbc 4f54 0bbd
000000a0: 7471 7cbd 7921 123e 811b febc efc3 6fbd
000000b0: dae9 083d a946 a0bd 625c a63d 0d98 55bd
000000c0: 2f1f ff3d 3745 ccbd c35c 2fbc 7f29 34bd
000000d0: 79fb e63a 3d9c 3a3e e317 c6bd 59fd e33b
000000e0: d23d 00be 8da1 9abd 2b1a 823d 0810 ae39
000000f0: 3732 943c 0da1 a1bc fa97 a93d 3556 bcbd
00000100: 108a 0c3e 8b1f db3d 0d5c edbd 2330 ca3d
00000110: 1c48 f83c dab3 d13d e5f5 b13d 3b66 9d3d
00000120: 1b7b e6bc dc78 823d 2a38 b13d 5909 b9bd
00000130: cb5b 99bd f186 abbb 757a 2f3b 3a01 debb
00000140: 57a5 45bd 5c35 b53d 3a94 2ebd 7845 6cbc
00000150: 77cd 0b3d f34e 01bd 54b9 c93a 9606 493d
00000160: e545 00be 091e bdbd 3035 0b3e 13d3 573d
00000170: c566 553c 841d 753d 7d07 01bd e172 92bd
00000180: cb5b ca3c 4549 e9bd f26f ec3c 42f9 f93c
00000190: 24f5 86bd 908c 7cbd 820d bf3a 7c68 14bd
000001a0: e028 d93d 46ea 0e3e 0a19 d43d 4479 c6bc
000001b0: 0282 82bc cc44 4e3c 61ac bbbd 398e 3dbd
000001c0: aa1f 353e d59f 263d 777a 42bc cf34 60bd
000001d0: c720 a5bd af03 7f3e 09ad 49bd 348b d13c
000001e0: 9781 15be be85 103b 824d a5bd f59b 05be
000001f0: 1570 1c3d a1e4 013e 8e62 b83c 61ff 2d3d
00000200: b737 71bd b348 ef3d 8efd 22bd 702f 443d
00000210: f3ab 8bbc 53ee 1a3d 9576 db3d e731 aabd
00000220: 3474 a33c e0cf 443d 37e1 563b 3d78 483c
00000230: 6e26 02be 1721 703d 6bff 453e 39ba 8cbd
00000240: f9a4 b73c 6883 de3d 0cc7 82bc c22c 253d
00000250: 5a9a 16be 6669 383d 5914 093d 7d54 0fbe
00000260: 4a3e 533d dfe9 c5bc 233c 32be 3891 17bc
00000270: d15d fc3d ea31 babd bcde aabd d593 c9bd
00000280: 4534 043d b300 aa3d a71d f73c e60d 18be
00000290: 65dc 74bd d040 473c 8baa 0e3e fb06 9fbd
000002a0: 381d a23c 9c45 0fbe a9ad b93d b6fa c23c
000002b0: 1434 dd3c c429 3e3d 25cb 2abe 3204 b83d
000002c0: 1c2a 32bd 9057 09be 79f2 af3d cf85 25be
000002d0: 2aa6 71bd 6122 5bbd 1fd0 bebd ff64 01be
000002e0: b6c8 ea3c 90e7 aa3d 8e29 86bd d2d0 a8bd
000002f0: 726b 87bd 9013 a33d 0546 13bd 294c 733d
00000300: c197 60be 6b54 b23c a787 22bd ecc7 59bd
00000310: e1e4 073d e90b 743b d357 88bd 02b5 d93d
00000320: b339 6abd 46e3 a13d 4798 23bd ec33 2ebd
00000330: fe2b a33c dfd0 a53d 82e1 0e3e 0b22 4abe
00000340: 11d8 c9bd b81b 52bd d359 1b3d c11f 0a3d
00000350: 610f 28be 0ba7 7dbd 3f50 883c fe31 15bd
00000360: 2daf d0bd 3343 fa3d 3369 a5bd 7758 033d
00000370: fb2d 77bd 4517 a63a ca3b 283d 0dec 9b3c
00000380: ef09 20be c928 f23d 7a90 5bbc c10c b73b
00000390: c863 d33a 4bfb c63d 3db1 88bc 0177 323d
000003a0: 2ffb 583e 7bdf 2cbc 5bf8 aebd 3a7e a2bc
000003b0: 36d9 2d3d 8431 39be cb3a 2b3d 9890 423b
000003c0: 334f 99bd f5d9 dbbc 4897 b23d a589 8c3d
000003d0: 1191 e3bc 5717 133c eb10 013b d8da 133e
000003e0: c954 45bd 2e8f 64bd 83ec ccbd f706 b13d
000003f0: 4f90 d73d 48c0 17bd aaa1 0bbd ee43 eabc

a2c_network.actor_mlp.2.bias f4 [128]
-0.007908084 -0.0048596147 -0.032007612 -0.03474406 -0.021594375 -0.03825986 0.034875102 -0.0139121115
-0.06595217 -0.03257712 -0.020818628 -0.055299364 0.0048104553 -0.06059688 -0.026246868 -0.0005312817
-0.025607036 -0.07119644 0.03313799 0.0129905315 0.0026666927 -0.1222016 0.06834439 -0.014188704
0.019352153 -0.04757628 -0.043343153 0.05410537 0.023119548 -0.032025795 -0.0025880267 0.018973466
0.042958662 -0.04991695 -0.028684905 -0.048448626 -0.004196402 0.01918507 0.030759234 -0.04681241
-0.048074502 -0.036887746 0.04797273 -0.018169489 0.019575827 0.008636924 0.004085919 0.022399595
-0.014680783 0.0651965 -0.004120163 0.035354618 0.009625094 -0.038052283 -0.019378595 -0.020199332
-0.0453924 -0.04584785 0.043122355 0.016112668 -0.019454405 -0.03255082 -0.045843557 -0.008135207
-0.006672055 -0.013700799 0.050175674 -0.016559966 0.031267237 0.037538156 -0.0019704127 0.021071112
-0.004326782 -0.006929877 0.00913364 -0.020246288 -0.13559276 0.07099819 0.018566025 -0.038100548
-0.115184255 -0.005525612 0.04144527 0.04092434 0.011579854 -0.016447166 -0.004165791 -0.023339545
0.035771426 0.017527884 -0.032052428 -0.032329787 -0.043858096 -0.048405055 -0.058747612 -0.035875067
0.03403302 0.0073235026 -0.045192182 -0.0260667 -0.057081684 0.014566931 0.002591739 -0.06112004
-0.047087356 0.031315185 0.00058638176 -0.009864093 0.011204279 -0.043463707 -0.032586224 -0.013911997
-0.016414708 0.021088233 -0.060540456 0.025645692 -0.007962315 -0.012646226 -0.015133783 -0.02859403
-0.04007334 0.015097853 -0.112642765 -0.010243654 -0.08513668 -0.018097179 -0.053251904 -0.04373218
00000000: e990 01bc 673d 9fbb 6a1a 03bd ca4f 0ebd
00000010: b0e6 b0bc 5fb6 1cbd 32d9 0e3d a0ef 63bc
00000020: ee11 87bd 966f 05bd d48b aabc 9681 62bd
00000030: 06a1 9d3b 6f34 78bd ac03 d7bc b645 0bba
00000040: d9c5 d1bc 70cf 91bd b3bb 073d 3dd6 543c
00000050: aec3 2e3b d544 fabd 25f8 8b3d bd77 68bc
00000060: 6888 9e3c 58df 42bd 9788 31bd 989d 5d3d
00000070: 3565 bd3c 7b2d 03bd e29b 29bb 3e6e 9b3c
00000080: 6cf5 2f3d b775 4cbd 9bfc eabc 1172 46bd
00000090: f981 89bb 022a 9d3c cafa fb3c 5fbe 3fbd
000000a0: c5e9 44bd 9b17 17bd 0e7f 443d 2ed8 94bc
000000b0: 7c5d a03c e381 0d3c 2ce3 853b 5b7f b73c
000000c0: ab87 70bc be85 853d 6f02 87bb 01d0 103d
000000d0: 92b2 1d3c b6dc 1bbd dcbf 9ebc 1279 a5bc
000000e0: 62ed 39bd f5ca 3bbd 11a1 303d b7fe 833c
000000f0: d85e 9fbc 0254 05bd 74c6 3bbd 8849 05bc
00000100: 41a1 dabb 5179 60bc 0285 4d3d c4a8 87bc
00000110: 1312 003d 9cc1 193d 0a22 01bb 539d ac3c
00000120: aec7 8dbb 0614 e3bb 43a5 153c 8bdb a5bc
00000130: d4d8 0abe 8067 913d c717 983c 520f 1cbd
00000140: b9e5 ebbd 3110 b5bb 84c2 293d 48a0 273d
00000150: 6eb9 3d3c 35bc 86bc 3081 88bb 9332 bfbc
00000160: 0f85 123d a396 8f3c 6849 03bd 3d6c 04bd
00000170: 8ca4 33bd 6144 46bd 56a1 70bd bcf1 12bd
00000180: 3566 0b3d fef9 ef3b 701b 39bd d589 d5bc
00000190: 7cce 69bd 23aa 6e3c 2ada 293b 0259 7abd
000001a0: acde 40bd 5a44 003d 6ab7 193a 019d 21bc
000001b0: 2792 373c 0007 32bd 2279 05bd 25ef 63bc
000001c0: 2378 86bc 3bc1 ac3c 45f9 77bd ea16 d23c
000001d0: 5f74 02bc 1e32 4fbc b0f3 77bc 073e eabc
000001e0: f123 24bd fc5c 773c 40b1 e6bd 00d5 27bc
000001f0: 245c aebd 8940 94bc ab1e 5abd 8420 33bd

a2c_network.actor_mlp.4.weight f4 [128, 128]
0.23856784 -0.18113925 0.020192303 -0.28212824 -0.065712824 -0.26880255 -0.10358777 0.03379555
0.1944263 -0.109147385 0.117074646 0.05214461 -0.06329708 -0.012237513 0.14869775 -0.005874376
0.17359917 -0.06493951 0.014943 -0.049388807 -0.06311651 0.23007815 -0.042606287 -0.003911456
0.25589544 0.014548383 -0.06507142 0.1499265 0.09437382 0.081264906 -0.056257095 -0.074943334
0.1323432 -0.035478063 0.23987438 -0.0072538857 0.07355517 -0.09147929 0.016150407 0.0470848
0.021167368 0.014459017 0.019712789 0.21107753 0.054023027 0.17776029 0.038748767 -0.031018985
0.15700188 0.1024678 0.06966301 0.08303173 0.10931292 0.047365785 0.04713837 0.013101987
0.13242264 0.13382123 -0.03441521 0.033229366 -0.25715375 0.08297212 0.019924028 -0.15938938
0.05839082 0.30061063 -0.14667618 -0.31094402 -0.107218094 -0.10938213 0.040309113 -0.22784139
0.19745071 0.04849308 0.09052039 -0.2463932 -0.02768191 -0.02517312 -0.037585717 0.14471705
0.06181181 0.037422083 0.27104947 -0.025412232 0.08024743 0.22285996 -0.17111224 0.06658063
-0.10463176 -0.10313739 0.12362534 -0.107448526 -0.042975683 -0.19840027 0.014229894 -0.010994496
-0.06720243 0.1744876 -0.050017003 0.04742618 -0.019072963 -0.10582871 0.15395746 0.1355885
0.17836396 0.13316077 -0.20668441 0.15486105 -0.10659656 0.028360587 -0.16467643 -0.10059192
0.031303037 0.09031792 -0.158112 -0.13850378 -0.030124387 -0.06517748 0.016897332 -0.022763276
0.0070823412 -0.052131396 -0.033701517 0.15225954 -0.23664774 0.14559574 -0.0025194767 -0.040312275
-0.22792666 0.14754385 0.024231082 0.064186044 -0.06691317 -0.11211921 0.08302186 0.0076554148
0.00397403 -0.15618168 -0.06870722 -0.03280766 0.12547731 -0.32207552 -0.15832695 0.06023442
-0.09420138 0.14322594 -0.20771109 0.023841606 -0.09620423 -0.10632474 -0.0741041 0.0952489
-0.08828919 -0.011831693 -0.06943572 -0.029381199 -0.09597116 -0.032855593 0.006446542 -0.08715564
0.09111442 0.06460221 -0.05950597 -0.31013915 0.018421099 -0.116447605 -0.0015635998 0.0012517619
0.040432934 -0.083407335 -0.014177441 -0.048971992 -0.07273307 -0.17605868 -0.006031922 -0.11392949
0.09196099 0.17636299 -0.09324739 -0.16949062 0.2310737 0.06519594 -0.2453889 0.011933727
-0.17994241 0.08073675 0.21954843 0.0061106523 -0.0042807534 -0.0813911 -0.096623115 -0.2055977
-0.30425248 0.0035533204 0.09088479 0.053168204 -0.049477633 -0.011800923 -0.052204862 0.10977416
-0.2583816 -0.041395623 0.32422236 0.09788846 -0.03319851 0.10551549 -0.2139108 0.07942803
-0.109407306 0.020238666 0.07025966 -0.097233005 -0.1275264 -0.15053368 -0.031900674 -0.09354448
0.10815806 0.00020413249 -0.12060981 0.114625305 -0.054915067 0.093521476 -0.14496799 -0.04001923
0.023585984 -0.23820989 -0.3382734 0.35320425 -0.12036326 -0.112980515 0.020512102 -0.16489807
-0.0723985 0.13955726 0.03609304 0.0048438716 -0.22401199 -0.16026357 -0.021310408 0.23424122
0.003594772 0.11446482 0.11333194 0.11300529 -0.08711263 0.06341117 -0.1791935 -0.1431621
-0.19397655 -0.06700293 -0.21540268 0.0060402723 -0.04225056 -0.04004177 0.094284154 -0.016439103
00000000: 214b 743e 917c 39be 546a a53c 1d73 90be
00000010: 7294 86bd 7da0 89be d325 d4bd 346d 0a3d
00000020: b017 473e aa88 dfbd d5c4 ef3d 9695 553d
00000030: e6a1 81bd da7f 48bc 3944 183e d67d c0bb
00000040: fbc3 313e 01ff 84bd 7cd3 743c eb4b 4abd
00000050: 3b43 81bd 9b99 6b3e ee83 2ebd ac2b 80bb
00000060: ba04 833e 575c 6e3c 2a44 85bd 5586 193e
00000070: 1047 c13d 376e a63d d76d 66bd e47b 99bd
00000080: fa84 073e 7251 11bd a1a1 753e 01b2 edbb
00000090: 18a4 963d 7e59 bbbd dc4d 843c fedb 403d
000000a0: 3067 ad3c 83e5 6c3c b77c a13c b524 583e
000000b0: 4047 5d3d cb06 363e 07b7 1e3d 871b febc
000000c0: 1ac5 203e a3da d13d 7bab 8e3d 8a0c aa3d
000000d0: 74df df3d a002 423d 2a14 413d b7a9 563c
000000e0: cd99 073e 6f08 093e f7f6 0cbd 841b 083d
000000f0: a8a9 83be 49ed a93d b737 a33c f836 23be
00000100: 362b 6f3d a3e9 993e 4832 16be 0e34 9fbe
00000110: 2995 dbbd bd03 e0bd 2b1b 253d 414f 69be
00000120: 8530 4a3e aea0 463d c162 b93d 804e 7cbe
00000130: 2cc5 e2bc dc37 cebc 7bf3 19bd b530 143e
00000140: 612e 7d3d e647 193d ffc6 8a3e 502d d0bc
00000150: c458 a43d 6735 643e 0c38 2fbe 6d5b 883d
00000160: 2d49 d6bd b239 d3bd 482f fd3d f90d dcbd
00000170: 4507 30bd 7129 4bbe 8024 693c 4222 34bc
00000180: 6da1 89bd e1ac 323e a1de 4cbd f441 423d
00000190: e73e 9cbc b9bc d8bd 06a7 1d3e b6d7 0a3e
000001a0: 0ba5 363e 4c5b 083e 14a5 53be e593 1e3e
000001b0: 4c4f dabd 7654 e83c f0a0 28be 2303 cebd
000001c0: 9d37 003d 9af8 b83d 1de8 21be efd3 0dbe
000001d0: 6bc7 f6bc c57b 85bd 466c 8a3c 0d7a babc
000001e0: fc12 e83b bb87 55bd 9a0a 0abd ede9 1b3e
000001f0: c953 72be 0d17 153e ce1d 25bb 7c1e 25bd
00000200: 9b65 69be bc15 173e 4380 c63c f973 833d
00000210: c609 89bd c29e e5bd 5d07 aa3d 46da fa3b
00000220: 9438 823b 17ee 1fbe 5fb6 8cbd 5361 06bd
00000230: 207d 003e 15e7 a4be 7620 22be 5eb8 763d
00000240: a7ec c0bd d2a9 123e 37b2 54be 794f c33c
00000250: b906 c5bd c9c0 d9bd e4c3 97bd db11 c33d
00000260: f6d0 b4bd b8d9 41bc 5134 8ebd d7b0 f0bc
00000270: 878c c4bd 9693 06bd 843d d33b a87e b2bd
00000280: 329a ba3d 2a4e 843d 88bc 73bd 8fca 9ebe
00000290: d8e7 963c 157c eebd b4f1 ccba 2912 a43a
000002a0: 019d 253d 77d1 aabd 7f48 68bc db96 48bd
000002b0: 13f5 94bd ba48 34be 6ea7 c5bb dd53 e9bd
000002c0: 0b56 bc3d 8098 343e 7df8 bebd f38e 2dbe
000002d0: 969e 6c3e 7385 853d 3a47 7bbe ae85 433c
000002e0: d342 38be 4f59 a53d 4ed1 603e de3b c83b
000002f0: 9045 8cbb 61b0 a6bd 57e2 c5bd 3488 52be
00000300: fbc6 9bbe d3de 683b ce21 ba3d e7c6 593d
00000310: 0fa9 4abd a958 41bc c4d4 55bd 46d1 e03d
00000320: 984a 84be 758e 29bd 7900 a63e bf79 c83d
00000330: 29fb 07bd 8118 d83d 6f0b 5bbe 2aab a23d
00000340: f010 e0bd 8fcb a53c 4ce4 8f3d 1922 c7bd
00000350: 4896 02be 8025 1abe 48aa 02bd 4094 bfbd
00000360: f981 dd3d 660c 5639 4702 f7bd acc0 ea3d
00000370: 9fee 60bd 3088 bf3d 7d72 14be 34eb 23bd
00000380: 6537 c13c 4bed 73be 2c32 adbe 30d7 b43e
00000390: 0381 f6bd 5462 e7bd ff08 a83c 0adb 28be
000003a0: aa45 94bd 19e8 0e3e 4cd6 133d 57b9 9e3b
000003b0: 6663 65be 221c 24be 2a93 aebc eedc 6f3e
000003c0: 4496 6b3b 886c ea3d 931a e83d 516f e73d
000003d0: 1b68 b2bd b7dd 813d 807e 37be 1699 12be
000003e0: caa1 46be d538 89bd 8592 5cbe 7aed c53b
000003f0: ec0e 2dbd d702 24bd 0d18 c13d 4cab 86bc

a2c_network.actor_mlp.4.bias f4 [128]
-0.08115369 -0.008895787 -0.011665694 -0.026763184 0.002896126 -0.06844593 0.048439287 0.0033085058
-0.04890861 -0.04916937 -0.16332002 0.015342281 -0.01530969 -0.09406653 -0.09425798 -0.082313366
0.06694354 -0.0031786826 0.0005405412 -0.0007129307 -0.0065589543 -0.043377995 0.0056334375 -0.050599746
-0.1018772 0.042484336 0.036591224 -0.071735226 0.01825435 -0.06348956 0.091637984 -0.0881359
-0.02135152 0.021402821 -0.04137186 -0.027876258 0.018754454 -0.055200897 0.012384744 0.018802948
-0.12381265 -0.0009221726 -0.07712549 0.087702416 -0.12511583 -0.028856171 -0.15707023 -0.0360018
0.03157617 -0.038323198 -0.08758953 0.008638895 -0.012495493 0.049800556 0.025530403 0.03661943
0.0029732625 0.029603355 -0.0035888068 -0.035404194 0.042192608 0.08426273 -0.062105786 -0.054033544
0.03745459 0.012949191 -0.048354156 0.041529484 -0.042845212 -0.0039622677 -0.149199 0.020893918
0.0033746609 0.09962793 -0.0038262056 -0.033980504 -0.0128519 -0.018560143 -0.0559316 -0.007132149
0.018237539 -0.024216847 0.018887037 -0.051010463 0.010808531 -0.09387266 -0.15177174 -0.19952245
-0.121885784 -0.03035575 -0.12186309 -0.06297226 -0.04412016 -0.03783147 0.0129352305 -0.047232397
-0.045568384 -0.016398847 -0.12895124 -0.027965195 -0.0004885114 -0.093493566 -0.0691971 0.09183842
-0.06921495 0.007158084 0.035950862 -0.070627086 -0.03139701 -0.01045093 0.038700618 -0.02675525
0.01287296 -0.08385675 -0.058098897 -0.06611877 -0.063743904 -0.02441248 -0.08821807 -0.028054826
-0.035725955 0.027538069 0.073599845 -0.10938159 -0.04552544 -0.03983091 -0.02780716 -0.004112106
00000000: e833 a6bd a3bf 11bc 7821 3fbc 773e dbbc
00000010: eecc 3d3b 612d 8cbd 4668 463d 84d3 583b
00000020: 6554 48bd d265 49bd 5d3d 27be 315e 7b3c
00000030: 7ed5 7abc f4a5 c0bd 540a c1bd e993 a8bd
00000040: b219 893d 7251 50bb 1bb3 0d3a f8e3 3aba
00000050: 7fec d6bb 20ad 31bd b398 b83b ae41 4fbd
00000060: fea4 d0bd 0e04 2e3d aee0 153d ebe9 92bd
00000070: 268a 953c d006 82bd b2ac bb3d 9880 b4bd
00000080: 62e9 aebc f854 af3c 8a75 29bd c05c e4bc
00000090: f1a2 993c 561a 62bd 62e9 4a3c a408 9a3c
000000a0: 7d91 fdbd f5bd 71ba f8f3 9dbd 539d b33d
000000b0: 5d1e 00be c763 ecbc 05d7 20be a076 13bd
000000c0: 0456 013d c9f8 1cbd 2462 b3bd 278a 0d3c
000000d0: e5b9 4cbc abfb 4b3d 2325 d13c 41fe 153d
000000e0: 11db 423b bc82 f23c 3032 6bbb fd03 11bd
000000f0: 28d2 2c3d f091 ac3d a362 7ebd 4752 5dbd
00000100: fc69 193d d828 543c 020f 46bd d21a 2a3d
00000110: 767e 2fbd e9d5 81bb 9fc7 18be b929 ab3c
00000120: 6a29 5d3b ba09 cc3d 14c1 7abb 242f 0bbd
00000130: c790 52bc 710b 98bc 8918 65bd cdb4 e9bb
00000140: e466 953c 6962 c6bc fdb8 9a3c 59f0 50bd
00000150: 4416 313c 4f40 c0bd 0d6a 1bbe 9d4f 4cbe
00000160: 419f f9bd 9fac f8bc 5b93 f9bd 9af7 80bd
00000170: 57b7 34bd 2cf5 1abd 4aee 533c c276 41bd
00000180: eaa5 3abd e056 86bc cb0b 04be 4417 e5bc
00000190: 720f 00ba 8e79 bfbd 36b7 8dbd c815 bc3d
000001a0: 91c0 8dbd 5c8e ea3b 3641 133d efa4 90bd
000001b0: 279a 00bd 613a 2bbc 8a84 1e3d d32d dbbc
000001c0: 1ce9 523c 16bd abbd 1cf9 6dbd 4769 87bd
000001d0: 2a8c 82bd aefc c7bc adab b4bd 3cd3 e5bc
000001e0: 6155 12bd 8497 e13c 84bb 963d 7403 e0bd
000001f0: e278 3abd bc25 23bd d7cb e3bc d8be 86bb

a2c_network.value.weight f4 [1, 128]
-0.030964263 -0.01869224 0.034233734 0.04139908 -0.022874065 -0.0065515502 -0.0020623258 0.11537812
0.012618629 -0.083697855 0.094897434 -0.07696344 -0.014836822 0.0507794 0.01601911 -0.027436236
0.7203005 -0.007974973 -0.0014259701 0.015777754 0.033681795 -0.029535372 0.041079268 0.043762088
-0.017073909 -0.022650842 -0.005342572 0.05940296 -0.108361855 -0.26199022 0.015080805 -0.06019742
-0.0019998103 -0.009104363 0.02711387 -0.07955972 0.066144995 0.029544761 0.017521609 0.20466685
0.084511586 -0.022817137 0.22635025 0.031251054 0.031983137 -0.42719057 -0.009916005 0.060694013
0.030815018 0.038743597 0.005190048 0.40250942 -0.020043505 0.16582362 -0.0015484154 0.012112792
-0.44523138 0.05635523 0.018277653 0.016905783 0.013505965 -0.2778634 -0.014510063 0.05776428
-0.037108567 0.025217395 -0.06934793 0.016409066 -0.012791022 0.04044719 -0.20325807 0.044168063
-0.05810299 -0.05625906 -0.019031985 -0.0015621807 0.02550068 -0.005155386 0.025045644 -0.17414851
0.014164774 0.01596091 0.01308805 -0.0048939534 -0.029998751 -0.030674418 -0.3960068 -0.04309937
-0.043713443 -0.011702624 0.03289999 -0.04001349 -0.033724245 -0.033505384 -0.0013324589 -0.015785037
0.018170273 0.0141685475 0.1050074 0.0011168554 0.020325163 0.044625655 -0.089679316 -0.015521474
-0.04892513 0.065024264 -0.015887367 -0.19322099 -0.019015675 -0.10678122 -0.09271253 -0.030972285
-0.029593555 -0.014380764 0.11189642 0.05711207 -0.04610144 -0.21748891 -0.0479458 0.14067495
0.072464764 0.020045327 -0.03300962 -0.074123904 0.14049062 0.07994629 -0.06433939 0.00423293
00000000: c4a8 fdbc 7820 99bc ac38 0c3d 1592 293d
00000010: 6462 bbbc 63ae d6bb 1628 07bb 5d4b ec3d
00000020: 5ebe 4e3c c869 abbd 9659 c23d 029f 9dbd
00000030: 2416 73bc 0ffe 4f3d 823a 833c f5c1 e0bc
00000040: 9d65 383f 76a9 02bc 9ee7 baba 5940 813c
00000050: ecf5 093d 2af4 f1bc bc42 283d e03f 333d
00000060: 95de 8bbc 428e b9bc be10 afbb 8550 733d
00000070: d2ec ddbd 9523 86be 7b15 773c 9291 76bd
00000080: 400f 03bb 772a 15bc e81d de3c 35f0 a2bd
00000090: 0777 873d db07 f23c 7a89 8f3c 3094 513e
000000a0: 6914 ad3d 01eb babc 5cc8 673e 1b01 003d
000000b0: c000 033d b9b8 dabe bd76 22bc 499a 783d
000000c0: c76f fc3c 9bb1 1e3d 4711 aa3b b715 ce3e
000000d0: 4732 a4bc abcd 293e 33f4 caba bb74 463c
000000e0: 5ef5 e3be bed4 663d 04bb 953c ff7d 8a3c
000000f0: 1f48 5d3c 1d44 8ebe 9ebb 6dbc 3d9a 6c3d
00000100: 27ff 17bd b694 ce3c 4a06 8ebd 4e6c 863c
00000110: 6f91 51bc f4ab 253d e222 50be 92e9 343d
00000120: 67fd 6dbd e66f 66bd f7e8 9bbc 16c2 ccba
00000130: cde6 d03c 83ee a8bb 862c cd3c fd53 32be
00000140: 5e13 683c 74c0 823c 436f 563c 755d a0bb
00000150: f1bf f5bc eb48 fbbc 67c1 cabe f788 30bd
00000160: de0c 33bd 5dbc 3fbc 24c2 063d 2fe5 23bd
00000170: 6f22 0abd f13c 09bd e7a5 aeba 9f4f 81bc
00000180: d3d9 943c 3223 683c 1f0e d73d 7363 923a
00000190: f580 a63c 64c9 363d caa9 b7bd c84d 7ebc
000001a0: b865 48bd 712b 853d 3926 82bc b9db 45be
000001b0: c3c6 9bbc 1db0 dabd 11e0 bdbd 97b9 fdbc
000001c0: 2f6e f2bc 4c9d 6bbc f329 e53d 59ee 693d
000001d0: ddd4 3cbd 6ab5 5ebe d162 44bd 180d 103e
000001e0: 6868 943d 1936 a43c 1835 07bd 46ce 97bd
000001f0: c6dc 0f3e e1ba a33d 5fc4 83bd 64b4 8a3b

a2c_network.mu.weight f4 [10, 128]
-0.18036719 -0.013265528 0.21612138 0.1164963 0.070027836 -0.04710188 -0.09403961 -0.06935621
-0.059272774 -0.025546586 -0.10046932 -0.11548106 -0.112864174 0.030551327 0.01892368 0.13999104
0.032055426 -0.013446006 -0.03761106 0.04220674 -0.0945468 0.030929511 -0.022399336 -0.048776045
0.034954417 0.0642902 -0.118088 0.0019308579 -0.031727806 0.082323976 0.013377209 0.04072678
-0.02834324 -0.029925384 -0.013167896 -0.015362682 -0.0006726816 0.06141028 0.06340043 -0.12425451
0.11766614 -0.09575943 0.003210135 -0.03594345 0.001104245 0.06098196 -0.04085056 -0.08767293
0.018491149 -0.05897766 -0.097221166 -0.13379018 -0.15085888 0.040653236 -0.17337087 -0.0073339865
0.10045428 0.09053932 -0.048289284 0.058449667 -0.011015613 0.07804869 0.012960286 0.09742982
-0.013865455 0.09941193 0.014885453 -0.1071039 0.0005833225 0.07309728 -0.03664309 0.10923097
0.19383079 -0.0641085 -0.22126706 -0.040397566 -0.23030853 -0.011942464 0.110860035 -0.09473254
0.006986357 -0.03877237 -0.14008337 -0.035602257 0.04751087 0.06767583 -0.0732919 -0.039183654
0.074167535 0.046261538 0.056791406 0.042090096 -0.1052482 -0.0238035 0.1563476 0.048934277
0.19004977 -0.17970881 -0.06151174 0.058886666 -0.005574775 0.016851092 -0.19394007 0.016085884
0.0390878 0.07158144 -0.083556585 0.042642448 0.02140424 0.12800807 -0.03436091 0.09830487
-0.092148215 0.06436112 -0.08172425 0.2435579 -0.0605718 -0.11474918 0.13590506 -0.04323881
-0.003735336 -0.07679666 -0.020278044 0.11419792 0.09748193 0.09988317 0.036269136 0.116298
-0.049059574 0.10937945 -0.021188907 -0.0109535875 -0.1392404 0.040317513 -0.022212446 0.15653887
-0.08411776 -0.07919678 -0.18739623 0.13093169 -0.04863909 -0.108494036 -0.4011688 0.06967129
0.1612078 0.105527386 -0.11025934 -0.02926649 0.14257388 0.017028572 0.037749376 -0.10377337
-0.21463317 -0.03410893 0.12438705 0.054867756 0.051069234 0.017043963 0.08256642 0.028036991
-0.0639046 -0.069821775 0.039029732 0.0062861536 -0.09200275 0.13984427 -0.113597766 -0.24600868
-0.2032971 0.08526574 -0.033829443 0.044939008 -0.119454466 -0.0046623126 -0.08826007 -0.11860954
0.059049595 0.118052386 -0.11474122 -0.10116844 0.14658886 0.086371385 -0.0391443 -0.015104637
0.26763004 -0.100846946 0.04503382 0.09614055 0.023404066 -0.011137153 -0.028228084 0.020103756
0.06512259 0.07211175 -0.17669284 0.090550505 -0.08614316 0.11165458 -0.20774554 0.11068244
-0.13250872 0.14115024 -0.067989655 0.17616056 0.15901546 0.217674 -0.14549552 0.15951906
-0.12716651 0.33397314 -0.047740575 -0.096946195 -0.08543779 -0.08245229 -0.17606027 -0.39156973
-0.12466047 0.08463239 -0.4392516 0.009566462 0.049610533 0.06942928 0.013097686 -0.006081137
0.06389755 0.10048091 -0.039121933 -0.15607142 0.023587836 -0.29178402 -0.15325026 0.09314625
0.013499695 -0.08045737 0.045105685 -0.13776213 -0.054700233 -0.029550066 -0.053149704 0.0041742083
-0.03749265 -0.01944719 -0.042238533 -0.11813296 -0.25427648 0.16860765 -0.0663962 0.06520293
-0.033417713 0.05600384 0.05584816 -0.08011606 -0.025642801 -0.1313569 -0.21067965 0.1492266
00000000: 2db2 38be a857 59bc ec4e 5d3e 9d95 ee3d
00000010: c16a 8f3d e7ed 40bd d797 c0bd a10a 8ebd
00000020: 02c8 72bd 1347 d1bc dcc2 cdbd 5681 ecbd
00000030: 5525 e7bd c746 fa3c d505 9b3c d059 0f3e
00000040: 8d4c 033d a34c 5cbc 0e0e 1abd f9e0 2c3d
00000050: c1a1 c1bd e35f fd3c d07e b7bc 64c9 47bd
00000060: 5d2c 0f3d 95aa 833d 1fd8 f1bd d714 fd3a
00000070: 04f5 01bd 7999 a83d 152c 5b3c 20d1 263d
00000080: 1530 e8bc 1426 f5bc 29be 57bc c2b3 7bbc
00000090: e656 30ba 5989 7b3d 16d8 813d 2679 febd
000000a0: f2fa f03d 851d c4bd 2161 523b 7039 13bd
000000b0: 50bc 903a 38c8 793d eb52 27bd dd8d b3bd
000000c0: c07a 973c 8f92 71bd e41b c7bd 4b00 09be
000000d0: c07a 1abe 0284 263d 2288 31be f051 f0bb
000000e0: f9ba cd3d ae6c b93d fcca 45bd eb68 6f3d
000000f0: d47a 34bc fed7 9f3d 6157 543c 4989 c73d
00000100: ef2b 63bc 7b98 cb3d 1de2 733c 4a59 dbbd
00000110: 1cea 183a 07b4 953d 1117 16bd 7db4 df3d
00000120: 947b 463e 514b 83bd d593 62be eb77 25bd
00000130: 00d6 6bbe 53aa 43bc 960a e33d 2203 c2bd
00000140: cfed e43b c7cf 1ebd 0472 0fbe acd3 11bd
00000150: c29a 423d a099 8a3d 101a 96bd 0a7f 20bd
00000160: 26e5 973d bd7c 3d3d 1b9e 683d aa66 2c3d
00000170: 5e8c d7bd 8fff c2bc 9619 203e 4f6f 483d
00000180: 689c 423e 9605 38be bcf3 7bbd 2533 713d
00000190: 9aac b6bb 4d0b 8a3c 3a98 46be 8bc6 833c
000001a0: 871a 203d 4a99 923d b71f abbd d9a9 2e3d
000001b0: f257 af3c 8c14 033e 07be 0cbd 1054 c93d
000001c0: 34b8 bcbd c3cf 833d 0b5f a7bd 3e67 793e
000001d0: 231a 78bd 9e01 ebbd b22a 0b3e 2e1b 31bd
000001e0: 8acc 74bb 9147 9dbd 241e a6bc 99e0 e93d
000001f0: 9ba4 c73d 8c8f cc3d f28e 143d a52d ee3d
00000200: b1f2 48bd 5502 e03d 5c94 adbc ad76 33bc
00000210: 0995 0ebe fa23 253d e0f6 b5bc ba4b 203e
00000220: ef45 acbd ec31 a2bd cce4 3fbe f512 063e
00000230: c839 47bd 1f32 debd ff65 cdbe d2af 8e3d
00000240: a813 253e be1e d83d a6cf e1bd 47c0 efbc
00000250: e3fe 113e 817f 8b3c 179f 1a3d 2287 d4bd
00000260: ccc8 5bbe ceb5 0bbd a3be fe3d 03bd 603d
00000270: f92d 513d c89f 8b3c 9518 a93d d5ad e53c
00000280: 6ae0 82bd b8fe 8ebd a4dd 1f3d 14fc cd3b
00000290: f06b bcbd 5633 0f3e f2a5 e8bd b3e9 7bbe
000002a0: 1d2d 50be ce9f ae3d be90 0abd f711 383d
000002b0: 8ba4 f4bd 50c6 98bb b2c1 b4bd 8fe9 f2bd
000002c0: fddd 713d 73c5 f13d 72fd eabd 6631 cfbd
000002d0: 641b 163e 7be3 b03d c655 20bd 7079 77bc
000002e0: ce06 893e d888 cebd 6275 383d 56e5 c43d
000002f0: e2b9 bf3c 9b78 36bc 953e e7bc a2b0 a43c
00000300: fe5e 853d 53af 933d f8ee 34be 8b72 b93d
00000310: d36b b0bd 28ab e43d 3fbb 54be 7aad e23d
00000320: 5eb0 07be b089 103e 293e 8bbd 6f63 343e
00000330: f3d4 223e efe5 5e3e c7fc 14be f758 233e
00000340: f037 02be 87fe aa3e 9f8b 43bd ba8b c6bd
00000350: 02fa aebd bfdc a8bd 2549 34be d47b c8be
00000360: fd4d ffbd bf53 ad3d 96e5 e0be a6bc 1c3c
00000370: 6a34 4b3d f030 8e3d ad97 563c 4644 c7bb
00000380: b8dc 823d efc8 cd3d 523e 20bd 30d1 1fbe
00000390: 473b c13c b764 95be a3ed 1cbe 76c3 be3d
000003a0: d32d 5d3c d5c6 a4bd bdc0 383d 8411 0dbe
000003b0: 5a0d 60bd fb12 f2bc 81b3 59bd ccc7 883b
000003c0: e591 19bd b74f 9fbc 5002 2dbd b1ef f1bd
000003d0: 8730 82be 7ca7 2c3e bbfa 87bd 1d89 853d
000003e0: 03e1 08bd 4864 653d 0ac1 643d e413 a4bd
000003f0: da10 d2bc 6c82 06be 68bc 57be dcce 183e

a2c_network.mu.bias f4 [10]
-0.0011365764 0.20238571 -0.020326294 0.02295585 -0.049787194 -0.1730589 -0.01541515 -0.006657145
-0.015860971 0.19260243
00000000: 2df9 94ba 333e 4f3e 5483 a6bc e80d bc3c
00000010: a8ed 4bbd 5a36 31be d38f 7cbc 2e24 dabb
00000020: deee 81bc 9239 453e

exp_avg f4 [10]
-0.0004377316 -0.00011990262 -0.00035783995 2.5384057e-05 -1.5103291e-05 0.0002783455 -0.00039714007 0.00010186724
-0.0003194433 4.6744888e-05
00000000: 577f e5b9 3b74 fbb8 779c bbb9 d9ef d437
00000010: 2464 7db7 e7ee 9139 3d37 d0b9 8fa1 d538
00000020: f47a a7b9 f10f 4438

exp_avg_sq f4 [10]
4.7620442e-06 5.276731e-06 4.477067e-06 4.2801903e-06 4.312293e-06 4.2371325e-06 4.1611547e-06 4.4907565e-06
5.006557e-06 3.9108054e-06
00000000: a6c9 9f36 c60e b136 b639 9636 8e9e 8f36
00000010: 51b2 9036 b12c 8e36 0ca0 8b36 4eaf 9636
00000020: fffd a736 9039 8336

exp_avg f4 [256, 42]
-0.00019924261 -0.000118405995 -8.741237e-05 -4.995681e-05 1.2686063e-05 -5.9623235e-05 0.00017818835 -0.0005108247
0.000106369655 0.00064790325 -0.00024552882 -1.1257456e-06 -0.00014383996 -3.7246697e-05 -0.00026126968 0.00021036541
-0.0002735871 7.6391785e-05 -0.00012312378 -0.00014244072 -7.838619e-05 -0.00020436893 4.286757e-05 -3.220391e-05
-3.4844572e-05 1.933555e-05 -7.6279124e-05 -0.00011258727 -6.467722e-05 2.011241e-05 2.071941e-05 -1.8098533e-05
0.00093472586 -0.0009754476 5.822455e-05 0.00027147736 -0.00051149377 -0.00048220757 -0.00070686394 -9.2611124e-05
0.00043874737 0.00032618738 0.00026214105 -4.6860998e-05 0.00012444083 4.3036795e-05 6.845672e-06 -7.658476e-05
0.00019796038 0.0005731832 -0.00011204762 -0.0007909877 0.00033499772 -0.000104775616 0.00012599856 7.930496e-05
0.00027826184 -0.00026749694 7.354878e-05 -0.00013528988 0.00019460873 0.0002445774 0.000158958 0.00016313989
6.6633205e-05 -5.2576885e-05 -7.799333e-06 2.3184317e-05 -4.847712e-05 -0.00010215908 -0.00010610976 2.9397695e-05
0.00015176211 1.2318439e-05 0.00052821223 -0.00043113183 0.00016981749 0.00057650957 -0.00033294293 -0.00070556917
-0.00077945285 0.00049477204 0.0006947715 0.0006033075 -0.0007918967 -0.00020649235 -0.00033220407 -0.00011333274
-0.00010021905 -8.780381e-05 -1.3038819e-05 -0.0016996395 0.00026004657 0.0024059953 -0.0010574114 -2.8048937e-05
-0.00047159393 -0.00019548502 -0.00084832526 0.0007027616 -0.00091655314 0.00023462097 -0.00032270292 -0.000774359
-0.0006147486 -0.000707758 6.279805e-05 2.0681671e-05 -2.6943417e-06 3.6937578e-05 -9.519391e-05 -5.055796e-05
-3.0386436e-05 1.6908198e-05 3.4079134e-05 3.018982e-05 0.0011187072 -0.0007842556 0.00041053287 -0.00017127027
-0.0008335126 -0.000106469284 -0.0010980949 -0.0007704433 0.0011052988 -9.613093e-05 -0.00090802636 -0.00016329561
-0.0004230188 -9.775343e-05 -0.00010822702 5.173393e-05 -0.0002407567 -0.0023154628 0.0003349923 0.0030778893
-0.0011923863 0.00027197087 -0.0005287258 -0.00022970041 -0.0010758791 0.0008032021 -0.0009014482 0.0002816926
-0.00045782235 -0.00083073194 -0.0005578208 -0.00078828185 3.1727354e-06 0.000118545686 3.690384e-05 -2.1927155e-05
-2.5592093e-05 0.0001192457 2.851435e-05 8.812768e-06 1.0357687e-05 -3.8542676e-05 0.0005547941 -0.00015750792
0.0005624744 -0.0009287487 -0.00029749604 0.0007654789 -0.00061623385 -0.0011684109 0.0007139686 -0.0005009442
0.00049406814 0.0002531197 8.868101e-05 0.00010593107 1.8357596e-05 6.3481486e-05 -0.00030469045 0.0011134193
-0.00024858437 -0.0015584407 0.00065123773 8.0614045e-06 0.00033812504 0.00014821075 0.00060970744 -0.00039307406
0.0005878291 -0.00033199112 0.00023887875 0.0004305412 0.0002795677 0.00038662046 -0.00016608309 5.0337534e-05
7.0134774e-05 -1.46742805e-05 7.813729e-05 0.000110004905 0.00012408159 -2.2351756e-05 -1.1479455e-06 7.149807e-05
-0.0018217573 0.0015787426 -0.0003378312 -0.00065646804 0.00079781987 0.00060884433 0.0017573138 0.00042120315
-0.0015857035 -0.00023789429 0.0006161608 0.00014438701 0.00025333458 7.874267e-05 5.9713428e-05 -3.65789e-05
9.648019e-05 0.0013466276 -0.00027528196 -0.0019359579 0.0007973109 -3.2202966e-05 0.00035391023 0.00019609362
0.0007291709 -0.00058323424 0.0005355387 -0.00017021796 0.00032572242 0.00053795276 0.0004279691 0.00042701486
-1.6314038e-05 -5.4130425e-05 9.449189e-06 4.937256e-06 3.577616e-05 -7.5806944e-05 -4.412939e-05 -3.0325227e-05
3.764693e-05 7.184662e-05 -0.000556203 0.000275482 -0.00025150797 0.00024036012 0.0002514831 -0.00057930726
0.00027812104 0.00071939145 -0.00045984105 0.000689304 -0.0002847845 9.680639e-05 -0.0002824265 2.5317622e-05
00000000: c8eb 50b9 bc50 f8b8 2951 b7b8 b788 51b8
00000010: 3ad6 5437 f613 7ab8 12d8 3a39 dee8 05ba
00000020: c612 df38 0dd8 293a 52ba 80b9 5318 97b5
00000030: bfd3 16b9 5639 1cb8 06fb 88b9 8995 5c39
00000040: 3d70 8fb9 8734 a038 ca1a 01b9 245c 15b9
00000050: 4463 a4b8 de4b 56b9 b4cc 3338 af12 07b8
00000060: 1326 12b8 c732 a237 0bf8 9fb8 d51c ecb8
00000070: 51a3 87b8 12b7 a837 98ce ad37 4ed2 97b7
00000080: 6408 753a 2eb5 7fba 2236 7438 1355 8e39
00000090: c415 06ba ced0 fcb9 d64c 39ba 3838 c2b8
000000a0: ad07 e639 2104 ab39 fa6f 8939 9d8c 44b8
000000b0: 557c 0239 6882 3438 e0b3 e536 219c a0b8
000000c0: 9693 4f39 ac41 163a 1cfb eab8 495a 4fba
000000d0: a2a2 af39 fbba dbb8 7b1e 0439 8750 a638
000000e0: ace3 9139 d53e 8cb9 333e 9a38 9adc 0db9
000000f0: e20f 4c39 9f3a 8039 f7ad 2639 8810 2b39
00000100: 6ebd 8b38 0086 5cb8 e1d9 02b7 f17b c237
00000110: e953 4bb8 3d3e d6b8 3e87 deb8 129b f637
00000120: 5522 1f39 4bab 4e37 b977 0a3a 8909 e2b9
00000130: 0911 3239 e720 173a d88e aeb9 f2f5 38ba
00000140: 3254 4cba 97b3 013a 5321 363a 4827 1e3a
00000150: 4a97 4fba de85 58b9 ad2b aeb9 0dad edb8
00000160: b12c d2b8 5023 b8b8 4dc1 5ab7 70c6 deba
00000170: dc56 8839 e7ad 1d3b d798 8aba a24a ebb7
00000180: 4440 f7b9 1cfb 4cb9 2562 5eba 8839 383a
00000190: d744 70ba 9604 7639 7430 a9b9 5afe 4aba
000001a0: 1527 21ba d688 39ba 72b2 8338 8d7d ad37
000001b0: 70d0 34b6 6ced 1a38 d7a2 c7b8 320e 54b8
000001c0: 60e6 feb7 14d6 8d37 31f0 0e38 2540 fd37
000001d0: 96a1 923a 8196 4dba ca3c d739 0397 33b9
000001e0: 1580 5aba 4348 dfb8 f3ed 8fba 93f7 49ba
000001f0: acdf 903a e699 c9b8 9e08 6eba 553a 2bb9
00000200: 9fc8 ddb9 f900 cdb8 f0f7 e2b8 e2fc 5838
00000210: a273 7cb9 05bf 17bb e8a1 af39 6ab6 493b
00000220: d849 9cba 5097 8e39 309a 0aba bcdb 70b9
00000230: 8304 8dba fb8d 523a 2a4f 6cba 24b0 9339
00000240: e007 f0b9 7ac5 59ba b83a 12ba b3a4 4eba
00000250: 2eeb 5436 bb9b f838 32c9 1a38 35f0 b7b7
00000260: 9aae d6b7 8c13 fa38 1a32 ef37 8dda 1337
00000270: edc5 2d37 e2a8 21b8 9a6f 113a b628 25b9
00000280: 0573 133a 4577 73ba 3ef9 9bb9 6baa 483a
00000290: c18a 21ba 5d25 99ba 9f29 3b3a cc51 03ba
000002a0: 5a84 013a 27b5 8439 41fa b938 4f27 de38
000002b0: a3fe 9937 5d21 8538 dcbe 9fb9 27f0 913a
000002c0: 6e54 82b9 9844 ccba d3b7 2a3a 783f 0737
000002d0: 6046 b139 0569 1b39 c6d4 1f3a 8215 ceb9
000002e0: 8b18 1a3a 180f aeb9 877b 7a39 43ba e139
000002f0: f192 9239 52b3 ca39 9726 2eb9 8421 5338
00000300: 5215 9338 8e31 76b7 a3dd a338 6fb2 e638
00000310: e61b 0239 0880 bbb7 1b13 9ab5 3cf1 9538
00000320: 08c8 eeba d0ed ce3a f01e b1b9 d316 2cba
00000330: c924 513a da9a 1f3a ab55 e63a eed4 dc39
00000340: 61d7 cfba 4373 79b9 da85 213a 9866 1739
00000350: fed1 8439 a622 a538 ce74 7a38 4b6c 19b8
00000360: 6855 ca38 5381 b03a b853 90b9 f8bf fdba
00000370: a102 513a ac11 07b8 078d b939 7b9e 4d39
00000380: d525 3f3a 30e4 18ba 6563 0c3a 897c 32b9
00000390: b9c5 aa39 6605 0d3a 0a61 e039 f7e0 df39
000003a0: 21da 88b7 1a0a 63b8 f587 1e37 b5aa a536
000003b0: 5c0e 1638 8bfa 9eb8 9217 39b8 ee62 feb7
000003c0: 15e7 1d38 5cac 9638 27ce 11ba 916e 9039
000003d0: d4dc 83b9 2e09 7c39 7ed9 8339 a7dc 17ba
000003e0: c6d0 9139 8b95 3c3a d216 f1b9 69b2 343a
000003f0: 214f 95b9 8904 cb38 a512 94b9 2e61 d437
