logs/rl_games/humanoid_flat_direct/semi_success/nn/last_humanoid_flat_direct_ep_2600_rew_915.3585.pth (torch, 759502 bytes, 33 tensors)

value_mean_std.running_mean f8 [1]
00000000: 348c eef9 66da 5440
83.41253517432853

value_mean_std.running_var f8 [1]
00000000: 9d24 d559 2be9 9740
1530.2923348716351

value_mean_std.count f8 []
00000000: 0000 8000 0078 ce41
1022361601.0

a2c_network.sigma f4 [10]
00000000: 3180 90bf 4d83 4cbf b777 d9bf 48e4 30be
00000010: 467c 00c0 e186 3d3d ef49 e6bf 0a6d f3bf
00000020: 5c5a 83bf 8412 7ebf
-1.1289121 -0.7988785 -1.6989659 -0.17274582 -2.007585 0.04627121 -1.7991313 -1.9017651
-1.026195 -0.99247

a2c_network.actor_mlp.0.weight f4 [256, 42]
00000000: 73d4 373d f106 cc3e 96a5 a93e 855f 003e
00000010: 467a 5b3d d9c5 de3a f15f 1c3e 1013 2bbe
00000020: a653 dbbe 621c 54bd f20f 2bbe 9784 5f3d
00000030: 9d9b b1bd 833e 103e 5ee9 e13d 45bd 293d
00000040: d570 573d ab30 38be 2847 b9bb 8423 87bd
00000050: ace5 4dbb fa1c 8dbd 1015 dcbe 9035 ddbe
00000060: b807 023e 51ad 293e 8205 3cbe e186 91be
00000070: be1a 543e 907c a23d 89f2 2d3e 2080 64be
00000080: e2de 0abe 870a e9bd 71f0 a0bd 27b7 253d
00000090: 8cda b93c 45fc bd3d edd5 99bd 455b 89bd
000000a0: bc6b 4c3d adfc 3fbd 1212 e73d e6f7 1fbc
000000b0: 134c 823e f5a9 81be 5b55 9a3d a7c6 413e
000000c0: 93fa a63e 266c 4d3d d0b7 613d e8ca 9a3d
000000d0: a693 d5bd fc34 6fbd 7de0 973e c314 87bc
000000e0: 39d4 babd 79f0 55be 33a0 b9bd 0fd5 5ebd
000000f0: 474a a9bc ed85 13be aa5b 913b e551 1ebe
00000100: 9736 303d 6e2b 0cbe 8c65 46bd 5d0a f8be
00000110: da0e d63e d675 b1bd 6cf5 8b3d 2917 6bbe
00000120: 5f46 4abe 11a4 0a3d cadb 683c 4b88 01be
00000130: 2b7c 21be 832d 47bd 4256 663d 8e5c 99bd
00000140: f078 21bd 3c85 41bd 3ed8 acbb 2688 10bc
00000150: 667f 70bd 6fa5 24be abc8 9a3e 60b7 3cbe
00000160: fb95 103e a8cc ddbd 82ef bfbe 9d7e d039
00000170: c5b9 00be f23b 3fbd c3c1 0fbe bd6d 2ebe
00000180: f8c0 19bd a7ef 41be 386d 053e 6b4f efbd
00000190: 1645 253e 842e cfbd 4726 3dbd 2187 9a3c
000001a0: 7889 ba3d 8098 853e c0c9 3b3d 329b a5be
000001b0: a79c a63d 7daf c0bd 8592 073e 8de5 97be
000001c0: 2e5b 113e 57c8 88be 1c9f 5d3d f74a 633c
000001d0: aa87 393d a3a1 79bd 3866 033e 7e7b 653d
000001e0: 75a4 113d 36a6 a4bd d5bf 6a3d 1253 37bd
000001f0: e34d 1dbd 679c 0a3e f3b0 3a3d 4edd bebe
00000200: bb32 b1bd 183e a7bc ddce c2bd f5e2 a4be
00000210: 08ad 88be 965f a9bb 94ac 19be 005c 553d
00000220: 996e 003e de0a 19be fb8f a63d e50e af3d
00000230: 769f c13d 768f dabd 5dd0 bc3d 5dac d33d
00000240: 10a5 313e 4841 08bd 0285 fdbd 52a0 0fbc
00000250: 96f5 6abc d77c 2e3e f391 2a3e b356 c6bd
00000260: f6b1 8a3b 5bcd 61be a423 003d 01d0 1cbd
00000270: 8903 97bc 5a2c 75bd 3f51 e9bd 9baa 37bd
00000280: b476 cb3d a58f 923d 9d93 60bd 33f3 7fbd
00000290: 1ac6 a6bd bd4d febd e84c b8bc 6bd0 573d
000002a0: a16b cf3d 4ec7 513e 4e80 75bd b088 123d
000002b0: f8c3 673a 5093 8d3e 3b69 bd3d e004 cdbc
000002c0: 2683 913d 7069 9dbd 808c cabd a6f8 073e
000002d0: 7212 633b 4ae5 703d 36db 59be 4258 083e
000002e0: 78d9 043e d098 00bc 8bbb e0bd 50b3 6cbe
000002f0: 7082 0abe b02c 7e3e b898 293e 33c9 733e
00000300: 7a9c e7bc d397 e9bc 8698 783d 7143 99be
00000310: 7b4f 8dbe 3f8f afbe 5aca a33d 0c8d 45bd
00000320: 4af0 debc 4e0d c1bd 310b 9abd cee6 e3bd
00000330: 83ec 08be f509 083b 54c3 2d3c 1180 033e
00000340: 4f4d b3bc 5321 44bd cf48 4bbd 1821 8f3c
00000350: a6a7 063d 5243 24be d644 343e b231 25be
00000360: 4a03 4b3c 9ced 103d a087 0c3e 48ef c7bd
00000370: 2b5e b93d c99c 90bd a94a 063e 85b0 853e
00000380: f4f2 5abd fe02 433d 8508 d83c 9343 eebd
00000390: c0d9 013e 2e45 a0be b730 ac3d 0376 803e
000003a0: 2c54 aa3e 53b3 1c3e c313 d7bd 0c43 6ebd
000003b0: f0c8 f43d f685 6cbe 6906 6abc 74db a1be
000003c0: ccc9 f3bb 1040 c5bc 3330 84bd 2941 9ebd
000003d0: a5a0 10be 3f42 ed3d f647 003e b6f0 ec3c
000003e0: 35f4 2dbd 5ec8 f3bd 22f3 c8bd b8fa c5bd
000003f0: 1d25 3c3d d510 18bc fce6 adbc 8a1e 22bb
0.04488034 0.39849046 0.33134145 0.12536438 0.053583406 0.0016996219 0.15270974 -0.1670649
-0.42837256 -0.05178488 -0.16705301 0.054569807 -0.08672259 0.14086346 0.110308394 0.041440267
0.05259784 -0.17987315 -0.0056542344 -0.06598571 -0.0031417413 -0.068902925 -0.4298482 -0.43204927
0.12698257 0.16570021 -0.18361476 -0.28423217 0.20713326 0.07933915 0.16987051 -0.22314501
-0.13561586 -0.11378961 -0.078583606 0.04045787 0.02268722 0.09276632 -0.07511506 -0.067068614
0.04990743 -0.04687183 0.112827435 -0.009763693 0.25448665 -0.2532498 0.075358115 0.18923436
0.32613048 0.050151967 0.055106938 0.075582325 -0.10428552 -0.05840014 0.29663458 -0.016489392
-0.091225095 -0.20892514 -0.09063759 -0.054402407 -0.020665301 -0.14406557 0.004435976 -0.15460928
0.04302081 -0.13688442 -0.048436686 -0.48445407 0.41808206 -0.086650535 0.0683392 -0.22958054
-0.19753407 0.033847872 0.014212558 -0.12649648 -0.15770023 -0.048627388 0.056234606 -0.074883565
-0.039421976 -0.047246203 -0.0052748015 -0.008821523 -0.058715247 -0.16078733 0.30231223 -0.18429327
0.14119713 -0.10830051 -0.37487417 0.00039767186 -0.12570865 -0.046688028 -0.14038758 -0.1703405
-0.037537545 -0.18939076 0.13029945 -0.1168507 0.16139635 -0.10116294 -0.046179082 0.018863263
0.09108251 0.2609291 0.0458467 -0.32344967 0.08135348 -0.09408472 0.13239487 -0.2966732
0.14194939 -0.26715347 0.054106817 0.0138728535 0.045295395 -0.060945164 0.12831962 0.056025974
0.03555723 -0.08039515 0.05731185 -0.044756956 -0.038404357 0.13536225 0.04557891 -0.37278217
-0.08652254 -0.02041535 -0.09512112 -0.32204404 -0.26694512 -0.0051688654 -0.1500724 0.05208969
0.1254219 -0.14945552 0.08132931 0.08547763 0.09454243 -0.10671894 0.0921943 0.1033561
0.17348123 -0.033265382 -0.12378885 -0.008766251 -0.014340779 0.1703981 0.16657238 -0.09684505
0.0042326404 -0.22050993 0.03128399 -0.038284305 -0.018434303 -0.05985675 -0.113924496 -0.044840436
0.0993475 0.07156304 -0.054828275 -0.062487792 -0.081432536 -0.12417171 -0.02249761 0.052688997
0.101279505 0.20486185 -0.059936814 0.035774887 0.00088411523 0.27651453 0.09248587 -0.025026739
0.07105093 -0.07686126 -0.098900795 0.13278446 0.0034648445 0.058812417 -0.21275029 0.13314918
0.12973583 -0.007848933 -0.10973271 -0.23115277 -0.1352632 0.24821734 0.16562164 0.2380722
-0.028272856 -0.028514778 0.060692333 -0.29934266 -0.275997 -0.34288976 0.0799758 -0.048230216
-0.027214188 -0.09426366 -0.07521666 -0.11128007 -0.13371472 0.0020757888 0.010605652 0.12841822
-0.02188745 -0.047883343 -0.049629983 0.017471835 0.032874726 -0.16041306 0.17604384 -0.16132239
0.012390921 0.035382852 0.13723612 -0.09762436 0.09051164 -0.070611544 0.13114418 0.26111236
-0.053454354 0.047610275 0.02637125 -0.116339825 0.12680721 -0.3130278 0.08407729 0.25090036
0.33267343 0.15302782 -0.10501816 -0.05816941 0.11952388 -0.23097977 -0.014283755 -0.31612742
-0.0074398275 -0.024078399 -0.06454506 -0.07727272 -0.14123781 0.11584901 0.12527451 0.028923374
-0.042469222 -0.119034514 -0.09811999 -0.096669614 0.04593383 -0.009281357 -0.021228306 -0.002473744

a2c_network.actor_mlp.0.bias f4 [256]
00000000: ec4e dbbc 6f65 0b3d 6c14 a0bb 347d 3b3c
00000010: eb91 7b3b 6297 87bc bf0c 5dbc 8cc3 483b
00000020: 38b5 c6bc ac06 593d 0e3b 013d 75f5 8bbc
00000030: e260 403b 9305 50bc 3e12 5bbc d6d0 e73b
00000040: 6580 13ba ace8 d63c 04d0 62bc 8282 e63c
00000050: c5f6 fabc b1df 8abc 042a 0bba b624 003d
00000060: 60e4 34bc aceb f53c 9e28 833c f5a9 56bb
00000070: 6c93 523c 21c6 04bd b65c ac3b 9567 8e3c
00000080: 7cc6 ee3c d67c a83c 6f0e c43b a265 35bd
00000090: c1e6 dbbb beef 023d 6443 febc 0a5c f43a
000000a0: 362f 3d3d 39c7 74bc b223 343d e118 b6bc
000000b0: de61 38bc 0d5e a63b f45b 623d b825 0e3d
000000c0: bfd0 02bb 07fc 04bd 7816 82bc 523f 8e3c
000000d0: 0bd4 c83b ee1b 0ebc b0ce b5bc dc30 bdbc
000000e0: 9c47 023d 4c70 7d3c 8851 d23c 196e 7d3c
000000f0: 28d2 103a 885e 67bc 4278 a33c ec1f 9cbc
00000100: f93e 7ebc 4fda a23d 2151 f1bb ffe9 5bbc
00000110: 915e 7c3b b17a f33b b782 873c 10ae c03c
00000120: c662 78bd da9f 0a3d 0b2f a9bc 0abe a4bc
00000130: e389 0dbc b5e3 87bc 932a 83bc 5348 653c
00000140: eb8b db3c 9066 8dbc 1840 e43b 1e91 b4bc
00000150: 495e a83c 63e9 923c 2819 a53c 13e6 81bc
00000160: 6391 d33c f6de e2bc 5f5f a5bc 8472 b4bc
00000170: 0bcf f93b cfda 81ba 91fc 09bc f6f8 8b3c
00000180: ab24 103d 9f45 363b c10c 3ebc 7a40 703c
00000190: 9434 4d3d 8889 10bc dbe5 e73b 1482 2f3c
000001a0: 0868 3d3d a587 abbb b321 d13c 89c9 ab3c
000001b0: e16d 17bd 4046 adbc 4911 0a3d c556 fc3c
000001c0: 6b45 c8bc 61b8 f6bc 96e0 bcbc a61a 513b
000001d0: 34f9 123d 977b 45bd 8b3d 1e3c 9848 6dbb
000001e0: 16b4 25bd 4ae3 9bbd 9f96 353b 6609 29bc
000001f0: 0d6c f73a aa1b 4dbc 48c4 8cbc 314a 82bc
00000200: 3f4c ad3b 56a2 a7bc b006 85bb cd76 ba3c
00000210: e2f2 c6bc bfb3 ce3c 5cae 103d e81b 7fbc
00000220: fadb dc39 e0dc b4bc 233f 86bb 5109 7ebc
00000230: 1ec5 0d3d d472 a83a c254 d6bc 5411 53bc
00000240: ffe8 c5bc a999 763c 2174 853c fbfe 583b
00000250: a82c 9a3c 777c 21bd 344b 0b3d cff2 643c
00000260: daf1 0c3d 9918 d43b 7e5c e0bb e47e 33bd
00000270: 049c 8fbc f27f e8bc b556 7b3d 141a 5fba
00000280: fee2 a2bc 9e10 ca3c 41dd f3bc a1b6 d2ba
00000290: 37c2 e7bc cdeb 623c be2d 123c c8ea c73c
000002a0: 2e5f 9c3b 86bc 8f3c 6e83 7e3b 8c96 01bd
000002b0: 54a1 bf3b f8fa 8e3c 9841 7f3b 6f6c 733b
000002c0: 8459 eeba 3e6f 0bbd ab3b ba3c d50b 933c
000002d0: 424d 8f3b 1af7 093c 2083 f1bb bdad d93c
000002e0: 985f bc3a 4b39 91bc dc84 7b3c 7443 be3c
000002f0: 83d9 edbb b84d b33c 70c2 b4bc 163f cd3c
00000300: 2655 73bb 66bc 4dbc 708a 043d bd45 3dbd
00000310: b3c1 07bd 3b40 02bd a74e 243d c290 a4bb
00000320: 692a 103d f0ee e239 7f30 d53c 503f 23bd
00000330: f716 2cbc 4e50 80bc 1e83 723c 6504 eabc
00000340: 5f1e 9ebb 444d 6abb b544 c13a 4188 053d
00000350: baa0 4e3c 7dfa e43c fe61 67bc b27b 063b
00000360: a139 2cbd ff06 283b 2012 b0ba 653c 07bd
00000370: 1b43 1c3d 532e 99bb 64a5 5ebd 30d6 1b3d
00000380: 928f 393c d924 f8bc 8150 aebc 93f8 a73c
00000390: 0846 573d f565 893c 238b a83c 5908 c6bc
000003a0: 7dda 6f3c ad4e 8cbd 5638 a53a ae2e 083d
000003b0: 8958 83bc be1f 963c fd16 42bc edd8 02bc
000003c0: 34ce 113d ab48 883c 2e3a 013c 7d47 af3c
000003d0: 3396 9c3c 9b17 ea3c 9fb8 c83c 9975 91bd
000003e0: 4336 b33c a076 b7bc 5841 85bb 262a 53bc
000003f0: ca6d a23c 17a5 d63b 2423 c83b e43f d73b
-0.026771031 0.03403228 -0.004885247 0.011443425 0.0038386534 -0.016551677 -0.013491808 0.0030634133
-0.024256334 0.05298488 0.03155046 -0.017084816 0.0029354622 -0.0126966415 -0.0133710485 0.0070744557
-0.0005626737 0.026233993 -0.01384354 0.028138403 -0.030635247 -0.016952367 -0.000530869 0.03128501
-0.011040777 0.030019604 0.016010579 -0.003275511 0.012852531 -0.032415513 0.0052600754 0.017383376
0.02914738 0.020567339 0.005983166 -0.044286378 -0.0067108576 0.031966917 -0.031037994 0.0018643152
0.046187602 -0.0149400765 0.043979354 -0.02222866 -0.011253802 0.0050771297 0.055263475 0.03470394
-0.0019960848 -0.032466915 -0.015879855 0.017364178 0.006128793 -0.008673651 -0.022193283 -0.023094587
0.031806573 0.015468668 0.025673643 0.015468144 0.000552448 -0.014121659 0.019954804 -0.01905819
-0.015517944 0.07951795 -0.0073644076 -0.013422488 0.0038508514 0.0074303974 0.016541822 0.0235205
-0.060641073 0.033843853 -0.020652315 -0.020110149 -0.008638832 -0.016588071 -0.016011512 0.013994294
0.026800117 -0.01726082 0.0069656484 -0.022041854 0.020552771 0.017933553 0.020153597 -0.015856778
0.025826162 -0.027694207 -0.020187078 -0.022027262 0.0076235584 -0.0009907129 -0.008422033 0.017086487
0.03519122 0.0027812493 -0.01159972 0.01466381 0.05009897 -0.0088218525 0.0070769615 0.010712165
0.04624179 -0.005234676 0.025528764 0.020970123 -0.036970023 -0.021151662 0.03370789 0.030803094
-0.024447164 -0.030117216 -0.02305631 0.0031906753 0.03588219 -0.048213568 0.009658228 -0.00362066
-0.040454946 -0.07611711 0.0027708185 -0.010317182 0.0018876806 -0.012518803 -0.017183438 -0.015904518
0.0052886303 -0.02046315 -0.004059635 0.022761727 -0.024285737 0.025232194 0.035322532 -0.015570618
0.00042125565 -0.022077978 -0.004096882 -0.015505151 0.034611814 0.0012851604 -0.026163463 -0.012882549
-0.024158953 0.015051284 0.016290726 0.0033110965 0.018820122 -0.03942534 0.034007266 0.013973906
0.034410335 0.006472659 -0.0068469634 -0.043822184 -0.017530449 -0.028381322 0.061361987 -0.0008510661
-0.019883629 0.024666127 -0.029768588 -0.0016076156 -0.028290851 0.013850165 0.008922039 0.024403945
0.0047720885 0.01754595 0.0038835662 -0.031637713 0.0058480892 0.017453656 0.003894901 0.003714349
-0.0018184637 -0.034041636 0.02273353 0.017949978 0.0043732235 0.00842073 -0.0073703676 0.026572103
0.0014371751 -0.017727515 0.0153515 0.023225524 -0.0072585954 0.021887645 -0.022065371 0.025054496
-0.003712961 -0.012557125 0.032358587 -0.046209086 -0.03314371 -0.031799536 0.04011407 -0.0050221393
0.035196695 0.000432841 0.026024101 -0.0398553 -0.010503522 -0.015663292 0.014801769 -0.028566549
-0.004825398 -0.003575162 0.0014745208 0.032600645 0.012611562 0.027951473 -0.014122484 0.0020520505
-0.042047147 0.0025638936 -0.0013433136 -0.03301658 0.038149934 -0.0046747117 -0.054356948 0.038046062
0.011325734 -0.030291008 -0.021278622 0.020504272 0.05255702 0.01677225 0.020574158 -0.024173902
0.014639494 -0.06850944 0.001260529 0.033247642 -0.016033428 0.018325683 -0.011846301 -0.007986289
0.03559704 0.016636213 0.007887406 0.021396393 0.01911459 0.02857571 0.024502097 -0.07102508
0.02187646 -0.022395432 -0.0040666275 -0.012888467 0.019827742 0.006550442 0.0061077047 0.0065688957

a2c_network.actor_mlp.2.weight f4 [128, 256]
00000000: 62cf 7fbc a196 22be a3bf a4bd 232a a8bd
00000010: cf8d c43d f85f 2bbd 4dfd b8bc 6346 593e
00000020: 7943 0e3c fce5 313e eec7 9fbd 52ec 113d
00000030: 4631 043c 11aa 813d e120 00be 37b7 013d
00000040: 9514 48be afd3 023e 7693 1a3e a111 38bd
00000050: f4bb 363d 4390 d23d 5dbf b4be 9d5b 12be
00000060: 5ca8 e23d 34b6 fdbd 7c75 213c 1695 c93c
00000070: 9487 b2bd 48d1 50bd 0891 e03c ae7b 843c
00000080: 3af3 3abd 41d2 94bb daad 933d b3ab 46be
00000090: 9ad4 e7bd 9de2 75bd 2f40 8ebc 6b50 f8bc
000000a0: f305 65bd 948f 0b3e f859 03bd 1dba 57bd
000000b0: 23d0 153d ca52 9fbd d5fe aa3d e4cc 5cbd
000000c0: bc23 f23d 36fd c1bd 6109 8ebc 0d25 24bd
000000d0: 786e 33bc 4188 383e c56f bbbd 2fc4 063c
000000e0: 5086 f9bd 7138 9dbd 9173 8e3d d244 5b3b
000000f0: fcd4 e23c 6545 a6bc 11e2 a43d efc2 c5bd
00000100: d6e6 103e efe8 e83d dfa4 01be 111b d63d
00000110: 6744 0b3d d3e4 d13d e302 af3d 0b0a 9d3d
00000120: c808 03bd 60c2 703d 2b7a ab3d dd74 bbbd
00000130: 867b a9bd 39dd 6a3b dbfc 543b bb4c 0bbc
00000140: 8813 5abd 2a8e b73d 94a1 17bd c0ac 55bc
00000150: f1b7 d83c 6abe bfbc 575c 81bc d387 423d
00000160: 8e04 eebd f607 bcbd 37ad 0c3e 1e9e 293d
00000170: 11b1 973c 5505 713d 7b0e 12bd dafc 7dbd
00000180: 89aa 0d3d c0df debd be26 083d adfa 0f3d
00000190: 6614 7dbd 570e 6cbd bbbf 793b b414 00bd
000001a0: 5144 8e3d 8527 083e 993f df3d d78a 84bc
000001b0: 05a3 9ebc de6b 933c 89a3 acbd 6478 5cbd
000001c0: e66c 383e 0ffe 1b3d 0f6d 91bb 60b6 5dbd
000001d0: 6c17 aebd d48e 723e 6c40 4fbd 28e7 e33c
000001e0: 9a74 1bbe add9 2cbb ddcf b5bd b5a3 06be
000001f0: c48e 153d 7da6 fc3d a0fa b43c 5e73 173d
00000200: 2cfd 6ebd 8c57 fa3d 6187 1cbd 65c6 183d
00000210: 0e2a abbc 1b47 3e3d 2d46 df3d 5210 bebd
00000220: 2216 f43b 1fce 3b3d 471d a63b a67b 6d3c
00000230: 19c8 05be 7772 4e3d 5718 323e b035 7fbd
00000240: c274 c23c 13ef e93d f1c7 33bc 248d 143d
00000250: 72e6 10be f67d 463d d74d ff3c f64d 0ebe
00000260: 9a72 563d 391f d2bc b84c 30be cab3 21bc
00000270: 68dc 003e b8e9 aebd ae57 a1bd c615 ccbd
00000280: 35c0 093d 890f 973d 3dd2 b43c becd 15be
00000290: c7d0 8bbd 583c 783c 37fb 0c3e 991d 80bd
000002a0: 2e51 273c 1ccc 06be e6d6 bd3d 8807 133d
000002b0: fbf7 153d a243 353d 4355 30be a9d5 aa3d
000002c0: 474b 34bd 5f8c 01be d2ba ad3d e397 1dbe
000002d0: d007 8ebd 0d3c 42bd 0836 d6bd 883b f4bd
000002e0: 1e2f ce3c 3195 9f3d 3534 66bd 22e6 b3bd
000002f0: c334 89bd 0aa0 b53d 679e e5bc 3602 573d
00000300: 0609 5ebe 2554 913c 77b8 17bd a3dc 33bd
00000310: acbd 1f3d 43e7 1c3c 8f6f 6dbd 5275 d73d
00000320: c562 63bd 020c ac3d d10a 25bd 2161 20bd
00000330: 9ed3 683c 8431 ac3d fed5 033e a0a9 49be
00000340: 10c2 c5bd 7949 2bbd a96d 123d be92 c13c
00000350: b0b3 1abe fc66 6cbd 940a cc3c a202 25bd
00000360: 2703 dbbd dc18 003e 8387 b0bd abda f43c
00000370: ec0e 81bd 7a77 c5bb c317 183d dabd 913c
00000380: 5115 13be 0535 fe3d 4cf5 47bc 6161 843c
00000390: 0b04 e93b 9606 af3d 364a 38bc 76c6 343d
000003a0: 3533 5c3e f189 59bc 7295 abbd ce2f c2bc
000003b0: 7fb5 3a3d 538c 40be e957 223d 700a 5c3c
000003c0: c65e 97bd d71c c1bc afd8 953d b0cb 863d
000003d0: 41f9 1abd ae6d 2b3c 5187 933b ecd3 093e
000003e0: d892 59bd 76c8 7bbd e017 c4bd 6bb7 ba3d
000003f0: 8868 ee3d 8113 ecbc ced1 eabc b936 c0bc
-0.015613409 -0.15877773 -0.08044364 -0.08211162 0.0959736 -0.04183957 -0.02258172 0.21218257
0.008683079 0.17372888 -0.078018054 0.035625763 0.008068388 0.06331266 -0.12512542 0.031668868
-0.19539101 0.12776063 0.15095314 -0.044938687 0.04461284 0.10281422 -0.3530225 -0.1429276
0.11067268 -0.12388268 0.009854671 0.024607223 -0.08717266 -0.050980836 0.027412906 0.016172256
-0.045642115 -0.004541666 0.07210894 -0.19401436 -0.113198474 -0.06003057 -0.01736459 -0.030311784
-0.055913877 0.1362899 -0.032068223 -0.052667726 0.036575448 -0.07779463 0.083493866 -0.053906336
0.11823222 -0.09472124 -0.017338457 -0.040074397 -0.010951631 0.18020727 -0.09152178 0.008225485
-0.12183821 -0.07676781 0.06955636 0.0033457768 0.02768945 -0.020296762 0.08050931 -0.09656321
0.14150557 0.113725536 -0.1266055 0.10454381 0.03400078 0.10248723 0.085454725 0.07667931
-0.031990796 0.05877912 0.08372911 -0.09153149 -0.08275513 0.0035837425 0.0032499346 -0.008502181
-0.053241283 0.089626625 -0.037019327 -0.013041675 0.026454898 -0.023406226 -0.015791101 0.047492813
-0.116219625 -0.09181206 0.13737951 0.041410558 0.018517049 0.058842976 -0.03565834 -0.062008716
0.034586463 -0.10882521 0.033240072 0.035151172 -0.06178703 -0.057630863 0.0038108665 -0.031269744
0.06946624 0.13296326 0.10900802 -0.016179485 -0.019364843 0.017995771 -0.08429629 -0.05382575
0.18010291 0.038084086 -0.0044380496 -0.054129004 -0.08500561 0.23687297 -0.050598547 0.027820185
-0.15181199 -0.0026374862 -0.088775374 -0.13148387 0.036513105 0.123364426 0.022092164 0.036975257
-0.058346912 0.122237295 -0.038215045 0.03729858 -0.020894077 0.04645453 0.10902057 -0.092804566
0.0074489275 0.04585087 0.005069408 0.014494812 -0.13064612 0.05040213 0.17392097 -0.06230706
0.023737315 0.11422553 -0.010972963 0.036267415 -0.14150408 0.04845997 0.031165047 -0.13896927
0.052355386 -0.025649654 -0.17216766 -0.009869525 0.12584078 -0.08540672 -0.07878052 -0.099650905
0.03363057 0.0737601 0.022072906 -0.14629266 -0.068269305 0.015151106 0.13767706 -0.06255645
0.010212226 -0.13163799 0.09269504 0.035895854 0.036613446 0.044253953 -0.17220025 0.08341534
-0.044017103 -0.12651204 0.08482899 -0.15389971 -0.06935084 -0.04742055 -0.104595244 -0.11925417
0.025168952 0.07792128 -0.056202132 -0.08784129 -0.066995166 0.08868416 -0.028029634 0.052492343
-0.2168313 0.017740319 -0.037041154 -0.043911587 0.038999245 0.009576621 -0.05796772 0.10520424
-0.055514116 0.08400728 -0.04029352 -0.03915513 0.01421061 0.08407882 0.128746 -0.19693613
-0.09656155 -0.041818116 0.03574911 0.023629542 -0.15107608 -0.0577154 0.024907388 -0.040285714
-0.10693961 0.12509483 -0.08619597 0.029889425 -0.06301674 -0.0060262056 0.037132036 0.017790724
-0.143636 0.124124564 -0.012204479 0.016159715 0.0071110777 0.08546178 -0.011248162 0.04413458
0.21503909 -0.013277517 -0.08378114 -0.023704436 0.045583244 -0.1880353 0.03963462 0.013430223
-0.073911235 -0.023573322 0.0731672 0.06581819 -0.037835363 0.010463161 0.004502215 0.13459748
-0.053118557 -0.06147047 -0.09574866 0.091170155 0.116410315 -0.028817894 -0.028664496 -0.023463594

a2c_network.actor_mlp.2.bias f4 [128]
00000000: 82cb b6bb 426f b538 99a7 0dbd 0adc 0fbd
00000010: 6b6a 9dbc ad83 24bd 3135 063d fd73 78bc
00000020: 02c3 83bd 5944 0dbd 02cc c9bc 1a12 55bd
00000030: 5b5f 6fba ed97 6dbd d48a c3bc cf84 513a
00000040: dee8 e0bc 78bb 92bd f439 0b3d 42fb 5a3c
00000050: 0974 0cba ee81 f9bd a49b 903d d5f1 24bc
00000060: 0339 933c f99f 3bbd 7438 3cbd 8867 4c3d
00000070: 17bb e83c 9db5 01bd c846 42bb 0af4 b43c
00000080: 1251 173d ea56 41bd 7f8f fbbc 006e 4bbd
00000090: 27e9 c4bb c196 663c 9bf3 0a3d db5d 44bd
000000a0: 5020 3cbd 5f10 1bbd 7674 493d faf0 97bc
000000b0: 61c4 9a3c 9949 d83b 4039 6739 c6bc 933c
000000c0: 6689 7dbc 8e20 853d 3171 49bb cef4 1d3d
000000d0: 8f63 043c 8bc3 23bd 9b54 81bc 33c9 c4bc
000000e0: 8979 2bbd 8ef0 3abd f9ba 273d 0d6e 613c
000000f0: f262 afbc ef72 0cbd c0a3 35bd 60ba 17bc
00000100: 9f9d 9cbb 5209 40bc ae4c 4b3d bdf5 99bc
00000110: f394 d93c f874 093d 41aa 55bb d86b 653c
00000120: 4668 28bb 7506 00bc 98a1 153c 7971 a8bc
00000130: babe 0ebe 452d 8b3d 3ef9 8f3c 1687 21bd
00000140: a615 eebd aa14 edbb 7aaa 1a3d 3c67 283d
00000150: 1505 823c 3810 5ebc 1605 0ebc 89de 99bc
00000160: 7d52 103d 345d 813c 1097 e6bc 9b52 13bd
00000170: a046 47bd 1d4c 58bd 8691 68bd c538 07bd
00000180: f31f 093d a8d0 e13b 0fd3 41bd a093 b3bc
00000190: 37bb 73bd 2a74 633c 40c2 a1ba 7312 7ebd
000001a0: 672d 36bd 7bd5 ed3c f740 843a f24e 62bc
000001b0: ebed 4f3c 1f5c 2fbd 584d d6bc d400 47bc
000001c0: e919 a0bc c199 9e3c 5ed5 78bd 4e9a a63c
000001d0: bbdf 16bc f4f3 78bc e3d4 7fbc 0060 e6bc
000001e0: 4fdf 2abd 4b90 8a3c 6d8f edbd 1ca3 74bc
000001f0: 98d4 aebd 0eb0 8bbc f082 5bbd 518f 47bd
-0.0055784592 8.651476e-05 -0.03458366 -0.035121955 -0.019215783 -0.04016464 0.03276557 -0.0151643725
-0.06433679 -0.03448901 -0.024633411 -0.052019216 -0.00091313355 -0.058006216 -0.02386991 0.00079925073
-0.02745479 -0.07164663 0.033990815 0.013365569 -0.0005357867 -0.12182985 0.07060936 -0.010067423
0.017971521 -0.04580686 -0.045952275 0.049903423 0.028409524 -0.03166734 -0.002964424 0.022089023
0.03694255 -0.04720203 -0.030708073 -0.04966545 -0.0060092392 0.0140740285 0.033923727 -0.04794107
-0.045929253 -0.03785741 0.04918333 -0.018547524 0.018892469 0.0066005704 0.00022051204 0.01803435
-0.015474653 0.0650035 -0.0030737633 0.038563542 0.008080377 -0.039981406 -0.015787413 -0.02402172
-0.04186395 -0.045639567 0.040949795 0.013759148 -0.021409485 -0.034289297 -0.044345617 -0.009260744
-0.004779532 -0.011720972 0.049633674 -0.018793935 0.026560282 0.033558816 -0.00326027 0.014002763
-0.0025696917 -0.0078140395 0.009132765 -0.02056192 -0.13939944 0.06795744 0.017574903 -0.03943547
-0.11625223 -0.0072351294 0.037760235 0.041114077 0.015871564 -0.013553672 -0.008668205 -0.01878287
0.035234917 0.015791513 -0.028148204 -0.03596745 -0.048651338 -0.052806962 -0.056779407 -0.033013124
0.033477735 0.006891329 -0.04732042 -0.021920979 -0.059504714 0.013882676 -0.0012341216 -0.062029313
-0.044476893 0.02903246 0.0010090162 -0.013812767 0.012691001 -0.042812463 -0.026159927 -0.0121461935
-0.019543605 0.019360425 -0.060750358 0.02033725 -0.009208615 -0.015194882 -0.015614721 -0.028121948
-0.04171687 0.016914507 -0.11599622 -0.014931466 -0.08536643 -0.017051723 -0.05359167 -0.04872066

a2c_network.actor_mlp.4.weight f4 [128, 128]
00000000: 999c 733e 36cf 28be 7333 813c 1169 8cbe
00000010: 84d1 83bd d13a 8fbe 4ac7 dabd c299 0d3d
00000020: 34f3 593e 36b1 e6bd 5737 0f3e af7e 713d
00000030: 57d7 3ebd 6112 9ebc f541 193e ba8d 79bc
00000040: d72f 263e d152 83bd bd0d ab3b 00f5 56bd
00000050: bfd2 84bd 5998 733e 7d2c 2cbd 9f2d 7ebc
00000060: 9b98 833e 9974 1b3c 2660 7ebd c78c 173e
00000070: 4d25 c33d 41e9 973d d0d9 5dbd dd1d a2bd
00000080: fe44 073e 3dda fbbc f548 7a3e 3af8 0bbc
00000090: fc05 903d b564 b9bd fd3e c33c bfa6 273d
000000a0: d2f6 6d3c 76b5 b13c 618f 363c cf64 573e
000000b0: 6c82 363d 4e2a 3a3e 1b00 043d 8c79 30bd
000000c0: 5c00 1f3e 9fe8 d23d d255 8c3d 247e a23d
000000d0: 9199 f23d 2602 273d d71e 523d 8e7d 7b3c
000000e0: b976 f33d 794f 0a3e 8c2f 15bd e3e6 243d
000000f0: ab6b 75be fada ae3d 377a 6f3c 9da7 1dbe
00000100: 49c5 453d dd5a 9a3e db61 18be e439 9bbe
00000110: 1990 f4bd d495 04be 1b58 3a3d a81b 6bbe
00000120: 1e8c 4c3e 67a6 1b3d 2424 af3d 2f82 79be
00000130: 8e35 1bbc fbd4 e9bc c4b0 15bd 65f3 1e3e
00000140: 5621 873d dc75 213d 4dc8 903e 493d dabc
00000150: 49e3 ac3d 1224 543e c109 2dbe ec83 533d
00000160: da81 d8bd ac02 efbd 00cd d83d 9303 ecbd
00000170: 822f fbbc fe38 49be 4ca1 a63b 9400 cebb
00000180: 4af8 9fbd a300 393e 188b 41bd 530a 273d
00000190: 29e9 77bc cec7 e2bd 6fc8 1b3e 9909 1e3e
000001a0: d8db 383e 011f 0a3e 33eb 4fbe fab3 253e
000001b0: 0060 debd dcbe 003d bae0 23be 3b93 d6bd
000001c0: 4027 1e3d dce8 b23d 3826 29be 0334 0abe
000001d0: 6f53 00bd 1780 70bd 5b42 ea3b 8e57 13bb
000001e0: 1ffa c53b 9852 4fbd c7e0 15bd e272 183e
000001f0: 09ed 58be 587d 183e c43e 143a a93c ebbc
00000200: 0e6d 6dbe d565 1f3e 023d da3c d83f 953d
00000210: ad3f 85bd 5a4f dabd a6d8 a63d 8786 013b
00000220: 1456 233c 8448 20be 3fec 92bd 119d cabc
00000230: 964e f93d 88a4 9dbe 9861 1cbe f476 6a3d
00000240: 916a c0bd 09e8 163e e449 56be c55a 6b3c
00000250: 6d25 b9bd 798b cebd 315e a9bd ae24 c93d
00000260: 693c b0bd b3c2 5cbb 6ab0 84bd 4adc d9bc
00000270: 0f22 b7bd 823e 13bd c50f c7ba 14d1 bbbd
00000280: f5c5 be3d e931 8e3d 8be5 79bd 017b 9cbe
00000290: eb9b a33c 251b f0bd bc35 4cba aaa5 2ebb
000002a0: 3dc1 133d 13c2 acbd 2a65 5ebc 792a 66bd
000002b0: 58b4 86bd d87c 36be 4456 2bbc 7c37 0cbe
000002c0: a10b b83d 36b3 303e 9b37 c7bd 24ec 2fbe
000002d0: 3bf1 6e3e 7ad8 863d 68d9 73be 8bde 0e3c
000002e0: 2c44 35be a488 9f3d 7ee0 5d3e e351 d43a
000002f0: 3ceb b4bb 8694 b1bd dec3 c0bd 76cc 4abe
00000300: 8b96 9cbe 5616 16bb f28d a73d a7ef 493d
00000310: 95e9 5ebd 3afc 82bc 5d17 2bbd e85c f63d
00000320: 983f 84be 71c6 45bd c3b8 a13e 653c cb3d
00000330: 3129 f3bc ee3f c53d 96f3 5abe a12f a03d
00000340: 05a1 d8bd 7ab4 b43c aaa1 873d 4860 d5bd
00000350: c08a 00be f84b 19be 52a3 0fbd 6b8d bfbd
00000360: 59e9 df3d 07bc 1bbb 0fcc edbd 645a e23d
00000370: 6724 76bd 5fbc c43d 1797 1bbe c8d3 28bd
00000380: cded 9e3c 40af 72be 61d4 a8be 5957 b53e
00000390: 69b3 e0bd ad90 ecbd c4fb 143c b566 25be
000003a0: 4f88 8cbd ff02 093e dcdc 083d a31e 5ebc
000003b0: 532b 64be 4fce 26be ea50 84bc dce0 753e
000003c0: 9d96 2d3c a125 ef3d e4d5 e63d e4fd e53d
000003d0: 308b b5bd caf9 803d d794 32be a4d3 0dbe
000003e0: 4aa6 44be c8e0 8bbd 1942 5abe 6902 c9bb
000003f0: a683 24bd 07e5 11bd 83b6 ce3d a0f6 97bc
0.23790206 -0.16485295 0.015771603 -0.2742391 -0.06436446 -0.2797456 -0.106825426 0.034570463
0.21284181 -0.11264269 0.13985954 0.058958706 -0.046592083 -0.019295873 0.14966567 -0.015231544
0.16229187 -0.0641228 0.0052201436 -0.052479744 -0.06485509 0.23788585 -0.042034615 -0.015513807
0.25702366 0.009488248 -0.062103413 0.14799796 0.09528599 0.074175365 -0.0541628 -0.07915852
0.13209912 -0.030743713 0.24441893 -0.008543069 0.070323914 -0.090524115 0.023833746 0.040930506
0.014524179 0.021692973 0.011142583 0.21034549 0.044557974 0.181802 0.032226663 -0.043084666
0.15527481 0.10298275 0.068523064 0.07934216 0.11845697 0.040773533 0.051298942 0.015349759
0.11887879 0.13506879 -0.036422297 0.040259253 -0.23966853 0.0853786 0.014616541 -0.1539597
0.04828385 0.30147448 -0.14881079 -0.30317605 -0.11941547 -0.1294778 0.04549418 -0.22959769
0.19975325 0.03800049 0.08551815 -0.24366067 -0.009473218 -0.02854394 -0.03654553 0.15522535
0.06598155 0.03941904 0.28277817 -0.026640551 0.08441789 0.20716885 -0.16898252 0.051639482
-0.10571642 -0.116704315 0.10585976 -0.11524119 -0.030662302 -0.19650647 0.005085146 -0.00628669
-0.07811029 0.18066649 -0.04725179 0.04078133 -0.015131273 -0.11073266 0.15213178 0.15433349
0.18052614 0.1348839 -0.20304565 0.16181937 -0.10858154 0.031432018 -0.16003695 -0.10477301
0.03861165 0.08735821 -0.16518486 -0.13496403 -0.03132957 -0.058715906 0.0071490235 -0.0022482607
0.0060417796 -0.050615877 -0.036591318 0.14887574 -0.21184172 0.14891565 0.0005655105 -0.028715448
-0.23186132 0.1556619 0.026640419 0.07287568 -0.06506286 -0.10659666 0.08146791 0.0019764022
0.009969253 -0.15652663 -0.071739666 -0.024733098 0.12173192 -0.3078959 -0.15271604 0.05724235
-0.09395326 0.14736952 -0.20926625 0.014364903 -0.090403415 -0.10085196 -0.08269919 0.09821449
-0.08605272 -0.0033685386 -0.06478961 -0.0265943 -0.08942043 -0.035948284 -0.0015187195 -0.09170738
0.09315101 0.06943113 -0.061009925 -0.30562595 0.019971808 -0.117239274 -0.00077899895 -0.0026649036
0.03607296 -0.08435454 -0.013573924 -0.05619285 -0.065773666 -0.17821062 -0.010457579 -0.1369304
0.08986593 0.17255864 -0.09727403 -0.17179924 0.2333421 0.065842584 -0.23813403 0.008720051
-0.17701787 0.07789734 0.21667668 0.001619872 -0.005521206 -0.08670907 -0.09412359 -0.19804558
-0.30583605 -0.0022901497 0.08181371 0.049300816 -0.05442198 -0.015989412 -0.041770328 0.12029439
-0.25829768 -0.04828495 0.31586275 0.09923629 -0.029682728 0.09631334 -0.21381983 0.078215845
-0.10577587 0.022058714 0.06622632 -0.10418755 -0.12552929 -0.14970386 -0.035067864 -0.09353145
0.109331794 -0.0023763196 -0.11611187 0.11052397 -0.06009331 0.096062414 -0.15194355 -0.041217595
0.019400502 -0.23699665 -0.32974532 0.35418203 -0.1097172 -0.11551032 0.009093229 -0.16152461
-0.06861936 0.13380049 0.033413753 -0.013557109 -0.22282152 -0.16289638 -0.016151864 0.24011558
0.010594991 0.11677099 0.11271265 0.112300664 -0.088644385 0.062976435 -0.1743959 -0.13850266
-0.19204059 -0.06829983 -0.21314277 -0.0061343205 -0.040164612 -0.035618808 0.10093405 -0.018550217

a2c_network.actor_mlp.4.bias f4 [128]
00000000: 6e73 a6bd 048f 46bc d7fa 18bc 2791 e9bc
00000010: 2dcb 023c b9b2 88bd 9a4e 4c3d 00f9 863b
00000020: 4765 4dbd ff7d 57bd e52e 27be 49f2 8e3c
00000030: be9a 59bc f9a1 babd d7fb b3bd e5d0 a3bd
00000040: 24e0 af3d ef02 8cbb c4f0 113b 847a 3abb
00000050: 553b a3bb 7f50 47bd 7c40 283b 46df 5fbd
00000060: 50b2 d1bd 86da 3d3d e55c 163d deac a0bd
00000070: 8eb7 513c 12d7 6abd 1c1b bc3d 2180 b2bd
00000080: e874 abbc b33c 943c 4bdf 0fbd a9ce e0bc
00000090: 8508 6e3c f3d9 64bd e669 383c c19c a13c
000000a0: ef2c f9bd cae4 5fbb 7029 89bd 8ac2 a83d
000000b0: a8b5 eebd d2c8 d9bc d0c6 21be 83bd 13bd
000000c0: 0331 043d 1712 15bd 9ee4 b3bd 6b4d d13c
000000d0: 8469 2abc 1e1b 293d cb92 b93c 43c2 1d3d
000000e0: a552 db3b 2da3 dc3c b048 bd3a 2084 00bd
000000f0: 4476 233d cabb b23d 8a84 7bbd 7fda 52bd
00000100: f79a 0c3d e9aa 5c3c 0e30 3bbd a154 223d
00000110: 39c0 38bd 4c10 7cbb c44a 13be bfc8 a83c
00000120: 1217 b43b 615a c83d 2df8 e6bb a4a9 0fbd
00000130: b2d8 3fbc d1e8 86bc d0ae 6abd 9d9a 38bc
00000140: ad80 7a3c 9661 b1bc 709a 963c 05a4 3fbd
00000150: 3554 613c cba5 dcbd bf8a 25be a580 46be
00000160: 9103 f1bd 82fb dabc 9750 fdbd 8310 87bd
00000170: 42ee 2abd 16bd 1bbd 982b 303c ebbb 46bd
00000180: 03a1 3cbd c2f7 82bc d858 03be 8a97 e3bc
00000190: 87e2 1cbb 7096 b8bd 910a 87bd e7a7 b83d
000001a0: f102 89bd 9823 8538 a3cb 013d a216 8dbd
000001b0: 33b7 08bd ae90 4cbc efa0 2a3d 6401 1abd
000001c0: 95a9 363c d78e aebd e84b 75bd 061f 85bd
000001d0: ac62 73bd 1dc5 bebc 521e b1bd 94e5 c6bc
000001e0: 2e5f 07bd 8183 c13c da81 983d 058f dbbd
000001f0: 2faf 3fbd 32a0 2ebd ebe5 cdbc 7199 2cbb
-0.08127485 -0.0121190585 -0.009337149 -0.028511597 0.007983011 -0.06674714 0.049879648 0.0041190386
-0.050145414 -0.052610394 -0.16326483 0.017449515 -0.013281522 -0.09112925 -0.08788269 -0.07998828
0.08587673 -0.0042728106 0.0022268752 -0.0028454373 -0.004981438 -0.04866075 0.0025673201 -0.05465629
-0.102390885 0.04635098 0.036709685 -0.07845472 0.0128001105 -0.057334013 0.09184858 -0.08715845
-0.020929769 0.01809535 -0.03512506 -0.027442293 0.014528398 -0.055871915 0.011255717 0.019728066
-0.121667735 -0.0034163469 -0.06697357 0.082402304 -0.11655742 -0.026585016 -0.15798497 -0.036069404
0.032273304 -0.036394205 -0.0878384 0.025549611 -0.010401133 0.041285627 0.022653004 0.03851534
0.0066932016 0.026933277 0.0014441218 -0.031376004 0.03990771 0.08727224 -0.061405696 -0.051477905
0.034327473 0.0134684825 -0.045700125 0.03963149 -0.045105193 -0.0038461862 -0.1438399 0.020603536
0.0054959143 0.097828634 -0.007048628 -0.03507389 -0.011709379 -0.016468437 -0.05729562 -0.011267331
0.015289468 -0.021652978 0.018384188 -0.04678728 0.013752987 -0.1077381 -0.16166209 -0.19385011
-0.11768258 -0.026731256 -0.12368887 -0.06594946 -0.041731127 -0.038022123 0.010752581 -0.048519056
-0.04605199 -0.01598728 -0.1282686 -0.02778222 -0.0023938732 -0.09013069 -0.06593812 0.090164
-0.06690014 6.348564e-05 0.031688344 -0.068890825 -0.033377837 -0.012485666 0.041657384 -0.037598982
0.01114883 -0.08523338 -0.059886843 -0.06500058 -0.059420273 -0.02328735 -0.08648361 -0.024279393
-0.033049755 0.023622276 0.07446642 -0.10720638 -0.046797927 -0.042633243 -0.025134047 -0.0026336575

a2c_network.value.weight f4 [1, 128]
00000000: 97a3 25bd 5faf 6dbc 2072 4eba 8105 f73c
00000010: 7a28 b4bc cc6f 423c c039 64bb 2aef dd3d
00000020: 3334 093c f279 92bd 1ec1 0b3e 3416 66bd
00000030: 5d10 2abd 8996 b63c 5f59 813c 5b9e f3bc
00000040: 2560 113f e272 08bc 8d03 663d 7a9b 393d
00000050: 5900 b93c 5c7d 01bd a7aa f83c 4eb6 4e3d
00000060: 9885 a83c fa9e 23bd 50fb 8c3c da64 2b3d
00000070: 2128 f0bd e8c6 69be 39ee c4bb 9971 b0bc
00000080: 42a5 a73b bcef a6bb 74ad 433d 2d9a 85bd
00000090: 7adc 663d 2568 533d c1d2 40bc 6785 403e
000000a0: 1edf 9f3d 6c98 0dbd aa18 483e 8d8e 1c3d
000000b0: 80b4 2e3d f26f b3be 72ec cbbc 8a5f 943c
000000c0: f984 1a3d 4421 463d 20e0 943c c909 b13e
000000d0: 9cfe 52bc f142 183e d562 0f3d e084 32bc
000000e0: f559 9cbe 99ed 433d b0b1 383d be99 003d
000000f0: ab3a bcbb f26f 8cbe 7c27 4438 fcb9 313d
00000100: 9ca2 8fbd 69a7 143b 84ac a1bd b7e1 503b
00000110: 13e4 f73c 0515 e13c cfea 2ebe b5d2 353d
00000120: d359 4abd a4be 5bbd eedf 9abd ebfe dfba
00000130: 03c7 d23c 463c b53b 88be b2bb 78ba 21be
00000140: 4b9d e73c 1dad f43c 23a1 8dbc e832 2ebc
00000150: d022 e5bc aa47 f8bc 7273 91be cc89 fbbc
00000160: 6338 b9bc bb53 99bc 9214 a9ba 76b6 20bd
00000170: ece7 92bc 28b1 5cbd b6f5 c7bc 3cc8 74bb
00000180: cc9f 8d3c a03a 3d3c 68fd e73d 2f63 4abb
00000190: 306b e2ba 4c29 aa3d 0afd a3bd 3a99 53bd
000001a0: de1d 51bd 2b7f 663d f15c 043c e31a 32be
000001b0: cb3c dc3b a4e5 90bd 8f45 41bd 9ad6 03bd
000001c0: a18f 2fbd ac74 42bc cc30 b03d 7e21 f93c
000001d0: ae90 cebb 64fa 75be 9d24 25bd 8486 fd3d
000001e0: 2c76 9f3d 0669 6a3c 816d ecbc e4d7 3fbd
000001f0: 98c4 003e 4fe8 783d c68f 8abd fdba b63a
-0.040439215 -0.014507144 -0.00078752823 0.030153992 -0.021991957 0.011867475 -0.003482446 0.108366325
0.008374262 -0.071521655 0.13647887 -0.05617352 -0.04151951 0.022288578 0.015789686 -0.029738596
0.5678733 -0.008328171 0.05615573 0.04531429 0.022583174 -0.031613693 0.03035481 0.050466828
0.020571515 -0.039946534 0.017209679 0.041844226 -0.11726404 -0.22829783 -0.0060098437 -0.021538543
0.005116136 -0.0050944965 0.04777284 -0.06523547 0.056362607 0.05161299 -0.011768998 0.18800889
0.07806228 -0.03456919 0.19540659 0.038221885 0.042652607 -0.35046345 -0.02489302 0.018111963
0.03772447 0.04837157 0.018173277 0.34577778 -0.012878086 0.14869286 0.035006363 -0.010895938
-0.30537382 0.047834013 0.04509133 0.03139662 -0.0057442985 -0.27429157 4.6766814e-05 0.04339026
-0.07013437 0.0022682792 -0.07894233 0.0031872818 0.030260121 0.027475843 -0.1708176 0.0443904
-0.04940207 -0.053648606 -0.075622424 -0.0017089521 0.025729662 0.005530867 -0.005454842 -0.15793788
0.028273245 0.029867703 -0.01728875 -0.010632254 -0.027970701 -0.03030761 -0.2840839 -0.030705355
-0.022609895 -0.018716684 -0.0012899807 -0.03923651 -0.017932855 -0.053879887 -0.024409156 -0.0037350794
0.017288111 0.011549622 0.1132763 -0.0030881872 -0.0017274376 0.08308658 -0.08007248 -0.0516598
-0.051053874 0.05627362 0.0080788 -0.17393069 0.0067211143 -0.070750505 -0.047185477 -0.032187082
-0.042861585 -0.011868637 0.08603057 0.030411478 -0.0063038683 -0.24021298 -0.04031812 0.123791724
0.07786211 0.014307266 -0.02886081 -0.04683675 0.12574995 0.06076842 -0.06765704 0.0013941225

a2c_network.mu.weight f4 [10, 128]
00000000: 27df 36be a0a8 abbc b3a4 473e 5d5d f73d
00000010: 89dc 963d fdff 45bd 912c e4bd 0ab3 85bd
00000020: 2317 73bd 84e6 9abc 2ae5 d3bd 0571 eebd
00000030: 826b f3bd 6bf3 223d 2324 b43c 0ac4 0a3e
00000040: 8f6c 093d e1b2 c8bc 03c8 1dbd bb03 383d
00000050: 4c42 a5bd 8dee 183d 058e 8bbc 607c 6abd
00000060: c654 4a3d d202 8d3d 59ef f8bd 0baa b8b9
00000070: 5123 12bd 3be5 983d 16ca 8a3c 4d67 393d
00000080: 3100 01bd 0c86 efbc a29e c3bb c7b9 1cbb
00000090: 389c a4bb e792 233d 3094 553d b650 f8bd
000000a0: d428 073e cc7f bdbd 3745 f83b 8745 0dbd
000000b0: ad83 df3b 65ba 803d d5c7 45bd bbb7 a0bd
000000c0: e1f6 6c3c 1a65 40bd 4eb3 c3bd d4c8 fdbd
000000d0: d516 1fbe c72c 323d e174 26be 4da8 3fbc
000000e0: 3dc6 e43d 8794 b03d d505 46bd b65e 783d
000000f0: 0945 ffbc 80ff 933d a6d0 e63b 01c9 dc3d
00000100: 4a33 67ba dcab d33d 9bbd 923c 2819 d2bd
00000110: d4e7 febb ec3f 913d f171 1ebd cc7e da3d
00000120: 3dea 3f3e ece9 89bd deeb 5ebe c54c 6fbd
00000130: e5c2 57be 9b58 37bc 076d e53d 2100 b8bd
00000140: 9a9e a4bb 8670 24bd f9a5 0bbe ab3c 20bd
00000150: e8be 4d3d aeba 783d 13cc 9bbd 020f 60bd
00000160: 73a2 ab3d f0e9 313d ab64 363d 7df2 5c3d
00000170: bf62 efbd 2939 9fbc abdc 133e d49e 473d
00000180: 8220 3d3e 7284 2ebe 9df7 7abd 85ea 403d
00000190: 3e81 333c bb38 a73c aeca 47be 8635 4b3c
000001a0: c015 103d 789f 7d3d 8f0d abbd 7121 3f3d
000001b0: 9d2e 863c 72c8 0f3e d9f4 e3bc 2e4f c93d
000001c0: 7357 a5bd ce69 743d f90c b0bd ae29 763e
000001d0: 45e2 76bd 6089 ffbd 2dba 113e 5609 3bbd
000001e0: 8e08 ffbb 9d5f afbd 32b3 b4bc 2e0f c63d
000001f0: 422a c83d 7ede d53d cd80 fb3c cd0a f33d
00000200: 461e 8dbd 9ccb dd3d 65a1 98bc d173 9d39
00000210: 36d2 13be 50ed 2b3d 0003 91bc 64d2 1e3e
00000220: 418f babd ae2d b0bd edc4 37be b262 033e
00000230: d0e1 53bd ffda cdbd 5f45 c3be 02a8 963d
00000240: 9ef1 243e 1aaf d23d d309 dabd 0ee8 1bbc
00000250: 8d67 153e 340f e13b 7aac 173d 67d5 b7bd
00000260: fca8 5ebe f5ee 03bd c6a7 e73d 61ab 613d
00000270: 01ec 0a3d 423c 9cba 34f7 b23d a695 b33c
00000280: 5f93 89bd d85b 87bd dc67 533d 78a1 493c
00000290: e868 bbbd aa52 023e d1f9 d0bd 2179 82be
000002a0: 64f6 36be ef99 843d fa29 e9bc 7999 413d
000002b0: ed29 e8bd 4be7 2d3b a23a c3bd 2883 d5bd
000002c0: aa38 513d 6f5f fd3d d9ff 04be 785f c1bd
000002d0: 7188 163e 5555 ad3d ff03 22bd 47b8 17bc
000002e0: ddf5 873e 1ed3 dcbd 2473 593d cf8b d23d
000002f0: b66c c53c f186 97bc ab1c bebc da29 973c
00000300: e54f 983d 7022 b33d 6ba0 37be ddbd a93d
00000310: cf49 bfbd 077b d23d e999 3fbe 8e64 dc3d
00000320: 9dff 09be 08ee 103e 7c42 92bd 0ca8 1b3e
00000330: 7b6f 283e 5d9b 4f3e eee2 11be b078 223e
00000340: f930 f1bd bec2 a83e 8d26 5bbd 848a bfbd
00000350: 9172 aebd cf71 9abd ce30 3abe eca1 c5be
00000360: 8df9 f7bd 25d8 b53d e6ed d6be b931 b13c
00000370: b1a8 423d a303 9b3d f16e 8a3c 6e6b 1c3a
00000380: c4c9 8f3d 5ad3 be3d 15d0 04bd 3cfa 27be
00000390: 4ec0 613c 2061 91be 5b53 1abe 7797 b83d
000003a0: b1df 4e39 2023 a5bd 80f2 183d 1a0b 0bbe
000003b0: f0c7 71bd df52 22bd 6c65 46bd 2770 62bb
000003c0: a672 a5bc 093f 9ebc f4d6 10bd 8493 fabd
000003d0: fb0b 77be 0e18 2f3e 50c4 61bd c4b5 953d
000003e0: 5877 14bd 08dc 8a3d 2c9f 6d3d 297c c9bd
000003f0: da35 34bc a281 fbbd 62bc 58be ba7a 1c3e
-0.17858563 -0.02095443 0.19496422 0.120783545 0.073662825 -0.048339833 -0.11141313 -0.065282896
-0.059348237 -0.018908747 -0.10346444 -0.116426505 -0.1188574 0.039782923 0.021989888 0.13551345
0.033550795 -0.024499359 -0.038520824 0.044925433 -0.08069286 0.037336875 -0.017035494 -0.05724752
0.049397253 0.068853036 -0.12155027 -0.00035221907 -0.03567821 0.07465597 0.016942065 0.04526453
-0.031494323 -0.029238723 -0.0059698382 -0.0023914443 -0.0050235055 0.03993502 0.052143276 -0.121247694
0.13199168 -0.09252891 0.0075766104 -0.034490135 0.006821117 0.06285552 -0.048286278 -0.07847544
0.014463157 -0.046971418 -0.09555684 -0.123918205 -0.15536053 0.043499734 -0.16255523 -0.011697841
0.111706235 0.08622079 -0.048345406 0.0606372 -0.031160848 0.07226467 0.007043916 0.10780526
-0.00088195933 0.10335514 0.017912677 -0.102587044 -0.007779101 0.0709227 -0.03868288 0.10668716
0.18741699 -0.0673407 -0.21769664 -0.058422823 -0.2107044 -0.011190559 0.11202436 -0.089843996
-0.0050237896 -0.040146373 -0.13637532 -0.039120357 0.05023089 0.060724907 -0.076072834 -0.054701813
0.08380594 0.04343599 0.0445296 0.053942192 -0.11688756 -0.019436436 0.14439647 0.048735455
0.18469432 -0.17042711 -0.0612713 0.047098655 0.010956107 0.020412793 -0.1951091 0.012402898
0.035176992 0.06191966 -0.083521955 0.04666275 0.016379649 0.14041308 -0.027826713 0.098295555
-0.0807332 0.059671216 -0.08596224 0.24039337 -0.06027438 -0.12477374 0.14231177 -0.0456632
-0.007783002 -0.08563159 -0.022058103 0.09670864 0.09773685 0.10442828 0.030701065 0.118672945
-0.0689054 0.10829851 -0.018631646 0.00030031663 -0.14435658 0.041974366 -0.017701626 0.15509945
-0.09109355 -0.08602463 -0.17946215 0.12830618 -0.051729023 -0.10051536 -0.38138863 0.07356264
0.16107795 0.10287304 -0.10646405 -0.009515775 0.14590283 0.0068682674 0.03702972 -0.0897625
-0.2174415 -0.03221031 0.11311297 0.05509508 0.033916477 -0.0011919814 0.087385565 0.021921944
-0.06717562 -0.06609315 0.05161272 0.012306564 -0.09150869 0.12726846 -0.10203899 -0.2548304
-0.17867428 0.06474673 -0.028462399 0.047265504 -0.11336122 0.0026535566 -0.09532668 -0.10425407
0.05107943 0.12371718 -0.12988223 -0.09442037 0.14700486 0.084635414 -0.039554592 -0.009260244
0.26554766 -0.10782455 0.053088322 0.102805726 0.024099689 -0.018496962 -0.02320703 0.018452574
0.07437114 0.08746803 -0.17932288 0.08288167 -0.0934025 0.10277372 -0.18711056 0.10761367
-0.13476415 0.14153302 -0.07141587 0.15200824 0.16448776 0.2027411 -0.14246723 0.15866351
-0.11776919 0.32961076 -0.05350356 -0.09352592 -0.085179456 -0.075412385 -0.1818268 -0.386001
-0.12108145 0.08879117 -0.41978377 0.021630155 0.047524158 0.07569053 0.016898604 0.0005966936
0.070209056 0.09317656 -0.032425005 -0.1640405 0.013778759 -0.28394413 -0.1507086 0.090132646
0.00019729022 -0.0806334 0.03734064 -0.13578454 -0.059028566 -0.039629813 -0.048436567 -0.0034551711
-0.02019627 -0.019317167 -0.035361245 -0.122351676 -0.24125664 0.1709902 -0.05511886 0.0731006
-0.036246628 0.06780249 0.058013126 -0.09838135 -0.010999167 -0.12280585 -0.21165612 0.15281191

a2c_network.mu.bias f4 [10]
00000000: ba92 15bb 50b2 4b3e 8304 8dbc 7c9b 543c
00000010: b5bc 4cbd 50d0 2dbe e20f 43bc 3ae5 fdbb
00000020: 3f0f 69bc 469c 463e
-0.0022823052 0.1989224 -0.017214065 0.0129765235 -0.049984653 -0.16973996 -0.011905642 -0.007748273
-0.014224826 0.19395551

exp_avg f4 [10]
00000000: c900 0039 b85c 19ba 16e0 4439 9a75 a1b9
00000010: 074f 8d3a cfc7 60b9 51f7 88b8 d7a9 6db9
00000020: 4dd2 3639 14b5 a6b9
0.00012207324 -0.0005850303 0.00018775495 -0.00030795933 0.0010780998 -0.00021436739 -6.5310516e-05 -0.00022665352
0.00017435216 -0.000317969

exp_avg_sq f4 [10]
00000000: 018b 9936 634d a836 f352 9136 30a6 bc36
00000010: 80ce c036 1a2c 9f36 3bfd 9936 8c88 a936
00000020: d39f ba36 0a67 ae36
4.5759375e-06 5.015799e-06 4.3309933e-06 5.6221834e-06 5.7460857e-06 4.7437034e-06 4.5892352e-06 5.0524886e-06
5.561838e-06 5.1975994e-06

exp_avg f4 [256, 42]
00000000: 09e3 b539 3efc 47b8 c5e6 2039 0044 2138
00000010: aff7 cd37 d325 e9b8 93f0 cd38 b691 4d39
00000020: 1abb 05b9 65f9 b5ba 533e fd39 3251 4c3a
00000030: c5dc 7039 01a8 f838 514c 9639 6623 4eb9
00000040: f035 d239 0311 6638 0a48 0b39 03c4 9539
00000050: d01f ab39 b9bc 8f39 e8e5 63b7 6bc5 9cb7
00000060: 9317 4137 46d9 5738 6a4b 3638 a224 07b8
00000070: 0f62 af38 cd8d 09b7 678c d8b8 7861 b337
00000080: 0190 2539 cf35 63b9 d179 3038 f45f 473a
00000090: 9a33 5e39 57be ceb9 befb 6139 5d99 d239
000000a0: e160 a6b9 b2d2 3b39 4213 2b39 0251 ffb7
000000b0: 05ed e138 38b1 0b37 92d2 00b8 d6b8 1eb8
000000c0: be49 8cb8 32ba f239 35f3 e6b8 82af 5cba
000000d0: ab79 6639 ec6b 8639 120b f138 abfc 8937
000000e0: 89ef 3939 61b6 18b9 02ad 7839 a25b 2a39
000000f0: ebf8 c638 ee99 4d39 c032 3db7 6c74 aa38
00000100: 80e5 95b7 3c4b 0138 37bd a7b7 433f 10b6
00000110: 8db6 8337 322a 4038 0f9e 2a38 01a3 9db8
00000120: 504a 89b8 5a29 f9b6 8b70 c8b9 4fa2 d438
00000130: ccf9 0b39 e282 f9b7 9c50 c938 e028 0839
00000140: 33f3 183a 4332 2938 79fd cbb9 4468 4039
00000150: 6475 b339 4e68 9f38 2e8e 2c39 f466 fa38
00000160: f06e 9cb7 4c78 6ab8 3c18 b2b8 7359 7239
00000170: f453 28b9 daba abba 3acb fa39 ecb5 003a
00000180: d423 9039 85e8 9838 03f8 ac39 a38d 5bb9
00000190: 5412 7439 927a 03b9 8473 2c39 a663 e239
000001a0: 4b78 5639 c3df b439 9da0 24b7 5a23 dc37
000001b0: 9727 7938 e69d 1ab7 a4f0 1c38 1ce9 5e38
000001c0: b872 2b38 e9ff 5338 9f7f 9cb8 6647 8138
000001d0: e9d6 ea39 0fbc 09ba 22a4 af37 9eb5 85b9
000001e0: 6fc2 bc39 f80c 98b8 d324 4639 ec82 9a39
000001f0: a01b 3cb5 6cb2 33b9 f231 043a 0cbc 1439
00000200: fc7b 5639 02e3 c1b6 1fff 2b38 3d68 3438
00000210: 39a7 beb7 9603 a03a a34a 1db7 e1f2 93ba
00000220: 7cfe 343a a40a 8fb9 f9d8 2d39 4a76 cab6
00000230: fa13 0d3a acee bdb9 9cc3 be39 8c89 1fb9
00000240: 77a6 4439 b16b 133a bb32 073a 9e34 df39
00000250: a358 f2b7 21fc eeb6 ebd2 f737 a41e 6eb8
00000260: 53f3 80b7 6531 a8b6 d479 87b8 1fb0 9e38
00000270: c579 bb38 48ce 0db8 7192 91b8 add7 17b9
00000280: a768 91b9 b1d7 4bb9 8611 7539 2297 b2b9
00000290: 0d83 2b39 5af0 1d3a 0de3 a236 a9e2 5038
000002a0: 633d e939 7c77 4e39 dfbe 9b39 b2d2 b638
000002b0: 4b4e d0b8 b53c 9338 462f 01b8 c469 983a
000002c0: 8be7 acb8 df27 98b9 1dbb 163a 5623 ccb9
000002d0: ec1d 0d39 087c 67b8 46e7 1c3a 9af9 e6b9
000002e0: 1080 e539 5e9e 29ba e7c6 9039 0b97 ba39
000002f0: 0270 2339 bdfc df39 0553 afb7 173f 8f37
00000300: 0983 1c38 4b7d 01b8 147b 45b7 491b afb6
00000310: 284d 98b6 e26a 93b6 eccf a038 3e92 b736
00000320: 48cc 3ab9 68e3 1a3a aa6f d536 00f6 05ba
00000330: c32f 1039 49bb 6038 ad98 203a dd68 a139
00000340: 76ab cab9 e332 05b8 94e5 b039 8da1 3439
00000350: bf8b 4f39 ef83 1239 ebee 24b9 cf5c 3338
00000360: 871d 18b9 0b08 573a 1cc5 38b9 cc95 28ba
00000370: 577f e139 bbf5 8636 0771 7f39 9f46 cbb6
00000380: eaf7 9d39 4909 d8b9 8724 ef39 1919 f6b9
00000390: 65ff 7739 0078 9c39 1189 07b9 2e42 c039
000003a0: 93df 24b8 0d84 f538 7c60 6338 e179 29b7
000003b0: 146f ca38 2460 fa38 fb01 d438 78c5 c3b8
000003c0: 0511 0eb9 672a 3a38 3f3f 4dba aeb8 8e3a
000003d0: ddd9 c739 ac5e 22ba 7f2e b539 23b0 273a
000003e0: 6ca8 9a3a 2b07 b339 822b 47ba fa7b 8cb8
000003f0: cd69 5fb7 1ac2 1838 df7c 0938 0062 9a38
0.00034692165 -4.7680216e-05 0.00015344757 3.844872e-05 2.4553241e-05 -0.00011117351 9.819972e-05 0.00019604605
-0.00012753569 -0.001388353 0.00048302356 0.00077940815 0.00022970427 0.00011856855 0.0002866709 -0.00019658878
0.00040094508 5.4852117e-05 0.0001328291 0.00028565535 0.00032639364 0.00027415695 -1.3583784e-05 -1.8688579e-05
1.1509185e-05 5.1462346e-05 4.3462416e-05 -3.2220625e-05 8.362915e-05 -8.198852e-06 -0.000103258346 2.138385e-05
0.00015789272 -0.00021668452 4.207512e-05 0.00076055457 0.00021190793 -0.00039433196 0.00021551453 0.00040168586
-0.00031734168 0.000179122 0.00016315005 -3.0436091e-05 0.000107729844 8.326308e-06 -3.0713687e-05 -3.7842277e-05
-6.689456e-05 0.00046296563 -0.000110125555 -0.00084184867 0.00021979834 0.0002563888 0.000114938375 1.644933e-05
0.00017732209 -0.00014563791 0.00023715573 0.00016246599 9.48774e-05 0.00019607667 -1.1277094e-05 8.127917e-05
-1.7869053e-05 3.0826064e-05 -1.9996061e-05 -2.1494495e-06 1.5701424e-05 4.5815665e-05 4.0678362e-05 -7.516705e-05
-6.546511e-05 -7.4255922e-06 -0.00038230824 0.0001013918 0.0001334913 -2.974406e-05 9.5994415e-05 0.00012985198
0.00058345794 4.033955e-05 -0.0003890803 0.00018349389 0.00034229003 7.601139e-05 0.00016456164 0.000119401055
-1.8648308e-05 -5.5901983e-05 -8.4922154e-05 0.00023112241 -0.00016053003 -0.0013101951 0.0004783513 0.0004909921
0.00027492514 7.291235e-05 0.0003299118 -0.00020938231 0.00023276481 -0.00012538795 0.00016446231 0.00043180323
0.00020453443 0.0003449899 -9.812557e-06 2.6242506e-05 5.9403097e-05 -9.215879e-06 3.7417412e-05 5.3146025e-05
4.0876417e-05 5.0544655e-05 -7.462431e-05 6.164498e-05 0.0004479208 -0.0005254158 2.0938056e-05 -0.00025503052
0.0003600302 -7.2503404e-05 0.0001889647 0.00029470713 -7.007566e-07 -0.00017137238 0.0005042843 0.00014184433
0.00020454818 -5.7782754e-06 4.1007177e-05 4.3012424e-05 -2.2727634e-05 0.00122081 -9.375307e-06 -0.0011287594
0.0006904376 -0.00027283013 0.00016579394 -6.03384e-06 0.00053817 -0.00036226714 0.00036385364 -0.00015214662
0.0001875403 0.0005623652 0.0005157401 0.00042573077 -2.8889923e-05 -7.1223044e-06 2.954291e-05 -5.6772158e-05
-1.5372096e-05 -5.0125404e-06 -6.459994e-05 7.566832e-05 8.939536e-05 -3.3809134e-05 -6.9414156e-05 -0.00014480828
-0.00027734527 -0.0001943994 0.00023371549 -0.00034063408 0.00016356651 0.000602489 4.8544084e-06 4.9802158e-05
0.0004448696 0.00019690202 0.00029706114 8.717681e-05 -9.932796e-05 7.020814e-05 -3.0800024e-05 0.00116282
-8.244727e-05 -0.00029021405 0.0005749928 -0.0003893624 0.00013457955 -5.5190205e-05 0.000598539 -0.00044054986
0.00043773698 -0.0006470437 0.00027614014 0.0003558922 0.00015586618 0.0004272218 -2.0900285e-05 1.7076307e-05
3.7315334e-05 -3.0872685e-05 -1.1770771e-05 -5.218583e-06 -4.538935e-06 -4.393384e-06 7.668123e-05 5.47085e-06
-0.00017814443 0.000590852 6.360894e-06 -0.0005110204 0.00013750703 5.3580185e-05 0.0006126266 0.00030786442
-0.0003865619 -3.1757063e-05 0.00033740385 0.0001722632 0.00019793118 0.00013972794 -0.00015729263 4.276336e-05
-0.0001450685 0.00082027976 -0.00017621036 -0.0006431013 0.0004301022 4.022118e-06 0.00024360801 -6.058093e-06
0.00030130084 -0.00041205648 0.00045612847 -0.00046939476 0.00023650897 0.00029844046 -0.00012925664 0.00036670401
-3.9308867e-05 0.00011707107 5.4210876e-05 -1.0101562e-05 9.6528005e-05 0.000119388365 0.00010109317 -9.335106e-05
-0.00013548516 4.4385346e-05 -0.0007829554 0.0010888779 0.0003811856 -0.0006193917 0.00034557653 0.0006396791
0.0011799461 0.0003414688 -0.0007597731 -6.698813e-05 -1.3316469e-05 3.6420395e-05 3.277964e-05 7.361546e-05
