logs/rl_games/humanoid_flat_direct/2025-11-18_21-58-12/nn/last_humanoid_flat_direct_ep_2300_rew_421.4396.pth (torch, 759502 bytes, 33 tensors)

value_mean_std.running_mean f8 [1]
94.01888566248344
00000000: b3ae 356c 3581 5740

value_mean_std.running_var f8 [1]
2334.2393767496287
00000000: 28de 968f 7a3c a240

value_mean_std.count f8 []
904396801.0
00000000: 0000 8000 00f4 ca41

a2c_network.sigma f4 [10]
-1.2944803 -0.9905926 -1.2885482 0.23684555 -1.5826077 -0.7892076 -2.5327618 -1.5645843
0.43721542 -0.12259841
00000000: 88b1 a5bf 7a97 7dbf 26ef a4bf a487 723e
00000010: e492 cabf 8209 4abf c518 22c0 4c44 c8bf
00000020: b3da df3e e014 fbbd

a2c_network.actor_mlp.0.weight f4 [256, 42]
0.02866156 0.4444559 0.24405123 -0.021775182 0.013501714 0.07589438 0.14026077 -0.20143752
-0.32593495 -0.050899524 -0.16676752 0.08653834 -0.17660612 -0.08543672 0.10778256 0.059281215
0.15641542 -0.063689865 0.013657459 -0.10244536 0.12102953 -0.12880938 -0.3766376 -0.19929717
0.23787677 0.08284112 -0.06504286 -0.02431355 0.18431452 0.22067936 0.2699249 -0.20875949
-0.15965769 -0.10651973 -0.05374951 0.04313677 0.07193199 0.10314196 -0.1339604 -0.09582846
0.032911338 -0.050158843 0.12018919 0.17991555 0.28272465 -0.09223557 -0.24876875 0.33454716
0.20996639 0.041800916 -0.10661005 0.039563235 -0.094702475 -0.06294685 0.27286384 -0.03476682
0.06506703 -0.17522372 0.00042291268 0.16141541 -0.009746551 -0.12798633 0.16604006 -0.016115153
-0.08074264 -0.14206183 -0.41280687 -0.09437293 0.083442025 0.10054539 0.089547105 -0.39466736
-0.019951353 0.061515164 0.015676597 -0.16884461 -0.061160486 -0.014843873 0.06129542 -0.052683756
0.03470844 -0.15927075 -0.0056037214 -0.05520628 -0.06539562 -0.1470539 0.3279415 0.06872059
-0.0054831267 0.046518162 -0.16331841 0.11645938 -0.13765782 -0.069590576 -0.13802741 -0.1626185
0.013249647 -0.21359937 0.12717982 -0.12155178 0.14948504 -0.023826424 -0.06500723 -0.019702585
0.14539307 0.20546594 0.17130499 -0.21266627 0.036873255 -0.12812749 -0.097970285 -0.15826827
0.07417824 -0.18364406 0.09918309 0.014436882 0.047413543 -0.12117733 0.13413726 0.03585411
0.09130966 -0.12504408 0.11536114 0.019965103 -0.06972932 0.15848525 0.026518082 -0.029340701
-0.051602624 0.08652574 0.09578643 -0.12172537 -0.10353933 -0.24131984 -0.13168196 0.06801601
0.11217516 -0.15122463 0.04960009 0.051454823 -0.0009725163 -0.03450596 0.058244694 0.19322558
0.119008645 -0.04647554 -0.19779065 0.10017376 0.14036071 -0.048698638 0.32134107 0.29677185
0.096593365 0.016092764 0.1529194 -0.024920706 0.05704193 -0.09567013 -0.21385719 -0.08081253
0.16372079 0.033654742 -0.004229051 -0.058559112 -0.10163258 -0.10095808 -0.050054807 0.042028923
0.14214928 0.25451922 0.004691338 0.092030436 0.04072093 0.27483913 0.0719873 -0.11533172
0.051278718 -0.0942079 -0.056988854 0.15671127 0.01849627 0.021944508 -0.12943076 0.07996971
0.15767835 0.008571114 -0.09763511 -0.20402503 -0.086667836 0.19170026 0.355156 0.17258348
0.30796713 0.04736819 -0.056040663 -0.26793793 -0.27376446 -0.42092636 0.17853412 -0.07789357
-0.043788865 -0.07140514 0.0014616085 -0.08055012 -0.085266955 -0.00022952129 -0.04522342 0.10221863
0.0062685325 -0.06937507 -0.020981524 -0.042430837 -0.071801126 -0.092899404 0.16011997 -0.07422382
0.17835788 0.024279295 0.10261177 -0.12236086 0.12056724 -0.0661969 0.1962183 0.19319059
-0.0059594624 -0.011686445 0.028342443 -0.092465885 0.07294401 -0.25711143 0.10310833 0.24822159
0.40141255 -0.1148003 -0.042513035 -0.042110816 -0.008947994 -0.2315836 -0.002376288 -0.24086283
0.07765958 -0.15117101 -0.1022976 -0.09291387 -0.13138355 0.1324883 0.11407441 0.013848309
-0.008927198 -0.009243172 -0.08397201 -0.0904981 0.0660605 -0.073580444 0.016317215 0.09912831
00000000: a6cb ea3c b98f e33e 91e8 793e de61 b2bc
00000010: 4b36 5d3c 836e 9b3d 85a0 0f3e a345 4ebe
00000020: f2e0 a6be 057c 50bd 1bc5 2abe 033b b13d
00000030: 3cd8 34be 72f9 aebd 1abd dc3d dcd0 723d
00000040: 5d2b 203e d56f 82bd 89c3 5f3c dfce d1bd
00000050: 55de f73d 9be6 03be a5d6 c0be 8f14 4cbe
00000060: f895 733e 9ba8 a93d 3135 85bd 362d c7bc
00000070: f2bc 3c3e c5f9 613e 9933 8a3e 0cc5 55be
00000080: 4e7d 23be 0427 dabd 7228 5cbd 2fb0 303d
00000090: 1451 933d 183c d33d ea2c 09be b641 c4bd
000000a0: 0ace 063d 5c73 4dbd c025 f63d c83b 383e
000000b0: 49c1 903e 01e6 bcbd 3cbd 7ebe c449 ab3e
000000c0: 6e01 573e 7037 2b3d 5f56 dabd 0f0d 223d
000000d0: 5ff3 c1bd 47ea 80bd cfb4 8b3e a767 0ebd
000000e0: dd41 853d d96d 33be 61ba dd39 154a 253e
000000f0: ffaf 1fbc d90e 03be 6806 2a3e ed03 84bc
00000100: 665c a5bd a878 11be 6c5b d3be 9846 c1bd
00000110: a7e3 aa3d beea cd3d 7964 b73d d711 cabe
00000120: 0571 a3bc 53f7 7b3d 356c 803c 9ae5 2cbe
00000130: 6b83 7abd b733 73bc e810 7b3d ecca 57bd
00000140: 702a 0e3d df17 23be 6c9f b7bb fb1f 62bd
00000150: 24ee 85bd 4c95 16be f3e7 a73e 61bd 8c3d
00000160: cdab b3bb d489 3e3d f13c 27be 4182 ee3d
00000170: 2cf6 0cbe 8185 8ebd 0f57 0dbe 7785 26be
00000180: 0c15 593c cbb9 5abe 6d3b 023e 24f0 f8bd
00000190: 9b12 193e a22f c3bc 8322 85bd 5167 a1bc
000001a0: ece1 143e aa65 523e 936a 2f3e 30c5 59be
000001b0: 6908 173d da33 03be a5a4 c8bd 1411 22be
000001c0: c3ea 973d 300d 3cbe 8120 cb3d ac88 6c3c
000001d0: b434 423d d22b f8bd 475b 093e c2db 123d
000001e0: 8f00 bb3d 8e0b 00be 7642 ec3d db8d a33c
000001f0: 3fce 8ebd f549 223e 733c d93c e95b f0bc
00000200: 465d 53bd 6834 b13d ad2b c43d 274b f9bd
00000210: 6e0c d4bd 8c1c 77be a3d7 06be fa4b 8b3d
00000220: 17bc e53d a1da 1abe 7729 4b3d 4bc2 523d
00000230: 77f0 7eba 1f56 0dbd fd91 6e3d eddc 453e
00000240: ceba f33d 235d 3ebd a289 4abe e627 cd3d
00000250: b8ba 0f3e 3978 47bd d186 a43e 7bf2 973e
00000260: bed2 c53d f9d4 833c e796 1c3e 8226 ccbc
00000270: cca4 693d b3ee c3bd 61fd 5abe 0a81 a5bd
00000280: 6ca6 273e 8ed9 093d da93 8abb aedb 6fbd
00000290: be24 d0bd 1cc3 cebd 4506 4dbd 8526 2c3d
000002a0: 958f 113e 5850 823e ccb9 993b 747a bc3d
000002b0: fdca 263d b7b7 8c3e 146e 933d 0933 ecbd
000002c0: a209 523d 12f0 c0bd 256d 69bd eb78 203e
000002d0: 7d85 973c f8c4 b33c 7f89 04be 29c7 a33d
000002e0: 6f76 213e dc6d 0c3c ebf4 c7bd f0eb 50be
000002f0: e87e b1bd 134d 443e 02d7 b53e b9b9 303e
00000300: dead 9d3e 2605 423d e58a 65bd 292f 89be
00000310: db2a 8cbe a983 d7be a6d1 363e aa86 9fbd
00000320: f45b 33bd dc3c 92bd 7193 bf3a 76f7 a4bd
00000330: 71a0 aebd a7ab 70b9 313c 39bd 0058 d13d
00000340: 4368 cd3b 8414 8ebd 72e1 abbc f5cb 2dbd
00000350: 780c 93bd 0b42 bebd 7df6 233e a802 98bd
00000360: 73a3 363e 5fe5 c63c 1f26 d23d 5598 fabd
00000370: f5eb f63d 3e92 87bd 73ed 483e c1d3 453e
00000380: 9847 c3bb 8178 3fbc 692e e83c c15e bdbd
00000390: ab63 953d 1ca4 83be 762a d33d cd2d 7e3e
000003a0: f285 cd3e 6b1c ebbd 2622 2ebd 647c 2cbd
000003b0: 9b9a 12bc 4024 6dbe 7fbb 1bbb bfa4 76be
000003c0: fc0b 9f3d 93cc 1abe 6781 d1bd a149 bebd
000003d0: 6989 06be 03ab 073e d89f e93d 05e4 623c
000003e0: 6243 12bc ac70 17bc 84f9 abbd 1157 b9bd
000003f0: ba4a 873d 58b1 96bd aeab 853c c903 cb3d

a2c_network.actor_mlp.0.bias f4 [256]
-0.03203887 0.05785079 0.0037861315 -0.013135395 0.03738611 0.018274806 0.020099284 -0.0056632897
-0.014219589 0.069130726 0.032726854 -0.0025980081 0.013132787 0.005952109 0.026337009 -0.00013224414
0.020515872 0.005293085 -0.03225698 0.033481337 -0.046597626 -0.024065832 0.012882095 0.030770013
0.00067870936 -0.011281433 -0.009030712 -0.0139134675 0.022263298 -0.031628903 0.021829842 0.037962973
0.06718729 -0.018404735 0.0024428552 -0.028530525 0.02807464 -0.0091459565 0.01066968 -0.002959987
0.0027367638 -0.009361294 0.025644327 -0.05747514 0.01567165 0.045346577 0.042559158 0.06676097
-0.0011589079 0.008635835 -0.01832815 0.022285905 0.0048953495 -0.023160573 -0.013827147 -0.044703305
-0.019665547 0.015832191 0.0026672606 0.03041216 -0.007978252 0.024176516 -0.0030759866 -0.005443509
0.008598264 0.07082019 -0.009378217 0.019526098 -0.022384908 0.03946303 -0.041190952 -0.051220316
-0.024987021 0.046183817 -0.012563324 -0.015933732 -0.042593077 -0.025806405 -0.05898061 -0.0027203865
-0.008849451 -0.0113222385 0.031610437 0.010541359 0.022580698 0.0142675955 0.00045829234 -0.040365357
0.03760788 -0.025411576 0.042196397 -0.019852856 0.0005237722 -0.036147784 -0.016907785 0.020557905
0.03556029 -9.3133895e-05 -0.05889205 -0.010863913 0.014125998 -0.004388372 -0.014612963 0.037426066
0.015366442 0.012517359 -0.00056819496 0.020317905 3.602585e-06 -0.06594834 0.017964467 0.023908045
-0.021070508 -0.035562355 -0.024489699 0.015229295 0.039286844 -0.0074820775 -0.020225318 0.0034638182
-0.0063228505 -0.038597412 -0.027356438 0.044223826 -0.009790837 0.021077542 0.013091962 -0.033689614
-0.041250575 0.019267006 -0.02603699 -0.012657962 -0.030367995 0.0146241505 0.033133503 -0.0052884463
-0.009499051 -0.028971974 0.0108739175 -0.025845036 -6.713863e-05 0.028027704 -0.02150725 -0.01128832
0.016888563 -0.0012912368 0.042869303 -0.0036665779 0.08218447 -0.035173412 0.013959571 0.026946172
-0.01014031 -0.021188485 0.013092444 -0.036908925 -0.021621935 -0.030256143 0.04925261 0.023177523
-0.022214927 0.032494713 -0.014869128 -0.008498688 -0.010385246 0.043145042 -0.03273585 0.010102632
0.032087646 0.06891456 -0.02476625 -0.003749752 0.034758907 0.016669443 0.028201725 0.003879281
0.033347078 -0.025008485 0.002799478 0.008149829 0.026365558 0.045343585 -0.0014128402 0.026444742
-0.026636872 -0.027353093 0.021467 0.021818893 0.00019063211 0.06668135 0.015003336 0.060981054
-0.0039755353 0.016530301 0.04439122 0.024046661 0.010228296 -0.04770577 0.03283056 -0.032276005
0.027075253 -0.011967855 0.008126373 -0.0430454 0.0039139725 -0.017812956 -6.5214335e-05 0.0016212572
-0.0050726337 0.0042400938 -0.01991975 0.035039768 0.021541378 0.014404012 0.0469074 -0.017731015
0.0045651277 0.031181024 -0.031840723 -0.0052636047 0.021670159 0.037835356 -0.042694338 0.05935478
0.052237123 -0.025847673 -0.053266637 0.03253352 0.04234812 0.0058555678 0.04745507 -0.03295309
-0.004711626 -0.054639038 0.006355038 0.051008273 0.022505892 0.01858446 -0.03132825 0.004340317
0.05070252 0.022023847 -0.0081698 0.038437694 0.063285224 0.022470223 0.045260396 -0.040368587
0.03910538 -0.044259463 -0.0127935065 -0.019833356 0.030422835 0.014633661 0.023620915 0.00029780035
00000000: 313b 03bd f3f4 6c3d bf20 783b d735 57bc
00000010: 2d22 193d 0cb5 953c 41a7 a43c 1e93 b9bb
00000020: 47f9 68bc 6994 8d3d 980c 063d 5843 2abb
00000030: e72a 573c e909 c33b b6c0 d73c 04ab 0ab9
00000040: e710 a83c 9d71 ad3b e51f 04bd ba23 093d
00000050: 27dd 3ebd b525 c5bc 6c0f 533c 6511 fc3c
00000060: 6aeb 313a c2d5 38bc 8df5 13bc 50f5 63bc
00000070: 8561 b63c 4f8d 01bd 7fd4 b23c 107f 1b3d
00000080: 7d99 893d 87c5 96bc 4f18 203b d9b8 e9bc
00000090: cafc e53c ecd8 15bc e2cf 2e3c 57fc 41bb
000000a0: 475b 333b 1d60 19bc 0d14 d23c 0d6b 6bbd
000000b0: d561 803c 55bd 393d 8352 2e3d fab9 883d
000000c0: 7fe6 97ba 517d 0d3c eb24 96bc ee90 b63c
000000d0: 2b69 a03b 3ebb bdbc 428b 62bc d01a 37bd
000000e0: a419 a1bc 83b2 813c 35cd 2e3b ec22 f93c
000000f0: 37b7 02bc d40d c63c 7e96 49bb 775f b2bb
00000100: bcdf 0c3c 2d0a 913d 18a7 19bc 32f5 9f3c
00000110: 8e60 b7bc fca3 213d d8b7 28bd 65cc 51bd
00000120: 95b1 ccbc 3e2b 3d3d 66d6 4dbc 7587 82bc
00000130: 1476 2ebd f467 d3bc a795 71bd 8348 32bb
00000140: 4afd 10bc e980 39bc f279 013d aab5 2c3c
00000150: 28fb b83c a2c2 693c f546 f039 2556 25bd
00000160: b80a 1a3d f02b d0bc 21d6 2c3d 75a2 a2bc
00000170: c24d 093a b30f 14bd 3282 8abc 0d69 a83c
00000180: aba7 113d e150 c3b8 ca38 71bd 8efe 31bc
00000190: bb70 673c 55cc 8fbb 366b 6fbc 134c 193d
000001a0: 87c3 7b3c 9c15 4d3c ebf2 14ba bc71 a63c
000001b0: f0c3 7136 ec0f 87bd 382a 933c ceda c33c
000001c0: 0f9c acbc d5a9 11bd 9f9e c8bc 4b84 793c
000001d0: 3eeb 203d 372c f5bb 91af a5bc 3a01 633b
000001e0: ea2f cfbb 5218 1ebd 9c1a e0bc 0b24 353d
000001f0: bf69 20bc cfaa ac3c ab7f 563c 1ffe 09bd
00000200: 5df6 28bd d7d5 9d3c 874b d5bc 5763 4fbc
00000210: 4dc6 f8bc 229a 6f3c ffb6 073d b44a adbb
00000220: e8a1 1bbc a256 edbc 8428 323c f8b8 d3bc
00000230: c7cc 8cb8 5b9a e53c f92f b0bc a5f2 38bc
00000240: e259 8a3c b83e a9ba b997 2f3d f84a 70bb
00000250: 5550 a83d ff11 10bd afb6 643c 38be dc3c
00000260: 8b23 26bc 7993 adbc b181 563c d02d 17bd
00000270: 7c20 b1bc bbdb f7bc 1bbd 493d cade bd3c
00000280: 14fc b5bc 2d19 053d a59d 73bc 153e 0bbc
00000290: e126 2abc dbb8 303d 0716 06bd 8385 253c
000002a0: 566e 033d 1423 8d3d 97e2 cabc 66be 75bb
000002b0: 5b5f 0e3d 5b8e 883c 4e07 e73c 893b 7e3b
000002c0: f296 083d 98de ccbc 7277 373b dc86 053c
000002d0: 95fc d73c 32ba 393d 0d2f b9ba a5a2 d83c
000002e0: 9235 dabc 9813 e0bc 90db af3c 89bd b23c
000002f0: 6be4 4739 3b90 883d 8dd0 753c 45c7 793d
00000300: 3545 82bb 8e6a 873c 91d3 353d 81fd c43c
00000310: 9594 273c 2067 43bd 5679 063d d833 04bd
00000320: eccc dd3c d214 44bc 7b24 053c 6050 30bd
00000330: c840 803b 7aec 91bc aec3 88b8 5d80 d43a
00000340: 5638 a6bb 7cf0 8a3b be2e a3bc dc85 0f3d
00000350: 8b77 b03c cefe 6b3c f921 403d a240 91bc
00000360: 1197 953b 596f ff3c 6b6b 02bd 517a acbb
00000370: 9e85 b13c 3ff9 1a3d 42e0 2ebd ff1d 733d
00000380: 98f6 553d 80be d3bc 1e2e 5abd de41 053d
00000390: 3975 2d3d 10e0 bf3b 3f60 423d d2f9 06bd
000003a0: fc63 9abb 2fcd 5fbd ec3d d03b 0dee 503d
000003b0: 475e b83c 703e 983c 0d52 00bd 3839 8e3b
000003c0: 72ad 4f3d 5b6b b43c a0da 05bc d870 1d3d
000003d0: af9b 813d 7913 b83c f762 393d 8859 25bd
000003e0: f72c 203d 6949 35bd db9b 51bc 9079 a2bc
000003f0: 4f39 f93c 06c2 6f3c a680 c13c 1622 9c39

a2c_network.actor_mlp.2.weight f4 [128, 256]
-0.0045509725 0.020730738 -0.11917136 -0.100752555 -0.052040085 -0.07642055 -0.09007101 0.09501439
0.09829924 0.02816278 -0.06639145 -0.03259627 0.07369811 -0.019022167 -0.05291171 0.02622961
-0.10208756 0.02682276 0.056616437 -0.0138002215 -0.025269182 -0.16661173 -0.13940683 0.16061798
0.0046463623 -0.09005123 -0.07343616 0.121657155 -0.116343975 -0.12866761 -0.07482166 -0.00049714354
-0.034523856 0.005683387 0.019627081 -0.14121033 0.0029065022 0.0046643415 0.115230106 -0.06945185
-0.110316776 0.027317135 0.06915287 -0.025167214 0.03142532 -0.074602574 -0.015573763 -0.015883945
0.010338822 -0.105578065 0.005327522 0.03713704 0.15464771 0.025960408 -0.03185218 0.0014208931
-0.15102883 -0.0922373 -0.015179471 0.003589021 0.059491657 -0.068822645 0.0043996824 -0.04899055
-0.19389825 0.12405415 -0.25789818 -0.051816225 0.110897765 0.06122026 -0.023100328 0.04121418
0.023328971 0.02874264 0.08581191 -0.11758938 0.037728146 -0.05796466 0.019034306 0.22259198
-0.053191572 0.07518589 -0.048851006 -0.115371756 0.13361332 0.027052997 -0.16724485 0.0073731723
-0.0878201 -0.083205655 -0.057009123 0.013195392 0.003363753 -0.053670727 0.0029712236 -0.16188155
0.029275643 -0.05673189 0.04867024 0.095779486 0.0038000792 -0.08219017 -0.08986246 -0.041867375
-0.031956587 0.1824391 0.06433348 0.014549454 -0.15048783 -0.017062042 -0.12855868 -0.034407604
0.12774824 0.027804283 -0.11867257 -0.08369802 -0.23941648 0.09146838 -0.04447798 -0.051942546
-0.08020378 0.030628955 0.045077812 -0.015160296 0.0033330852 0.037696812 0.018395707 0.052962206
-0.042303406 0.011096058 0.064365275 -0.051790155 -0.027620085 0.0018848297 0.025815038 0.1085495
0.03628835 0.022581343 -0.092361346 -0.062383346 -0.15468094 -0.09225399 0.13626261 -0.07768263
-0.15728664 0.031965714 -0.07348258 -0.05729231 -0.14707007 0.027431803 0.12459936 -0.015135916
0.20730186 -0.067841835 -0.15667325 -0.19270064 -0.0012951232 -0.051410805 -0.023188 -0.015823763
-0.040677365 0.14990915 -0.015018389 -0.06345476 -0.09102502 -0.07828276 0.16275987 0.018196339
0.029980827 -0.14293955 0.021671988 0.096889235 -0.07463031 0.035082616 -0.18155183 -0.014250251
-0.011838641 0.053040802 0.14969961 -0.20261015 -0.15335014 -0.096442804 0.108113445 -0.03011683
-0.1285255 -0.03777153 -0.045030043 0.081664085 -0.035880134 -0.0006678842 0.044139467 -0.12882963
-0.09572771 -0.020732185 -0.0123191485 -0.088975474 0.014844178 0.02731549 -0.14118193 -0.0643179
0.1330526 -0.021300051 -0.06075712 0.059670404 -0.07383495 0.052784637 0.014018585 -0.14777131
0.012183794 -0.11417013 0.112989366 0.055367075 -0.11027583 -0.08470976 0.0011685462 -0.016397297
-0.031164989 0.001210428 -0.032701276 0.15501559 0.1391485 0.004382206 -0.13206416 -0.038659908
-0.08205474 0.17693333 -0.06576995 -0.043613587 0.026557673 -0.082207985 0.010518674 0.019192724
0.08202912 0.05753858 0.058713604 -0.028827721 0.08809842 0.13531128 -0.07312828 0.03234146
-0.104024306 0.06375671 -0.02202645 -0.0046966383 -0.024031982 0.1390791 -0.06926925 0.015651423
0.10107062 -0.08035281 -0.12144865 0.086720936 -0.017532008 0.09472875 0.06137359 0.002811342
00000000: 5320 95bb 82d3 a93c 1d10 f4bd 5b57 cebd
00000010: fc27 55bd 6182 9cbd 2677 b8bd e896 c23d
00000020: 1d51 c93d a1b5 e63c 3ef8 87bd ab83 05bd
00000030: 09ef 963d 60d4 9bbc f3b9 58bd 7bdf d63c
00000040: 4813 d1bd 68bb db3c a3e6 673d 531a 62bc
00000050: 5101 cfbc 449c 2abe aac0 0ebe 0a79 243e
00000060: 8340 983b c76c b8bd b365 96bd 6327 f93d
00000070: c045 eebd 71c1 03be 193c 99bd bd52 02ba
00000080: e368 0dbd b53b ba3b f9c8 a03c 7199 10be
00000090: 047b 3e3b 55d7 983b c3fd eb3d c63c 8ebd
000000a0: c3ed e1bd 2fc8 df3c 05a0 8d3d 792b cebc
000000b0: d6b7 003d 3cc9 98bd 1929 7fbc 0c1f 82bc
000000c0: 2a64 293c 5039 d8bd 7e92 ae3b 021d 183d
000000d0: f85b 1e3e ecaa d43c 6e77 02bd 433d ba3a
000000e0: 4da7 1abe e9e6 bcbd 51b3 78bc c835 6b3b
000000f0: 86ad 733d e3f2 8cbd 362b 903b 51aa 48bd
00000100: 438d 46be 1a10 fe3d 3b0b 84be 403d 54bd
00000110: 5e1e e33d 18c2 7a3d e63c bdbc 33d0 283d
00000120: 661c bf3c af75 eb3c 28be af3d b3d2 f0bd
00000130: d488 1a3d 5a6c 6dbd d5ed 9b3c 27ef 633e
00000140: 68df 59bd 0ffb 993d fe17 48bd 0748 ecbd
00000150: eed1 083e 3f9e dd3c 3c42 2bbe a79a f13b
00000160: 06db b3bd ba67 aabd 6682 69bd 7c31 583c
00000170: 6972 5c3b d6d5 5bbd dcb8 423b 47c4 25be
00000180: 79d3 ef3c b35f 68bd 725a 473d 0928 c43d
00000190: c00a 793b 5253 a8bd cf09 b8bd 207d 2bbd
000001a0: e9e4 02bd 51d1 3a3e 46c1 833d d560 6e3c
000001b0: 7b19 1abe b2c5 8bbc e3a4 03be fdee 0cbd
000001c0: 6fd0 023e cfc5 e33c 9b0a f3bd de69 abbd
000001d0: 9829 75be c653 bb3d 8b2e 36bd b5c1 54bd
000001e0: e141 a4bd 93e9 fa3c 83a3 383d e462 78bc
000001f0: e46f 5a3b f967 1a3d 98b2 963c e6ee 583d
00000200: 5646 2dbd 3ecc 353c f1d1 833d ea21 54bd
00000210: 8443 e2bc 640c f73a 0f7a d33c 334f de3d
00000220: 18a3 143d 82fc b83c f227 bdbd ae85 7fbd
00000230: ae64 1ebe a9ef bcbd 6d88 0b3e 1218 9fbd
00000240: c00f 21be 7bee 023d 097e 96bd 57ab 6abd
00000250: 8999 16be a9b8 e03c f32d ff3d a2fc 77bc
00000260: f046 543e a9f0 8abd f46e 20be 5153 45be
00000270: 20c1 a9ba 2394 52bd c3f4 bdbc d6a0 81bc
00000280: 4f9d 26bd c981 193e b00f 76bc 92f4 81bd
00000290: 536b babd b652 a0bd 86aa 263e 7d10 953c
000002a0: 5a9a f53c bf5e 12be 7489 b13c dd6d c63d
000002b0: c7d7 98bd cab2 0f3d b9e8 39be e379 69bc
000002c0: dcf6 41bc 5041 593d db4a 193e 0979 4fbe
000002d0: d207 1dbe ce83 c5bd 956a dd3d 92b7 f6bc
000002e0: 309c 03be 52b6 1abd 6c71 38bd 803f a73d
000002f0: 0cf7 12bd f314 2fba 96cb 343d eaeb 03be
00000300: e40c c4bd 8bd6 a9bc 41d6 49bc c638 b6bd
00000310: ff34 733c bcc4 df3c ff91 10be 1ab9 83bd
00000320: f13e 083e 727d aebc 75dc 78bd f468 743d
00000330: c736 97bd b434 583d 35ae 653c 5d51 17be
00000340: 899e 473c 07d2 e9bd f866 e73d 96c8 623d
00000350: 4bd8 e1bd 507c adbd e729 993a a053 86bc
00000360: b84d ffbc 39a7 9e3a c6f1 05bd 68bc 1e3e
00000370: f27c 0e3e 9c98 8f3b d43b 07be da59 1ebd
00000380: 510c a8bd 032e 353e 65b2 86bd 29a4 32bd
00000390: 7a8f d93c a95c a8bd 8456 2c3c 0f3a 9d3c
000003a0: e2fe a73d 93ad 6b3d ad7d 703d 1d28 ecbc
000003b0: f26c b43d 0a8f 0a3e 48c4 95bd 7b78 043d
000003c0: b20a d5bd e192 823d d070 b4bc 42e6 99bb
000003d0: b8de c4bc c06a 0e3e 09dd 8dbd 6a37 803c
000003e0: 1dfe ce3d 0490 a4bd 12ba f8bd bf9a b13d
000003f0: 499f 8fbc 2601 c23d e062 7b3d 7e3e 383b

a2c_network.actor_mlp.2.bias f4 [128]
-0.021343114 0.017496035 -0.111177705 0.01042789 0.0046798424 0.025375647 0.008531498 0.030529542
-0.037835848 0.018397098 -0.015021051 -0.040557947 -0.06611258 -0.054704726 -0.009931951 0.0525942
-0.011849869 -0.013163369 -0.02134269 0.015758935 0.062432375 -0.07827165 -0.037842445 -0.07269994
-0.045855995 0.018233847 -0.022995725 0.052316878 -0.02443994 -0.04579622 0.076107234 -0.01101501
0.024959905 -0.026637597 -0.030563543 0.028677676 -0.061524857 -0.038649596 0.017697087 -0.05579072
0.008329208 0.046272572 0.0060354825 -0.0107333325 -0.048943553 0.0021946814 0.038975324 0.027696393
-0.017647589 -0.03961266 -0.018141858 0.008358812 0.010581428 -0.01962969 -0.05804131 -0.0753991
-0.10565006 -0.025464268 0.03037069 -0.015065401 0.021728817 -0.038309004 0.02625808 -0.025306499
-0.033275183 -0.07008947 0.020900141 -0.010997743 0.010293267 0.011413352 -0.017465169 -0.0626158
-0.041794788 -0.058757678 -0.012909544 -0.0002205856 -0.062175218 -0.00055516826 -0.055773634 -0.013879806
-0.015489521 0.043824337 0.008362503 0.026441673 -0.021545645 -0.006999098 0.022898786 0.00827278
-0.035519 -0.018034166 -0.030860934 0.039178383 -0.00432642 -0.02851032 -0.042327967 0.041811373
-0.028054284 -0.010840149 -0.05238774 0.017523026 -0.03159577 -0.040623307 0.046723306 -0.046033394
-0.047788434 -0.052413043 -0.027395783 -0.01065305 -0.0042681303 -0.08072155 -0.017129727 -0.06548593
-0.057641305 -0.0031220457 -0.041929256 -0.04818762 -0.03898945 -0.059940476 -0.030552082 -0.05482656
-0.033373784 -0.067171045 -0.043850034 -0.022553816 0.0038424465 0.047395498 -0.03733173 -0.11674372
00000000: c1d7 aebc d853 8f3c 23b1 e3bd bed9 2a3c
00000010: 5d59 993b 97e0 cf3c b2c7 0b3c 1719 fa3c
00000020: c3f9 1abd 83b5 963c db1a 76bc 1720 26bd
00000030: 0866 87bd 1012 60bd 9fb9 22bc 046d 573d
00000040: f425 42bc 2cab 57bc ddd6 aebc e218 813c
00000050: 17b9 7f3d e34c a0bd ae00 1bbd b5e3 94bd
00000060: 7fd3 3bbd 265f 953c 8861 bcbc 394a 563d
00000070: 4536 c8bc d194 3bbd 1cde 9b3d 4d78 34bc
00000080: b778 cc3c 1737 dabc 6560 fabc 72ed ea3c
00000090: 7d01 7cbd 0a4f 1ebd 7bf9 903c cf84 64bd
000000a0: 3b77 083c 4f88 3d3d 4cc5 c53b dcda 2fbc
000000b0: 0979 48bd a5d4 0f3b 97a4 1f3d 8ce3 e23c
000000c0: ad91 90bc e240 22bd 3c9e 94bc 66f3 083c
000000d0: ba5d 2d3c 72ce a0bc babc 6dbd d86a 9abd
000000e0: 0f5f d8bd 719a d0bc f4cb f83c dfd4 76bc
000000f0: a200 b23c e7e9 1cbd 2f1b d73c 934f cfbc
00000100: 8f4b 08bd 118b 8fbd c636 ab3c e12f 34bc
00000110: 17a5 283c 11ff 3a3c 1d13 8fbc b63c 80bd
00000120: 0331 2bbd e4ab 70bd 8d82 53bc ff4c 67b9
00000130: 71ab 7ebd b688 11ba e572 64bd 2068 63bc
00000140: c3c7 7dbc 2681 333d e102 093c 359c d83c
00000150: 7e80 b0bc b158 e5bb 3c96 bb3c 8e8a 073c
00000160: 5f7c 11bd 63bc 93bc 12d0 fcbc 8379 203d
00000170: a4c4 8dbb 798e e9bc 1760 2dbd 6742 2b3d
00000180: 19d2 e5bc e19a 31bc 8794 56bd 738c 8f3c
00000190: 916a 01bd a064 26bd f060 3f3d 838d 3cbd
000001a0: cebd 43bd 0faf 56bd 1f6d e0bc 218a 2ebc
000001b0: acdb 8bbb 5751 a5bd a453 8cbc 7d1d 86bd
000001c0: 4a19 6cbd 3c9b 4cbb 03be 2bbd 6260 45bd
000001d0: 67b3 1fbd 2584 75bd 5c48 fabc d191 60bd
000001e0: f3b2 08bd f990 89bd 189c 33bd c8c2 b8bc
000001f0: 8ed1 7b3b c821 423d 28e9 18bd 5517 efbd

a2c_network.actor_mlp.4.weight f4 [128, 128]
0.08008767 -0.059574742 -0.02836612 -0.0877969 -0.12116114 -0.1237742 -0.0013780536 -0.11129705
0.0494847 -0.09162467 0.18791823 0.043114845 0.0943167 -0.027529312 0.05586445 -0.09515593
0.037263986 -0.007244184 -0.0046805926 -0.015951617 0.018179415 0.11677818 0.06912144 -0.028164528
0.10262329 0.09009663 -0.04391272 0.043666545 -0.049481016 0.052436274 -0.17227247 -0.044252753
0.044858076 -0.029570468 0.10396584 -0.14262454 0.08131716 0.17376553 -0.098106876 0.042695425
-0.14322484 0.03391966 -0.0072226664 0.043500334 0.076629736 0.0025159875 0.043957725 -0.054897904
0.092304476 -0.08025167 0.019007726 -0.00014732374 0.040806424 0.03692481 -0.019581247 -0.07381294
0.057284717 -0.0194172 -0.13206695 0.00022150586 -0.07755353 0.09138243 -0.072432026 -0.050947808
0.024989339 0.090033345 -0.11705988 -0.108541064 -0.048157685 0.02078378 0.15249598 -0.050165385
0.045488197 0.1546297 -0.026759883 -0.21031123 0.011973785 -0.016422953 0.09965848 -0.046996046
0.018584931 -0.0066545918 0.26865432 0.017839026 0.09274479 -0.010503971 -0.10229204 -0.07511501
-0.06747746 -0.12305135 0.18871881 -0.098509625 -0.07384346 -0.17166732 0.049775947 0.034041222
0.08159214 0.1754578 -0.19591561 -0.14955963 -0.08750971 0.005406113 0.088685125 0.20808046
0.1539681 0.015570819 -0.33518377 0.050955668 0.01086781 0.15567517 -0.1961858 -0.12551256
0.09219487 0.12819146 -0.056200784 -0.019649334 0.06798516 0.1786227 0.020081075 0.011192054
0.012623488 -0.0122594405 -0.00509563 0.073964335 -0.05479763 -0.02358259 0.089186005 0.011149098
0.032426324 -0.09552964 -0.007288721 -0.11826077 -0.08000409 -0.3206541 0.07690254 0.08686451
0.011441859 -0.0515318 0.16666226 -0.12863164 0.0038265814 -0.13051118 -0.035065126 -0.20188765
0.16564287 0.011347267 -0.05607992 -0.05373082 -0.09992802 0.02721778 -0.060749456 0.056422174
-0.08518328 -0.112325646 -0.100441344 0.089933045 0.099252425 -0.122654155 0.0839972 -0.2927849
-0.24614085 0.061575342 0.07767939 -0.034628447 0.06092144 0.07241017 -0.033592526 -0.008469773
0.031668156 -0.0017604459 -0.0652084 -0.17465599 0.061473276 0.14110899 -0.0027547465 -0.14642455
-0.0017298437 -0.0054030633 -0.14504649 -0.055008505 -0.083946176 -0.10081712 0.12817323 -0.023909533
0.04672845 0.00527516 0.16502014 -0.03373183 -0.039418425 0.0014437413 -0.07812294 -0.03447636
-0.0748127 0.07553682 0.09334534 0.19383794 0.025709372 0.026358651 0.04890902 0.027788818
0.0929634 -0.14576447 0.010045498 -0.024390345 -0.15099059 0.10828002 -0.18741453 0.0022054445
-0.15458971 -0.059292592 -0.2087084 -0.12162294 -0.0006007639 0.033794694 0.017529622 -0.14440736
0.09130715 -0.0050476342 0.08818263 0.115620576 -0.10593085 -0.050895065 -0.042970017 0.024817772
0.15180632 -0.06019289 -0.09343267 0.009344622 -0.15635827 -0.13475333 0.04033376 -0.06300496
-0.25426546 0.100079425 -0.07387819 -0.006382558 -0.092018634 -0.13758905 -0.035606816 0.0006654564
-0.006121127 -0.017477192 0.09317188 -0.020881483 0.04438165 0.1394189 -0.034687173 -0.12143072
-0.078238584 0.012349101 -0.1363689 0.08364172 -0.14828531 -0.018846678 -0.1348999 -0.072434016
00000000: 0105 a43d a504 74bd 1160 e8bc dcce b3bd
00000010: 5523 f8bd 547d fdbd ce9f b4ba b5ef e3bd
00000020: 78b0 4a3d b7a5 bbbd a36d 403e 3199 303d
00000030: 1d29 c13d 2785 e1bc 1fd2 643d 1de1 c2bd
00000040: 1fa2 183d 9f60 edbb a85f 99bb f7ac 82bc
00000050: ffec 943c 6629 ef3d 8b8f 8d3d 4cb9 e6bc
00000060: 292c d23d 9584 b83d d3dd 33bd b1db 323d
00000070: 9bac 4abd 6bc7 563d 3268 30be 6042 35bd
00000080: 1abd 373d c43d f2bc 0bec d43d 2b0c 12be
00000090: 9c89 a63d 97ef 313e 42ec c8bd 66e1 2e3d
000000a0: 88a9 12be 57ef 0a3d 1eac ecbb 682d 323d
000000b0: 0df0 9c3d 44e3 243b 040d 343d a0dc 60bd
000000c0: 210a bd3d fd5a a4bd 17b6 9b3c ea7a 1ab9
000000d0: a324 273d 783e 173d da68 a0bc 3d2b 97bd
000000e0: 61a3 6a3d d210 9fbc 8f3c 07be 0744 6839
000000f0: 63d4 9ebd b626 bb3d 3e57 94bd a6ae 50bd
00000100: 71b6 cc3c 6763 b83d 17bd efbd c74a debd
00000110: fe40 45bd bf42 aa3c e827 1c3e 387a 4dbd
00000120: d551 3a3d 4057 1e3e 8b37 dbbc d45b 57be
00000130: b22d 443c 6e89 86bc bf19 cc3d ed7e 40bd
00000140: 6d3f 983c c30e dabb 0f8d 893e 2623 923c
00000150: fbf0 bd3d d918 2cbc 7d7e d1bd e6d5 99bd
00000160: 9f31 8abd 5902 fcbd 813f 413e 6abf c9bd
00000170: 3d3b 97bd 8fc9 2fbe dde1 4b3d cf6e 0b3d
00000180: c819 a73d 36ab 333e 1a9e 48be 2926 19be
00000190: 4a38 b3bd c325 b13b 8ca0 b53d 0b13 553e
000001a0: d0a9 1d3e c01c 7f3c 359d abbe e4b6 503d
000001b0: e60e 323c 5069 1f3e eee4 48be 5d86 00be
000001c0: aad0 bc3d 9f44 033e cb32 66bd a4f7 a0bc
000001d0: ce3b 8b3d dee8 363e 1181 a43c e05e 373c
000001e0: bfd2 4e3c d2db 48bc 3ef9 a6bb 9d7a 973d
000001f0: 7b73 60bd 4730 c1bc 27a7 b63d b5aa 363c
00000200: 77d1 043d 0ba5 c3bd 39d6 eebb b432 f2bd
00000210: 2fd9 a3bd c62c a4be 147f 9d3d 05e6 b13d
00000220: a376 3b3c 0213 53bd 83a9 2a3e 03b8 03be
00000230: 62c7 7a3b b9a4 05be 73a0 0fbd a3bb 4ebe
00000240: 499e 293e e3e9 393c 0fb4 65bd d914 5cbd
00000250: 10a7 ccbd d2f7 de3c 6cd4 78bd f01a 673d
00000260: 9274 aebd fd0a e6bd 31b4 cdbd d12e b83d
00000270: db44 cb3d 1a32 fbbd b906 ac3d e7e7 95be
00000280: 590c 7cbe 6d36 7c3d 5f16 9f3d 8fd6 0dbd
00000290: c388 793d c94b 943d 5198 09bd cec4 0abc
000002a0: 78b6 013d c3be e6ba fb8b 85bd 05d9 32be
000002b0: 67cb 7b3d e07e 103e fa88 34bb 51f0 15be
000002c0: ecbb e2ba 2e0c b1bb 1187 14be 9950 61bd
000002d0: f9eb abbd 3579 cebd d83f 033e eddd c3bc
000002e0: 5566 3f3d 40db ac3b 0afb 283e 632a 0abd
000002f0: 3775 21bd eb3b bd3a ecfe 9fbd 1537 0dbd
00000300: 6737 99bd 0cb3 9a3d d72b bf3d 747d 463e
00000310: 769c d23c 19ee d73c d354 483d 60a5 e33c
00000320: 9863 be3d 4843 15be df95 243c 43ce c7bc
00000330: 479d 1abe eac1 dd3d 98e9 3fbe 3889 103b
00000340: c44c 1ebe cadc 72bd a8b7 55be 7315 f9bd
00000350: 957c 1dba 4e6c 0a3d 489a 8f3c 86df 13be
00000360: 3eff ba3d a066 a5bb 1899 b43d 7bca ec3d
00000370: 46f2 d8bd 5877 50bd 5401 30bd a44e cb3c
00000380: 1e73 1b3e d28c 76bd a159 bfbd 2f1a 193c
00000390: 621c 20be c7fc 09be 0335 253d bf08 81bd
000003a0: 152f 82be 71f6 cc3d 734d 97bd c724 d1bb
000003b0: 4474 bcbd 25e4 0cbe 74d8 11bd 0672 2e3a
000003c0: bc93 c8bb 542c 8fbc e6d0 be3d a50f abbc
000003d0: 88c9 353d d4c3 0e3e 2314 0ebd abb0 f8bd
000003e0: 8d3b a0bd e253 4a3c 4aa4 0bbe 5a4c ab3d
000003f0: 1bd8 17be 5964 9abc 3323 0abe 4958 94bd

a2c_network.actor_mlp.4.bias f4 [128]
-0.07997931 -0.024510719 0.054625716 -0.14553766 -0.03663904 -0.09578103 -0.05336926 -0.045991834
-0.021060206 -0.10479706 -0.063936405 -0.0088666845 -0.033097718 -0.02548985 -0.026907627 -0.051479172
0.0456405 -0.017707862 -0.01537573 -0.028023867 -0.034551814 -0.036294088 0.024533879 -0.031551927
0.009457534 0.008538307 -0.030181509 -0.036939956 -0.014081925 -0.07719883 -0.050574984 0.01729841
-0.05375959 -0.113222465 -0.018780382 0.022645064 -0.061631184 0.056634277 -0.03466266 -0.12937528
-0.01474123 0.0028721525 0.03854961 0.026349686 -0.001588466 -0.061136983 -0.054805275 -0.005347106
0.029916825 -0.001472202 -0.053110924 -0.05603623 -0.024706725 0.028906815 -0.013044871 0.08916567
0.009595444 -0.0370177 0.062277917 0.058358856 0.016168155 0.055790175 -0.019554367 0.03650415
-0.02123572 0.08455613 -0.061720103 -0.043109324 -0.01386215 0.06798296 -0.13492113 0.037890166
0.029633872 0.07150298 -0.057603836 -0.010543629 0.06758442 0.038798854 -0.06665906 0.06106209
-0.0031640318 0.016782371 -0.041342653 -0.027233334 -0.18783176 0.047172263 -0.024930654 -0.0983406
-0.035630524 -0.023192737 0.015078392 -0.042103987 0.039201055 -0.05018118 0.05859952 -0.015304491
-0.004503792 -0.027465817 -0.12798807 -0.062218934 -0.037883487 -0.07926695 -0.050666418 0.060417984
-0.009896014 0.00057588826 -0.026864229 -0.008448256 -0.0382525 -9.5823125e-05 0.021996591 0.05754558
-0.019275285 -0.062313203 0.015254079 -0.008997337 -0.08099553 -0.079801425 -0.03904128 -3.5094396e-05
-0.1222609 0.059318975 0.01573677 -0.05875729 0.056286175 -0.038797423 -0.040555764 -0.014255494
00000000: 31cc a3bd b4ca c8bc 37bf 5f3d d307 15be
00000010: d112 16bd d828 c4bd ba99 5abd ef61 3cbd
00000020: 7486 acbc d79f d6bd 17f1 82bd 9245 11bc
00000030: 7991 07bd 17d0 d0bc 626d dcbc d3db 52bd
00000040: 88f1 3a3d 1410 91bc 7cea 7bbc 4f92 e5bc
00000050: 3486 0dbd 1ca9 14bd 46fb c83c 983c 01bd
00000060: c6f3 1a3c 41e4 0b3c 363f f7bc 5a4e 17bd
00000070: e0b7 66bc 6c1a 9ebd b727 4fbd 65b5 8d3c
00000080: 0433 5cbd 2ee1 e7bd 51d9 99bc 2482 b93c
00000090: fb70 7cbd 58f9 673d 6ffa 0dbd f47a 04be
000000a0: 3385 71bc b93a 3c3b 32e6 1d3d 4cdb d73c
000000b0: 1334 d0ba c66a 7abd 7f7b 60bd c736 afbb
000000c0: 2114 f53c e7f6 c0ba d78a 59bd 3f86 65bd
000000d0: c265 cabc fccd ec3c 28ba 55bc 7e9c b63d
000000e0: 3636 1d3c df9f 17bd 2117 7f3d b209 6f3d
000000f0: 1473 843c 3d84 643d 7b30 a0bc 6085 153d
00000100: 88f6 adbc c42b ad3d 38ce 7cbd 6793 30bd
00000110: 121e 63bc a63a 8b3d c428 0abe b832 1b3d
00000120: bcc2 f23c 2870 923d 00f2 6bbd 2fbf 2cbc
00000130: b369 8a3d 8ceb 1e3d 8c84 88bd 3e1c 7a3d
00000140: a55b 4fbb 2f7b 893c ea56 29bd 7118 dfbc
00000150: f856 40be b437 413d 5f3b ccbc cc66 c9bd
00000160: 50f1 11bd b2fe bdbc 5c0b 773c 3b75 2cbd
00000170: 4991 203d c88a 4dbd 0d06 703d b0bf 7abc
00000180: 8c94 93bb feff e0bc 4e0f 03be 48d9 7ebd
00000190: b72b 1bbd b656 a2bd 9787 4fbd d978 773d
000001a0: e422 22bc 35f7 163a 5f12 dcbc 8e6a 0abc
000001b0: a7ae 1cbd a6f4 c8b8 3232 b43c eab4 6b3d
000001c0: 34e7 9dbc 213c 7fbd 3fec 793c 9169 13bc
000001d0: fce0 a5bd ee6e a3bd c0e9 1fbd 5232 13b8
000001e0: ec63 fabd 74f8 723d 66ea 803c 7cab 70bd
000001f0: 558c 663d 0cea 1ebd cd1d 26bd e08f 69bc

a2c_network.value.weight f4 [1, 128]
0.031704627 -0.17435215 -0.045979213 -0.033036366 0.005269212 0.05402774 0.023885995 0.0037557487
-0.08251846 0.015520515 0.04946791 0.007089997 -0.012595736 -0.042215016 -0.014843872 -0.04710327
0.1428346 0.005762908 0.037857544 -0.013325909 -0.06130999 0.028445171 -0.0100044105 -0.2637373
0.0068835868 -0.06399057 -0.19573435 -0.05546959 -0.064024486 -0.11555706 0.010681274 0.0002691786
0.019603392 -0.07948282 0.008826942 0.03315816 0.030190943 0.005619429 -0.063975476 0.042636715
-0.02993371 -0.027296878 0.016509349 0.07109035 -0.009068004 0.04612398 0.00695331 -0.030100152
0.0884904 -0.010051185 0.012457447 0.01210084 0.07328157 -0.005353701 -0.054147627 0.048094217
0.01697964 0.058068607 0.027279079 0.020954557 0.043617856 -0.048863593 -0.025455846 0.023270309
-0.048540212 0.0116015095 -0.032221332 -0.045665786 0.12203259 0.010810765 0.018679542 0.21476413
0.06194847 -0.040193655 -0.021695245 0.14141516 -0.017313391 -0.013398462 0.013422822 -0.0430004
-0.03234072 0.032616843 -0.01538295 -0.06924741 -0.0012570705 0.12480814 -0.018306259 -0.14332488
0.013286835 0.017051183 0.017186128 -0.013853582 -0.054948382 -0.023297245 0.19400969 -0.010232672
0.038048115 -0.0755073 0.05593745 0.0037734713 -0.033677474 0.03057563 -0.042248335 -0.01001625
0.04004047 -0.020334525 0.08644216 -0.009440192 0.004821814 -0.0032140547 0.044579804 -0.02282675
-0.0059220553 0.05391348 0.010651452 -0.38277397 0.0015784047 0.0027425156 -0.02988929 -0.013776214
-0.0002413657 0.0035025477 -0.0021204914 -0.07426814 0.11927802 0.02680117 0.08140105 -0.079208195
00000000: b6dc 013d 5f89 32be b354 3cbd 2451 07bd
00000010: 5ba9 ac3b 314c 5d3d 90ac c33c 0223 763b
00000020: 70ff a8bd c249 7e3c dd9e 4a3d 3553 e83b
00000030: 595e 4ebc a7e9 2cbd b633 73bc 5cef 40bd
00000040: 3c43 123e c7d6 bc3b 8310 1b3d ea54 5abc
00000050: 2f20 7bbd d905 e93c 8ae9 23bc 9308 87be
00000060: b68f e13b 7d0d 83bd 966e 48be 1534 63bd
00000070: 451f 83bd 2ea9 ecbd 8300 2f3c 8a20 8d39
00000080: 4b97 a03c e4c7 a2bd e19e 103c dad0 073d
00000090: ff52 f73c 3023 b83b 9305 83bd d6a3 2e3d
000000a0: 8a37 f5bc b49d dfbc 9d3e 873c d197 913d
000000b0: f791 14bc 80ec 3c3d 98d8 e33b 9894 f6bc
000000c0: 743a b53d baad 24bc 521a 4c3c 9a42 463c
000000d0: a614 963d 196e afbb e7c9 5dbd 71fe 443d
000000e0: e318 8b3c 59d9 6d3d 6078 df3c e4a8 ab3c
000000f0: a3a8 323d 3125 48bd c788 d0bc 60a1 be3c
00000100: 1ad2 46bd 4214 3e3c 84fa 03bd 0c0c 3bbd
00000110: 39ec f93d a31f 313c d705 993c 21eb 5b3e
00000120: aebd 7d3d 1aa2 24bd 3aba b1bc 23cf 103e
00000130: d0d4 8dbc 3985 5bbc 65eb 5b3c 3021 30bd
00000140: b477 04bd 3d99 053d c508 7cbc 96d1 8dbd
00000150: 49c4 a4ba 699b ff3d 02f7 95bc c2c3 12be
00000160: 06b1 593c ecae 8b3c ecc9 8c3c 22fa 62bc
00000170: 8e11 61bd ddd9 bebc 7aaa 463e f0a6 27bc
00000180: 57d8 1b3d 92a3 9abd ab1e 653d 584c 773b
00000190: 64f1 09bd be79 fa3c 970c 2dbd 331b 24bc
000001a0: 7a01 243d 9794 a6bc 9608 b13d 09ab 1abc
000001b0: 4f00 9e3b e4a2 52bb 5099 363d 2aff babc
000001c0: cd0d c2bb 62d4 5c3d 6d83 2e3c f3fa c3be
000001d0: 79e2 ce3a c7bb 333b 62da f4bc a1b5 61bc
000001e0: 1d17 7db9 008b 653b f1f7 0abb e519 98bd
000001f0: 0948 f43d 218e db3c 98b5 a63d e837 a2bd

a2c_network.mu.weight f4 [10, 128]
-0.14933099 0.03814939 0.19177906 0.28395894 0.14331332 0.0038330206 -0.008418957 -0.06778677
0.1511959 -0.15311913 -0.12091514 -0.08449727 -0.051083766 -0.03267625 -0.017695686 -0.004960064
0.019524012 -0.06766008 0.024055444 0.14144552 -0.034335483 0.14630249 0.04500215 0.008706507
0.104610704 0.089136355 -0.02986811 0.19039902 -0.2635883 -0.10358855 0.110353105 0.03337718
0.040624533 -0.080933526 -0.13035278 -0.112682335 0.068129286 0.05688036 0.045949057 0.0058681886
0.06432443 -0.057290647 -0.12201392 0.21751101 0.04595354 0.12096138 -0.0060255723 -0.005535406
-0.10150449 -0.12000208 -0.2616355 -0.19200455 -0.24077576 0.037412886 -0.18374953 -0.04728261
0.043143246 0.13967352 -0.08911358 0.045714732 -0.051243827 0.14712809 -0.0800602 0.0543115
-0.011679955 0.19524743 0.09739977 -0.091464646 -0.21270873 0.08106553 0.008542944 0.03744068
0.08935944 0.10264442 -0.116127916 0.04467727 -0.22622474 -0.029446192 0.06294459 0.0697321
0.15362146 0.13085164 -0.023988621 0.058175985 0.05753971 -0.0023926378 -0.053187925 -0.005125232
0.004530692 -0.018070286 0.016894013 0.07681779 -0.018440366 -0.11861963 0.037876446 0.04526821
0.13338001 -0.197662 -0.088978946 -0.119583406 0.21281683 0.021412374 -0.069884114 0.15279195
-0.15781829 0.20598093 0.029743353 -0.09512272 0.29059145 0.1384244 -0.029662956 9.54326e-05
-0.1497687 -0.06468354 -0.020130815 0.12854443 -0.058221787 -0.005151061 -0.09363695 0.024864284
0.21714264 -0.050404366 -0.015534469 0.07447423 0.056871228 -0.055010233 0.0677097 -0.052217156
0.007415806 -0.1428024 0.024902489 -0.019373972 -0.11959064 0.030656321 0.024251483 -0.0039859596
-0.14321321 -0.05048066 -0.03461871 -0.033506464 0.0046624676 0.08015729 -0.28775263 -0.05541445
0.005594308 -0.106927246 -0.118075125 0.086349785 0.075062476 0.024570318 -0.061020136 -0.030776745
0.028623445 0.00051695167 0.13399993 -0.0028119974 -0.13335119 -0.08654125 0.0588522 -0.011450638
0.059650894 0.038445517 0.017792916 0.14794546 -0.065102324 0.012291915 0.13083626 -0.02860351
0.058324367 0.22567953 0.055665035 0.029621473 0.03645998 -0.0062823724 -0.00747273 -0.12517774
-0.086053506 0.10726455 -0.07274366 0.035090376 0.009793732 -0.065741695 0.007407718 -0.023272619
-0.002502501 -0.14487264 0.040424306 0.15427929 0.04658278 0.03216199 -0.027107013 0.010026403
0.108021975 0.16191833 -0.07589683 -0.013457848 -0.08414089 0.031588074 -0.075450405 -0.034437157
0.04800323 0.045118295 -0.0029477633 0.074656285 0.026944047 0.0689041 -0.09710553 0.11999896
0.043058474 0.031146076 0.06462851 -0.10046366 -0.041716963 0.13294628 -0.13535593 -0.07262021
-0.1060081 0.07884956 -0.1397754 0.015330748 -0.044473622 -0.033263475 0.01629648 0.088370055
-0.0364936 -0.0029312163 -0.013948588 -0.14478469 0.09541299 0.05614283 -0.15977132 0.21506882
-0.0020416128 0.09675488 -0.04710085 -0.070005216 -0.08252937 0.049974807 0.0034456393 -0.099933684
-0.026243582 -0.09264926 -0.080103196 -0.10394337 0.0436558 -0.027698416 -0.0077893715 0.052162763
0.1477091 -0.079976365 0.020534301 -0.18707538 0.0011960873 -0.13305786 -0.038201343 0.06680212
00000000: 39ea 18be 8942 1c3d bb61 443e 1163 913e
00000010: bac0 123e 6a33 7b3b aaef 09bc cad3 8abd
00000020: 19d3 1a3e 43cb 1cbe 5ba2 f7bd e80c adbd
00000030: 363d 51bd 88d7 05bd 8bf6 90bc 0888 a2bb
00000040: d2f0 9f3c 5e91 8abd ec0f c53c 18d7 103e
00000050: 5da3 0cbd 52d0 153e 2d54 383d bda5 0e3c
00000060: 233e d63d 1f8d b63d f7ad f4bc f6f7 423e
00000070: 0cf5 86be 3c26 d4bd cf00 e23d 83b6 083d
00000080: e965 263d 7ac0 a5bd 337b 05be ffc5 e6bd
00000090: 5e87 8b3d 61fb 683d 1435 3c3d ef49 c03b
000000a0: 87bc 833d 99a9 6abd 6fe2 f9bd 35bb 5e3e
000000b0: c739 3c3d 9aba f73d 2a72 c5bb 5a62 b5bb
000000c0: 96e1 cfbd a7c3 f5bd 17f5 85be d79c 44be
000000d0: ec8d 76be 413e 193d d628 3cbe 69ab 41bd
000000e0: f9b6 303d 9306 0f3e 2e81 b6bd 5f3f 3b3d
000000f0: 0ce5 51bd bfa8 163e 9af6 a3bd bc75 5e3d
00000100: 485d 3fbc f1ee 473e 8879 c73d d151 bbbd
00000110: 51d0 59be af05 a63d b4f7 0b3c 665b 193d
00000120: 1502 b73d 3d37 d23d 79d4 edbd 83ff 363d
00000130: 75a7 67be 2439 f1bc 18e9 803d b4cf 8e3d
00000140: f24e 1d3e f9fd 053e c983 c4bc f149 6e3d
00000150: c2ae 6b3d cdcd 1cbb 95db 59bd 90f1 a7bb
00000160: 3376 943b 2308 94bc 5065 8a3c a552 9d3d
00000170: 4010 97bc d9ee f2bd 5524 1b3d 296b 393d
00000180: c594 083e e867 4abe 983a b6bd 25e8 f4bd
00000190: a8ec 593e 0169 af3c 671f 8fbd 7e75 1c3e
000001a0: 1e9b 21be aaec 523e 55a8 f33c b3cf c2bd
000001b0: 67c8 943e 20bf 0d3e baff f2bc fd22 c838
000001c0: f75c 19be ce78 84bd 61e9 a4bc 27a1 033e
000001d0: f879 6ebd 3bca a8bb bbc4 bfbd 2fb0 cb3c
000001e0: a45a 5e3e cf74 4ebd 4984 7ebc f285 983d
000001f0: cef1 683d 6952 61bd 62ab 8a3d a8e1 55bd
00000200: 4a00 f33b cb3a 12be 4e00 cc3c 2ab6 9ebc
00000210: f0eb f4bd f722 fb3c 0cab c63c a79c 82bb
00000220: 7ca6 12be cfc4 4ebd 59cc 0dbd 133e 09bd
00000230: 9dc7 983b 8129 a43d 5054 93be 43fa 62bd
00000240: 7550 b73b acfc dabd 5fd1 f1bd 28d8 b03d
00000250: 5bba 993d b147 c93c 40f0 79bd 831f fcbc
00000260: b77b ea3c 0a84 073a 4737 093e 7d49 38bb
00000270: 378d 08be 8a3c b1bd 010f 713d 759b 3bbc
00000280: 7f54 743d 0c79 1d3d 73c2 913c 047f 173e
00000290: 5e54 85bd 0764 493c f1f9 053e e951 eabc
000002a0: 88e5 6e3d 8918 673e 0501 643d bba8 f23c
000002b0: 0f57 153d 5cdc cdbb cddd f4bb 982e 00be
000002c0: d23c b0bd 84ad db3d a1fa 94bd edba 0f3d
000002d0: e475 203c 95a3 86bd 71bc f23b 38a6 bebc
000002e0: 0001 24bb 7e59 14be f593 253d 64fb 1d3e
000002f0: 96cd 3e3d 4abc 033d 870f debc c845 243c
00000300: a03a dd3d ebcd 253e cc6f 9bbd 4e7e 5cbc
00000310: 0f52 acbd 7f62 013d be85 9abd fa0d 0dbd
00000320: 099f 443d f6cd 383d 432f 41bb 65e5 983d
00000330: c3b9 dc3c 981d 8d3d 44df c6bd 04c2 f53d
00000340: 155e 303d 0e26 ff3c f45b 843d e4bf cdbd
00000350: 68df 2abd 1223 083e bf9a 0abe e8b9 94bd
00000360: c61a d9bd e17b a13d 4821 0fbe d12d 7b3c
00000370: f929 36bd 483f 08bd 3280 853c 5cfb b43d
00000380: 507a 15bd a619 40bb 9e88 64bc 7042 14be
00000390: e367 c33d 06f6 653d 189b 23be 003b 5c3e
000003a0: 94cc 05bb 6c27 c63d d2ec 40bd e55e 8fbd
000003b0: 2905 a9bd 62b2 4c3d 3cd0 613b 08aa ccbd
000003c0: c8fc d6bc e5be bdbd 250d a4bd 43e0 d4bd
000003d0: 6dd0 323d cae7 e2bc fc3d ffbb 9fa8 553d
000003e0: 0e41 173e a6ca a3bd 8d37 a83c b090 3fbe
000003f0: 08c6 9c3a 5240 08be 0379 1cbd 8dcf 883d

a2c_network.mu.bias f4 [10]
0.08795143 0.11709898 0.07641457 0.14354555 -0.019354694 -0.025981953 -0.01754545 0.0023331738
0.059575554 -0.04194051
00000000: e11f b43d 97d1 ef3d 3e7f 9c3d 9bfd 123e
00000010: bc8d 9ebc 1bd8 d4bc 7abb 8fbc 29e8 183b
00000020: 7f05 743d d0c9 2bbd

exp_avg f4 [10]
0.0003160039 -0.00074241863 0.000369046 -0.0005224716 -0.00014303869 0.0006991121 0.00044568186 0.00020369007
0.00027364815 -0.00049470534
00000000: 53ad a539 df9e 42ba 847c c139 7af6 08ba
00000010: a8fc 15b9 9e44 373a 68aa e939 a395 5539
00000020: 6f78 8f39 1daf 01ba

exp_avg_sq f4 [10]
3.10325e-06 3.472537e-06 2.9077828e-06 3.1727734e-06 3.1823986e-06 3.0059184e-06 3.434391e-06 3.1271325e-06
3.4853404e-06 2.8251286e-06
00000000: 6e41 5036 bb09 6936 5423 4336 d5eb 5436
00000010: 3191 5536 49b9 4936 637a 6636 badb 5136
00000020: b1e5 6936 5797 3d36

exp_avg f4 [256, 42]
0.00010890491 -0.00016508576 3.6197052e-05 0.00013497725 -7.687032e-05 -2.3275377e-05 3.146555e-05 -0.000104957726
-9.029183e-05 -6.364336e-05 0.0001292246 0.0001168137 9.216527e-05 -0.0001282448 0.00012817747 -7.991126e-06
1.5244365e-05 9.131775e-06 0.00011216959 6.819292e-05 -0.0002763505 -0.000119273864 3.3835775e-05 -6.841229e-05
-1.2406738e-06 6.2979554e-05 3.8721773e-05 -2.1712425e-05 1.6143864e-05 6.0998496e-05 8.5225496e-05 -3.9509847e-05
-0.00019955916 -0.0002219726 0.00029748323 0.00037832197 0.0002307014 -0.00018405946 -4.7487225e-05 0.00035467336
8.317052e-05 -0.00023244481 2.5062738e-05 -8.145268e-06 -5.9430513e-05 5.3017135e-05 -5.1742518e-05 3.0842475e-05
-2.9736086e-05 -6.15553e-05 -0.00010610337 2.1658429e-05 7.6016185e-08 1.744648e-05 5.3664976e-06 -9.557859e-05
4.8700305e-05 9.7080076e-05 0.000115343915 1.1678977e-05 1.0735938e-05 5.6403536e-05 2.6763559e-05 -0.00023456648
-3.265583e-06 -1.2173407e-05 -3.0808653e-05 2.4608964e-05 1.305092e-05 -7.896068e-06 3.9543847e-06 1.3039333e-05
-2.0663676e-06 2.0961266e-05 1.9710393e-05 -1.0079864e-05 -9.429382e-05 -0.00017861917 7.792493e-05 -0.00017524253
-7.160234e-05 5.5283213e-06 -0.00041109318 -0.00016540223 -0.00017858914 -5.5651846e-05 -0.00021538885 0.00011159441
-8.095116e-05 -2.8645052e-05 -2.1025186e-05 -6.56555e-05 -5.3311753e-05 0.00040719964 -0.00026933922 -0.00024384692
-0.00010556452 4.9485436e-05 -0.00020516435 9.6743606e-05 0.00025529394 6.771272e-05 -0.0002464337 -0.00021836483
-3.4194894e-05 -0.00039945505 -1.3159398e-05 4.011732e-05 -2.309127e-05 1.1036309e-05 3.853844e-05 4.734291e-06
3.5420602e-05 2.518299e-05 7.7214885e-05 2.0221203e-05 7.7423494e-05 -6.146661e-05 -0.0001586612 -0.00042856354
0.00022736054 -0.00032442692 -7.7363045e-05 1.24526305e-05 -0.00048068253 1.530001e-05 0.00043631202 -0.0002145521
0.00032887814 0.00019051624 -0.00018946253 -1.8904551e-05 -0.000109641 -0.00014386575 -0.00032462308 -0.00061362307
0.0005486743 0.00052286946 0.00023787041 -0.0003898735 0.0005797981 -3.456407e-05 -2.799758e-05 -4.6512705e-06
0.0005551326 0.0005451199 -0.0003049117 -0.0003495191 1.4769747e-05 -1.9260826e-05 6.50647e-06 0.000117202806
6.325393e-05 8.486977e-05 -2.7212753e-05 -1.1468575e-05 0.00020217866 1.2121222e-05 -0.00066520483 0.00022184094
0.00018467101 0.0005996323 3.4060506e-06 0.00034077256 -0.00036662215 -8.255268e-05 0.00033229394 -0.00011474067
-9.893638e-05 -2.0538886e-05 -0.00015092544 9.159192e-05 4.535961e-05 4.2663396e-05 -3.0431089e-05 -9.93343e-06
1.4222744e-05 0.00021539621 -0.00015936396 -0.00014818329 -9.0613205e-05 0.00012600349 -0.00015887186 -1.5571306e-05
0.00021369013 0.00010204565 -0.00019287314 -4.55426e-05 6.0725702e-05 -0.00027931656 -1.7372427e-05 5.3735363e-05
-1.5043549e-05 -7.5505624e-05 5.0094397e-05 -8.39562e-05 -5.9476246e-05 8.643861e-06 1.0496354e-05 -3.948772e-05
0.0002132448 -4.636653e-05 -0.00013467987 8.063572e-05 0.00016760279 -0.00043600297 0.00018536599 -0.00016938242
-0.00049252965 -0.00020904989 -0.00011075143 -0.00016121258 -0.00027552253 0.0002126742 -0.00017166282 -2.7280475e-06
-0.0001278553 -9.8856384e-05 -7.3205105e-05 0.00035101007 -0.00019270995 -0.00015386088 -0.00010840819 7.3984935e-05
-0.00016122444 5.044519e-05 0.00030052295 7.907819e-05 -0.00020050483 -5.4632947e-05 -0.00041221472 -0.0005616046
8.875877e-06 0.00012084059 -2.4140383e-05 1.5421685e-05 0.00013605063 9.794235e-05 1.6209533e-05 3.1845055e-05
0.00017600921 -4.9280592e-05 1.5320185e-05 0.00041920977 0.00028218914 -6.385667e-05 0.00022174933 0.00012546478
-0.00012618539 -0.00019104852 -0.0005454024 -2.4364788e-08 -0.000239418 0.00029203293 -9.891179e-05 -0.00021805556
00000000: e163 e438 df1a 2db9 4ad2 1738 ae88 0d39
00000010: 7035 a1b8 7e3f c3b7 e1f9 0338 c01c dcb8
00000020: 0f5b bdb8 4578 85b8 7780 0739 e1f9 f438
00000030: da48 c138 7479 06b9 6167 0639 a011 06b7
00000040: 0dc2 7f37 ad34 1937 973c eb38 cc02 8f38
00000050: 23e3 90b9 ab22 fab8 e3ea 0d38 9278 8fb8
00000060: 3a85 a6b5 e413 8438 3069 2238 1423 b6b7
00000070: af6c 8737 a3d8 7f38 17bb b238 60b7 25b8
00000080: c140 51b9 51c1 68b9 86f7 9b39 8459 c639
00000090: 6fe8 7139 1600 41b9 052d 47b8 74f3 b939
000000a0: d56b ae38 6ebc 73b9 d23d d237 a9a7 08b7
000000b0: 0745 79b8 b75e 5e38 1b06 59b8 db5c 0138
000000c0: c271 f9b7 4017 81b8 d083 deb8 1faf b537
000000d0: 573e a333 085a 9237 dd11 b436 5d71 c8b8
000000e0: 8e43 4c38 7897 cb38 cbe4 f138 d3f0 4337
000000f0: 811e 3437 d692 6c38 4e82 e037 f6f5 75b9
00000100: 4a26 5bb6 633c 4cb7 8a38 01b8 596f ce37
00000110: 46f5 5a37 5b79 04b7 e8af 8436 82c3 5a37
00000120: edab 0ab6 fad5 af37 bf57 a537 b01c 29b7
00000130: 9cbf c5b8 b84b 3bb9 a16b a338 4fc1 37b9
00000140: 3729 96b8 eb7f b936 fe87 d7b9 d36f 2db9
00000150: a843 3bb9 b76b 69b8 01da 61b9 cb07 ea38
00000160: 53c4 a9b8 c84a f0b7 3e5f b0b7 87b0 89b8
00000170: 0f9b 5fb8 697d d539 1936 8db9 29b1 7fb9
00000180: 8562 ddb8 958e 4f38 6321 57b9 d4e2 ca38
00000190: f9d8 8539 fd00 8e38 c533 81b9 ddf8 64b9
000001a0: 7d6c 0fb8 f36d d1b9 2fc7 5cb7 a543 2838
000001b0: 20b4 c1b7 9628 3937 56a4 2138 40db 9e36
000001c0: 9590 1438 0f40 d337 6dee a138 b4a0 a937
000001d0: 6c5e a238 a3e7 80b8 4b5e 26b9 d3b0 e0b9
000001e0: a167 6e39 d817 aab9 f83d a2b8 a4eb 5037
000001f0: 1e04 fcb9 8558 8037 cfc0 e439 64f9 60b9
00000200: 476d ac39 50c5 4739 76aa 46b9 3795 9eb7
00000210: 10ef e5b8 abda 16b9 2c32 aab9 8cdb 20ba
00000220: e9d4 0f3a 2d11 093a da6c 7939 ef67 ccb9
00000230: 98fd 173a e3f8 10b8 58dc eab7 1c12 9cb6
00000240: 5186 113a 61e6 0e3a 8edc 9fb9 a93f b7b9
00000250: 95cb 7737 4f92 a1b7 2752 da36 c7ca f538
00000260: 32a7 8438 1cfc b138 f146 e4b7 2869 40b7
00000270: ecff 5339 415c 4b37 2461 2eba f99d 6839
00000280: 3fa4 4139 a430 1d3a 8193 6436 b8a9 b239
00000290: 3137 c0b9 2220 adb8 bd37 ae39 eea0 f0b8
000002a0: 117c cfb8 ec4a acb7 bd41 1eb9 0a15 c038
000002b0: 8340 3e38 79f1 3238 4446 ffb7 c2a7 26b7
000002c0: 389e 6e37 fbdb 6139 f01a 27b9 a661 1bb9
000002d0: 9807 beb8 ce1f 0439 d796 26b9 209f 82b7
000002e0: 0212 6039 5701 d638 fd3d 4ab9 ff04 3fb8
000002f0: bab3 7e38 3c71 92b9 01bb 91b7 e861 6138
00000300: 8d63 7cb7 c658 9eb8 731c 5238 a411 b0b8
00000310: 2276 79b8 1a05 1137 7f19 3037 9e9f 25b8
00000320: 779a 5f39 af79 42b8 da38 0db9 f91a a938
00000330: 88be 2f39 5497 e4b9 ce5e 4239 3f9c 31b9
00000340: 1b1d 01ba 6734 5bb9 3943 e8b8 2c0b 29b9
00000350: 0274 90b9 4c01 5f39 6300 34b9 8013 37b6
00000360: e510 06b9 1e51 cfb8 b185 99b8 c607 b839
00000370: 2f12 4ab9 b755 21b9 3459 e3b8 5c28 9b38
00000380: 5b0e 29b9 1c95 5338 828f 9d39 c8d6 a538
00000390: 9b3e 52b9 ae25 65b8 861e d8b9 a638 13ba
000003a0: 9ae9 1437 cc6b fd38 1481 cab7 d15d 8137
000003b0: d0a8 0e39 6666 cd38 b5f9 8737 5e91 0538
000003c0: 1d8f 3839 a2b2 4eb8 d983 8037 62c9 db39
000003d0: c9f2 9339 caea 85b8 6285 6839 328f 0339
000003e0: a250 04b9 3254 48b9 56f9 0eba bc4a d1b2
000003f0: 480c 7bb9 ff1b 9939 dd6e cfb8 d8a5 64b9
