logs/rl_games/humanoid_flat_direct/2025-11-18_21-58-12/nn/last_humanoid_flat_direct_ep_2150_rew_411.04898.pth (torch, 759553 bytes, 33 tensors)

value_mean_std.running_mean f8 [1]
000000 5c 24 27 52 a2 72 57 40
       93.79115728208984

value_mean_std.running_var f8 [1]
000000 8c 50 be a6 08 3e a2 40
       2335.0168971513103

value_mean_std.count f8 []
000000 00 00 80 00 00 32 c9 41
       845414401.0

a2c_network.sigma f4 [10]
000000 18 33 a7 bf 72 7f 86 bf 12 76 a5 bf cd ff 53 3e
       -1.3062468 -1.0507643 -1.2926657 0.20703049
000010 cc 9a cb bf 77 7b 52 bf 6d f5 1e c0 7f 06 cf bf
       -1.5906615 -0.8221964 -2.4837296 -1.6173857
000020 5e 66 d3 3e c5 fc 63 be
       0.41289037 -0.22264393

a2c_network.actor_mlp.0.weight f4 [256, 42]
000000 51 df f1 3c 0d 8c df 3e 83 3e 79 3e cc 99 9e bc
       0.02952543 0.43661538 0.24340253 -0.019360445
000010 10 89 5c 3c f3 fe 94 3d 81 55 0e 3e bd 32 4e be
       0.013460413 0.0727519 0.13899805 -0.20136543
000020 1b 4f a7 be 25 86 51 bd ef ad 29 be 5e 99 b3 3d
       -0.3267754 -0.05115332 -0.16570257 0.08769487
000030 48 9f 32 be ea 17 b0 bd 39 e5 d9 3d 7e 3e 79 3d
       -0.17443573 -0.08598311 0.10639424 0.060850613
000040 fd 68 1c 3e 4e fa 8a bd a4 89 64 3c a1 9e cf bd
       0.15274425 -0.06786023 0.013948832 -0.10137678
000050 63 cc f4 3d cf f2 02 be 52 d3 be be 60 38 4b be
       0.11953046 -0.12787937 -0.372706 -0.19845724
000060 3a c8 6c 3e 46 9b b7 3d ea 50 84 bd 48 b3 d3 bc
       0.23123255 0.08965163 -0.06460746 -0.025842324
000070 65 9d 3d 3e f9 e5 5f 3e 80 72 8a 3e ca 77 50 be
       0.18517072 0.21865071 0.27040482 -0.20358196
000080 0a ca 23 be 26 6b e3 bd a6 3f 59 bd e6 45 38 3d
       -0.1599504 -0.11104421 -0.053039216 0.044988535
000090 1a 28 8f 3d 5d 53 cd 3d 3c a1 09 be ca 35 c9 bd
       0.06990071 0.10025666 -0.13440412 -0.098247126
0000a0 f6 f7 0f 3d 90 31 3d bd ea 0f f8 3d a8 5f 35 3e
       0.035148583 -0.046189845 0.1211241 0.17712271
0000b0 5e 1b 90 3e 3b 41 bb bd 68 38 7d be 08 54 ad 3e
       0.2814588 -0.09143301 -0.24728549 0.33853173
0000c0 10 24 57 3e ee 38 32 3d fd ab da bd 42 4a 20 3d
       0.2100985 0.043511324 -0.106773354 0.039133318
0000d0 44 7f c0 bd 79 9b 7d bd d2 af 8b 3e 80 a3 0d bd
       -0.09399274 -0.06191585 0.27282578 -0.034579754
0000e0 6d 0c 85 3d f3 97 2f be c5 fb 5b bb 51 b7 20 3e
       0.06496511 -0.17147808 -0.0033566814 0.1569493
0000f0 61 a2 1e bc 88 cb ff bd ea 14 28 3e 48 4a 65 bc
       -0.009682269 -0.124899924 0.16414228 -0.013994761
000100 b5 1f 9f bd 8f da 0f be 09 73 d2 be e5 df cd bd
       -0.077697195 -0.14048217 -0.4110339 -0.1005247
000110 5d 9c b1 3d 10 75 dc 3d 99 bf b5 3d ee 72 c9 be
       0.08672402 0.107645154 0.08874435 -0.39345497
000120 d8 f0 8c bc fb 0f 88 3d 41 c2 81 3c 4f de 30 be
       -0.017204687 0.06643673 0.015839698 -0.17272304
000130 88 68 85 bd 76 59 97 bc 4d 7f 86 3d 55 61 5c bd
       -0.065140784 -0.018475275 0.065672494 -0.05380376
000140 34 14 fe 3c 23 a3 29 be 04 a5 fd bb d8 b5 4a bd
       0.031015493 -0.16566138 -0.0077406187 -0.049489826
000150 8e 07 82 bd e8 92 18 be 58 4d a7 3e 2e 15 89 3d
       -0.06349097 -0.1489979 0.32676196 0.06693493
000160 db aa 8d bb f8 ee 33 3d 39 ac 24 be 01 e7 f6 3d
       -0.004323346 0.04392907 -0.16081323 0.12055779
000170 f4 b3 0d be 73 e9 91 bd 62 10 0c be c7 34 25 be
       -0.13838178 -0.07124605 -0.13678125 -0.16133414
000180 33 6f 3a 3c 98 97 59 be 1c b7 01 3e 28 a1 ef bd
       0.011379051 -0.21249235 0.12667507 -0.1170066
000190 93 16 15 3e b6 31 f6 bc 33 dc 82 bd 8f fe 87 bc
       0.14559393 -0.030053 -0.06389656 -0.016600875
0001a0 40 17 18 3e 8f 10 51 3e 0e 30 30 3e 14 36 56 be
       0.14852619 0.20416473 0.17205831 -0.20919067
0001b0 06 45 1a 3d 9a c6 f6 bd 25 db c0 bd 44 42 15 be
       0.037663482 -0.12049599 -0.094167985 -0.1457606
0001c0 5a bd 9e 3d b8 d8 35 be 83 2e cd 3d 0c 34 79 3c
       0.0775096 -0.17758453 0.10018637 0.015210163
0001d0 1f b5 3d 3d 52 63 fa bd f0 7b 09 3e 04 f5 11 3d
       0.04631531 -0.12225975 0.13426185 0.035634056
0001e0 7f a8 c0 3d ed f1 f5 bd 84 57 e3 3d 8e 39 a6 3c
       0.09407138 -0.12009034 0.11100677 0.020291116
0001f0 d8 13 8d bd 5c bf 20 3e 59 55 de 3c b7 8f e6 bc
       -0.068885505 0.15697998 0.027140306 -0.0281447
000200 fb 6e 50 bd 40 b1 b1 3d ac d5 c0 3d 09 88 f9 bd
       -0.05088709 0.08676386 0.09415755 -0.1218415
000210 ca 84 db bd 24 c9 75 be 2c 23 07 be e8 05 8a 3d
       -0.10718687 -0.2400251 -0.13197011 0.06739408
000220 78 39 e7 3d a0 4b 1a be 0f 7d 48 3d dd a7 4e 3d
       0.11290258 -0.15067911 0.04894739 0.050453056
000230 4b 3b c1 b8 0d 41 06 bd 5f 6a 6d 3d 94 cd 45 3e
       -9.214001e-05 -0.03277688 0.05796277 0.19316703
000240 75 32 f3 3d ed 6b 3e bd b9 78 4b be ab 51 ca 3d
       0.11874858 -0.046489645 -0.19870271 0.09878858
000250 de c2 0d 3e 7e 67 34 bd ac ed a1 3e bd 5c 94 3e
       0.13843867 -0.04404401 0.31626642 0.28977004
000260 dd 29 c8 3d 55 53 a7 3c 30 8b 16 3e e3 a4 f5 bc
       0.0977361 0.020425478 0.14701533 -0.02998585
000270 d0 b4 6f 3d 27 74 bd bd 6b 06 5b be ee e1 a3 bd
       0.058522046 -0.0925067 -0.21389167 -0.08002077
000280 8c a9 26 3e ea 16 02 3d 83 97 4a bb fb 64 64 bd
       0.16275615 0.031760134 -0.0030913062 -0.055760365
000290 54 0a cf bd 12 61 d3 bd 61 4d 4e bd be a4 28 3d
       -0.10109392 -0.10321249 -0.050366763 0.041172735
0002a0 98 59 10 3e 80 65 83 3e 51 d4 68 3b fd 9a bc 3d
       0.14096677 0.25663376 0.003552694 0.09209249
0002b0 f1 7b 1c 3d 86 80 8e 3e 56 ad 99 3d 6f 07 e1 bd
       0.038204137 0.2783243 0.07503764 -0.10987746
0002c0 f9 db 56 3d 6e c3 c0 bd 27 20 6d bd eb 38 1f 3e
       0.052455876 -0.09412275 -0.05789199 0.15549056
0002d0 7f f3 8d 3c b5 ff cd 3c 6f a1 03 be 8f 98 a3 3d
       0.017328022 0.025146345 -0.12854551 0.079880826
0002e0 6f f5 19 3e 21 60 23 3c aa f2 c9 bd 32 5a 51 be
       0.15035032 0.009971649 -0.098607376 -0.20444563
0002f0 85 f5 ad bd 8f f4 45 3e d8 87 b4 3e f6 c2 32 3e
       -0.08494095 0.19331573 0.3525989 0.17457184
000300 89 fe 9b 3e 74 40 1c 3d 0a be 67 bd 0d 0b 89 be
       0.30467632 0.038147405 -0.05657772 -0.26766244
000310 e5 c1 8c be dc fa d7 be 83 63 31 3e 26 80 a5 bd
       -0.2749168 -0.42183578 0.17323117 -0.08081083
000320 92 0c 30 bd a6 c8 92 bd db f1 14 3b 33 f7 a9 bd
       -0.042980738 -0.07167177 0.0022727165 -0.08299103
000330 dd 1d ad bd 60 d7 b4 ba 9c 06 28 bd db cf cd 3d
       -0.084529616 -0.0013797097 -0.04102193 0.10049411
000340 83 f4 be 3b 41 25 8b bd 77 cb a9 bc 4d f2 19 bd
       0.005827488 -0.06794215 -0.020726902 -0.03758459
000350 e5 40 95 bd 5a 69 c0 bd c4 91 23 3e d7 92 8f bd
       -0.07287768 -0.09395094 0.15973574 -0.07010429
000360 e7 46 39 3e 0a b3 ea 3c c4 91 cf 3d b7 2c fc bd
       0.18093453 0.028649826 0.101352245 -0.12313216
000370 20 c4 f6 3d 6b 1e 88 bd 4b 22 47 3e fb d3 47 3e
       0.120491266 -0.06646427 0.19446675 0.19514458
000380 fb 91 a3 bb 7d ed 33 bc b4 44 ca 3c e1 79 bf bd
       -0.0049917675 -0.010981915 0.024690963 -0.093494184
000390 58 b3 93 3d ef fe 82 be ae b9 d6 3d 2c db 7e 3e
       0.072119415 -0.25585124 0.10484634 0.24888295
0003a0 aa de cc 3e cb 15 e6 bd 64 80 34 bd bc c0 4c bd
       0.4001363 -0.112346254 -0.044067755 -0.049988493
0003b0 36 a5 b5 bb a2 ff 67 be 8e cd d4 bb 25 52 77 be
       -0.0055433763 -0.2265611 -0.0064942306 -0.2415243
0003c0 c5 97 98 3d 6b 66 16 be 56 98 cc bd 6f 4e bf bd
       0.07450823 -0.14687507 -0.09989993 -0.09341132
0003d0 f0 77 06 be 27 17 08 3e a1 fa ed 3d 58 ce 7b 3c
       -0.1313169 0.13290082 0.11620069 0.01536902
0003e0 5e 0a 2f bc a0 cf 1f bc 73 50 ad bd 0e 3f b5 bd
       -0.010683624 -0.0097540915 -0.0846261 -0.08849917
0003f0 2e d9 88 3d 09 20 92 bd 2d 5f 89 3c b9 6d c9 3d
       0.06682049 -0.071350165 0.016769016 0.09835381

a2c_network.actor_mlp.0.bias f4 [256]
000000 29 82 00 bd d9 d3 6d 3d 54 a1 95 3b c9 9e 4c bc
       -0.03137413 0.05806336 0.004566351 -0.012489029
000010 87 03 15 3d 29 60 95 3c 7c 30 a9 3c 79 cd dc bb
       0.036380317 0.01823433 0.020653002 -0.0067383614
000020 fc 25 68 bc 36 80 8d 3d 6a 6a 02 3d 8c 19 9b ba
       -0.014169212 0.0690922 0.031839766 -0.0011833175
000030 67 3d 46 3c 3a d9 9f 3b 93 b7 f6 3c a8 85 5c ba
       0.0120996 0.0048781903 0.030116832 -0.00084122503
000040 87 5b a1 3c eb ba cf 3b 3a 3a 03 bd 03 8b 07 3d
       0.019696964 0.006339421 -0.03203795 0.033091556
000050 1b bf 3c bd 8f 64 bc bc fc e5 50 3c ac 81 f9 3c
       -0.04608069 -0.022997169 0.012750145 0.03045734
000060 20 9d 0e ba a1 d2 2b bc 38 50 d4 bb 9f 2a 66 bc
       -0.00054402836 -0.01048723 -0.0064792894 -0.014048248
000070 70 49 bf 3c 8f f6 08 bd 18 0f b2 3c 1f 5f 18 3d
       0.023350447 -0.03343826 0.021735713 0.03720009
000080 26 38 87 3d 02 03 95 bc 3a f2 06 3b 9e 2e eb bc
       0.06602506 -0.01818991 0.0020591156 -0.028708752
000090 da a9 dd 3c 35 81 12 bc 8a d4 2d 3c fb 2d 2b bb
       0.02705853 -0.008941938 0.010609755 -0.0026119936
0000a0 66 e5 45 3b 8e 53 1c bc d8 ca d8 3c 88 5c 69 bd
       0.0030196547 -0.009541405 0.026463911 -0.05697301
0000b0 eb 98 79 3c 4d 62 34 3d 54 1f 30 3d ac a0 88 3d
       0.015234212 0.04403906 0.042998627 0.06671271
0000c0 e6 a4 01 bb c7 6a 0d 3c e9 3c 9b bc 96 27 b1 3c
       -0.0019782125 0.008631415 -0.018949943 0.021625321
0000d0 93 7d 6e 3b 66 59 bc bc 0e be 6b bc bf 47 39 bd
       0.0036390766 -0.022991847 -0.014388574 -0.045234438
0000e0 1d 28 9a bc e6 2f 81 3c 88 2a ad 3b 4b e9 fb 3c
       -0.018817956 0.01576991 0.005284611 0.030750891
0000f0 e5 d5 0d bc 1c a7 be 3c c5 61 7d bb 59 f5 27 bb
       -0.008656953 0.023273043 -0.0038663012 -0.0025628416
000100 57 d3 1a 3c 8f d5 96 3d 7b 25 1f bc 67 91 a9 3c
       0.009449801 0.07364952 -0.009713526 0.020699216
000110 77 ef bc bc ad db 1b 3d 92 6a 27 bd 97 53 52 bd
       -0.023063404 0.038051296 -0.040873118 -0.05134925
000120 a6 10 cc bc d2 70 3f 3d 6d 82 57 bc 67 12 87 bc
       -0.024910282 0.046738453 -0.0131536545 -0.016488267
000130 e3 e2 38 bd 7f c8 d6 bc 49 51 73 bd 54 fb d2 ba
       -0.04513825 -0.02621865 -0.05940369 -0.001609663
000140 c0 1f 02 bc e5 77 42 bc 27 4e ff 3c c7 c1 2f 3c
       -0.00794214 -0.011869405 0.031165196 0.010727352
000150 66 08 c8 3c 4f 1d 6e 3c 65 2f c1 3a 0c b8 24 bd
       0.024418067 0.014533355 0.0014738856 -0.040214583
000160 68 8c 18 3d 46 5f d6 bc 47 95 2b 3d cb 21 96 bc
       0.037243277 -0.026168477 0.04189041 -0.01832666
000170 2f 3e 17 39 eb 0d 11 bd 0c 64 88 bc df 19 9e 3c
       0.00014423647 -0.035413664 -0.016649269 0.019299446
000180 d0 14 0f 3d 1c 4f bd ba f5 81 73 bd 20 ca 30 bc
       0.034931958 -0.0014443132 -0.05945011 -0.010790378
000190 d1 80 61 3c d6 6e 71 bb fa 4f 64 bc 87 1c 1b 3d
       0.013763622 -0.0036839745 -0.0139350835 0.037869003
0001a0 1f 41 80 3c f7 31 57 3c a9 de 7c b9 1c 5f 9c 3c
       0.015656052 0.013134471 -0.0002411554 0.01908832
0001b0 67 43 d3 3a ea c1 83 bd 7c c2 92 3c 85 1b ca 3c
       0.001611811 -0.064334705 0.017915003 0.024671325
0001c0 8e 44 b6 bc c8 db 10 bd 6c 5d d9 bc 8d 84 67 3c
       -0.022249486 -0.03536585 -0.026533805 0.014130724
0001d0 e3 09 1f 3d 62 87 00 bc 91 72 a6 bc aa f3 2f 3b
       0.038827788 -0.007844778 -0.020318301 0.0026848116
0001e0 06 a2 0a bc 94 19 20 bd 39 cf e2 bc 33 0e 36 3d
       -0.008461481 -0.039086893 -0.027686702 0.044447135
0001f0 f3 dd 31 bc c2 f8 a0 3c 2c 31 55 3c 4c 31 10 bd
       -0.0108561395 0.019649867 0.013012212 -0.035203263
000200 fc 0c 2a bd 84 eb 9c 3c 5f 62 d9 bc 6a df 4d bc
       -0.04151629 0.019155271 -0.026536165 -0.012565473
000210 f9 da f6 bc ba 18 66 3c eb f3 16 3d 83 b3 df bb
       -0.030133711 0.014043981 0.036853712 -0.0068268194
000220 08 c6 12 bc c6 f6 f2 bc 3f 83 31 3c 28 6d d1 bc
       -0.008958347 -0.029658686 0.010834514 -0.025564745
000230 b4 f4 58 b9 99 c4 ec 3c 42 a2 a8 bc 77 83 4f bc
       -0.00020690524 0.028902339 -0.020585183 -0.012665621
000240 82 b2 99 3c 3b 8f 01 bb 0c 70 30 3d 96 ca b5 bb
       0.018761877 -0.001976921 0.043075606 -0.0055478318
000250 e7 f4 a7 3d af 7a 0e bd 09 9b 6f 3c 96 b5 da 3c
       0.08201008 -0.03478497 0.014624366 0.026697915
000260 ae 3b 2a bc f8 c5 a4 bc 8c 2a 68 3c 86 88 0f bd
       -0.010390205 -0.02011393 0.0141703 -0.03504231
000270 3b 2b c7 bc 43 58 f8 bc af 68 4c 3d 72 7a ad 3c
       -0.024312606 -0.030315524 0.04990452 0.02117655
000280 02 b9 b1 bc d8 46 06 3d 75 77 8d bc 5e 46 25 bc
       -0.021694664 0.032782406 -0.017268876 -0.010087578
000290 cf 65 30 bc 6a 96 33 3d 32 fa 08 bd 24 e1 1a 3c
       -0.010766461 0.043844618 -0.03344173 0.009453092
0002a0 e3 4c 06 3d c2 d6 8e 3d 95 2f d0 bc d3 43 d5 bb
       0.03278817 0.069745556 -0.025413314 -0.0065083294
0002b0 1b 20 0b 3d 88 3e 8f 3c 0a a7 ef 3c 31 f5 68 3b
       0.033966165 0.017485872 0.029254455 0.0035546536
0002c0 3e d5 0b 3d 88 56 d9 bc 9f 4e 2f 3b 83 a9 08 3c
       0.03413891 -0.02653052 0.0026749743 0.008341196
0002d0 23 09 d8 3c 05 85 38 3d 76 66 e0 ba f8 85 d6 3c
       0.026371544 0.045048732 -0.001712038 0.026186928
0002e0 27 bc dc bc cc c8 de bc e3 8b af 3c ac 28 ac 3c
       -0.026945187 -0.027195357 0.021429008 0.021015488
0002f0 04 d4 fc b8 24 72 89 3d 96 d1 68 3c 82 a3 7c 3d
       -0.000120557874 0.06711224 0.014210125 0.06167937
000300 29 23 4a bb 18 58 86 3c ca fb 38 3d 90 dc c2 3c
       -0.003084371 0.016399428 0.045162 0.023786813
000310 5c e3 1f 3c af 95 3f bd 23 12 06 3d 86 df 03 bd
       0.009758797 -0.04677361 0.03273214 -0.03219559
000320 e2 a6 e0 3c 81 66 20 bc 93 7d 1a 3c 70 0e 36 bd
       0.027423326 -0.009790064 0.009429353 -0.044447362
000330 37 33 57 3b c7 1d 94 bc 7b 4c 9a 38 c1 d4 3c b9
       0.0032836923 -0.018080605 7.357538e-05 -0.00018008334
000340 3d 34 e2 bb 99 63 91 3b 37 a2 9e bc 9b c7 0e 3d
       -0.0069032 0.004436922 -0.01936446 0.034858327
000350 0e 98 b7 3c 6d 30 60 3c 4e 3f 43 3d b8 1f 8b bc
       0.022411373 0.013683421 0.047667794 -0.016982898
000360 02 9f 92 3b 57 aa f9 3c d1 ab 01 bd 4f a8 a4 bb
       0.0044745216 0.030476732 -0.031657998 -0.0050249468
000370 25 c7 b1 3c ba 79 18 3d 95 ad 2f bd d6 ff 74 3d
       0.021701405 0.037225462 -0.04289015 0.059814297
000380 3d e8 54 3d 4f c3 db bc bd 9b 59 bd 35 89 0a 3d
       0.051979292 -0.026826529 -0.05312704 0.033822257
000390 f6 3e 2d 3d 62 be b1 3b 3d 4c 44 3d f4 49 0c bd
       0.042296372 0.0054243067 0.04792427 -0.034250215
0003a0 fd f7 a9 bb bb c3 5d bd f2 32 ad 3b 9a 73 58 3d
       -0.005187033 -0.05414174 0.005285614 0.05284462
0003b0 3f c5 ac 3c 5c 15 99 3c 3b 37 ff bc 43 21 94 3b
       0.021090148 0.018686943 -0.031154266 0.0045205667
0003c0 62 4b 4e 3d e9 f2 a1 3c 4d 82 f0 bb 00 b6 1d 3d
       0.05036486 0.019769149 -0.007339752 0.038503647
0003d0 fb 5b 7c 3d bd 44 ae 3c ae 12 37 3d db 70 29 bd
       0.061611157 0.021273011 0.04469555 -0.041367393
0003e0 29 9f 20 3d 30 30 32 bd 78 24 49 bc c1 5a 9b bc
       0.039214287 -0.043502986 -0.012276761 -0.018964173
0003f0 73 a4 f3 3c a2 a2 5f 3c 18 2c c4 3c 8e ac 71 3a
       0.029741501 0.0136496145 0.023946807 0.0009219133

a2c_network.actor_mlp.2.weight f4 [128, 256]
000000 80 c6 a2 bb 44 68 92 3c 19 4a de bd 6c 41 c8 bd
       -0.0049675107 0.017871983 -0.10853977 -0.09778103
000010 c9 de 3d bd 6e cb 9e bd bd d6 b8 bd 70 31 c5 3d
       -0.046355043 -0.07753645 -0.09025333 0.0962857
000020 14 d1 c5 3d 63 b5 08 3d 60 42 88 bd e0 35 f4 bc
       0.09659019 0.03337611 -0.06653285 -0.029810846
000030 92 28 8d 3d 0e f9 93 bc 27 bf 50 bd 39 67 d3 3c
       0.06892504 -0.018063094 -0.050963547 0.025806056
000040 94 7b d5 bd ff 6b cb 3c 91 a8 65 3d e3 47 92 bc
       -0.10423961 0.02483177 0.05606896 -0.017856544
000050 cb aa a0 bc f5 fe 26 be 77 dc 0a be 65 2b 26 3e
       -0.01961269 -0.16308196 -0.13560663 0.16227491
000060 cd 94 17 3b db 9e b6 bd fb 10 93 bd e1 f5 f7 3d
       0.0023129464 -0.08917018 -0.07180973 0.121074446
000070 5f fc dc bd a5 0a 04 be d4 44 8b bd b3 bd 92 bb
       -0.107903235 -0.12894686 -0.06800237 -0.0044781803
000080 dc 1c 1e bd 34 3d 01 3c bf 5f e5 3c 26 b3 0d be
       -0.03860174 0.007888127 0.027999757 -0.13837871
000090 54 db ce 3a 81 11 19 3c 6a 1d e4 3d 89 89 86 bd
       0.0015781918 0.009342552 0.11138423 -0.065692015
0000a0 28 60 d7 bd 78 12 e9 3c c4 41 89 3d 20 79 d1 bc
       -0.10516387 0.02845119 0.06701997 -0.025570452
0000b0 78 6b be 3c 91 14 a0 bd a6 91 9c bc 72 5f 68 bc
       0.023244604 -0.07816423 -0.01911242 -0.014182912
0000c0 2e 0f 3d 3c 4a 65 d4 bd 4f 2c 9c ba 95 b6 06 3d
       0.011539264 -0.10370882 -0.001191506 0.032888968
0000d0 85 09 18 3e 00 3f bd 3c 65 bb f4 bc a4 d3 83 bc
       0.14847381 0.02310133 -0.029874513 -0.016092129
0000e0 c8 46 13 be 85 03 ba bd d6 d3 3c bc 35 2d ec 3c
       -0.1438247 -0.090827025 -0.011525115 0.02883015
0000f0 55 6b 7f 3d b2 60 92 bd 99 08 06 3c 6f 62 66 bd
       0.06235822 -0.071473494 0.008180761 -0.056246217
000100 a1 73 42 be 75 92 fb 3d e0 d9 7f be 04 c8 38 bd
       -0.18989421 0.12283794 -0.24985456 -0.045112625
000110 82 a9 e4 3d 6f 0c 80 3d 75 66 b7 bc db fe 2b 3d
       0.111651435 0.062523715 -0.022387723 0.041991096
000120 0c fc ca 3c a7 e9 ef 3c a5 22 ab 3d 94 f5 ed bd
       0.024778388 0.029286219 0.08356217 -0.11619106
000130 cb 0b 0e 3d 50 7a 6b bd ba db 96 3c cb b4 65 3e
       0.034679215 -0.057489693 0.01841532 0.22432248
000140 59 11 37 bd 42 47 8e 3d e2 fa 4f bd d0 1e ec bd
       -0.04469428 0.06947185 -0.05077637 -0.115293145
000150 c8 62 08 3e 3d 93 d0 3c a7 03 28 be 08 d6 cd 3b
       0.13318932 0.025460834 -0.16407643 0.006281618
000160 85 d5 a6 bd 9a cd a7 bd e6 ed 47 bd 20 72 51 3c
       -0.08146194 -0.08193512 -0.048810862 0.012783557
000170 37 ec 5c 3b d3 59 5c bd 09 44 00 3b 16 74 21 be
       0.003371013 -0.0537966 0.0019571802 -0.1576694
000180 64 de f4 3c 15 be 79 bd 24 a1 3e 3d f1 97 b4 3d
       0.0298912 -0.060972292 0.046540394 0.08818043
000190 dd 8a 99 3a 51 3b a6 bd 81 d6 b6 bd ed d3 1f bd
       0.0011714358 -0.081167825 -0.08927632 -0.039020468
0001a0 af 63 f6 bc 19 5a 40 3e a7 a0 7c 3d 7e a3 81 3c
       -0.03007683 0.1878437 0.061676648 0.01582503
0001b0 ab 28 0f be 53 5b 85 bc 9b 90 fc bd 24 35 19 bd
       -0.13980357 -0.016278898 -0.12332269 -0.037404194
0001c0 5a e1 02 3e 74 50 e9 3c a5 2b f3 bd a7 0a b2 bd
       0.12781277 0.028480746 -0.11873559 -0.08693438
0001d0 34 3e 6a be 1d 16 bb 3d 82 6c 1f bd f9 24 5b bd
       -0.22875291 0.09135077 -0.03892184 -0.053502057
0001e0 e5 e1 a4 bd df 01 de 3c 4f 07 37 3d 72 41 92 bc
       -0.080508985 0.027100502 0.044684704 -0.017853472
0001f0 b4 2c cf 39 6a 63 09 3d 15 06 ab 3c ab 8d 4f 3d
       0.00039515423 0.033542074 0.020876924 0.050672214
000200 12 9f 30 bd ea fd 45 3c 32 a8 82 3d f2 c3 4b bd
       -0.04312045 0.012084464 0.06379737 -0.049747415
000210 36 8d 0d bd a0 8c 64 3b 7c 03 c2 3c 30 2f d8 3d
       -0.034558497 0.0034873858 0.023683302 0.10555875
000220 4c 5c 1e 3d 2a de ce 3c ba 05 b9 bd 53 74 6b bd
       0.03866224 0.02525242 -0.090342954 -0.057483982
000230 09 0d 1a be 1a 30 bd bd 5d 9d 09 3e ac 65 8e bd
       -0.15044035 -0.0923769 0.13438936 -0.06952986
000240 f0 28 1e be a0 3b f0 3c 3c c0 99 bd bc 4d 79 bd
       -0.15445304 0.029325306 -0.07507369 -0.06086515
000250 c5 a3 13 be a8 54 ed 3c d9 c6 f6 3d 40 c4 0a bc
       -0.14417942 0.028971031 0.12049646 -0.008469641
000260 b8 25 51 3e 3c 55 69 bd f4 58 23 be ea 68 40 be
       0.20424545 -0.05696605 -0.15951902 -0.18790022
000270 72 e9 d1 3a 57 41 3e bd 48 c4 c9 bc aa 81 93 bc
       0.0016015007 -0.04644903 -0.024629727 -0.018006165
000280 ab 4b 1f bd 34 13 18 3e 3a b7 81 bc 8c 3d 86 bd
       -0.038890522 0.14851075 -0.01583444 -0.06554708
000290 84 09 c5 bd 1d c0 8b bd d0 3f 28 3e cd 99 b3 3c
       -0.096209556 -0.06823752 0.16430593 0.021923924
0002a0 9c 0b e7 3c 54 78 06 be fb 9e 5c 3c 8a a9 bd 3d
       0.028203778 -0.13131839 0.013465638 0.09260853
0002b0 7f 4b 8e bd 53 f4 17 3d 60 d2 34 be e2 c2 8c bc
       -0.069479935 0.03709824 -0.17658377 -0.017182771
0002c0 84 f2 92 bc bb ce 61 3d 65 87 18 3e f2 9c 45 be
       -0.017937906 0.055128794 0.14895399 -0.19298151
0002d0 68 5d 18 be 28 18 c3 bd 1e a6 c5 3d ce df 0d bd
       -0.14879382 -0.09526092 0.09650825 -0.034637265
0002e0 a8 06 07 be ba c8 19 bd b2 ea 2c bd 0e 44 a1 3d
       -0.13186133 -0.037544943 -0.04221601 0.078743085
0002f0 bf dc 12 bd 09 c0 03 3c cb 1f 3f 3d 0e 53 ed bd
       -0.03585505 0.00804139 0.04666118 -0.11588107
000300 29 89 c4 bd 63 2e d7 bc 4e d3 e6 bb 8c 79 b6 bd
       -0.09596474 -0.026267236 -0.0070442325 -0.08909902
000310 d9 24 6c 3c 2a de bf 3c 70 42 0e be 2a 5e 81 bd
       0.014413082 0.023421366 -0.13892531 -0.063167885
000320 cb 7a 0a 3e 1e 1b 6b bc 84 df 7d bd 94 dd 64 3d
       0.13523404 -0.014349727 -0.06198074 0.055875376
000330 25 b2 94 bd 59 02 5c 3d 42 8a 0d 3c 48 69 14 be
       -0.07260541 0.053713176 0.00863892 -0.14493287
000340 ee c2 2f 3c 39 6d e5 bd 35 f4 e6 3d 2f 61 69 3d
       0.010727627 -0.11202473 0.112770475 0.056977447
000350 ab 33 e0 bd 52 76 af bd d5 3f d1 3b 5e 96 65 bc
       -0.10947355 -0.0856749 0.006385783 -0.014012901
000360 10 1b 19 bd 5d cc c8 39 bf 47 19 bd 04 a7 1a 3e
       -0.037379324 0.00038299235 -0.037421938 0.15102774
000370 9e 00 10 3e 4b f3 be 3b ac 9f 08 be e5 5b 1f bd
       0.14062735 0.0058273426 -0.1334216 -0.038905997
000380 f0 27 98 bd b8 31 34 3e 99 bb 84 bd f1 70 1f bd
       -0.074294925 0.17597091 -0.06481094 -0.03892607
000390 91 e0 c6 3c fd 63 ac bd e8 dc bb 3b 15 a7 92 3c
       0.024277003 -0.08417509 0.005733121 0.017901937
0003a0 eb 6e b0 3d a7 21 68 3d b9 80 6a 3d d7 5e da bc
       0.08614906 0.05667272 0.057251666 -0.026656551
0003b0 8b a7 b2 3d db 0e 0a 3e 6f f7 a0 bd 5c ac df 3c
       0.087233625 0.1348223 -0.07859694 0.027303867
0003c0 db 94 d1 bd 03 d0 6e 3d 93 58 e9 bc ac 0d bf bb
       -0.1023347 0.058303844 -0.028484618 -0.0058304872
0003d0 61 05 b2 bc 6a 4a 0f 3e c2 94 78 bd fd 0e a0 3c
       -0.02173108 0.1399323 -0.06068874 0.019538397
0003e0 18 43 d5 3d 07 a5 a5 bd 19 cf f2 bd cf 62 b1 3d
       0.10413188 -0.08088117 -0.11855907 0.08661424
0003f0 c5 5b 86 bc 45 ab be 3d 47 cc 76 3d 22 69 45 3b
       -0.016401181 0.09310011 0.060253408 0.0030122478

a2c_network.actor_mlp.2.bias f4 [128]
000000 00 e9 b5 bc 3e be 8d 3c 8e 51 e2 bd a3 46 1d 3c
       -0.02220583 0.017302629 -0.110507116 0.009599361
000010 94 6e d4 3b b4 53 bf 3c 55 95 b9 3b 17 33 f2 3c
       0.0064829085 0.023355342 0.0056635537 0.029565377
000020 50 d0 1c bd 22 79 95 3c c7 4e 8c bc 85 3e 22 bd
       -0.0382846 0.018246237 -0.017127408 -0.039610405
000030 e0 ba 86 bd a4 6c 61 bd e8 f2 22 bc b5 87 58 3d
       -0.06578612 -0.05503525 -0.009945609 0.052863795
000040 47 3e 09 bc e4 68 75 bc 94 a0 9a bc 10 86 62 3c
       -0.0083766645 -0.014978621 -0.018875398 0.013825908
000050 54 5b 84 3d e5 54 a6 bd 02 61 26 bd cb 62 92 bd
       0.06462732 -0.08121661 -0.040619858 -0.071477495
000060 65 c7 2b bd 15 56 98 3c f3 8e c6 bc 3f a2 5e 3d
       -0.041938204 0.018595735 -0.024238085 0.05435395
000070 c1 e3 c3 bc 77 e5 39 bd e2 d4 99 3d ad 51 16 bc
       -0.023912312 -0.04538485 0.07511307 -0.009174746
000080 90 ce d6 3c 08 37 e4 bc de a3 fc bc 7e 2b e5 3c
       0.026221544 -0.027858272 -0.030839857 0.02797484
000090 51 ba 7a bd 47 90 1b bd a9 f1 8c 3c 3f b0 61 bd
       -0.06121284 -0.03797939 0.017205076 -0.055099722
0000a0 7b 3e 04 3c 48 1e 3b 3d d2 fb d6 3b a1 e5 2d bc
       0.008071537 0.045683175 0.006560781 -0.01061383
0000b0 a4 9a 3d bd a1 5a 31 3b 10 5d 25 3d 45 ec dd 3c
       -0.046290055 0.0027062076 0.040371954 0.027090201
0000c0 9b f6 90 bc ff 67 1f bd c4 fc 8e bc a9 04 0d 3c
       -0.017695716 -0.038917538 -0.017454512 0.008607068
0000d0 4c bb 1f 3c c3 c2 9a bc 26 8c 77 bd 59 bf 95 bd
       0.009749245 -0.018891698 -0.06043639 -0.07311887
0000e0 c4 a4 e1 bd 39 2c c3 bc a1 ce 0d 3d a1 dc 85 bc
       -0.11017755 -0.023824798 0.034620885 -0.016340556
0000f0 30 b9 a9 3c ed 47 1b bd 8d 22 d4 3c fa ec bf bc
       0.020718187 -0.03791039 0.025895381 -0.023428429
000100 f4 f9 05 bd a2 ab 8a bd 9a 1e a8 3c 1c 4b 38 bc
       -0.032709077 -0.067710176 0.020522404 -0.011248376
000110 91 2b 00 3c a3 ac 17 3c 8d 83 9b bc d9 83 76 bd
       0.007822887 0.009257468 -0.018983627 -0.060184333
000120 63 3d 28 bd 22 25 6e bd 4d 4a 5e bc ce da 2f ba
       -0.041074168 -0.05814088 -0.013567519 -0.00067083247
000130 6d 59 7d bd 6e 88 27 bb 3f fe 5f bd 2b 23 58 bc
       -0.06185286 -0.0025563496 -0.054685827 -0.013191978
000140 74 ad 7f bc f0 81 34 3d 29 88 8e 3b af f6 d3 3c
       -0.015605319 0.04406923 0.0043497276 0.025874464
000150 c9 00 b0 bc 0f 08 de bb 87 4e c0 3c 8c 46 f7 3b
       -0.02148475 -0.006775863 0.023474945 0.0075462516
000160 57 ec 06 bd 9e 53 86 bc 78 0a 07 bd 9a 25 24 3d
       -0.032940235 -0.016397294 -0.03296897 0.040074922
000170 60 8a c8 bb 6e a8 e8 bc 8e c1 22 bd 56 95 2a 3d
       -0.006120011 -0.028400626 -0.03973537 0.041646324
000180 0c 36 d9 bc ed d5 68 bc c3 02 4b bd 5b 8e 8c 3c
       -0.02651503 -0.01421116 -0.04956318 0.017157724
000190 33 f5 f6 bc 79 af 28 bd b2 eb 45 3d 98 fa 38 bd
       -0.030146217 -0.04118297 0.04832048 -0.04516086
0001a0 32 5a 4a bd a1 3a 53 bd e3 21 da bc aa 36 09 bc
       -0.049402423 -0.051569585 -0.026627487 -0.008374849
0001b0 57 74 f2 ba bc 56 a5 bd 7b fd 9b bc 5f 5e 7c bd
       -0.0018497807 -0.08073184 -0.019041767 -0.061613437
0001c0 85 37 5f bd 8e 13 4b bb 45 2d 33 bd 90 ff 3a bd
       -0.054496307 -0.0030986997 -0.043744344 -0.04565388
0001d0 48 05 1d bd 3e ae 73 bd f5 13 00 bd f1 5d 61 bd
       -0.038335115 -0.059492342 -0.031269033 -0.05502123
0001e0 f2 27 06 bd 4f 04 89 bd 93 bb 35 bd c9 d3 b9 bc
       -0.03275294 -0.06690275 -0.044368338 -0.022683995
0001f0 a8 c5 87 3b 53 0e 36 3d b2 54 15 bd 4c 08 ef bd
       0.0041434355 0.044447254 -0.036457725 -0.116715044

a2c_network.actor_mlp.4.weight f4 [128, 128]
000000 5a f7 a1 3d 46 98 78 bd 31 f8 00 bd 05 48 b3 bd
       0.07908507 -0.060692094 -0.031486694 -0.08753971
000010 f4 d8 f1 bd 85 d0 fb bd 26 8d c4 b9 a7 da e8 bd
       -0.11808959 -0.12295631 -0.00037489197 -0.113698296
000020 39 ba 58 3d 73 02 bb bd dc a2 34 3e a5 7d 39 3d
       0.05291197 -0.091313265 0.17640251 0.04528584
000030 39 b1 bf 3d eb 90 15 bd 70 7f 59 3d cb ff c1 bd
       0.093599744 -0.036515158 0.05310005 -0.09472617
000040 92 f6 1a 3d c8 ce da bb e4 53 f6 bb 7d 0d 88 bc
       0.037832804 -0.0066774823 -0.0075173248 -0.016607994
000050 0c 7f 92 3c b8 c5 ec 3d fc 65 8e 3d d3 12 d0 bc
       0.017882846 0.11561149 0.06953046 -0.025399601
000060 c5 76 cc 3d 6d 74 b8 3d 93 e4 2f bd 6b b2 44 3d
       0.09983591 0.090065815 -0.042942595 0.048021715
000070 eb 06 44 bd ab 74 4f 3d 64 7d 32 be d1 35 3b bd
       -0.04785816 0.050648373 -0.17430645 -0.04570562
000080 09 b4 3b 3d 99 36 10 bd 22 7c cd 3d 3e 16 0d be
       0.04582599 -0.03520832 0.10033442 -0.13778016
000090 c2 61 a2 3d f9 3d 2f 3e ad f4 cf bd ea a8 2f 3d
       0.07928802 0.17113484 -0.1015409 0.0428857
0000a0 10 30 09 be cd 4e f3 3c a9 e4 08 bc c4 a2 36 3d
       -0.1339724 0.029700661 -0.008355298 0.04458882
0000b0 41 e4 a5 3d 02 c6 30 3c 08 fe 37 3d 6b fd 67 bd
       0.081001766 0.010789396 0.044919997 -0.056638163
0000c0 12 be be 3d 42 f6 a9 bd af a1 a3 3c 43 b2 35 3b
       0.09313597 -0.08298923 0.019974558 0.002772466
0000d0 09 2b 2d 3d bf 29 1b 3d a7 29 9a bc 67 24 92 bd
       0.04227737 0.03788161 -0.01881869 -0.071358494
0000e0 e6 76 5d 3d a5 74 93 bc 5a c3 fb bd bb e7 62 3b
       0.05406847 -0.017999956 -0.1229312 0.0034622985
0000f0 ce 0c 9a bd a3 db c0 3d 6d db 91 bd 85 42 4d bd
       -0.075219736 0.094168924 -0.0712193 -0.050112266
000100 46 b9 d1 3c 42 02 b2 3d 9d 7c f4 bd 20 50 e7 bd
       0.02560104 0.08691837 -0.119378306 -0.112945795
000110 ed fb 40 bd d2 8b 9a 3c da 9e 19 3e 81 8b 2f bd
       -0.047115255 0.0188655 0.15002003 -0.04285765
000120 98 da 53 3d e7 d8 1e 3e 4b 96 c9 bc 2c 8f 55 be
       0.05172214 0.15512429 -0.024607798 -0.20855397
000130 4e 15 70 3c a9 b3 8d bc 9d 4d cd 3d 86 2e 30 bd
       0.014653517 -0.017297583 0.10024569 -0.04301312
000140 f1 39 97 3c e1 2e df bb 7c 73 88 3e f2 b9 84 3c
       0.018460246 -0.0068110083 0.26650608 0.016201947
000150 84 fe be 3d 7e 71 2b bc d2 8d d7 bd 16 c9 92 bd
       0.09325889 -0.01046407 -0.10525097 -0.0716726
000160 9f dc 8d bd 97 68 fd bd 39 96 3d 3e c5 d8 c6 bd
       -0.06926846 -0.123734646 0.18514337 -0.09709314
000170 f0 a6 a4 bd 54 e2 39 be 17 cd 47 3d f4 7c 0a 3d
       -0.08039653 -0.18152744 0.048779573 0.03381057
000180 4c 84 a7 3d 21 e6 3a 3e 70 7f 41 be 79 f7 16 be
       0.081795305 0.1825185 -0.1889627 -0.14742841
000190 e1 d9 ab bd 5f 05 bb 3b 55 11 b4 3d 32 4e 4d 3e
       -0.083911665 0.0057074274 0.08792368 0.2004936
0001a0 d6 ba 20 3e cf 18 81 3c 3b 6a ab be 05 e7 51 3d
       0.15696272 0.0157589 -0.33479485 0.051245708
0001b0 1e 66 c1 3b ab b6 20 3e 57 a2 42 be 2e 1e 02 be
       0.005902066 0.15694682 -0.1900724 -0.12706825
0001c0 e4 dc bd 3d 51 df 01 3e 82 f1 4e bd 5d 33 a4 bc
       0.09270647 0.12682845 -0.05052329 -0.020044023
0001d0 2f 44 8e 3d 9d 44 32 3e 9c 5d be 3c 2c c7 4a 3c
       0.06946599 0.17408986 0.023237996 0.012376588
0001e0 c4 c0 0e 3c 31 e3 48 bc 36 77 3c bb b5 d1 92 3d
       0.008712951 -0.012261198 -0.0028757579 0.07168905
0001f0 63 44 62 bd a2 85 b3 bc 11 fb b7 3d ef 90 1f 3c
       -0.055241 -0.021914307 0.08983434 0.009739145
000200 23 d2 17 3d b5 45 c5 bd 16 dd 06 bc 37 2e ec bd
       0.037065636 -0.09632436 -0.008231422 -0.11532252
000210 f4 94 a4 bd a4 19 a2 be 94 95 97 3d 55 fd b0 3d
       -0.08036223 -0.31660187 0.07401577 0.08642069
000220 f8 91 66 3c 8d e8 49 bd 41 f2 28 3e c1 f4 01 be
       0.014072888 -0.049294043 0.16498663 -0.12691022
000230 77 7e d5 3a 3c 33 07 be 26 47 06 bd e9 69 4a be
       0.00162883 -0.13203138 -0.032782696 -0.19766964
000240 1b 76 1a 3e 75 96 3e 3c 37 95 5d bd 73 bf 4d bd
       0.15084116 0.011632551 -0.05409738 -0.05023141
000250 05 ff c9 bd 1d 75 db 3c e6 fd 5b bd e8 9f 55 3d
       -0.09863094 0.026789242 -0.053708933 0.05215445
000260 ad 91 af bd bd 72 e2 bd c9 42 ce bd 50 b6 af 3d
       -0.08572707 -0.11057041 -0.10071332 0.08579695
000270 28 dc c6 3d 92 57 fc bd 60 60 a4 3d f9 26 93 be
       0.0970996 -0.1232139 0.080261946 -0.2874067
000280 e1 76 78 be 82 b6 5f 3d 69 68 92 3d 16 56 19 bd
       -0.24264099 0.054617412 0.07148821 -0.037435614
000290 0d fb 82 3d 58 19 8c 3d 99 e3 3a bd 19 27 4e bc
       0.063955404 0.068407714 -0.04562721 -0.012582564
0002a0 ee 44 f7 3c ad 03 2a bb 9e 15 81 bd 16 8b 2c be
       0.030184235 -0.0025942132 -0.06302951 -0.16849932
0002b0 7c 98 81 3d 5b fa 0c 3e 10 48 1a bc dd a9 0e be
       0.06327912 0.13767378 -0.009416595 -0.13931985
0002c0 f6 84 3e 3b 49 db c6 bb 66 62 15 be 75 8d 7a bd
       0.002907095 -0.0060686213 -0.14588317 -0.06117006
0002d0 7f 29 a4 bd 3f ca c5 bd b1 21 0b 3e 59 03 b4 bc
       -0.08015727 -0.09657716 0.13587071 -0.021974253
0002e0 66 cc 40 3d 00 58 58 3c ef 04 22 3e d3 56 07 bd
       0.04706993 0.013204575 0.15822195 -0.033041786
0002f0 2a 65 1b bd 17 7b a8 3b 0c 50 a1 bd 76 88 06 bd
       -0.037938274 0.0051416266 -0.07876596 -0.032844983
000300 48 1f 93 bd 88 4f 9d 3d 16 b2 c5 3d 26 65 4a 3e
       -0.07183701 0.07681185 0.09653108 0.19765148
000310 5f 6b f2 3c 2c a1 e9 3c 18 10 5d 3d 6a 0a 90 3c
       0.029592214 0.028519236 0.053970426 0.01758309
000320 3f c0 c9 3d 9a 32 11 be a2 36 4d 3c a8 13 d3 bc
       0.09851121 -0.14179459 0.0125252325 -0.025766209
000330 72 c2 16 be ac 8b e4 3d b2 9c 3a be 5d 67 a1 3b
       -0.14722613 0.11159453 -0.18223837 0.004925652
000340 b7 1b 29 be f8 94 73 bd 5d 8f 5e be e4 a5 fc bd
       -0.16514479 -0.05946824 -0.21734376 -0.123363286
000350 26 41 ef ba d0 8c 07 3d 3d 8b 70 3c 2b 43 11 be
       -0.0018253669 0.033093274 0.0146816345 -0.14185779
000360 f8 07 ae 3d 68 10 91 bb 42 9f bf 3d 84 57 e3 3d
       0.08497614 -0.0044270046 0.09356548 0.11100677
000370 c1 0b d2 bd 12 08 2d bd 0c 9e 33 bd 83 56 dc 3c
       -0.10256148 -0.042244025 -0.043851897 0.02689672
000380 c7 f3 1d 3e cf 46 83 bd f9 c1 b9 bd b3 03 74 3b
       0.15425025 -0.0640999 -0.090702005 0.003723365
000390 d3 2d 18 be b3 7b 0d be ac f1 25 3d df c9 6f bd
       -0.1486123 -0.13816719 0.04051368 -0.05854213
0003a0 b6 c0 83 be e7 3a c9 3d 0c a7 8d bd 9f 9b 1e bc
       -0.25732964 0.09825688 -0.06916627 -0.009680658
0003b0 77 cf bc bd 42 4b 0d be a5 a0 13 bd 07 bc 14 3b
       -0.09219258 -0.1379824 -0.036041874 0.002269508
0003c0 89 97 9e bb 1f 88 82 bc 44 7f cd 3d dd 36 ad bc
       -0.0048398417 -0.015934048 0.100340396 -0.021144325
0003d0 58 25 3f 3d f4 99 12 3e 5d 0a 28 bd 50 ef f1 bd
       0.046666473 0.14316541 -0.04102551 -0.11813223
0003e0 7b 26 9f bd 00 9a 2f 3c 5f 58 0b be e6 18 b0 3d
       -0.077710114 0.010717869 -0.1360793 0.08598499
0003f0 85 c5 18 be f1 bd bb bc 7b ba 09 be f3 67 92 bd
       -0.14919098 -0.02291772 -0.13450043 -0.07148733

a2c_network.actor_mlp.4.bias f4 [128]
000000 4a 13 a8 bd 19 24 c2 bc c4 49 5e 3d c1 6f 15 be
       -0.08206804 -0.023698853 0.054269567 -0.14593412
000010 cb 12 1f bd d9 31 c2 bd b3 cd 55 bd 4f 70 31 bd
       -0.03883628 -0.09482164 -0.052198123 -0.043319996
000020 40 14 ac bc eb fe db bd 38 5a 82 bd 5d 4d 1e bc
       -0.02100575 -0.10741981 -0.06364864 -0.0096619995
000030 42 9a 04 bd 8a cf d4 bc e6 59 e6 bc c6 ef 48 bd
       -0.032373674 -0.025977869 -0.028119039 -0.04905679
000040 7a 87 3a 3d 4f d7 a4 bc b9 0a 41 bc b6 4a eb bc
       0.045539357 -0.020122198 -0.011782342 -0.028722148
000050 cb 3a 18 bd 45 a7 26 bd a4 fe cb 3c 2d 04 f9 bc
       -0.037165444 -0.040686864 0.024901696 -0.030397499
000060 48 ec 15 3c 90 9b d9 3b 0d 19 f8 bc c9 4d 0d bd
       0.009150572 0.006640859 -0.030285383 -0.03449801
000070 11 51 40 bc 04 20 a2 bd 4e 05 45 bd 4a 8d 83 3c
       -0.011738078 -0.07916263 -0.048100762 0.016058583
000080 16 08 5b bd 3e 48 ea bd 67 d1 a1 bc 37 31 b7 3c
       -0.05347451 -0.1143956 -0.019753171 0.022362335
000090 a4 36 77 bd fb 8a 61 3d 87 1f 10 bd a1 29 05 be
       -0.060354844 0.055064183 -0.035186317 -0.13004161
0000a0 12 6f 70 bc 87 ad 45 3b 3a 74 15 3d 07 c9 d5 3c
       -0.014674919 0.0030163245 0.036487795 0.026096834
0000b0 0b 1a d1 ba 17 6b 67 bd 63 07 54 bd 34 57 94 bb
       -0.0015953196 -0.056498613 -0.051764857 -0.004526997
0000c0 72 2a f3 3c 6f 49 01 ba 24 8d 5b bd 40 c5 62 bd
       0.029683325 -0.0004931902 -0.0536014 -0.055363894
0000d0 56 00 bb bc cf 5d fe 3c 11 28 56 bc 3c f4 b5 3d
       -0.022827309 0.03105059 -0.013071076 0.08884475
0000e0 27 6c 23 3c 1e d3 21 bd 70 f9 7f 3d a9 4c 74 3d
       0.009974516 -0.039507978 0.06249374 0.05964342
0000f0 b4 8d 53 3c 7b 38 68 3d 01 12 8e bc b0 f5 15 3d
       0.012912203 0.05669449 -0.01734257 0.03661126
000100 07 b0 b2 bc fa 54 a9 3d 1e 2e 81 bd fd cc 29 bd
       -0.021812452 0.08268161 -0.06307624 -0.041455258
000110 84 be 80 bc 55 f2 8c 3d 90 2d 0a be 9b d6 31 3d
       -0.015715845 0.06882159 -0.13493943 0.043417554
000120 1d e2 02 3d 43 e9 88 3d f8 6a 6e bd d0 26 24 bc
       0.03195392 0.06685116 -0.058207482 -0.010019019
000130 67 ba 8d 3d fb ec 25 3d df 31 62 bd 36 e6 75 3d
       0.06920319 0.040509205 -0.055223342 0.060034
000140 bd dd a0 bb 0b d7 8e 3c fd e1 26 bd 7f 26 e6 bc
       -0.0049092458 0.017436525 -0.040742863 -0.028094528
000150 7d 2b 44 be 7b fc 3e 3d dd 84 d0 bc 71 6f cb bd
       -0.19157214 0.046627503 -0.02545398 -0.09933365
000160 6f 6a 15 bd 37 f3 b7 bc 3c 7e 84 3c ea 73 32 bd
       -0.036478456 -0.022454841 0.016173474 -0.043567576
000170 ac fd 09 3d 4f d9 46 bd 4e 11 63 3d a6 9e 77 bc
       0.033689186 -0.048547085 0.055436425 -0.015113508
000180 4c e1 6e ba ad e2 01 bd 97 58 04 be 19 0c 73 bd
       -0.00091125513 -0.031710315 -0.1292442 -0.05933771
000190 11 05 19 bd 7f b3 a1 bd 96 d1 4c bd cf 8c 73 3d
       -0.037358347 -0.07895564 -0.050004564 0.059460457
0001a0 58 3d 36 bc d0 d0 c8 ba 78 fa ef bc 96 5c 52 bc
       -0.011123024 -0.001532102 -0.029294237 -0.012839457
0001b0 78 3b 1e bd 5d 22 6c b9 ab 98 ab 3c b2 ad 50 3d
       -0.038630933 -0.00022519515 0.020946821 0.0509469
0001c0 92 82 a3 bc f4 a2 8b bd 74 1c 6c 3c c8 84 17 bc
       -0.019959722 -0.0681819 0.014411081 -0.009247966
0001d0 c9 56 a7 bd d0 93 a4 bd 55 76 0a bd 32 e0 a5 ba
       -0.0817085 -0.080360055 -0.033804256 -0.0012655316
0001e0 b0 32 f8 bd e1 17 66 3d 8b 3d 83 3c ca fd 7a bd
       -0.12119043 0.056175116 0.016020557 -0.06127719
0001f0 f4 25 6a 3d b2 87 1d bd 50 a4 45 bd d1 ad 62 bc
       0.0571651 -0.038459487 -0.048252404 -0.013835386

a2c_network.value.weight f4 [1, 128]
000000 f0 9f f7 3c 55 50 3a be e5 cf 20 bd 47 7d 05 bd
       0.030227631 -0.18194707 -0.039260764 -0.032590177
000010 9f df 44 3c bb 84 6d 3d 6b 48 dc 3c 73 ca e9 3b
       0.012016206 0.05798791 0.02689 0.0071347295
000020 53 80 aa bd 79 90 1d 3d e2 20 2a 3d 5c 79 c2 3b
       -0.08325257 0.038467858 0.041535266 0.0059348773
000030 9b b1 55 bb 82 04 47 bd 65 0a d5 38 54 02 4c bd
       -0.0032607082 -0.048588283 0.000101585676 -0.049806908
000040 df 54 17 3e ec 6c a5 bb e6 5b cd 3b eb 56 ee bb
       0.1477847 -0.005048385 0.0062670587 -0.007273545
000050 55 13 9b bd 8d ea 91 3c 85 93 a1 bc f9 dd 8a be
       -0.07572047 0.017812038 -0.019723663 -0.27122477
000060 7c a8 57 3c 9e 73 c0 bd 58 41 65 be 51 72 45 bd
       0.013162728 -0.09397052 -0.22388208 -0.048204724
000070 31 2b 86 bd 45 c8 f5 bd 69 33 66 3c 24 d1 30 3c
       -0.06551207 -0.12001089 0.014050343 0.0107920505
000080 38 5d 92 3b 3e 72 ba bd 2d ad fb 3b 8e d9 bb 3c
       0.004466679 -0.09103821 0.0076805563 0.022930887
000090 a9 d8 d9 3c 00 91 9a ba cf da 8b bd fa 4a 60 3d
       0.02659257 -0.0011792481 -0.06828844 0.054759003
0000a0 8c 87 b9 bc dc e5 f5 bc 4c b0 38 ba 35 91 9c 3d
       -0.022647642 -0.030016832 -0.0007045313 0.076448835
0000b0 cd 02 89 3b b2 ef 15 3d 3f 4e 50 3c 68 d1 26 bd
       0.004181242 0.036605544 0.012713968 -0.04072705
0000c0 8d 06 a3 3d ae 64 1c bc 4c 63 90 3c 08 8d 47 3c
       0.07960234 -0.009545488 0.017625473 0.012179621
0000d0 40 b0 94 3d d5 c7 00 bc 47 b1 1b bd 9b cb 3a 3d
       0.072601795 -0.007860144 -0.03801086 0.04560433
0000e0 bc 2f d7 38 6f 46 7e 3d 0e 06 6f 3c 5a b6 61 3c
       0.0001026089 0.06207889 0.014588846 0.013776386
0000f0 39 8d 4d 3d f7 13 23 bd d7 2b bd bc d1 38 22 3c
       0.05018351 -0.03981396 -0.023092194 0.009901241
000100 53 84 2d bd c0 cb 1a 3b e5 22 06 bd a4 46 02 bd
       -0.042362522 0.002361998 -0.03274812 -0.03180565
000110 1b 86 06 3e 07 3d ee 3b e6 18 b3 3c 3b 90 6b 3e
       0.13137095 0.0072704586 0.021862458 0.23004238
000120 68 69 81 3d bc f8 04 bd 44 97 c4 bc a3 f1 06 3e
       0.06318933 -0.032463774 -0.02399791 0.13178115
000130 d8 ba 2b bd 6a 0a 0d bc 08 ab b5 3c af a4 25 bd
       -0.041926235 -0.00860844 0.02217628 -0.040440258
000140 ef 20 3f bd bf 7a a7 3c fc b3 81 bc 9d 79 91 bd
       -0.046662267 0.020444272 -0.015832894 -0.07103274
000150 2b af 6b 3c 58 0b 0f 3e 40 2b fe bc 54 16 18 be
       0.014385025 0.13969171 -0.031026483 -0.14852268
000160 67 76 e6 3b b4 ce 86 3c 49 67 a5 3c fc 51 9b 3a
       0.0070331576 0.016455986 0.020190852 0.0011849995
000170 d4 62 3e bd b9 21 98 bb 69 c8 3e 3e b6 7c a7 bb
       -0.04648097 -0.004642692 0.18631138 -0.0051113022
000180 31 a3 10 3d 67 af a0 bd f2 86 9e 3d 7f 76 81 3c
       0.03531188 -0.07845955 0.077405825 0.015803574
000190 a6 62 1d bc 37 73 01 3d 74 69 43 bd d1 3c 8a bc
       -0.009606039 0.031604018 -0.04770799 -0.016874703
0001a0 26 8d f9 3c bc 60 c4 bb 57 10 c6 3d e7 10 35 bd
       0.030462813 -0.005992977 0.09671085 -0.044205572
0001b0 91 19 1e bc f3 33 ac bb 22 45 3a 3d 35 61 f6 bc
       -0.00964965 -0.0052552163 0.045476086 -0.030075649
0001c0 8d 3a 4b bc 99 dc 3e 3d 1a 88 4e 3c fd 51 c7 be
       -0.012404096 0.046597097 0.012605691 -0.3892974
0001d0 67 a4 e2 bb bb 4f 62 bc be dc 19 bd 4f bb 0d bb
       -0.006916571 -0.013812955 -0.03756403 -0.0021626537
0001e0 c0 b9 13 b9 5e 54 b1 39 58 c3 07 3c c9 91 6f bd
       -0.0001408821 0.0003382293 0.00828632 -0.05848864
0001f0 4c f5 e8 3d 99 16 d7 3c 3d 8a b0 3d 65 0a 95 bd
       0.11374912 0.026255893 0.08620117 -0.07277373

a2c_network.mu.weight f4 [10, 128]
000000 c6 28 1a be 57 9b 1d 3d bc 37 41 3e ce 1d 8f 3e
       -0.15054616 0.03847822 0.18868917 0.27952427
000010 28 be 10 3e 57 be 4c 3b 12 38 ed bb fb ea 8b bd
       0.14135039 0.003124138 -0.00723935 -0.06831928
000020 4b 0d 18 3e a5 da 12 be bd 85 f3 bd 17 ca ab bd
       0.14848821 -0.14341219 -0.11890743 -0.08388155
000030 97 df 52 bd ad 98 06 bd ec 20 6e bc e7 55 08 bc
       -0.051482763 -0.032860447 -0.014534216 -0.008321262
000040 7e 86 a2 3c 11 f6 87 bd e3 d2 ad 3c 70 36 0e 3e
       0.019839521 -0.0663873 0.021218723 0.13887954
000050 ba d4 0e bd 94 dc 0d 3e 66 71 3a 3d d2 26 35 3c
       -0.03487084 0.13853675 0.0455183 0.011056619
000060 68 ee d2 3d df 7c a9 3d 13 b9 ee bc 74 a7 3e 3e
       0.10299379 0.082757704 -0.029140985 0.18618566
000070 c6 1b 84 be ac 12 d5 bd 73 23 e2 3d 89 86 0f 3d
       -0.2580244 -0.10403952 0.11041918 0.035040412
000080 c9 55 24 3d 2d 20 a5 bd 48 8d 04 be 7d 03 e9 bd
       0.040120874 -0.08062778 -0.1294452 -0.113776185
000090 e2 96 8e 3d f4 59 6c 3d a4 dd 41 3d 54 c5 07 3c
       0.06962372 0.057702973 0.047330514 0.008286793
0000a0 3e ed 87 3d c3 b1 69 bd c6 26 f2 bd 82 93 59 3e
       0.06637047 -0.057054292 -0.11823802 0.21247676
0000b0 d6 bc 46 3d 42 d3 f4 3d 01 b2 91 b9 a3 6d b9 bb
       0.04851993 0.11954357 -0.00027789178 -0.0056588217
0000c0 a9 9b d1 bd 27 20 f8 bd dd b2 7f be 71 22 43 be
       -0.10234768 -0.121155076 -0.24970575 -0.19056107
0000d0 e6 8c 71 be 9e 54 18 3d 33 f9 38 be 21 24 43 bd
       -0.23588905 0.037190072 -0.18063812 -0.047641877
0000e0 6d 77 2a 3d e9 10 0e 3e 0f c6 c5 bd 96 2c 3b 3d
       0.0416178 0.13873638 -0.09656917 0.045696817
0000f0 e0 2c 4d bd ca fc 15 3e 75 df a5 bd 5a df 57 3d
       -0.050091624 0.14647213 -0.08099262 0.05270324
000100 89 5d 74 bc 4a 90 45 3e 79 ed c9 3d d0 7f c0 bd
       -0.014914879 0.19293323 0.098597474 -0.09399378
000110 cd 7f 56 be 7c 17 a9 3d 44 8d 3f 3c 80 b9 1e 3d
       -0.2094719 0.082564324 0.011691395 0.038751125
000120 0d a8 b5 3d 3f 45 ca 3d ff 14 eb bd 9b 79 27 3d
       0.08869944 0.09876489 -0.11478614 0.040887456
000130 cc 04 60 be 9b ed ef bc b3 a7 74 3d f2 ef 8e 3d
       -0.2187683 -0.029288104 0.059730243 0.0697936
000140 eb 6f 1e 3e 81 96 01 3e 54 b0 cc bc e9 14 77 3d
       0.15472381 0.12655069 -0.024986424 0.060322676
000150 20 bd 68 3d 7a fc 90 3a dc 07 61 bd de 2c a8 37
       0.05682099 0.0011061572 -0.054939136 2.0048054e-05
000160 2f 56 b5 3b 37 62 88 bc 5d 95 8c 3c e2 ce 94 3d
       0.0055339555 -0.016648395 0.017161066 0.07266022
000170 11 4a 8e bc bd eb eb bd 24 df 1d 3d e3 c0 3c 3d
       -0.017369302 -0.11519573 0.03854288 0.04608239
000180 1f bf 09 3e 84 9a 49 be ae e7 b5 bd b7 98 e8 bd
       0.13451813 -0.1968785 -0.0888208 -0.11357253
000190 a9 92 52 3e 22 ee bb 3c 53 56 8b bd 67 83 14 3e
       0.20563759 0.022940699 -0.068035744 0.14503251
0001a0 ff 37 24 be da fa 4c 3e dc f3 ea 3c db 18 b7 bd
       -0.16036986 0.20017567 0.028680734 -0.08940288
0001b0 fc 61 93 3e 6c b7 0f 3e b8 2c e4 bc 52 20 1f 3b
       0.28785694 0.14034814 -0.027853355 0.002428074
0001c0 0e 43 1d be 14 94 7f bd 27 7b 9d bc 0b 04 03 3e
       -0.1535761 -0.062397078 -0.019223763 0.12794511
0001d0 f1 13 78 bd 75 c6 65 bb 30 e4 bc bd 23 ac d8 3c
       -0.060565893 -0.0035060917 -0.09223211 0.026449269
0001e0 cb 2d 5c 3e 45 45 48 bd fe ea 74 bc 9c 77 99 3d
       0.21501844 -0.048894186 -0.014948605 0.07493517
0001f0 d4 85 6d 3d 30 6d 65 bd 88 be 83 3d d4 bb 76 bd
       0.057988957 -0.056012332 0.06432825 -0.06023772
000200 70 25 01 3b 16 a4 0e be 17 03 e5 3c 2e 7f cc bc
       0.0019706152 -0.13929781 0.027955575 -0.024962988
000210 97 e3 f8 bd 86 d0 f8 3c dc 19 a5 3c 65 32 14 bc
       -0.12152784 0.03037287 0.020153932 -0.009045218
000220 50 52 16 be 29 05 5d bd 39 e5 e1 bc d5 60 14 bd
       -0.14679837 -0.05396 -0.027575122 -0.03622516
000230 49 14 11 ba da 62 96 3d 74 a3 90 be ef 7c 85 bd
       -0.0005534334 0.07343073 -0.28249705 -0.0651797
000240 31 bf 5b 3b 3d 22 ce bd ff 5c 00 be f9 8c ae 3d
       0.0033530707 -0.10065124 -0.12535475 0.08522982
000250 6f 62 7c 3d 01 41 0c 3d 41 f2 43 bd d3 4b f0 bc
       0.06161731 0.03424168 -0.047838453 -0.02933303
000260 38 b9 27 3d ae 96 81 bb e3 ea ba 3d 58 e1 7f bb
       0.040948123 -0.00395473 0.09126832 -0.0039044227
000270 49 25 0d be 36 b8 ba bd 63 02 75 3d 8e 1e 9a bc
       -0.13783754 -0.09117167 0.05981673 -0.018813398
000280 c9 82 94 3d bc 56 c3 3c 58 b4 bf 3c f2 d9 17 3e
       0.07251508 0.02384507 0.023401424 0.14829233
000290 41 ed a5 bd 47 67 43 3c 6f 8c 03 3e a7 ac 17 bd
       -0.08101893 0.011926479 0.1284654 -0.03702989
0002a0 17 70 93 3d 77 72 5e 3e 05 3b 6f 3d 35 4c ab 3c
       0.07199114 0.21723352 0.058405895 0.020910362
0002b0 fb af dc 3c b8 ec 47 bb e7 aa 9b bc 19 88 f6 bd
       0.026939383 -0.0030506086 -0.019002391 -0.12037677
0002c0 40 48 b8 bd 95 58 af 3d 9a 95 a6 bd f4 5c ea 3c
       -0.089981556 0.085618176 -0.08134003 0.028608777
0002d0 ea b9 2f 3b 04 8b 41 bd 46 f2 1d 3b 92 80 db bc
       0.0026813694 -0.047251716 0.0024100705 -0.026794706
0002e0 d1 de 0e 3c d9 82 1b be 7c ad 1c 3d 11 21 20 3e
       0.008720116 -0.15186633 0.038251385 0.15637614
0002f0 fb 93 26 3d 79 d0 06 3d ba d2 e0 bc 9e 3d a0 3c
       0.04066847 0.03291366 -0.027444232 0.019560631
000300 c4 a1 d1 3d 9a 7b 2b 3e 93 7a a3 bd ab 18 77 bc
       0.102359325 0.16746369 -0.079823636 -0.015081565
000310 e4 a6 b5 bd de 01 0d 3d 0b 95 91 bd e3 df a5 bc
       -0.088697225 0.03442561 -0.07108506 -0.02024836
000320 8c a0 7b 3d 07 81 0c 3d 33 c2 72 bb 18 ac 94 3d
       0.061432406 0.034302738 -0.0037042021 0.07259387
000330 fc 83 29 3d 67 bd 88 3d 67 6b e0 bd 7c b0 f5 3d
       0.041385636 0.06676751 -0.10957985 0.11996552
000340 6a 0f 1c 3d 93 5a df 3c 51 24 85 3d ba c9 c8 bd
       0.038100637 0.027264869 0.065010674 -0.09804101
000350 cc d1 17 bd fa 41 d8 3d 89 71 08 be 23 89 b0 bd
       -0.037065312 0.10559459 -0.1332456 -0.08619907
000360 87 91 b0 bd 2c 75 a1 3d ac 7e 12 be 42 c7 63 3b
       -0.08621507 0.07883677 -0.14306134 0.0034756218
000370 1c 27 43 bd 9e 12 2b bd 73 f4 ae 3c b6 6c b9 3d
       -0.04764472 -0.0417658 0.021356797 0.09053938
000380 bf 61 b6 bc c5 fb 68 bc 23 3a bc bc 44 2e 16 be
       -0.022263406 -0.014220183 -0.02297694 -0.14666086
000390 f3 f2 c9 3d 4c cb 59 3d 47 5e 21 be 4b 39 4f 3e
       0.09860792 0.053172395 -0.1575862 0.202367
0003a0 9b 00 9c 3b 4e ab b4 3d 5a fc 5e bd f1 04 7a bd
       0.0047608144 0.08821736 -0.05443988 -0.06103987
0003b0 79 79 b9 bd 47 5a 78 3d d0 a3 c9 3b 75 b9 cc bd
       -0.09056372 0.06063297 0.006153561 -0.099963106
0003c0 33 03 08 bd 9b 73 bb bd 45 9d be bd c9 a6 c6 bd
       -0.033206176 -0.09152909 -0.093073405 -0.096997805
0003d0 3d a0 04 3d 1e 39 1b bd 87 d1 11 bc fd 3a 0c 3d
       0.032379378 -0.037896268 -0.008900053 0.034235943
0003e0 97 19 23 3e 01 0b a3 bd f6 ce b4 3c 8b 35 3b be
       0.1592773 -0.07961083 0.022071343 -0.18282144
0003f0 9d 56 9c ba 7c ca 08 be 50 d0 20 bd 4d 59 8b 3d
       -0.0011927668 -0.13358492 -0.039261162 0.06804142

a2c_network.mu.bias f4 [10]
000000 e1 2d b3 3d 8e 77 f3 3d d2 4a 9c 3d f8 cd 0d 3e
       0.08748985 0.118880376 0.07631458 0.13848102
000010 c7 f2 9e bc 43 82 d8 bc fe 03 93 bc 14 eb 97 3a
       -0.019402875 -0.026429301 -0.01794624 0.0011590444
000020 5e 1b 61 3d 45 52 15 bd
       0.05495774 -0.03645541

exp_avg f4 [10]
000000 4a 77 8d ba 96 34 0a ba e4 cc 98 39 7a d1 1f 39
       -0.0010792997 -0.0005272118 0.00029144355 0.00015241458
000010 f1 6a f0 39 cf 84 32 ba 19 5e b4 b9 88 81 84 36
       0.00045856045 -0.0006809951 -0.00034402384 3.948986e-06
000020 09 e3 1f b9 90 8f d6 b9
       -0.00015247999 -0.00040924223

exp_avg_sq f4 [10]
000000 df 9e 84 36 b2 82 72 36 1c 94 56 36 41 4e 60 36
       3.9524016e-06 3.6136885e-06 3.1974696e-06 3.342415e-06
000010 b5 95 81 36 93 49 59 36 8b 50 56 36 e1 82 61 36
       3.861928e-06 3.2378346e-06 3.1935367e-06 3.3603794e-06
000020 3b 42 86 36 4a 20 71 36
       4.0012214e-06 3.5930593e-06
