logs/rl_games/humanoid_flat_direct/2025-11-18_21-58-12/nn/last_humanoid_flat_direct_ep_750_rew_402.07672.pth (torch, 759502 bytes, 33 tensors)

value_mean_std.running_mean f8 [1]
000000 86 8f 3e ff 54 77 55 40
       85.8645628081268

value_mean_std.running_var f8 [1]
000000 ca 69 57 33 e0 4e a1 40
       2215.4378917042386

value_mean_std.count f8 []
000000 00 00 00 01 00 94 b1 41
       294912001.0

a2c_network.sigma f4 [10]
000000 24 51 94 bf f8 e6 9a bf e7 21 8d bf 64 93 04 be
       -1.1587262 -1.2101736 -1.1025971 -0.1294685
000010 a3 0b b9 bf 1f 85 89 bf 12 a8 e7 bf 74 03 d1 bf
       -1.4456676 -1.074375 -1.8098166 -1.6329179
000020 5a a4 8f bd c1 8c 9a be
       -0.070137694 -0.30185512

a2c_network.actor_mlp.0.weight f4 [256, 42]
000000 61 97 0a 3d 32 27 ba 3e d7 ff 73 3e 5b a3 3a bd
       0.033835772 0.3635803 0.23828064 -0.045565944
000010 8c f1 3a 3d fe d4 90 3d 81 6a 14 3e 35 72 53 be
       0.045640513 0.07071875 0.14493753 -0.20649035
000020 36 03 a7 be 2f 0e 55 bd 22 d8 24 be 1a e2 b4 3d
       -0.32619637 -0.05201548 -0.16098073 0.08832188
000030 99 7f 0f be 15 c9 8f bd 61 cf ce 3d ef 70 cc 3c
       -0.14013518 -0.07020775 0.10098148 0.024956195
000040 f6 73 1f 3e 4e 66 a2 bd 53 90 6d 3c a5 52 c2 bd
       0.1557158 -0.07929669 0.014499742 -0.094884194
000050 43 4b cc 3d ce c1 fc bd e0 c0 c8 be ff 77 52 be
       0.099752925 -0.12341653 -0.39209652 -0.20553587
000060 19 67 08 3e e0 75 92 3d 4f 54 0c be 93 67 59 bd
       0.13320579 0.07151389 -0.13704036 -0.05307729
000070 10 91 16 3e 2b 3b 56 3e ee 6a 62 3e cf c2 27 be
       0.14703774 0.20921008 0.22111103 -0.16382907
000080 f1 17 1d be 47 34 d7 bd 0c a7 5e bd c8 05 4e 3d
       -0.15341164 -0.10508018 -0.054358527 0.050298482
000090 c9 8d 16 3d e0 5c e0 3d 4d 6b 06 be e0 f2 da bd
       0.03675631 0.109552145 -0.1312687 -0.10690856
0000a0 05 44 67 3d c6 0d fa bc 08 68 d5 3d c1 ce 0f 3e
       0.056461353 -0.030524146 0.10420233 0.14043714
0000b0 6d 11 76 3e 24 84 d2 bd 44 bd 4d be c3 62 a8 3e
       0.24030085 -0.1027911 -0.2009173 0.3288785
0000c0 8c c4 4d 3e 49 8e 1e 3d 3c 10 b1 bd b8 7b 79 3d
       0.20094508 0.038709912 -0.086456746 0.060909003
0000d0 77 e3 e3 bd 0a 3b a2 bd cf b3 87 3e d1 22 29 bc
       -0.1112737 -0.07921417 0.2650437 -0.010323242
0000e0 1a 24 2d 3d 8f 87 47 be 44 be 08 3c 55 ea e3 3d
       0.042270757 -0.19485305 0.008346144 0.1112868
0000f0 e2 94 ea bc 52 d7 03 be 0c c8 08 3e 38 3b fc 3b
       -0.028635446 -0.12875107 0.13357562 0.007697489
000100 da 9b 9f bd 37 e6 e4 bd b0 d1 c7 be 4c 21 42 be
       -0.07793398 -0.111767225 -0.39027166 -0.18958014
000110 17 2e 3c 3d b5 64 79 3d 0c 50 52 3d 51 25 a3 be
       0.045942392 0.060887057 0.05134587 -0.31864408
000120 1d 7b 26 bd 27 c1 ea 3d ed 3f 20 bb cf 82 1c be
       -0.040644754 0.11462622 -0.0024452165 -0.15284275
000130 f4 17 35 bd 80 55 39 bd 29 07 44 3d a7 8e 49 bd
       -0.044212297 -0.045247555 0.04785839 -0.04920831
000140 b8 fa 60 3d a4 8f 00 be 2c 10 28 bd 28 d2 00 bd
       0.054926604 -0.12554795 -0.041031048 -0.03145042
000150 41 ad 91 bd ab 90 1d be 05 c4 94 3e 60 45 bf 3d
       -0.07113124 -0.15387218 0.290558 0.09339404
000160 84 68 e2 3c b0 00 41 3d 88 c6 21 be 88 cb e2 3d
       0.027637728 0.047119796 -0.1579839 0.11073977
000170 58 b2 1a be 0d 57 78 bd 6e ca 15 be 89 23 2d be
       -0.15107095 -0.060629893 -0.14628002 -0.16908087
000180 dc 45 82 3c da ca 51 be 5b 0c d8 3d 9a de 0a be
       0.015902452 -0.20487538 0.105492316 -0.13561478
000190 4b b7 20 3e 9e 11 83 bd 65 64 8b bd 71 75 35 bc
       0.1569492 -0.063998446 -0.06806258 -0.0110753635
0001a0 17 e4 fe 3d a4 12 49 3e 97 99 0f 3e e5 ef 52 be
       0.124458484 0.19636017 0.14023434 -0.20599325
0001b0 23 95 b3 3c 26 58 1e be 8e bc dd bd ae 26 1a be
       0.0219217 -0.15463313 -0.108269796 -0.15053818
0001c0 6d f9 a6 3d 0c 82 13 be 89 58 cd 3d 54 e2 a2 3d
       0.08153043 -0.14405078 0.10026652 0.07953325
0001d0 ca e0 06 3c 6f a8 15 be 6c 88 f6 3d c1 f1 31 3d
       0.008232305 -0.14615034 0.12037739 0.043443445
0001e0 e7 ef a6 3d 43 c3 e1 bd 7f 6f b0 3d a6 82 c1 3c
       0.081512265 -0.11023571 0.08615016 0.023621868
0001f0 d8 dd 8b bd bc c4 1a 3e e6 e0 bf 3c 6d 82 1c bd
       -0.06829423 0.1511411 0.02342267 -0.03821032
000200 cd f8 56 bd 59 54 b6 3d 75 df 98 3d 3e 62 f6 bd
       -0.05248337 0.08902807 0.07464496 -0.12030457
000210 96 ad ee bd b1 ae 7c be f1 05 10 be db a4 93 3d
       -0.11654203 -0.24676014 -0.14064766 0.07209178
000220 77 56 dd 3d 10 f1 20 be 63 3c 4f 3d e1 9b 8d 3d
       0.108075075 -0.15716958 0.0505947 0.06914497
000230 10 bd 02 bb 2f ab 4d bd dc ef 88 3d 05 0f 21 3e
       -0.0019949116 -0.05021208 0.066863745 0.15728386
000240 02 4c e3 3d 76 a5 57 bd 41 a6 45 be 89 f0 d8 3d
       0.11098482 -0.05264803 -0.19301702 0.105927534
000250 f9 e3 14 3e cf 57 ac bd 88 a6 88 3e 18 9d 9f 3e
       0.1454009 -0.08415186 0.26689553 0.3117454
000260 75 aa c5 3d dd b8 e4 bc 2f 7d 48 3e 88 45 00 bd
       0.09651653 -0.027920181 0.19579004 -0.03131631
000270 d8 fb d8 bb e8 be a0 bd f7 ee 3c be e1 41 c3 bd
       -0.006621819 -0.078489125 -0.18450533 -0.0953405
000280 db 0c 0b 3e 1a cb 55 3d de ff c8 bb bb 94 9d bd
       0.13579123 0.052195646 -0.0061340174 -0.07694384
000290 1f f9 b6 bd e7 53 a6 bd af 22 09 bd 38 cf 42 3d
       -0.08934235 -0.08121472 -0.033480342 0.0475609
0002a0 a2 e8 0b 3e 20 66 96 3e 57 3f 9e 3b 5a 0b 5c 3d
       0.13662961 0.2937479 0.004829328 0.053721763
0002b0 ae 7f ce 3c d4 7f 93 3e b2 7f b5 3d cd 5f b8 bd
       0.025207367 0.28808463 0.088622466 -0.090026475
0002c0 0e b1 4e 3d 4c 86 bd bd db d2 81 bd 74 97 19 3e
       0.05046182 -0.09254131 -0.063390456 0.14999181
0002d0 3b 5e 34 bb 7b 99 1f 3d 9a ed 03 be 5f 37 ae 3d
       -0.0027521986 0.03896473 -0.12883607 0.08506655
0002e0 eb 07 08 3e 63 1b fa 3c 2d 46 c2 bd 75 64 45 be
       0.1328427 0.030530637 -0.09486041 -0.19276603
0002f0 6f 75 92 bd aa 50 47 3e dc 3a bc 3e 48 52 3a 3e
       -0.07151305 0.19464365 0.36763656 0.1819545
000300 5f f0 9a 3e b0 af 87 bc b6 5d 30 bd 74 56 7f be
       0.30261514 -0.016563267 -0.04305812 -0.24935323
000310 c9 ad 97 be 24 2c d7 be d6 b8 14 3e 95 34 bb bd
       -0.29624775 -0.42025864 0.14523634 -0.091408886
000320 1a 86 fa bc 9d 5c 99 bd 95 16 04 bb b0 95 9d bd
       -0.030581523 -0.07488368 -0.0020155062 -0.07694566
000330 81 13 a7 bd 4c 39 17 bc 4f 7e 54 bd 46 d6 c5 3d
       -0.08158017 -0.009229969 -0.05187827 0.0966001
000340 dc 17 15 3c 7e b6 84 bd 97 00 e4 bc 80 d8 15 3c
       0.009099927 -0.0648012 -0.027832313 0.009145856
000350 58 4b b7 bd 99 94 df bd fd 48 1b 3e 40 fe 71 bd
       -0.089499176 -0.10917015 0.15164562 -0.059080362
000360 0a cd 31 3e 9f a9 07 3d a7 70 de 3d 1b 09 f0 bd
       0.17363372 0.033120748 0.108613305 -0.11720487
000370 75 70 e5 3d 82 6a 98 bd fb b6 2c 3e 3f 6b 54 3e
       0.1120309 -0.0744219 0.16866677 0.20744036
000380 05 1b 1d bc d1 3b d2 bb e9 89 d6 3c 19 c3 c5 bd
       -0.0095889615 -0.006415822 0.026188808 -0.096563525
000390 45 cc 81 3d 53 c7 7e be 66 21 cf 3d f4 0a 7f 3e
       0.063377894 -0.24880724 0.10113792 0.24906522
0003a0 a3 47 cb 3e b7 29 de bd cf 9f 43 bd 6a d2 92 bd
       0.39703092 -0.108478 -0.047759827 -0.071690395
0003b0 70 b1 b1 b9 bf 19 5f be a0 10 b2 bc 97 3c 76 be
       -0.00033892272 -0.21787165 -0.021736443 -0.2404655
0003c0 45 a6 86 3d 3c 76 d3 bd e5 b9 b3 bd 41 69 b4 bd
       0.06574682 -0.10325286 -0.08775691 -0.08809138
0003d0 dc 7a 0d be 42 05 17 3e 7c 5f eb 3d 3c 75 6e 3c
       -0.13816398 0.147481 0.114928216 0.014554318
0003e0 ea 96 51 bc e1 25 7b bc 26 4d 9f bd 44 74 95 bd
       -0.012792328 -0.015328855 -0.07778387 -0.072975665
0003f0 84 2d 80 3d 99 79 7c bd ff f2 13 3c 02 d6 a5 3d
       0.062586814 -0.061639402 0.009030103 0.080974594

a2c_network.actor_mlp.0.bias f4 [256]
000000 d9 b0 db bc 3b f4 1b 3d 70 d8 c2 bb 79 66 71 bc
       -0.026817726 0.038074713 -0.0059462115 -0.014733904
000010 f5 5a f9 3c 13 fd 0f 3c f8 a0 82 3c a1 11 6c bc
       0.03043888 0.008788365 0.015945897 -0.0144085
000020 70 42 7e bc 3e 88 4f 3d cb 46 d9 3c a1 69 83 3b
       -0.01551877 0.05066704 0.026523015 0.0040103947
000030 66 4e 58 3c 38 55 3d bb 39 08 dc 3c 5f f9 09 bb
       0.013202285 -0.0028889906 0.02685939 -0.0021053178
000040 76 31 69 3c 23 a8 08 3c 26 bb f7 bc ed d4 05 3d
       0.014232984 0.008340868 -0.030240607 0.032673765
000050 54 d1 24 bd e1 8e 96 bc 48 f8 80 3b 35 4c fa 3c
       -0.040238693 -0.018378677 0.0039358474 0.030553916
000060 ed d5 df bb 69 a3 33 bc ab 05 8a bc 72 fb 85 bc
       -0.006830922 -0.010964253 -0.016848406 -0.01635525
000070 bd f1 c0 3c 4f f1 06 bd af 9a 95 3c ea 2f f5 3c
       0.02355277 -0.032944974 0.018262235 0.029930074
000080 3f 9f 69 3d 25 1e 40 bc a9 de b4 b9 9c 08 f8 bc
       0.057036635 -0.011725937 -0.0003449817 -0.030277543
000090 c3 ca b6 3c 62 2d 04 bc 6a bc 9c 3b bb 29 b4 bb
       0.022313481 -0.008067461 0.004783203 -0.0054981387
0000a0 b6 45 0b bc c1 c5 10 bc 97 bb d6 3c f0 b0 61 bd
       -0.008500507 -0.008836211 0.026212497 -0.05510038
0000b0 f8 4e 35 3c 5b 9b 0f 3d 26 1a 2b 3d 33 2e 73 3d
       0.011066191 0.035060268 0.041772984 0.05937023
0000c0 94 26 14 bc 82 10 01 bb c5 66 ad bc 8b f2 ab 3c
       -0.009042401 -0.0019693677 -0.021167168 0.020989677
0000d0 a0 86 b6 ba 23 a2 d2 bc 7e d7 8e bc 89 1d 45 bd
       -0.001392562 -0.025712078 -0.017436739 -0.04812387
0000e0 98 d1 72 bc b3 f7 e6 3b b1 4a 85 3b a0 48 b8 3c
       -0.014820479 0.007048571 0.004067742 0.022495568
0000f0 65 9d be bc 43 36 53 3b 5d 69 f9 bb ad b4 c5 b9
       -0.023268411 0.0032228387 -0.0076114372 -0.00037709382
000100 0a 90 68 3b 72 e1 96 3d 72 a9 7c bc 98 94 c5 3c
       0.0035486245 0.07367219 -0.015421258 0.024118707
000110 e8 1a cb bc 0b 2c 43 3d ac 9e e6 bc 7d 85 41 bd
       -0.024793103 0.047649425 -0.028151833 -0.047246445
000120 73 aa ed bc a6 bd 2e 3d 65 99 8d bc bd 9b 6a bc
       -0.02901194 0.04266133 -0.017285058 -0.014319357
000130 b5 21 20 bd 9e 09 0e bd 48 9d 66 bd 52 75 42 ba
       -0.039094646 -0.03467714 -0.05630234 -0.0007417995
000140 eb 25 22 bc bf 58 c9 bb 23 8c 8a 3c ec ff 86 3b
       -0.009896736 -0.0061446126 0.016912526 0.0041198637
000150 f9 7b e5 3c 3a 0c 84 3c 8d 3f f2 3b 60 2c 14 bd
       0.028013216 0.016119111 0.0073928297 -0.03617513
000160 a7 68 f6 3c 3a 99 be bc 70 41 25 3d 0b 4e 68 bc
       0.030079199 -0.023266423 0.04034561 -0.014178763
000170 86 19 20 ba 90 5c e1 bc c3 61 71 bc bd 24 74 3c
       -0.0006107319 -0.027509958 -0.014732781 0.014901337
000180 37 33 0e 3d cb 17 7a bc f0 b5 88 bd 7c 18 d8 bb
       0.03471681 -0.015264462 -0.06675327 -0.0065947156
000190 91 8a 82 3b 0e 87 6c bc eb 1b dd bb 35 c6 19 3d
       0.0039838036 -0.014436496 -0.006747713 0.03754254
0001a0 e4 c4 81 3c ed 3b 50 3c f5 d4 00 3b 79 44 23 3c
       0.015840955 0.0127096 0.0019658182 0.009965056
0001b0 1c 32 13 bb a2 8e 76 bd f4 ef 82 3c 35 97 84 3c
       -0.0022460287 -0.06019462 0.01598356 0.016185382
0001c0 14 f9 c4 bc 0f 54 30 bd 10 ae 27 bd e5 18 4a 3c
       -0.024044551 -0.043048915 -0.040937483 0.012335037
0001d0 42 7a fd 3c ab 0a 6d bb 85 02 6f bc 4a 30 88 bb
       0.030942086 -0.0036169689 -0.014588003 -0.004156147
0001e0 a9 71 b1 bc 98 b8 2f bd 0b bf d1 bc a0 1f 04 3d
       -0.021660643 -0.04290065 -0.025603792 0.032256722
0001f0 36 b2 df bb 17 ea 50 3c de 95 18 3c 9c 3b 1c bd
       -0.0068266643 0.012751124 0.009313075 -0.038142785
000200 3b 81 12 bd a6 ea 73 3c 95 29 cd bc 7c 30 4e bc
       -0.035767775 0.0148874875 -0.025044242 -0.012584802
000210 e5 03 cd bc 34 a1 82 3c d0 5c 2e 3d f7 11 2e bc
       -0.025026271 0.015946008 0.04256898 -0.0106244
000220 17 fb 1c bc 8b 5e 0b bd 3b 54 9f 39 c5 8c d5 bc
       -0.009581349 -0.03402571 0.000303896 -0.0260681
000230 63 b5 8d 3a 00 17 e5 3c 61 ca b6 bc 8a d2 d9 bc
       0.0010811504 0.027965069 -0.022313299 -0.02658965
000240 70 79 5f 3c 11 21 78 b9 96 8d 2b 3d ae 84 b6 ba
       0.013639793 -0.00023663441 0.041883074 -0.001392504
000250 49 90 82 3d 21 51 04 bd c5 0a 93 3c 58 f2 c9 3c
       0.063751765 -0.032303933 0.017949471 0.024651691
000260 d0 25 7e 3b 0b 1e cb bc e2 ef 86 3c 71 31 21 bd
       0.0038779862 -0.024794599 0.016471807 -0.03935379
000270 42 68 bf bc 08 40 0a bd a6 e0 52 3d 66 6f 8a 3b
       -0.023365144 -0.03375247 0.051483773 0.0042247055
000280 47 8d 95 bc 65 9d 12 3d c9 ad ac bc 77 8d 9a bc
       -0.018255843 0.035794634 -0.021078961 -0.018866284
000290 13 79 67 bc d5 81 13 3d 93 1a 06 bd 97 a3 17 3c
       -0.014127987 0.03601249 -0.032740187 0.009255311
0002a0 cd 87 fb 3c c5 39 66 3d 4d 17 e2 bc 8f 80 f4 bb
       0.030704403 0.056207437 -0.027599001 -0.0074616144
0002b0 51 a7 c1 3c 6d bc 8f 3c d1 22 73 3c 2d 83 a8 3a
       0.023639353 0.017545903 0.014839844 0.0012856476
0002c0 27 c0 0f 3d d6 10 09 bd cb 66 36 3c 2d c3 0e 3c
       0.03509536 -0.03346332 0.011132906 0.008713526
0002d0 ab 1b 88 3c 82 43 55 3d f1 59 3a ba 91 e8 ca 3c
       0.016614756 0.052066334 -0.0007108739 0.0247691
0002e0 42 7c a5 bc e5 27 d1 bc 74 1a 9e 3c f1 96 fc 3b
       -0.020200852 -0.025531719 0.019299723 0.0077084233
0002f0 70 50 a0 3a 2c 78 84 3d 7a 26 7b 3c 29 55 4e 3d
       0.0012231003 0.064682335 0.015328998 0.050374184
000300 bc f9 17 3a e6 d5 84 3c 3b 6e 36 3d bf 39 53 3c
       0.0005797406 0.016215276 0.044538718 0.012892186
000310 44 b7 49 3c 9a ac ef bc 7d ff 05 3d 26 c8 11 bd
       0.01231176 -0.029257108 0.032714356 -0.035591267
000320 b0 f7 f0 3c e6 c4 20 bc 3e b8 9f 3c c2 48 45 bd
       0.029414982 -0.009812569 0.019497033 -0.04816509
000330 0c 54 a9 bb 3e f3 9f bc 01 86 b0 b8 08 4c cb bc
       -0.00516749 -0.019525167 -8.417294e-05 -0.024816528
000340 aa 9c 78 bc de 23 97 bb 70 b4 8b bc 56 f0 1b 3d
       -0.01517407 -0.00461243 -0.017053813 0.038071
000350 d5 cf b1 3c b2 bc 52 3c 45 c0 24 3d f9 4f 7e bb
       0.021705547 0.012862371 0.040222425 -0.0038804992
000360 50 f6 5d 3b c6 da de 3c b8 6e e3 bc 97 1c 8c ba
       0.0033868738 0.027203929 -0.027762756 -0.0010689673
000370 da 67 7c 3c f5 85 d8 3c 02 89 45 bd 29 a3 52 3d
       0.0154056195 0.026431063 -0.048226364 0.051425133
000380 15 e4 27 3d cb 3c cd bc 2c 78 54 bd 74 37 14 3d
       0.040989 -0.025053402 -0.051872417 0.036185697
000390 a2 ea 16 3d 31 cc 83 3b 60 94 24 3d 84 4b 25 bd
       0.036844857 0.0040221442 0.040180564 -0.04035522
0003a0 a5 cb 33 bc 9f 54 52 bd 6d 9e 36 3b f2 8c 86 3d
       -0.010973846 -0.051350232 0.0027865425 0.06569852
0003b0 b7 a4 d7 3c fd 05 a0 3c 14 29 fa bc b5 6a 12 3c
       0.02632366 0.019534105 -0.030537166 0.008936574
0003c0 16 ab 35 3d 7f 65 88 3c f7 e5 56 3b dd 00 0c 3d
       0.044352613 0.01664996 0.0032790878 0.03418051
0003d0 d8 d0 62 3d 98 4d 94 3c cb 43 2c 3d 1f 06 36 bd
       0.05537495 0.018103406 0.04205684 -0.04443943
0003e0 86 b9 27 3d a0 63 13 bd fb dd 45 bc df b7 73 bc
       0.040948413 -0.03598368 -0.01207685 -0.014875381
0003f0 44 a3 02 3d 72 1b cd 3b 8c bd cc 3c e8 4f 82 3b
       0.031893983 0.0062593753 0.024992727 0.0039768107

a2c_network.actor_mlp.2.weight f4 [128, 256]
000000 f4 d9 f6 3b b5 fe 56 3c 05 02 90 bd 91 8a a6 bd
       0.0075333063 0.01312225 -0.07031635 -0.08131898
000010 94 50 17 3b 52 5f c7 bc f0 43 92 bd 14 3b db 3d
       0.00230888 -0.024337444 -0.07141864 0.10704628
000020 2d d6 da 3d 51 a5 28 3d cd f5 67 bd 3e 73 cb ba
       0.10685382 0.041173283 -0.0566309 -0.0015522016
000030 79 c1 23 3d 79 15 dc 3c 84 8a 17 bd 87 28 16 3d
       0.03997943 0.026865708 -0.036997333 0.036659744
000040 e2 25 cb bd cb 6b 56 3d 21 5f 66 3d c1 34 5c bd
       -0.09919335 0.052348893 0.056243066 -0.053761248
000050 d5 5a 25 3c 08 5f 12 be a0 fa 0d be ea c6 00 3e
       0.010092457 -0.14294064 -0.13865137 0.1257588
000060 ff c5 44 3b 36 31 92 bd 6c 2a 55 bd 49 a0 a7 3d
       0.0030025241 -0.071382925 -0.05204241 0.08184869
000070 d3 db ad bd d1 7e f7 bd 75 c8 44 bd 5e 01 cc bc
       -0.08489194 -0.12084735 -0.048042733 -0.024902996
000080 54 26 00 bd 93 0a 50 bc 47 cd b0 3b 7b ff a8 bd
       -0.031286553 -0.012697834 0.0053955647 -0.08251854
000090 92 84 54 3b cb b9 01 bd dc 36 b5 3d 95 f9 6b bd
       0.003242765 -0.031671327 0.08848354 -0.057611067
0000a0 57 30 f2 bd 96 49 ed 3c 99 00 80 3d 77 1a 2b bc
       -0.11825626 0.028965753 0.06250114 -0.010443321
0000b0 d7 0e 4c 3c 74 18 b2 bd 1f d4 1b bd f9 b7 0c bc
       0.01245471 -0.0869607 -0.03804409 -0.008588784
0000c0 b9 43 47 3d 69 cc 73 bd ae da 88 3c 07 b0 1c 3d
       0.04864857 -0.059521113 0.016705837 0.03825381
0000d0 5f 8f f2 3d 43 95 fe 3c c1 51 13 bc 71 26 cd bc
       0.11843752 0.031077033 -0.00899166 -0.025042744
0000e0 99 1f a2 bd 32 01 92 bd d7 e8 9b 3a be 13 0d 3d
       -0.07916183 -0.07129134 0.0011894953 0.034442656
0000f0 5e dc 81 3d 5d 24 6c bd 02 8e 11 3c 6d 66 51 bd
       0.0634086 -0.057651866 0.008883955 -0.05112307
000100 9b 87 9b bd 2a 43 4e 3d 2b 30 4f be 68 25 50 bd
       -0.07594224 0.05035702 -0.20233218 -0.050816923
000110 86 d7 f0 3d 23 c7 16 3d 0c 68 a3 bc b1 1b 39 3d
       0.11759858 0.036811005 -0.019947074 0.045192424
000120 74 2a 54 3d 21 4e df 3b 5d 26 94 3d bc be b8 bd
       0.0517983 0.0068147336 0.0723388 -0.09020755
000130 05 50 30 3d 40 57 8a bd a4 32 a3 3b ad c0 6c 3e
       0.043045063 -0.06754923 0.004980402 0.23120375
000140 6e 08 3c bd 07 e1 89 3d 2f 0b 3a bd b1 33 e0 bd
       -0.045906477 0.06732374 -0.04542082 -0.10947359
000150 ec ed ce 3d 60 7d 8d bb 00 b7 06 be 85 18 a2 3c
       0.10103974 -0.0043179244 -0.13155746 0.019787082
000160 6d f2 86 bd de 22 88 bd 1f 66 14 bb 27 fa c7 3c
       -0.06589208 -0.066472754 -0.0022643877 0.024411274
000170 5a a8 4a bc d3 73 9d bd d6 9f 17 3d 09 a3 1a be
       -0.01236924 -0.07688107 0.037017666 -0.15101255
000180 0b c1 40 3d 10 58 14 bd 97 e8 61 3d 38 f0 b3 bc
       0.0470591 -0.036216795 0.055153456 -0.021965131
000190 63 8c e3 3b ae b8 a7 bd af 94 aa bd 2c 16 03 bd
       0.0069442256 -0.08189522 -0.083291404 -0.032003567
0001a0 ed 1d 1a bd c5 e0 ef 3d d8 bc 16 3d 6d f6 3d bd
       -0.037626196 0.11712793 0.03680119 -0.046377588
0001b0 38 70 c3 bd 7e 64 00 3c c4 f4 03 be dc 8d d1 bc
       -0.095428884 0.007836459 -0.1288634 -0.02558034
0001c0 61 c8 b1 3d 4b b3 3c 3d 14 3a 91 bd 94 1a b9 bd
       0.08680797 0.046069425 -0.07091156 -0.090382725
0001d0 1b 15 87 be 7d c7 c2 3d 6b e2 33 3b ba 29 9d bd
       -0.2638329 0.095107056 0.0027448188 -0.07673974
0001e0 59 44 34 bd 11 a8 ee 3c 95 cb 38 3d 2c 52 df bc
       -0.044010494 0.029132875 0.045116026 -0.027260862
0001f0 fb a3 62 3c 39 1d 99 3c 7b da 81 3c 3c 67 de 3c
       0.013833041 0.018690692 0.01585125 0.027148835
000200 47 06 8b bd 94 1c f7 bb 0f 8c 8b 3d df dd 2d bd
       -0.06788307 -0.0075412486 0.068138234 -0.04244792
000210 c1 b2 43 bd 7f c2 96 bc 0d 07 ae 3c f0 da d1 3d
       -0.047777895 -0.01840329 0.021243596 0.10246837
000220 8f 53 5c 3d 84 8b 1b 3d fd 92 b3 bd c6 0f 26 bd
       0.053790625 0.03797485 -0.0876827 -0.040542386
000230 cb 53 c1 bd d4 76 bf bd a1 ac fb 3d 9e e3 98 bd
       -0.0943981 -0.093488365 0.12288786 -0.074652895
000240 1f 3a b3 bd 93 e8 ed 3c 21 4b 8d bd ef 29 86 bd
       -0.0875132 0.029041564 -0.06899095 -0.06550967
000250 08 87 1f be 0f d1 8f 3c e2 2f 9b 3d a5 ad 5a 3c
       -0.15578854 0.017555742 0.07577492 0.013347064
000260 dc d1 12 3e eb 27 d5 b9 5d cb 20 be e7 f1 ea bd
       0.14337867 -0.00040656267 -0.15702577 -0.114719205
000270 77 24 f9 3c 98 30 a2 bc 7b 8d db bc c8 a4 3e bc
       0.030412896 -0.019798562 -0.026800862 -0.011635967
000280 d2 83 9d bc b6 b0 12 3e 90 ad 9f bc 18 ee 9a bd
       -0.019227896 0.14325222 -0.01949194 -0.07564944
000290 d4 9a ba bd 3c 9b 08 bd ff a9 23 3e cb 59 d5 3c
       -0.09111562 -0.033351168 0.15982817 0.026043793
0002a0 59 41 db 3c 43 e4 91 bd 53 ac 72 bb 91 2b 96 3d
       0.026764559 -0.071236156 -0.0037028983 0.073325284
0002b0 2a c1 db bd c2 b6 30 ba a2 07 09 be 79 10 36 bd
       -0.107302025 -0.00067411 -0.13381818 -0.044449303
0002c0 db ce 86 bc 5f 36 85 3d 71 3b f4 3d 17 8d 0e be
       -0.016456058 0.06504511 0.119254 -0.13921009
0002d0 6b c4 d1 bd d1 ad 91 bd fd f7 57 3d d4 ed 25 bd
       -0.10242542 -0.07113231 0.052726734 -0.040510014
0002e0 58 4f d5 bd 06 16 ea bc ab c2 9c bd 77 2e b1 3d
       -0.10415524 -0.028574955 -0.076543175 0.086514406
0002f0 12 fd 68 bd 1d af fe bb eb 1c 4e 3d 8d 0f 06 be
       -0.05688197 -0.00777234 0.050320547 -0.1309187
000300 7c 7b ce bd f4 6f 0b bd 26 9d cb 3b 28 1a 81 bd
       -0.100821465 -0.034042314 0.006213802 -0.06303817
000310 bc 17 01 3d 7e 52 77 3c 82 c5 0a be 0e fd 6a bd
       0.031516775 0.015095351 -0.13551906 -0.057370238
000320 5e e5 b8 3d 56 c5 ad bc a1 c9 73 bd de ab 6c 3d
       0.09028123 -0.021212261 -0.05951846 0.057781093
000330 a3 df b5 bc 3f e4 7d 3d 09 54 83 bc a4 48 0b be
       -0.022201365 0.06198525 -0.016031282 -0.13601929
000340 45 45 d0 3b c1 82 00 be 2a cc e2 3d ad e7 96 3d
       0.006355914 -0.12549879 0.110740975 0.073684074
000350 74 da d8 bd 70 d6 e6 bd 07 57 a2 3c b2 d9 16 bc
       -0.105885416 -0.112713695 0.019816888 -0.009207176
000360 9d 8b cf bc 1d 76 98 3c 4d 67 1f bd b9 66 10 3e
       -0.025335127 0.018611008 -0.038916875 0.14101686
000370 08 30 23 3e e3 1b 0c 3c 90 af f8 bd c1 c0 08 bd
       0.15936291 0.008551571 -0.12142861 -0.03338695
000380 07 3d 72 bd 9d a3 24 3e 24 57 4c bd 7c 18 67 bc
       -0.05914023 0.16078039 -0.04988779 -0.014104959
000390 30 38 19 bd 9c ac 7f bd 36 37 41 3c 27 18 c2 3c
       -0.0374071 -0.062420473 0.0117929485 0.023693157
0003a0 53 cb 5c 3d 98 4c 2a 3d c9 d6 64 3d 5f 82 10 bc
       0.053904843 0.04157695 0.055868898 -0.008820145
0003b0 1c 7b 9b 3d 25 d6 01 3e 94 94 5d bd 7e 02 5e 3c
       0.075918406 0.12679346 -0.054096773 0.013550399
0003c0 2d 3f ce bd 3e 32 3d 3d 81 42 ca bb 75 0e 7c 3c
       -0.100706436 0.046190493 -0.0061724787 0.015384306
0003d0 29 d7 15 bd 7c d6 14 3e ef a9 9d bd 8a ac 85 3c
       -0.036582146 0.14534944 -0.07698428 0.016317625
0003e0 cd ec 9b 3d 58 ab 86 bd 38 69 d6 bd ca 6c 8f 3d
       0.076135255 -0.0657565 -0.10469288 0.07003172
0003f0 17 b9 46 bc e0 c9 da 3d 63 9b 3c 3d d4 68 e6 bc
       -0.01212909 0.10683036 0.046046626 -0.028126158

a2c_network.actor_mlp.2.bias f4 [128]
000000 c8 f8 97 bc 76 6c 49 3c 93 30 bb bd ad 11 24 bc
       -0.018551245 0.0122939255 -0.09140124 -0.01001398
000010 18 93 18 3c ca 75 fe ba cb 6b db 3b 32 4a bf 3c
       0.009312414 -0.0019413766 0.0066961995 0.023350809
000020 c4 03 20 bd 0e 00 03 3c 25 67 84 bc 65 ac 20 bd
       -0.03906609 0.0079956185 -0.016162464 -0.03922691
000030 95 36 67 bd 37 0f 3b bd 5f 6e f2 bb 32 10 2e 3d
       -0.056448538 -0.045668807 -0.007398411 0.042495914
000040 e3 f0 a4 bb d0 ec 37 bd d4 28 cc b7 45 4d 50 3c
       -0.0050335987 -0.044903576 -2.4337707e-05 0.012713735
000050 b9 a8 73 3d 0e f3 98 bd 1f 5e 1a bd a6 90 37 bd
       0.05948708 -0.07468234 -0.037687417 -0.044815682
000060 cb 52 d7 bc 70 a0 75 3c ff 51 98 bc b0 c8 5f 3d
       -0.026284596 0.014991865 -0.018593786 0.05463475
000070 e4 c8 b7 bc bc fa 3b bd aa 04 77 3d be e8 a9 bc
       -0.02243466 -0.045893416 0.060307182 -0.020740863
000080 d6 59 04 3d 46 51 87 bc 80 2d 1f bd c7 81 e6 3c
       0.032312237 -0.016518246 -0.03886175 0.028138055
000090 ed 0d 81 bd 43 4e 37 bd 8c 23 73 3c ad ed 3f bd
       -0.06301484 -0.04475237 0.014840018 -0.046857525
0000a0 55 a6 f6 3b 2d c0 2c 3d 92 3c a4 bb d4 d7 8e bc
       0.0075271525 0.04217546 -0.0050121034 -0.0174369
0000b0 f4 8e 62 bc d7 94 61 3c 70 d0 0f 3d 89 64 b6 3c
       -0.013828028 0.013768396 0.03511089 0.022264736
0000c0 d1 6a 88 bc 8c 6c 11 bd 37 35 7e bc fa ac 78 3a
       -0.016652497 -0.03550391 -0.015515617 0.0009486225
0000d0 17 28 27 3c a6 08 62 bc ec 05 68 bd 4e 4c 75 bd
       0.010202429 -0.013796007 -0.056646273 -0.059887223
0000e0 33 dd 6c bd c5 50 c2 bc b4 83 fe 3c 6f 48 59 bc
       -0.05782814 -0.023720155 0.03106866 -0.013261898
0000f0 23 7e bc 3c 22 55 35 bd 98 f5 d0 3c 3c 01 a5 bc
       0.023009365 -0.044270642 0.025507733 -0.02014219
000100 55 7f 07 bd 29 da 5c bd 91 72 c2 3c 59 b5 13 bc
       -0.033080418 -0.05391899 0.02373627 -0.009015405
000110 3f a1 da 3b 6d db 80 3c e9 32 ab bc 0a 9b 2f bd
       0.006672054 0.01572963 -0.0208983 -0.042872466
000120 60 f4 eb bc c2 be 7f bd fc c1 55 bc a5 c2 0c 3c
       -0.02880305 -0.06243778 -0.013046738 0.008591329
000130 ba e9 8c bd 80 83 09 bc 12 7f 55 bd 1f 0d bd bb
       -0.06880517 -0.008393168 -0.052123137 -0.0057693864
000140 59 fc 86 bc 4c 2f d7 3c 7b 34 3d 3c 51 f0 85 3c
       -0.01647775 0.02626767 0.011548157 0.016349943
000150 c8 2a ac bc 6e d1 f2 bb 50 ec ae 3c c4 08 72 bc
       -0.021016493 -0.00741022 0.021352917 -0.014772598
000160 d0 40 e7 bc 7b ec 36 bc cd 9d 0d bd 68 7c e1 3c
       -0.028229147 -0.01116478 -0.03457432 0.027525142
000170 2a f0 8d bb 55 4c 04 bd 69 f5 05 bd b2 38 17 3d
       -0.0043316083 -0.03229936 -0.032704744 0.036919303
000180 86 e2 eb bc 2e 2d 1e bd a2 e0 21 bd 95 6b a8 3c
       -0.028794538 -0.038617305 -0.039520867 0.020559112
000190 a7 e8 c4 bc f2 58 18 bd 3a dc 29 3d 53 58 10 bd
       -0.024036719 -0.0371942 0.04146979 -0.035240483
0001a0 80 6f 09 bd 48 ac 47 bd 18 40 a4 bc e2 ec 88 bc
       -0.0335536 -0.048748285 -0.020050094 -0.016714517
0001b0 23 55 a6 3b b7 1e 8d bd 89 78 d7 bc 60 b6 5f bd
       0.005076067 -0.06890624 -0.026302593 -0.054617286
0001c0 10 e4 05 bd f5 32 00 bc 6b 1a 2b bd f9 7c 64 bd
       -0.0326882 -0.007824649 -0.04177324 -0.055783246
0001d0 0b a8 1a bd 48 ee 56 bd ea 0e aa bc 73 bf 82 bd
       -0.037757915 -0.052473336 -0.020759065 -0.06384172
0001e0 3a e6 4b bc d0 70 4a bd 89 01 1d bd 23 d3 05 bd
       -0.012445027 -0.049423993 -0.038331542 -0.03267206
0001f0 47 47 a6 3b c3 99 1b 3d cb 70 17 bd 5f 54 b6 bd
       0.005074415 0.037988435 -0.036972802 -0.08902811

a2c_network.actor_mlp.4.weight f4 [128, 128]
000000 3a 9a 7c 3d 22 d0 9f bd 6b fc 7e bc 7e 0b b4 bd
       0.06167052 -0.0780337 -0.015563111 -0.087912545
000010 8f 2b d5 bd 25 87 f8 bd 9f 5b 7b bc f7 b4 16 be
       -0.10408699 -0.12135152 -0.015341668 -0.1471747
000020 f6 3c 9e 3d 5b 64 b7 bd 20 d4 20 3e c7 bd 19 3d
       0.07726471 -0.08954688 0.1570592 0.0375345
000030 ea 2e 9f 3d 52 55 4b bc 98 43 56 3d 39 e9 b6 bd
       0.0777262 -0.012410479 0.052310556 -0.089312024
000040 8f 57 14 3d 53 ab 86 3b 23 6d 48 3c 8e 3a ed bc
       0.036216315 0.004109779 0.0122330515 -0.028958585
000050 1c e7 5a 3b 5e 11 0b 3e eb 73 77 3d 0c 45 82 bc
       0.0033401912 0.13580844 0.060413282 -0.015902065
000060 bb 13 be 3d b6 5a 88 3d 75 93 5f bd ea 6e 4d 3d
       0.09281107 0.06657927 -0.054583985 0.050154604
000070 1f ea 19 bd d2 0e 18 3d 0b 33 3c be 12 3e 86 bd
       -0.03757679 0.03712351 -0.18378846 -0.06554808
000080 15 c5 37 3d f7 e9 36 bd 13 51 9b 3d 09 bd e4 bd
       0.044865686 -0.04465672 0.07583823 -0.11168868
000090 55 5a c9 3d d2 55 1c 3e b0 a3 b2 bd f2 5c 3a 3d
       0.098316826 0.15267113 -0.08722627 0.045498796
0000a0 c9 81 cf bd e8 2a 19 3d eb ce 9d bc 13 40 51 3d
       -0.101321764 0.037394434 -0.019263705 0.051086497
0000b0 ec c6 4d 3d 35 1c 3d 3c 03 b4 22 3d c1 db 65 bd
       0.050238535 0.01154237 0.039722454 -0.056117777
0000c0 af 10 af 3d 2e 5e 73 bd 10 f3 11 3c b4 d4 98 3c
       0.08548104 -0.05941599 0.008908048 0.018656112
0000d0 f3 af 4b 3d f8 fb bc 3c 4f 75 af bc 49 13 7a bd
       0.049728345 0.023069367 -0.021418242 -0.061053548
0000e0 ca d2 4d 3d 1b 6b 05 bc 90 1a 05 be d9 9e 87 bb
       0.050249852 -0.008143212 -0.12998414 -0.004138809
0000f0 a9 82 a9 bd 8d 57 9b 3d 5f 10 82 bd 99 27 33 bd
       -0.082768746 0.07585058 -0.06350779 -0.043738935
000100 1e 67 14 3c eb fc b8 3d 1f dd 02 be 6c 96 05 be
       0.009057788 0.09032615 -0.12779664 -0.13045663
000110 45 1a 19 bd c4 18 70 ba 95 c8 db 3d 61 d9 d7 bc
       -0.03737857 -0.0009158964 0.10731617 -0.026348772
000120 a9 e0 9d 3d 19 81 13 3e 30 ed 33 bd e6 de 4d be
       0.07708866 0.14404716 -0.04392737 -0.2010456
000130 74 11 b0 3c f3 4e ce bc 22 22 bc 3d be a0 3c bd
       0.021492697 -0.02518413 0.09186198 -0.046051733
000140 d4 5e 7e 3c 2e 36 fa bb 89 9f 84 3e 63 34 6d 3c
       0.0155255385 -0.0076358533 0.25902966 0.014477822
000150 66 dc 9e 3d b7 56 61 3c 36 86 c4 bd 37 bf 7a bd
       0.077568814 0.013753585 -0.09595911 -0.061217513
000160 46 87 8c bd ab 5b cf bd 72 83 35 3e 3c d9 c1 bd
       -0.06861739 -0.10124906 0.17725924 -0.09465262
000170 bc 64 87 bd a1 88 35 be 19 1d 1f 3d 65 4d e9 3c
       -0.066110104 -0.17727901 0.03884611 0.028479287
000180 b6 e1 8b 3d 0d 7c 28 3e 10 3d 19 be b4 12 04 be
       0.0683016 0.16453572 -0.149647 -0.1289776
000190 ef c0 77 bd 64 b6 9b bb 13 1a 9f 3d 0a 28 33 3e
       -0.06048673 -0.0047519673 0.07768645 0.17495742
0001a0 07 ee 21 3e 37 6b 10 3b 40 99 98 be 35 0a 15 3d
       0.15813456 0.0022036561 -0.2980442 0.036386687
0001b0 2f d8 4c ba b2 cf 16 3e 31 45 45 be fa 46 0a be
       -0.0007814196 0.14727667 -0.19264676 -0.13503638
0001c0 eb ca bb 3d c9 36 cd 3d 1a 88 88 bd 36 46 39 3b
       0.09169563 0.10020215 -0.06666584 0.0028270609
0001d0 09 8a 86 3d 8d 33 17 3e 0f b2 c8 3c 56 e8 aa 3c
       0.06569297 0.14765759 0.024498967 0.02086274
0001e0 af c3 e0 3b c6 4b 81 bc cc 66 11 3c e9 32 87 3d
       0.006859265 -0.015783202 0.008874606 0.06601507
0001f0 7d e0 8d bd ba 79 69 bc 77 0e a5 3d 3e 3d 41 3c
       -0.06927583 -0.014250213 0.080593996 0.011794386
000200 13 be 94 3d 78 0c b1 bd ff 48 41 bd d7 d1 7e bd
       0.07262816 -0.08644956 -0.047188755 -0.062211838
000210 1a 80 ae bd 72 98 42 be 52 e1 d3 3d 95 04 49 3d
       -0.08520527 -0.19003466 0.10345711 0.049076635
000220 d1 33 38 3d b6 49 a0 bd c2 ed c9 3d 84 ee 06 be
       0.04497129 -0.07826559 0.09859802 -0.13176924
000230 72 e0 14 3d 5e 58 11 be 46 6f 98 bd 36 44 07 be
       0.03634686 -0.14193866 -0.07443099 -0.13209614
000240 83 e0 b5 3d 03 39 7d 3c ae 96 8c bc 59 c5 a4 bb
       0.08880713 0.015455487 -0.017161693 -0.0050284085
000250 61 bd e4 bc 23 9f 27 3b 15 33 b2 3c 14 35 c0 3b
       -0.027922334 0.002557703 0.021752873 0.0058657024
000260 06 b9 bd bd 2e 63 76 bd f3 ce 88 bd c4 2c 8b 3d
       -0.09263806 -0.06015318 -0.066800974 0.06795648
000270 95 aa 9f 3d 08 e9 31 be 1f 3d ea 3d dd e6 3d be
       0.07796208 -0.1737405 0.11437439 -0.18545099
000280 35 ac 08 be 73 e9 4d 3c af 4d 72 3d 45 80 b1 bd
       -0.13346942 0.012567866 0.059156116 -0.086670436
000290 56 16 dd 3c 15 78 d3 bc 02 f3 23 bc 7c f1 84 bd
       0.02698819 -0.025814096 -0.010006668 -0.06491372
0002a0 f8 44 f8 bb 02 4d 08 bd 6c 2b 1c bd 2b 6a e3 bd
       -0.007576581 -0.033276565 -0.038127348 -0.11104234
0002b0 fb 7c 1b 3d c8 73 f5 3d a8 d4 50 3d 6a 9d 28 be
       0.037960988 0.11984974 0.050984055 -0.16466299
0002c0 f9 29 07 bc 0a 0f 02 bc 56 6b a8 bd a7 7f b5 bd
       -0.008249753 -0.007938156 -0.08223598 -0.088622384
0002d0 9e 43 28 bd 06 ec 31 bb 20 88 18 3e 0a 99 b3 bc
       -0.04108011 -0.0027148738 0.14895678 -0.02192356
0002e0 75 13 4d 3d 1f a9 27 3d 92 11 d6 3d 44 1c 90 bd
       0.050067384 0.04093277 0.1045257 -0.07036641
0002f0 20 bb ba 3c 77 cc 58 3d 41 f6 0c be fb a7 56 bc
       0.022794306 0.052929368 -0.13765813 -0.013101573
000300 28 a8 44 bc fe ce 2f 3d cd 10 ec 3d 84 dc e1 3d
       -0.012002982 0.042922013 0.11526642 0.11028388
000310 66 68 d6 3c f1 68 73 3c 4b c2 bd 3d 42 57 c6 3b
       0.026172828 0.014856563 0.09265574 0.0060528824
000320 95 e7 27 3d 84 1f da bd a5 6c 22 3d 1f af 5d bc
       0.04099234 -0.106505424 0.039654393 -0.013530522
000330 66 83 ea bd c3 87 f5 3d a4 5b 39 be 54 44 c2 3b
       -0.114508435 0.11988785 -0.18101364 0.0059285555
000340 c2 e1 77 be 5a 01 5b bd ef 9e 38 be a4 fb b0 bd
       -0.24207214 -0.053468086 -0.18029378 -0.08641747
000350 41 97 33 3d 32 25 a0 ba 9b b3 63 3c 2e 9e e9 bd
       0.04384542 -0.0012218116 0.013897802 -0.114071235
000360 79 0b 8a 3d c4 86 02 bd d7 5e d9 3d bd a7 8b 3d
       0.067404695 -0.031866804 0.106137924 0.06819103
000370 60 c9 dc bd be 4d a4 bc d9 77 1e bc e9 72 fa 3c
       -0.10780597 -0.020056602 -0.009672129 0.030572372
000380 b9 34 ca 3d ca 3a ab bd 69 ef d9 bd 86 5f f5 bb
       0.09873337 -0.083608225 -0.10641367 -0.007488194
000390 66 dc 37 be 8d 71 0b be c9 aa 86 3d 16 37 87 bd
       -0.17955169 -0.13617535 0.065755434 -0.06602304
0003a0 59 c5 7b be 80 90 02 3e ed 3d 79 bd 29 d6 ab 3a
       -0.24587001 0.12750435 -0.060850073 0.0013110089
0003b0 5a 9a 91 bd 36 1f c2 bd d2 56 07 3d db 34 0b 3d
       -0.07109518 -0.09478609 0.033041783 0.033985954
0003c0 ce 49 52 bc c3 9c 1c 3d b4 07 f5 3d 2e eb ed 3c
       -0.012834979 0.038235437 0.1196436 0.029042806
0003d0 ba 35 d0 3d 9d 79 c4 3d 5f 02 13 bd da 16 79 bd
       0.101664975 0.095935084 -0.035890933 -0.06081281
0003e0 83 7d c9 bd 19 44 0a bd 92 02 12 be 2f 1d 12 3e
       -0.098383926 -0.03375635 -0.14258793 0.14268945
0003f0 ee ee f9 bd 53 06 b6 3b 4a 75 42 bd b5 43 a7 bd
       -0.12203775 0.005554953 -0.047475137 -0.08167211

a2c_network.actor_mlp.4.bias f4 [128]
000000 13 bd b0 bd 93 05 2b bc c4 92 38 3d 26 b2 fe bd
       -0.08629813 -0.010438341 0.04506184 -0.12436323
000010 5b 2e 50 bd b7 20 ac bd 2e d4 44 bd e5 8e 3f bd
       -0.050825458 -0.08404677 -0.048053913 -0.046767134
000020 22 60 b8 bc b9 35 ce bd aa ff 94 bd e0 74 a8 bc
       -0.022506777 -0.100688405 -0.072753266 -0.020563543
000030 fd 64 11 bd 83 4d e3 bc 27 66 79 bc a2 d2 21 bd
       -0.0354967 -0.027746921 -0.015222109 -0.039507516
000040 0c 2a 45 3d ac e6 cc bc bd 8b 4c 3c e7 f0 02 bd
       0.048135802 -0.025012337 0.012484488 -0.031968024
000050 2d 60 25 bd ae 62 07 bd 79 e9 ec 3c 32 32 31 bd
       -0.040374923 -0.033053093 0.028919922 -0.04326076
000060 54 1d 48 3b 05 12 48 bb fd 5a 75 bc a3 cb 15 bd
       0.003053506 -0.0030528319 -0.014975307 -0.036571156
000070 31 6a 88 3b 00 e3 b9 bd a4 e4 31 bd 78 c8 1b 3c
       0.0041630496 -0.090765 -0.04343094 0.009508245
000080 51 c6 5d bd 26 50 de bd 9f 4c f3 bc ed 0b 9c 3c
       -0.054144207 -0.10855131 -0.029699622 0.019048655
000090 17 eb 87 bd d9 4f 3a 3d 68 65 35 bd 37 38 f2 bd
       -0.06636637 0.045486305 -0.04428616 -0.118271284
0000a0 44 c5 4f bc 24 f5 c0 bb 08 d4 dd 3a b8 2d 1c 3d
       -0.012681309 -0.005888598 0.0016924152 0.03812954
0000b0 bb 0f 8e ba 36 b1 94 bc 72 75 24 bd f1 b9 6f 3a
       -0.0010838428 -0.018150907 -0.040151067 0.0009144834
0000c0 b8 29 26 3d 12 46 be bb e1 42 64 bd 6e e8 2a bd
       0.04056713 -0.005806693 -0.055727843 -0.04172557
0000d0 8c cf 73 bb a4 d0 05 3d 5c 79 89 bc 0a c0 a2 3d
       -0.0037202565 0.03266968 -0.016781501 0.07946785
0000e0 f0 69 12 3c 6b 7d 25 bd ba 21 82 3d 71 85 a0 3d
       0.00893639 -0.04040281 0.06354089 0.07837952
0000f0 64 e1 88 3c 29 ce 82 3d 29 be 65 bc d1 c0 a6 3c
       0.016709037 0.06386978 -0.0140223885 0.020355614
000100 50 85 7b bc 30 fb a4 3d 06 90 9b bd 11 81 b9 bc
       -0.015351608 0.08055723 -0.0759583 -0.022644551
000110 62 12 30 bc f3 74 81 3d 1e bc 00 be 9d bc 60 3d
       -0.01074657 0.063211344 -0.12571761 0.054867376
000120 bc c4 8b 3c 74 4f 64 3d 05 a1 7e bd ac 4e 1a bc
       0.017061584 0.055739835 -0.06216528 -0.009418171
000130 85 b0 40 3d 44 62 04 3d c5 f2 bd bc cc 63 1b 3d
       0.047043342 0.032320276 -0.02318705 0.03793697
000140 2f 10 52 bc d7 72 28 3c 8a d7 0c bd e2 c8 f7 bc
       -0.012821241 0.010281286 -0.03438524 -0.030247156
000150 03 33 27 be 76 e4 fa 3c ae 49 fb bc f3 97 8e bd
       -0.16328053 0.030626517 -0.030674782 -0.06962576
000160 22 a1 08 bd 74 60 97 bc 71 21 bf 3c 03 ae 6f bd
       -0.033356793 -0.01847861 0.023331376 -0.05851556
000170 56 66 ee 3c fa 07 1d bd f0 3b 21 3d 8e 80 15 bc
       0.029101532 -0.038337685 0.0393638 -0.009124888
000180 4e 27 53 3c fc 24 67 bd a1 da 01 be 75 fe 11 bd
       0.012887789 -0.056431755 -0.12681057 -0.03564306
000190 42 c9 56 bd 85 70 9c bd 9d 8b 2e bd 74 62 76 3d
       -0.05243803 -0.07638649 -0.042613614 0.060152486
0001a0 9c 6a 51 bc 9a c4 22 bc 58 fa 06 bd 20 d0 c8 bc
       -0.012781765 -0.009934569 -0.03295359 -0.024513304
0001b0 84 f9 2b bd 82 01 a2 3c 5e c6 c8 3c 34 0e 33 3d
       -0.041986004 0.01977611 0.024508651 0.043714717
0001c0 8f 37 ed bb 9d 67 7b bd 5e 82 44 3c 13 6b e2 bb
       -0.007239289 -0.06137811 0.011993973 -0.006909737
0001d0 53 18 92 bd d1 d2 88 bd 9a e8 f7 bc 36 b8 81 bb
       -0.07133546 -0.06680835 -0.03026228 -0.0039587272
0001e0 dd 92 e3 bd 24 ea 01 3d 1f 85 e6 3c 45 47 8e bd
       -0.11111996 0.031717435 0.028139649 -0.06947187
0001f0 15 78 4e 3d cf b7 c3 bc 6f b5 69 bc d3 f0 85 bc
       0.050407488 -0.023891358 -0.014264449 -0.016350185

a2c_network.value.weight f4 [1, 128]
000000 37 ff 3a 3d 20 66 1b be cf 99 c1 bb d3 da 41 bc
       0.045653548 -0.15175676 -0.005908228 -0.011831957
000010 d0 96 d0 bc 1c 81 29 bd 6b 8c a4 3d 05 00 f4 3c
       -0.025462538 -0.041382894 0.08034595 0.029785166
000020 34 0e 0f bd 85 59 8d bc 76 b8 9b 3c d3 cc c4 3c
       -0.034925655 -0.0172546 0.019008856 0.024023449
000030 6b b7 4c bd 06 ed be bc 88 e3 98 bc c5 9d 98 bd
       -0.04997961 -0.023306381 -0.018663183 -0.07451967
000040 b0 a8 01 3e 74 58 17 bb e0 d1 8a 3d eb 97 d8 bb
       0.12662005 -0.0023093494 0.06778312 -0.006609907
000050 6e be 17 be ea 4d 68 3d aa 8d b4 bd 13 6d a0 be
       -0.14818737 0.05671493 -0.08816083 -0.31333217
000060 79 63 fb 3c 83 c6 3d bd f5 79 52 be 10 3d dd bc
       0.03068708 -0.046331894 -0.20554335 -0.027006656
000070 54 bd 00 bd b3 1a 4f bd e9 88 27 3c d8 1c 30 bd
       -0.031430557 -0.05056257 0.010225513 -0.042996258
000080 5e 71 24 3c a0 70 b8 bc 5d 00 b5 3c 88 08 80 3d
       0.0100367945 -0.022514641 0.0220949 0.06251627
000090 8c c7 0d 3d 26 86 01 3d ed 2b 21 bd 47 f7 70 3d
       0.03461413 0.031622075 -0.03934853 0.058829572
0000a0 0c bc 8a bc fd 5c cf bb 65 ec cc bc d5 e3 a3 3d
       -0.01693537 -0.0063282237 -0.025015065 0.0800244
0000b0 ab 75 32 3d 4f 97 09 3d f5 08 ac 3c c6 e2 79 bd
       0.04356925 0.033591565 0.021000365 -0.061007284
0000c0 03 9c 67 3d 77 7e 17 3c 03 a4 d9 3b 99 e6 8c bc
       0.05654527 0.00924646 0.006641866 -0.017199801
0000d0 db a6 fa 3c 6a 99 98 3c 6a 55 ab 3d 9f 56 92 3c
       0.030597141 0.018627841 0.08365901 0.01786357
0000e0 e4 4b 33 bc 06 e3 32 3c b6 95 14 bc a6 4a fe 3c
       -0.010943387 0.010918384 -0.009068897 0.031041455
0000f0 11 51 d5 3d 4e 13 92 bc af d4 18 bc 31 00 c1 3c
       0.10415853 -0.01783147 -0.0093280515 0.023559662
000100 dd 39 86 bd c4 cb 3d bd b2 3a 12 bb ba c2 2d bb
       -0.06554005 -0.046336904 -0.0022312817 -0.002651377
000110 ac 37 4d 3d 7e 68 64 bc 5d 94 fd 3b fb ac 02 3e
       0.05010192 -0.0139409285 0.0077386335 0.127613
000120 3a e1 44 3d ae 15 81 bd 52 8b 84 3a ff 1a 1a 3d
       0.048066355 -0.06302963 0.0010112321 0.0376234
000130 b1 34 97 bd 4e 21 59 3d bf ca c6 bc a5 04 a2 bd
       -0.07383097 0.053010277 -0.024266599 -0.07911042
000140 05 fb dd bc 47 2c 67 3d 18 88 12 bd ee 1b 9e bb
       -0.027097235 0.05643871 -0.03577432 -0.004825107
000150 11 4f 15 3b cc 3d 0d 3e e7 12 43 bd 8d b5 8e bd
       0.0022782723 0.13793105 -0.04762545 -0.06968222
000160 7b d4 7d 3c dc 4e a5 3b 17 3b ed bb c6 58 a6 3c
       0.015492554 0.005044801 -0.00723971 0.020306002
000170 b5 db ee b9 de 6e 26 3c 1c 19 15 3e 31 f2 5a 3c
       -0.00045558592 0.010158269 0.1456036 0.013363407
000180 06 79 26 3d 74 93 56 bd e2 7a d7 bb 57 d2 d4 bc
       0.04064276 -0.052386716 -0.006575928 -0.025979204
000190 cb cc c0 3b 64 65 65 3c 3d d5 2d bd f1 db 12 bb
       0.005883788 0.014001224 -0.042439688 -0.0022408927
0001a0 51 0f e3 bb bc 67 a8 bd d2 16 99 3c 65 35 74 3b
       -0.006929316 -0.08222911 0.01868764 0.003726327
0001b0 64 3a ab bc ed a2 0f 3d 68 c1 52 3d 90 11 0a 3e
       -0.020901866 0.035067488 0.051453978 0.13483262
0001c0 4c e1 2f bd 68 da 6f 3d 2a 4f 97 bc c3 90 b5 be
       -0.04293947 0.058557898 -0.018470366 -0.35462007
0001d0 28 c5 4f bc fc ec f2 3b 32 c1 a6 bd 9a 49 2b bd
       -0.012681283 0.0074135046 -0.08142318 -0.04181824
0001e0 0c 70 27 3d f6 49 98 ba 73 7d 8b 3d 7a 3a b3 bd
       0.04087834 -0.0011618722 0.06811037 -0.08751388
0001f0 76 c8 aa 3d 16 3b ad 3d 42 06 9f 3d b4 57 45 bd
       0.08339016 0.084585354 0.077648655 -0.048179343

a2c_network.mu.weight f4 [10, 128]
000000 1c 10 02 be f3 57 12 3d 84 d6 03 3e 49 a8 86 3e
       -0.12701458 0.035728406 0.128748 0.26300266
000010 bf b6 15 3e 88 f3 04 bc 55 b3 b2 bc 16 8b 69 bd
       0.14620493 -0.008114703 -0.021814028 -0.05701741
000020 76 5c 02 3e f8 88 45 bd 7e df c9 bd 54 10 99 bd
       0.12730584 -0.048226327 -0.09857081 -0.074738175
000030 9d 20 47 bd 46 6e 0e bd b6 3c c1 bc 8c 50 c0 bb
       -0.048615087 -0.034773134 -0.02358852 -0.005868977
000040 8e 22 9e 3c 78 a9 2c bd 53 66 97 3c 24 08 e5 3d
       0.019303586 -0.042153805 0.01848141 0.11183193
000050 20 1e 3b bd 24 9c 9e 3d fb 2f 31 3d d3 47 1c 3c
       -0.045683026 0.07744625 0.04325865 0.009538609
000060 c9 d6 0b 3e 57 4a 91 3c db b0 8b bd a3 60 27 3e
       0.13656153 0.017735643 -0.06820842 0.16345458
000070 02 31 55 be 29 42 b7 bd 57 6f cd 3d 4e b9 b9 3c
       -0.20819476 -0.08948166 0.10031002 0.022671368
000080 7b 16 37 3d 10 a1 76 bd a2 d8 13 be 5e 63 97 bd
       0.044699173 -0.060212195 -0.14438108 -0.07392
000090 0e 12 86 3d 70 91 5d 3d 34 1e b7 bc b1 6f c5 3b
       0.065464124 0.054093778 -0.02235327 0.0060252775
0000a0 a9 6a 98 3d 22 69 82 bd 3f 92 8c bd 46 f5 54 3e
       0.07442219 -0.06367709 -0.06863832 0.2079669
0000b0 69 62 92 3c 9b d8 a2 3d 92 5c 3e 3c ba a6 b7 bc
       0.017869191 0.079514705 0.01161875 -0.022418369
0000c0 a4 bc 84 bd 1f b8 bf bd 2a 69 0f be a0 8a 2d be
       -0.06481293 -0.0936129 -0.1400496 -0.16947412
0000d0 d0 53 65 be 81 53 fe 3c 6a 01 2b be 5c 88 29 bd
       -0.22395253 0.031045677 -0.16699758 -0.041389808
0000e0 a6 f0 86 3d 1d 7b e8 3d 76 48 df bd ef 53 43 3d
       0.06588869 0.11351607 -0.10902493 0.047687467
0000f0 0e ae 8e bd 75 17 1c 3e c7 91 56 bd 63 86 42 3d
       -0.06966792 0.15243323 -0.052385118 0.047491442
000100 69 a0 ea bc 17 22 22 3e 04 9c ee 3c 59 b8 a9 bd
       -0.028640943 0.15833317 0.029127128 -0.08287115
000110 bc f2 2a be d7 64 03 3e 2d 62 b7 3b 2d 21 0b 3d
       -0.16694158 0.12831436 0.0055964203 0.033967186
000120 e5 1f 56 3d f9 25 a7 3d d0 ba b8 bd 96 08 10 3d
       0.05227651 0.081615396 -0.09020007 0.03516444
000130 c5 30 4c be 3a 42 73 bc 8e 23 8d 3c 75 90 b8 3d
       -0.19940479 -0.014847333 0.017228868 0.09011928
000140 a7 f4 e7 3d c6 49 f1 3d a9 a9 56 3c de f8 a8 3d
       0.113259606 0.11781649 0.013101974 0.08250593
000150 51 84 c0 3d 32 d8 40 bc f3 71 7f bd 69 9b 25 bc
       0.09400237 -0.011770295 -0.06236453 -0.010107853
000160 41 11 e9 3c e6 11 32 bc e4 f4 78 3c 01 5f 5b 3d
       0.02845061 -0.010868525 0.015195105 0.0535574
000170 2b f7 51 bc 3a 1e dc bd 18 61 0c 3d 44 f0 10 3d
       -0.012815277 -0.10747953 0.034272283 0.035385385
000180 2d 5f bc 3d 57 bb 3e be 94 75 a8 bd 2a 24 7f bd
       0.09197841 -0.18626152 -0.08225551 -0.062290348
000190 68 24 01 3e 5a d7 62 3c 73 e7 67 bd 31 36 f8 3d
       0.12611544 0.013845289 -0.05661721 0.12119711
0001a0 00 c0 0f be 9c 09 0c 3e b5 eb cb 3c 09 2f 9e bd
       -0.14038086 0.1367554 0.024892667 -0.07723815
0001b0 3e d7 81 3e 52 c3 f9 3d 0a c4 03 bc 24 42 45 3d
       0.2535953 0.121954575 -0.008042345 0.04815878
0001c0 ae 8a 1d be 5d b6 16 bd 3a cd b0 bc 25 b3 da 3d
       -0.15384933 -0.03679501 -0.021582235 0.106787
0001d0 c9 30 ac bd aa 03 40 bc 61 a3 8e bd 07 da 28 3c
       -0.084077425 -0.011719624 -0.06964756 0.010305888
0001e0 a6 64 20 3e a5 d3 5e bc 4a 93 02 3b 6d 6f 4c 3d
       0.15663394 -0.013600265 0.0019924217 0.04991095
0001f0 d9 25 73 3d e4 2d 25 bd 34 78 4d 3c 57 67 ff bc
       0.059362266 -0.040326968 0.012540866 -0.031177206
000200 48 80 8a bd a8 94 f7 bd 46 6a 24 bd b9 ef 0e bd
       -0.06762749 -0.12088901 -0.040140413 -0.034896586
000210 f6 8c ac bd d0 40 69 3d d2 17 b6 3b 47 82 0b ba
       -0.08425324 0.056946576 0.005557039 -0.0005321842
000220 92 26 08 be b2 c3 b0 bd fd 26 e7 bc 1c 2e e9 bc
       -0.13295963 -0.08631076 -0.028216833 -0.02846437
000230 94 df 15 bb 60 36 86 3d df a3 37 be 43 66 18 bd
       -0.0022868859 0.0655334 -0.17933606 -0.0372069
000240 b0 20 c6 bc a8 85 d0 bd fe ef fd bd 98 df 13 3e
       -0.024185508 -0.10181743 -0.123992905 0.14440763
000250 e6 d5 a9 bc bc 73 52 3d d7 f7 ff 3b 0b dd 15 3c
       -0.020731878 0.051379904 0.0078115272 0.009146939
000260 8e 37 91 bb 97 a9 c9 bc 0d be 96 3d 5d a4 a0 3c
       -0.0044316715 -0.024617 0.07360468 0.019609625
000270 ba 70 03 be cd 53 85 bd b4 d9 64 3d 5c cd ac bc
       -0.1283597 -0.06510124 0.05587168 -0.021094017
000280 d1 b6 77 3d 01 55 a1 bc d7 ed 45 3d 4f cd cd 3d
       0.06047708 -0.019693853 0.048322525 0.10048925
000290 80 ec b8 bd ab 5d a4 3c e2 31 28 3e 35 7a 5e bd
       -0.09029484 0.020064196 0.16425279 -0.054315764
0002a0 ba 50 2e 3d 7f 7b 17 3e 50 88 24 3d bf 9e 91 3d
       0.042557456 0.14793204 0.04016906 0.071103565
0002b0 7b d0 fe 3b fa 34 29 3d 4d b0 da bc 96 e4 8a bc
       0.0077763177 0.041310288 -0.026695395 -0.016954701
0002c0 8c cc 2c bd 71 5a 4f 3d ec ef ff bd aa 6a 35 3c
       -0.04218726 0.05062336 -0.12496933 0.011072794
0002d0 f0 5e e6 bc 4d fd 4a bd a7 84 b5 bc 04 c2 c7 3a
       -0.028121442 -0.049557973 -0.02215798 0.0015240316
0002e0 c1 2a bc ba 59 cc 12 be 79 98 c4 3c d2 83 13 3e
       -0.0014356003 -0.14335765 0.023998486 0.14405754
0002f0 34 65 bf 3c d9 07 f5 3c 4b 57 d2 3a 6a 56 60 3d
       0.023363687 0.029910969 0.0016047744 0.05476991
000300 0a 7d b3 3d c0 d5 81 3d b2 7e dd ba e8 ce 2f bb
       0.08764084 0.06339598 -0.001689872 -0.0026826207
000310 b1 20 aa bd d3 f3 8a 3d 49 9e a6 bb 80 29 43 bc
       -0.08307017 0.06784787 -0.005084787 -0.01191175
000320 c1 89 b6 3d b7 56 ed 3c 4a 7e c3 bb ba 1b c4 3d
       0.08912993 0.028972013 -0.0059659826 0.09575601
000330 be 22 5f 3d e1 91 a8 3d f6 63 eb bd 8e 88 03 3e
       0.054476492 0.08230949 -0.114936754 0.1284506
000340 11 d6 90 3d 9f d6 05 3d 20 1a bc 3c 73 80 c9 bd
       0.0707208 0.03267538 0.022961676 -0.09838953
000350 17 df 44 bd 67 fa 5d 3d e7 8a 90 bd e8 a7 a9 bd
       -0.048064318 0.05419388 -0.070577435 -0.08283979
000360 6d f9 47 bd 17 df 93 3d f5 d4 da bd c5 8c b5 3c
       -0.048821855 0.072202854 -0.106851496 0.02216185
000370 59 a9 04 bd 10 fc 9a bc e8 fc 72 bc 7c c1 88 3d
       -0.032388065 -0.01891902 -0.014830805 0.06677529
000380 d2 7c 19 3d f9 55 07 bb 72 63 ad 3a 04 ef 08 be
       0.037472554 -0.002065061 0.001322849 -0.13372427
000390 e6 cf 44 3d 4e 7f 1b 3b 61 8b 1c be d7 d2 5b 3d
       0.04804983 0.0023727003 -0.15287544 0.05366787
0003a0 c1 b5 a7 3c 44 85 82 bd 1c d3 25 bd 0f 32 4f bd
       0.02047241 -0.06373075 -0.040484533 -0.05058485
0003b0 26 3e bd bd ca 73 8f 3c ec c5 19 3d 48 f4 a2 bd
       -0.092403695 0.017511267 0.03754227 -0.07956749
0003c0 1a ae 68 bc 54 a4 04 bd a9 15 b1 bd cc f4 86 bd
       -0.014201665 -0.032383278 -0.086467095 -0.0658966
0003d0 2c 01 58 3c df 55 45 bc 71 12 d7 bc e9 af 32 3d
       0.013183873 -0.012044399 -0.02625391 0.043624792
0003e0 70 b1 8f 3d 17 2f b2 bd 3c 86 b6 3c 3e 66 5c bd
       0.070162654 -0.08700388 0.022280805 -0.053808443
0003f0 50 7a 82 3b ec 52 d2 bd 24 88 fa 3a 53 aa ad 3d
       0.003981866 -0.10269722 0.0019114059 0.084797524

a2c_network.mu.bias f4 [10]
000000 03 0c b0 3d b1 d5 b4 3d d6 74 a0 3d f4 88 c8 3d
       0.08596041 0.08829821 0.07834785 0.09791747
000010 7f b5 41 bc 62 6b 8a bc 0d d2 a1 bc 40 ba a9 bb
       -0.011823057 -0.016896907 -0.01975348 -0.0051796734
000020 1c ca 83 3d 34 70 8b 3c
       0.06435034 0.017021276

exp_avg f4 [10]
000000 2d 5a cf 38 40 4a 7c 3a 95 2d 06 ba c9 b3 ed 38
       9.887326e-05 0.0009624101 -0.00051184866 0.00011334528
000010 05 68 b6 39 78 b6 42 b9 5e 97 1b 3a 6d 96 12 3a
       0.00034791246 -0.00018569257 0.0005935336 0.0005591873
000020 98 23 ec b9 67 23 de 38
       -0.00045039947 0.00010592379

exp_avg_sq f4 [10]
000000 ba 2c fe 36 f3 47 fe 36 0f 0a 18 37 9b 7c 06 37
       7.5749967e-06 7.578166e-06 9.062248e-06 8.016034e-06
000010 18 16 0a 37 68 52 17 37 c8 f5 03 37 28 a3 10 37
       8.230585e-06 9.019488e-06 7.865434e-06 8.621057e-06
000020 5d 05 fe 36 c4 19 03 37
       7.5704143e-06 7.8142075e-06
