logs/rl_games/humanoid_flat_direct/2025-11-18_21-58-12/nn/last_humanoid_flat_direct_ep_1050_rew_414.81998.pth (torch, 759553 bytes, 33 tensors)

value_mean_std.running_mean f8 [1]
88.70339161350661
00000000: a912 425e 042d 5640

value_mean_std.running_var f8 [1]
2257.8310388016957
00000000: fbf5 ea7d a9a3 a140

value_mean_std.count f8 []
412876801.0
00000000: 0000 0001 009c b841

a2c_network.sigma f4 [10]
-1.2292792 -1.222662 -1.1620556 0.06726363 -1.5344098 -0.9797546 -1.9435482 -1.8063186
0.058286276 -0.21679863
00000000: 0559 9dbf 3080 9cbf 3dbe 94bf 84c1 893d
00000010: 8a67 c4bf 33d1 7abf 30c6 f8bf 7335 e7bf
00000020: 97bd 6e3d 7600 5ebe

a2c_network.actor_mlp.0.weight f4 [256, 42]
0.03265521 0.3771664 0.2368209 -0.03443748 0.04534902 0.06592621 0.13806108 -0.20736864
-0.32797763 -0.051270597 -0.16256936 0.08874173 -0.14908445 -0.075970314 0.10165507 0.031816375
0.14979133 -0.06923779 0.012385226 -0.09891799 0.10587935 -0.12243022 -0.3973581 -0.2027971
0.17026867 0.06733926 -0.11753042 -0.034162562 0.1796361 0.19759938 0.2352803 -0.17484212
-0.16469598 -0.110390574 -0.050556153 0.04549661 0.04806461 0.1131194 -0.12954003 -0.10634448
0.048276667 -0.034274887 0.10651763 0.16028243 0.24129264 -0.09356103 -0.1929722 0.3298112
0.19521551 0.046155244 -0.08677929 0.05694068 -0.10928487 -0.07683793 0.2593407 -0.010711979
0.04368437 -0.18507197 0.0041513625 0.11738477 -0.028576575 -0.13396916 0.14399153 0.008889794
-0.103097215 -0.117175646 -0.39395303 -0.16959602 0.06462851 0.070679665 0.07421618 -0.35292983
-0.042462636 0.11016953 0.0074712094 -0.1620258 -0.05103279 -0.0398584 0.05967268 -0.052973833
0.064274654 -0.14475158 -0.04302094 -0.017216869 -0.07328305 -0.14191248 0.29312244 0.09905047
0.022270812 0.043761153 -0.16649383 0.12657444 -0.14465462 -0.061029743 -0.1483487 -0.17111246
0.007030093 -0.19974428 0.104469135 -0.11925503 0.14998062 -0.057838216 -0.07058233 -0.018025914
0.11829189 0.20315905 0.1400071 -0.20613506 0.015704911 -0.13423078 -0.09809186 -0.14665969
0.076517195 -0.15947695 0.113475055 0.07360778 0.022228397 -0.14279631 0.121818595 0.03621254
0.08537242 -0.108670294 0.10767255 0.01817737 -0.0745828 0.16211429 0.02346925 -0.023792628
-0.049232136 0.098088235 0.07280223 -0.12247775 -0.11426576 -0.23283365 -0.13444847 0.069661744
0.108608775 -0.1560017 0.050592553 0.061822172 -0.0014721024 -0.04560686 0.054138493 0.17289598
0.11155323 -0.05232775 -0.1992983 0.108970985 0.14964116 -0.073106036 0.3013521 0.30419162
0.11540976 -0.0059709307 0.16116686 -0.025823358 0.031572316 -0.08091048 -0.20029287 -0.08943148
0.14509329 0.047374073 0.0010519432 -0.07104581 -0.090922035 -0.08071311 -0.03953522 0.03957571
0.13892932 0.29216734 0.0020304886 0.068921834 0.028315725 0.28909832 0.07659831 -0.10143186
0.048185058 -0.09343136 -0.06117511 0.15253277 0.0014719069 0.03213072 -0.12643127 0.08263719
0.13629687 0.025234051 -0.09520361 -0.19631515 -0.07052268 0.191342 0.36039346 0.18180007
0.3092371 -0.013694159 -0.04335937 -0.2431665 -0.27833274 -0.42098743 0.15682247 -0.091200195
-0.02259016 -0.07697203 0.0021450422 -0.076421395 -0.08063857 -0.0046364465 -0.054052677 0.097758666
0.008018077 -0.06707979 -0.026988883 0.011426043 -0.089486055 -0.09190122 0.15005523 -0.05712726
0.1675038 0.0347545 0.10686605 -0.11802611 0.11266898 -0.07394015 0.1710957 0.20444839
-0.008544162 -0.0073944423 0.026370464 -0.09563032 0.06422812 -0.2529993 0.09853008 0.24695912
0.39579743 -0.10667082 -0.04322603 -0.08164351 0.0130012715 -0.22675428 -0.02579064 -0.23705031
0.08436614 -0.112720884 -0.08830539 -0.09329262 -0.1351037 0.14378834 0.11613514 0.015530886
-0.008749755 -0.010877252 -0.07779598 -0.083865546 0.061042134 -0.061876323 0.009471443 0.088514715
00000000: 78c1 053d f41b c13e 2e81 723e 510e 0dbd
00000010: e5bf 393d 5204 873d e25f 0d3e 7258 54be
00000020: afec a7be 1e01 52bd 9578 26be 39be b53d
00000030: 98a9 18be 5396 9bbd 8930 d03d e351 023d
00000040: e662 193e 8bcc 8dbd 67eb 4a3c 8495 cabd
00000050: 46d7 d83d b2bc fabd 8572 cbbe 0baa 4fbe
00000060: e95a 2e3e 2ae9 893d cab3 f0bd 0bee 0bbd
00000070: 87f2 373e 7e57 4a3e 52ed 703e d009 33be
00000080: 10a6 28be 7414 e2bd f813 4fbd a75a 3a3d
00000090: 66df 443d 25ab e73d 24a6 04be 22cb d9bd
000000a0: c1bd 453d d363 0cbd ea25 da3d 1421 243e
000000b0: 6b15 773e ed9c bfbd 819a 45be 03dd a83e
000000c0: 93e6 473e 480d 3d3d 57b9 b1bd a13a 693d
000000d0: bfd0 dfbd 345d 9dbd 4ec8 843e 4c81 2fbc
000000e0: 62ee 323d 8283 3dbe 2708 883b 6d67 f03d
000000f0: 6c19 eabc 362f 09be 8472 133e 80a6 113c
00000100: a224 d3bd c9f9 efbd 36b4 c9be 94aa 2dbe
00000110: f45b 843d 80c0 903d a7fe 973d 38b3 b4be
00000120: 4ded 2dbd 90a0 e13d 0cd1 f43b 17ea 25be
00000130: c207 51bd 9042 23bd 576b 743d 17fb 58bd
00000140: 6ea2 833d c239 14be ba36 30bd 640a 8dbc
00000150: 6c15 96bd 8151 11be 2514 963e f9da ca3d
00000160: 4771 b63c e53e 333d 5c7d 2abe bb9c 013e
00000170: 5720 14be 53fa 79bd b9e8 17be 1b38 2fbe
00000180: b25c e63b c489 4cbe eaf3 d53d fb3b f4bd
00000190: 8594 193e c4e7 6cbd 788d 90bd 15ab 93bc
000001a0: 0543 f23d ed08 503e 055e 0f3e 1215 53be
000001b0: 96a7 803c cb73 09be 63e4 c8bd f52d 16be
000001c0: 0cb5 9c3d ed4d 23be 9c65 e83d adbf 963d
000001d0: 5418 b63c 3239 12be 077c f93d 9a53 143d
000001e0: bcd7 ae3d 888e debd 6d83 dc3d b5e8 943c
000001f0: debe 98bd 4a01 263e 9642 c03c c2e8 c2bc
00000200: a3a7 49bd 7ce2 c83d 5619 953d 9dd5 fabd
00000210: 2b04 eabd f26b 6ebe dcac 09be d1aa 8e3d
00000220: 476e de3d e9be 1fbe 233a 4f3d 3f39 7d3d
00000230: 8ff3 c0ba 42ce 3abd 53c0 5d3d a50b 313e
00000240: 0576 e43d 9f55 56bd db14 4cbe 2e2c df3d
00000250: 883b 193e 9eb8 95bd d34a 9a3e 01bf 9b3e
00000260: f45b ec3d cca7 c3bb ed08 253e 828b d3bc
00000270: f951 013d 65b4 a5bd 9319 4dbe da27 b7bd
00000280: 5693 143e 510b 423d 5be1 893a 7780 91bd
00000290: 5535 babd ea4c a5bd afef 21bd 241a 223d
000002a0: 7d43 0e3e f596 953e f211 053b e426 8d3d
000002b0: 61f6 e73c b204 943e 93df 9c3d 82bb cfbd
000002c0: b25d 453d f158 bfbd c192 7abd 8d31 1c3e
000002d0: 00ed c03a 809b 033d 3377 01be b03d a93d
000002e0: 6891 0b3e a4b7 ce3c 1cfa c2bd d706 49be
000002f0: 326e 90bd 28ef 433e 7e85 b83e cc29 3a3e
00000300: 5354 9e3e 775d 60bc 9899 31bd a400 79be
00000310: a181 8ebe aa8b d7be 1296 203e 2bc7 babd
00000320: 000f b9bc 83a3 9dbd d693 0c3b d282 9cbd
00000330: d625 a5bd 55ed 97bb 5766 5dbd b235 c83d
00000340: 415e 033c 2161 89bd ca17 ddbc 4c34 3b3c
00000350: 7744 b7bd b536 bcbd 14a8 193e 46fe 69bd
00000360: 1e86 2b3e bc5a 0e3d 96dc da3d acb7 f1bd
00000370: ffbe e63d ef6d 97bd b633 2f3e eb5a 513e
00000380: d0fc 0bbc 144d f2bb df06 d83c d4d9 c3bd
00000390: 088a 833d 2089 81be 23ca c93d dae2 7c3e
000003a0: f6a5 ca3e 3b76 dabd c70d 31bd b634 a7bd
000003b0: 4903 553c 4632 68be e446 d3bc 51bd 72be
000003c0: 28c8 ac3d 35da e6bd 75d9 b4bd 3310 bfbd
000003d0: a058 0abe 403d 133e 43d8 ed3d 4275 7e3c
000003e0: 225b 0fbc 8036 32bc 8053 9fbd b3c1 abbd
000003f0: 5107 7a3d 0772 7dbd 1c2e 1b3c 3447 b53d

a2c_network.actor_mlp.0.bias f4 [256]
-0.028140375 0.04066181 -0.007613387 -0.014872762 0.033005886 0.010038576 0.014553905 -0.011278996
-0.0143509675 0.05592833 0.028758325 0.0023406728 0.013475128 -6.624277e-05 0.026101127 0.0002824122
0.013427955 0.010170167 -0.030604763 0.031589013 -0.040386528 -0.018907543 0.0055801477 0.030558879
-0.0059003346 -0.011083384 -0.015380754 -0.014977144 0.022389673 -0.037826166 0.019504486 0.032736745
0.058977034 -0.013324512 -0.0006115979 -0.028817149 0.02303699 -0.006718337 0.006385037 -0.0060089612
-0.008156267 -0.009417122 0.027840815 -0.057618503 0.014763043 0.034941323 0.041655466 0.06068709
-0.010073202 -0.0010018031 -0.019080028 0.023114417 0.00094851677 -0.024221981 -0.015721466 -0.046643797
-0.0153986225 0.010455044 0.0050061904 0.023293393 -0.017601632 0.0073196124 -0.005483218 -2.321188e-05
0.005395871 0.07812734 -0.015704986 0.022543041 -0.023930842 0.04363541 -0.030910952 -0.04575985
-0.027786294 0.040838093 -0.0154061215 -0.017773734 -0.0380321 -0.034556907 -0.05474998 0.0038677184
-0.009176209 -0.0073259603 0.022135297 0.005604698 0.027314635 0.015696254 0.0058141653 -0.03755058
0.03147168 -0.02529246 0.040223848 -0.014797356 -0.0013063106 -0.030360766 -0.014299259 0.01441526
0.035923887 -0.011724723 -0.06033806 -0.008474462 0.007710282 -0.012626213 -0.00943892 0.034910787
0.013483745 0.0141692 0.00067065045 0.011077573 -0.0027265504 -0.060443338 0.015705284 0.018965822
-0.022651186 -0.040394742 -0.03897617 0.0118861655 0.029835893 -0.004374904 -0.016507763 0.0032956076
-0.01983362 -0.042904608 -0.024288192 0.030884983 -0.0027305544 0.012963991 0.009475696 -0.035839126
-0.03842426 0.015386617 -0.024606433 -0.012133625 -0.027645053 0.014504407 0.03835749 -0.006938425
-0.010135398 -0.031016802 0.0032550625 -0.02543609 -0.0030440083 0.027233202 -0.021271527 -0.018337205
0.013637974 9.42911e-05 0.0427385 -0.0017771953 0.06301892 -0.034043036 0.02050174 0.024864994
0.0032768957 -0.024713192 0.013385061 -0.0394152 -0.0277834 -0.03236163 0.04904795 0.009698375
-0.018674012 0.03691629 -0.017236281 -0.016631454 -0.011228228 0.03781469 -0.033350173 0.0053484137
0.032418188 0.058684573 -0.026179906 -0.0044594286 0.02036289 0.018198704 0.015286493 0.00095772283
0.033937752 -0.03119083 0.009143346 0.0071331183 0.017811341 0.050875314 -0.0007857547 0.024161512
-0.023215294 -0.026891312 0.018681116 0.011941555 0.00016343272 0.06496165 0.014188305 0.052423123
-0.0025272807 0.017677965 0.0465254 0.014506402 0.009969759 -0.03362975 0.029510757 -0.033175893
0.02784203 -0.0132425595 0.014901123 -0.046629943 -0.0017367027 -0.016439399 0.00038688382 -0.022271765
-0.013314948 -0.0017091706 -0.018255139 0.03683588 0.020514723 0.01109228 0.038490362 -0.007751954
0.0050511956 0.026823448 -0.028445525 -6.7760244e-05 0.019936642 0.028723117 -0.045458395 0.047086433
0.041435644 -0.024044499 -0.05200342 0.03458326 0.037110444 0.0030188675 0.041383706 -0.037788156
-0.011641619 -0.05316296 0.0024491467 0.06284016 0.02578095 0.01922117 -0.030122537 0.006856345
0.04324003 0.014903193 -0.0011679254 0.035658002 0.056908485 0.021355482 0.042214707 -0.044184726
0.041414898 -0.03916422 -0.012118546 -0.017295815 0.029183941 0.009191602 0.023824954 0.0028374041
00000000: a586 e6bc 008d 263d b879 f9bb e3ac 73bc
00000010: 2e31 073d d778 243c 8173 6e3c 8acb 38bc
00000020: 5220 6bbc 1b15 653d 9496 eb3c f965 193b
00000030: c9c6 5c3c d1eb 8ab8 08d2 d53c b910 9439
00000040: ed00 5c3c c6a0 263c d7b6 fabc 7b63 013d
00000050: 586c 25bd fee3 9abc acd9 b63b 9d56 fa3c
00000060: 9857 c1bb 1597 35bc 8fff 7bbc b262 75bc
00000070: 8c6a b73c 9cef 1abd dfc7 9f3c f716 063d
00000080: e791 713d 0e4f 5abc a453 20ba f111 ecbc
00000090: 12b8 bc3c 7f25 dcbb 9339 d13b d2e6 c4bb
000000a0: dda1 05bc 464a 1abc 6c12 e43c 6101 6cbd
000000b0: b1e0 713c a21e 0f3d ec9e 2a3d 0793 783d
000000c0: 120a 25bc ef4e 83ba b84d 9cbc 725a bd3c
000000d0: e2a5 783a 2d6d c6bc 4eca 80bc 910d 3fbd
000000e0: 814a 7cbc a24b 2b3c f80a a43b c9d1 be3c
000000f0: 4c31 90bc 5cd9 ef3b 91ac b3bb 22b7 c2b7
00000100: d9cf b03b 3a01 a03d bea7 80bc 2fac b83c
00000110: 9d0a c4bc 0bbb 323d f738 fdbc ae6e 3bbd
00000120: 15a0 e3bc d845 273d f569 7cbc 399a 91bc
00000130: 8cc7 1bbd 8b8b 0dbd 8441 60bd 8c79 7d3b
00000140: cf57 16bc 9c0e f0bb 1555 b53c 9da7 b73b
00000150: f1c2 df3c 6e95 803c c184 be3b a3ce 19bd
00000160: 73e8 003d 2232 cfbc c3c1 243d 9c70 72bc
00000170: 8338 abba 24b7 f8bc 7047 6abc fc2d 6c3c
00000180: ed24 133d 0d19 40bc 0b25 77bd 78d8 0abc
00000190: 89a6 fc3b 2dde 4ebc b3a5 1abc 9dfe 0e3d
000001a0: edea 5c3c ef25 683c 97ce 2f3a b57e 353c
000001b0: edaf 32bb 6f93 77bd 5ea8 803c 365e 9b3c
000001c0: fb8e b9bc f574 25bd 7aa5 1fbd 31be 423c
000001d0: 676a f43c 5b5b 8fbb 4a3b 87bc 1ffb 573b
000001e0: 1e7a a2bc bebc 2fbd 08f8 c6bc 8102 fd3c
000001f0: 1af3 32bb eb66 543c f33f 1b3c 0ccc 12bd
00000200: c262 1dbd 2618 7c3c 6e93 c9bc 1dcc 46bc
00000210: e177 e2bc e4a3 6d3c be1c 1d3d ba5b e3bb
00000220: f10e 26bc f316 febc e352 553b 595f d0bc
00000230: fc7d 47bb 2a18 df3c a041 aebc e837 96bc
00000240: cf71 5f3c 26be c538 910e 2f3d c7f0 e8ba
00000250: 1010 813d b670 0bbd 44f3 a73c acb1 cb3c
00000260: 30c1 563b 5273 cabc 044d 5b3c d571 21bd
00000270: 039a e3bc a18d 04bd 81e6 483d efe5 1e3c
00000280: 3efa 98bc 8935 173d 1a33 8dbc b03e 88bc
00000290: 9af6 37bc 94e3 1a3d 319a 08bd bf41 af3b
000002a0: efc8 043d 3c5f 703d 3e77 d6bc 6620 92bb
000002b0: 13d0 a63c 7315 953c 3374 7a3c b10f 7b3a
000002c0: 5002 0b3d e983 ffbc f9cd 153c efbc e93b
000002d0: 17e9 913c a262 503d 1bfb 4dba 5dee c53c
000002e0: 002e bebc 2b4b dcbc 2409 993c 83a6 433c
000002f0: 235f 2b39 9d0a 853d 1076 683c a1b9 563d
00000300: bca0 25bb 61d1 903c 6b91 3e3d 43ac 6d3c
00000310: 3358 233c 59bf 09bd 8bc0 f13c 72e3 07bd
00000320: f814 e43c 52f7 58bc d723 743c 0aff 3ebd
00000330: 13a2 e3ba ebab 86bc abd6 ca39 4773 b6bc
00000340: f126 5abc 4006 e0ba cd8b 95bc 38e1 163d
00000350: 7e0e a83c 65bc 353c 12a8 1d3d 1a04 febb
00000360: 8084 a53b d9bc db3c 9706 e9bc 811a 8eb8
00000370: 2b52 a33c be4c eb3c 9532 3abd b4dd 403d
00000380: 6cb8 293d f8f8 c4bc 8a01 55bd 2da7 0d3d
00000390: 1f01 183d 31d8 453b f681 293d c1c7 1abd
000003a0: 7dbc 3ebc 67c1 59bd dd81 203b 58b2 803d
000003b0: 9232 d33c b775 9d3c 8ac3 f6bc 31ab e03b
000003c0: 751c 313d 862c 743c 1315 99ba 200e 123d
000003d0: df18 693d b1f1 ae3c 54e9 2c3d 0bfb 34bd
000003e0: aba2 293d a96a 20bd de8c 46bc f4af 8dbc
000003f0: 2913 ef3c 5f98 163c 8d2c c33c bef3 393b

a2c_network.actor_mlp.2.weight f4 [128, 256]
0.010521957 0.023940133 -0.07449295 -0.07902605 0.00065892254 -0.030433727 -0.05358949 0.11621929
0.10591067 0.04991128 -0.06280702 -0.0049768626 0.043418366 0.025443021 -0.036414333 0.041160934
-0.09981891 0.037417646 0.06946343 -0.052047007 0.0052137338 -0.1630321 -0.10955239 0.13097595
0.01768433 -0.08156445 -0.057899255 0.08963279 -0.08294811 -0.11670656 -0.066436514 -0.025229925
-0.02716188 -0.017787261 0.009068713 -0.09277175 0.0035750458 -0.023971846 0.10856826 -0.061527245
-0.12049968 0.03817324 0.059678454 -0.01511564 0.010074741 -0.07984816 -0.030450772 -0.0108332485
0.02972623 -0.044225223 0.012328801 0.050017722 0.13520534 0.057328466 -0.011644127 0.003991654
-0.10351463 -0.06892379 0.0005131783 0.044304755 0.0629146 -0.06529197 0.003440037 -0.06915195
-0.12188503 0.07020291 -0.22528154 -0.05267743 0.12190397 0.04062483 -0.020824285 0.042620476
0.044502735 0.021506455 0.07933406 -0.079624206 0.042648494 -0.055980973 0.005727209 0.22852874
-0.04841271 0.07088549 -0.038422246 -0.10943057 0.1040162 -0.0024759881 -0.15172198 0.003598188
-0.08047455 -0.060478374 -0.010774414 0.027078895 0.00023479428 -0.09125104 0.030730492 -0.16094284
0.047422085 -0.034040276 0.044014156 0.007983774 0.014048445 -0.08289738 -0.08780723 -0.034452785
-0.03957832 0.11927278 0.041530967 -0.037308667 -0.09241161 -0.00855222 -0.13472973 -0.02293295
0.09835187 0.045149922 -0.07821592 -0.08744771 -0.25953948 0.09296393 -0.020392846 -0.079880565
-0.040125683 0.032001346 0.04489187 -0.028997988 0.013769124 0.049430426 0.021270929 0.028600004
-0.06613932 -0.004612911 0.07228163 -0.04499849 -0.047458775 -0.01306127 0.021559797 0.10337224
0.05718193 0.03488028 -0.09295804 -0.040986497 -0.11911443 -0.089269534 0.12201024 -0.06504955
-0.10962478 0.026036361 -0.06958526 -0.062495504 -0.14280644 0.00713228 0.07392172 0.018240932
0.14605394 -0.022240568 -0.15073235 -0.14710368 0.02617873 -0.02322778 -0.02762394 -0.005754422
-0.023397721 0.13465166 -0.003295229 -0.071591124 -0.08194447 -0.03538013 0.15889424 0.036978904
0.019081453 -0.076654576 0.009730234 0.075799555 -0.1021177 0.004296988 -0.14090824 -0.06313976
-0.021227486 0.06448997 0.11796425 -0.14091869 -0.11810584 -0.075664125 0.07191072 -0.03777089
-0.11214976 -0.032057654 -0.05342157 0.08438418 -0.03763198 -0.0049749115 0.05112836 -0.10851134
-0.09825948 -0.024227882 -0.013639477 -0.06542107 0.0324978 0.0052288133 -0.14489368 -0.060733587
0.07789481 -0.021009691 -0.09039502 0.063346535 -0.027071282 0.060340986 -0.002810448 -0.1305405
0.008866954 -0.1193442 0.09658705 0.061050825 -0.10042387 -0.10155397 0.026434919 -0.0107902475
-0.007483795 0.012341769 -0.026393346 0.14172167 0.16145411 0.0010784097 -0.12405619 -0.032941677
-0.06940297 0.16749339 -0.046014633 -0.023666319 -0.017954456 -0.05976834 0.0031780866 0.025654102
0.055800837 0.05770235 0.07892677 -0.018975057 0.081466496 0.1244655 -0.065094635 0.0010768198
-0.10955792 0.0394987 -0.029077988 0.0077552646 -0.03805809 0.14240763 -0.07112174 0.028608268
0.09323639 -0.06910989 -0.1128337 0.0725191 -0.013770997 0.09224606 0.047803704 -0.008706176
00000000: 4964 2c3c 191e c43c c38f 98bd 69d8 a1bd
00000010: 8bbb 2c3a 2750 f9bc a780 5bbd 6104 ee3d
00000020: b1e7 d83d c56f 4c3d f8a0 80bd f314 a3bb
00000030: 75d7 313d e26d d03c 3227 15bd 5e98 283d
00000040: db6d ccbd 3f43 193d d842 8e3d 3e2f 55bd
00000050: f8d7 aa3b e3f1 26be 015d e0bd 8f1e 063e
00000060: bade 903c 430b a7bd c527 6dbd 6591 b73d
00000070: b3e0 a9bd d903 efbd de0f 88bd fdae cebc
00000080: 9782 debc 97b6 91bc f094 143c 1eff bdbd
00000090: 514b 6a3b 9b60 c4bc 0959 de3d fe03 7cbd
000000a0: 89c8 f6bd 8b5b 1c3d 6571 743d 97a7 77bc
000000b0: 8710 253c 6f87 a3bd e673 f9bc f07d 31bc
000000c0: 6c84 f33c 8225 35bd bdfe 493c 62df 4c3d
000000d0: 4573 0a3e 41d1 6a3d 02c7 3ebc 6ccc 823b
000000e0: 7aff d3bd ea27 8dbd d086 063a e778 353d
000000f0: 5fd9 803d ccb7 85bd 3e72 613b 8a9f 8dbd
00000100: dc9e f9bd 8bc6 8f3d 34b0 66be 4ac4 57bd
00000110: caa8 f93d 3966 263d b197 aabc cf92 2e3d
00000120: 8048 363d 4e2e b03c e579 a23d 0412 a3bd
00000130: 30b0 2e3d 4e4c 65bd 50ab bb3b 7003 6a3e
00000140: 684c 46bd 692c 913d a560 1dbd 221d e0bd
00000150: 7206 d53d 3044 22bb 025d 1bbe 94cf 6b3b
00000160: d7cf a4bd 2cb8 77bd 2b87 30bc 8fd4 dd3c
00000170: 1c33 7639 d3e1 babd 83be fb3c 33ce 24be
00000180: a93d 423d d16d 0bbd 3048 343d 60ce 023c
00000190: 732b 663c 1ac6 a9bd 47d4 b3bd 5d1e 0dbd
000001a0: e01c 22bd 4a45 f43d 601c 2a3d f9d0 18bd
000001b0: 4c42 bdbd 9c1e 0cbc 97f6 09be e2dd bbbc
000001c0: b56c c93d 20ef 383d ab2f a0bd c917 b3bd
000001d0: 5ce2 84be df63 be3d e60e a7bc 6c98 a3bd
000001e0: d45a 24bd d813 033d 8ae0 373d 308d edbc
000001f0: e497 613c 8f77 4a3d 5f40 ae3c 8e4a ea3c
00000200: 0d74 87bd e727 97bb 6408 943d 5650 38bd
00000210: 2264 42bd f0fe 55bc 2c9e b03c d3b4 d33d
00000220: 9937 6a3d a0de 0e3d c960 bebd 75e1 27bd
00000230: 44f2 f3bd f2d2 b6bd 81e0 f93d b338 85bd
00000240: f582 e0bd 354a d53c b782 8ebd 49fb 7fbd
00000250: da3b 12be e7b5 e93b 4564 973d 026e 953c
00000260: 2a8f 153e da31 b6bc 9559 1abe 59a2 16be
00000270: c774 d63c 2f48 bebc 9a4b e2bc 978f bcbb
00000280: 94ac bfbc 20e2 093e c5f4 57bb 5e9e 92bd
00000290: 81d2 a7bd c1ea 10bd 2cb5 223e 3177 173d
000002a0: b550 9c3c 13fd 9cbd 8f6b 1f3c cc3c 9b3d
000002b0: 1623 d1bd bfcd 8c3b 404a 10be 6b4f 81bd
000002c0: 44e5 adbc 5113 843d 3e97 f13d fd4c 10be
000002d0: 7ae1 f1bd cbf5 9abd ed45 933d a6b5 1abd
000002e0: c6ae e5bd e34e 03bd 94d0 5abd 9dd1 ac3d
000002f0: fe23 1abd 9504 a3bb f96b 513d 323b debd
00000300: 443c c9bd 8d79 c6bc 1d78 5fbc 7bfb 85bd
00000310: 6a1c 053d 7756 ab3b 025f 14be c8c3 78bd
00000320: 5087 9f3d 841c acbc 0621 b9bd d4bb 813d
00000330: 98c4 ddbc 1c28 773d 7e2f 38bb 69ac 05be
00000340: b346 113c bb6a f4bd 6ecf c53d 6e10 7a3d
00000350: 08ab cdbd 87fb cfbd 0b8e d83c 94c9 30bc
00000360: 9f3a f5bb 2235 4a3c dc36 d8bc 7c1f 113e
00000370: 3a54 253e 6d59 8d3a 2c11 febd daed 06bd
00000380: 2523 8ebd 6383 2b3e d779 3cbd dedf c1bc
00000390: 3915 93bc a6cf 74bd 7247 503b 8d28 d23c
000003a0: 6b8f 643d 4d59 6c3d 5ca4 a13d 9471 9bbc
000003b0: e8d7 a63d c5e7 fe3d 5650 85bd 1424 8d3a
000003c0: e75f e0bd 64c9 213d f634 eebc e01f fe3b
000003d0: cde2 1bbd 4ed3 113e 46a8 91bd e35b ea3c
000003e0: b8f2 be3d 7c89 8dbd 5b15 e7bd e584 943d
000003f0: bf9f 61bc 81eb bc3d d1cd 433d 59a4 0ebc

a2c_network.actor_mlp.2.bias f4 [128]
-0.016868146 0.015264062 -0.097237 -0.0067179543 0.011929484 0.003313478 0.0043580285 0.025907967
-0.04034737 0.009657635 -0.014438542 -0.042582866 -0.061820675 -0.04984371 -0.010256079 0.04638425
-0.005828601 -0.03620668 -0.00019875816 0.016166992 0.062084254 -0.074804515 -0.030328713 -0.0547278
-0.024993978 0.015657138 -0.014176388 0.04989721 -0.022958748 -0.048753936 0.068294324 -0.013959991
0.028055757 -0.022446243 -0.03830323 0.02949841 -0.061608057 -0.04267814 0.013709557 -0.048388075
0.008096646 0.041021828 0.004981929 -0.012202214 -0.017279137 0.011660634 0.041684512 0.024260616
-0.018046103 -0.037053026 -0.016453559 0.0057898117 0.008743059 -0.012003782 -0.056693636 -0.06265727
-0.0817116 -0.026108345 0.04022616 -0.01823972 0.021040771 -0.043228082 0.02736565 -0.01937604
-0.030874534 -0.062571704 0.026674112 -0.007340506 0.0033001546 0.010586295 -0.020450557 -0.0515651
-0.029996103 -0.06525917 -0.020223876 0.006365963 -0.065468065 -0.005908941 -0.05323228 -0.009126553
-0.018095952 0.02810971 0.008533239 0.019026868 -0.022208411 -0.0085815415 0.02133468 -0.014051933
-0.02308543 -0.015437695 -0.03334725 0.029050121 -0.004492559 -0.029948622 -0.03436508 0.03776532
-0.027496336 -0.035602152 -0.04401396 0.021198697 -0.026006555 -0.038886156 0.046914663 -0.04477339
-0.036486134 -0.045700137 -0.02533303 -0.015058941 0.005356363 -0.06844887 -0.019384246 -0.049783625
-0.043624185 -0.009133237 -0.04345905 -0.058968585 -0.040077344 -0.055375323 -0.023053223 -0.059370708
-0.013453174 -0.05166995 -0.039323617 -0.035801902 0.0027850084 0.033116963 -0.03705858 -0.09519031
00000000: 112f 8abc 1e16 7a3c 3124 c7bd 4922 dcbb
00000010: e273 433c f026 593b cbcd 8e3b f23c d43c
00000020: 4943 25bd 0f3b 1e3c a28f 6cbc 5f6b 2ebd
00000030: ad37 7dbd eb28 4cbd 1d09 28bc 69fd 3d3d
00000040: d9fd bebb 754d 14bd bd69 50b9 a470 843c
00000050: 0f4c 7e3d 1c33 99bd ec73 f8bc 422a 60bd
00000060: 2cc0 ccbc 6643 803c 1544 68bc 0461 4c3d
00000070: fc13 bcbc 35b2 47bd e5dd 8b3d 72b8 64bc
00000080: 30d5 e53c 2fe1 b7bc d9e3 1cbd a6a6 f13c
00000090: bb58 7cbd 46cf 2ebd 0d9e 603c 9332 46bd
000000a0: cba7 043c 8106 283d 733f a33b cceb 47bc
000000b0: fa8c 8dbc 3e0c 3f3c 61bd 2a3d 33be c63c
000000c0: 6cd5 93bc eac4 17bd 9dc9 86bc 76b8 bd3b
000000d0: 0c3f 0f3c 83ab 44bc 9637 68bd 7452 80bd
000000e0: 6958 a7bd 2be1 d5bc 30c4 243d 776b 95bc
000000f0: b25d ac3c ee0f 31bd ed2d e03c 80ba 9ebc
00000100: 97ec fcbc 9825 80bd ab83 da3c a188 f0bb
00000110: 6847 583b 2472 2d3c ed87 a7bc ed35 53bd
00000120: 63ba f5bc 9aa6 85bd 8bac a5bc 9199 d03b
00000130: 1f14 86bd ca9f c1bb 170a 5abd 8a87 15bc
00000140: f63d 94bc 5646 e63c 00cf 0b3c 3cde 9b3c
00000150: 6aee b5bc 9899 0cbc 11c6 ae3c 143a 66bc
00000160: a81d bdbc 63ee 7cbc 2097 08bd 85fa ed3c
00000170: 5136 93bb d056 f5bc 66c2 0cbd cfaf 1a3d
00000180: ff3f e1bc 90d3 11bd fb47 34bd e4a8 ad3c
00000190: b30b d5bc 1747 1fbd 9729 403d 4d64 37bd
000001a0: 7c72 15bd 1130 3bbd 3787 cfbc c7b9 76bc
000001b0: 6e84 af3b ec2e 8cbd b6cb 9ebc eae9 4bbd
000001c0: 46af 32bd 93a3 15bc 1e02 32bd 0b89 71bd
000001d0: 2428 24bd 3cd1 62bd 1dda bcbc b32e 73bd
000001e0: b46a 5cbc dfa3 53bd cd11 21bd 04a5 12bd
000001f0: b084 363b a7a5 073d bdca 17bd 23f3 c2bd

a2c_network.actor_mlp.4.weight f4 [128, 128]
0.063319385 -0.07160491 -0.020542102 -0.082874924 -0.1182056 -0.11194034 -0.02036292 -0.15016752
0.063852705 -0.093331814 0.16483535 0.051426012 0.07994724 -0.032974534 0.04352246 -0.09645618
0.043593902 -0.02495487 0.006258469 -0.023778336 0.0048860996 0.13427727 0.06857541 -0.013805097
0.093446836 0.080755755 -0.04634859 0.05911266 -0.032598585 0.042039648 -0.18684754 -0.06568506
0.047067355 -0.03900945 0.085950404 -0.13396198 0.089052334 0.16563803 -0.09803155 0.049570516
-0.12303642 0.023246538 -0.0155317085 0.052237377 0.06826827 0.012058332 0.041242905 -0.05839714
0.082184926 -0.075953275 0.01389224 0.011835021 0.05014802 0.031221779 -0.020114897 -0.058661733
0.052529108 -0.009648123 -0.15212083 -0.00031713434 -0.07803949 0.0765075 -0.0705812 -0.039889023
0.013991495 0.087934725 -0.1250925 -0.14194323 -0.053280532 0.0016723818 0.10802097 -0.03143503
0.05645189 0.14828826 -0.026716212 -0.20845866 0.029905964 -0.017211521 0.09780171 -0.033510238
0.013239831 -0.009916278 0.25708246 0.012014598 0.085732676 0.0011852018 -0.10608169 -0.05847578
-0.07123102 -0.104102895 0.17579922 -0.08997229 -0.08143627 -0.19412522 0.044798866 0.025316175
0.07623524 0.16910407 -0.17417735 -0.13061759 -0.061077006 0.0018593998 0.08128471 0.18875456
0.15100327 0.009338378 -0.31721652 0.039198916 0.0012638691 0.15781562 -0.18131143 -0.13640952
0.09388238 0.11769923 -0.049951766 0.004215327 0.06904679 0.15708119 0.026686696 0.022363016
0.00046348103 -0.011227251 -0.0014096702 0.067865506 -0.070318535 -0.035983857 0.087322414 0.018077899
0.06250344 -0.07964172 -0.03302895 -0.096804336 -0.09119356 -0.22147232 0.07126803 0.07155643
0.036680486 -0.09091356 0.104851164 -0.138861 0.017027015 -0.12662032 -0.06518818 -0.15588295
0.09703006 0.014617777 -0.028956871 -0.015896128 -0.032431807 0.0054083215 0.0071486277 0.012417157
-0.07388633 -0.06674831 -0.07824212 0.076696925 0.09060752 -0.15618308 0.10000788 -0.20436527
-0.16754805 0.02696211 0.03908909 -0.075217344 0.028883047 -0.008493456 -0.03040422 -0.055204187
-0.011222654 -0.01640478 -0.043053288 -0.116616204 0.072465286 0.12586004 0.04328998 -0.1499169
-0.007980959 -0.016400626 -0.100534916 -0.06595336 -0.062222745 -0.036509205 0.14252433 -0.018123504
0.04734403 0.03372983 0.11868324 -0.06122786 -0.0048712757 0.042661615 -0.16019745 -0.015572634
-0.0211545 0.061681528 0.09625389 0.13495927 0.0330771 0.032280684 0.05592842 0.0063513755
0.06559046 -0.11241189 0.05173804 -0.029857162 -0.14987718 0.12565205 -0.19697076 -0.0033867806
-0.2073338 -0.051639713 -0.17915758 -0.09425302 0.042389963 0.007509174 0.017695148 -0.12683067
0.07111477 -0.007180253 0.10179069 0.08312244 -0.10678205 -0.04619661 -0.008736256 0.016884236
0.12799625 -0.08622484 -0.08734105 -0.021895636 -0.15991291 -0.14772117 0.06183154 -0.05441367
-0.25790256 0.13714667 -0.06647788 0.0051889424 -0.07936589 -0.10851871 0.012832959 0.032345206
-0.021851411 0.047159493 0.12151352 0.018370105 0.09525455 0.10359135 -0.022205202 -0.0798974
-0.097125545 -0.018667547 -0.1389972 0.13546966 -0.14697663 -0.031388715 -0.07233143 -0.07046219
00000000: 98ad 813d 98a5 92bd e947 a8bc 54ba a9bd
00000010: c715 f2bd fa40 e5bd 23d0 a6bc 84c5 19be
00000020: 35c5 823d c024 bfbd 99ca 283e 15a4 523d
00000030: 61bb a33d 4e10 07bd 9b44 323d d18a c5bd
00000040: 858f 323d 286e ccbc d813 cd3b c9ca c2bc
00000050: 931b a03b fb7f 093e 4471 8c3d c62e 62bc
00000060: 0e61 bf3d 4663 a53d 05d8 3dbd 1e20 723d
00000070: 1886 05bd c431 2c3d f654 3fbe e485 86bd
00000080: b3c9 403d 5fc8 1fbd c406 b03d 542d 09be
00000090: 1261 b63d 049d 293e c4c4 c8bd 740a 4b3d
000000a0: 85fa fbbd 866f be3c b578 7ebc dcf6 553d
000000b0: 3cd0 8b3d 4f90 453c 52ee 283d d731 6fbd
000000c0: 9250 a83d 648d 9bbd 479c 633c ade7 413c
000000d0: 0368 4d3d d1c4 ff3c ffc7 a4bc 4947 70bd
000000e0: c328 573d 2913 1ebc 90c5 1bbe 0d45 a6b9
000000f0: 2bd3 9fbd f7af 9c3d e08c 90bd ac62 23bd
00000100: 953c 653c 1f17 b43d 4018 00be 9159 11be
00000110: b03c 5abd d233 db3a 193a dd3d 05c2 00bd
00000120: 193a 673d e1d8 173e f5db dabc 3076 55be
00000130: 5afd f43c 2dff 8cbc 434c c83d 0842 09bd
00000140: e0eb 583c e277 22bc 50a0 833e e0d8 443c
00000150: 9d94 af3d c658 9b3a 5b41 d9bd 4d84 6fbd
00000160: 92e1 91bd e633 d5bd b604 343e 6443 b8bd
00000170: 0fc8 a6bd c3c8 46be 047f 373d de63 cf3c
00000180: 3921 9c3d 9e29 2d3e 8c5b 32be 9ec0 05be
00000190: e22b 7abd 1bb7 f33a 9978 a63d e048 413e
000001a0: 9aa0 1a3e ffff 183c 346a a2be 0b8f 203d
000001b0: 69a8 a53a 6b9a 213e b4a9 39be f0ae 0bbe
000001c0: 6845 c03d 4b0c f13d 399a 4cbd ba20 8a3b
000001d0: 6768 8d3d e4d9 203e 0f9e da3c a532 b73c
000001e0: 5fff f239 81f2 37bc afc4 b8ba 12fd 8a3d
000001f0: 2a03 90bd cf63 13bd 18d6 b23d 1a18 943c
00000200: ce01 803d 331b a3bd 5d49 07bd 5a41 c6bd
00000210: b0c3 babd a4c9 62be f9f4 913d 2d8c 923d
00000220: 473e 163d e330 babd 35bc d63d 9431 0ebe
00000230: 3d7c 8b3c c2a8 01be 6181 85bd c89f 1fbe
00000240: b2b7 c63d 677f 6f3c f636 edbc 9938 82bc
00000250: 37d7 04bd 4a38 b13b 093f ea3b 5571 4b3c
00000260: b751 97bd 57b3 88bd 683d a0bd 4713 9d3d
00000270: 6f90 b93d 75ee 1fbe eed0 cc3d 2145 51be
00000280: b791 2bbe a5df dc3c e21b 203d 8d0b 9abd
00000290: 249c ec3c 2328 0bbc 4512 f9bc c91d 62bd
000002a0: 39df 37bc 5163 86bc a558 30bd 7ad4 eebd
000002b0: ae68 943d 74e1 003e d650 313d d183 19be
000002c0: 91c2 02bc 9b5a 86bc 40e5 cdbd 8e12 87bd
000002d0: 47dd 7ebd ad8a 15bd e6f1 113e be77 94bc
000002e0: d0eb 413d 4a28 0a3d 3310 f33d 11ca 7abd
000002f0: 399f 9fbb f2bd 2e3d cd0a 24be 5c24 7fbc
00000300: 344c adbc c5a5 7c3d c220 c53d c332 0a3e
00000310: da7b 073d c038 043d 3315 653d 331f d03b
00000320: 4b54 863d 3438 e6bd 44eb 533d 0297 f4bc
00000330: 6779 19be eeaa 003e b4b2 49be c0f4 5dbb
00000340: 504f 54be 2a84 53bd 1675 37be ba07 c1bd
00000350: 19a1 2d3d 840f f63b 6af5 903c e6df 01be
00000360: 9fa4 913d 5448 ebbb a377 d03d 193c aa3d
00000370: 8cb0 dabd a838 3dbd 8322 0fbc cf50 8a3c
00000380: 7311 033e a696 b0bd dddf b2bd 7a5e b3bc
00000390: 36c0 23be 3844 17be 1243 7d3d dee0 5ebd
000003a0: ce0b 84be 2d70 0c3e 8e25 88bd 0108 aa3b
000003b0: 958a a2bd 0f3f debd 5541 523c 687c 043d
000003c0: bb01 b3bc 502a 413d 15dc f83d e77c 963c
000003d0: d114 c33d b427 d43d afe7 b5bc 40a1 a3bd
000003e0: c2e9 c6bd afec 98bc 4855 0ebe 8fb8 0a3e
000003f0: 0b81 16be 7491 00bd 8022 94bd 7b4e 90bd

a2c_network.actor_mlp.4.bias f4 [128]
-0.09094568 -0.007830025 0.04139423 -0.13070586 -0.050248183 -0.08442897 -0.052791994 -0.040057536
-0.025661208 -0.105104685 -0.07588413 -0.017628253 -0.034984484 -0.027627792 -0.021478627 -0.04267821
0.047438167 -0.023231197 0.005907106 -0.026931481 -0.041863743 -0.030662032 0.03266247 -0.034172367
0.0027221197 0.00080189906 -0.016242903 -0.03218788 0.0015691845 -0.07931801 -0.043021634 0.013637576
-0.05774232 -0.11391392 -0.021568578 0.017070249 -0.06698674 0.047011722 -0.04565078 -0.13232483
-0.013253361 -0.0030095447 -0.0008003787 0.034174796 -0.004018458 -0.025404012 -0.025759313 -0.0006828096
0.03634478 0.00031144352 -0.05470922 -0.049436186 -0.01182774 0.03553654 -0.016877472 0.08299506
0.011080946 -0.038784347 0.06477555 0.062168743 0.0055565764 0.052426256 -0.01895284 0.023902847
-0.01965229 0.078580104 -0.06824869 -0.028188404 -0.010491607 0.058704387 -0.12439749 0.05045399
0.028595679 0.061235122 -0.054670595 -0.008661243 0.056322303 0.032639522 -0.021680266 0.057213183
-0.0029386336 0.015263438 -0.03382959 -0.03055386 -0.17193289 0.04296409 -0.029017393 -0.07192146
-0.034239545 -0.01992517 0.026957724 -0.05456781 0.036103055 -0.044643465 0.055999678 -0.012819926
0.0052533243 -0.049094323 -0.12605748 -0.05271302 -0.049128182 -0.07741194 -0.04126287 0.06821165
-0.013031096 -0.017813485 -0.028604832 -0.035778202 -0.044941247 0.016485652 0.02569036 0.04771613
-0.016874308 -0.067463025 0.012362427 -0.002396789 -0.06531967 -0.06749921 -0.027492084 -0.0024424405
-0.10359255 0.035432454 0.028949725 -0.065846786 0.055118334 -0.028676515 -0.027832791 -0.01934684
00000000: bb41 babd 8149 00bc ff8c 293d c2d7 05be
00000010: 0ad1 4dbd 19e9 acbd 6b3c 58bd 5f13 24bd
00000020: 7437 d2bc 2041 d7bd 2469 9bbd 2069 90bc
00000030: e44b 0fbd ae53 e2bc f2f3 afbc 59cf 2ebd
00000040: 864e 423d 5a4f bebc 6690 c13b 699f dcbc
00000050: 5179 2bbd f12e fbbc 15c9 053d 53f8 0bbd
00000060: 9765 323b 8936 523a d60f 85bc 70d7 03bd
00000070: 18ad cd3a 7b71 a2bd 7437 30bd 2470 5f3c
00000080: 3683 6cbd b44b e9bd 96b0 b0bc e8d6 8b3c
00000090: 5830 89bd 5d8f 403d 50fc 3abd 2980 07be
000000a0: a024 59bc c83b 45bb 81d0 51ba dffa 0b3d
000000b0: 45ad 83bb 131c d0bc 3205 d3bc 94fe 32ba
000000c0: 44de 143d 3e49 a339 c616 60bd 997d 4abd
000000d0: 23c9 41bc c38e 113d a042 8abc 50f9 a93d
000000e0: db8c 353c 56dc 1ebd 0ba9 843d a7a4 7e3d
000000f0: f113 b63b eabc 563d fc42 9bbc e7cf c33c
00000100: d7fd a0bc 9bee a03d f8c5 8bbd 5eeb e6bc
00000110: fde4 2bbc 0374 703d 1cc4 febd d8a8 4e3d
00000120: 7c41 ea3c aed1 7a3d 46ee 5fbd e3e7 0dbc
00000130: 37b2 663d 05b1 053d d09a b1bc 5f58 6a3d
00000140: 1796 40bb 8013 7a3c e590 0abd 174c fabc
00000150: 2d0f 30be 1dfb 2f3d e2b5 edbc 8f4b 93bd
00000160: c43e 0cbd 1c3a a3bc 72d6 dc3c 7f82 5fbd
00000170: cce0 133d 11dc 36bd eb5f 653d ab0a 52bc
00000180: 1424 ac3b 2117 49bd 3615 01be 9ce9 57bd
00000190: a23a 49bd 278a 9ebd 4103 29bd 8db2 8b3d
000001a0: 6180 55bc 96ed 91bc ae54 eabc 2a8c 12bd
000001b0: 5014 38bd eb0c 873c 9774 d23c fd71 433d
000001c0: fd3b 8abc 0e2a 8abd c78b 4a3c 7213 1dbb
000001d0: 52c6 85bd 073d 8abd 1437 e1bc 5a11 20bb
000001e0: 5528 d4bd 9f21 113d f927 ed3c aeda 86bd
000001f0: c3c3 613d 03eb eabc 9801 e4bc 447d 9ebc

a2c_network.value.weight f4 [1, 128]
0.0442287 -0.12564223 0.009585409 0.0015595459 -0.018773375 -0.038576525 0.06372632 0.017213613
-0.07141044 0.021918429 0.026771853 0.008004863 -0.026800886 -0.0675493 -0.0065944707 -0.04566683
0.12467337 0.0046327272 0.033574555 0.014852455 -0.17910267 0.08285875 -0.076948896 -0.29878336
0.0011300311 -0.0449297 -0.15741444 -0.02446292 -0.042409178 -0.092593476 -0.008555109 -0.020246742
0.011204825 -0.011566252 0.031663887 -0.023550408 0.04504807 -0.03056701 -0.09687388 0.06640897
-0.009156438 -0.012118447 -0.0065358654 0.049165037 0.021856505 0.006861802 0.014494209 -0.022086833
0.06538043 0.05037403 0.010994466 0.009443468 0.03554722 0.0074468628 0.05077749 0.03872265
0.010362154 0.014543384 -0.0097124735 -0.008647002 0.07971552 -0.012843394 -0.022349155 0.07241291
-0.052843615 -0.034447014 0.0037999707 -0.019894633 0.055502392 -0.012009927 0.0027592834 0.17112164
0.040680915 -0.026828041 0.020167733 0.047799762 -0.07530518 0.030541169 -0.02428426 -0.07234486
-0.03337089 0.011043303 0.011447081 -0.015385532 0.02169202 0.12418246 -0.04285829 -0.10787922
0.030506784 0.028579554 0.018469002 0.042069618 0.018239066 0.016303813 0.14679159 0.0329872
0.039173327 -0.032375094 0.0016815607 -0.05152626 0.011215822 -0.012693356 -0.030474655 0.0003141181
-0.00068889797 -0.07639818 0.017643556 0.02112938 -0.018122276 0.031201452 0.038575795 0.09004212
-0.039038137 0.072264776 0.013609104 -0.30071464 -0.028693363 0.023984017 -0.09263773 -0.06337782
0.0035517607 -0.007190166 0.041585512 -0.08029135 0.13803081 0.07148262 0.094748385 -0.0676839
00000000: 2729 353d 5ba8 00be 1f0c 1d3c ad69 cc3a
00000010: 9fca 99bc 6b02 1ebd f282 823d 9003 8d3c
00000020: a33f 92bd 478e b33c a550 db3c d426 033c
00000030: 888d dbbc 4a57 8abd 6e16 d8bb 240d 3bbd
00000040: c054 ff3d 22ce 973b 7985 093d b657 733c
00000050: b166 37be d9b1 a93d 6297 9dbd 22fa 98be
00000060: 8d1d 943a 3508 38bd 4031 21be 7666 c8bc
00000070: 3fb5 2dbd a6a1 bdbd ba2a 0cbc 7fdc a5bc
00000080: 7194 373c 6180 3dbc feb1 013d c9ec c0bc
00000090: 5384 383d ab67 fabc d065 c6bd 6d01 883d
000000a0: e204 16bc 738c 46bc d02a d6bb 4761 493d
000000b0: 6a0c b33c f8d8 e03b 1e79 6d3c 72ef b4bc
000000c0: 2de6 853d 0055 4e3d 2222 343c c7b8 1a3c
000000d0: f699 113d d004 f43b 0ffc 4f3d a49b 1e3d
000000e0: 06c6 293c 6047 6e3c 1121 1fbc 28ac 0dbc
000000f0: e441 a33d 196d 52bc 9315 b7bc 384d 943d
00000100: 8c72 58bd 5018 0dbd ee08 793b 12fa a2bc
00000110: 7a56 633d 49c5 44bc 18d5 343b 833a 2f3e
00000120: 08a1 263d 7bc6 dbbc cd36 a53c afc9 433d
00000130: 9a39 9abd 7931 fa3c c9ef c6bc 8b29 94bd
00000140: eaaf 08bd f8ee 343c 8a8c 3b3c 9913 7cbc
00000150: 77b3 b13c 6053 fe3d 2d8c 2fbd c8ef dcbd
00000160: 5de9 f93c ab1f ea3c 4e4c 973c 3151 2c3d
00000170: 186a 953c 938f 853c 8950 163e 961d 073d
00000180: 3674 203d bf9b 04bd d067 dc3a 330d 53bd
00000190: 91c2 373c cbf7 4fbc fca5 f9bc 38b0 a439
000001a0: 2997 34ba a676 9cbd 3889 903c 8617 ad3c
000001b0: 2b75 94bc 309a ff3c a701 1e3d 0168 b83d
000001c0: 74e6 1fbd 8eff 933d b8f8 5e3c 45f7 99be
000001d0: 580e ebbc 217a c43c dab8 bdbd 3bcc 81bd
000001e0: a8c4 683b 7c9b ebbb 9255 2a3d cb6f a4bd
000001f0: f357 0d3e 7b65 923d 710b c23d db9d 8abd

a2c_network.mu.weight f4 [10, 128]
-0.15191837 0.03632263 0.15426686 0.2782876 0.13540897 -0.006584564 -0.029716745 -0.06850791
0.12285919 -0.049636554 -0.112294324 -0.07842022 -0.04587158 -0.034247424 -0.03410259 0.0030975547
0.021303175 -0.050780576 0.019869268 0.1289982 -0.019922312 0.09134919 0.07024143 -0.0037605728
0.1341809 0.054250017 -0.06255793 0.17362799 -0.22760007 -0.09492986 0.10141051 0.033072896
0.055743277 -0.06647956 -0.15904489 -0.102463774 0.05576239 0.042878028 0.024912007 -0.0062973974
0.06272632 -0.07405403 -0.09362942 0.18885663 0.037586454 0.10213472 0.0064967186 -0.010182668
-0.07749395 -0.1050943 -0.1693183 -0.18137872 -0.22625037 0.0347029 -0.17302671 -0.047455568
0.050197724 0.11396008 -0.114619896 0.046874847 -0.07609552 0.15038742 -0.070878744 0.04389184
-0.008675443 0.17826279 0.036051463 -0.08858125 -0.19478609 0.11208474 0.002201816 0.027409907
0.101432554 0.083691366 -0.090877116 0.029847855 -0.20309113 -0.024856625 0.02123606 0.09188367
0.12960851 0.11302905 0.0049373847 0.073356315 0.08049748 -0.0014236954 -0.048994962 -0.034696165
0.029734971 -0.010797323 0.008466134 0.07238999 -0.019232428 -0.120184876 0.030277312 0.038433265
0.11566093 -0.20084302 -0.09391423 -0.08050332 0.15981127 0.019171067 -0.060980037 0.14896645
-0.15159656 0.16313171 0.02824966 -0.07370351 0.25365 0.14604415 -0.018019445 0.04651344
-0.16710067 -0.028018529 -0.050748225 0.1378317 -0.065841325 -0.008102345 -0.08742344 0.016483337
0.17153434 -0.03640117 -0.007006425 0.06376052 0.07862097 -0.013945168 0.047464624 -0.052785367
-0.04261609 -0.122627564 -0.032975666 -0.036102045 -0.09115118 0.0481811 0.02555404 -0.006182837
-0.13887487 -0.09251487 -0.02651996 -0.02888901 -0.007462675 0.061706815 -0.20329764 -0.026717467
-0.016698185 -0.09939158 -0.1469881 0.14491123 -0.006728263 0.038383145 -0.008807766 -0.0048507354
0.011525379 -0.0058029117 0.07003906 -0.00093725295 -0.12509876 -0.0802588 0.055232406 -0.030861698
0.041585237 -0.015593969 0.034333162 0.106702015 -0.08674306 0.02151261 0.15374777 -0.051082537
0.043800063 0.15684658 0.055954155 0.038251363 0.01771047 0.017876316 -0.031181755 -0.04280886
-0.07904699 0.052645802 -0.11155958 0.015789788 -0.008790581 -0.033903312 -0.02645258 -0.00090239116
0.01869591 -0.1486928 0.0024581382 0.1530075 0.016316185 0.04131545 -0.018055065 0.044591177
0.08608939 0.091529995 -0.016383218 0.00072323414 -0.0754273 0.04606533 -0.017160691 -0.0061301896
0.07614472 -0.004877447 -0.00668748 0.09021341 0.044078905 0.08343423 -0.14122447 0.13031644
0.063380845 0.02779599 0.038691986 -0.10148196 -0.025915788 0.07194697 -0.07001013 -0.079575434
-0.039438568 0.066771545 -0.11398542 0.010623755 -0.024490101 -0.041356158 -0.009738094 0.07328743
0.009571896 -0.0076627284 -0.012504653 -0.1330464 0.06295138 0.0071360334 -0.15560567 0.092848025
0.019205615 -0.042323597 -0.0466388 -0.060988203 -0.09688936 0.010465222 0.02945644 -0.084094
-0.028476963 -0.077722244 -0.09754949 -0.08354364 0.009622785 -0.0027740728 -0.021258757 0.035051502
0.09930317 -0.078269094 0.024083167 -0.101309516 0.011220264 -0.12424674 -0.02385628 0.0885321
00000000: 7d90 1bbe 0ac7 143d 22f8 1d3e b67b 8e3e
00000010: a6a8 0a3e 54c3 d7bb 8870 f3bc e04d 8cbd
00000020: 999d fb3d b34f 4bbd 91fa e5bd c89a a0bd
00000030: d6e3 3bbd 0747 0cbd 28af 0bbd 5800 4b3b
00000040: ff83 ae3c 4bff 4fbd e0c4 a23c 1b18 043e
00000050: 1e34 a3bc 4915 bb3d bdda 8f3d f173 76bb
00000060: b866 093e 4435 5e3d 5f1e 80bd 89cb 313e
00000070: fe0f 69be 966a c2bd 50b0 cf3d 7277 073d
00000080: 1053 643d 7026 88bd aadc 22be 87d8 d1bd
00000090: 1b67 643d dfa0 2f3d 4414 cc3c 665a cebb
000000a0: a876 803d a4a9 97bd c8c0 bfbd a263 413e
000000b0: 41f4 193d 022c d13d 6de2 d43b 35d5 26bc
000000c0: 26b5 9ebd ae3b d7bd c761 2dbe 58bb 39be
000000d0: 2dae 67be a124 0e3d ea2d 31be c560 42bd
000000e0: 219c 4d3d e763 e93d d6bd eabd d7ff 3f3d
000000f0: f8d7 9bbd 29ff 193e e028 91bd eec7 333d
00000100: 7223 0ebc 858a 363e b3aa 133d 166a b5bd
00000110: 0176 47be af8c e53d 584c 103b be8a e03c
00000120: dfbb cf3d 6166 ab3d c81d babd 7d83 f43c
00000130: 1ff7 4fbe 1fa0 cbbc 3ff7 ad3c 812d bc3d
00000140: 18b8 043e c67b e73d c9c9 a13b d63b 963d
00000150: dddb a43d 4a9b baba f1ae 48bd 911d 0ebd
00000160: c196 f33c 41e7 30bc 8ab5 0a3c 3441 943d
00000170: 538d 9dbc 7d23 f6bd 2008 f83c 336c 1d3d
00000180: a3df ec3d cba9 4dbe 1b56 c0bd edde a4bd
00000190: 91a5 233e a40c 9d3c 34c6 79bd a98a 183e
000001a0: 213c 1bbe 000c 273e d56b e73c def1 96bd
000001b0: 6ade 813e 998c 153e 849d 93bc e084 3e3d
000001c0: 701c 2bbe 1d87 e5bc 5fdd 4fbd c123 0d3e
000001d0: d1d7 86bd b3bf 04bc 0f0b b3bd 1008 873c
000001e0: b3a6 2f3e 6519 15bd 2796 e5bb e094 823d
000001f0: 0804 a13d 467a 64bc 446a 423d 7835 58bd
00000200: 368e 2ebd 2924 fbbd 7e11 07bd bddf 13bd
00000210: 78ad babd 8c59 453d b556 d13c 6599 cabb
00000220: 3735 0ebe 7078 bdbd 6340 d9bc a5a8 ecbc
00000230: 7589 f4bb 49c0 7c3d 422d 50be 97de dabc
00000240: a2ca 88bc d08d cbbd 0c84 16be 9c63 143e
00000250: c378 dcbb a537 1d3d 734e 10bc ebf2 9ebb
00000260: f1d4 3c3c 5a26 bebb a470 8f3d fbb1 75ba
00000270: e419 00be ba5e a4bd 603b 623d acd1 fcbc
00000280: 4855 2a3d d97d 7fbc eea0 0c3d 9686 da3d
00000290: 58a6 b1bd 373b b03c 0e70 1d3e ec3b 51bd
000002a0: b267 333d 649c 203e 2f30 653d 76ad 1c3d
000002b0: 8c15 913c 5a71 923c e170 ffbc 5858 2fbd
000002c0: 63e3 a1bd 20a3 573d 5979 e4bd 9659 813c
000002d0: 5e06 10bc 33de 0abd 15b3 d8bc 728e 6cba
000002e0: 2a28 993c ed42 18be b718 213b 00ae 1c3e
000002f0: 85a9 853c 643a 293d 37e8 93bc 3da5 363d
00000300: a24f b03d 1474 bb3d 1936 86bc 6c97 3d3a
00000310: a179 9abd 00af 3c3d 9494 8cbc c2df c8bb
00000320: c3f1 9b3d fed2 9fbb a622 dbbb cfc1 b83d
00000330: 158c 343d 91df aa3d 269d 10be ac71 053e
00000340: d1cd 813d 6bb4 e33c 7d7b 1e3d c6d5 cfbd
00000350: 594d d4bc ef58 933d 7961 8fbd 72f8 a2bd
00000360: 568a 21bd 85bf 883d 3071 e9bd 420f 2e3c
00000370: 779f c8bc 1365 29bd 878c 1fbc b817 963d
00000380: 71d3 1c3c a017 fbbb 51e0 4cbc 513d 08be
00000390: a7ec 803d 63d5 e93b 1857 1fbe 1b27 be3d
000003a0: 1855 9d3c 825b 2dbd 5408 3fbd c4ce 79bd
000003b0: ee6d c6bd 5376 2b3c a24e f13c 7a39 acbd
000003c0: 8548 e9bc d72c 9fbd 07c8 c7bd ee18 abbd
000003d0: e3a8 1d3c 38cd 35bb d826 aebc 2a92 0f3d
000003e0: 765f cb3d 8c4b a0bd 104a c53c 5d7b cfbd
000003f0: 33d5 373c 1375 febd 3f6e c3bc 5150 b53d

a2c_network.mu.bias f4 [10]
0.091566555 0.09399575 0.0815449 0.103427574 -0.010622123 -0.02405698 -0.019343412 -0.0012450314
0.05849234 0.009607801
00000000: 3f87 bb3d d880 c03d 0301 a73d d6d1 d33d
00000010: 6a08 2ebc 2513 c5bc 1376 9ebc 5230 a3ba
00000020: aa95 6f3d 0a6a 1d3c

exp_avg f4 [10]
-6.623341e-05 -0.00058522366 0.00021047877 0.0004902028 -8.8266635e-05 -0.00012896555 7.903137e-06 0.00019072078
-0.00015391008 -9.261219e-05
00000000: cbe6 8ab8 b269 19ba f7b3 5c39 f480 003a
00000010: ca1b b9b8 ed3a 07b9 b797 0437 38fc 4739
00000020: ec62 21b9 ca38 c2b8

exp_avg_sq f4 [10]
6.1193346e-06 5.0055455e-06 5.8680794e-06 4.772596e-06 4.7903554e-06 5.746809e-06 5.450395e-06 5.119782e-06
5.8781948e-06 5.304509e-06
00000000: af54 cd36 4ff5 a736 6be6 c436 4a24 a036
00000010: d7bc a036 b7d4 c036 89e2 b636 98ca ab36
00000020: 4f3d c536 63fd b136

exp_avg f4 [256, 42]
-0.00022526999 8.455402e-05 -0.0001514683 -0.00013524151 -9.053989e-06 -3.6844005e-05 -0.000106626285 0.00010100681
0.00015413604 0.00032968735 -0.00028025164 -0.00025735653 -8.685405e-05 0.00021799673 -0.00034335992 0.00021530232
-0.00030209933 2.6944346e-05 -0.00022340719 -0.00030978926 -7.913467e-05 0.0002888192 -5.7521743e-06 4.2096028e-05
-5.3021126e-06 -4.3845394e-06 -0.00014041495 1.7934402e-05 4.6702575e-05 -8.1290505e-05 -0.00016511002 5.920815e-05
6.312412e-05 0.0002600523 -0.00012672806 0.00027893545 -0.0004888338 0.00018550827 7.491141e-05 -0.00040488908
5.2221807e-05 0.0004243193 0.0001779691 1.0573655e-05 0.00012443765 -1.9878418e-05 -1.4118394e-05 -2.3965658e-05
-3.681673e-05 5.7308134e-05 4.7247013e-05 -0.00036977223 0.00024960286 0.0002659572 1.9601619e-05 -4.6790815e-06
0.00015502392 -0.00013842467 -0.00013739833 1.6957016e-05 0.00024668974 0.00020177074 -0.0001856631 0.00017696586
1.2807962e-05 -1.5600244e-05 2.0272571e-05 -1.819859e-05 -3.4329769e-06 2.4655154e-05 -8.292408e-06 -1.0741533e-05
-2.2435972e-05 7.743748e-06 0.00019027008 6.643653e-05 0.00020556916 0.00018945146 -7.969392e-05 6.853739e-05
-9.9870085e-05 2.3702341e-05 0.000102480415 0.000118047516 0.00026349202 -2.9905412e-05 0.00010572675 1.4722211e-05
-4.6501656e-05 -4.2092535e-05 -0.00019337788 -7.2420207e-06 -3.1816064e-05 -0.0004648501 0.0003618009 0.00037469668
4.036352e-05 1.7211903e-05 0.00023442529 -0.00026675363 -0.00012881408 5.4920256e-05 0.00039750853 0.0003095367
-0.0003516193 7.4228585e-05 -3.9155613e-05 2.372685e-05 -1.1958927e-05 -2.9930095e-05 -8.7248445e-05 7.451639e-05
-7.8121775e-05 -0.0001300912 -7.4687894e-05 -3.8199876e-05 5.1683705e-06 0.0002881951 0.00026582234 -1.3506244e-05
-0.000362735 0.00024825626 -0.00055354903 -0.0006468709 -0.00020294223 0.00012915573 -0.00046170494 0.00021947882
-0.00019311217 -0.00012787271 0.00012293705 7.714635e-06 0.00021198358 0.00022791435 0.00024167051 0.00060096045
-0.000573963 -0.0005611473 -0.00017960266 0.0001788026 -0.00053083245 0.00053212716 -0.0002833492 2.2852777e-05
-0.000567586 -0.0005807361 0.00023662797 0.00019709728 -1.4005236e-06 -7.466783e-05 7.155144e-06 4.3515392e-05
-7.2629686e-05 -0.00011381971 3.627975e-05 5.6912744e-05 -0.00018192598 -1.3630893e-06 -0.00016703006 -0.00042263957
-0.0003336333 -7.325675e-05 -0.00040074845 -0.00041878066 0.0005372874 0.00017776276 0.00020523381 -0.00019222822
-0.00022661778 -7.099259e-05 -0.00032113495 7.7392884e-05 -0.00034421118 -5.595853e-05 -0.00054830796 -0.00012606668
-7.7302786e-05 0.0005438334 -0.0002602691 -0.00023015021 -1.2845529e-06 9.541805e-05 -0.00016207626 -2.0434421e-05
-2.9051089e-05 0.00025790505 -0.00013081706 -0.00013843662 -0.00078428525 -0.00047537946 -5.2525498e-05 0.0002625379
-7.957766e-05 -6.794636e-05 -0.00024104073 0.0002684291 -0.00019646119 -0.00019207351 -0.00011842304 3.2018786e-05
8.619349e-05 0.0016227074 0.00029291442 -0.0007565583 -0.00082318584 0.0016279249 -0.0012213235 -0.0013314305
-0.00072742754 0.00012982757 -0.001101893 8.525058e-05 -0.00092248025 -4.9919683e-05 -0.00011309231 -8.063995e-05
-0.00033545325 7.3363386e-05 0.00022244669 0.0019648853 -0.0014071827 -0.0013635654 -0.000293376 0.00045875536
-0.0011775169 0.00082084583 -0.00020729336 0.00033939473 -0.0012240899 -0.0012209417 -0.00030345353 -0.00043233114
-9.418214e-05 0.00022806847 -8.5258594e-05 -2.5424297e-05 -0.00033632873 0.00019920246 -0.00016396533 -0.00015779704
-0.00027017217 4.8380265e-05 -0.00047936186 0.0012011529 -0.00030787865 -0.001119065 -0.0013490787 0.001079419
-0.0008815935 -0.0012768151 -0.0010232517 -0.00018281535 0.0015440054 -0.00024225321 0.0010507546 0.0001667296
00000000: 7436 6cb9 9852 b138 76d3 1eb9 9ecf 0db9
00000010: 96e6 17b7 f388 1ab8 8d9c dfb8 9ed3 d338
00000020: 949f 2139 e3d9 ac39 bdee 92b9 cfed 86b9
00000030: 6a25 b6b8 0d96 6439 fd04 b4b9 c7c2 6139
00000040: 1663 9eb9 8b06 e237 6942 6ab9 366b a2b9
00000050: 1af5 a5b8 a86c 9739 cd02 c1b6 4490 3038
00000060: cde8 b1b6 e81e 93b6 5a3c 13b9 d671 9637
00000070: 82e2 4338 827a aab8 6221 2db9 4456 7838
00000080: 8161 8438 a157 8839 4ee2 04b9 153e 9239
00000090: 1525 00ba ff84 4239 c219 9d38 4b47 d4b9
000000a0: bd08 5b38 2c77 de39 379d 3a39 8165 3137
000000b0: 7a7b 0239 94c0 a6b7 0ade 6cb7 dc09 c9b7
000000c0: aa6b 1ab8 245e 7038 182b 4638 fddd c1b9
000000d0: 21dd 8239 2c70 8b39 286e a437 0101 9db6
000000e0: eb8d 2239 1726 11b9 9512 10b9 ea3e 8e37
000000f0: 2356 8139 6c92 5339 8fae 42b9 e98f 3939
00000100: c7e1 5637 45dd 82b7 040f aa37 2da9 98b7
00000110: 1862 66b6 8ad2 ce37 9f1f 0bb7 8836 34b7
00000120: e234 bcb7 25eb 0137 3c83 4739 d753 8b38
00000130: 0d8e 5739 7da7 4639 5921 a7b8 bbbb 8f38
00000140: 5871 d1b8 64d4 c637 c1ea d638 4790 f738
00000150: 4d25 8a39 62dd fab7 9eb9 dd38 6aff 7637
00000160: c60a 43b8 848c 30b8 7bc5 4ab9 7c00 f3b6
00000170: 3d72 05b8 20b7 f3b9 18b0 bd39 f072 c439
00000180: 004c 2938 4862 9037 0fd0 7539 11db 8bb9
00000190: 4412 07b9 2d5a 6638 b168 d039 5049 a239
000001a0: 8b59 b8b9 2bab 9b38 053b 24b8 0609 c737
000001b0: 33a3 48b7 6412 fbb7 27f9 b6b8 af45 9c38
000001c0: 4fd5 a3b8 1769 08b9 c2a1 9cb8 ce38 20b8
000001d0: f76b ad36 e418 9739 125e 8b39 e098 62b7
000001e0: 782d beb9 6428 8239 0c1c 11ba c592 29ba
000001f0: e4cc 54b9 fa6d 0739 fd10 f2b9 e623 6639
00000200: 277e 4ab9 9215 06b9 aae8 0039 1b6e 0137
00000210: e947 5e39 4bfc 6e39 ef68 7d39 c689 1d3a
00000220: 0176 16ba f519 13ba b953 3cb9 f57c 3b39
00000230: 9027 0bba 737e 0b3a 7c8e 94b9 f7b3 bf37
00000240: 0dca 14ba 8a3c 18ba 561f 7839 e6ab 4e39
00000250: a0f9 bbb5 fc96 9cb8 3816 f036 4c84 3638
00000260: c450 98b8 7eb2 eeb8 162b 1838 98b5 6e38
00000270: 62c3 3eb9 64f3 b6b5 ca24 2fb9 b995 ddb9
00000280: 81eb aeb9 6ba1 99b8 8c1b d2b9 ca8f dbb9
00000290: bfd8 0c3a d465 3a39 0834 5739 df90 49b9
000002a0: 3fa0 6db9 dbe1 94b8 015e a8b9 fd4d a238
000002b0: 3e77 b4b9 04b5 6ab8 53bc 0fba c430 04b9
000002c0: 9e1d a2b8 0b90 0e3a ba74 88b9 7a54 71b9
000002d0: e768 acb5 2d1b c838 04f3 29b9 966a abb7
000002e0: bdb2 f3b7 6e37 8739 f02b 09b9 4c29 11b9
000002f0: 7e98 4dba 5a3c f9b9 d34e 5cb8 3ea5 8939
00000300: eee2 a6b8 6d7e 8eb8 e1bf 7cb9 f2bb 8c39
00000310: 2601 4eb9 5767 49b9 e359 f8b8 e94b 0638
00000320: c7c2 b438 06b1 d43a 4f92 9939 c553 46ba
00000330: 11cb 57ba 1860 d53a d114 a0ba 6583 aeba
00000340: d6b0 3eba 5322 0839 656d 90ba 8ec8 b238
00000350: 9ad2 71ba da60 51b8 f92b edb8 3e1d a9b8
00000360: c6df afb9 abda 9938 9440 6939 4ec5 003b
00000370: 3771 b8ba aab9 b2ba 43d0 99b9 1a85 f039
00000380: e956 9aba 082e 573a e35c 59b9 caf0 b139
00000390: a471 a0ba 0108 a0ba d818 9fb9 81aa e2b9
000003a0: a783 c5b8 aa25 6f39 dccc b2b8 4346 d5b7
000003b0: 4755 b0b9 01e1 5039 1cee 2bb9 5276 25b9
000003c0: e5a5 8db9 eaeb 4a38 dc52 fbb9 0170 9d3a
000003d0: c66a a1b9 97ad 92ba 92d3 b0ba 4b7b 8d3a
000003e0: bd1a 67ba ce5a a7ba a11e 86ba 1fb2 3fb9
000003f0: 3960 ca3a 5a05 7eb9 79b9 893a 23d4 2e39
