logs/rl_games/humanoid_flat_direct/2025-11-18_21-58-12/nn/last_humanoid_flat_direct_ep_2350_rew_421.24353.pth (torch, 759553 bytes, 33 tensors)

value_mean_std.running_mean f8 [1]
94.08841917337878
00000000: 1480 e4a8 a885 5740

value_mean_std.running_var f8 [1]
2333.950041454916
00000000: 6b65 d56b e63b a240

value_mean_std.count f8 []
924057601.0
00000000: 0000 8000 008a cb41

a2c_network.sigma f4 [10]
-1.2782475 -0.9791927 -1.2712847 0.26178434 -1.5831672 -0.76586866 -2.544835 -1.5455754
0.46464384 -0.080944
00000000: 9d9d a3bf 5fac 7abf 75b9 a2bf 9908 863e
00000010: 39a5 cabf f80f 44bf 94de 22c0 6ad5 c5bf
00000020: cce5 ed3e f8c5 a5bd

a2c_network.actor_mlp.0.weight f4 [256, 42]
0.02872937 0.44767484 0.24383527 -0.022853496 0.0142794745 0.07572563 0.14028583 -0.20060141
-0.3264847 -0.05118799 -0.1668333 0.08651223 -0.17615765 -0.08590912 0.10837267 0.059344485
0.15679662 -0.062126677 0.01382828 -0.10252018 0.121584065 -0.12853949 -0.37615207 -0.20057051
0.2418871 0.081989035 -0.063701436 -0.024164533 0.18197973 0.22041062 0.27179807 -0.20529081
-0.15892403 -0.10570587 -0.053376306 0.04336026 0.072330765 0.10292455 -0.13279115 -0.09602445
0.032884028 -0.05039283 0.1205537 0.17826687 0.2835231 -0.09326554 -0.2514344 0.33444408
0.20810352 0.041412774 -0.10704332 0.039290138 -0.09437518 -0.062625445 0.27478665 -0.036236726
0.06569337 -0.1725197 0.0014965058 0.16077103 -0.009484829 -0.12763906 0.16762121 -0.01633637
-0.07616837 -0.14019315 -0.4107697 -0.09206436 0.08474088 0.09879582 0.089240186 -0.39608073
-0.019039089 0.06395903 0.015348943 -0.16569085 -0.060754288 -0.01182077 0.062450677 -0.052416272
0.03482618 -0.15851387 -0.006024724 -0.057202507 -0.06553687 -0.1475939 0.32860756 0.067727156
-0.0077038608 0.04867095 -0.16543342 0.11432469 -0.13913639 -0.06916107 -0.13816239 -0.16269451
0.015374826 -0.21546692 0.12767847 -0.11824031 0.1493315 -0.024123773 -0.06504254 -0.019737266
0.1458565 0.20555653 0.17478327 -0.21239598 0.03595035 -0.12953706 -0.09745178 -0.16093574
0.074864246 -0.1846069 0.09884924 0.016396511 0.04675581 -0.11856037 0.1317325 0.035737727
0.09047142 -0.12557554 0.11482689 0.020152776 -0.06808804 0.15806718 0.02638964 -0.028430829
-0.052239362 0.08561292 0.09509368 -0.12322234 -0.103525296 -0.24060336 -0.13170566 0.06804409
0.111982524 -0.15136206 0.050038554 0.051548276 -0.001148376 -0.03562042 0.05724942 0.19423206
0.11918567 -0.046349358 -0.1975573 0.100594684 0.1418504 -0.04863161 0.32456014 0.2975159
0.09495284 0.016252425 0.1533336 -0.023146529 0.05699662 -0.09558839 -0.21402235 -0.07980434
0.16454415 0.033595715 -0.005790013 -0.058262274 -0.10157738 -0.09944794 -0.049293384 0.041800033
0.14195615 0.25712433 0.0049277865 0.08965274 0.043130092 0.276167 0.07254646 -0.113424234
0.05291878 -0.09431008 -0.057074696 0.15656275 0.01907669 0.021150779 -0.12998667 0.0808843
0.15667869 0.0060574906 -0.097815804 -0.2045627 -0.08630433 0.19337292 0.35494322 0.17123021
0.3074009 0.04619136 -0.053972267 -0.2682593 -0.2749974 -0.42299068 0.17670318 -0.07552298
-0.043120727 -0.07038281 -0.00019136709 -0.0822501 -0.08419762 -0.0008902559 -0.043521184 0.10142763
0.007976444 -0.06760225 -0.021183651 -0.044217523 -0.07129381 -0.09447318 0.1600951 -0.07416662
0.17748979 0.024494614 0.10312476 -0.12223735 0.12049007 -0.06623735 0.19745895 0.1914702
-0.00619777 -0.011108803 0.02734028 -0.09396708 0.07324339 -0.25745264 0.10355503 0.24861088
0.4021164 -0.11618981 -0.04317036 -0.043613367 -0.0064410213 -0.23333126 -0.00034552498 -0.2410813
0.07578944 -0.15291692 -0.10399263 -0.09098077 -0.13176297 0.13169196 0.11442557 0.012304251
-0.007767244 -0.00905341 -0.08265184 -0.09096216 0.065682426 -0.07393024 0.01607234 0.09786223
00000000: db59 eb3c a335 e53e f4af 793e 4137 bbbc
00000010: 75f4 693c 0a16 9b3d 17a7 0f3e 756a 4dbe
00000020: 0129 a7be 7faa 51bd 59d6 2abe 532d b13d
00000030: ac62 34be 1ff1 afbd 7ef2 dd3d 3413 733d
00000040: 4b8f 203e 8b78 7ebd 0390 623c 1af6 d1bd
00000050: 1101 f93d db9f 03be 0197 c0be 5b62 4dbe
00000060: 40b1 773e dee9 a73d e675 82bd b3f4 c5bc
00000070: e558 3a3e 52b3 613e 1e29 8b3e c137 52be
00000080: fbbc 22be 527c d8bd 1da1 5abd 879a 313d
00000090: 2722 943d 1bca d23d 67fa 07be 78a8 c4bd
000000a0: 67b1 063d b668 4ebd dce4 f63d 978b 363e
000000b0: f129 913e 0102 bfbd 02bc 80be 413c ab3e
000000c0: 1719 553e 71a0 293d 8739 dbbd b2ee 203d
000000d0: c647 c1bd c541 80bd d6b0 8c3e f66c 14bd
000000e0: 3f8a 863d 01a9 30be 6726 c43a 29a1 243e
000000f0: 4266 1bbc d0b3 02be e5a4 2b3e dad3 85bc
00000100: 2afe 9bbd cb8e 0fbe 6850 d2be 3d8c bcbd
00000110: a08c ad3d 7655 ca3d 8fc3 b63d 18cb cabe
00000120: ddf7 9bbc f4fc 823d 227a 7b3c ddaa 29be
00000130: 7dd9 78bd e7ab 41bc 48cc 7f3d 72b2 56bd
00000140: e6a5 0e3d 7651 22be 0c6b c5bb 2d4d 6abd
00000150: 3238 86bd db22 17be 403f a83e 89b4 8a3d
00000160: ab70 fcbb 315b 473d 6167 29be 1023 ea3d
00000170: c579 0ebe 52a4 8dbd 717a 0dbe 6499 26be
00000180: b2e6 7b3c 5ca3 5cbe 25be 023e fa27 f2bd
00000190: 5bea 183e 389f c5bc 0635 85bd 0cb0 a1bc
000001a0: 685b 153e 697d 523e 63fa 323e 557e 59be
000001b0: ad40 133d 5da5 04be cd94 c7bd 57cc 24be
000001c0: 6d52 993d 9709 3dbe 7871 ca3d fa51 863c
000001d0: 0583 3f3d c7cf f2bd e2e4 063e b961 123d
000001e0: 1449 b93d e096 00be 5c2a eb3d 6f17 a53c
000001f0: be71 8bbd 5ddc 213e 162f d83c c5e7 e8bc
00000200: f1f8 55bd d455 af3d 7ac0 c23d ff5b fcbd
00000210: 1205 d4bd ba60 76be d9dd 06be b35a 8b3d
00000220: 1857 e53d a8fe 1abe 3af5 4c3d 4924 533d
00000230: 1b85 96ba b8e6 11bd 5e7e 6a3d c5e4 463e
00000240: 9e17 f43d d3d8 3dbd 764c 4abe 9604 ce3d
00000250: 3b41 113e f031 47bd bf2c a63e 0154 983e
00000260: a276 c23d ce23 853c 7c03 1d3e ca9d bdbc
00000270: 4a75 693d d9c3 c3bd ad28 5bbe 7570 a3bd
00000280: 437e 283e a99b 093d 26ba bdbb 6ca4 6ebd
00000290: cd07 d0bd 5dab cbbd dce7 49bd 8336 2b3d
000002a0: f45c 113e cda5 833e 4579 a13b db9b b73d
000002b0: 2ea9 303d c365 8d3e 3d93 943d f74a e8bd
000002c0: 5dc1 583d a525 c1bd 28c7 69bd fc51 203e
000002d0: b846 9c3c 6644 ad3c 3a1b 05be aba6 a53d
000002e0: 6170 203e ea7d c63b a753 c8bd e278 51be
000002f0: 53c0 b0bd 8d03 463e 1ebb b53e f956 2f3e
00000300: a763 9d3e 2733 3d3d 0612 5dbd 4859 89be
00000310: 76cc 8cbe 3c92 d8be aef1 343e cbab 9abd
00000320: 5c9f 30bd dd24 90bd b6a9 48b9 be72 a8bd
00000330: cd6f acbd 1060 69ba 4543 32bd 4ab9 cf3d
00000340: a2af 023c 0c73 8abd 5689 adbc 6f1d 35bd
00000350: 7d02 92bd 287b c1bd f8ef 233e abe4 97bd
00000360: e2bf 353e eea8 c83c 1333 d33d 9357 fabd
00000370: 7fc3 f63d 73a7 87bd ae32 4a3e c410 443e
00000380: aa16 cbbb b201 36bc b9f8 df3c d071 c0bd
00000390: a100 963d d5d0 83be a914 d43d da93 7e3e
000003a0: 33e2 cd3e ecf4 edbd 67d3 30bd eea3 32bd
000003b0: 340f d3bb 64ee 6ebe 9427 b5b9 04de 76be
000003c0: 7e37 9b3d 4196 1cbe 17fa d4bd 2054 babd
000003d0: dfec 06be 42da 063e f457 ea3d c597 493c
000003e0: 5d84 febb c154 14bc 5e45 a9bd 5e4a babd
000003f0: 8284 863d bd68 97bd 24aa 833c fe6b c83d

a2c_network.actor_mlp.0.bias f4 [256]
-0.031889867 0.0584084 0.0039741956 -0.013256445 0.037256908 0.018277254 0.019738203 -0.005507135
-0.014084487 0.06865121 0.033128932 -0.0032587766 0.013575974 0.0059887148 0.026129078 -0.00037768125
0.020513935 0.0057843006 -0.032378785 0.033653926 -0.047181237 -0.024284206 0.01306901 0.031538863
0.00036217662 -0.011705877 -0.010585678 -0.0138391685 0.0217736 -0.03170814 0.021645522 0.038153466
0.067257956 -0.018084554 0.0023300238 -0.02940454 0.028206369 -0.0090496885 0.011150195 -0.0031158514
0.0025392142 -0.009138506 0.025972227 -0.057859708 0.015711134 0.04552703 0.04250736 0.06695463
-0.0006793255 0.008542968 -0.01815059 0.022291236 0.0058073206 -0.023095822 -0.013982946 -0.044601034
-0.01992316 0.015320682 0.0024574979 0.029693577 -0.008628591 0.02388461 -0.0032101225 -0.0052075405
0.007920318 0.07020797 -0.009635669 0.019578977 -0.022735355 0.0399707 -0.041187815 -0.05169362
-0.024965491 0.04598501 -0.012447625 -0.015932687 -0.042001765 -0.025894035 -0.058700413 -0.0025411567
-0.008789301 -0.011329153 0.03181454 0.010290824 0.022497898 0.014260415 0.0003543694 -0.040268194
0.03783753 -0.025166888 0.041903645 -0.019834198 0.00071370834 -0.036493883 -0.016965546 0.020531327
0.0356427 0.00012681312 -0.059067156 -0.010608345 0.013933656 -0.004757257 -0.0145695135 0.037333306
0.015274658 0.01294644 -0.00045102218 0.020790359 -0.0008959129 -0.06635737 0.017936943 0.024444109
-0.020212987 -0.03613 -0.024369398 0.015432026 0.038545903 -0.007670728 -0.020467771 0.003894264
-0.006085263 -0.03874026 -0.027453853 0.043496247 -0.009455756 0.021541394 0.012809705 -0.03341001
-0.041243825 0.019417746 -0.025799928 -0.012606156 -0.030007405 0.01513324 0.033195984 -0.004858703
-0.008972283 -0.0289556 0.010558779 -0.026447378 -0.00064147415 0.027722491 -0.021413574 -0.011493495
0.015627364 -0.0010669961 0.042661436 -0.0038739599 0.0820455 -0.035328604 0.0144461 0.027306017
-0.009748815 -0.02191211 0.012935644 -0.038327385 -0.021692187 -0.0300784 0.04925455 0.023924915
-0.02215698 0.032688092 -0.015134919 -0.008251224 -0.010495612 0.042948317 -0.031757284 0.010711927
0.032110892 0.0682276 -0.02479537 -0.0036815112 0.034839846 0.016862098 0.027878027 0.004288828
0.033370666 -0.025135562 0.002864106 0.007864653 0.025850069 0.045336902 -0.0010128114 0.026714144
-0.02682306 -0.027401958 0.021568552 0.022348957 0.00039878167 0.066286 0.015431749 0.060425
-0.0040051006 0.016366785 0.044699457 0.024190059 0.010528059 -0.04768729 0.032541953 -0.032483634
0.027327336 -0.011142271 0.0087543875 -0.042406294 0.0035746014 -0.018123077 0.0001391116 0.0018721136
-0.0049112164 0.004366965 -0.019897776 0.034940854 0.021326719 0.014724327 0.047009554 -0.017580355
0.004778506 0.031353228 -0.031602748 -0.004652296 0.021450832 0.038087238 -0.04298613 0.058976226
0.05208171 -0.025306782 -0.05321451 0.03219722 0.04273243 0.005421554 0.047403347 -0.03310122
-0.0045591034 -0.054454774 0.0068325493 0.050815664 0.022380339 0.019008625 -0.031431384 0.00468559
0.050798796 0.022162976 -0.008806977 0.038468752 0.06268754 0.02265487 0.045172233 -0.04034861
0.039298803 -0.044431657 -0.012949189 -0.019937152 0.029711844 0.015004825 0.02385264 0.00021595931
00000000: f39e 02bd a53d 6f3d f839 823b 8f31 59bc
00000010: b39a 183d 2eba 953c 03b2 a13c 3275 b4bb
00000020: 9fc2 66bc 0199 8c3d 34b2 073d 3391 55bb
00000030: c36d 5e3c fb3c c43b a60c d63c 8503 c6b9
00000040: d70c a83c 3b8a bd3b 9e9f 04bd b3d8 093d
00000050: 1d41 41bd acef c6bc 671f 563c e52e 013d
00000060: 86e2 bd39 02ca 3fbc 8d6f 2dbc aebd 62bc
00000070: 8c5e b23c 65e0 01bd f351 b13c cf46 1c3d
00000080: 8abe 893d 0f26 94bc 50b3 183b cae1 f0bc
00000090: 0b11 e73c 2545 14bc 4faf 363c 5033 4cbb
000000a0: f268 263b acb9 15bc b5c3 d43c 4dfe 6cbd
000000b0: a3b4 803c 8d7a 3a3d 331c 2e3d 821f 893d
000000c0: c314 32ba cef7 0b3c 8cb0 94bc 1c9c b63c
000000d0: 564b be3b 7333 bdbc ba18 65bc 93af 36bd
000000e0: e535 a3bc 9903 7b3c f90d 213b f23f f33c
000000f0: ef5e 0dbc a8a9 c33c eb60 52bb 04a4 aabb
00000100: 39c4 013c 32c9 8f3d edde 1dbc 1764 a03c
00000110: 7f3f babc 51b8 233d 8eb4 28bd b0bc 53bd
00000120: 6e84 ccbc c75a 3c3d 20f1 4bbc 4485 82bc
00000130: 0b0a 2cbd ba1f d4bc d86f 70bd 8989 26bb
00000140: 0001 10bc e99d 39bc f74f 023d d89a 283c
00000150: 834d b83c 84a4 693c a8ca b939 43f0 24bd
00000160: 87fb 1a3d ca2a cebc 28a3 2b3d 547b a2bc
00000170: 2818 3b3a 9c7a 15bd 54fb 8abc 5031 a83c
00000180: 14fe 113d 23f9 0439 67f0 71bd a0ce 2dbc
00000190: fd49 643c c4e2 9bbb f8b4 6ebc cfea 183d
000001a0: 8f42 7a3c 4e1d 543c 2c77 ecb9 8b50 aa3c
000001b0: b2db 6aba 5fe6 87bd 7ff0 923c 033f c83c
000001c0: b595 a5bc 0dfd 13bd 55a2 c7bc 9cd6 7c3c
000001d0: 4fe2 1d3d bb5a fbbb 07ac a7bc e936 7f3b
000001e0: e366 c7bb 1bae 1ebd e7e6 e0bc 1f29 323d
000001f0: 51ec 1abc 9477 b03c ccdf 513c efd8 08bd
00000200: 49ef 28bd f711 9f3c 5f5a d3bc 0d8a 4ebc
00000210: 17d2 f5bc 69f1 773c 83f8 073d c135 9fbb
00000220: 7c00 13bc 4b34 edbc bbfe 2c3c 2ca8 d8bc
00000230: 9a28 28ba 471a e33c 856b afbc 364f 3cbc
00000240: f504 803c 73da 8bba c2bd 2e3d 43e2 7dbb
00000250: 7907 a83d bab4 10bd 56af 6c3c deb0 df3c
00000260: 7eb9 1fbc 0681 b3bc 06f0 533c 2dfd 1cbd
00000270: d0b3 b1bc fa66 f6bc 24bf 493d 2ffe c33c
00000280: 8e82 b5bc f3e3 053d 74f8 77bc 2430 07bc
00000290: caf5 2bbc 93ea 2f3d ed13 02bd 1481 2f3c
000002a0: b686 033d e9ba 8b3d a91f cbbc 8245 71bb
000002b0: 3ab4 0e3d 6222 8a3c 7660 e43c 4c89 8c3b
000002c0: aeaf 083d 18e9 cdbc bab3 3b3b bfda 003c
000002d0: 86c3 d33c 30b3 393d 50c0 84ba 9fd7 da3c
000002e0: 09bc dbbc 127a e0bc 88b0 b03c 2915 b73c
000002f0: 9213 d139 f4c0 873d 72d5 7c3c 3480 773d
00000300: 383d 83bb a313 863c c716 373d 3b2a c63c
00000310: e17d 2c3c bf53 43bd b64a 053d 8f0d 05bd
00000320: 94dd df3c 128e 36bc 906e 0f3c 39b2 2dbd
00000330: dc43 6a3b d976 94bc 7cde 1139 b561 f53a
00000340: 45ee a0bb c218 8f3b a900 a3bc 241e 0f3d
00000350: 5fb5 ae3c 4e3e 713c 178d 403d ad04 90bc
00000360: 0395 9c3b 3e6c 003d e271 01bd 4a72 98bb
00000370: a8b9 af3c 5d01 1c3d 3912 30bd 0e91 713d
00000380: a253 553d 2b50 cfbc 75f7 59bd 3be1 033d
00000390: 3308 2f3d 4ba7 b13b 032a 423d 2595 07bd
000003a0: 8864 95bb f80b 5fbd 94e3 df3b 1624 503d
000003b0: f956 b73c fab7 9b3c 32be 00bd 9489 993b
000003c0: 6612 503d 218f b53c 244b 10bc 6991 1d3d
000003d0: 5362 803d b596 b93c 8506 393d 9644 25bd
000003e0: c8f7 203d f8fd 35bd d628 54bc 3d53 a3bc
000003f0: 4166 f33c ccd6 753c 9d66 c33c 2373 6239

a2c_network.actor_mlp.2.weight f4 [128, 256]
-0.0031473557 0.022656038 -0.11811193 -0.100670405 -0.052592207 -0.07054148 -0.08893518 0.09444399
0.09916444 0.025678145 -0.065719225 -0.033109155 0.0730363 -0.017661572 -0.052473634 0.026646037
-0.10120193 0.03049959 0.056792006 -0.012713462 -0.024546364 -0.16645141 -0.14174153 0.16336493
0.0051296703 -0.089881085 -0.0755849 0.11801243 -0.12062873 -0.1279346 -0.07526687 0.0015138353
-0.028615195 0.0036187328 0.016291074 -0.14192665 0.004839274 0.0054220287 0.11672623 -0.069388114
-0.11229323 0.027853405 0.07093906 -0.025928402 0.035101417 -0.07145516 -0.01357197 -0.015448573
0.012508123 -0.10383522 0.009174254 0.038166616 0.15748346 0.028616818 -0.031223068 0.0058865566
-0.15259084 -0.0923936 -0.016107881 -0.0025286905 0.062578104 -0.06663902 0.0027691878 -0.045182824
-0.194895 0.12738967 -0.25837165 -0.05574823 0.110945426 0.06137005 -0.022549614 0.039866995
0.021333352 0.028853023 0.092230186 -0.11743485 0.04001417 -0.058733985 0.018546473 0.22224258
-0.053872388 0.07671325 -0.04697336 -0.11551269 0.13403559 0.027914684 -0.16829701 0.004386689
-0.08891521 -0.082363985 -0.06078837 0.015519046 0.0040233047 -0.053935032 0.004893494 -0.1638827
0.027184198 -0.05197628 0.04903196 0.09767587 0.005086219 -0.08376808 -0.09125562 -0.04416552
-0.032973938 0.17975949 0.06315998 0.014278377 -0.14935952 -0.019396076 -0.13127868 -0.034448363
0.1286651 0.028001638 -0.119888864 -0.082241766 -0.24249497 0.0938652 -0.047435693 -0.05158185
-0.07366321 0.03196923 0.045104824 -0.014384624 0.0049810414 0.038920075 0.017248139 0.05288922
-0.043023285 0.009941026 0.06550003 -0.054427166 -0.025836673 -0.00050891173 0.026354432 0.10940545
0.03535267 0.0226972 -0.09312645 -0.06445482 -0.15381628 -0.0919648 0.13877788 -0.0789299
-0.15926704 0.03171415 -0.07322431 -0.055271097 -0.14761467 0.026966034 0.12448539 -0.01649542
0.20782568 -0.07210061 -0.15399563 -0.19584759 -0.0035770359 -0.052680526 -0.02424011 -0.014667802
-0.04217909 0.14999586 -0.0135725755 -0.063762724 -0.08833147 -0.08106418 0.16368294 0.016814224
0.030207973 -0.1465653 0.024590446 0.099174365 -0.07512018 0.03373376 -0.18285899 -0.0133585865
-0.008624063 0.05296932 0.14898786 -0.20671767 -0.15363528 -0.09587983 0.11468144 -0.03052832
-0.12975998 -0.038715187 -0.046199065 0.08321201 -0.03794673 -0.0039928705 0.04312597 -0.1314914
-0.09369999 -0.018702883 -0.013982882 -0.08750381 0.0143106 0.026325444 -0.1425525 -0.06417069
0.13220248 -0.021952782 -0.06288522 0.0626483 -0.07195581 0.051743332 0.016497396 -0.14721562
0.012363515 -0.113528624 0.11417536 0.050743558 -0.110548526 -0.08658536 0.00077550346 -0.018446367
-0.03007342 0.0018645582 -0.03236715 0.15740459 0.1387697 0.006081687 -0.1315745 -0.03877736
-0.081421316 0.175864 -0.065803856 -0.043784548 0.026111785 -0.08028428 0.00901846 0.01918925
0.080772325 0.05688643 0.05774728 -0.028324176 0.087891795 0.13618414 -0.06995382 0.030247832
-0.10387352 0.06558836 -0.017815748 -0.0023066152 -0.022344373 0.13818157 -0.06983025 0.013872364
0.10017047 -0.079386756 -0.1211213 0.08577504 -0.018988898 0.09614851 0.062026083 0.0015617352
00000000: de43 4ebb 2899 b93c abe4 f1bd 492c cebd
00000010: ed6a 57bd 0d78 90bd a623 b6bd da6b c13d
00000020: ba16 cb3d f95a d23c cd97 86bd 779d 07bd
00000030: 0e94 953d 00af 90bc 98ee 56bd ca48 da3c
00000040: f542 cfbd 47da f93c bc9e 683d 204c 50bc
00000050: 7515 c9bc 3d72 2abe b124 11be 2349 273e
00000060: cb16 a83b 9313 b8bd 42cc 9abd 80b0 f13d
00000070: 320c f7bd 4a01 03be 8425 9abd e26b c63a
00000080: 6a6a eabc 4328 6d3b dc74 853c 3855 11be
00000090: c692 9e3b 46ab b13b 290e ef3d 5b1b 8ebd
000000a0: fef9 e5bd d32c e43c 7f48 913d cd67 d4bc
000000b0: 81c6 0f3d 1557 92bd f85c 5ebc 031c 7dbc
000000c0: dfee 4c3c 8fa7 d4bd 9c4f 163c 9954 1c3d
000000d0: 5843 213e d16d ea3c 85c7 ffbc 04e4 c03b
000000e0: c640 1cbe db38 bdbd adf4 83bc 63b8 25bb
000000f0: f328 803d 0a7a 88bd 437b 353b a011 39bd
00000100: 8e92 47be 7072 023e 4a49 84be 4258 64bd
00000110: 5b37 e33d 295f 7b3d f8b9 b8bc 934b 233d
00000120: 48c3 ae3c 2d5d ec3c 2ee3 bc3d af81 f0bd
00000130: e6e5 233d 0c93 70bd c6ee 973c 8f93 633e
00000140: 4ba9 5cbd d61b 9d3d 2367 40bd eb91 ecbd
00000150: a040 093e 56ad e43c 0d56 2cbe 37be 8f3b
00000160: 2d19 b6bd 73ae a8bd 3afd 78bd 9943 7e3c
00000170: edd5 833b fbea 5cbd 9a59 a03b ded0 27be
00000180: 65b1 de3c 14e5 54bd bdd5 483d 490a c83d
00000190: 4caa a63b 998e abbd 3ae4 babd e8e6 34bd
000001a0: ae0f 07bd df12 383e 055a 813d dbef 693c
000001b0: b4f1 18be 85e4 9ebc eb6d 06be ba19 0dbd
000001c0: c9c0 033e b163 e53c 4b88 f5bd 5f6e a8bd
000001d0: 9a50 78be 663c c03d ee4b 42bd 7d47 53bd
000001e0: bddc 96bd 2bf2 023d d6bf 383d 7cad 6bbc
000001f0: 0138 a33b a86a 1f3d f84b 8d3c 5ea2 583d
00000200: 2f39 30bd afdf 223c e124 863d 05ef 5ebd
00000210: 6ea7 d3bc 7d68 05ba 40e5 d73c f70f e03d
00000220: f6cd 103d 7aef b93c 15b9 bebd e300 84bd
00000230: 0482 1dbe 0b58 bcbd ca1b 0e3e 00a6 a1bd
00000240: e616 23be b2e6 013d a1f6 95bd f263 62bd
00000250: 4d28 17be dfe7 dc3c 32f2 fe3d 6721 87bc
00000260: 41d0 543e 7ca9 93bd 08b1 1dbe 458c 48be
00000270: b46c 6abb 89c7 57bd 3293 c6bc 3851 70bc
00000280: fbc3 2cbd 8498 193e 825f 5ebc 0896 82bd
00000290: 21e7 b4bd fa04 a6bd 809c 273e fcbd 893c
000002a0: b676 f73c 3715 16be e771 c93c ee1b cb3d
000002b0: 9cd8 99bd 692c 0a3d 633f 3bbe f9dd 5abc
000002c0: f14b 0dbc 5cf6 583d 4690 183e ccad 53be
000002d0: 9152 1dbe a55c c4bd 1ade ea3d 8716 fabc
000002e0: cddf 04be d193 1ebd 3b3b 3dbd 0f6b aa3d
000002f0: 086e 1bbd a0d6 82bb dba4 303d aea5 06be
00000300: c8e5 bfbd ca36 99bc 7518 65bc 3335 b3bd
00000310: 0277 6a3c 75a8 d73c 48f9 11be ec6b 83bd
00000320: 1660 073e 52d6 b3bc f7c9 80bd c04d 803d
00000330: 915d 93bd d1f0 533d 8c25 873c b1bf 16be
00000340: 5790 4a3c b281 e8bd c5d4 e93d 7ad8 4f3d
00000350: 4467 e2bd aa53 b1bd 284b 4b3a d61c 97bc
00000360: 885c f6bc 3164 f43a 6b93 04bd ab2e 213e
00000370: a519 0e3e e348 c73b 77bb 06be 02d5 1ebd
00000380: 38c0 a6bd b115 343e 2cc4 86bd 6d57 33bd
00000390: 62e8 d53c 166c a4bd 2ac2 133c c632 9d3c
000003a0: f66b a53d bf01 693d 6988 6c3d 1a08 e8bc
000003b0: 9d00 b43d db73 0b3e f343 8fbd 4dca f73c
000003c0: a4bb d4bd 3153 863d 55f2 91bc 952a 17bb
000003d0: 8c0b b7bc 787f 0d3e 2a03 8fbd e948 633c
000003e0: 2d26 cd3d 8695 a2bd 720e f8bd d3aa af3d
000003f0: 9b8e 9bbc 83e9 c43d 100f 7e3d 23b3 cc3a

a2c_network.actor_mlp.2.bias f4 [128]
-0.02065923 0.017178545 -0.11070916 0.010761473 0.0040399316 0.025752753 0.0095445085 0.02953903
-0.036762025 0.018806228 -0.014958191 -0.040570665 -0.066318996 -0.054738723 -0.00940823 0.052626718
-0.010882733 -0.011863968 -0.020165663 0.015891341 0.062014468 -0.078151196 -0.036479197 -0.07218333
-0.047000904 0.017939933 -0.022160178 0.052145544 -0.02474862 -0.046861544 0.07490489 -0.010767246
0.024459071 -0.024939151 -0.031462695 0.02903262 -0.0606307 -0.039190456 0.01817516 -0.05777349
0.008738787 0.045356542 0.0061431625 -0.010560328 -0.05044118 0.0021540136 0.038308736 0.02823336
-0.017737823 -0.03953663 -0.018120084 0.008766661 0.0113733 -0.020318398 -0.058128122 -0.07620363
-0.10533833 -0.027443418 0.030447671 -0.014973067 0.021244062 -0.037237495 0.026394116 -0.025846848
-0.033154048 -0.06946861 0.020314783 -0.01034237 0.009668257 0.010824642 -0.018700631 -0.06281958
-0.04176029 -0.058728173 -0.0129274465 -0.00045553342 -0.06225392 0.0008377038 -0.05665021 -0.013567309
-0.015322 0.043705024 0.008345393 0.026084153 -0.02111749 -0.0069641178 0.021790856 0.007799755
-0.035673983 -0.01850434 -0.03023087 0.038870063 -0.005035353 -0.028662063 -0.042040635 0.042269714
-0.028661506 -0.010661186 -0.05275579 0.018142425 -0.03208108 -0.04004811 0.045567937 -0.045619715
-0.047254197 -0.052493032 -0.027627988 -0.011041769 -0.004111725 -0.07914122 -0.016484316 -0.0655057
-0.058721047 -0.0034581241 -0.041418932 -0.050515752 -0.038764838 -0.060600594 -0.030210491 -0.05489542
-0.03539823 -0.06649509 -0.043804966 -0.02295288 0.004050296 0.047916755 -0.037361477 -0.1163354
00000000: 8c3d a9bc 05ba 8c3c 7cbb e2bd e450 303c
00000010: 6761 843b 70f7 d23c 9260 1c3c d6fb f13c
00000020: c793 16bd 850f 9a3c 3313 75bc 6d2d 26bd
00000030: 41d2 87bd b635 60bd fa24 1abc 1d8f 573d
00000040: 7e4d 32bc 1761 42bc 7632 a5bc 8f2e 823c
00000050: e202 7e3d bc0d a0bd 366b 15bd dbd4 93bd
00000060: 0584 40bd c4f6 923c 4389 b5bc 9196 553d
00000070: 9ebd cabc e4f1 3fbd bc67 993d 1a69 30bc
00000080: 645e c83c 314d ccbc 07df 00bd d1d5 ed3c
00000090: e657 78bd 2c86 20bd 13e4 943c e5a3 6cbd
000000a0: 212d 0f3c c8c7 393d 954c c93b 3a05 2dbc
000000b0: 699b 4ebd 5a2a 0d3b 9fe9 1c3d a649 e73c
000000c0: e94e 91bc 29f1 21bd 9270 94bc 0ba2 0f3c
000000d0: 1457 3a3c c572 a6bc c117 6ebd a610 9cbd
000000e0: 9fbb d7bd 05d1 e0bc 656d f93c 9851 75bc
000000f0: 0708 ae3c 5886 18bd 7938 d83c c5bc d3bc
00000100: 8acc 07bd 8f45 8ebd 306b a63c 0b73 29bc
00000110: 9c67 1e3c d759 313c 1132 99bc 8da7 80bd
00000120: d60c 2bbd f48c 70bd a4cd 53bc a9d4 eeb9
00000130: f7fd 7ebd 5a99 5b3a 0d0a 68bd 6b49 5ebc
00000140: 2009 7bbc 0a04 333d 1ebb 083c 6fae d53c
00000150: 96fe acbc 4133 e4bb bd82 b23c 1695 ff3b
00000160: e21e 12bd 6a96 97bc bba6 f7bc 3736 1f3d
00000170: 9aff a4bb b4cc eabc cd32 2cbd 0223 2d3d
00000180: 89cb eabc 41ac 2ebc 7516 58bd 6c9f 943c
00000190: 7367 03bd 7d09 24bd 72a5 3a3d bddb 3abd
000001a0: 9e8d 41bd ef02 57bd 1754 e2bc 89e8 34bc
000001b0: a6bb 86bb cb14 a2bd 1e0a 87bc da27 86bd
000001c0: 7b85 70bd b2a1 62bb e6a6 29bd 9be9 4ebd
000001d0: e1c7 1ebd 5438 78bd fe7b f7bc 05da 60bd
000001e0: bcfd 10bd 942e 88bd d66c 33bd ae07 bcbc
000001f0: 58b8 843b 5c44 443d 5908 19bd 4141 eebd

a2c_network.actor_mlp.4.weight f4 [128, 128]
0.08048615 -0.061846204 -0.02780431 -0.087096505 -0.12219956 -0.123075664 -0.0017339347 -0.11333302
0.049335286 -0.09152711 0.19298655 0.043227307 0.09413632 -0.027171457 0.056487992 -0.09496916
0.038075205 -0.008178078 -0.005602894 -0.015594969 0.017566197 0.11764283 0.069377966 -0.028238103
0.101329416 0.08997211 -0.045115713 0.040837035 -0.0490168 0.05140326 -0.17222403 -0.04355598
0.044428527 -0.02726878 0.10654349 -0.14613003 0.08175872 0.17580473 -0.09703234 0.04118673
-0.14600347 0.033446155 -0.0074771866 0.04280455 0.07748347 0.00020051874 0.043114115 -0.05675402
0.09143287 -0.0801592 0.018179605 -0.0010138741 0.04118758 0.036545116 -0.019343572 -0.073214926
0.057922423 -0.018790305 -0.1332294 -0.0004540419 -0.078776315 0.091318 -0.07473913 -0.051028088
0.024686504 0.0910492 -0.115737595 -0.105619796 -0.047681548 0.022364566 0.15355843 -0.05191174
0.04581172 0.15353239 -0.025995655 -0.21191703 0.011630094 -0.01696916 0.09984979 -0.05317205
0.017028324 -0.0062949364 0.268092 0.016808506 0.091415316 -0.011243259 -0.10340812 -0.0762986
-0.06737698 -0.12255254 0.19063453 -0.098986 -0.07047658 -0.1685237 0.04920812 0.034171734
0.08035641 0.17050065 -0.1961062 -0.14999473 -0.088488474 0.0049061826 0.08817743 0.20908657
0.15283835 0.014461632 -0.33448005 0.049367413 0.014330544 0.15485458 -0.19690351 -0.12647027
0.09294735 0.12772255 -0.055211496 -0.019965377 0.06754005 0.18066856 0.017973976 0.012193934
0.014905373 -0.013625024 -0.0058907727 0.07385059 -0.05675907 -0.026261998 0.08867141 0.010851353
0.034147184 -0.09564577 -0.0076999855 -0.11911074 -0.08078683 -0.3228297 0.077186994 0.08922274
0.011632822 -0.051589154 0.16869073 -0.1280367 0.003745889 -0.13063616 -0.03321106 -0.20309703
0.16549115 0.010980945 -0.05695835 -0.052276142 -0.1006715 0.027339522 -0.059947617 0.05620469
-0.0850041 -0.11356162 -0.100174785 0.09073629 0.09736248 -0.12493515 0.08369041 -0.28922173
-0.247625 0.058842003 0.0824863 -0.032617632 0.06258993 0.07814816 -0.03222203 -0.00737599
0.03172981 -0.0019358732 -0.06588666 -0.17416742 0.06393647 0.14233041 -0.002087 -0.14326368
-0.00018275916 -0.0059706904 -0.14497538 -0.057267588 -0.0843796 -0.10277949 0.12771302 -0.024239607
0.0482506 0.0038503122 0.16636321 -0.0330838 -0.03853824 0.0023363223 -0.07674431 -0.03600804
-0.07255533 0.07575266 0.09321242 0.19519207 0.024548076 0.027749075 0.049906503 0.02883604
0.092304505 -0.14538036 0.01093147 -0.02478942 -0.15050013 0.109679736 -0.18573888 0.0023270305
-0.15414004 -0.058626886 -0.20583327 -0.12146601 -0.00238901 0.03410773 0.019192351 -0.14423966
0.09491671 -0.006742634 0.09046811 0.1159222 -0.10646978 -0.052739717 -0.04335691 0.027750865
0.1544766 -0.0585978 -0.093983896 0.008804999 -0.15600616 -0.1360904 0.039965395 -0.06233172
-0.25447452 0.10003732 -0.07336171 -0.004982775 -0.092362896 -0.1386889 -0.034802906 0.0011923395
-0.005365398 -0.01788434 0.09315503 -0.02364912 0.04564296 0.1421264 -0.031566583 -0.12304271
-0.07608674 0.016511206 -0.1355781 0.084599465 -0.1459685 -0.01600802 -0.13693784 -0.07222103
00000000: ecd5 a43d 7252 7dbd ddc5 e3bc a75f b2bd
00000010: c343 fabd 180f fcbd 3245 e3ba 241b e8bd
00000020: cc13 4a3d 9172 bbbd 449e 453e 1e0f 313d
00000030: 8bca c03d ad96 debc f45f 673d 317f c2bd
00000040: bff4 1b3d 58fd 05bc 7b98 b7bb 0a82 7fbc
00000050: fce6 8f3c b9ee f03d 0916 8e3d 9853 e7bc
00000060: cc85 cf3d 4c43 b83d 41cb 38bd bc44 273d
00000070: d7c5 48bd 3a8c 523d 7f5b 30be c167 32bd
00000080: b0fa 353d c762 dfbc 7933 da3d 1ca3 15be
00000090: 1e71 a73d 2806 343e e4b8 c6bd 6bb3 283d
000000a0: ef81 15be d6fe 083d 3003 f5bb d353 2f3d
000000b0: a7af 9e3d 5742 5239 6d98 303d e776 68bd
000000c0: 2841 bb3d 822a a4bd 65ed 943c f8e3 84ba
000000d0: 4fb4 283d 55b0 153d 6976 9ebc b5f1 95bd
000000e0: 1040 6d3d 20ee 99bc 4a6d 08be 790c eeb9
000000f0: 7a55 a1bd ee04 bb3d d410 99bd d402 51bd
00000100: 5a3b ca3c 0178 ba3d d507 edbd 314f d8bd
00000110: ba4d 43bd e535 b73c 6c3e 1d3e 68a1 54bd
00000120: 12a5 3b3d 9837 1d3e d7f4 d4bc c700 59be
00000130: 268c 3e3c e802 8bbc 0c7e cc3d efca 59bd
00000140: fc7e 8b3c c145 cebb 5b43 893e feb1 893c
00000150: f437 bb3d a535 38bc a3c7 d3bd 7142 9cbd
00000160: f1fc 89bd d3fc fabd b335 433e 2cb9 cabd
00000170: 0656 90bd 7a91 2cbe 748e 493d a9f7 0b3d
00000180: e791 a43d b997 2e3e 10d0 48be 3898 19be
00000190: 7239 b5bd 0bc4 a03b 5e96 b43d ca1a 563e
000001a0: a881 1c3e 7bf0 6c3c f840 abbe 7c35 4a3d
000001b0: a8ca 6a3c 3392 1e3e 13a1 49be 6c81 01be
000001c0: 2e5b be3d b3c9 023e 7325 62bd 6e8e a3bc
000001d0: 7052 8a3d 2e01 393e 293e 933c 11c9 473c
000001e0: aa35 743c 7e3b 5fbc 6207 c1bb fa3e 973d
000001f0: 337c 68bd 6723 d7bc 5b99 b53d e0c9 313c
00000200: ebdd 0b3d eee1 c3bd 2950 fcbb 55f0 f3bd
00000210: 9173 a5bd ef49 a5be 3714 9e3d 69ba b63d
00000220: 9897 3e3c 264f 53bd 43bd 2c3e 0d1c 03be
00000230: 977d 753b 7cc5 05be 5208 08bd abf8 4fbe
00000240: 8376 293e 6ce9 333c 294d 69bd 821f 56bd
00000250: dc2c cebd 22f7 df3c a28b 75bd e436 663d
00000260: a116 aebd ff92 e8bd 7028 cdbd f3d3 b93d
00000270: fb65 c73d 00de ffbd e165 ab3d df14 94be
00000280: 6891 7dbe 5004 713d 94ee a83d 119a 05bd
00000290: 262f 803d 240c a03d 3ffb 03bd 4ab2 f1bb
000002a0: 1ef7 013d 20bd fdba 96ef 86bd f258 32be
000002b0: 20f1 823d 10bf 113e 0dc6 08bb b7b3 12be
000002c0: 0aa3 3fb9 c8a5 c3bb 6d74 14be 6b91 6abd
000002d0: 36cf acbd 0e7e d2bd 34c7 023e 2492 c6bc
000002e0: 6ca2 453d 8555 7c3b 1e5b 2a3e e182 07bd
000002f0: 46da 1dbd fc1c 193b 1f2c 9dbd 2b7d 13bd
00000300: e497 94bd 3624 9b3d 27e6 be3d 6ee0 473e
00000310: 0c19 c93c 0752 e33c c36a 4c3d 8f39 ec3c
00000320: 250a bd3d 97de 14be e919 333c 2f13 cbbc
00000330: b51c 1abe c59f e03d 5532 3ebe 1881 183b
00000340: e3d6 1dbe bf22 70bd f5c5 52be 2cc3 f8bd
00000350: f090 1cbb 8cb4 0b3d 4739 9d3c 90b3 13be
00000360: b163 c23d 50f1 dcbb 5847 b93d 9e68 ed3d
00000370: d40c dabd 9a05 58bd 0497 31bd c855 e33c
00000380: 1d2f 1e3e 3f04 70bd a17a c0bd d842 103c
00000390: 14c0 1fbe 485b 0bbe c1b2 233d 8c4f 7fbd
000003a0: 7c4a 82be 5ee0 cc3d aa3e 96bd 8c46 a3bb
000003b0: c228 bdbd 7704 0ebe 7e8d 0ebd 4648 9c3a
000003c0: 38d0 afbb 2e82 92bc 10c8 be3d cdbb c1bc
000003d0: 1df4 3a3d 9589 113e f64b 01bd d1fd fbbd
000003e0: 5dd3 9bbd 8242 873c fcd4 0abe 7c42 ad3d
000003f0: c478 15be 4023 83bc 6f39 0cbe 9fe8 93bd

a2c_network.actor_mlp.4.bias f4 [128]
-0.08015743 -0.024065336 0.052983772 -0.14549083 -0.03671437 -0.097031504 -0.05333409 -0.045632813
-0.021866884 -0.10702669 -0.06397661 -0.010157199 -0.033419512 -0.025752688 -0.027065508 -0.051580757
0.04535394 -0.018814847 -0.015830444 -0.028096097 -0.032942463 -0.036009938 0.023551557 -0.0320442
0.009618148 0.008967222 -0.03139422 -0.036594745 -0.0130453035 -0.076257974 -0.050071828 0.018269653
-0.055586964 -0.1118939 -0.018435022 0.023239892 -0.0630307 0.059084516 -0.034518268 -0.12901828
-0.015482674 0.0036163144 0.03774952 0.02670671 -0.0018304294 -0.06360414 -0.057572477 -0.005924099
0.03062681 -0.0024412735 -0.05274847 -0.05712544 -0.025346834 0.028543146 -0.012383851 0.08767679
0.009920433 -0.036280185 0.062375776 0.058425315 0.015270711 0.054922502 -0.021076575 0.036750402
-0.02052402 0.0842907 -0.06329219 -0.040466852 -0.013209945 0.06756206 -0.13484672 0.036676694
0.02897272 0.07100079 -0.057818297 -0.010204592 0.06647087 0.037929837 -0.07006659 0.06044791
-0.0016071372 0.016527286 -0.041878592 -0.027141092 -0.18579605 0.048017476 -0.02432255 -0.096783735
-0.035519894 -0.023069287 0.014369856 -0.04082351 0.038656075 -0.04999019 0.060867216 -0.01689362
-0.007993654 -0.026990103 -0.1273673 -0.061557375 -0.037114415 -0.08001683 -0.05013521 0.059752543
-0.009764592 0.0004598678 -0.026595475 -0.0070964745 -0.03792668 0.00010385879 0.022076242 0.059314385
-0.0195783 -0.061921176 0.016127748 -0.008937322 -0.07910837 -0.07571768 -0.040187743 0.0005826092
-0.122103006 0.059192356 0.015845025 -0.058762744 0.056672543 -0.038037006 -0.038729474 -0.013977023
00000000: 9429 a4bd ab24 c5bc 8305 593d 8cfb 14be
00000010: cf61 16bd 74b8 c6bd d974 5abd 79e9 3abd
00000020: 2e22 b3bc cf30 dbbd 2b06 83bd 616a 26bc
00000030: e6e2 08bd 4df7 d2bc 7cb8 ddbc 5846 53bd
00000040: 0ec5 393d 9821 9abc d9ae 81bc c929 e6bc
00000050: adee 06bd 287f 13bd 32ef c03c c740 03bd
00000060: 7095 1d3c 41eb 123c 3a97 00bd 5fe4 15bd
00000070: f8bb 55bc 242d 9cbd 1e18 4dbd 3daa 953c
00000080: 28af 63bd a128 e5bd 0b05 97bc 9661 be3c
00000090: 3d16 81bd 9b02 723d 0763 0dbd 5e1d 04be
000000a0: 0bab 7dbc b0ff 6c3b 3e9f 1a3d 08c8 da3c
000000b0: 05eb efba e342 82bd 1ed1 6bbd f21e c2bb
000000c0: 13e5 fa3c c6fd 1fbb c80e 58bd 5efc 69bd
000000d0: 2aa4 cfbc 51d3 e93c a3e5 4abc e48f b33d
000000e0: 5089 223c 889a 14bd be7d 7f3d 624f 6f3d
000000f0: 0132 7a3c 6bf6 603d c8a8 acbc 9787 163d
00000100: fd21 a8bc 9aa0 ac3d 569f 81bd 92c0 25bd
00000110: 866e 58bc fa5d 8a3d 4215 0abe 4d3a 163d
00000120: 3358 ed3c dd68 913d e1d2 6cbd 2931 27bc
00000130: e121 883d 515c 1b3d 137f 8fbd 3a98 773d
00000140: 93a6 d2ba 3b64 873c e388 2bbd ff56 debc
00000150: 5241 3ebe f9ad 443d 1640 c7bc 8d36 c6bd
00000160: 4f7d 11bd cdfb bcbc 8b6f 6b3c 8e36 27bd
00000170: d555 1e3d 83c2 4cbd e74f 793d 7d64 8abc
00000180: d1f7 02bc 591a ddbc 936c 02be 9623 7cbd
00000190: 4905 18bd dddf a3bd 945a 4dbd 15bf 743d
000001a0: abfb 1fbc 691a f139 c1de d9bc 8b89 e8bb
000001b0: 0259 1bbd c3ce d938 3cd9 b43c a4f3 723d
000001c0: ac62 a0bc 0fa1 7dbd 571e 843c d86d 12bc
000001d0: 9203 a2bd df11 9bbd e79b 24bd 3eba 183a
000001e0: 2411 fabd af73 723d 6dcd 813c 34b1 70bd
000001f0: 7821 683d b1cc 1bbd cca2 1ebd e2ff 64bc

a2c_network.value.weight f4 [1, 128]
0.03825838 -0.1675668 -0.055261075 -0.027576905 0.004953325 0.056303006 0.026481295 0.0044515035
-0.08538677 0.013804619 0.05013973 0.009624356 -0.01748753 -0.042995885 -0.020188518 -0.042763438
0.14293493 0.010278085 0.03487368 -0.0138375545 -0.059446022 0.028295713 -0.0072981617 -0.24812566
0.0028783963 -0.05253663 -0.19828601 -0.059148323 -0.061565932 -0.11061798 0.006975684 0.0008970321
0.014657918 -0.071671076 0.0036930814 0.026387127 0.031891253 0.007188163 -0.058248848 0.03551231
-0.03518502 -0.03206451 0.016315654 0.071398176 -0.008805737 0.045418616 0.00804576 -0.020509562
0.0859113 -0.011880166 0.02209936 0.0147125395 0.07808771 -0.0050007417 -0.05343946 0.048724744
0.016509527 0.05775368 0.03394726 0.0233666 0.04370967 -0.052188635 -0.021198802 0.025707297
-0.040685236 0.01566397 -0.035223003 -0.045031708 0.11659728 0.0095650805 0.01720935 0.20155236
0.059458595 -0.040763974 -0.02468423 0.13891347 -0.016653173 -0.017034912 0.0089146625 -0.043776575
-0.033649914 0.03347391 -0.010222797 -0.06537288 -0.0043054386 0.113622345 -0.019027596 -0.13095896
0.020743264 0.017506914 0.016419925 -0.015736105 -0.05528374 -0.03376987 0.19519788 -0.015636334
0.03830127 -0.07639512 0.053683683 0.0034597842 -0.03957237 0.02704523 -0.043622047 -0.008754516
0.039181974 -0.021800704 0.07699367 -0.0021274302 0.00931747 -0.0020934162 0.044175934 -0.027807133
-0.015128225 0.061891075 0.01397619 -0.38364562 -0.00091599475 0.004635974 -0.023151532 -0.018481016
0.002020727 0.0042033014 -0.009365997 -0.07749581 0.12346691 0.028057031 0.081677385 -0.088306345
00000000: d2b4 1c3d a296 2bbe 7059 62bd f6e8 e1bc
00000010: 804f a23b fb9d 663d 4def d83c ebdd 913b
00000020: 42df aebd c52c 623c 515f 4d3d 7aaf 1d3c
00000030: 0242 8fbc 741c 30bd 6462 a5bc b728 2fbd
00000040: 895d 123e 6a65 283c b4d7 0e3d e9b6 62bc
00000050: ac7d 73bd 69cc e73c 6b25 efbb a714 7ebe
00000060: 7aa3 3c3b a630 57bd 7d0b 4bbe 8345 72bd
00000070: 8f2c 7cbd ae8b e2bd 4794 e43b ce26 6b3a
00000080: c427 703c 49c8 92bd a007 723b d129 d83c
00000090: 67a0 023d af8a eb3b 5896 6ebd 5b75 113d
000000a0: 2b1e 10bd 1356 03bd 68a8 853c 3539 923d
000000b0: f045 10bc df08 3a3d 5dd2 033c ab03 a8bc
000000c0: 43f2 af3d 07a5 42bc b809 b53c dd0c 713c
000000d0: 73ec 9f3d 43dd a3bb 56e3 5abd 9993 473d
000000e0: fd3e 873c 1f8f 6c3d 480c 0b3d 506b bf3c
000000f0: e908 333d c0c3 55bd 1ca9 adbc 1c98 d23c
00000100: 90a5 26bd ba51 803c ff45 10bd 2b73 38bd
00000110: 8eca ee3d dbb6 1c3c 9ffa 8c3c be63 4e3e
00000120: db8a 733d 20f8 26bd 9536 cabc 553f 0e3e
00000130: 3c6c 88bc cd8c 8bbc ce0e 123c 114f 33bd
00000140: 7ed4 09bd f01b 093d 857d 27bc 37e2 85bd
00000150: a314 8dbb d5b2 e83d c3df 9bbc 1b1a 06be
00000160: c7ed a93c a96a 8f3c 1483 863c 01e9 80bc
00000170: 3471 62bd 4652 0abd f4e1 473e c517 80bc
00000180: cbe1 1c3d 0b75 9cbd 6ce3 5b3d 8cbd 623b
00000190: a316 22bd f58d dd3c 08ad 32bd 1a6f 0fbc
000001a0: 477d 203d 6497 b2bc dbae 9d3d 5b6c 0bbb
000001b0: 4da8 183c b231 09bb d3f1 343d c9cb e3bc
000001c0: 60dc 77bc 7f81 7d3d 64fc 643c 336d c4be
000001d0: 5e1f 70ba 5ee9 973b 48a8 bdbc 8065 97bc
000001e0: 2c6e 043b d9bb 893b d773 19bc 20b6 9ebd
000001f0: 38dc fc3d dcd7 e53c 7946 a73d f5d9 b4bd

a2c_network.mu.weight f4 [10, 128]
-0.14818963 0.039186046 0.19114992 0.28104413 0.14467107 0.004093803 -0.006906653 -0.06853818
0.15199338 -0.15548769 -0.12095191 -0.08525295 -0.05104935 -0.032378685 -0.019308854 -0.0035445732
0.020314863 -0.067310974 0.025070885 0.13762422 -0.03381243 0.14583904 0.04495223 0.008632333
0.10374562 0.09027002 -0.033388358 0.19058618 -0.2636674 -0.10322259 0.110891886 0.032508533
0.04062762 -0.08258575 -0.13102363 -0.11215502 0.06808197 0.05676768 0.046340834 0.006168319
0.0655717 -0.057486337 -0.12042364 0.2184334 0.044181697 0.12062505 -0.009267316 -0.007968406
-0.10143014 -0.1195297 -0.2623212 -0.19213319 -0.24085595 0.038900625 -0.1840951 -0.046897247
0.042896014 0.1406389 -0.09059372 0.044346474 -0.05139174 0.1447354 -0.08011172 0.05286439
-0.010526659 0.19387071 0.10021089 -0.09111845 -0.21194099 0.081599444 0.0071526654 0.03906409
0.08996942 0.101650156 -0.116765894 0.044458028 -0.22384357 -0.030572904 0.06356381 0.069997735
0.15116052 0.1298794 -0.023360923 0.058765005 0.058371015 -0.0064049494 -0.053857256 -0.008209494
0.004792824 -0.01957871 0.017718377 0.072716415 -0.017721977 -0.11868521 0.038661383 0.045130994
0.13179389 -0.2004828 -0.08949654 -0.118846096 0.21162 0.021493696 -0.07007209 0.15270486
-0.15725876 0.20601076 0.029069167 -0.09565649 0.29154506 0.13824809 -0.029121965 0.0011916198
-0.14944886 -0.06682563 -0.021054517 0.13198562 -0.06325363 -0.0061896793 -0.09396084 0.019982267
0.21569404 -0.049935136 -0.015064277 0.07296655 0.05579095 -0.05643191 0.06799296 -0.051023554
0.009909514 -0.1446165 0.026278736 -0.014436297 -0.11993053 0.028097287 0.02704456 -0.0028093334
-0.14257827 -0.05372009 -0.03721545 -0.03250972 0.0065346174 0.08116513 -0.28905568 -0.051897928
0.003800729 -0.10989325 -0.120900735 0.09102992 0.07511635 0.022329714 -0.061652653 -0.031930357
0.03009944 0.0025296656 0.1455991 -0.0013332987 -0.13038053 -0.08799508 0.061150823 -0.010956834
0.0583462 0.038399503 0.015132311 0.15003684 -0.060148478 0.017211555 0.13290994 -0.024564892
0.05673981 0.22991477 0.049621727 0.029773468 0.039034892 -0.005896775 -0.0040571773 -0.12482263
-0.085721225 0.11418997 -0.07921 0.037308466 0.007382809 -0.07227922 0.0057551176 -0.022811294
-0.0046610464 -0.14395289 0.041713525 0.1552327 0.046689197 0.03434511 -0.028347986 0.009197415
0.11384399 0.16184336 -0.07450436 -0.012980375 -0.08500972 0.03070702 -0.075436264 -0.039700806
0.043973215 0.046034414 -0.0037458895 0.075684406 0.021898955 0.06856284 -0.09610127 0.11865067
0.048204888 0.031992726 0.061632194 -0.10087416 -0.042912308 0.13843058 -0.13428827 -0.06928024
-0.11156114 0.08050555 -0.13928206 0.018706271 -0.043895748 -0.033616435 0.012944717 0.08588473
-0.03620422 0.0003755744 -0.013626038 -0.14399244 0.09118879 0.059208564 -0.1607954 0.21623941
-0.0019261882 0.09296635 -0.049007587 -0.07354952 -0.082280494 0.051318683 0.0019272093 -0.103669986
-0.02402779 -0.095823124 -0.077164516 -0.10921857 0.047702577 -0.024877723 -0.0062282695 0.055816393
0.14479741 -0.0788268 0.020992167 -0.18683083 0.0040602526 -0.13354 -0.037533306 0.07315369
00000000: 06bf 17be 8c81 203d cebc 433e 04e5 8f3e
00000010: a724 143e 4f25 863b 3451 e2bb bf5d 8cbd
00000020: 27a4 1b3e 2a38 1fbe a3b5 f7bd 1999 aebd
00000030: 2019 51bd 839f 04bd 9a2d 9ebc 124c 68bb
00000040: 5b6b a63c 56da 89bd 7561 cd3c 5ded 0c3e
00000050: e77e 0abd d456 153e d41f 383d a16e 0d3c
00000060: 9578 d43d 7ddf b83d 3bc2 08bd 0629 433e
00000070: 6aff 86be 5e66 d3bd 491b e33d ab27 053d
00000080: 2669 263d b822 a9bd 0f2b 06be 88b1 e5bd
00000090: 8f6e 8b3d 3a85 683d e3cf 3d3d 9c1f ca3b
000000a0: 754a 863d cb76 6bbd aba0 f6bd 01ad 5f3e
000000b0: def7 343d 440a f73d f1d5 17bc eb8d 02bc
000000c0: 9bba cfbd fdcb f4bd f74e 86be 90be 44be
000000d0: f1a2 76be 4356 1f3d 6d83 3cbe 5417 40bd
000000e0: bbb3 2f3d a503 103e 3389 b9bd a6a4 353d
000000f0: 2580 52bd 8435 143e 9d11 a4bd 5588 583d
00000100: 0278 2cbc 0b86 463e 5e3b cd3d 4f9c babd
00000110: 0f07 59be 9c1d a73d e860 ea3b ab01 203d
00000120: e341 b83d f52d d03d f522 efbd 9f19 363d
00000130: 4037 65be 0774 fabc be2d 823d f95a 8f3d
00000140: d3c9 1a3e 1bff 043e 685f bfbc 93b3 703d
00000150: 7216 6f3d 9ce0 d1bb 6d99 5cbd 1d81 06bc
00000160: 1f0d 9d3b 8863 a0bc 2126 913c 58ec 943d
00000170: ae2d 91bc 3b11 f3bd 665b 1e3d 47db 383d
00000180: faf4 063e 5d4b 4dbe f649 b7bd 9565 f3bd
00000190: eab2 583e 8c13 b03c f581 8fbd aa5e 1c3e
000001a0: 7108 21be 7cf4 523e 7622 ee3c 8de7 c3bd
000001b0: 6545 953e e890 0d3e 3091 eebc 2030 9c3a
000001c0: 1f09 19be e0db 88bd 867a acbc 3d27 073e
000001d0: 1f8b 81bd cbd2 cabb 8a6e c0bd dab1 a33c
000001e0: e6de 5c3e c988 4cbd 28d0 76bc 7d6f 953d
000001f0: 0d85 643d 2525 67bd e53f 8b3d 13fe 50bd
00000200: 845b 223c 5916 14be 8146 d73c 3886 6cbc
00000210: 239e f5bd 482c e63c 8e8c dd3c cb1c 38bb
00000220: 0a00 12be 9909 5cbd 3a6f 18bd ea28 05bd
00000230: 5820 d63b e739 a63d 1bff 93be ec92 54bd
00000240: a715 793b b60f e1bd ce9a f7bd e56d ba3d
00000250: 9ad6 993d ceec b63c 7e87 7cbd 68c9 02bd
00000260: 1a93 f63c bfc8 253b ee17 153e 15c2 aeba
00000270: 7982 05be c436 b4bd 4979 7a3d 4b84 33bc
00000280: 6dfc 6e3d cc48 1d3d 83ed 773c 42a3 193e
00000290: 405e 76bd 3fff 8c3c 8b19 083e 503c c9bc
000002a0: 0168 683d c76e 6b3e 2740 4b3d 7de7 f33c
000002b0: 0de3 1f3d bc39 c1bb 12f2 84bb 02a3 ffbd
000002c0: 9c8e afbd 6edc e93d da38 a2bd c3d0 183d
000002d0: 7eeb f13b 2107 94bd 6d95 bc3b c0de babc
000002e0: b1bb 98bb 6368 13be cddb 2a3d 52f5 1e3e
000002f0: 2c3d 3f3d 75ad 0c3d 093a e8bc c1b0 163c
00000300: 0a27 e93d 44ba 253e be95 98bd a4ab 54bc
00000310: 9319 aebd 4a8d fb3c 547e 9abd 509d 22bd
00000320: 421d 343d 958e 3c3d 997d 75bb 6d00 9b3d
00000330: 7065 b33c ad6a 8c3d bed0 c4bd 1fff f23d
00000340: 7d72 453d ce0a 033d 0a72 7c3d 1d97 cebd
00000350: d1c4 2fbd bfc0 0d3e dd82 09be cce2 8dbd
00000360: 2b7a e4bd 18e0 a43d f59f 0ebe e53d 993c
00000370: 07cc 33bd 63b1 09bd 1416 543c 55e4 af3d
00000380: e04a 14bd bee8 c439 bf3f 5fbc c172 13be
00000390: 30c1 ba3d ae84 723d 8da7 24be dd6d 5d3e
000003a0: 2778 fcba 2465 be3d 2ebc 48bd 21a1 96bd
000003b0: ad82 a8bd 8a33 523d 6a9a fc3a ee50 d4bd
000003c0: eed5 c4bc ea3e c4bd 6e08 9ebd fcad dfbd
000003d0: c763 433d 5ecc cbbc 8316 ccbb bb9f 643d
000003e0: c645 143e f26f a1bd c4f7 ab3c 9550 3fbe
000003f0: de0b 853b b6be 08be 86bc 19bd 9ad1 953d

a2c_network.mu.bias f4 [10]
0.08738459 0.11620468 0.076287165 0.1429172 -0.020225635 -0.024241708 -0.017482944 0.0035549789
0.061612334 -0.039999355
00000000: b1f6 b23d b8fc ed3d 723c 9c3d e358 123e
00000010: 3bb0 a5bc 8c96 c6bc 6438 8fbc a6fa 683b
00000020: 375d 7c3d 5dd6 23bd

exp_avg f4 [10]
0.00039235005 -0.00060486887 0.0008005026 -0.00066386757 0.000317459 -0.00020618983 -0.00012263338 -0.00038668173
2.3394785e-05 0.00030853995
00000000: 55b4 cd39 1090 1eba d2d8 513a 6607 2eba
00000010: a070 a639 a934 58b9 2697 00b9 8bbb cab9
00000020: eb3f c437 88c3 a139

exp_avg_sq f4 [10]
2.9502107e-06 3.4830007e-06 2.7959645e-06 2.8872664e-06 2.7835838e-06 3.109082e-06 3.3346464e-06 3.070206e-06
3.0536085e-06 3.113815e-06
00000000: 3cfc 4536 7fbd 6936 4ea2 3b36 dcc2 4136
00000010: 9bcd 3a36 9fa5 5036 cac8 5f36 bd09 4e36
00000020: 98ec 4c36 eff6 5036

exp_avg f4 [256, 42]
7.23217e-05 -2.1059133e-05 0.0004252298 -5.7371428e-05 -0.0002792571 5.3299533e-05 -0.00018285078 1.4847197e-05
-1.7587645e-05 -0.0001591338 0.00012994396 0.00010456876 8.3250416e-05 -9.49499e-05 0.00014605398 -0.00014971435
2.1714372e-05 9.2156215e-06 0.00016569004 0.000104265804 -0.0004510122 0.000119114484 8.5766993e-07 6.890437e-05
-4.0627205e-05 2.487048e-06 -6.6620996e-05 5.3324686e-05 7.8509904e-05 -4.4155382e-05 -0.00036989263 -5.4625885e-05
-5.6083103e-05 0.00052846567 -0.0004068164 -0.00024933508 1.5837324e-05 0.0005437144 0.00013882546 -0.00026738216
0.00023421881 -0.00017684954 -0.0002587929 -2.333091e-05 -0.00012295824 -0.000142058 -5.0141683e-05 -1.839228e-05
-2.3798591e-05 0.00010829278 0.00026386572 0.00038259797 -0.00028399957 -0.00029253733 -0.00010164225 0.00025891757
-0.0002944551 -7.7196295e-05 -0.0001170472 7.6263954e-05 -0.0002884742 -0.0002846084 -0.0002480923 0.00036054404
3.947465e-05 2.754754e-05 3.8714657e-06 -2.9277333e-05 -6.5650114e-05 9.266203e-05 -2.6523876e-06 4.4236655e-05
-0.00019779897 1.310804e-06 0.0002572156 0.00016493899 0.00015318223 -0.00013111376 -0.00015801942 0.0005843861
-0.00018291833 0.0001601957 0.00033150107 0.0002685721 -0.00017028513 -5.485632e-05 -3.72256e-05 -0.00010578446
5.034622e-05 -3.0506731e-05 7.907284e-06 0.00012786289 0.00023588486 0.00020986966 -0.0001669089 -0.0001774008
-7.895608e-05 0.0002782546 -0.00025296243 -0.00017629111 -0.00017867894 -1.5743492e-05 -0.00016724903 -0.00020654911
-0.0002688373 0.00046292093 1.2601011e-05 -2.9532992e-05 3.885526e-06 -4.023953e-05 8.574858e-06 4.8573427e-05
2.7480124e-05 4.276373e-05 -0.00023285065 5.1723695e-05 0.00013677432 -8.784526e-05 0.000120438315 -6.908849e-05
0.00019263475 0.00026745413 -2.8742255e-05 0.0002455932 0.00029652313 0.00014452456 0.00042141238 -0.000121931706
0.0004311695 0.00015873276 -0.000108862754 -5.478658e-05 -7.643801e-05 -0.0001505725 -0.00030763788 -0.0006343015
0.0005261802 0.00051216286 0.00016301632 -0.0002877985 0.0005312817 -0.00014324661 0.00016216829 3.999264e-05
0.00055317214 0.00047724394 -0.00023517462 -0.00032211724 -3.8335656e-05 -8.123396e-06 -5.070522e-06 8.113069e-05
4.4831318e-06 1.557625e-05 -9.860328e-06 -6.0854156e-05 2.685618e-05 -6.253869e-05 -0.0002796935 9.901553e-05
0.00010660291 0.0005958091 -0.0002468384 0.00016586033 -0.00021092236 -0.00018567959 -0.00035510567 -0.00036027635
-3.862655e-05 6.26108e-05 -6.306273e-05 -0.0003039191 0.00035179005 -5.741099e-05 0.00027681424 0.00017278099
0.00026234513 -0.00012224379 3.2336256e-06 -1.0341844e-05 -4.3091448e-05 0.00036459859 -0.00020961244 -0.00020663226
-0.00013016789 -0.00020135142 -3.3702454e-05 -9.18059e-05 0.00044314808 0.0007528874 1.1678754e-05 -0.00015985878
5.3910557e-05 1.591261e-05 -5.4625452e-05 -3.7951548e-07 4.931141e-05 8.343999e-05 6.528642e-05 8.675068e-05
0.0002318853 -0.0005781906 0.0003449901 0.0004028673 -0.000359676 1.1876808e-05 0.00032135393 0.00063592946
0.0005770179 0.00010010811 3.892922e-05 -0.000110219335 -1.911277e-05 -5.4866476e-05 0.00020241391 -0.00010581069
0.00014201543 3.9729926e-05 0.00012543358 -9.151368e-05 9.224188e-05 8.116148e-05 -2.4021158e-05 0.00025676246
-6.8639514e-05 -0.00022798871 -4.0420373e-06 7.571767e-06 7.755712e-05 2.3013003e-05 -0.0001676124 0.00036740603
-2.2536971e-05 -9.9677054e-05 1.812714e-05 5.6796373e-05 -5.8023347e-06 2.585356e-05 3.9374947e-05 5.7175825e-05
-5.2589592e-05 4.4763696e-05 -5.3303593e-05 -0.00041832315 0.00048963336 0.00078601274 -0.00029106217 0.00015911918
-2.274686e-05 0.00047936273 0.00022092983 4.037918e-06 -0.0005348048 8.603646e-05 -0.000614394 -0.00018117586
00000000: 6bab 9738 25a8 b0b7 61f1 de39 1aa2 70b8
00000010: 4169 92b9 f08d 5f38 a2bb 3fb9 3a18 7937
00000020: 2e89 93b7 27dd 26b9 9141 0839 ed4b db38
00000030: ba96 ae38 d71f c7b8 1126 1939 a4fc 1cb9
00000040: 4227 b637 cb9c 1a37 15bd 2d39 47a9 da38
00000050: d575 ecb9 1acd f938 a13a 6635 c180 9038
00000060: 2167 2ab8 29e7 2636 e0b6 8bb8 f2a8 5f38
00000070: afa5 a438 7b33 39b8 26ee c1b9 191e 65b8
00000080: c63a 6bb8 bb88 0a3a f949 d5b9 30b9 82b9
00000090: 65da 8437 0e88 0e3a ad91 1139 6d2f 8cb9
000000a0: a298 7539 b070 39b9 98ae 87b9 bfb6 c3b7
000000b0: 5aee 00b9 67f5 14b9 394f 52b8 1f49 9ab7
000000c0: 16a3 c7b7 3e1b e338 7557 8a39 6e97 c839
000000d0: c7e5 94b9 b25f 99b9 c428 d5b8 54bf 8739
000000e0: 1861 9ab9 72e4 a1b8 3d77 f5b8 e6ef 9f38
000000f0: 5a3e 97b9 7e37 95b9 6312 82b9 6707 bd39
00000100: 9591 2538 e415 e737 a3e7 8136 9898 f5b7
00000110: a3ad 89b8 8c53 c238 acff 31b6 bf8a 3938
00000120: 4268 4fb9 e2ee af35 e5da 8639 79f3 2c39
00000130: 8b9f 2039 957b 09b9 04b2 25b9 7d31 193a
00000140: c4cd 3fb9 35fa 2739 52cd ad39 23cf 8c39
00000150: 918e 32b9 8615 66b8 af22 1cb8 99d8 ddb8
00000160: d82a 5338 b5e8 ffb7 87a9 0437 ef12 0639
00000170: dc57 7739 7510 5c39 4404 2fb9 aa04 3ab9
00000180: 3995 a5b8 b3e2 9139 0ba0 84b9 c9da 38b9
00000190: c35b 3bb9 e410 84b7 925f 2fb9 1b95 58b9
000001a0: bbf2 8cb9 32b4 f239 ee68 5337 9ebd f7b7
000001b0: 6a60 8236 dec6 28b8 bcdc 0f37 52bb 4b38
000001c0: 1e85 e637 355d 3338 5f29 74b9 e5f1 5838
000001d0: 146b 0f39 9139 b8b8 d493 fc38 9ae3 90b8
000001e0: fffd 4939 1639 8c39 861b f1b7 f6c2 8039
000001f0: a976 9b39 848b 1739 03f1 dc39 96b5 ffb8
00000200: 970e e239 8071 2639 3f4d e4b8 a4ca 65b8
00000210: 584d a0b8 ffe2 1db9 754a a1b9 4147 26ba
00000220: 5bef 093a ab42 063a 5cef 2a39 a9e3 96b9
00000230: b645 0b3a 7834 16b9 b80b 2a39 c5bd 2738
00000240: c102 113a 9936 fa39 3599 76b9 d8e1 a8b9
00000250: 99ca 20b8 b849 08b7 7423 aab6 b524 aa38
00000260: cf6d 9636 bea9 8237 c96d 25b7 a73d 7fb8
00000270: 3549 e137 3427 83b8 d3a3 92b9 8fa6 cf38
00000280: 0090 df38 1230 1c3a 176a 81b9 cbea 2d39
00000290: 0a2b 5db9 fcb2 42b9 7a2d bab9 79e3 bcb9
000002a0: f102 22b8 eb4d 8338 8c40 84b8 5557 9fb9
000002b0: 7670 b839 95cc 70b8 6121 9139 8b2c 3539
000002c0: 5e8b 8939 912e 00b9 4401 5936 e281 2db7
000002d0: 17bd 34b8 9827 bf39 69cb 5bb9 6dab 58b9
000002e0: ad7d 08b9 dc21 53b9 bc5b 0db8 eb87 c0b8
000002f0: 5456 e839 6b5d 453a deef 4337 c49f 27b9
00000300: 051e 6238 127c 8537 a21d 65b8 36c0 cbb4
00000310: b9d3 4e38 81fc ae38 61ea 8838 ebed b538
00000320: 3c26 7339 b791 17ba cadf b439 ef37 d339
00000330: e592 bcb9 8042 4737 657b a839 81b4 263a
00000340: 0443 173a 22f1 d138 ef47 2338 8e25 e7b8
00000350: 5c54 a0b7 6e20 66b8 123f 5439 aee6 ddb8
00000360: fae9 1439 afa3 2638 d286 0339 08eb bfb8
00000370: fb71 c138 3d35 aa38 0b81 c9b7 139e 8639
00000380: 8ff2 8fb8 4110 6fb9 d6a0 87b6 fc10 fe36
00000390: 29a6 a238 0c0c c137 1cc1 2fb9 67a0 c039
000003a0: c70d bdb7 b609 d1b8 bd0f 9837 a438 6e38
000003b0: adb1 c2b6 19e0 d837 8726 2538 13d0 6f38
000003c0: a593 5cb8 a7c0 3b38 4c92 5fb8 6252 dbb9
000003d0: bd5a 003a 6c0c 4e3a b499 98b9 3bd9 2639
000003e0: 83d0 beb7 fa52 fb39 66a9 6739 747d 8736
000003f0: 2532 0cba 796e b438 490f 21ba 06fa 3db9
