logs/rl_games/humanoid_flat_direct/2025-11-18_21-58-12/nn/last_humanoid_flat_direct_ep_2100_rew_419.9593.pth (torch, 759502 bytes, 33 tensors)

value_mean_std.running_mean f8 [1]
000000 70 f6 42 5c 34 6f 57 40
       93.7375708249981

value_mean_std.running_var f8 [1]
000000 e5 92 8e cb bf 40 a2 40
       2336.3745998911204

value_mean_std.count f8 []
000000 00 00 80 00 00 9c c8 41
       825753601.0

a2c_network.sigma f4 [10]
000000 9f 2d a8 bf 10 7d 8a bf 3c e1 a6 bf 12 2c 39 3e
       -1.3138922 -1.0819416 -1.3037486 0.18083218
000010 60 84 cd bf c9 0a 56 bf db 8a 1e c0 0f 50 d1 bf
       -1.6056023 -0.83610207 -2.477225 -1.6352557
000020 84 3f cc 3e bd 68 7e be
       0.3989221 -0.24844642

a2c_network.actor_mlp.0.weight f4 [256, 42]
000000 65 98 f7 3c f4 3d df 3e c6 0b 79 3e 69 54 9d bc
       0.030224035 0.43601954 0.24320897 -0.019205289
000010 1b 22 82 3c d9 d9 94 3d 9f b4 0c 3e 15 9e 4e be
       0.015885403 0.07268114 0.13740776 -0.20177491
000020 4e 08 a7 be fb 8c 53 bd 8b f5 28 be 14 2a b5 3d
       -0.32623523 -0.05164812 -0.16499917 0.088459164
000030 1d ba 32 be 3c 16 b0 bd a7 b0 d9 3d 11 7c 79 3d
       -0.17453809 -0.08597991 0.10629397 0.060909335
000040 15 c5 1b 3e 94 3a 8e bd 7e 7c 6f 3c 5b 9b cd bd
       0.152119 -0.06944767 0.014617084 -0.10039397
000050 ef b3 f5 3d 25 0c 02 be 41 d5 bf be 4a 79 4b be
       0.1199721 -0.12699945 -0.37467387 -0.19870487
000060 c3 ba 6a 3e 37 22 bc 3d 71 28 8b bd cf 8e c2 bc
       0.22922806 0.091862135 -0.06794823 -0.023749737
000070 76 f3 3c 3e 6c 01 60 3e e7 f0 8b 3e e7 06 4b be
       0.18452248 0.21875542 0.2733223 -0.19826852
000080 7c 90 25 be 41 b3 e2 bd f6 6d 59 bd 36 c7 39 3d
       -0.16168398 -0.11069346 -0.053083383 0.045355998
000090 ba ed 8c 3d 13 03 d0 3d 52 cd 0a be 0c 05 ca bd
       0.0688128 0.10156836 -0.13554886 -0.09864244
0000a0 2e 5c 18 3d c1 04 3c bd c2 0a f8 3d f9 da 34 3e
       0.037197284 -0.04590297 0.12111427 0.17661656
0000b0 4a 4e 8f 3e fd aa b9 bd 95 a2 7a be 18 76 ab 3e
       0.27989417 -0.090658166 -0.24476083 0.33488536
0000c0 dc 7c 58 3e 65 1e 33 3d 70 8d d8 bd d2 b3 20 3d
       0.2114138 0.04373016 -0.10573852 0.03923399
0000d0 84 6c c0 bd dc 34 7d bd cc 92 8a 3e db 84 05 bd
       -0.09395698 -0.06181799 0.27065122 -0.032597404
0000e0 d8 73 83 3d a7 ac 30 be fc 9b 4e bb 05 9b 1e 3e
       0.0641858 -0.17253362 -0.003152608 0.15488823
0000f0 ba 92 1d bc ae 07 ff bd 74 b3 26 3e 17 ff 61 bc
       -0.009617502 -0.12452637 0.16279393 -0.013793728
000100 6a a1 a2 bd 1a b6 0f be f9 72 d2 be 71 92 d1 bd
       -0.079409435 -0.1403431 -0.41103342 -0.102330096
000110 93 b9 b1 3d 3e 73 e3 3d 74 00 b9 3d ab 1c c9 be
       0.086779736 0.11105965 0.090332896 -0.39279684
000120 1e 18 68 bc c0 71 8a 3d 04 cf 80 3c 58 1a 34 be
       -0.014165906 0.06759977 0.015723713 -0.17588174
000130 35 43 86 bd b4 b8 9b bc 46 e5 84 3d b2 6e 5c bd
       -0.065557875 -0.019008972 0.06489043 -0.053816505
000140 84 30 01 3d 89 a7 2a be c7 2b d7 bb ec 4b 45 bd
       0.03154041 -0.16665472 -0.006566498 -0.048168108
000150 d3 32 82 bd b6 c1 17 be da 49 a6 3e 16 fb 8a 3d
       -0.0635735 -0.14819989 0.3247822 0.06786172
000160 9f f4 3d bb b3 44 25 3d 16 05 25 be fa c4 f8 3d
       -0.0028984917 0.04034872 -0.16115221 0.12146945
000170 65 b2 0a be e4 cf 91 bd cd 5c 0c be 21 6c 25 be
       -0.13544615 -0.0711973 -0.13707276 -0.16154529
000180 4f b1 e8 3b cb 5f 56 be 3e 6b 00 3e c4 d8 f0 bd
       0.007101215 -0.2093498 0.1254091 -0.11760095
000190 11 96 15 3e 99 1e f9 bc e7 7c 83 bd 1e ca 87 bc
       0.14608027 -0.030410098 -0.064203076 -0.01657587
0001a0 eb 0c 16 3e 76 ad 4f 3e 71 1d 2d 3e 5c 85 54 be
       0.14653365 0.20281014 0.16905762 -0.20753998
0001b0 1f db 1a 3d bd eb f9 bd fc db b9 bd b2 ab 0e be
       0.037806626 -0.12203167 -0.09075162 -0.13932684
0001c0 19 3e a3 3d 55 3f 38 be 34 15 d6 3d 4d 1f 97 3c
       0.079708286 -0.17992909 0.10453263 0.018447543
0001d0 8e c0 37 3d 52 6e fc bd 91 3d 09 3e 5a b9 08 3d
       0.04486137 -0.123257294 0.13402392 0.03337989
0001e0 2c 6b be 3d 03 fc ef bd 28 9b e8 3d e5 aa 97 3c
       0.09297785 -0.11717989 0.11357719 0.018514106
0001f0 17 12 8b bd 47 8c 20 3e d2 47 e2 3c 02 9e f0 bc
       -0.0679056 0.15678512 0.027622137 -0.029372219
000200 15 6a 52 bd 11 0f b5 3d 4b 2e c3 3d a0 ef f9 bd
       -0.0513707 0.08840764 0.09530314 -0.12203908
000210 8e 3b db bd 48 c6 75 be f5 ef 07 be 05 3b 89 3d
       -0.107047185 -0.2400142 -0.1327513 0.0670071
000220 0c dd e7 3d a5 e2 19 be 27 c3 46 3d b9 01 4e 3d
       0.11321458 -0.15027864 0.048525956 0.05029461
000230 4d 3a d1 39 ac 85 07 bd 04 8b 69 3d 48 cb 45 3e
       0.00039907024 -0.033086464 0.05701734 0.19315827
000240 e9 ab f3 3d 2f 27 3d bd 61 a7 4a be 52 35 c8 3d
       0.11898024 -0.046179947 -0.19790412 0.09775795
000250 fa 44 0d 3e a5 f8 2a bd 25 8a a1 3e d8 d6 93 3e
       0.13795844 -0.041741032 0.31550708 0.2887485
000260 40 95 c8 3d b3 bc a6 3c 32 9b 12 3e 62 79 ef bc
       0.09794092 0.02035365 0.14317015 -0.029232685
000270 f8 ff 80 3d d0 0b ba bd 0c 46 5b be 12 2c a4 bd
       0.06298822 -0.09084284 -0.2141344 -0.08016218
000280 8c df 26 3e 04 f5 01 3d 7f af 70 bb 70 4e 61 bd
       0.16296214 0.031727806 -0.0036725698 -0.055006444
000290 81 17 cf bd 87 8b d0 bd 05 71 54 bd 41 55 27 3d
       -0.10111905 -0.10182863 -0.051865596 0.04085279
0002a0 78 26 10 3e 3d e5 82 3e d0 1f 3e 3b 2f d9 ba 3d
       0.14077175 0.2556552 0.002901066 0.09123456
0002b0 e2 f4 19 3d 6c 74 8f 3e d4 26 97 3d 3f a6 e2 bd
       0.037587054 0.2801851 0.07380453 -0.11066865
0002c0 04 76 55 3d da 06 c0 bd 68 21 6e bd b7 c7 1e 3e
       0.0521145 -0.09376307 -0.058137327 0.15505873
0002d0 b3 ef 85 3c 89 3b cc 3c c5 78 03 be 66 20 a9 3d
       0.016349649 0.024930732 -0.12839039 0.08258133
0002e0 dd 9c 19 3e 9b f6 2c 3c dc 9d ca bd cc 33 51 be
       0.15001245 0.010556842 -0.098933905 -0.20429915
0002f0 e4 cd ac bd e6 42 45 3e e0 e4 b3 3e d1 f2 32 3e
       -0.08437708 0.19263801 0.35135555 0.1747544
000300 86 21 9c 3e 12 ee 1c 3d 4c ce 60 bd 3a c2 87 be
       0.30494326 0.03831298 -0.05488424 -0.2651537
000310 a6 4b 8e be 11 17 d8 be a1 19 32 3e 0b 72 a5 bd
       -0.2779209 -0.42205098 0.17392589 -0.080783926
000320 46 3c 32 bd e3 4e 96 bd 1d d9 e1 3a 9f d7 aa bd
       -0.043514512 -0.07339265 0.0017230842 -0.08341908
000330 e6 c7 aa bd ad c5 d7 ba d3 b3 26 bd ce aa cc 3d
       -0.08338909 -0.001646211 -0.040698837 0.09993516
000340 21 33 dc 3b 73 06 8d bd 79 cc ac bc fd e1 16 bd
       0.006719962 -0.06885996 -0.021093594 -0.036836613
000350 17 74 99 bd 88 c1 c2 bd 89 cb 24 3e 2a 5c 93 bd
       -0.074928455 -0.095095694 0.16093268 -0.07195313
000360 0c 3a 38 3e cd 25 eb 3c a3 1d d3 3d 0a 4d fb bd
       0.17990893 0.028704548 0.10308387 -0.122705534
000370 ed a2 f5 3d 96 73 89 bd 2d 5f 44 3e 9b 7a 48 3e
       0.11993966 -0.067114994 0.19176932 0.1957802
000380 00 ba af bb a3 4b 15 bc 6c 7d d0 3c ac 88 be bd
       -0.005362749 -0.0091122715 0.02545043 -0.09303412
000390 dd 23 92 3d 69 09 83 be d9 03 d7 3d ed 76 7e 3e
       0.07135747 -0.25593117 0.10498781 0.24850054
0003a0 3d 52 cc 3e db 35 e3 bd 16 1d 2d bd 5f 04 4d bd
       0.39906493 -0.110942565 -0.042264067 -0.050052997
0003b0 63 40 38 bb 88 b5 65 be 8a c0 2a bc f0 e6 78 be
       -0.002811455 -0.2243253 -0.010421881 -0.24306846
0003c0 24 c2 a0 3d 3d 33 0f be 8f f3 cc bd bb b8 c2 bd
       0.078495294 -0.1398439 -0.100073926 -0.09507891
0003d0 01 05 07 be 6d be 07 3e 74 eb ee 3d c4 25 83 3c
       -0.13185503 0.13256235 0.11666003 0.016009219
0003e0 ea 1b 1e bc 75 ee 19 bc b3 42 ad bd 8b b9 b4 bd
       -0.00965021 -0.0093952315 -0.084599875 -0.08824452
0003f0 af 78 89 3d 63 d7 91 bd 63 dd 87 3c c5 28 cb 3d
       0.06712472 -0.0712116 0.016585058 0.099198855

a2c_network.actor_mlp.0.bias f4 [256]
000000 c9 24 fd bc 62 93 6c 3d d9 18 7f 3b de ed 46 bc
       -0.03090133 0.057757743 0.0038924722 -0.012141673
000010 4b 25 14 3d bc 58 90 3c ef 6a ab 3c 2f 5a d7 bb
       0.036168378 0.017620437 0.020925013 -0.00657203
000020 3b 2f 68 bc ec a3 8d 3d 84 c2 00 3d 1c 8f 06 ba
       -0.014171417 0.06916031 0.031435505 -0.00051330193
000030 56 99 3f 3c 4a 84 a0 3b a2 35 01 3d 04 12 80 ba
       0.011694273 0.0048985826 0.03154529 -0.0009770994
000040 0a 47 9d 3c 51 1a d2 3b b8 85 03 bd a7 07 08 3d
       0.019198913 0.0064118286 -0.032109946 0.033210423
000050 90 9d 3a bd 9d 61 b5 bc 62 9e 4d 3c 5c 16 fa 3c
       -0.04556042 -0.022141272 0.012549968 0.03052824
000060 f5 eb 12 ba 68 45 2d bc 28 6a b2 bb 29 af 68 bc
       -0.00056046183 -0.01057563 -0.0054447837 -0.014201918
000070 e2 28 c1 3c a1 db 0b bd fb 33 b4 3c 9d a3 18 3d
       0.023579065 -0.034145 0.021997442 0.03726541
000080 c4 94 86 3d b6 97 92 bc 6e c4 10 3b fd 6d f1 bc
       0.065713435 -0.017894607 0.0022089737 -0.029471392
000090 1f 28 da 3c 18 9b 13 bc 5a 30 30 3c ab 2b 24 bb
       0.02663046 -0.009009145 0.010753715 -0.0025050442
0000a0 bf ff 66 3b 9a e1 1b bc 64 b3 da 3c b8 6b 69 bd
       0.0035247651 -0.009514237 0.026696868 -0.056987494
0000b0 39 c3 83 3c 17 35 34 3d 31 9c 30 3d cd 41 89 3d
       0.0160843 0.043995943 0.043117706 0.06702004
0000c0 24 47 1f bb 33 82 08 3c 7c 23 a0 bc 0b c8 b1 3c
       -0.0024303878 0.008331823 -0.01954817 0.021701833
0000d0 51 9b 64 3b 6f 42 bd bc 05 f7 6c bc c3 b8 38 bd
       0.0034882615 -0.023102967 -0.014463191 -0.045098078
0000e0 21 e2 9a bc 90 b4 76 3c e5 d8 ce 3b 5d bb fd 3c
       -0.018906655 0.015057698 0.006312477 0.03097313
0000f0 d9 e7 04 bc 08 fd bc 3c c6 9d 8c bb 18 37 2b bb
       -0.008111917 0.023069873 -0.004291269 -0.0026125368
000100 bc dd 1b 3c 75 62 99 3d b9 c1 25 bc c4 73 af 3c
       0.009513315 0.07489482 -0.010116988 0.021417506
000110 00 3b bc bc 75 c4 1b 3d 7e b7 25 bd f8 9f 53 bd
       -0.022977352 0.038029153 -0.040458195 -0.05166623
000120 d9 95 cd bc f6 10 41 3d a6 18 5c bc a8 32 89 bc
       -0.025095867 0.047135316 -0.013433611 -0.016747788
000130 2b 4d 3c bd 11 95 d4 bc e1 fe 74 bd 01 d4 be ba
       -0.04597203 -0.025949987 -0.059813384 -0.0014559032
000140 24 bf fe bb 4c 2c 40 bc 82 fd fc 3c 63 5c 36 3c
       -0.0077742506 -0.011729311 0.0308826 0.011130425
000150 2a 34 ca 3c e4 f5 71 3c 68 05 0b 3b b0 4f 25 bd
       0.024683077 0.014768098 0.002121294 -0.0403592
000160 bf ac 17 3d 41 e1 d5 bc 78 55 2c 3d 59 4c 93 bc
       0.037029978 -0.026108386 0.042073697 -0.017980741
000170 38 ea 47 37 6a 72 0f bd ef 70 88 bc b3 c1 9f 3c
       1.1915858e-05 -0.035021223 -0.016655413 0.019501543
000180 26 99 0e 3d 22 d5 24 bb ef 14 76 bd df 56 2f bc
       0.034814022 -0.002515145 -0.060078558 -0.010701864
000190 c6 0e 5b 3c 9e 10 91 bb 6e 11 67 bc 35 93 19 3d
       0.0133702215 -0.0044270298 -0.014103277 0.037493903
0001a0 bd fb 7b 3c 01 b4 58 3c b4 2c 25 ba 85 7f 9b 3c
       0.015379843 0.01322651 -0.0006300912 0.018981704
0001b0 70 38 12 3b d4 63 83 bd 93 3e 91 3c e4 c1 cb 3c
       0.0022311471 -0.06415525 0.017730033 0.024872728
0001c0 53 99 b6 bc 3f 2d 0f bd c2 69 db bc 81 63 6b 3c
       -0.022289908 -0.03495526 -0.026783828 0.014366985
0001d0 0f c7 1f 3d b8 c3 00 bc 7b 2b a8 bc c3 56 1b 3b
       0.039008196 -0.007859163 -0.020528546 0.0023702837
0001e0 5f a0 1c bc 25 f1 20 bd 89 ed e7 bc e0 33 34 3d
       -0.00955972 -0.039292473 -0.028311508 0.043994784
0001f0 16 d6 37 bc b0 74 9d 3c 1e 50 5b 3c 81 26 17 bd
       -0.011220476 0.01922068 0.013385801 -0.036901955
000200 5e 42 29 bd 5d 09 9f 3c 38 5d d6 bc 37 40 4d bc
       -0.04132306 0.019413644 -0.026167497 -0.012527517
000210 6d c3 f7 bc 51 c1 61 3c 81 48 1b 3d a1 1b f8 bb
       -0.030244553 0.013779 0.037910942 -0.007571653
000220 35 cd 01 bc 89 ee ed bc 17 30 31 3c 3a 76 cf bc
       -0.00792246 -0.029044406 0.010814688 -0.02532493
000230 3b 74 95 ba d3 b9 ef 3c e5 b4 a8 bc 2b 03 5b bc
       -0.0011402437 0.029263413 -0.02059407 -0.0133674545
000240 3b b0 99 3c 71 d9 27 bb cd 9a 30 3d 5e 53 b4 bb
       0.018760791 -0.0025611783 0.04311638 -0.005503102
000250 d2 9b a8 3d 37 73 0d bd 62 a4 70 3c f0 5e d8 3c
       0.08232845 -0.034533706 0.014687629 0.026412457
000260 c0 82 2c bc fd 92 a6 bc 4b a7 68 3c fd eb 0f bd
       -0.01052922 -0.020333761 0.014200042 -0.035137165
000270 8a 23 cc bc 17 47 fe bc 80 79 4b 3d 18 81 aa 3c
       -0.02491929 -0.031039758 0.04967642 0.02081351
000280 c7 bf b0 bc 00 92 07 3d bd 9b 98 bc 96 cf 31 bc
       -0.021575822 0.03309822 -0.01862895 -0.010852715
000290 48 80 2b bc 35 16 34 3d f9 71 0b bd a2 53 18 3c
       -0.010467596 0.04396649 -0.03404424 0.009297283
0002a0 1f 5e 06 3d 76 90 8c 3d 2e a4 d4 bc 5a 5d cb bb
       0.032804605 0.06863491 -0.025957193 -0.0062061967
0002b0 62 9e 0c 3d 12 9b 8f 3c 8d 15 ec 3c c5 d3 5c 3b
       0.034330733 0.017529998 0.02881887 0.003369556
0002c0 7a 90 0c 3d c8 ff da bc c6 b8 35 3b 3b f7 06 3c
       0.03431747 -0.026733294 0.0027728542 0.008237655
0002d0 7d d5 d6 3c 76 2e 39 3d 6e 8b e7 ba d7 44 d5 3c
       0.026224846 0.045210324 -0.0017665455 0.026033802
0002e0 37 f0 e0 bc 87 b6 e0 bc f2 cd b0 3c 25 0f a8 3c
       -0.027458293 -0.027430786 0.021582577 0.020515034
0002f0 a3 8c 15 b9 c0 12 8a 3d b1 64 69 3c 5c 22 7f 3d
       -0.00014262139 0.067418575 0.014245198 0.062288627
000300 4c 72 4b bb 37 7a 83 3c 30 92 3b 3d e2 d0 c4 3c
       -0.0031043468 0.016049488 0.045793712 0.024025384
000310 b5 ac 1f 3c 01 a8 42 bd 8b bd 05 3d 06 79 04 bd
       0.009745766 -0.047523502 0.032651465 -0.03234198
000320 dc a4 e3 3c 9b bf 0c bc e5 4e 20 3c c9 eb 38 bd
       0.027788572 -0.008590604 0.009784435 -0.045146737
000330 91 27 39 3b 07 17 90 bc 2d ca 22 b8 04 42 11 ba
       0.0028252343 -0.017589105 -3.88121e-05 -0.0005541148
000340 7b 49 ed bb e3 28 99 3b 93 43 a0 bc aa 50 0f 3d
       -0.0072414256 0.0046740635 -0.019563472 0.034989037
000350 6f a0 b8 3c d9 1d 58 3c 98 a3 42 3d 63 1f 87 bc
       0.022537438 0.01319071 0.047519296 -0.016494459
000360 b2 69 93 3b c5 29 fe 3c 60 d5 01 bd 3c 69 ab bb
       0.004498684 0.031025777 -0.03169763 -0.005231051
000370 78 95 b1 3c 94 c5 17 3d 40 87 2f bd 0f fe 72 3d
       0.021677718 0.03705366 -0.042853594 0.05932432
000380 c5 68 54 3d d9 9b dc bc ea 85 59 bd 33 28 0b 3d
       0.05185773 -0.026929783 -0.053106226 0.033973884
000390 c3 91 2d 3d 84 88 b7 3b 39 8b 44 3d ed a6 0e bd
       0.042375337 0.0056009907 0.047984336 -0.03482716
0003a0 7d ed ac bb d7 c4 5c bd c8 1c a3 3b 6d cb 5a 3d
       -0.0052773342 -0.05389866 0.004977796 0.05341666
0003b0 2e 9c af 3c a2 a3 94 3c e4 73 ff bc f1 33 94 3b
       0.021436777 0.018144432 -0.03118319 0.0045227935
0003c0 d6 12 4e 3d f3 1b a0 3c d4 01 e5 bb d8 ac 1d 3d
       0.050310932 0.019544577 -0.0069887433 0.038494915
0003d0 b5 53 7c 3d bb 14 ac 3c 40 02 38 3d d3 91 2a bd
       0.061603267 0.021005979 0.04492402 -0.041642975
0003e0 93 cc 21 3d 1e a8 32 bd 82 40 41 bc 73 37 96 bc
       0.039501738 -0.04361736 -0.011795165 -0.018336987
0003f0 42 c8 f1 3c 31 e0 57 3c 48 c6 c7 3c 7a 82 96 3a
       0.029514436 0.01317601 0.02438654 0.0011482977

a2c_network.actor_mlp.2.weight f4 [128, 256]
000000 6b 6f 02 bc 70 7f 93 3c 92 90 d2 bd 95 93 c7 bd
       -0.007961134 0.018005103 -0.10281481 -0.09744946
000010 36 db 3f bd 36 e7 9a bd 47 b8 b7 bd 39 9f c6 3d
       -0.046839915 -0.07563631 -0.08970695 0.09698338
000020 40 50 c8 3d 65 af 16 3d 14 fe 85 bd ed 1e f8 bc
       0.097809315 0.036788363 -0.06542602 -0.030288184
000030 19 d4 8e 3d 6b 4a 9f bc a2 dc 4e bd 2e 95 e8 3c
       0.06974048 -0.019444665 -0.05050338 0.028391447
000040 83 08 d4 bd d6 86 b4 3c 67 ea 5b 3d 15 c2 b0 bc
       -0.10353186 0.022036951 0.05369034 -0.02157692
000050 da de a1 bc 5f 98 27 be 7c 2f 06 be 5e f7 25 3e
       -0.019759584 -0.16366719 -0.13104051 0.16207644
000060 ba ca 56 3b 0a 4b b3 bd 60 7c 8f bd 8b 02 ed 3d
       0.0032774643 -0.08754547 -0.070061445 0.11572751
000070 3a 60 d4 bd 45 6b 04 be 82 5c 8c bd 2a 57 b5 bb
       -0.10369916 -0.12931545 -0.06853582 -0.0055340724
000080 08 b5 20 bd ce bd eb 3b 34 20 e6 3c 82 ee 0d be
       -0.039235145 0.0071942573 0.028091528 -0.13860515
000090 4c 90 e8 3a 4e 91 1a 3c bc a9 dc 3d 02 c9 88 bd
       0.0017743199 0.009434057 0.10774562 -0.06678964
0000a0 89 b4 cf bd a1 79 f8 3c 09 1a 89 3d 39 66 bb bc
       -0.10141856 0.030331435 0.06694419 -0.022875892
0000b0 1f 20 cc 3c 8c 1d a1 bd 24 b2 ac bc 1b d8 78 bc
       0.02491766 -0.07866964 -0.021081038 -0.015188242
0000c0 0a ef 79 3c 16 b8 da bd c4 6f ce 3b c1 e4 03 3d
       0.015254745 -0.10679643 0.0062999446 0.03220058
0000d0 8f f4 16 3e ae 4a 9f 3c 85 31 00 bd 95 2f 90 bc
       0.14741729 0.01944479 -0.031297226 -0.017600814
0000e0 45 8b 13 be 9d 68 bc bd 36 0c 57 bc 3d cc f6 3c
       -0.14408596 -0.09199641 -0.01312547 0.030126685
0000f0 3d 4e 73 3d 14 32 8f bd 70 72 42 3c 1c 80 67 bd
       0.059400786 -0.069919735 0.011868104 -0.05651866
000100 00 a7 40 be 41 76 fa 3d 97 a6 7d be be c0 36 bd
       -0.18813705 0.122295864 -0.2477058 -0.044617407
000110 06 44 e3 3d 62 a8 74 3d 3d 68 ba bc 02 d6 28 3d
       0.11096959 0.059730895 -0.022754783 0.04121972
000120 1f 5b e2 3c c9 be ea 3c 2c aa af 3d 4f 88 f1 bd
       0.02763134 0.028655427 0.085773796 -0.11793577
000130 0d 95 13 3d d9 42 6d bd ec 65 9f 3c 2c a6 66 3e
       0.036030818 -0.05792508 0.01945778 0.22524327
000140 9a 6e 2d bd 7e d7 87 3d 61 4c 4f bd 41 28 e6 bd
       -0.042341806 0.06632899 -0.05060995 -0.112381466
000150 87 00 08 3e 09 ce d7 3c b9 da 28 be 10 ab f2 3b
       0.13281451 0.026343362 -0.16489686 0.007405646
000160 b2 8f a0 bd af e3 a7 bd 1e 51 49 bd 0e 5d 34 3c
       -0.07839908 -0.08197724 -0.049149625 0.011008514
000170 92 13 8e 3a e3 62 50 bd 7e 9f 47 ba 84 cf 1e be
       0.0010839573 -0.050875556 -0.0007615014 -0.15508848
000180 06 16 09 3d 69 67 83 bd c2 4b 44 3d b6 94 a7 3d
       0.03346827 -0.06416208 0.04792381 0.08182661
000190 4e 2f 40 3b cd b2 a3 bd 32 74 b8 bd 9c 13 14 bd
       0.002932507 -0.07993088 -0.090065375 -0.036151513
0001a0 6d 55 fe bc 0d 1a 41 3e 7c 63 7b 3d c3 1e 85 3c
       -0.031046594 0.18857594 0.061374173 0.01625002
0001b0 7b b8 0a be 56 df 7e bc 2a 3d f9 bd f7 55 12 bd
       -0.13546936 -0.015556177 -0.12169869 -0.035726514
0001c0 ea a0 02 3e d7 d2 f1 3c f0 49 f3 bd c6 50 b4 bd
       0.12756696 0.029519482 -0.11879337 -0.08804469
0001d0 a2 eb 6a be 22 69 bb 3d 8f 92 0b bd d2 5b 5d bd
       -0.2294145 0.09150912 -0.034075316 -0.054042645
0001e0 03 f3 a3 bd 1b e8 d6 3c cc db 32 3d 0c 9f 84 bc
       -0.08005335 0.026233723 0.043666646 -0.01618912
0001f0 44 8f 72 ba 94 a7 ff 3c 4e 5b b3 3c c8 cd 4e 3d
       -0.00092529156 0.031207837 0.021894123 0.050489217
000200 6c 36 33 bd 86 03 5e 3c 37 2e 7c 3d 6f bb 59 bd
       -0.043753073 0.013550645 0.06156751 -0.053157266
000210 fd 58 15 bd 51 de ac 3b 61 d9 b9 3c ab 5a d7 3d
       -0.03646182 0.0052755256 0.022686662 0.105153404
000220 9a 72 22 3d b1 36 dd 3c f4 4e b5 bd fc 75 65 bd
       0.039660074 0.027003618 -0.0885295 -0.05602072
000230 f4 a1 18 be 14 23 bc bd aa 43 08 3e c0 db 8f bd
       -0.1490553 -0.09186378 0.13307062 -0.07024336
000240 a2 db 16 be 8b 4c f4 3c 4c 7b 93 bd d4 2e 7d bd
       -0.14732221 0.029821655 -0.072012514 -0.061812237
000250 26 6e 13 be d5 6e 00 3d 21 b8 f3 3d e9 7a af bb
       -0.14397487 0.031355698 0.11900354 -0.005355228
000260 9d 55 53 3e 54 6f 59 bd 8f 80 25 be da d7 40 be
       0.20638128 -0.053084686 -0.16162322 -0.18832341
000270 8c 3f 8e 3b 22 cf 36 bd d5 ff c0 bc 32 a8 92 bc
       0.0043410715 -0.04463113 -0.02355949 -0.017902467
000280 4e 34 16 bd 9a 4c 1a 3e c9 b3 8e bc 9f cb 83 bd
       -0.036670975 0.15068284 -0.017419713 -0.06435322
000290 f7 92 c2 bd 61 8b 7f bd d1 54 27 3e 31 c0 cd 3c
       -0.095006876 -0.06238878 0.16340949 0.025116058
0002a0 0b bb df 3c f1 ae 01 be fe 3c 5c 3c 0d fd be 3d
       0.027310869 -0.12664391 0.013442276 0.09325609
0002b0 c6 97 8f bd fe d6 13 3d d5 90 31 be 73 1d 79 bc
       -0.0701137 0.036093704 -0.17340405 -0.015204775
0002c0 99 2e 96 bc 2f f4 63 3d 5f bf 1a 3e c6 00 3e be
       -0.018332766 0.055652793 0.15112065 -0.18554983
0002d0 d9 2d 1a be b7 b3 c0 bd 4e 58 bc 3d 63 1c 0f bd
       -0.15056552 -0.09409278 0.0919653 -0.03493918
0002e0 cb b7 08 be 4d 0e 18 bd 4f 5f 38 bd 41 f0 a3 3d
       -0.13351361 -0.037123013 -0.04501277 0.08004809
0002f0 b5 2e 1e bd 48 e1 11 3c 92 14 49 3d 55 d4 ea bd
       -0.038618762 0.008903809 0.049091883 -0.1146628
000300 11 e1 c4 bd d8 7c d2 bc fc f6 1d bb 87 90 b7 bd
       -0.096132405 -0.025694296 -0.0024103513 -0.08963113
000310 d9 1b 7b 3c 39 bc ca 3c 93 b7 0e be 5e 11 84 bd
       0.015326464 0.024747955 -0.13937216 -0.06448625
000320 fc 14 0d 3e 62 5f 2a bc 48 58 79 bd ae 72 63 3d
       0.13777536 -0.010398718 -0.060875207 0.05552929
000330 3e 26 98 bd 7a 08 61 3d 2d 29 a0 3b 38 d4 13 be
       -0.07429169 0.054939725 0.004887721 -0.14436424
000340 05 a5 40 3c 2c 67 e6 bd 95 c2 ea 3d 0b dd 6f 3d
       0.011758094 -0.11250147 0.11462895 0.058560412
000350 ff 1e dd bd 9d 02 af bd 73 06 ca 3b 03 b8 45 bc
       -0.10796928 -0.0854542 0.0061653196 -0.012067798
000360 97 aa 1f bd 75 70 d9 bb 3e 9f 2b bd ac 09 1a 3e
       -0.038981047 -0.0066357204 -0.041899912 0.15042752
000370 ba 80 11 3e c1 43 07 3c 37 58 07 be 4f 87 29 bd
       0.14209262 0.0082559 -0.13217245 -0.041388806
000380 44 79 9a bd 4e f7 33 3e 49 c3 84 bd 73 3c 1d bd
       -0.07542661 0.17574808 -0.0648256 -0.038387727
000390 21 a9 b6 3c 4c ac ab bd 4b a5 49 3c 6f 07 9c 3c
       0.022297444 -0.083824724 0.012307475 0.019046513
0003a0 ea 0b b2 3d b6 17 70 3d 99 cf 70 3d 2e 38 e2 bc
       0.08693679 0.058616363 0.05879173 -0.02761468
0003b0 83 3f ae 3d 2d 9d 08 3e 32 f8 a0 bd df 1a db 3c
       0.08508208 0.13341208 -0.078598395 0.026746212
0003c0 ac 43 cf bd 5f fe 71 3d 8e 30 04 bd d9 c2 e2 bb
       -0.10120329 0.059080478 -0.032272868 -0.0069202003
0003d0 be 03 e3 bc 71 6b 12 3e bb b4 7d bd 23 ab 9e 3c
       -0.027711745 0.14298798 -0.061939936 0.019368714
0003e0 1f 80 d2 3d 1a 57 ab bd 38 43 f2 bd e8 b4 af 3d
       0.102783434 -0.08366223 -0.11829227 0.08579427
0003f0 46 11 89 bc d7 35 c8 3d 15 85 77 3d ff c1 8e ba
       -0.01673187 0.09775894 0.06042965 -0.0010891556

a2c_network.actor_mlp.2.bias f4 [128]
000000 92 94 ab bc dd c8 8f 3c 74 8a e1 bd 5a 5f 16 3c
       -0.020944867 0.017551834 -0.11012736 0.009178007
000010 82 84 04 3c 83 21 bf 3c d3 53 c7 3b 2e 41 ee 3c
       0.008088233 0.02333141 0.0060829907 0.029083814
000020 e8 15 23 bd 4e 9b 8f 3c 47 cd 8d bc 4f a0 20 bd
       -0.039815813 0.01753011 -0.017309798 -0.039215382
000030 f6 ef 85 bd 57 0d 65 bd e7 fe 25 bc b9 0b 5a 3d
       -0.065399095 -0.055920925 -0.010131574 0.053233836
000040 03 00 13 bc a7 9b 77 bc f8 cc 98 bc 69 cf 5e 3c
       -0.008972171 -0.015112794 -0.018652424 0.013599255
000050 4d 5c 82 3d 80 bf a9 bd 35 01 28 bd 97 48 8e bd
       0.06365261 -0.08288479 -0.041016776 -0.06947439
000060 9b 2c 25 bd df cd 99 3c c3 ae c5 bc f4 27 63 3d
       -0.040325742 0.018774925 -0.024131184 0.055458024
000070 09 f4 c1 bc e2 5f 38 bd 97 2f 98 3d e7 40 e5 bb
       -0.023675935 -0.045013316 0.07430952 -0.0069962624
000080 47 3d dd 3c 29 6e ed bc f2 7b f9 bc 60 10 e8 3c
       0.027006758 -0.028983193 -0.03045461 0.02832812
000090 de c3 75 bd a1 5b 23 bd 34 1d 8e 3c 99 7f 60 bd
       -0.060001247 -0.039882306 0.01734791 -0.054809187
0000a0 41 88 0d 3c e8 31 37 3d 51 8a d0 3b 7b 3f 3a bc
       0.0086384425 0.04472533 0.006364145 -0.011367674
0000b0 af 4a 37 bd 62 dc 5c 3b 29 d3 26 3d b2 76 e0 3c
       -0.04474896 0.0033700694 0.04072872 0.027400348
0000c0 34 39 8f bc d0 87 20 bd ae 86 8d bc 96 7e 0b 3c
       -0.017483331 -0.03919202 -0.017276134 0.008514067
0000d0 bf 28 2d 3c f2 12 95 bc e5 1f 78 bd 38 50 93 bd
       0.010568797 -0.01819751 -0.060577292 -0.07193035
0000e0 79 6e e1 bd 29 3f c3 bc c9 32 0c 3d 89 2c 8f bc
       -0.11007399 -0.023833828 0.03422812 -0.01747729
0000f0 3a 0e a8 3c 0d 68 1a bd d5 98 d7 3c f6 84 bb bc
       0.020514596 -0.037696887 0.026317993 -0.02289055
000100 e7 85 05 bd cd 5f 8a bd 7b 6e b1 3c d6 e3 3a bc
       -0.032598402 -0.06756554 0.021659127 -0.011406859
000110 0e eb 13 3c 30 3d 12 3c 64 0f 9b bc 1e 4d 76 bd
       0.009028209 0.008925721 -0.018928237 -0.06013214
000120 d3 49 28 bd 85 fd 70 bd 48 5f 5f bc f8 45 4e 3a
       -0.04108603 -0.058835525 -0.013633557 0.00078687025
000130 89 53 7b bd 20 b3 c1 bb ea eb 5f bd ff df 4a bc
       -0.061358962 -0.005911246 -0.054668345 -0.012382506
000140 8d bf 7c bc 69 86 31 3d 07 e8 39 3b 8d b5 d0 3c
       -0.015426529 0.043341074 0.002836706 0.025477195
000150 d0 1f b1 bc aa 11 da bb a1 a0 bc 3c 0d dd da 3b
       -0.021621615 -0.0066549378 0.023025813 0.0066791833
000160 72 77 f5 bc 8b 11 80 bc 8f 00 09 bd c8 a1 24 3d
       -0.029964183 -0.015633365 -0.0334478 0.04019335
000170 27 eb d0 bb a7 ea e5 bc d0 1f 21 bd e1 5a 2a 3d
       -0.0063756886 -0.028065993 -0.03933698 0.041590575
000180 41 c0 d7 bc 0e ee 69 bc b1 56 4a bd e0 6d 87 3c
       -0.026336791 -0.014277948 -0.04939908 0.016531885
000190 cc db fb bc 0d d8 27 bd e7 f2 40 3d 67 29 34 bd
       -0.030744456 -0.040977526 0.04710665 -0.043984797
0001a0 1f 96 4a bd 97 f7 54 bd 35 e4 d6 bc c4 45 0a bc
       -0.049459573 -0.051993933 -0.026231864 -0.008439485
0001b0 da b9 d0 ba fc 27 a5 bd e2 a7 9f bc a3 f7 7c bd
       -0.0015924529 -0.08064267 -0.019489232 -0.061759602
0001c0 7b 8f 62 bd 4f 4b 41 bb 8d 5e 32 bd b4 0e 3d bd
       -0.055312615 -0.002949435 -0.043547202 -0.0461566
0001d0 04 ea 20 bd 1b 80 70 bd 9a ae ff bc a7 45 63 bd
       -0.039285675 -0.05871592 -0.031211186 -0.055486348
0001e0 4e 72 06 bd a5 27 86 bd 94 ef 35 bd 31 e4 c4 bc
       -0.032823853 -0.0655053 -0.044417933 -0.024034591
0001f0 7d ac 8f 3b 80 40 38 3d f7 4c 15 bd 3d b0 ee bd
       0.004384576 0.044983387 -0.036450353 -0.116547085

a2c_network.actor_mlp.4.weight f4 [128, 128]
000000 24 bc a4 3d 21 3e 7a bd d5 b9 01 bd 2a fb b2 bd
       0.080436975 -0.061094407 -0.031671364 -0.08739312
000010 61 94 ef bd ed 04 f9 bd 12 a8 33 3b 67 9e ee bd
       -0.11698223 -0.12159143 0.002741341 -0.116513066
000020 d5 26 5d 3d 28 67 b9 bd d5 0d 31 3e b8 1c 3e 3d
       0.05399211 -0.090528786 0.17290433 0.046414107
000030 e7 a3 c0 3d 7c da 1a bd 79 8a 56 3d 63 23 c1 bd
       0.09406262 -0.03780602 0.05237815 -0.094305776
000040 91 43 18 3d 69 8c cb bb fc 4d a6 bb 53 6e 7d bc
       0.03717381 -0.0062118066 -0.0050752144 -0.015468198
000050 99 cb 95 3c 53 fd ec 3d cd 05 92 3d 55 43 d1 bc
       0.01828556 0.11571755 0.07130013 -0.025544802
000060 d5 18 cb 3d 3f e6 ba 3d a5 77 2c bd 64 2f 40 3d
       0.09916846 0.09125947 -0.04210629 0.046920195
000070 5a 8a 44 bd ad ac 46 3d 76 6a 33 be a9 ba 39 bd
       -0.047983505 0.04850452 -0.1752108 -0.04534403
000080 15 31 3f 3d cc 81 1d bd 4e eb cd 3d 86 ae 0e be
       0.046677668 -0.038453862 0.100546464 -0.13933763
000090 e2 98 a3 3d 38 f1 2c 3e eb 33 d5 bd 1d 48 2c 3d
       0.079881445 0.16888893 -0.10410293 0.04206096
0000a0 83 7c 09 be 8f ea d8 3c 8d 75 ff bb fc f9 36 3d
       -0.13426404 0.026479034 -0.0077959956 0.044671997
0000b0 cb 75 a4 3d ba e3 47 3c 6e 5d 3a 3d 9b 85 73 bd
       0.0803028 0.01220029 0.045499258 -0.059453588
0000c0 ea b0 bf 3d 20 65 ad bd db 6a b0 3c 28 87 f4 3a
       0.093599156 -0.08466554 0.021535328 0.0018656002
0000d0 1b cf 30 3d a6 69 1e 3d d0 6d 9b bc 87 ec 90 bd
       0.04316626 0.038674973 -0.018973261 -0.07076364
0000e0 bb 0e 57 3d fe 20 8d bc c7 0d f5 bd d6 22 9f 3b
       0.052504282 -0.017227646 -0.119655184 0.0048564477
0000f0 3a f9 96 bd 9d b6 c3 3d c4 4a 91 bd 53 81 4f bd
       -0.07371755 0.09556315 -0.070943385 -0.050660443
000100 97 c5 d5 3c 80 aa b0 3d 19 ee f3 bd 4c 60 e0 bd
       0.026095195 0.0862627 -0.11910648 -0.10955867
000110 53 92 3c bd dc 4b 9b 3c 5d e1 18 3e a2 d3 26 bd
       -0.046037983 0.018957071 0.1492972 -0.040729173
000120 c3 04 53 3d 4c 9e 1e 3e 92 3d c1 bc d6 89 54 be
       0.051518213 0.15490073 -0.02358893 -0.20755705
000130 04 83 89 3c 92 78 8b bc 5e 83 ce 3d 20 68 3b bd
       0.016786106 -0.017025266 0.1008365 -0.0457536
000140 b7 74 99 3c ef 8b ef bb ad 29 88 3e 40 d9 85 3c
       0.018732412 -0.0073103826 0.26594296 0.016338944
000150 3e 61 c2 3d ce b1 50 bc f9 79 db bd 38 b4 93 bd
       0.09491204 -0.012737704 -0.10716624 -0.072121084
000160 0b e1 8c bd 0f 9a ff bd 42 3e 3e 3e 7d 08 c9 bd
       -0.06878861 -0.12480556 0.18578437 -0.09816072
000170 c6 00 a1 bd 08 c4 39 be 47 46 45 3d 7c d5 0d 3d
       -0.07861476 -0.18141186 0.048162725 0.034627423
000180 e4 20 a9 3d 5d ce 3a 3e 28 1f 3e be 49 1d 16 be
       0.082582265 0.18242784 -0.18566573 -0.14659609
000190 54 ff a1 bd e7 d4 c6 3b 4c 8c b4 3d f8 b8 4b 3e
       -0.07910028 0.0060678604 0.08815822 0.19894779
0001a0 b8 e3 21 3e 49 66 8e 3c 76 8a ab be aa db 52 3d
       0.15809524 0.017382758 -0.33504075 0.05147902
0001b0 4d 7e b7 3b 2e 88 22 3e bf 9a 40 be 56 84 01 be
       0.005599773 0.15872261 -0.18809031 -0.12648138
0001c0 ab f7 be 3d 62 1e 02 3e c6 8b 46 bd 62 09 ac bc
       0.09324583 0.12706903 -0.048473142 -0.021000568
0001d0 37 fb 8d 3d a8 4a 2f 3e 3e f7 c1 3c 34 ad 52 3c
       0.06932681 0.17118323 0.023677465 0.012858678
0001e0 70 3f cf 3b 15 95 5f bc 98 c4 92 bb 11 2f 93 3d
       0.006324701 -0.013646384 -0.004479002 0.071867116
0001f0 4b d5 5f bd f5 78 9b bc ac 0c b9 3d 16 a8 2e 3c
       -0.05464677 -0.018978575 0.0903562 0.010660192
000200 98 70 24 3d dc 43 c4 bd 45 33 1d bc a9 c8 ed bd
       0.04014644 -0.09583256 -0.009594743 -0.116105385
000210 93 be a4 bd a9 50 a1 be 1e 1a 96 3d 91 ec b1 3d
       -0.08044162 -0.3150685 0.073292 0.086876996
000220 3c 46 72 3c 0b 24 46 bd c5 8f 2b 3e 55 85 02 be
       0.014787253 -0.048374217 0.16754062 -0.12746175
000230 f2 4c 73 3a 60 6f 08 be 8c 6b 08 bd e8 2a 48 be
       0.000928118 -0.13323736 -0.03330569 -0.19547617
000240 14 3a 19 3e f3 8a 33 3c 4e a2 5a bd 00 00 47 bd
       0.14963561 0.010958421 -0.053377442 -0.048583984
000250 16 79 c7 bd 24 a3 d6 3c a9 bb 57 bd e5 18 4d 3d
       -0.09739892 0.026200838 -0.0526692 0.05007257
000260 72 be ab bd b6 67 df bd 87 88 cb bd eb 0e b1 3d
       -0.08385934 -0.10908453 -0.0993815 0.086454235
000270 80 9b c4 3d 96 6f 01 be a9 64 a5 3d 2d ca 91 be
       0.09599972 -0.12640223 0.0807584 -0.2847456
000280 a4 88 76 be 25 8a 5d 3d 5b ee 95 3d 9a 91 1c bd
       -0.24075562 0.054086823 0.07320853 -0.038224794
000290 f1 fb 82 3d 10 ad 88 3d 9b a4 46 bd b6 3a 59 bc
       0.0639571 0.06673634 -0.048496824 -0.013258627
0002a0 24 4c ef 3c 90 88 16 bb 04 e7 80 bd af a7 2a be
       0.029211111 -0.0022969581 -0.06294063 -0.16665529
0002b0 88 a2 82 3d 3f 03 0f 3e 3f f0 f8 bb f1 1c 0e be
       0.063786566 0.13966082 -0.007596999 -0.13878228
0002c0 bd bb 63 3b 6c 31 e2 bb 46 ab 12 be 89 15 7c bd
       0.0034749352 -0.006902864 -0.14323148 -0.061543975
0002d0 20 20 9c bd 52 8b c0 bd 74 bf 0d 3e 08 b7 c1 bc
       -0.07623315 -0.09401573 0.13842565 -0.023646846
0002e0 2f 2c 36 3d 02 24 5c 3c 5e f3 1f 3e 53 e0 04 bd
       0.04447573 0.013436319 0.15620181 -0.032440495
0002f0 33 7c 10 bd 11 66 ed 3b 54 51 a1 bd 19 b3 02 bd
       -0.035274696 0.0072448333 -0.0787684 -0.031909082
000300 b2 cf 8d bd 4e e9 9f 3d fc 6b c3 3d 92 6d 47 3e
       -0.0692438 0.07808171 0.09542081 0.19475392
000310 40 73 eb 3c cc 4f e9 3c 03 bc 65 3d 1a 76 85 3c
       0.028741479 0.028480433 0.056087505 0.016291667
000320 45 5d ca 3d bf 65 10 be 10 ca 61 3c 9e 30 d5 bc
       0.09881071 -0.14101313 0.013781086 -0.026024159
000330 1a 2e 17 be 8c 80 e3 3d 59 b1 3c be 85 56 ef 3b
       -0.1476368 0.11108503 -0.18427028 0.007304015
000340 da 42 2b be 75 58 6f bd 47 c2 5d be 5f 74 fd bd
       -0.1672472 -0.05843397 -0.21656142 -0.12375712
000350 1e 40 97 ba 25 81 06 3d a4 b7 72 3c c8 53 0f be
       -0.0011539494 0.032838006 0.014814291 -0.13996804
000360 2d 30 af 3d 8c 08 7e bb f3 c1 c0 3d 14 18 e3 3d
       0.08554111 -0.0038762419 0.09411993 0.11088577
000370 33 12 d1 bd 01 f8 2b bd 16 4b 2e bd ae ae eb 3c
       -0.10208549 -0.04198456 -0.042552076 0.028769817
000380 e5 b9 1c 3e 9b 94 83 bd a5 b1 b8 bd 74 d7 06 ba
       0.15305288 -0.064248286 -0.09018258 -0.00051437994
000390 8f 93 16 be c8 73 0f be d8 46 28 3d 9f 83 6d bd
       -0.14704727 -0.14009011 0.041083187 -0.05798685
0003a0 3c 59 84 be 4f 0d ca 3d 61 84 8c bd 25 ff 3a bc
       -0.2584933 0.0986582 -0.06861187 -0.01141337
0003b0 6a 96 bf bd 2d 5b 0b be 6b f8 0d bd ed 3e 67 3b
       -0.09354861 -0.13609 -0.034660738 0.003528531
0003c0 fc 44 c9 bb b2 85 58 bc 04 1e cf 3d db 4b b5 bc
       -0.006142257 -0.013215469 0.10113147 -0.022130897
0003d0 08 88 43 3d bf 04 13 3e b2 4f 28 bd 1d 9f f0 bd
       0.04773715 0.14357279 -0.04109163 -0.117490984
0003e0 f2 54 9e bd 61 9b 31 3c 7c 96 0a be 76 7f b3 3d
       -0.07731046 0.010840268 -0.13533968 0.087645456
0003f0 aa 6f 17 be bc 0e aa bc 33 54 08 be b5 0b 93 bd
       -0.1478869 -0.020758979 -0.1331337 -0.07179967

a2c_network.actor_mlp.4.bias f4 [128]
000000 a3 02 a9 bd 6c 90 c3 bc df 1e 5c 3d d0 d2 14 be
       -0.08252456 -0.023872577 0.05374038 -0.14533544
000010 a7 09 25 bd 2d 2f c3 bd aa 74 55 bd 10 70 2c bd
       -0.04029241 -0.095304824 -0.052113213 -0.04209906
000020 0e 6d a7 bc a0 b8 d9 bd 94 a9 84 bd c7 39 32 bc
       -0.020437744 -0.106309175 -0.06477657 -0.010878033
000030 f6 8b 03 bd 6c 89 d5 bc e5 c5 df bc 09 d8 48 bd
       -0.0321159 -0.026066504 -0.027316043 -0.049034152
000040 89 f3 3a 3d e3 90 a6 bc 63 2a 33 bc 3e e8 f2 bc
       0.04564241 -0.02033276 -0.010935399 -0.029651757
000050 fd ce 16 bd 58 3c 21 bd 5d a9 da 3c c4 28 f4 bc
       -0.036818493 -0.03936419 0.026692087 -0.029804595
000060 28 1a 11 3c e7 71 bf 3b 13 29 05 bd e4 47 0e bd
       0.008856334 0.0058424356 -0.032509875 -0.03473653
000070 88 3f 67 bc a9 db a6 bd 8e f4 3f bd 40 6e 82 3c
       -0.014114268 -0.081473656 -0.046864085 0.015921712
000080 f8 1c 61 bd df 92 ea bd 94 7d b0 bc 46 54 b4 3c
       -0.054959267 -0.11453795 -0.021544255 0.022012841
000090 b0 e7 73 bd 0d 6a 60 3d 2d d0 11 bd 35 c3 03 be
       -0.059547126 0.054788638 -0.035598923 -0.12867434
0000a0 70 9e 6d bc d8 70 31 3b dc 58 09 3d 11 57 da 3c
       -0.0145031065 0.0027075317 0.03353201 0.026652845
0000b0 4d f2 a8 ba b7 32 61 bd c1 68 4c bd 7a 1f 77 bb
       -0.0012889594 -0.054980006 -0.04990459 -0.003770797
0000c0 c7 cb f9 3c 6b dc 9d ba 1a e5 5a bd 60 11 61 bd
       0.030492676 -0.0012043839 -0.053441145 -0.05494821
0000d0 32 c5 bd bc 3a 9e f9 3c 34 fb 73 bc 52 61 b5 3d
       -0.02316532 0.030470956 -0.014891434 0.08856453
0000e0 69 36 2b 3c 2c e8 20 bd 5d 8a 80 3d 7c bd 78 3d
       0.010449984 -0.039283916 0.06276391 0.06072758
0000f0 21 b5 4e 3c 2a 84 6c 3d 7b 84 8f bc d8 12 16 3d
       0.012616427 0.05774323 -0.017519226 0.036639065
000100 6b ef b5 bc 48 4a a9 3d 63 51 82 bd 4f 40 18 bd
       -0.02220889 0.08266121 -0.063631795 -0.037170704
000110 97 db 7a bc 02 b3 8a 3d 02 74 0a be 0f a6 36 3d
       -0.015311143 0.06772424 -0.13520816 0.04459196
000120 f2 11 fd 3c a2 3c 82 3d 2d 3f 71 bd ea e4 1d bc
       0.030892346 0.06359221 -0.05889814 -0.009637097
000130 45 74 8d 3d 1f 6b 22 3d 8d 46 55 bd bd a4 7a 3d
       0.06906942 0.03965294 -0.052069236 0.061192263
000140 da 37 a5 bb 38 42 8d 3c e4 a3 26 bd 7a 89 e6 bc
       -0.0050420584 0.01724349 -0.040683642 -0.028141726
000150 db 23 43 be 26 7c 39 3d 72 b3 d6 bc b7 bb c5 bd
       -0.19056647 0.045284413 -0.026208613 -0.096549444
000160 6f 77 14 bd 5a 4e ad bc 36 bd 87 3c 6f e3 33 bd
       -0.036246713 -0.021155525 0.016569715 -0.04391807
000170 0f ec 0f 3d 06 fe 47 bd 08 2c 60 3d c8 2b 75 bc
       0.035137232 -0.04882624 0.05472949 -0.014964052
000180 a1 36 08 3b f9 b2 02 bd df b2 03 be c9 76 72 bd
       0.0020784514 -0.031908963 -0.12861203 -0.059195314
000190 99 d6 1e bd e3 ac a1 bd e0 c5 49 bd 0b ab 73 3d
       -0.038778875 -0.07894304 -0.049260974 0.05948929
0001a0 d7 f9 3b bc 43 58 dd ba 00 ad ec bc 83 5b 5c bc
       -0.011473141 -0.0016887266 -0.028891087 -0.0134495525
0001b0 7f a9 23 bd cb 40 cc b9 b6 a2 a9 3c c4 ac 49 3d
       -0.039956566 -0.00038958187 0.02070747 0.049237028
0001c0 97 ea ae bc 05 bc 8e bd f6 03 60 3c e8 a7 2f bc
       -0.021352096 -0.06969456 0.013672819 -0.010721184
0001d0 0d ba a4 bd 33 ac a9 bd d9 f0 07 bd 12 c6 20 bb
       -0.08043299 -0.082847975 -0.033188675 -0.0024532122
0001e0 ca a2 f7 bd a0 c0 66 3d 55 1b 89 3c f9 86 80 bd
       -0.120915964 0.056336045 0.016736666 -0.06275744
0001f0 e6 64 69 3d e1 c0 21 bd 77 6a 41 bd 0c 18 60 bc
       0.05698099 -0.039490584 -0.047220673 -0.013677608

a2c_network.value.weight f4 [1, 128]
000000 35 d7 01 3d 44 72 3f be 5d da 0b bd aa 58 1d bd
       0.031699378 -0.18695933 -0.034143794 -0.038414635
000010 d6 00 22 3c 46 46 5d 3d c0 1c 0e 3d 94 47 0c 3c
       0.009887895 0.054022096 0.034695387 0.008561987
000020 63 1e b6 bd b4 14 1b 3d 4c e1 1c 3d f3 b9 0e 3c
       -0.088925146 0.03786154 0.038300797 0.008711326
000030 b1 3c b5 ba b3 32 51 bd 93 85 12 3c 54 15 34 bd
       -0.0013827292 -0.05107374 0.008942979 -0.043965653
000040 72 ac 13 3e 27 41 a9 bb 1f bf 1d 3c 72 dc 2f bc
       0.14421251 -0.0051652375 0.009628086 -0.010733711
000050 16 38 95 bd 31 bf a3 3c 8e e1 b7 bc 23 87 8c be
       -0.07286088 0.019988628 -0.02244642 -0.2744685
000060 4b 0b 63 3c 49 cc c5 bd 0e ee 5f be 84 c0 2c bd
       0.013857673 -0.09658105 -0.21868154 -0.042175785
000070 0e 48 96 bd 0e b7 f0 bd d7 7b 26 3c bf 81 31 3c
       -0.07337962 -0.11753665 0.010161362 0.010834157
000080 8b 9b 10 3c fe 56 b4 bd 95 6f e1 3b 6c b1 a5 3c
       0.008826147 -0.08805655 0.0068797567 0.020226203
000090 77 ca 0d 3d c6 ff 73 ba 05 86 95 bd 89 f6 61 3d
       0.034616914 -0.00093078276 -0.07300953 0.055166755
0000a0 a9 6c c1 bc 44 5b 0d bd 7b a1 1c 3b 6f 32 a9 3d
       -0.023611384 -0.034510866 0.002389996 0.082615726
0000b0 ca 58 9b 38 cf a1 e3 3c f4 37 70 3c fc 65 3e bd
       7.407514e-05 0.027787117 0.014661778 -0.04648398
0000c0 42 3f 9c 3d 96 ed 44 bc 5e 97 3b 3c 06 8f f9 3b
       0.07629253 -0.0120195355 0.011449663 0.0076159267
0000d0 2b 5c 9d 3d 44 6b 89 bc 2e a4 24 bd 68 a3 3b 3d
       0.07683595 -0.016774781 -0.040195636 0.045810133
0000e0 03 da 2b 3c 60 85 6e 3d 8b 82 a7 3c e6 63 42 3c
       0.01048899 0.058232665 0.02044799 0.011864638
0000f0 c1 77 35 3d b8 58 30 bd 46 74 85 bc cc 76 b5 3b
       0.04430366 -0.04305336 -0.016290795 0.0055378433
000100 6a 98 3a bd 4e 56 ac bb 57 e9 f8 bc 0b c8 f2 bc
       -0.04555551 -0.0052593118 -0.030384703 -0.029636404
000110 4f bb 00 3e 09 6b 27 3c c9 45 ce 3c e8 86 6a 3e
       0.12571453 0.01021839 0.02517976 0.22903025
000120 4d 7e 78 3d 7d 37 e1 bc 31 c5 c7 bc 13 0d fe 3d
       0.060667325 -0.02749228 -0.02438602 0.124048375
000130 fd 6e 37 bd 8e a9 2a bc 0b 10 ca 3c 3f fa 1c bd
       -0.04478358 -0.010416402 0.024665853 -0.03832459
000140 e9 71 47 bd e6 ac 8c 3c e7 5e 84 bc 3d 5c 86 bd
       -0.048692618 0.017172288 -0.016158534 -0.06560562
000150 4b 9f a0 3c 97 40 10 3e 8e e7 11 bd 2c 01 10 be
       0.019607207 0.14087139 -0.03562122 -0.14062947
000160 73 6e 18 3c 9a d5 64 3c 19 7f 17 3c de c3 5c bb
       0.009303677 0.013966942 0.009246611 -0.0033686082
000170 c4 42 29 bd 43 ba 4c bb 06 7d 35 3e 04 24 0a bc
       -0.04132344 -0.003123895 0.17723474 -0.008431438
000180 ba f6 1a 3d 4f db a8 bd 71 99 98 3d 49 81 57 3c
       0.037832953 -0.08244955 0.074511416 0.013153383
000190 db 7e 5c bc 8c f3 03 3d 68 61 49 bd 15 b6 0f bc
       -0.013457979 0.032214686 -0.04916516 -0.008771439
0001a0 5c 4b fe 3c bc 89 bb bb b0 57 be 3d 49 91 f7 bc
       0.031041794 -0.0057232063 0.09294069 -0.030220645
0001b0 e0 1b 23 bc b5 fd 09 bc 17 ff 4a 3d ee 85 fb bc
       -0.009955376 -0.008422305 0.04955968 -0.030703511
0001c0 1c c4 45 bc a6 a9 28 3d 7d 7f 94 3c fc be c6 be
       -0.012070682 0.041177414 0.018127197 -0.38817585
0001d0 93 d0 a4 bb 0c 18 21 bc e3 ed 40 bd 1d 2d bd 3a
       -0.005029747 -0.009832393 -0.047101866 0.0014433
0001e0 7c 14 0d bb 37 b6 6a ba e6 df 07 3c 51 a1 67 bd
       -0.0021527102 -0.0008953544 0.008293128 -0.056550328
0001f0 71 6c f4 3d 83 75 05 3d 0b 14 bf 3d f5 4b 94 bd
       0.11934746 0.03258277 0.09329995 -0.0724105

a2c_network.mu.weight f4 [10, 128]
000000 55 5a 1a be 53 9c 1c 3d 16 cc 41 3e a7 d8 8f 3e
       -0.15073521 0.03823502 0.18925509 0.2809498
000010 03 51 0f 3e 16 c7 cb 3b f7 5b ed bb 5f 56 89 bd
       0.13995747 0.0062188013 -0.007243629 -0.06705927
000020 91 e6 15 3e f6 84 09 be ed 57 f5 bd f5 82 a7 bd
       0.14638735 -0.13429627 -0.11979661 -0.08179275
000030 11 b0 4e bd ce cb 11 bd 06 a7 6e bc 9b d7 1f bc
       -0.05046088 -0.035594754 -0.014566189 -0.009755994
000040 09 28 a1 3c 59 31 86 bd 16 74 93 3c 0c ca 0d 3e
       0.01967241 -0.06552381 0.01799969 0.13846606
000050 5c 7d 11 bd 8a 15 0b 3e 9d ef 43 3d c3 6d 2b 3c
       -0.035519943 0.13582435 0.047835935 0.010463181
000060 e8 c9 d3 3d 29 bc a7 3d 0a 15 e5 bc ce 9b 3e 3e
       0.10341245 0.081901856 -0.027964134 0.18614122
000070 7d 02 82 be f6 06 d0 bd ea 23 e6 3d da 9d 0f 3d
       -0.25392523 -0.10157578 0.11237319 0.03506265
000080 47 66 21 3d ad 14 a3 bd 5c a7 04 be ee a5 e6 bd
       0.03940418 -0.07962928 -0.12954468 -0.11262117
000090 55 d7 88 3d 3f 54 65 3d 81 52 36 3d a9 81 07 3c
       0.06681696 0.055988546 0.044512276 0.0082706595
0000a0 03 fe 88 3d 07 d0 6a bd 04 6b ec bd b0 b4 58 3e
       0.06689074 -0.057327297 -0.11543849 0.21162677
0000b0 d5 47 43 3d 90 7c f0 3d cd 3e 45 3a 28 a5 b6 bb
       0.047675926 0.117425084 0.00075243117 -0.0055738874
0000c0 72 50 cb bd a1 75 fa bd 10 ca 76 be 61 f0 40 be
       -0.09927453 -0.12229467 -0.24100518 -0.18841697
0000d0 71 56 6d be 88 a5 1c 3d ae 95 37 be 35 22 3f bd
       -0.23177506 0.0382438 -0.17928192 -0.04666348
0000e0 02 b4 27 3d 38 70 0c 3e a2 d5 ca bd 4a c6 3e 3d
       0.040943153 0.13714683 -0.099040285 0.046575822
0000f0 ad 29 43 bd 66 71 16 3e 40 42 a0 bd e8 6d 58 3d
       -0.047647167 0.14691696 -0.07825136 0.05283919
000100 83 e8 54 bc 6d 1e 48 3e 5a 7d c1 3d 76 62 c1 bd
       -0.012994888 0.19542857 0.09447737 -0.09442608
000110 ce 9a 56 be b8 cd ad 3d cd 82 3e 3c df 5e 20 3d
       -0.20957491 0.08486503 0.011627865 0.039152976
000120 67 72 b8 3d 0d f6 c7 3d 9e f3 e9 bd 15 69 23 3d
       0.090061955 0.09763727 -0.114234194 0.039895136
000130 00 d7 5c be e8 31 01 bd 90 54 64 3d 8c 24 93 3d
       -0.21566391 -0.031541735 0.055744708 0.07184705
000140 cc b4 1d 3e 87 e5 00 3e 21 dd cb bc f9 de 7c 3d
       0.15401 0.12587558 -0.024885716 0.06173608
000150 a1 85 63 3d c6 a6 b1 3a 3e 06 69 bd 1d 40 91 b9
       0.05554736 0.0013553731 -0.05689072 -0.00027704323
000160 56 e2 b9 3b 2e 4e 57 bc 32 28 89 3c ad e0 91 3d
       0.0056727333 -0.013141198 0.0167428 0.07122932
000170 5b a3 91 bc 1a 49 ea bd db dc 19 3d 8c 42 3b 3d
       -0.01777809 -0.11439724 0.03756414 0.04571776
000180 a3 91 09 3e 9e 09 49 be c9 2f b3 bd 66 06 e3 bd
       0.13434462 -0.19632575 -0.08749349 -0.11085205
000190 16 bf 50 3e 90 ce c3 3c 2c 23 8b bd af 11 10 3e
       0.20385394 0.023902208 -0.06793818 0.14069246
0001a0 94 7b 22 be a7 e4 4b 3e 63 f8 f0 3c 1e 49 b1 bd
       -0.15867454 0.19911443 0.029415315 -0.08656524
0001b0 ee 2c 92 3e 20 f7 11 3e 39 62 c7 bc d6 e4 50 3b
       0.28549904 0.14254427 -0.024338828 0.0031874678
0001c0 4c 81 1c be 5d 35 85 bd c4 7c a4 bc 29 98 05 3e
       -0.15283698 -0.06504319 -0.020079024 0.13046326
0001d0 3a f4 77 bd 7b 8d 2c bb 1c c6 bd bd 78 b2 db 3c
       -0.060535647 -0.0026329446 -0.09266302 0.026818499
0001e0 e2 fb 5f 3e ef 00 47 bd d8 50 62 bc ff 43 8d 3d
       0.2187343 -0.048584875 -0.01381322 0.06897735
0001f0 4a 0a 71 3d ce a1 67 bd bc 33 84 3d 19 84 7f bd
       0.058847703 -0.056550793 0.0645518 -0.062381838
000200 36 be b2 b9 a4 aa 0e be 55 57 dc 3c cf fc eb bc
       -0.00034092524 -0.13932282 0.026897112 -0.028807072
000210 b4 90 f7 bd 2c 47 0c 3d f7 66 a4 3c 22 eb 1f bc
       -0.12088147 0.034247562 0.020068629 -0.00976065
000220 fc 11 18 be c4 82 6d bd d1 c6 c4 bc 40 9c 20 bd
       -0.1485061 -0.057986036 -0.024020584 -0.03921151
000230 a2 1f 31 ba a7 29 9c 3d f3 52 91 be 77 cf 81 bd
       -0.0006756728 0.07625132 -0.28383598 -0.06338399
000240 8e da 10 ba 4d 3c c7 bd 32 f2 0a be 8d 83 ac 3d
       -0.0005525731 -0.09728298 -0.13568953 0.08423529
000250 94 5d 7f 3d 8b 0b 1b 3d 65 67 3e bd 9c bf e0 bc
       0.062345102 0.037852805 -0.046485323 -0.027435116
000260 00 fd 39 3d 13 f3 ac bb 18 3f ac 3d 4e e2 d0 bb
       0.045407295 -0.005278 0.08410472 -0.006374634
000270 e0 93 0e be 94 85 b2 bd 52 9f 7c 3d 13 71 c2 bc
       -0.13923597 -0.08716884 0.061675377 -0.023735559
000280 97 c1 87 3d 27 2b a4 3c 65 d4 cb 3c 4d 4e 17 3e
       0.06628721 0.020040108 0.024881551 0.14775963
000290 9c e1 a6 bd ba a9 4e 3c ba 49 06 3e 2c 99 20 bd
       -0.081485 0.012613708 0.13114062 -0.039208576
0002a0 64 80 99 3d 34 c4 5d 3e 78 cf 69 3d 03 24 b6 3c
       0.07495192 0.21656877 0.057082623 0.022233969
0002b0 1b 5b cf 3c ab dd e7 bb 33 cb a7 bc 56 fd f5 bd
       0.025311997 -0.0070759854 -0.020482635 -0.120112106
0002c0 a2 00 b3 bd df e5 ab 3d 79 db b1 bd 01 08 d7 3c
       -0.08740355 0.08393454 -0.08684439 0.026248934
0002d0 2e 3a 9e bb 1f 7b 2f bd ad ae 62 bb f6 57 dc bc
       -0.004828713 -0.042842027 -0.0034588978 -0.026897412
0002e0 a1 0d 3d 3c fd 98 1c be 8c bd 08 3d ef e0 1d 3e
       0.011538894 -0.15292735 0.03338389 0.15417837
0002f0 bf f3 1f 3d 7f 32 fa 3c 37 d7 d6 bc 19 7d c5 3c
       0.039050814 0.030541657 -0.02622567 0.024107503
000300 56 e6 ce 3d ed 06 30 3e e2 f4 a5 bd c9 a8 59 bc
       0.10102527 0.17190142 -0.08103348 -0.01328487
000310 cf 79 b0 bd ad f4 12 3d ca 5f 91 bd 49 25 74 bc
       -0.08616983 0.035877872 -0.070983484 -0.014901468
000320 95 94 83 3d 1d d1 08 3d d1 bb aa ba b5 cb 92 3d
       0.06424824 0.03340255 -0.0013025944 0.0716776
000330 84 07 27 3d e0 e6 86 3d 26 4f f4 bd 83 5f f8 3d
       0.04077865 0.06587005 -0.11929159 0.121275924
000340 c9 d2 25 3d 84 aa d5 3c 10 76 8b 3d 5d 48 c8 bd
       0.040484224 0.026082285 0.06809628 -0.09779427
000350 92 c4 0c bd a8 47 d0 3d 39 92 07 be b0 15 ac bd
       -0.03436715 0.10169917 -0.13239373 -0.08402574
000360 78 f1 a8 bd 4d 3a 9f 3d da 0b 11 be 2b 46 4b 3b
       -0.082491815 0.07774792 -0.14164677 0.0031017165
000370 e2 51 41 bd 19 e7 30 bd 95 2d 89 3c 08 43 bc 3d
       -0.04719723 -0.043189142 0.016745368 0.09192473
000380 40 55 a2 bc 02 d2 93 bc 76 5e b7 bc c4 53 16 be
       -0.019816041 -0.018044475 -0.02238391 -0.14680392
000390 af c7 d0 3d 31 6b 52 3d ec 2a 20 be 89 ae 4b 3e
       0.101943366 0.051371757 -0.15641373 0.19890799
0003a0 29 6d dd 3b ec 30 a3 3d 42 37 65 bd 0a 80 7d bd
       0.0067573977 0.079683155 -0.0559609 -0.061889686
0003b0 91 71 c0 bd 45 18 7a 3d f0 34 0a 3c 02 3e cb bd
       -0.09396661 0.0610583 0.008435473 -0.099239364
0003c0 62 0f 28 bd 74 d3 bf bd 78 23 bf bd 45 50 c2 bd
       -0.041030295 -0.09366503 -0.09332937 -0.094879664
0003d0 a3 c2 f1 3c f9 d8 1c bd e4 85 e6 bb ab 4d fe 3c
       0.029511755 -0.03829286 -0.007035004 0.031042894
0003e0 75 bf 1f 3e 17 27 a0 bd 53 09 9e 3c 3b e3 37 be
       0.15600379 -0.07819956 0.019291556 -0.17957775
0003f0 f6 b9 14 bb b3 68 0b be 6d d4 29 bd 50 48 98 3d
       -0.002269385 -0.13614158 -0.04146235 0.074356675

a2c_network.mu.bias f4 [10]
000000 c2 fe b3 3d 54 63 f4 3d 54 2e 9b 3d b7 03 0d 3e
       0.087888256 0.11933008 0.07577196 0.13770948
000010 b6 f6 9d bc 89 04 e3 bc 2d ba 92 bc b7 a3 c2 3a
       -0.01928268 -0.027712123 -0.017911041 0.0014849816
000020 17 b2 5f 3d ef 4f 11 bd
       0.0546132 -0.03547662

exp_avg f4 [10]
000000 40 dd b9 39 ca 81 2e 3a de a6 14 3a 90 f0 9b 3a
       0.00035450794 0.00066569133 0.0005670617 0.0011897255
000010 30 2a 25 ba ed a1 e9 b9 88 1e 9e b9 56 5d 57 39
       -0.0006300537 -0.00044561867 -0.00030158856 0.00020538768
000020 8c e6 45 39 47 7e d4 ba
       0.0001887327 -0.001621195

exp_avg_sq f4 [10]
000000 aa 42 61 36 24 ae 79 36 23 5f 74 36 83 2f 85 36
       3.3566416e-06 3.7205255e-06 3.641421e-06 3.96924e-06
000010 8e 83 85 36 4a fd 62 36 2f 87 53 36 2f 8e 6a 36
       3.979024e-06 3.3824058e-06 3.1520137e-06 3.495148e-06
000020 81 71 6d 36 7f 0c 84 36
       3.538182e-06 3.9353613e-06
