logs/rl_games/humanoid_flat_direct/2025-11-18_21-58-12/nn/last_humanoid_flat_direct_ep_1150_rew_417.82776.pth (torch, 759553 bytes, 33 tensors)

value_mean_std.running_mean f8 [1]
89.58791464464905
00000000: dbe6 be64 a065 5640

value_mean_std.running_var f8 [1]
2275.468107484602
00000000: c2c2 c8ab efc6 a140

value_mean_std.count f8 []
452198401.0
00000000: 0000 0001 00f4 ba41

a2c_network.sigma f4 [10]
-1.2620585 -1.2136421 -1.1600273 0.06998454 -1.5447475 -0.9363723 -1.9965887 -1.8118422
0.10347503 -0.18586439
00000000: 228b a1bf a058 9bbf c67b 94bf 0e54 8f3d
00000010: 49ba c5bf 18b6 6fbf 3890 ffbf 72ea e7bf
00000020: b7ea d33d 3c53 3ebe

a2c_network.actor_mlp.0.weight f4 [256, 42]
0.0318385 0.38414133 0.23751208 -0.028002309 0.03877297 0.063417025 0.13872011 -0.20670077
-0.32681367 -0.050702095 -0.16328177 0.08920734 -0.15650669 -0.07643548 0.100295946 0.039549407
0.14693029 -0.06970223 0.011003238 -0.10002466 0.110388175 -0.122008584 -0.38338226 -0.20061795
0.17649387 0.07246325 -0.10696088 -0.018930396 0.17499344 0.1979811 0.24359025 -0.17532983
-0.16670716 -0.110099204 -0.053060424 0.046199426 0.04915459 0.11678344 -0.13562723 -0.102705374
0.04717227 -0.033414684 0.10815982 0.16484241 0.24399836 -0.09255554 -0.19574358 0.33029133
0.19921866 0.0493511 -0.08787673 0.05459219 -0.10773401 -0.07463115 0.25768077 -0.01225065
0.04432068 -0.18174803 0.001359988 0.12613918 -0.027548356 -0.13371809 0.14942604 0.007843921
-0.093381986 -0.12516946 -0.40288585 -0.16258775 0.06485047 0.08083219 0.0713019 -0.36383575
-0.042408146 0.11783725 0.012454005 -0.16398047 -0.05749874 -0.041244566 0.05513563 -0.053530887
0.060101595 -0.14941248 -0.037543807 -0.01640636 -0.07211505 -0.14281209 0.29495558 0.09908694
0.024234198 0.044914506 -0.16524754 0.13132156 -0.14278565 -0.062767714 -0.1471273 -0.16980346
0.0067974436 -0.2009855 0.105749115 -0.116256386 0.14913861 -0.056603495 -0.07031491 -0.017918274
0.116708174 0.20352414 0.14470662 -0.2153858 0.013267629 -0.13186824 -0.09562317 -0.13955005
0.07774462 -0.1624941 0.11532527 0.08899006 0.025937807 -0.14323418 0.12039553 0.036425147
0.08466196 -0.10686117 0.10837209 0.017290518 -0.07548146 0.1701182 0.022643896 -0.024370365
-0.04983742 0.09886653 0.072615154 -0.12577935 -0.107684694 -0.22932945 -0.13170385 0.07012539
0.10805148 -0.15644503 0.04982318 0.061121028 -0.0016974106 -0.042915735 0.052666247 0.18674387
0.110749125 -0.053054076 -0.19966571 0.10497295 0.15290663 -0.06916024 0.30713347 0.30628577
0.11120229 -0.0021273028 0.15578997 -0.026375314 0.036242742 -0.0815137 -0.20060606 -0.09226008
0.14866562 0.044852156 0.00061285164 -0.07388799 -0.090816975 -0.0859196 -0.040568665 0.040365793
0.13940732 0.29148796 0.0024167064 0.07263108 0.030595636 0.292488 0.07609505 -0.10405925
0.04811435 -0.09362416 -0.06064243 0.15329161 0.0018322478 0.029534431 -0.12604293 0.08352675
0.13941422 0.022157563 -0.09557417 -0.19680813 -0.07350983 0.19002888 0.35719636 0.17811193
0.30476707 -0.007932182 -0.03998199 -0.2444002 -0.28164038 -0.42589384 0.15751971 -0.0948887
-0.027344033 -0.07633184 0.001954364 -0.07440259 -0.07938187 -0.0024338558 -0.051774308 0.09827776
0.008605996 -0.06791138 -0.02680789 0.010092267 -0.08745068 -0.09261349 0.15208085 -0.05678228
0.16893849 0.038282584 0.1082521 -0.11853412 0.11294024 -0.07367704 0.17206518 0.2033376
-0.008170776 -0.006833997 0.026180321 -0.094427235 0.06437112 -0.25388983 0.09657415 0.24659525
0.3968584 -0.11050959 -0.045008246 -0.0813173 0.011467754 -0.2245103 -0.025190435 -0.23954795
0.08201215 -0.11383837 -0.08894421 -0.0941829 -0.13574216 0.14337716 0.11464023 0.018777577
-0.0066552977 -0.009880166 -0.07997546 -0.08231193 0.06063886 -0.06109468 0.0074339975 0.09121658
00000000: 1669 023d 2cae c43e 5e36 733e 1965 e5bc
00000010: 68d0 1e3d c9e0 813d a50c 0e3e 5ea9 53be
00000020: 1f54 a7be 00ad 4fbd 5633 27be 56b2 b63d
00000030: 4a43 20be 348a 9cbd f667 cd3d 8ffe 213d
00000040: e574 163e 0bc0 8ebd ed46 343c bbd9 ccbd
00000050: 3213 e23d a3df f9bd ae4a c4be cb6e 4dbe
00000060: cfba 343e 9d67 943d 4e0e dbbd eb13 9bbc
00000070: 7b31 333e 8fbb 4a3e b96f 793e aa89 33be
00000080: 48b5 2abe b17b e1bd e355 59bd 9c3b 3d3d
00000090: 5356 493d 282c ef3d dde1 0abe 3257 d2bd
000000a0: b637 413d d6dd 08bd e582 dd3d 73cc 283e
000000b0: b5da 793e c28d bdbd 0171 48be f21b a93e
000000c0: faff 4b3e 6124 4a3d b7f8 b3bd 0f9c 5f3d
000000d0: a6a3 dcbd 37d8 98bd bcee 833e f3b6 48bc
000000e0: 9a89 353d 281c 3abe a041 b23a a12a 013e
000000f0: 17ad e1bc 65ed 08be 2403 193e ca83 003c
00000100: 0e3f bfbd 6c2c 00be 0e47 cebe 677d 26be
00000110: 53d0 843d 598b a53d bb06 923d ae48 babe
00000120: 2ab4 2dbd a854 f13d e20b 4c3c 7fea 27be
00000130: cc83 6bbd 10f0 28bd e6d5 613d 3443 5bbd
00000140: 172d 763d 96ff 18be 89c7 19bd a166 86bc
00000150: 0eb1 93bd 553d 12be 6b04 973e 18ee ca3d
00000160: cc86 c63c 46f8 373d a736 29be 2979 063e
00000170: 6736 12be 5c8c 80bd 8aa8 16be f5e0 2dbe
00000180: 17bd de3b 25cf 4dbe fe92 d83d d417 eebd
00000190: cbb7 183e 11d9 67bd 4301 90bd 58c9 92bc
000001a0: b204 ef3d a268 503e f92d 143e 188e 5cbe
000001b0: 7860 593c 7808 07be 15d6 c3bd 35e6 0ebe
000001c0: 9238 9f3d da64 26be a82f ec3d 6c40 b63d
000001d0: 867b d43c fbab 12be ee91 f63d 8932 153d
000001e0: 4063 ad3d 07da dabd 30f2 dd3d d8a4 8d3c
000001f0: 0696 9abd 7733 2e3e b17f b93c 5ca4 c7bc
00000200: 5322 4cbd 897a ca3d 41b7 943d 4dcc 00be
00000210: cb89 dcbd 57d5 6abe 60dd 06be e79d 8f3d
00000220: 184a dd3d 2033 20be 6413 4c3d 0b5a 7a3d
00000230: a67b deba 69c8 2fbd 90b8 573d c939 3f3e
00000240: 70d0 e23d 3b4f 59bd 2b75 4cbe 0ffc d63d
00000250: 8e93 1c3e e2a3 8dbd 9940 9d3e 7dd1 9c3e
00000260: 07be e33d 386a 0bbb 6887 1f3e 0b11 d8bc
00000270: 4573 143d a8f0 a6bd ad6b 4dbe daf2 bcbd
00000280: cd3b 183e e5b6 373d c7a7 203a 9652 97bd
00000290: 40fe b9bd 9ef6 afbd 542b 26bd 9a56 253d
000002a0: cbc0 0e3e e93d 953e 9b61 1e3b 9bbf 943d
000002b0: b3a3 fa3c fdc0 953e b9d7 9b3d 041d d5bd
000002c0: 8d13 453d 06be bfbd 3264 78bd 7af8 1c3e
000002d0: 0928 f03a 31f2 f13c 6611 01be 1310 ab3d
000002e0: 9ac2 0e3e c783 b53c 64bc c3bd 1288 49be
000002f0: 528c 96bd ee96 423e 71e2 b63e f962 363e
00000300: 6e0a 9c3e fcf5 01bc 28c4 23bd 0c44 7abe
00000310: 2b33 90be c20e dabe d94c 213e 0255 c2bd
00000320: 9800 e0bc de53 9cbd c914 003b 6360 98bd
00000330: f692 a2bd 5381 1fbb 4c11 54bd da45 c93d
00000340: 2a00 0d3c 1f15 8bbd 389c dbbc 095a 253c
00000350: 5819 b3bd 24ac bdbd 15bb 1b3e 8994 68bd
00000360: 36fe 2c3e 33ce 1c3d 47b3 dd3d 04c2 f2bd
00000370: 364d e73d fde3 96bd db31 303e bb37 503e
00000380: b8de 05bc b9ef dfbb 1d78 d63c 1163 c1bd
00000390: 01d5 833d d9fd 81be abc8 c53d 7783 7c3e
000003a0: 0631 cb3e da52 e2bd 915a 38bd af89 a6bd
000003b0: 3fe3 3b3c 07e6 65be 2c5c cebc 0f4c 75be
000003c0: fcf5 a73d 1724 e9bd 6228 b6bd f7e2 c0bd
000003d0: feff 0abe 76d1 123e 7fc8 ea3d 6fd3 993c
000003e0: af14 dabb 6be0 21bc 2dca a3bd 2893 a8bd
000003f0: 7460 783d 6a3e 7abd e498 f33b c2cf ba3d

a2c_network.actor_mlp.0.bias f4 [256]
-0.029371483 0.04225985 -0.006465506 -0.015853897 0.033564415 0.010293802 0.014211886 -0.009811583
-0.013703748 0.058179386 0.029586246 0.0018393289 0.013309286 0.0017862555 0.028104959 0.000420117
0.01354078 0.010508324 -0.030712517 0.03180912 -0.03825718 -0.020717163 0.0058036745 0.030408125
-0.005432489 -0.01168333 -0.014668963 -0.014610044 0.023077974 -0.03938769 0.020560028 0.033014756
0.05907966 -0.014199232 -4.3557615e-05 -0.027701268 0.023320962 -0.0075014518 0.007556707 -0.0063962764
-0.0058714575 -0.008974606 0.028675808 -0.05744524 0.015462223 0.034648746 0.041359693 0.060377363
-0.008380209 -0.0016812199 -0.018499551 0.023284018 0.0015551844 -0.025450848 -0.015404385 -0.046441697
-0.015615743 0.011677049 0.0047444724 0.025261013 -0.014481655 0.008267563 -0.0065634493 -0.0010613954
0.006612256 0.079616465 -0.015889684 0.021700272 -0.022733863 0.041959845 -0.03225801 -0.04619359
-0.026328862 0.039725605 -0.014436689 -0.018158969 -0.038866587 -0.03443052 -0.055233072 0.0053263996
-0.009142566 -0.00767107 0.021077257 0.005840373 0.02807475 0.015573106 0.0063623735 -0.03745074
0.031857323 -0.024487616 0.04061539 -0.01484076 -0.0011572721 -0.030953923 -0.014591129 0.015199658
0.03613521 -0.011444485 -0.05810915 -0.009884669 0.00881344 -0.012982305 -0.01041662 0.034166865
0.012891947 0.013765338 0.00058921427 0.01330474 -0.0015225714 -0.0594312 0.015976092 0.01944192
-0.023591192 -0.039539818 -0.038219385 0.011137848 0.030885557 -0.0042683184 -0.016657267 0.0037885131
-0.0190638 -0.04317565 -0.024204347 0.03231654 -0.0026553373 0.0118315965 0.010434472 -0.03651863
-0.03929047 0.016751304 -0.025061997 -0.012076431 -0.028305272 0.014094604 0.03937609 -0.005895647
-0.008304815 -0.029701797 0.0045169126 -0.02354793 -0.00016384978 0.02734912 -0.021196442 -0.017032059
0.014577131 -0.0017283111 0.042224575 -0.0042954823 0.0647833 -0.033971623 0.020307474 0.025080988
0.0030631644 -0.024412872 0.01316899 -0.03794013 -0.028314104 -0.03182839 0.049601167 0.011967782
-0.018249042 0.038012814 -0.017366469 -0.017036341 -0.009731705 0.038680796 -0.03232179 0.0044217748
0.033515785 0.058191337 -0.026816722 -0.0042056455 0.021216663 0.018348234 0.014259773 0.0017583517
0.03380459 -0.02987445 0.009503157 0.0075167688 0.01832118 0.050449494 -0.0011616041 0.024146123
-0.024811782 -0.026668847 0.01831309 0.014830089 -0.0005841978 0.065476954 0.014480246 0.05335343
-0.002670479 0.017335003 0.046939384 0.016109368 0.009960048 -0.034718353 0.028668312 -0.033852562
0.027495053 -0.01190767 0.015243738 -0.046887267 -0.00010971529 -0.015188159 0.00036055798 -0.01982472
-0.013582029 -0.00096379925 -0.017814225 0.037092432 0.020107543 0.010579703 0.039907984 -0.008791889
0.004435855 0.027739985 -0.028684944 -0.00011676935 0.02102286 0.02972686 -0.04488234 0.04656492
0.043423403 -0.023287384 -0.05144996 0.03431534 0.03738813 0.0032761446 0.04216742 -0.037764706
-0.011053629 -0.053433873 0.0025660817 0.06161894 0.025017295 0.01935414 -0.0301584 0.0066817957
0.0442398 0.015697625 -0.0014073309 0.036728874 0.05746535 0.02241043 0.04219046 -0.04379071
0.041151766 -0.039403327 -0.012793441 -0.01823382 0.026867094 0.009868439 0.023458576 0.0022431642
00000000: 779c f0bc aa18 2d3d 98dc d3bb 08e0 81bc
00000010: d77a 093d 56a7 283c f8d8 683c c3c0 20bc
00000020: af85 60bc 824d 6e3d db5e f23c a315 f13a
00000030: 310f 5a3c ca20 ea3a 5f3c e63c 2643 dc39
00000040: 26da 5d3c 1b2b 2c3c d198 fbbc 484a 023d
00000050: 90b3 1cbd 0ab7 a9bc c02c be3b 761a f93c
00000060: 0503 b2bb 706b 3fbc 1756 70bc f75e 6fbc
00000070: 050e bd3c fd54 21bd 816d a83c 7b3a 073d
00000080: 83fd 713d e5a3 68bc a2b1 36b8 c5ed e2bc
00000090: 9a0b bf3c bdce f5bb 419e f73b db97 d1bb
000000a0: 5b65 c0bb 3a0a 13bc 87e9 ea3c b34b 6bbd
000000b0: 4455 7d3c d8eb 0d3d c868 293d 414e 773d
000000c0: 254d 09bc 615c dcba 5f8c 97bc 20be be3c
000000d0: 54d7 cb3a 4c7e d0bc ac62 7cbc a639 3ebd
000000e0: 2cd9 7fbc 1851 3f3c 8577 9b3b 2ff0 ce3c
000000f0: 7744 6dbc ac74 073c 3412 d7bb 851e 8bba
00000100: a0ab d83b f50d a33d 152b 82bc c5c4 b13c
00000110: 5e3c babc 16de 2b3d fa20 04bd 7d35 3dbd
00000120: a0af d7bc 51b7 223d dd87 6cbc 1ec2 94bc
00000130: 9232 1fbd 0407 0dbd 133c 62bd 1489 ae3b
00000140: b3ca 15bc 995d fbbb 36aa ac3c 9a60 bf3b
00000150: 05fd e53c 5726 7f3c 757b d03b f265 19bd
00000160: d37c 023d 419a c8bc 535c 263d a926 73bc
00000170: 9caf 97ba 1593 fdbc a10f 6fbc fd07 793c
00000180: 8402 143d a681 3bbc dc03 6ebd 4ff3 21bc
00000190: 3f66 103c bcb3 54bc 79aa 2abc 8ef2 0b3d
000001a0: bf38 533c 0388 613c 8075 1a3a 20fc 593c
000001b0: 0591 c7ba 216e 73bd 4be0 823c a944 9f3c
000001c0: 5142 c1bc 81f4 21bd ee8b 1cbd 857b 363c
000001d0: b503 fd3c 40dd 8bbb d274 88bc b448 783b
000001e0: b02b 9cbc f3d8 30bd 3248 c6bc 595e 043d
000001f0: 2b05 2ebb 50d9 413c 59f5 2a3c 8f94 15bd
00000200: 0bef 20bd 083a 893c d14e cdbc 39dc 45bc
00000210: 75e0 e7bc 0eed 663c d348 213d 4630 c1bb
00000220: eb10 08bc 2f51 f3bc 9c02 943b 97e7 c0bc
00000230: 17cf 2bb9 430b e03c 29a4 adbc d186 8bbc
00000240: ebd4 6e3c 7f88 e2ba adf3 2c3d 1ec1 8cbb
00000250: 1bad 843d d425 0bbd dc5b a63c a576 cd3c
00000260: 5fbf 483b 81fd c7bc bfc2 573c 1c67 1bbd
00000270: fbf2 e7bc 7c5e 02bd 982a 4b3d 8414 443c
00000280: 047f 95bc 53b3 1b3d 2044 8ebc cc8f 8bbc
00000290: bb71 1fbc c16f 1e3d da63 04bd 89e4 903b
000002a0: d947 093d 0a5a 6e3d beae dbbc 83cf 89bb
000002b0: 91ce ad3c 094f 963c d3a1 693c 7e78 e63a
000002c0: af76 0a3d 43bb f4bc 21b3 1b3c 3a4f f63b
000002d0: 4d16 963c 21a4 4e3d f740 98ba 17ce c53c
000002e0: 1442 cbbc a078 dabc 5505 963c e7f9 723c
000002f0: da24 19ba c818 863d 8e3e 6d3c 2089 5a3d
00000300: 3403 2fbb 2302 8e3c 8343 403d cbf7 833c
00000310: 782f 233c d534 0ebd cfd9 ea3c fca8 0abd
00000320: 4e3d e13c 6318 43bc dfc0 793c dd0c 40bd
00000330: f316 e6b8 c2d7 78bc 4609 bd39 7467 a2bc
00000340: 2987 5ebc 79a7 7cba 23ef 91bc 3cee 173d
00000350: 93b8 a43c 7e56 2d3c 8e76 233d db0b 10bc
00000360: a65a 913b f73e e33c b0fc eabc 11e2 f4b8
00000370: 2238 ac3c be85 f33c 8bd6 37bd dcba 3e3d
00000380: bddc 313d 2fc5 bebc 31bd 52bd 3e8e 0c3d
00000390: 4c24 193d 96b4 563b bfb7 2c3d 2aaf 1abd
000003a0: 481a 35bc 7add 5abd b52b 283b 2464 7c3d
000003b0: 12f1 cc3c 938c 9e3c c00e f7bc f7f2 da3b
000003c0: cb34 353d 4e98 803c 3076 b8ba 0471 163d
000003d0: c960 6b3d 1496 b73c e7cf 2c3d e35d 33bd
000003e0: c18e 283d 6265 21bd 959b 51bc 185f 95bc
000003f0: 6118 dc3c 3caf 213c 332c c03c 0d02 133b

a2c_network.actor_mlp.2.weight f4 [128, 256]
0.012029639 0.020270564 -0.082264856 -0.0783029 0.00347441 -0.034735326 -0.0543865 0.11944594
0.10334135 0.05378789 -0.06146658 -0.005437972 0.045551375 0.015621641 -0.040606316 0.041406244
-0.096330166 0.032453578 0.07272755 -0.052664578 0.00028188797 -0.1612561 -0.10948655 0.14065252
0.021571338 -0.078877494 -0.059508212 0.09738287 -0.07921165 -0.11828466 -0.06787078 -0.024252981
-0.030295864 -0.009727497 0.0049177245 -0.097038716 0.008993808 -0.017133549 0.11105079 -0.061442368
-0.121385135 0.037831504 0.06076335 -0.013290784 0.006726604 -0.07998201 -0.027319355 -0.0135673145
0.033293135 -0.049343634 0.011672492 0.04730894 0.13558394 0.057866532 -0.013267294 0.0004729394
-0.110141605 -0.06410786 -0.0013478438 0.037052296 0.06651398 -0.06746582 0.004891935 -0.07101093
-0.13259785 0.070743546 -0.22529647 -0.054421894 0.12272766 0.044078965 -0.021569723 0.043958817
0.04175727 0.023102652 0.079270326 -0.081596725 0.04409924 -0.05270804 0.009735734 0.22561224
-0.049654316 0.07151121 -0.03797328 -0.10793376 0.107568435 0.0018705821 -0.16126353 0.00866448
-0.07125173 -0.06426216 -0.015121271 0.02535194 -0.0026955954 -0.08751186 0.029136997 -0.1650616
0.048445072 -0.031766076 0.046515696 0.01920124 0.015841018 -0.0843743 -0.08711624 -0.03401223
-0.04042135 0.13379933 0.046289492 -0.04049239 -0.09609195 -0.005718281 -0.13054208 -0.03224761
0.109857924 0.04788872 -0.0855182 -0.088167995 -0.25816625 0.087951005 -0.01999998 -0.07351824
-0.038739882 0.032431904 0.046676915 -0.03197258 0.01024541 0.05061532 0.02551806 0.03334602
-0.059385423 -0.0026073367 0.06794056 -0.04244753 -0.05062186 -0.008290678 0.020875687 0.102635354
0.05219305 0.031901844 -0.09030924 -0.039223984 -0.12448221 -0.09009792 0.12274175 -0.056016963
-0.119029246 0.025441853 -0.06675289 -0.06327686 -0.1454444 0.015933014 0.0802482 0.02516125
0.15472 -0.02269681 -0.15308687 -0.14945899 0.02346064 -0.022705745 -0.029724801 -0.010248695
-0.025856605 0.134106 -0.0010669923 -0.06822943 -0.08234931 -0.037611663 0.15725547 0.039018344
0.019156268 -0.07991336 0.016317403 0.07250835 -0.09819715 0.008452198 -0.1393718 -0.061076496
-0.025397798 0.06272251 0.12828168 -0.14284256 -0.12776496 -0.08096456 0.073629 -0.037799723
-0.10843126 -0.033341046 -0.056661993 0.085992694 -0.034280796 0.0011144247 0.05108328 -0.10619135
-0.100570634 -0.02558684 -0.015132493 -0.07132457 0.029856203 0.0054218634 -0.143105 -0.05804666
0.08582058 -0.029417392 -0.08402809 0.060842454 -0.03547212 0.060718007 -0.006138341 -0.13601351
0.009507852 -0.12320185 0.10096339 0.056291953 -0.09858232 -0.09649887 0.023352457 -0.008415398
-0.006930653 0.0057079666 -0.019988488 0.143159 0.16072838 -0.0008051393 -0.12401909 -0.036254387
-0.05975329 0.16809037 -0.04750366 -0.026850957 -0.011991747 -0.06882385 0.002960186 0.024918457
0.05120806 0.05472517 0.08481462 -0.024629066 0.08357968 0.12678823 -0.06463106 0.0062908037
-0.113433205 0.032830153 -0.028887708 -0.0024818415 -0.04039145 0.14180937 -0.072125256 0.035863947
0.10223835 -0.07296188 -0.11543457 0.074332304 -0.015955525 0.088122554 0.043711558 -0.0065177237
00000000: f717 453c 740e a63c 7a7a a8bd 455d a0bd
00000010: edb2 633b a146 0ebd 61c4 5ebd 13a0 f43d
00000020: a1a4 d33d b150 5c3d 61c4 7bbd 0431 b2bb
00000030: 1494 3a3d e9f1 7f3c cf52 26bd 9899 293d
00000040: c048 c5bd 0bee 043d 2ff2 943d d0b6 57bd
00000050: 5dca 9339 5220 25be 7c3a e0bd 3707 103e
00000060: 60b6 b03c 868a a1bd e2be 73bd ac70 c73d
00000070: b839 a2bd 3a3f f2bd d6ff 8abd 30ae c6bc
00000080: 082f f8bc 1460 1fbc dd24 a13b 3cbc c6bd
00000090: c45a 133c a85b 8cbc 996e e33d feaa 7bbd
000000a0: c598 f8bd 35f5 1a3d fee2 783d 97c1 59bc
000000b0: d86a dc3b 9ccd a3bd d7cc dfbc 7149 5ebc
000000c0: 625e 083d 8d1c 4abd fb3d 3f3c 05c7 413d
000000d0: 84d6 0a3e 7505 6d3d 105f 59bc daf4 f739
000000e0: ec91 e1bd fb4a 83bd 22aa b0ba 26c4 173d
000000f0: 7b38 883d 852b 8abd 864c a03b 2e6e 91bd
00000100: bbc7 07be fee1 903d 1eb4 66be 7ee9 5ebd
00000110: a458 fb3d 258c 343d fdb2 b0bc 290e 343d
00000120: ac09 2b3d c641 bd3c 7b58 a23d 2f1c a7bd
00000130: 68a1 343d 63e4 57bd a182 1f3c e506 673e
00000140: 5362 4bbd 7874 923d df89 1bbd 600c ddbd
00000150: d74c dc3d 522e f53a 4422 25be 77f5 0d3c
00000160: 6dec 91bd e19b 83bd 35bf 77bc dfae cf3c
00000170: 96a8 30bb 6b39 b3bd b6b0 ee3c e805 29be
00000180: 576e 463d 251d 02bd 3e87 3e3d eb4b 9d3c
00000190: 06c5 813c 6fcc acbd 006a b2bd 6850 0bbd
000001a0: dc90 25bd b102 093e 0d9a 3d3d 59db 25bd
000001b0: dbcb c4bd 6b60 bbbb d3ac 05be 1216 04bd
000001c0: 31fd e03d f626 443d 2b24 afbd 6c91 b4bd
000001d0: 5e2e 84be a81f b43d 00d7 a3bc bb90 96bd
000001e0: b6ad 1ebd 51d7 043d 4b30 3f3d aef5 02bd
000001f0: 5ddc 273c 0352 4f3d 400b d13c d695 083d
00000200: 213e 73bd dadf 2abb 6c24 8b3d 76dd 2dbd
00000210: de58 4fbd a0d5 07bc 7d03 ab3c 7c32 d23d
00000220: 61c8 553d 82ab 023d 0df4 b8bd 54a9 20bd
00000230: 87f0 febd 4285 b8bd 0760 fb3d 0b72 65bd
00000240: 9bc5 f3bd 6f6b d03c bdb5 88bd 4c97 81bd
00000250: 60ef 14be f485 823c 2b59 a43d f71e ce3c
00000260: eb6e 1e3e a9ee b9bc cec2 1cbe c70b 19be
00000270: 8730 c03c 6601 babc 6d81 f3bc 24ea 27bc
00000280: 3bd1 d3bc 1553 093e 52da 8bba dfbb 8bbd
00000290: c1a6 a8bd b00e 1abd 9407 213e b3d1 1f3d
000002a0: 9bed 9c3c 9ea9 a3bd 13ac 853c 427f 943d
000002b0: 961b c9bd 167b 0a3c 7bb7 0ebe 592b 7abd
000002c0: 0b0f d0bc a974 803d 465c 033e 5245 12be
000002d0: d1d4 02be bfd0 a5bd cdca 963d e2d3 1abd
000002e0: 3511 debd 9f90 08bd 6816 68bd f01c b03d
000002f0: 056a 0cbd e311 923a b43c 513d da7a d9bd
00000300: faf7 cdbd 7e9b d1bc 47ee 77bc 9e12 92bd
00000310: ff94 f43c e3a9 b13b 1e8a 12be 56c2 6dbd
00000320: b3c2 af3d befc f0bc eb16 acbd f035 793d
00000330: 374b 11bd 72b3 783d 2324 c9bb 2047 0bbe
00000340: d2c6 1b3c 4051 fcbd e5c5 ce3d 6492 663d
00000350: 87e5 c9bd 33a1 c5bd a74d bf3c bde0 09bc
00000360: 881a e3bb e509 bb3b e6be a3bc 4698 123e
00000370: fb95 243e fc0f 53ba b8fd fdbd 7b7f 14bd
00000380: debf 74bd e21f 2c3e 3393 42bd 8af6 dbbc
00000390: 0879 44bc 85f3 8cbd aeff 413b cb21 cc3c
000003a0: 8bbf 513d 8027 603d 4ab3 ad3d e5c2 c9bc
000003b0: d32b ab3d c6d4 013e 4a5d 84bd 1623 ce3b
000003c0: ab4f e8bd e978 063d eaa5 ecbc 64a6 22bb
000003d0: 8171 25bd 7a36 113e 68b6 93bd 13e6 123d
000003e0: 5762 d13d 0a6d 95bd f668 ecbd 893b 983d
000003f0: 29b5 82bc 9979 b43d e40a 333d a192 d5bb

a2c_network.actor_mlp.2.bias f4 [128]
-0.01705195 0.0158081 -0.09796405 -0.0037189168 0.014405313 0.007270424 0.0030346087 0.027885124
-0.04493648 0.011460169 -0.013996857 -0.045206495 -0.06457389 -0.050383035 -0.008273544 0.0463617
-0.010100919 -0.031079033 -0.0024246264 0.016299905 0.06678721 -0.07637971 -0.030850923 -0.052480854
-0.024732498 0.017050792 -0.012409692 0.048701365 -0.023607563 -0.049233526 0.071835205 -0.012982272
0.02741275 -0.025873406 -0.038972996 0.027811453 -0.06581479 -0.040808674 0.012558018 -0.048770905
0.008190016 0.039583523 0.009183404 -0.012879865 -0.02129739 0.012444568 0.042900033 0.023770979
-0.01833938 -0.038093578 -0.015909484 0.005174873 0.00801422 -0.0125032915 -0.058759123 -0.06294084
-0.08453595 -0.029167501 0.04419215 -0.018544266 0.021426164 -0.043132268 0.027870249 -0.019047005
-0.030075427 -0.06444155 0.030666199 -0.00700678 0.0027447508 0.00837607 -0.019030409 -0.053287417
-0.0322797 -0.066853814 -0.020323575 0.004882114 -0.065345705 -0.007184958 -0.053112935 -0.009085727
-0.017630232 0.031776417 0.0057300916 0.019011999 -0.022216877 -0.008687678 0.020894362 -0.013258469
-0.022547849 -0.01511592 -0.033606354 0.031829994 -0.004665358 -0.0281715 -0.034359626 0.038632207
-0.025955683 -0.032322958 -0.04344096 0.023816645 -0.02555913 -0.03905365 0.048536338 -0.043196395
-0.039019648 -0.04750044 -0.025908582 -0.011945457 0.0051102187 -0.071695425 -0.020783909 -0.049216624
-0.04414307 -0.008082333 -0.042596336 -0.04941353 -0.03979507 -0.053859014 -0.02527103 -0.06239393
-0.014606025 -0.053414922 -0.039399568 -0.035278402 0.0029117344 0.03395802 -0.037247088 -0.098588616
00000000: 88b0 8bbc fd7f 813c 60a1 c8bd 12b9 73bb
00000010: 4304 6c3c bd3c ee3b 49e0 463b 586f e43c
00000020: 500f 38bd 6fc3 3b3c 1353 65bc 722a 39bd
00000030: 513f 84bd 715e 4ebd c28d 07bc c4e5 3d3d
00000040: 537e 25bc 7599 febc 7be6 1ebb 6187 853c
00000050: bcc7 883d f76c 9cbd 13bb fcbc 2af6 56bd
00000060: cf9b cabc 1aae 8b3c 0552 4bbc 157b 473d
00000070: a664 c1bc 18a9 49bd 561e 933d 98b3 54bc
00000080: b490 e03c 77f4 d3bc 26a2 1fbd d8d4 e33c
00000090: e8c9 86bd ff26 27bd 25c0 4d3c 00c4 47bd
000000a0: 6b2f 063c 5522 223d fd75 163c 1206 53bc
000000b0: dd77 aebc 4de4 4b3c f2b7 2f3d 5bbb c23c
000000c0: 783c 96bc 0308 1cbd 9b54 82bc fb91 a93b
000000d0: 134e 033c 9bda 4cbc 68ad 70bd 21e7 80bd
000000e0: 2f21 adbd aff0 eebc d402 353d 25ea 97bc
000000f0: ec85 af3c 76ab 30bd 2650 e43c 7708 9cbc
00000100: be60 f6bc eef9 83bd ae37 fb3c 2199 e5bb
00000110: 47e1 333b c93b 093c a9e5 9bbc e843 5abd
00000120: b837 04bd a7ea 88bd a07d a6bc 24fa 9f3b
00000130: f8d3 85bd cc6f ebbb f38c 59bd 4ddc 14bc
00000140: 476d 90bc fd27 023d 7ec3 bb3b 0dbf 9b3c
00000150: 2b00 b6bc c356 0ebc a72a ab3c 0d3a 59bc
00000160: 44b6 b8bc c4a8 77bc d1a6 09bd 2b60 023d
00000170: dcdf 98bb ebc7 e6bc aebc 0cbd ce3c 1e3d
00000180: 03a1 d4bc 1465 04bd 26ef 31bd 201b c33c
00000190: 6161 d1bc b8f6 1fbd 0ace 463d b4ee 30bd
000001a0: 11d3 1fbd d28f 42bd 3c3e d4bc e1b6 43bc
000001b0: 9f73 a73b 0dd5 92bd 0443 aabc 5f97 49bd
000001c0: 5dcf 34bd c36b 04bc 7f79 2ebd d765 4abd
000001d0: 2800 23bd 459b 5cbd 3105 cfbc c790 7fbd
000001e0: 1c4e 6fbc 9bc9 5abd 7161 21bd 1680 10bd
000001f0: ccd2 3e3b 9117 0b3d 6790 18bd d4e8 c9bd

a2c_network.actor_mlp.4.weight f4 [128, 128]
0.06737778 -0.06679507 -0.028185876 -0.079259515 -0.12130644 -0.10950115 -0.014699229 -0.15350398
0.06155676 -0.09035466 0.16081706 0.056596953 0.08034362 -0.03555544 0.0477032 -0.102282934
0.04328915 -0.018457994 0.011065769 -0.020905396 0.0067033214 0.13141309 0.0718475 -0.015010249
0.08877689 0.08475514 -0.04637423 0.057506196 -0.033805504 0.037696358 -0.1900149 -0.06400322
0.04645119 -0.037821405 0.09399714 -0.13399301 0.087758474 0.16660982 -0.10063295 0.046029802
-0.12562512 0.024963822 -0.015654536 0.050729126 0.071273096 0.015848048 0.04237989 -0.059295636
0.07595417 -0.07519375 0.01458273 0.010181745 0.043567926 0.032511145 -0.016279666 -0.058406547
0.048396178 -0.010199765 -0.13928159 0.0032148692 -0.07893518 0.08236686 -0.07483643 -0.039535914
0.016275479 0.080967 -0.12662743 -0.14998922 -0.052290708 0.0051066605 0.1165126 -0.03263736
0.054221198 0.14762199 -0.023152085 -0.21186133 0.039948996 -0.013823963 0.100795984 -0.03808229
0.008859809 -0.009593597 0.25923586 0.012799201 0.08999832 -3.0374579e-06 -0.11375266 -0.058794893
-0.07385855 -0.10744143 0.17162645 -0.09101783 -0.08869908 -0.19582649 0.046363633 0.028398808
0.083285734 0.16772357 -0.18173493 -0.13491568 -0.06361494 0.0020851314 0.0814796 0.18755415
0.15545836 0.011543178 -0.32890812 0.03762176 -0.0023065556 0.16028991 -0.17307788 -0.13864894
0.096228965 0.12063861 -0.046336815 -0.0014077086 0.06723363 0.1572014 0.027519206 0.022153284
-0.0012997481 -0.00970459 -0.0024493164 0.06933176 -0.07192659 -0.044617776 0.08912967 0.014338795
0.060561907 -0.08452354 -0.031269893 -0.10149242 -0.09217138 -0.24329579 0.075180545 0.083342925
0.02605185 -0.092301585 0.11601509 -0.13147846 0.00950104 -0.13585055 -0.057190146 -0.16247037
0.101458915 0.009588372 -0.03813717 -0.022332858 -0.048123166 0.006341965 -0.011367695 0.018999536
-0.07703379 -0.080813915 -0.08600783 0.07953182 0.09695798 -0.16412316 0.09107245 -0.20898482
-0.18232776 0.026384465 0.047339976 -0.06238013 0.042522278 0.011734249 -0.033437025 -0.053070806
0.0011117356 -0.012020109 -0.05212075 -0.11309898 0.07288367 0.13114038 0.031957455 -0.13886262
-0.008501394 -0.01819603 -0.11707139 -0.06918251 -0.06612275 -0.055460557 0.14678769 -0.015835019
0.038510792 0.028360672 0.12523551 -0.05663207 -0.015516402 0.03774908 -0.16067676 -0.017761206
-0.02682018 0.064886615 0.09891292 0.14607106 0.027513659 0.03331605 0.057389013 0.0076342695
0.075331815 -0.1165281 0.040618893 -0.031654954 -0.14558752 0.11995813 -0.19256991 -0.00459907
-0.20342551 -0.05628425 -0.18991528 -0.10223571 0.026188448 0.015069668 0.013697234 -0.124819696
0.06864856 -0.008633434 0.10481893 0.09326485 -0.10178135 -0.04470261 -0.019700684 0.017359462
0.12220797 -0.081690185 -0.08580951 -0.01720469 -0.15203892 -0.15494062 0.05292798 -0.056830257
-0.26181713 0.12570752 -0.06850439 0.0022368645 -0.08786291 -0.120709464 0.0028137194 0.026483083
-0.021506662 0.03439827 0.123425685 0.012104132 0.08213354 0.10887064 -0.021311328 -0.08401749
-0.09264026 -0.011256182 -0.14601806 0.12503286 -0.14922377 -0.015198452 -0.09264699 -0.076063246
00000000: 5dfd 893d dbcb 88bd 11e6 e6bc d052 a2bd
00000010: 836f f8bd 2442 e0bd 09d5 70bc 2630 1dbe
00000020: f122 7c3d dd0b b9bd 3aad 243e 35d2 673d
00000030: 328b a43d 95a2 11bd 6e64 433d b779 d1bd
00000040: f74f 313d 3835 97bc 334d 353c cb41 abbc
00000050: 89a7 db3b 2791 063e c824 933d 8ced 75bc
00000060: a8d0 b53d 1a94 ad3d e8f2 3dbd 9e8b 6b3d
00000070: a477 0abd 7f67 1a3d 4493 42be 1f14 83bd
00000080: 9a43 3e3d 9eea 1abd 9381 c03d 7735 09be
00000090: b7ba b33d c49b 2a3e a618 cebd bf89 3c3d
000000a0: dfa3 00be ee80 cc3c f13d 80bc 58c9 4f3d
000000b0: a1f7 913d c4d3 813c 8996 2d3d fbdf 72bd
000000c0: dc8d 9b3d 2eff 99bd 67ec 6e3c 55d1 263c
000000d0: 4874 323d 682a 053d ef5c 85bc b43b 6fbd
000000e0: 123b 463d ea1c 27bc d59f 0ebe 8eb0 523b
000000f0: c5a8 a1bd f5af a83d d843 99bd 69f0 21bd
00000100: 2754 853c 07d2 a53d 9faa 01be c696 19be
00000110: c82e 56bd c655 a73b 289e ee3d c1ae 05bd
00000120: 0c17 5e3d 382a 173e 71a9 bdbc 2df2 58be
00000130: 8fa1 233d e77d 62bc 206e ce3d 2dfc 1bbd
00000140: bb28 113c 762e 1dbc 90ba 843e bdb3 513c
00000150: 0a51 b83d 21d7 4bb6 28f7 e8bd ead2 70bd
00000160: 2743 97bd 410a dcbd d8be 2f3e 8e67 babd
00000170: dda7 b5bd bd86 48be cbe7 3d3d 9ea4 e83c
00000180: b691 aa3d babf 2b3e b918 3abe 5627 0abe
00000190: 8d48 82bd b3a6 083b c7de a63d 320e 403e
000001a0: 7a30 1f3e 991f 3d3c a566 a8be 4619 1a3d
000001b0: 9529 17bb 0a23 243e 543b 31be fdf9 0dbe
000001c0: b113 c53d 6011 f73d accb 3dbd dd82 b8ba
000001d0: c9b1 893d 67f9 203e f56f e13c ce7a b53c
000001e0: 4f5c aaba 0000 1fbc b684 20bb cffd 8d3d
000001f0: 3f4e 93bd 21c1 36bd 9e89 b63d 44ed 6a3c
00000200: c30f 783d ae1a adbd dc14 00bd 42db cfbd
00000210: 59c4 bcbd 8822 79be 42f8 993d b2af aa3d
00000220: b06a d53c 9d08 bdbd 5299 ed3d 4aa2 06be
00000230: 40aa 1b3c 681c 0bbe 3740 6abd a25e 26be
00000240: b1c9 cf3d 8c18 1d3c b935 1cbd 66f3 b6bc
00000250: cc1c 45bd 42d0 cf3b 923f 3abc eaa4 9b3c
00000260: e4c3 9dbd c481 a5bd e024 b0bd 94e1 a23d
00000270: e891 c63d e70f 28be 3184 ba3d 1e00 56be
00000280: 21b4 3abe 3c24 d83c 90e7 413d 4f82 7fbd
00000290: d72b 2e3d 0241 403c 43f5 08bd c660 59bd
000002a0: a8b7 913a feef 44bc 917c 55bd 70a0 e7bd
000002b0: 0944 953d aa49 063e d2e5 023d 0132 0ebe
000002c0: 6e49 0bbc d70f 95bc 20c3 efbd 8faf 8dbd
000002d0: 5d6b 87bd 9c2a 63bd 834f 163e 71b8 81bc
000002e0: 7ebd 1d3d a454 e83c bd3d 003e 08f7 67bd
000002f0: 8238 7ebc c89e 1a3d 7388 24be f37f 91bc
00000300: feb5 dbbc 46e3 843d db92 ca3d a793 153e
00000310: 5364 e13c 6976 083d be10 6b3d e528 fa3b
00000320: 9147 9a3d 49a6 eebd ff5f 263d a0a8 01bd
00000330: e514 15be 9cac f53d 0c31 45be ccb3 96bb
00000340: c74e 50be 508a 66bd 2779 42be f560 d1bd
00000350: 2889 d63c c5e6 763c 5d6a 603c 78a1 ffbd
00000360: 9e97 8c3d 3f73 0dbc 4fab d63d a401 bf3d
00000370: be72 d0bd 151a 37bd 5463 a1bc 6e35 8e3c
00000380: 2c48 fa3d 2f4d a7bd e5bc afbd daf0 8cbc
00000390: 17b0 1bbe c1a8 1ebe 02cb 583d d8c6 68bd
000003a0: e50c 86be 79b9 003e 084c 8cbd 5c98 123b
000003b0: 78f1 b3bd 8636 f7bd 6166 383b 0df3 d83c
000003c0: bd2e b0bc 33e5 0c3d 9bc6 fc3d 6950 463c
000003d0: a135 a83d 92f7 de3d 1895 aebc 5d11 acbd
000003e0: 2dba bdbd d96b 38bc c285 15be 9d08 003e
000003f0: 1ece 18be ee02 79bc b5bd bdbd 0cc7 9bbd

a2c_network.actor_mlp.4.bias f4 [128]
-0.09142185 -0.010195879 0.04121427 -0.13561079 -0.05281388 -0.08401972 -0.0548445 -0.03833181
-0.029654004 -0.10396017 -0.07533968 -0.015195786 -0.03461058 -0.027403696 -0.022939004 -0.04424319
0.046713915 -0.019207267 0.0040106885 -0.028004175 -0.043201122 -0.025376316 0.035051946 -0.033704657
0.0045952066 0.0015664996 -0.015427165 -0.028548356 -0.001469833 -0.08220501 -0.04053101 0.01458303
-0.060148384 -0.11615779 -0.02390008 0.018580675 -0.062366135 0.049541555 -0.050538328 -0.13454892
-0.013366582 -0.0045211585 0.002677212 0.032420736 -0.0051755533 -0.02921379 -0.031911004 -0.0011097429
0.031376846 0.002523766 -0.053704243 -0.04890899 -0.014127992 0.038718577 -0.016938709 0.085324936
0.010794411 -0.039733674 0.06530982 0.06229334 0.005258548 0.05173252 -0.02397366 0.026280994
-0.020970669 0.08103642 -0.0674547 -0.026807895 -0.012924606 0.05862483 -0.12649284 0.05446525
0.030580916 0.061485466 -0.05431504 -0.0066824565 0.05458407 0.03488994 -0.023768846 0.05648495
-0.0052880337 0.015375978 -0.033167332 -0.03289649 -0.1740407 0.043279033 -0.028697005 -0.075391576
-0.03486813 -0.019459225 0.02474581 -0.050398335 0.04001858 -0.045112163 0.05950652 -0.013046458
0.0048769955 -0.050070662 -0.12347074 -0.056461383 -0.051856864 -0.076597184 -0.042808972 0.06858788
-0.0082580615 -0.018174645 -0.026211433 -0.03674856 -0.04227269 0.00986463 0.025045555 0.04720756
-0.019675357 -0.06649625 0.012899862 -0.009125033 -0.07157534 -0.06833534 -0.026308822 -0.003977226
-0.10216343 0.03947711 0.030571042 -0.0665476 0.05771975 -0.031401403 -0.031562965 -0.015990859
00000000: 613b bbbd 9e0c 27bc 4bd0 283d 8edd 0abe
00000010: 5e53 58bd 8812 acbd a0a4 60bd d101 1dbd
00000020: f4ec f2bc 12e9 d4bd b14b 9abd bff7 78bc
00000030: d3c3 0dbd b77d e0bc 94ea bbbc 5938 35bd
00000040: 1757 3f3d 8f58 9dbc 186c 833b 0369 e5bc
00000050: a9f3 30bd fee1 cfbc a192 0f3d e50d 0abd
00000060: 6393 963b 0153 cd3a 38c2 7cbc 3ede e9bc
00000070: 69a7 c0ba 1a5b a8bd d803 26bd a9ed 6e3c
00000080: 275e 76bd 23e4 edbd 1aca c3bc 8036 983c
00000090: a273 7fbd 16ec 4a3d 4701 4fbd 31c7 09be
000000a0: 82ff 5abc 3a26 94bb 2a74 2f3b 9bcb 043d
000000b0: b097 a9bb c251 efbc 1db5 02bd cb74 91ba
000000c0: 0285 003d c465 253b fbf8 5bbd cb54 48bd
000000d0: 1879 67bc 5f97 1e3d 0cc3 8abc d7be ae3d
000000e0: 0bdb 303c c7bf 22bd 28c1 853d 4d27 7f3d
000000f0: e64f ac3b 7be5 533d 6964 c4bc 3d4b d73c
00000100: aeca abbc 6cf6 a53d b125 8abd 3b9c dbbc
00000110: bac1 53bc 9720 703d 5787 01be f416 5f3d
00000120: d484 fa3c 2fd8 7b3d 7379 5ebd 82f8 dabb
00000130: 8c93 5f3d c1e8 0e3d e2b6 c2bc c35c 673d
00000140: 3e47 adbb 87eb 7b3c 78da 07bd 78be 06bd
00000150: ba37 32be 5b45 313d fb15 ebbc e666 9abd
00000160: e2d1 0ebd f468 9fbc bab7 ca3c 7c6e 4ebd
00000170: 86ea 233d 88c7 38bd 1cbd 733d d0c0 55bc
00000180: 34cf 9f3b e516 4dbd 3ade fcbd 0d44 67bd
00000190: dd67 54bd fcde 9cbd 7658 2fbd cd77 8c3d
000001a0: d24c 07bc fee2 94bc 5cb9 d6bc a885 16bd
000001b0: 2126 2dbd 429f 213c 562c cd3c b75c 413d
000001c0: 372e a1bc 302f 88bd f159 533c 2a81 15bc
000001d0: 1896 92bd 66f3 8bbd 9985 d7bc 6453 82bb
000001e0: 0f3b d1bd c0b2 213d 1f70 fa3c 1c4a 88bd
000001f0: 8b6b 6c3d c29e 00bd 2b48 01bd 43ff 82bc

a2c_network.value.weight f4 [1, 128]
0.05616529 -0.12711929 0.008512679 -0.0061577186 -0.0019040062 -0.02739672 0.04440826 0.019570973
-0.07467782 0.028267192 0.020659084 0.0023842854 -0.02403363 -0.06857358 -0.010979531 -0.058522765
0.12760936 0.0044743796 0.02831257 0.010053724 -0.17874236 0.10280195 -0.06199914 -0.28302643
-0.018304495 -0.012452674 -0.15100965 -0.026471408 -0.041742105 -0.09510738 -0.0077389465 -0.020897018
0.020707427 -0.011953874 0.022484165 -0.024786169 0.04153524 -0.035604842 -0.11605466 0.060117155
-0.00805154 -0.01626054 -0.00048147675 0.07513985 0.0044802697 0.027156914 0.017666832 -0.02054556
0.068918206 0.025710553 0.009285147 0.0051920535 0.041699268 0.0038589214 0.045713842 0.047453087
0.0048151277 0.025304997 -0.023183435 0.00091174716 0.078872934 -0.018201763 -0.026655978 0.07563181
-0.05310527 -0.029403456 0.0016482328 -0.021047259 0.05598215 -0.024844285 0.0123251 0.15423065
0.0360474 -0.014547112 0.017521858 0.03821639 -0.07779987 0.019034786 -0.050077878 -0.06417681
-0.029119179 0.0098656295 0.018451823 -0.019330544 0.024856238 0.13161965 -0.0405475 -0.12672767
0.02564579 0.030366147 0.01595135 0.029104242 0.01728834 0.019320177 0.15239488 0.028751893
0.022950988 -0.037647665 0.015467304 -0.0561326 0.026602587 -0.0071982355 -0.03433187 -0.0014096817
0.006806114 -0.07470028 0.02554795 0.00498994 -0.016145315 0.015277015 0.03908612 0.06988685
-0.034964662 0.06063019 0.013041747 -0.30975875 -0.03997803 0.006511816 -0.091889285 -0.064146586
-0.01274195 0.004577426 0.041578807 -0.06763786 0.12937427 0.03343904 0.099225774 -0.07746226
00000000: 930d 663d 8f2b 02be c378 0b3c b0c6 c9bb
00000010: d98f f9ba 166f e0bc 70e5 353d 4e53 a03c
00000020: aff0 98bd 9990 e73c 3d3d a93c ac41 1c3b
00000030: 2de2 c4bc 4e70 8cbd 7ee3 33bc 91b5 6fbd
00000040: 07ac 023e d19d 923b c3ef e73c 60b8 243c
00000050: 3d08 37be d489 d23d cff2 7dbd d7e8 90be
00000060: 4ff3 95bc 4d06 4cbc 46a2 1abe 91da d8bc
00000070: c5f9 2abd a8c7 c2bd fd96 fdbb 3930 abbc
00000080: 9fa2 a93c 2eda 43bc b630 b83c 5d0c cbbc
00000090: db20 2a3d 62d6 11bd 11ae edbd 683d 763d
000000a0: 9bea 03bc d334 85bc b76e fcb9 ece2 993d
000000b0: 3acf 923b 2d78 de3c 08ba 903c 2a4f a8bc
000000c0: fd24 8d3d f09e d23c bb20 183c 1a22 aa3b
000000d0: dacc 2a3d f5e5 7c3b 703e 3b3d 2b5e 423d
000000e0: 38c8 9d3b 6d4c cf3c 30eb bdbc 5102 6f3a
000000f0: 2288 a13d dd1b 95bc a35d dabc dae4 9a3d
00000100: e984 59bd 84df f0bc 8409 d83a 4d6b acbc
00000110: 8a4d 653d 3e86 cbbc 37ef 493c a4ee 1d3e
00000120: 70a6 133d 0357 6ebc 008a 8f3c ca88 1c3d
00000130: 8a55 9fbd d7ee 9b3c 761e 4dbd 226f 83bd
00000140: 588b eebc 73a3 213c 4728 973c 175b 9ebc
00000150: 4f9f cb3c 4dc7 063e 2315 26bd e6c4 01be
00000160: 1f17 d23c 6dc2 f83c 68ac 823c 056c ee3c
00000170: 47a0 8d3c 5945 9e3c 670d 1c3e 1789 eb3c
00000180: b603 bc3c 7034 1abd 936a 7d3c 4ceb 65bd
00000190: abed d93c 2ddf ebbb 939f 0cbd 12c5 b8ba
000001a0: d305 df3b 76fc 98bd ef49 d13c a782 a33b
000001b0: 2e43 84bc 724c 7a3c c418 203d d620 8f3d
000001c0: 1b37 0fbd 5d57 783d 0dad 553c b398 9ebe
000001d0: 01c0 23bd 1261 d53b 7330 bcbd 495f 83bd
000001e0: 9dc3 50bc 3bfe 953b 8a4e 2a3d b885 8abd
000001f0: b07a 043e 60f7 083d e236 cb3d 89a4 9ebd

a2c_network.mu.weight f4 [10, 128]
-0.15089448 0.036348104 0.15943462 0.2752608 0.13151054 -0.008371932 -0.035399698 -0.067573756
0.12381567 -0.050599094 -0.11049733 -0.07640572 -0.043288354 -0.030468877 -0.029574687 -0.0034572312
0.022097731 -0.049721964 0.017535945 0.1332808 -0.008999206 0.09152227 0.0697989 -0.0019688986
0.12885803 0.05766818 -0.059215173 0.17171708 -0.2266825 -0.100116014 0.102236494 0.0322574
0.0665801 -0.061160587 -0.14769837 -0.10225285 0.05864609 0.038903594 0.033838123 -0.004834403
0.065293506 -0.06413213 -0.097608246 0.18652566 0.044698965 0.10675919 0.008053347 -0.019125208
-0.080986775 -0.115967944 -0.17129318 -0.17809293 -0.22429277 0.040013965 -0.17067605 -0.048629213
0.046085276 0.113826185 -0.103972696 0.04611347 -0.0700167 0.1479838 -0.07214805 0.04137434
-0.008686273 0.17873462 0.04321891 -0.08923131 -0.1966521 0.110684715 0.0045625204 0.032635253
0.10631877 0.08283221 -0.089105524 0.02819343 -0.19700915 -0.029745536 0.029549778 0.089984395
0.13260761 0.11185908 0.0041045514 0.07159555 0.07246203 -0.0005542189 -0.04989356 -0.02379705
0.026074039 -0.008894773 0.009051494 0.07278089 -0.019145131 -0.1186051 0.02868724 0.041730303
0.121447116 -0.20199734 -0.09632162 -0.08258155 0.16638061 0.026195586 -0.06127548 0.14731675
-0.15177444 0.16830125 0.028431764 -0.07073237 0.25426096 0.15272187 -0.020477878 0.0409953
-0.16922353 -0.023147112 -0.045636058 0.13698183 -0.05554042 -0.013104083 -0.08932616 0.016398354
0.17563534 -0.03639657 -0.008048957 0.06850908 0.07581367 -0.021410212 0.048930127 -0.06112035
-0.033217553 -0.12716106 -0.014697913 -0.037186496 -0.09141043 0.047916435 0.021360248 -0.010415506
-0.13843325 -0.09561705 -0.024634872 -0.03425642 -0.010457205 0.06511525 -0.21758567 -0.036858205
-0.018303018 -0.093950495 -0.15667892 0.13645445 0.01430646 0.04110202 -0.022039685 -0.010600701
0.03294621 -0.003225262 0.06771214 -0.0045086658 -0.12538733 -0.08090866 0.06112483 -0.0354888
0.043068416 -0.021850793 0.02772088 0.11687277 -0.09022719 0.019963007 0.15602559 -0.05338716
0.05298501 0.16230783 0.057717364 0.034232855 0.015940802 0.011462988 -0.028560286 -0.07689417
-0.0808918 0.049204543 -0.1135133 0.014203256 -0.008735427 -0.035366543 -0.026611041 -0.006200095
0.029164381 -0.15318885 -0.009540449 0.15604812 0.015791893 0.044277094 -0.020494463 0.04191022
0.0747478 0.1158813 -0.02060349 0.0077945846 -0.07528785 0.03976445 -0.028829876 -0.014626696
0.07660043 0.0077615553 -0.0020301857 0.08687966 0.03663112 0.08181638 -0.14485611 0.12755202
0.057348054 0.023297641 0.05055962 -0.09911048 -0.00672633 0.07791925 -0.0802407 -0.091136724
-0.036996022 0.064392686 -0.11737609 0.005740001 -0.027136575 -0.049141668 -0.006775733 0.07588754
-0.0056328904 -0.0068939608 -0.016244583 -0.13430467 0.069988795 0.019001026 -0.15577458 0.11759488
0.01884203 -0.030582782 -0.05180158 -0.06346381 -0.098717034 0.02231803 0.024720013 -0.08913202
-0.039772864 -0.091413066 -0.106085904 -0.08018346 -0.0035355217 -0.01299693 -0.017762346 0.030627616
0.110698685 -0.073850736 0.027196402 -0.11490977 0.011428253 -0.13100244 -0.022451611 0.08453086
00000000: 1584 1abe c0e1 143d d442 233e fcee 8c3e
00000010: b3aa 063e 6e2a 09bc 46ff 10bd 1c64 8abd
00000020: 1293 fd3d ff40 4fbd 6d4c e2bd 9a7a 9cbd
00000030: 214f 31bd de99 f9bc 9d46 f2bc b792 62bb
00000040: 4d06 b53c 42a9 4bbd 8ba7 8f3c c37a 083e
00000050: 6871 13bc 0770 bb3d baf2 8e3d a308 01bb
00000060: 5cf3 033e 7835 6c3d 9c8b 72bd 9ad6 2f3e
00000070: 751f 68be a009 cdbd 5e61 d13d 5620 043d
00000080: 265b 883d 8683 7abd 3e3e 17be f169 d1bd
00000090: e236 703d 6059 1f3d d899 0a3d e969 9ebb
000000a0: 9ab8 853d b557 83bd d5e6 c7bd 9500 3f3e
000000b0: 4316 373d 90a4 da3d 2ff2 033c 78ac 9cbc
000000c0: 65dc a5bd 9a80 edbd 7b67 2fbe fe5d 36be
000000d0: 01ad 65be afe5 233d b4c5 2ebe 6d2f 47bd
000000e0: eac3 3c3d b41d e93d a3ef d4bd 7ae1 3c3d
000000f0: ea64 8fbd 1189 173e 5bc2 93bd 2478 293d
00000100: df50 0ebc 3506 373e 5006 313d e8be b6bd
00000110: 2b5f 49be abae e23d 3281 953b 8bac 053d
00000120: a8bd d93d efa3 a93d f57c b6bd e8f5 e63c
00000130: c4bc 49be e9ac f3bc 6012 f23c bd49 b83d
00000140: 4aca 073e 6016 e53d 797f 863b b0a0 923d
00000150: f966 943d 0049 11ba 315d 4cbd 08f2 c2bc
00000160: 3999 d53c 62bb 11bc b84c 143c 260e 953d
00000170: 40d6 9cbc 3be7 f2bd 8101 eb3c 65ed 2a3d
00000180: 44b9 f83d 64d8 4ebe 4544 c5bd 8420 a9bd
00000190: ae5f 2a3e 2098 d63c fffb 7abd 34da 163e
000001a0: c26a 1bbe 2a57 2c3e bbe9 e83c 22dc 90bd
000001b0: 7e2e 823e 1f63 1c3e 39c1 a7bc b0ea 273d
000001c0: ef48 2dbe 039f bdbc e0ec 3abd f744 0c3e
000001d0: 5a7e 63bd 82b2 56bc a2f0 b6bd d755 863c
000001e0: c0d9 333e 9214 15bd c6df 03bc 7d4e 8c3d
000001f0: 3344 9b3d 7864 afbc f56a 483d 5559 7abd
00000200: 210f 08bd 8236 02be 84cf 70bc de50 18bd
00000210: 6435 bbbd 0644 443d b0fb ae3c cca5 2abc
00000220: 72c1 0dbe dfd2 c3bd 12cf c9bc 7650 0cbd
00000230: b254 2bbc 255b 853d c7ce 5ebe a1f8 16bd
00000240: 36f0 95bc 1e69 c0bd 7070 20be b7ba 0b3e
00000250: a465 6a3c 975a 283d 928c b4bc 90ae 2dbc
00000260: 9bf2 063d eb5e 53bb aaac 8a3d 6ebd 93bb
00000270: 8965 00be 71b3 a5bd 085e 7a3d b45c 11bd
00000280: 8268 303d 6f00 b3bc e616 e33c fe5a ef3d
00000290: 08c9 b8bd 7689 a33c 2cc5 1f3e 7fac 5abd
000002a0: cf06 593d 0634 263e 0b69 6c3d c037 0c3d
000002b0: 4996 823c 42cf 3b3c 43f7 e9bc b17a 9dbd
000002c0: 9aaa a5bd b48a 493d a979 e8bd c6b4 683c
000002d0: 091f 0fbc 82dc 10bd 66ff d9bc 2b2a cbbb
000002e0: 24ea ee3c 8add 1cbe 8b4f 1cbc 14cb 1f3e
000002f0: 005e 813c e65b 353d 01e4 a7bc 0daa 2b3d
00000300: 6015 993d 2d53 ed3d a6c8 a8bc b769 ff3b
00000310: 8430 9abd 0ce0 223d a22c ecbc cfa4 6fbc
00000320: b0e0 9c3d a554 fe3b dd0c 05bb f7ed b13d
00000330: 830a 163d 598f a73d 2955 14be ff9c 023e
00000340: cbe5 6a3d b2da be3c 9b17 4f3d 6ffa cabd
00000350: 8c68 dcbb 2194 9f3d 3c55 a4bd e4a5 babd
00000360: 2489 17bd 50e0 833d e062 f0bd 9e16 bc3b
00000370: 864d debc c648 49bd f806 debb ed6a 9b3d
00000380: 1c94 b8bb bce6 e1bb 5c13 85bc 2a87 09be
00000390: 4956 8f3d 0aa8 9b3c 5f83 1fbe 96d5 f03d
000003a0: 9a5a 9a3c be88 fabc e52d 54bd 50f9 81bd
000003b0: 282c cabd 4dd4 b63c a081 ca3c d98a b6bd
000003c0: dfe8 22bd c636 bbbd 9143 d9bd 3a37 a4bd
000003d0: 36b4 67bb 13f1 54bc 5782 91bc c4e6 fa3c
000003e0: feb5 e23d 0e3f 97bd fdca de3c d055 ebbd
000003f0: 913d 3b3c 8125 06be 71ec b7bc 841e ad3d

a2c_network.mu.bias f4 [10]
0.092782736 0.0987185 0.08085884 0.1095208 -0.011959705 -0.026425267 -0.019091187 8.686458e-06
0.05714812 0.004069984
00000000: e004 be3d ed2c ca3d 5299 a53d 714c e03d
00000010: a3f2 43bc cd79 d8bc 1f65 9cbc 0ebc 1137
00000020: 2614 6a3d 805d 853b

exp_avg f4 [10]
0.00028292715 0.00021143047 0.0003244266 0.00058726605 0.00013363124 0.0007786916 6.418747e-05 -0.0005770644
0.00022163085 -0.001104675
00000000: d755 9439 6fb3 5d39 cd17 aa39 c2f2 193a
00000010: 5d1f 0c39 1c21 4c3a 639c 8638 2346 17ba
00000020: 9465 6839 beca 90ba

exp_avg_sq f4 [10]
5.9464573e-06 5.356007e-06 5.057972e-06 5.9598724e-06 5.41012e-06 6.1163964e-06 6.6955345e-06 6.759263e-06
5.0159674e-06 5.9220815e-06
00000000: ae87 c736 c0b7 b336 a6b7 a936 eafa c736
00000010: 9488 b536 723b cd36 34aa e036 a1cd e236
00000020: d54e a836 4bb6 c636

exp_avg f4 [256, 42]
0.0005222313 -0.00017963706 0.0003239538 2.9632776e-05 -4.7405945e-05 -4.451761e-05 0.00012312528 -6.881892e-05
-0.00013739053 -0.0008430103 0.0006826245 0.00067472097 0.00020710174 -0.00015117973 0.0006113587 -0.00063893775
-1.6743577e-05 -0.00014972375 0.0006868079 0.00059942034 -0.00040797674 0.00037057998 5.5745997e-05 -2.6874872e-05
2.6529053e-05 2.8350469e-05 5.0400235e-05 -1.4733293e-05 0.00010903105 3.2304193e-05 0.000108517495 -5.7454432e-05
0.00013944146 0.00023741399 0.000569935 0.0006013233 0.0003654096 9.764034e-05 6.251401e-05 0.00052137946
0.0002597924 -0.0003971172 0.00041636432 -7.7461285e-05 0.0002411067 6.725589e-05 9.504479e-05 -1.213347e-05
0.00015060438 -9.4088726e-05 -0.0001434413 -0.00067496585 0.00052267546 0.0005160985 8.7561355e-05 -0.00018505311
0.00043940957 -0.00030334078 0.00015648968 -0.000104172395 0.0004594682 0.00046313836 0.00024482523 -5.7363693e-05
-1.0963605e-05 -7.065778e-05 -2.6605198e-06 3.8816954e-05 5.3399577e-05 -0.00011412644 3.116681e-05 2.693398e-05
9.2862145e-05 6.9746484e-08 0.00015177675 -0.0004437075 0.00015778957 0.00059102423 0.0002487396 -0.00051995413
0.0001408807 0.00033125255 -0.00036469547 0.000119703065 0.0003931562 -1.7660957e-05 0.00021756005 6.76551e-05
0.0001355359 -8.96621e-06 0.00025354655 5.918656e-07 -0.00012503917 -0.0007224126 0.00048777452 0.00049066875
8.736932e-05 -0.00020133793 0.00043039446 -0.00031668125 0.0001602607 -9.885798e-05 0.00045623173 0.00045828454
0.00034086194 -5.4697222e-05 2.7269e-06 -0.00012338102 -8.5301335e-06 5.581552e-05 8.529798e-05 -0.00014872193
2.8986311e-05 5.953366e-05 9.586393e-05 -4.5664357e-05 -5.7132856e-05 -0.0005535549 0.00016384237 0.00034223258
0.00033789725 -0.0005979574 0.00015694271 0.0005709183 -0.00030278126 -0.00010404522 -0.0001333979 -0.00011162749
-0.00024061278 -9.163049e-05 9.90086e-05 -8.838103e-05 0.00018032875 -1.0812517e-05 -2.0192756e-06 0.00030645158
-0.00019949653 -0.00019522166 -5.152513e-05 0.00014453818 -0.00019800666 -0.000108548884 5.1814404e-06 7.5358665e-05
-0.00012219873 -0.00016092326 0.00017991809 -1.5808799e-05 3.5555317e-05 -1.122915e-05 4.0603707e-05 -6.674729e-06
-4.365349e-06 4.3028973e-05 -6.885384e-07 3.792028e-05 3.4310717e-05 4.7786918e-05 0.00024431903 -0.00033705495
0.00020704814 0.00016714842 -8.5251406e-05 8.591536e-06 -0.00051941304 0.00039333495 -4.6393498e-06 0.00031519373
0.001563773 -9.007191e-05 0.0012421358 -0.00015616279 8.843541e-05 3.291374e-05 0.0005872091 0.00021480583
-1.2755138e-05 -0.003066689 0.0020622672 0.0019970506 0.00045497826 -0.0006777058 0.0016613929 -0.00096976926
0.00012389605 -0.0005293232 0.001919713 0.0019079314 0.000114684335 0.0009284041 0.0002510399 -0.00036684112
6.781233e-05 0.00014600482 0.00035019426 -8.045093e-05 0.00020333275 0.0002896705 0.00014011738 -0.000154377
0.0012174519 -0.0005232052 0.00094809034 0.0019097837 0.0015261181 -0.00021239759 0.00082212227 0.0020061296
0.0014309454 -0.00032616724 0.00081421965 -0.00012212794 0.0003998135 -0.00020005993 0.0003756057 -8.105426e-05
0.00085700507 0.00013207739 5.505829e-07 -0.0015624233 0.0010141575 0.0009880026 0.00017418768 -0.00028375676
0.0007791858 -0.00057115103 0.00020470396 -0.00030061346 0.0008978493 0.00095782883 0.0008256473 0.00035709355
0.00019615209 -0.00033626967 7.890175e-05 0.00013069475 0.00035020435 -0.00011249446 0.00017214658 0.00029124497
0.00016232884 -5.361112e-05 0.0010354184 -0.001346484 0.00093356887 0.0013260001 0.0013498871 -0.00047474718
0.0007555475 0.0020340835 0.000718123 0.00023620458 0.00028732562 0.00010923809 0.00019463875 7.052399e-05
00000000: 59e6 083a f55c 3cb9 58d8 a939 e793 f837
00000010: bfd5 46b8 6bb8 3ab8 311b 0139 e052 90b8
00000020: 7d10 10b9 77fd 5cba 28f2 323a c2df 303a
00000030: 7329 5939 0086 1eb9 9643 203a 637e 27ba
00000040: 8f74 8cb7 2aff 1cb9 e60a 343a 6b22 1d3a
00000050: b6e5 d5b9 674a c239 cfd0 6938 5971 e1b7
00000060: b58a de37 2bd2 ed37 d764 5338 032f 77b7
00000070: 99a7 e438 5d7e 0738 e393 e338 3afb 70b8
00000080: 0837 1239 55f2 7839 b167 153a 20a2 1d3a
00000090: 7294 bf39 42c4 cc38 f419 8338 2fad 083a
000000a0: bf34 8839 2b34 d0b9 794b da39 b672 a2b8
000000b0: 96d1 7c39 bb0b 8d38 c852 c738 db90 4bb7
000000c0: 8eeb 1d39 8051 c5b8 bb68 16b9 31f0 30ba
000000d0: 2804 093a c94a 073a 25a1 b738 d10a 42b9
000000e0: 8e60 e639 b609 9fb9 6117 2439 2177 dab8
000000f0: c7e4 f039 61d1 f239 e35b 8039 cc99 70b8
00000100: 53f0 37b7 1b2e 94b8 628b 32b6 63cf 2238
00000110: 5cf9 5f38 2a57 efb8 1bb9 0238 48f0 e137
00000120: fcbe c238 89c7 9533 4326 1f39 6aa1 e8b9
00000130: 5174 2539 f7ee 1a3a 4469 8239 884d 08ba
00000140: 60b9 1339 f7ab ad39 9934 bfb9 1809 fb38
00000150: 8820 ce39 9e26 94b7 d520 6439 0ee2 8d38
00000160: a41e 0e39 946d 16b7 71ee 8439 b2e0 1e35
00000170: f21c 03b9 4a60 3dba fdbb ff39 39a0 003a
00000180: 0c3a b738 3d1e 53b9 91a6 e139 3d08 a6b9
00000190: a70b 2839 f951 cfb8 6332 ef39 e945 f039
000001a0: b7b5 b239 b26a 65b8 c9ff 3636 d75f 01b9
000001b0: a51c 0fb7 751b 6a38 01e2 b238 3df2 1bb9
000001c0: a127 f337 c8b3 7938 8e0a c938 bb87 3fb8
000001d0: f0a1 6fb8 711c 11ba 1acd 2b39 ae6d b339
000001e0: cd27 b139 3ec0 1cba fd90 2439 aea9 153a
000001f0: 9dbe 9eb9 da32 dab8 bae0 0bb9 8d19 eab8
00000200: 004d 7cb9 bf29 c0b8 d6a2 cf38 3459 b9b8
00000210: a116 3d39 6867 35b7 e482 07b6 3cab a039
00000220: f12f 51b9 6ab4 4cb9 b01c 58b8 2c8f 1739
00000230: 02a0 4fb9 bda4 e3b8 3cdc ad36 e009 9e38
00000240: 7922 00b9 82bd 28b9 65a8 3c39 239d 84b7
00000250: 3b21 1538 d564 3cb7 e64d 2a38 7cf7 dfb6
00000260: 107a 92b6 027a 3438 00d4 38b5 970c 1f38
00000270: dae8 0f38 d06e 4838 f217 8039 c0b6 b0b9
00000280: 101b 5939 9044 2f39 00c9 b2b8 5e24 1037
00000290: 3829 08ba 8638 ce39 b6ab 9bb6 9640 a539
000002a0: 84f7 cc3a fde4 bcb8 29cf a23a a1bf 23b9
000002b0: 6676 b938 dc0c 0a38 f0ee 193a 803d 6139
000002c0: e7fe 55b7 81fa 48bb 1a27 073b f3e0 023b
000002d0: 268a ee39 11a8 31ba 18c3 d93a 1d38 7eba
000002e0: 18ea 0139 47c2 0aba e19e fb3a 8e13 fa3a
000002f0: af82 f038 2560 733a 019e 8339 9554 c0b9
00000300: 7836 8e38 df18 1939 479a b739 c4b7 a8b8
00000310: b835 5539 ebde 9739 79ec 1239 43e0 21b9
00000320: e892 9f3a b527 09ba 4489 783a b551 fa3a
00000330: 0708 c83a 0bb7 5eb9 b183 573a 4579 033b
00000340: 8f8e bb3a 6d01 abb9 5b71 553a 780f 00b9
00000350: 0f9e d139 2ec7 51b9 f2ec c439 adfb a9b8
00000360: a3a8 603a 417e 0a39 c5cb 1335 3aca ccba
00000370: 7bed 843a de7f 813a 26a6 3639 30c5 94b9
00000380: 4642 4c3a 4cb9 15ba cda5 5639 a89b 9db9
00000390: a65d 6b3a ce16 7b3a 4170 583a 4938 bb39
000003a0: 2dae 4d39 5a4d b0b9 0e78 a538 1b0b 0939
000003b0: a29b b739 01eb ebb8 3f82 3439 3db2 9839
000003c0: d136 2a39 80dc 60b8 e0b6 873a 817c b0ba
000003d0: bfba 743a 2ecd ad3a b2ee b03a 7de7 f8b9
000003e0: ef0f 463a 424e 053b 6b40 3c3a afad 7739
000003f0: 31a4 9639 c116 e538 f117 4c39 47e6 9338
