logs/rl_games/humanoid_flat_direct/semi_success2_diagonal/nn/last_humanoid_flat_direct_ep_350_rew_2433.5073.pth (torch, 759502 bytes, 33 tensors)

value_mean_std.running_mean f8 [1]
86.81598439934662
00000000: 5b4f a116 39b4 5540

value_mean_std.running_var f8 [1]
3009.702591521923
00000000: 3672 13ba 6783 a740

value_mean_std.count f8 []
137625601.0
00000000: 0000 0002 0068 a041

a2c_network.sigma f4 [10]
-1.0147915 -0.9593228 -0.8735429 -0.56631505 -0.022787679 -0.9757732 -0.9122831 -1.3205603
-0.73071027 -0.42196134
00000000: b0e4 81bf 2e96 75bf 82a0 5fbf 06fa 10bf
00000010: 3aad babc 46cc 79bf 638b 69bf 1f08 a9bf
00000020: d40f 3bbf 510b d8be

a2c_network.actor_mlp.0.weight f4 [256, 42]
0.05297276 0.49578744 0.25658712 -0.066194825 -0.004428018 0.39600343 0.19325034 -0.19725105
-0.39921635 -0.054162003 -0.13190484 0.12113937 -0.08715519 -0.2374176 0.1566907 0.056526076
0.03201587 -0.14228497 0.040282782 -0.033256177 0.10896514 -0.06197734 -0.16150685 -0.33739477
0.29645768 -0.1653486 -0.12406369 -0.10782952 0.20592009 0.10809055 0.12707584 -0.2690823
-0.118609965 -0.07169385 -0.12026824 0.016628763 0.034341577 0.07985763 -0.030547211 -0.094802044
0.06834719 -0.073883735 0.12615512 -0.026884347 0.15013914 -0.4497577 -0.06043728 0.32848367
0.11092284 -0.07234648 0.11053705 0.044108316 -0.07953989 -0.050703097 0.4683766 -0.09318898
-0.03924318 -0.26924413 -0.035062436 0.04932599 0.05712713 -0.03967661 0.089621805 -0.019115912
0.337681 -0.06343529 -0.33106896 -0.64791244 0.08573717 -0.034376908 0.14148016 -0.09748922
-0.15885055 0.13211623 -0.006840864 -0.1761531 -0.055390574 -0.1403845 -0.069152765 -0.1429212
0.04076687 -0.11784591 0.012055309 -0.059591573 -0.06997596 -0.07212152 0.2515358 -0.033750508
0.21377935 0.08402394 -0.19916645 0.12659061 -0.0658533 -0.1196507 -0.15334612 -0.17430955
0.21241121 -0.121862255 0.092242785 -0.2590878 0.14140938 -0.13399124 0.008512412 -0.012557869
0.15175876 0.31031436 0.3542266 -0.19845024 0.16432929 -0.16198365 0.01993409 -0.11754133
0.18994762 -0.22388309 0.13552052 0.010215351 0.029991617 -0.05076787 0.082450025 -0.0005772145
0.06336825 -0.097626515 0.041673455 -0.0064838515 -0.05292479 0.08774169 0.035764646 -0.30996612
-0.085601635 -0.16245574 0.07474865 -0.27630875 -0.04659653 -0.039943665 -0.009606757 0.014934516
0.1170535 -0.14740743 0.22949845 0.33476755 0.056593202 -0.15837632 0.14071894 0.062385395
0.0957863 -0.08331776 -0.11072294 0.081910156 0.14789484 0.13502014 0.05740737 0.16720961
-0.056844227 -0.16003616 0.0060826926 -0.015596178 0.06613341 0.0319944 -0.16288343 -0.035140373
0.10134921 0.06481149 -0.029699478 -0.06003932 -0.070044175 -0.089394525 -0.06423565 0.05243764
0.14815152 0.15789527 -0.050373368 0.17560323 0.09224425 0.18408497 0.11063964 -0.18662702
0.16320069 -0.05888287 -0.049676206 0.17060421 0.12109646 0.09762457 -0.15281801 0.1884799
0.0627708 -0.00539744 -0.062103253 -0.19439283 -0.17842558 0.21575712 0.2524562 0.29745463
0.14949094 0.08946181 0.01829246 -0.18852893 -0.1410789 -0.4519538 0.06374883 -0.05425153
-0.032286357 -0.08324565 -0.0169801 -0.06066747 -0.07647427 0.036552865 -0.026508937 0.062160783
0.022817306 -0.053598963 -0.040658515 -0.00262605 -0.012063771 -0.12886563 0.17121278 -0.20468792
0.11585787 0.06610353 0.19604759 -0.12147272 0.097244985 -0.08444685 0.097987615 0.24986462
-0.052499693 0.008875431 -0.10900768 -0.24866611 0.12354364 -0.25691566 0.050741646 0.20646968
0.2917774 0.10415219 -0.104876496 0.035593476 -0.050058097 -0.16773313 0.045651987 -0.27239665
0.021792302 -0.04652234 -0.06898479 -0.042700782 -0.11837585 0.120874576 0.107820384 -0.008448352
-0.032782543 -0.061564162 -0.09423667 -0.10814166 0.065323584 0.057579167 -0.115104415 0.14720461
00000000: f7f9 583d dad7 fd3e 635f 833e 2791 87bd
00000010: e818 91bb f6c0 ca3e 6be3 453e 2efc 49be
00000020: 1666 ccbe fad8 5dbd 1012 07be eb17 f83d
00000030: 6c7e b2bd 991d 73be 8773 203e e387 673d
00000040: 1323 033d 27b3 11be 8fff 243d a137 08bd
00000050: 1e29 df3d f4db 7dbd 0d62 25be 02bf acbe
00000060: 4dc9 973e 2551 29be 1b15 febd b9d5 dcbd
00000070: b7dc 523e 945e dd3d 2b20 023e 28c5 89be
00000080: c8e9 f2bd 3ad4 92bd 324f f6bd 0b39 883c
00000090: c1a9 0c3d 668c a33d 253e fabc 9327 c2bd
000000a0: 9df9 8b3d 5b50 97bd cf2e 013e 903c dcbc
000000b0: 13be 193e a446 e6be 158d 77bd 032f a83e
000000c0: 842b e33d 642a 94bd 4061 e23d ecaa 343d
000000d0: cfe5 a2bd 0dae 4fbd 0fcf ef3e ddd9 bebd
000000e0: 75bd 20bd 5eda 89be a19d 0fbd 0d0a 4a3d
000000f0: 23fe 693d f183 22bd a38b b73d f998 9cbc
00000100: 86e4 ac3e 5cea 81bd df81 a9be 97dd 25bf
00000110: f896 af3d cdce 0cbd 2de0 103e 6ea8 c7bd
00000120: b8a9 22be 7a49 073e 5429 e0bb 7a61 34be
00000130: 3ae1 62bd f4c0 0fbe f79f 8dbd ef59 12be
00000140: 29fb 263d 3259 f1bd a183 453c 4b16 74bd
00000150: 8e4f 8fbd 73b4 93bd 4dc9 803e f93d 0abd
00000160: f9e8 5a3e be14 ac3d 4af2 4bbe f8a0 013e
00000170: 18de 86bd 6d0b f5bd c406 1dbe 347e 32be
00000180: 5382 593e eb92 f9bd c9e9 bc3d 28a7 84be
00000190: 9fcd 103e 0035 09be a577 0b3c 85bf 4dbc
000001a0: a666 1b3e 86e1 9e3e 305d b53e 8a36 4bbe
000001b0: f045 283e 0bdf 25be d14c a33c 82b9 f0bd
000001c0: a181 423e 9c41 65be e4c5 0a3e 4a5e 273c
000001d0: fbb0 f53c f8f1 4fbd 8fdb a83d 3650 17ba
000001e0: 37c7 813d 69f0 c7bd c9b1 2a3d 7d76 d4bb
000001f0: aac7 58bd eab1 b33d f37d 123d e1b3 9ebe
00000200: e94f afbd cc5a 26be d215 993d 5778 8dbe
00000210: 01dc 3ebd f89b 23bd a965 1dbc e6af 743c
00000220: bfb9 ef3d f9f1 16be a401 6b3e a766 ab3e
00000230: 46ce 673d 672d 22be a018 103e d487 7f3d
00000240: 9c2b c43d 80a2 aabd b5c2 e2bd 83c0 a73d
00000250: bf71 173e b842 0a3e fe23 6b3d ff38 2b3e
00000260: 7ed5 68bd 85e0 23be 5351 c73b 1d87 7fbc
00000270: f470 873d 8f0c 033d eaca 26be 5aef 0fbd
00000280: 2d90 cf3d e3bb 843d 524c f3bc caeb 75bd
00000290: 5273 8fbd 7a14 b7bd fb8d 83bd dac8 563d
000002a0: 08b5 173e 4caf 213e 4e54 4ebd 55d1 333e
000002b0: 8eea bc3d c580 3c3e 0997 e23d 271b 3fbe
000002c0: 151e 273e 2a2f 71bd 4779 4bbd dfb2 2e3e
000002d0: 6c01 f83d 64ef c73d 537c 1cbe e000 413e
000002e0: fa8d 803d 02dd b0bb fb5f 7ebd ea0e 47be
000002f0: 32b5 36be 6fef 5c3e f041 813e f94b 983e
00000300: 2714 193e c137 b73d 12da 953c ba0d 41be
00000310: fd76 10be 7d66 e7be bf8e 823d da36 5ebd
00000320: b33e 04bd b27c aabd da19 8bbc 747e 78bd
00000330: 8b9e 9cbd 75b8 153d 4529 d9bc 4e9c 7e3d
00000340: 5ceb ba3c 968a 5bbd 8b89 26bd cf19 2cbb
00000350: 1fa7 45bc 5af5 03be 6752 2f3e b699 51be
00000360: e446 ed3d 4a61 873d b3c0 483e b0c6 f8bd
00000370: 6128 c73d 78f2 acbd bbad c83d 83dc 7f3e
00000380: eb09 57bd 416a 113c 6b3f dfbd 54a2 7ebe
00000390: 7304 fd3d 738a 83be 79d6 4f3d ca6c 533e
000003a0: d963 953e be4d d53d 7dc9 d6bd 77ca 113d
000003b0: b809 4dbd 3cc2 2bbe 94fd 3a3d 9377 8bbe
000003c0: c585 b23c 368e 3ebd e647 8dbd 04e7 2ebd
000003d0: 0a6f f2bd 178d f73d efd0 dc3d f56a 0abc
000003e0: fd46 06bd b42a 7cbd 28ff c0bd 6079 ddbd
000003f0: 5fc8 853d 22d8 6b3d ddbb ebbd cebc 163e

a2c_network.actor_mlp.0.bias f4 [256]
-0.01143761 0.012136619 -0.0020756365 0.005174702 0.059051167 -0.003313293 0.012362487 0.014606774
-0.027796455 0.0521433 0.027080279 -0.01795866 0.013862499 -0.0135675175 0.0070494274 0.0022832258
0.0074859415 0.04187095 -0.014073574 0.028571364 -0.06541172 -0.008765783 0.007716987 0.05638512
0.011723035 0.048499096 -0.0146698505 0.022976704 0.020606207 0.019833399 0.017160255 0.00041832152
0.056559846 -0.024586806 -0.0054369485 -0.01731841 0.02316998 0.03375813 -0.008679537 -0.002587253
0.0026919076 -0.017433975 0.05999346 -0.02881422 0.029061366 0.031903144 0.058134742 0.04218644
0.010873117 -0.03410827 -0.014335234 0.07285346 -0.024839362 -0.006305577 -0.004978813 0.0132692
0.007090985 0.023318922 -0.06323147 0.002136636 -0.04542381 -0.004891289 0.0034557104 0.0017132602
-0.010854512 0.07401197 -0.023960045 -0.009180936 -0.040306598 0.04429297 -0.0063700364 -0.020067263
-0.028178588 0.019978229 0.020249747 0.007802082 -0.032564055 -0.0043947166 -0.03486084 0.017365554
0.00030148536 -0.020423906 0.012914571 -0.019768044 0.027674908 0.019459363 -0.021432048 -0.018668601
0.013661026 -0.041854244 0.020145262 -0.013028537 0.025546035 -0.010853244 0.018833373 0.024788518
0.012738001 0.020130329 -0.026768995 0.0016729346 0.050456997 0.00010410439 0.007599275 0.048960492
0.0497145 0.037916012 0.004023704 -0.0053707 -0.049647722 -0.014488391 -0.0118234735 0.06346856
-0.0073049073 -0.011576464 -0.0013122982 0.015235501 0.0077438494 -0.003660563 0.025370969 -0.00059187796
-0.012602902 -0.050013617 -0.0059222756 0.0029670547 -0.0062394193 0.009042825 -0.024627969 -0.018524822
-0.026263647 -0.019362109 0.02747312 0.05095641 -0.022132413 -0.0002894711 0.032513965 0.0138934655
-0.024924815 -0.054984517 0.006233492 -0.022377536 0.006321923 -0.0038847008 -0.020435624 -0.024792077
-0.011901683 -0.0013284864 0.021036807 0.0153241055 0.042599063 -0.011392866 0.041666284 0.0054163965
0.017325418 -0.02631859 0.016580218 -0.02553668 0.02479109 -0.026287496 0.076507084 -0.017129596
-0.011345708 0.019535854 -0.020215841 0.027975647 -0.0013480317 0.038571317 0.0014267 0.003203533
0.019879574 0.051260408 0.0058419746 -0.03876928 -0.0066595003 0.013003679 0.004907545 0.017790189
0.036485877 0.00045793326 0.010086423 -0.024243375 0.016933559 0.003621218 -0.028133076 -0.0046033063
0.028266497 -0.026177004 -0.0015996953 0.003831352 0.002531823 0.0697458 0.0066864397 0.026335414
0.016594725 -0.029305587 0.037633196 -0.019769631 -0.020189952 -0.005790733 0.027679894 -0.012035192
0.040502045 0.008020175 0.056691505 -0.020709721 -0.0029613152 -0.023545358 -0.020056346 -0.03239283
-0.008583164 0.019701714 0.016009029 0.026737208 0.024022438 0.036178526 0.030736491 -0.01283614
0.014363331 0.011378029 -0.022711148 0.008700444 0.033354636 -0.0006267794 -0.034969807 0.058797263
0.038791697 -0.02763524 -0.012157291 0.03451328 0.06120318 -0.0035243384 0.029901646 -0.0043046502
-0.021251004 -0.08026182 0.0053287502 0.014216391 -0.0035113438 -0.007628912 -0.011664346 0.028050054
0.025991546 0.028169902 0.012378298 0.036930922 0.06345592 0.039047994 -0.024642272 -0.062404864
0.060644064 -0.02889594 -0.0009705798 -0.008378325 0.013469847 -0.016913734 0.026461707 0.013988906
00000000: d064 3bbc abd8 463c 6707 08bb 8c90 a93b
00000010: a3df 713d d523 59bb 078c 4a3c 4051 6f3c
00000020: 64b5 e3bc 3794 553d 76d7 dd3c 0a1e 93bc
00000030: 891f 633c 4b4a 5ebc e2fe e63b 2ca2 153b
00000040: a14c f53b e080 2b3d d994 66bc 7e0e ea3c
00000050: 94f6 85bd 5c9e 0fbc c7de fc3b 15f4 663d
00000060: f911 403c fda6 463d d059 70bc a439 bc3c
00000070: 59ce a83c a779 a23c aa93 8c3c 2a52 db39
00000080: 4cab 673d 456a c9bc 6e28 b2bb 57df 8dbc
00000090: f8ce bd3c f745 0a3d 9e34 0ebc e78e 29bb
000000a0: b76a 303b b2d1 8ebc b4bb 753d cd0b ecbc
000000b0: 1a12 ee3c dfac 023d b21e 6e3d b0cb 2c3d
000000c0: 2825 323c 1db5 0bbd 54de 6abc 3234 953d
000000d0: eb7b cbbc 039f cebb 5025 a3bb 0f67 593c
000000e0: 7e5b e83b 5307 bf3c 807f 81bd ce06 0c3b
000000f0: 510e 3abd 1b47 a0bb 3379 623b 798f e03a
00000100: 20d7 31bc 9693 973d db47 c4bc a36b 16bc
00000110: 8818 25bd 8c6c 353d bdbb d0bb 1a64 a4bc
00000120: c8d6 e6bc 62a9 a33c cce2 a53c 9ca8 ff3b
00000130: e361 05bd 8e01 90bb 3dca 0ebd 3542 8e3c
00000140: ae10 9e39 0950 a7bc a397 533c 98f0 a1bc
00000150: 7db6 e23c 3e69 9f3c 4392 afbc e5ee 98bc
00000160: 7fd2 5f3c 5b6f 2bbd ad07 a53c a575 55bc
00000170: eb45 d13c ced1 31bc 7248 9a3c 4a11 cb3c
00000180: 0cb3 503c 5ce8 a43c a74a dbbc 5f46 db3a
00000190: ffab 4e3d 9e52 da38 5703 f93b cc8a 483d
000001a0: 6ea1 4b3d d24d 1b3d 47d9 833b b2fc afbb
000001b0: 695b 4bbd b760 6dbc 3eb7 41bc cefb 813d
000001c0: 015e efbb 36ab 3dbc 6c01 acba 539e 793c
000001d0: 1ec0 fd3b 0ee6 6fbb c7d6 cf3c 4228 1bba
000001e0: 677c 4ebc 14db 4cbd a60f c2bb eb72 423b
000001f0: 0b74 ccbb 5b28 143c 98c0 c9bc 5ec1 97bc
00000200: dc26 d7bc 499d 9ebc 4f0f e13c abb7 503d
00000210: 094f b5bc 27c4 97b9 5d2d 053d 6ba1 633c
00000220: 202f ccbc 7237 61bd 5242 cc3b 1851 b7bc
00000230: 2228 cf3b 7796 7ebb 9c68 a7bc c118 cbbc
00000240: 47ff 42bc 9b20 aeba 6255 ac3c f511 7b3c
00000250: 5b7c 2e3d 25a9 3abc 44aa 2a3d 077c b13b
00000260: 09ee 8d3c 159a d7bc 3dd3 873c 4d32 d1bc
00000270: af16 cb3c e058 d7bc bfaf 9c3d 5e53 8cbc
00000280: 59e3 39bc a809 a03c b19b a5bc 2f2d e53c
00000290: 70b0 b0ba f5fc 1d3d 1c00 bb3a 5df2 513b
000002a0: 7dda a23c 6ff6 513d 096e bf3b 89cc 1ebd
000002b0: f037 dabb 620d 553c 79cf a03b bbbc 913c
000002c0: 3772 153d c316 f039 8641 253c 0b9a c6bc
000002d0: 3fb8 8a3c f551 6d3b 5677 e6bc 55d7 96bb
000002e0: 248f e73c 2871 d6bc deac d1ba 6c17 7b3b
000002f0: f1ec 253b e3d6 8e3d ec19 db3b 5ebd d73c
00000300: a9f1 873c 4512 f0bc 4425 1a3d ecf3 a1bc
00000310: 6665 a5bc 30c0 bdbb f2c0 e23c 412f 45bc
00000320: 79e5 253d 0d67 033c 5a35 683d 6fa7 a9bc
00000330: a012 42bb 32e2 c0bc 354d a4bc 58ae 04bd
00000340: 66a0 0cbc 7d65 a13c 5e25 833c fd07 db3c
00000350: b4ca c43c ef2f 143d 18cb fb3c ac4e 52bc
00000360: 2d54 6b3c ea6a 3a3c bb0c babc 4f8c 0e3c
00000370: df9e 083d 744e 24ba 803c 0fbd 66d5 703d
00000380: 0be4 1e3d 4d63 e2bc 602f 47bc cc5d 0d3d
00000390: 30b0 7a3d 96f8 66bb 4cf4 f43c 060e 8dbb
000003a0: 9616 aebc 4f60 a4bd cc9c ae3b deeb 683c
000003b0: 931e 66bb f4fb f9bb d01b 3fbc 3ac9 e53c
000003c0: 39ec d43c 91c4 e63c 58ce 4a3c e144 173d
000003d0: 2df5 813d caf0 1f3d 97de c9bc 3e9c 7fbd
000003e0: e965 783d 2eb7 ecbc 826e 7eba 3e45 09bc
000003f0: a2b0 5c3c ac8e 8abc 39c6 d83c b931 653c

a2c_network.actor_mlp.2.weight f4 [128, 256]
0.28270704 0.056270454 0.0049711433 -0.095889546 -0.038346324 -0.07343755 -0.10014073 0.17124051
0.009981802 0.041283946 -0.09366465 0.06964943 0.06371639 -0.054619938 -0.17088416 -0.0887252
-0.05741168 0.19635805 0.1193447 -0.090283506 -0.057330146 -0.031506497 -0.2194314 -0.04596284
0.046617776 -0.014420943 -0.09189079 0.032247838 -0.008344618 -0.18702677 -0.02973232 -0.12128663
-0.02451636 0.06877007 -0.08925487 -0.08868593 -0.12293646 -0.060505792 0.21845566 0.00394217
-0.1609154 0.05475798 0.014579109 0.011298806 -0.044760708 -0.1555698 0.11552335 -0.045738835
-0.049742505 0.021505607 -0.06039656 -0.13419685 0.16142344 0.113159515 -0.14819917 0.0119865695
-0.15962233 0.07137711 0.077196404 0.2373741 0.070571996 0.1059313 -0.07496464 -0.0503067
-0.024582298 -0.036658283 -0.019646337 0.23257805 -0.029924234 0.0073142615 -0.08168505 -0.10930432
0.0033045404 0.22568147 -0.02333702 -0.09617006 0.07073635 0.017629128 -0.010898201 0.00462533
-0.03229579 0.07324098 -0.22177574 0.03617691 0.051102728 -0.054460518 -0.0019056721 0.09124881
-0.040026702 -0.047494523 -0.09172743 0.06465285 -0.012023786 0.04807498 0.018665781 -0.21188392
-0.022545427 -0.03010371 -0.09899666 0.07758481 0.11712997 -0.028759988 0.06641754 -0.017254744
0.011712571 0.07521252 -0.050747793 -0.0649568 -0.22022001 -0.049164306 -0.023217129 0.0042874482
0.06277266 0.019640867 -0.18995264 -0.1189624 -0.21542946 -0.0377292 -0.003260633 0.040626224
-0.053556312 -0.033594318 0.2030367 0.061790496 -0.021494236 0.11726493 -0.0029224262 0.14671312
-0.043628663 0.04095821 -0.07528728 -0.023597427 0.05347547 0.0582139 -0.011800119 0.09420667
0.058231667 0.075097516 -0.098287374 -0.03499529 -0.11058206 0.0725089 0.039044574 -0.12963806
-0.04526907 -0.12657365 -0.023970816 -0.086341806 -0.15215313 -0.007941722 0.0111518875 -0.00561241
0.1531121 0.06823488 -0.07759513 -0.05499162 0.06915931 -0.059225183 0.013894925 0.016996553
0.02636891 -0.12981214 -0.035220213 -0.2024127 -0.25009528 -0.04921805 0.1429123 -0.09131385
0.04653725 -0.066689916 -0.07671874 0.043405864 0.01624723 0.29174247 -0.20821477 -0.16087648
-0.02106248 -0.014055275 0.07075461 0.07719293 -0.037601802 -0.17169955 0.1559999 0.010946917
0.016084122 0.006456971 0.07467311 0.09502687 0.070655294 -0.007331467 -0.19398893 -0.012456115
-0.26284587 -0.025033865 -0.10506525 0.014136124 -0.11333006 0.054529756 0.03982748 -0.01582681
0.008867301 -0.08078907 -0.15792888 -0.17481458 0.049885582 0.050052658 0.13218592 -0.05960993
0.16185495 -0.15040484 0.16487254 0.036221895 -0.07598746 0.019131688 -0.019362127 -0.032005146
-0.23693645 0.058230706 0.17951462 0.11423576 0.03148827 0.008839815 -0.096175425 0.055684652
0.089403704 0.056502264 -0.08602136 -0.052041914 0.02302632 0.26046363 -0.023309363 0.08859503
0.091896415 0.028633041 0.11948428 0.012530731 0.02277017 0.053034637 -0.07122252 0.11414902
-0.022785274 -0.0374983 0.251445 -0.0018251205 0.008958948 0.0141764805 -0.16996066 0.15275502
0.0700715 0.02696182 -0.17342485 0.24917732 0.03740266 0.08282565 -0.012730979 0.09833097
00000000: fabe 903e d97b 663d f9e4 a23b bd61 c4bd
00000010: 0911 1dbd 6d66 96bd 9516 cdbd ac59 2f3e
00000020: b68a 233c 5b19 293d 41d3 bfbd 5ca4 8e3d
00000030: bd7d 823d 28b9 5fbd 42fc 2ebe 8fb5 b5bd
00000040: 8328 6bbd 1612 493e fe6a f43d 8fe6 b8bd
00000050: 04d3 6abd f50c 01bd a0b2 60be 8843 3cbd
00000060: 48f2 3e3d d245 6cbc 3d31 bcbd 4f16 043d
00000070: ddb7 08bc f283 3fbe 3291 f3bc 2065 f8bd
00000080: 89d6 c8bc 53d7 8c3d 42cb b6bd f8a0 b5bd
00000090: 1cc6 fbbd ecd4 77bd d7b2 5f3e 522d 813b
000000a0: 02c7 24be e749 603d 37dd 6e3c a11e 393c
000000b0: 0157 37bd b14d 1fbe 8297 ec3d a558 3bbd
000000c0: ccbe 4bbd 872c b03c 6262 77bd e66a 09be
000000d0: 304c 253e 2dc0 e73d 86c1 17be 5163 443c
000000e0: 0974 23be 2a2e 923d 2619 9e3d 3212 733e
000000f0: 0d88 903d 82f2 d83d 1087 99bd 660e 4ebd
00000100: d160 c9bc ff26 16bd 5bf1 a0bc f128 6e3e
00000110: ab23 f5bc 79ac ef3b 7e4a a7bd f1da dfbd
00000120: fd90 583b 0b19 673e 472d bfbc cff4 c4bd
00000130: 38de 903d f66a 903c 5e8e 32bc 1590 973b
00000140: 9748 04bd 5eff 953d 2e19 63be 3d2e 143d
00000150: 1851 513d fe11 5fbd bfc7 f9ba a8e0 ba3d
00000160: 0af3 23bd 9e89 42bd 97db bbbd b768 843d
00000170: 6aff 44bc 45ea 443d fbe8 983c 19f8 58be
00000180: 30b1 b8bc 0e9c f6bc c3be cabd c9e4 9e3d
00000190: d6e1 ef3d 119a ebbc eb05 883d d259 8dbc
000001a0: 15e6 3f3c 0609 9a3d ebdc 4fbd 1208 85bd
000001b0: 5b81 61be 8360 49bd d931 bebc b97d 8c3b
000001c0: f48e 803d e2e5 a03c f282 42be 8fa2 f3bd
000001d0: 8a99 5cbe ef89 1abd 58b0 55bb af67 263d
000001e0: dd5d 5bbd 329a 09bd dae8 4f3e 0818 7d3d
000001f0: ae14 b0bc 9828 f03d 2d86 3fbb f73b 163e
00000200: f8b3 32bd ccc3 273d 3830 9abd 644f c1bc
00000210: 1809 5b3d b371 6e3d 4955 41bc 6def c03d
00000220: 5484 6e3d bacc 993d e44a c9bd 3957 0fbd
00000230: d978 e2bd 8c7f 943d 34ed 1f3d d7bf 04be
00000240: 0f6c 39bd 869c 01be 725e c4bc f9d3 b0bd
00000250: 08ce 1bbe ff1d 02bc 68b6 363c 4fe8 b7bb
00000260: 6bc9 1c3e bbbe 8b3d 32ea 9ebd e53e 61bd
00000270: 65a3 8d3d 1b96 72bd 8aa7 633c 5b3c 8b3c
00000280: 9d03 d83c 79ed 04be 1243 10bd 4645 4fbe
00000290: 7d0c 80be de98 49bd 9a57 123e c102 bbbd
000002a0: d89d 3e3d b994 88bd b71e 9dbd 59ca 313d
000002b0: e918 853c 455f 953e 4136 55be cebc 24be
000002c0: 398b acbc 1948 66bc cbe7 903d 5417 9e3d
000002d0: 5904 1abd 02d2 2fbe 70be 1f3e b35a 333c
000002e0: d9c2 833c 0095 d33b 37ee 983d 739d c23d
000002f0: b9b3 903d cd3c f0bb 09a5 46be bc14 4cbc
00000300: bc93 86be d213 cdbc 732c d7bd 349b 673c
00000310: 9719 e8bd 985a 5f3d 2422 233d 3aa7 81bc
00000320: 2848 113c bd74 a5bd 1cb8 21be 9802 33be
00000330: d354 4c3d 0404 4d3d bf5b 073e 8b29 74bd
00000340: 4ebd 253e ba03 1abe 59d4 283e 695d 143d
00000350: 509f 9bbd 0fba 9c3c 539d 9ebc d417 03bd
00000360: 789f 72be 5283 6e3d aed2 373e 70f4 e93d
00000370: d8f9 003d dfd4 103c 9ff7 c4bd 9715 643d
00000380: 4a19 b73d eb6e 673d f72b b0bd e729 55bd
00000390: b1a1 bc3c 7d5b 853e 47f3 bebc 5071 b53d
000003a0: 3034 bc3d d78f ea3c 2db4 f43d b24d 4d3c
000003b0: 8288 ba3c d93a 593d 1ddd 91bd f6c6 e93d
000003c0: 2fa8 babc d197 19bd 66bd 803e e238 efba
000003d0: 8dc8 123c 7844 683c 2b0a 2ebe d06b 1c3e
000003e0: a681 8f3d 09df dc3c 4996 31be 5728 7f3e
000003f0: 8833 193d 7fa0 a93d 9995 50bc bf61 c93d

a2c_network.actor_mlp.2.bias f4 [128]
-0.051606108 -0.03357862 -0.07620684 -0.09049988 -0.020687481 -0.07208836 -0.034810785 -0.04155226
-0.05931208 -0.0002389923 -0.033515174 -0.09896853 -0.054452665 0.0017357493 -0.039823633 0.011364796
-0.021551557 -0.044360306 -0.029102316 0.019864712 0.025359232 -0.054488387 0.031228505 0.048029143
0.018689321 0.031142207 0.045865193 0.054871242 -0.024322718 -0.04931603 0.019838836 0.014765375
-0.03720546 0.020210544 0.008642573 -0.07162941 -0.017149366 0.0089380015 0.08167203 0.050609075
0.026574608 -0.034029305 -0.023071384 -0.04951633 0.0064552496 -0.016175557 0.0015605057 -0.02667519
-0.055593207 -0.021375345 -0.009363216 -0.039827067 -0.029777853 0.030998101 -0.007225291 0.017035265
0.0019040944 0.010290245 0.019087635 0.04708216 0.0012532694 -0.0071835476 -0.084662735 -0.01792206
-0.0015451175 -0.057476442 0.01638001 -0.029182333 0.01169002 -0.032142337 -0.026883211 4.0815925e-05
0.0014321828 -0.02420245 0.0021516215 -0.010157008 -0.061586484 0.04108526 -0.06496386 0.023956472
-0.035730973 -0.020187862 -0.052218687 0.04957688 -0.044293053 -0.018023485 0.0012822901 -0.03041549
0.018548457 -0.04133839 0.008512046 0.0077583552 -0.019382749 -0.0301665 -0.111895 0.0067011253
-0.0040902267 -0.043120082 -0.026404891 -0.0047693807 -0.029113192 0.049387358 0.009411491 0.005994656
-0.008148552 -0.022524435 -0.028907767 -0.051450375 -0.011756286 0.0025103632 -0.02201788 -0.039118458
-0.07032246 0.01990226 0.07473125 0.005013908 -0.009552088 -0.041682422 -0.034681827 -0.029206516
-0.045893736 -0.08309735 -0.054205332 6.401551e-05 0.032089237 -0.058607604 -0.043566767 -0.030627294
00000000: ed60 53bd bc89 09bd 5512 9cbd 0058 b9bd
00000010: cb78 a9bc 10a3 93bd c195 0ebd b432 2abd
00000020: 39f1 72bd 029a 7ab9 3547 09bd 03b0 cabd
00000030: c209 5fbd 1582 e33a 1b1e 23bd 6933 3a3c
00000040: e48c b0bc 27b3 35bd fb67 eebc 52bb a23c
00000050: 2abe cf3c 372f 5fbd ecd2 ff3c 35ba 443d
00000060: 591a 993c f11d ff3c 24dd 3b3d abc0 603d
00000070: 7040 c7bc 9bff 49bd 0e85 a23c 79ea 713c
00000080: c164 18bd 9590 a53c 9499 0d3c 71b2 92bd
00000090: d47c 8cbc b270 123c aa43 a73d 764b 4f3d
000000a0: feb2 d93c 5062 0bbd 3300 bdbc a3d1 4abd
000000b0: 8f86 d33b 9a82 84bc e289 cc3a ee85 dabc
000000c0: b4b5 63bd 591b afbc 2d68 19bc b521 23bd
000000d0: aff0 f3bc bbef fd3c 22c2 ecbb 8a8d 8b3c
000000e0: ce92 f93a 6a98 283c ac5d 9c3c 39d9 403d
000000f0: be44 a43a f763 ebbb a863 adbd 49d1 92bc
00000100: 8a85 caba 6b6c 6bbd 5f2f 863c ca0f efbc
00000110: 7f87 3f3c afa7 03bd 2e3a dcbc c431 2b38
00000120: 15b8 bb3a 3744 c6bc 3802 0d3b 9469 26bc
00000130: 1c42 7cbd 0549 283d c60b 85bd 5d40 c43c
00000140: a45a 12bd 0461 a5bc 43e3 55bd 2011 4b3d
00000150: a26c 35bd fda5 93bc 8412 a83a e829 f9bc
00000160: eff2 973c 7252 29bd 1c76 0b3c cd39 fe3b
00000170: 92c8 9ebc bc1f f7bc 3529 e5bd 1d95 db3b
00000180: 4f07 86bb af9e 30bd 124f d8bc 7748 9cbb
00000190: ca7e eebc 664a 4a3d a832 1a3c d26e c43b
000001a0: 8181 05bc 2a85 b8bc fbcf ecbc a1bd 52bd
000001b0: 709d 40bc e884 243b d75e b4bc ad3a 20bd
000001c0: 3905 90bd 100a a33c b30c 993d b54b a43b
000001d0: 5c80 1cbc 30bb 2abd 880e 0ebd 8142 efbc
000001e0: 12fb 3bbd f22e aabd 6906 5ebd 1140 8638
000001f0: 0170 033d 870e 70bd 1173 32bd 17e6 fabc

a2c_network.actor_mlp.4.weight f4 [128, 128]
0.047530618 -0.13295938 -0.06259482 -0.22519831 -0.14092948 -0.110395774 -0.015250547 -0.10739963
0.0012501767 -0.010880524 0.03434259 -0.08673558 0.059672076 0.009278833 0.05627062 -0.20772703
0.012795209 0.13240425 0.106653996 -0.09255452 -0.03674063 0.032836214 0.04377849 -0.065446794
0.09973307 -0.03593501 -0.037328277 0.09067199 -0.0032946656 -0.023470335 -0.036809914 -0.10031979
-0.029312035 -0.09016946 0.05051969 -0.022622105 0.001790998 0.05892716 -0.09501617 0.01937581
-0.098612525 0.013662389 -0.07536539 0.012685324 -0.022481864 -0.035154138 0.05782718 -0.06748652
0.06796295 -0.16108818 -0.02178233 0.03504707 0.03866665 -0.024599664 0.058738466 -0.09491135
0.01791766 -0.08756955 -0.13557471 -0.037750334 -0.28686953 0.03574556 0.061314125 0.003850769
-0.018284665 0.11723047 -0.07128268 -0.09667436 -0.072544016 -0.103370644 0.0948848 -0.054478567
0.025488138 0.08674212 -0.14284916 -0.10124327 0.09304623 -0.09772607 0.0115292575 0.09274786
-0.00784448 -0.01621495 0.056449022 0.017885989 0.04144157 0.042847797 -0.06621797 -0.10144125
-0.05422322 0.010086595 0.03450262 -0.18216287 0.052384295 -0.12125146 0.060262688 0.027946426
-0.06717847 0.08932312 -0.066441655 -0.038781885 -0.010536336 -0.11218221 0.02525407 0.117051154
0.06281724 0.030546123 -0.10473179 -0.0036008533 -0.016101776 0.09643924 -0.101019144 -0.11073058
0.09098973 0.0014442868 -0.07722314 0.055660557 0.05215686 0.076130226 -0.015794959 -0.04892695
-0.013761661 -0.13909213 -0.1008542 0.03179644 -0.012240721 -0.040909145 0.07223373 0.026469676
-0.073708355 0.019590031 0.09011564 0.08833666 -0.027139718 0.059251994 0.029964749 -0.05330548
0.17482603 -0.18482038 0.120267086 -0.010095083 0.15479167 -0.21516648 -0.076944955 0.026942015
0.016910171 -0.053656183 -0.010037742 -0.05153889 -0.0027739694 0.023844598 -0.058233198 -0.062540285
-0.087920375 -0.06008921 -0.106017515 0.024358384 -0.03154557 -0.008949015 0.102659464 -0.040940512
-0.019684859 -0.003364606 0.17515752 -0.08671176 0.022465812 -0.009256206 -0.018449206 -0.009221167
-0.004825095 -0.0103020435 -0.0116784135 0.04449707 -0.065781556 0.0036828716 0.083991446 -0.1484021
0.028798312 0.06293852 -0.023848781 -0.039064802 0.06482046 0.088183016 0.015311172 -0.0067065447
0.016625622 0.05910374 0.13842534 0.034982678 0.017412089 0.012561744 0.0121683 -0.030065276
-0.05495183 0.15195712 0.14027104 0.06337214 -0.039049514 -0.05213207 0.052140083 0.044140656
0.016716542 -0.065408945 0.09815208 0.06473537 0.07303898 0.13296607 -0.10602956 0.078534976
0.015906828 -0.01426024 -0.09372665 -0.052924506 0.012780412 0.081661865 -0.05794325 -0.05075482
0.105895385 -0.05510998 0.093070045 -0.046453774 -0.104919404 -0.011857934 -0.050819255 -0.0022733086
-0.08623434 -0.124921925 -0.07952832 0.13184027 -0.1172192 -0.020823399 0.075756066 -0.09437442
-0.032037947 0.1539219 0.08669634 0.05595799 0.0035945775 -0.080240786 0.08158453 0.07098994
0.11879264 0.034304246 0.05278029 0.04606275 0.0024725848 0.013840345 -0.082131736 -0.06480853
-0.06240151 -0.036975615 -0.074353434 0.12744369 -0.095667474 -0.08487409 0.0045568594 -0.12548687
00000000: 77af 423d 8126 08be b731 80bd 639a 66be
00000010: d14f 10be 2e17 e2bd 6edd 79bc 56f4 dbbd
00000020: f8dc a33a 3a44 32bc d1aa 0c3d 6ca2 b1bd
00000030: b56a 743d 3f06 183c 067c 663d 65b6 54be
00000040: ffa2 513c fb94 073e 696d da3d 398d bdbd
00000050: 587d 16bd 447f 063d 1351 333d f808 86bd
00000060: da40 cc3d 9730 13bd 89e5 18bd 3cb2 b93d
00000070: 51eb 57bb dc44 c0bc fec5 16bd 7674 cdbd
00000080: cb1f f0bc c4aa b8bd bced 4e3d fe51 b9bc
00000090: ecbf ea3a 9b5d 713d d697 c2bd 05ba 9e3c
000000a0: 5df5 c9bd 36d8 5f3c 2b59 9abd 1bd6 4f3c
000000b0: e32b b8bc c9fd 0fbd 31dc 6c3d 5f36 8abd
000000c0: 2930 8b3d 4df4 24be db70 b2bc 848d 0f3d
000000d0: ec60 1e3d 3c85 c9bc bf97 703d e260 c2bd
000000e0: 0ec8 923c aa57 b3bd 19d4 0abe 18a0 1abd
000000f0: 90e0 92be f069 123d 8524 7b3d 2f5d 7c3b
00000100: b9c9 95bc 8716 f03d a7fc 91bd 35fd c5bd
00000110: f591 94bd fdb3 d3bd f652 c23d eb24 5fbd
00000120: 80cc d03c daa5 b13d 0d47 12be a258 cfbd
00000130: 068f be3d 9b24 c8bd 36e5 3c3c 97f2 bd3d
00000140: 2286 00bc 37d5 84bc 1737 673d a385 923c
00000150: a3be 293d 2c81 2f3d 499d 87bd 6ec0 cfbd
00000160: 2b19 5ebd 3f42 253c 9f52 0d3d e788 3abe
00000170: ea90 563d af52 f8bd 02d6 763d e7ef e43c
00000180: de94 89bd 0aef b63d 9012 88bd c1d9 1ebd
00000190: 99a0 2cbc c9bf e5bd a0e1 ce3c 84b8 ef3d
000001a0: 53a6 803d dd3b fa3c 9f7d d6bd 4bfc 6bbb
000001b0: dfe7 83bc f081 c53d 20e3 cebd b7c6 e2bd
000001c0: d358 ba3d 394e bd3a 2a27 9ebd 53fc 633d
000001d0: 6ea2 553d 2aea 9b3d 6e64 81bc a067 48bd
000001e0: 9778 61bc 2b6e 0ebe a68c cebd fc3c 023d
000001f0: 4e8d 48bc 5990 27bd 47ef 933d efd6 d83c
00000200: 68f4 96bd 467b a03c 8c8e b83d dae9 b43d
00000210: 1d54 debc 38b2 723d a278 f53c d956 5abd
00000220: 9805 333e 8e41 3dbe 974e f63d d965 25bc
00000230: b581 1e3e 9a54 5cbe 5195 9dbd 80b5 dc3c
00000240: 3387 8a3c 96c6 5bbd 5775 24bc 711a 53bd
00000250: 7ccb 35bb bf55 c33c ef85 6ebd 1f15 80bd
00000260: 990f b4bd 1a20 76bd b61f d9bd 3c8b c73c
00000270: ed35 01bd e49e 12bc 203f d23d 3db1 27bd
00000280: 2442 a1bc b980 5cbb 7e5c 333e ef95 b1bd
00000290: 390a b83c 58a7 17bc ca22 97bc 6114 17bc
000002a0: d51b 9ebb e7c9 28bc d156 3fbc 8f42 363d
000002b0: 7bb8 86bd 555c 713b b503 ac3d b8f6 17be
000002c0: 70ea eb3c e9e5 803d 855e c3bc 6a02 20bd
000002d0: 97c0 843d 4c99 b43d b6db 7a3c 93c2 dbbb
000002e0: 7532 883c c316 723d 5fbf 0d3e ff49 0f3d
000002f0: cca3 8e3c c6cf 4d3c 8d5d 473c 744b f6bc
00000300: 2c15 61bd a69a 1b3e 36a3 0f3e 41c9 813d
00000310: 62f2 1fbd 7088 55bd d790 553d d5cc 343d
00000320: 21f1 883c 20f5 85bd f503 c93d fa93 843d
00000330: 7695 953d 4228 083e 0726 d9bd f2d6 a03d
00000340: 094f 823c c8a3 69bc c2f3 bfbd 5ec7 58bd
00000350: ef64 513c 563e a73d e755 6dbd 49e4 4fbd
00000360: aedf d83d 01bb 61bd 829b be3d 5046 3ebd
00000370: fcdf d6bd c847 42bc da27 50bd cafb 14bb
00000380: a19b b0bd 11d7 ffbd bedf a2bd 2301 073e
00000390: 9f10 f0bd d595 aabc ff25 9b3d 6047 c1bd
000003a0: 393a 03bd b49d 1d3e da8d b13d 3534 653d
000003b0: 0193 6b3b 4855 a4bd ca15 a73d 2c63 913d
000003c0: 8e49 f33d 9c82 0c3d 2530 583d 4bac 3c3d
000003d0: 170b 223b 9dc2 623c af34 a8bd 56ba 84bd
000003e0: ba98 7fbd be73 17bd 9d46 98bd 9980 023e
000003f0: 4fed c3bd 78d2 adbd b551 953b a17f 00be

a2c_network.actor_mlp.4.bias f4 [128]
-0.05089019 -0.024279384 0.014737412 -0.0644163 -0.041510146 -0.065262206 -0.02030945 0.013945269
-0.008362105 -0.032865405 -0.09428321 -0.0070938016 -0.025882013 -0.0020887123 -0.08247713 -0.052697364
0.062780894 -0.00087955885 -0.053686976 0.06753151 -0.07432662 -0.050447557 -0.0043319995 0.036922555
-0.040677812 -0.043153472 -0.016587699 -0.036268722 0.052736957 -0.124039 0.07150893 0.008708674
-0.016941044 -0.015739545 -0.04493891 -0.033723403 -0.015749762 0.031955976 -0.03115592 -0.04617075
-0.0062962957 -0.027595794 -0.011017794 0.010770679 -0.065979965 -0.07732173 -0.051836655 -0.06160488
0.0011490043 -0.002672376 -0.018440874 0.005936464 0.010100345 0.044852704 -0.03659268 0.076714575
-0.022538884 0.014613391 -0.024213998 0.057439018 -0.022206891 0.07176111 0.005150729 -0.069371134
0.0149249295 0.09321445 -0.032346763 -0.005807099 -0.0071370816 0.008518551 -0.10545844 0.02518963
-0.031610515 -0.024946528 0.04768751 -0.018041084 -0.0138214575 -0.0023370686 -0.04277407 -0.020556638
0.002104114 -0.053730503 0.0003277708 -0.06095565 0.07208561 -0.015798688 -0.06965552 -0.06239827
-0.07050817 0.014417614 0.07614401 -0.07057541 0.042138137 0.017036423 -0.022959473 -0.07328087
-0.05899557 0.021948304 -0.058984376 -0.05105044 -0.12441606 -0.024069684 -0.032398358 0.1103413
-0.069544196 -0.015189899 -0.05838984 -0.13075167 -0.026041659 0.030327871 -0.026270282 0.031043649
0.037179403 -0.076577745 -0.026143046 -0.048061542 -0.044074632 -0.025285605 -0.04316217 -0.038770743
0.0038489676 -0.04674871 0.043895617 -0.0740785 0.0537892 -0.08779105 -0.02147645 -0.007957618
00000000: 3b72 50bd 8fe5 c6bc 3075 713c b1ec 83bd
00000010: 8b06 2abd 31a8 85bd 0160 a6bc b37a 643c
00000020: 3601 09bc e09d 06bd 8e17 c1bd 1f73 e8bb
00000030: 8406 d4bc c7e2 08bb c5e9 a8bd 31d9 57bd
00000040: 4593 803d 3292 66ba e0e6 5bbd f64d 8a3d
00000050: 8e38 98bd 19a2 4ebd 72f3 8dbb 1b3c 173d
00000060: c79d 26bd b2c1 30bd ede2 87bc 838e 14bd
00000070: b502 583d 2908 febd 4673 923d d4ae 0e3c
00000080: f2c7 8abc 38f0 80bc dd11 38bd 8d21 0abd
00000090: a505 81bc 45e4 023d b33a ffbc 8a1d 3dbd
000000a0: 2851 cebb 9310 e2bc fa83 34bc 8177 303c
000000b0: 8120 87bd db5a 9ebd ac52 54bd 6655 7cbd
000000c0: 309a 963a 0823 2fbb 5111 97bc ab86 c23b
000000d0: eb7b 253c 78b7 373d 35e2 15bd 881c 9d3d
000000e0: 77a3 b8bc 016d 6f3c 6f5c c6bc 2d45 6b3d
000000f0: 3aeb b5bc 7df7 923d 72c7 a83b 7412 8ebd
00000100: b187 743c 38e7 be3d 0a7e 04bd 7a49 bebb
00000110: 2ede e9bb 6491 0b3c 98fa d7bd 7c5a ce3c
00000120: 077a 01bd a95c ccbc fa53 433d e5ca 93bc
00000130: 6573 62bc 8129 19bb dd33 2fbd 6566 a8bc
00000140: 2de5 093b 8414 5cbd a7d8 ab39 a2ac 79bd
00000150: 9fa1 933d 406c 81bc 8ea7 8ebd 5495 7fbd
00000160: 9666 90bd db37 6c3c 64f1 9b3d d789 90bd
00000170: 0a99 2c3d f88f 8b3c 8115 bcbc 4814 96bd
00000180: 57a5 71bd eecc b33c 9a99 71bd 441a 51bd
00000190: d9cd febd c92d c5bc 24b4 04bd 9ffa e13d
000001a0: 306d 8ebd 0edf 78bc 2f2a 6fbd c4e3 05be
000001b0: 5155 d5bc 2872 f83c c634 d7bc 404f fe3c
000001c0: 6e49 183d cbd4 9cbd f129 d6bc 2edc 44bd
000001d0: 9a87 34bd c223 cfbc d1ca 30bd 12ce 1ebd
000001e0: f63e 7c3b 937b 3fbd e4cb 333d 78b6 97bd
000001f0: 1052 5c3d cbcb b3bd 61ef afbc ab60 02bc

a2c_network.value.weight f4 [1, 128]
0.06167604 -0.015333135 -0.013032553 -0.0103784725 0.003327244 -0.028094277 -0.0062151626 -0.011363996
-0.058926065 0.15585671 -0.018551886 0.02556869 -0.0053905346 -0.1662904 -0.017457813 0.03741125
0.22964963 0.03730333 0.07531771 -0.02523746 -0.012613248 -0.056676786 0.024062952 -0.18385915
0.02676535 -0.049810354 -0.03598677 -0.023328919 -0.029113874 0.00038290623 0.047367077 0.0063060867
0.032465484 0.14379701 -0.028474629 0.011904184 0.12412335 0.026024789 -0.023218656 0.018827084
0.033148125 0.044643193 0.062230892 -0.011244286 0.07509383 -0.025217926 0.04136291 -0.005543731
0.0054415367 0.06576497 0.08491315 0.13074134 0.088495456 0.2154789 0.08046725 -0.019616852
0.027833875 -0.026615947 0.0041539515 -0.026914706 0.03560848 -0.014152086 -0.038941775 -0.020462496
-0.07769306 0.00959386 0.08396641 0.0020097138 0.042884372 0.04642185 -0.18738775 0.025741003
0.027722908 0.07986546 0.033188455 0.007898802 -0.009335325 0.08472695 0.036357332 -0.017980779
0.027514804 -0.10888232 0.075713485 -0.09350874 -0.046815503 -0.0125619965 -0.042680517 -0.022806445
0.0026769605 -0.1705636 -0.032474477 -0.067889936 0.21905145 -0.055043556 0.07491134 0.0032258995
-0.022133412 -0.00943419 0.015427837 -0.061437793 0.09027004 0.07378745 0.008265134 -0.07941281
-0.028585758 -0.2219668 -0.0015731364 0.018437555 0.00551521 0.0012353067 0.046938293 0.09462426
0.0049228747 -0.06536255 0.18991977 0.018202491 -0.03344232 -0.08107297 -0.067064576 0.15010148
0.0067329383 -0.018919287 0.052081835 -0.017313648 0.094885424 0.10739882 0.006978911 0.40531072
00000000: 04a0 7c3d d437 7bbc 7d86 55bc 780a 2abc
00000010: e40d 5a3b f825 e6bc 90a8 cbbb 0e30 3abc
00000020: 755c 71bd e798 1f3e 20fa 97bc 6e75 d13c
00000030: 15a3 b0bb 0848 2abe b003 8fbc 8a3c 193d
00000040: 4629 6b3e 60cb 183d 2c40 9a3d cabe cebc
00000050: cca7 4ebc eb25 68bd ab1f c53c 9345 3cbe
00000060: 0243 db3c f105 4cbd dd66 13bd 4a1c bfbc
00000070: 3880 eebc cec0 c839 fb03 423d 4aa3 ce3b
00000080: 87fa 043d 863f 133e a043 e9bc c409 433c
00000090: 6234 fe3d f031 d53c 0d35 bebc 423b 9a3c
000000a0: 54c6 073d c8db 363d d2e5 7e3d f439 38bc
000000b0: cbca 993d d395 cebc 286c 293d 30a8 b5bb
000000c0: eb4e b23b c9af 863d f2e6 ad3d 0fe1 053e
000000d0: 1b3d b53d 80a6 5c3e 03cc a43d 85b3 a0bc
000000e0: de03 e43c b009 dabc df1d 883b 3b7c dcbc
000000f0: 33da 113d 27de 67bc 6981 1fbd f7a0 a7bc
00000100: 8a1d 9fbd 912f 1d3c 95f6 ab3d 67b5 033b
00000110: 86a7 2f3d d624 3e3d 93e2 3fbe ccde d23c
00000120: 271b e33c 8190 a33d 9ef0 073d fa69 013c
00000130: 31f3 18bc 5385 ad3d 6deb 143d 6d4c 93bc
00000140: ba66 e13c b2fd debd ac0f 9b3d 8381 bfbd
00000150: 9dc1 3fbd d5d0 4dbc c4d1 2ebd 95d4 babc
00000160: f26f 2f3b 39a8 2ebe f503 05bd e109 8bbd
00000170: 064f 603e 5a75 61bd 1e6b 993d 9d69 533b
00000180: 2151 b5bc dc91 1abc 0ac5 7c3c 32a6 7bbd
00000190: 80df b83d e01d 973d 7c6a 073c 2fa3 a2bd
000001a0: ae2c eabc 444b 63be b331 ceba 5b0a 973c
000001b0: efb8 b43b 04ea a13a 5e42 403d 5dca c13d
000001c0: 1150 a13b cddc 85bd 547a 423e 641d 953c
000001d0: d0fa 08bd 9609 a6bd 2759 89bd 34b4 193e
000001e0: fb9f dc3b 9ffc 9abc c353 553d 5ad5 8dbc
000001f0: 4a53 c23d eaf3 db3d 59af e43b e384 cf3e

a2c_network.mu.weight f4 [10, 128]
-0.09719124 0.047840297 0.12850554 0.12714878 0.032348514 -0.12852617 0.017692832 0.0032633548
0.029216835 -0.07541809 -0.13252664 -0.044456325 -0.0773232 0.047693174 0.2506858 -0.06457254
0.1312049 0.048562128 0.12882425 -0.078118004 -0.2202612 0.0014965032 0.064680494 0.093196
-0.035653003 -0.062263153 -0.114051856 0.00020809332 0.006948513 0.006323764 -0.0010642476 0.024187313
-0.060134932 0.098213986 -0.0039921277 0.057175655 0.003593245 0.14621232 -0.08714241 -0.03903584
0.10171199 -0.03513171 0.01581291 -0.14872451 0.029357027 0.0317857 0.07716136 0.06653017
0.10718835 0.012941886 -0.10011364 -0.02307071 -0.08403137 0.14637375 -0.061999217 0.019125955
-0.009310149 0.035125643 -0.025014002 0.08362949 -0.005900045 0.21890233 -0.09976676 0.08558001
-0.040622767 -0.029288158 0.046737924 -0.0051092706 -0.11994788 0.11306084 0.048423592 0.15833704
-0.17573503 0.05839113 -0.10025744 0.066122524 -0.043005936 0.007070988 0.13902722 0.012066994
0.06513004 -0.004725029 -0.073281266 0.07890595 0.08615355 -0.074818194 -0.17438486 -0.054912418
0.032563627 0.014763421 -0.12500836 -0.079931915 -0.029224131 0.05043248 0.07692302 0.060316555
0.13171935 -0.26890782 -0.14829415 -0.061473176 -0.0033156588 -0.041776795 -0.077265896 0.12038277
-0.074499615 0.00194421 -0.01629665 0.11769618 0.12959144 -0.070091404 0.11917549 0.07139535
0.04567374 0.1828368 -0.050886817 -0.033582356 0.32327893 0.064140014 0.028435338 0.056081768
0.032831207 -0.10427454 0.0056893723 0.203257 0.11530142 -0.0012765762 0.04740186 -0.062449932
-0.027044946 -0.045238547 -0.000508579 -0.07741414 -0.07383846 0.067623004 0.0013518707 0.027127357
-0.09677109 -0.0145940455 -0.18026623 -0.114633635 0.041702986 -0.06501224 0.032460973 -0.12210553
0.010163133 0.00043756596 0.028725157 0.0119604645 -0.030126704 0.052382823 0.11667407 0.07485793
-0.061838903 -0.088023655 -0.013533311 0.034792393 0.06433649 -0.0003391369 -0.026986131 0.031406686
0.0851379 -0.037618745 0.094927706 0.018161712 -0.13569684 0.06282195 -0.04254099 -0.061059237
-0.18433595 0.1299088 0.098813534 -0.22121237 0.075666524 0.0016800712 0.034773964 -0.0407055
0.050908267 0.115973435 -0.06639295 0.0012308849 -0.018927919 -0.023491913 0.059156507 0.09893522
0.027349627 -0.11354221 0.05892344 0.045357004 -0.024739934 0.047149666 0.08903893 0.11921756
0.094114095 0.0945261 -0.09131484 0.027324734 -0.016809143 0.103616156 0.023555959 0.073450945
-0.06553295 -0.15819898 -0.09867956 0.014470317 0.20177096 0.10513138 -0.0629064 0.10976617
0.037935987 0.124564506 0.017156037 -0.018231357 -0.17026523 -0.07795453 -0.10345396 -0.24084194
-0.08474771 0.037242856 -0.11232314 -0.0066456175 -0.055166133 0.09826556 0.104449585 0.095837906
-0.0187687 0.05562743 0.03341791 -0.1058784 -0.030494062 0.008600579 -0.046450738 0.028220324
0.083411634 -0.08311799 0.01576212 -0.10501953 -0.034092207 0.12501858 -0.0040039727 0.0030438483
0.0100628445 -0.07423216 -0.059496026 -0.12865046 -0.07447197 0.052789766 -0.085929975 0.040397283
0.08815192 -0.030074881 0.033535697 -0.02991366 0.060345475 -0.07909297 -0.06186084 0.014801159
00000000: 330c c7bd 30f4 433d f596 033e 4a33 023e
00000010: e07f 043d 5d9c 03be 8ff0 903c 02de 553b
00000020: 2558 ef3c cd74 9abd 10b5 07be d617 36bd
00000030: a05b 9ebd eb59 433d e459 803e 9c3e 84bd
00000040: 945a 063e 15e9 463d 81ea 033e 55fc 9fbd
00000050: 278c 61be 5126 c43a 3577 843d 8bdd be3d
00000060: e208 12bd a607 7fbd 0594 e9bd a033 5a39
00000070: 5ab0 e33b 9437 cf3b 397e 8bba 7924 c63c
00000080: 0c50 76bd 6a24 c93d 65d0 82bb 0531 6a3d
00000090: a67c 6b3b afb8 153e b877 b2bd 0ce4 1fbd
000000a0: 604e d03d 45e6 0fbd 138a 813c 3d4b 18be
000000b0: 267e f03c b931 023d c606 9e3d f840 883d
000000c0: 9185 db3d 340a 543c 6108 cdbd c9fe bcbc
000000d0: a418 acbd 00e3 153e e4f2 7dbd 09ae 9c3c
000000e0: 9889 18bc e8df 0f3d 2aea ccbc f045 ab3d
000000f0: 2a55 c1bb ef27 603e 8452 ccbd 9344 af3d
00000100: 0f64 26bd b8ed efbc 4470 3f3d ab6b a7bb
00000110: 3ca7 f5bd 718c e73d d157 463d 1b23 223e
00000120: e2f3 33be 8a2b 6f3d c653 cdbd 3f6b 873d
00000130: fe26 30bd bfb3 e73b 275d 0e3e a4b4 453c
00000140: e662 853d 6bd4 9abb 7d14 96bd 7199 a13d
00000150: 4671 b03d 483a 99bd f291 32be d8eb 60bd
00000160: 7061 053d 47e2 713c 3102 00be 58b3 a3bd
00000170: 7267 efbc 4a92 4e3d d189 9d3d 7e0e 773d
00000180: 70e1 063e 49ae 89be 6cda 17be 4ccb 7bbd
00000190: 864b 59bb 251e 2bbd 953d 9ebd 3e8b f63d
000001a0: 4193 98bd ddd4 fe3a 8d80 85bc b20a f13d
000001b0: 9eb3 043e 158c 8fbd 4812 f43d ba37 923d
000001c0: 6314 3b3d 9239 3b3e b26e 50bd a78d 09bd
000001d0: d184 a53e d75b 833d 3af1 e83c ffb5 653d
000001e0: 047a 063d e48d d5bd ea6d ba3b 9a22 503e
000001f0: 2723 ec3d ca52 a7ba 7428 423d 80cb 7fbd
00000200: 5d8d ddbc 0e4c 39bd 2952 05ba 4e8b 9ebd
00000210: 9e38 97bd ee7d 8a3d 4131 b13a 313a de3c
00000220: ec2f c6bd dd1b 6fbc b697 38be 0ac5 eabd
00000230: c0d0 2a3d 2325 85bd ccf5 043d 7712 fabd
00000240: 4583 263c 1c69 e539 0551 eb3c d3f5 433c
00000250: 47cc f6bc 5f8f 563d d1f2 ee3d 1d4f 993d
00000260: ca4a 7dbd bf45 b4bd d2ba 5dbc 7882 0e3d
00000270: dac2 833d 2fce b1b9 0512 ddbc 4ca4 003d
00000280: c85c ae3d 1d16 1abd 7569 c23d dfc7 943c
00000290: 1df4 0abe cba8 803d 763f 2ebd 4019 7abd
000002a0: 90c2 3cbe d006 053e c05e ca3d 7f85 62be
000002b0: 0df7 9a3d d635 dc3a 256f 0e3d cfba 26bd
000002c0: 3085 503d 7b83 ed3d 07f9 87bd a555 a13a
000002d0: b90e 9bbc 1d72 c0bc 184e 723d 8c9e ca3d
000002e0: 530c e03c d188 e8bd b459 713d 44c8 393d
000002f0: 67ab cabc 0220 413d 0b5a b63d 5628 f43d
00000300: e4be c03d e696 c13d 4603 bbbd 1fd8 df3c
00000310: 54b3 89bc b534 d43d 6df8 c03c 736d 963d
00000320: 2436 86bd eafe 21be 8218 cabd e914 6d3c
00000330: 0c9d 4e3e 1f4f d73d 12d5 80bd 16cd e03d
00000340: c462 1b3d ad1b ff3d d18a 8c3c ed59 95bc
00000350: 025a 2ebe a0a6 9fbd abdf d3bd 459f 76be
00000360: 3590 adbd f78b 183d ad09 e6bd 7bc3 d9bb
00000370: e2f5 61bd 743f c93d aae9 d53d aa46 c43d
00000380: d1c0 99bc 97d9 633d 38e1 083d c6d6 d8bd
00000390: afce f9bc 71e9 0c3c 2143 3ebd 4f2e e73c
000003a0: b8d3 aa3d c439 aabd 901f 813c 7b14 d7bd
000003b0: 45a4 0bbd df04 003e c233 83bb 4d7b 473b
000003c0: a1de 243c 0807 98bd 1bb2 73bd f2bc 03be
000003d0: c384 98bd 153a 583d 0efc afbd 9f77 253d
000003e0: fe88 b43d 995f f6bc ba5c 093d 7e0d f5bc
000003f0: d12c 773d 7ffb a1bd cb61 7dbd 8f80 723c

a2c_network.mu.bias f4 [10]
0.10619668 0.1379421 0.03151218 0.07214055 -0.11896171 -0.09186146 0.02173612 -0.025876017
-0.012076023 0.1451195
00000000: a57d d93d b240 0d3e ea12 013d 6dbe 933d
00000010: 32a2 f3bd dc21 bcbd f30f b23c f1f9 d3bc
00000020: 83da 45bc 359a 143e

exp_avg f4 [10]
0.00033298085 0.0007361783 -0.0016243287 -0.00063286314 -0.0009367031 -0.00042740253 -0.0004416303 0.00019153915
-0.00048324806 -0.0006518923
00000000: ef93 ae39 17fc 403a 6de7 d4ba bae6 25ba
00000010: 158d 75ba ff14 e0b9 9e8a e7b9 e6d7 4839
00000020: 755c fdb9 c0e3 2aba

exp_avg_sq f4 [10]
2.0728849e-05 2.263009e-05 2.244959e-05 2.0942825e-05 2.054605e-05 2.0661379e-05 1.9560342e-05 2.0448346e-05
2.02756e-05 2.2741451e-05
00000000: dde2 ad37 c0d5 bd37 2152 bc37 60ae af37
00000010: 4e5a ac37 f951 ad37 8415 a437 7d88 ab37
00000020: 8515 aa37 e5c4 be37

exp_avg f4 [256, 42]
0.00063939166 1.7122682e-05 0.0007875136 -0.00021395339 5.824557e-05 8.3614206e-05 -0.00027006463 -0.0003467126
-1.039189e-05 -0.0011688586 0.0008240622 0.00064716296 0.00030546336 8.7573666e-05 0.00052045414 -0.0003263845
-0.00032758145 0.00039155423 0.00054118293 0.00062487286 -8.130511e-05 7.86805e-05 3.2744018e-05 -8.4074054e-07
8.643376e-06 5.8617607e-05 1.0540759e-05 -3.876368e-05 -0.00022845794 0.00016692633 2.3180894e-05 -0.0005187851
-0.0002335277 0.00043545937 -3.1782183e-06 8.895613e-05 -0.0002955521 -0.00052506593 -0.0012062944 -1.6023972e-05
-0.0003117175 -0.0005576692 0.00073424866 -0.00022108796 0.0007896465 0.00022184016 -6.2135485e-05 1.30999115e-05
0.00015806357 -0.0006327981 -0.00015411575 -0.0014189917 0.00096882664 0.00067376223 0.00031665654 0.00028509204
0.0003521131 -0.00052062335 -0.00076541357 0.00031150802 0.0003479575 0.00070487085 0.0004046278 0.00010048145
-2.9468025e-05 5.3725875e-05 -1.7554024e-05 2.6574433e-05 -0.00013059413 -1.274455e-05 2.6168216e-05 -0.00015849897
-1.5693889e-06 0.0004178421 0.00035327385 -0.00058701285 4.655038e-05 0.0006397286 -0.00072581664 -0.00017597026
0.0004220105 -0.00028345012 -0.00017894177 0.00092568033 -0.000110659916 -0.0003542369 -7.7861034e-05 0.0002769597
-0.0001729295 -0.0004264549 0.00061773346 0.00036152272 -0.00031328178 0.00079429056 -0.00012812827 -0.00011487756
0.00015993885 0.000248166 -0.00010422057 7.575768e-05 -3.7220074e-05 -6.0572573e-05 -0.00052691245 -0.00010257066
0.00038470587 -0.000368275 7.940528e-05 -9.381702e-05 0.000160766 0.00027526414 -0.00059777335 -0.0004410939
-0.00014735416 -0.00026178933 0.00048157971 0.00050615385 0.0013057862 -0.0016101726 0.0011330489 0.0010709848
-0.0022669996 -0.0018127398 -0.0002458956 -0.0011158539 -0.00022427745 0.0013368885 -0.00069745554 -9.890403e-05
-0.00054559275 0.00014951223 -0.00013000755 -0.00017238378 0.00023650182 0.0004661538 -7.873838e-06 0.0014971176
-0.0009153811 -0.00074644486 -0.00017782747 -3.149306e-05 -0.00047106738 0.0004262868 0.00045581348 -0.00027484057
-0.0008056195 -0.00066632405 4.410173e-06 -0.00029899552 7.859581e-05 7.449252e-05 8.0188714e-05 8.1767e-05
-8.0311824e-05 -0.00011912608 0.0001656791 -8.853747e-05 7.4405005e-05 0.0007208351 0.0008545341 -0.00021020837
0.00025479804 0.00023822258 -0.00020891137 -0.00036325943 0.00081118784 -0.0003661662 -0.00036429655 0.00051770615
2.7556207e-05 0.0001456842 0.00018187985 0.00010150068 2.3810066e-05 0.0002305876 -7.10944e-05 -0.00091990945
0.00013807506 -0.0009273182 5.9344435e-05 -0.0003219866 -4.7319977e-06 -0.00017524234 -5.703379e-05 0.00010478665
-0.00047906407 3.9446513e-05 0.00019174926 -1.0644348e-05 -0.00036102853 0.00014467735 -4.042964e-05 -3.63661e-05
-0.00011793897 -0.00013572608 0.00020709148 0.00020389912 0.00030890177 5.2899744e-05 -0.00018522298 -3.0010444e-05
0.0002376696 0.00031249493 -0.0007136444 -0.00047662514 0.0007325266 0.00051000837 0.00065048283 0.0008599639
0.00046686822 -0.0008442545 -0.0003659392 -9.671004e-05 -7.8331235e-05 0.00039193805 -0.00012073639 3.2911146e-06
0.00044377364 8.048445e-05 -0.00017974024 0.0008404146 -0.0004801808 -0.00048549424 3.895021e-05 9.3715134e-05
-0.0005157974 0.00023044762 -1.0296238e-05 1.3695325e-06 -0.00057604077 -0.00037056344 3.2184522e-05 -8.499143e-05
3.937143e-05 4.8649406e-05 4.6813737e-05 -2.7133396e-07 0.000106503125 1.9306519e-05 0.0004901752 -0.00020254952
5.1346946e-05 0.0007591036 0.0013139999 -0.0003936617 0.00015585862 0.00016546127 0.00010670357 7.478315e-05
0.0015394145 -0.00020102263 -3.5632158e-05 0.00021456805 -0.0009088996 0.00021554691 -0.00082776934 -1.5495669e-05
00000000: d99c 273a aea2 8f37 2571 4e3a ad58 60b9
00000010: b44c 7438 095a af38 7697 8db9 fac6 b5b9
00000020: d458 2eb7 6334 99ba e105 583a 5fa6 293a
00000030: 9926 a039 c1a7 b738 166f 083a 961e abb9
00000040: 3dbf abb9 8549 cd39 2cde 0d3a 82ce 233a
00000050: 5982 aab8 4601 a538 9f56 0938 40af 61b5
00000060: 0403 1137 2ddc 7538 37d8 3037 2f96 22b8
00000070: 368e 6fb9 f208 2f39 9774 c237 14ff 07ba
00000080: 1ddf 74b9 5e4e e439 6049 55b6 f58d ba38
00000090: 55f4 9ab9 94a4 09ba 861c 9eba 386b 86b7
000000a0: 046e a3b9 8c30 12ba 987a 403a d9d3 67b9
000000b0: 4800 4f3a c49d 6839 bc4e 82b8 b1c7 5b37
000000c0: debd 2539 5de2 25ba 229a 21b9 76fd b9ba
000000d0: dbf8 7d3a 6b9f 303a ec04 a639 6878 9539
000000e0: d29b b839 717a 08ba 09a6 48ba e651 a339
000000f0: 116e b639 15c7 383a 3924 d439 91b9 d238
00000100: 1a32 f7b7 b857 6138 fb40 93b7 29ec de37
00000110: 18f0 08b9 6dd1 55b7 d183 db37 be32 26b9
00000120: cba3 d2b5 d111 db39 9d37 b939 c4e1 19ba
00000130: 173f 4338 76b3 273a bb44 3eba a884 38b9
00000140: 4a41 dd39 089c 94b9 51a2 3bb9 5ba9 723a
00000150: 1712 e8b8 dfb8 b9b9 5349 a3b8 e734 9139
00000160: 6954 35b9 cf95 dfb9 64ef 213a c28a bd39
00000170: f83f a4b9 f037 503a 2c5a 06b9 6cea f0b8
00000180: 42b5 2739 471c 8239 fe90 dab8 18e0 9e38
00000190: c01c 1cb8 4e0f 7eb8 7f20 0aba 341b d7b8
000001a0: 59b2 c939 0915 c1b9 6386 a638 a1bf c4b8
000001b0: 4b93 2839 5451 9039 e4b3 1cba 9f42 e7b9
000001c0: 1583 1ab9 c540 89b9 897c fc39 69af 043a
000001d0: ea26 ab3a 6d0c d3ba d082 943a 4960 8c3a
000001e0: f191 14bb 7499 edba 8ceb 80b9 d841 92ba
000001f0: 052c 6bb9 893a af3a 73d5 36ba b26a cfb8
00000200: 1c06 0fba 62c6 1c39 a352 08b9 ebc1 34b9
00000210: 79fd 7739 1b66 f439 e019 04b7 ee3a c43a
00000220: 30f6 6fba 11ad 43ba 3377 3ab9 6a17 04b8
00000230: 98f9 f6b9 3f7f df39 40fa ee39 7a18 90b9
00000240: 3630 53ba 40ac 2eba 19fb 9336 80c2 9cb9
00000250: ced3 a438 de38 9c38 fd2a a838 537a ab38
00000260: 156d a8b8 54d3 f9b8 25ba 2d39 31ad b9b8
00000270: e209 9c38 6df6 3c3a d002 603a 616b 5cb9
00000280: 6a96 8539 63cb 7939 380f 5bb9 db73 beb9
00000290: e5a5 543a fff9 bfb9 0eff beb9 acb6 073a
000002a0: 8128 e737 cec2 1839 00b7 3e39 c3dc d438
000002b0: babb c737 e3c9 7139 8418 95b8 1426 71ba
000002c0: 3ec8 1039 4517 73ba 9ae8 7838 4fd0 a8b9
000002d0: 8dc7 9eb6 42c1 37b9 9137 6fb8 e8c0 db38
000002e0: e42a fbb9 5f73 2538 4d10 4939 2095 32b7
000002f0: 6e48 bdb9 88b4 1739 ff92 29b8 cd87 18b8
00000300: 0156 f7b8 b151 0eb9 b226 5939 c1cd 5539
00000310: 18f4 a139 abe0 5d38 6a38 42b9 f0be fbb7
00000320: f336 7939 5cd6 a339 dd13 3bba 8be3 f9b9
00000330: 0707 403a 15b2 053a 2a85 2a3a 336f 613a
00000340: fec5 f439 f650 5dba 87db bfb9 cfd0 cab8
00000350: c345 a4b8 097d cd39 db33 fdb8 ebdc 5c36
00000360: 4aaa e839 c3c9 a838 a778 3cb9 454f 5c3a
00000370: c7c0 fbb9 ef89 feb9 785e 2338 ee88 c438
00000380: 9436 07ba 50a4 7139 01be 2cb7 c7d0 b735
00000390: 7101 17ba 2f48 c2b9 defd 0638 6d3d b2b8
000003a0: c022 2538 e70c 4c38 de59 4438 dbab 91b4
000003b0: 6e5a df38 6ff4 a137 1a7f 003a 7963 54b9
000003c0: 5d5d 5738 95fe 463a 853a ac3a 6164 ceb9
000003d0: fb6d 2339 ac7f 2d39 0bc6 df38 e6d4 9c38
000003e0: 2ec6 c93a 9ac9 52b9 bd73 15b8 acfd 6039
000003f0: 3843 6eba 6f04 6239 a9fe 58ba b2fc 81b7
