logs/rl_games/humanoid_flat_direct/2025-11-18_10-44-09/nn/humanoid_flat_direct.pth (torch, 757728 bytes, 33 tensors)

value_mean_std.running_mean f8 [1]
000000 e4 4a 62 70 a5 95 4f 40
       63.169111297602086

value_mean_std.running_var f8 [1]
000000 55 63 38 13 4b d9 8c 40
       923.1616577534975

value_mean_std.count f8 []
000000 00 00 00 02 00 2c a6 41
       185991169.0

a2c_network.sigma f4 [10]
000000 3d 6d 95 bf 38 09 6f bf ca b7 99 bf 46 52 48 bf
       -1.1673962 -0.9337344 -1.2009213 -0.7825054
000010 5e 86 67 bf dd 65 1b bf 04 42 d6 bf 2f 30 e7 bf
       -0.90439403 -0.60702306 -1.6738896 -1.806158
000020 92 7c 25 bf 84 e7 1b bf
       -0.64643204 -0.6090014

a2c_network.actor_mlp.0.weight f4 [256, 42]
000000 11 0c 66 3d 1a 39 95 3e 49 27 8a 3e c5 ad f3 3d
       0.05616385 0.29145128 0.26983097 0.11898378
000010 d1 95 46 3d e7 79 27 bc 9c ea e7 3d 33 83 7e be
       0.04848272 -0.010221935 0.11324045 -0.24854736
000020 e7 52 a0 be a8 b6 68 bd 03 d0 0e be e9 ca c7 3d
       -0.3131325 -0.05681482 -0.13946538 0.09755499
000030 e5 1c ae bd 55 bc 2e bd 1a 9a 59 3d cc 82 dc 3c
       -0.08501605 -0.042660076 0.05312548 0.026917838
000040 f8 b8 dc 3d 17 23 d5 bd 96 1c cb 3c 18 3e 61 bd
       0.107774675 -0.104070835 0.024793904 -0.054990858
000050 6f cd f9 3d 38 0c b5 b9 18 b6 76 be 2c d5 2d be
       0.121973865 -0.00034532114 -0.24092901 -0.1697585
000060 0e 46 a6 3e fd 3c cb 3d d3 80 0b be 20 bc 90 be
       0.32475322 0.09923742 -0.13623361 -0.28268528
000070 5c aa 4c 3e 66 b8 6b 3e ac e0 6e 3d 8a 20 59 be
       0.19986862 0.23019561 0.058319733 -0.21203819
000080 5f 37 f4 bd 95 b7 b8 bd 95 ac ab bd c2 95 80 3d
       -0.11924624 -0.090193905 -0.08382527 0.06278564
000090 28 b4 36 3d 96 4f 94 3d 03 a7 6d bd 25 b5 8e bd
       0.044605404 0.07241742 -0.058020603 -0.06968144
0000a0 22 ce 1c 3d 2b 01 81 bd b8 cc af 3d 55 09 5a bd
       0.03828252 -0.06299051 0.08583969 -0.053231556
0000b0 99 3a 6f 3e 0c cf 5f be 2c 59 51 bd 30 f0 b2 3e
       0.23362197 -0.21856326 -0.05111043 0.34948874
0000c0 21 3e 96 bb 0b 6a 86 3d f8 61 c4 3d a7 42 ca 3d
       -0.004585043 0.06563195 0.095889986 0.09875994
0000d0 b1 b5 03 be e8 7d ac bd 2f c1 a1 3e d1 01 1a bd
       -0.12862279 -0.08422452 0.315927 -0.03759939
0000e0 15 25 e4 bd 0c 41 17 be 1f 14 71 bd d6 c8 7f 3c
       -0.11139885 -0.14770907 -0.05885708 0.015611848
0000f0 11 2f 3e bd ca a7 15 be 30 14 f4 3c bd cb 3a bd
       -0.046431605 -0.14614788 0.029794782 -0.045604456
000100 29 47 05 3d 32 f8 c5 3c 82 67 9c be 30 a8 e0 be
       0.032538567 0.0241662 -0.3054772 -0.43878317
000110 41 49 30 3e cc 66 26 3e b9 49 ac bd c3 5f b1 be
       0.17215444 0.16250151 -0.08412499 -0.34643373
000120 37 10 2a bd 55 6a 72 3c 57 ce 14 3c a5 f9 08 be
       -0.04151937 0.014795859 0.009082398 -0.13376482
000130 f1 e4 2e bd 38 94 2e bd 32 c7 6a bd 5a 9c 4d bd
       -0.042698804 -0.04262182 -0.057318874 -0.050197937
000140 e7 32 3b bc aa 9f 01 be ac 19 0f bd 1c 6a 36 bd
       -0.01142571 -0.12658563 -0.034936592 -0.044534788
000150 70 c4 79 bd 31 63 5a be a3 a1 99 3e 93 75 87 bc
       -0.060978353 -0.21326901 0.30006132 -0.016535556
000160 22 74 50 3e cc 3d e2 3d 59 5c c8 be bf 72 9d 3d
       0.20356801 0.11046943 -0.39132956 0.07687902
000170 f3 be 35 bd 6d e1 25 bd c8 e8 10 be a0 4d 23 be
       -0.044371556 -0.040498186 -0.14151299 -0.1594758
000180 37 92 9c 3c 18 9e 6b bd 68 99 e6 3c ab fe fa bd
       0.01911269 -0.057523817 0.028149322 -0.12255605
000190 2e fe 17 3e 22 15 a1 bd fe fa ed bc d0 10 f9 bc
       0.14843056 -0.07865359 -0.029050346 -0.030403525
0001a0 16 a6 ae 3d af 8c a2 3e 63 20 9d 3d f0 aa 53 be
       0.08527772 0.31747958 0.07672193 -0.20670676
0001b0 63 ed 5a 3d 4c 26 d7 bd 48 7f 37 bd 21 c1 10 be
       0.053449046 -0.105053514 -0.04479912 -0.14136173
0001c0 79 ab cc 3d 83 3c a5 be 03 9e 10 3e 3a 6f 05 3e
       0.09993643 -0.3227273 0.14122777 0.13030711
0001d0 58 cd 4b 3c c9 d6 60 bd ed 5f 06 3e 9c 15 bf 3c
       0.0124390945 -0.054892335 0.1312253 0.023325734
0001e0 2f cf 52 3d d4 81 dd bd 44 89 9c 3d d2 c9 4c bd
       0.051467117 -0.108157784 0.07643369 -0.04999716
0001f0 b4 88 6a bd 80 ce ee 3d 33 24 83 3c 15 eb 8c be
       -0.057259277 0.116604805 0.016008472 -0.27523103
000200 e4 a0 1f 3d 9e 6c 45 bd 43 72 67 3d 36 41 47 3d
       0.038971797 -0.04819929 0.056505453 0.048646174
000210 13 20 63 be f3 a7 21 3d c3 59 13 be 83 73 9f 3d
       -0.22180204 0.03946681 -0.1438971 0.07785704
000220 9a e4 ab 3d 44 c1 29 be 5b 5f 2e 3e 6c fa 36 3e
       0.08393212 -0.16577631 0.17028563 0.17868966
000230 3d 6b 43 3b 14 e4 47 bd 7e 76 81 3d 93 82 c1 3d
       0.0029818558 -0.048801497 0.06321429 0.09448733
000240 11 36 52 3d 7c 3a ec bd 9b f4 d3 bd de de b3 3c
       0.051321093 -0.115345925 -0.10349389 0.021956857
000250 86 9e ff 3d 40 4b 8f 3d 75 ee 92 3c 92 39 a7 bd
       0.12481408 0.06996775 0.01793597 -0.081652775
000260 01 19 8f bd 4f 11 bc bc 10 6f 91 bc 77 ea 3e be
       -0.06987191 -0.022957472 -0.017753154 -0.18644129
000270 2f 0d 56 3d ca 8f b9 3d f2 f1 1b be 1b b5 33 bd
       0.052258667 0.09060629 -0.15229014 -0.043873888
000280 8f fd d2 3d 50 ad a7 3d ba a2 63 bc b9 34 c3 bd
       0.10302269 0.081873536 -0.0138937775 -0.095315404
000290 be 62 ba bd 23 cb d8 bd 60 0a 57 bc bf b7 75 3c
       -0.09100865 -0.1058562 -0.013125032 0.014997422
0002a0 c4 5b fe 3d 9b e1 09 3e 73 70 56 bc cb 18 fb bc
       0.12419847 0.13464968 -0.013088333 -0.03065147
0002b0 3d c4 a3 3c d1 61 68 3e 4f 6e ac 3d 03 ba 74 3c
       0.019991035 0.22693564 0.08419477 0.014936927
0002c0 6b 53 56 3d 07 27 bc bd 8a 87 9f bd 5f 6d 1d 3e
       0.052325647 -0.091871314 -0.07789524 0.15373753
0002d0 f5 58 4b 3c 7c 30 e7 3d 03 11 02 be 44 6c c7 3d
       0.012411346 0.112885445 -0.12701802 0.09737447
0002e0 4f a7 ef 3d a5 de 37 3c 4e 3d 85 bd 4a 87 64 be
       0.117018335 0.011222516 -0.065058336 -0.22317234
0002f0 68 a7 b0 bd 0e f1 8b 3e 59 9a 54 3e 9d 44 94 3e
       -0.0862568 0.27332348 0.20762004 0.28958598
000300 69 18 91 3c 5f e2 aa bd 68 d0 ff 3c 43 7a 09 be
       0.017711835 -0.08343958 0.031227306 -0.13425545
000310 04 9f 91 be 54 77 ef be ed a1 36 3e 23 7b 43 bc
       -0.28441632 -0.46770728 0.17835207 -0.011931214
000320 e8 b3 9c bc d9 8e 9d bd a1 2d c8 bc 18 c0 98 bd
       -0.019128755 -0.07693262 -0.02443582 -0.07458514
000330 5f a3 dd bd 4f a6 bf 3c ed 25 eb bc 12 52 c6 3d
       -0.10822176 0.023394732 -0.028704608 0.096836224
000340 4e c9 98 bc ff 45 99 bd d2 69 37 bd 7a 58 a8 bd
       -0.018650677 -0.07484054 -0.044778652 -0.082200006
000350 13 df 98 3c 08 c9 dd bd 5f be 51 3e 00 35 0e be
       0.018661058 -0.10829359 0.20482777 -0.13887405
000360 50 69 35 bd 25 a5 f0 3c 60 64 fb 3d de 5f cc bd
       -0.044289887 0.029375622 0.122750044 -0.09979223
000370 eb b3 b6 3d 3e ea 8f bd 87 35 bd 3d ae 4a 61 3e
       0.089210354 -0.070271 0.09238725 0.22001144
000380 fa 9a 6a bd 6c 8a f5 3c 0d 9a 61 3c 0c 7a ba bd
       -0.057276703 0.029973231 0.013769639 -0.0910531
000390 76 90 e2 3d 0b a2 97 be 9f 54 a7 3d 58 1d 84 3e
       0.1106271 -0.29615816 0.08170437 0.25803638
0003a0 cd c7 6c 3e 2a 7f 58 3d a2 05 f9 bd 04 21 9d 3c
       0.23123093 0.052855648 -0.121592775 0.019180782
0003b0 46 14 4c 3d 18 d0 ac bd 83 c1 fd bc c5 8f e2 be
       0.04982402 -0.08438128 -0.030976063 -0.44250312
0003c0 cb c6 be 3b 87 30 c2 3c e4 60 7b bd 49 e2 95 bd
       0.005822038 0.02370478 -0.0613717 -0.07318551
0003d0 90 b7 02 be 6d e9 17 3e 64 a1 da 3d 51 73 bc 3c
       -0.12765336 0.14835139 0.10675314 0.023004206
0003e0 3f 4c da bb d7 70 d4 bd 1f 4e ce bd 43 e5 b0 bd
       -0.0066619213 -0.10373085 -0.10073494 -0.08637478
0003f0 dd 66 24 3d b1 6a f1 bd 23 d6 7f 3c 7e 63 7a bd
       0.04013716 -0.11787928 0.015615019 -0.06113004

a2c_network.actor_mlp.0.bias f4 [256]
000000 b7 be 75 bc bf 49 bb 3b 6b 24 3b bc 32 40 53 bc
       -0.014999083 0.0057155783 -0.011422257 -0.012893723
000010 ce 01 ed 3c 50 49 4f bc e1 b6 96 bc 82 75 71 3c
       0.028931525 -0.012651756 -0.01839775 0.014737489
000020 9d 85 c1 bc 8a 29 48 3d 28 62 78 3c 46 4a 80 bc
       -0.023623282 0.04886774 0.015160121 -0.015660416
000030 a1 92 9f 3c fb b1 bb bc e1 36 d4 bb 00 6f 30 bb
       0.019479098 -0.022912016 -0.0064762686 -0.002692163
000040 da 0a 06 3d d5 a6 14 3c 22 fc 04 3c a7 c6 c1 3c
       0.032725193 0.009072979 0.008116754 0.023654295
000050 a7 69 67 bd 1b c5 23 bd 06 d6 54 bb d1 2b fd 3c
       -0.056497242 -0.039982896 -0.00324762 0.030904682
000060 4b 30 c7 bc ee 9a 4d 3d 52 7b b2 3b 1a c9 e7 3b
       -0.02431502 0.05019658 0.00544683 0.0070735337
000070 d0 ea 00 3d eb ad 04 bc 56 30 b9 3b b6 95 45 ba
       0.031473935 -0.008098106 0.005651514 -0.0007537262
000080 39 b9 79 3d 2f 79 ee 3b 3e c4 0c bc 6c 11 a2 bb
       0.060967658 0.00727763 -0.00859171 -0.0049459245
000090 dd 24 2e 3c c6 ac 78 3a f7 05 f8 3c 28 35 31 bc
       0.010628906 0.00094861945 0.030276282 -0.010815896
0000a0 fb 8d ab 3b 6f c4 b9 bc 21 10 22 3c 83 77 02 bd
       0.0052354313 -0.022676675 0.009891541 -0.031852257
0000b0 d3 2e 00 ba 8d 7e 7c bb c7 59 21 3d f3 80 1a 3d
       -0.000488979 -0.0038527579 0.03939226 0.03772063
0000c0 3b 6d 15 bc c1 60 c8 ba cd 2d e7 bc 51 c4 d6 3c
       -0.009120281 -0.0015287624 -0.028220082 0.026216658
0000d0 51 97 d0 bc 03 ad 01 bc da a4 36 bd b4 6d d4 bc
       -0.025462778 -0.007914784 -0.04459081 -0.025931217
0000e0 47 33 b1 3c ee 3a 3d 3c 11 cb db bb 11 b0 e8 3c
       0.021630896 0.011549694 -0.006707557 0.028404268
0000f0 85 22 01 bd aa a6 b7 bc 86 1e 9f bb dc ae 83 bc
       -0.03152706 -0.022418339 -0.0048559336 -0.01607459
000100 95 52 a0 bc 7b ac e7 3c 4e 01 91 bc 64 9e 2d ba
       -0.019570628 0.028280487 -0.017700817 -0.00066230283
000110 2a a8 8d bc db e6 9d 3c 2e c3 f6 bb 9e 54 2b 3c
       -0.017292101 0.01927512 -0.0075305915 0.010457186
000120 b6 bf e1 bc 9a fa 02 3d 7e 0f 32 bc 4d d6 bc ba
       -0.027557235 0.031977274 -0.010867951 -0.0014407128
000130 55 61 06 bc 0d 61 31 bc 26 28 37 bd 5c 80 bd 3c
       -0.008201917 -0.010826361 -0.044716023 0.023132496
000140 e2 bd 0e 3b 2d a0 9f bc 2a 70 07 bc bd cb 52 3b
       0.002178066 -0.019485557 -0.008266488 0.0032164895
000150 5d d1 fd 3b 37 13 44 bc 63 f2 cb bb de 0d 06 bd
       0.0077459053 -0.011967472 -0.006223963 -0.03272807
000160 ab 58 07 3d c7 40 2f bd 9a b0 4b bb 53 3a f4 bc
       0.033043545 -0.042786386 -0.0031080605 -0.029812967
000170 6f 65 07 3d e4 34 be bc 94 18 dd 3b 96 22 33 3c
       0.03305572 -0.02321858 0.0067473147 0.010933539
000180 1c 70 ef 3c 84 cb 25 3c b0 eb ca bc c1 94 55 ba
       0.029228263 0.010119323 -0.024770588 -0.0008147471
000190 89 ee 61 3d 93 9d 83 3b 27 52 8f 3c 36 fa e5 3c
       0.055159125 0.004016587 0.017495228 0.028073411
0001a0 5b 93 6c 3c d9 40 a5 bb 15 db 09 3d 10 55 75 bc
       0.014439429 -0.005043131 0.0336562 -0.014973894
0001b0 bd ec 09 bd 98 02 08 bd 42 f6 b8 3c 9f c0 01 3c
       -0.033673037 -0.0332056 0.022578362 0.00791946
0001c0 12 de 3a bc b2 74 d5 bc d0 1d b2 bc 72 32 2b 3b
       -0.011405485 -0.026056621 -0.021742731 0.0026122597
0001d0 f5 1c 37 3c ea e1 0a bd 22 22 bc 3c 35 bc d2 3b
       0.0111763375 -0.033906855 0.022965495 0.0064311274
0001e0 5e 96 1b bd 8b 30 82 bd 17 05 29 3d 92 7b e0 3a
       -0.0379852 -0.06356915 0.04126462 0.001712667
0001f0 49 60 49 bb ea 19 44 bc c6 37 fb bb 6b f9 70 3c
       -0.0030727556 -0.011969069 -0.007666561 0.014707903
000200 f5 12 a2 bc ff 8f 18 bd 3d 63 d3 3b 2c 2c 03 3d
       -0.01978443 -0.0372467 0.006451039 0.032024547
000210 a8 22 f5 bc 1d ff 89 3c 7c 48 fc 3c 06 2d 12 3c
       -0.029923752 0.01684528 0.030796282 0.008921867
000220 d2 10 ae ba 22 1d 64 bd 13 5b d7 bc 7e e9 a8 bc
       -0.0013280159 -0.055691846 -0.026288545 -0.02061915
000230 8a 97 83 3c c8 09 b6 bb 82 b4 37 bd 33 61 7d bc
       0.01606347 -0.0055553652 -0.04484988 -0.015465069
000240 88 16 14 bd 5e 84 d3 3b 22 8a 94 bc 6e fd e2 bb
       -0.0361543 0.0064549884 -0.018132273 -0.006927184
000250 8f 84 a7 3c ec d1 1a bd ad b8 eb 3c dd 08 dd 3c
       0.020448951 -0.037797853 0.028774584 0.026981765
000260 de 58 d4 3b cb d0 14 bc ff 40 5c bc d2 d3 9e bc
       0.0064803204 -0.009082983 -0.013443231 -0.019388113
000270 1c 4a 67 bb 9a 6b f9 bc df 20 86 3d 1f 99 67 3c
       -0.0035291975 -0.030446816 0.065492384 0.014135628
000280 87 37 95 bc bd 29 8e 3c d1 71 30 bd 5c a1 c9 3c
       -0.018214954 0.017353887 -0.043077294 0.024613075
000290 f6 cf aa bc ef b8 52 3c b3 ec 28 bc 5d 52 d9 bc
       -0.020851117 0.012861474 -0.01031034 -0.026528532
0002a0 03 5c 32 3c 49 0f 10 3d d6 8f 08 bd 6a f3 40 bd
       0.010886195 0.035170827 -0.033340298 -0.047107138
0002b0 79 73 18 3b f1 9d 24 3c f7 b6 c8 3a 4b f3 8c 3c
       0.0023262186 0.010047422 0.0015313317 0.017205855
0002c0 7e af d6 3c e6 5c 51 bc 5b 21 5c 3c 22 7a ce 3c
       0.026206728 -0.012778496 0.013435687 0.025204722
0002d0 82 06 fd 3b 9b d4 a6 bb 02 5c 15 3c d0 0e a1 3b
       0.007721723 -0.0050912625 0.009116175 0.004915096
0002e0 4d 23 9b 3c 88 a5 ce bc ea 8a 9e 3c 8a 37 93 bb
       0.018937731 -0.025225416 0.019353349 -0.0044927048
0002f0 70 47 50 3a 89 8d 05 3d 51 71 bd bc 4f d2 6d 3c
       0.00079452153 0.03260568 -0.023125323 0.0145154735
000300 1c 6a c6 bc ff 39 a4 bc 91 13 68 3c 22 78 73 bd
       -0.024220519 -0.020047186 0.014164821 -0.05944074
000310 1b 00 13 bd 7c d3 22 bc 8c 95 08 3d 51 2f 58 bc
       -0.035888772 -0.009938117 0.033345744 -0.013194875
000320 49 a1 29 3d 22 2b bc bc 8b 6d 36 3d 9c 0d 40 bd
       0.04141358 -0.022969786 0.044538062 -0.04688798
000330 2b da 30 bb db 18 5f bc a5 ee a5 bb c8 50 36 bd
       -0.0026985507 -0.013616766 -0.005063849 -0.044510633
000340 9f 6c 04 bb e9 4a ff bb 9d a6 8c 3c 2e cc 62 3c
       -0.0020206345 -0.0077909124 0.017169291 0.013842626
000350 f6 e9 89 3c 39 31 76 3d 28 b8 ee 3a 0f 5a 40 3c
       0.016835194 0.060105536 0.0018212842 0.011740222
000360 ad e1 04 bd 5b e8 61 bc 65 96 da bb d5 86 ce bc
       -0.032441784 -0.013788308 -0.0066707605 -0.025210777
000370 e4 6d 55 3d c0 af 65 bc f5 42 26 bd a7 91 69 3d
       0.052106753 -0.014018953 -0.0405912 0.05702367
000380 4c 7c 1d 3d 43 2d 19 bd cb 5a dc bc ba 77 85 3c
       0.038448617 -0.03739668 -0.026898762 0.016292442
000390 9f 76 31 3d b8 fb ab 3a 12 b5 a9 3c 7d ed fc bb
       0.043326017 0.0013121283 0.020716224 -0.0077187405
0003a0 40 e7 ae bc 02 34 4e bd 28 40 38 3b 48 9e 37 3d
       -0.021350503 -0.050342567 0.0028114412 0.044828683
0003b0 c6 76 a4 bc 45 5e 20 3c 72 0d e1 bc 3a 48 19 bb
       -0.020076167 0.009788101 -0.027472232 -0.0023388998
0003c0 19 2b f0 3c 42 3a 5e 3c 1a be 87 3b 69 a7 07 3c
       0.029317426 0.013563694 0.004142535 0.00827966
0003d0 df 56 0d 3d 85 b0 35 3d df a8 7c 3c 97 e1 6d bd
       0.034506675 0.044357795 0.015421121 -0.058076467
0003e0 50 6e 9c 3c 29 51 80 3a 61 68 b7 bc f9 33 af 38
       0.01909557 0.0009789813 -0.022388639 8.354331e-05
0003f0 fb bb b3 3c 07 14 8f bc 2a 15 ad 3b 4c 4c 52 3c
       0.021940222 -0.017465604 0.005282064 0.012835573

a2c_network.actor_mlp.2.weight f4 [128, 256]
000000 86 f3 9d 3d 2e d0 cf bc 8a 2c c5 3c 39 b4 a8 bb
       0.07712464 -0.025367822 0.02406909 -0.0051484373
000010 80 3c d3 3d bb 72 c9 3c f4 3f 96 bd 98 cc a7 3d
       0.10314274 0.02459084 -0.07336417 0.0819332
000020 eb 39 8e 3d 6e e3 14 3d d5 17 f3 bd df b5 01 3e
       0.06944641 0.036349706 -0.1186978 0.12667035
000030 46 d6 39 bd ee cf 4c 3d ab 17 16 be d9 92 12 3d
       -0.045370363 0.050002985 -0.14657466 0.035784576
000040 ba 24 4d 3d 2c b9 80 3c e6 93 db 3d 5f 11 f2 bd
       0.050083853 0.015713297 0.10721569 -0.118197195
000050 6b 9a 08 3d ac 6a 2f 3d 15 ef a0 bd 15 68 52 be
       0.03335039 0.04282634 -0.07858101 -0.20547517
000060 54 b7 89 3d f4 3d 9b bd 31 d6 f5 bd b2 d1 d5 ba
       0.0672442 -0.07580176 -0.120037444 -0.0016313104
000070 0d 9b 52 3d be aa be bc e6 4c 1b 3d 10 23 c2 bd
       0.0514174 -0.023274776 0.037915133 -0.09479344
000080 01 a2 38 bb 79 44 cb bd 68 68 0f be 8f 85 1c bd
       -0.0028172734 -0.099251695 -0.14004672 -0.03821331
000090 6f 2e 7a bd e8 de 27 be b1 d4 1a bd 02 ba a2 bc
       -0.06107944 -0.16393626 -0.037800495 -0.019864086
0000a0 32 e7 e4 bd c7 73 cc 3d a4 4d 9a bc dc fb fb bc
       -0.111769095 0.0998302 -0.01883585 -0.030759744
0000b0 4b a6 b5 3d e4 b3 8b bc ba e6 1f 3d d2 74 50 bd
       0.088696085 -0.017053552 0.039038397 -0.05089266
0000c0 9f 61 35 3c af e6 fe bc 65 77 6a 3d b4 d0 7c bc
       0.011070638 -0.031115858 0.05724277 -0.015430618
0000d0 d7 64 37 bb 97 77 fa 3d 19 8b de bb 11 21 39 3d
       -0.002798369 0.12229841 -0.006791484 0.04519755
0000e0 70 bb eb bd c4 99 3e bc b1 e8 11 3d f2 e9 8d bd
       -0.1151036 -0.01163334 0.035622302 -0.06929387
0000f0 77 22 4a 3d 47 f9 67 3e 32 38 6f 3d 72 b7 31 3c
       0.049349274 0.22653686 0.0584032 0.010846959
000100 f3 18 bd 3d 31 0b 95 bd f8 4b 1c 3d 2c 5f ed 3c
       0.09233274 -0.07277525 0.038158387 0.028976046
000110 51 ba 07 bc 0c 00 47 3d f1 14 fa bc 0c 5a 73 3b
       -0.008284167 0.04858403 -0.030527564 0.003713253
000120 00 b7 55 bc db 6b 4b 3b 08 3b 83 3b d0 54 46 bd
       -0.013044119 0.0031039629 0.00400484 -0.048420727
000130 11 51 f9 3c 7f 5d df bb 22 a6 8f bc e4 89 2f bd
       0.030434163 -0.0068165655 -0.017535273 -0.042856112
000140 6d 1c 9b bd a9 dd 41 3d f0 db f9 bc ab 6f 1d 3d
       -0.07573781 0.047330532 -0.030500382 0.038436573
000150 b5 70 84 bd ee f4 fb bd cc d3 90 bd 6b e4 8b 3d
       -0.0646681 -0.12302576 -0.07071647 0.06830677
000160 20 db 7c bd 6d b1 4e bd e7 f6 5c 3d 6d 88 79 3d
       -0.06173241 -0.050462175 0.053946402 0.06092112
000170 fd 69 36 bd 40 af bd 3c cb 40 2c 3b d3 bd e0 bd
       -0.044534672 0.023154855 0.0026283737 -0.10973706
000180 34 9a 80 bc 2b 17 1c bc 87 c2 ba 3d 69 fe 37 bd
       -0.01569853 -0.009527008 0.091191344 -0.04492036
000190 62 3a 6d 3d 38 b8 82 bd 72 c9 e6 bc 3a 71 27 bd
       0.057917006 -0.06382793 -0.028172228 -0.040879466
0001a0 81 68 59 38 4d 70 85 bd 92 11 42 bd 03 6b bb bd
       5.183416e-05 -0.0651556 -0.047380038 -0.0915127
0001b0 62 ee 3b 3d 5a 98 81 3c 74 cb c4 3d ca 26 b3 3c
       0.045881636 0.015819717 0.09609118 0.021869082
0001c0 df d4 ca 3d f9 28 29 3d f9 8c 88 3d dc da 05 3e
       0.09903883 0.04129884 0.066675134 0.1307177
0001d0 24 fa 33 be 9e 7a 9d 3d b0 d3 58 3d a5 15 c6 3d
       -0.1757589 0.07689403 0.052936256 0.09672097
0001e0 e4 09 92 bd 3a 04 98 3c 82 61 a6 bc 30 aa 59 bd
       -0.07130793 0.018556703 -0.020310167 -0.05314082
0001f0 fb a0 14 3d a1 89 25 3d 1a 37 5f 3d 92 3c 9a 3d
       0.036286335 0.040414456 0.05449591 0.07531084
000200 15 2e ad bd 09 5c 91 bd 71 b8 61 3d b4 40 b1 3c
       -0.08456055 -0.070976324 0.055107538 0.021637298
000210 fd 25 53 bd a4 b5 f6 bd fb 8c 24 bd 3d de 36 bc
       -0.0515499 -0.12046364 -0.040173512 -0.011161384
000220 d6 8d 9a 3d 6e 07 83 3d 67 2a 88 bd 9b 40 0d bd
       0.07546584 0.063979015 -0.066487126 -0.03448544
000230 a9 89 f7 bc d1 fd b8 3d 12 9c 86 3d bb 5d ef bd
       -0.030217009 0.09032787 0.06572737 -0.116877995
000240 da 4f 96 3d f1 be 8a bd 79 fc b8 3c 0d 40 0c bc
       0.07339449 -0.067747004 0.022581326 -0.008560193
000250 67 34 b2 bd 6f 08 b6 3c 66 41 56 bd 96 f6 16 be
       -0.08701401 0.022220818 -0.052308463 -0.14742503
000260 4f a4 73 bb 38 c9 4a 3d 47 79 3f bd ab 39 5c 3d
       -0.0037176793 0.049508303 -0.04674652 0.053765934
000270 3a 3d 8c 3d 9b b1 4c bd a8 75 11 be cf 5c a5 bd
       0.068476155 -0.049974065 -0.14205039 -0.080743425
000280 96 d4 a2 3c 05 80 1e bd 9d db 08 bb c6 de bd bd
       0.01987676 -0.038696308 -0.0020882853 -0.09271006
000290 08 21 b6 bb c9 6b 10 be 1b 54 cc 3d 68 ee b3 bc
       -0.005558137 -0.14103617 0.09976979 -0.021964267
0002a0 34 55 da bc 0e 96 3f bc 41 8f 89 3d 97 0b 94 3d
       -0.026651956 -0.011693491 0.06716777 0.07228773
0002b0 2c f0 9c 3b 73 55 1e bd 6c 69 d1 bd d9 2c 36 be
       0.004789373 -0.03865571 -0.10225186 -0.17790546
0002c0 e9 27 d7 bd 96 2d 02 bd 58 87 43 3d 3a 71 d5 bb
       -0.10505659 -0.031781755 0.047736496 -0.006513742
0002d0 54 14 24 bd ba 3a d7 bd 97 5a 8d 3d 3d 31 69 be
       -0.04005845 -0.10509248 0.06902044 -0.22772689
0002e0 12 39 19 3d 8e 61 6f 3c 2a 70 23 bc 4d 76 37 3d
       0.037407942 0.014610661 -0.009975472 0.044790555
0002f0 29 16 80 bd 4d e0 cf bc 28 a3 8d bd cb c5 17 bd
       -0.06254227 -0.02537551 -0.06915885 -0.037053864
000300 f4 73 82 bd ec b1 b1 3c e4 dd db bd 29 b8 94 3d
       -0.063697726 0.021691285 -0.10735682 0.07261688
000310 88 a7 29 3c 60 22 1a 3d 5a 43 90 bc cc a9 75 3d
       0.010354884 0.03763044 -0.01761024 0.059976384
000320 97 aa b9 3c 9b 0e 8b bd 7f ef 39 bd 9c f6 a5 3d
       0.022664351 -0.06789895 -0.045394417 0.08103678
000330 f5 c5 b2 3c ee 56 47 3d 2b 50 21 3d 04 3c 03 3c
       0.021822909 0.048666887 0.039383095 0.008009914
000340 c6 d5 31 bc 92 73 fd bd d9 42 3c 3c af 56 14 3d
       -0.01085419 -0.12375559 0.011490547 0.03621548
000350 43 d4 22 be 00 97 97 bd 85 3b 40 3d a9 c6 bf 3c
       -0.15901284 -0.07401848 0.046931762 0.023410158
000360 a2 ae 35 3c 74 a6 ae bc 87 b8 92 bc a8 6b fe 3d
       0.011088999 -0.021319605 -0.017910255 0.124228776
000370 65 13 01 bd 7d c1 fd 3c dc bf f2 3d 68 03 a2 3c
       -0.031512637 0.030976051 0.118530005 0.019777015
000380 28 b6 5c 3c 75 ee 1f bd 4e e1 12 3d c5 2e 70 bb
       0.013471164 -0.03904577 0.0358594 -0.003664897
000390 6a 53 cc bc f9 84 0a bc 87 31 e7 3b 4c be 0c 3e
       -0.024942119 -0.008454555 0.0070554647 0.13744467
0003a0 72 d3 9f 3c ae 2d 8e bc 26 b5 66 3c d0 4b f7 3c
       0.019510005 -0.017355766 0.014081275 0.030187517
0003b0 25 96 22 3c 6b 8c 72 be 60 de 86 3d 6b c9 ab 3c
       0.009923493 -0.23686378 0.065853834 0.020970067
0003c0 8c bc 06 be e3 ab 95 bc 5b b7 00 3e 41 c2 92 3d
       -0.13157862 -0.018270439 0.12569945 0.07165957
0003d0 eb 52 51 bd b4 db 90 3d 28 10 2a bd 4e ab 34 3e
       -0.051104467 0.07073155 -0.041519314 0.17643473
0003e0 35 fa 1f 3c 50 9b 3f bc 6a c8 d8 3d aa 06 35 3d
       0.009764244 -0.011694744 0.10585101 0.04419581
0003f0 7b 35 0d bd df 0c 77 bc 21 0e c3 bc 57 38 1d bd
       -0.03447483 -0.015078752 -0.023810448 -0.038383808

a2c_network.actor_mlp.2.bias f4 [128]
000000 9a b5 d0 bc 8f 3d 4c 3c 31 1c 5b bd 88 05 c1 bd
       -0.02547722 0.012465849 -0.053493682 -0.09424883
000010 1f 82 21 3c c8 20 00 bd 58 98 0e bd 04 12 92 3d
       0.009857683 -0.031281263 -0.034813255 0.071323425
000020 bd 85 27 bd 2b 31 c7 bd 38 3b 74 bd e6 2e e7 bc
       -0.040899027 -0.09726175 -0.059626788 -0.028220605
000030 f5 15 ea bc 01 5b 34 bd 80 f7 c6 3b e1 67 70 3b
       -0.028574923 -0.0440321 0.006071985 0.003668301
000040 f4 a1 51 3b 56 b5 52 bd e9 b6 96 bc 71 3a 93 3c
       0.00319874 -0.051442467 -0.018397765 0.017972203
000050 12 61 93 bb 90 e6 b0 bd f0 b4 b3 3c 6b 11 a2 3c
       -0.0044976557 -0.08637726 0.021936864 0.019783696
000060 7f 8d 22 bd 36 48 54 3d b8 7b fe ba ec 86 40 3d
       -0.039685722 0.05182668 -0.0019415533 0.04700367
000070 94 ab d6 3c 79 cd c8 bc 65 59 93 bc f6 7f 9f bc
       0.026204862 -0.02451204 -0.017986963 -0.019470196
000080 7f ea 2e 3b ee f8 12 ba 6a 1a 2c bd bf f5 97 bb
       0.0026690064 -0.00056065514 -0.042017378 -0.0046374495
000090 8b be 46 bc f8 61 ad bc 7e 12 27 3d 85 53 26 3c
       -0.01213039 -0.02116488 0.04078912 0.010151749
0000a0 b5 12 07 3c e9 c6 18 3c cb 1b 17 3d ce 31 41 bc
       0.008244206 0.009324768 0.03689174 -0.0117916595
0000b0 f2 18 c6 3c 06 27 12 3d 80 15 83 bc b9 2e aa bc
       0.024181817 0.035681747 -0.016001463 -0.020774232
0000c0 d2 00 4e bc 51 e0 a3 3a 30 3e 7e bc 46 3d 12 3d
       -0.012573438 0.0012502765 -0.015517756 0.035702966
0000d0 72 9b 02 3b 0e bf 65 bc f3 c0 ea bc d7 bc 26 3d
       0.0019929078 -0.014022602 -0.028656458 0.040707435
0000e0 f2 34 44 bd 04 0b 7a bd a5 2f 08 3c 15 3b 9d 3c
       -0.047902055 -0.06104566 0.008312141 0.019193212
0000f0 ca 15 72 bc 45 33 b1 bc c4 bd 86 bd c6 90 be bc
       -0.014775703 -0.021630893 -0.06579164 -0.023262393
000100 f8 36 26 3c d9 ce e3 bc e3 de 2f bc c5 a6 ca bb
       0.0101449415 -0.027808594 -0.010734293 -0.0061844313
000110 c9 c4 1a 3d cc ae ad 3c 7b 20 80 bd d6 c6 85 3b
       0.037785325 0.021201514 -0.06256195 0.004082541
000120 7e 0d b6 bc cc f4 5d bd 88 27 2e 3b 9e f8 8b 3b
       -0.02222323 -0.054188535 0.0026573855 0.004271581
000130 5e c5 27 bd fd b5 11 3d fd d4 2b 39 57 d3 12 bd
       -0.04095971 0.03557395 0.00016387175 -0.03584608
000140 81 0a 58 bc c4 32 25 3b 75 b8 a2 bb 2c 0b 64 3d
       -0.013186098 0.002520726 -0.0049658366 0.055674717
000150 a4 64 42 bb 93 75 52 bc 23 7a b8 3c c8 89 39 bb
       -0.0029662037 -0.012845415 0.022519177 -0.0028310884
000160 12 26 25 3d ee c4 d0 3c 14 31 3b bd 3c d8 8d 3c
       0.04031951 0.025484528 -0.0457011 0.017315023
000170 6a 06 be bc 60 ae 49 bd 99 93 3f bd ed 60 21 ba
       -0.023196418 -0.049238563 -0.04677162 -0.00061561057
000180 70 7c fd 3c e0 e7 7f 3c 21 96 8c bd a8 60 2f 3d
       0.030943125 0.015619248 -0.06864572 0.042816788
000190 8f b6 ee 3c bc 8d 25 bd 7a e5 6a bc 50 37 77 bc
       0.029139785 -0.04041837 -0.014336938 -0.015088871
0001a0 9c 0a 56 ba b9 bb 52 3b bc 33 7c bc 89 90 0c 3d
       -0.0008165033 0.0032155348 -0.015393194 0.034317527
0001b0 67 71 e4 3b 21 40 20 bd f3 6f f2 bc 3a c9 88 3c
       0.0069715264 -0.039123658 -0.029594397 0.016697515
0001c0 73 da 71 bd d0 17 ad bb 27 69 13 3c a0 b2 60 3c
       -0.05904622 -0.0052823797 0.008997238 0.0137144625
0001d0 1f 55 08 bc 37 51 c8 bc 05 fb e7 bc 94 9c 94 3c
       -0.008321076 -0.024452789 -0.028317938 0.018141069
0001e0 eb 64 4c bc 2b 0b 28 3c 08 fe fe bc f3 62 19 bc
       -0.012475233 0.010256569 -0.03112699 -0.00936197
0001f0 dc 61 ab 3c c8 a6 ac 3c a6 26 3d bd fe 1b aa bc
       0.020920686 0.021075621 -0.046179436 -0.0207653

a2c_network.actor_mlp.4.weight f4 [128, 128]
000000 c5 af c5 3c 0e ad 09 bd a6 ff 7a bd d8 b2 9c bd
       0.024131665 -0.033612303 -0.06127896 -0.07651299
000010 b8 64 f3 bd 24 3f 0a be 28 7a ab bd 82 62 1b be
       -0.11884445 -0.13500649 -0.08372909 -0.15174296
000020 6c 1e cc 3d 76 d5 c5 3c 45 c2 c2 3d 62 ff 40 bb
       0.0996674 0.024149638 0.0950971 -0.0029449095
000030 fa 13 4a 3c 7b b6 3e 3c 49 cb 2b 3d 94 3a d8 bd
       0.012333864 0.011640186 0.041941915 -0.10558048
000040 a7 82 8a 3c be 65 cb 3d 8a 58 96 3d 9e 51 f0 bd
       0.016908003 0.09931515 0.07341106 -0.11734317
000050 29 06 ac bd 0e 72 c9 3d 20 9f 26 3d 80 79 8f bd
       -0.083996125 0.09836207 0.040679097 -0.07005596
000060 2b 03 b9 3d 5a 91 fc bc 8e e0 75 bc ea d6 56 3d
       0.09033807 -0.030831028 -0.015007151 0.05245105
000070 f3 61 9d bd a0 9a 5b 3d b0 61 64 3c d6 72 21 be
       -0.07684698 0.05361426 0.013939306 -0.15766463
000080 e1 1c 6b 3d 62 a1 80 bd 0f d0 28 3d 6a 7f 97 bd
       0.057400588 -0.06280781 0.041214045 -0.07397349
000090 4c e0 13 3d ad f2 7f 3d e4 57 c4 bd c5 fa 52 3d
       0.036102578 0.062487293 -0.09587076 0.051508684
0000a0 75 5a 0b be f2 ba 86 3c 60 7b 98 bd f4 b3 a5 3d
       -0.13608725 0.016446564 -0.07445407 0.08090964
0000b0 f8 71 95 bd 25 3f 3e bd 5b 2e c9 3d 8d e0 1b be
       -0.072971284 -0.046446938 0.09823295 -0.15222378
0000c0 f9 79 df 3d 2a 0a b9 bd 09 7f 2e bc 65 68 24 3e
       0.10911936 -0.09035142 -0.010650405 0.16055448
0000d0 1b ca 8d 3d a6 4b cc 3c e4 00 29 3d da ac ab bd
       0.06923314 0.024938416 0.041260615 -0.08382578
0000e0 cc bc 6a 3d 8c 75 47 bd 84 45 c5 bd 1d 8e 33 3d
       0.057308957 -0.048696086 -0.096324 0.0438367
0000f0 c3 82 5e bd 45 d5 8a bb 4e 1b 8d bd 7a 90 19 bd
       -0.054323923 -0.0042368495 -0.068899736 -0.0374913
000100 ed 83 6d bc e4 c8 ea 3d 3e 63 1a be 58 a9 3e be
       -0.014496786 0.11464098 -0.1507692 -0.18619287
000110 f2 59 a4 bd af d1 17 be c5 84 01 3d 1f e9 0c 3e
       -0.08024968 -0.14826082 0.03162076 0.13760804
000120 70 d1 73 3c 7f 5a ee bb b4 0f e2 bd af 2b 10 be
       0.014881477 -0.0072739716 -0.110381514 -0.14079164
000130 e8 0e 78 3d 00 32 ba bd 5e 3b 09 3d f6 be a4 3d
       0.06056109 -0.09091568 0.033503883 0.080442354
000140 05 e2 35 bc 05 61 e4 bb df c3 47 bd 2a 70 03 bd
       -0.011101251 -0.0069695734 -0.04877078 -0.03208939
000150 da 06 b1 bc b6 d3 03 bd af d5 29 bd 95 d7 f6 bd
       -0.021609712 -0.032184325 -0.04146355 -0.12052838
000160 05 da 24 be 42 53 80 bd c0 8f 34 3d c2 14 0d be
       -0.16098793 -0.0626588 0.044082403 -0.1377745
000170 09 e7 20 3b ae 75 06 bc aa ff 37 3d 56 57 c0 bc
       0.002455177 -0.008206768 0.044921555 -0.023479145
000180 3d 2b 88 bd c8 08 ad 3d 7c 39 24 3b 01 1b 0d be
       -0.06648872 0.084489405 0.0025058677 -0.13779832
000190 13 7f fa bc 58 70 10 bd 65 92 97 3d c8 01 34 3e
       -0.030578172 -0.03526339 0.074009694 0.17578804
0001a0 3d 3b 7a bc 27 cd 8a bd 40 f0 41 bd 61 81 32 3d
       -0.015272913 -0.06777411 -0.04734826 0.043580417
0001b0 06 c2 33 bd 3a 82 a2 3d f3 cc ab bd df 52 20 be
       -0.043886207 0.07934995 -0.083887 -0.15656613
0001c0 95 1a c5 3d 5d 68 08 3d 5d 85 76 bc fd a4 09 bd
       0.09624211 0.033302654 -0.015046445 -0.03360461
0001d0 70 9d 71 3d 9a b1 d1 3d dd d3 cb bc 3f e4 77 bd
       0.058988035 0.10238953 -0.024881298 -0.060520407
0001e0 cf da 9e bc d9 5d c8 bd d7 bc 2f bd 4d d2 41 3d
       -0.019391445 -0.09783525 -0.0429047 0.0473197
0001f0 66 e8 df 3c 4c 48 03 ba bf 85 42 3d 60 a3 ee 3a
       0.027332496 -0.00050080265 0.04749083 0.0018206649
000200 85 85 c0 3c 86 23 5b 3d 12 06 21 bd d5 6d 0b 3e
       0.023501167 0.053500675 -0.03931243 0.13616116
000210 ba 27 a2 3c 34 c0 92 bd 39 a3 0a 3d da e7 98 bd
       0.019794334 -0.07165566 0.033847068 -0.07466097
000220 ef e2 38 3d 12 19 02 bd a4 42 c4 3d b8 a5 9e bc
       0.045138296 -0.03176219 0.09583023 -0.01936613
000230 77 b1 d5 3d 03 ac 52 bd 7d d8 64 bd bb 47 e8 bc
       0.10434239 -0.051433574 -0.05587052 -0.028354516
000240 6d 8b 69 3d 17 9d 89 bc 91 60 b5 3c 38 b0 37 bd
       0.057017732 -0.01679854 0.022140773 -0.04484579
000250 db f8 fb 3c 12 3e 13 3d 9e 6e f4 bd 0d 6b 2c 3d
       0.030758312 0.035947867 -0.11935161 0.04209428
000260 81 ea 5c 3c df 1f 9e bd 04 ce 88 bd b6 15 55 3d
       0.013483644 -0.07720923 -0.06679919 0.05202266
000270 08 d7 97 3d 3d fb 03 bd 0d 8a 91 3d 2a a2 cf bd
       0.07414061 -0.03222202 0.07106409 -0.10138352
000280 15 25 4a 3c 4d 4a d9 3c 7f 88 a7 3d 69 61 13 bd
       0.012337943 0.026524687 0.081803314 -0.03598157
000290 7d c4 d1 3c 9f 32 5c 3d 4b c3 cd 3c 81 7b 45 bd
       0.025606388 0.053759214 0.025117537 -0.048213486
0002a0 f5 a3 3f 3d 73 86 30 3d 7b 24 4f bd 99 26 b6 bd
       0.04678722 0.04309697 -0.0505719 -0.08894081
0002b0 5f 12 77 bd 23 78 82 3d 83 e9 15 3d 64 a6 84 bd
       -0.060320254 0.063705705 0.036599647 -0.06477049
0002c0 3f 76 04 3c 95 6e 29 3d 32 04 81 bd ce 71 c8 bb
       0.008084833 0.041365225 -0.06299628 -0.006117082
0002d0 a2 fb 0a 3d a0 56 8f 3d c9 21 96 3c 5b 9f 4a bd
       0.033931382 0.06998944 0.018326657 -0.04946838
0002e0 b0 24 e5 bc 20 3d ac 3d 79 49 d9 3d c3 b0 84 bb
       -0.027971596 0.08410096 0.10609717 -0.004049392
0002f0 28 e5 31 3d f5 2d 59 3c 4c 33 c5 3c 34 4e 6e 3d
       0.04343143 0.013255586 0.024072312 0.05818005
000300 e3 30 1f bd c4 75 8d 3d 45 88 e0 3d 66 7e b0 3d
       -0.03886498 0.06907228 0.10963491 0.086178586
000310 5b ba be bd a2 01 5c bd 6d 01 84 3c ae a0 77 3d
       -0.09312888 -0.053712495 0.016113961 0.06045597
000320 b7 28 c2 3d 36 69 bb bd fd 8b 80 3c 21 6c 7a 3d
       0.09480422 -0.09150927 0.015691752 0.061138276
000330 65 ce fd ba 62 bf e8 3d 8e 46 cb bd eb a5 f3 3d
       -0.0019363879 0.113646284 -0.099255666 0.11896881
000340 54 e7 8e bd dc 77 66 bc 4c 14 e2 3c a4 fe 83 bd
       -0.06977716 -0.014066663 0.027597569 -0.06445053
000350 0c de cd 3c fe 32 0c 3e 31 57 ff 3c 67 99 91 bd
       0.025130294 0.13691327 0.031169506 -0.07109337
000360 46 b9 14 3d 46 1a ca bc 71 99 bb 3d 28 d2 b7 3d
       0.036309503 -0.024670731 0.09160126 0.08975631
000370 e3 c9 5d bd 64 4a 38 3d fa 7d a6 bd 78 34 38 bc
       -0.054147612 0.04499282 -0.08129497 -0.011242978
000380 e1 81 d3 3d e4 da 39 bd d3 d3 03 bd 02 37 ef 3d
       0.10327507 -0.045374766 -0.032184433 0.11680414
000390 63 5c c1 bd d6 e4 48 bc 5a 23 67 3c 77 8a 27 be
       -0.094414495 -0.01226159 0.01410755 -0.16361414
0003a0 2d 32 6d bc 4e 5d 5b 3d ea a8 55 3d 3b f0 63 bb
       -0.014477295 0.05355578 0.052163042 -0.003478064
0003b0 b0 c9 c2 bd b7 42 a1 3c 0a 37 d7 3c 49 07 81 bd
       -0.09511125 0.019685132 0.026271362 -0.06300218
0003c0 f8 c8 fe 3d f7 32 a1 3d 75 8c a4 3c 67 55 4b 3e
       0.124406755 0.07871049 0.020086506 0.19856797
0003d0 4d 23 41 3d 89 28 c8 3d fb d3 ba ba 57 66 30 bd
       0.047152806 0.097733565 -0.0014253849 -0.04306635
0003e0 fb 53 84 bc c5 1a 0e 3c b9 a6 fe bd b4 db 78 3d
       -0.016153326 0.008673375 -0.124341436 0.0607564
0003f0 9c 95 24 bd 66 e1 e0 bd 60 cf 80 3c 36 f0 4b bd
       -0.04018174 -0.10980491 0.015723884 -0.04978963

a2c_network.actor_mlp.4.bias f4 [128]
000000 80 c6 5e bd 1d 15 9c bd b2 8b 67 3c 1c 63 a8 3c
       -0.054388523 -0.076212145 0.014132427 0.020555072
000010 f7 de 9d bd 34 ea 96 bd 09 39 41 bd 56 80 91 bc
       -0.07708543 -0.073688895 -0.047173534 -0.01776139
000020 6b 3b f5 bb b7 e9 2a bd 0e 35 9b bd 0d 9d 1f bc
       -0.00748389 -0.041726794 -0.07578479 -0.009742034
000030 54 7a d2 bb 00 b7 43 bc 1a 1c a0 bd e7 ef b7 bc
       -0.006423274 -0.011945486 -0.0781786 -0.022453262
000040 16 e1 a3 3c 49 6a 0a 3d 3e 2d ed bb df ce 40 3d
       0.02000479 0.033792768 -0.0072380593 0.047072288
000050 f9 c8 6d bc 45 6d 67 bd 55 8d 33 3d b8 2a 83 bd
       -0.014513248 -0.056500692 0.043835957 -0.06404632
000060 93 a7 63 bd b5 68 2f bd ea fa 9c bd 64 de c8 bc
       -0.055579733 -0.042824466 -0.076650456 -0.024520107
000070 3f 4a 6f bc 1a c1 d8 bd 9c 6e 0c 3d 5f 41 15 bc
       -0.014605104 -0.10583706 0.034285173 -0.009109824
000080 f5 3e 69 3a 06 13 90 3c 2d 00 0e bd 59 38 a0 bd
       0.0008897626 0.017587196 -0.034668136 -0.078232475
000090 d6 05 95 3b c3 cc ea 3c 77 c6 7d bc cc 11 a7 bc
       0.004547815 0.028662091 -0.015489212 -0.020394228
0000a0 09 a9 45 bd 86 3d a0 bc ed 60 36 3d a0 ba 42 3d
       -0.048256908 -0.019560587 0.04452603 0.04754126
0000b0 a8 41 72 bd 3f 9e b8 bc 8d 2c c8 bb a0 16 6e bc
       -0.059144646 -0.022536395 -0.0061088265 -0.014531761
0000c0 75 60 12 bd e2 15 17 bc 2e 0a 22 bd a6 52 5a 3c
       -0.03573652 -0.009221526 -0.03956049 0.013325369
0000d0 1e e7 a1 3c f9 55 31 3d 53 12 bd 39 55 66 8d 3d
       0.019763526 0.04329488 0.00036062542 0.06904284
0000e0 bc 78 d3 b9 0f 71 8a bb fb 4b 6b 3d 4d 95 8b 3d
       -0.0004033501 -0.0042249034 0.057445507 0.06815586
0000f0 a0 ce 6f bb 71 d5 9d 3d e3 f1 a6 bd e5 aa 31 3c
       -0.0036591664 0.07706726 -0.08151605 0.010843967
000100 45 7c 26 3d 02 7b 2c 3d f4 4e 10 bd 00 b8 7b 3b
       0.040645856 0.042109497 -0.035231546 0.0038409233
000110 db ca 95 3c b1 99 33 bb 34 b1 7d bd a1 1f e0 3c
       0.018285206 -0.002740484 -0.061936572 0.027358832
000120 1c 85 97 bb e8 a3 73 3c 24 45 ad 3c dc d4 8a bc
       -0.004624022 0.014870621 0.021151133 -0.016947202
000130 65 7b 38 be 6d e2 d5 ba c7 21 62 bd 80 7a 6e be
       -0.18015821 -0.001631809 -0.055207994 -0.23288918
000140 29 20 49 3c 2f 5a 13 bd 4b ea 07 bd fa e9 29 bd
       0.012275734 -0.035974678 -0.033182424 -0.041482903
000150 08 5c af 3d c7 ee 3f bd 40 3b 8b bd a4 9e df bd
       0.085624754 -0.046858575 -0.067984104 -0.1091893
000160 46 7b c1 bd ee 88 47 bd 98 b2 9a bc 50 d5 9c bd
       -0.09447341 -0.04871457 -0.018883988 -0.07657874
000170 4a 48 d0 3c 7d 50 6c bd 7c 6a b6 bc 91 9f de bc
       0.025425095 -0.057693947 -0.022267573 -0.027175697
000180 05 d3 71 bd db a5 17 3c c3 a5 0f be 06 ce b9 bd
       -0.059039135 0.009255852 -0.14028077 -0.09072499
000190 96 e2 68 bd ac 95 cb bc d6 f6 bb bd d1 3e 00 3d
       -0.056856714 -0.024851643 -0.091779396 0.031309906
0001a0 4b e0 f1 bd 3c c9 d1 3c a1 47 2d 3d d7 59 c1 bd
       -0.118103586 0.025608651 0.04230464 -0.09440964
0001b0 6b 0b 8a bd b7 4d bd bc d1 57 10 bd 0e 34 cc bc
       -0.06740459 -0.023108346 -0.03524 -0.024927165
0001c0 7c 1e 93 3d f6 af fc bd 6c 36 37 bd c6 83 66 bd
       0.07183549 -0.123382494 -0.044729635 -0.056278013
0001d0 94 ee 00 bd 77 10 4a bd 01 96 81 bd 55 eb 3e bd
       -0.031477526 -0.04933211 -0.06327439 -0.04661115
0001e0 41 96 b5 bc 53 ec 42 3c 6b 90 1e 3d 1f 45 91 bd
       -0.022166373 0.011897164 0.038711946 -0.07093262
0001f0 fa 9e ec 3b 09 49 8c bd 0a bc de 3b 27 ee c8 ba
       0.0072211 -0.06849868 0.0067973183 -0.0015329764

a2c_network.value.weight f4 [1, 128]
000000 74 00 8c 3d 92 49 9c bd 20 51 d8 bb 7e 8c fe bc
       0.06836024 -0.0763122 -0.0066014677 -0.031072851
000010 c0 43 cc bd 41 03 9b 3b 5f 19 2e bd fa 7f 93 3d
       -0.0997386 0.0047306125 -0.042504665 0.07202144
000020 6f fd 9e 3d 94 fe 0a 3d 16 29 6f 3b b5 c6 c8 bd
       0.07763182 0.03393419 0.0036492995 -0.09803525
000030 90 9c 24 be fa 7c 14 3d c9 4d 4a bd a8 2c 81 3c
       -0.16075349 0.036252 -0.049390588 0.015768364
000040 bd c9 bc 3d 76 91 53 3d 90 17 78 3d 54 87 74 3d
       0.09218166 0.051652394 0.060569346 0.05969937
000050 81 8a b8 bc 73 b5 4f bc 88 25 69 3b 24 7d 41 bd
       -0.022526981 -0.012677538 0.003557535 -0.047238484
000060 70 5c 58 bc fe a5 5a bd 6d 4c e6 bc 76 fe ea bd
       -0.013205633 -0.05338096 -0.028112615 -0.11474316
000070 dc 9f d8 bd e3 c2 c2 bd 13 c0 c8 bb 05 2a ed bc
       -0.10577366 -0.09509828 -0.0061264127 -0.0289507
000080 2d 00 03 bc 0b 30 17 3e b6 66 88 3d 99 82 f7 bc
       -0.007995647 0.1476442 0.066602156 -0.030213641
000090 4f d1 d1 3d 1a 9d bf 3d 98 e3 6d bc cf a9 d6 3d
       0.102450006 0.093561366 -0.014519595 0.10481607
0000a0 df 86 96 3d e1 05 54 bc a8 21 a8 3d d4 51 4c bb
       0.07349943 -0.012940855 0.082095444 -0.0031176703
0000b0 69 8f ee 3a 3a 2a 55 bd 51 36 66 3d 88 a7 78 bc
       0.0018200699 -0.052042224 0.056204144 -0.015176661
0000c0 c9 4d 55 3b db 7c c9 3c 47 fb 0e 3d 88 0b 00 bc
       0.0032547584 0.024595669 0.034907605 -0.007815249
0000d0 56 f3 a6 3d cd dd eb 3d 65 de 26 3c 04 73 0f 3d
       0.081518814 0.115169145 0.010184859 0.035021797
0000e0 38 23 44 3d f4 ae 83 3d 0f 68 67 3b 4d 8d f6 bb
       0.04788515 0.06429854 0.0035309826 -0.0075241686
0000f0 8c c0 03 bc 6a 7c a6 bb 47 be 84 bb 9f a3 67 bd
       -0.008041512 -0.0050807493 -0.004051003 -0.056552526
000100 0f cb da bc 83 ef 7e bc 5b 15 c0 3d d7 b7 4b bd
       -0.026708154 -0.015560034 0.09379073 -0.04973587
000110 62 24 31 3d 22 f2 42 3d e4 62 21 be b5 6f 06 3b
       0.043247588 0.047594197 -0.1576038 0.002051336
000120 47 84 22 3c 01 5b 0a 3d 16 6c 0b bc 26 d3 47 bd
       0.009919233 0.033778194 -0.008509656 -0.04878535
000130 04 ae 47 be 5f 3d 12 3e fa 73 66 3d 75 e2 8b be
       -0.19499975 0.14281224 0.056262948 -0.2732121
000140 47 12 3f 3d 7e 2c f9 bd 17 ee bf 3c 8b 30 04 3b
       0.04664829 -0.12166689 0.02342896 0.0020170535
000150 f8 1f 45 bc 4a d2 60 bd 82 ef 5b bd 60 bb 04 3d
       -0.012031548 -0.054888047 -0.05369521 0.032405257
000160 e0 a6 86 3c c1 9a fd bd e1 3e 44 bd a5 9d 4f bd
       0.016436994 -0.123830326 -0.04791153 -0.05068745
000170 7e dc f1 3c ee be 73 bd 4c 4f 8e 3d c6 08 0c bd
       0.029524084 -0.059508257 0.069487184 -0.034188055
000180 9a 1d 93 bd e1 07 30 3c dc c0 9a 3c 8d c1 86 bd
       -0.071833804 0.010744066 0.01889079 -0.06579886
000190 7c d1 3f 3d 12 8c 4c bd 3e 11 65 bd e5 54 53 3c
       0.04683064 -0.04993827 -0.055924647 0.012898658
0001a0 b7 e4 39 bd f7 82 6e 3b b2 f1 49 3d 6b cf cf bd
       -0.045384135 0.003639398 0.049302764 -0.10146984
0001b0 84 17 c3 bc 90 ff 80 bb c4 b3 84 bd 8b a9 45 bb
       -0.023814924 -0.0039367154 -0.064796 -0.003016087
0001c0 5f d0 83 3d c8 c6 85 3c 5c 2a 02 be f6 37 6a bd
       0.06436228 0.016330138 -0.12711471 -0.057182275
0001d0 7b 3e e1 bc 72 8d cd bd e7 7f b5 bc 4f 6b 20 be
       -0.027495613 -0.10036744 -0.022155715 -0.15665935
0001e0 da ff 8c 3d d9 c0 e5 3c eb d1 d3 3c 17 bb d8 bc
       0.06884737 0.028046058 0.025856933 -0.026456399
0001f0 ca 00 c2 3d 57 b8 d0 3c 48 99 f7 bb 1f 2d 1e 3d
       0.09472807 0.025478525 -0.0075561143 0.03861725

a2c_network.mu.weight f4 [10, 128]
000000 6d 71 e5 bd ed c8 e4 bc a1 ff 0a be f7 76 1a 3d
       -0.11203275 -0.02792784 -0.13574077 0.03771111
000010 40 be 36 bc ed f9 00 be 29 2f 2d bd cf fc f5 bc
       -0.011153758 -0.12595339 -0.042281304 -0.030027775
000020 e9 a5 06 bb 22 27 5f bd c6 d5 d4 bd d8 b7 49 bd
       -0.0020545668 -0.05448068 -0.103923365 -0.049247593
000030 4c ea 92 3d 12 51 80 bd e8 91 c9 bc 26 f6 60 3b
       0.07173595 -0.06265463 -0.024605706 0.0034326403
000040 0f c9 2a 3d 03 19 fb ba 5f 1c 2c be aa c8 a7 bd
       0.04169565 -0.0019157234 -0.16807698 -0.081925705
000050 52 11 03 be 43 1e 27 3e e6 a3 45 3c 06 22 02 3d
       -0.12799576 0.16320138 0.012063002 0.03177073
000060 da 1a 3d 3e e1 da d8 3b f8 88 19 be 04 27 23 3c
       0.18467274 0.0066178893 -0.14993656 0.0099580325
000070 d8 36 91 bd 2b 64 6d 3d 86 47 e3 bd 31 55 f1 3c
       -0.07090539 0.057956856 -0.110976264 0.029459568
000080 e9 d9 61 bd 14 17 b8 3c ce e7 24 bd e0 8d d7 bd
       -0.055139456 0.022471942 -0.04026013 -0.105251074
000090 92 c7 01 bb a6 5f 01 3e e3 6e 02 be 39 48 28 bd
       -0.001980279 0.12634143 -0.12737612 -0.041084502
0000a0 20 02 67 3c fd c9 27 bd 25 e6 23 3d fb bb 05 bd
       0.014099628 -0.040964115 0.040014405 -0.032649975
0000b0 3c c4 75 3c 92 74 08 3d 38 6f 1a 3d 0e 3f 39 bd
       0.015000399 0.033314295 0.037703723 -0.04522615
0000c0 53 1c f9 3d 37 d0 e0 bc 22 07 a6 bd 47 f6 33 bd
       0.121636055 -0.027443035 -0.08106829 -0.04393604
0000d0 5e 9c d0 bd 67 85 26 3e 0c bf ed bd 7d b4 b4 3d
       -0.10186075 0.16261826 -0.11608705 0.08823488
0000e0 f3 3b e6 3c a7 09 37 bc 19 80 7f bd d6 91 93 3d
       0.028104758 -0.011171735 -0.062378023 0.072055504
0000f0 ab ef d3 bd 6f 1f 25 3e 19 39 e4 3c 1d 9e df 3d
       -0.103484474 0.16125272 0.027859258 0.109188296
000100 0e 7c 67 3d a6 53 da ba a4 b8 50 bb 55 e7 b9 3c
       0.056514792 -0.0016657009 -0.0031848336 0.022693316
000110 8d 2e ea bd 9c 1f 9b 3d eb e0 32 bd f7 bb c8 3d
       -0.1143466 0.075743884 -0.04367153 0.098014764
000120 e9 a3 86 3d 00 a5 b7 bc d1 90 e6 bd c3 9d a8 3d
       0.06574232 -0.022417545 -0.1125809 0.08233216
000130 c3 c2 85 bd 32 f6 bc 39 37 1e 67 bc 06 df 8c 3b
       -0.065312885 0.00036041584 -0.014106325 0.0042990474
000140 22 3d 5a 3c 2c 64 f1 3c e6 07 98 bd 07 30 08 3d
       0.013320239 0.029466711 -0.074233815 0.033248927
000150 62 24 94 3d 0f 22 3c 3d fd ba b5 bd 49 db 30 bc
       0.07233502 0.04593092 -0.08873556 -0.010794469
000160 62 e2 66 3d b1 38 b4 3b 71 39 2a bd fd cc 38 bd
       0.05636824 0.005499922 -0.041558687 -0.045117367
000170 c2 f4 38 bd b6 3c ce 3b d5 43 81 3d 68 69 ac 3d
       -0.045155294 0.0062938584 0.06311766 0.08418542
000180 c0 e8 a1 3c c6 0d 35 be 77 78 f5 39 49 4b 19 bd
       0.019764304 -0.17681035 0.00046819795 -0.037425313
000190 b9 af dc bd 53 2d 8b bd cf 04 03 be 8e a0 19 3d
       -0.10775704 -0.06795754 -0.12794803 0.037506633
0001a0 52 a7 87 bd 7c 11 db 3d da 4c 68 bd 43 b7 7c 3d
       -0.06623711 0.10696694 -0.056713916 0.06169821
0001b0 8e 30 03 3e 55 d9 2e bd 90 11 21 bc a9 94 b5 3d
       0.12811491 -0.042687733 -0.009830847 0.08866245
0001c0 51 fe 6b bd 45 b3 5f 3c 69 28 e0 bd 8d d9 0e bd
       -0.057615582 0.013653581 -0.109452076 -0.03487544
0001d0 07 1d e8 3d 3d 2a d6 3d de 91 2b 3c 2f 54 bd 3b
       0.113336615 0.10457275 0.010471789 0.0057778577
0001e0 9d 4e c3 3c 5f 2f 7e bd 46 ef 3f 3d cc 13 a7 3d
       0.023841197 -0.062056895 0.04685905 0.08158073
0001f0 52 05 bc 3d c6 07 be 3c b6 a8 0d 3e 33 a1 80 bd
       0.09180702 0.023197066 0.1383389 -0.06280746
000200 47 86 23 3c 18 aa f3 bc e7 38 d1 bd b6 c4 ad bd
       0.009980745 -0.029744193 -0.102159314 -0.08484785
000210 39 97 5b bd 2a d4 b9 3d e2 94 a2 bb 75 1c c0 3d
       -0.053611014 0.0907367 -0.004961596 0.09380428
000220 f0 32 c8 bd 6a 61 28 bd 6b 47 21 bd 92 9c 40 3d
       -0.097753406 -0.041108526 -0.03937475 0.047024317
000230 ea 45 89 3d 45 e7 fa 3a 71 ce 52 be 42 d5 33 3d
       0.06702788 0.001914241 -0.20586564 0.04390455
000240 1c 1c e4 3c 1e a8 61 3d 36 3e 0d be be d9 59 bd
       0.027845435 0.05509197 -0.13793263 -0.05318617
000250 b5 a1 56 3c 2f f9 08 bd 35 df 36 3d 19 cd d9 bc
       0.013100077 -0.033440765 0.04464646 -0.026587056
000260 13 c2 ed 3d ce 69 84 bd 1b 9d d0 3b e4 eb e2 3c
       0.11609282 -0.06465493 0.0063663847 0.027700372
000270 f6 c9 9e bd 30 a9 59 3d 5b 6d bd 3c 64 50 72 bd
       -0.07753365 0.053139865 0.023123434 -0.059158698
000280 b5 31 ec bd d6 75 36 3c 3e c9 99 3c 8e 36 86 3c
       -0.11532918 0.011136493 0.018772718 0.016383436
000290 13 7e c4 bd a1 46 f0 bb 76 dd 01 bb 85 33 5f bd
       -0.09594359 -0.0073326384 -0.001981584 -0.054492492
0002a0 b2 64 44 bd 33 d6 e6 3d cb c3 73 3d 08 51 1c 3d
       -0.047947593 0.11271324 0.059512895 0.038163215
0002b0 48 56 68 3d 7b a4 4c 3c 6f 0f 20 3e 91 6e 17 bd
       0.05672291 0.012490387 0.15630887 -0.03697068
0002c0 70 b2 2f 3c d8 d1 08 3e 6b 08 8c bd 63 a2 75 bd
       0.010723695 0.13361299 -0.06837543 -0.059969317
0002d0 97 8c 8f 3d df f2 fc bc ae b2 44 3d d7 d7 ee 3d
       0.07009237 -0.030877529 0.048021965 0.11662262
0002e0 90 84 ba 3d fb 52 de bd 45 eb 93 ba 8c 85 16 3e
       0.091073155 -0.10855671 -0.0011285326 0.14699382
0002f0 27 5d 9a 3d dd 08 b4 bc 11 18 d0 bd e5 1d 1c 3d
       0.07537299 -0.021976883 -0.1016084 0.038114447
000300 80 1b 21 3e b9 c4 85 3d 7e 20 1e bd e3 3a 25 3c
       0.15733147 0.065316625 -0.038605206 0.0100848405
000310 cc f8 fb bd bd 6b c3 3d df 3e d0 3c f2 5f 94 3d
       -0.123033136 0.09542034 0.025420604 0.072448626
000320 71 3a 11 3d c9 cb 83 3c 01 94 46 3d c5 be af 3d
       0.035456125 0.016088383 0.04848099 0.08581308
000330 52 87 81 3d 0e 7b 07 3e e7 62 10 be 4c a5 45 3d
       0.063246384 0.13230535 -0.14100228 0.048253343
000340 cf a5 cc 3d c7 ca c3 3d bc 3d 39 bc 58 43 3a be
       0.09992563 0.09560161 -0.0113062225 -0.18189752
000350 c5 b0 49 be e2 c1 df 3d 12 4e 03 bd ba 7b 11 be
       -0.19696338 0.10925652 -0.032056876 -0.14207354
000360 87 68 95 bd 94 ad c4 3d 1f 04 f9 bc 00 b7 46 3d
       -0.07295328 0.0960342 -0.030397473 0.048514366
000370 f1 32 20 bd 48 5b 4c 3d 06 67 58 3d 62 6d 74 3d
       -0.03911108 0.04989174 0.052832626 0.059674628
000380 53 67 dd 3b 9b d8 82 3d a2 09 26 3c 4e 91 08 be
       0.006756702 0.063889705 0.010134133 -0.1333668
000390 8c 10 0e be c8 22 7c 3d 98 c6 00 be ac ab d2 3c
       -0.138735 0.061556607 -0.12575758 0.025716625
0003a0 82 2b 0a bd 92 ac fb bd a4 20 69 3d d0 af 8f bd
       -0.0337329 -0.122887745 0.056915894 -0.070159554
0003b0 bc 6e ac bd ac 12 64 3d a7 ae ee 3c d6 07 8e 3c
       -0.084195584 0.05568187 0.029136015 0.01733772
0003c0 61 32 ea bd df 7b af 3b 0c fe 1e bd ea 6c ed bd
       -0.1143539 0.0053553428 -0.038816497 -0.11593039
0003d0 fe 30 83 bd 70 63 44 bd 65 01 cb 3b 0a d9 53 3d
       -0.06405829 -0.047946393 0.0061952346 0.051720656
0003e0 f8 dc 04 3e 4d 46 c7 bd fa 7a 9f 3c 71 ab 1a be
       0.12974918 -0.09730206 0.01946782 -0.15104462
0003f0 af fe 70 3d 57 4f 14 bd d2 cb 92 bd 7b 9b 0d 3a
       0.058836635 -0.036208477 -0.07167782 0.00054018915

a2c_network.mu.bias f4 [10]
000000 07 26 84 3d b0 39 d9 3d 3c f5 15 bc c5 76 08 bd
       0.06452566 0.10606706 -0.009152707 -0.033316392
000010 31 99 64 bd 7d 67 df bd ac a2 af bc 4b 78 92 bd
       -0.055810157 -0.10908411 -0.021439873 -0.0715185
000020 90 63 01 bc 70 4f 95 3d
       -0.007897273 0.07290542

exp_avg f4 [10]
000000 87 b1 08 ba 35 4b 2d bb 19 2e a0 b9 fe cf fa 3a
       -0.0005214442 -0.0026442532 -0.00030551924 0.0019135473
000010 98 77 14 bb 8c ff fb 39 fc 98 84 38 43 c3 2a ba
       -0.0022654291 0.00048064848 6.322746e-05 -0.00065140816
000020 5a a2 32 ba 19 ba 96 3a
       -0.00068143534 0.0011499553

exp_avg_sq f4 [10]
000000 f5 30 3a 37 8d ee 5e 37 bd 8f 59 37 05 4a 4b 37
       1.1097863e-05 1.3287773e-05 1.2967675e-05 1.2116977e-05
000010 f8 40 61 37 8f 8f 47 37 12 7e 3e 37 69 a0 57 37
       1.3426172e-05 1.1894749e-05 1.13542355e-05 1.2852347e-05
000020 11 6e 47 37 70 57 46 37
       1.1886951e-05 1.1822078e-05
