logs/rl_games/humanoid_flat_direct/2025-11-18_10-44-09/nn/last_humanoid_flat_direct_ep_250_rew_291.43536.pth (torch, 759502 bytes, 33 tensors)

value_mean_std.running_mean f8 [1]
00000000: b937 3c85 798a 4d40
59.08183350982967

value_mean_std.running_var f8 [1]
00000000: 1350 fa19 9dcf 8d40
953.9517097049414

value_mean_std.count f8 []
00000000: 0000 0004 0070 9741
98304001.0

a2c_network.sigma f4 [10]
00000000: f73f 74bf b5f1 1dbf d05d 7dbf a02c 04bf
00000010: 704a 18bf b32f afbe 2d59 a2bf 803a a8bf
00000020: a1ce 06bf 1461 c3be
-0.954101 -0.6169694 -0.9897127 -0.5163059 -0.5948858 -0.3421608 -1.2683464 -1.3142853
-0.5265904 -0.38160002

a2c_network.actor_mlp.0.weight f4 [256, 42]
00000000: 280f 643d 597e 933e 2e0c 8c3e 48b6 bc3d
00000010: 7e72 0d3d 5c87 43bb 529f d73d 440b 81be
00000020: 66ba a1be af64 63bd d416 11be 59ce c63d
00000030: e6d5 b1bd 2327 12bd f668 413d 84c8 e33c
00000040: d4b8 d93d d716 ccbd 21fa d13c 20c3 68bd
00000050: c2e8 f13d af65 aebb d4a4 79be 416d 11be
00000060: 431c 923e 1d60 b43d e38b 0dbe 545f 8dbe
00000070: 1d46 283e ee87 5e3e 8d10 5a3d c1a7 1fbe
00000080: 04ba f2bd 30f1 c2bd e907 a1bd 704b 863d
00000090: d0fc 363d 0dab 943d b098 6fbd d694 89bd
000000a0: 2271 073d b382 8fbd e742 b23d 9ced 4ebd
000000b0: a30d 643e d23d 40be 8753 30bd 89f1 aa3e
000000c0: 8cb7 55bc 9eec 913d 2021 cd3d b7b2 c63d
000000d0: c403 00be 07cb a8bd a7e7 9f3e 54c6 2ebd
000000e0: 4b65 d0bd f446 16be 920b 85bd aa90 8d3c
000000f0: 9305 4ebd 1770 15be 145d 0a3d a480 2fbd
00000100: 6946 f53c 23ff 0a3c 34ee 83be 04bb c7be
00000110: 9937 2c3e c02a 2f3e dccc 1abd 8107 a8be
00000120: 5f54 30bd 1ae1 99bc c761 2c3c 0477 0abe
00000130: 60bd 5ebd 4b87 3cbd cda9 5dbd ee79 49bd
00000140: 8d6c 42bb 0b9c febd dec4 1bbd 3f18 32bd
00000150: 7d49 64bd a1fe 57be 43dd 9f3e 2359 083c
00000160: 535a 4f3e a255 973d 4e99 bfbe 5ff2 ac3d
00000170: 4e29 4bbd 1b98 3dbd 9423 0bbe 16e7 1ebe
00000180: 4fba e23c 3e32 57bd 27ae 0f3d 4f62 00be
00000190: 6a14 173e f20b b6bd f727 c4bc ec9b c7bc
000001a0: eacc b13d a5ee a13e e4be b13d 4885 53be
000001b0: 26ee 4a3d 407f 81bd e7cf 60bd 147c e4bd
000001c0: c405 0c3e 22ff 89be 380d 163e 7d7e f33d
000001d0: ec49 c53c 67d8 7dbd 992a 053e dc29 c03c
000001e0: ac31 293d 5d44 c6bd 574b a83d d8e8 6bbd
000001f0: 639d 82bd 8bfa f03d 8b22 a23c 8a9f 8abe
00000200: 2389 653d 3266 d4bc ecd0 4b3d c7a4 893c
00000210: 39d0 4fbe e427 393d d8e6 10be 178a 973d
00000220: 6632 ba3d f98d 23be a161 303e 1172 323e
00000230: 71e7 cf3c 70db 4cbd 4685 5a3d 3d33 a03d
00000240: 494a 533d 7fb4 e4bd d640 cbbd 2c15 b63c
00000250: 0bcf 193e 97da 873d a9f6 ad3c 6f0d 48bd
00000260: cf6f aabd 3e90 bebc 15a4 a63c dfce 22be
00000270: cd02 483d a655 ad3d df08 19be ed1e 09bd
00000280: 3043 cb3d 0c66 8a3d ac62 8dbc 2bee a8bd
00000290: 5c5d b8bd 0144 f9bd 34f1 a4bc e562 823c
000002a0: b6c0 013e d12b 033e b68b 0bbc b428 1ebd
000002b0: b37c d63c 9db5 5f3e 066a c83d ca44 c23c
000002c0: 2c85 523d 72be c5bd c242 97bd 1be5 1e3e
000002d0: c811 9a3c 0ee6 db3d 1479 0dbe dcf2 c83d
000002e0: 92eb e43d f086 f03b 6f1f 43bd 4e31 5bbe
000002f0: 1fa8 b9bd 1ff7 8c3e 05fd 493e 06da 943e
00000300: 2211 223c c8e4 96bd f12e ec3c b74c 0dbe
00000310: 20c4 8abe d42b e7be 14a2 113e 6193 1abd
00000320: 179b 91bc 1bf9 afbd 9663 f1bc 64b2 8abd
00000330: 851b e4bd ffda c93c 837a babc bbb8 ce3d
00000340: bdc9 d3bc ea94 a0bd 3dd2 24bd 24c2 a9bd
00000350: 0d4e 013d 6fd3 f4bd 167a 3f3e 7c4a 16be
00000360: 6b5c dfbc 3d29 1f3d cae6 f83d 6684 d8bd
00000370: f5e9 c33d 8aa1 8abd a5c1 c53d a8db 5d3e
00000380: 3256 6cbd 6e98 fa3c 81a7 953c 149d bcbd
00000390: 7b9d fa3d 57a7 92be a42a a53d db92 853e
000003a0: 8066 6e3e 1d67 843d 00ae 11be e4ab cc3c
000003b0: e997 203d d14d 9dbd 6544 20bd 91fe d1be
000003c0: c37e 003c 5a44 12bb 330e 80bd b48e 95bd
000003d0: cfe6 03be 93bc 163e eeef c63d 07ff c73c
000003e0: aa24 c9bb 7970 ccbd bad0 ccbd 2a6d b2bd
000003f0: 2524 1b3d e319 e0bd a98f 8eba fe91 80bd
0.055678517 0.28807333 0.27353042 0.09214455 0.034533016 -0.002983532 0.10528435 -0.25203907
-0.31587523 -0.05551594 -0.14168864 0.097073264 -0.08683376 -0.035681855 0.04721924 0.027805574
0.10630956 -0.09965294 0.025631966 -0.05682671 0.11811973 -0.00532218 -0.24379283 -0.14201833
0.28537187 0.08807395 -0.13822894 -0.27611792 0.16432996 0.2173154 0.05323844 -0.15591337
-0.11851886 -0.09518659 -0.07862837 0.06557357 0.044674695 0.07259188 -0.058495224 -0.06717841
0.033066876 -0.07007351 0.08704167 -0.05051957 0.22270827 -0.18773583 -0.043048408 0.33387402
-0.013044249 0.07125209 0.10016084 0.09702056 -0.12501436 -0.082418494 0.31231424 -0.04266961
-0.1017557 -0.14675504 -0.064963475 0.017280895 -0.050298285 -0.1459354 0.033780172 -0.04284729
0.0299408 0.008483681 -0.25767672 -0.3900987 0.16818084 0.17106152 -0.037793025 -0.32818225
-0.043049213 -0.018784095 0.010521359 -0.13521963 -0.05437982 -0.046027463 -0.054117013 -0.049188547
-0.0029666752 -0.124321066 -0.038029544 -0.043480154 -0.055734146 -0.21093227 0.31223497 0.008322033
0.202493 0.0738938 -0.3742165 0.08444666 -0.049599938 -0.046287637 -0.1358779 -0.1551784
0.02767673 -0.05253815 0.035078194 -0.12537502 0.14753881 -0.08888997 -0.023944838 -0.024366342
0.086816624 0.31627384 0.086789876 -0.20656312 0.049543522 -0.06323099 -0.05488577 -0.111564785
0.13674074 -0.26952463 0.1465348 0.1188936 0.0240831 -0.061973955 0.13004531 0.02345746
0.041307136 -0.09681008 0.08217495 -0.057595104 -0.063776754 0.11766537 0.019791862 -0.27074844
0.056038987 -0.025927637 0.04975979 0.016802205 -0.20294274 0.04520406 -0.1415056 0.073993854
0.09091644 -0.15972127 0.17224742 0.17426325 0.025378915 -0.05001396 0.053349756 0.07822273
0.051584516 -0.111672394 -0.09924476 0.022226892 0.15020387 0.066334896 0.02123578 -0.048840936
-0.08322107 -0.02326214 0.020341912 -0.15899228 0.048830796 0.08463602 -0.1494479 -0.03347676
0.099249244 0.06757745 -0.017258964 -0.08248552 -0.09002182 -0.12171174 -0.020134546 0.015916297
0.1267117 0.12809683 -0.008517196 -0.038613036 0.026182508 0.21846624 0.09785847 0.023714442
0.051396534 -0.09655465 -0.0738578 0.15517084 0.018807307 0.10737239 -0.13815719 0.09811947
0.11177744 0.0073403046 -0.0476374 -0.21405527 -0.0906527 0.27532288 0.19725426 0.2907259
0.00989178 -0.07367855 0.028830977 -0.13798796 -0.27102757 -0.45150626 0.14221984 -0.037738208
-0.017774148 -0.08592435 -0.029466432 -0.067723066 -0.111380614 0.024640558 -0.022763496 0.10093828
-0.025853032 -0.07840903 -0.04023956 -0.082889825 0.031568576 -0.1195439 0.18698916 -0.14676851
-0.027265748 0.038857687 0.121533945 -0.10572128 0.09566108 -0.067690924 0.096560754 0.21665823
-0.05769939 0.030590262 0.018268349 -0.09209648 0.12237068 -0.28643295 0.08064774 0.26088604
0.23281288 0.0646498 -0.14226532 0.024984308 0.039207373 -0.07680858 -0.039127726 -0.4101453
0.007842722 -0.0022318573 -0.06252708 -0.07302609 -0.12881015 0.14720373 0.09713732 0.024413599
-0.006138404 -0.0998239 -0.10000749 -0.08712228 0.037876267 -0.109424375 -0.0010876554 -0.06277846

a2c_network.actor_mlp.0.bias f4 [256]
00000000: 0e7f 7bbc 3340 ca3b bbf0 d5bb 45cc 24bc
00000010: 6e99 ff3c 25a9 0bbc a7d9 a7bc df92 1a3c
00000020: dfa1 d2bc df36 373d e823 593c 1661 77bc
00000030: d0ec bb3c 86ea abbc 2e48 7eba c26f 68bb
00000040: 52e7 253d 58fd 143c d384 7e3b 5d5c 9f3c
00000050: cb0c 46bd 7815 2cbd d880 88ba 014a e83c
00000060: 77d5 bbbc 8120 3a3d 55ff 203b dd36 9e3b
00000070: 7a3c 023d 18bf 243b 41da 233c b0ea 3bbb
00000080: 6961 7a3d 44c2 a13b f822 1bbc 40d2 f3bb
00000090: 07f3 433c 3249 38b9 6d53 063d db17 c4bb
000000a0: f4f4 bb3b 0d2a c1bc 319e 2f3c c788 c9bc
000000b0: 4385 23bb 6b52 e0b9 834b 223d 093d 093d
000000c0: 5003 24bc 1556 4fbb 6ed3 d0bc 7723 fb3c
000000d0: 105f bdbc 6f10 e8bb 5d65 27bd f96c 89bc
000000e0: 09d1 953c 7549 f43b 66db 82bb 783d 9c3c
000000f0: b197 d4bc 68bb b1bc bf43 50ba 99eb 66bc
00000100: 979c b7bc fd3c ee3c 7fd2 b0bc 2a8f c8bb
00000110: 1060 69bc a4d1 943c b4df d1bb c24d 1a3c
00000120: 3163 04bd 0eb1 133d 9e18 44bc 94f3 0fbc
00000130: 7b44 1abc 0134 13bc a501 44bd 5cb9 9e3c
00000140: e5e1 6c3b b586 b1bc 6ddf 21bc 36ae b1ba
00000150: e2ef 0a3c b160 07bc fa89 45bc bb58 03bd
00000160: 8a2c 0c3d d1da 0bbd 143a 79bb 2b34 ffbc
00000170: 6c36 db3c f825 b0bc 0b32 aa3b 9aa4 ae3b
00000180: 4dda e73c b875 703c 1e95 b4bc cc05 293b
00000190: 13b3 5f3d 4b7b 103c 0227 7a3c 82f2 023d
000001a0: b42b 733c d096 04bc 3e3f f83c dba6 6ebc
000001b0: e351 09bd f58b 02bd bb41 6b3c e082 493c
000001c0: 22e5 6cbc 48c0 c7bc 6392 82bc 9d3d 0a3b
000001d0: 0c66 343c 684c 02bd 6535 d13c 230b ef3b
000001e0: f93f 1abd dbaf 83bd cf2a 2c3d 68d5 de38
000001f0: 86ee 72bb 8c6f 57bb ec8f 1d3a dfd1 723c
00000200: 3db1 b9bc 8cf8 06bd 3cee 6c3a 1125 ec3c
00000210: a25c 03bd 6e01 6d3c 26b9 023d fcfa 293b
00000220: 3e91 a5bb 8aab 35bd 36c4 c1bc 63d8 5cbc
00000230: 9eef 8c3c 80a3 01bb 32f8 43bd 4cb7 acbc
00000240: b6c8 e0bc f576 003b 2bc3 e6bb 62e7 22bc
00000250: 7ad2 d93c ef64 21bd 2095 d23c 9bc9 b33c
00000260: 69a0 0d3c 260b 28bc 52a2 32bc a879 a5bc
00000270: 9bf2 bbbb 4686 1bbd aab1 813d d530 d03b
00000280: 5a04 96bc 4520 9c3c 68ea 39bd a2d2 dc3c
00000290: c353 76bc 959f 663c f094 5fbc 8bba ecbc
000002a0: 35fc 313c e037 213d def7 04bd 1793 38bd
000002b0: 6355 4ebb d119 c93a 80e2 9639 5051 7b3c
000002c0: 6231 c93c d516 44bc 0b54 523c 105a 723c
000002d0: f11c 033c 7927 74bb 8d2a 0b3c 5eea 483b
000002e0: 5e76 673c 334e d2bc c2d8 9e3c b30c c3bb
000002f0: 7e9c 96bb 97de 153d c4f2 acbc 4b64 913c
00000300: dc2e b1bc f754 a5bc ac2b 293c 0f88 6bbd
00000310: e88e 1fbd 188f 5dbc 7cac 043d dd28 3abc
00000320: 4722 313d bb8a a1bc feeb 1f3d cd04 3fbd
00000330: 8b9e 32b9 b22c 25bc 52ba 29bb e155 27bd
00000340: 34b9 a43a b705 d4bb 155b 963c 8d72 3b3c
00000350: fe96 983c d9b1 6c3d e021 c43b f613 473c
00000360: 226f 0abd 64a0 3dbc 114a 3cbc ad30 a7bc
00000370: 6732 4a3d 6afa 14bc 9c53 26bd 95e0 573d
00000380: e9fa 213d 87b6 1bbd 1bd7 f6bc 1c60 983c
00000390: f874 223d cd5b 213b cd2f cd3c 16e7 6cbb
000003a0: 6a69 bcbc 4341 55bd 89bb d0b9 ee6e 283d
000003b0: 8586 8cbc 16e6 253c 7d3b d3bc b903 62bb
000003c0: 7672 d23c 77a7 583c 8b4c bb3b 875a 973b
000003d0: a424 123d 4876 1c3d 9bd2 943c f700 5abd
000003e0: 57a3 6b3c fb0f 50bb 5136 90bc 3275 f5b9
000003f0: 3ee4 843c 2319 72bc 2c10 cb3b b276 5c3c
-0.015350116 0.006172204 -0.0065289414 -0.010058467 0.03120109 -0.008524214 -0.020489527 0.009434431
-0.025711952 0.044730064 0.01325319 -0.015098831 0.02294007 -0.020985853 -0.00097000867 -0.0035467003
0.040503807 0.009093605 0.0038836494 0.019453222 -0.048352044 -0.04201266 -0.0010414375 0.0283556
-0.022928936 0.045441154 0.0024566252 0.0048283176 0.031795956 0.0025138315 0.010000766 -0.002867382
0.061128054 0.0049364883 -0.009468786 -0.0074408352 0.011959798 -0.00017574875 0.032794405 -0.005984289
0.005735988 -0.023579622 0.010718868 -0.024601353 -0.0024951256 -0.00042786016 0.039622795 0.033505473
-0.010010555 -0.0031637002 -0.025491443 0.03065656 -0.023116618 -0.007082037 -0.040868152 -0.016775595
0.018288152 0.007455046 -0.0039934395 0.01907228 -0.025951238 -0.021695808 -0.0007944665 -0.014094257
-0.022413535 0.029081816 -0.021584747 -0.006120582 -0.0142440945 0.01816637 -0.0064048413 0.009417953
-0.03232116 0.036057524 -0.01196876 -0.008786101 -0.009415741 -0.008984567 -0.04785313 0.019375496
0.0036145386 -0.021670679 -0.009879929 -0.0013555947 0.008480044 -0.008262799 -0.012056822 -0.03206704
0.034222163 -0.034144226 -0.0038029002 -0.031152805 0.026759349 -0.02150248 0.005193954 0.0053296806
0.028302336 0.014676504 -0.02204376 0.0025790809 0.054614138 0.008818458 0.015268089 0.031969555
0.014841963 -0.008092597 0.030303594 -0.014566149 -0.03352536 -0.031871755 0.014358933 0.012299269
-0.014458926 -0.024383679 -0.015938943 0.0021093853 0.011010658 -0.031811148 0.025538156 0.007295029
-0.037658665 -0.06430026 0.042033013 0.00010625535 -0.003706844 -0.0032872884 0.0006010521 0.014820545
-0.022667522 -0.032951877 0.0009038185 0.028826268 -0.032070763 0.014465673 0.031914853 0.0025936952
-0.0050527146 -0.044353046 -0.023653131 -0.013479325 0.017204102 -0.0019781291 -0.04784412 -0.021083497
-0.027439456 0.0019602154 -0.007042309 -0.009942861 0.02658962 -0.0394029 0.025705874 0.021946719
0.008644202 -0.010256564 -0.010902958 -0.020199612 -0.005735708 -0.03796985 0.06332715 0.0063534775
-0.018312622 0.019058356 -0.045389563 0.026955906 -0.015034619 0.014076133 -0.013646349 -0.028897544
0.0108633535 0.039359927 -0.032462947 -0.04506215 -0.0031484 0.0015342777 0.00028778985 0.015339211
0.02455968 -0.011968334 0.01283742 0.01479198 0.008002506 -0.0037254973 0.008494032 0.0030657272
0.014127342 -0.025672054 0.019390468 -0.0059524416 -0.004596292 0.03658923 -0.021111853 0.017748019
-0.02162879 -0.020182116 0.010325354 -0.057502802 -0.038954645 -0.013522886 0.032391056 -0.011362282
0.04324558 -0.019719472 0.03904342 -0.046635438 -0.00017034465 -0.010081457 -0.002589841 -0.040853385
0.0012567402 -0.006470408 0.018353978 0.011440885 0.018626686 0.057786796 0.0059854835 0.012150755
-0.03379739 -0.011573885 -0.011492268 -0.020408953 0.049364474 -0.0090929065 -0.04060708 0.052704412
0.039545927 -0.03801587 -0.030131867 0.018600516 0.03966233 0.0024621368 0.025047207 -0.003614848
-0.022999484 -0.05206419 -0.00039812576 0.041121416 -0.017153988 0.010125658 -0.025785202 -0.0034487082
0.025689345 0.0132235205 0.0057159117 0.004618946 0.035679474 0.03819874 0.01816683 -0.053223576
0.014382205 -0.0031747806 -0.017604025 -0.0004681736 0.016222116 -0.014776501 0.006196996 0.013456034

a2c_network.actor_mlp.2.weight f4 [128, 256]
00000000: 28cf 883d 394b 7bbc 5b37 763c ef03 43bc
00000010: 00a6 d73d a1ef dc3c 1459 92bd 40e9 b53d
00000020: d3cb 633d 80b5 5d3d d34f d9bd 7ef0 013e
00000030: b47a 37bd fe4e 6e3d dc85 18be b14d 8a3d
00000040: c60c 123d 8487 903c 64c1 da3d f0d0 f7bd
00000050: 1682 453d 8a03 5a3d 5f2d b9bd d2f0 45be
00000060: ad04 b83d 59fd 6abd 70d8 f0bd 9d2d bc39
00000070: 985c 1f3d a86b 4cba 3548 913c af8a adbd
00000080: 6faa 10bc f37e e3bd 03a3 0fbe 8ad1 28bd
00000090: 1e8b 29bd 3683 29be 22af 91bd 31b6 54bc
000000a0: 29aa e8bd e8a0 d03d 3f00 8abb 89ea c2bc
000000b0: 8981 9d3d d586 92bc 2cc5 e33c dbf4 44bd
000000c0: 7ca9 cb3c f053 2bbd 0f9c 7e3d 8d53 c1bb
000000d0: 64c0 92bc a61e 083e 639b a2bc ee09 0e3d
000000e0: 10b6 cfbd 0806 61bc fd93 3f3d cfcf 85bd
000000f0: 6d07 003d 7386 6e3e d46e 803d b820 ecbb
00000100: ac32 ba3d 759b 81bd 8aba bf3c 7579 ff3c
00000110: 7091 d83a 1ab3 563d fb43 b8bc bef0 6a3c
00000120: 04e4 68bc 13d4 b6bb 14f3 8f3a 03e6 3dbd
00000130: 356d d83c c269 92bc f6e2 f0bb 3e5e 07bd
00000140: bfbe a3bd 87ab 5f3d 7703 f8bb 3704 3f3d
00000150: e793 f3bc c2f9 e6bd 7cde a0bd 2575 713d
00000160: 522b 5abd c9af 6abd e6a4 443d 3e97 4d3d
00000170: cd56 02bd 6910 1d3d 377e 2b3c 43d7 c7bd
00000180: 9c7b 7d3b 0dff f9bc 3cad c53d 9c82 36bd
00000190: 69d1 6a3d 3b29 8cbd 1657 cabc 2d5b 07bd
000001a0: 680f 4abb 8997 61bd 98e8 c2bc 7bfe d5bd
000001b0: f6ef 0c3d c997 be3c c517 d83d 734d b83c
000001c0: 8a09 c53d 0988 2a3d b0e6 883d 742c dd3d
000001d0: c195 30be 48ee a53d 87e0 243d f5c4 af3d
000001e0: d6b3 9bbd 0066 093c 9514 ffbc c02b 4abd
000001f0: 2db7 323d 8bb1 c33c 06c6 833c a90d 683d
00000200: 440f b4bd 202e 8dbd 56a0 933d 15b6 8a3c
00000210: 07b3 46bd 5a91 e8bd 40b7 57bc 5214 eebc
00000220: 18d8 6a3d dfa2 5d3d f5cf 23bd 0dcd cebc
00000230: b59c 82bc 8aa3 873d 2d20 973d 2c90 c0bd
00000240: 6379 773d 4b3c 05bd 083b 533c f1dd e0bb
00000250: e9e5 a7bd 33c2 053d 746d 30bd da4e 15be
00000260: e130 aa3b 7a10 673d dc0b 23bd f5bd 723c
00000270: 01c1 a53d 616e d3bc 46d0 f5bd 5759 9cbd
00000280: 7c8b 943c 990f 1dbd 9403 003a 71e7 c4bd
00000290: 26f6 82bc eef0 09be 65a0 cc3d b5e4 8cbc
000002a0: 98a9 f5bc a3ba 3b3b 3400 8f3d 3c5d 9c3d
000002b0: ad76 2abb f0c6 31bd b8b3 c2bd 0db8 18be
000002c0: 251f 91bd 4bb9 04bd ec36 3a3d bcb2 0bba
000002d0: 2a34 f6bc 2315 cfbd ca6b a23c 942c 57be
000002e0: 1379 053d a74a d73c dbbf 95bc e0b8 863d
000002f0: bc71 8bbd d5e5 eb3b c1ff 6bbd eea0 f9bc
00000300: c4a2 1fbd 7522 de3c 47d1 c7bd 1527 953d
00000310: 2c5a 063d a909 233d 7224 1fbc 2a3b 5e3d
00000320: 2e12 343c dcf9 7bbd 431a 66bd f8ea ae3d
00000330: 8e50 903c 6f42 4a3d df18 133d 66b4 0dbc
00000340: e7fd 1cbd 37ae 0ebe fe38 0dba 046e 3a3d
00000350: 8819 22be bdaa 7abd 376b 2b3d fc74 213b
00000360: 3e5b af3c b669 463b 9ea8 99bc dcc8 dd3d
00000370: e5a0 4cbc d809 033d 5c98 b13d 5874 f93b
00000380: d506 8abb acc8 07bd 65b1 443d 04d0 c5ba
00000390: 9e3b bfbc 2b37 dbb8 99e4 e93b 5f5f 053e
000003a0: 2cda ef3c 72d7 0cbd 0d69 2d3c ef47 733c
000003b0: 73c3 4b3c db26 5bbe ef52 9d3d 142d 843c
000003c0: 6577 04be 4c86 31bc 62ad da3d 9664 d13c
000003d0: 7aeb 87bd c2a9 a03d c171 0abd 9f61 253e
000003e0: cc6f be3b 4475 08bd ddc9 b03d 90a4 0c3d
000003f0: cde5 ddbc e92e a9bb 8600 05bc cf66 32bd
0.06680137 -0.015337759 0.015027846 -0.011902793 0.10529709 0.026969733 -0.071458966 0.088823795
0.055614304 0.05412817 -0.106109284 0.12689397 -0.044794753 0.0581808 -0.14894813 0.067531
0.035656713 0.017642744 0.106814176 -0.121003985 0.048219763 0.05322603 -0.09041857 -0.19330147
0.08985267 -0.057370517 -0.11760032 0.0003589214 0.038906664 -0.00077980245 0.017734626 -0.084737174
-0.008829697 -0.11108198 -0.14027028 -0.041215457 -0.041392438 -0.16553959 -0.07113482 -0.012982891
-0.113605805 0.101869404 -0.004211455 -0.023793476 0.076907225 -0.017886559 0.02780398 -0.048085075
0.02486109 -0.041828096 0.062160548 -0.0058998526 -0.017914005 0.13292941 -0.019849485 0.03467744
-0.101421475 -0.013734348 0.046771992 -0.06533777 0.03125708 0.23293476 0.06271139 -0.007206049
0.09091696 -0.06328479 0.023404378 0.031185845 0.0016522836 0.0524169 -0.022493353 0.014339624
-0.014214519 -0.0055794804 0.0010982477 -0.046361934 0.026419261 -0.017872695 -0.0073512746 -0.03304886
-0.07995366 0.05460694 -0.0075687724 0.04663488 -0.029733611 -0.11278106 -0.078549355 0.05894961
-0.05326397 -0.057296548 0.048008822 0.050193064 -0.03182106 0.038345728 0.010467104 -0.09757855
0.0038678413 -0.030517126 0.096521825 -0.044558153 0.057328615 -0.068438016 -0.024699729 -0.033045936
-0.0030831937 -0.055076156 -0.02379255 -0.10448929 0.034408532 0.023265736 0.10551409 0.022497868
0.0962096 0.04163364 0.06684625 0.107994944 -0.17244627 0.08102089 0.04025319 0.085824884
-0.0760266 0.008386135 -0.031137744 -0.04935813 0.04363172 0.02388837 0.016085636 0.056653652
-0.08791974 -0.06893563 0.07208316 0.016932527 -0.048510578 -0.113558486 -0.013166249 -0.029062424
0.05733499 0.054110404 -0.039993245 -0.02524426 -0.015943864 0.066229895 0.07379184 -0.094024986
0.060418498 -0.032528203 0.012892492 -0.006862395 -0.08198149 0.032655906 -0.043073133 -0.1458086
0.005193815 0.056412198 -0.03980623 0.014815797 0.08093453 -0.025809469 -0.12002616 -0.07634228
0.018132918 -0.038344953 0.00048833457 -0.096144564 -0.015986513 -0.13470814 0.0999153 -0.0171989
-0.029988095 0.002864518 0.069824606 0.076349705 -0.0026010678 -0.043402612 -0.09506935 -0.1491396
-0.070860185 -0.03240327 0.045462534 -0.00053290627 -0.03005417 -0.101114534 0.019826788 -0.21013099
0.03258617 0.026280714 -0.01827996 0.06578231 -0.068088025 0.007199029 -0.057616953 -0.030472245
-0.038973585 0.02711604 -0.09756713 0.07282845 0.03280084 0.039804135 -0.009713279 0.054255642
0.0109906625 -0.06151758 -0.05617739 0.085409105 0.017616536 0.049379762 0.03591239 -0.008648967
-0.038328078 -0.13933645 -0.00053872156 0.045515075 -0.15830052 -0.061197985 0.041850295 0.0024636379
0.021405812 0.003027541 -0.01875716 0.108293265 -0.012489532 0.03199181 0.08671638 0.007612746
-0.00421224 -0.03315036 0.04802074 -0.0015091901 -0.023343857 -0.000104530096 0.0071378467 0.13024662
0.029278837 -0.034385152 0.010584128 0.014848693 0.012436735 -0.21401541 0.07681834 0.016134776
-0.1293617 -0.0108352415 0.106776014 0.025560658 -0.066367105 0.07844879 -0.03379989 0.1615052
0.005811667 -0.03331496 0.08632252 0.034336627 -0.027087117 -0.005163063 -0.008117801 -0.043555077

a2c_network.actor_mlp.2.bias f4 [128]
00000000: a8f6 88bc ea3d 91bb e88d 45bd 3ea7 c5bd
00000010: f06e 5c3c 0415 f4bc ac2a 23bd f263 913d
00000020: dbf8 26bd f76c c6bd f4d9 6cbd 31a3 dfbc
00000030: 4a49 01bd 23a5 1dbd 5a31 493b f26b 393c
00000040: 3df5 4e3b 4265 75bd 20ad 95bc 1264 8d3c
00000050: 3ee4 2dbc 1a2c a1bd d870 c93c 44f6 e73c
00000060: b128 2fbd cee0 0e3d 2e2b 133b 9a0c 2d3d
00000070: 1582 af3c c6d0 98bc 1e85 69bc 4856 b6bc
00000080: 2143 9ebb 3cd4 9cbb a958 5bbd 2e3f b03b
00000090: b643 95bc 8d79 3fbc 6526 293d d292 3e3c
000000a0: a750 48bb 6104 ba3c 9526 ce3c aa2c a7bb
000000b0: afc0 6d3c 0028 1f3d f66a 01bc 1e69 0cbd
000000c0: fecb d5bb 2843 25bc cb8d b6bc ec42 033d
000000d0: ca72 8fbb 373d 80bc e7d1 e7bc 7758 113d
000000e0: 9500 23bd 1c14 7fbd 864b 873c ec2e 063d
000000f0: 00c2 8bbc 76c7 abbc d609 85bd bc5e ecbc
00000100: e203 993b f695 d9bc 3ffe acbb b2f1 9cbb
00000110: 33be 1d3d f2d1 dd3b 759d 49bd 558b 993b
00000120: aa81 29bd d791 6cbd 4f0a ec3b b054 e83b
00000130: 1b5d 2dbd 9491 ff3c 466e adbb 0987 0fbd
00000140: ef9e 97bc 3178 d1bb e2f5 c2bb 5231 483d
00000150: 24e5 f1bb ea19 2abc 8560 a53c efbe 8fbb
00000160: 1268 233d f576 e03c a105 3dbd 1c3c 7c3c
00000170: ccaf febc 6180 3dbd 2f94 4cbd 308f 9abc
00000180: 04e8 ef3c c4b6 d33a b093 92bd 6f1a 2d3d
00000190: a866 d63c fe41 2abd 9a0c 35bc 5e79 d3bc
000001a0: d856 463b d4b4 00bc 2a76 2fbc 9b96 1c3d
000001b0: fee8 8c3b 03b9 2cbd 8d4b fdbc fc65 753c
000001c0: 6545 55bd 3acc 27bc 55d8 d93b 2284 183c
000001d0: d52f e6bb cbc3 84bc c888 f6bc 5dde 473b
000001e0: 7436 4abc 848b c13b 511a 0bbd e3d2 0fbc
000001f0: 2c60 c33c a29f 153d 4df7 6abd b8ea a8bc
-0.016719177 -0.0044324296 -0.048231035 -0.096510395 0.013454184 -0.029795177 -0.039835617 0.07099141
-0.04076467 -0.09688752 -0.057825044 -0.027299495 -0.031564035 -0.038487565 0.0030699582 0.01131724
0.003157928 -0.05991102 -0.018271029 0.017259631 -0.010613499 -0.0786974 0.02458994 0.02831567
-0.042763416 0.03488236 0.0022456157 0.042248346 0.021424333 -0.018654238 -0.014252929 -0.022257939
-0.0048297797 -0.0047860425 -0.05355135 0.0053786254 -0.018220764 -0.011686695 0.04129638 0.011631684
-0.003056565 0.022707166 0.025164882 -0.00510176 0.014511271 0.038856506 -0.007899037 -0.034279935
-0.006524562 -0.010086812 -0.022284409 0.032046244 -0.0043776976 -0.01565419 -0.028298331 0.035484757
-0.039795477 -0.062275037 0.016515505 0.032759592 -0.01706028 -0.020969134 -0.06496017 -0.028853767
0.0046696523 -0.026560765 -0.005279332 -0.0047895545 0.038511466 0.006769412 -0.04922243 0.004685799
-0.041383423 -0.05775627 0.0072033773 0.0070901737 -0.04232512 0.031197347 -0.0052926866 -0.03504089
-0.018508403 -0.0063925018 -0.0059497217 0.04887516 -0.007382052 -0.010382155 0.020187626 -0.0043867747
0.03989417 0.027400473 -0.046147946 0.015395191 -0.031089686 -0.04626501 -0.049946006 -0.018867105
0.029285438 0.0016152491 -0.071570754 0.042261537 0.026171997 -0.04156684 -0.011050368 -0.025814708
0.0030264165 -0.007855613 -0.010709325 0.038229566 0.004300236 -0.04216863 -0.030919814 0.014977928
-0.052068133 -0.0102415625 0.0066481032 0.009308847 -0.007024745 -0.016206643 -0.03009452 0.003049753
-0.012342084 0.005906524 -0.033960644 -0.008778307 0.02384957 0.03652919 -0.05736475 -0.020619735

a2c_network.actor_mlp.4.weight f4 [128, 128]
00000000: de4a be3c 9541 0fbd 2742 96bd f829 babd
00000010: 2601 06be 5386 f5bd 69ae b0bd db1f 0bbe
00000020: cf44 b13d 427c 923b 52ee d13d c91b 503b
00000030: a523 363d b8d3 1a3c 78ee 133d 1526 c6bd
00000040: 3ce5 c43c 8e47 e53d 276d b53d bb7f 04be
00000050: 3ae1 83bd 561f b63d 7ad2 3a3d 5548 4ebd
00000060: c727 bc3d c7da 3f3b 22ef 14bd 3fa0 ae3d
00000070: 77c2 2abd aa75 2d3d d7d9 533c bdd6 17be
00000080: 101d 653d 17c0 85bd b6ac 8c3d f3da 54bd
00000090: 1012 a43d 7ceb 693d 0ba1 bbbd f3d6 4f3d
000000a0: 72aa d1bd 4b8e 433d 0d1f 57bd 7f67 933d
000000b0: 0947 abbd 4982 ddbc 8511 6b3d 22fc d9bd
000000c0: 2bb3 cf3d 8cc2 8dbd b2af 59bc e842 4c3e
000000d0: a22c 943c 7429 393c a2dc 4d3d d255 40bd
000000e0: 6c6e f83c 03c6 67bd cf91 c7bd 5e32 de3c
000000f0: d3a2 20bd 7eb4 d039 060a 9fbd 0445 febb
00000100: 89d2 cdbc edba d23d 059b 0abe 0716 29be
00000110: 1e46 9bbd 030e f3bd 9c51 753d 881c 143e
00000120: cb00 843d 4644 a13c fb2d ccbd 887c 15be
00000130: b957 773d c941 bdbd 2f4f 053d 1454 d63d
00000140: d6c0 3abc 82f2 73bc 1c4c eebc 74e3 8ebc
00000150: 8be6 99bc d3ac 28bd 01a7 07bd 9ad0 c7bd
00000160: fd7a f2bd a844 7cbd 8732 603d fecc 00be
00000170: 8441 9d3c d353 32bd cbcb d43c dc50 a5bb
00000180: 94f2 53bd 331e fd3d df47 173d fb3a 0cbe
00000190: 54f3 d7bc 109a 2abd 8646 4a3d 7cd9 0f3e
000001a0: 4118 1c3c 1c7d 3ebd be9a 59bd 70d5 0f3d
000001b0: e425 09bd cc5f fa3d 41ee 9dbd 95de 1bbe
000001c0: 1993 9b3d fa77 f53c e855 28bd 4cd0 c9bb
000001d0: 06d5 333d c8a5 bd3d 57f2 00bc 4df8 07bd
000001e0: fe6d 8e3b ec29 b6bd efb9 0cbd b2a7 0f3d
000001f0: 8f93 2d3c 9dfe 11bb b5e7 803d cc6a c53c
00000200: 11b5 323d 022c 643d ab77 1dbb 9ac6 033e
00000210: 6b96 e53c aa78 82bd ad5b 603d 1798 b1bd
00000220: a4a0 7f3d 4ba0 a3bc 03f6 ac3d d87d 1dbd
00000230: a37f d23d 23a0 cfbc 9aac 38bd 64e7 09bd
00000240: d375 273d 0cfc 12bc b40b de3c 9c87 cabc
00000250: 4190 8d3c 654c 373d e122 bdbd 882b 173d
00000260: e991 8d3c 0968 b1bd e013 6cbd 1c15 353d
00000270: f32f 6c3d 0f86 03bd 782a 8b3d 5df4 e0bd
00000280: e7a8 cbbc af2a 0f3d fc3d a43d 5c38 69bd
00000290: e9cc 233d 3065 163d 3983 8e3c a21b 30bd
000002a0: d60d 333d 7932 0b3d a9cd 0abd cbff 8fbd
000002b0: eb2b 35bd 2655 2d3d 270a 2a3d 4150 8fbd
000002c0: c5bb cb3c 277d 093d fcb5 37bd 8957 22bd
000002d0: 9ec3 983c 9976 a13d a86c 343d b2e1 22bd
000002e0: 6300 9fbb 3a1d ad3d 393b b53d 0426 05ba
000002f0: 275d 263d 8561 dd3c 2116 413d 04fe 333d
00000300: 4c29 c5bc 70cc 633d 67f8 e53d dbbd c03d
00000310: 4f85 b7bd 88d4 22bd d7e0 ed3b 3862 403d
00000320: ae13 b33d d942 91bd 1e44 543d 12e3 a33d
00000330: bc68 343c bc5b da3d 9f1d a6bd 9340 d23d
00000340: d013 81bd e7be a839 9239 a53c 0ff5 7ebd
00000350: a8aa 423d 9c1f f43d 6a9b 95bc 3893 9abd
00000360: 23d5 6c3d 9337 3dbd e6ab ce3d 169e 8d3d
00000370: 0224 0cbd a664 833d 965e 94bd c078 1bbc
00000380: 711a fa3d e7d5 90bd efe1 06bc 1790 ea3d
00000390: c2e7 b2bd 8d79 b5bb 9ce8 633d 29b2 25be
000003a0: c60f 0ebd 4ad3 803d 8acf 563d 35a8 71bc
000003b0: a0cf a5bd b827 d93c 91f7 f43c de28 31bd
000003c0: ea8c e73d 816d a63d c848 ef3c b6dc 2d3e
000003d0: 653a 4b3d 44d1 b53d 784f 64bc ed57 84bd
000003e0: d0bd b7bc 71a6 b73c d48a e6bd ac58 a13d
000003f0: c303 6bbd 78d1 02be a859 113d e78c 96bd
0.023229059 -0.034974653 -0.07336836 -0.09090036 -0.13086376 -0.11988511 -0.08627016 -0.1358637
0.08655702 0.004470379 0.10250534 0.0031754842 0.044467587 0.009449892 0.036116093 -0.09675232
0.024035089 0.111952886 0.0885871 -0.1293935 -0.06439443 0.088926956 0.045610882 -0.05036195
0.091872744 0.0029274689 -0.036360867 0.08526658 -0.041689362 0.04234854 0.012930355 -0.1482801
0.05593592 -0.06530779 0.068688795 -0.05196662 0.08011258 0.05710934 -0.09161576 0.0507421
-0.10237588 0.047743123 -0.052519847 0.07197475 -0.08363158 -0.027039664 0.057389755 -0.10643794
0.101415955 -0.069218725 -0.013286518 0.19947398 0.018087689 0.011301387 0.05025924 -0.046956845
0.03032609 -0.056585323 -0.09744608 0.027123626 -0.03921778 0.0003980733 -0.07765584 -0.007759692
-0.025124805 0.102895595 -0.13535698 -0.16512309 -0.07581733 -0.11867907 0.059892282 0.14464009
0.06445464 0.019685876 -0.099697076 -0.14598286 0.060386393 -0.09241063 0.03254622 0.104652554
-0.011398515 -0.014889361 -0.029089026 -0.017442442 -0.01878669 -0.041180443 -0.03311825 -0.097565845
-0.118398644 -0.061588913 0.054735687 -0.12578198 0.01919628 -0.043536972 0.025976082 -0.0050450396
-0.051745012 0.12359276 0.036933776 -0.13694374 -0.026361145 -0.04165083 0.049383663 0.14047807
0.009527267 -0.046506032 -0.05312609 0.03511566 -0.0334834 0.12225303 -0.07711459 -0.15221627
0.07596416 0.029964436 -0.04109755 -0.006158864 0.043904327 0.09260136 -0.007870278 -0.033195782
0.004346608 -0.08894715 -0.034357008 0.035072036 0.010594263 -0.0022277005 0.062941946 0.024098776
0.04362971 0.05570603 -0.0024027626 0.12868729 0.028025826 -0.06370671 0.05477493 -0.08671587
0.06240906 -0.019973895 0.084453605 -0.038450092 0.10278251 -0.025344914 -0.04508648 -0.033667937
0.04088385 -0.0089712255 0.02710519 -0.024722867 0.0172807 0.04475059 -0.09235168 0.03690675
0.01728149 -0.08662421 -0.05763614 0.044209585 0.057662915 -0.03211027 0.0679521 -0.109841086
-0.024860812 0.034952816 0.08019635 -0.056938514 0.03999034 0.036717594 0.017396556 -0.042995103
0.043714367 0.03398368 -0.03388754 -0.070312105 -0.044231337 0.042317532 0.04151359 -0.06997729
0.024869809 0.03356662 -0.04485129 -0.03963426 0.018647965 0.07883949 0.044048935 -0.03976602
-0.004852341 0.0845284 0.088491865 -0.0005079212 0.04061618 0.02702404 0.047140244 0.04394342
-0.024067543 0.05561489 0.112290196 0.09411212 -0.089609735 -0.039753467 0.007259469 0.04696867
0.08743988 -0.07092828 0.051822774 0.080022946 0.011011299 0.10662028 -0.081111185 0.10266223
-0.06302607 0.0003218569 0.020169053 -0.062245425 0.04752603 0.119200915 -0.018262584 -0.07547611
0.05782045 -0.046195578 0.10091381 0.06914918 -0.034214027 0.064156815 -0.07244603 -0.009489238
0.122120745 -0.07072049 -0.008232578 0.11453264 -0.087356105 -0.0055381716 0.055641755 -0.16181244
-0.03468301 0.062903 0.05244402 -0.014749576 -0.08096242 0.026508197 0.029903205 -0.043251865
0.11306174 0.08126355 0.02920951 0.16978726 0.049616236 0.08877805 -0.013934962 -0.06462083
-0.022429377 0.022418233 -0.11256948 0.07878241 -0.057376634 -0.12775218 0.035485893 -0.07351094

a2c_network.actor_mlp.4.bias f4 [128]
00000000: 2fa5 54bd fd83 95bd 1bd5 ed3c 2247 023d
00000010: 6274 abbd c3fd 75bd 21f8 48bd 9511 31bc
00000020: 645f 0fbc 6430 0dbd bf47 a3bd 9832 42bc
00000030: 3e92 fbbc 553f 4d3c d429 b0bd 6e16 00bd
00000040: 77f4 853c 4574 063d 4898 063c 1ee9 693d
00000050: 9d1f 86bc 341c 39bd cf89 b63c 520f 9abd
00000060: 1595 27bd 07aa 7bbd c8e3 83bd 5f9d 10bd
00000070: e830 31bc 37a3 b7bd 8f99 6d3d db05 bebb
00000080: a579 3d3c 0f3a c33c 5c2a 09bd b877 8cbd
00000090: c0b4 353b 4f97 ed3c 58ec d9bc 77a6 5fbc
000000a0: 46fa 56bd 8b1d 01bd 4e61 ef3c 71eb 733d
000000b0: 5b42 84bd d853 48bd fdb3 9bbb 4f06 53bc
000000c0: 93a3 4bbc 845f b5bc b51b 43bd a3ab a63c
000000d0: ce7e e43c 8996 5d3d a96d 85bb ce8d b33d
000000e0: 9cd8 00bc 7fb6 a83b 7f50 a93d f547 8f3d
000000f0: 06e4 c93b d497 a93d f177 7ebd 91cc a3bb
00000100: 90f9 273d 811f 513d c7df 50bd 9318 393c
00000110: 461d a63b 5ad7 f03b b5b8 9abd 13d8 3a3d
00000120: 514d ac3b 61bd 713c 0110 693c c6e0 f0bc
00000130: fbe0 0ebe 9ec8 dd3b abf8 29bd b4b8 1abe
00000140: c88e 813c 512a 21bd 1c76 11bd c830 20bd
00000150: dbe0 9e3d bb9b 36bd d524 7fbd e6f0 d5bd
00000160: 9910 b3bd 64cd 3fbd e31b f6bc 1f52 19bd
00000170: 116f 003d 9f99 56bd 9583 f5b9 2b01 f5bc
00000180: fe96 96bd fe97 c13b de52 03be 56a5 afbd
00000190: 35cd 48bd d5ee a2bc 4b38 b4bd acfa 933d
000001a0: 9b75 f5bd db20 e43c f306 073d cf18 c9bd
000001b0: afba 5bbd 0559 fbbc 669c b2bc dd84 f5bc
000001c0: 268e 943d 6e2c 05be dce5 33bd bd25 90bd
000001d0: 1fbe 80bc 5a5d 40bd 62ab 71bd 099d 4cbd
000001e0: e5ac edbb c5ce 313c 5493 1c3d 5ab9 a7bd
000001f0: 8495 ab3b 4fbd 77bd 0dea 973c ead4 ad3b
-0.051915344 -0.073005654 0.02903228 0.03180612 -0.08371808 -0.06005646 -0.04906476 -0.010807415
-0.00875077 -0.034469977 -0.07972669 -0.011852883 -0.030709382 0.012527307 -0.08601728 -0.03127139
0.016351921 0.032825727 0.008215018 0.057107083 -0.016372496 -0.045192912 0.02228251 -0.07522453
-0.04091366 -0.061441448 -0.0643993 -0.03530633 -0.010814883 -0.08966678 0.058007773 -0.005799038
0.011564647 0.023831395 -0.033487663 -0.06858772 0.0027726144 0.029002814 -0.026601955 -0.013650528
-0.052484773 -0.031522315 0.029221203 0.059550706 -0.06457969 -0.048908085 -0.004751681 -0.012879922
-0.012429136 -0.022140272 -0.047633845 0.020345515 0.027892496 0.05409864 -0.0040719104 0.087672815
-0.007864144 0.0051487084 0.082673065 0.069961466 0.0061612157 0.08280912 -0.062126104 -0.0049987515
0.041009486 0.051055435 -0.05099466 0.011297363 0.0050694076 0.0073498907 -0.07554761 0.04561622
0.0052582403 0.014754624 0.014225007 -0.029404055 -0.1395301 0.0067683 -0.041496914 -0.15109521
0.015815154 -0.039346997 -0.03551303 -0.03910902 0.077577315 -0.04458211 -0.062290985 -0.10446338
-0.087434 -0.046826735 -0.030042594 -0.037431832 0.03135592 -0.0523926 -0.00046828078 -0.029907783
-0.07353018 0.0059080115 -0.1282458 -0.08576457 -0.049023826 -0.019889275 -0.087997995 0.07225546
-0.11985322 0.027847698 0.03296561 -0.09819185 -0.053644832 -0.030682096 -0.021803092 -0.02997058
0.07253675 -0.1300523 -0.043920383 -0.07038448 -0.015715657 -0.046964027 -0.059001334 -0.049954448
-0.0072532766 0.01085252 0.03822644 -0.0818965 0.0052363295 -0.060483273 0.018544221 0.0053049223

a2c_network.value.weight f4 [1, 128]
00000000: 7bf9 a83c 6974 91bd feac 3f3d 5f63 b1bc
00000010: 9dac b0bd 62a4 a9bc 26ce 01bd dfd6 a23c
00000020: 2190 0b3d aaa9 333d 6829 f43b 8ed5 8ebd
00000030: a1c6 b7bd 5305 a93d ed7f c4bc 76e1 743d
00000040: 1499 be3d 55fa 533d 0623 903d 2f2c 853d
00000050: c854 92bd 8942 73bd 732e 793c 9e16 bbbd
00000060: ef16 33bd 0623 b8bd 50bd cfbb bc8f 24bc
00000070: f70e fdbd 077f 2bbd 7d5f 303c e03d 1fbd
00000080: 6fa5 a9bb f242 913d b05d acbc 8b9d 53bc
00000090: 5d59 b73d 928b 053d 4327 d9bc b946 913d
000000a0: 333d 313d a921 223a 2457 7f3d 124f 583c
000000b0: 86a0 713a 9b21 81bd a1d0 1b3b b07b 10bd
000000c0: 8d62 953c 2e32 3e3d f358 643d 5698 0f3d
000000d0: c829 a63d 4d9c f83d 5d0b 983d 65be 003d
000000e0: 00f5 1cbd 2cb7 b73d 6342 ca3c fe22 8a3c
000000f0: efa0 51bc 57f7 6e3c 133f 6bbc 375d aebd
00000100: 64bc 0fbd 557c a639 8b08 963d 0806 8abd
00000110: fead 843d 1984 e43c 6a12 ebbd bafa 543d
00000120: 9a2b dd3c 34e0 093d 16db 963b 20ce 54bd
00000130: 75c5 20be 3b8e b63d 4852 263d a674 31be
00000140: 8cee 553d 9d45 d0bd fd26 a83c 5cc8 74ba
00000150: 614c b23c 65e6 b4bd fab2 34bc beb2 82bb
00000160: f30b b2bb a411 0cbe 0bbd 9cbb e2c2 4fbd
00000170: f9e0 813d 3df8 b0bd 6847 7a3d 412d 58bd
00000180: 2a35 d6bd df4f 3dbd 200b 13bc 8f74 55bd
00000190: a3f6 e83c 752a 8dbd e9f4 5fbd 29f2 003d
000001a0: 80bd 37bd f489 863d f7b4 863d f067 adbd
000001b0: 7949 93bc 97dc 78bc 38f9 93bd 4ee3 a23d
000001c0: ff2b fe3c 35f3 e83c 6f40 c0bd 7435 03bd
000001d0: 3b00 0ebd e7ce fcbd 21cb 0abd 2542 9abd
000001e0: edbc b73d d73a 22bd bf8f 703d 8766 44bd
000001f0: d375 a63d d741 323d 6235 c539 ff6b 843d
0.020626774 -0.071022816 0.046795838 -0.02165383 -0.08626673 -0.020708267 -0.03169074 0.01987785
0.034073 0.043862976 0.007451225 -0.06974326 -0.08973432 0.08252969 -0.023986781 0.05978533
0.09306541 0.051752407 0.0703793 0.06502568 -0.07145077 -0.059389625 0.015208828 -0.09135173
-0.043723043 -0.08991055 -0.0063397065 -0.010044035 -0.1235637 -0.04186919 0.010764954 -0.038877368
-0.005177192 0.07092847 -0.021040767 -0.012915979 0.089525916 0.032603808 -0.02650798 0.070935674
0.043271255 0.00061848253 0.062338963 0.013202446 0.000921734 -0.06305238 0.0023775476 -0.035274208
0.01823547 0.046434574 0.05574889 0.03505739 0.08113438 0.12139187 0.074240424 0.031431574
-0.038319588 0.08970484 0.024689859 0.016862389 -0.012794717 0.014585338 -0.0143583 -0.08513873
-0.035091773 0.00031754622 0.07325848 -0.067394316 0.06478499 0.02789502 -0.114781216 0.051996924
0.02699833 0.033661082 0.004603754 -0.05195439 -0.15700324 0.08913847 0.040605813 -0.17329654
0.05222945 -0.10169528 0.020526404 -0.0009337717 0.021764936 -0.08833007 -0.011028999 -0.003988593
-0.0054335534 -0.13678604 -0.004783278 -0.050722964 0.06341738 -0.08641098 0.061103255 -0.052777532
-0.10459359 -0.04621875 -0.00897482 -0.052113112 0.028437918 -0.06892864 -0.054676924 0.031480942
-0.044858456 0.06569281 0.06577485 -0.0846709 -0.01797937 -0.0151893115 -0.07225269 0.07953511
0.031026838 0.028436283 -0.0938729 -0.0320334 -0.03466819 -0.12344151 -0.033885125 -0.07532147
0.089715816 -0.039606895 0.058730837 -0.04794934 0.08127942 0.04351982 0.0003761454 0.06465911

a2c_network.mu.weight f4 [10, 128]
00000000: fb7e e6bd 2613 32bd 0eb4 0abe 6288 b93c
00000010: f262 82bc c666 f8bd 889f 53bd d4f2 a0bb
00000020: 7031 963b f801 54bd e3dc b7bd 9019 46bd
00000030: c5e5 2d3d 452e a6bd 16e4 89bc a714 d43b
00000040: 99d3 483d ba86 b8bb db69 1abe 2576 aabd
00000050: 4af9 10be f3d3 213e b860 e53b 85e9 093d
00000060: 624a 203e 76ba bd3b 1587 16be b197 e43b
00000070: a5a7 5bbd 1dae 6f3d 8f34 a4bd 663a 4a3c
00000080: 3c26 47bd 43f6 b03c 7b98 64bd c3c6 e6bd
00000090: 1474 35bc 3300 053e 9df6 03be 8f1a 36bd
000000a0: 84f6 3e3d 1823 46bd 10e3 fb3b 907b 01bd
000000b0: 18a6 753c 8d9e 833c b3f1 223d b362 4cbd
000000c0: 7147 d13d 179a 2abd 0a61 9bbd ca25 3cbd
000000d0: 2da1 b4bd e798 273e 8813 d1bd c11f 9b3d
000000e0: efe6 6a3d a3e6 ac3b 0535 4dbd 953f b33d
000000f0: b99e b7bd a55a 203e da96 57bc 686d c63d
00000100: 2fb6 473d e7cb 95bc e0d3 9039 e013 d43c
00000110: 21a7 efbd ecbf 753d fdd1 49bd ddd8 893d
00000120: b2ae 243d 6f41 f7bc 9f4e e0bd 33d3 a13d
00000130: c87a 81bd 2c2c 743b e9eb 3abc 057a 94ba
00000140: 786f 283c 3fa1 a33c bc36 8fbd bd89 a53c
00000150: b2af 943d 9df2 763d a7f1 b8bd 8f79 60bc
00000160: f46f 9c3c 55f6 0b3c 1b1f 0fbd 409c 4abd
00000170: e20b d6bc bd66 19bd d18a 7b3d aead a73d
00000180: fad2 8f3c 8bd7 2fbe 1a17 dabc e9c7 36bd
00000190: a2c9 01be 50bf 42bd 91cb 0cbe 5fcd e53c
000001a0: ed17 97bd d548 be3d f343 5ebd 7873 243d
000001b0: 57fb f63d b83a 73bd a635 52bc d5b5 873d
000001c0: c420 69bd 6a61 a53c 75e0 d6bd 5e08 bebc
000001d0: 118e ca3d f5d7 d93d a5af 203c 596f 9f3c
000001e0: 5a10 cf3c 8268 6fbd 9f36 3a3d 55a2 753d
000001f0: 320c a53d 8869 193d 85aa 043e bb99 85bd
00000200: 9685 473c 8ebd 21bd 90b3 cbbd e38b bdbd
00000210: 700d 6ebd 4a37 ef3d ba84 8bb9 8ef4 a83d
00000220: 0d40 cabd 889a 8dbd 649b 14bd a5c8 213d
00000230: c8be 2a3d e97e e3bc ddac 3abe 1e97 0b3c
00000240: 0bee 023d baa4 843d 3ba7 22be 98be 5fbc
00000250: ae11 f83c 5604 17bd c533 5c3d 1818 08bd
00000260: 043c c23d 53fd 8dbd 109b 803c 8310 7d3c
00000270: ccc8 a6bd 6095 0f3d 672a d7bb c89a 20bd
00000280: fa1c eabd 94ae 5a3c dfb4 1c3c 65f5 873b
00000290: 9a77 e0bd c80d 943b 943e 29bc f739 1bbd
000002a0: 7336 7fbd 92af d53d 9762 143d 2597 913d
000002b0: 7d67 163d 4022 69bc 62fe 0e3e 3d4c 4ebd
000002c0: e1f9 0d3b 402b b43d 7935 9fbd 880e 84bd
000002d0: d091 473d 80ac 4b3c c531 583d f24c c43d
000002e0: 5252 9d3d fde0 ccbd c09b b83c 2473 1a3e
000002f0: ae14 8f3d c2bc aebc 9d18 b1bd 5aa8 9b3b
00000300: 832b ea3d 4a3e 3f3d 090d 0ebd aa21 103c
00000310: 1a77 b3bd cf7a e53d f4c3 ec3c 8a81 943d
00000320: 4417 373d 4144 d1bc 9e93 373d 7ebf 893d
00000330: 8d42 483d ec29 113e 825b 16be a4c3 1a3d
00000340: e929 c43d 9c5e a43d 8ac1 27bd 2558 1ebe
00000350: afa4 22be 61fb 0d3e 0f8f 75bd 9686 12be
00000360: be68 24bd d685 e93d 3369 cdbc 65a7 d63c
00000370: 74ce d7bc ff1a b8ba 1bf3 153d 66b6 023d
00000380: 9dad 1bbc ccf3 163d a227 ce3c 5f4c 0bbe
00000390: 8ee0 02be 0320 043d cee2 06be 447c 47bc
000003a0: d15e 34bd 45c9 92bd 4e44 a13d 9043 aebd
000003b0: 213c e0bd beb4 aa3c d920 0c3d 6fd2 883c
000003c0: dc5c f3bd f6f4 75bc 1962 38bd 5974 06be
000003d0: ccca 54bd a934 9cbc c508 e7bc 9df1 433d
000003e0: 858f c13d d174 fbbc 1f4d c03c e956 f1bd
000003f0: 8cd5 873d e1fb 7cbd 03e7 80bc 2b9c 3f3d
-0.11254688 -0.043475293 -0.13545248 0.02264804 -0.015916321 -0.121289775 -0.051665813 -0.00491176
0.00458353 -0.05175969 -0.08977678 -0.048364222 0.042455453 -0.08114294 -0.016832393 0.0064721885
0.04902992 -0.005631295 -0.15079443 -0.083233155 -0.14157596 0.15803508 0.007000055 0.033669967
0.15653375 0.00579005 -0.14699967 0.006976091 -0.053626675 0.058515657 -0.08017837 0.012343025
-0.048620448 0.021601802 -0.05580948 -0.112683795 -0.011075038 0.12988357 -0.12887044 -0.044458922
0.046621814 -0.04837331 0.00768698 -0.03161198 0.014993213 0.016066814 0.039781284 -0.049898814
0.102187045 -0.041650858 -0.07586868 -0.045934476 -0.08819804 0.16366921 -0.102088034 0.07574416
0.05734914 0.0052765175 -0.05009939 0.08752362 -0.08965821 0.15659578 -0.013158524 0.09688836
0.04875773 -0.018285705 0.0002762368 0.025888383 -0.11701799 0.059997484 -0.049272526 0.067308165
0.040205665 -0.030182568 -0.10952496 0.07901611 -0.06322247 0.0037257774 -0.011408784 -0.0011327869
0.0102804825 0.019974349 -0.06992862 0.02020728 0.07260074 0.060289968 -0.090304665 -0.013700857
0.019096352 0.008542617 -0.034941774 -0.049465418 -0.026128713 -0.037451494 0.061411683 0.08187424
0.017556656 -0.17172067 -0.026622344 -0.044624243 -0.12674573 -0.04754573 -0.1374953 0.02805203
-0.0737761 0.09291235 -0.05426402 0.040149182 0.12059658 -0.05938217 -0.012830174 0.066264786
-0.056916013 0.020188052 -0.104920305 -0.02319735 0.09890378 0.10636894 0.009807502 0.019462274
0.025276352 -0.058449276 0.045462247 0.059969265 0.08058967 0.037454158 0.12955673 -0.065234624
0.012177845 -0.039487414 -0.09946358 -0.09255197 -0.058118284 0.116804674 -0.00026611035 0.0824977
-0.09875498 -0.0691424 -0.036281005 0.03949799 0.04168585 -0.027770476 -0.18230005 0.008519916
0.031965297 0.064767316 -0.15884106 -0.013656281 0.030281868 -0.03686937 0.05376031 -0.033226103
0.09484103 -0.069330834 0.01569894 0.015445831 -0.08143768 0.035054564 -0.006566334 -0.03921011
-0.11431308 0.013347287 0.009564607 0.0041491264 -0.10960312 0.0045182444 -0.010329861 -0.037897076
-0.062307786 0.10433878 0.036226835 0.07108907 0.036719788 -0.014229357 0.13964227 -0.050365675
0.0021663832 0.08797312 -0.07773871 -0.06448084 0.048723042 0.012431264 0.05278184 0.09584989
0.07681717 -0.100038506 0.022535205 0.15082985 0.06986366 -0.021330241 -0.08647273 0.0047502937
0.114340805 0.046690263 -0.0346804 0.008797089 -0.08762951 0.112050645 0.028902031 0.0725127
0.044699922 -0.025545241 0.044818513 0.06725977 0.048891593 0.14176148 -0.14683345 0.037784234
0.09578306 0.08025858 -0.040956058 -0.15463312 -0.15883134 0.13865425 -0.059950884 -0.14309153
-0.040138952 0.1140248 -0.025074577 0.026202867 -0.026343562 -0.0014046131 0.036608797 0.03191223
-0.009501842 0.036853597 0.025165383 -0.13603352 -0.12780973 0.03225709 -0.13172457 -0.012175623
-0.044035736 -0.07167295 0.07874356 -0.0850898 -0.10948969 0.020838138 0.034211013 0.016701905
-0.11882946 -0.0150120165 -0.04501543 -0.1313032 -0.051951215 -0.01906808 -0.028202424 0.047837842
0.09451202 -0.03069535 0.023474274 -0.11784155 0.06632528 -0.061763648 -0.015735155 0.046779793

a2c_network.mu.bias f4 [10]
00000000: 6e99 8c3d d2ee dc3d aaa6 70bc a3a1 04bd
00000010: e122 8abd abb0 debd be2b a7bc 2980 90bd
00000020: 6505 92bc 4299 003e
0.06865202 0.10787739 -0.014688173 -0.03238071 -0.06744934 -0.108735405 -0.0204066 -0.070556946
-0.017824838 0.12558463

exp_avg f4 [10]
00000000: f288 a13b 36b3 c3b8 458d 493b 80de 9438
00000010: 89e6 633b 6467 9dba 4c3b 94b9 1721 b33b
00000020: e385 b63b f214 423a
0.004929655 -9.331705e-05 0.003075437 7.098634e-05 0.003477486 -0.0012008962 -0.0002827294 0.005466591
0.0055701598 0.0007403634

exp_avg_sq f4 [10]
00000000: 7ba8 2a38 d8f8 e937 4ec9 2838 0864 0c38
00000010: b86f 0d38 9308 ed37 6bed 2638 3720 2638
00000020: 8612 1438 770b e837
4.0688068e-05 2.7891641e-05 4.02418e-05 3.3471762e-05 3.3721066e-05 2.8256594e-05 3.9798597e-05 3.9607487e-05
3.53032e-05 2.7661894e-05

exp_avg f4 [256, 42]
00000000: db4f c5b9 9012 7ab8 5166 1039 0338 b5b7
00000010: b458 6639 26e2 d4b7 c61c ebb8 a9f6 4fb9
00000020: 9792 c039 0e2b 773a d13e ccb9 a6c1 8eb9
00000030: 2248 17ba e036 cfb9 2144 2439 4a7f 1a3a
00000040: 9266 2ab9 d863 cb38 c067 68b9 f961 03ba
00000050: 4edb c1b9 2113 4339 7d42 94b9 190d d5b8
00000060: a593 a0b8 3e4c 1638 9a4d 8ab9 cf3f 9538
00000070: 98f8 4338 44f3 1bb8 7d21 b437 66d8 4ab8
00000080: ec68 89b7 6962 1fb9 8306 e4b9 7a90 193a
00000090: edfb 24ba 11de ae39 70ac 2d39 e1de 8739
000000a0: 63d0 b639 324f 0e3a e75a 7e3a 219e c4b8
000000b0: e162 ce39 7100 d639 5eff 1ab9 0d43 55b9
000000c0: f892 6f36 caf5 4b3a 5c34 98ba d3df 1cbb
000000d0: c7e8 813a a29a 533a 79a5 983a 901d 373a
000000e0: 0ddf a539 b6ae a4ba 3b78 1d3a ea6d 63ba
000000f0: 64d9 6439 17e4 ae3a cb4a 0e3a e385 bb39
00000100: 0001 ef38 5a59 15b8 042a 2b39 a6c4 a838
00000110: b753 d737 38e6 7ab8 9b37 9f38 07a7 58b5
00000120: 9ecd d1b8 75e8 ba38 34b7 27ba c77d 48ba
00000130: c245 c43a 4f79 c7b9 9445 80b9 79c7 9eba
00000140: e92b 203a e194 a2b9 6dfd 93ba 3b91 a1ba
00000150: eb2c 2239 a418 0038 a700 2737 8061 5d39
00000160: de52 0339 03ad fab8 3e57 a2b8 ebe3 bb39
00000170: ae21 99b9 9db3 14ba 9296 f138 ac63 9ab6
00000180: efd8 a339 9ba0 0239 e66e 5638 a7c2 69b9
00000190: 6aad 8939 ed28 fcb9 5b9e fcb8 f65b 9339
000001a0: f287 c4b6 b03b ad38 83c3 89b8 f14c beb8
000001b0: cb86 ba38 00e7 9338 015b 2a39 3c40 7437
000001c0: 3a2b 9f38 5b96 00b8 bf45 9cb8 a1d8 a238
000001d0: c68f b1b9 e847 5bb9 2ff7 c339 5b69 c339
000001e0: 03ad fc39 1718 2338 b8bf 5239 8ba7 c236
000001f0: 5d20 27ba a3c0 abb9 163c a239 f924 d836
00000200: cce7 1f39 5cb1 8a39 8b56 0639 5b10 02b9
00000210: 39e2 1cb9 1fb4 eb39 6ddf f0b9 2b4b 69ba
00000220: 8d95 9739 d214 4539 e501 c339 e105 4739
00000230: 6de1 bc38 d735 bdb9 31dc a939 aebf 16ba
00000240: 9259 8738 bc8a f839 328e 4cb8 8b49 5b39
00000250: 9bc2 b1b8 33da 10b9 8fcf 1939 fbee c538
00000260: 8740 1a39 bda7 1d38 dc3d 1c39 b263 0037
00000270: 6adc 02b9 70a8 b238 8764 40ba e0c1 1aba
00000280: c27d 1d3a 31bd 0038 9f40 143a 8f94 023a
00000290: e951 ee39 deb3 f3b6 a210 7fba 0744 1fba
000002a0: b807 003b b3ff 80b9 2402 413a 1902 623a
000002b0: a9bc 5b38 5ca9 e5b9 139f 3139 b019 2a3b
000002c0: d2ec 34bb 0495 b6bb 6d48 f13a d267 833a
000002d0: 5377 443b c83e c23a be38 1d3a 6241 2fbb
000002e0: a729 ed3a 49e9 3abb d786 1bb9 ebfc 363b
000002f0: 71d9 853a 55d1 813a 7fd4 6cb9 e6cc 82b9
00000300: f098 7f39 5274 fa38 8a46 013a 599e 89b9
00000310: 840e 42b9 19c2 e837 d655 49b8 d189 2638
00000320: 92ab daba 1bf6 19bb 1560 803b 7738 6639
00000330: 3256 ca3a 0ab3 54bb 527a b43a 5019 81ba
00000340: 3b0c 7abb 5e81 7dbb 86d3 eb3a b6f6 3ab9
00000350: aa9d 3e3a 900d 4d3a 383e 4038 7dce f3b9
00000360: c213 1bb7 0877 123b d50a 1cbb be8b a3bb
00000370: e89b e43a 7871 893a 1820 213b b3b1 a33a
00000380: e146 333a f925 18bb 803f d33a 7e32 1fbb
00000390: 5892 7bb8 5c87 283b 0f53 4b3a 0471 703a
000003a0: 35d7 56b9 6a0d 80b9 aebf 8139 da6c 3639
000003b0: 96a1 df39 e2d8 e8b8 0dfa b2b8 65bc 9837
000003c0: f925 2bb9 f19f 8038 c732 adba 7a13 dcba
000003d0: 057b 493b 6f4e 01b9 ed8e a13a 7aca 03bb
000003e0: 71c1 773a c4d9 b0b9 ec8f 4dbb 391e 42bb
000003f0: 77be 0439 b362 4eb8 a3c9 7f39 5329 f737
-0.00037634265 -5.9621932e-05 0.00013771026 -2.1602964e-05 0.00021967554 -2.5377678e-05 -0.00011211033 -0.00019832946
0.00036730312 0.0009428718 -0.00038956714 -0.0002722863 -0.00057709415 -0.00039523002 0.00015665639 0.00058936013
-0.00016250674 9.698392e-05 -0.00022163894 -0.00050118525 -0.00036975223 0.00018603775 -0.00028278297 -0.00010159071
-7.6568955e-05 3.5833793e-05 -0.0002637923 7.116759e-05 4.6723144e-05 -3.718144e-05 2.1473266e-05 -4.836209e-05
-1.638053e-05 -0.00015200082 -0.000434924 0.00058580155 -0.00062936434 0.0003335332 0.00016562804 0.00025915264
0.00034869005 0.0005428671 0.00097028766 -9.375462e-05 0.00039365052 0.0004081759 -0.00014781716 -0.00020338241
3.5699322e-06 0.0007780461 -0.0011612284 -0.002393712 0.0009911292 0.00080720533 0.0011645994 0.0006985301
0.00031637438 -0.0012564275 0.00060069904 -0.0008675741 0.00021824759 0.0013343123 0.0005428015 0.00035767173
0.00011396594 -3.5607583e-05 0.00016323483 8.047493e-05 2.566898e-05 -5.9819053e-05 7.592068e-05 -8.070933e-07
-0.00010004196 8.91247e-05 -0.0006397844 -0.0007648137 0.0014974403 -0.0003804662 -0.00024465902 -0.0012113891
0.0006110059 -0.0003100997 -0.0011290737 -0.0012326607 0.00015466257 3.0540526e-05 9.954128e-06 0.00021112524
0.00012524004 -0.00011953155 -7.741012e-05 0.00035837232 -0.00029207527 -0.00056725164 0.000115198214 -4.601161e-06
0.0003125141 0.00012457596 5.1124858e-05 -0.00022293125 0.0002625988 -0.00048095678 -0.000120457924 0.0002810654
-5.8570813e-06 8.2604005e-05 -6.569086e-05 -9.0742375e-05 8.894278e-05 7.052533e-05 0.00016246365 1.4558489e-05
7.5897624e-05 -3.0657608e-05 -7.451651e-05 7.765112e-05 -0.0003386719 -0.00020912255 0.00037377464 0.00037271794
0.0004819409 3.8884664e-05 0.00020098581 5.801155e-06 -0.0006375367 -0.00032759187 0.00030943815 6.441606e-06
0.00015249773 0.00026453554 0.00012811476 -0.00012403859 -0.00014961594 0.00044956894 -0.00045942832 -0.00088994455
0.00028912388 0.0001879514 0.0003719471 0.00018980309 9.0065274e-05 -0.00036089003 0.00032398247 -0.00057506084
6.4539854e-05 0.0004740561 -4.876982e-05 0.00020912864 -8.476266e-05 -0.00013814196 0.00014668539 9.4382056e-05
0.00014710623 3.7587935e-05 0.00014900364 7.652607e-06 -0.00012479877 8.519075e-05 -0.00073391985 -0.00059035234
0.0006007814 3.0693776e-05 0.0005655381 0.00049812434 0.00045455925 -7.2629036e-06 -0.00097299565 -0.00060755055
0.001953585 -0.00024604573 0.00073626847 0.00086215284 5.2389372e-05 -0.00043804466 0.00016939295 0.0025955252
-0.0027606976 -0.0055719633 0.0018408425 0.0010025448 0.002997835 0.0014819736 0.000599753 -0.0026741852
0.0018094078 -0.0028520396 -0.00014832184 0.0027921747 0.0010211897 0.0009904305 -0.00022585875 -0.00024948193
0.00024375669 0.00011942595 0.00049314706 -0.00026248654 -0.00018506689 2.7746939e-05 -4.8002075e-05 3.9705836e-05
-0.0016683212 -0.0023492638 0.003917704 0.00021955544 0.0015437065 -0.0032455348 0.0013769364 -0.0009849463
-0.0038154263 -0.0038681845 0.0017992116 -0.00017830249 0.00072714186 0.00078221504 4.5834313e-05 -0.00046502418
-9.24332e-06 0.002234878 -0.0023810167 -0.004991024 0.0017441483 0.0010486087 0.002458578 0.0012488872
0.000683887 -0.0023215993 0.0016116947 -0.002429157 -5.9979357e-05 0.0025715446 0.0007756212 0.0009172114
-0.00020488801 -0.00024424057 0.0002474761 0.00017397423 0.00042654265 -0.0001110302 -8.534277e-05 1.820754e-05
-0.00016321977 6.133307e-05 -0.0013213985 -0.0016790472 0.0030743491 -0.00012331617 0.001232592 -0.00201097
0.0009451127 -0.00033731584 -0.0031366302 -0.0029620065 0.00012659455 -4.9206148e-05 0.0002439381 2.9463938e-05
