logs/rl_games/humanoid_flat_direct/semi_success3_diagonal/nn/last_humanoid_flat_direct_ep_800_rew_5571.007.pth (torch, 759451 bytes, 33 tensors)

value_mean_std.running_mean f8 [1]
00000000: 6977 5a99 74cb 7340
316.7159665616842

value_mean_std.running_var f8 [1]
00000000: 6f65 c4f4 2bec c040
8664.343407201317

value_mean_std.count f8 []
00000000: 0000 0001 00c0 b241
314572801.0

a2c_network.sigma f4 [10]
00000000: 54a8 01c0 8dce f3bf 426f 42bf fc74 a5bf
00000010: 0bb5 64bf 0ed8 9ebf 959f a6bf 8d09 c7bf
00000020: a462 bbbe ea4b 29bf
-2.025899 -1.9047409 -0.75951016 -1.2926326 -0.8933875 -1.2409685 -1.301745 -1.554979
-0.36598694 -0.6613146

a2c_network.actor_mlp.0.weight f4 [256, 42]
00000000: b196 4a3d 118a 123f eb7a 503e 1c18 153e
00000010: 5e03 7c3b 8d34 9a3e 962a 763e 8959 42be
00000020: 2514 10be dfb5 adbc dac0 04be 5347 0b3e
00000030: 5a03 85be f3cd 27be 4e1d ab3d 3ca9 9c3d
00000040: 4205 4b3d 75c1 1bbe 01ff b2bd 5d14 90bd
00000050: d4f0 dc3d b966 2cbe 27a5 77be 5851 1abe
00000060: 187f be3e 699c 4b3e ab51 19be 9bcb a9bd
00000070: 3b37 913b 9106 fa3d a872 9a3e 5e11 7ebe
00000080: 3445 0dbe 819d 2bbd 2b18 90bd 066e 763d
00000090: 245d cf3d 50ce e83d 00f7 c9bd d05a c2bd
000000a0: 9dc2 473c cb39 edbd cad8 ae3d b8dc 903d
000000b0: f001 c73e c5b7 8fbe b9ff 7ebd 854e 833e
000000c0: df20 113e f462 1fbe abcc 95bd 2763 de3d
000000d0: 972e 00be 368e bfbd 69e8 883e fbdf f9bd
000000e0: 60ba 2dbd ca50 94be eae3 38be 9ac4 8abb
000000f0: 38e0 363d 1ee3 debd 0813 563e 6f2c 3dbd
00000100: 9b20 3dbd ad36 53be 5981 1abd 65a9 9bbe
00000110: 6362 803e 5923 083c 5bed c43d bca8 a2be
00000120: 0f19 043d 65f9 683d fd6a 603c 7e3e 19be
00000130: 86d4 7dbd f2ad 9cbd bb3a 83bb 4c1b b0bd
00000140: cf18 0cbd dee4 14bd 322a 75bd 153b 3abd
00000150: 242c b0bd be81 32be ef56 9e3e d2cc 88bc
00000160: 063b 3f3e 09a7 09bd f468 38be 0cbe 253d
00000170: da42 6abe f194 70bd dee6 1ebe 1138 2ebe
00000180: 1aac d23d 0276 a1be e7f9 e43c b322 febd
00000190: 2db5 dc3d d98f 2fbe 04a0 e33c fb49 af3b
000001a0: 88a1 1f3e c2bb 7d3e 2f6c 853e 64ac 61be
000001b0: 49e5 1c3d f744 9cbd dab7 4f3d 8a0d 2abe
000001c0: 803b 603e 9307 45be 82a0 c93d 68ab cd3d
000001d0: 5d9f 043d f5c8 02bd 8425 f03d 7967 cd3c
000001e0: 4b39 1b3d 61cd 8dbd 7191 483d ae23 a23b
000001f0: dcab acbc c1f7 5c3d 36b9 11bc 2890 92be
00000200: 1bac cbbd a6f9 1fb9 2be2 1f3e 0e4e 00be
00000210: b604 febe 1c6c b5bd 24ec 5abe 71ce a73d
00000220: 1544 9b3d ab44 39be a27d 3b3e d556 aa3d
00000230: eb20 2bbd 2de8 83bd 0b2c e6bc 0284 e93c
00000240: 32b2 893d 1085 ffbd 844f 28bd e6d8 0d3e
00000250: 9e7f a03d d5ba 003e 22c0 8c3d 20e7 2bbe
00000260: badd 1cbd 7256 19be 02db 6fbd 5bfe 923d
00000270: 5e36 073e 2b3e 6fbc 36de 29be bd47 443d
00000280: 47bf 943d fae6 863d 1da9 643c fe8d b7bc
00000290: 75cb 21be a285 dbbd b779 6dbc 59bf 153d
000002a0: ddb9 ab3d c450 c63e 0696 843b d603 0bbe
000002b0: e207 273e a8b8 4a3e 3b2a 973e 474d 50be
000002c0: 983d 823d 8776 47bd 4c4a e7bd 101d eb3d
000002d0: a906 803d c076 5a3e b5bb 41be bb41 903d
000002e0: 2692 983d 3e46 b3bc 948b abbd dfe2 53be
000002f0: f2fd ffbc ea4e 3d3e 8971 583e f87d 8d3e
00000300: c8f9 a53e 474b af3e 8afd d03c e5ba 5ebd
00000310: 6987 10be 9ca8 94be 1ddd 173c fc26 1abd
00000320: 91ec cc3b cdb0 92bd 4ed0 09bc 1df5 b6bd
00000330: fa54 2abe 7285 2d3d 4fc4 eabc 1109 bb3d
00000340: 607d 0abd 6e8a 75bd fb43 91bd 6db2 c1bd
00000350: 0d2c 58be f146 92be 0c8a 3d3e ed24 f3bd
00000360: 9769 1f3e 91ac aa3e fbb4 623e d025 10be
00000370: 3374 963d 5eea edbd cc04 5e3e b6d4 b13e
00000380: bfb6 38bd 072b e1bb 6f7e 72bd bdc3 dcbd
00000390: 51e2 a63d 4279 91be dc41 e73d b382 3f3e
000003a0: 7e4b 8b3e 01fd 823e 9e77 08be 8d3f 243e
000003b0: 84db b33b 81d8 fcbd 5543 da3c 0d76 b2bd
000003c0: 6d09 fbbc 076c a4bd 495f 10bd 36df b0bc
000003d0: 12a9 acbd a145 ea3d bb05 243d e2db bdbb
000003e0: 62c6 6cbc a5a3 2ebd dde1 a5bd adf9 99bd
000003f0: 0c41 943c b6cc e0bd db49 ef3c 3788 0e3e
0.049460117 0.5724192 0.2035939 0.14559978 0.0038454155 0.30118218 0.24039683 -0.18979467
-0.14070185 -0.021204887 -0.12964192 0.13601427 -0.2597912 -0.16387157 0.08355199 0.076494664
0.04956556 -0.15210517 -0.087400444 -0.07035134 0.10788122 -0.1683606 -0.24184094 -0.15070093
0.3720634 0.19883884 -0.1497256 -0.08290788 0.004431633 0.12208284 0.301656 -0.24811313
-0.1379593 -0.041898254 -0.0703586 0.06016352 0.10125187 0.11367476 -0.09861565 -0.09489977
0.0121923955 -0.11583289 0.08537443 0.07073349 0.38868666 -0.28069893 -0.062255595 0.25645843
0.14172696 -0.15565091 -0.07314428 0.108587556 -0.12517773 -0.093532965 0.26739815 -0.12200924
-0.04241407 -0.28967887 -0.18055692 -0.0042348625 0.044647425 -0.10883163 0.20905697 -0.046184953
-0.046173673 -0.20626326 -0.03772101 -0.30402675 0.25075063 0.008309209 0.096155845 -0.3176936
0.03225046 0.056878466 0.013697383 -0.14965245 -0.061970256 -0.07650365 -0.004004804 -0.085989565
-0.034203347 -0.036351077 -0.059854694 -0.0454665 -0.08602169 -0.17432305 0.309257 -0.016699228
0.1867486 -0.033606563 -0.18008786 0.040464446 -0.22877064 -0.05873579 -0.15517756 -0.17013575
0.10286732 -0.31535345 0.027951194 -0.12408962 0.10776744 -0.17144717 0.027786262 0.0053493953
0.15588963 0.24778655 0.260591 -0.22038418 0.0383046 -0.076303415 0.050712444 -0.16606727
0.21897697 -0.1924117 0.098450676 0.10042459 0.032378543 -0.03192993 0.117259055 0.025073754
0.037896436 -0.069239385 0.04896683 0.004948101 -0.021078043 0.053947214 -0.008894255 -0.28625607
-0.09944936 -0.00015256423 0.1561362 -0.12529776 -0.4961297 -0.08858511 -0.21379143 0.081936724
0.07581345 -0.18092601 0.18309644 0.08317343 -0.04177944 -0.064407684 -0.028097173 0.028505329
0.06723441 -0.124765515 -0.041091457 0.13852271 0.07836841 0.12571271 0.06872584 -0.16787386
-0.038297392 -0.14974383 -0.05855847 0.07177421 0.13204333 -0.014602224 -0.16588673 0.047919977
0.07263046 0.06587024 0.013956335 -0.022406574 -0.15800269 -0.10718848 -0.014494351 0.036559436
0.0838506 0.38733494 0.0040462045 -0.13575682 0.16311601 0.19797003 0.29524407 -0.20341979
0.06359404 -0.04869702 -0.11293468 0.114801526 0.0625127 0.21334362 -0.18919261 0.07043787
0.074497506 -0.02188408 -0.08376232 -0.20692013 -0.03124902 0.18487135 0.2113706 0.2763517
0.3241713 0.3423712 0.025511522 -0.054377455 -0.14114155 -0.2903489 0.009269026 -0.037634835
0.006253787 -0.07162628 -0.00841148 -0.089334704 -0.16633978 0.04236359 -0.02865806 0.09132589
-0.033810973 -0.05994647 -0.07093044 -0.0945786 -0.21110554 -0.2856975 0.18509692 -0.118722774
0.15567623 0.33334783 0.22139351 -0.14076924 0.07346382 -0.116169676 0.21681517 0.34732598
-0.045096155 -0.0068715843 -0.059202608 -0.107795216 0.08148635 -0.28412825 0.112918586 0.18702202
0.27206033 0.25583652 -0.1332688 0.16039868 0.005488815 -0.12345982 0.026643435 -0.08713923
-0.030644143 -0.08028417 -0.03524712 -0.02159081 -0.08430685 0.11439062 0.040044528 -0.0057940343
-0.014451595 -0.042636532 -0.080997206 -0.07518325 0.018097423 -0.109765455 0.029210022 0.1391915

a2c_network.actor_mlp.0.bias f4 [256]
00000000: 2b52 e8bc 03f0 303c 2239 5cbb ec27 b0bc
00000010: b3db 89ba 2f31 70ba 70b4 2abb 1f88 76bb
00000020: a4ae ddbc 07e0 2f3d d326 463d 014f 22bc
00000030: be30 063d dd61 06bd 56b2 33ba 0ae5 43bc
00000040: 3f46 8c3c 7e3b ad3c 5875 dabc 6fb1 023d
00000050: 8fbb 69bd 5496 d93c a8c3 f6bc d5eb 5d3c
00000060: a74d 30bc 6943 ec3b 9234 cbbc baea 30bc
00000070: 2498 8dba 93e4 b93b 042d a7bb e045 143d
00000080: bc5c 053d 5ca4 7c3d e4e9 503c 5942 04bd
00000090: 74a6 923c b9f8 923c 6d0a 833c 2b4a 86bc
000000a0: 2b0d 86bc 2d67 c1bb 9ee6 803d 794a 61bc
000000b0: 1e62 f83a 1e2f e93c 0511 883c 80a8 013d
000000c0: e7b6 ee3a d924 b0bc 6a37 4abd 2dc4 733d
000000d0: 2f70 d0bc 056f 19bc 2bcb 04bc df2a 99bd
000000e0: 0a07 ad3b ce4f 65bb 0a13 1dbd f4c2 e53b
000000f0: 1ed1 74bd b5af 473c 826d f33b 189c 37bb
00000100: f406 99bc 72b3 4d3d 7887 84bb 7124 d93c
00000110: 5e0f babc 778f 6b3d 1702 863b 02e6 793c
00000120: 0249 82bc fdc0 a93c 69cb 833c 90f3 f53b
00000130: 96be c8bc 0f41 e7bb 4adc 32bd 7dad a0bb
00000140: fa38 c939 d633 b1bb f3cc 763c ec55 453c
00000150: d530 21bc 8191 c63a e743 693c 1657 b0bc
00000160: 622e 54bc e3af 69bc 8988 843c 784d 0dbc
00000170: 5d15 a73b 0d54 b23c 88e0 03bc 375f 2b3c
00000180: 8bfe ba3b 2e50 eabc ea7e 3dbc 5570 c53c
00000190: 634c 953c ff19 b2bb c3e6 4a3d 37ee 913d
000001a0: d7c6 a13c dbca 3a3d 287b ae3c 27d2 89bc
000001b0: f961 c3bc f076 eabc aa55 50bc 1c1f 3ebc
000001c0: 0f35 e83b b243 17bd 1a2c 4dbd 7d27 693b
000001d0: 544c b4bc 2c71 1a3d 5138 b2bc a2be f03c
000001e0: 2917 33bd 2b3d 2bbd b167 073c a5e2 353c
000001f0: 394d 55bc 174b 45bc 8068 c33b 596d b1bc
00000200: 523c ff3a 366e c93c feb1 1bbd d87c 52bc
00000210: 23c4 28bb 7e57 bb3c 5ea2 003d 4eb0 8e3c
00000220: 7944 98bc 8d9d 2fbd 7a74 9cbc 7975 46bd
00000230: 0088 02bc e406 9a3c ebf5 c23c 538b 8fbc
00000240: 2f5a 12bc 130e 7e3b df19 6bbc bc72 9b3c
00000250: 4110 ae3c ec27 ac3c b0d6 8a3d 07b8 3d3d
00000260: 7d9a a43c 0871 67bd 0bd7 98bc 79a2 49bd
00000270: 079a a83c 46d4 debc 05d2 083d e632 19bd
00000280: 3908 c2bc b74b 383d c99e 61bc e5e9 c43c
00000290: c32f 68bc 6400 d33b d416 d3bb 2fb9 cabc
000002a0: 0294 353c eda4 cfbb 93d4 e6bb 3cd4 99bc
000002b0: 2b25 e13b 4e84 5d3d 2d74 0abc 9478 043d
000002c0: 787a 523d d392 28bd a177 8b3d 10c1 683c
000002d0: fe33 b439 e545 e43c 3170 36bd d9ef f23c
000002e0: d5fe 123b a4d9 57bc c0b1 6e3b 1916 073c
000002f0: 185c 96bc d552 bc3d 0ca3 fdba 747c 903c
00000300: 539e aabc 389e 563d e056 813d 8527 6bbc
00000310: 211b d63b 8f42 bf3c 30e9 243d a127 64bc
00000320: dcb4 9d3d 0bd1 4fbd 84ef 803d 9078 4ebd
00000330: 79ca 07bd fcd0 3fbd a538 cfba ac1a b3bd
00000340: 44af 9fbc f7a0 3cbb f343 f73b a243 113d
00000350: 6b2a df3c 7672 e13b 6bca 183d fba4 063d
00000360: 3726 9fbc e2e2 fbbb 1721 2dbd a0b8 b2bc
00000370: bd4e e7bb 9010 47bc f463 6abc 0e98 c63c
00000380: 8521 ff3c 0cbd 093b 96f4 8abc e991 883d
00000390: 5e6a 143d eea0 7f3d a36b cc3c 3070 ddbc
000003a0: cd67 7dba 0e04 e7bc 119e 05bc 7c2f 993d
000003b0: 56b0 ed3c 8497 fc3c b679 46bb 1221 413d
000003c0: 0dec 84ba ceeb c13c 1b22 0dbc 9e00 043c
000003d0: 1c3d 6d3d d365 a73c 87ab 163d 7f5f babc
000003e0: 40e7 713d 554e 1dbc 0c39 fabc da9d e8bc
000003f0: 1bf2 fe3c 9385 063d fd43 f93c 4a9b 71bc
-0.028359493 0.010799411 -0.003360339 -0.021503411 -0.0010517746 -0.00091626024 -0.002604749 -0.0037617756
-0.027060814 0.04293826 0.04837687 -0.009906531 0.032761328 -0.032808173 -0.0006854882 -0.011956463
0.01712334 0.021146532 -0.026667282 0.031907495 -0.057063635 0.02656094 -0.030122593 0.013544996
-0.010760701 0.0072101844 -0.02480534 -0.010798151 -0.0010802788 0.005673 -0.005101802 0.03619945
0.03255914 0.061680183 0.012751076 -0.032289837 0.017901637 0.017940866 0.015996182 -0.016392788
-0.0163637 -0.005902192 0.06293987 -0.013750666 0.001895014 0.02846485 0.016609678 0.031654835
0.0018212468 -0.021501945 -0.049369253 0.05951326 -0.025444118 -0.009364848 -0.00810508 -0.0747888
0.00528038 -0.0034990194 -0.038348235 0.0070117656 -0.059769742 0.012187888 0.007428826 -0.0028016623
-0.018680073 0.05021996 -0.0040444694 0.026506634 -0.022712406 0.057509866 0.0040896046 0.015252592
-0.015903953 0.020721907 0.016088204 0.0075058416 -0.024504941 -0.007057316 -0.043667115 -0.004903494
0.00038380158 -0.0054077907 0.015063512 0.012044411 -0.009838303 0.0015149565 0.014237381 -0.0215259
-0.012950512 -0.014263126 0.016178386 -0.008624427 0.0050989822 0.021768594 -0.008049138 0.010459713
0.0057066134 -0.028602686 -0.011565903 0.024101416 0.0182249 -0.005435228 0.049536478 0.07125514
0.019748135 0.045603614 0.02129896 -0.016823841 -0.023850428 -0.028621167 -0.012715736 -0.011604097
0.007086403 -0.036929794 -0.050090887 0.0035576515 -0.022009052 0.037705585 -0.02175537 0.029387776
-0.04372326 -0.04180638 0.008264468 0.0111014 -0.0130189 -0.012041829 0.005963385 -0.021658586
0.0019472933 0.024588685 -0.038011543 -0.012847148 -0.0025751672 0.022868868 0.031404845 0.017418053
-0.018587338 -0.04287486 -0.01909851 -0.048451874 -0.007966995 0.018802114 0.023798903 -0.01752249
-0.008932634 0.0038765713 -0.01434943 0.018975608 0.021247985 0.02101513 0.0677923 0.04631808
0.020093197 -0.05650428 -0.018657228 -0.04922721 0.020581258 -0.02720083 0.033403415 -0.037402056
-0.023685561 0.044994082 -0.0137707675 0.02403731 -0.0141715435 0.0064392556 -0.0064419303 -0.024746506
0.011082651 -0.0063367994 -0.007044384 -0.018777959 0.006870886 0.054081254 -0.00845055 0.032341555
0.051386327 -0.041155647 0.06809927 0.014206186 0.00034371013 0.02786536 -0.044540588 0.029655384
0.0022429724 -0.013174448 0.0036421865 0.008245015 -0.01835446 0.091954865 -0.001935096 0.017637469
-0.020827448 0.052396983 0.06315398 -0.014352684 0.0065339957 0.023347167 0.040261447 -0.013925464
0.07700512 -0.05073647 0.06295684 -0.050407946 -0.033152077 -0.046830162 -0.0015809728 -0.08745322
-0.019492753 -0.0028782466 0.007545942 0.03546489 0.027241906 0.0068801 0.037302416 0.03287218
-0.019427402 -0.0076869586 -0.042267885 -0.021816552 -0.007058947 -0.012149945 -0.014306057 0.024242427
0.031143913 0.0021017222 -0.01696233 0.06668455 0.036234252 0.062409334 0.024953669 -0.027031034
-0.00096666516 -0.028200176 -0.008155362 0.0747976 0.029014748 0.030833967 -0.0030284948 0.04715068
-0.0010141149 0.02367201 -0.008614088 0.008056788 0.057919607 0.020434296 0.036784675 -0.022750614
0.059058428 -0.009601195 -0.03054478 -0.028395582 0.031121304 0.03284223 0.030427927 -0.014746496

a2c_network.actor_mlp.2.weight f4 [128, 256]
00000000: 41fd 863d efc6 8d3d df25 b9bd edcc 58bd
00000010: ada0 f93d 7bc7 adbd b7bb d4bd 48ba a63d
00000020: 50a2 523d eb21 c0bb 8cea 45bb a885 87bc
00000030: e75b 9e3d b197 b6bb 9085 17be 9338 c6bd
00000040: 471c a33d ded9 4cb8 1ad1 e43d a1e5 413d
00000050: b37c d43a c7f4 6c3d 5182 b0bd addf 4cbd
00000060: 0d0e a6bd fae4 d43d f539 afbd baf7 eb3d
00000070: 4d54 c93c 8c14 09bb 806b d43d 6e6b c3bd
00000080: 01fc 7cbd 1606 87bd c438 9ebd f5d3 09bd
00000090: bcdb e5bd 9231 ddbd 4cfe d5bd c8c9 31bd
000000a0: f1f4 e8bd 27be 443c 7610 5c3d a37f cbbb
000000b0: 099b 4abc d83b bbbd 95dd db3c bd65 c63b
000000c0: 2b33 813c 80cf a9bd ce3a a23c 8989 dcbd
000000d0: e402 8cbc 8d09 b73d c61a a7bd 78bf aebb
000000e0: 1332 203d b411 e63c 8081 40bd 9902 2bbe
000000f0: a26f 23bd e936 713d 19bd e13d 8f29 d1bc
00000100: 9e5c 2d3d ef35 90bc 8a6e 1f3e 799f f23d
00000110: 2f38 90bd f3bf e0bc e783 88bd bc85 393c
00000120: 6271 903d feac 19bd 6834 0dbe e784 a1bc
00000130: b9b6 9b3d c451 d43c 781f 61bc 702f 4ebd
00000140: 8239 b3bc 5001 5ebc 2c2c 86bd 9d16 cbbc
00000150: f8ae edbc fb67 20be 6849 e63d eb19 023d
00000160: 17ae 15bd 37bd a6bd 5566 72bd 183e 163c
00000170: 0efd 63bc 402f a7bc 2dad 583d 8444 89bd
00000180: 920f 19bd 5363 96bc aa43 2d3d a3d5 903c
00000190: 5206 c5bb e942 b2bd 9e6e 14bd 75d0 0d3d
000001a0: 458b 993c f018 023e 9855 98bb eb27 36be
000001b0: c4cd 013c fb79 f73d 3295 9c3d e871 86bc
000001c0: 9607 bdbd ef7b 5d3d 3b4f 033c 60dc cf3b
000001d0: d8f0 09be e7b9 d33d 086c 823d bfd2 02be
000001e0: 2f38 8ebd 63a8 523d 069f b1bc 0eed 56bd
000001f0: 8b65 8b3d 85c9 c5bb 7d79 0e3d a3c5 1abd
00000200: 862e bb3c 879c fdbd 6dc3 663e 8563 fc3d
00000210: 2339 76bc eadc a8bd fabd f83d cbe7 853b
00000220: ea30 6f3d 447c 3e3d bb20 9ebd 3ab8 12bd
00000230: 220f 863d d83b 4cbc c967 8a3d 6122 2abe
00000240: e0b6 3c3d 882c 003e 281d ef3c 68e0 bebd
00000250: 0293 2bbd 234c 3e3c a3fc b73d 71b1 e7bd
00000260: c8c7 ab3d 0845 2f3d 6361 7bbc 22cc 063e
00000270: f782 813d 88b2 783d 8db2 213d a6aa 8ebd
00000280: 6950 ad3c 4911 8dbd 84a0 33bc 0c65 adbd
00000290: ea9a dfbd 8d2a e0bd 8320 653d f6d9 903d
000002a0: 57c2 f53b 01ac 3fbd ecb4 b43d 3a59 38bd
000002b0: 026b 84bc 3ee3 46bd 1bf0 693c 985d 8d3c
000002c0: 8e9b bcbc 4ee6 9a3d 6ac9 b23c 039d ab3d
000002d0: 4df9 233c b5cc c9bd 5c13 93bd a980 8abd
000002e0: 4249 9a3d f3cb ff3c 1fbe aabc 2b32 f33d
000002f0: 1a59 44bd f5df 0c3c 992f bcbd 94d4 29be
00000300: bb4e a1bc f96b 4ebd 6e92 c4bd 4835 3bbd
00000310: ff79 83bc d429 383d 237a 0fbd 1869 08bb
00000320: cb74 733d d654 e5bd 4b88 853a 2dcd 923d
00000330: eeda 553c 338f 743d 6f0d 9b3d bbe5 e23c
00000340: 2bf5 acbc 10e0 dabd 7161 a6bc cd10 af3d
00000350: 7665 20be c2fc 40bd de2f 8abc 5dae 76bc
00000360: ac83 80bd 6e1f e03c e190 08bd bd20 983c
00000370: 0994 8bbd 1048 cc3b af0f 823d 1432 7bbc
00000380: fb0c 8cbd b1dd d4bc d487 7bbc cf66 59bc
00000390: fb82 2c3d c859 823d 12f8 29bc 9284 3f3e
000003a0: 6339 3c3d 3719 83bc ce77 00bd 1c4e 383c
000003b0: c8eb 1fbb e610 6abd c46d b23d 68d7 9e3d
000003c0: db45 12bd ead7 43bd cd6e 0c3e ffe0 423c
000003d0: adde cfba 317d 62bd f136 b13d bb41 eb3c
000003e0: fb90 ab3c 5795 bfbb 1c1a 073e 747d 3b3d
000003f0: e28e db3b 50e3 abbd 0f7a 1bbb 47ac 5f3b
0.06591273 0.06922709 -0.090404265 -0.052929807 0.121888496 -0.084853135 -0.10387366 0.08140999
0.051424325 -0.0058634183 -0.0030199615 -0.016543224 0.07732373 -0.0055722822 -0.14797044 -0.096787594
0.07964378 -4.8840295e-05 0.111726955 0.04733813 0.001621148 0.057850625 -0.08618606 -0.050018
-0.08108149 0.10395236 -0.08555976 0.115218595 0.02457633 -0.0020916788 0.103720665 -0.09541975
-0.061763767 -0.06592958 -0.07725671 -0.033649404 -0.11223552 -0.108004704 -0.10448894 -0.043405324
-0.11374844 0.0120082265 0.053726636 -0.006210284 -0.012366065 -0.09142274 0.026839057 0.0060546086
0.01577147 -0.082915306 0.01980343 -0.1076842 -0.017091222 0.089373685 -0.081594035 -0.0053328834
0.039110254 0.028084613 -0.0469985 -0.1670021 -0.039901383 0.058890257 0.11022396 -0.025532512
0.042324655 -0.017603843 0.15569511 0.11846823 -0.07041966 -0.027435279 -0.066657834 0.011323389
0.07052876 -0.037518494 -0.13789523 -0.019716693 0.07603211 0.025917895 -0.013740413 -0.05033821
-0.021878008 -0.013550118 -0.06551394 -0.024791056 -0.029014096 -0.15664665 0.1124447 0.031763
-0.03654298 -0.081415586 -0.059179623 0.009170078 -0.013915313 -0.020408273 0.05289953 -0.067025214
-0.037368365 -0.018357908 0.042300858 0.017679995 -0.0060127163 -0.08704168 -0.036238305 0.03462263
0.018743167 0.12704825 -0.0046488754 -0.17788665 0.0079225935 0.12083813 0.07645644 -0.016411737
-0.092299625 0.05407327 0.0080144955 0.0063434094 -0.13470781 0.103381924 0.063682616 -0.12775706
-0.0694431 0.051430117 -0.021682274 -0.052472167 0.06806477 -0.006035986 0.03478383 -0.037786137
0.022849333 -0.12383371 0.22535487 0.12323669 -0.015028271 -0.08245261 0.1214561 0.0040864698
0.058396257 0.046505228 -0.077210866 -0.035820223 0.06545855 -0.01246544 0.06758077 -0.16614677
0.04607284 0.12516987 0.029188707 -0.09320146 -0.041888244 0.011614832 0.089837335 -0.11313141
0.083877146 0.042790443 -0.015343043 0.13163808 0.06323808 0.060717136 0.03947692 -0.06966142
0.021156507 -0.068880625 -0.010963563 -0.08466539 -0.109182194 -0.10945616 0.05593921 0.07072823
0.0074999738 -0.046794895 0.088235706 -0.045006968 -0.016164307 -0.04855656 0.014278437 0.017256543
-0.023023393 0.075634584 0.021824557 0.08379557 0.010008168 -0.09853498 -0.07181427 -0.06762821
0.07533504 0.03122518 -0.02084261 0.11874803 -0.047936536 0.008598317 -0.09188766 -0.16584998
-0.019690862 -0.05039594 -0.09598242 -0.04570511 -0.016049383 0.044961765 -0.035028588 -0.0020814594
0.059437554 -0.11197822 0.0010187713 0.071680404 0.013052685 0.059706878 0.07570922 0.027697435
-0.021112999 -0.10687268 -0.020310136 0.08548126 -0.15663704 -0.04711605 -0.016868528 -0.01505622
-0.062751144 0.027358737 -0.033341292 0.018570298 -0.06815345 0.0062341765 0.06350648 -0.015331764
-0.06838413 -0.025984617 -0.015352208 -0.01326914 0.0421171 0.06364781 -0.010374086 0.18702915
0.045953166 -0.016003234 -0.031364255 0.0112490915 -0.0024402011 -0.05714502 0.087123424 0.07755929
-0.03571115 -0.047813334 0.13714142 0.011894464 -0.0015859209 -0.055295173 0.08653057 0.028717866
0.020943156 -0.00584666 0.13193554 0.04577394 0.0067003826 -0.08392966 -0.0023723876 0.0034129785

a2c_network.actor_mlp.2.bias f4 [128]
00000000: 8d4d 29bb b39d 473c e392 1abd 4503 b7bd
00000010: f6ac 253d c026 15bd 8d15 87bd e9ca b2bc
00000020: d161 96bd 2c9c babd ddce dfbb c52b acbc
00000030: 11f0 b0bc b2b1 4c3d 2b42 013d 98ab b439
00000040: 6b1d f83c f9fa bcbc 5cf1 1cbd b529 863b
00000050: 7f85 0abd c568 b1bc 664a 48bc add6 7bbd
00000060: 630a d0bb 6ba1 85bd 0f8c 21bd 3523 1a3d
00000070: db00 6c3c 2a85 8abc 99bf 6cbc 21c2 30bc
00000080: eafc 983b 0c85 f8bb 5851 5ebd 0408 1bbd
00000090: 640f 05be b688 b3bc 4b0b 2f3d a606 d0bb
000000a0: 1747 2dbb 2017 34bd 9d9d 41bb 0f34 6b3c
000000b0: 936c 29ba 4ac8 13bb 511c 4abc 8de6 d9bc
000000c0: b079 9ebd ea8b 4f3a 8fe3 08bd 7a41 113d
000000d0: 7bec ff3c 7352 0bbd 1914 8fbd ad4c b1bc
000000e0: 2bcd ecbc ba77 0c3d 4e74 33bb f83f 79bd
000000f0: 0282 41bb 1c44 83bc 4c1d 7abc 2d63 6d3c
00000100: f9b4 a53c fb56 9fbb facf 88bc 989e f5bc
00000110: 1404 89bb c9e4 bebc 553d 68bd 353b 293c
00000120: 62b4 abbc 5c3e 8f3c 37af 683c 0e4d 2abc
00000130: d548 52bd b8bb d7bc 9826 893c 2946 f13b
00000140: df40 2f3d aff5 2bbd ba6f 32bc fb04 2e3b
00000150: cdd5 babb 1c3a 1d3c 4593 03bc 6274 783c
00000160: 8188 25bd bddd 3ebd 826c 163c e917 093d
00000170: 4033 7cbd 9604 cbbb cb10 dfbc ee67 4a3d
00000180: 042e 353d 9417 16bd 9df4 543c d7fc ccbc
00000190: 6d79 62bd d214 4dbd 971a bbbb 536b 2fbd
000001a0: a33d 0e3c 3385 adbb 6918 bcbc 2187 a0bc
000001b0: 55ab 413c e32b b2bc 5d45 66bd 15cb 403c
000001c0: ef98 4bbd 055a 53bd b79f 543b 6931 1a3d
000001d0: f140 853b d40b 8aba 4f1d 9abc 3c62 d7bc
000001e0: bfde d73b 4c5f 7ebd 7284 903c 72f4 06bd
000001f0: ae4c e9bd 24cf 923c 6ff9 a0bd 187a 033b
-0.0025833577 0.0121835945 -0.03773774 -0.089361705 0.04044815 -0.036413908 -0.06595907 -0.02182527
-0.07342876 -0.09111819 -0.00683008 -0.021016965 -0.021598848 0.04997415 0.031557243 0.00034460123
0.030287465 -0.023068892 -0.038316116 0.0040943273 -0.033818718 -0.021656403 -0.012224769 -0.061484028
-0.0063488944 -0.06524929 -0.03944021 0.037631232 0.014404501 -0.0169092 -0.014449977 -0.010788471
0.0046688216 -0.00758422 -0.054276794 -0.03784944 -0.12994152 -0.021915775 0.04273538 -0.006348449
-0.0026440078 -0.043967366 -0.0029543408 0.014355673 -0.0006463017 -0.0022549802 -0.012335853 -0.026599193
-0.07738054 0.0007917272 -0.03342014 0.035462834 0.031240692 -0.034014177 -0.06986255 -0.021643007
-0.028906425 0.034293868 -0.0027382555 -0.06085202 -0.0029526954 -0.016023688 -0.015265774 0.014488977
0.020227896 -0.004862664 -0.016700733 -0.02998285 -0.0041813944 -0.023302453 -0.056699116 0.010329057
-0.020960037 0.01748579 0.014201931 -0.010394348 -0.05133899 -0.026334628 0.016742036 0.0073631
0.042786475 -0.04198235 -0.0108908955 0.0026553262 -0.0057017566 0.009596374 -0.008030717 0.015164467
-0.040413383 -0.046598185 0.009181144 0.033470068 -0.061572313 -0.006195615 -0.027229687 0.04941552
0.044233337 -0.03664358 0.0129977735 -0.025022907 -0.055291582 -0.050068684 -0.005709957 -0.04282696
0.0086816875 -0.0052954196 -0.022960858 -0.019595684 0.011820634 -0.021749442 -0.056218494 0.0117671685
-0.049706396 -0.05159952 0.003244383 0.037644777 0.0040665795 -0.001053209 -0.018812804 -0.026291959
0.0065878327 -0.0621026 0.01764128 -0.032947965 -0.113915786 0.017921038 -0.07860076 0.0020061787

a2c_network.actor_mlp.4.weight f4 [128, 128]
00000000: e9c2 86bd 6543 6dbd 5e92 473e bddf 06be
00000010: e250 c4bd 08d9 1dbe e700 8fbd 7b3d 2bbc
00000020: 23b4 543d a799 e0bd ea41 fb3d e648 843d
00000030: d8d2 b4bc 6617 2b3c 36d3 883d 5db3 cabb
00000040: d356 a03d cf9a e23d 5fdf b53d c5d9 a2bd
00000050: 6b77 183c 593a de3d ee34 503b cf14 9fbd
00000060: 4a77 df3c b9a0 e13c bad0 003d d19d b33d
00000070: a3c6 783d ec3d d53c 5edb 2b3c b1dd 33bd
00000080: 5774 4b3d ee94 ebbd 3206 e33d dfb8 25bd
00000090: 698a 503d 9920 523e 125d 32be 17d0 27bd
000000a0: c75c 07be aa51 203e bb3b 61bc cf1f a13d
000000b0: e5e2 20bd a5ca dabc a1ad 413c c703 bcbd
000000c0: 2bdc 233d 7532 10be a55d 103d 307f f33d
000000d0: 47f0 f53d e80d 53bd 8eb6 b5bb 5b5e dbbd
000000e0: a600 513d e0f0 873e 1885 aebd 1f8f 1f3c
000000f0: aeb4 79bd 3d23 48bd 2cf8 e1bd 55f7 103e
00000100: e7c3 1bbd 734f 0b3e 5381 e0bd 55b1 96be
00000110: 21cc 07be a5a4 4dbe dbcf b13d 8303 96bd
00000120: 13b6 b23d 32e5 723e 9182 4cbe 7cb6 13be
00000130: 8a91 783d 8d43 9b3d a8de 333e cbe0 3e3d
00000140: 9e23 ca3c a48a c8bc 04bb 783e 3b8f 583d
00000150: 155a 853d af0e 46be 3a79 97be 7658 52bd
00000160: 9e4a cabd 9d16 c73d 37f1 913d 1eeb 4abc
00000170: 5e27 c93d f24e e73d 0ea6 85bd d939 37bc
00000180: deb6 4c3d 26c0 ef3d 4cd9 0cbe 3870 0abd
00000190: b9d1 233e 5823 f2bd a516 523d f497 503e
000001a0: 23a1 b83d f9c7 a03c 8db9 ffbd 4682 fe3b
000001b0: 8810 e1bc b738 363d 4876 adbd 8fd1 60be
000001c0: e098 3f3d 941d c4bb 850b 4dbe f75e 6bbc
000001d0: e9b9 443d 9adb 073d b000 983c b733 cebc
000001e0: 9e2a 74bd 382e 1abd 6d4b 9c3c 8611 523d
000001f0: 297e bf3d 3dbb ed3d 13ac 2bbc 0a77 233d
00000200: bb70 e5bd b46a 7cba 96ef b0bd a3b2 b63d
00000210: 0f36 a73e 428f 0abd 0b38 a4bc 0dc7 e8bd
00000220: f0a5 82bc 13e2 0ebe 2527 0d3e 48e3 65bd
00000230: 19fe 8f3d e4f3 84bd 954a e2bc b180 d73c
00000240: 51a3 d13d 03ad c7bd ccc8 8ebd 3c1a 96bd
00000250: c321 503d b9f8 abbd 1dc3 05be ed3c 793e
00000260: 631c 73bd e421 053d 980e a6bd 1e88 0e3e
00000270: f156 a339 254a cdbd 06ba 6a3d 5961 1fbe
00000280: ff23 87bb d93d bc3d fab1 053e 005b cabd
00000290: 8ba8 af3d 71e7 c7bc 26be 873d e02a 8cbd
000002a0: 9a5e 493d d35b 4e3d f643 aebd 8182 dfbd
000002b0: c0b2 9fbd 4bd7 fa3c d17a 833c 26e8 19be
000002c0: 6380 083d 9525 2e3e d2bf 53be 7f46 8fbd
000002d0: 780c cc3c 43f4 993d 4673 c2bb 6007 d23b
000002e0: 7d45 e8bd 05a4 393d 57e2 c13d c0a8 b03d
000002f0: 15d9 c03d 5b55 bebc 6157 f3bb 20f9 8d3d
00000300: 32b6 c9bd dbc8 393d dec7 143d 4e7a 843d
00000310: af5f 1cbd 8d78 88bd c942 5b3d 2f4a 8e3d
00000320: f6f2 023d b751 6ebd d7aa c23d 43b1 e83d
00000330: 26d3 74bd a717 0c3e 3dde 3ebd 2431 9c3d
00000340: 2010 a6bc 10bb 183d cda4 febd a6dd 1f3d
00000350: 374b 68bd 9cf8 e23d b662 f83b 7bfe 8cbd
00000360: 2ad8 2f3d c453 99bd 5e88 873d b0c7 f53d
00000370: 63d0 dabd 5c86 1dbe 01ed a2bd f0be bf3c
00000380: 9153 d8bc fd75 07be 8ccd bfbd 3b16 c73b
00000390: a621 c5bd 4437 94bd db8f a93c 340c d2bd
000003a0: 665a 15be 3f77 ec3c bcc4 0abd 5f44 c3bc
000003b0: ec28 10be 8df3 16be ad81 f43c d38c 7c3d
000003c0: 490a ba3d fad4 b13d 88db 583b 4770 643e
000003d0: 3435 debc 4895 fe3d fb6f d3bc 9bd7 90bd
000003e0: 8f0b eebd e3e1 343e b896 e3bd 59ee 553a
000003f0: 49d4 89bd 8294 503b 38cf acbb b0c7 f7bd
-0.06580145 -0.0579256 0.19489428 -0.13171287 -0.0958574 -0.15414822 -0.06982594 -0.01045167
0.051929604 -0.10966807 0.122684315 0.06459217 -0.022073194 0.01044259 0.0668091 -0.0061859326
0.078290604 0.11064684 0.08880495 -0.079516925 0.009305815 0.10850973 0.003176983 -0.07767641
0.027278561 0.027542459 0.031449057 0.087703355 0.06073631 0.026030503 0.010489313 -0.043912593
0.049671497 -0.115030155 0.11085166 -0.04045951 0.05091325 0.20520248 -0.17418316 -0.040969934
-0.13218985 0.15656152 -0.013747151 0.07867395 -0.039278883 -0.026707957 0.0118211815 -0.09180408
0.04000489 -0.14081748 0.035245556 0.118894935 0.1200872 -0.051526934 -0.005545444 -0.10711356
0.05102601 0.2655096 -0.08521479 0.009738713 -0.060963325 -0.04886173 -0.11033663 0.1415685
-0.038028624 0.13604526 -0.10962167 -0.2943217 -0.13261463 -0.20082338 0.086822234 -0.073248886
0.08726134 0.23720244 -0.19971682 -0.14425081 0.060685672 0.07581244 0.17565405 0.046601098
0.024675187 -0.024480172 0.24290091 0.05287097 0.065113224 -0.19341539 -0.29584676 -0.051353894
-0.09877513 0.0972111 0.07126086 -0.012385158 0.09821962 0.112943545 -0.06525813 -0.011183226
0.049979083 0.11706571 -0.13754767 -0.033798426 0.15997972 -0.118231475 0.051291127 0.20370466
0.090151094 0.019626604 -0.12486563 0.0077669946 -0.027473703 0.04448768 -0.08469826 -0.2195494
0.046776652 -0.0059849713 -0.20023926 -0.014365903 0.04802886 0.033168413 0.018555015 -0.025171144
-0.059610955 -0.037641734 0.019078935 0.051286243 0.09350235 0.116079785 -0.010478037 0.039908446
-0.11203142 -0.0009628937 -0.086394474 0.08920791 0.3265843 -0.033828028 -0.020046255 -0.11366091
-0.015948266 -0.13953428 0.13784464 -0.056124955 0.07030887 -0.06491831 -0.027623454 0.026306482
0.10236228 -0.09749796 -0.06971893 -0.073292226 0.050813448 -0.083970495 -0.13062711 0.24339648
-0.059353244 0.032503024 -0.08108252 0.13919112 0.0003115456 -0.100239076 0.057306312 -0.15564479
-0.004124164 0.09191484 0.13056174 -0.09880638 0.08577069 -0.024402352 0.06628065 -0.06844115
0.049162485 0.05038054 -0.08509056 -0.109135635 -0.07797766 0.030620238 0.016049774 -0.15029964
0.033325564 0.17006524 -0.20678642 -0.06995868 0.02490829 0.07517292 -0.005934152 0.0064095706
-0.11341379 0.045322437 0.09466999 0.086259365 0.09416405 -0.02323406 -0.007426188 0.069322824
-0.09849204 0.045357566 0.03632342 0.0646864 -0.03817719 -0.06663618 0.05353049 0.06947743
0.031969987 -0.058183398 0.09505241 0.11361935 -0.05977168 0.13680898 -0.04659866 0.0762656
-0.02027136 0.03728777 -0.12433777 0.03902974 -0.056712355 0.11082575 0.0075801266 -0.06884476
0.04293076 -0.0748668 0.06617807 0.12000978 -0.10684278 -0.15383285 -0.07955361 0.023406476
-0.026407035 -0.13228603 -0.09365377 0.006075648 -0.096255586 -0.072371036 0.020698478 -0.10256234
-0.14585266 0.028865455 -0.033879027 -0.023836313 -0.1407811 -0.14741345 0.02984699 0.061657738
0.09083993 0.086832 0.0033089835 0.22308455 -0.027124979 0.12430817 -0.025810232 -0.070723735
-0.116232984 0.17664294 -0.11112732 0.0008160822 -0.06729943 0.0031826799 -0.005273726 -0.12098634

a2c_network.actor_mlp.4.bias f4 [128]
00000000: f650 51bd 607d b4bc 2448 033d d19a 5fbd
00000010: def8 79bc a7e9 a8bd c29e 4f3c 824e 413c
00000020: c34c 9fbd f428 3ebd fd18 5abd 9d12 cdbc
00000030: 6f08 2f3b d00a d83c 0860 e0bc f760 c13b
00000040: 65cf 4438 8b62 573c fcd7 4abd 8625 7cbc
00000050: 313e dbbc a84b 04bd 0f7f dcbb 8553 febd
00000060: 17ff 2cbd 12bb f5bc f944 f03b 6406 0cbd
00000070: 25ce ef3c bf7b f5bc 330b 553d 0506 8fbd
00000080: cf47 bebc cddc 85bd 7b8a 9abb c78b ccbc
00000090: 1073 85bc 3291 f03c cc2a 73bd 6cb0 15bd
000000a0: b9e5 4dbb 7874 4fbd 9e1d ffbc f416 15ba
000000b0: 24f3 82bd 0fba 823b c486 61bc 0941 073c
000000c0: da22 7e3d 90c4 2abd f439 c2bd 9a25 c5bc
000000d0: 8f7b 703c 163f 023c 03cd 92bd 8fc9 c13b
000000e0: 3c17 b33c 4eda 94bc 4fbb 1ebc 97a4 69bd
000000f0: 9a6d f7bc c3e6 573d 645e 683b fd88 c4bc
00000100: 6732 3cbd 0d0c 6b3d 06af 30bd 4f21 08bc
00000110: f167 6cbc e268 123d 1e5d e4bd ba14 5b3d
00000120: 7735 fe3c 53fb c33c a750 31bd df26 db3c
00000130: b619 553a dee4 eb3c 9d7f eabc f4db 593d
00000140: 6f6e 1e3d 252e 95bc ce21 b7bd 1f91 acbc
00000150: f66f 0bbd fdd1 7fbd df90 b5bc 02f1 f2bc
00000160: 75b8 3abb 1974 933b 75ef 55bd 9ef0 64bc
00000170: 17e0 d5bc 114d 4c3d f02f 9b3c 0eaa 7dbc
00000180: 5098 19bd 4c47 8cbd 1390 00be 36a0 063b
00000190: 0255 8cbc 315c c33b 6bb6 adbd aac0 403d
000001a0: dab1 e1bb 935f e7bb 5fec 9cbc 2be6 73bd
000001b0: 857f b3bd 2f3e bcbd 73da 4f3d 612a 863c
000001c0: 098b 2ebd 00d0 07bd b0dd f0bb 08c7 953c
000001d0: 82f8 883d c54d 01be 8b2b bdbb 77f4 27bd
000001e0: edec 2d3d 6157 5e3c 392d ad3d 9841 e4bc
000001f0: 86ad f63c 4475 46bd be1d 6dbd 84ef 923c
-0.0511026 -0.02203244 0.03205122 -0.054591004 -0.0152570885 -0.08247691 0.012672128 0.011798503
-0.07778313 -0.046425775 -0.053246487 -0.02503329 0.0026707908 0.026372343 -0.027389541 0.0059014517
4.6923193e-05 0.013146053 -0.049522385 -0.015389806 -0.026763054 -0.032298714 -0.0067290138 -0.12418274
-0.04223546 -0.029996429 0.007332441 -0.034185782 0.029273102 -0.029966233 0.052012634 -0.0698357
-0.0232276 -0.06536255 -0.004716215 -0.024968995 -0.016290218 0.02936611 -0.059366986 -0.036545202
-0.0031417443 -0.050648183 -0.031142052 -0.0005687319 -0.06394032 0.003989465 -0.013765041 0.008255252
0.062044956 -0.041691363 -0.0948371 -0.024065781 0.014677896 0.007949611 -0.07168009 0.0059139202
0.021861665 -0.018170502 -0.009688213 -0.05704173 -0.03020363 0.052710306 0.0035456652 -0.023991102
-0.045946505 0.05738454 -0.043135665 -0.008308723 -0.014429078 0.035744555 -0.11150573 0.053486563
0.031031353 0.023923552 -0.043289807 0.026751934 0.00081291364 0.028795656 -0.028625304 0.05318828
0.038679536 -0.01821048 -0.089419946 -0.021065293 -0.03404232 -0.06245612 -0.022163806 -0.029655937
-0.0028491293 0.004499924 -0.052230317 -0.013973383 -0.02610783 0.049878184 0.018943757 -0.015482439
-0.037498772 -0.06849536 -0.1255496 0.002054227 -0.017130379 0.005961918 -0.08482059 0.04705874
-0.0068876566 -0.007060954 -0.01915568 -0.059545677 -0.08764557 -0.09191548 0.05074544 0.01637763
-0.042613063 -0.03315735 -0.007350646 0.018283382 0.06688024 -0.12627323 -0.005773013 -0.041004624
0.04246228 0.013570637 0.08455891 -0.027863309 0.03011204 -0.048451677 -0.057889692 0.017936476

a2c_network.value.weight f4 [1, 128]
00000000: bdae cc3b 0e3a 9dbd ce37 36be 99ff fcbd
00000010: 2978 773d cb03 5fbc c6f2 aebd 9304 2e3b
00000020: b4ed 513d 8864 18bd 3aab ac3b 23e3 233b
00000030: f989 a53a ba02 aebd f610 cf3a b126 733c
00000040: e886 273d 5639 9f3d b2c3 63bc f03b ccbc
00000050: ebfb d0bd dcfe 0cbd df17 91bd a31a ebbc
00000060: e2c4 283d acce 72bc 99fa 26be eef5 2f3b
00000070: add4 85bc 1e42 a9bd e7f8 28bd 8768 15bc
00000080: fd3b 9cbd d36d 043d 71ce 8abb d6ca 303d
00000090: 2d5d f73b 0f83 ea3b e50e 573c 980f 933b
000000a0: a7c5 373c a02f f33c bf1d 8d3c e01a bb3c
000000b0: f9e8 cebd ef08 bcbc 7c6c 2f3c 9307 d03c
000000c0: 252a 323c 4c20 943d d517 df3d afdf c7bb
000000d0: 66d7 073d d3b8 cb3c d0f0 073d df6f 26bb
000000e0: 3580 44bd 89de 1a3e 6095 1cbd 6aba 1eba
000000f0: 0bfa 783d 7b14 b43c 52b7 a9bd 9503 a23c
00000100: b033 9bbc 9c7e 703c 13ae a4ba 5c1e 5b3c
00000110: afd1 4a3e a356 04bd c9a7 88bd dc47 a33d
00000120: 2498 d7bd 1800 56bc 2d3a 923d 1ed1 07be
00000130: 3425 ec3c bcbb 193e 118c 9ebb af1a b3bd
00000140: e408 adbb 3c5b aebb c460 193b c362 e8bb
00000150: 7230 273b 59c1 d2bc 4b13 25bd bb26 3dbc
00000160: 9a16 83bd 1bfb 60bc 3778 efbc 7134 78be
00000170: bccf ba3c b3e5 2f3c 26e5 4b3d 2e55 973a
00000180: 9b22 453a a110 2e3c fce5 c43b 152a b8bd
00000190: a986 253e 0534 c43c 1f27 01bd abee 003d
000001a0: 609f 133d 9e12 3abd 55e3 afbc f503 84bc
000001b0: ad56 823d 6af8 10bc f588 24bc 693d 553e
000001c0: 5a36 263d 7e9b 903d a1d7 023c 2978 68bd
000001d0: 78a1 25be 8259 ea3c 0d2a 943c 3866 3dbd
000001e0: 36bf 193c 2590 e73a 8c8c cb3d db62 223d
000001f0: 33eb 023e dfad 7bbc d34b 683c 72fc 4b3c
0.0062464164 -0.07677089 -0.17794725 -0.12353439 0.060417328 -0.013611744 -0.08542399 0.002655302
0.051252082 -0.03720525 0.0052694352 0.002500721 0.001262962 -0.08496614 0.0015797901 0.014840768
0.04090014 0.07774608 -0.013901638 -0.024930924 -0.102042995 -0.03442274 -0.07084631 -0.028699225
0.041203387 -0.014819782 -0.16306533 0.0026849466 -0.016336763 -0.08264564 -0.041252997 -0.00911916
-0.07628629 0.0323313 -0.0042360355 0.04316219 0.007548949 0.0071567367 0.01312611 0.004487943
0.011216558 0.029685795 0.017226098 0.022839963 -0.1010303 -0.022953479 0.010707017 0.025394237
0.010874306 0.07232723 0.108932175 -0.006099663 0.033164404 0.024868404 0.03318864 -0.002539627
-0.04797383 0.15123953 -0.038228393 -0.00060549995 0.060785335 0.021982422 -0.08286919 0.019777099
-0.018945545 0.0146786235 -0.0012564085 0.013373937 0.1980655 -0.032309186 -0.066726275 0.079726905
-0.105270654 -0.013061546 0.071400024 -0.13263366 0.028826334 0.15013021 -0.0048384746 -0.08745324
-0.005280601 -0.0053209346 0.0023403624 -0.0070918514 0.0025511053 -0.025726961 -0.040301602 -0.011544879
-0.06400795 -0.013731743 -0.029232128 -0.24238755 0.022804134 0.010735917 0.04977908 0.0011545771
0.000752011 0.010624082 0.0060088616 -0.089924015 0.1616465 0.023950586 -0.03153145 0.03147761
0.036040664 -0.04542791 -0.021470705 -0.016115168 0.06364188 -0.008848289 -0.010042419 0.20824207
0.040579177 0.07060908 0.00798598 -0.05675522 -0.16174877 0.028607134 0.018086458 -0.04624006
0.009383967 0.001766686 0.099389166 0.039645057 0.12785034 -0.015361278 0.014178234 0.012450324

a2c_network.mu.weight f4 [10, 128]
00000000: 2330 10be 447e 7abd ef8d 68bc 8fc6 ef3d
00000010: 1672 163d 1e8e 30bd 430f 743d 5952 82bc
00000020: 5e37 1e3c 8f05 92bc 9d00 5cbd 2322 acbd
00000030: fe1d 02bd 6cbf 2f3d 925c 883d 8750 29bc
00000040: 97fa 2b3d b29b 703b e7b4 863d e86d 373c
00000050: 6949 c2bc 7146 353d 2529 0fbc 0cd1 8b3c
00000060: 3b38 1a3d 19af fa3d 7fb3 5bbd d17c 393d
00000070: ba91 a63c 4ec6 133d 31ad ce3c 4af7 f6bc
00000080: 5a56 5cbc 0624 2a3d 3bd4 8cbc fd82 74bb
00000090: e966 52ba b6e7 373d 9a4d 413d a543 dcbc
000000a0: 3591 0d3d b224 b4bc 09dc 323b 5bfc c4bb
000000b0: af4f 84bd 0419 633d a0ff 39bd 5f5a fc3c
000000c0: b1fc 7c3c b77b a43c 5a1b d9bd f8df c8bd
000000d0: ef97 c3bd 2967 c33d 832e 1cbd 45f1 8c3d
000000e0: 687b 143b 4515 5f3d dae3 eebc 442e b33d
000000f0: 793e 173c 25ac 203d 48af 023d 14c5 763d
00000100: 3679 19bc ec96 f83d 039a a7bd 7b38 d43b
00000110: d5ec d1bd 753e 823d ec18 34bd 963f 983d
00000120: 8271 00bd 6b93 6f3d 22e4 43bd 4342 b1bb
00000130: b2f5 32be e8b1 093c 15f1 913d d679 683d
00000140: cb91 293c 255c 233d 460e 87bd 82bd 3ebc
00000150: d130 853d a7bb bb39 033f c3bd d474 05bd
00000160: 2a54 35bd 439f dfbc 03c9 9bbd f68d f23c
00000170: 8bd4 793d dc34 26bd f748 ba3d 594c 143c
00000180: 494f f43d a186 1abc 0b09 57bd dfaa dbbc
00000190: 3394 a53b 022b c23d b611 09be f227 f43d
000001a0: af01 d9bd ca88 823d cc11 ecbb 807e 093e
000001b0: 4d6a d33d e54f 583d 272d 03bb 892f f23c
000001c0: f7e6 3dbd ad60 0fbd 7e62 153c ff05 133d
000001d0: ae12 643c 6c0d e5bc d157 493d 2b2f ee3c
000001e0: 6210 413d 4c1a 17bd 5390 0d3d e20b d53d
000001f0: ff4f a53d bbbe 8a3c f731 5d3b afc0 9abd
00000200: aaf3 85bd 5bae 48bd 0226 013d 2df8 9cbd
00000210: e542 c33c 0425 b83c c71c f2bc 4260 9a3c
00000220: 7b03 6a3d c6c1 76bc 73f3 80bc aa23 4bbc
00000230: f732 933d c564 86bc 7fe0 64bd 6a4d ccbc
00000240: 58b2 743d 02aa 683c a278 7cbd 17e6 ccbb
00000250: 29f7 86bd 8c0b dabd 155e 5c3b a18b 87bc
00000260: 9d79 9abd 5f45 c3bd 0e8b 80bc 9edc 073e
00000270: a51c 5b3b 7541 e43b 369e e8bc b7a2 81bd
00000280: 9d1a 86bd d4a3 843d 1911 ee3c 48cd c83b
00000290: 558a 5a3c 542e 8f3d bdc5 00bd d48b 4ebd
000002a0: d6c6 2ebe 4a30 043d e1f6 c43d 8fb2 a93c
000002b0: 6af8 be3d f714 ed3c 4ff6 efbc 22d8 82bd
000002c0: 91f2 903b 7599 a0bb f95a c3bd 3c55 40bd
000002d0: 2482 523d ce43 ebbb c046 af3d 3abc bebc
000002e0: b62f 5f3d 171b 02be 31c8 97bc 7a24 003e
000002f0: ff2f 963c cea0 fcbc 7d99 97bd 4c6f e23d
00000300: 805c c53d c8cc e93d 4daa f7bd cbe8 19bc
00000310: 14ed e3bd 69e7 7d3d 1d54 87bc 7c5f bb3d
00000320: 1409 8b3b d746 d3bd dda5 03bc 85d0 c63c
00000330: 5e05 ed3d 08f5 c63d 88ad eabc b85b 413d
00000340: a35b 043d c021 dd3b 432f d13c d719 cabd
00000350: 455d 1abe f5ce 64ba 4e4a bbbd 08dd c2bd
00000360: 9542 c53d ba08 253d 923b ccbc 927d e13d
00000370: 3bf4 843c 0845 49bd 3a29 583a 7204 143d
00000380: 8762 ee3d 5f57 04bd a570 4dbc af43 f2bd
00000390: d087 58bd 8068 2d3c 9550 cdbc af43 403d
000003a0: 44a9 333d fad0 a2bb fdf9 e13b c997 adbd
000003b0: 9864 1dba 9d8a 49ba 251b 373d e60f 98bc
000003c0: 93b1 dd3a 0ce1 e1bc a451 843c 9119 06be
000003d0: 867c c33d efaf 95bd c1af 96bd 43ae 643c
000003e0: a28b 803d 2849 6cbd 0cd3 b23d 4ccd d7bb
000003f0: 0972 433d 93d9 c4bd 5087 47bd b897 a13c
-0.14080863 -0.061155573 -0.014193996 0.11707794 0.036729895 -0.043104284 0.059584867 -0.015908407
0.009656755 -0.017824916 -0.053711522 -0.084049486 -0.031766884 0.042907164 0.066582814 -0.010334141
0.041987028 0.0036713895 0.06577473 0.011195637 -0.023716645 0.04425663 -0.008737837 0.017067455
0.03765128 0.122404285 -0.053637978 0.04528505 0.02033316 0.03607779 0.025229068 -0.030147213
-0.013448322 0.04153826 -0.017191043 -0.003730952 -0.0008026199 0.04489871 0.047193147 -0.026887724
0.03456231 -0.021990154 0.0027291796 -0.0060115284 -0.06460511 0.05544378 -0.0454098 0.030804811
0.015441106 0.020078523 -0.1060092 -0.09808344 -0.095504634 0.095411606 -0.038130295 0.06881956
0.0022656564 0.054463644 -0.029161382 0.08749059 0.009231203 0.03922667 0.031905442 0.060246542
-0.009367278 0.12138161 -0.08183672 0.0064764596 -0.1025025 0.06359569 -0.04396908 0.07434003
-0.03135825 0.058490198 -0.047824986 -0.0054095103 -0.17476538 0.008404233 0.07126061 0.056756817
0.010349701 0.039882798 -0.06594519 -0.011641862 0.065034516 0.0003580723 -0.09533503 -0.03258212
-0.04426972 -0.027297622 -0.07606699 0.029608708 0.060993712 -0.040577754 0.09095948 0.009051406
0.11929185 -0.009431512 -0.05249886 -0.026814876 0.005053067 0.09480859 -0.13385662 0.119216815
-0.10596024 0.06373747 -0.00720427 0.13427162 0.1032301 0.05281057 -0.0020015927 0.029563682
-0.046362843 -0.035004307 0.009117721 0.03589439 0.013920469 -0.027960502 0.049156014 0.029075226
0.047134764 -0.036890313 0.034561466 0.10402657 0.08071899 0.01693665 0.0033751705 -0.07556283
-0.06540616 -0.048994403 0.031530388 -0.07664523 0.023835609 0.022478588 -0.029554738 0.018844727
0.057132225 -0.015060848 -0.015741086 -0.01239864 0.07187455 -0.016405473 -0.05587816 -0.024939258
0.059740394 0.014200689 -0.061638482 -0.006253015 -0.06590111 -0.10646734 0.0033625413 -0.016546072
-0.07542727 -0.09534716 -0.015691306 0.13267753 0.0033433822 0.006965811 -0.028395753 -0.063298635
-0.06548045 0.0647656 0.029060887 0.006127987 0.013338645 0.06991258 -0.031438578 -0.05042632
-0.17068037 0.032272615 0.09617401 0.020715026 0.09324725 0.02894066 -0.029292254 -0.0638888
0.0044234474 -0.004901106 -0.09538836 -0.046956286 0.051393643 -0.007179714 0.08558416 -0.023283113
0.05448886 -0.12705646 -0.018528076 0.12513915 0.018333433 -0.030838396 -0.074023224 0.110563844
0.096367836 0.11416012 -0.12093029 -0.009393881 -0.111292034 0.061988268 -0.0165196 0.091490716
0.0042430256 -0.10316246 -0.00803515 0.024269352 0.11573289 0.09714705 -0.0286472 0.04720661
0.032313954 0.006748408 0.025535231 -0.0986821 -0.15074642 -0.0008728349 -0.09145032 -0.095148146
0.0963184 0.040291525 -0.02493075 0.11010279 0.01622974 -0.0491381 0.00082458893 0.036137052
0.11639886 -0.032309886 -0.012539064 -0.11829316 -0.052863896 0.010583997 -0.025062839 0.046939548
0.043862596 -0.0049687596 0.006896256 -0.08476216 -0.00060040643 -0.00076881965 0.04470362 -0.018562268
0.0016913883 -0.027573131 0.01615221 -0.1309569 0.09545235 -0.07308947 -0.07357741 0.013957563
0.06276633 -0.057686955 0.0873166 -0.0065857526 0.047716174 -0.096118115 -0.04871303 0.019725665

a2c_network.mu.bias f4 [10]
00000000: 52d9 7c3d 922a a53d 5c83 8a3d f259 8e3d
00000010: 458a b33c ce7a 9d3b 989c 3b3c 3cbb 32bc
00000020: 0d2a 803d 3d8b c93c
0.06173069 0.0806476 0.06763336 0.069507495 0.021916518 0.004805899 0.011450909 -0.010908898
0.062580206 0.024602527

exp_avg f4 [10]
00000000: 339c bb39 362f 083a 43d3 10ba 4dd8 8d3a
00000010: 0ac8 07ba 2b45 c3b9 032c 323a e141 8aba
00000020: b441 09ba f36a aaba
0.00035783797 0.0005195023 -0.00055246445 0.0010821909 -0.00051796495 -0.00037244832 0.00067967194 -0.0010548198
-0.0005235926 -0.0013001844

exp_avg_sq f4 [10]
00000000: cde3 0037 7ad7 0b37 4211 eb36 0e77 0c37
00000010: 3f21 0137 09bc f536 e7d0 e936 b642 0637
00000020: 001d f636 0e62 f336
7.6824335e-06 8.335215e-06 7.005555e-06 8.37237e-06 7.69674e-06 7.323459e-06 6.9682605e-06 8.002555e-06
7.3347474e-06 7.2533794e-06

exp_avg f4 [256, 42]
00000000: 356e 733a 5075 46b7 e6de 4d3a 31ff 9638
00000010: f37d 8639 a465 7f39 0750 a4b9 23c2 b3ba
00000020: 2c7d 5eb7 5601 beba 2ab7 a03a bcbc 123a
00000030: 2c13 8e39 d9f3 7139 3715 a23a c39c 76b8
00000040: c046 5f39 24b2 2d3a 9c5c 7f3a 29cf c439
00000050: b092 69b9 0687 5a3a 00c3 2cb9 cad8 2138
00000060: 69fa cd36 a94d 7cb8 615b c039 3d42 8938
00000070: d13a 2839 b5e6 39b9 7a91 03ba 0eab c939
00000080: 922f 87ba 4754 6d3a b67c 78b9 4606 01b9
00000090: d823 ba3a 8f63 9839 27f9 fe39 848b 7939
000000a0: 395c d139 2dbc 0e3a 98c4 af38 92de 5eb9
000000b0: e72d bbb8 b175 d138 94f2 b438 084c bfb9
000000c0: cd96 fd38 19d5 8ab8 0c6a 7db8 1b62 9ab9
000000d0: d985 1039 5801 8838 6fa6 a038 1a48 8337
000000e0: 61a5 ceb8 3856 1db9 a7af 79b6 c32b e638
000000f0: 78b8 96b8 89ca 5839 1da5 9e39 267e b2b7
00000100: b297 bc38 8d03 4cb9 40ea 0b39 661b e638
00000110: eed1 dbb9 f1c4 59b8 a364 deb9 e1d5 1f3a
00000120: 960b c939 db1b 30ba 80f1 5b3a dad6 47ba
00000130: e5dd 903a b8c8 6c3a 8e58 d3ba 1b74 05ba
00000140: 5f3c 72ba 480d 023b 524f c3ba 9fe5 12ba
00000150: 1498 47b8 d04d 5139 8844 f9b9 5c66 c937
00000160: bf87 87b8 4ff3 ef38 7b55 0dba a209 4e3a
00000170: 5a52 55b9 5358 0f39 c710 b7b8 203e 153a
00000180: 93cd 3b39 bf59 41b8 4514 c6b8 9e47 53ba
00000190: ebd8 1d3a 5fc9 47b9 dc44 a4b9 2c79 ff39
000001a0: efba 1fb8 f6bb 9d39 58b9 a5b8 0557 2138
000001b0: cb79 0f38 6ca0 c037 374f 9e39 5768 9039
000001c0: bb99 0dba 8a19 a2b8 ac1c fb39 e0ce 2f38
000001d0: 862d 5939 e74d 9cb9 0e9b 403a 8789 9d3a
000001e0: a506 733a f826 0b3a c78a 84ba e4b1 b2b9
000001f0: 5c4d 373a 2f66 5934 2cce 9eb8 b734 1e39
00000200: 4dde e738 ed03 c9b8 dc38 9ab8 08d0 2a39
00000210: 5fe9 cbb9 86da d739 1163 a3b8 45b0 9339
00000220: 64a2 bab8 65aa 9339 4971 a0b8 56f7 01b8
00000230: 4fda 24b9 e0c4 b9b9 21a9 da39 87c8 dfb7
00000240: 0b14 21b9 fe8d ad38 4fa2 25b9 e9ba 3f39
00000250: df41 8cb8 8c05 1639 b713 4cb8 b989 bf35
00000260: 5da9 e337 6937 8639 7815 64b9 97a8 2338
00000270: 069b ca39 e532 12b9 5de2 5ab7 ef2e 6339
00000280: 59ec 34ba fad4 9539 fe07 c7b8 1b06 4b3a
00000290: 6833 25ba 720b c336 2bcf e4b8 0188 bfb9
000002a0: 55f2 163a 726b 84b8 67c7 3a3a 061b 3c39
000002b0: ade4 6f38 7d16 8e37 ddb0 40b9 5199 a2ba
000002c0: 10b0 54b8 3652 98ba 7307 523a 7e91 2738
000002d0: 7fae ea38 0b38 5a39 c548 2f3a 19bf c639
000002e0: 7775 3a36 6917 383a 4bec 313a 13c3 1838
000002f0: c044 9db7 0457 c739 f7a1 16b8 c2ef f237
00000300: 1eaa 02b8 63a0 4cb7 97f0 f338 e0ee 4839
00000310: 6b68 adb9 09ea 7339 18a2 fd39 c3f7 dcb9
00000320: a788 06ba e0e3 8439 8af3 1bba a59a 1ab9
00000330: ce45 32b9 df2c d239 fdb8 a3ba c559 663a
00000340: bb70 f7b9 cffc 81b9 4e39 8bb9 4981 2039
00000350: c238 0eb8 1f7e 8738 5955 3bb9 bc9b 8439
00000360: 3a3d a9b9 5a2b dc39 fba7 2ab8 d9cd 063a
00000370: fed8 bdb9 9524 18b9 1548 52b8 b9ae 02b8
00000380: 539b 73b9 1834 d3b7 2541 8c39 076e 33b9
00000390: a2bf 62b9 1d9e 24b9 0a39 42b9 9c3b 0f38
000003a0: 40ab c7b7 3ac8 1e39 a489 f9b8 ec2f 9ab8
000003b0: b51e b139 9fb7 9239 ffaf d0b9 1c51 d538
000003c0: b9e2 c739 207d f8b8 ee36 27ba 71d1 f039
000003d0: fd1e 8eba 23e3 9f39 dc18 1c3a 94cb 223a
000003e0: a594 bcba f8d8 3fb8 c12e af39 c8a1 30b9
000003f0: 5f08 f138 ab2b 0b39 a08a c037 c129 02b9
0.00092861365 -1.1829034e-05 0.0007853344 7.2000905e-05 0.0002565231 0.00024356559 -0.00031340143 -0.0013714473
-1.3261375e-05 -0.0014496248 0.0012261618 0.00055975816 0.00027098635 0.00023074391 0.0012365942 -5.8796966e-05
0.00021293294 0.00066259713 0.0009741278 0.0003753838 -0.00022275257 0.000833616 -0.00016475841 3.858729e-05
6.1386277e-06 -6.015381e-05 0.00036689176 6.545007e-05 0.0001604364 -0.0001772892 -0.0005018931 0.00038465153
-0.001031386 0.0009053391 -0.00023697581 -0.00012304736 0.0014201356 0.00029065876 0.00048632288 0.00023798464
0.00039932298 0.00054449105 8.381269e-05 -0.00021254484 -8.925405e-05 9.987818e-05 8.6282525e-05 -0.00036487007
0.00012092069 -6.620045e-05 -6.0418664e-05 -0.00029446263 0.00013782772 6.485236e-05 7.660395e-05 1.5649992e-05
-9.85365e-05 -0.00015004806 -3.7206134e-06 0.00010975406 -7.186917e-05 0.00020674815 0.00030259127 -2.1277996e-05
8.992794e-05 -0.00019456279 0.00013343338 0.00010972358 -0.00041927345 -5.1920248e-05 -0.0004241812 0.0006097239
0.0003834634 -0.0006718018 0.00083901733 -0.0007623263 0.0011052458 0.0009032595 -0.0016124414 -0.00050908484
-0.00092405634 0.0019844342 -0.0014900959 -0.0005603674 -4.758693e-05 0.0001996078 -0.0004754404 2.4008732e-05
-6.462586e-05 0.00011441728 -0.0005391461 0.0007859712 -0.00020343941 0.00013670446 -8.729245e-05 0.0005693156
0.00017910292 -4.609837e-05 -9.445151e-05 -0.0008059683 0.0006021398 -0.00019053135 -0.00031331822 0.0004872767
-3.808265e-05 0.00030085415 -7.902336e-05 3.8466434e-05 3.4207285e-05 2.2962886e-05 0.00030195128 0.0002754356
-0.0005401631 -7.729519e-05 0.00047895813 4.191592e-05 0.00020711691 -0.0002981268 0.00073473237 0.0012019136
0.00092707045 0.0005308236 -0.001011216 -0.00034083345 0.00069924234 2.0246874e-07 -7.5724296e-05 0.00015087692
0.00011056345 -9.585158e-05 -7.353883e-05 0.00016289961 -0.00038893052 0.00041170808 -7.790898e-05 0.00028169356
-8.899419e-05 0.0002816498 -7.6504955e-05 -3.0986346e-05 -0.00015721585 -0.00035432633 0.0004170621 -2.667705e-05
-0.00015361623 8.275731e-05 -0.00015796091 0.00018284809 -6.68799e-05 0.00014307181 -4.865575e-05 1.4270692e-06
2.7139375e-05 0.00025599755 -0.00021751772 3.901924e-05 0.00038643944 -0.00013942605 -1.3046517e-05 0.00021665891
-0.00069016736 0.00028578175 -9.490548e-05 0.0007744745 -0.00063019106 5.8127853e-06 -0.00010910475 -0.0003653169
0.0005758156 -6.314264e-05 0.000712505 0.00017939144 5.719501e-05 1.6938191e-05 -0.00018376434 -0.0012405311
-5.070871e-05 -0.001162118 0.0008011974 3.9951403e-05 0.00011190492 0.00020810978 0.0006686564 0.00037907882
2.7784533e-06 0.00070225314 0.00067872246 3.64213e-05 -1.8747873e-05 0.0003802107 -3.591363e-05 2.8960294e-05
-3.115285e-05 -1.21966905e-05 0.00011631956 0.00019162474 -0.0003307493 0.00023261471 0.0004837669 -0.00042146267
-0.0005132057 0.00025346782 -0.0005949071 -0.00014744194 -0.00017001407 0.00040087753 -0.0012491044 0.00087871804
-0.00047195502 -0.00024793154 -0.0002655484 0.00015306952 -3.3908298e-05 6.4607935e-05 -0.00017865504 0.00025293033
-0.0003227981 0.0004199397 -4.0687602e-05 0.0005142368 -0.0003621056 -0.00014509477 -5.0135033e-05 -3.115714e-05
-0.00023232149 -2.5177418e-05 0.00026751417 -0.00017111759 -0.00021624428 -0.0001569916 -0.0001852253 3.4149372e-05
-2.3802393e-05 0.00015142644 -0.00011898883 -7.3522184e-05 0.0003378295 0.00027984098 -0.0003980398 0.00010171739
0.0003812516 -0.00011848868 -0.00063787296 0.00045932413 -0.0010842975 0.00030496073 0.0005954632 0.0006210145
-0.0014387561 -4.5740017e-05 0.00033413435 -0.00016844936 0.00011493335 0.0001327234 2.2952736e-05 -0.0001241332
