logs/rl_games/humanoid_flat_direct/two_steps_success/nn/last_humanoid_flat_direct_ep_1100_rew_381.42905.pth (torch, 759553 bytes, 33 tensors)

value_mean_std.running_mean f8 [1]
00000000: 3c67 2fc3 e2f4 5240
75.82634048108315

value_mean_std.running_var f8 [1]
00000000: 4bcf 8e56 d90f 9840
1539.9622442544958

value_mean_std.count f8 []
00000000: 0000 0001 00c8 b941
432537601.0

a2c_network.sigma f4 [10]
00000000: 5024 a1bf f77d a2bf ee93 c0bf 9a1f 85bf
00000010: e769 c2be bae4 f4bf 7c96 aabf d054 0bc0
00000020: bea9 40bf 6892 a0be
-1.2589207 -1.2694691 -1.5045145 -1.0400269 -0.37971422 -1.9132302 -1.3327174 -2.1770515
-0.75259006 -0.313617

a2c_network.actor_mlp.0.weight f4 [256, 42]
00000000: 768a 6b3d 438a ac3e f0d2 623e 6982 943c
00000010: 0af9 043e 3fe9 c63d fcac f63d da31 80be
00000020: 6de9 89be 75f6 6ebd 21f1 08be 520c e23d
00000030: b6d9 94bd a4b8 b0bd 663b 863d 07a4 fe3c
00000040: 1ceb 623d a671 12be 90c2 473d 58d6 4bbd
00000050: a9df 8f3d 4d8d 41bd 3272 8abe de62 89be
00000060: 0d58 b53e 2494 2f3e daef cabd 870d f9bd
00000070: 43ea 163e 188a 4c3e caac 883d 59b0 09be
00000080: 04be aabd 329b e0bd c725 66bd b69d 993d
00000090: add3 1c3d c3a2 0f3e 5bc4 56bd 6f8f cfbd
000000a0: 5892 a53d e08e a1bd b1ff f83d 5995 c3bd
000000b0: 7503 5b3e 905c 0dbe 056c fabd 0bff af3e
000000c0: fb01 0e3e 6727 de3d efcb 773d d682 8a3d
000000d0: 125b b7bd 55e3 63bd 111a a03e ddee 723c
000000e0: d719 46bd 06b2 3abe 4309 b3bd 87c4 99bd
000000f0: 3121 5cbd a3b4 0abe fa80 bd3d f740 88bd
00000100: 7609 3a3d 6266 0cbd edc4 7abe dcad f4be
00000110: a15b 113e 5bd3 1d3c 00ea 1c3d 89e7 9fbe
00000120: efdf 57bd b83b 2fbc 9bce 5dbc 3f09 b4bd
00000130: 215d 54bd ebef d6bc 9946 fbbc f0ae b2bd
00000140: d153 94bc 2478 a8bd b44a 28bd 52b4 5bbd
00000150: 6df7 1ebd cac0 35be 1297 9e3e 12f7 6fbd
00000160: 73d3 3a3e 0afe f53d 070b 71be cc85 073d
00000170: f36c 5fbd 40b4 98bd a743 ebbd 2bee 12be
00000180: 6a4e fbbc 5ccc 19be 3a73 ef3d 54e5 ffbd
00000190: 40b7 0c3e d194 20be 7304 b43a d046 52bc
000001a0: 2547 eb3d ae4d a73e 7ae4 8d3d 37ce a1be
000001b0: 87ad a13d 060d a4bc 9773 0abd 387f 44be
000001c0: a7b0 b53d afae 9dbe a8c0 d53d 311c be3c
000001d0: 5868 ae3c d3b5 8ebd 759b 053e 1c1c 383d
000001e0: e2dc 103d 9efc d2bd 5064 623d a91a 40bd
000001f0: d0cc adbd e50c ed3d 350b d23c 75a1 a4be
00000200: 0d2c f03d dc37 033d aaa1 21be c4d4 6abd
00000210: 6f99 19be b40e b6bb b764 b0be 3358 333d
00000220: a547 b63d aeb2 3cbe e66f cd3c bce2 c03c
00000230: e60f e23d b354 79bd 8459 d33c 337d 17bd
00000240: f2d3 e33d ac3e a13b 2f43 cbbd e084 543d
00000250: 186e babd 262f 49be baa0 7f3e 6dca 973d
00000260: e04e 87bd 0611 83be ac10 b6bd 5f58 07bd
00000270: ac01 f93d 0a46 9f3c 797f e7bd bd11 47bc
00000280: 059e d03d a859 c13d 0f08 cbb9 1fc8 13be
00000290: 3a2c edbd 4095 0dbe b314 053c 67a8 cb3b
000002a0: abe1 083e a673 413e e625 9b3b 24d8 72b9
000002b0: 3838 263c f613 773e 07ff b33c 8aea 7ebd
000002c0: 8641 0b3d e2a8 b5bd cf2d 8bbd d1aa 243e
000002d0: 968b 153d d673 8f3d cc32 03be ecd7 a23d
000002e0: d254 d43d f254 2b3d 1909 b5bd 1140 66be
000002f0: dbff c6bd 28b9 8c3e 8311 253e 11e7 7d3e
00000300: 84c5 d03d c029 84bc d457 a5bc 624c 07be
00000310: ccf5 42be 7ec0 c7be 4b19 cd3d b2cc c4bd
00000320: c086 edbc 00fc a4bd 992d 2dbd 997a 6bbd
00000330: b828 bebd f128 4d3d 570b 8fbc c1b0 dc3d
00000340: 297f 16bd 481d 85bd 4616 31bd c3da 5dbd
00000350: 8146 f53c 90f0 06be 7f43 383e 00e2 ccbd
00000360: 6553 1e3d c460 4fbb ec4c e83d a579 c9bd
00000370: ba13 bc3d 4df0 a0bd 2f91 d93d 761b 393e
00000380: 07e7 73bc 2a70 b63c 1311 df3c 8796 c3bd
00000390: 560a d13d 874e 96be 459d a83d 7300 813e
000003a0: 6509 7c3e c5cd 8bbd f077 8abd 7ad3 2a3d
000003b0: 2c36 433d 651b 26be 9567 73bc acf5 9ebe
000003c0: 5819 a7bc 24df 9cbd 42d2 abbd 644e b7bd
000003d0: e81b 02be 926b 2b3e fa5b e43d 5a41 043c
000003e0: 27e6 b0bb ff8b 95bd db99 05be 07c4 c2bd
000003f0: 305e 783d a2f7 95bd 4f4c 37bc 8863 cb3d
0.057505094 0.33699235 0.22150779 0.01812859 0.12985626 0.09712457 0.12044713 -0.25038034
-0.26935902 -0.05834051 -0.13373233 0.11037506 -0.072680876 -0.086289674 0.06554298 0.031084074
0.0554 -0.14301166 0.048769534 -0.04976496 0.07025082 -0.047253896 -0.2704025 -0.26833242
0.3541874 0.17146355 -0.09909029 -0.12160783 0.14737801 0.19974554 0.06673582 -0.13446178
-0.08337024 -0.10967101 -0.05618837 0.07500784 0.038287807 0.14026932 -0.052433353 -0.1013478
0.080845535 -0.07888579 0.12158144 -0.0954997 0.21388038 -0.13804841 -0.12227634 0.3437427
0.13867943 0.10847359 0.06049722 0.06763236 -0.08952917 -0.055636723 0.31269887 0.014827457
-0.048364487 -0.18231973 -0.08742001 -0.07508188 -0.05374259 -0.1354547 0.09253116 -0.06653016
0.04541918 -0.034277327 -0.24489184 -0.47788894 0.1419511 0.009632911 0.038309097 -0.31231335
-0.052703794 -0.01069539 -0.013538028 -0.08790826 -0.051846627 -0.026237449 -0.030673312 -0.08724773
-0.018106373 -0.0822604 -0.041086867 -0.053638764 -0.038810182 -0.17749324 0.30974633 -0.058585234
0.18244724 0.12011345 -0.23539363 0.033086583 -0.05454726 -0.07456255 -0.11487513 -0.14348666
-0.03067704 -0.15019363 0.116918996 -0.12494913 0.1374178 -0.15681769 0.0013734236 -0.012834266
0.11488179 0.32676452 0.06928344 -0.31602642 0.07894426 -0.020025741 -0.03380164 -0.19189155
0.088715844 -0.30797336 0.10437137 0.023206802 0.02128999 -0.06968274 0.13047583 0.044948682
0.0353669 -0.10302089 0.055271447 -0.046900425 -0.084863305 0.11574725 0.02564011 -0.32154432
0.11727152 0.032035694 -0.15784326 -0.057331815 -0.14999937 -0.005555952 -0.3445184 0.043785285
0.08900384 -0.18427536 0.025077771 0.023545615 0.11038189 -0.06087179 0.02579952 -0.036984634
0.1112441 0.004920801 -0.09924924 0.051884532 -0.0910303 -0.19646892 0.24963656 0.074116565
-0.06606841 -0.25598925 -0.08889899 -0.03304326 0.12158522 0.019442577 -0.1130361 -0.012150225
0.1018639 0.09440929 -0.0003872518 -0.14431809 -0.11580701 -0.13826466 0.008122611 0.0062151435
0.13367335 0.18891773 0.0047347425 -0.00023159437 0.0101452395 0.24128708 0.021972192 -0.062235393
0.033998035 -0.088701025 -0.06795847 0.16080786 0.036510073 0.07004516 -0.12812346 0.0795134
0.10367741 0.041829057 -0.08839626 -0.22485377 -0.09716769 0.27485013 0.16119961 0.24795176
0.10193923 -0.01613319 -0.020183481 -0.13212731 -0.19039077 -0.39014047 0.1001459 -0.09609355
-0.028994918 -0.08055878 -0.042279813 -0.057489965 -0.0928511 0.050087873 -0.017461462 0.10775901
-0.036742363 -0.064997256 -0.043234132 -0.054163706 0.029940845 -0.13177705 0.17994498 -0.100040436
0.03865375 -0.003164337 0.11342797 -0.09837655 0.0918345 -0.07858334 0.10623395 0.18076882
-0.014886624 0.02227028 0.027229821 -0.09550195 0.102070495 -0.29356787 0.08233122 0.25195655
0.24612959 -0.06826357 -0.067611575 0.041705586 0.047659084 -0.16221388 -0.014856239 -0.31046808
-0.020397827 -0.07659748 -0.08389713 -0.08950499 -0.12705958 0.16740254 0.11150356 0.008072222
-0.00539853 -0.07302093 -0.13046972 -0.095100455 0.0606367 -0.07322623 -0.011187627 0.099310935

a2c_network.actor_mlp.0.bias f4 [256]
00000000: cfa5 62bc 88ea 103d 923f 003c 8dd6 aebb
00000010: b861 0d3d 3598 70bc 120e 683b ab1d 853c
00000020: 7101 babb b33b ad3c 2915 81bb d176 b03a
00000030: 062b 8b3c 5201 abbc fd18 cb3c 1c98 f2bc
00000040: ee2d ba3c 3be8 f33b 50ef 99bc 8a44 c13c
00000050: 71c4 4abd 1312 1fbd 047d 693c 241e c83b
00000060: 8782 2abc 043c 1e3d 563b 0d3c 3089 653c
00000070: 9ead 0a3d 928a 1a3c 8ca4 073d 131d f8bb
00000080: dd86 3b3d 7a97 be3a 48d2 14bc 0941 acbc
00000090: d41f 6f3c b122 483c 5f6c cf3a 041b dc3c
000000a0: 935a acb7 1671 57bc 7850 853c 0c51 91bc
000000b0: 7b37 82bc dc60 383c 326e 3b3d a9d9 213d
000000c0: 35ca fabc 5905 9fbc 57c8 bfbb fc9f 1d3d
000000d0: b947 f2bc 9dfd 5abc 64b4 5cbb 5abb 813b
000000e0: 34e0 a73c ba31 a13a 92f9 91bc 47a2 603c
000000f0: 737a dfbc 8739 3abb ad8c 833a 4dff 3aba
00000100: 4d7c 9dbc f050 543d 9183 84bc a7c7 82bb
00000110: dd19 1a3b d668 423c 25ae 36bc 6a30 40bb
00000120: eb16 2ebd 1acd 803d c77c 35bc c55c f3bc
00000130: 139d 33bd 3500 4a3b 0d94 10bd e56b 453c
00000140: abaf 723b b9be a1bc a262 e3bb 8a5e edbb
00000150: a426 e33c 4bb4 523c e54e d3bc eb6d 8abc
00000160: 5a5a 4c3c 9088 03bd aa32 ac3c 33e7 a9bc
00000170: 8cc2 8abb 9ca2 2abc 3ce0 65bc 115c 0d3c
00000180: 1de9 033d 9f6b 6a3b 478f 2cbd bc36 913c
00000190: 4ed2 4e3d 5e17 8a3c 1671 203c 1b80 013d
000001a0: 5b2d 2e3d 8035 563c 4b8c 0f3c 0e0e c6bc
000001b0: b0c2 e0bc 0967 05bd a6fc 1f3d cd12 373d
000001c0: 8ca7 8bbc 4bc8 0fbd 2b80 0abc 1bf3 4e3c
000001d0: 5011 e23c 7983 03bd 355d ff3c dc44 f83c
000001e0: cdb8 64bd d6a8 81bd e2f7 dc3c 333b 6d3c
000001f0: 46a5 ddbc 8d82 973c d25e d73c 68b3 b53b
00000200: 57a7 93bc aaf8 9dbb 752f ccbb fdb1 0cba
00000210: 9646 0cbd 5ec6 083c 5007 f43b c613 37bc
00000220: 5235 65bc d729 f4bc b411 b3ba 4124 35bd
00000230: 3d59 563c 6419 b73c 7f13 59bd f668 ecbc
00000240: 5010 3c3c 4198 32bc 23bc 213d 873f 1bbc
00000250: dd12 1e3d 37ad f6bc 2d2c b13c bbd2 25ba
00000260: a39e e03b e82e a8ba e219 433c 3095 1abc
00000270: 6186 a6bc 6754 17bd 9f98 623d ee41 a4bc
00000280: e998 73ba 76b9 cc3c 99f1 24bd b8f4 7b3c
00000290: 9506 b9bc 3083 cf3c 5643 7cbc 8661 fdbc
000002a0: 20bb 423c 185a 7d3d fdf6 e6bc 1a67 08bd
000002b0: 3e23 123c 8a45 253c f6df 303b b63b f1bb
000002c0: fbea 9c3c 3a4b b5bc 52f9 753c a6e1 063b
000002d0: 715d a03c 8ce8 e8bb 7969 2b3b d1b3 00bb
000002e0: e1f1 c83b 747d 12bd 624e a93c 5ad4 6ebc
000002f0: cb3b ed3b 9d60 853d b444 a0bc 12e4 0f3d
00000300: 136d ae3a 2b0c e9bc c4b5 0d3c 4e2c e2bc
00000310: fe84 07bd b71d d9bb da29 0c3d 64ad 143b
00000320: 90c4 063d 1f1e 40bc fe4a a93c dc73 3cbd
00000330: 4ebc c8bb 3be2 a8bc 9f5b 20bc 8a7b b2bc
00000340: 362b fe3c c5be 0a3c 3e26 95ba 5efc 9b3c
00000350: acbf 9c3c da48 b43c 1fe0 833c 3a79 293c
00000360: 695e f3bc fd3a 863b c90f f5ba 2521 bebb
00000370: 4396 143d 8fd4 593c 2679 30bd 37aa 0b3d
00000380: 3704 013d e4b3 dfbc 3eec acbc bca5 b13c
00000390: 240b 323d 694a 3a3c 4ef7 023d afbb ecbb
000003a0: d99c acbc ba28 17bd c303 013c a3e3 443d
000003b0: 92cf 16bb 4bdb 963b 8717 eabc eef0 ae3c
000003c0: 77a8 01ba dfa2 7b3c 17b6 273c 3de0 563c
000003d0: cb8f 623d 6574 c43c 6b90 b13c d084 0ebd
000003e0: 2459 063d ea79 79bc 1dda 04bc 92ec 153d
000003f0: 32f9 fcbb 15e7 37bc 80b0 1c3b 7e58 363d
-0.013833477 0.035379916 0.007827656 -0.005335635 0.03451702 -0.0146847265 0.0035408777 0.016249498
-0.0056764414 0.02114663 -0.00393929 0.0013463144 0.016988289 -0.020874653 0.024792189 -0.029613547
0.02272698 0.0074434555 -0.01879087 0.023592252 -0.049503747 -0.038835596 0.014250997 0.0061071087
-0.010407097 0.038631454 0.008620104 0.014009759 0.03385698 0.009432452 0.03311591 -0.0075718253
0.045782913 0.0014540993 -0.009083338 -0.021027105 0.014594991 0.012215302 0.0015825144 0.02686835
-2.0546175e-05 -0.01314952 0.016273722 -0.017738841 -0.015895596 0.011253562 0.045759387 0.039514218
-0.030613998 -0.01941173 -0.00585274 0.03848265 -0.029575216 -0.01336613 -0.0033676857 0.0039591016
0.02049265 0.0012298145 -0.0178192 0.013710565 -0.027280068 -0.0028415637 0.0010036431 -0.00071333797
-0.01922431 0.051835 -0.016176017 -0.0039910856 0.002351395 0.011865815 -0.011149918 -0.0029325732
-0.042502325 0.0628912 -0.0110771125 -0.029707322 -0.04385097 0.0030822877 -0.035297442 0.01204965
0.0037030976 -0.019744264 -0.006939248 -0.007243936 0.027728386 0.012860368 -0.025794456 -0.016898116
0.012472713 -0.032112658 0.021020252 -0.020740127 -0.0042346176 -0.010414746 -0.014030512 0.008627907
0.032204736 0.0035769714 -0.042128827 0.017726295 0.05049353 0.016856845 0.009792587 0.03161631
0.042523723 0.013074279 0.008761476 -0.024176624 -0.027436584 -0.032568965 0.039059304 0.044695664
-0.017047666 -0.035103124 -0.008453409 0.012631203 0.027596146 -0.032107804 0.031172374 0.030306272
-0.055840302 -0.06331031 0.026973668 0.014479446 -0.027056348 0.018494869 0.026290331 0.0055450685
-0.01802413 -0.004820903 -0.0062312433 -0.00053670985 -0.034247003 0.008348076 0.007447161 -0.011174148
-0.013989763 -0.029805107 -0.0013661892 -0.044224028 0.0130827995 0.022350974 -0.05299711 -0.028858643
0.011478499 -0.010900558 0.03948606 -0.009475595 0.03859221 -0.030111892 0.02162751 -0.0006325652
0.0068548485 -0.0012831362 0.011908026 -0.009434983 -0.020327749 -0.036945727 0.055321332 -0.020050969
-0.00092925 0.024990778 -0.040269468 0.01537817 -0.022586146 0.02533111 -0.0153969135 -0.030930292
0.011885434 0.0618535 -0.028193945 -0.03330145 0.008919535 0.01008738 0.002698896 -0.0073618544
0.019155016 -0.022130597 0.015013056 0.0020581274 0.019575806 -0.0071078 0.0026155396 -0.001963843
0.00613235 -0.035764173 0.020667259 -0.014576996 0.007239794 0.06512568 -0.01956401 0.035129614
0.0013307653 -0.028448185 0.008649293 -0.027609017 -0.033085816 -0.0066258567 0.0342196 0.0022686357
0.0329023 -0.011725931 0.020665642 -0.04600893 -0.0061259633 -0.020615688 -0.009787469 -0.021787424
0.031026464 0.008468335 -0.0011379195 0.019041236 0.019134365 0.022007395 0.01609808 0.010343844
-0.029708104 0.0040963874 -0.0018696721 -0.005802291 0.036276113 0.013295307 -0.043084286 0.034097876
0.03149816 -0.027307458 -0.021108743 0.021685474 0.043467656 0.01137028 0.03197413 -0.007224522
-0.021070885 -0.036904074 0.007874432 0.048068654 -0.0023011905 0.0046037785 -0.028575672 0.021355119
-0.00049460627 0.015358656 0.010236285 0.013114986 0.055312913 0.023981282 0.02167531 -0.03479463
0.032799855 -0.0152268205 -0.008108643 0.036602564 -0.007720136 -0.011224528 0.0023908913 0.044517986

a2c_network.actor_mlp.2.weight f4 [128, 256]
00000000: c4a5 0f3e c32e 1f3d 8f29 3b3d 8136 523d
00000010: 8b72 53bc 7d41 4338 d1d9 90bd 4755 383b
00000020: 6efc 433e b22c 36bb 37d0 84bd 8147 cd3d
00000030: 1436 ed3d 3f67 0e3d 3ca3 88bd 7061 c8bd
00000040: 7c30 1ebc a10a 813d ce46 a73d eef4 ebbd
00000050: 6e6b 773d 3e2f 7f3d b125 eabd d99f 29be
00000060: 9038 44bd a917 9ebc ce6b 11be ae75 933d
00000070: a51e 3d3d 6f15 04be 339e 473d f3c1 6fbd
00000080: b889 8ebd 5503 d53c db07 ebbd dc87 31bd
00000090: f0b5 8cbd 9330 d1bd cb98 30bd 5126 6ebc
000000a0: 0b50 f4bd e9d9 193e 9f69 0abd 07c0 483d
000000b0: 4bac 71bd d1e5 f5bd 58e6 8dbd 9cfa 8cbc
000000c0: 1aa7 a73d 55a5 a3bd d943 483d 7d6f 40bc
000000d0: 7ee8 6ebd ac3e bb3d c8d2 a53d b76f 86bc
000000e0: c0e4 89bd e75a b33c c0b8 9e3c a51d a0bb
000000f0: 085a 823d 4ab0 2c3d 2bd6 0d3c e178 fdbc
00000100: 2645 ca3c 0dce 10bd e8c5 133e faaf 0f3e
00000110: f9e2 40bd 8aaa ba3c df8c 6fbd 9e93 d739
00000120: ab23 983d c354 043e 788c 95bd 3412 94bc
00000130: bb0e 123d e171 79bd f5b8 843c 68aa 393c
00000140: e908 9bbd 9ad4 be3d 8033 9cbd af1c a2bc
00000150: c57f b33d e5a0 40be ef2b 31bd 1a3a c03d
00000160: b110 97bd b482 2cbd d7d1 793d e0fa b13d
00000170: 7d43 e8bc 5aea ea3c b539 1f3d 4672 ecbd
00000180: 8621 f13c 8b48 4fbd 66d5 643c af0d 3b3d
00000190: a603 de3c 1716 d7bd b83b 7dbd b836 8bbc
000001a0: dfe4 9cbc 7c70 49bd b941 4bbd cccc 0bbe
000001b0: 116b 0d3d 2a85 843d 5004 fc3d b1cc d2bc
000001c0: c75b 9b3d a38a 953d dacc fa3c 6449 94bd
000001d0: 60d6 f7bd fbaa 103e f5b4 563d 875e e1bd
000001e0: 8749 583b 74ed a23d 475e eb3d 0d15 52bd
000001f0: 6f32 463d 61dc 1dbd 713a 193c 9ee2 6d3c
00000200: aa9d 81bc 2acd a4bd 9ad7 ab3b 296f 543c
00000210: 6b22 4a3c 3235 b0bc 0b35 44bb 6721 103e
00000220: 2aff d73d 6576 923d f603 68bd 2aac 90bc
00000230: 114f 40bc b1a4 1b3d 5fb9 aa3d 8e00 bfbd
00000240: 31c5 0c3d f95c aebd 0cf8 b9bc d4a4 a3bd
00000250: a6a3 17be 7927 7e3c 04ef 493d 62bf d7bc
00000260: b69b af3d 7a13 5c3c 197a c9bd f195 b13d
00000270: 7a35 643d 3e1c 1f3d 6368 e4bc 3e0b 14bd
00000280: ca6b a53d e108 4a3d 22ad 4c3d 4a74 afbd
00000290: fe48 ccbd f862 b9bd 5e30 073e 5e4b c03d
000002a0: c992 4dbb 8f3e 1ebc 859a 413d 4a07 783d
000002b0: 40c3 f73c 7281 8dbc 2c08 09be 9eb9 633d
000002c0: d4ad 1cbd 8570 063d d63e b83d bb41 f53c
000002d0: 0c0c ecbd 27e4 f3bd 06de 0fbd c5fd 06be
000002e0: b23b 10bd 1f6a 933d 20b3 9fbd 516a 8e3d
000002f0: 82c3 7abd 7003 c7bc d87c 31bd 4ec8 86bd
00000300: 71c9 d0bd 6fae 813d a7e0 28bd dc60 58bd
00000310: 1f53 f63c cfbd cf3a 6fff 50bd 79e5 90bd
00000320: ff2e 15bc 61a9 73bd 5761 a2bd 3915 343d
00000330: ac15 a9bc 8f30 a73d b8d0 75bb 75a4 a8bd
00000340: 9d20 153d 6225 febd 7828 8ebd 7971 c33d
00000350: f223 49be 742d 05be 80eb 003d b366 2c3d
00000360: 68c8 0ebd 6dda 09bb 886a 53bd 4e03 833d
00000370: 2910 613b adba 903d ae09 333d f0b1 b4bc
00000380: fc4f 12bd 962d 083e 59d3 1f3d d226 63bd
00000390: ec98 57bc 62d9 1dbc c1a1 8abd b06b ff3d
000003a0: 3774 a63d fc5b a63d 6d02 9b3d 3faf 6e3c
000003b0: 3830 143c 88a6 873d ee8c d5b8 adda d2bb
000003c0: e4a4 46b9 af26 02bd c2ae cc3d dd12 c03c
000003d0: f9df 42bb 5904 043c 9069 a9bc ebe4 3d3e
000003e0: e782 66bc 15b2 b63c f43b 12be e5e1 153e
000003f0: 2370 77bd 8663 a43d b0c8 fdbd 7735 10be
0.14028078 0.038862955 0.04569393 0.05132151 -0.012905727 4.6552614e-05 -0.07072795 0.0028127
0.19139263 -0.0027797637 -0.06485026 0.10023404 0.1158258 0.034766432 -0.066717595 -0.0978421
-0.009655114 0.063008554 0.08167802 -0.11521326 0.060405187 0.062300913 -0.1143297 -0.16564883
-0.047905505 -0.019298391 -0.1420128 0.0720018 0.046171803 -0.12898801 0.048734855 -0.058534574
-0.069598615 0.026002565 -0.11476108 -0.043342456 -0.06870639 -0.10214343 -0.043114465 -0.0145355025
-0.119293295 0.15024532 -0.033792134 0.049011257 -0.059002202 -0.120067246 -0.069287 -0.017209344
0.08186169 -0.07990519 0.04889283 -0.011745331 -0.05832719 0.09142813 0.08096844 -0.016410692
-0.06733084 0.021893932 0.019375205 -0.0048863464 0.06364828 0.04216031 0.008657019 -0.030941429
0.024691176 -0.035352755 0.14430964 0.14031973 -0.047091458 0.022786397 -0.058483955 0.0004111798
0.07428678 0.12922959 -0.07302183 -0.018075086 0.03565858 -0.06089962 0.016201476 0.011332132
-0.07570059 0.09317894 -0.0762701 -0.019789068 0.087646045 -0.18811376 -0.04325479 0.09386082
-0.073762305 -0.042116836 0.060991134 0.08690429 -0.028352493 0.0286762 0.038873393 -0.115452334
0.02943493 -0.05060629 0.013966894 0.045667347 0.02710135 -0.1050226 -0.06182453 -0.016993865
-0.019152103 -0.04917954 -0.049623225 -0.13652343 0.034525935 0.064707115 0.1230551 -0.02573237
0.075858645 0.073018335 0.030615259 -0.07240561 -0.12101436 0.14127724 0.052418668 -0.11004358
0.003300281 0.07955447 0.11492591 -0.051289607 0.04838794 -0.038540248 0.009352312 0.014519362
-0.01582225 -0.080469444 0.0052442076 0.012965956 0.012337307 -0.02150974 -0.0029938843 0.14075242
0.105467156 0.07151488 -0.056644402 -0.01766022 -0.011737601 0.03799886 0.08336138 -0.09326278
0.034367744 -0.08513827 -0.022701286 -0.07990423 -0.1480852 0.015512341 0.04930021 -0.026336376
0.085746214 0.013432378 -0.098377414 0.08671177 0.05571506 0.038845293 -0.027881807 -0.036143534
0.080772 0.049324874 0.0499698 -0.08567102 -0.0997486 -0.0905208 0.13202044 0.09389375
-0.0031368008 -0.00965847 0.047266502 0.060553826 0.03024447 -0.017273638 -0.13382024 0.05559694
-0.038251713 0.03282215 0.0899636 0.02993857 -0.11525735 -0.11908751 -0.035123847 -0.13182743
-0.03521318 0.07197975 -0.07797837 0.06953872 -0.061221607 -0.024293631 -0.04333195 -0.06581174
-0.10194672 0.06332099 -0.04122987 -0.052826747 0.030068932 0.0015849414 -0.05102485 -0.070750184
-0.009105443 -0.059487704 -0.07928722 0.043965552 -0.020640217 0.08163559 -0.003750844 -0.08234493
0.036408056 -0.12409474 -0.069413126 0.095431276 -0.19642618 -0.1300562 0.03147459 0.04209013
-0.03485909 -0.0021034733 -0.051615268 0.06397115 0.0034341908 0.070668556 0.043710403 -0.022057503
-0.03572081 0.1329864 0.039019916 -0.055456944 -0.013159018 -0.009634348 -0.06769133 0.12471712
0.08127635 0.081230134 0.07568822 0.014568149 0.009044699 0.0662356 -0.00010182882 -0.0064347596
-0.00018944178 -0.031775173 0.0999427 0.023446495 -0.002973555 0.008057677 -0.020680219 0.18544357
-0.0140692955 0.022301713 -0.14280683 0.14636953 -0.060409676 0.08026795 -0.12391794 -0.14082895

a2c_network.actor_mlp.2.bias f4 [128]
00000000: 47db a9bb 3055 7dbc 11a5 57bd 4b55 3abd
00000010: eace 233d 2110 a7bb f98a dcbc d2b7 df3b
00000020: 7e20 d8bd b17e d2bc 448f 53bd 0a5f 5b3c
00000030: 77f8 e6bc 2867 0a3d 8b8c 1f3a ad57 bb3a
00000040: 2670 e73c 590d 63bd 3ce7 afbc 8728 56bc
00000050: a61a 233d 6894 fbbd aa96 5a3a 2337 88bc
00000060: 291e e4bb e148 1e3d 754d 783c 7fbe 323b
00000070: a033 203c e1b8 14bc b555 2e3c 250a 8fbc
00000080: 3ca8 a33c f942 7bbc c47f 0fbd 1e4c 82bc
00000090: c99b 56bc 9732 e8bc 28b5 213d 4fc2 a4bc
000000a0: 2714 623b 3cab f8bc 119b 613b 4413 96bc
000000b0: fd04 be3c 3c9a 2abd 969f bc3c 85ed 3bb9
000000c0: dc0b c2bc 4768 afbb 6a86 cfbc 1896 a7bb
000000d0: 7078 d03c adb4 103b fb0f 13bd 2776 d6bc
000000e0: bbf3 e7bc e9d6 47bd 4acd 5c3d 483f 063c
000000f0: 45ca e3bc 1bd5 e9bc b009 14bd e841 21bd
00000100: 420b 7b3b 909d 0fbd 4ff4 343c ed19 73bc
00000110: b94d 573c 8748 abbb b05d 78bd 5c07 dbba
00000120: 622a 0cbd ce95 5ebd 5f1e 4c3b ab59 a3bc
00000130: cae6 99bd 1a26 58bd 73a1 9bbc 5642 83bc
00000140: 2f92 05bd 1703 1c3c abdf f6bc ba42 213d
00000150: 5778 8abc 208d fc3c 15c5 35bc 695e f63b
00000160: 2b6c c53c a5e1 fc3b 8e04 49bd 4fae e53b
00000170: abf3 35bd 0283 a5bb 56a8 4ebd 474a be3b
00000180: 7185 e1bc 67da a7bc 43b7 14bd 45c7 fcbc
00000190: 59ed 8abc 3fe7 2ebd 6776 17bc 0d76 6bbd
000001a0: 7fde 673c 6dec 9cbc a1b1 313c ee7e 9c3c
000001b0: 6437 bf3c 097d 4e3c d9e1 2bbd 27dd abbb
000001c0: 5db8 13bd ec49 f73b addf 573c 4f37 50bd
000001d0: 91a8 c6bb da9d 66bc 10f3 c2bc c005 d1bc
000001e0: 940e 0abc 0920 14bc 218a ddbd 4880 2ebb
000001f0: efc2 8ebc f705 e63b 3c46 1bbd f799 2cbc
-0.0051836106 -0.015462205 -0.052647654 -0.045491498 0.03999225 -0.0050983583 -0.026921736 0.006827333
-0.105530724 -0.025695177 -0.0516503 0.013389358 -0.02819465 0.033789784 0.0006086311 0.0014293097
0.028251719 -0.05543265 -0.021472566 -0.013071186 0.039820336 -0.122841656 0.0008338491 -0.016627854
-0.006961603 0.03864372 0.015155186 0.002727419 0.009777933 -0.009077282 0.010640551 -0.017460892
0.019977681 -0.015335792 -0.035033956 -0.015905436 -0.0130986655 -0.028344436 0.039479405 -0.020112185
0.0034496875 -0.030355088 0.0034424702 -0.018319733 0.023195738 -0.041650996 0.023025315 -0.00017922193
-0.023687296 -0.005353007 -0.025332648 -0.005114328 0.025448054 0.0022080347 -0.035903912 -0.026179386
-0.028314462 -0.04878894 0.053906716 0.008193798 -0.02780641 -0.028544 -0.03614205 -0.039369494
0.003830627 -0.035062373 0.011044576 -0.014837724 0.013141089 -0.005227152 -0.060636222 -0.0016710567
-0.034220107 -0.054342084 0.0031146032 -0.019940218 -0.07514723 -0.05277071 -0.018997883 -0.016022842
-0.032610115 0.009522221 -0.03013595 0.039370276 -0.016903086 0.030829012 -0.011094351 0.007518579
0.02409943 0.0077173286 -0.04907661 0.0070093046 -0.044421833 -0.0050510177 -0.050453506 0.0058071944
-0.02752945 -0.020489885 -0.036307584 -0.030856738 -0.01695888 -0.042701002 -0.009244538 -0.05748563
0.014152168 -0.019155705 0.010845573 0.019103494 0.023341842 0.012603053 -0.041963432 -0.0052448693
-0.036064494 0.007546654 0.013175887 -0.050833996 -0.006062575 -0.014075721 -0.023797542 -0.025515437
-0.008426327 -0.009040841 -0.108173616 -0.0026626755 -0.017426936 0.007019754 -0.037908778 -0.010534755

a2c_network.actor_mlp.4.weight f4 [128, 128]
00000000: 14b7 063c 4d42 fabd df84 43bd 4709 20be
00000010: 1513 09be d31f 65be 7495 95bd 7fd3 20be
00000020: 766f 003d 4d75 36be fb6f 1b3e 9ec0 f3bb
00000030: 784b 1bbd 1e9d 06be 8829 78bd 336c 08ba
00000040: 9342 9abc e32e e63d d0d7 143e 534c a3bd
00000050: 2f60 8bbc 0150 b73d 18c3 323d 1c0e f33d
00000060: 0191 6a3d 5505 f03c b4e8 33bd f87e 8e3e
00000070: 9f02 d7bc 2ca3 9fbd 8c1f a3bc 662c e1bd
00000080: 0525 1abc 2c04 73bd 365b 263e 8730 913c
00000090: f3d1 3abd 74f5 193d 5526 0bbe 74d9 473d
000000a0: f112 72bd 28ef c43c 8de0 95bd 9393 c63d
000000b0: 0eb6 c6bc b87b c3bc 9d15 bd3c e1a0 f8bd
000000c0: 1f85 b93d 4a4b 16be dfa0 983c 6fe7 323e
000000d0: 7d9f 263d 0cee 31bd f046 4cbb f260 423b
000000e0: ac03 ffbc 8f62 e7bd 88c1 64bd f71e 13bd
000000f0: a690 1abe ccd1 cf3c 80ef 1bbe 7073 9b3c
00000100: 1865 fdba 2cf2 a83c 5580 bbbd f109 00be
00000110: ebf1 0bbd e889 b2bd 3d96 8b3d 4b7a a2bd
00000120: 2bc1 363d 836b 193d 78f6 09be aa38 dfbd
00000130: 1644 5b3d aad0 a3bd a9bc 853d dced 48bb
00000140: 27ee 9d3c 5f65 3bbc 94ac 213d c7e1 1fbc
00000150: 7ded 3f3d 10e2 43bc c734 55bd 0a5c 9dbd
00000160: 4b3e 73bd 5637 ecbd 0208 49bd c1c2 c4bd
00000170: 507f 863d 812f 8ebe 2834 e3ba 5acf 123d
00000180: 877f 24bc b422 063e 7d51 04bd ada0 0ebe
00000190: 3b8e 88bd 0143 23be 47c4 383d 4006 ed3d
000001a0: 139e 08be 91ea d9bc 6c5a 80bd 9dea 92bd
000001b0: 5b64 cabc bd28 0abd c1be f0bd 5916 24be
000001c0: 4bbd dcbd 0930 b6bb 90a2 fbbd df48 523c
000001d0: 8804 10be 5291 953d a1fa a13d 6f41 613d
000001e0: 539e 7c3d db4e bc3d f6cc 44bd aad2 5f3d
000001f0: 1f89 d2bd 5391 b0bb fcf5 e4bd 5ac9 093d
00000200: 57a1 47bc b489 3c3c 142d a0bc b37e b43d
00000210: 4a4b 22bd ffeb 29bd 73cc 3a3c 4edb 13be
00000220: 5aca 633d 603b a6bd 3c5e 063d 9e42 9cbe
00000230: f0f2 203e a789 c3bd f6b0 b0bd 8e1f a1bd
00000240: 0996 34bb c193 bf3d 20e7 6bbc d0a7 5d3c
00000250: 7ab6 28bb d9d2 8c3d e139 d7bd fb08 2d3d
00000260: 83d1 423d 2bbb c5bd 74b8 b2bd a7a9 9f3c
00000270: c3be 86bd 0f2a eebd 56ef c53d 2e44 81bc
00000280: 5dfd 183d dd31 dfbc 695d ab3c d318 d5bc
00000290: 8d27 a5bb d5c0 16bd ab3d 92bd 7629 25bd
000002a0: 2783 51bb 9991 a43d 346b 12bd 8e91 a6bc
000002b0: 2ead d3bc da22 e73d bb72 123d 0968 9dbd
000002c0: c066 c73d 548a febd 999a 8ebd 4711 f6bc
000002d0: a3b2 733d f99c 1f3d bea1 333e 5037 a1bd
000002e0: d18c 473c 464e 4b3c 2779 383e a309 fdbc
000002f0: 04d1 923d ec29 0f3d 9031 813d 674d 413d
00000300: 3b60 0cbe 1a09 5b3d 5f10 e13c 7bd0 f53d
00000310: e4b1 51bc 3d6f 01bd bb9d 7cbd e615 2abd
00000320: 68ac 453e f820 78bd 1f1b 4f3b f416 db3d
00000330: b938 823d af63 883d 0ae2 99bd e47a 733e
00000340: 1ef3 ddbc e847 86bd ca7d 0cbc e367 cebd
00000350: ce66 b3bc 0711 503b 3cf3 2cbd 90b5 2cbe
00000360: b388 7e3d 655c 8e3c d7a6 3f3e f9c7 dfb9
00000370: 49f5 b7bc fbaa 343d a188 20bd 03af 2d3c
00000380: a84e 043d 6842 b6bd 16fe 33bd 6f26 583e
00000390: 1af0 00be 3a95 dbbc de75 d33d 2e50 3abe
000003a0: 0437 0bbd 1603 a83d 08ac af3d 0959 01bd
000003b0: 6d84 91bd 11b3 9ebd 1fa5 c23d 43a7 bdbd
000003c0: aa45 c63d 4168 373d 9269 103d 5659 003d
000003d0: 8741 4c3e a1a2 0c3e a73e 253d 529c 82bd
000003e0: 9e69 acbc 8080 e13d 4e01 15be f087 313d
000003f0: 86a8 31be 866c 97bd b5fd 843d 9252 f1bc
0.00822236 -0.12219677 -0.047734138 -0.15628539 -0.13386185 -0.22375421 -0.073038965 -0.1570568
0.031356297 -0.17818184 0.15179436 -0.0074387332 -0.03791377 -0.13145873 -0.060586482 -0.0005204111
-0.018830573 0.11239412 0.14535451 -0.07973542 -0.017013637 0.089508064 0.043643087 0.118679255
0.057267193 0.029299418 -0.043923095 0.27831244 -0.026246367 -0.077947944 -0.019912504 -0.109947965
-0.00940824 -0.05933015 0.16245732 0.017723335 -0.04561038 0.037587598 -0.13588841 0.048791364
-0.059100095 0.02403982 -0.0731822 0.09696116 -0.024256732 -0.023862705 0.023081595 -0.1214006
0.09058594 -0.14677158 0.018631397 0.17471097 0.040679444 -0.04343991 -0.0031170212 0.0029659835
-0.03112968 -0.112980954 -0.05584863 -0.035918202 -0.15094241 0.025368594 -0.15228081 0.018975943
-0.0019332496 0.020623289 -0.09155337 -0.12503792 -0.034166258 -0.0871771 0.06815765 -0.07933482
0.044617813 0.037456047 -0.13472927 -0.1089948 0.05353173 -0.07998784 0.06530125 -0.0030659353
0.019278599 -0.011437743 0.039471224 -0.009758419 0.046857346 -0.011955753 -0.052052286 -0.07683571
-0.05938558 -0.11533992 -0.049079902 -0.09607459 0.06567252 -0.27770618 -0.0017334269 0.035842277
-0.0100401705 0.13099176 -0.032304276 -0.1392848 -0.06667753 -0.15943529 0.04510906 0.11573458
-0.1334155 -0.026601108 -0.062672466 -0.07173655 -0.024706056 -0.033730257 -0.117551334 -0.1602415
-0.10778292 -0.0055599255 -0.12286866 0.012834757 -0.14064229 0.07303108 0.07909132 0.054994043
0.061674427 0.09194728 -0.04804703 0.054644264 -0.1028006 -0.0053884177 -0.1117973 0.03363929
-0.0121844625 0.01150744 -0.019552745 0.088132285 -0.039622582 -0.04148483 0.011401284 -0.14439127
0.0556129 -0.08116794 0.032804713 -0.30519575 0.15717673 -0.095477395 -0.086275026 -0.07867347
-0.0027555248 0.09354354 -0.014398366 0.013528779 -0.002574353 0.068761535 -0.105090864 0.042244893
0.047563087 -0.0965484 -0.08726588 0.019490076 -0.06579354 -0.11629116 0.0966479 -0.01577958
0.037351 -0.027245456 0.020918565 -0.026012814 -0.005040115 -0.036804993 -0.071406685 -0.040322743
-0.0031969042 0.08035583 -0.035746768 -0.020333078 -0.025839414 0.11285944 0.035753947 -0.07685859
0.09736395 -0.12428728 -0.06963081 -0.030037535 0.059496533 0.03896806 0.17542168 -0.07871878
0.012179569 0.012408799 0.18014966 -0.030888384 0.07168773 0.03495209 0.063082814 0.047192957
-0.13708584 0.053475477 0.027473627 0.12002655 -0.01279876 -0.031600226 -0.06167386 -0.04152479
0.19304049 -0.060578316 0.0031601859 0.10697737 0.06358475 0.06659638 -0.07513817 0.23777348
-0.027093466 -0.06556684 -0.008574912 -0.100784086 -0.021899607 0.003174843 -0.042224154 -0.16866136
0.062142085 0.017378042 0.18715988 -0.00042682866 -0.022455828 0.044108372 -0.0391928 0.010600808
0.032301575 -0.08899385 -0.043943487 0.21108411 -0.12591591 -0.026804555 0.10325216 -0.18194649
-0.033988014 0.082037136 0.08577734 -0.03157905 -0.07105336 -0.07748998 0.095041506 -0.09260418
0.09681256 0.04477716 0.03525693 0.031335197 0.19946872 0.13733913 0.040342953 -0.06377472
-0.021046456 0.110108376 -0.14551279 0.04334253 -0.17349443 -0.07393746 0.06493703 -0.029458318

a2c_network.actor_mlp.4.bias f4 [128]
00000000: 8978 80bd 4698 88bd 936e 0e3d 0b55 963c
00000010: 891e c9bd 777d dcbd 895c 93ba f09d 6bbc
00000020: c4a3 abbb c218 1dbd 5578 fdbd e20b 00bc
00000030: 47ac c0bc 51e2 b43c 4f49 acbd 0492 a0bd
00000040: 2e58 b53c 6385 0ebc 6a11 0cbd 1410 95bc
00000050: 30bc 59bd f961 c5bd cf8c c63c 5086 e0bd
00000060: c25c 11bd a0e5 a9bc 427a 1b3b 5d96 3bbd
00000070: e538 ccbb 938a e6bd 0b2b 293d b195 a03c
00000080: c0b9 47bd 6a0a 263c f382 86bc cda3 80bd
00000090: a11d 31bd 946b 223c 8e16 dbbc e6d6 16bd
000000a0: ff5f 41bd 1605 05bd 9191 423c 539e 4a3d
000000b0: 9517 dcbd 3b20 bcbd e6a8 9ebd e10f 6fbd
000000c0: 45d6 c3bb b349 06bd 7897 d9bd cfdc eabc
000000d0: f967 fd3c b651 243d efed 52bc 486f ce3d
000000e0: 659c 413c 1b78 0bbd a28c 0a3d 50ab 813d
000000f0: bd85 b8ba ae45 043d 0a00 bcbd 632d 463c
00000100: 3282 63bb bc4c aa3d 48bb b1bc 2e8b f1bc
00000110: b63e 73bd c795 38bd ab40 b2bd 6c4d 843d
00000120: 5280 2dbd 2a67 d239 97ca b43b caf1 31bd
00000130: 1bc7 803c eb1b 3ebc 5c97 62bd 0433 d43c
00000140: 56b7 11bd b347 2abc 9525 1fbd 7ea8 54bd
00000150: 39d3 b0ba c627 d93b ce5c d1bd 1865 0ebe
00000160: d21c a0bc aef5 84bc 4e6c 23bd 0fe5 27bb
00000170: 630f 613c 2632 31bd 3161 0abd d84c 21bc
00000180: 1e3d 29bc 8fea 86bd 2c7d ebbd 8791 98bd
00000190: 96e9 7bbd 104d a0bd 567e adbd 5a24 85bc
000001a0: 3adc b4bd 3cc4 44bc 9dfb 56bc 39bd 18bd
000001b0: 5202 80bd a200 36bd 913b c6bb af47 91bd
000001c0: df66 993d c314 b2bd 5753 94bc d738 88bc
000001d0: a8a6 52bd 2cb1 08bd b14a 59bd 50ef 053d
000001e0: 1a5d 233b d795 6b3d c984 2c3d e814 81bd
000001f0: eac5 413b 86d3 f6bc c01f 4c3c 4ba4 84bd
-0.0627299 -0.06669669 0.03477342 0.018351099 -0.09820277 -0.10766118 -0.0011242788 -0.014380917
-0.0052380282 -0.03835369 -0.12376467 -0.007815333 -0.023519648 0.022080572 -0.0841242 -0.0784035
0.022136774 -0.008698794 -0.034196295 -0.018196143 -0.053157985 -0.096378274 0.024237065 -0.10963118
-0.03548885 -0.020739377 0.0023723994 -0.045797694 -0.0062323683 -0.112569 0.041300815 0.019602628
-0.04876113 0.010134319 -0.016419863 -0.062812425 -0.043241147 0.009913344 -0.026744153 -0.036826037
-0.04721069 -0.032475553 0.011875526 0.049467396 -0.107466854 -0.09185835 -0.077470586 -0.058364753
-0.0059764707 -0.03278513 -0.106245935 -0.028669743 0.030933367 0.040116988 -0.012874111 0.10079819
0.0118170725 -0.03405009 0.033825524 0.063315034 -0.0014077943 0.032293014 -0.09179695 0.012095782
-0.0034715054 0.08315417 -0.021695748 -0.029485311 -0.059385978 -0.045064714 -0.08703741 0.064600796
-0.042358704 0.00040131185 0.0055173147 -0.04344348 0.01571994 -0.011603336 -0.05532013 0.025903232
-0.035575233 -0.010393071 -0.0388542 -0.0519185 -0.0013490684 0.006627056 -0.10222779 -0.13905752
-0.019544993 -0.01623043 -0.03989821 -0.0025618707 0.013736579 -0.043260716 -0.033784095 -0.009844981
-0.010329513 -0.06587707 -0.11498484 -0.07449632 -0.06150206 -0.078271985 -0.08471362 -0.016252685
-0.088310674 -0.012009677 -0.013121513 -0.03728983 -0.062504426 -0.044434197 -0.0060495813 -0.07093751
0.07490324 -0.08695366 -0.018106146 -0.016628666 -0.051428467 -0.03337209 -0.053049747 0.03269893
0.002492732 0.057515945 0.04211882 -0.06302816 0.002956743 -0.03013016 0.012458742 -0.06476649

a2c_network.value.weight f4 [1, 128]
00000000: bee1 013d 18e8 37be 2d75 96bd d9f9 8bbd
00000010: 9ad6 b2bd 367a e2bc fcda fcbd d27d 97bd
00000020: 300a afbd c026 fa3d dbaf 643d 216f 3a3e
00000030: 0975 113c a283 6fbd 1b65 94bc bebb e83d
00000040: 1a11 5e3e a6e0 4fbe f6f2 80bd 55be 503d
00000050: f7af 38bd 9100 cdbc 822d 8d3d 4c8a 50bb
00000060: 737c bc3d db21 f83d 8acc 7fbd 3761 96bd
00000070: 427a 9ebd d1b8 7d3d 07fa edbd d6fe 5b3c
00000080: d434 b93d 24f4 4d3d aa7d 0dbe 6a3c bcbd
00000090: 1219 8e3d 1ee5 93bb de32 803d 7acc 3f3d
000000a0: c229 823d 0ba9 a7bd 04ef ad3d 0155 afbc
000000b0: cd15 6e3c 9f96 0e3c d131 3ebd 8a62 febc
000000c0: 2b2a 04be ec42 673d b1cf 383d 766e 33bb
000000d0: 1eeb 07bd bb24 233d 17ae 183e 2daf e23e
000000e0: b872 863d a35b 9fbc c82d d0bc 6307 9a3c
000000f0: b39c e9bd bad2 193d c08d 143d 24c4 8dbd
00000100: dee3 803d 895e aabd 139d 2b3d 56e2 4a3d
00000110: 0cb8 153c e4f1 72bd f0f3 24be 09e1 373e
00000120: f001 92bc 015e acbd 8121 e63c 84c3 173d
00000130: 5296 14be ba69 d23d 5f68 a73d eddc ddbd
00000140: 2c04 b2bc 79e1 bfbd accd 0c3d 8a3b ed3c
00000150: 6359 36bd d215 13bd 04b6 a53d 4b06 ee3c
00000160: 8a22 30bc 3b83 943d 4c74 8b3b 38dc 86be
00000170: aa56 323d 5848 4abe ca4d 45bd 00af 793d
00000180: 58ea 7bbe bd15 11be 4c9a 20be b9a3 223d
00000190: 35dc 0d3e 570d a53d 7e7b 0f3d 9fee 14bd
000001a0: 1ccb 8abc 7547 95bd 07e3 09bd e736 afbd
000001b0: 022a 693d 34f1 6bbc 52d7 94bd c2ee 783e
000001c0: 8e2a 303e a49c 863d 621e 98be 6e2b 1abd
000001d0: 3867 1cbe 1a91 a13d e5a0 623d 8af8 39bd
000001e0: 120d 883e 8c7d 17be a80d d83d 50a0 f2bd
000001f0: 1193 bb3d 1e69 9a3d 1d18 2dbd f187 0d3c
0.031709425 -0.1795963 -0.07346568 -0.06834764 -0.08732338 -0.027646165 -0.123464555 -0.07397045
-0.08546865 0.12214422 0.05583177 0.18206455 0.008878001 -0.058475144 -0.018114617 0.11363934
0.21686211 -0.2030054 -0.06296341 0.050962765 -0.04508969 -0.025024684 0.068934456 -0.0031820713
0.09203424 0.121158324 -0.062450923 -0.07342761 -0.077381626 0.061943833 -0.116199546 0.013427457
0.09043279 0.05028166 -0.13817468 -0.091912106 0.069383755 -0.004513397 0.06259702 0.046825863
0.06355621 -0.08186539 0.08492854 -0.021402838 0.014531565 0.008702903 -0.046434227 -0.031052846
-0.12906711 0.056460306 0.045119945 -0.0027379072 -0.03318321 0.03982995 0.1491016 0.44274274
0.065648496 -0.019452875 -0.025412455 0.01880235 -0.11406841 0.03755448 0.036267996 -0.069221765
0.06293462 -0.083188124 0.041897845 0.049532257 0.0091381185 -0.059312716 -0.1610868 0.17956938
-0.01782319 -0.08416367 0.028092148 0.037051693 -0.14510468 0.10274072 0.08174204 -0.10833154
-0.021730505 -0.09369177 0.03437583 0.028959054 -0.04451884 -0.03590948 0.08091357 0.029055735
-0.010750422 0.07251593 0.004255807 -0.2633989 0.04353968 -0.1975416 -0.04816989 0.06095791
-0.24601114 -0.14168449 -0.1568386 0.03970692 0.13853534 0.08059185 0.03502988 -0.03636038
-0.016942553 -0.0728902 -0.033663776 -0.08555394 0.056924827 -0.014400769 -0.072676316 0.24309829
0.17203733 0.065728456 -0.2971068 -0.037639074 -0.1527375 0.07889004 0.055329222 -0.04540304
0.26572472 -0.14793986 0.1054948 -0.118469834 0.0915891 0.07539581 -0.042259324 0.008638368

a2c_network.mu.weight f4 [10, 128]
00000000: d750 e9bd 468f e13c 6cc8 56bb 4dd8 aa3d
00000010: cf0b 7f3a 3141 f1bd fc4c b4bd c812 83bd
00000020: f942 a8bd 28e3 ebbd 9b53 e9bd 9295 9dbd
00000030: 94f7 afbd ce7a b6bc bcb7 4d3a b3f3 473d
00000040: 246c 203d 6933 0ebd b73a 31bc b412 23be
00000050: 0c33 e1bd 685e 9c3b bb33 43bd 5057 cb3c
00000060: ef9e 893d 2341 8dbd add6 37bd 8901 8f3d
00000070: 2461 963d c6c8 c8bc ede4 e23b 9782 04bd
00000080: 292c e4bd 5eca 3dbd 41d8 93bd 11af 0fbd
00000090: ce74 a3bd ee9b e43c 7bbd 863d 01d7 40bd
000000a0: 1cc3 36bc 8851 da3b 7bc6 0fbd cdce 983a
000000b0: 274f 0e3d 4676 2fbd dd16 693b dfd6 75bd
000000c0: 0a46 9a3d 6605 46bc 99a1 cdbd 26b4 01be
000000d0: fce3 08be 297b f43d 30da 17be aea3 0cbd
000000e0: 7b31 883d c63b 9a3d 23ee fcbd f310 1e3d
000000f0: 9b1a b9bd b529 c63d 5d8b bcbd 3e7c 383e
00000100: c1f3 4a3d 1821 443d 407b 053d 6343 d4bd
00000110: 7c9b e1bd f95f 093e dda1 86bd fff5 da3d
00000120: c004 09bc 33c0 cf3d 5331 fbbd 9e82 ef3c
00000130: 2949 07bd 62cb 92bd 4169 0cbc 7ca6 9a3c
00000140: bf06 5ebd 6c48 203d 711b 71bb 0260 9bbd
00000150: 8db3 743d 7712 ccbd c84e b0bd 5458 b8bd
00000160: fc4c a0bd 4bb3 d8bc f86e 493c b388 483d
00000170: d64d 5ebd 12d7 103d 5cf9 873d 9fe9 f83d
00000180: 1b86 61bd 6d4e 30be d81d c6bd fee2 13bd
00000190: 4763 8a3d bed0 d03c 0fe9 ecbd 2417 fb3d
000001a0: e527 99bd 9aaa b23d c3d3 0cbe 2aa6 2f3d
000001b0: a269 2a3e e49a 563c 5e73 3b3d 74de d23d
000001c0: fb4c 76bd 0de6 133e c520 38be 11de 363c
000001d0: 94cc b93d 5843 073b 283e 2cbd e967 e1bd
000001e0: a04e 633d 97a2 f7bd b414 513c 6fbc bc3d
000001f0: 4e8e ac3d 96d1 9b3c 16e8 c13d 87ea e7bb
00000200: 17e7 08bd 2ce4 61bd 3e2c d9bd 568a a8bd
00000210: 8475 28be c8d7 5ebd 6850 1e3d 5df8 a63d
00000220: a452 0b3d 54c3 34bd 4c00 40be 7fb5 973c
00000230: ed38 343d 967f 1e3e 838d c5bd c534 66bd
00000240: 9bd9 02bd 36a0 a1bd 86a5 52be cbec b8bc
00000250: 86ff e1bc 150a 92bd f5c5 123e 988f d6bd
00000260: a5b4 073d dd68 c6bd 5bdf bc3d dfeb d33d
00000270: e7ad b83d 2613 99bd 601d 1fbd d975 743e
00000280: 56d3 bebb e8cf bdbd 8ac8 a73d 5de5 b03d
00000290: 06e2 38be d360 6c3d 6f6a 993d 2f09 10be
000002a0: b8ce 20be bf07 113e 1ab8 983d 50c8 85bc
000002b0: 2658 7b3d 2ba3 1dbb 0c44 c63d e6c7 abbd
000002c0: 366b bbbd c393 c23d 1544 e5bd 0342 89bc
000002d0: 3926 e2b8 6664 5fbd dd13 0ebd e0dd ca3d
000002e0: c379 8f3e 5785 e8bd 2b95 513d 5aad f93d
000002f0: 8426 c7bc 9729 f2bd a9fb b0bd 8ea4 87bc
00000300: e4cd b53d e067 2f3e 3d2f aabd 805c 433d
00000310: 0b7f 7fbd a95b ea3d 2dcd 4c3d d23c 023d
00000320: fdeb ecbc 186a 00bd 775e 48bd c569 933d
00000330: bbbf 4d3d 87c9 df3d 28e7 07be 5c14 b43d
00000340: 5755 003e a15c 093e 13e7 9f3d e7f4 35be
00000350: 1146 33be 6b32 773d 006e 1fbe caa2 28be
00000360: 2ab1 debd 50b8 ea3d 5a50 dc3b 3a0e 263d
00000370: 5bfa c9bc 6d8c f73c 2297 da3b 3187 82bd
00000380: 62b5 c53c e8db d33d 5209 33bd 752d 41be
00000390: 9190 02bd e164 bbbd a96c 06be 75d3 403c
000003a0: f7a9 233d 4998 55be 5550 c13d f244 8dbd
000003b0: e313 2b3d 1e14 9abc 90cd f23d d719 4b3b
000003c0: 5c03 f43d 8559 d2ba 1339 81bc 4ab4 57be
000003d0: 511a 1cbe 280c 5abc e516 b9bb e7ae 773e
000003e0: 8b1f c53c 2132 b3bc c949 4f3d 78a2 cfbd
000003f0: c3ed 47bd 2d29 1ebe 986e 00be 797e de3d
-0.11392372 0.027534138 -0.003277327 0.08342037 0.00097292376 -0.117800124 -0.08803746 -0.064000666
-0.08215899 -0.11517936 -0.113928996 -0.07694544 -0.08592144 -0.022275355 0.0007847508 0.048816394
0.03916563 -0.034716997 -0.010817221 -0.15925103 -0.109960645 0.0047719963 -0.047656756 0.024821907
0.06719767 -0.068971895 -0.044882465 0.06982715 0.07342747 -0.024509799 0.0069242627 -0.032351103
-0.111412354 -0.04633557 -0.072189815 -0.035079066 -0.07981263 0.027906384 0.06579109 -0.047080044
-0.011154916 0.0066625513 -0.035101395 0.0011658311 0.034743454 -0.042837404 0.0035566606 -0.06001937
0.0753289 -0.012086248 -0.10040588 -0.12666377 -0.13368219 0.119375534 -0.14829326 -0.034335785
0.06650063 0.07530932 -0.123501085 0.038590383 -0.09038278 0.09675924 -0.09206269 0.18016145
0.049548868 0.047883123 0.032588243 -0.103644155 -0.110159844 0.13415517 -0.06573842 0.10691451
-0.008362949 0.10144081 -0.12265267 0.029237088 -0.033028755 -0.071676984 -0.008570016 0.018878214
-0.054205652 0.039131567 -0.0036790038 -0.075866714 0.059741545 -0.099644594 -0.08608776 -0.09001222
-0.078271836 -0.026452681 0.012294523 0.04895849 -0.05427345 0.035361357 0.066393584 0.12153935
-0.055059534 -0.17217417 -0.09673661 -0.03610515 0.06757217 0.025490161 -0.1156789 0.12260273
-0.074783124 0.08723946 -0.13752656 0.042883076 0.16641858 0.013098452 0.04576432 0.10296336
-0.060132008 0.14443226 -0.1798125 0.011161343 0.09072223 0.0020639505 -0.042051464 -0.110061474
0.055494905 -0.120915584 0.012761284 0.09215628 0.0842558 0.019020837 0.09468095 -0.0070775184
-0.03342351 -0.055149242 -0.10604142 -0.082295105 -0.16451079 -0.054405004 0.0386509 0.0815284
0.03401436 -0.044131592 -0.18750113 0.018519161 0.0439996 0.15478358 -0.09646132 -0.05620267
-0.031945806 -0.07891886 -0.20570955 -0.02257385 -0.027587663 -0.07130829 0.14333327 -0.10476607
0.03313126 -0.0968797 0.09222289 0.10347723 0.09017544 -0.074743554 -0.038846374 0.2387308
-0.005823533 -0.092681706 0.08192547 0.086374976 -0.18054971 0.057709526 0.07491004 -0.14066003
-0.15703857 0.14163111 0.074569896 -0.016330868 0.06136336 -0.0024053555 0.09680948 -0.08387737
-0.09151308 0.095008396 -0.11194626 -0.01675511 -0.00010783639 -0.054539107 -0.03468691 0.099056005
0.28022584 -0.113535576 0.05116765 0.12191267 -0.024310358 -0.11824339 -0.0864175 -0.016557958
0.08877161 0.17129469 -0.08309791 0.047695637 -0.062377017 0.11443264 0.05000036 0.031796284
-0.028921122 -0.03135118 -0.048918214 0.07197908 0.050231677 0.1092711 -0.13271773 0.08792946
0.12532555 0.13414241 0.07807746 -0.17769204 -0.17507197 0.060350817 -0.15569305 -0.16468349
-0.10873635 0.11460936 0.006723446 0.04054091 -0.024655512 0.030218327 0.0066708485 -0.06373442
0.024134342 0.10344678 -0.04371006 -0.18864997 -0.03187615 -0.091501005 -0.13127388 0.011769165
0.039957013 -0.20858873 0.0943915 -0.06897916 0.041767012 -0.01880842 0.11855614 0.0030990744
0.11914703 -0.0016048407 -0.015774285 -0.21064869 -0.15244414 -0.013308562 -0.005648481 0.24187814
0.024062892 -0.02187449 0.050607476 -0.1013841 -0.04881073 -0.15445395 -0.12542188 0.108639665

a2c_network.mu.bias f4 [10]
00000000: c022 883d d4d7 e73d 7cf7 aebc 23f8 e53c
00000010: 8930 d5bd b235 edbd 0134 2dbd 8187 04bd
00000020: cd33 c03b b442 da3d
0.06647253 0.11320463 -0.021358244 0.028072422 -0.10409648 -0.11582507 -0.042285923 -0.03235579
0.00586555 0.10657254

exp_avg f4 [10]
00000000: a468 5f39 4387 dc37 f862 80b4 0b66 25ba
00000010: d4f7 9b37 8442 cab8 78bc c0b6 e9d7 b3b9
00000020: b4cf 0039 b5a2 8737
0.00021305919 2.628903e-05 -2.3913867e-07 -0.0006309456 1.8592844e-05 -9.6445e-05 -5.7439865e-06 -0.00034302406
0.00012284407 1.616902e-05

exp_avg_sq f4 [10]
00000000: 8c2d de36 0930 d236 2220 db36 ba50 e336
00000010: 112e cb36 c021 d436 d69b d036 ce20 d736
00000020: 656e c736 4b5a c536
6.621418e-06 6.2640797e-06 6.5304494e-06 6.774525e-06 6.0552343e-06 6.3220214e-06 6.2170247e-06 6.4113183e-06
5.9435138e-06 5.881569e-06

exp_avg f4 [256, 42]
00000000: 1070 21ba 4afd 86b8 889b c6b9 e37a c8b8
00000010: a13e dab8 d13b 0ab8 7bc7 94b8 0ef8 beb9
00000020: ab15 c639 6e00 be3a 1c42 3aba 1e53 25ba
00000030: eb6d 43b9 666e 71b9 1f2a 9eb9 f66d 103a
00000040: f914 c539 1885 7239 bd09 20ba dfc5 48ba
00000050: 03ba d9b9 973b bfb9 6d21 1039 ae80 d338
00000060: 41cf 3bb7 bcf5 ad37 4b5b bc36 13f7 e6b7
00000070: 7abe c738 abab bd36 6ba6 1038 0367 74b6
00000080: af56 353a 7ce1 b639 f7e5 e038 ce9f 00ba
00000090: 4838 ad39 1a1d 08b8 775b a639 f368 c6b9
000000a0: 7240 853a 13e0 6639 a392 5139 b819 9737
000000b0: 911c 4838 2648 6338 dbe5 6739 5c89 7a38
000000c0: 2d7b e738 3013 7038 ee62 fdb8 591f d6b9
000000d0: f62a 6539 d2f6 7839 f70c 7637 c683 9438
000000e0: 5ed8 2439 e4a5 1fb9 a940 dbb8 0a7e bd38
000000f0: 9061 fc38 d545 7c39 0117 a639 9d97 2139
00000100: 848d 2cb9 d598 15b9 5a44 19b4 331d 4bb8
00000110: 9e7e 75b7 c334 4fb6 72f3 8ab8 9523 1d38
00000120: d363 06b8 a35c 9fb7 b776 35ba 2f02 4fba
00000130: d810 4ab9 73d0 4b39 55e4 77b8 3ffd 5c38
00000140: fcbb d2b8 1bdc f139 4a30 f0b9 c76b 40b8
00000150: 8519 9fb9 1b24 8136 d921 10b9 dcaa 4537
00000160: 7c0c 7638 83dd 85b7 4efa 98b8 d53f 4ab9
00000170: 280d 8938 f57f 413a 8dcb d3b9 e4c9 9cb9
00000180: d76a 4db8 5329 97b8 a0e8 e7b8 beb0 cd39
00000190: 4abf 0539 7bb0 4e39 f898 4eb9 c78a bbb9
000001a0: 40d5 5bb9 66ff b1b8 b6e0 1738 05ca f8b5
000001b0: 4f19 ac37 93e3 3c36 daa9 3738 9d05 2738
000001c0: 8f64 c1b6 11a7 b2b7 fdc6 b037 79bf fc37
000001d0: e15b 7e38 13dc 4db8 96f8 eab7 2298 b0b9
000001e0: fc7d b939 2485 2139 031a ce38 482f 6fb9
000001f0: e9d2 013a 933c be39 67c1 0c38 e118 bab7
00000200: baff 4539 e312 5537 f135 dbb7 b8d4 b835
00000210: 3c8e f7b8 6547 ecb8 94d4 9636 4b64 8f38
00000220: 04fe 8238 2014 ca38 6aaf b0b7 0c83 55b8
00000230: 1546 0639 bde8 97b7 bd65 25b8 b449 3939
00000240: 95dc 3b39 bdbb 5b38 449f 85b8 bf3f beb8
00000250: d115 8f38 4bf7 8c38 490a 1c37 3022 53b7
00000260: 857b 0239 79b9 9a38 fc07 6ab7 10ff 93b8
00000270: 869c d936 7639 d3b7 bb99 de38 f4d3 4b39
00000280: 0ccd b3b9 af31 b0b9 470d 1a3a a79d 8839
00000290: 2bdb 95b7 7f78 f9b9 c89d 8539 f17e 9339
000002a0: 9df4 56ba 9d8f c8b7 47d0 2bba ec9e 4238
000002b0: b32d 8e39 77f0 65b7 b735 7db8 f552 17b9
000002c0: bcc6 0f38 f26b d73a 0350 95ba 1245 87ba
000002d0: 4249 8237 2b2c 7cb8 8de4 96b9 e2f1 6d3a
000002e0: 7e79 f539 0d92 0639 30c9 7dba 74bf 83ba
000002f0: 54e5 76b9 1284 89b7 522b 13b9 faa3 35b9
00000300: ca87 1d38 fed0 0937 f397 97b8 5d77 dc37
00000310: 783c 1638 7124 0639 c9b1 a5b8 440c 1bb8
00000320: 229d b0b9 7b81 26ba e1b1 4639 5f04 d5b9
00000330: 266c 6936 4d35 8d39 21e8 b339 dcdf 9139
00000340: 9d88 e639 224e 7cb8 493b eab9 ada4 aab8
00000350: f3fe 0dba 3dff 83b8 6325 063a cf94 3239
00000360: b73c d838 ad8b 29ba f787 5b39 ee55 ba3a
00000370: 902f 1bba c3ed a4b9 40e0 aab9 72f4 89b8
00000380: 2977 ba38 012f f939 8825 463a 7fdc 583a
00000390: 456c 13ba 7fde 15ba f5fe ce39 4a20 b1b9
000003a0: 186e 8fb9 0c86 6bb9 573f d9b7 5de5 0fb9
000003b0: ae52 95b8 678b 93b7 cc49 91b8 29df c138
000003c0: 5b6c f8b7 a616 beb8 61a0 5aba 1033 7eba
000003d0: 310d 12ba 6049 51b8 fe33 fa39 7043 243a
000003e0: aa21 4eb8 0e4c 0f3a 486f 0339 1824 133a
000003f0: ea38 3c39 062c 1db8 b36a 0e39 7fff 8f37
-0.0006158361 -6.436797e-05 -0.00037881383 -9.5596326e-05 -0.000104067156 -3.2957472e-05 -7.094346e-05 -0.0003642444
0.00037781647 0.0014495978 -0.0007105188 -0.0006306636 -0.00018637597 -0.00023024678 -0.0003016749 0.00055095495
0.00037590394 0.000231285 -0.0006104967 -0.00076588796 -0.00041528055 -0.00036474757 0.00013745362 0.000100852325
-1.1194324e-05 2.0737636e-05 5.6134645e-06 -2.753319e-05 9.5245385e-05 5.6526237e-06 3.4487264e-05 -3.6418794e-06
0.0006917519 0.00034881744 0.000107239866 -0.0004906625 0.00033039064 -3.245203e-05 0.00031730134 -0.00037843696
0.0010166301 0.00022017983 0.0001998642 1.8012579e-05 4.771032e-05 5.418821e-05 0.00022115505 5.973257e-05
0.000110378816 5.723833e-05 -0.00012082407 -0.00040840617 0.00021855146 0.00023743071 1.4665761e-05 7.081735e-05
0.00015720862 -0.0001522522 -0.00010454778 9.035699e-05 0.00012034469 0.00024058607 0.00031679127 0.00015410637
-0.00016455917 -0.00014266682 -1.4274102e-07 -4.8426165e-05 -1.4632618e-05 -3.0876115e-06 -6.625698e-05 3.7464855e-05
-3.2041058e-05 -1.8997414e-05 -0.0006922292 -0.0007896749 -0.00019270496 0.00019437242 -5.910204e-05 5.268794e-05
-0.00010048595 0.00046131093 -0.00045812345 -4.5876743e-05 -0.00030345857 3.848703e-06 -0.0001374552 1.1781896e-05
5.8662597e-05 -1.5957985e-05 -7.294548e-05 -0.00019288 6.5351196e-05 0.0007381433 -0.00040396713 -0.0002990506
-4.897531e-05 -7.207938e-05 -0.00011058268 0.0003923233 0.00012755129 0.00019711435 -0.00019702676 -0.00035770817
-0.0002096491 -8.4875894e-05 3.6210484e-05 -1.8536235e-06 2.0515783e-05 2.8146649e-06 4.3788787e-05 3.982113e-05
-5.763555e-06 -2.129705e-05 2.1073496e-05 3.0129902e-05 6.0643888e-05 -4.908077e-05 -2.801073e-05 -0.00033682684
0.00035379815 0.00015403755 9.8276905e-05 -0.0002281043 0.00049523875 0.00036284755 3.355872e-05 -2.2184513e-05
0.0001888265 1.2700187e-05 -2.6131953e-05 1.3770978e-06 -0.00011804371 -0.00011266655 4.4950957e-06 6.8374524e-05
6.246197e-05 9.635859e-05 -2.1062518e-05 -5.0905204e-05 0.00012805343 -1.810898e-05 -3.9433817e-05 0.00017670431
0.00017915883 5.2388514e-05 -6.3716e-05 -9.07178e-05 6.822835e-05 6.721782e-05 9.300719e-06 -1.258454e-05
0.0001244378 7.377839e-05 -1.3949346e-05 -7.057015e-05 6.4853257e-06 -2.5179917e-05 0.000106144194 0.00019438547
-0.00034294312 -0.00033606353 0.0005876612 0.00026057402 -1.7864242e-05 -0.00047582758 0.00025485293 0.00028132604
-0.00081999024 -2.3908733e-05 -0.0006554168 4.6401212e-05 0.000271184 -1.3705451e-05 -6.0369926e-05 -0.00014431386
3.4278943e-05 0.0016435368 -0.0011391643 -0.0010320267 1.5531321e-05 -6.0122617e-05 -0.00028780513 0.0009076876
0.0004682056 0.00012833644 -0.00096811634 -0.0010051564 -0.0002354582 -1.6393173e-05 -0.0001403515 -0.00017322591
3.755818e-05 8.214496e-06 -7.228544e-05 2.6281627e-05 3.5819103e-05 0.00012792811 -7.900928e-05 -3.6966303e-05
-0.0003368641 -0.00063516916 0.00018949017 -0.00040629783 3.4782656e-06 0.00026933328 0.0003431449 0.00027823343
0.00043970803 -6.015425e-05 -0.0004467613 -8.136905e-05 -0.00054167135 -6.2941086e-05 0.00051172654 0.00017030838
0.00010310992 -0.00064676517 0.00020936118 0.0014216283 -0.0005919868 -0.00031457664 -0.00032592006 -6.5782006e-05
8.8913665e-05 0.00047528002 0.0007558693 0.00082726026 -0.00056237384 -0.00057170534 0.0003948134 -0.00033784128
-0.00027357112 -0.00022461283 -2.589791e-05 -0.00013722987 -7.120274e-05 -1.758868e-05 -6.9278845e-05 9.244524e-05
-2.961436e-05 -9.0641246e-05 -0.00083399384 -0.000969694 -0.00055714237 -4.989782e-05 0.00047722453 0.00062661525
-4.914558e-05 0.000546635 0.00012534589 0.00056129834 0.0001795028 -3.7472717e-05 0.00013581924 1.7165903e-05
