logs/rl_games/humanoid_flat_direct/two_steps_success/nn/last_humanoid_flat_direct_ep_700_rew_344.71603.pth (torch, 759502 bytes, 33 tensors)

value_mean_std.running_mean f8 [1]
00000000: 7fed 25ec bfa4 5140
70.57421401695136

value_mean_std.running_var f8 [1]
00000000: 7e81 c359 37d1 9440
1332.3040533588205

value_mean_std.count f8 []
00000000: 0000 0001 0068 b041
275251201.0

a2c_network.sigma f4 [10]
00000000: 9ec6 aabf a184 95bf cc51 9cbf c415 88bf
00000010: a0df 85be c909 c9bf b876 8ebf cea3 02c0
00000020: f079 5ebf 265c a8be
-1.3341863 -1.16811 -1.2212462 -1.0631642 -0.26147175 -1.5706111 -1.112998 -2.0412478
-0.8690481 -0.32882804

a2c_network.actor_mlp.0.weight f4 [256, 42]
00000000: e2ee 833d 56f8 a03e 984c 653e 3142 e93c
00000010: 48e4 cb3d be15 f03d 85ce e03d 41db 7cbe
00000020: b34b 8abe d138 88bd c38a 00be 2346 f03d
00000030: 2e06 92bd 07ff 93bd 95d2 993d 256e f63c
00000040: 8880 453d fa4c 0dbe 4aae 5b3d b71f 30bd
00000050: aabb a13d f116 4fbd 590c 87be ca5e 7bbe
00000060: f583 ad3e 53cd 203e 6904 f6bd 69ce 07be
00000070: 0499 fe3d 05a2 183e cc1c 9e3d 433b 0abe
00000080: a88b a0bd 71c9 f2bd 0850 8dbd 0ddb 983d
00000090: dbeb d13c b465 043e 54dc 55bd 4229 e9bd
000000a0: 1a80 9c3d 41aa 9abd 7d44 e03d 6cbc 93bd
000000b0: 00dc 4c3e 6af9 0dbe dfb0 cdbd e5c4 9a3e
000000c0: cc8a 043e 0d86 cd3d 46f7 903d 91a7 a13d
000000d0: e44d cfbd fd4d 8cbd 5442 9f3e eb35 823c
000000e0: e4d8 4ebd e5b9 22be b351 94bd 0758 8cbd
000000f0: 92b2 65bd a181 13be 49c1 a93d b02d 85bd
00000100: 8e6d b93c 1121 453b 038d 5cbe eaa8 d3be
00000110: 4c42 073e 26bc ea3c 40ab 403d 0e30 8bbe
00000120: c38a b1bc f762 03bc 63a1 99ba 0687 aabd
00000130: 8319 55bd f203 02bd ebbe 96bc 38fe 89bd
00000140: 75d9 8ebc 81f0 69bd 42f5 0dbd 5852 85bd
00000150: 2833 36bd 2e5f 0fbe 3714 963e daf3 19bd
00000160: 672a 443e 2593 1b3e 8777 76be fc44 b03b
00000170: 72b1 f0bc 5034 83bd 0e72 f5bd 8d43 17be
00000180: 6e7a 0cbd ab84 16be 49a2 b63d ecae eabd
00000190: beea 183e 645c 0abe 476d eb3b b9f4 abbc
000001a0: f6d5 ce3d 3d8e 9f3e 5f3b 403d 2fba 8fbe
000001b0: b411 a73d 547a d5bc 0d00 17bd 72ab 41be
000001c0: 9fe0 b13d b41d 8fbe 8bdb 0d3e 5413 b13c
000001d0: d514 cb3c 64e5 8fbd f123 053e 527f 523d
000001e0: ba59 243d 592a d0bd 2df0 533d e734 14bd
000001f0: 5750 adbd 911d 013e 0328 0b3d b5aa 81be
00000200: 0ab7 ec3d 2d8e 193d 37ab 1bbe 5500 1f3d
00000210: 83b8 1bbe 87c0 17bd d15a a1be 3bbf 3b3d
00000220: 3d39 d23d b700 2ebe 1e6e af3c 85fe bb3c
00000230: 12cd b13d 0d91 76bd 126b 123d 8060 66bc
00000240: 70b0 f63d a7da f33b 8567 b2bd 236e 443d
00000250: 600a 11be 7b8c 03be d7da 703e d8e2 4d3d
00000260: 2c6e c8bd 4b67 72be b4f0 89bd 2216 e43c
00000270: 7204 fa3d bae4 1d3d e739 dcbd 1ae0 ffbb
00000280: e6d4 b93d 6a69 c93d a783 aab9 137f 11be
00000290: 9e41 bebd c73e e0bd 4326 e03b 4b21 b53c
000002a0: 4d7f 003e 99d3 123e df1d 1ebb f386 05bc
000002b0: a7c0 133d 8aae 583e 35c6 5d3d 55ce 52bd
000002c0: 47b4 1a3d 96b4 aebd c7a5 a0bd ad95 173e
000002d0: 6cd2 e13c e4a1 8b3d 739b eabd a43c ca3d
000002e0: 204b cb3d 4b16 043d 466e b4bd 5baa 66be
000002f0: 6dc0 cfbd dff6 893e 3d7e 1f3e 6d2a 543e
00000300: d69a 2a3d dd97 c13b 263e 5cbc f543 11be
00000310: e51a 50be 462d afbe a8b6 903d 0840 8fbd
00000320: bbdf adbc 7f14 9fbd 8d9b 38bd ee0f 87bd
00000330: 9ad4 cabd 27c4 363d f35e 9dbc 78dd dc3d
00000340: 3a7d 0ebd 34c8 aabd 1d71 36bd 196c 47bd
00000350: 80f1 be3c 624d ebbd 4fbf 3d3e 11fe c8bd
00000360: 144b cf3c 2cfe e2bb 2c0b ee3d c948 c6bd
00000370: 0488 bb3d 3d6a a3bd 2411 d73d 7d15 3b3e
00000380: 4e97 a8bc c73a 073d 6034 f03c 2b44 bbbd
00000390: cf81 cb3d 4d19 94be c8cd a73d acc5 813e
000003a0: 7fcd 623e 6934 25bd 46ea c3bd ef49 cf3c
000003b0: 3ac5 453d 2712 0ebe 4368 0dbd b7af 8fbe
000003c0: 2151 b0bc 06a5 a0bd 279f 98bd d248 babd
000003d0: b7dd 07be dd4e 223e c926 e53d 18a3 313c
000003e0: c458 76bc d061 72bd 2dbe 06be b24a cabd
000003f0: dccf 5a3d 5e87 94bd 1a73 27bc 6b30 ce3d
0.06442048 0.31439465 0.223925 0.028473945 0.099556506 0.11722897 0.109768905 -0.24693014
-0.2701088 -0.06651462 -0.12552933 0.117321275 -0.07130085 -0.07226377 0.075108685 0.030081818
0.04821828 -0.13798895 0.053633012 -0.042998996 0.07897122 -0.050558988 -0.26376608 -0.24547878
0.33889738 0.15703325 -0.1201256 -0.13262333 0.12431529 0.14905556 0.07720336 -0.13499169
-0.07839137 -0.11854828 -0.069000304 0.074636556 0.02562516 0.12929422 -0.052212074 -0.113848224
0.07641621 -0.075520046 0.10950563 -0.07213673 0.20005798 -0.13864675 -0.10043501 0.30228344
0.12943572 0.10035334 0.07078414 0.07893289 -0.10122278 -0.068508126 0.31105292 0.01589485
-0.05049981 -0.15891226 -0.072421454 -0.068527274 -0.0560785 -0.14404918 0.08288819 -0.06502855
0.022635248 0.0030079524 -0.21538167 -0.4133981 0.13208884 0.02865417 0.047038317 -0.271851
-0.021672612 -0.0080192005 -0.0011721071 -0.08326535 -0.052026283 -0.031742044 -0.018401584 -0.067379415
-0.017437676 -0.057114128 -0.034657724 -0.065098464 -0.04448238 -0.14001152 0.29312298 -0.03758607
0.191568 0.1519285 -0.24069034 0.0053793173 -0.029381488 -0.06406462 -0.11984645 -0.14771862
-0.034296446 -0.14699046 0.08917672 -0.11459145 0.14933297 -0.13511807 0.0071846577 -0.020990716
0.100994036 0.31163207 0.04693162 -0.28071734 0.081576735 -0.026059307 -0.036865283 -0.18913057
0.08685421 -0.2795235 0.1385328 0.021615662 0.024790207 -0.07026175 0.13001992 0.051390953
0.040124632 -0.10164327 0.05174272 -0.036183264 -0.08462589 0.12608935 0.033973705 -0.25325552
0.115583494 0.037489105 -0.15202032 0.038818676 -0.15207104 -0.037048843 -0.315146 0.04583667
0.102648236 -0.1699246 0.021414813 0.022948513 0.08681692 -0.060196925 0.03574664 -0.014061093
0.120453715 0.007441837 -0.08711151 0.047956597 -0.14164114 -0.12846558 0.23520981 0.050265163
-0.097866386 -0.23672216 -0.067353636 0.027842585 0.12207879 0.03854821 -0.107532315 -0.0078086974
0.0907381 0.09834559 -0.00032523015 -0.14208631 -0.09289859 -0.10949474 0.0068404987 0.022110602
0.12548561 0.1433853 -0.0024126691 -0.00814985 0.0360724 0.21160331 0.054144103 -0.051466305
0.037769582 -0.08530538 -0.078441195 0.1480319 0.027566157 0.068179876 -0.11455431 0.098748475
0.09926438 0.032247823 -0.088100955 -0.22525923 -0.10144124 0.2694616 0.155755 0.20719309
0.04165157 0.005907996 -0.013442552 -0.1418608 -0.2032276 -0.34214228 0.07066089 -0.06994635
-0.021224847 -0.07767581 -0.04507022 -0.06594835 -0.09903832 0.04462066 -0.019210314 0.10784429
-0.034787394 -0.08338967 -0.044541467 -0.048687074 0.023308516 -0.11489369 0.1853001 -0.09814084
0.025304355 -0.0069272723 0.116232246 -0.096818514 0.09156802 -0.07979248 0.10501316 0.18269916
-0.02057996 0.03301504 0.02932185 -0.091438614 0.099368684 -0.28925553 0.081935465 0.25346124
0.22148703 -0.040333185 -0.095661685 0.025303809 0.048283793 -0.13874112 -0.03452326 -0.28063747
-0.02152306 -0.07843976 -0.07452231 -0.090959206 -0.13268171 0.15850396 0.11189038 0.010842107
-0.015035812 -0.059175313 -0.13158484 -0.09877528 0.053420886 -0.07252382 -0.010220313 0.10067829

a2c_network.actor_mlp.0.bias f4 [256]
00000000: c878 dcbb fa03 c23c 47b6 c03a 48a4 9b39
00000010: e700 d73c 180e 85bc c867 92bb 25e0 3d3c
00000020: 27ed e4bb 93aa ce3c 8956 70bb 2f63 a33a
00000030: 381a 8e3c 735d c9bc 2400 a03c ccf6 f3bc
00000040: 389e a23c eb4d e93b f53a a2bb 4bb6 bb3c
00000050: 76a2 2ebd f0e1 1cbd 24e5 1b3c 3e7e e83b
00000060: 40d3 2bbc bfef 0d3d 3e3d b33b 741e 713c
00000070: 6b05 113d e034 003c 5114 d33c 9df7 4dbc
00000080: b0ab 173d 6820 31bb 6a45 fabb 4c34 6bbc
00000090: ae5e 363c e754 333c bfab d838 fe00 a83c
000000a0: 544a 7cbb a56c 63bc 533e 683c 95cb 84bc
000000b0: 6959 7cbc 0577 253c 2fc6 323d 715a 0d3d
000000c0: c3fa d6bc 31b4 86bc 7983 ffbb 2660 163d
000000d0: 5b76 ffbc 0b16 7fbc dd55 acbb d1f1 2f3b
000000e0: 9768 963c 607e 0cbb cd1a 83bc 689b 6f3c
000000f0: 15c3 9fbc 409d c5bb b316 cabb d548 95b9
00000100: 7ac5 a4bc 081b 3b3d 6b0a b1bc c310 1cbb
00000110: 63eb c8b8 8c61 3d3c 2eac 9fbb accd ccbb
00000120: 48c8 2cbd a1dc 6c3d 1e5b 55bc 5f89 c2bc
00000130: bc0b 04bd 426e 813b 7b07 1bbd 9f23 3d3c
00000140: 8b8a ca3a 493d 7ebc 5c1c 8dbc 7b4b 47bb
00000150: f7ba d93c c6bf 243c 964c c4bc b716 81bc
00000160: 492c 113c f500 fcbc d7a8 3b3c cfca 8dbc
00000170: 35aa 503b 26e8 03bc a74f 31bc 5554 f13b
00000180: d1a9 ec3c 707a c53b e6ae 37bd 2147 7b3c
00000190: 3778 4f3d aaa5 433c 1493 353c 4b8e f53c
000001a0: f14a 093d a59d 003c 5f2f 093c 3c14 c2bc
000001b0: 5e56 cfbc 5735 f6bc 0987 233d cbce 2d3d
000001c0: 566f 8fbc 8464 e5bc 60f4 32bc bd8d 113c
000001d0: 1654 c73c 0b1c fcbc 76e7 013d 1e24 aa3c
000001e0: ab0e 42bd 135b 5dbd 7e31 f43c e4a7 463c
000001f0: 2f40 e0bc fdc8 8d3c cfba c83c 50cf 0d3c
00000200: 1c1b 54bc 28f0 fdbb 271f 00bb 34de a93b
00000210: 2e04 00bd fc2f 0d3c 3693 093c a447 d2bb
00000220: 2c27 b3bc 4d91 fbbc 5a80 a8bb 7743 23bd
00000230: 8441 513c ac53 b83c b098 77bd a0ba ffbc
00000240: e4d5 8ebb 4d55 25bc b4fc f13c 63c2 11bc
00000250: 49db 133d 8391 e7bc 971e a43c 331b e03a
00000260: 7702 d93b 6a8a 27bb ebae 063c afb9 e6bb
00000270: 740a a8bc 0614 13bd a69f 5c3d f4e5 51bc
00000280: 3900 d8b9 faab a63c 6c5b 1abd b951 713c
00000290: e594 abbc 555c c23c 5330 8bbc 246c aebc
000002a0: 79a8 213c e675 613d 7bfe e0bc 8d0b 06bd
000002b0: de3a af3b c23e 5a3c 17ee 8c3a f5ac 17bc
000002c0: 9755 af3c 98f1 77bc be39 373c 93ec fb3a
000002d0: 5c0d 5b3c aa33 5ebb 9576 583b 3212 83bb
000002e0: 0320 043c 6438 02bd 2cd6 9e3c fd81 b0bc
000002f0: 04b4 f03b 7e2c 723d 09e9 c5bc 07f9 e23c
00000300: c677 4839 8efd 01bd 2bfa 763c 97aa 13bd
00000310: c424 13bd 17b7 2abc ea26 063d 5e27 d2b9
00000320: 6ad1 033d e1bf 9ebc 0d41 a13c 707e 37bd
00000330: 320b febb 4f8a 87bc 692b 6ebb f2a6 a4bc
00000340: 51b9 073d 62c7 133b 31b2 763b 5ae7 883c
00000350: afe7 863c 38c1 0c3d b57c 9a3c c139 3a3c
00000360: 294f edbc 8baf 9339 df37 263b 5946 42bc
00000370: 1e47 1e3d 4c3c 703b 6f0c 2abd ce56 013d
00000380: a34a 043d 58d9 bfbc 72dc adbc 793b 863c
00000390: c11c 293d f5b6 883c d02d a13c e9d0 fbbb
000003a0: fc7a a1bc a5a6 35bd 26cd bb3b 9a49 393d
000003b0: 700f 41bb 0fda 143c 8bd5 c9bc 2785 ab3c
000003c0: eb7c b639 55b7 913c 1025 583c 47a1 4c3c
000003d0: dd49 543d 0b32 a03c 5bb2 8a3c c9f5 12bd
000003e0: 5f5b 093d 4883 02bc 883f dfbb c2fe 143d
000003f0: 2ec4 e5bb 5e79 07bc 8615 523b 39b9 2f3d
-0.0067282654 0.023683537 0.001470276 0.00029686303 0.026245547 -0.016242072 -0.004467938 0.011589085
-0.0069862786 0.02522782 -0.0036672673 0.0012465472 0.017346486 -0.024580693 0.019531317 -0.029780768
0.019850835 0.0071198842 -0.004950876 0.022914072 -0.042635404 -0.03830141 0.009515081 0.0070951274
-0.010487378 0.034652468 0.005469947 0.014716733 0.035405558 0.007825106 0.025766524 -0.012571243
0.03702897 -0.0027027372 -0.0076376693 -0.01435573 0.011130972 0.010945535 0.00010331673 0.020508286
-0.0038496451 -0.013880883 0.0141750155 -0.016210357 -0.015402176 0.010099177 0.043646034 0.03451008
-0.02624262 -0.016443344 -0.007797655 0.036712788 -0.031184366 -0.01556922 -0.005259259 0.0026847015
0.01836042 -0.002143763 -0.01600399 0.014624454 -0.019502202 -0.0060307086 -0.0061672567 -0.0002847376
-0.020113695 0.045680076 -0.021611413 -0.0023813702 -9.580587e-05 0.0115589015 -0.0048728203 -0.006250104
-0.04218319 0.057827596 -0.013022212 -0.023747144 -0.032237753 0.0039499113 -0.03784893 0.011544137
0.0015452666 -0.015517541 -0.017225437 -0.003040998 0.02657841 0.010055488 -0.0239623 -0.015757902
0.008860656 -0.030762175 0.011453829 -0.01730862 0.0031839733 -0.008050954 -0.010822213 0.0073647895
0.028889569 0.0060265586 -0.04484453 0.015336783 0.050651755 0.011941353 0.011082429 0.029975077
0.033518735 0.007850085 0.008373111 -0.02369129 -0.025309738 -0.030054731 0.0399237 0.04243354
-0.017509144 -0.028002031 -0.010922521 0.008883891 0.024332087 -0.03077509 0.03171488 0.020769175
-0.04737727 -0.054041933 0.029808756 0.012124989 -0.027374355 0.017307753 0.02450314 0.008655384
-0.0129459165 -0.007749576 -0.0019549818 0.0051839594 -0.031253986 0.008617397 0.008396914 -0.0064172316
-0.021869265 -0.030708933 -0.005142254 -0.03985926 0.012771968 0.022500835 -0.06044835 -0.03121692
-0.004358994 -0.010091138 0.029539444 -0.008896443 0.0360978 -0.028267628 0.020034118 0.001709795
0.0066226083 -0.002556468 0.008220415 -0.007041178 -0.020512797 -0.035907768 0.05386319 -0.012811173
-0.00041198896 0.020345677 -0.037684843 0.014728957 -0.020945022 0.023725668 -0.016990816 -0.0212918
0.009866827 0.055044077 -0.027465096 -0.03272586 0.0053475937 0.013320627 0.0010752109 -0.009257545
0.021403117 -0.015133284 0.0111832 0.0019220285 0.013369884 -0.0033905306 0.0033029665 -0.003999972
0.008064273 -0.03179206 0.019389234 -0.021546358 0.0073456783 0.059124462 -0.024158971 0.027706636
0.00019118105 -0.03173595 0.015074293 -0.03605136 -0.035923734 -0.010419629 0.032751955 -0.00040083652
0.032182135 -0.019378604 0.019684339 -0.044798315 -0.0077527994 -0.016545443 -0.0036341792 -0.020099137
0.033135716 0.0022549261 0.0037642831 0.01671188 0.016467897 0.034363955 0.018858293 0.011366309
-0.02896841 0.00028168815 0.0025362892 -0.0118575925 0.03864204 0.0036657033 -0.041515764 0.031576924
0.03229774 -0.023419067 -0.02122328 0.01638578 0.041287187 0.016688803 0.019675165 -0.007684816
-0.019711964 -0.044348378 0.0057312427 0.045236208 -0.0029458664 0.009085192 -0.024637958 0.020937515
0.00034806816 0.017787615 0.01319243 0.012489623 0.051828254 0.019555112 0.01693075 -0.03587893
0.033534404 -0.00796587 -0.0068129934 0.03637577 -0.007011912 -0.008268682 0.0032056286 0.04290125

a2c_network.actor_mlp.2.weight f4 [128, 256]
00000000: 9abd 1a3e 558b fd3c f09a 553d 4507 3a3d
00000010: 1d96 ff3c ef75 e03b 173b 8cbd 9686 ffb7
00000020: 4726 363e 1661 1fbb a19e 8bbd 7455 b33d
00000030: b891 e33d cb1a 213d 964e abbd ba81 bcbd
00000040: bf4a d1bb 00a6 843d 8c7a a73d 5d63 f6bd
00000050: 18a7 963d 04d8 8b3d 2ea6 ddbd ad94 3ebe
00000060: 378f 03bd 9122 0abc e195 21be 33bf 8d3d
00000070: a7c0 2a3d e297 f0bd fa23 603d 5de3 8ebd
00000080: a65a b0bd 0b8b a93c 0fcb cfbd 6297 5ebd
00000090: 303b 86bd 5c1a dabd 1f00 13bd 69f9 febb
000000a0: 1164 07be 48ba 163e 9ad9 0fbd cdf5 4e3d
000000b0: 6d2b 50bd 3ed3 ddbd bc99 a3bd a79a bbbc
000000c0: 8ead da3d 453a a6bd a87f 493d 3952 89bc
000000d0: 580d 61bd b205 de3d ebaf a83d ed22 72bc
000000e0: 7b3c 88bd 3d7a 603d 38c4 913b 91ff be3c
000000f0: 5508 883d a405 673d ad18 fb3c 2d1b debc
00000100: 1265 253d d606 14bd 0f0f f13d 1130 0b3e
00000110: dcaf 51bd 6f38 ee3c ff43 7abd 5460 003c
00000120: 7816 873d aedf 033e cb65 55bd 7003 01bb
00000130: f44f ca3c ba0a 95bd 0785 c33b 0505 1e3c
00000140: 5b66 93bd bbf3 c03d a2c5 a7bd 3e30 99bc
00000150: c7ee b83d 4901 41be 0b1f 06bd 9ac5 9e3d
00000160: adc0 89bd 795d 34bd 2324 5a3d 9b4f a03d
00000170: 5619 8bbc 3dce a83c cd5b 443d d2ca 05be
00000180: 9b84 fc3c 1c47 09bd c005 3d3d 5c9b 243d
00000190: fc57 e93c 1c79 c5bd 4902 73bd 5ab9 60bc
000001a0: 4c65 64bc 2a5a fcbc 37d5 5fbd 634b 12be
000001b0: e50d 473d e423 643d 8fce f33d 4079 84bc
000001c0: 1eb3 823d 0ca5 7e3d b8a4 1b3d 7fc7 8ebd
000001d0: 6d6a 19be 1b76 1f3e 72a4 633d bb43 cabd
000001e0: 4c71 433c 3fcc 683d 36cd e23d 0ed1 54bd
000001f0: ae15 793d 412c 3cbd 3ec8 9abc 056d ac3b
00000200: 7851 fdbc b09d b8bd 67ec 7f3c 019b 603c
00000210: c80d 183c deb1 86bc 563f 03bc 140e 013e
00000220: f8f0 e33d 21f2 913d 4042 87bd eca7 15bc
00000230: 8293 80b9 e8fb 1b3d 3328 c33d 0828 b0bd
00000240: 3e3d 0a3d 1472 a1bd 0819 8bbc c6dc 92bd
00000250: d8b2 02be 88b4 ff3b b0a1 273d 3f92 ecbc
00000260: e339 9b3d ec03 f83c d7b4 6abd 8369 8c3d
00000270: 88ba 943d 32ea 533d 5cf4 33bd 88f3 26bd
00000280: 50fb a33d 637b 3b3d ce40 333d 7dee bdbd
00000290: a1d4 acbd dc27 afbd 2315 333e e75f b13d
000002a0: 98d8 533b 9cb1 74bc 2ceb 3b3d 20ba 6c3d
000002b0: 168f e43c 8bef 86bc 89cd 09be cd86 6f3d
000002c0: 59b0 b2bc 758d 1a3d 70ef a73d 2ef2 1a3d
000002d0: 5bb2 eebd 51dd efbd 8366 3bbd ecae 24be
000002e0: d960 33bd 9e9d 943d 1308 9bbd 44b0 ae3d
000002f0: eda1 84bd 0f13 74bc b3c8 5ebd 5237 81bd
00000300: 7d50 d6bd 4e4d 5f3d 67e6 34bd f06e 12bd
00000310: e721 ff3c 3b23 0b3b 89a0 5abd ba0c 90bd
00000320: 2292 07bc ad94 6fbd 1088 a1bd c6d3 6a3d
00000330: 30d2 bcbc 614f 933d ce70 8b3c e81a a6bd
00000340: c301 c73c b9c7 eebd 5038 33bd d018 ce3d
00000350: 5199 3fbe f900 06be 9c06 303d a5ac 2a3c
00000360: 91f4 f1bb 40f2 3d3c 706a 21bd 0079 ab3d
00000370: f4cb 053c bf12 383d cd22 543d e5ee 3cbc
00000380: 4c69 33bd ccd8 063e 05ea 093d 5538 4fbd
00000390: 4cda 98bc 1068 9aba 486f 84bd 2c2b 003e
000003a0: 4e89 a93d e7af b13d 055b bd3d 9a98 723c
000003b0: ba30 2d3a fc7a 5a3d ff9f cd3b 6328 13bd
000003c0: 8fe4 cabb 31bb 5fbd 4578 c63d 5c49 bc3c
000003d0: c9d1 e3bb c68f 943c 7d3d bbbc 4a14 393e
000003e0: 8908 abbb 6cc6 b13c a5fd 0fbe 879e 0d3e
000003f0: 1e5a 55bd f98f a03d 0244 eabd 5602 08be
0.1511139 0.030950228 0.052149713 0.04541709 0.03119951 0.0068499963 -0.06847208 -3.046104e-05
0.17788039 -0.0024319342 -0.068173654 0.08756533 0.11111778 0.039332192 -0.083645985 -0.09204431
-0.0063870843 0.064769745 0.08177671 -0.12030671 0.07356089 0.06828311 -0.10822712 -0.18611403
-0.032119002 -0.008431093 -0.1577983 0.06921234 0.041687634 -0.11747719 0.05472181 -0.0697696
-0.0861104 0.020696184 -0.10146152 -0.05434359 -0.06554258 -0.10649559 -0.035888787 -0.007781197
-0.13221766 0.14719498 -0.03511963 0.050527383 -0.050822664 -0.10831307 -0.07988307 -0.022900892
0.10677634 -0.08116583 0.049194008 -0.01676284 -0.054944366 0.1084093 0.08236679 -0.014778835
-0.06652161 0.054804076 0.00444844 0.023315223 0.06642214 0.056401864 0.030651415 -0.027112568
0.04037959 -0.03613933 0.1177045 0.13592555 -0.051193103 0.029079644 -0.061100002 0.007835466
0.065960824 0.12878296 -0.05209903 -0.0019685887 0.024696328 -0.072774366 0.005966786 0.009644751
-0.07197257 0.09421488 -0.08191992 -0.018699761 0.09029918 -0.18848146 -0.03274445 0.07752533
-0.06726203 -0.044034455 0.05325712 0.078276835 -0.016979855 0.020606155 0.04793911 -0.13065651
0.03082495 -0.03351508 0.04614806 0.040187225 0.028484337 -0.096422404 -0.05932835 -0.013716066
-0.013940167 -0.030804712 -0.054646697 -0.1428657 0.048597235 0.05569829 0.11904632 -0.016171098
0.0638182 0.06216912 0.037998885 -0.069716446 -0.14982004 0.15572397 0.05557675 -0.098762
0.011928868 0.05683541 0.11074297 -0.051957183 0.06081169 -0.04594064 -0.018894311 0.0052620196
-0.030922636 -0.090144515 0.015620328 0.013708831 0.009280629 -0.016442236 -0.008010706 0.12603027
0.111299455 0.071262605 -0.06604433 -0.009134274 -0.00024523964 0.038082033 0.09529152 -0.08601385
0.03374981 -0.07883087 -0.01697971 -0.071710154 -0.12763536 0.0078035034 0.04092568 -0.02887833
0.075794004 0.030275308 -0.05730137 0.06856062 0.072621405 0.051737018 -0.04393421 -0.040759593
0.080069184 0.045771968 0.043762974 -0.09274004 -0.08438993 -0.085525244 0.17488532 0.0866087
0.0032325145 -0.0149349235 0.045878574 0.05779469 0.02790026 -0.016471645 -0.13457312 0.058478165
-0.021812605 0.03773256 0.08199966 0.037828617 -0.11655112 -0.11712135 -0.04575206 -0.16082352
-0.043793533 0.072566256 -0.075698994 0.08529714 -0.064761974 -0.014897122 -0.05439062 -0.0630938
-0.10464571 0.054517083 -0.04416504 -0.03575033 0.031144096 0.0021230716 -0.053375755 -0.070336774
-0.008274587 -0.058491398 -0.0788728 0.05733087 -0.023049444 0.07192875 0.017021563 -0.08110601
0.024292832 -0.11659188 -0.043754876 0.10063326 -0.1871083 -0.13086309 0.042975053 0.010417138
-0.007383891 0.011593401 -0.039408147 0.08372688 0.008166302 0.044939753 0.051791 -0.011531566
-0.04380159 0.13168639 0.033670444 -0.05059083 -0.01865878 -0.0011780281 -0.06466538 0.12516469
0.08278142 0.08676129 0.09245876 0.014806891 0.0006606687 0.053339943 0.0062751765 -0.035927188
-0.006191797 -0.05462188 0.09690908 0.0229842 -0.0069524986 0.018134963 -0.022856468 0.18074146
-0.0052195233 0.02170106 -0.14061601 0.13830005 -0.052087896 0.078399606 -0.11438753 -0.13282141

a2c_network.actor_mlp.2.bias f4 [128]
00000000: 8a9e 16bc e987 dcbb 3ca6 3ebd 79d9 69bd
00000010: 3958 013d 5982 33bc a32a 1fbc 746f 973b
00000020: 0548 cabd 394b bfbc 70a2 37bd 39e5 ac3b
00000030: f6c7 1bbd f720 123d 09e9 9bbb 2951 14bb
00000040: 7bd8 b83c efde 33bd 565d 65bc 10fa 91bc
00000050: 1a02 db3c bcd0 e0bd 9abc 843c e751 50bc
00000060: 223b a8bb d274 1a3d 3c75 923c b675 8b3b
00000070: 96f2 263c d095 22bc b30f 313c b57a d1bb
00000080: a6f6 293c 41fa fbbb 875a 1abd 623b 8fbc
00000090: 1fe8 2bbc a980 d9bc f117 183d 0f06 72bc
000000a0: 223f 3c3b c4e0 b5bc e035 b63b 567c 8fbc
000000b0: 86d5 b53c 9a00 ecbc 2229 bd3c 1df6 d8ba
000000c0: 55f3 97bc c113 903a a998 93bc 7956 da3a
000000d0: 2cac fb3a f465 36bb 42c2 f6bc d6ef ccbc
000000e0: 0100 05bd a436 3ebd 39eb 333d 27f4 393c
000000f0: 7fad b7bc 9e80 aabc 95ba 05bd 98af 14bd
00000100: 01f5 c83b 70fb 16bd ff03 d73b f69f 83bc
00000110: db19 0f3c 02b3 2cbb cebe 44bd 5b9f f5ba
00000120: 45bb 0cbd fd8e 3dbd aa05 aa3b a379 9ebc
00000130: aa0a 90bd 7e74 18bd 0508 7abc 5c87 64bc
00000140: 25c3 1ebd ad02 003c 63c9 acbc 1014 133d
00000150: 4318 31bc bf1f b93c a65d 663a c031 af3b
00000160: 752f c73c 3ca2 e83b b6ce 48bd e6de 1d3c
00000170: 4c12 3ebd 6ea3 78bc 74f2 2abd aa56 153c
00000180: 9fff 83bc c383 78bc 624c 13bd 2aa8 0dbd
00000190: a772 a1bc b038 10bd 1113 25bc fb6a 73bd
000001a0: 214c 1b3c 82a0 23bc 4383 b03b f1f1 9d3c
000001b0: 66da c03c eac6 7a3b 4d24 30bd 5485 963b
000001c0: 2888 16bd 4aab a2bb b3d4 1c3c cf68 2ebd
000001d0: 5462 ecbb 2a98 70bc e19e 82bc ca8f 01bd
000001e0: 8c64 18bc e26e 0abc bf37 bbbd 63ef 8fbb
000001f0: 7cf9 aebc acdc 103c 979d 32bd 8270 a5bc
-0.009193072 -0.006730069 -0.046545252 -0.057092164 0.031578276 -0.01095637 -0.009714755 0.0046214405
-0.09877018 -0.023351299 -0.044832647 0.005276349 -0.038032494 0.03567597 -0.0047580046 -0.0022631383
0.022564163 -0.043913778 -0.013999304 -0.017819434 0.0267344 -0.10977313 0.016203213 -0.01271484
-0.0051340023 0.037709065 0.017878167 0.0042559756 0.010189673 -0.009923413 0.010806966 -0.0063928016
0.010373747 -0.0076897447 -0.03768399 -0.01748437 -0.010492354 -0.026550608 0.037132207 -0.014771952
0.0028724154 -0.022201903 0.0055606216 -0.017515343 0.022196542 -0.02880888 0.023090903 -0.001655284
-0.018548647 0.0010992215 -0.01801713 0.0016657851 0.0019201091 -0.0027831765 -0.030121926 -0.025016706
-0.032470707 -0.046438828 0.043925498 0.011349714 -0.022421597 -0.020813283 -0.03264864 -0.03630027
0.0061327224 -0.036860883 0.0065617557 -0.016067486 0.008734192 -0.0026351814 -0.048033528 -0.0018739508
-0.03435828 -0.046278942 0.0051886635 -0.01934511 -0.07033284 -0.03722047 -0.015260701 -0.013948288
-0.038760323 0.007813138 -0.021092122 0.035907805 -0.010809007 0.022598146 0.00087877584 0.005346507
0.024314621 0.007099418 -0.04902526 0.009635663 -0.046404168 -0.015175683 -0.041735128 0.009114901
-0.0161131 -0.015168133 -0.035961516 -0.034584202 -0.01970799 -0.03521031 -0.010075347 -0.059428196
0.0094786 -0.0099869985 0.0053867414 0.019280406 0.02354164 0.0038265535 -0.04300337 0.0045935307
-0.036750942 -0.004964267 0.009572196 -0.042580422 -0.00721387 -0.014684716 -0.0159449 -0.03163127
-0.009301316 -0.008449288 -0.09141492 -0.004392551 -0.021359198 0.008841675 -0.04360732 -0.02019525

a2c_network.actor_mlp.4.weight f4 [128, 128]
00000000: 4d6c e13c 7966 bdbd d4e4 65bd 742b 2ebe
00000010: aa09 dabd 09ac 50be 12a2 4cbd 54aa cabd
00000020: 4759 6c3c b690 3fbe 34f0 063e 8fca 373b
00000030: 3c0e 8dbc c5f7 0ebe 5af9 97bd 60b3 d93c
00000040: a76f b5bc f009 5d3d cf7f 3c3e 872e 42bd
00000050: e17f 99bd 881b 9e3d 94f0 933d d189 db3d
00000060: a2d9 703c 36fe 603b b406 cdbb 005c 8c3e
00000070: 488e 91bc 456b 84bd 3eec 1b3d 2bff f2bd
00000080: 98db 463d 14f6 a5bd d7f1 593e 98fa 523d
00000090: 3c37 7fbd 2566 0f3d 0e72 ecbd 13b7 a63d
000000a0: 4d35 95bd 642e a53d bad4 23bd e472 993d
000000b0: 6ef0 42bc 00c9 05bd 9c6d 383c aeb3 cebd
000000c0: 1ef6 813d 4754 1ebe c3cb 263d 65aa 693e
000000d0: 0bf8 853d 5362 5fbc a7fe c13c b70b 18bc
000000e0: 150c 57bc f3dd dbbd 187f 6abd bd9a 94bd
000000f0: fe5f efbd 1191 f13c 9e6e 1bbe 20e2 00bc
00000100: 44f5 b039 53df 8e3d 9d29 b4bd 4ed9 8fbd
00000110: c775 20bd 7fe5 dcbd 0807 e93d bb96 afbd
00000120: 6361 e73c 6af9 303d b3c9 03be 859a 8fbd
00000130: 2146 1a3d 2742 debd 8d38 cf3d 1250 013d
00000140: a629 24bc e982 28bd 469e 983d ee44 a73b
00000150: fe87 5e3d 076f 8a3c 2f63 aebd 6734 0ebd
00000160: 1dd4 86bd f40b d5bd a646 00bd eb22 0abe
00000170: 72ac 7a3d 9d27 84be 1ed4 61bc 21c3 7a3d
00000180: a9f3 11bd fa21 e63d 717b 76bb 7f0a 9fbd
00000190: b8aa 8abd f04f 29be f92d 0b3d 85f7 903d
000001a0: 396d 81bd c3b9 cdbb b491 e1bc 637d aebd
000001b0: 2614 45bc 900f 76bd cf93 36be 2f6b 4cbe
000001c0: 8349 09be 7832 98bc fb82 e0bd 4571 a2bc
000001d0: e9d6 e5bd c907 f63d a679 b13d 14c7 a33c
000001e0: fc5a a63d 8eb6 9f3d b66e 8dbd aa57 a63d
000001f0: 818f 86bd 1aec 0fbd c05f c8bd be7d 9c3c
00000200: dad3 03bd aa7b 8c3c 770e 28bd 6642 b63d
00000210: e393 1ebd 9d23 24bd 76c1 b43c b4ee e1bd
00000220: cbcc 343d e488 acbd cfda 733d 0afe 78be
00000230: f1a5 133e 0279 9dbd 766e b6bd 1633 25bd
00000240: d5f6 07bb 794f 5b3d a7e3 c93b 97d9 163d
00000250: d073 40bd c49f e43c 831a b9bd fc85 ae3c
00000260: b1f7 073d b3c7 d8bd 1bce c2bd aada 58bc
00000270: da3b a3bd ff62 d9bd c33c cf3d 8a24 68bd
00000280: c64e c53c d765 82bc db4e 0b3d b16b 04bd
00000290: 2f10 dcbb 5850 2fbc 420a a7bd 3e6f a4bc
000002a0: 6931 a93c 7289 933d 50ce 93bc 8edb acbd
000002b0: db6c f9bc 72d0 733d 0cae b13c 7d7f 63bd
000002c0: 915b d33d 46c4 bfbd e204 72bd 9a25 f2bc
000002d0: 10cc 0c3d 1975 2e3d e9ab 1e3e ec9a d8bd
000002e0: 67a5 583b 1b98 0e3d 4c53 293e 321b b7bc
000002f0: 7617 9e3d 986b 9e3b ad6c 843d 654a 143d
00000300: afd2 c1bd 115b 853d 2413 8d3d 4f39 e33d
00000310: 58ca eebc 3988 83bd ea96 d0bb 7c3b 8abc
00000320: 6d34 343e 6827 37bd f888 41bb d3db eb3d
00000330: 47c9 3f3d 5299 753d 02b4 f5bc bd30 6b3e
00000340: 2c7c 79bd 2288 93bd ab7c 25bc 74ef a8bd
00000350: 56d4 e23a 90a6 fa3c 4cf2 08bd 77e6 02be
00000360: f844 303d bd5d 99bc 268f 213e 4082 e93c
00000370: 0456 bbbc 866c 3e3d a7b7 20bd 6ebb bfbc
00000380: 6fb5 1f3d 5b9f b8bd 6e75 103c 300a 3c3e
00000390: 6aa8 c2bd af18 e2bc 82df a13d 3a48 f6bd
000003a0: ea69 a1bd b17b 9d3d 3433 983d 0bfd fabc
000003b0: bf1f afbd e9a9 aebd 67a6 cc3d db23 a7bd
000003c0: f19f b83d 9073 1e3d a619 223d d2d7 dc3c
000003d0: d9ab 2e3e 77e0 153e d895 efbc b7d9 80bd
000003e0: 10a9 c4bc e15b bb3d c95a 05be c787 693d
000003f0: 0c33 cabd ca9f a5bd ffba 873d bf2c 18bd
0.027517462 -0.09248061 -0.05612643 -0.17008764 -0.106463745 -0.20378126 -0.04995925 -0.09895769
0.014425582 -0.18707547 0.13177568 0.0028044318 -0.017218702 -0.13961704 -0.07420607 0.02657479
-0.022147967 0.053964555 0.1840813 -0.047407653 -0.07495094 0.07720095 0.07223621 0.10719646
0.014700325 0.003433121 -0.0062569026 0.2741394 -0.01776804 -0.064657725 0.038067095 -0.11865076
0.048549265 -0.08103576 0.21283661 0.051508516 -0.062308535 0.035009522 -0.11545192 0.081403874
-0.07285557 0.08065489 -0.039997794 0.07492617 -0.011898143 -0.03266239 0.011256602 -0.10092865
0.06345771 -0.15461837 0.040721666 0.22818907 0.06541451 -0.013634282 0.023680998 -0.009280137
-0.013125439 -0.10735693 -0.057250112 -0.072560765 -0.11688231 0.029488118 -0.15178916 -0.007866412
0.00033752073 0.069761895 -0.087969996 -0.070238695 -0.03917482 -0.107859604 0.11378294 -0.085736714
0.02824468 0.04320661 -0.12869911 -0.07011894 0.037664536 -0.10852461 0.10118208 0.0315705
-0.010019695 -0.04114047 0.07452063 0.0051046526 0.05432891 0.016898645 -0.085150115 -0.034717944
-0.06583426 -0.104026705 -0.031317376 -0.13489883 0.061199613 -0.25811473 -0.013783483 0.061221246
-0.035632763 0.11236949 -0.0037610198 -0.07765674 -0.06770843 -0.165344 0.03397939 0.070784606
-0.06319661 -0.006278248 -0.027535297 -0.08520009 -0.01202873 -0.060073435 -0.17829822 -0.19962762
-0.13406949 -0.018578753 -0.109624825 -0.019829402 -0.112226315 0.12013204 0.08665781 0.019992389
0.08122823 0.077984914 -0.06905882 0.08122189 -0.0657034 -0.035137273 -0.09783888 0.019102927
-0.03218446 0.017148811 -0.04102942 0.08899383 -0.038715255 -0.040073026 0.022064906 -0.11031857
0.04414062 -0.08424547 0.059534844 -0.24315658 0.1441877 -0.07689096 -0.089077875 -0.040331922
-0.0020746489 0.053542588 0.0061611715 0.036828604 -0.046985447 0.027908213 -0.0903826 0.021304123
0.0331952 -0.105849646 -0.09511968 -0.013235727 -0.079704 -0.10614585 0.10119011 -0.05667547
0.024085414 -0.015917702 0.03401075 -0.032329265 -0.0067157964 -0.010700308 -0.081562534 -0.020072576
0.020653443 0.0720395 -0.018042713 -0.08440314 -0.030447414 0.05952496 0.021689437 -0.055541504
0.10320199 -0.09363608 -0.059086688 -0.029558945 0.034374297 0.04259214 0.15495266 -0.10576424
0.0033057572 0.034813028 0.16535681 -0.022351835 0.077193186 0.0048346035 0.06466041 0.03620376
-0.09464013 0.0651151 0.068884164 0.11094915 -0.02914922 -0.06422467 -0.0063656466 -0.016874067
0.17598124 -0.044715315 -0.0029531103 0.115165375 0.046822812 0.05996067 -0.029993061 0.22967811
-0.060909435 -0.072037 -0.010100524 -0.08248797 0.0017305713 0.030597001 -0.033434197 -0.12783228
0.043034524 -0.018721456 0.15777263 0.02850449 -0.022868164 0.046490215 -0.039237645 -0.023404803
0.038991388 -0.0901477 0.00881706 0.18363261 -0.09504779 -0.02759966 0.07903959 -0.12025495
-0.0788153 0.07689608 0.07431641 -0.030638238 -0.08550977 -0.085285015 0.09992676 -0.08161136
0.090148814 0.038684428 0.03957524 0.02695838 0.17057742 0.14636408 -0.029246256 -0.06291526
-0.024006397 0.09148384 -0.13022913 0.057014253 -0.09873018 -0.08087118 0.066274635 -0.03715205

a2c_network.actor_mlp.4.bias f4 [128]
00000000: 2af6 47bd ce82 97bd cee6 083d 2afe 2b3c
00000010: e910 bfbd 4726 d6bd 79b9 15bc a9a6 edbb
00000020: 2949 93ba 67a9 15bd 86c7 ecbd 7a13 d6ba
00000030: d981 56bc 7e98 773c 9027 c9bd 5767 91bd
00000040: 3f4f 253d 0c85 56bc c87e f6bc feba dd3a
00000050: e1c5 58bd 63c3 b4bd d8d6 883c 2642 b9bd
00000060: f5ff 28bd c18c c83a 4829 b9ba 303b 59bd
00000070: 3eef a03a bf64 e1bd 70f2 2e3d 1d65 963c
00000080: 10fc 28bd 3059 013c cb61 96bc b96d 5cbd
00000090: 8d1d 45bd eb2c 073c f39a 1abd c2bd 19bd
000000a0: 0cc8 35bd 1ed0 03bd d06a 763c 3ac9 7f3d
000000b0: 8fc4 c2bd 251b 92bd 4b42 6ebd cdd3 64bd
000000c0: 7f17 83bb b4ab a6bc 4c07 a9bd 06e6 d6bc
000000d0: 0f55 703c ea2f 253d faf6 acbc ef0c ac3d
000000e0: d88b 3f3c 4daf 6bbc 9fc8 303d dc56 783d
000000f0: 447d e63a 1496 123d 481c bcbd 65fe 873b
00000100: 8f62 523c c7b2 993d afdb ddbc bde1 66bc
00000110: c683 6fbd fd0b d5bc 5d23 a7bd a0ce 973d
00000120: 4c73 1fbd d82f e73b ec7b e03b 109d 17bd
00000130: c61c c1bc 548e 8cbb 6821 40bd efb9 ffbb
00000140: b7ee 0bbd 890d 9ebc 8147 0ebd 3342 42bd
00000150: 8fb5 d7bb bcd0 11bb a380 d6bd d3e4 10be
00000160: 7a3b 99bc 1aab 38bc 6c37 00bd 4949 68bc
00000170: f7d4 053c a32c 24bd 6ae7 bbbc 93ce 79bc
00000180: 07df 77bc 00e2 9cbd e8bd dbbd 6503 9cbd
00000190: 937f 5cbd e779 58bd d00f b0bd 83ac 48b9
000001a0: 5920 b4bd ac88 b5bc 82f7 66bc b836 09bd
000001b0: 120c 33bd 5962 5bbd 6936 e6ba d6bc 28bd
000001c0: 0f47 ae3d e797 b8bd 2b25 06bd 51d4 0dbd
000001d0: 1318 5cbd 0708 f4bc 5cc9 7ebd 7a9e 223d
000001e0: 66cc a13b 2d04 653d 6343 f43c 02b5 8ebd
000001f0: 0fa9 a43b 7ec2 b3bc 3199 0e3c 6e82 8dbd
-0.048818745 -0.07397996 0.033423238 0.010497609 -0.09329397 -0.104565196 -0.009138458 -0.0072525335
-0.0011237013 -0.036538508 -0.115614936 -0.0016332709 -0.0130924815 0.015112041 -0.09821999 -0.07099789
0.040358778 -0.013093244 -0.03008975 0.001691669 -0.052923087 -0.088263296 0.016704008 -0.0904582
-0.041259725 0.0015300737 -0.0014126683 -0.05303496 0.0012278331 -0.11005544 0.042711675 0.018358761
-0.04125601 0.007894799 -0.018357178 -0.053815577 -0.048123885 0.008250455 -0.037745427 -0.037534483
-0.044380233 -0.032180898 0.0150401145 0.062447764 -0.09510147 -0.07134084 -0.05816869 -0.05586605
-0.0040006037 -0.020345546 -0.08253345 -0.02623273 0.014668717 0.040328898 -0.021113861 0.084009044
0.011691056 -0.014385057 0.043160077 0.06062971 0.001758494 0.035787657 -0.09185082 0.0041501992
0.012840881 0.07504802 -0.027082292 -0.014091906 -0.05847528 -0.026006693 -0.08161042 0.074124575
-0.038928315 0.007055264 0.00685071 -0.03701502 -0.02357329 -0.004289428 -0.04690686 -0.0078041474
-0.034163203 -0.019293563 -0.03473616 -0.047426414 -0.006582923 -0.002224966 -0.10473754 -0.1414979
-0.018705118 -0.011271263 -0.031302854 -0.014177629 0.008168451 -0.04008163 -0.022937495 -0.015247005
-0.015128857 -0.076602936 -0.10729581 -0.07617835 -0.0538326 -0.05285063 -0.08596766 -0.00019137752
-0.08795232 -0.022159897 -0.014097096 -0.03349945 -0.043712683 -0.05356059 -0.0017563823 -0.041195713
0.08509647 -0.09013348 -0.03275029 -0.03462631 -0.053733896 -0.029788984 -0.06220375 0.039701916
0.0049376963 0.055912185 0.029817289 -0.06968118 0.005025036 -0.021943327 0.008703516 -0.06909643

a2c_network.value.weight f4 [1, 128]
00000000: 2886 743c c193 1ebe be44 2dbd c4a2 c5bd
00000010: 9cc8 5c3c e2b0 b33a cf25 16be 6af4 a1bd
00000020: c30f a9bd 2469 d83d 658e a83c b488 243d
00000030: 59df 963c 7007 4dbd 978a e7bc 5797 213d
00000040: c8c4 4c3e da9f 65bd 3e90 0cbc 6f49 643d
00000050: c845 b1bd 7c32 9bbd 6421 ce3c 3291 e9bc
00000060: 5183 103d 7849 bfbc 9347 57bd 187c 8bbd
00000070: 38f0 dabd 42cd 4e3d 000f c2bd 3289 1b3c
00000080: 1750 423d 9d45 903d c90a b8bd a38e dabc
00000090: c78e 6b3d 1f89 4f3d 0d72 4a3d 0389 983c
000000a0: 6c23 833a 1919 0bbd 2628 b53d 364b 213d
000000b0: c830 4c3d 1b0d f9bc 09c0 abbd 9840 ddbc
000000c0: 39f2 46bd f83e f73d f359 9e3c 26db 753b
000000d0: fc0b d83c 2900 f53c a670 a73d 5d3a 903e
000000e0: 202b db3d 1c38 afbc 9c07 32b9 8c28 b53b
000000f0: ef04 99bd 6af5 52bc b60c 773c 92e0 f9bc
00000100: e0bb 0e3d d53c ecbc 69c1 16bc 766c 483d
00000110: 7009 ba3c 0c61 88bd ae66 08be 1946 113e
00000120: 4b53 49bd d66e e8bc 300d 0cbb 6a11 d13c
00000130: af1a 0fbe 54fe 9d3d 3a33 9b3d 58ca d4bd
00000140: 17f5 dfbc 89b7 aebd 713e c33c 8a89 883d
00000150: 1efc a1bc 9340 943c 1eb1 ac3c f946 06bd
00000160: a0ab d83c efee 003d 4df2 86bc 69da 8ebe
00000170: 23e2 9e3d 4fea 00be 596d a53c 12e8 96bc
00000180: 6655 97be 1731 9bbd c423 46bd a46e c43c
00000190: 2eea 4e3d 2d48 e63d 884a e7bc 7fe7 c03c
000001a0: cb67 37bd 9792 31bc f367 f93d fc7c dfbd
000001b0: 3ffe b63a 94eb 18bc 128e 50bd b7a4 1f3e
000001c0: e98d 033e 06db 583c a8fd 91be 7e10 7c3b
000001d0: b555 02be 8f68 e73d b9b2 1c3d a4d0 dabc
000001e0: 0a24 033e 7381 25be ea2a 8e3d a8e5 b1bd
000001f0: b7b9 ed3d ad91 6e3d 7005 2c3d 2749 a93d
0.0149245635 -0.15486051 -0.042301886 -0.09650186 0.013475563 0.0013709331 -0.1466286 -0.079079464
-0.082549594 0.10566929 0.020575712 0.040169433 0.018417047 -0.05005592 -0.028264327 0.03945097
0.19996941 -0.05606065 -0.008579312 0.055734094 -0.08655888 -0.075779885 0.025162406 -0.028511617
0.035281483 -0.023350462 -0.052558493 -0.068107784 -0.10690349 0.050488718 -0.09475517 0.009493159
0.04743966 0.07044528 -0.08986432 -0.026679343 0.05750921 0.05066788 0.049425174 0.01862002
0.0010005063 -0.033959482 0.08845548 0.039378367 0.04985121 -0.030401757 -0.08386237 -0.02700834
-0.048570845 0.12072557 0.01933 0.0037514656 0.026372902 0.029907303 0.08175783 0.28169528
0.10701585 -0.02138906 -0.00016978238 0.005528515 -0.07471644 -0.012875894 0.015078714 -0.030502591
0.03484714 -0.0288376 -0.009201386 0.04893156 0.022709578 -0.06659135 -0.13320419 0.14186896
-0.0491517 -0.028373163 -0.0021370165 0.025520999 -0.13975023 0.07714525 0.0757813 -0.103901565
-0.027338548 -0.085311 0.023833485 0.066668585 -0.01977354 0.018097198 0.02108055 -0.03278253
0.026449025 0.031477865 -0.01647296 -0.2790101 0.07757976 -0.12589382 0.020193743 -0.018421207
-0.2955734 -0.075777225 -0.048373953 0.023978539 0.0505163 0.11244235 -0.028233781 0.023547886
-0.04477672 -0.010838172 0.1217803 -0.10912511 0.0013961269 -0.00933351 -0.05091674 0.15590177
0.12847103 0.013235813 -0.28513837 0.0038461979 -0.12728007 0.1129924 0.03825638 -0.026710816
0.12806717 -0.16162662 0.06941779 -0.086863816 0.11607688 0.058244396 0.041997373 0.08265906

a2c_network.mu.weight f4 [10, 128]
00000000: a22a f6bd 83d6 993c 8876 043c 32d4 b93d
00000010: 43b9 803c d8f8 f1bd 3af3 6bbd a5e6 8ebd
00000020: 7c54 88bd 8571 dbbd 4ade acbd 9234 acbd
00000030: 523b 97bd ec2b 78bc 6350 85bb b20c 683d
00000040: e9d7 0c3d 74d7 43bd 7761 21bc 49f6 02be
00000050: 887b d7bd 479d a13c 20a5 3dbd 0f77 a63c
00000060: 0bd8 b53d 5728 95bd 654c 40bd 3dba a53d
00000070: b403 8d3d 1719 b3bc 8d60 183c 37c2 1f3b
00000080: fd94 e4bd a45a 60bd 20be c2bd 6497 a6bd
00000090: 71c5 5ebd dad0 693d 912d 9e3d d2f1 50bd
000000a0: f4c5 02bc e929 69bb 666d 28bd 8f27 193b
000000b0: b15e 533d a0b1 09bd 7d44 013c 5918 79bd
000000c0: 8f41 533d 6692 d3bc 92a6 c3bd e1b1 debd
000000d0: 0445 f9bd 195c c53d 7383 e4bd f123 46bc
000000e0: 3abf 673d 0e4d 503d 88bb acbd 3214 7e3d
000000f0: 4561 a0bd 4522 b93d 1a53 94bd 15a5 093e
00000100: 94f2 5e3d f942 903c c296 c53c 73a2 8cbd
00000110: b6a4 b2bd 8650 eb3d 2d2b 96bd 87b5 9f3d
00000120: 69ca a23b b916 bb3d 54b9 00be b9d3 293d
00000130: 9978 19bd f6aa 3cbd e61f 4ebb 2481 0bbc
00000140: 6624 8bbd 89e6 453d e9f2 9a3a b7bc 83bd
00000150: 6963 533d af2c b6bd 0659 aebd 7934 b4bd
00000160: 0b29 52bd 8b16 34bc 7174 bb3c fd31 7c3d
00000170: 36ae 45bc 2c2d 093c 75b5 573d 8ac0 c03d
00000180: 9f58 1ebd 4623 35be 6d73 b1bd 6b08 d4bc
00000190: a7fb 843d 8074 d43b f07b bcbd 696e db3d
000001a0: 8826 bbbd 034a cc3d b6eb d8bd df68 fd3c
000001b0: 3b79 193e 720a 243d 58c3 4e3c 34fe b23d
000001c0: eaea aabd 2ca8 da3d f6e5 06be 92fd 95b9
000001d0: 004a 8c3d a1af c93a b3dd 1fbd dbf3 00be
000001e0: 10f7 753d d3d6 a1bd 4414 283c 450c 953d
000001f0: e7f0 b63d 513a de3c 3ac5 c33d 6ba6 14bc
00000200: 1dd8 e3bc 5d43 1fbd 83b5 f3bd 4f2e a3bd
00000210: fcbb 2bbe 7663 babc 91d9 173d 1889 a23d
00000220: e7f9 2f3d 7680 5abd ee83 19be 086c 9a3c
00000230: a2eb 4b3d f9a4 1c3e ef21 cebd 5692 04bd
00000240: dea8 c7bc 2bd3 a3bd f14f 5ebe 1f2e fa39
00000250: 62ba 28bb 141c abbd 0562 183e 6a2b d7bd
00000260: e993 993c a03b d1bd 547b bb3d 4185 b33d
00000270: be8b 993d f199 96bd bb47 fcbc db32 6b3e
00000280: 72f1 823c f68c 98bd 1a0d de3d 48f6 d83d
00000290: c250 29be 7e36 893d 373f 993d 743f f7bd
000002a0: 8891 04be 5007 0f3e 643e a73d 1ae2 9dbc
000002b0: 526c 513d 8b35 91bc 5353 d13d a177 c8bd
000002c0: bb78 d7bd c17c be3d f464 e3bd 9ce9 b9bc
000002d0: 9a5d 023c 457b 86bd 0703 f2bb 618c c73d
000002e0: 8c05 863e b90f 05be 1454 933d 94d6 093e
000002f0: c8f4 0abd 4b4f f5bd 3da6 b3bd fc56 7dbc
00000300: 2bb6 c73d ad85 1d3e e8c6 97bd 3023 4d3d
00000310: f85b 86bd 2994 df3d ff6f 313d 56a8 113d
00000320: 3b39 ddbc 981c 4abd 71c3 59bd 3bf9 8e3d
00000330: 71fa 5b3d 68c1 db3d 10ec 06be dcd9 a53d
00000340: 6f7f 123e e486 0c3e 496e 913d 070f 32be
00000350: a9e0 3fbe 6183 733d cd4a 15be 33ec 2abe
00000360: fb2c e4bd ec38 e13d eed6 823b e853 d63c
00000370: c839 e5bc 4686 ef3b 4831 603a 1c9e 82bd
00000380: eaa8 4d3d c86c cd3d 7e95 5bbd 95bd 4bbe
00000390: 8f6a 35bd 74f5 dfbd bf1e 0abe e3d7 e4ba
000003a0: 3361 563d ee34 2ebe b82c d63d 6dbb 42bd
000003b0: 06a8 273c f390 23bd a91a bb3d cc5b 88bc
000003c0: a657 053e d2ed 24bc 5cdd 6abb dec7 50be
000003d0: 962a 11be 853f c3bc 347b 23bb e55c 7c3e
000003e0: 62c1 033d 198d 53bd c737 553d ab18 e2bd
000003f0: 9287 acbc c822 06be 505b c8bd b138 cb3d
-0.1201985 0.018779045 0.008084901 0.09073676 0.01571334 -0.11815041 -0.057605006 -0.06977586
-0.06656739 -0.107150115 -0.08440836 -0.084084645 -0.07384361 -0.015147191 -0.0040684207 0.056652732
0.034385595 -0.047812894 -0.009849898 -0.12789263 -0.105216086 0.019728316 -0.046300054 0.020320443
0.088790976 -0.07283085 -0.046947856 0.08092163 0.06885472 -0.02186255 0.009300363 0.0024377236
-0.1116123 -0.05477394 -0.0950892 -0.08134344 -0.054387514 0.057083942 0.07723535 -0.051011868
-0.007981766 -0.003557796 -0.041119955 0.0023369526 0.051603977 -0.033616662 0.007889864 -0.060814235
0.051576193 -0.025826644 -0.09553255 -0.108737715 -0.12171367 0.09636707 -0.111578844 -0.01209353
0.056578852 0.050854735 -0.08434206 0.06203098 -0.07831053 0.090397395 -0.07242413 0.1344188
0.05443056 0.01761006 0.024119738 -0.06866922 -0.08722822 0.11489968 -0.07332454 0.077982955
0.004967977 0.091351934 -0.12570697 0.04146168 -0.037468527 -0.04606148 -0.0031452118 -0.008514676
-0.06794052 0.04831556 0.001182166 -0.06432479 0.051608477 -0.088952415 -0.085130736 -0.08799071
-0.051308673 -0.010991703 0.022882672 0.06157111 -0.012065461 0.008372586 0.052663285 0.09411724
-0.038658734 -0.17689237 -0.08664594 -0.02588292 0.064933114 0.0064836144 -0.09203327 0.107144184
-0.09138209 0.09975054 -0.10591833 0.030933795 0.14987652 0.040049024 0.012619816 0.08739892
-0.083455876 0.106766075 -0.1317366 -0.0002860842 0.06850052 0.0015387425 -0.03902979 -0.12593023
0.06005007 -0.079023026 0.010258738 0.07277731 0.08932667 0.027127417 0.09559102 -0.00907288
-0.027813012 -0.038882602 -0.11899855 -0.07967817 -0.16770929 -0.022752505 0.037072722 0.07936305
0.042962935 -0.053345166 -0.14991733 0.018850341 0.049785264 0.15297307 -0.10065066 -0.03236612
-0.024372514 -0.079992615 -0.21710183 0.0004771808 -0.0025745858 -0.08354965 0.14881141 -0.105063275
0.018747287 -0.10216451 0.09154382 0.087656505 0.07497357 -0.07353581 -0.030795923 0.22968619
0.01598427 -0.07448761 0.10842343 0.105938494 -0.16534713 0.06699847 0.074827604 -0.120726496
-0.12946141 0.13967633 0.08166197 -0.019272853 0.051128693 -0.017725727 0.10220971 -0.097884424
-0.105210744 0.09301139 -0.1110324 -0.022694401 0.007956887 -0.065664805 -0.007385615 0.09743572
0.26176107 -0.12994279 0.07193771 0.13460761 -0.033924848 -0.119780146 -0.08771942 -0.015462633
0.09751543 0.15383025 -0.07410985 0.050082386 -0.065605104 0.10916931 0.0433197 0.03556093
-0.027004829 -0.049343675 -0.053164903 0.06981131 0.053705636 0.10730249 -0.13175988 0.08098194
0.14306425 0.13723332 0.07101113 -0.17388545 -0.18738045 0.059451465 -0.14579315 -0.16691665
-0.11141392 0.10997185 0.003992907 0.026163056 -0.027981654 0.007309708 0.00085522654 -0.06377813
0.050209917 0.10030514 -0.053609364 -0.19896539 -0.044291075 -0.10935488 -0.13488291 -0.0017459359
0.05233879 -0.17012379 0.10457748 -0.047542024 0.010232931 -0.039933156 0.091359444 -0.016645335
0.13021716 -0.010066466 -0.0035837507 -0.20388743 -0.14176401 -0.023834 -0.002494526 0.24644811
0.032166846 -0.051648233 0.052055147 -0.11039861 -0.021060739 -0.13099205 -0.097830415 0.099229224

a2c_network.mu.bias f4 [10]
00000000: 4b13 943d 7cb0 e03d 64ff 79bc a4fb a73c
00000010: 36db 66bd a63e ecbd 1cf3 35bd a738 ffbc
00000020: a06a 18bb ccbb 023e
0.07230242 0.10971162 -0.015258644 0.020505734 -0.0563614 -0.11535387 -0.0444213 -0.031154944
-0.0023256913 0.12766951

exp_avg f4 [10]
00000000: 05f0 a83a 5cf9 39b8 f366 e239 ac59 05b9
00000010: 8fbc 1f3a ac34 b239 f6c8 c4b9 d352 5438
00000020: 1f93 873a 5969 63b9
0.0012888914 -4.433967e-05 0.00043182782 -0.00012717274 0.0006093466 0.0003399005 -0.0003753376 5.0621875e-05
0.0010343528 -0.00021687652

exp_avg_sq f4 [10]
00000000: 736c 3937 4037 3737 0748 3737 92b0 1437
00000010: 2248 3c37 7023 2537 c80b 2037 1e37 3b37
00000020: 03b8 2437 5d40 2037
1.105211e-05 1.0920514e-05 1.092442e-05 8.862598e-06 1.1222468e-05 9.843017e-06 9.539486e-06 1.11589015e-05
9.818005e-06 9.551729e-06

exp_avg f4 [256, 42]
00000000: 0a1c c439 e9a2 c437 91fc 1a39 e865 8637
00000010: 2823 d8b8 410e 5938 e798 e639 89c5 20b9
00000020: d353 ac39 0aa1 26ba 3b31 1f3a 936e 343a
00000030: 1894 14ba 1086 ec37 ebb5 40b9 9797 46ba
00000040: 7b23 dfb8 9301 ce39 bd53 b238 6c5b 9439
00000050: 4590 053a 848a 59b9 1d1b 0f39 e5b0 4e37
00000060: 6a6d 2db9 2b9d 57b8 c618 beb9 7f09 46b9
00000070: 8e12 ccb7 3b2f 3f37 3065 38b9 a10b 84b8
00000080: 5e49 fc3a baa1 2fba 37ca 27ba 2b4c 83ba
00000090: b031 c2ba 207c 62ba 982f bb39 85a8 e639
000000a0: a5ea 48b9 283c 7939 7348 d3b9 6e3b 0938
000000b0: f187 52b9 2585 c2b8 f5ef d0b8 4c53 8ab6
000000c0: 68a0 8eb9 1be3 ebb8 4db2 b337 fd6a 643a
000000d0: 1e75 0eba 5b85 10ba e47d ec38 a6c9 c2b8
000000e0: 4bfb 9638 dddb 103a 22df 1839 1fb1 6337
000000f0: e3e0 44b9 33aa c4b9 5bd8 ffb9 86b2 feb8
00000100: 3f3b 8cb8 19cf f238 f583 8038 672f f3b6
00000110: aad5 2339 ecea c738 5a71 a338 5734 2eb8
00000120: ffe4 fa38 5ed3 f538 7db4 0aba 4e8e e939
00000130: 2962 6738 ecf0 8739 2004 843a 7458 313a
00000140: 320d 6f39 a951 e7b9 6616 0b3a 1c42 0439
00000150: 2dc3 753a c852 e638 af39 233a 20f3 3138
00000160: bb57 9fb9 f543 cbb5 30ee 9839 c5f0 043a
00000170: edfb 47b9 25b0 14bb d11a a83a 3a5f 943a
00000180: c56c 89b6 d8bc 8d39 e2ec 85b6 6d7b 9cba
00000190: fab5 26ba 6bbb 74b9 ab49 2d3a 7bbc 7d3a
000001a0: 3fef d739 14c4 e439 f1b2 ce38 f619 e638
000001b0: 0a54 39b9 c533 94b8 c1b5 53b9 401b dcb8
000001c0: d9f7 18b8 4895 aab8 f9f3 a9b8 8bbe 32b8
000001d0: e879 a23a a2de 22ba b44a 0e38 43c6 f9b7
000001e0: ac7e 2dba fe9f 6eba 369f c839 28e0 c739
000001f0: dfe1 0bba a55d 3cb7 80cb 883a f11f ec38
00000200: d02c 2a3a 9c77 8e37 80cd 8cb9 a792 1b38
00000210: 2adb 5a38 d50d 0a3a 03e3 b9b9 7bc0 1dbb
00000220: 1e67 b23a 928d 9c3a f867 9739 10d7 9939
00000230: 0629 a939 fd8e 8cba 84d7 1cba 7426 b5b9
00000240: ef96 5e3a 1859 923a b476 053a 43ef 0d3a
00000250: 2efa a137 8151 d938 740a 6db8 eca2 58b8
00000260: 7027 0bb8 ddb8 69b7 aaee 86b8 ee5b efb8
00000270: a203 6d38 539f 6ab8 7d2a e139 537e cdb7
00000280: 4ba9 42b8 1efe 203a 1288 38b9 dd8b c8b9
00000290: d62b 0939 9ffd 193a 6369 42ba c855 ef39
000002a0: 8c9d 00b9 72de ceb8 93cf 47b9 40ed 20b8
000002b0: e56c 90b7 6e57 29b8 eb7e f439 1a6f 7838
000002c0: 1051 8a39 7a26 9438 7360 bdb8 8027 b9b8
000002d0: 59ea a1b9 7a32 03b7 33f1 ccb9 b425 fbb8
000002e0: d52c acb8 5951 81b3 486a d0b9 ade9 afb9
000002f0: d00d 6138 336b f2b8 dbbc 4738 92ef 15b8
00000300: 1ab6 e0b8 06de c1b8 45d3 0db9 f04f 28b9
00000310: d12f 8f36 5f4a 7438 adae e6b7 cc4e 8c38
00000320: fb0d 933a f966 81ba e913 43b9 b577 e9b9
00000330: 6e04 94b9 5cf6 71ba f935 e739 7d6d 8639
00000340: e3f9 1e3a cfad 79b9 b04f 4139 0c56 3d39
00000350: 623f b039 379d cbb7 f4ed c0b9 4c64 31b8
00000360: edf8 1439 4f85 143a 2e51 0cb9 3961 6fba
00000370: c812 9139 0b95 1937 9de8 5d39 c163 0739
00000380: c9b4 ebb9 ca69 c9b9 f48a 69ba 0bcf 1fba
00000390: 7123 d038 006f 9338 5390 c6b9 6d30 9339
000003a0: 0ee9 2f39 f14a 4739 5ac3 a0b8 ee13 92b8
000003b0: 0e25 a6b7 486a f2b7 48e9 3639 0cc2 4cb8
000003c0: ea86 e037 f7f6 0f39 24dd 5d3a ac8d 03b9
000003d0: f002 1d3a fa18 6fb9 fd12 d236 3f25 edb9
000003e0: 5598 8f3a b43c c338 9074 8739 d7b6 01ba
000003f0: cb72 7cba 8138 2538 0184 3aba 43d2 4bb9
0.00037404924 2.3440882e-05 0.00014780673 1.6021499e-05 -0.00010306231 5.1750107e-05 0.0004398294 -0.00015332377
0.0003286885 -0.0006356394 0.00060727046 0.0006882932 -0.00056678196 2.819582e-05 -0.00018378317 -0.0007575689
-0.000106400774 0.00039292555 8.503299e-05 0.00028296874 0.0005095045 -0.00020746334 0.00013647643 1.2319743e-05
-0.00016539326 -5.140637e-05 -0.00036258082 -0.00018886289 -2.4327335e-05 1.1395484e-05 -0.00017585303 -6.2964165e-05
0.0019247939 -0.00066998194 -0.0006400677 -0.0010017207 -0.0014815833 -0.0008639712 0.0003570288 0.00043994575
-0.00019160898 0.000237689 -0.00040299035 3.2718694e-05 -0.00020077803 -9.275441e-05 -9.9629084e-05 -4.1224175e-06
-0.00027203863 -0.00011247975 2.142149e-05 0.0008713452 -0.0005434322 -0.00055130356 0.00011276806 -9.288201e-05
7.199364e-05 0.0005525926 0.00014578973 1.3571494e-05 -0.00018775793 -0.00037510842 -0.00048798588 -0.000121449164
-6.686756e-05 0.00011578034 6.1280945e-05 -7.2474827e-06 0.00015624487 9.532817e-05 7.793559e-05 -4.1533578e-05
0.00011963583 0.000117218806 -0.0005291177 0.00044547248 5.516611e-05 0.00025928707 0.001007203 0.00067651947
0.00022797732 -0.00044120595 0.0005305767 0.00012613129 0.0009375092 0.00010982674 0.0006226552 4.2426516e-05
-0.00030392208 -1.5144457e-06 0.00029169163 0.0005071278 -0.00019071969 -0.0022687998 0.0012825375 0.0011319884
-4.0955806e-06 0.00027034315 -3.9912857e-06 -0.0011938639 -0.0006359514 -0.00023339472 0.00066104037 0.000967927
0.00041186248 0.00043633638 9.856176e-05 0.0001097209 -0.00017674282 -7.066833e-05 -0.00020190237 -0.00010495493
-3.647045e-05 -8.1340375e-05 -8.1039914e-05 -4.2615964e-05 0.001239595 -0.00062129844 3.392501e-05 -2.9775436e-05
-0.0006618302 -0.000910282 0.00038265594 0.00038123247 -0.00053360866 -1.12274765e-05 0.0010436624 0.000112593065
0.0006491663 1.6983417e-05 -0.0002685599 3.709146e-05 5.2179363e-05 0.00052663434 -0.00035455087 -0.0024071026
0.0013611054 0.0011944047 0.00028878427 0.00029342668 0.00032264757 -0.0010723766 -0.0005983042 -0.0003455166
0.0008491119 0.0011165468 0.00050912355 0.0005414376 1.9309195e-05 0.000103625476 -5.651494e-05 -5.1650146e-05
-3.317691e-05 -1.3930924e-05 -6.4340726e-05 -0.00011413531 5.6508587e-05 -5.593833e-05 0.00042947 -2.4496729e-05
-4.641087e-05 0.0006141382 -0.00017598298 -0.0003825118 0.00013081668 0.00058742793 -0.00074162165 0.00045649544
-0.00012265722 -9.864279e-05 -0.00019055446 -3.836793e-05 -1.7216846e-05 -4.0374165e-05 0.00046633868 5.923128e-05
0.00026381807 7.064357e-05 -9.030187e-05 -8.828845e-05 -0.00030882916 -7.819961e-06 -0.0003908962 -0.000119756354
-8.20995e-05 -6.021828e-08 -0.00039752037 -0.00033552703 5.3657044e-05 -0.00011559427 4.7621183e-05 -3.5747486e-05
-0.000107150714 -9.244312e-05 -0.00013525512 -0.00016051508 4.2672987e-06 5.8243397e-05 -2.7499476e-05 6.690397e-05
0.0011219376 -0.0009872607 -0.00018604066 -0.00044530412 -0.0002823206 -0.0009230131 0.00044099966 0.00025640047
0.00060644577 -0.00023811239 0.000184356 0.000180565 0.0003361656 -2.4272695e-05 -0.00036798383 -4.2293497e-05
0.00014207112 0.00056656165 -0.00013381682 -0.0009131614 0.00027670548 9.154212e-06 0.00021162858 0.00012911764
-0.00044957388 -0.00038416527 -0.000890895 -0.00060962205 9.9248144e-05 7.0301816e-05 -0.00037873033 0.00028074105
0.0001677612 0.00019006037 -7.6657816e-05 -6.965535e-05 -1.9805997e-05 -2.889814e-05 0.00017443777 -4.881811e-05
2.6765705e-05 0.00013729544 0.00084634335 -0.0001254591 0.00059895124 -0.0002280212 6.2606982e-06 -0.00045231913
0.0010955433 9.3096314e-05 0.00025836052 -0.0004948205 -0.00096301426 3.939169e-05 -0.0007115007 -0.00019437917
