logs/rl_games/humanoid_flat_direct/two_steps_success/nn/last_humanoid_flat_direct_ep_100_rew_224.75201.pth (torch, 759310 bytes, 33 tensors)

value_mean_std.running_mean f8 [1]
00000000: 12d9 2d44 8b9a 4740
47.20737507094067

value_mean_std.running_var f8 [1]
00000000: 51e3 c9f6 7f28 8d40
933.0624824306962

value_mean_std.count f8 []
00000000: 0000 0008 00c0 8241
39321601.0

a2c_network.sigma f4 [10]
00000000: 3e1e d9be 275c 5fbe 54da a2be 3ba1 fbbc
00000010: 53b2 b2bd f9ec fcbe e2a3 03bf d0cc 87bf
00000020: c587 9abe 100f 8bbd
-0.42405885 -0.21812497 -0.31807196 -0.03071653 -0.08725419 -0.49399546 -0.5142194 -1.0609379
-0.3018171 -0.06789982

a2c_network.actor_mlp.0.weight f4 [256, 42]
00000000: 21ff 883d 7678 4b3e b3f6 663e cc4d 323d
00000010: 4542 de3d b2d8 5a3d 9f72 d03d 09e2 84be
00000020: b014 65be 2d0f 7ebd b209 f9bd 5d74 fa3d
00000030: 44f3 cebd 6b1f acbd 0ce0 5b3d 8d2e 7e3c
00000040: 9d66 593d d66c 04be 3b0c ba3c e98b 3fbd
00000050: 1a86 803d fbdf 92bd 11d0 56be 44d2 30be
00000060: 5aa0 623e 8355 29bd ed55 e9bd 75bf 0dbe
00000070: 6fe6 063e 992e c93d 1b7d dc3d 33dc 94bd
00000080: 4e91 d3bd 215d cdbd f226 98bd a3a4 883d
00000090: 0bd7 193d 5c74 da3d d0f5 8bbd 2688 07be
000000a0: 6c16 c53d 8968 94bd 6e08 c43d 5ca8 f33c
000000b0: f33d 2b3e 81d7 0ebe d092 c0bd e4c5 633e
000000c0: 7566 ef3d 19c1 9f3d 9abb a33d 0057 bc3d
000000d0: cf30 eabd ec88 9bbd 695d 8f3e 5010 453c
000000e0: 7f31 bcbc 91e2 0abe 7fa6 83bd c174 29bd
000000f0: fe67 bbbc b9e5 0abe f0e2 6f3d e315 84bd
00000100: 7b37 723c ce68 623d a221 e4bd 8de4 57be
00000110: 6bdb 363e 942e 413d 62a0 42bd 057d 61be
00000120: 64ac 11bd fadc a1bd 181c e539 e0ff e6bd
00000130: 82c4 12bd cdb3 52bd 553c 9fbc 8156 3bbd
00000140: 6a4f ffbb 35d7 a6bd 13bc 59bd c21f 95bd
00000150: 7476 45bd 8234 d9bd 4ffc 8d3e 84d8 553c
00000160: b651 423e b61a c33d db51 57be 0e01 b6bc
00000170: e249 a4bc a098 67bd 64f3 fbbd eb3e 13be
00000180: 29da 80bd 2f12 02be 2e4a 843d 294d cfbd
00000190: 45fa 183e eebe eebd 58e9 17bc 5603 08bc
000001a0: 6ad9 c43d 5e8f 953e b0ed 953d 0052 25be
000001b0: 13a3 2f3d 038d 39bd 74b2 ae3a 2c01 36be
000001c0: b88b e03d 4cc8 6dbe bb6b f03d 43f0 953d
000001d0: a669 c73c 91db a8bd 66e9 0d3e 7601 1f3d
000001e0: 9ddd 273d 2613 dabd 1abe 8a3d 16dd f2bc
000001f0: 6991 9dbd 3d50 013e 2415 1d3d bb6d 45be
00000200: 5f79 d73d dd2c 253e 9958 5dbd 46b2 e6bc
00000210: 646c 11be 8aa9 a3bd ad31 93be 29bf 613d
00000220: af8a e23d b0c5 1bbe 33a0 a5bc 2fe3 153d
00000230: 581b 313d cd0c 57bd 8cd4 0e3d d9b1 f7ba
00000240: 78a1 9e3d 1de0 c93b bd54 91bd edaa 8e3c
00000250: d2e8 d3bd cb13 fbbd 484a f33d 9f62 e53d
00000260: dbb3 5fbd d390 23be ac2f 773a 3d40 c73d
00000270: 68c0 0a3d c328 083b 2753 19be 58fa bdbb
00000280: 5429 b33d ba52 573d 97e2 933b 5842 fabd
00000290: 1be3 95bd d13f c9bd f8f0 4dbc 6388 793c
000002a0: 20c0 fe3d 2ab9 c83d d774 03ba aea0 25bd
000002b0: f3ef 023c d3c5 443e 06f2 913d b083 40bd
000002c0: 1b9f 1a3d a196 b3bd 804b a2bd b6dd 123e
000002d0: a2d3 943c 3e9f 853d dd90 fbbd 99b7 d93d
000002e0: 8c88 c43d 6034 193d f347 a5bd 6576 4fbe
000002f0: e98e c3bd f38c 853e 999f 353e fa26 7e3e
00000300: 0e70 c73d c58d 79bb a5ef 8ebc 5b1f 2abe
00000310: 1ce6 6abe d14e a2be 3fd3 ed3d e86a 65bd
00000320: bfe8 adbc caa9 c0bd 1f08 1ebd 159b a5bd
00000330: 661f dcbd 418a 0c3d 8fa0 aabc 97ae bb3d
00000340: 5431 0fbd 3917 b4bd 1df2 39bd f346 a3bc
00000350: 84e4 9d3c 81b3 0fbe 2392 253e e472 b3bd
00000360: 511d e53c 68ec 0dbc 05e6 e03d c636 cabd
00000370: d512 ba3d c0d3 a9bd a00d bf3d 4c00 373e
00000380: 0528 06bd cfb7 3f3d 9b4b f03c fa6d acbd
00000390: 0a9a bb3d 420b 85be 5af2 a93d c834 7e3e
000003a0: 66b2 573e 1628 003d f21d 63bd ca64 2b3d
000003b0: 9618 683d 6f9c e6bd 7027 adbd 33a8 7abe
000003c0: bcdf b6bb 0070 7ebd e822 9dbd e1bf bfbd
000003d0: d61e 0abe bdda 1c3e 1009 d93d f426 693c
000003e0: 72e4 82bc d83e 8ebd f520 00be dff8 cabd
000003f0: 46f3 483d b0f1 c2bc b7d7 8dbc 24d5 c63c
0.06689287 0.19870171 0.22555046 0.043531224 0.10852484 0.053429313 0.10178112 -0.259537
-0.22371173 -0.06202619 -0.12160052 0.12229226 -0.10104993 -0.0840443 0.053680465 0.015514028
0.053076375 -0.12932143 0.02271091 -0.046764288 0.06275578 -0.07171627 -0.20977809 -0.1726771
0.22131482 -0.041341316 -0.11393342 -0.13842566 0.13173841 0.09823341 0.107660495 -0.07268562
-0.10330449 -0.100275286 -0.07429303 0.06672027 0.037558597 0.10666725 -0.068339944 -0.1323553
0.09623417 -0.07246501 0.0957192 0.029743366 0.1672285 -0.13949396 -0.09403002 0.22243458
0.11689464 0.07800502 0.079947665 0.091962814 -0.11435091 -0.07594475 0.28000954 0.012027815
-0.02297282 -0.1356299 -0.06428241 -0.04137111 -0.022876736 -0.13564195 0.058566034 -0.06449487
0.014783735 0.05527573 -0.111392274 -0.21083279 0.17857139 0.04716356 -0.047516234 -0.22020347
-0.035564795 -0.07903476 0.00043699215 -0.11279273 -0.035831936 -0.051441003 -0.019437948 -0.045736793
-0.0077914493 -0.08146516 -0.053157877 -0.07281448 -0.04820867 -0.10605718 0.2773156 0.01305211
0.18976483 0.09526579 -0.21027319 -0.0222173 -0.020054761 -0.05654204 -0.123022825 -0.1437947
-0.06291611 -0.12702249 0.06459461 -0.10122139 0.1493922 -0.11657511 -0.009271942 -0.008301577
0.09611781 0.29210943 0.07320726 -0.16144562 0.04288013 -0.045300495 0.001332833 -0.17773885
0.10964149 -0.23220938 0.11739298 0.07321217 0.02434237 -0.08245004 0.13858566 0.038819753
0.04098283 -0.106481835 0.0677454 -0.029646438 -0.076937504 0.12628265 0.03835024 -0.1928014
0.105211966 0.16130395 -0.05403957 -0.02816118 -0.14201504 -0.079913214 -0.28748837 0.055113945
0.11061608 -0.1521213 -0.02021799 0.036593612 0.043238968 -0.052502442 0.03487067 -0.0018897607
0.077456415 0.0061607496 -0.07096241 0.017415488 -0.10347141 -0.122596346 0.118794024 0.11200451
-0.054614883 -0.15973215 0.0009429406 0.09729049 0.0338749 0.002077625 -0.14973126 -0.0057976656
0.08748117 0.05256913 0.0045130956 -0.12219685 -0.073187076 -0.09826625 -0.012569658 0.015230271
0.12438989 0.09800942 -0.0005014664 -0.04043644 0.007991779 0.19216089 0.071262404 -0.047000587
0.03774939 -0.087689646 -0.07924557 0.14342389 0.01816732 0.06524514 -0.1228349 0.106307216
0.09596357 0.037403464 -0.08070364 -0.20260008 -0.09548742 0.26084098 0.17736663 0.24819556
0.097381696 -0.0038078886 -0.017448256 -0.16613524 -0.22939342 -0.31700757 0.116125576 -0.056010157
-0.021229146 -0.09407385 -0.038581964 -0.0808622 -0.10748176 0.034311537 -0.020828513 0.0916416
-0.034959152 -0.08793492 -0.045396913 -0.019931292 0.019274004 -0.14033319 0.16169028 -0.08762148
0.02796808 -0.008662321 0.10981373 -0.098737285 0.09085623 -0.08292341 0.09328771 0.17871207
-0.03275301 0.046806153 0.029332926 -0.08419414 0.0916024 -0.25985152 0.08298178 0.24824822
0.21064147 0.03128823 -0.05544848 0.041844167 0.056664072 -0.11260306 -0.08454788 -0.24478225
-0.0055808704 -0.06211853 -0.076726735 -0.0936277 -0.13488325 0.15317817 0.10597432 0.014230479
-0.015978072 -0.0694558 -0.12512572 -0.0991075 0.04906013 -0.023796886 -0.017314775 0.024271555

a2c_network.actor_mlp.0.bias f4 [256]
00000000: e8f8 05bc 8670 2b3c eff8 a7bb eec5 f2ba
00000010: 4fb3 d23c 8569 88bc affa 19bc ffde 813c
00000020: fa60 69bc 30e4 143d 0472 7837 8acf babb
00000030: 2020 283c ba28 bdbc d601 033c 22a8 b7bc
00000040: b778 a23c e6c5 003c 5554 163b 18d4 8d3c
00000050: 7f9a 30bd efef 00bd f756 083c 2deb aa3b
00000060: 27b0 68bc 9187 1c3d 6b9e 5b3b afdd 923b
00000070: 5d91 0e3d ddbb 27bc 4c20 183c 21f8 21bc
00000080: 8f42 033d efb0 b6bb bfef 09bc 10ce 8bbb
00000090: e337 243c d4f3 1dbb 658e 823a 1521 3f3c
000000a0: a219 f73b 823f 84bc d8cd 043c eb42 56bc
000000b0: e78b bbbb 7848 ad3b f5df 203d a017 f83c
000000c0: 12c7 13bc 7e2b 15bc 5a1b 86bc 0c69 d13c
000000d0: d1b8 f4bc f5f1 80bc 7980 1bbc ef94 53bc
000000e0: dc81 083c 367b d439 5463 71bc 0a17 ae3c
000000f0: e39b 38bc 6d2e d5bb 30df b6bb 7aab 76bb
00000100: 7004 a4bc a704 b23c b827 a1bc f192 b2ba
00000110: 6698 d339 f7a8 be3b 21e1 aeba 5ddb 9bba
00000120: 3cd0 09bd 5b65 0c3d 68cb 92bc 964f 4fbc
00000130: 0cac 8fbc f349 48bb d95e 05bd e352 bb3c
00000140: e97d cd3b ef28 53bc 4408 7fbc e962 b8bb
00000150: 95f4 4e3c cc58 e8ba cc48 93bc 2c01 88bc
00000160: 7264 943b 9865 cbbc 8d4b 6fba cbd6 b9bc
00000170: 2236 353c 20e5 45bc 0d5d b2bb 3200 4d3c
00000180: 6209 ec3c 05ad 1c3c a484 06bd 1982 303c
00000190: a7c9 583d 9581 b43a 0259 5c3c 9142 c43c
000001a0: 43a3 9b3c 5fdd 06bb d90d dd3b 2612 8dbc
000001b0: f20d 1cbd 4db2 e4bc b65f 0e3d 6ab9 083d
000001c0: d046 ccbc efd2 56bc a3fc 3abc f8da 573c
000001d0: 1166 653c 7c97 febc 1acf de3c eed8 5b3c
000001e0: 2667 c5bc 0aaf 13bd 284e c23c 83bd 71bb
000001f0: d207 75bc d0e4 313c fb2b 4f3c eb4a a23b
00000200: 8d75 68bc 9938 d8bc 5016 073c af30 903c
00000210: b0a8 fcbc 5727 1c3c d29a 6fba 4dca 7e3b
00000220: e43c 53bc 8c5d ccbc 456a 1cbc 5a68 a2bc
00000230: 53a4 6e3c ff28 cc3b 473c 65bd 1fb4 f1bc
00000240: ff70 8abc e65b 49bb 438e 403c 3751 98bb
00000250: dbb3 e03c 1966 e3bc e542 8f3c f1b0 d13b
00000260: 6e8c f03a e32b 2f3a 1540 a4bb 2500 37bc
00000270: 2138 23bb 6679 f8bc c7e1 453d 63ed 3c3b
00000280: e5ee eebb 3ea2 7e3c 4cb4 0ebd 6e66 4a3c
00000290: ed03 08bd a604 963c 6c69 7abc 8e7f 86bc
000002a0: 87cb e83b 5f5a 213d bad6 1dbd c054 14bd
000002b0: e7a6 b8ba 493e 2e3c 97b9 c63a 0e48 6bbc
000002c0: d6ee 023c 9e5e abbc 6193 ca3b 3ad0 5e3c
000002d0: b09d 033c f171 18b9 defb 8a3b 49a9 70bc
000002e0: f98a db3b 550a bcbc a1f0 933c b5ae 3abc
000002f0: 9731 833a 5d84 d73c 03d4 9abc 79ef 853c
00000300: f827 6abc 91d1 cbbc d424 863c 2ed1 32bd
00000310: c0ae 21bd ddc8 64bc 8e90 033d 57bf 0d3a
00000320: 7d5f b23c 72ee 50bc 2ed3 5b3c 416c 27bd
00000330: 30f2 07bc ec2d 71bc 8e3e 54bb 29b5 d8bc
00000340: 5837 f53c 6005 bbbb 854e 4e3c 1931 373c
00000350: 4498 753c 260b db3c b8f6 d13b b411 523c
00000360: 5ea5 01bd 4f13 d1bb 4a3e 4a3c a142 79bc
00000370: eba7 313d 3291 1fbb d6e8 28bd 1dcb ed3c
00000380: 4ee4 c33c aa4c c6bc ad2d 88bc 086b 093c
00000390: b728 1f3d 85b3 663c 450f c53c 7ddf 0ebc
000003a0: 0e05 94bc b463 6bbd cdd8 863b 46f4 f93c
000003b0: fac6 4cbc e3ce 383b e372 bcbc 7f7a ad3b
000003c0: 61a0 d33b 6ded 7f3b b687 943c 3cdc bc3b
000003d0: 4a1c 0b3d 1ed4 173d 93c0 f3bb a5ac 34bd
000003e0: d6e2 b13c 596b 3fbc 19be c3bb 2957 753c
000003f0: 00c3 60bc 821a 8dbc d411 00b9 75c7 673c
-0.00817702 0.010463839 -0.0051261107 -0.0018522122 0.025720267 -0.016651878 -0.0093981465 0.015853403
-0.014244312 0.03635043 1.4808498e-05 -0.00570101 0.010261565 -0.023090709 0.007996043 -0.02241904
0.019832952 0.007859683 0.002293845 0.017313048 -0.04311609 -0.03147882 0.008321515 0.0052160234
-0.014202154 0.038215224 0.0033511173 0.004481993 0.034806598 -0.010237661 0.009285044 -0.009885819
0.032045897 -0.0055752913 -0.008418976 -0.004266508 0.01002309 -0.0024101632 0.000996065 0.011665602
0.0075408975 -0.016143564 0.008105718 -0.013077478 -0.005723465 0.00528818 0.039276082 0.030284703
-0.00901963 -0.009104608 -0.016370464 0.025562786 -0.029873284 -0.015740374 -0.0094910795 -0.0129139265
0.008331742 0.0004052759 -0.014733154 0.02125122 -0.011267635 -0.0065057785 -0.0055808052 -0.003763883
-0.020021647 0.021730734 -0.01967226 -0.0013624114 0.00040358602 0.005818482 -0.001334224 -0.0011890937
-0.033645853 0.034276348 -0.017919257 -0.012653252 -0.017538093 -0.0030561655 -0.032561157 0.022866672
0.006271113 -0.012888177 -0.0155659355 -0.0056270254 0.012631555 -0.0017726659 -0.017979048 -0.016602121
0.0045285756 -0.024828717 -0.00091283844 -0.02268543 0.01106027 -0.012078553 -0.0054432214 0.012512254
0.028813068 0.009562735 -0.03284134 0.010773205 0.052926686 0.0013771529 0.0134489555 0.023957523
0.018998748 -0.0020578725 0.0067460355 -0.017220568 -0.038099237 -0.027917052 0.034759246 0.03337995
-0.02493611 -0.013111814 -0.011412772 0.013174765 0.014001385 -0.031078093 0.027198363 0.013418419
-0.024097037 -0.036055602 0.023718908 -0.003688664 -0.014955478 0.010857776 0.012644763 0.0049527786
-0.014188183 -0.026394175 0.008245066 0.01760134 -0.030842155 0.009530864 -0.00091401965 0.0038877905
-0.012892935 -0.02494695 -0.009546821 -0.01982515 0.014565545 0.006230473 -0.055965688 -0.029504834
-0.016899584 -0.0030724942 0.011752668 -0.0046483534 0.027429512 -0.027758645 0.017487952 0.006399267
0.0018352398 0.000668226 -0.005012522 -0.011169468 -0.0024905282 -0.030331325 0.04831102 0.0028828017
-0.007291662 0.015541611 -0.034839913 0.012353523 -0.03320687 0.018312763 -0.015283924 -0.016418245
0.0071043405 0.039392825 -0.038534857 -0.036213636 -0.0014087827 0.010634967 0.0015161511 -0.014360441
0.007991513 -0.02091914 0.0061821197 0.01359945 0.008033201 -0.00014538296 0.0042414507 -0.014688798
0.0066999164 -0.022954145 0.018059077 -0.011394192 0.0010009286 0.026308233 -0.018899923 0.016349541
-0.014291756 -0.024880202 0.016374983 -0.04365652 -0.039473295 -0.013963905 0.03212028 0.0005407235
0.021774048 -0.012752162 0.013417048 -0.040874723 -0.008297488 -0.014720421 -0.0032385918 -0.026453571
0.029933617 -0.005707428 0.012591963 0.011181139 0.014989916 0.026738714 0.006407585 0.012821604
-0.031651847 -0.0063804756 0.012343952 -0.0152136395 0.04337303 -0.0024348018 -0.041237675 0.029027516
0.023912575 -0.024206478 -0.016623342 0.008387335 0.038857188 0.014080887 0.024055133 -0.008720276
-0.018068817 -0.05746813 0.0041152 0.030511986 -0.012498612 0.0028199486 -0.023004001 0.0052941437
0.0064583276 0.003905143 0.018131118 0.0057635587 0.033962525 0.037067525 -0.007438728 -0.04410996
0.02171461 -0.0116833085 -0.005973589 0.014974394 -0.013718367 -0.017224554 -0.00012213673 0.014146675

a2c_network.actor_mlp.2.weight f4 [128, 256]
00000000: fa59 bf3d b574 fe3c f712 0c3d 8a2d b33b
00000010: d3b7 0e3d e2cd f43a 85c1 19bd 82ab 333b
00000020: af93 e03d 1d30 693c 01fe 4abc af20 413d
00000030: 5b85 fe3c e1dc 143d 854f d7bd 8408 2dbd
00000040: 77d6 2f3c e457 8abc a1d7 493d 8ab9 a2bd
00000050: 1062 b43c 60bf 5b3d 5ab6 fdbc 8af7 cebd
00000060: a654 9bbc b5eb b2bc e11f 8bbd ac3b 8d3d
00000070: 1566 963c b3eb 7abd b818 ce39 1f4e 46bd
00000080: 5e7e 16bd 3ee5 7e3c d875 3fbd ba65 60bd
00000090: 2b80 9fbd 7f90 f1bd bce3 49bd c6ad e83a
000000a0: c3d1 a0bd 5a3d 0f3e ec0f 3038 7344 04bb
000000b0: 7bf4 9e3c b65e 66bd cb2b 123c 460e 863c
000000c0: 2fd9 253d 337e 16bd 1c07 1c3d d75a 4ebd
000000d0: 6a5e a73c 6d45 b73d aa81 0e3c 424d 71bd
000000e0: 675f 92bd 6256 073d c0c8 e33b 8d53 aabc
000000f0: f923 4c3d 907e 653d 4b3a 143d 5647 09bc
00000100: ed73 e63c 9d45 3fbc cc51 a23d 221a 693d
00000110: e559 3fbc 5f15 c83c 12a8 8cbd 6add 8b3d
00000120: 0445 fb3c ad63 343d 3a5c eabc eca9 36bd
00000130: 1963 d73c 6710 e0bc ac41 b5bc 41a5 4b3c
00000140: c32a 23bd 4907 1e3d f37d d3bc 3e8c 24bd
00000150: 210d 803c c4d2 18be c3a4 b1bc f728 a9bb
00000160: 696c 94bc 4198 8abd c18a 4c3d d281 253c
00000170: e9ed b23c 22f6 343c 742e 143d 68eb 9ebd
00000180: fe24 b4ba 52f8 8fbc 84ca 5e3d dc6d b2bc
00000190: 6b43 393d 2a0d bbbd dc8f 50bd f160 49bd
000001a0: 6b0b 333c 04d6 25bd 6b4e acbc 60a0 03bd
000001b0: afcb 80bb 2f80 2d3d 848d ad3c 86f2 36bc
000001c0: 5e81 a53c a510 263d 7a7d e93c c2a2 07bd
000001d0: db92 c9bd 5238 8a3d 260f fb3b c9ad 80bd
000001e0: f172 3bbd d8c1 083d 3536 243d 4209 bbbb
000001f0: a305 fb3c 60a9 04b9 da28 083d e5ea 0f3c
00000200: 2f14 78bd 6e48 84bd 2ddc 2e3c cccf 723d
00000210: 6108 d53c 4647 77bc 7a96 be3c 61c3 af3d
00000220: 29ad 9d3d e14a 3e3d d3c7 79bd 5f81 babc
00000230: 61c9 283c 5dfe b9bb 3664 883d dcd9 85bd
00000240: 8d57 8a3c cabc 923b 21b9 2abd d678 1ebd
00000250: ad1b ddbd 994a 60bb da9f 913c cbc4 523c
00000260: d760 ab3d c8b3 4d3d a2f8 e5bd dc8a e23c
00000270: d736 7a3d 7c9a d93b 4168 cabc fd97 5cbd
00000280: 9f6f 8bbc e484 163d 750f 303c 7f29 63bd
00000290: cbec 4bbd f15a 8dbd ee1d da3d 188c 163b
000002a0: d7bf e83c ab99 37bd 895d 1f3d 2ff6 553c
000002b0: f7d6 ecbb f715 51bc 13c1 95bd 7bf9 f73c
000002c0: e792 89bc b254 203d 1d29 673d 7edb a8ba
000002d0: 0bfc 27ba 9994 bdbd 21df e7bc 0a7a 98bd
000002e0: 83f9 bebb b863 e63c cb09 fb3b 2c0d af3d
000002f0: b43c 3bbd 1be6 aebc d5cd 8dbd b67a 57bd
00000300: d9ad 06be b39b 243d 582c a1bd 06ba 0bbd
00000310: e135 063b e42b 4a3d 1f58 6ebc 0f30 edbc
00000320: 41c1 543d 4595 aabd 541e 24bd b1f0 853c
00000330: 9ff0 173b 3479 393d 13de 373d d40e 86bd
00000340: 2fd6 d9ba fc49 cabd fae2 223c d45a 8a3d
00000350: c8fe 0abe 679c 8cbd 0c81 153d 2d44 983c
00000360: 2ba2 38bd 0515 953b 5b70 40bd 7951 393d
00000370: 4dd4 87bc d8f4 c93b f8e1 a23d fee6 1b3c
00000380: cc44 adbd fe27 913d bab4 f73c 7698 babc
00000390: edaf 3ebc 4095 27bd 4ac9 babb 9ae4 d53d
000003a0: ef6a 313d e037 ad3c ccf9 5c3d b7a2 063d
000003b0: 5460 2d3c a661 cd3b 5d10 edbb 9eb2 88bc
000003c0: e61c 07bb cd98 9abc 2e89 883d 828f 2a3d
000003d0: 35eb 2ebd 4271 4b3d 77fe 21bd f549 5f3d
000003e0: f6dc de3b 789e c2bc 5811 a3bc 02b7 633d
000003f0: 0fc2 273c dcf9 213d 4a66 09bd e245 9cbd
0.093433335 0.03106151 0.034197774 0.005468075 0.034843277 0.001867708 -0.03753807 0.002741546
0.109656684 0.0142326625 -0.012389661 0.04715031 0.031069448 0.03634346 -0.10513214 -0.04224445
0.010732285 -0.016887613 0.049277905 -0.07945545 0.022019416 0.053649306 -0.030970741 -0.10105808
-0.018961262 -0.02184091 -0.0679319 0.06896147 0.018359223 -0.061259937 0.000393098 -0.048414346
-0.036741607 0.015557585 -0.046743244 -0.054784514 -0.07788118 -0.117951386 -0.04928945 0.0017751984
-0.07852509 0.13988248 4.19765e-05 -0.00201824 0.019403687 -0.056242667 0.008921574 0.016364228
0.040490326 -0.036741447 0.038092718 -0.0503796 0.020430762 0.08948789 0.0086979065 -0.05891157
-0.07147103 0.033041365 0.0069514215 -0.020791793 0.049838994 0.056028903 0.036188405 -0.008378824
0.02813145 -0.011674312 0.07925758 0.056909688 -0.011679147 0.024424253 -0.06867994 0.06829341
0.030672558 0.04404037 -0.02860843 -0.044595644 0.02629237 -0.027351571 -0.022126041 0.012429536
-0.039835703 0.038581166 -0.025816893 -0.040172808 0.01563126 -0.1492415 -0.02168501 -0.005162354
-0.0181181 -0.067673214 0.049937014 0.010101752 0.02184196 0.011045011 0.036177114 -0.07759744
-0.0013743935 -0.017574463 0.054392353 -0.0217809 0.04523031 -0.0913337 -0.050918445 -0.049164716
0.010928015 -0.040487304 -0.021033486 -0.032135367 -0.003930531 0.042358574 0.021185644 -0.0111662205
0.020203289 0.040543217 0.028502215 -0.033114202 -0.098424636 0.067490235 0.007661718 -0.06283147
-0.045763914 0.03338799 0.04009076 -0.0057078907 0.030642336 -0.00012651598 0.033242084 0.008784031
-0.060566124 -0.06459127 0.010672611 0.0592802 0.026004972 -0.0150926765 0.023265112 0.085821874
0.07699043 0.04645813 -0.060981583 -0.022766767 0.010301919 -0.0056760744 0.06659739 -0.06535694
0.01688745 0.004478072 -0.04168046 -0.038689457 -0.10796294 -0.0034224151 0.017776418 0.012864302
0.0836808 0.05022028 -0.112290636 0.027654104 0.061087456 0.0066407304 -0.024707915 -0.053855885
-0.017020999 0.036747828 0.010745873 -0.055459496 -0.04978637 -0.06902111 0.1065024 0.0022971686
0.028411789 -0.044824284 0.03890756 0.013059183 -0.0072277742 -0.0127615845 -0.073122166 0.030270329
-0.016793681 0.03914327 0.056435693 -0.0012882797 -0.0006408102 -0.092568584 -0.028304638 -0.07445152
-0.005828084 0.028123721 0.0076610795 0.08547434 -0.045712188 -0.021349957 -0.06924025 -0.05260726
-0.13152255 0.04018755 -0.07869786 -0.034112953 0.0020478892 0.049358264 -0.014547377 -0.02895358
0.051942114 -0.08329252 -0.040067986 0.016350122 0.0023184193 0.045281604 0.04488952 -0.06545797
-0.0016619618 -0.09877393 0.009941811 0.06755605 -0.13573754 -0.06865769 0.03650002 0.018587196
-0.04507653 0.004549625 -0.04698215 0.045243714 -0.016580725 0.006163221 0.07953256 0.009515522
-0.084603876 0.07087706 0.030237544 -0.022777777 -0.011638624 -0.04091382 -0.005700265 0.10443993
0.04331487 0.021144807 0.053949162 0.03287002 0.010582048 0.006267744 -0.0072346167 -0.016686734
-0.002061659 -0.01887169 0.0666679 0.041640766 -0.04270478 0.049668558 -0.039549317 0.05451389
0.006801243 -0.023757204 -0.019905731 0.05559445 0.010239138 0.039544925 -0.033544816 -0.076305166

a2c_network.actor_mlp.2.bias f4 [128]
00000000: 3014 bbbc f4f1 78bb d08e 2dbd d4d6 75bd
00000010: 4638 c3bb e504 44bd 4b2b 39bc 5fb4 bd3b
00000020: 04fb 91bd ef7c 83bc 4ce0 0bbd e71e e43b
00000030: 1399 1cbd 2cd0 66bc ea69 32bc aa49 86ba
00000040: ff08 393b bab8 efbc a43a 273b 6fef 243c
00000050: e324 183b 7850 99bd 596b 303c 17e9 86bb
00000060: e8cb 2db9 b674 f53c 363f 4fba 1fc8 a03c
00000070: c4df 023c ced4 2bbc 3f44 c03b 4c41 8f3c
00000080: 6f29 503c 1885 a2bc b1ce 41bd 29ce 8fba
00000090: 91cd a4bc 28a1 8abc 1259 063d 5a53 b3bc
000000a0: 4cc3 fa3b cca0 0cbc 739b 8c3b 1c7e adbc
000000b0: 5c70 193c 5af2 71bc 7db4 2cbb d7d6 4fbc
000000c0: 638a b3bb e728 90ba 84c7 98bc 1da4 f13b
000000d0: e9c0 13bc 1619 85bc 1b78 10bd 5d00 87bc
000000e0: 78fb b2bc d5bb 0dbd 9343 9c3c 9ee9 903c
000000f0: 3c61 d0bc 6706 93bc f222 05bd 3d94 96bc
00000100: 47c8 963b 6c07 afbc d142 59bb 3d35 8abb
00000110: 2409 b83c dc40 1b3c 9258 21bd bb4a 5f3b
00000120: 1b3e 01bd 401a 0fbd 4a17 a93b c680 5dbc
00000130: ab36 5bbd fbfc c2ba 0262 b6bc 4489 b1bc
00000140: 003b edbc 9cc6 0e3c 3417 89bc 3e19 3f3c
00000150: 0bb4 d3bb 5088 a73b 1220 ee3a 7d9e 28bb
00000160: 805b 753c 7cd3 893a f5e2 92bc 2123 963c
00000170: 72e0 2dbc e49b fcbc 9eea e3bc dc2c 333c
00000180: 244f 30bc d7be 87bc efe6 25bd a1b0 fabc
00000190: 16a3 e8bc 51c7 14bd 0bbd 2ebc c1aa d8bc
000001a0: 32f8 cbbc d72e 62bb b77c 49bc 9d6b bc3b
000001b0: e1e7 07bc d8a7 60bc 1db1 3cbd d00d 5d3c
000001c0: eb3a 3bbd 838a 2abc 89ff 65bb 12e9 06bc
000001d0: e8dc 22bc c4b4 94bc e764 3abc f405 c3bc
000001e0: 5f92 08bc 3b45 3f3c 9e08 77bd 1d4e 0ebc
000001f0: bf15 c4bc 30c4 a93c d726 25bd 2dfe 30bc
-0.022836775 -0.0037986012 -0.042372525 -0.06001933 -0.005957636 -0.04785623 -0.011301826 0.005789324
-0.071279556 -0.016050784 -0.034149453 0.0069616917 -0.03823192 -0.014087718 -0.01088951 -0.0010245342
0.0028234122 -0.02926289 0.002551713 0.010066851 0.0023215346 -0.07486051 0.010767781 -0.004117142
-0.00016574527 0.029962879 -0.00079058425 0.019626675 0.00798792 -0.010487748 0.0058675106 0.01748719
0.012705191 -0.019838855 -0.047316257 -0.0010971475 -0.020117553 -0.016922548 0.032799788 -0.021890331
0.0076526757 -0.008583259 0.004290992 -0.021178298 0.0093651675 -0.014767254 -0.0026352697 -0.012685499
-0.0054791435 -0.0010998518 -0.018649824 0.0073743 -0.009018161 -0.016247313 -0.03527079 -0.016479665
-0.021848425 -0.03460296 0.01907519 0.017689522 -0.02543699 -0.017947389 -0.03250403 -0.018381232
0.0046015116 -0.021365844 -0.0033151398 -0.0042177723 0.022465296 0.009475913 -0.039391108 0.0034071642
-0.03155337 -0.034937143 0.005160247 -0.0135194715 -0.053518932 -0.001487642 -0.02226353 -0.021671899
-0.028958797 0.008714344 -0.016734697 0.011663733 -0.006460672 0.0051126853 0.0018167517 -0.0025729232
0.014975429 0.0010515298 -0.017930487 0.018327298 -0.010612594 -0.030836053 -0.027821835 0.010935988
-0.010761056 -0.016570492 -0.04050344 -0.030601801 -0.028398078 -0.036322895 -0.010665189 -0.02644861
-0.024898622 -0.0034512782 -0.012297801 0.005750133 -0.00829503 -0.013711892 -0.046067346 0.013492063
-0.045710485 -0.010409 -0.0035094938 -0.008234279 -0.0099403635 -0.018152602 -0.011376596 -0.02380655
-0.008335679 0.011674221 -0.060310952 -0.008685616 -0.02393615 0.020723432 -0.040320244 -0.010802788

a2c_network.actor_mlp.4.weight f4 [128, 128]
00000000: d7c6 983c c75b d0bd f086 27bd 0fba 1dbe
00000010: 2930 c1bd 498a e5bd 58f2 a8bd 2ee5 d2bd
00000020: f63b 323d f1e0 00be 6e74 f23d 9a34 423d
00000030: d389 e03a c6e7 53bd 480f be3c ef4d 233c
00000040: 952a ac3c c9e0 4c3d f2bc 243e 6c64 a8bd
00000050: f632 c3bc 9d41 ae3d 0edf 663d 44b3 673d
00000060: 969c ee3c 6ac7 d13b d135 ebbd 9e9b 403e
00000070: 09d3 213b 6bf2 bbbd 259c e33b 3867 e1bd
00000080: bdc7 2b3d f7b9 3dbd 9dbb 303e a59a fb3c
00000090: be09 e83c 9f86 a33d 5eb8 d5bd 4d42 b83d
000000a0: 450c 7fbd dfb8 cc3d b67b 5fbd 8526 ac3d
000000b0: 4fae 83bd d502 3f3a 65b7 5e3b 543d 80bd
000000c0: 3988 653d e4c7 c1bd 94a6 ab3b a8be f23d
000000d0: d195 9c3c 97ba 9fbc 3c4c b93d 9399 17bb
000000e0: 882b 9bbb b43f 50bd 0a8e 8dbd 6e22 4cbd
000000f0: 7b3c d6bd 7dcd bebb 50c1 babd e4f8 263d
00000100: 7d1e 0ebd 9e97 ab3d 0453 a2bd b646 e2bd
00000110: 46ba 9fbd 9fc2 cbbd 3e37 fe3d 52e0 a53b
00000120: 476d b33d a1ba 593d bf85 9abd 27ff 21be
00000130: 0acc 6d3d 672b e2bd d617 183d b69b 053e
00000140: add2 8f3b 75d3 76ba fd29 863d c35a 4b3c
00000150: b90d 603d 07ec 683d 0750 d4bd 9b7d 21bd
00000160: a7fb e7bd fd43 6dbd 6d45 e0bb d9a9 c9bd
00000170: 558f 883d 0a8e 1cbe 53fc 433b f3fa dc3c
00000180: 754f 5dbd a85d ee3d 87ba 373d 4228 f5bd
00000190: 845f 42bd 302e 98bd 1a41 4a3c 7c24 b13d
000001a0: d088 a2bc 066f 55bc e367 d2bd 9cf8 b8bc
000001b0: 7a03 d9bc 1a69 203b 2c5b efbd 6116 08be
000001c0: d069 e3bc 9d6f 863c 6eb7 aabd c1d1 133b
000001d0: 05ed babd 5ac0 663d db22 2c3d 1d17 183d
000001e0: 17b1 dc3c c470 8a3d 1c0c 16bd de88 2c3d
000001f0: 18a5 b4bc 7996 1ebd 6e7e 92bc 2cac e8bb
00000200: 45a4 1a3c 8aac c8bc 7dfe 4cbd 2c5e be3d
00000210: 45b6 c1bc 669a 16bd 4054 963d af51 bbbc
00000220: 9460 463d c284 aebd ad29 703d 1f3e cbbd
00000230: 77b3 a33d ec86 20bd cb05 46bd 5ac3 92bc
00000240: 5ff4 8b3c 75e6 8fbb 533b d43c af2f 82bc
00000250: b559 d6bb 8eae 3e3d c000 aebd 173a 853d
00000260: fc56 823c 811f ddbd 2a22 37bd 33cf ec3c
00000270: 6da1 b23c d209 c5bd b2b7 823d 9c3d 55bd
00000280: 06ab 2b3d 3185 8e3c 2d9b dd3d 189b 92bd
00000290: 89e7 9a3c c6b1 3abc cd1b 983c 5648 d7bc
000002a0: 729c fa3c e765 433d 2573 eabc 8c89 5dbd
000002b0: 07dc 24bd 898d 5f3d 9ffe 8d3d 0a55 a1bd
000002c0: c44e 113d 95cd 493d 26bf 81bd 72e7 fabc
000002d0: 8f51 0a3d 3125 593d 5ff4 af3d 88b1 cbbc
000002e0: 3e48 e2bc 3653 b63d 3fbd f03d f13d 1c3d
000002f0: 933a 7b3d de05 8b3c 3627 733d c3a1 053d
00000300: 5e65 06bd 2e92 6f3d f870 a43d e2af b13d
00000310: 9f5a 1ebd 6c69 1dbd 014e 493d c56a e93c
00000320: 91a7 973d ff3d a9bd 803c 043d c66c 113e
00000330: 0417 fe3c e64b c83d 9ebb 16bd 26a3 b13d
00000340: 5bf7 89bd c765 fcbb ae6c 35bd 6f49 96bd
00000350: 8a53 333c 940e 073d 42d0 343b 81c0 ddbd
00000360: ab19 453d 6729 2cbd 5fb8 fa3d 2776 923c
00000370: cdbb e1bb df68 473d f4ff 62bd 9c0c 69bb
00000380: 6b75 3f3d 3076 9abd 16fb d9bc 9462 233e
00000390: 41f1 b7bd d2d3 dfbc d0c2 943d 0fa8 a7bd
000003a0: 0eb1 b4bc 085a 9e3d 0ba9 703d e8b9 d4bc
000003b0: b7dc 9cbd 361a c3bd 7965 c53d ce91 93bd
000003c0: 6562 bf3d 7c32 3c3d ffcb 303d 115d 2b3d
000003d0: afee 113e b606 233d 5a85 15bd 29d0 4bbd
000003e0: 339a 8abc 86a9 cb3c 0c4d c5bd f9a4 883d
000003f0: d679 8ebd ccce b6bd a5a8 523d 097d 4dbd
0.018649502 -0.10173755 -0.04090017 -0.15403007 -0.09433014 -0.112080164 -0.082493484 -0.10297619
0.043514214 -0.12585808 0.118386135 0.047413446 0.0017130919 -0.05173471 0.023200646 0.009967311
0.021016398 0.05001906 0.16087702 -0.08222279 -0.023828011 0.085086085 0.056365065 0.056567445
0.0291274 0.006401946 -0.11484874 0.18809363 0.0024692437 -0.09177097 0.006946104 -0.110060155
0.041938532 -0.046319928 0.17259069 0.030713389 0.028324958 0.07984661 -0.10435556 0.08997021
-0.06226756 0.09996199 -0.05456134 0.084057845 -0.06429731 0.0007286494 0.0033983823 -0.062616974
0.056038115 -0.09461954 0.0052383635 0.11852771 0.019114407 -0.019498153 0.09047744 -0.002313231
-0.004735414 -0.050842002 -0.069118574 -0.049837522 -0.104607545 -0.005822836 -0.09118903 0.040764704
-0.034697045 0.08378528 -0.0792599 -0.11048643 -0.07799201 -0.099492304 0.1241288 0.0050621415
0.087610774 0.0531565 -0.07545041 -0.15819989 0.058055915 -0.110434346 0.037132107 0.1304768
0.004389128 -0.0009415665 0.065509774 0.012411776 0.054700587 0.05686572 -0.103668265 -0.039426427
-0.11327296 -0.057926167 -0.0068442137 -0.09846849 0.066679634 -0.15288559 0.0029905036 0.02697513
-0.054030854 0.11638957 0.04485562 -0.11970569 -0.047454372 -0.074306846 0.012344623 0.08649537
-0.019840628 -0.013026958 -0.10273721 -0.022579484 -0.026490916 0.0024476708 -0.116873115 -0.13289787
-0.027760416 0.016410643 -0.08335768 0.0022555443 -0.09127239 0.056335784 0.04202543 0.037131418
0.026939912 0.067597896 -0.036632642 0.042122714 -0.02205138 -0.03871772 -0.017882552 -0.0071006026
0.009438579 -0.024496336 -0.050047386 0.092953056 -0.023646483 -0.03676834 0.07340288 -0.022866098
0.048431948 -0.08521415 0.058633495 -0.09923958 0.079932146 -0.03919117 -0.04834537 -0.017915417
0.017084299 -0.0043914863 0.025907194 -0.015891878 -0.0065414556 0.046553187 -0.08496237 0.065052204
0.015910618 -0.107970245 -0.044710316 0.028907394 0.02180549 -0.09621014 0.06382693 -0.05206071
0.041911148 0.017397495 0.10820613 -0.07158488 0.018909233 -0.011394924 0.018567944 -0.02627961
0.030592177 0.047704604 -0.028619358 -0.054086253 -0.040248897 0.054578338 0.06933331 -0.07877548
0.035475507 0.049268324 -0.06335287 -0.03062794 0.033769187 0.053013984 0.08591532 -0.024864927
-0.027622338 0.0890259 0.11754846 0.03814501 0.061335158 0.016970571 0.059363566 0.03262497
-0.032811515 0.058489017 0.080293596 0.08676125 -0.03866064 -0.038430616 0.049146656 0.028493294
0.07405008 -0.08263778 0.03228426 0.1420165 0.031016834 0.097801015 -0.03680002 0.08673696
-0.067366324 -0.0077025625 -0.0442931 -0.07338225 0.01094521 0.032972887 0.0027589952 -0.10827733
0.048120182 -0.04203167 0.12242197 0.017878605 -0.0068888427 0.048683997 -0.055419877 -0.0035560494
0.046742838 -0.07542074 -0.026608985 0.15955573 -0.089815624 -0.027322683 0.0726372 -0.081863515
-0.022057083 0.07732016 0.058754962 -0.025967553 -0.076592855 -0.09526484 0.09638495 -0.072055444
0.09344939 0.045946583 0.043163296 0.041836802 0.14251207 0.039801322 -0.036504127 -0.049759064
-0.016919231 0.024861109 -0.09633836 0.06672091 -0.06956832 -0.08926162 0.051430363 -0.05016807

a2c_network.actor_mlp.4.bias f4 [128]
00000000: a5bb 3dbd 2732 59bd 3b4a 343d e175 933c
00000010: 4b8a 51bd b4e8 96bd e51c 89bc d1c9 66bc
00000020: af6a f83b fb3e 12bd 9215 c6bd 3937 4ebc
00000030: aaed 2ebc 3058 bc3b 9850 67bd 70eb 35bd
00000040: 633d f63c 5fb0 30bb 9e78 8ebb 090f 8d3c
00000050: 40d8 49bd e508 9bbd 4c4b 5c3c 8809 99bd
00000060: b4a8 9ebd 24bf a5bb 4aba f0bc 5072 34bd
00000070: 59fe 3b3c 2791 9cbd 2cc4 593d d6b3 2ebc
00000080: 784b bb3c 1796 653b 3ae4 74bc 640c 37bd
00000090: 5dbf c4bc 56cc 2bb9 cf62 26bd a765 a7ba
000000a0: 5422 21bd 0e3d 76bd bf0e 89bb 1145 843d
000000b0: b1b2 63bd 65c6 30bd 0ed6 2dbd 162d b2bc
000000c0: 0a05 16bc ca31 9abc e9a1 71bd ef87 6abc
000000d0: 682a 61bc c47f 1f3d bab4 393c 3223 823d
000000e0: c2d0 a9bc c257 7f3c 0353 b93c 0015 243d
000000f0: 00a2 553c dd79 4d3d 7ef6 92bd b7b3 66bc
00000100: 1526 5f3c d9e0 6c3d aa1b 1bbc 7ab7 953a
00000110: fe57 78bd 2886 a8bb f11e 4dbd d497 a43d
00000120: 5fa5 2fbd b287 213d cf9a d1bb a357 dfbc
00000130: d1ab 19bc 9093 723b a559 99bc e6fd 22bc
00000140: 3754 08bc 4903 39bd 665d 93bc f7e2 f2bc
00000150: e0bd 843c 6905 3fbc 31fc 84bd ef8f f6bd
00000160: 29cd df3a ad65 b5bc b62e 40bd 331c 5dbd
00000170: 6404 233d b6be 69bc 6c56 983b bd26 d9bc
00000180: 4538 dbbc 5e9b b8bb e076 95bd 38bd 0cbd
00000190: 2989 ac3b 4002 26bd 3d41 76bd d6cc eb3c
000001a0: 80c7 abbd ccb9 ecbc ce02 1e3c 55e4 0cbd
000001b0: b6e0 f5bc 076b 1dbd a6a7 d53c 73e6 733c
000001c0: 8076 683d 9c12 9bbd c1c3 f1bc 31e2 61bd
000001d0: bedd 38bd e1e2 ccbc 684e 2ebd c3fd aebb
000001e0: 3662 723c 66ea 473c 2c0c ba3c c7e4 60bd
000001f0: f26c 083d 405d 92bb f8cf 3f3c 9292 1fbd
-0.04632153 -0.053026345 0.044016104 0.018000545 -0.051157277 -0.07368603 -0.01673741 -0.014086203
0.007581077 -0.035704594 -0.09672083 -0.012586408 -0.010676781 0.0057478175 -0.056473345 -0.044413984
0.030058568 -0.0026960594 -0.004347875 0.017219083 -0.049278498 -0.07570056 0.013445687 -0.07472521
-0.07747021 -0.005058186 -0.029385705 -0.04405433 0.011474215 -0.07644873 0.0531656 -0.010662993
0.022863135 0.0035032087 -0.014946992 -0.04468955 -0.02401703 -0.00016383952 -0.040621575 -0.0012771384
-0.03933938 -0.06011682 -0.004182666 0.06458486 -0.055590335 -0.043157954 -0.042440467 -0.021750014
-0.009156475 -0.01882257 -0.0589923 -0.014314636 -0.013743021 0.038940206 0.0113345925 0.06354369
-0.020729426 0.015584888 0.02262259 0.04005909 0.013039112 0.050165046 -0.07175921 -0.014080933
0.013619919 0.05783162 -0.009467045 0.0011422478 -0.06063079 -0.005142946 -0.050078336 0.080367714
-0.04288232 0.03943605 -0.0063966285 -0.027263468 -0.009379343 0.0037014224 -0.018719504 -0.009948229
-0.00832086 -0.04516915 -0.017988872 -0.02964924 0.01620382 -0.011659005 -0.06493414 -0.12039172
0.0017074692 -0.02214321 -0.046919547 -0.05398197 0.03979911 -0.01426666 0.004648974 -0.02650773
-0.02676023 -0.0056337556 -0.07298064 -0.03436014 0.005265374 -0.04052949 -0.06012081 0.028784197
-0.08387661 -0.028897189 0.009644223 -0.034397442 -0.030014377 -0.038432147 0.026080918 0.014886486
0.056753635 -0.07571909 -0.029512288 -0.055147354 -0.045133345 -0.025010528 -0.042555243 -0.0053403093
0.014793923 0.012201881 0.022710882 -0.05490568 0.033307023 -0.0044666827 0.011707298 -0.03895814

a2c_network.value.weight f4 [1, 128]
00000000: 45d4 b53c 8d80 aabd 56d6 58bc 82df 88bd
00000010: 8898 09bd 3109 e13a d2e3 88bd c2b0 ddbb
00000020: fce9 6dbd 1e8d fa3c dc53 74bc 624b 72bc
00000030: af43 d13c a256 293d 1709 5cbc 9eb8 573d
00000040: 5fae e13d 1f1a 563d 89d3 c33b 4cce b43d
00000050: 6669 93bd f45b 4dbd 3eaf 513c effd 01bd
00000060: f003 6f3c c590 99bd 5e61 4abd a1f0 85bd
00000070: 3638 42be 9e83 043b 6003 9c3c fae4 f9bc
00000080: c249 883c cfe3 8c3d 6036 41bd 9e80 843c
00000090: 7e60 cb3d 6204 813d db0b 75bd ce7d bf3d
000000a0: ec4d b13c 96a6 95bc 4f60 a73d bfae fa3c
000000b0: 0a04 093c ec4f 3abd 4ce7 d4bc 43c6 36bd
000000c0: 3b84 8fbc 2131 2c3d d4e3 2e3d 00df 1f3d
000000d0: 9d7b b13d cfbf b03d 3155 aa3d da4e 0b3d
000000e0: fcb5 48bd 5af3 9d3d 0363 13bd 4018 41b9
000000f0: 1b2e 8dbc d2c1 223c 27ba 8bba 7841 7abd
00000100: cd21 a9bd 1549 4dbc 52fa 8c3d 7fdf 08bc
00000110: 6ecb 433d 650e 30bd 2ccf d8bd 27f4 b63d
00000120: 8cf4 08bd d61b 90bc b461 f2bb 7759 eabb
00000130: 0ea0 c8bd 8af9 a53d 46c0 0c3d 286a bdbd
00000140: f333 2fbd 7987 a4bd 91b3 bb3c 7109 33bd
00000150: 5c2b b9bc c5d4 523b 4338 51bd 67dc 38bc
00000160: 9c76 733d 334a db3c 5c45 6dbc cb08 28be
00000170: 4d7c 9b3d a145 aabd 84fd 9a3d 2a0e a4bd
00000180: abae f6bd 0ac7 2cbd 498c 19bc 2654 50bd
00000190: 0d5a 0b3c 2049 e33d 7c67 64bd 6946 5e3d
000001a0: 615d 4fbd 9e49 943c ceec 873d 36bf 97bd
000001b0: 1153 5bbd f9fb 9abd bc66 dabc 79e0 c93d
000001c0: 3a87 643d 1a7e dbbb 1a14 b1bd e4e9 1fbd
000001d0: 6b6a a63c 3ea0 fdbc 6d49 a9bc e939 d3bd
000001e0: fdf4 a53d cd04 34bd e9ea d93d e44a c2bc
000001f0: 343a e53d 6c5d 8b3d a6cb b4bc 5a81 773d
0.022195945 -0.083253 -0.013234695 -0.06683256 -0.03359273 0.0017168877 -0.06684078 -0.006765456
-0.058084473 0.030584868 -0.014912572 -0.0147884805 0.02554497 0.041342385 -0.013429902 0.0526663
0.11019587 0.052271005 0.0059761447 0.088284105 -0.071978375 -0.05013652 0.012798129 -0.03173631
0.014588341 -0.07498316 -0.049409263 -0.06540037 -0.18966755 0.0020220052 0.019044578 -0.030504692
0.016636733 0.068793885 -0.047170997 0.01617461 0.09930514 0.06299664 -0.05982576 0.09350167
0.021643601 -0.01826791 0.08172666 0.030600904 0.008362779 -0.045486376 -0.025989197 -0.04462267
-0.017519107 0.04203904 0.042697743 0.03903103 0.086661555 0.086303346 0.0831703 0.034010746
-0.04900168 0.07712431 -0.035983097 -0.00018414948 -0.017233899 0.009933906 -0.0010660336 -0.061097592
-0.082584 -0.012529631 0.06883682 -0.008354067 0.047801428 -0.042982478 -0.1058639 0.08933287
-0.033436343 -0.017591398 -0.007396901 -0.0071517783 -0.09796153 0.081042364 0.034363054 -0.09248763
-0.042774152 -0.08033652 0.022912772 -0.043710176 -0.022603683 0.0032170278 -0.051079046 -0.011283017
0.059439287 0.02676878 -0.014481869 -0.16409604 0.07592068 -0.08314062 0.075678855 -0.08010514
-0.12045034 -0.042182006 -0.0093718255 -0.0508615 0.0085053565 0.11097932 -0.055762753 0.054266367
-0.050626162 0.01810151 0.06636964 -0.074095175 -0.053546015 -0.07567591 -0.026660316 0.09857268
0.055793025 -0.006698382 -0.08646412 -0.039041415 0.020314416 -0.030960198 -0.020664895 -0.1031378
0.081033684 -0.04394989 0.10640509 -0.023717351 0.11192742 0.06804928 -0.022069763 0.060426094

a2c_network.mu.weight f4 [10, 128]
00000000: d888 06be d7a4 adbc e7bc cfb9 97b9 c73d
00000010: 580e 373d ee4c 9bbd ef01 17bd 6f9c 26bd
00000020: 1416 0dbd 0bde 92bd 57bb b8bd d2b6 cfbd
00000030: c68b 88bd f8a6 c03c 89a9 0bbc 2306 cb3c
00000040: 2bfc 2e3d 39db 27bd 6887 abbc 34c0 01be
00000050: b2b3 e4bd 158f 1c3d ee3f 4abc a0f8 6cbc
00000060: bc66 af3d 65e6 df3c 72ef 94bd d523 bd3d
00000070: 0d5e c73b 1aef 66bd a198 e13c 32dc 94bc
00000080: 06ac 74bd c9d6 09bd 291e c03b 6ee8 89bd
00000090: ec3b 55bb 4fa5 893d ed59 993d 8413 3bbd
000000a0: f109 8bbb a6de 28bd aa88 c8bc 2b85 cfbc
000000b0: 1dca 203d 30cc 4abc 0977 cf3c 2880 08bd
000000c0: 3eec 3f3d 19ad d0bc 321d e1bd 530b afbd
000000d0: 92a6 c9bd 1707 a93d 528a bbbd af8e aebc
000000e0: 5233 343d c957 0a3d 9f9d 89bd 3925 df3d
000000f0: cbd0 a6bb 56aa 413d 7f1d 26bd 31ea 013e
00000100: e29c 753d 3cf2 233d a9f7 c73b 6626 a0bd
00000110: 69bf b1bd 646b 043e c9c6 72bd 8faa d53d
00000120: da30 a23a a983 b93d 969a 05be 1cdf 113d
00000130: edef 97bd fb56 56bc 6e3c 93bc 3db0 14bd
00000140: 3a94 14bc 4d1e a03d 7e78 d93b 8cbe c2bb
00000150: e8fa f23c 5380 32bd c53c d1bd 6efa 8ebd
00000160: cbbd d2bd 53ef 11bc f465 1a3d 9082 88bb
00000170: d79f 033c 1c67 de3c 6161 133d caf8 cf3d
00000180: a185 f73b b755 39be 8b53 93bd bc16 39bd
00000190: 8db4 2f3d d2ef c8bc 9e4a dcbd d28f 843d
000001a0: 2038 c5bd 9af2 983d a59e ddbd 9e8d 7c3c
000001b0: cf1d 143e 401f ef3c 9090 013c 000f 863d
000001c0: 68e1 2cbd e5da ae3d 0b52 24bd 9914 273c
000001d0: 318f 373d 01b9 2c3d b678 093c 08ba aebd
000001e0: b657 5b3d 0422 b9bd 08e5 003c 32dd 4e3d
000001f0: f20c b23d 9242 f03b dbf1 5e3d 7a3b 1ebd
00000200: d21b 8abd 4e39 90bb c7d4 41bd 7ba8 06bd
00000210: 5bd2 8fbd 8691 eb3b 4df5 903c c955 2a3d
00000220: 583c c03c c46f afbc 7ca8 a6bd c8f4 343c
00000230: 6a09 733c 7174 a43d 2377 92bd 690f 52bc
00000240: 1f56 b93b 2040 14bd 72ba 0dbe 9d97 adbd
00000250: 9723 51bc 55e7 81bd 2d6c 5b3d 1e86 1dbd
00000260: 0a9a 953c 0b15 7bbd 7948 993c d867 9b3d
00000270: d234 713d 7a48 0cbd f410 99bc 0047 d23d
00000280: cb19 babb d070 25bd 5a20 9c3d b6ee b23d
00000290: df69 89bd c908 663d ea63 4a3d ef1d c0bd
000002a0: 1123 07be 1b75 043e e7f5 693d 8744 dabc
000002b0: 7b40 be3d 59bf 26bd 5c23 5e3d 92e8 6bbd
000002c0: 67f8 903c a5fd 683d f8a3 93bd 2134 a1bc
000002d0: c59a c93c dbe2 a9bc 5784 d33c 92ba 6c3b
000002e0: f674 c83d 3ee3 febd ddd3 3c3d bc1f c03d
000002f0: 3a57 0dba 35f2 ecbc a0c2 0dbd 1537 4e3d
00000300: 43dd ed3d 50df 573d 9631 26bd 8309 c3ba
00000310: 7c23 16bd c4db cb3d b007 593d c1b7 453d
00000320: 6fb6 c63c 29ea 9fbc dd45 2ebd 995e bc3d
00000330: 1188 6b3d bd93 d53d 9fc3 e8bd 9713 503d
00000340: 65dc e43d bc51 013e 4c0b 823d 9429 08be
00000350: d807 07be 69d5 b2bc e4c9 7fbd 973e f2bd
00000360: 961f 46bd 36ba c83d 768a daba be7b 2a3d
00000370: f7b5 ca3b b9b5 103d 162e 3f3c ffb2 153d
00000380: de0e 043d faeb 06bd 03c7 833c 105e 08be
00000390: 62d1 babb 1dc4 87bc f826 b2bd 1c8d 063c
000003a0: fe5d 5e3d ea60 8dbd 98eb e53c 5de9 31bd
000003b0: 034c 51bc 827f bb3c 2e1b a13d ed63 8fbb
000003c0: babd 473c efbe 513c 1250 f33b 1685 eebd
000003d0: 8704 24bd 1542 f13c 9574 ae3a 4751 923d
000003e0: e213 093d 5d81 e9bc 62ed 833d ff05 84bd
000003f0: f9ae 373d 8c03 6cbd e31e d9bd 4ada be3c
-0.13138139 -0.021196766 -0.0003962286 0.09752195 0.044691414 -0.075830325 -0.03686708 -0.04067653
-0.034444883 -0.071712576 -0.09020107 -0.10142292 -0.06667285 0.023517117 -0.008524307 0.0247832
0.042720955 -0.04098055 -0.02093859 -0.12670976 -0.11167087 0.03822239 -0.012344344 -0.014463574
0.08564517 0.02733154 -0.07272233 0.0923535 0.00608421 -0.05638037 0.0275386 -0.018171404
-0.059734367 -0.0336521 0.0058629704 -0.067337856 -0.0032536937 0.06720983 0.07487855 -0.04567291
-0.0042431285 -0.04122796 -0.024479229 -0.025332054 0.03925525 -0.012377784 0.025325315 -0.033325344
0.046856157 -0.025473164 -0.10991897 -0.08547082 -0.09846224 0.082533054 -0.09157242 -0.021308271
0.043994255 0.033775125 -0.06719517 0.108957715 -0.005090808 0.047281586 -0.040555473 0.12686993
0.05996407 0.040025935 0.0061025214 -0.07819824 -0.08679087 0.12931591 -0.059271608 0.10432922
0.0012374178 0.09058315 -0.13047251 0.035613164 -0.07418809 -0.013082261 -0.017973151 -0.036300886
-0.009068543 0.078182794 0.0066366782 -0.005943125 0.029660657 -0.04357941 -0.10216669 -0.069813594
-0.102901064 -0.008907157 0.037694886 -0.004165955 0.008033714 0.027148776 0.03598154 0.101548746
0.0075537716 -0.18099104 -0.07193669 -0.045187697 0.042896796 -0.024528418 -0.107564196 0.06472744
-0.096298456 0.074681476 -0.10821275 0.015414624 0.14464496 0.029189706 0.007908002 0.0654583
-0.04220715 0.085378446 -0.040117305 0.010197782 0.044814292 0.04216862 0.008390596 -0.085315764
0.053550445 -0.09039691 0.007867105 0.050503917 0.08693875 0.0073321545 0.05442987 -0.03863094
-0.067435876 -0.0044013625 -0.04732206 -0.03287552 -0.07022544 0.0071889786 0.017695094 0.041585717
0.023466274 -0.021415599 -0.081376046 0.0110446885 0.014833787 0.08030022 -0.0715163 -0.012821057
0.0056560184 -0.036193967 -0.13840654 -0.084761836 -0.012764833 -0.06342951 0.05356996 -0.038457982
0.018261928 -0.061299365 0.018711315 0.07588166 0.058888264 -0.034248807 -0.018684842 0.102674484
-0.0056793443 -0.04039079 0.07623358 0.08736937 -0.067096464 0.056160722 0.04941169 -0.093807094
-0.1319697 0.12935297 0.057119276 -0.026644005 0.092896424 -0.040709827 0.05423294 -0.057594843
0.017696572 0.05688252 -0.07209009 -0.019678177 0.024609933 -0.020738056 0.02581994 0.0036121947
0.097879335 -0.12445687 0.046100486 0.09381053 -0.0005391721 -0.028924087 -0.034609437 0.0503455
0.11614468 0.0527032 -0.040574633 -0.0014880154 -0.036654934 0.09954026 0.052985847 0.048270945
0.024256913 -0.019520836 -0.042547096 0.091977306 0.05750281 0.104285695 -0.11365437 0.050799932
0.111748494 0.12628835 0.06349811 -0.13297111 -0.13186586 -0.021830278 -0.062448397 -0.11828344
-0.048369966 0.09801142 -0.0016673345 0.041621916 0.0061862427 0.035329554 0.011668703 0.036547657
0.03224074 -0.03293989 0.016086107 -0.13317132 -0.00570123 -0.016573006 -0.08698839 0.008212354
0.054288857 -0.069032505 0.028066441 -0.043435443 -0.01277447 0.022887949 0.07866512 -0.0043759258
0.01219123 0.01280187 0.0074253166 -0.11646478 -0.04004338 0.029450456 0.0013309891 0.07144409
0.033466227 -0.028504068 0.064417616 -0.06446456 0.0448446 -0.05762057 -0.10601594 0.023297448

a2c_network.mu.bias f4 [10]
00000000: 3a91 a23d b304 a83d bb5c 4abc 29ec 15bd
00000010: 5a7f 89bd 9a8a eebd 4ecc 20bd 6abe 3cbd
00000020: 34d6 3f3c aacf f73d
0.07937856 0.08204021 -0.01235121 -0.036602173 -0.067137435 -0.1164753 -0.03925734 -0.04608003
0.011708785 0.12100156

exp_avg f4 [10]
00000000: cb76 8d39 1be0 e93a b58f a5b7 085f dbb7
00000010: 3091 ff3a 8265 f1b9 9343 113b 9d9d 153b
00000020: 2ee9 5b39 b19b 3bba
0.00026982123 0.0017843278 -1.9736452e-05 -2.6151087e-05 0.0019498225 -0.0004604273 0.0022165522 0.002282954
0.00020972334 -0.0007156684

exp_avg_sq f4 [10]
00000000: 7812 8c38 9f26 8838 ecbe 8838 22d3 8138
00000010: d817 8538 3d39 9538 95b6 8738 23fc 0c39
00000020: 39d6 8138 2d6e 6638
6.67916e-05 6.492179e-05 6.520547e-05 6.190526e-05 6.3463754e-05 7.115535e-05 6.47131e-05 0.00013445369
6.1911014e-05 5.4938882e-05

exp_avg f4 [256, 42]
00000000: d100 37b9 20dc 8238 ee0d d4b9 15c8 f8b7
00000010: 9e87 a438 dcc6 3cb5 9f43 3539 6a90 79b9
00000020: ce57 8239 57c8 e739 a0d5 57b9 f13e 18b9
00000030: 625c bab9 3447 18b6 67cb 0d3a e3f5 8939
00000040: b73e ba39 7eea be39 7a55 8539 2b45 94b9
00000050: 06b8 8239 e531 82b9 19d8 08b7 d215 4638
00000060: d69f d3b8 51ac a4b7 5a68 06b8 eba5 0fb8
00000070: f312 f038 d21b dbb7 ef37 c237 f7a0 c5b7
00000080: 2d9e 9f39 e502 0b38 17c1 9bb9 76ad d0b9
00000090: 7392 76b8 987d a538 aaba cd39 4117 a938
000000a0: fffe 1339 271b 8139 d33f 3eb7 58fd 30b8
000000b0: 20be 1c39 d285 7bb8 302c 22b8 2425 13b8
000000c0: 8d07 2fb7 1d54 a3b8 7489 acb8 f099 9a38
000000d0: 5572 5eb7 70d0 1338 c2ba bd38 0cff a7b7
000000e0: d0e3 90b7 b247 edb6 28fe 04b8 9719 9038
000000f0: 16f3 09b9 0321 f138 63c4 b4b8 6fb8 dc38
00000100: 3462 87b8 5eba aeb6 8871 1139 16f4 3037
00000110: a791 d437 77d9 8db7 a081 01b8 ea1d a036
00000120: d8f2 b835 ebf0 6737 6c18 adb9 adc8 1439
00000130: 007a ca39 3cf3 d239 a572 0d39 e429 c1b6
00000140: 1314 1839 5903 7eb9 96f3 8ab8 ffed fbb8
00000150: cb8c 32b9 a3fa bfb8 71f9 fdb8 29d5 8fb8
00000160: c39f 1439 ee46 beb8 3f77 2039 3ddf a9b9
00000170: 005a 2239 c460 fe39 a45a 38b9 33a7 17b8
00000180: cb15 52b9 ae50 c9b8 0155 1a3a 5acb 4439
00000190: 4096 9d39 ffbd d139 5007 7cb8 8c0e 82b7
000001a0: bf5b 2138 0079 cbb8 3f7f 36b9 7a4e cab7
000001b0: 4f08 2739 2c8f 4a37 b3d5 c438 dc7c e3b7
000001c0: 21a0 2939 d69c afb7 fb93 74b8 7f42 78b7
000001d0: 8a58 00ba a2bc 86b9 704c bb39 be76 c63a
000001e0: 6eb3 273a 091b a139 3894 663a 6aeb f2b9
000001f0: f9f1 30b9 d6d8 6bb9 b32a 103a a96b 9b38
00000200: 8faf 2839 f964 0839 1313 9337 63f9 ddb7
00000210: eade 1d37 d452 283a d251 a1b9 a35f c3ba
00000220: afa7 353a 3e8d e739 9628 de39 b7b0 7a39
00000230: 27f7 13ba 6adb 35ba 2b0e 2dba 0730 78ba
00000240: 6156 4939 283c ee39 1637 9039 786b 7539
00000250: 8050 0839 a01d 95b8 84b3 d6b8 6838 2b38
00000260: b0a0 f537 ca33 02b8 2612 dab6 7fd3 9738
00000270: 90aa 0cb9 e194 afb8 ebdb 50b8 cbe9 6eba
00000280: c275 f1b9 324b 5838 2d17 b439 3ef1 0bba
00000290: 4a81 cfb8 226d 4b3a f99c bdb9 c5ab aab8
000002a0: b743 9cb9 3fe8 1cba 9b15 963a 9800 eeb8
000002b0: 1f10 d3b8 ff54 e6b8 add1 d1b9 7e6d b2b9
000002c0: 684d 86b9 d8ee 7c3a 9dec c1b9 c237 b6b8
000002d0: d858 dc39 83ed e5b9 13df 02ba cfd8 0639
000002e0: 9183 39b9 4183 c439 3733 c4ba 31f3 c439
000002f0: 0ef2 8aba a328 c639 ab92 9eb9 1db0 04b9
00000300: d23e 2d3a e372 5637 fee6 e838 b80e 3039
00000310: eeb5 33b9 eeaa 07b8 4bb9 32b9 5f7f 5a39
00000320: bde4 01bb 223b 3f3a 99a2 053b 9a6d 823b
00000330: bafe 053a 0e3f 853a 28ec 8137 a17c eeba
00000340: 2b73 cfb9 25bc d5ba 0fe8 36b9 9917 f6b9
00000350: 6189 433a 15af 4eb9 df28 28b8 b6e0 ccb8
00000360: e42a 88b8 7ccb 14ba b87b adb8 3401 503a
00000370: 8e9c 3db9 70c0 2239 a64a 2b39 0a7e b9b9
00000380: c8d5 a139 5440 0139 a895 5d39 aa79 2c3a
00000390: f9a8 57ba 82c8 fd39 63b9 1bba 9d11 5d39
000003a0: 0744 a7b9 978c 6fb8 b359 233a 8d54 a2b7
000003b0: 22af eb38 5761 2138 0229 9eb8 5f49 63b8
000003c0: 80e3 8bb7 0a96 ff38 ed49 d6ba 0b01 2b3a
000003d0: ed08 ef3a 015e 803b 5866 203a 2e07 383a
000003e0: 3cca 3e3a c7f0 ebba 0e1f 6d38 26d2 83ba
000003f0: 58ab 8fb9 7bd4 1538 8206 0039 ad92 f8b7
-0.00017452544 6.2398845e-05 -0.0004044617 -2.9657074e-05 7.84539e-05 -7.0324836e-07 0.00017286696 -0.00023800289
0.00024860952 0.00044209018 -0.0002058358 -0.00014519297 -0.00035545515 -2.269121e-06 0.00054090325 0.00026313876
0.0003552341 0.00036414334 0.00025431422 -0.00028280294 0.0002493264 -0.00024832707 -8.156546e-06 4.72272e-05
-0.00010091036 -1.9630565e-05 -3.2045275e-05 -3.424838e-05 0.000114476214 -2.611979e-05 2.3152648e-05 -2.3559185e-05
0.00030444693 3.314288e-05 -0.00029707767 -0.0003980209 -5.8787362e-05 7.891207e-05 0.00039239723 8.062879e-05
0.00014114006 0.00024625027 -1.1339743e-05 -4.2197615e-05 0.00014948146 -5.9967693e-05 -3.8664963e-05 -3.508212e-05
-1.0432571e-05 -7.788113e-05 -8.227202e-05 7.371965e-05 -1.3258851e-05 3.5241654e-05 9.047009e-05 -2.0026717e-05
-1.7272221e-05 -7.071497e-06 -3.1707954e-05 6.8712216e-05 -0.00013155895 0.000114979244 -8.619649e-05 0.00010524771
-6.4555934e-05 -5.2073e-06 0.00013870571 1.0547248e-05 2.5340194e-05 -1.6909775e-05 -3.087672e-05 4.771854e-06
1.3779745e-06 1.3824766e-05 -0.00033015327 0.00014189137 0.0003861934 0.00040235545 0.00013489516 -5.756725e-06
0.00014503328 -0.00024224575 -6.625724e-05 -0.00012012943 -0.00017027852 -9.1542744e-05 -0.00012110442 -6.8584755e-05
0.00014173896 -9.073118e-05 0.00015303212 -0.00032400517 0.00015483052 0.0004851875 -0.00017581374 -3.6156922e-05
-0.00020035279 -9.599455e-05 0.00058873004 0.00018767771 0.00030057319 0.00040005145 -6.0088292e-05 -1.5503982e-05
3.8470836e-05 -9.702332e-05 -0.00017404275 -2.411682e-05 0.00015929456 1.2073473e-05 9.385813e-05 -2.711865e-05
0.00016176749 -2.0934658e-05 -5.831195e-05 -1.4797434e-05 -0.0004896006 -0.00025699014 0.0003572437 0.0015141589
0.00063972815 0.00030728456 0.000879589 -0.00046333234 -0.0001687481 -0.00022492124 0.0005499527 7.411029e-05
0.00016087129 0.00013007586 1.7532648e-05 -2.6461383e-05 9.40983e-06 0.0006421034 -0.00030769274 -0.0014905821
0.0006929589 0.00044164987 0.00042373379 0.0002390769 -0.00056444335 -0.00069372973 -0.00066015375 -0.0009467606
0.00019201032 0.00045439717 0.00027506863 0.00023405056 0.0001299996 -7.110392e-05 -0.000102377526 4.082211e-05
2.9281102e-05 -3.1042648e-05 -6.499019e-06 7.239635e-05 -0.0001341498 -8.372381e-05 -4.979588e-05 -0.00091138174
-0.00046054838 5.1568444e-05 0.00034349543 -0.0005338377 -9.894611e-05 0.00077600975 -0.00036165843 -8.138226e-05
-0.0002980509 -0.0005985535 0.0011450531 -0.00011348835 -0.00010064267 -0.000109830864 -0.00040019807 -0.00034032384
-0.00025616144 0.00096486276 -0.0003698812 -8.688822e-05 0.00042027864 -0.00043855244 -0.0004992347 0.00012860003
-0.00017691987 0.00037481825 -0.0014968876 0.00037565225 -0.0010600702 0.0003779578 -0.00030245385 -0.00012654108
0.0006608787 1.2782143e-05 0.00011105648 0.00016790151 -0.00017138544 -3.23457e-05 -0.0001704443 0.0002083755
-0.0019820177 0.0007294883 0.0020391105 0.0039803507 0.00051115046 0.0010165886 1.5487967e-05 -0.0018195101
-0.00039567924 -0.0016306682 -0.00017443321 -0.00046938358 0.0007459131 -0.00019710914 -4.0092385e-05 -9.769334e-05
-6.492974e-05 -0.00056760735 -8.272327e-05 0.00079347496 -0.00018082766 0.00015521212 0.0001633564 -0.00035379856
0.00030867592 0.00012326363 0.00021131954 0.00065794087 -0.0008226778 0.0004840531 -0.00059404055 0.00021082764
-0.00031903406 -5.7112975e-05 0.0006231323 -1.9351277e-05 0.00011238294 3.8476046e-05 -7.5416654e-05 -5.418935e-05
-1.667603e-05 0.000121872945 -0.0016348936 0.0006523288 0.0018236913 0.003917456 0.0006118766 0.0007020113
0.000727806 -0.0018000834 5.6534125e-05 -0.0010057136 -0.00027402746 3.5722256e-05 0.00012209456 -2.9632205e-05
