logs/rl_games/humanoid_flat_direct/two_steps_success/nn/last_humanoid_flat_direct_ep_400_rew_286.84995.pth (torch, 759502 bytes, 33 tensors)

value_mean_std.running_mean f8 [1]
0	0x40507fc860576212	65.99660500081544

value_mean_std.running_var f8 [1]
0	0x4091b676bc757f1f	1133.6159532889212

value_mean_std.count f8 []
0	0x41a2c00002000000	157286401.0

a2c_network.sigma f4 [10]
0	0xbf98fd94	-1.1952386
1	0xbf76886f	-0.9630193
2	0xbf6244eb	-0.8838641
3	0xbf4ab168	-0.7917695
4	0xbe60273f	-0.21889971
5	0xbf9dbe4b	-1.2323698
6	0xbf794f6a	-0.973868
7	0xbff194d8	-1.8873549
8	0xbf554523	-0.8330862
9	0xbe3cb57a	-0.18428603

a2c_network.actor_mlp.0.weight f4 [256, 42]
0	0x3d8dc61c	0.06922552
1	0x3eacce4a	0.33751136
2	0x3e67d82e	0.2264106
3	0x3c419035	0.011814167
4	0x3dd74f25	0.105131425
5	0x3dc954fd	0.09830663
6	0x3dd37ea4	0.10326889
7	0xbe84f16a	-0.25965434
8	0xbe84bc4a	-0.25924903
9	0xbd8bcb5a	-0.068258956
10	0xbdf65070	-0.12027061
11	0x3e0077b4	0.12545663
12	0xbda75f29	-0.08172447
13	0xbd47e2db	-0.04880033
14	0x3d97130d	0.073766805
15	0x3c8b3a5e	0.016995605
16	0x3d2967f8	0.041358918
17	0xbe066534	-0.13124543
18	0x3d530ec4	0.051527753
19	0xbd30deee	-0.043181352
20	0x3d9ce76b	0.07661327
21	0xbd64b780	-0.05583906
22	0xbe80d466	-0.25162047
23	0xbe52e919	-0.20596732
24	0x3ea77c77	0.32712147
25	0x3dd64b9a	0.104636386
26	0xbe0cffb2	-0.13769415
27	0xbe1b97f8	-0.1519469
28	0x3e0f875f	0.14016484
29	0x3df370d5	0.118867554
30	0x3dc87658	0.09788197
31	0xbdcedcec	-0.10100731
32	0xbda96027	-0.08270293
33	0xbdef2fd0	-0.116790414
34	0xbd96f8b3	-0.07371654
35	0x3daf104e	0.08548032
36	0x3cf7c315	0.03024439
37	0x3dd1c427	0.10242491
38	0xbd5b8f01	-0.053603176
39	0xbde6945b	-0.11258765
40	0x3d99145c	0.07474586
41	0xbd80591c	-0.06266996
42	0x3ddf1c75	0.108940996
43	0xbd7ac248	-0.061220437
44	0x3e4f63f6	0.20252976
45	0xbe145444	-0.1448527
46	0xbde1c231	-0.11023367
47	0x3e988286	0.2978708
48	0x3de3118b	0.110873304
49	0x3dd3caf7	0.10341447
50	0x3d9900c6	0.07470851
51	0x3da35a83	0.07976248
52	0xbdcf9c1d	-0.10137198
53	0xbd904edb	-0.070462905
54	0x3e9a2773	0.30108222
55	0xbad23807	-0.0016038426
56	0xbd2127f9	-0.03934476
57	0xbe1abd49	-0.15111269
58	0xbd9dfcf4	-0.077142626
59	0xbd74cfc3	-0.05976845
60	0xbd38060c	-0.04492764
61	0xbe0badf8	-0.13640583
62	0x3da45ca3	0.080254816
63	0xbd866225	-0.06561688
64	0x3d2cbbfa	0.042171456
65	0x3d01c63a	0.031683184
66	0xbe3e920b	-0.18610398
67	0xbec1a868	-0.37823796
68	0x3e1ac7db	0.15115301
69	0x3d6ee088	0.0583196
70	0x3c99e467	0.018785669
71	0xbe83972f	-0.2570128
72	0xbd0f8671	-0.035040323
73	0xbcccc2e3	-0.024995273
74	0xb88b4053	-6.640018e-05
75	0xbdb9b057	-0.09066837
76	0xbd4413be	-0.04787039
77	0xbd08e437	-0.033420768
78	0xbcb3570e	-0.021892097
79	0xbd6d1cff	-0.05788898
80	0xbcedc0a3	-0.02902252
81	0xbd5bd3a4	-0.053668633
82	0xbd05cc80	-0.03266573
83	0xbd876ed4	-0.06612936
84	0xbd468d86	-0.04847481
85	0xbdca1a6c	-0.09868321
86	0x3e91a6c2	0.2844754
87	0xbcea8dc3	-0.02863205
88	0x3e4d7b02	0.20066455
89	0x3df76bcb	0.12081107
90	0xbe8120d1	-0.2522035
91	0xbc43cf29	-0.011951246
92	0xbd06c275	-0.032900292
93	0xbd6e807a	-0.058227994
94	0xbdfdcfc9	-0.123931475
95	0xbe18905b	-0.14898817
96	0xbcd379c6	-0.025814902
97	0xbe0c1f10	-0.13683724
98	0x3d8dca08	0.069233
99	0xbdd852ad	-0.10562644
100	0x3e13417e	0.14380452
101	0xbdfc87f1	-0.12330616
102	0x3bd28527	0.0064245644
103	0xbc920dc6	-0.017828833
104	0x3dc511b5	0.09622518
105	0x3e9d92b7	0.30775997
106	0x3d6227ee	0.05521386
107	0xbe68fc4b	-0.22752492
108	0x3d6f9f48	0.05850151
109	0xbd46c818	-0.048530668
110	0xbc869289	-0.016427295
111	0xbe3f1646	-0.1866084
112	0x3ddc6131	0.10760725
113	0xbe88a2fe	-0.26686853
114	0x3e00828d	0.12549801
115	0x3d29d3ad	0.041461635
116	0x3ce64ed8	0.028113768
117	0xbdb3bb82	-0.08775999
118	0x3e0816f7	0.1329001
119	0x3d29bfb3	0.041442584
120	0x3d1fa6da	0.03897748
121	0xbdd01e8a	-0.10162075
122	0x3d914ac6	0.0709434
123	0xbd035e18	-0.032072157
124	0xbdae5ea8	-0.08514148
125	0x3dff5902	0.12468149
126	0x3d2425cd	0.040075112
127	0xbe5ac16e	-0.2136285
128	0x3ddc5807	0.107589774
129	0x3d611e0f	0.054960307
130	0xbdcbf68f	-0.09959137
131	0x3d4f73f4	0.05064769
132	0xbe28bda0	-0.16478586
133	0xbd860df8	-0.06545633
134	0xbea15970	-0.31513548
135	0x3d42d815	0.047569353
136	0x3de13c48	0.10997826
137	0xbe20d43b	-0.1570596
138	0x3cff30f0	0.031151265
139	0x3d170f27	0.036879685
140	0x3d59daf3	0.053187322
141	0xbd776d6a	-0.06040708
142	0x3cdddded	0.027083362
143	0xbb964dd5	-0.004586915
144	0x3dde972c	0.108686775
145	0x3c944b76	0.018102389
146	0xbd9edb11	-0.07756627
147	0x3d2432a4	0.040087357
148	0xbe28585a	-0.16439953
149	0xbdb6101e	-0.08889793
150	0x3e3dfefc	0.185543
151	0x3d07ebcb	0.033183854
152	0xbdcbb586	-0.09946732
153	0xbe40e635	-0.18837817
154	0xbd48914d	-0.048966695
155	0x3d838d2b	0.0642341
156	0x3dbb6497	0.09150045
157	0x3da00ed9	0.07815332
158	0xbe049b99	-0.12949981
159	0x39ab63f3	0.0003269013
160	0x3dab6e86	0.0837069
161	0x3d9f1557	0.07767742
162	0xbc66cc7b	-0.014086838
163	0xbe072114	-0.13196212
164	0xbdb60b40	-0.088888645
165	0xbde795d1	-0.11307872
166	0xbc4465fb	-0.011987205
167	0x3c680fc0	0.014163911
168	0x3e011077	0.12603937
169	0x3dd9eade	0.106405005
170	0x3bbccc45	0.0057616555
171	0xbccdefee	-0.025138821
172	0x3ce1a7de	0.027545866
173	0x3e3b161a	0.1827015
174	0x3d8ea4af	0.06965005
175	0xbd3704ab	-0.044682186
176	0x3d10c5b3	0.03534479
177	0xbdb463b7	-0.088080816
178	0xbd9ffb8a	-0.07811649
179	0x3e15cd96	0.14629206
180	0x3cab00c7	0.020874394
181	0x3d9ce1c4	0.07660249
182	0xbde48dae	-0.11159836
183	0x3dd1f363	0.102515005
184	0x3dbe89fc	0.09303662
185	0x3d08fc70	0.03344387
186	0xbdaafc51	-0.08348907
187	0xbe5f3523	-0.21797614
188	0xbdcb74fc	-0.099344224
189	0x3e8a8acc	0.2705902
190	0x3e3ced12	0.1844981
191	0x3e5084fb	0.20363228
192	0x3dacc91d	0.08436797
193	0xbc1a2ee0	-0.00941059
194	0xbc97bd8c	-0.018523
195	0xbe3946b9	-0.18093385
196	0xbe5c5ca4	-0.21519715
197	0xbeae4320	-0.34035587
198	0x3dc37c67	0.09545212
199	0xbda8e2a2	-0.08246352
200	0xbc33dc9b	-0.010977889
201	0xbdb8517b	-0.08999916
202	0xbd2237cc	-0.039603993
203	0xbda5632f	-0.080755584
204	0xbdd18db3	-0.10232105
205	0x3d1239af	0.035699543
206	0xbcd4ea1b	-0.025990536
207	0x3dd35182	0.10318281
208	0xbce85196	-0.028359216
209	0xbda6a091	-0.08136094
210	0xbd379fae	-0.044830017
211	0xbd1ddc55	-0.038540203
212	0x3cbbe868	0.022937968
213	0xbe0e475b	-0.13894407
214	0x3e397cfd	0.18114085
215	0xbddbf85e	-0.10740732
216	0x3c515f19	0.012779021
217	0xbc0a0ba0	-0.008425623
218	0x3de98500	0.11402321
219	0xbdc6c471	-0.09705437
220	0x3dbaec5c	0.09127113
221	0xbda55655	-0.08073107
222	0x3dc8e59b	0.09809419
223	0x3e35faf7	0.17771517
224	0xbcafeecc	-0.021476172
225	0x3d2d3b9c	0.042293176
226	0x3cde20a3	0.027115172
227	0xbdaf62ce	-0.085637674
228	0x3dcfa8ec	0.10139641
229	0xbe8d3fce	-0.27587742
230	0x3da1ab38	0.078939855
231	0x3e8056a9	0.25066116
232	0x3e6dd51c	0.23225826
233	0xbc8629f9	-0.016377436
234	0xbda41476	-0.08011715
235	0x3cad2436	0.02113543
236	0x3d48df8c	0.049041316
237	0xbe03c91c	-0.12869686
238	0xbd65aff2	-0.056075998
239	0xbe92ef23	-0.28698072
240	0xbc8a09e8	-0.016850427
241	0xbd6a30b6	-0.05717536
242	0xbd97f7eb	-0.074203335
243	0xbdb5991d	-0.08867095
244	0xbe08bf8b	-0.13354318
245	0x3e1e6672	0.15468767
246	0x3de031c5	0.10946993
247	0x3c657596	0.014005085
248	0xbcfe8525	-0.031069348
249	0xbd99513e	-0.07486199
250	0xbe0550cd	-0.13019104
251	0xbdca8f3c	-0.09890601
252	0x3d50e17a	0.05099628
253	0xbd1d8947	-0.038460996
254	0xbbf119e9	-0.007357825
255	0x3d6797cc	0.05654125

a2c_network.actor_mlp.0.bias f4 [256]
0	0xbb24b416	-0.0025131754
1	0x3cba195c	0.02271717
2	0xbb435060	-0.0029802546
3	0x3b9e7c24	0.004836576
4	0x3cdf053a	0.027224172
5	0xbc85b6cb	-0.016322514
6	0xbbeba634	-0.007191444
7	0x3c172585	0.009225254
8	0xbbe7da74	-0.007075602
9	0x3ce6a87e	0.028156515
10	0xbbad8349	-0.0052951914
11	0xbbd98965	-0.006638693
12	0x3c7af791	0.0153178135
13	0xbcd1a387	-0.025590671
14	0x3c8bbb9b	0.01705723
15	0xbd209e2a	-0.039213337
16	0x3ca95e35	0.020674804
17	0x3c0fb972	0.008772241
18	0xba08a34c	-0.00052123214
19	0x3cbe80b4	0.02325473
20	0xbd3be539	-0.0458729
21	0xbd087742	-0.033316858
22	0x3c7a5225	0.015278374
23	0x3c067446	0.008206433
24	0xbc5da118	-0.013527177
25	0x3d1c5c2c	0.03817384
26	0x3b4d4b1d	0.0031325289
27	0x3c72b932	0.014814662
28	0x3d185b0e	0.03719621
29	0x3a863055	0.0010237793
30	0x3c9e521a	0.019326258
31	0xbc4e3c4a	-0.012587616
32	0x3cf5835f	0.02996987
33	0xbbe084aa	-0.0068517523
34	0xbc061e6a	-0.008185962
35	0xbc3976e6	-0.0113198515
36	0x3bbfad40	0.0058495104
37	0x3c0ab264	0.008465383
38	0xbb924a93	-0.0044644563
39	0x3cb799aa	0.02241214
40	0x3b95eda5	0.0045754486
41	0xbc3c89c4	-0.011507455
42	0x3c4b9e72	0.012427913
43	0xbc83fb5c	-0.016111068
44	0xbc71d59c	-0.014760401
45	0x3bd17768	0.006392408
46	0x3d33be6e	0.04388278
47	0x3d0d7216	0.03453263
48	0xbca26d0d	-0.01982739
49	0xbbd4f0aa	-0.006498416
50	0xbc4d762f	-0.012540384
51	0x3cfb47a2	0.030673806
52	0xbd00151b	-0.031270128
53	0xbc3ec766	-0.01164422
54	0xbb909d91	-0.0044133146
55	0xba3459c1	-0.00068798295
56	0x3c9dd9d9	0.019268917
57	0x3b09df80	0.0021037757
58	0xbc88ef9f	-0.016715823
59	0x3cb3fd03	0.021971231
60	0xbcad114c	-0.021126412
61	0xbbeb5c6d	-0.007182649
62	0xbb8b7e2b	-0.0042569838
63	0xbb462611	-0.0030235092
64	0xbcba4656	-0.022738617
65	0x3d09ff7b	0.03369091
66	0xbc91d6cd	-0.01780262
67	0x3b11266c	0.0022148145
68	0xbb659dc4	-0.0035036663
69	0x3c2c6e39	0.010524326
70	0xbbc85fc9	-0.006114934
71	0xbba3d44f	-0.0049996744
72	0xbd2ba387	-0.041904
73	0x3d5d62f7	0.05404946
74	0xbc8a7dd9	-0.016905712
75	0xbca8413c	-0.020538919
76	0xbcb90f66	-0.02259035
77	0x3bc12871	0.0058947136
78	0xbd23e998	-0.040017694
79	0x3c9a9f7b	0.018874874
80	0x3bf227ac	0.007389983
81	0xbc90ec0d	-0.017690683
82	0xbcdd2743	-0.02699626
83	0xbb82a7d7	-0.003987293
84	0x3cc79bb6	0.024366241
85	0x3acafeab	0.0015487274
86	0xbc8a31d3	-0.016869461
87	0xbc6bac29	-0.014384308
88	0x3b96cb44	0.004601868
89	0xbd061c38	-0.032741755
90	0x3b2acfb6	0.0026063747
91	0xbc95225e	-0.018204864
92	0x3bbe89dc	0.005814774
93	0xbc305c83	-0.010764244
94	0xbc0ce33f	-0.008599102
95	0x3c3c88e8	0.01150725
96	0x3ccfac12	0.025350604
97	0x3c524060	0.012832731
98	0xbd3c1c12	-0.045925207
99	0x3c8b1549	0.016977923
100	0x3d5d67a5	0.05405392
101	0x3c12b710	0.008954778
102	0x3c705caa	0.01467053
103	0x3cf146ca	0.0294527
104	0x3ce7bc60	0.028288066
105	0x3bdee6ea	0.0068024294
106	0x3bbaa113	0.005695471
107	0xbcd0a329	-0.025468426
108	0xbcff335e	-0.031152423
109	0xbcec18cb	-0.028820416
110	0x3d196920	0.03745377
111	0x3d2e828c	0.042604968
112	0xbca6239b	-0.02028065
113	0xbc916162	-0.017746631
114	0xbc5a5623	-0.013326201
115	0x3c4e6cbf	0.012599169
116	0x3cb00b5f	0.021489797
117	0xbcfb4e03	-0.030676847
118	0x3d18a849	0.037269864
119	0x3c55e2ca	0.013054559
120	0xbd21f40f	-0.039539393
121	0xbd48c9ae	-0.04902046
122	0x3d063044	0.032760873
123	0x3727b292	9.995552e-06
124	0xbcb6c469	-0.022310453
125	0x3c779c90	0.015113011
126	0x3ca0b431	0.019617172
127	0x3bed9131	0.007249974
128	0xbc613c4f	-0.013747289
129	0xbca4cd0c	-0.020117305
130	0x3c4bcc98	0.012438916
131	0x3c2f962f	0.010716959
132	0xbcf2851d	-0.029604489
133	0x3b813f3f	0.003944307
134	0x3b8d8da9	0.0043198657
135	0x3b036f04	0.0020055184
136	0xbc96c0fe	-0.018402573
137	0xbd020825	-0.03174605
138	0xbc288e52	-0.010287838
139	0xbcdef70f	-0.027217416
140	0x3c8da520	0.017290652
141	0x3c9ad861	0.018902006
142	0xbd6fba69	-0.058527384
143	0xbd044247	-0.03228977
144	0xbc7dc847	-0.015489644
145	0xbbd64e1c	-0.006540073
146	0x3cad00c5	0.021118531
147	0xbc395797	-0.011312387
148	0x3d10e38e	0.035373263
149	0xbcffeb0d	-0.03124001
150	0x3cb2c5d6	0.021822851
151	0x3b60d270	0.0034305118
152	0x3b04af89	0.0020246229
153	0xbb94aaa2	-0.0045369426
154	0x3b8cb88e	0.0042944616
155	0xbc57537e	-0.013142465
156	0xbc8e5c3e	-0.017377969
157	0xbd1a9367	-0.03773823
158	0x3d4bf99d	0.049798597
159	0xbb82f252	-0.003996172
160	0xba741432	-0.00093108707
161	0x3cb194b5	0.021677354
162	0xbd2316d0	-0.039816678
163	0x3c83b2b4	0.016076423
164	0xbcda9a53	-0.026684916
165	0x3cb09170	0.021553725
166	0xbca13f3b	-0.019683471
167	0xbc86ad14	-0.016439952
168	0x3c2c5260	0.010517687
169	0x3d4f3302	0.050585754
170	0xbce7c105	-0.028290281
171	0xbd121d9f	-0.03567278
172	0x3ad9bb86	0.0016611672
173	0x3c6b3ee1	0.014358253
174	0x3b0cd482	0.002148897
175	0xbbf63f32	-0.0075148577
176	0x3c920000	0.017822266
177	0xbc6f90ef	-0.014621957
178	0x3ad0f828	0.0015943097
179	0x3bf5ae6b	0.007497599
180	0x3c58be30	0.013228938
181	0xbb7d8646	-0.003868477
182	0x3b4d6bc1	0.0031344744
183	0xbc4be56d	-0.012444836
184	0x3c194390	0.009354487
185	0xbceef823	-0.029171055
186	0x3cceca58	0.02524297
187	0xbc9d4ebc	-0.019202583
188	0x3bafbf8f	0.0053634117
189	0x3d16c46c	0.036808416
190	0xbccc64d1	-0.024950417
191	0x3cbb9026	0.022895884
192	0xbbb22302	-0.005436302
193	0xbd0affe0	-0.033935428
194	0x3bce86af	0.0063026766
195	0xbd2a9799	-0.04164848
196	0xbd2e2621	-0.04251683
197	0xbc9254e4	-0.017862745
198	0x3d000d1f	0.031262513
199	0x3b524e2b	0.0032090049
200	0x3ceeadd2	0.029135618
201	0xbc9e7350	-0.019342095
202	0x3c8cfcdb	0.017210415
203	0xbd39549d	-0.04524671
204	0xbbb43f8f	-0.005500741
205	0xbc9a3896	-0.01882581
206	0xbb781797	-0.0037855858
207	0xbc7920ec	-0.015205603
208	0x3d147436	0.03624364
209	0x3b6c0e90	0.0036019422
210	0x3be01e3c	0.0068395417
211	0x3c6e560a	0.0145468805
212	0x3c4adb17	0.012381337
213	0x3d1903e5	0.03735723
214	0x3c26eec7	0.010188765
215	0x3c1fda83	0.009756687
216	0xbced173b	-0.028941741
217	0xbbf377ac	-0.0074300375
218	0x3bccbafd	0.0062478767
219	0xbc443275	-0.0119749205
220	0x3d31bf68	0.04339543
221	0x3acf4f12	0.0015816411
222	0xbd21cccb	-0.039501946
223	0x3d0d9c1f	0.034572717
224	0x3cd4e4eb	0.025988063
225	0xbcca599a	-0.024700928
226	0xbca6dd05	-0.020369062
227	0x3c4596b6	0.012059858
228	0x3d36d450	0.04463607
229	0x3c9e2cb8	0.019308433
230	0x3ca5a829	0.020221787
231	0xbba239e7	-0.00495075
232	0xbca72b54	-0.020406403
233	0xbd5b23a4	-0.053500786
234	0x3bb047b8	0.0053796433
235	0x3d287c61	0.041134242
236	0xbc019419	-0.007908844
237	0x3c33705d	0.010952082
238	0xbccaafa7	-0.02474196
239	0x3c2be2d5	0.010491093
240	0x3b171767	0.002305472
241	0x3c4a7ec0	0.012359321
242	0x3caca69b	0.021075537
243	0x3c1af822	0.009458574
244	0x3d352421	0.04422391
245	0x3cccd936	0.025005918
246	0x3bd89e8f	0.0066106985
247	0xbd2b1888	-0.04177144
248	0x3cfaf390	0.030633718
249	0xbbe419e7	-0.0069610956
250	0xbbd18f46	-0.0063952534
251	0x3d072eb5	0.033003528
252	0xbc502acc	-0.012705516
253	0xbc9bdeea	-0.019027192
254	0xba8a43b2	-0.0010548739
255	0x3d10a04d	0.035309125

a2c_network.actor_mlp.2.weight f4 [128, 256]
0	0x3e154f5c	0.14581054
1	0x3bb616e8	0.00555693
2	0x3d42e6ff	0.047583576
3	0x3d071ff4	0.032989457
4	0x3d2e0238	0.042482585
5	0x3c42cd3e	0.011889754
6	0xbda58ba1	-0.08083273
7	0x3cfe5579	0.031046616
8	0x3e1ae03c	0.15124601
9	0x3cc76322	0.024339262
10	0xbd4c79c9	-0.04992083
11	0x3dac4cab	0.08413061
12	0x3e09f28e	0.13471434
13	0x3d2c382a	0.04204575
14	0xbdf9ad39	-0.12191243
15	0xbd862c68	-0.065514386
16	0xbc0116d4	-0.007878978
17	0x3d9ad318	0.07559794
18	0x3d80f252	0.06296219
19	0xbddd4e5d	-0.10805962
20	0x3d2e36fd	0.04253291
21	0x3d8791b2	0.06619586
22	0xbde2daa7	-0.11076861
23	0xbe2f3704	-0.1711083
24	0xbbcc2302	-0.006229759
25	0xbc93ae49	-0.018027442
26	0xbe1df379	-0.15424909
27	0x3d936afa	0.071981385
28	0x3d17683b	0.036964636
29	0xbdd2e63d	-0.10297821
30	0x3d454a1f	0.04816639
31	0xbd805ae4	-0.06267336
32	0xbd7d6cb3	-0.06187124
33	0x3cc9a80f	0.02461627
34	0xbdc1f5a1	-0.09470678
35	0xbd709d84	-0.05874397
36	0xbd5ed9b7	-0.054406848
37	0xbdf728c1	-0.1206832
38	0xbcb2ec9d	-0.021841342
39	0xbc37b715	-0.011213084
40	0xbe1ee2a5	-0.15516146
41	0x3dff1c5c	0.12456581
42	0xbd3784cf	-0.04480439
43	0x3d3104c3	0.04321743
44	0xbca7df79	-0.020492302
45	0xbda1f598	-0.079081714
46	0xbd582dc1	-0.05277801
47	0xbab5e823	-0.0013878386
48	0x3de0368a	0.109479025
49	0xbd817e4f	-0.063229196
50	0x3d1f75f9	0.038930867
51	0xbc9d87cf	-0.019229798
52	0xbd289413	-0.04115684
53	0x3dcc8b79	0.0998754
54	0x3d76d37a	0.060260274
55	0xbcbcf74a	-0.023067135
56	0xbd989500	-0.074502945
57	0x3d4f0c89	0.050549064
58	0x3c8bcb52	0.017064724
59	0x3d290228	0.041261822
60	0x3d686079	0.05673263
61	0x3d9d2478	0.076729715
62	0x3d09cc43	0.033642065
63	0xbd24f457	-0.040272083
64	0x3cd4daf0	0.025983304
65	0xbd772b61	-0.060344104
66	0x3db70aab	0.08937582
67	0x3e1cdbf9	0.15318288
68	0xbd41503f	-0.04719567
69	0x3d1669fd	0.036722172
70	0xbdbda619	-0.09260196
71	0x3c46a240	0.012123644
72	0x3d8dd668	0.0692566
73	0x3df24e4b	0.118313394
74	0xbd0c8177	-0.034303155
75	0x3be9489e	0.0071192523
76	0x3c94ea56	0.018178146
77	0xbdaf8352	-0.08569969
78	0xbc09071a	-0.00836351
79	0x3c45d617	0.012074969
80	0xbde0ee55	-0.10982958
81	0x3db572b7	0.08859771
82	0xbd9e87b6	-0.077407286
83	0x3b83686c	0.004010251
84	0x3d7e613b	0.062104445
85	0xbe388105	-0.18017967
86	0xbcc16bd2	-0.023610983
87	0x3d2fefe9	0.042953406
88	0xbd1382e4	-0.0360135
89	0xbd6c0fd4	-0.057632282
90	0x3d50020a	0.050783195
91	0x3d49a526	0.049229763
92	0x3c196dc3	0.009364548
93	0xbb1522a4	-0.0022756243
94	0x3d466bce	0.048442654
95	0xbe04c816	-0.12966952
96	0x3ca24f02	0.019813064
97	0xbd50b964	-0.050958052
98	0x3d34419e	0.04400789
99	0x3d16afc2	0.03678871
100	0x3d81f06f	0.06344687
101	0xbdae9760	-0.08524966
102	0xbd70bd9c	-0.058774576
103	0xba098da8	-0.00052472437
104	0xbc0579f1	-0.008146749
105	0xbc0bded5	-0.008537014
106	0xbc992736	-0.018695455
107	0xbe0b3fb3	-0.13598518
108	0x3c402342	0.011727156
109	0x3cd585cc	0.026064776
110	0x3e12284b	0.14273183
111	0xbcbd640e	-0.023118999
112	0x3daef89b	0.085435115
113	0x3d4ba3e4	0.049716845
114	0x3d16e12f	0.036835846
115	0xbd64ba87	-0.05584195
116	0xbe15a91b	-0.1461529
117	0x3e119fc9	0.1422111
118	0x3ccaf535	0.024775127
119	0xbd9a7895	-0.075425304
120	0xbc793b87	-0.015211946
121	0x3d3ea90b	0.04654793
122	0x3db6566b	0.08903202
123	0xbd1e0263	-0.038576495
124	0x3d74ad97	0.05973586
125	0xbca14118	-0.01968436
126	0x3c860eda	0.016364504
127	0x3c32c261	0.010910601
128	0xbd781099	-0.060562704
129	0xbdced7f9	-0.10099787
130	0x3d3a4545	0.045476217
131	0x3c7bfbbd	0.015379843
132	0xbb93bb9d	-0.004508449
133	0xbc367617	-0.011136553
134	0xbce26d9a	-0.027640153
135	0x3e05ea28	0.13077605
136	0x3dbe9435	0.09305612
137	0x3d74d5f2	0.059774347
138	0xbd21dbe0	-0.03951633
139	0xbc86da1d	-0.016461426
140	0xbbf77eab	-0.007552942
141	0x3ca74d5b	0.020422628
142	0x3de800bb	0.11328264
143	0xbdf8e493	-0.12152972
144	0x3c615715	0.013753672
145	0xbd51fa70	-0.051264226
146	0xbd427ea2	-0.047484048
147	0xbd3d0890	-0.046150744
148	0xbdf4fbd7	-0.11962097
149	0x3ccf67a5	0.025317976
150	0x3cba3f91	0.022735389
151	0xbb76be4f	-0.0037650054
152	0x3d9f022d	0.07764087
153	0x3ce0d427	0.027444912
154	0xbd93a862	-0.07209851
155	0x3d3e63a8	0.04648176
156	0x3dd9fe00	0.1064415
157	0x3d2b7da9	0.041867886
158	0xbd19e6f1	-0.03757376
159	0xbd27066c	-0.04077761
160	0x3d39f139	0.045396063
161	0x3c9a8355	0.018861452
162	0x3cdbb3e9	0.026819186
163	0xbda4bd54	-0.08043924
164	0xbd9fb6aa	-0.07798512
165	0xbdcffc46	-0.10155539
166	0x3df5149f	0.11966824
167	0x3d82fbf6	0.06395714
168	0x3c641d59	0.013923013
169	0xbd0cd079	-0.034378503
170	0x3d16d9bd	0.036828745
171	0x3d4f20fe	0.050568573
172	0x3d19c880	0.037544727
173	0xbcbeeb60	-0.023305595
174	0xbdede84d	-0.116165735
175	0x3d466680	0.048437595
176	0xbcd56a81	-0.026051762
177	0x3cd4f8c0	0.02599752
178	0x3d694668	0.05695191
179	0x3d491f60	0.049102187
180	0xbd9893a2	-0.07450034
181	0xbddaf0fc	-0.10690495
182	0xbca3bfaa	-0.019988853
183	0xbe0aec54	-0.13566715
184	0xbd4d1af2	-0.050074525
185	0x3d576790	0.052589
186	0xbd7d2c04	-0.061809555
187	0x3dbc3b87	0.091910414
188	0xbd655ceb	-0.055996817
189	0xbccaaabb	-0.024739614
190	0xbd651efa	-0.055937745
191	0xbd56a247	-0.052400853
192	0xbe11aed8	-0.14226854
193	0x3d8078db	0.06273051
194	0xbd174b29	-0.036936913
195	0xbd29a202	-0.04141427
196	0x3d0d0323	0.03442682
197	0x3cfd4073	0.03091452
198	0xbd4b75bb	-0.049672823
199	0xbd8edfbc	-0.06976268
200	0x3c7baa53	0.015360433
201	0xbdaedf54	-0.0853869
202	0xbda154e8	-0.07877523
203	0x3c2b211b	0.010444905
204	0xbceb63e5	-0.028734157
205	0x3d856a9f	0.06514477
206	0x3b7ca8ee	0.0038552838
207	0xbd616b80	-0.05503416
208	0x3be56aa2	0.007001237
209	0xbe08f6d1	-0.13375403
210	0xbd51892e	-0.051156215
211	0x3db50683	0.08839133
212	0xbe3291b5	-0.17438395
213	0xbde180ad	-0.11010871
214	0x3cf005f4	0.029299714
215	0x3c9cfc84	0.019163378
216	0xbb3d93d3	-0.0028927221
217	0xbb2b062c	-0.0026096208
218	0xbd37be6a	-0.044859327
219	0x3d9bdc51	0.076103814
220	0x3caac70d	0.020846868
221	0x3bb2a8a8	0.0054522343
222	0x3d71ca2e	0.059030704
223	0xbc0f933a	-0.008763129
224	0xbd3601d8	-0.044435352
225	0x3dff5334	0.124670416
226	0x3c6f100a	0.014591226
227	0xbd1b1e11	-0.03787047
228	0xbc91b96b	-0.01778861
229	0x3d872909	0.06599624
230	0xbd03c70e	-0.032172255
231	0x3e016cd0	0.12639165
232	0x3d9e6e94	0.07735935
233	0x3d9b29b8	0.075763166
234	0x3db3f2b5	0.08786527
235	0x3cc237d8	0.023708269
236	0x3caeaf23	0.021323746
237	0x3cf54504	0.029940136
238	0xbb5d6aec	-0.0033785654
239	0xbc92856a	-0.017885882
240	0xbd2367d6	-0.039893948
241	0xbd2c1837	-0.04201528
242	0x3d985c7e	0.074395165
243	0x3ab0274d	0.0013439447
244	0x3c0644c3	0.008195105
245	0x3d239324	0.039935246
246	0xbc51b380	-0.012799144
247	0x3e094e1b	0.13408701
248	0x3ba7c9f2	0.0051205093
249	0xb9ed3684	-0.0004524478
250	0xbe0a87ed	-0.13528414
251	0x3df0fce2	0.117669836
252	0xbd38b78d	-0.045096923
253	0x3d81c6f2	0.06336774
254	0xbdc29e01	-0.09502793
255	0xbdef2bef	-0.116783015

a2c_network.actor_mlp.2.bias f4 [128]
0	0xbc670f12	-0.014102714
1	0xbbd5a0bc	-0.006519405
2	0xbd59f986	-0.05321648
3	0xbd550d55	-0.052014668
4	0x3cc7dd7f	0.02439761
5	0xbcbbd4bc	-0.022928588
6	0xbc3ddb49	-0.011587926
7	0x3befeaa4	0.0073216725
8	0xbda25249	-0.07925851
9	0xbca16730	-0.019702524
10	0xbd1c84bc	-0.038212523
11	0xbaf3c360	-0.0018597655
12	0xbd2ae080	-0.041718006
13	0x3c9ece71	0.019385548
14	0xbbc3f7a8	-0.0059804507
15	0xbb93aa54	-0.0045063887
16	0x3b5d3661	0.0033754336
17	0xbd35f89d	-0.04442655
18	0xbb5c6773	-0.0033630996
19	0x3c09564d	0.008382392
20	0x3c726225	0.014793907
21	0xbdc14c19	-0.094383426
22	0x3c63e310	0.013909116
23	0xbc59290b	-0.013254414
24	0xbb8128df	-0.00394164
25	0x3d17782f	0.03697985
26	0x3c2ab94f	0.010420158
27	0x3c81e8c3	0.01585806
28	0x3c04f4ff	0.008115052
29	0xbc503812	-0.012708681
30	0x3c1fa5f2	0.009744154
31	0xbc0e09ba	-0.008669311
32	0x3c29595a	0.0103362445
33	0xbc806c38	-0.015676603
34	0xbd3dffae	-0.046386413
35	0x3abf8d42	0.0014614242
36	0xbc4c972c	-0.012487214
37	0xbce71c25	-0.028211663
38	0x3d04935e	0.032367103
39	0xbccbcbfe	-0.024877544
40	0x3bc774b4	0.00608691
41	0xbc2b3439	-0.010449463
42	0x3b7148dd	0.0036817112
43	0xbcb6824e	-0.022278931
44	0x3c998e91	0.018744739
45	0xbcdd4daf	-0.027014581
46	0x3cb60d64	0.022223182
47	0xbc07c53b	-0.0082867695
48	0xbc1f7ced	-0.0097343745
49	0xbc2de921	-0.010614664
50	0xbcb995fe	-0.02265453
51	0x3b8154b9	0.0039468673
52	0x3bb89ff3	0.005634302
53	0xbc85e3b1	-0.016343923
54	0xbce9b04a	-0.028526444
55	0xbcb2c9fb	-0.021824827
56	0xbcfc7686	-0.030818235
57	0xbd17b8b7	-0.037041392
58	0x3d3bb571	0.045827333
59	0x3c8ee1f7	0.017441733
60	0xbcaf91ba	-0.021431793
61	0xbc7a7ee9	-0.015289047
62	0xbd01c242	-0.0316794
63	0xbcd5b047	-0.026085032
64	0x3bda2e0c	0.0066583212
65	0xbd1a829c	-0.037722215
66	0xbc3d952b	-0.011571209
67	0xbc1b0a52	-0.00946291
68	0x3c26bfe7	0.010177589
69	0xbc501f04	-0.012702707
70	0xbd5bd78e	-0.053672366
71	0xbb15b096	-0.002284085
72	0xbcdcb56d	-0.02694198
73	0xbd388d8f	-0.045056876
74	0x3bd3042e	0.0064397072
75	0xbc44286e	-0.01197253
76	0xbd8a1962	-0.06743123
77	0xbc4d7733	-0.012540626
78	0xbc85cdc7	-0.016333474
79	0xbc7c7afe	-0.015410183
80	0xbd255faf	-0.040374454
81	0x3c175ed2	0.0092389155
82	0xbc84b951	-0.016201647
83	0x3cd9871a	0.02655368
84	0xbb22de0e	-0.0024851593
85	0x3c9c0a5c	0.019047908
86	0x3be45ce8	0.006969083
87	0x3b85d30a	0.0040839957
88	0x3cf5b361	0.029992761
89	0x3bbb3422	0.005713002
90	0xbd3f12f3	-0.04664893
91	0x3c95c049	0.018280165
92	0xbd00558a	-0.031331576
93	0xbc621b87	-0.013800508
94	0xbd082a68	-0.033243567
95	0x3c22e1c3	0.009941521
96	0xbc4dc05b	-0.012558068
97	0xbc3406b9	-0.010987931
98	0xbd26b0ab	-0.040695827
99	0xbd2c12b0	-0.04201001
100	0xbcd92b51	-0.026509913
101	0xbca7a71f	-0.020465432
102	0x3a4ad76d	0.00077377894
103	0xbd3e74b0	-0.046498
104	0xbc5e1ba1	-0.013556392
105	0xbc0069bc	-0.007837709
106	0xbacbfc53	-0.0015562869
107	0x3ca4cf62	0.02011842
108	0x3c407f70	0.0117491335
109	0xbb8d2e22	-0.004308478
110	0xbd383753	-0.044974636
111	0x3ca0b446	0.019617211
112	0xbd238599	-0.03992233
113	0xbbcf4608	-0.006325487
114	0x3c29c219	0.010361218
115	0xbcd01abd	-0.025403375
116	0xbc37ea43	-0.011225286
117	0xbc56c241	-0.013107837
118	0xbc907ec0	-0.017638564
119	0xbcd71262	-0.026253883
120	0xb9c58f93	-0.0003768174
121	0x3b91ea95	0.004453013
122	0xbda1a1c5	-0.07892183
123	0x381b690b	3.705271e-05
124	0xbcf19c0a	-0.02949335
125	0x3c89f677	0.016841156
126	0xbd0074ba	-0.03136132
127	0xbca2abfd	-0.019857401

a2c_network.actor_mlp.4.weight f4 [128, 128]
0	0x3cd727d6	0.026264112
1	0xbda6512e	-0.081209525
2	0xbd45d6c7	-0.04830053
3	0xbe49ac1e	-0.19694564
4	0xbdc5070a	-0.09620483
5	0xbe438d00	-0.19096756
6	0xbd850cca	-0.0649658
7	0xbda65cd5	-0.08123175
8	0xbbc22579	-0.0059248772
9	0xbe48f88d	-0.19626065
10	0x3de57b96	0.11205213
11	0x3c52dad1	0.012869553
12	0x3c42346e	0.0118533205
13	0xbe0bc147	-0.13647948
14	0xbd7a7897	-0.06115016
15	0x3cc5a2d0	0.024125487
16	0xbbc84445	-0.006111654
17	0x3d65dff0	0.056121767
18	0x3e5851d2	0.21124962
19	0xbd1f093a	-0.03882716
20	0xbdaf2a73	-0.085530184
21	0x3d6f4518	0.058415502
22	0x3dc471ab	0.09591993
23	0x3e17cf1f	0.14825104
24	0x3ce1f6f8	0.027583584
25	0x3c99ddfa	0.018782604
26	0xbd2f965f	-0.042868014
27	0x3e8b912b	0.27259192
28	0xbbe7b10a	-0.0070706652
29	0xbd93ad0c	-0.072107404
30	0x3d2528f4	0.04032226
31	0xbdf0f0d2	-0.11764683
32	0x3d8ab0a9	0.067719765
33	0xbdb5c888	-0.08876139
34	0x3e634aff	0.22196577
35	0x3d9a8fb0	0.075469375
36	0xbd522690	-0.051306307
37	0x3cce3f3c	0.025176637
38	0xbde68dc2	-0.11257507
39	0x3dc8b902	0.098009124
40	0xbda03d74	-0.07824221
41	0x3dcb4c4f	0.09926664
42	0xbd10938a	-0.035296954
43	0x3dc8ae86	0.09798913
44	0xbc2255e1	-0.00990817
45	0xbd13180b	-0.0359116
46	0x3ca74b38	0.02042161
47	0xbd9e612e	-0.07733379
48	0x3cef4be3	0.02921099
49	0xbdf96fba	-0.12179513
50	0x3d89a7d9	0.067214675
51	0x3e7641a0	0.24048471
52	0x3cb638d4	0.022243895
53	0xbc786b1d	-0.015162257
54	0x3d4ff784	0.05077316
55	0x3c1ce7bc	0.009576734
56	0xbc0538f8	-0.008131258
57	0xbdcbb604	-0.09946826
58	0xbd178d82	-0.037000187
59	0xbdc30dee	-0.09524141
60	0xbddcc6fd	-0.107801415
61	0x3c675f2d	0.014121813
62	0xbe24799d	-0.16062017
63	0x3c1cfa7c	0.0095812045
64	0x3c3a8c24	0.011385951
65	0x3d9d25c6	0.0767322
66	0xbd978326	-0.073980615
67	0xbd88978b	-0.066695295
68	0xbd027a75	-0.031855065
69	0xbdbdbe93	-0.09264865
70	0x3e00064a	0.12502399
71	0xbd933f7a	-0.071898416
72	0x3d8e9011	0.06961072
73	0x3d98461d	0.07435248
74	0xbdc3181c	-0.09526083
75	0xbdba9449	-0.091103144
76	0x3c9707ce	0.018436339
77	0xbde4d3c6	-0.11173205
78	0x3dddf49c	0.10837671
79	0x3dcd816a	0.100344494
80	0x3b7094a1	0.0036709683
81	0xbd775904	-0.060387626
82	0x3e00fe80	0.12597084
83	0x3c92fdd0	0.017943293
84	0x3dbaa24c	0.09112987
85	0x3d0d6c40	0.034527063
86	0xbdaa853c	-0.08326194
87	0xbd0ed204	-0.034868255
88	0xbd4a54ea	-0.049397387
89	0xbd49922e	-0.049211673
90	0xbca48174	-0.02008126
91	0xbe092f66	-0.13396987
92	0x3d4eb8a1	0.050469045
93	0xbe815332	-0.25258785
94	0x3a5492f0	0.00081090536
95	0x3d394ab2	0.04523725
96	0xbb9cb345	-0.004782113
97	0x3dd9fe04	0.10644153
98	0x3cb6d0e1	0.022316398
99	0xbdd7a8de	-0.10530256
100	0xbdb9f070	-0.09079063
101	0xbe1b25f9	-0.15151204
102	0x3d0051b7	0.03132793
103	0x3d68801b	0.056762796
104	0xbd47b999	-0.048760984
105	0x3ca25e97	0.019820495
106	0xbd0ed07c	-0.034866795
107	0xbd9bdfa8	-0.076110184
108	0xbb97d254	-0.0046332274
109	0xbdaae40b	-0.08344277
110	0xbe4ae47d	-0.19813724
111	0xbe54e55a	-0.20790616
112	0xbe1556b5	-0.14583857
113	0xbbc30d87	-0.0059525403
114	0xbddb6391	-0.1071235
115	0xbd0a6ac6	-0.033793233
116	0xbe0b08e3	-0.13577609
117	0x3e0b828e	0.13624021
118	0x3df26782	0.11836149
119	0x3c031637	0.008000902
120	0x3da6d83d	0.08146713
121	0x3d8ff80e	0.070297346
122	0xbd45b2c1	-0.048266176
123	0x3db5d0a8	0.08877689
124	0xbd3cf3d7	-0.04613098
125	0xbd546d5b	-0.051862102
126	0xbdb53ed5	-0.08849875
127	0x3ac33bee	0.001489518
128	0xbd14fb49	-0.036372457
129	0xbcbe4a40	-0.023228765
130	0xbcd4458f	-0.025912074
131	0x3db573a6	0.08859949
132	0xbcc58309	-0.024110334
133	0xbce11210	-0.027474433
134	0x3d1b488b	0.03791098
135	0xbdcf3f94	-0.101195484
136	0x3d56d6f0	0.052451074
137	0xbd95748e	-0.07297622
138	0x3d4b5bf0	0.049648225
139	0xbe1c61b7	-0.1527165
140	0x3def6788	0.11689669
141	0xbd738a06	-0.0594578
142	0xbd6f3a74	-0.058405355
143	0xbd32676e	-0.04355567
144	0xbd4ad874	-0.049522832
145	0x3cf613d6	0.030038755
146	0x3b82fd2f	0.003997467
147	0xbc4f1438	-0.012639098
148	0xbbf34e44	-0.0074251015
149	0x3cdfc5bc	0.027315967
150	0xbd9ff97e	-0.07811259
151	0x3d2a50cc	0.04158096
152	0x3c958e4c	0.018256329
153	0xbdce4f25	-0.10073689
154	0xbd87956e	-0.06620298
155	0x3b9e77af	0.0048360447
156	0xbd2f662c	-0.042822048
157	0xbd927b52	-0.07152428
158	0x3dc82a59	0.09773702
159	0xbda2af1a	-0.07943554
160	0x3d05a6d9	0.03262982
161	0xba33f7fe	-0.0006865262
162	0x3d9091be	0.07059048
163	0xbd4e4496	-0.050358377
164	0x3c820aa0	0.015874207
165	0xbca3d8b3	-0.020000791
166	0xbcc65776	-0.024211626
167	0x3c48b2af	0.012249633
168	0x3be1ad4d	0.006887114
169	0x3d47035e	0.048587196
170	0xbc93313d	-0.017967815
171	0xbd8ac10c	-0.06775102
172	0xbd3e50ef	-0.046463903
173	0x3d41748c	0.04723029
174	0x3cbe601a	0.023239184
175	0xbdb6ae64	-0.08919981
176	0x3de94129	0.113893814
177	0xbc71cc78	-0.014758222
178	0xbd3e8d6f	-0.0465216
179	0xbc9db0ba	-0.019249309
180	0x3b803c8a	0.003913467
181	0x3d958c53	0.07302155
182	0x3e14484b	0.14480703
183	0xbdb9dc87	-0.090752654
184	0xbd169532	-0.036763377
185	0x3db33711	0.087507375
186	0x3de423ba	0.11139627
187	0x3bf9c71a	0.0076226117
188	0x3daf7669	0.08567507
189	0xbc0f36df	-0.00874111
190	0x3d9606a4	0.07325485
191	0x3caed553	0.021341955
192	0xbd70bf30	-0.05877608
193	0x3d9ec6bc	0.07752749
194	0x3d9ffa10	0.078113675
195	0x3daae108	0.083437026
196	0xbd63e707	-0.055640247
197	0xbd50af7b	-0.0509486
198	0x3cc339ef	0.023831336
199	0x3bf2f44f	0.0074143778
200	0x3ddc7272	0.10764016
201	0xbd8ecf22	-0.06973101
202	0x3c3ef971	0.011656151
203	0x3e0ec0ca	0.1394073
204	0x3d3ba6ff	0.045813557
205	0x3d9992f8	0.07498735
206	0xbcbb90d8	-0.022896215
207	0x3e38523d	0.18000121
208	0xbd8bd369	-0.06827433
209	0xbc683cbf	-0.014174639
210	0xbd9db3c5	-0.07700304
211	0xbd7f3a5a	-0.062311508
212	0x3a582394	0.00082450476
213	0x3d2e882f	0.042610344
214	0xbce0b7d1	-0.0274314
215	0xbdfe6d0c	-0.12423143
216	0x3d0b8349	0.03406075
217	0xbd85a74c	-0.0652605
218	0x3db99768	0.090620816
219	0x3b39de60	0.0028361306
220	0xbc6d1be0	-0.014471978
221	0x3d5bfb50	0.053706467
222	0xbdaf9eff	-0.08575248
223	0xbca5266e	-0.020159926
224	0x3cd97834	0.026546575
225	0xbd8da880	-0.069169044
226	0x3c20e07d	0.009819147
227	0x3e295c04	0.16539007
228	0xbda14b07	-0.078756385
229	0xbcb33be0	-0.021879137
230	0x3d536434	0.051609233
231	0xbd9387c6	-0.07203631
232	0xbdcc45c2	-0.09974243
233	0x3d8259d5	0.0636479
234	0x3d851a16	0.06499116
235	0xbc930672	-0.01794741
236	0xbdab8ede	-0.08376859
237	0xbd76c1c9	-0.0602434
238	0x3de6688e	0.11250411
239	0xbd7f1432	-0.06227512
240	0x3de4392f	0.111437194
241	0x3d1b9b5e	0.037989967
242	0x3d562d99	0.05228958
243	0x3c3319bf	0.010931431
244	0x3e087d41	0.1332903
245	0x3dffb863	0.12486341
246	0xbd888327	-0.0666564
247	0xbd57058b	-0.05249552
248	0xbd0606c2	-0.03272129
249	0x3d5e2c95	0.054241735
250	0xbdfb845b	-0.12281104
251	0x3d7c69cf	0.061624344
252	0xbda53118	-0.080660045
253	0xbd8659b7	-0.065600805
254	0x3d823460	0.06357646
255	0xbd3180b8	-0.043335646

a2c_network.actor_mlp.4.bias f4 [128]
0	0xbce82ac4	-0.028340705
1	0xbd85c782	-0.06532194
2	0x3d1c38b5	0.038140018
3	0x3c7f2787	0.015573389
4	0xbd9b60a3	-0.07586791
5	0xbdb28505	-0.08716778
6	0xbba98ca9	-0.0051742387
7	0xbca4e5f4	-0.020129181
8	0xba44c297	-0.0007505803
9	0xbd23b97b	-0.03997181
10	0xbde9c776	-0.11414997
11	0xbbb6f97e	-0.005583941
12	0xbbfae7c4	-0.007657023
13	0x3c00f579	0.007871025
14	0xbd9dfeef	-0.0771464
15	0xbd6d8455	-0.05798753
16	0x3d0da05c	0.03457676
17	0xbbf67426	-0.00752117
18	0xbcbbaa91	-0.02290848
19	0x3b0fbd81	0.0021933021
20	0xbd6236ad	-0.055227924
21	0xbd9e2e10	-0.077236295
22	0x3c962995	0.018330375
23	0xbdcad707	-0.099042945
24	0xbd4e301f	-0.05033886
25	0x3bb7f0a9	0.0056134057
26	0xbbf87c47	-0.0075831744
27	0xbd753f95	-0.05987509
28	0xba195287	-0.00058487843
29	0xbdd44133	-0.10363998
30	0x3d25a9f9	0.0404453
31	0x3c8d06a5	0.017215082
32	0xbcdfb0e1	-0.027306022
33	0x3c816ae1	0.015798034
34	0xbc10ca5b	-0.008837308
35	0xbd5595d1	-0.05214483
36	0xbd3a7ed5	-0.045531113
37	0x3cfa73e2	0.030572835
38	0xbd7c6626	-0.061620854
39	0xbcf5d500	-0.030008793
40	0xbd3f194f	-0.046654996
41	0xbd3811ac	-0.04493873
42	0x3caeb78c	0.021327756
43	0x3d6da501	0.058018688
44	0xbd81ddd4	-0.063411385
45	0xbd8b36fe	-0.06797598
46	0xbd5b24b3	-0.053501796
47	0xbd113194	-0.035447672
48	0xbb223e27	-0.0024756284
49	0xbccf9f3b	-0.025344482
50	0xbd8c5725	-0.06852559
51	0xbc664f13	-0.014056939
52	0x3c0f1c31	0.008734749
53	0x3d508845	0.050911207
54	0xbc9497de	-0.018138822
55	0x3da79952	0.081835404
56	0x3c8369f3	0.016041731
57	0x3aa1af3c	0.0012335549
58	0x3d4d2ffa	0.050094582
59	0x3d838d32	0.06423415
60	0x3ad495b4	0.0016218931
61	0x3d0ca52a	0.0343372
62	0xbdbb8375	-0.09155933
63	0xbc333791	-0.010938541
64	0x3c5f6e40	0.0136371255
65	0x3d7417bb	0.059592944
66	0xbcb78d89	-0.022406356
67	0xbc4c2f4d	-0.012462449
68	0xbd785c5c	-0.060634956
69	0xbcaaa189	-0.02082898
70	0xbd903101	-0.07040597
71	0x3d99fc9c	0.075188845
72	0xbd44a1f6	-0.04800602
73	0x3c86f3ec	0.016473733
74	0x3af97762	0.0019032771
75	0xbcd6e01c	-0.02622991
76	0xbc6ad103	-0.014332059
77	0x3b4cbec4	0.0031241635
78	0xbd3342ad	-0.04376476
79	0xbca86107	-0.020554079
80	0xbcbfb2ba	-0.023400653
81	0xbca0b830	-0.019619077
82	0xbd0e9798	-0.03481254
83	0xbd330862	-0.043709166
84	0x3b44dac5	0.0030037623
85	0x3c76cb7d	0.015063164
86	0xbdd0b326	-0.1019042
87	0xbe0692fa	-0.13142005
88	0xbc332b2f	-0.010935589
89	0xbc80191e	-0.015636977
90	0xbd3bdd20	-0.045865178
91	0xbd00adf9	-0.031415913
92	0x3c6a91b5	0.014316966
93	0xbca4dbf3	-0.020124411
94	0xbcad73b6	-0.02117334
95	0xbc8bce78	-0.017066225
96	0xbbee00c7	-0.0072632763
97	0xbd135666	-0.035971068
98	0xbdd5b0d4	-0.10434118
99	0xbd88ee91	-0.06686128
100	0xbd0a6b32	-0.033793636
101	0xbd412c24	-0.047161236
102	0xbdac313f	-0.084078304
103	0x3a836f76	0.0010027725
104	0xbdac14cc	-0.08402404
105	0xbcfdf0e9	-0.030998664
106	0xbbf99969	-0.007617165
107	0xbd34c8c4	-0.044136778
108	0xbd1fa17f	-0.038972374
109	0xbd3d4fc1	-0.046218637
110	0x3c867fc3	0.016418343
111	0xbc6cc520	-0.014451295
112	0x3d9e88f0	0.077409625
113	0xbdbf051c	-0.093271464
114	0xbd2ec32f	-0.04266661
115	0xbd108cdf	-0.035290595
116	0xbd2e2297	-0.042513456
117	0xbcc18648	-0.0236236
118	0xbd677a5b	-0.05651317
119	0x3d01d321	0.03169549
120	0xb9a1a31c	-0.0003082984
121	0x3d37a9f1	0.044839803
122	0x3c191c12	0.009345071
123	0xbd50e518	-0.05099973
124	0x3c4b2866	0.012399768
125	0xbc75c706	-0.015001064
126	0x3c05496d	0.008135182
127	0xbd6f2d0d	-0.058392573

a2c_network.value.weight f4 [1, 128]
0	0xbc09e18a	-0.008415589
1	0xbd1c8b24	-0.038218632
2	0xbd54a2f8	-0.05191323
3	0xbdd40b8a	-0.103537634
4	0xbd3554c6	-0.0442703
5	0xbc516da6	-0.01278249
6	0xbdc47d9c	-0.095942706
7	0xbdb85c82	-0.090020195
8	0xbd607d03	-0.05480672
9	0x3d5dcb86	0.054149173
10	0xbc582cb1	-0.013194249
11	0x3c2fa0e9	0.010719516
12	0x3b64fd5e	0.0034941058
13	0x3d4216fc	0.0473852
14	0xbc5da3b8	-0.013527803
15	0x3dbdf803	0.0927582
16	0x3d9fed64	0.078089505
17	0xbc65701d	-0.014003781
18	0x3c03c803	0.008043292
19	0x3e050431	0.1298988
20	0xbdd40cae	-0.10353981
21	0xbd857074	-0.06515589
22	0x3d760fce	0.060073666
23	0x3cb5ee81	0.022208454
24	0xbc799617	-0.015233538
25	0xbddf47fb	-0.10902401
26	0xbd17ab0c	-0.037028357
27	0xbe0deb98	-0.13859403
28	0xbe3a2ff9	-0.18182363
29	0x3d22c8d3	0.039742302
30	0xbcd59479	-0.026071774
31	0x3c17daca	0.009268472
32	0xbc6bd6d6	-0.014394483
33	0x3d5b2161	0.05349863
34	0xbd75d446	-0.060016893
35	0xbc8328c2	-0.016010646
36	0x3d39e856	0.04538759
37	0x3d6580b0	0.05603093
38	0xbcc36326	-0.023850989
39	0x3dc87c11	0.09789289
40	0xbcfab637	-0.030604465
41	0xbc2c4cda	-0.01051637
42	0x3da60574	0.08106509
43	0x3dcc91f1	0.099887736
44	0x3d27981a	0.04091654
45	0xbda26dd4	-0.07931104
46	0xbae6c1c4	-0.0017605354
47	0xbd8f2c9d	-0.06990931
48	0xbc2b6edf	-0.010463445
49	0x3e0c63c9	0.1370994
50	0x3c2a362a	0.01038889
51	0x3d16ccb6	0.03681632
52	0x3d7026c9	0.05863074
53	0x3d8a4bab	0.06752714
54	0x3d3fb21d	0.04680072
55	0x3d44e285	0.04806759
56	0x3d9615f2	0.073284045
57	0x3ce06f2d	0.027396763
58	0xbd042bde	-0.032268398
59	0x3c9b1a9f	0.018933592
60	0xbce41e36	-0.027846437
61	0xbc786585	-0.015160923
62	0x3c5c9777	0.013463846
63	0xbdc10290	-0.09424317
64	0xbcb75cca	-0.022383112
65	0xbd020268	-0.031740576
66	0x3d2cbf38	0.042174548
67	0xbb5b4c57	-0.003346225
68	0x3c5c2565	0.01343665
69	0xbd0da436	-0.034580432
70	0xbe11f8d7	-0.14255081
71	0x3dd5dc2a	0.104423836
72	0xbc361dea	-0.0111155305
73	0xbdaa5b37	-0.08318179
74	0xbc815c93	-0.015791213
75	0x3d78c176	0.060731374
76	0xbdc4b660	-0.09605098
77	0x3d9b15ad	0.07572494
78	0x3c723288	0.014782555
79	0xbdde4ce0	-0.108545065
80	0xbd958a52	-0.07301773
81	0xbdb98234	-0.090580374
82	0x3cb60793	0.022220409
83	0x3cb5490c	0.022129558
84	0x3b08e06e	0.0020885724
85	0xbcb973d3	-0.022638237
86	0xbc252dc0	-0.010081708
87	0xbcc7a228	-0.024369314
88	0x3d504690	0.050848544
89	0x3ca0e948	0.019642487
90	0xbcc96913	-0.024586236
91	0xbe66781f	-0.2250676
92	0x3d8bffac	0.06835875
93	0xbdf26265	-0.118351735
94	0x3d34c59d	0.04413377
95	0xbdb001f4	-0.085941225
96	0xbe657f98	-0.22411954
97	0xbd8a8353	-0.06763329
98	0x3be635f3	0.007025474
99	0xbd2ea8d6	-0.042641483
100	0x3d8f3e08	0.069942534
101	0x3e337b70	0.17527556
102	0xbda18f7c	-0.078886956
103	0x3ce0165b	0.02735441
104	0xbd2bff65	-0.04199161
105	0xbc7ed7d1	-0.015554384
106	0x3dad5b62	0.084646955
107	0xbdd668f8	-0.1046924
108	0xbd116f9c	-0.03550683
109	0xbd02c82d	-0.031929184
110	0xbd4bf46a	-0.04979364
111	0x3de076c0	0.1096015
112	0x3d555402	0.05208207
113	0xba99b859	-0.0011727914
114	0xbe3f8826	-0.1870428
115	0x3c2923c2	0.010323467
116	0xbd14e6df	-0.03635299
117	0x3d620cc4	0.055187955
118	0x3d074563	0.033025157
119	0xbdfb8988	-0.122820914
120	0x3dae01d1	0.0849644
121	0xbe098c07	-0.13432322
122	0x3dfa82f6	0.1223201
123	0xbd742686	-0.05960705
124	0x3dd4562a	0.10367997
125	0x3d77a9b8	0.06046459
126	0xbb73b2c2	-0.0037185405
127	0x3e063900	0.13107681

a2c_network.mu.weight f4 [10, 128]
0	0xbe00e00c	-0.12585467
1	0xbc917d3f	-0.017759917
2	0x3cbc1b4f	0.02296224
3	0x3df0c414	0.11756149
4	0x3d4b9096	0.049698435
5	0xbdb6b04b	-0.08920344
6	0xbd438133	-0.047730636
7	0xbd78ab94	-0.060710505
8	0xbd71fd08	-0.0590792
9	0xbda3e31b	-0.08002301
10	0xbdab58af	-0.083665244
11	0xbdbdb5d9	-0.092632
12	0xbd95ac4f	-0.07308256
13	0x3ac8bc05	0.0015314823
14	0xbbec3be0	-0.007209286
15	0x3d2c6fb5	0.04209872
16	0x3d015de0	0.031583667
17	0xbd3e4f6c	-0.04646246
18	0xbc877948	-0.016537324
19	0xbe04c149	-0.12964357
20	0xbdce568f	-0.100751035
21	0x3d0cfd4f	0.03442126
22	0xbd3ef611	-0.046621386
23	0xbcb0db67	-0.021588994
24	0x3d98013b	0.0742211
25	0xbadc29d6	-0.0016797136
26	0xbd46f233	-0.048570823
27	0x3d970998	0.07374877
28	0x3d5a7e52	0.053343125
29	0xbd238ed3	-0.03993113
30	0x3d132255	0.035921413
31	0xbc519a6f	-0.0127931675
32	0xbdf53455	-0.11972872
33	0xbd4dfdb9	-0.050290797
34	0xbc6b1e93	-0.014350551
35	0xbd8dcac1	-0.06923438
36	0xbce3b45c	-0.027795963
37	0x3d8f8e82	0.07009603
38	0x3d83bff0	0.064330935
39	0xbd5d4de5	-0.054029364
40	0x3b421164	0.0029612416
41	0xbca3cca7	-0.019995047
42	0xbd0807d7	-0.0332106
43	0xbc7c544d	-0.015400958
44	0x3d0a4224	0.033754483
45	0xbd1c5b15	-0.0381728
46	0x3bef8f72	0.007310801
47	0xbd1a4b81	-0.037669662
48	0x3d706734	0.058692172
49	0xbceff30e	-0.029290702
50	0xbdc61c59	-0.09673376
51	0xbdcd9057	-0.10037296
52	0xbdf16130	-0.11786115
53	0x3dcdbf87	0.100462966
54	0xbdc5b1e3	-0.0965307
55	0xbc900394	-0.017579831
56	0x3d573c19	0.052547548
57	0x3d308bef	0.0431022
58	0xbda92b92	-0.082602635
59	0x3db9f53e	0.09079979
60	0xbd05c35c	-0.032657012
61	0x3d7b458c	0.061345622
62	0xbd83c5ea	-0.064342335
63	0x3e18eb8d	0.14933605
64	0x3ce5838c	0.028016828
65	0x3bd5bbcc	0.0065226313
66	0x3c9fffcd	0.019531155
67	0xbd845f8a	-0.06463535
68	0xbdbe3d3c	-0.09289023
69	0x3de44545	0.111460246
70	0xbd7d0d16	-0.061780058
71	0x3dbcadd2	0.09212841
72	0x3c9ec14b	0.019379279
73	0x3da44ff4	0.08023062
74	0xbe009c24	-0.12559563
75	0x3d312e8f	0.043257292
76	0xbd335e5d	-0.043791164
77	0xbd084f73	-0.033278894
78	0xbc69daab	-0.014273326
79	0xbce67ca2	-0.028135601
80	0xbd6f4663	-0.058416735
81	0x3dc3fd77	0.09569829
82	0xbc004e28	-0.007831134
83	0xbd5eff65	-0.054442782
84	0x3cd41dd1	0.025893124
85	0xbd8abe3d	-0.06774566
86	0xbdacf5f7	-0.084453516
87	0xbda533f1	-0.08066548
88	0xbda97b17	-0.08275431
89	0xbc9fadce	-0.019492056
90	0x3c9f5f90	0.019454747
91	0x3cfabeaa	0.030608494
92	0x3b1c5bbe	0.0023858394
93	0x3cee27a4	0.029071636
94	0x3cfd2981	0.03090358
95	0x3db7502c	0.089508384
96	0x3c378986	0.011202222
97	0xbe408d02	-0.1880379
98	0xbdae83fb	-0.08521267
99	0xbd0d9c72	-0.034573026
100	0x3d0de242	0.034639604
101	0xbd1706f2	-0.036871858
102	0xbdd16baa	-0.102256134
103	0x3da337ba	0.079696134
104	0xbdb4b0f2	-0.08822812
105	0x3e081673	0.13289814
106	0xbdbbdbf5	-0.09172813
107	0x3c5fb808	0.013654716
108	0x3e37db91	0.17954852
109	0x3ccdc84d	0.025119925
110	0x3c1b0837	0.009462408
111	0x3d97be21	0.07409311
112	0xbd729d90	-0.059232295
113	0x3db0d28c	0.08633909
114	0xbd620b3e	-0.055186503
115	0x3cbfb4c5	0.023401627
116	0x3da33e9f	0.079709284
117	0x3b1c318d	0.0023833246
118	0xbcae4c97	-0.021276755
119	0xbdcba44e	-0.09943448
120	0x3d64648b	0.055759948
121	0xbdb0daaa	-0.08635457
122	0x3976b998	0.00023529527
123	0x3d813d12	0.06310476
124	0x3dc5acf9	0.096521325
125	0x3cdb6538	0.026781663
126	0x3dbbf10c	0.091768354
127	0xbce7b577	-0.028284771
128	0xbd5f2ce8	-0.054486185
129	0xbd1bb384	-0.038012996
130	0xbdf65bb1	-0.120292075
131	0xbd9d616d	-0.07684598
132	0xbe10696a	-0.14102712
133	0xbced0ba2	-0.028936211
134	0x3ca339ae	0.019924965
135	0x3d905ee4	0.07049349
136	0x3d17f867	0.03710213
137	0xbd584556	-0.0528005
138	0xbdec4a34	-0.115375906
139	0x3cb09ac5	0.021558175
140	0x3d3a3469	0.04546014
141	0x3e1adfd0	0.1512444
142	0xbdec6bb9	-0.11543984
143	0xbcb6f985	-0.022335777
144	0xbc9a8cac	-0.018865906
145	0xbdb1bf82	-0.08679105
146	0xbe57c579	-0.21071424
147	0xbd1f2bc9	-0.038860116
148	0xbbe04e50	-0.006845273
149	0xbda2d5b9	-0.079509206
150	0x3e0f4e87	0.139948
151	0xbda75a04	-0.08171466
152	0x3c0d2d71	0.008616791
153	0xbde2b565	-0.110697545
154	0x3d8323ec	0.06403336
155	0x3da7d484	0.08194831
156	0x3da5c5ce	0.08094369
157	0xbd6dd380	-0.05806303
158	0xbd4accfe	-0.049511902
159	0x3e4b98c9	0.19882502
160	0x3c749ebf	0.014930426
161	0xbd9aad01	-0.07552529
162	0x3db39ddb	0.08770343
163	0x3dc77b5c	0.09740326
164	0xbe32c76f	-0.1745889
165	0x3d8dcf77	0.069243364
166	0x3dab1a8a	0.08354671
167	0xbdfedaee	-0.12444101
168	0xbe00b498	-0.12568891
169	0x3ddc074e	0.10743581
170	0x3d92e171	0.07171906
171	0xbce17939	-0.027523624
172	0x3d79482e	0.06085985
173	0xbd597311	-0.05308825
174	0x3df279a8	0.1183961
175	0xbdc5a7ec	-0.09651169
176	0xbd8c011f	-0.06836151
177	0x3da3dc06	0.080009505
178	0xbdd968cd	-0.10615692
179	0xbcbd4b33	-0.023107147
180	0x3bac0caf	0.0052505354
181	0xbdb87b1a	-0.09007855
182	0xbc45d11c	-0.012073781
183	0x3d1de7d4	0.038551167
184	0x3e542f12	0.20721081
185	0xbe0f7c1f	-0.14012192
186	0x3da5b6e0	0.08091521
187	0x3ded2535	0.11579362
188	0xbd10bc2e	-0.035335712
189	0xbdd606e1	-0.10450531
190	0xbdba31f6	-0.090915605
191	0x3d5ef731	0.05443496
192	0x3dcd9f0b	0.10040101
193	0x3e16a84e	0.1471264
194	0xbd986696	-0.07441442
195	0x3c5060ea	0.012718419
196	0xbd6b5e4c	-0.057462975
197	0x3df88fad	0.12136779
198	0x3d389ba1	0.045070294
199	0x3d1ac552	0.037785836
200	0xbcc9c29a	-0.024628926
201	0xbd66b7ed	-0.05632775
202	0xbd4511e2	-0.048112758
203	0x3da0555e	0.078287825
204	0x3d38f933	0.04515953
205	0x3dbeaa96	0.093098804
206	0xbe0cc752	-0.1374791
207	0x3d159224	0.036516324
208	0x3deba27f	0.11505603
209	0x3e0ac47e	0.13551518
210	0x3d928479	0.071541734
211	0xbe38e8ea	-0.180576
212	0xbe2a5e18	-0.16637456
213	0x3d1ef127	0.0388042
214	0xbdf68919	-0.12037868
215	0xbe290d97	-0.1650909
216	0xbddf76c2	-0.10911323
217	0x3dd39531	0.103311904
218	0xbcef17b9	-0.029186117
219	0x3d11682f	0.035499748
220	0xbba899fc	-0.0051453095
221	0x3c7a7626	0.015286958
222	0xbbb48541	-0.005509049
223	0xbd6ddabc	-0.05806993
224	0x3cb2f600	0.021845818
225	0x3d753de5	0.05987348
226	0xbd190f41	-0.037368063
227	0xbe3533ed	-0.1769559
228	0xbc34ff0a	-0.011047134
229	0xbde4eec4	-0.111783534
230	0xbe0568d2	-0.13028267
231	0xbb8cb536	-0.004294063
232	0x3d47bd36	0.04876443
233	0xbe377228	-0.17914641
234	0x3dc6419f	0.09680485
235	0xbd48bcf8	-0.04900834
236	0x3c10ebb1	0.008845256
237	0xbcdb482a	-0.026767809
238	0x3da9648d	0.08271132
239	0xbc9c8be4	-0.019109674
240	0x3dd7bb2e	0.105337486
241	0xbb0c696b	-0.0021425139
242	0x3ca34833	0.019931888
243	0xbe683016	-0.22674593
244	0xbe049cdb	-0.1295046
245	0xbc2a5d33	-0.010398197
246	0x3c85e6ee	0.016345467
247	0x3e775324	0.2415281
248	0x3d0679b2	0.0328309
249	0xbd8d5584	-0.069010764
250	0x3d7f845b	0.062382083
251	0xbde23c42	-0.110466495
252	0xbbc536cb	-0.0060184947
253	0xbdfcd99e	-0.12346195
254	0xbdf3e150	-0.11908209
255	0x3db86662	0.09003903

a2c_network.mu.bias f4 [10]
0	0x3d9a234d	0.07526264
1	0x3dd69f1c	0.104795665
2	0xbc25cd4b	-0.010119746
3	0x3a72ba1e	0.0009259301
4	0xbe00e4dc	-0.12587303
5	0xbdd6cd12	-0.10488333
6	0xbd2c7383	-0.042102348
7	0xbd12a922	-0.03580583
8	0x3b9a3fe9	0.0047073257
9	0x3e04c05f	0.12964009

exp_avg f4 [10]
0	0xba2a2563	-0.00064905564
1	0xb9fe064d	-0.0004845135
2	0x3964959d	0.0002179951
3	0x38154ee0	3.5597826e-05
4	0xb96d184a	-0.0002261113
5	0x3a2a69f8	0.0006500776
6	0x388719f5	6.4421365e-05
7	0x39ef1993	0.00045604687
8	0xba6c9223	-0.00090244616
9	0xba18bce2	-0.00058264856

exp_avg_sq f4 [10]
0	0x378e5423	1.6966898e-05
1	0x37787ffc	1.4811751e-05
2	0x3775b3ef	1.4645032e-05
3	0x37812659	1.5395855e-05
4	0x37834492	1.5648347e-05
5	0x378158f9	1.541943e-05
6	0x37890a48	1.633646e-05
7	0x378f3ce5	1.7075285e-05
8	0x378c0523	1.6691693e-05
9	0x3788edaa	1.6323134e-05
